…
    downsample_rate: 16
    downsample_rate: 32
    downsample_rate: 32
    downsample_rate: 64
    coord_num: 4
    field_h: 60
    field_h: 84
    field_h: 120
    field_h: 168
    field_h: 240
    field_h: 336
    field_h: 480
    field_w: 40
    field_w: 56
    field_w: 80
    field_w: 112
    field_w: 160
    field_w: 224
    field_w: 360
    fg_threshold: 0.5
    resize_width: 1920
    resize_height: 576
    crop_width: 768
    crop_height: 576
    do_multiple_scale: true
    min_scale: 60
    max_scale: 480
    min_gt_height: 30
    shuffle: true
  }
}
layer {
  name: "conv1_1"
  type: "Convolution"
  bottom: "data"
  top: "conv1_1"
  convolution_param {
    num_output: 64
    pad: 1
    kernel_size: 3
  }
}
layer {
  name: "relu1_1"
  type: "ReLU"
  bottom: "conv1_1"
  top: "conv1_1"
}
layer {
  name: "conv1_2"
  type: "Convolution"
  bottom: "conv1_1"
  top: "conv1_2"
  convolution_param {
    num_output: 64
    pad: 1
    kernel_size: 3
  }
}
layer {
  name: "relu1_2"
  type: "ReLU"
  bottom: "conv1_2"
  top: "conv1_2"
}
layer {
  name: "pool1"
  type: "Pooling"
  bottom: "conv1_2"
  top: "pool1"
  pooling_param {
    pool: MAX
    kernel_size: 2
    stride: 2
  }
}
layer {
  name: "conv2_1"
  type: "Convolution"
  bottom: "pool1"
  top: "conv2_1"
  convolution_param {
    num_output: 128
    pad: 1
    kernel_size: 3
  }
}
layer {
  name: "relu2_1"
  type: "ReLU"
  bottom: "conv2_1"
  top: "conv2_1"
}
layer {
  name: "conv2_2"
  type: "Convolution"
  bottom: "conv2_1"
  top: "conv2_2"
  convolution_param {
    num_output: 128
    pad: 1
    kernel_size: 3
  }
}
layer {
  name: "relu2_2"
  type: "ReLU"
  bottom: "conv2_2"
  top: "conv2_2"
}
layer {
  name: "pool2"
  type: "Pooling"
  bottom: "conv2_2"
  top: "pool2"
  pooling_param {
    pool: MAX
    kernel_size: 2
    stride: 2
  }
}
layer {
  name: "conv3_1"
  type: "Convolution"
  bottom: "pool2"
  top: "conv3_1"
  convolution_param {
    num_output: 256
    pad: 1
    kernel_size: 3
  }
}
layer {
  name: "relu3_1"
  type: "ReLU"
  bottom: "conv3_1"
  top: "conv3_1"
}
layer {
  name: "conv3_2"
  type: "Convolution"
  bottom: "conv3_1"
  top: "conv3_2"
  convolution_param {
    num_output: 256
    pad: 1
    kernel_size: 3
  }
}
layer {
  name: "relu3_2"
  type: "ReLU"
  bottom: "conv3_2"
  top: "conv3_2"
}
layer {
  name: "conv3_3"
  type: "Convolution"
  bottom: "conv3_2"
  top: "conv3_3"
  convolution_param {
    num_output: 256
    pad: 1
    kernel_size: 3
  }
}
layer {
  name: "relu3_3"
  type: "ReLU"
  bottom: "conv3_3"
  top: "conv3_3"
}
layer {
  name: "pool3"
  type: "Pooling"
  bottom: "conv3_3"
  top: "pool3"
  pooling_param {
    pool: MAX
    kernel_size: 2
    stride: 2
  }
}
layer {
  name: "conv4_1"
  type: "Convolution"
  bottom: "pool3"
  top: "conv4_1"
  convolution_param {
    num_output: 512
    pad: 1
    kernel_size: 3
  }
}
layer {
  name: "relu4_1"
  type: "ReLU"
  bottom: "conv4_1"
  top: "conv4_1"
}
layer {
  name: "conv4_2"
  type: "Convolution"
  bottom: "conv4_1"
  top: "conv4_2"
  convolution_param {
    num_output: 512
    pad: 1
    kernel_size: 3
  }
}
layer {
  name: "relu4_2"
  type: "ReLU"
  bottom: "conv4_2"
  top: "conv4_2"
}
layer {
  name: "conv4_3"
  type: "Convolution"
  bottom: "conv4_2"
  top: "conv4_3"
  convolution_param {
    num_output: 512
    pad: 1
    kernel_size: 3
  }
}
layer {
  name: "relu4_3"
  type: "ReLU"
  bottom: "conv4_3"
  top: "conv4_3"
}
layer {
  name: "loss1_conv1"
  type: "Convolution"
  bottom: "conv4_3"
  top: "loss1_conv1"
  param {
    lr_mult: 1
    decay_mult: 1
  }
  param {
    lr_mult: 2
    decay_mult: 0
  }
  convolution_param {
    num_output: 512
    pad: 1
    kernel_size: 3
    weight_filler {
      type: "gaussian"
      std: 0.01
    }
    bias_filler {
      type: "constant"
    }
  }
}
layer {
  name: "loss_relu1"
  type: "ReLU"
  bottom: "loss1_conv1"
  top: "loss1_conv1"
}
layer {
  name: "LFCN_1_3x5"
  type: "Convolution"
  bottom: "loss1_conv1"
  top: "LFCN_1_3x5"
  param {
    lr_mult: 1
    decay_mult: 1
  }
  param {
    lr_mult: 2
    decay_mult: 0
  }
  convolution_param {
    num_output: 7
    weight_filler {
      type: "gaussian"
      std: 0.001
    }
    bias_filler {
      type: "constant"
    }
    pad_h: 2
    pad_w: 1
    kernel_h: 5
    kernel_w: 3
  }
}
layer {
  name: "detection_loss_1_3x5"
  type: "DetectionLoss"
  bottom: "LFCN_1_3x5"
  bottom: "label_1_3x5"
  top: "loss_1_3x5"
  loss_weight: 0.9
  detection_loss_param {
    cls_num: 3
    coord_num: 4
    lambda: 0.5
    field_h: 60
    field_w: 40
    downsample_rate: 8
    bb_smooth: true
    field_whr: 2
    field_xyr: 2
    bg_threshold: 0.2
    bg_multiple: 2
    sample_mode: "random"
    pos_neg_weighted: true
  }
}
layer {
  name: "detection_accuracy_1_3x5"
  type: "DetectionAccuracy"
  bottom: "LFCN_1_3x5"
  bottom: "label_1_3x5"
  top: "accuracy_1_3x5"
  top: "boxiou_1_3x5"
  detection_accuracy_param {
    cls_num: 3
    coord_num: 4
    field_h: 60
    field_w: 40
    downsample_rate: 8
    field_whr: 2
    field_xyr: 2
  }
}
layer {
  name: "LFCN_1_5x7"
  type: "Convolution"
  bottom: "loss1_conv1"
  top: "LFCN_1_5x7"
  param {
    lr_mult: 1
    decay_mult: 1
  }
  param {
    lr_mult: 2
    decay_mult: 0
  }
  convolution_param {
    num_output: 7
    weight_filler {
      type: "gaussian"
      std: 0.001
    }
    bias_filler {
      type: "constant"
    }
    pad_h: 3
    pad_w: 2
    kernel_h: 7
    kernel_w: 5
  }
}
layer {
  name: "detection_loss_1_5x7"
  type: "DetectionLoss"
  bottom: "LFCN_1_5x7"
  bottom: "label_1_5x7"
  top: "loss_1_5x7"
  loss_weight: 0.9
  detection_loss_param {
    cls_num: 3
    coord_num: 4
    lambda: 0.5
    field_h: 84
    field_w: 56
    downsample_rate: 8
    bb_smooth: true
    field_whr: 2
    field_xyr: 2
    bg_threshold: 0.2
    bg_multiple: 2
    sample_mode: "random"
    pos_neg_weighted: true
  }
}
layer {
  name: "detection_accuracy_1_5x7"
  type: "DetectionAccuracy"
  bottom: "LFCN_1_5x7"
  bottom: "label_1_5x7"
  top: "accuracy_1_5x7"
  top: "boxiou_1_5x7"
  detection_accuracy_param {
    cls_num: 3
    coord_num: 4
    field_h: 84
    field_w: 56
    downsample_rate: 8
    field_whr: 2
    field_xyr: 2
  }
}
layer {
  name: "pool4"
  type: "Pooling"
  bottom: "conv4_3"
  top: "pool4"
  pooling_param {
    pool: MAX
    kernel_size: 2
    stride: 2
  }
}
layer {
  name: "conv5_1"
  type: "Convolution"
  bottom: "pool4"
  top: "conv5_1"
  convolution_param {
    num_output: 512
    pad: 1
    kernel_size: 3
  }
}
layer {
  name: "relu5_1"
  type: "ReLU"
  bottom: "conv5_1"
  top: "conv5_1"
}
layer {
  name: "conv5_2"
  type: "Convolution"
  bottom: "conv5_1"
  top: "conv5_2"
  convolution_param {
    num_output: 512
    pad: 1
    kernel_size: 3
  }
}
layer {
  name: "relu5_2"
  type: "ReLU"
  bottom: "conv5_2"
  top: "conv5_2"
}
layer {
  name: "conv5_3"
  type: "Convolution"
  bottom: "conv5_2"
  top: "conv5_3"
  convolution_param {
    num_output: 512
    pad: 1
    kernel_size: 3
  }
}
layer {
  name: "relu5_3"
  type: "ReLU"
  bottom: "conv5_3"
  top: "conv5_3"
}
layer {
  name: "LFCN_2_3x5"
  type: "Convolution"
  bottom: "conv5_3"
  top: "LFCN_2_3x5"
  param {
    lr_mult: 1
    decay_mult: 1
  }
  param {
    lr_mult: 2
    decay_mult: 0
  }
  convolution_param {
    num_output: 7
    weight_filler {
      type: "gaussian"
      std: 0.001
    }
    bias_filler {
      type: "constant"
    }
    pad_h: 2
    pad_w: 1
    kernel_h: 5
    kernel_w: 3
  }
}
layer {
  name: "detection_loss_2_3x5"
  type: "DetectionLoss"
  bottom: "LFCN_2_3x5"
  bottom: "label_2_3x5"
  top: "loss_2_3x5"
  detection_loss_param {
    cls_num: 3
    coord_num: 4
    lambda: 0.5
    field_h: 120
    field_w: 80
    downsample_rate: 16
    bb_smooth: true
    field_whr: 2
    field_xyr: 2
    bg_threshold: 0.2
    bg_multiple: 2
    sample_mode: "random"
    pos_neg_weighted: true
  }
}
layer {
  name: "detection_accuracy_2_3x5"
  type: "DetectionAccuracy"
  bottom: "LFCN_2_3x5"
  bottom: "label_2_3x5"
  top: "accuracy_2_3x5"
  top: "boxiou_2_3x5"
  detection_accuracy_param {
    cls_num: 3
    coord_num: 4
    field_h: 120
    field_w: 80
    downsample_rate: 16
    field_whr: 2
    field_xyr: 2
  }
}
layer {
  name: "LFCN_2_5x7"
  type: "Convolution"
  bottom: "conv5_3"
  top: "LFCN_2_5x7"
  param {
    lr_mult: 1
    decay_mult: 1
  }
  param {
    lr_mult: 2
    decay_mult: 0
  }
  convolution_param {
    num_output: 7
    weight_filler {
      type: "gaussian"
      std: 0.001
    }
    bias_filler {
      type: "constant"
    }
    pad_h: 3
    pad_w: 2
    kernel_h: 7
    kernel_w: 5
  }
}
layer {
  name: "detection_loss_2_5x7"
  type: "DetectionLoss"
  bottom: "LFCN_2_5x7"
  bottom: "label_2_5x7"
  top: "loss_2_5x7"
  detection_loss_param {
    cls_num: 3
    coord_num: 4
    lambda: 0.5
    field_h: 168
    field_w: 112
    downsample_rate: 16
    bb_smooth: true
    field_whr: 2
    field_xyr: 2
    bg_threshold: 0.2
    bg_multiple: 2
    sample_mode: "random"
    pos_neg_weighted: true
  }
}
layer {
  name: "detection_accuracy_2_5x7"
  type: "DetectionAccuracy"
  bottom: "LFCN_2_5x7"
  bottom: "label_2_5x7"
  top: "accuracy_2_5x7"
  top: "boxiou_2_5x7"
  detection_accuracy_param {
    cls_num: 3
    coord_num: 4
    field_h: 168
    field_w: 112
    downsample_rate: 16
    field_whr: 2
    field_xyr: 2
  }
}
layer {
  name: "pool5"
  type: "Pooling"
  bottom: "conv5_3"
  top: "pool5"
  pooling_param {
    pool: MAX
    kernel_size: 2
    stride: 2
  }
}
layer {
  name: "conv6_1"
  type: "Convolution"
  bottom: "pool5"
  top: "conv6_1"
  param {
    lr_mult: 1
    decay_mult: 1
  }
  param {
    lr_mult: 2
    decay_mult: 0
  }
  convolution_param {
    num_output: 512
    pad: 1
    kernel_size: 3
    weight_filler {
      type: "gaussian"
      std: 0.01
    }
    bias_filler {
      type: "constant"
    }
  }
}
layer {
  name: "relu6_1"
  type: "ReLU"
  bottom: "conv6_1"
  top: "conv6_1"
}
layer {
  name: "LFCN_3_3x5"
  type: "Convolution"
  bottom: "conv6_1"
  top: "LFCN_3_3x5"
  param {
    lr_mult: 1
    decay_mult: 1
  }
  param {
    lr_mult: 2
    decay_mult: 0
  }
  convolution_param {
    num_output: 7
    weight_filler {
      type: "gaussian"
      std: 0.001
    }
    bias_filler {
      type: "constant"
    }
    pad_h: 2
    pad_w: 1
    kernel_h: 5
    kernel_w: 3
  }
}
layer {
  name: "detection_loss_3_3x5"
  type: "DetectionLoss"
  bottom: "LFCN_3_3x5"
  bottom: "label_3_3x5"
  top: "loss_3_3x5"
  detection_loss_param {
    cls_num: 3
    coord_num: 4
    lambda: 0.5
    field_h: 240
    field_w: 160
    downsample_rate: 32
    bb_smooth: true
    field_whr: 2
    field_xyr: 2
    bg_threshold: 0.2
    bg_multiple: 2
    sample_mode: "random"
    pos_neg_weighted: true
  }
}
layer {
  name: "detection_accuracy_3_3x5"
  type: "DetectionAccuracy"
  bottom: "LFCN_3_3x5"
  bottom: "label_3_3x5"
  top: "accuracy_3_3x5"
  top: "boxiou_3_3x5"
  detection_accuracy_param {
    cls_num: 3
    coord_num: 4
    field_h: 240
    field_w: 160
    downsample_rate: 32
    field_whr: 2
    field_xyr: 2
  }
}
layer {
  name: "LFCN_3_5x7"
  type: "Convolution"
  bottom: "conv6_1"
  top: "LFCN_3_5x7"
  param {
    lr_mult: 1
    decay_mult: 1
  }
  param {
    lr_mult: 2
    decay_mult: 0
  }
  convolution_param {
    num_output: 7
    weight_filler {
      type: "gaussian"
      std: 0.001
    }
    bias_filler {
      type: "constant"
    }
    pad_h: 3
    pad_w: 2
    kernel_h: 7
    kernel_w: 5
  }
}
layer {
  name: "detection_loss_3_5x7"
  type: "DetectionLoss"
  bottom: "LFCN_3_5x7"
  bottom: "label_3_5x7"
  top: "loss_3_5x7"
  detection_loss_param {
    cls_num: 3
    coord_num: 4
    lambda: 0.5
    field_h: 336
    field_w: 224
    downsample_rate: 32
    bb_smooth: true
    field_whr: 2
    field_xyr: 2
    bg_threshold: 0.2
    bg_multiple: 2
    sample_mode: "random"
    pos_neg_weighted: true
  }
}
layer {
  name: "detection_accuracy_3_5x7"
  type: "DetectionAccuracy"
  bottom: "LFCN_3_5x7"
  bottom: "label_3_5x7"
  top: "accuracy_3_5x7"
  top: "boxiou_3_5x7"
  detection_accuracy_param {
    cls_num: 3
    coord_num: 4
    field_h: 336
    field_w: 224
    downsample_rate: 32
    field_whr: 2
    field_xyr: 2
  }
}
layer {
  name: "pool6"
  type: "Pooling"
  bottom: "conv6_1"
  top: "pool6"
  pooling_param {
    pool: MAX
    kernel_size: 2
    stride: 2
  }
}
layer {
  name: "LFCN_4_3x5"
  type: "Convolution"
  bottom: "pool6"
  top: "LFCN_4_3x5"
  param {
    lr_mult: 1
    decay_mult: 1
  }
  param {
    lr_mult: 2
    decay_mult: 0
  }
  convolution_param {
    num_output: 7
    weight_filler {
      type: "gaussian"
      std: 0.001
    }
    bias_filler {
      type: "constant"
    }
    pad_h: 2
    pad_w: 1
    kernel_h: 5
    kernel_w: 3
  }
}
layer {
  name: "detection_loss_4_3x5"
  type: "DetectionLoss"
  bottom: "LFCN_4_3x5"
  bottom: "label_4_3x5"
  top: "loss_4_3x5"
  detection_loss_param {
    cls_num: 3
    coord_num: 4
    lambda: 0.5
    field_h: 480
    field_w: 360
    downsample_rate: 64
    bb_smooth: true
    field_whr: 2
    field_xyr: 2
    bg_threshold: 0.2
    bg_multiple: 2
    sample_mode: "random"
    pos_neg_weighted: true
  }
}
layer {
  name: "detection_accuracy_4_3x5"
  type: "DetectionAccuracy"
  bottom: "LFCN_4_3x5"
  bottom: "label_4_3x5"
  top: "accuracy_4_3x5"
  top: "boxiou_4_3x5"
  detection_accuracy_param {
    cls_num: 3
    coord_num: 4
    field_h: 480
    field_w: 360
    downsample_rate: 64
    field_whr: 2
    field_xyr: 2
  }
}
I1215 16:13:16.326949 30929 layer_factory.hpp:77] Creating layer data
I1215 16:13:16.327008 30929 net.cpp:100] Creating Layer data
I1215 16:13:16.327033 30929 net.cpp:408] data -> data
…
I1215 16:13:16.461498 30929 image_gt_data_layer.cpp:241] output label size 2 : 4,6,36,48
I1215 16:13:16.461578 30929 image_gt_data_layer.cpp:241] output label size 3 : 4,6,36,48
I1215 16:13:16.461644 30929 image_gt_data_layer.cpp:241] output label size 4 : 4,6,18,24
I1215 16:13:16.461732 30929 image_gt_data_layer.cpp:241] output label size 5 : 4,6,18,24
I1215 16:13:16.461807 30929 image_gt_data_layer.cpp:241] output label size 6 : 4,6,9,12
I1215 16:13:16.461813 30929 image_gt_data_layer.cpp:265]  --> has_mean_values_ = 1
I1215 16:13:16.501186 30929 net.cpp:150] Setting up data
I1215 16:13:16.501206 30929 net.cpp:157] Top shape: 4 4 576 768 (7077888)
I1215 16:13:16.501210 30929 net.cpp:157] Top shape: 4 6 72 96 (165888)
I1215 16:13:16.501214 30929 net.cpp:157] Top shape: 4 6 72 96 (165888)
I1215 16:13:16.501219 30929 net.cpp:157] Top shape: 4 6 36 48 (41472)
I1215 16:13:16.501221 30929 net.cpp:157] Top shape: 4 6 36 48 (41472)
I1215 16:13:16.501225 30929 net.cpp:157] Top shape: 4 6 18 24 (10368)
I1215 16:13:16.501229 30929 net.cpp:157] Top shape: 4 6 18 24 (10368)
I1215 16:13:16.501232 30929 net.cpp:157] Top shape: 4 6 9 12 (2592)
I1215 16:13:16.501235 30929 net.cpp:165] Memory required for data: 30063744
I1215 16:13:16.501241 30929 layer_factory.hpp:77] Creating layer label_1_3x5_data_1_split
I1215 16:13:16.501258 30929 net.cpp:100] Creating Layer label_1_3x5_data_1_split
I1215 16:13:16.501265 30929 net.cpp:434] label_1_3x5_data_1_split <- label_1_3x5
I1215 16:13:16.501276 30929 net.cpp:408] label_1_3x5_data_1_split -> label_1_3x5_data_1_split_0
I1215 16:13:16.501613 30929 net.cpp:408] label_1_3x5_data_1_split -> label_1_3x5_data_1_split_1
I1215 16:13:16.501684 30929 net.cpp:150] Setting up label_1_3x5_data_1_split
I1215 16:13:16.501695 30929 net.cpp:157] Top shape: 4 6 72 96 (165888)
I1215 16:13:16.501699 30929 net.cpp:157] Top shape: 4 6 72 96 (165888)
I1215 16:13:16.501703 30929 net.cpp:165] Memory required for data: 31390848
I1215 16:13:16.501706 30929 layer_factory.hpp:77] Creating layer label_1_5x7_data_2_split
I1215 16:13:16.501716 30929 net.cpp:100] Creating Layer label_1_5x7_data_2_split
I1215 16:13:16.501720 30929 net.cpp:434] label_1_5x7_data_2_split <- label_1_5x7
I1215 16:13:16.501730 30929 net.cpp:408] label_1_5x7_data_2_split -> label_1_5x7_data_2_split_0
I1215 16:13:16.501737 30929 net.cpp:408] label_1_5x7_data_2_split -> label_1_5x7_data_2_split_1
I1215 16:13:16.501765 30929 net.cpp:150] Setting up label_1_5x7_data_2_split
I1215 16:13:16.501770 30929 net.cpp:157] Top shape: 4 6 72 96 (165888)
I1215 16:13:16.501772 30929 net.cpp:157] Top shape: 4 6 72 96 (165888)
I1215 16:13:16.501775 30929 net.cpp:165] Memory required for data: 32717952
I1215 16:13:16.501778 30929 layer_factory.hpp:77] Creating layer label_2_3x5_data_3_split
I1215 16:13:16.501782 30929 net.cpp:100] Creating Layer label_2_3x5_data_3_split
I1215 16:13:16.501786 30929 net.cpp:434] label_2_3x5_data_3_split <- label_2_3x5
I1215 16:13:16.501792 30929 net.cpp:408] label_2_3x5_data_3_split -> label_2_3x5_data_3_split_0
I1215 16:13:16.501799 30929 net.cpp:408] label_2_3x5_data_3_split -> label_2_3x5_data_3_split_1
I1215 16:13:16.501824 30929 net.cpp:150] Setting up label_2_3x5_data_3_split
I1215 16:13:16.501828 30929 net.cpp:157] Top shape: 4 6 36 48 (41472)
I1215 16:13:16.501832 30929 net.cpp:157] Top shape: 4 6 36 48 (41472)
I1215 16:13:16.501835 30929 net.cpp:165] Memory required for data: 33049728
I1215 16:13:16.501837 30929 layer_factory.hpp:77] Creating layer label_2_5x7_data_4_split
I1215 16:13:16.501844 30929 net.cpp:100] Creating Layer label_2_5x7_data_4_split
I1215 16:13:16.501848 30929 net.cpp:434] label_2_5x7_data_4_split <- label_2_5x7
I1215 16:13:16.501854 30929 net.cpp:408] label_2_5x7_data_4_split -> label_2_5x7_data_4_split_0
I1215 16:13:16.501862 30929 net.cpp:408] label_2_5x7_data_4_split -> label_2_5x7_data_4_split_1
I1215 16:13:16.501888 30929 net.cpp:150] Setting up label_2_5x7_data_4_split
I1215 16:13:16.501893 30929 net.cpp:157] Top shape: 4 6 36 48 (41472)
I1215 16:13:16.501895 30929 net.cpp:157] Top shape: 4 6 36 48 (41472)
I1215 16:13:16.501899 30929 net.cpp:165] Memory required for data: 33381504
I1215 16:13:16.501901 30929 layer_factory.hpp:77] Creating layer label_3_3x5_data_5_split
I1215 16:13:16.501905 30929 net.cpp:100] Creating Layer label_3_3x5_data_5_split
I1215 16:13:16.501909 30929 net.cpp:434] label_3_3x5_data_5_split <- label_3_3x5
I1215 16:13:16.501914 30929 net.cpp:408] label_3_3x5_data_5_split -> label_3_3x5_data_5_split_0
I1215 16:13:16.501921 30929 net.cpp:408] label_3_3x5_data_5_split -> label_3_3x5_data_5_split_1
I1215 16:13:16.501947 30929 net.cpp:150] Setting up label_3_3x5_data_5_split
I1215 16:13:16.501952 30929 net.cpp:157] Top shape: 4 6 18 24 (10368)
I1215 16:13:16.501956 30929 net.cpp:157] Top shape: 4 6 18 24 (10368)
I1215 16:13:16.501960 30929 net.cpp:165] Memory required for data: 33464448
I1215 16:13:16.501961 30929 layer_factory.hpp:77] Creating layer label_3_5x7_data_6_split
I1215 16:13:16.501966 30929 net.cpp:100] Creating Layer label_3_5x7_data_6_split
I1215 16:13:16.501969 30929 net.cpp:434] label_3_5x7_data_6_split <- label_3_5x7
I1215 16:13:16.501973 30929 net.cpp:408] label_3_5x7_data_6_split -> label_3_5x7_data_6_split_0
I1215 16:13:16.501979 30929 net.cpp:408] label_3_5x7_data_6_split -> label_3_5x7_data_6_split_1
I1215 16:13:16.502003 30929 net.cpp:150] Setting up label_3_5x7_data_6_split
I1215 16:13:16.502007 30929 net.cpp:157] Top shape: 4 6 18 24 (10368)
I1215 16:13:16.502012 30929 net.cpp:157] Top shape: 4 6 18 24 (10368)
I1215 16:13:16.502014 30929 net.cpp:165] Memory required for data: 33547392
I1215 16:13:16.502017 30929 layer_factory.hpp:77] Creating layer label_4_3x5_data_7_split
I1215 16:13:16.502022 30929 net.cpp:100] Creating Layer label_4_3x5_data_7_split
I1215 16:13:16.502025 30929 net.cpp:434] label_4_3x5_data_7_split <- label_4_3x5
I1215 16:13:16.502029 30929 net.cpp:408] label_4_3x5_data_7_split -> label_4_3x5_data_7_split_0
I1215 16:13:16.502035 30929 net.cpp:408] label_4_3x5_data_7_split -> label_4_3x5_data_7_split_1
I1215 16:13:16.502061 30929 net.cpp:150] Setting up label_4_3x5_data_7_split
I1215 16:13:16.502066 30929 net.cpp:157] Top shape: 4 6 9 12 (2592)
I1215 16:13:16.502069 30929 net.cpp:157] Top shape: 4 6 9 12 (2592)
I1215 16:13:16.502071 30929 net.cpp:165] Memory required for data: 33568128
I1215 16:13:16.502074 30929 layer_factory.hpp:77] Creating layer conv1_1
I1215 16:13:16.502087 30929 net.cpp:100] Creating Layer conv1_1
I1215 16:13:16.502091 30929 net.cpp:434] conv1_1 <- data
I1215 16:13:16.502096 30929 net.cpp:408] conv1_1 -> conv1_1
I1215 16:13:17.574862 30929 net.cpp:150] Setting up conv1_1
I1215 16:13:17.574918 30929 net.cpp:157] Top shape: 4 64 576 768 (113246208)
I1215 16:13:17.574934 30929 net.cpp:165] Memory required for data: 486552960
I1215 16:13:17.574998 30929 layer_factory.hpp:77] Creating layer relu1_1
I1215 16:13:17.575037 30929 net.cpp:100] Creating Layer relu1_1
I1215 16:13:17.575054 30929 net.cpp:434] relu1_1 <- conv1_1
I1215 16:13:17.575078 30929 net.cpp:395] relu1_1 -> conv1_1 (in-place)
I1215 16:13:17.576328 30929 net.cpp:150] Setting up relu1_1
I1215 16:13:17.576370 30929 net.cpp:157] Top shape: 4 64 576 768 (113246208)
I1215 16:13:17.576383 30929 net.cpp:165] Memory required for data: 939537792
I1215 16:13:17.576398 30929 layer_factory.hpp:77] Creating layer conv1_2
I1215 16:13:17.576433 30929 net.cpp:100] Creating Layer conv1_2
I1215 16:13:17.576452 30929 net.cpp:434] conv1_2 <- conv1_1
I1215 16:13:17.576476 30929 net.cpp:408] conv1_2 -> conv1_2
I1215 16:13:17.585016 30929 net.cpp:150] Setting up conv1_2
I1215 16:13:17.585049 30929 net.cpp:157] Top shape: 4 64 576 768 (113246208)
I1215 16:13:17.585057 30929 net.cpp:165] Memory required for data: 1392522624
I1215 16:13:17.585081 30929 layer_factory.hpp:77] Creating layer relu1_2
I1215 16:13:17.585108 30929 net.cpp:100] Creating Layer relu1_2
I1215 16:13:17.585119 30929 net.cpp:434] relu1_2 <- conv1_2
I1215 16:13:17.585136 30929 net.cpp:395] relu1_2 -> conv1_2 (in-place)
I1215 16:13:17.585788 30929 net.cpp:150] Setting up relu1_2
I1215 16:13:17.585809 30929 net.cpp:157] Top shape: 4 64 576 768 (113246208)
I1215 16:13:17.585815 30929 net.cpp:165] Memory required for data: 1845507456
I1215 16:13:17.585824 30929 layer_factory.hpp:77] Creating layer pool1
I1215 16:13:17.585836 30929 net.cpp:100] Creating Layer pool1
I1215 16:13:17.585845 30929 net.cpp:434] pool1 <- conv1_2
I1215 16:13:17.585861 30929 net.cpp:408] pool1 -> pool1
I1215 16:13:17.585956 30929 net.cpp:150] Setting up pool1
I1215 16:13:17.585971 30929 net.cpp:157] Top shape: 4 64 288 384 (28311552)
I1215 16:13:17.585978 30929 net.cpp:165] Memory required for data: 1958753664
I1215 16:13:17.585984 30929 layer_factory.hpp:77] Creating layer conv2_1
I1215 16:13:17.585999 30929 net.cpp:100] Creating Layer conv2_1
I1215 16:13:17.586009 30929 net.cpp:434] conv2_1 <- pool1
I1215 16:13:17.586024 30929 net.cpp:408] conv2_1 -> conv2_1
I1215 16:13:17.591297 30929 net.cpp:150] Setting up conv2_1
I1215 16:13:17.591325 30929 net.cpp:157] Top shape: 4 128 288 384 (56623104)
I1215 16:13:17.591331 30929 net.cpp:165] Memory required for data: 2185246080
I1215 16:13:17.591352 30929 layer_factory.hpp:77] Creating layer relu2_1
I1215 16:13:17.591375 30929 net.cpp:100] Creating Layer relu2_1
I1215 16:13:17.591384 30929 net.cpp:434] relu2_1 <- conv2_1
I1215 16:13:17.591401 30929 net.cpp:395] relu2_1 -> conv2_1 (in-place)
I1215 16:13:17.592581 30929 net.cpp:150] Setting up relu2_1
I1215 16:13:17.592599 30929 net.cpp:157] Top shape: 4 128 288 384 (56623104)
I1215 16:13:17.592604 30929 net.cpp:165] Memory required for data: 2411738496
I1215 16:13:17.592612 30929 layer_factory.hpp:77] Creating layer conv2_2
I1215 16:13:17.592628 30929 net.cpp:100] Creating Layer conv2_2
I1215 16:13:17.592634 30929 net.cpp:434] conv2_2 <- conv2_1
I1215 16:13:17.592644 30929 net.cpp:408] conv2_2 -> conv2_2
I1215 16:13:17.595410 30929 net.cpp:150] Setting up conv2_2
I1215 16:13:17.595430 30929 net.cpp:157] Top shape: 4 128 288 384 (56623104)
I1215 16:13:17.595435 30929 net.cpp:165] Memory required for data: 2638230912
I1215 16:13:17.595459 30929 layer_factory.hpp:77] Creating layer relu2_2
I1215 16:13:17.595479 30929 net.cpp:100] Creating Layer relu2_2
I1215 16:13:17.595485 30929 net.cpp:434] relu2_2 <- conv2_2
I1215 16:13:17.595495 30929 net.cpp:395] relu2_2 -> conv2_2 (in-place)
I1215 16:13:17.596454 30929 net.cpp:150] Setting up relu2_2
I1215 16:13:17.596468 30929 net.cpp:157] Top shape: 4 128 288 384 (56623104)
I1215 16:13:17.596472 30929 net.cpp:165] Memory required for data: 2864723328
I1215 16:13:17.596478 30929 layer_factory.hpp:77] Creating layer pool2
I1215 16:13:17.596493 30929 net.cpp:100] Creating Layer pool2
I1215 16:13:17.596499 30929 net.cpp:434] pool2 <- conv2_2
I1215 16:13:17.596508 30929 net.cpp:408] pool2 -> pool2
I1215 16:13:17.596570 30929 net.cpp:150] Setting up pool2
I1215 16:13:17.596578 30929 net.cpp:157] Top shape: 4 128 144 192 (14155776)
I1215 16:13:17.596582 30929 net.cpp:165] Memory required for data: 2921346432
I1215 16:13:17.596587 30929 layer_factory.hpp:77] Creating layer conv3_1
I1215 16:13:17.596599 30929 net.cpp:100] Creating Layer conv3_1
I1215 16:13:17.596604 30929 net.cpp:434] conv3_1 <- pool2
I1215 16:13:17.596612 30929 net.cpp:408] conv3_1 -> conv3_1
I1215 16:13:17.600299 30929 net.cpp:150] Setting up conv3_1
I1215 16:13:17.600319 30929 net.cpp:157] Top shape: 4 256 144 192 (28311552)
I1215 16:13:17.600323 30929 net.cpp:165] Memory required for data: 3034592640
I1215 16:13:17.600339 30929 layer_factory.hpp:77] Creating layer relu3_1
I1215 16:13:17.600349 30929 net.cpp:100] Creating Layer relu3_1
I1215 16:13:17.600355 30929 net.cpp:434] relu3_1 <- conv3_1
I1215 16:13:17.600365 30929 net.cpp:395] relu3_1 -> conv3_1 (in-place)
I1215 16:13:17.600731 30929 net.cpp:150] Setting up relu3_1
I1215 16:13:17.600744 30929 net.cpp:157] Top shape: 4 256 144 192 (28311552)
I1215 16:13:17.600746 30929 net.cpp:165] Memory required for data: 3147838848
I1215 16:13:17.600751 30929 layer_factory.hpp:77] Creating layer conv3_2
I1215 16:13:17.600762 30929 net.cpp:100] Creating Layer conv3_2
I1215 16:13:17.600769 30929 net.cpp:434] conv3_2 <- conv3_1
I1215 16:13:17.600776 30929 net.cpp:408] conv3_2 -> conv3_2
I1215 16:13:17.604830 30929 net.cpp:150] Setting up conv3_2
I1215 16:13:17.604851 30929 net.cpp:157] Top shape: 4 256 144 192 (28311552)
I1215 16:13:17.604854 30929 net.cpp:165] Memory required for data: 3261085056
I1215 16:13:17.604864 30929 layer_factory.hpp:77] Creating layer relu3_2
I1215 16:13:17.604873 30929 net.cpp:100] Creating Layer relu3_2
I1215 16:13:17.604881 30929 net.cpp:434] relu3_2 <- conv3_2
I1215 16:13:17.604892 30929 net.cpp:395] relu3_2 -> conv3_2 (in-place)
I1215 16:13:17.605239 30929 net.cpp:150] Setting up relu3_2
I1215 16:13:17.605250 30929 net.cpp:157] Top shape: 4 256 144 192 (28311552)
I1215 16:13:17.605254 30929 net.cpp:165] Memory required for data: 3374331264
I1215 16:13:17.605258 30929 layer_factory.hpp:77] Creating layer conv3_3
I1215 16:13:17.605269 30929 net.cpp:100] Creating Layer conv3_3
I1215 16:13:17.605274 30929 net.cpp:434] conv3_3 <- conv3_2
I1215 16:13:17.605280 30929 net.cpp:408] conv3_3 -> conv3_3
I1215 16:13:17.608654 30929 net.cpp:150] Setting up conv3_3
I1215 16:13:17.608675 30929 net.cpp:157] Top shape: 4 256 144 192 (28311552)
I1215 16:13:17.608677 30929 net.cpp:165] Memory required for data: 3487577472
I1215 16:13:17.608686 30929 layer_factory.hpp:77] Creating layer relu3_3
I1215 16:13:17.608695 30929 net.cpp:100] Creating Layer relu3_3
I1215 16:13:17.608701 30929 net.cpp:434] relu3_3 <- conv3_3
I1215 16:13:17.608709 30929 net.cpp:395] relu3_3 -> conv3_3 (in-place)
I1215 16:13:17.609380 30929 net.cpp:150] Setting up relu3_3
I1215 16:13:17.609392 30929 net.cpp:157] Top shape: 4 256 144 192 (28311552)
I1215 16:13:17.609395 30929 net.cpp:165] Memory required for data: 3600823680
I1215 16:13:17.609400 30929 layer_factory.hpp:77] Creating layer pool3
I1215 16:13:17.609406 30929 net.cpp:100] Creating Layer pool3
I1215 16:13:17.609411 30929 net.cpp:434] pool3 <- conv3_3
I1215 16:13:17.609418 30929 net.cpp:408] pool3 -> pool3
I1215 16:13:17.609463 30929 net.cpp:150] Setting up pool3
I1215 16:13:17.609468 30929 net.cpp:157] Top shape: 4 256 72 96 (7077888)
I1215 16:13:17.609472 30929 net.cpp:165] Memory required for data: 3629135232
I1215 16:13:17.609474 30929 layer_factory.hpp:77] Creating layer conv4_1
I1215 16:13:17.609484 30929 net.cpp:100] Creating Layer conv4_1
I1215 16:13:17.609488 30929 net.cpp:434] conv4_1 <- pool3
I1215 16:13:17.609494 30929 net.cpp:408] conv4_1 -> conv4_1
I1215 16:13:17.614424 30929 net.cpp:150] Setting up conv4_1
I1215 16:13:17.614446 30929 net.cpp:157] Top shape: 4 512 72 96 (14155776)
I1215 16:13:17.614449 30929 net.cpp:165] Memory required for data: 3685758336
I1215 16:13:17.614459 30929 layer_factory.hpp:77] Creating layer relu4_1
I1215 16:13:17.614470 30929 net.cpp:100] Creating Layer relu4_1
I1215 16:13:17.614477 30929 net.cpp:434] relu4_1 <- conv4_1
I1215 16:13:17.614483 30929 net.cpp:395] relu4_1 -> conv4_1 (in-place)
I1215 16:13:17.614761 30929 net.cpp:150] Setting up relu4_1
I1215 16:13:17.614769 30929 net.cpp:157] Top shape: 4 512 72 96 (14155776)
I1215 16:13:17.614773 30929 net.cpp:165] Memory required for data: 3742381440
I1215 16:13:17.614775 30929 layer_factory.hpp:77] Creating layer conv4_2
I1215 16:13:17.614785 30929 net.cpp:100] Creating Layer conv4_2
I1215 16:13:17.614790 30929 net.cpp:434] conv4_2 <- conv4_1
I1215 16:13:17.614796 30929 net.cpp:408] conv4_2 -> conv4_2
I1215 16:13:17.620620 30929 net.cpp:150] Setting up conv4_2
I1215 16:13:17.620641 30929 net.cpp:157] Top shape: 4 512 72 96 (14155776)
I1215 16:13:17.620645 30929 net.cpp:165] Memory required for data: 3799004544
I1215 16:13:17.620659 30929 layer_factory.hpp:77] Creating layer relu4_2
I1215 16:13:17.620667 30929 net.cpp:100] Creating Layer relu4_2
I1215 16:13:17.620672 30929 net.cpp:434] relu4_2 <- conv4_2
I1215 16:13:17.620682 30929 net.cpp:395] relu4_2 -> conv4_2 (in-place)
I1215 16:13:17.620937 30929 net.cpp:150] Setting up relu4_2
I1215 16:13:17.620947 30929 net.cpp:157] Top shape: 4 512 72 96 (14155776)
I1215 16:13:17.620949 30929 net.cpp:165] Memory required for data: 3855627648
I1215 16:13:17.620952 30929 layer_factory.hpp:77] Creating layer conv4_3
I1215 16:13:17.620961 30929 net.cpp:100] Creating Layer conv4_3
I1215 16:13:17.620965 30929 net.cpp:434] conv4_3 <- conv4_2
I1215 16:13:17.620970 30929 net.cpp:408] conv4_3 -> conv4_3
I1215 16:13:17.626529 30929 net.cpp:150] Setting up conv4_3
I1215 16:13:17.626551 30929 net.cpp:157] Top shape: 4 512 72 96 (14155776)
I1215 16:13:17.626554 30929 net.cpp:165] Memory required for data: 3912250752
I1215 16:13:17.626560 30929 layer_factory.hpp:77] Creating layer relu4_3
I1215 16:13:17.626566 30929 net.cpp:100] Creating Layer relu4_3
I1215 16:13:17.626569 30929 net.cpp:434] relu4_3 <- conv4_3
I1215 16:13:17.626574 30929 net.cpp:395] relu4_3 -> conv4_3 (in-place)
I1215 16:13:17.627349 30929 net.cpp:150] Setting up relu4_3
I1215 16:13:17.627359 30929 net.cpp:157] Top shape: 4 512 72 96 (14155776)
I1215 16:13:17.627362 30929 net.cpp:165] Memory required for data: 3968873856
I1215 16:13:17.627364 30929 layer_factory.hpp:77] Creating layer conv4_3_relu4_3_0_split
I1215 16:13:17.627369 30929 net.cpp:100] Creating Layer conv4_3_relu4_3_0_split
I1215 16:13:17.627372 30929 net.cpp:434] conv4_3_relu4_3_0_split <- conv4_3
I1215 16:13:17.627377 30929 net.cpp:408] conv4_3_relu4_3_0_split -> conv4_3_relu4_3_0_split_0
I1215 16:13:17.627382 30929 net.cpp:408] conv4_3_relu4_3_0_split -> conv4_3_relu4_3_0_split_1
I1215 16:13:17.627427 30929 net.cpp:150] Setting up conv4_3_relu4_3_0_split
I1215 16:13:17.627434 30929 net.cpp:157] Top shape: 4 512 72 96 (14155776)
I1215 16:13:17.627451 30929 net.cpp:157] Top shape: 4 512 72 96 (14155776)
I1215 16:13:17.627454 30929 net.cpp:165] Memory required for data: 4082120064
I1215 16:13:17.627457 30929 layer_factory.hpp:77] Creating layer loss1_conv1
I1215 16:13:17.627475 30929 net.cpp:100] Creating Layer loss1_conv1
I1215 16:13:17.627478 30929 net.cpp:434] loss1_conv1 <- conv4_3_relu4_3_0_split_0
I1215 16:13:17.627485 30929 net.cpp:408] loss1_conv1 -> loss1_conv1
I1215 16:13:17.661649 30929 net.cpp:150] Setting up loss1_conv1
I1215 16:13:17.661666 30929 net.cpp:157] Top shape: 4 512 72 96 (14155776)
I1215 16:13:17.661669 30929 net.cpp:165] Memory required for data: 4138743168
I1215 16:13:17.661674 30929 layer_factory.hpp:77] Creating layer loss_relu1
I1215 16:13:17.661681 30929 net.cpp:100] Creating Layer loss_relu1
I1215 16:13:17.661684 30929 net.cpp:434] loss_relu1 <- loss1_conv1
I1215 16:13:17.661690 30929 net.cpp:395] loss_relu1 -> loss1_conv1 (in-place)
I1215 16:13:17.662006 30929 net.cpp:150] Setting up loss_relu1
I1215 16:13:17.662015 30929 net.cpp:157] Top shape: 4 512 72 96 (14155776)
I1215 16:13:17.662019 30929 net.cpp:165] Memory required for data: 4195366272
I1215 16:13:17.662021 30929 layer_factory.hpp:77] Creating layer loss1_conv1_loss_relu1_0_split
I1215 16:13:17.662027 30929 net.cpp:100] Creating Layer loss1_conv1_loss_relu1_0_split
I1215 16:13:17.662031 30929 net.cpp:434] loss1_conv1_loss_relu1_0_split <- loss1_conv1
I1215 16:13:17.662035 30929 net.cpp:408] loss1_conv1_loss_relu1_0_split -> loss1_conv1_loss_relu1_0_split_0
I1215 16:13:17.662041 30929 net.cpp:408] loss1_conv1_loss_relu1_0_split -> loss1_conv1_loss_relu1_0_split_1
I1215 16:13:17.662093 30929 net.cpp:150] Setting up loss1_conv1_loss_relu1_0_split
I1215 16:13:17.662101 30929 net.cpp:157] Top shape: 4 512 72 96 (14155776)
I1215 16:13:17.662106 30929 net.cpp:157] Top shape: 4 512 72 96 (14155776)
I1215 16:13:17.662107 30929 net.cpp:165] Memory required for data: 4308612480
I1215 16:13:17.662111 30929 layer_factory.hpp:77] Creating layer LFCN_1_3x5
I1215 16:13:17.662122 30929 net.cpp:100] Creating Layer LFCN_1_3x5
I1215 16:13:17.662125 30929 net.cpp:434] LFCN_1_3x5 <- loss1_conv1_loss_relu1_0_split_0
I1215 16:13:17.662133 30929 net.cpp:408] LFCN_1_3x5 -> LFCN_1_3x5
I1215 16:13:17.664330 30929 net.cpp:150] Setting up LFCN_1_3x5
I1215 16:13:17.664343 30929 net.cpp:157] Top shape: 4 7 72 96 (193536)
I1215 16:13:17.664346 30929 net.cpp:165] Memory required for data: 4309386624
I1215 16:13:17.664352 30929 layer_factory.hpp:77] Creating layer LFCN_1_3x5_LFCN_1_3x5_0_split
I1215 16:13:17.664360 30929 net.cpp:100] Creating Layer LFCN_1_3x5_LFCN_1_3x5_0_split
I1215 16:13:17.664362 30929 net.cpp:434] LFCN_1_3x5_LFCN_1_3x5_0_split <- LFCN_1_3x5
I1215 16:13:17.664366 30929 net.cpp:408] LFCN_1_3x5_LFCN_1_3x5_0_split -> LFCN_1_3x5_LFCN_1_3x5_0_split_0
I1215 16:13:17.664373 30929 net.cpp:408] LFCN_1_3x5_LFCN_1_3x5_0_split -> LFCN_1_3x5_LFCN_1_3x5_0_split_1
I1215 16:13:17.664412 30929 net.cpp:150] Setting up LFCN_1_3x5_LFCN_1_3x5_0_split
I1215 16:13:17.664417 30929 net.cpp:157] Top shape: 4 7 72 96 (193536)
I1215 16:13:17.664419 30929 net.cpp:157] Top shape: 4 7 72 96 (193536)
I1215 16:13:17.664422 30929 net.cpp:165] Memory required for data: 4310934912
I1215 16:13:17.664425 30929 layer_factory.hpp:77] Creating layer detection_loss_1_3x5
I1215 16:13:17.664438 30929 net.cpp:100] Creating Layer detection_loss_1_3x5
I1215 16:13:17.664440 30929 net.cpp:434] detection_loss_1_3x5 <- LFCN_1_3x5_LFCN_1_3x5_0_split_0
I1215 16:13:17.664443 30929 net.cpp:434] detection_loss_1_3x5 <- label_1_3x5_data_1_split_0
I1215 16:13:17.664450 30929 net.cpp:408] detection_loss_1_3x5 -> loss_1_3x5
I1215 16:13:17.664463 30929 layer_factory.hpp:77] Creating layer detection_loss_1_3x5
I1215 16:13:17.664894 30929 net.cpp:150] Setting up detection_loss_1_3x5
I1215 16:13:17.664902 30929 net.cpp:157] Top shape: 1 1 1 2 (2)
I1215 16:13:17.664904 30929 net.cpp:160]     with loss weight 0.9
I1215 16:13:17.664919 30929 net.cpp:165] Memory required for data: 4310934920
I1215 16:13:17.664922 30929 layer_factory.hpp:77] Creating layer detection_accuracy_1_3x5
I1215 16:13:17.664929 30929 net.cpp:100] Creating Layer detection_accuracy_1_3x5
I1215 16:13:17.664933 30929 net.cpp:434] detection_accuracy_1_3x5 <- LFCN_1_3x5_LFCN_1_3x5_0_split_1
I1215 16:13:17.664938 30929 net.cpp:434] detection_accuracy_1_3x5 <- label_1_3x5_data_1_split_1
I1215 16:13:17.664942 30929 net.cpp:408] detection_accuracy_1_3x5 -> accuracy_1_3x5
I1215 16:13:17.664952 30929 net.cpp:408] detection_accuracy_1_3x5 -> boxiou_1_3x5
I1215 16:13:17.664993 30929 net.cpp:150] Setting up detection_accuracy_1_3x5
I1215 16:13:17.664997 30929 net.cpp:157] Top shape: 1 1 1 2 (2)
I1215 16:13:17.665000 30929 net.cpp:157] Top shape: 1 1 1 1 (1)
I1215 16:13:17.665001 30929 net.cpp:165] Memory required for data: 4310934932
I1215 16:13:17.665004 30929 layer_factory.hpp:77] Creating layer LFCN_1_5x7
I1215 16:13:17.665014 30929 net.cpp:100] Creating Layer LFCN_1_5x7
I1215 16:13:17.665019 30929 net.cpp:434] LFCN_1_5x7 <- loss1_conv1_loss_relu1_0_split_1
I1215 16:13:17.665024 30929 net.cpp:408] LFCN_1_5x7 -> LFCN_1_5x7
I1215 16:13:17.667326 30929 net.cpp:150] Setting up LFCN_1_5x7
I1215 16:13:17.667337 30929 net.cpp:157] Top shape: 4 7 72 96 (193536)
I1215 16:13:17.667340 30929 net.cpp:165] Memory required for data: 4311709076
I1215 16:13:17.667346 30929 layer_factory.hpp:77] Creating layer LFCN_1_5x7_LFCN_1_5x7_0_split
I1215 16:13:17.667351 30929 net.cpp:100] Creating Layer LFCN_1_5x7_LFCN_1_5x7_0_split
I1215 16:13:17.667354 30929 net.cpp:434] LFCN_1_5x7_LFCN_1_5x7_0_split <- LFCN_1_5x7
I1215 16:13:17.667359 30929 net.cpp:408] LFCN_1_5x7_LFCN_1_5x7_0_split -> LFCN_1_5x7_LFCN_1_5x7_0_split_0
I1215 16:13:17.667366 30929 net.cpp:408] LFCN_1_5x7_LFCN_1_5x7_0_split -> LFCN_1_5x7_LFCN_1_5x7_0_split_1
I1215 16:13:17.667403 30929 net.cpp:150] Setting up LFCN_1_5x7_LFCN_1_5x7_0_split
I1215 16:13:17.667409 30929 net.cpp:157] Top shape: 4 7 72 96 (193536)
I1215 16:13:17.667412 30929 net.cpp:157] Top shape: 4 7 72 96 (193536)
I1215 16:13:17.667414 30929 net.cpp:165] Memory required for data: 4313257364
I1215 16:13:17.667418 30929 layer_factory.hpp:77] Creating layer detection_loss_1_5x7
I1215 16:13:17.667424 30929 net.cpp:100] Creating Layer detection_loss_1_5x7
I1215 16:13:17.667428 30929 net.cpp:434] detection_loss_1_5x7 <- LFCN_1_5x7_LFCN_1_5x7_0_split_0
I1215 16:13:17.667433 30929 net.cpp:434] detection_loss_1_5x7 <- label_1_5x7_data_2_split_0
I1215 16:13:17.667448 30929 net.cpp:408] detection_loss_1_5x7 -> loss_1_5x7
I1215 16:13:17.667459 30929 layer_factory.hpp:77] Creating layer detection_loss_1_5x7
I1215 16:13:17.668324 30929 net.cpp:150] Setting up detection_loss_1_5x7
I1215 16:13:17.668334 30929 net.cpp:157] Top shape: 1 1 1 2 (2)
I1215 16:13:17.668336 30929 net.cpp:160]     with loss weight 0.9
I1215 16:13:17.668345 30929 net.cpp:165] Memory required for data: 4313257372
I1215 16:13:17.668349 30929 layer_factory.hpp:77] Creating layer detection_accuracy_1_5x7
I1215 16:13:17.668359 30929 net.cpp:100] Creating Layer detection_accuracy_1_5x7
I1215 16:13:17.668364 30929 net.cpp:434] detection_accuracy_1_5x7 <- LFCN_1_5x7_LFCN_1_5x7_0_split_1
I1215 16:13:17.668367 30929 net.cpp:434] detection_accuracy_1_5x7 <- label_1_5x7_data_2_split_1
I1215 16:13:17.668372 30929 net.cpp:408] detection_accuracy_1_5x7 -> accuracy_1_5x7
I1215 16:13:17.668381 30929 net.cpp:408] detection_accuracy_1_5x7 -> boxiou_1_5x7
I1215 16:13:17.668417 30929 net.cpp:150] Setting up detection_accuracy_1_5x7
I1215 16:13:17.668421 30929 net.cpp:157] Top shape: 1 1 1 2 (2)
I1215 16:13:17.668423 30929 net.cpp:157] Top shape: 1 1 1 1 (1)
I1215 16:13:17.668426 30929 net.cpp:165] Memory required for data: 4313257384
I1215 16:13:17.668428 30929 layer_factory.hpp:77] Creating layer pool4
I1215 16:13:17.668437 30929 net.cpp:100] Creating Layer pool4
I1215 16:13:17.668440 30929 net.cpp:434] pool4 <- conv4_3_relu4_3_0_split_1
I1215 16:13:17.668445 30929 net.cpp:408] pool4 -> pool4
I1215 16:13:17.668478 30929 net.cpp:150] Setting up pool4
I1215 16:13:17.668483 30929 net.cpp:157] Top shape: 4 512 36 48 (3538944)
I1215 16:13:17.668484 30929 net.cpp:165] Memory required for data: 4327413160
I1215 16:13:17.668486 30929 layer_factory.hpp:77] Creating layer conv5_1
I1215 16:13:17.668494 30929 net.cpp:100] Creating Layer conv5_1
I1215 16:13:17.668496 30929 net.cpp:434] conv5_1 <- pool4
I1215 16:13:17.668499 30929 net.cpp:408] conv5_1 -> conv5_1
I1215 16:13:17.674407 30929 net.cpp:150] Setting up conv5_1
I1215 16:13:17.674424 30929 net.cpp:157] Top shape: 4 512 36 48 (3538944)
I1215 16:13:17.674427 30929 net.cpp:165] Memory required for data: 4341568936
I1215 16:13:17.674433 30929 layer_factory.hpp:77] Creating layer relu5_1
I1215 16:13:17.674439 30929 net.cpp:100] Creating Layer relu5_1
I1215 16:13:17.674443 30929 net.cpp:434] relu5_1 <- conv5_1
I1215 16:13:17.674448 30929 net.cpp:395] relu5_1 -> conv5_1 (in-place)
I1215 16:13:17.675106 30929 net.cpp:150] Setting up relu5_1
I1215 16:13:17.675114 30929 net.cpp:157] Top shape: 4 512 36 48 (3538944)
I1215 16:13:17.675117 30929 net.cpp:165] Memory required for data: 4355724712
I1215 16:13:17.675119 30929 layer_factory.hpp:77] Creating layer conv5_2
I1215 16:13:17.675127 30929 net.cpp:100] Creating Layer conv5_2
I1215 16:13:17.675129 30929 net.cpp:434] conv5_2 <- conv5_1
I1215 16:13:17.675134 30929 net.cpp:408] conv5_2 -> conv5_2
I1215 16:13:17.680675 30929 net.cpp:150] Setting up conv5_2
I1215 16:13:17.680692 30929 net.cpp:157] Top shape: 4 512 36 48 (3538944)
I1215 16:13:17.680696 30929 net.cpp:165] Memory required for data: 4369880488
I1215 16:13:17.680701 30929 layer_factory.hpp:77] Creating layer relu5_2
I1215 16:13:17.680709 30929 net.cpp:100] Creating Layer relu5_2
I1215 16:13:17.680712 30929 net.cpp:434] relu5_2 <- conv5_2
I1215 16:13:17.680716 30929 net.cpp:395] relu5_2 -> conv5_2 (in-place)
I1215 16:13:17.680966 30929 net.cpp:150] Setting up relu5_2
I1215 16:13:17.680975 30929 net.cpp:157] Top shape: 4 512 36 48 (3538944)
I1215 16:13:17.680977 30929 net.cpp:165] Memory required for data: 4384036264
I1215 16:13:17.680979 30929 layer_factory.hpp:77] Creating layer conv5_3
I1215 16:13:17.680989 30929 net.cpp:100] Creating Layer conv5_3
I1215 16:13:17.680994 30929 net.cpp:434] conv5_3 <- conv5_2
I1215 16:13:17.680999 30929 net.cpp:408] conv5_3 -> conv5_3
I1215 16:13:17.686947 30929 net.cpp:150] Setting up conv5_3
I1215 16:13:17.686969 30929 net.cpp:157] Top shape: 4 512 36 48 (3538944)
I1215 16:13:17.686971 30929 net.cpp:165] Memory required for data: 4398192040
I1215 16:13:17.686977 30929 layer_factory.hpp:77] Creating layer relu5_3
I1215 16:13:17.686983 30929 net.cpp:100] Creating Layer relu5_3
I1215 16:13:17.686986 30929 net.cpp:434] relu5_3 <- conv5_3
I1215 16:13:17.686992 30929 net.cpp:395] relu5_3 -> conv5_3 (in-place)
I1215 16:13:17.687247 30929 net.cpp:150] Setting up relu5_3
I1215 16:13:17.687256 30929 net.cpp:157] Top shape: 4 512 36 48 (3538944)
I1215 16:13:17.687259 30929 net.cpp:165] Memory required for data: 4412347816
I1215 16:13:17.687263 30929 layer_factory.hpp:77] Creating layer conv5_3_relu5_3_0_split
I1215 16:13:17.687269 30929 net.cpp:100] Creating Layer conv5_3_relu5_3_0_split
I1215 16:13:17.687273 30929 net.cpp:434] conv5_3_relu5_3_0_split <- conv5_3
I1215 16:13:17.687279 30929 net.cpp:408] conv5_3_relu5_3_0_split -> conv5_3_relu5_3_0_split_0
I1215 16:13:17.687286 30929 net.cpp:408] conv5_3_relu5_3_0_split -> conv5_3_relu5_3_0_split_1
I1215 16:13:17.687294 30929 net.cpp:408] conv5_3_relu5_3_0_split -> conv5_3_relu5_3_0_split_2
I1215 16:13:17.687350 30929 net.cpp:150] Setting up conv5_3_relu5_3_0_split
I1215 16:13:17.687356 30929 net.cpp:157] Top shape: 4 512 36 48 (3538944)
I1215 16:13:17.687360 30929 net.cpp:157] Top shape: 4 512 36 48 (3538944)
I1215 16:13:17.687363 30929 net.cpp:157] Top shape: 4 512 36 48 (3538944)
I1215 16:13:17.687366 30929 net.cpp:165] Memory required for data: 4454815144
I1215 16:13:17.687368 30929 layer_factory.hpp:77] Creating layer LFCN_2_3x5
I1215 16:13:17.687379 30929 net.cpp:100] Creating Layer LFCN_2_3x5
I1215 16:13:17.687383 30929 net.cpp:434] LFCN_2_3x5 <- conv5_3_relu5_3_0_split_0
I1215 16:13:17.687391 30929 net.cpp:408] LFCN_2_3x5 -> LFCN_2_3x5
I1215 16:13:17.689234 30929 net.cpp:150] Setting up LFCN_2_3x5
I1215 16:13:17.689249 30929 net.cpp:157] Top shape: 4 7 36 48 (48384)
I1215 16:13:17.689252 30929 net.cpp:165] Memory required for data: 4455008680
I1215 16:13:17.689267 30929 layer_factory.hpp:77] Creating layer LFCN_2_3x5_LFCN_2_3x5_0_split
I1215 16:13:17.689275 30929 net.cpp:100] Creating Layer LFCN_2_3x5_LFCN_2_3x5_0_split
I1215 16:13:17.689281 30929 net.cpp:434] LFCN_2_3x5_LFCN_2_3x5_0_split <- LFCN_2_3x5
I1215 16:13:17.689288 30929 net.cpp:408] LFCN_2_3x5_LFCN_2_3x5_0_split -> LFCN_2_3x5_LFCN_2_3x5_0_split_0
I1215 16:13:17.689298 30929 net.cpp:408] LFCN_2_3x5_LFCN_2_3x5_0_split -> LFCN_2_3x5_LFCN_2_3x5_0_split_1
I1215 16:13:17.689355 30929 net.cpp:150] Setting up LFCN_2_3x5_LFCN_2_3x5_0_split
I1215 16:13:17.689366 30929 net.cpp:157] Top shape: 4 7 36 48 (48384)
I1215 16:13:17.689369 30929 net.cpp:157] Top shape: 4 7 36 48 (48384)
I1215 16:13:17.689373 30929 net.cpp:165] Memory required for data: 4455395752
I1215 16:13:17.689375 30929 layer_factory.hpp:77] Creating layer detection_loss_2_3x5
I1215 16:13:17.689383 30929 net.cpp:100] Creating Layer detection_loss_2_3x5
I1215 16:13:17.689388 30929 net.cpp:434] detection_loss_2_3x5 <- LFCN_2_3x5_LFCN_2_3x5_0_split_0
I1215 16:13:17.689391 30929 net.cpp:434] detection_loss_2_3x5 <- label_2_3x5_data_3_split_0
I1215 16:13:17.689397 30929 net.cpp:408] detection_loss_2_3x5 -> loss_2_3x5
I1215 16:13:17.689406 30929 layer_factory.hpp:77] Creating layer detection_loss_2_3x5
I1215 16:13:17.690263 30929 net.cpp:150] Setting up detection_loss_2_3x5
I1215 16:13:17.690271 30929 net.cpp:157] Top shape: 1 1 1 2 (2)
I1215 16:13:17.690274 30929 net.cpp:160]     with loss weight 1
I1215 16:13:17.690284 30929 net.cpp:165] Memory required for data: 4455395760
I1215 16:13:17.690287 30929 layer_factory.hpp:77] Creating layer detection_accuracy_2_3x5
I1215 16:13:17.690295 30929 net.cpp:100] Creating Layer detection_accuracy_2_3x5
I1215 16:13:17.690301 30929 net.cpp:434] detection_accuracy_2_3x5 <- LFCN_2_3x5_LFCN_2_3x5_0_split_1
I1215 16:13:17.690306 30929 net.cpp:434] detection_accuracy_2_3x5 <- label_2_3x5_data_3_split_1
I1215 16:13:17.690312 30929 net.cpp:408] detection_accuracy_2_3x5 -> accuracy_2_3x5
I1215 16:13:17.690320 30929 net.cpp:408] detection_accuracy_2_3x5 -> boxiou_2_3x5
I1215 16:13:17.690367 30929 net.cpp:150] Setting up detection_accuracy_2_3x5
I1215 16:13:17.690372 30929 net.cpp:157] Top shape: 1 1 1 2 (2)
I1215 16:13:17.690374 30929 net.cpp:157] Top shape: 1 1 1 1 (1)
I1215 16:13:17.690377 30929 net.cpp:165] Memory required for data: 4455395772
I1215 16:13:17.690380 30929 layer_factory.hpp:77] Creating layer LFCN_2_5x7
I1215 16:13:17.690389 30929 net.cpp:100] Creating Layer LFCN_2_5x7
I1215 16:13:17.690393 30929 net.cpp:434] LFCN_2_5x7 <- conv5_3_relu5_3_0_split_1
I1215 16:13:17.690397 30929 net.cpp:408] LFCN_2_5x7 -> LFCN_2_5x7
I1215 16:13:17.693639 30929 net.cpp:150] Setting up LFCN_2_5x7
I1215 16:13:17.693656 30929 net.cpp:157] Top shape: 4 7 36 48 (48384)
I1215 16:13:17.693658 30929 net.cpp:165] Memory required for data: 4455589308
I1215 16:13:17.693665 30929 layer_factory.hpp:77] Creating layer LFCN_2_5x7_LFCN_2_5x7_0_split
I1215 16:13:17.693672 30929 net.cpp:100] Creating Layer LFCN_2_5x7_LFCN_2_5x7_0_split
I1215 16:13:17.693676 30929 net.cpp:434] LFCN_2_5x7_LFCN_2_5x7_0_split <- LFCN_2_5x7
I1215 16:13:17.693682 30929 net.cpp:408] LFCN_2_5x7_LFCN_2_5x7_0_split -> LFCN_2_5x7_LFCN_2_5x7_0_split_0
I1215 16:13:17.693689 30929 net.cpp:408] LFCN_2_5x7_LFCN_2_5x7_0_split -> LFCN_2_5x7_LFCN_2_5x7_0_split_1
I1215 16:13:17.693730 30929 net.cpp:150] Setting up LFCN_2_5x7_LFCN_2_5x7_0_split
I1215 16:13:17.693735 30929 net.cpp:157] Top shape: 4 7 36 48 (48384)
I1215 16:13:17.693738 30929 net.cpp:157] Top shape: 4 7 36 48 (48384)
I1215 16:13:17.693740 30929 net.cpp:165] Memory required for data: 4455976380
I1215 16:13:17.693743 30929 layer_factory.hpp:77] Creating layer detection_loss_2_5x7
I1215 16:13:17.693751 30929 net.cpp:100] Creating Layer detection_loss_2_5x7
I1215 16:13:17.693755 30929 net.cpp:434] detection_loss_2_5x7 <- LFCN_2_5x7_LFCN_2_5x7_0_split_0
I1215 16:13:17.693759 30929 net.cpp:434] detection_loss_2_5x7 <- label_2_5x7_data_4_split_0
I1215 16:13:17.693766 30929 net.cpp:408] detection_loss_2_5x7 -> loss_2_5x7
I1215 16:13:17.693773 30929 layer_factory.hpp:77] Creating layer detection_loss_2_5x7
I1215 16:13:17.694175 30929 net.cpp:150] Setting up detection_loss_2_5x7
I1215 16:13:17.694180 30929 net.cpp:157] Top shape: 1 1 1 2 (2)
I1215 16:13:17.694182 30929 net.cpp:160]     with loss weight 1
I1215 16:13:17.694190 30929 net.cpp:165] Memory required for data: 4455976388
I1215 16:13:17.694193 30929 layer_factory.hpp:77] Creating layer detection_accuracy_2_5x7
I1215 16:13:17.694201 30929 net.cpp:100] Creating Layer detection_accuracy_2_5x7
I1215 16:13:17.694205 30929 net.cpp:434] detection_accuracy_2_5x7 <- LFCN_2_5x7_LFCN_2_5x7_0_split_1
I1215 16:13:17.694208 30929 net.cpp:434] detection_accuracy_2_5x7 <- label_2_5x7_data_4_split_1
I1215 16:13:17.694214 30929 net.cpp:408] detection_accuracy_2_5x7 -> accuracy_2_5x7
I1215 16:13:17.694221 30929 net.cpp:408] detection_accuracy_2_5x7 -> boxiou_2_5x7
I1215 16:13:17.694260 30929 net.cpp:150] Setting up detection_accuracy_2_5x7
I1215 16:13:17.694267 30929 net.cpp:157] Top shape: 1 1 1 2 (2)
I1215 16:13:17.694269 30929 net.cpp:157] Top shape: 1 1 1 1 (1)
I1215 16:13:17.694272 30929 net.cpp:165] Memory required for data: 4455976400
I1215 16:13:17.694274 30929 layer_factory.hpp:77] Creating layer pool5
I1215 16:13:17.694283 30929 net.cpp:100] Creating Layer pool5
I1215 16:13:17.694286 30929 net.cpp:434] pool5 <- conv5_3_relu5_3_0_split_2
I1215 16:13:17.694291 30929 net.cpp:408] pool5 -> pool5
I1215 16:13:17.694332 30929 net.cpp:150] Setting up pool5
I1215 16:13:17.694337 30929 net.cpp:157] Top shape: 4 512 18 24 (884736)
I1215 16:13:17.694340 30929 net.cpp:165] Memory required for data: 4459515344
I1215 16:13:17.694344 30929 layer_factory.hpp:77] Creating layer conv6_1
I1215 16:13:17.694353 30929 net.cpp:100] Creating Layer conv6_1
I1215 16:13:17.694356 30929 net.cpp:434] conv6_1 <- pool5
I1215 16:13:17.694365 30929 net.cpp:408] conv6_1 -> conv6_1
I1215 16:13:17.714864 30929 net.cpp:150] Setting up conv6_1
I1215 16:13:17.714884 30929 net.cpp:157] Top shape: 4 512 18 24 (884736)
I1215 16:13:17.714886 30929 net.cpp:165] Memory required for data: 4463054288
I1215 16:13:17.714895 30929 layer_factory.hpp:77] Creating layer relu6_1
I1215 16:13:17.714903 30929 net.cpp:100] Creating Layer relu6_1
I1215 16:13:17.714907 30929 net.cpp:434] relu6_1 <- conv6_1
I1215 16:13:17.714915 30929 net.cpp:395] relu6_1 -> conv6_1 (in-place)
I1215 16:13:17.715173 30929 net.cpp:150] Setting up relu6_1
I1215 16:13:17.715183 30929 net.cpp:157] Top shape: 4 512 18 24 (884736)
I1215 16:13:17.715185 30929 net.cpp:165] Memory required for data: 4466593232
I1215 16:13:17.715188 30929 layer_factory.hpp:77] Creating layer conv6_1_relu6_1_0_split
I1215 16:13:17.715194 30929 net.cpp:100] Creating Layer conv6_1_relu6_1_0_split
I1215 16:13:17.715198 30929 net.cpp:434] conv6_1_relu6_1_0_split <- conv6_1
I1215 16:13:17.715204 30929 net.cpp:408] conv6_1_relu6_1_0_split -> conv6_1_relu6_1_0_split_0
I1215 16:13:17.715211 30929 net.cpp:408] conv6_1_relu6_1_0_split -> conv6_1_relu6_1_0_split_1
I1215 16:13:17.715216 30929 net.cpp:408] conv6_1_relu6_1_0_split -> conv6_1_relu6_1_0_split_2
I1215 16:13:17.715270 30929 net.cpp:150] Setting up conv6_1_relu6_1_0_split
I1215 16:13:17.715276 30929 net.cpp:157] Top shape: 4 512 18 24 (884736)
I1215 16:13:17.715278 30929 net.cpp:157] Top shape: 4 512 18 24 (884736)
I1215 16:13:17.715281 30929 net.cpp:157] Top shape: 4 512 18 24 (884736)
I1215 16:13:17.715283 30929 net.cpp:165] Memory required for data: 4477210064
I1215 16:13:17.715286 30929 layer_factory.hpp:77] Creating layer LFCN_3_3x5
I1215 16:13:17.715297 30929 net.cpp:100] Creating Layer LFCN_3_3x5
I1215 16:13:17.715301 30929 net.cpp:434] LFCN_3_3x5 <- conv6_1_relu6_1_0_split_0
I1215 16:13:17.715306 30929 net.cpp:408] LFCN_3_3x5 -> LFCN_3_3x5
I1215 16:13:17.718070 30929 net.cpp:150] Setting up LFCN_3_3x5
I1215 16:13:17.718088 30929 net.cpp:157] Top shape: 4 7 18 24 (12096)
I1215 16:13:17.718091 30929 net.cpp:165] Memory required for data: 4477258448
I1215 16:13:17.718097 30929 layer_factory.hpp:77] Creating layer LFCN_3_3x5_LFCN_3_3x5_0_split
I1215 16:13:17.718111 30929 net.cpp:100] Creating Layer LFCN_3_3x5_LFCN_3_3x5_0_split
I1215 16:13:17.718114 30929 net.cpp:434] LFCN_3_3x5_LFCN_3_3x5_0_split <- LFCN_3_3x5
I1215 16:13:17.718119 30929 net.cpp:408] LFCN_3_3x5_LFCN_3_3x5_0_split -> LFCN_3_3x5_LFCN_3_3x5_0_split_0
I1215 16:13:17.718127 30929 net.cpp:408] LFCN_3_3x5_LFCN_3_3x5_0_split -> LFCN_3_3x5_LFCN_3_3x5_0_split_1
I1215 16:13:17.718168 30929 net.cpp:150] Setting up LFCN_3_3x5_LFCN_3_3x5_0_split
I1215 16:13:17.718173 30929 net.cpp:157] Top shape: 4 7 18 24 (12096)
I1215 16:13:17.718176 30929 net.cpp:157] Top shape: 4 7 18 24 (12096)
I1215 16:13:17.718178 30929 net.cpp:165] Memory required for data: 4477355216
I1215 16:13:17.718181 30929 layer_factory.hpp:77] Creating layer detection_loss_3_3x5
I1215 16:13:17.718190 30929 net.cpp:100] Creating Layer detection_loss_3_3x5
I1215 16:13:17.718194 30929 net.cpp:434] detection_loss_3_3x5 <- LFCN_3_3x5_LFCN_3_3x5_0_split_0
I1215 16:13:17.718199 30929 net.cpp:434] detection_loss_3_3x5 <- label_3_3x5_data_5_split_0
I1215 16:13:17.718204 30929 net.cpp:408] detection_loss_3_3x5 -> loss_3_3x5
I1215 16:13:17.718214 30929 layer_factory.hpp:77] Creating layer detection_loss_3_3x5
I1215 16:13:17.719101 30929 net.cpp:150] Setting up detection_loss_3_3x5
I1215 16:13:17.719110 30929 net.cpp:157] Top shape: 1 1 1 2 (2)
I1215 16:13:17.719112 30929 net.cpp:160]     with loss weight 1
I1215 16:13:17.719120 30929 net.cpp:165] Memory required for data: 4477355224
I1215 16:13:17.719121 30929 layer_factory.hpp:77] Creating layer detection_accuracy_3_3x5
I1215 16:13:17.719126 30929 net.cpp:100] Creating Layer detection_accuracy_3_3x5
I1215 16:13:17.719130 30929 net.cpp:434] detection_accuracy_3_3x5 <- LFCN_3_3x5_LFCN_3_3x5_0_split_1
I1215 16:13:17.719133 30929 net.cpp:434] detection_accuracy_3_3x5 <- label_3_3x5_data_5_split_1
I1215 16:13:17.719141 30929 net.cpp:408] detection_accuracy_3_3x5 -> accuracy_3_3x5
I1215 16:13:17.719148 30929 net.cpp:408] detection_accuracy_3_3x5 -> boxiou_3_3x5
I1215 16:13:17.719187 30929 net.cpp:150] Setting up detection_accuracy_3_3x5
I1215 16:13:17.719192 30929 net.cpp:157] Top shape: 1 1 1 2 (2)
I1215 16:13:17.719193 30929 net.cpp:157] Top shape: 1 1 1 1 (1)
I1215 16:13:17.719195 30929 net.cpp:165] Memory required for data: 4477355236
I1215 16:13:17.719198 30929 layer_factory.hpp:77] Creating layer LFCN_3_5x7
I1215 16:13:17.719209 30929 net.cpp:100] Creating Layer LFCN_3_5x7
I1215 16:13:17.719213 30929 net.cpp:434] LFCN_3_5x7 <- conv6_1_relu6_1_0_split_1
I1215 16:13:17.719218 30929 net.cpp:408] LFCN_3_5x7 -> LFCN_3_5x7
I1215 16:13:17.721576 30929 net.cpp:150] Setting up LFCN_3_5x7
I1215 16:13:17.721591 30929 net.cpp:157] Top shape: 4 7 18 24 (12096)
I1215 16:13:17.721593 30929 net.cpp:165] Memory required for data: 4477403620
I1215 16:13:17.721599 30929 layer_factory.hpp:77] Creating layer LFCN_3_5x7_LFCN_3_5x7_0_split
I1215 16:13:17.721604 30929 net.cpp:100] Creating Layer LFCN_3_5x7_LFCN_3_5x7_0_split
I1215 16:13:17.721608 30929 net.cpp:434] LFCN_3_5x7_LFCN_3_5x7_0_split <- LFCN_3_5x7
I1215 16:13:17.721613 30929 net.cpp:408] LFCN_3_5x7_LFCN_3_5x7_0_split -> LFCN_3_5x7_LFCN_3_5x7_0_split_0
I1215 16:13:17.721619 30929 net.cpp:408] LFCN_3_5x7_LFCN_3_5x7_0_split -> LFCN_3_5x7_LFCN_3_5x7_0_split_1
I1215 16:13:17.721659 30929 net.cpp:150] Setting up LFCN_3_5x7_LFCN_3_5x7_0_split
I1215 16:13:17.721664 30929 net.cpp:157] Top shape: 4 7 18 24 (12096)
I1215 16:13:17.721668 30929 net.cpp:157] Top shape: 4 7 18 24 (12096)
I1215 16:13:17.721669 30929 net.cpp:165] Memory required for data: 4477500388
I1215 16:13:17.721673 30929 layer_factory.hpp:77] Creating layer detection_loss_3_5x7
I1215 16:13:17.721679 30929 net.cpp:100] Creating Layer detection_loss_3_5x7
I1215 16:13:17.721683 30929 net.cpp:434] detection_loss_3_5x7 <- LFCN_3_5x7_LFCN_3_5x7_0_split_0
I1215 16:13:17.721688 30929 net.cpp:434] detection_loss_3_5x7 <- label_3_5x7_data_6_split_0
I1215 16:13:17.721693 30929 net.cpp:408] detection_loss_3_5x7 -> loss_3_5x7
I1215 16:13:17.721700 30929 layer_factory.hpp:77] Creating layer detection_loss_3_5x7
I1215 16:13:17.722101 30929 net.cpp:150] Setting up detection_loss_3_5x7
I1215 16:13:17.722108 30929 net.cpp:157] Top shape: 1 1 1 2 (2)
I1215 16:13:17.722110 30929 net.cpp:160]     with loss weight 1
I1215 16:13:17.722117 30929 net.cpp:165] Memory required for data: 4477500396
I1215 16:13:17.722121 30929 layer_factory.hpp:77] Creating layer detection_accuracy_3_5x7
I1215 16:13:17.722128 30929 net.cpp:100] Creating Layer detection_accuracy_3_5x7
I1215 16:13:17.722132 30929 net.cpp:434] detection_accuracy_3_5x7 <- LFCN_3_5x7_LFCN_3_5x7_0_split_1
I1215 16:13:17.722136 30929 net.cpp:434] detection_accuracy_3_5x7 <- label_3_5x7_data_6_split_1
I1215 16:13:17.722142 30929 net.cpp:408] detection_accuracy_3_5x7 -> accuracy_3_5x7
I1215 16:13:17.722149 30929 net.cpp:408] detection_accuracy_3_5x7 -> boxiou_3_5x7
I1215 16:13:17.722189 30929 net.cpp:150] Setting up detection_accuracy_3_5x7
I1215 16:13:17.722195 30929 net.cpp:157] Top shape: 1 1 1 2 (2)
I1215 16:13:17.722198 30929 net.cpp:157] Top shape: 1 1 1 1 (1)
I1215 16:13:17.722201 30929 net.cpp:165] Memory required for data: 4477500408
I1215 16:13:17.722204 30929 layer_factory.hpp:77] Creating layer pool6
I1215 16:13:17.722213 30929 net.cpp:100] Creating Layer pool6
I1215 16:13:17.722216 30929 net.cpp:434] pool6 <- conv6_1_relu6_1_0_split_2
I1215 16:13:17.722221 30929 net.cpp:408] pool6 -> pool6
I1215 16:13:17.722257 30929 net.cpp:150] Setting up pool6
I1215 16:13:17.722262 30929 net.cpp:157] Top shape: 4 512 9 12 (221184)
I1215 16:13:17.722265 30929 net.cpp:165] Memory required for data: 4478385144
I1215 16:13:17.722268 30929 layer_factory.hpp:77] Creating layer LFCN_4_3x5
I1215 16:13:17.722277 30929 net.cpp:100] Creating Layer LFCN_4_3x5
I1215 16:13:17.722281 30929 net.cpp:434] LFCN_4_3x5 <- pool6
I1215 16:13:17.722288 30929 net.cpp:408] LFCN_4_3x5 -> LFCN_4_3x5
I1215 16:13:17.724571 30929 net.cpp:150] Setting up LFCN_4_3x5
I1215 16:13:17.724584 30929 net.cpp:157] Top shape: 4 7 9 12 (3024)
I1215 16:13:17.724587 30929 net.cpp:165] Memory required for data: 4478397240
I1215 16:13:17.724596 30929 layer_factory.hpp:77] Creating layer LFCN_4_3x5_LFCN_4_3x5_0_split
I1215 16:13:17.724604 30929 net.cpp:100] Creating Layer LFCN_4_3x5_LFCN_4_3x5_0_split
I1215 16:13:17.724609 30929 net.cpp:434] LFCN_4_3x5_LFCN_4_3x5_0_split <- LFCN_4_3x5
I1215 16:13:17.724617 30929 net.cpp:408] LFCN_4_3x5_LFCN_4_3x5_0_split -> LFCN_4_3x5_LFCN_4_3x5_0_split_0
I1215 16:13:17.724627 30929 net.cpp:408] LFCN_4_3x5_LFCN_4_3x5_0_split -> LFCN_4_3x5_LFCN_4_3x5_0_split_1
I1215 16:13:17.724668 30929 net.cpp:150] Setting up LFCN_4_3x5_LFCN_4_3x5_0_split
I1215 16:13:17.724673 30929 net.cpp:157] Top shape: 4 7 9 12 (3024)
I1215 16:13:17.724678 30929 net.cpp:157] Top shape: 4 7 9 12 (3024)
I1215 16:13:17.724679 30929 net.cpp:165] Memory required for data: 4478421432
I1215 16:13:17.724683 30929 layer_factory.hpp:77] Creating layer detection_loss_4_3x5
I1215 16:13:17.724690 30929 net.cpp:100] Creating Layer detection_loss_4_3x5
I1215 16:13:17.724694 30929 net.cpp:434] detection_loss_4_3x5 <- LFCN_4_3x5_LFCN_4_3x5_0_split_0
I1215 16:13:17.724699 30929 net.cpp:434] detection_loss_4_3x5 <- label_4_3x5_data_7_split_0
I1215 16:13:17.724705 30929 net.cpp:408] detection_loss_4_3x5 -> loss_4_3x5
I1215 16:13:17.724714 30929 layer_factory.hpp:77] Creating layer detection_loss_4_3x5
I1215 16:13:17.725195 30929 net.cpp:150] Setting up detection_loss_4_3x5
I1215 16:13:17.725208 30929 net.cpp:157] Top shape: 1 1 1 2 (2)
I1215 16:13:17.725209 30929 net.cpp:160]     with loss weight 1
I1215 16:13:17.725219 30929 net.cpp:165] Memory required for data: 4478421440
I1215 16:13:17.725222 30929 layer_factory.hpp:77] Creating layer detection_accuracy_4_3x5
I1215 16:13:17.725232 30929 net.cpp:100] Creating Layer detection_accuracy_4_3x5
I1215 16:13:17.725236 30929 net.cpp:434] detection_accuracy_4_3x5 <- LFCN_4_3x5_LFCN_4_3x5_0_split_1
I1215 16:13:17.725242 30929 net.cpp:434] detection_accuracy_4_3x5 <- label_4_3x5_data_7_split_1
I1215 16:13:17.725250 30929 net.cpp:408] detection_accuracy_4_3x5 -> accuracy_4_3x5
I1215 16:13:17.725257 30929 net.cpp:408] detection_accuracy_4_3x5 -> boxiou_4_3x5
I1215 16:13:17.725299 30929 net.cpp:150] Setting up detection_accuracy_4_3x5
I1215 16:13:17.725306 30929 net.cpp:157] Top shape: 1 1 1 2 (2)
I1215 16:13:17.725309 30929 net.cpp:157] Top shape: 1 1 1 1 (1)
I1215 16:13:17.725311 30929 net.cpp:165] Memory required for data: 4478421452
I1215 16:13:17.725314 30929 net.cpp:228] detection_accuracy_4_3x5 does not need backward computation.
I1215 16:13:17.725318 30929 net.cpp:226] detection_loss_4_3x5 needs backward computation.
I1215 16:13:17.725322 30929 net.cpp:226] LFCN_4_3x5_LFCN_4_3x5_0_split needs backward computation.
I1215 16:13:17.725325 30929 net.cpp:226] LFCN_4_3x5 needs backward computation.
…
I1215 16:13:17.745426 30929 image_gt_data_layer.cpp:241] output label size 2 : 2,6,36,48
I1215 16:13:17.745476 30929 image_gt_data_layer.cpp:241] output label size 3 : 2,6,36,48
I1215 16:13:17.745527 30929 image_gt_data_layer.cpp:241] output label size 4 : 2,6,18,24
I1215 16:13:17.745575 30929 image_gt_data_layer.cpp:241] output label size 5 : 2,6,18,24
I1215 16:13:17.745625 30929 image_gt_data_layer.cpp:241] output label size 6 : 2,6,9,12
I1215 16:13:17.745628 30929 image_gt_data_layer.cpp:265]  --> has_mean_values_ = 1
I1215 16:13:17.764966 30929 net.cpp:150] Setting up data
I1215 16:13:17.764984 30929 net.cpp:157] Top shape: 2 4 576 768 (3538944)
I1215 16:13:17.764989 30929 net.cpp:157] Top shape: 2 6 72 96 (82944)
I1215 16:13:17.764992 30929 net.cpp:157] Top shape: 2 6 72 96 (82944)
I1215 16:13:17.764997 30929 net.cpp:157] Top shape: 2 6 36 48 (20736)
I1215 16:13:17.764999 30929 net.cpp:157] Top shape: 2 6 36 48 (20736)
I1215 16:13:17.765003 30929 net.cpp:157] Top shape: 2 6 18 24 (5184)
I1215 16:13:17.765007 30929 net.cpp:157] Top shape: 2 6 18 24 (5184)
I1215 16:13:17.765010 30929 net.cpp:157] Top shape: 2 6 9 12 (1296)
I1215 16:13:17.765013 30929 net.cpp:165] Memory required for data: 15031872
I1215 16:13:17.765019 30929 layer_factory.hpp:77] Creating layer label_1_3x5_data_1_split
I1215 16:13:17.765038 30929 net.cpp:100] Creating Layer label_1_3x5_data_1_split
I1215 16:13:17.765043 30929 net.cpp:434] label_1_3x5_data_1_split <- label_1_3x5
I1215 16:13:17.765053 30929 net.cpp:408] label_1_3x5_data_1_split -> label_1_3x5_data_1_split_0
I1215 16:13:17.765064 30929 net.cpp:408] label_1_3x5_data_1_split -> label_1_3x5_data_1_split_1
I1215 16:13:17.765175 30929 net.cpp:150] Setting up label_1_3x5_data_1_split
I1215 16:13:17.765187 30929 net.cpp:157] Top shape: 2 6 72 96 (82944)
I1215 16:13:17.765190 30929 net.cpp:157] Top shape: 2 6 72 96 (82944)
I1215 16:13:17.765192 30929 net.cpp:165] Memory required for data: 15695424
I1215 16:13:17.765197 30929 layer_factory.hpp:77] Creating layer label_1_5x7_data_2_split
I1215 16:13:17.765203 30929 net.cpp:100] Creating Layer label_1_5x7_data_2_split
I1215 16:13:17.765206 30929 net.cpp:434] label_1_5x7_data_2_split <- label_1_5x7
I1215 16:13:17.765213 30929 net.cpp:408] label_1_5x7_data_2_split -> label_1_5x7_data_2_split_0
I1215 16:13:17.765223 30929 net.cpp:408] label_1_5x7_data_2_split -> label_1_5x7_data_2_split_1
I1215 16:13:17.765262 30929 net.cpp:150] Setting up label_1_5x7_data_2_split
I1215 16:13:17.765267 30929 net.cpp:157] Top shape: 2 6 72 96 (82944)
I1215 16:13:17.765271 30929 net.cpp:157] Top shape: 2 6 72 96 (82944)
I1215 16:13:17.765274 30929 net.cpp:165] Memory required for data: 16358976
I1215 16:13:17.765276 30929 layer_factory.hpp:77] Creating layer label_2_3x5_data_3_split
I1215 16:13:17.765281 30929 net.cpp:100] Creating Layer label_2_3x5_data_3_split
I1215 16:13:17.765285 30929 net.cpp:434] label_2_3x5_data_3_split <- label_2_3x5
I1215 16:13:17.765290 30929 net.cpp:408] label_2_3x5_data_3_split -> label_2_3x5_data_3_split_0
I1215 16:13:17.765296 30929 net.cpp:408] label_2_3x5_data_3_split -> label_2_3x5_data_3_split_1
I1215 16:13:17.765331 30929 net.cpp:150] Setting up label_2_3x5_data_3_split
I1215 16:13:17.765336 30929 net.cpp:157] Top shape: 2 6 36 48 (20736)
I1215 16:13:17.765341 30929 net.cpp:157] Top shape: 2 6 36 48 (20736)
I1215 16:13:17.765342 30929 net.cpp:165] Memory required for data: 16524864
I1215 16:13:17.765345 30929 layer_factory.hpp:77] Creating layer label_2_5x7_data_4_split
I1215 16:13:17.765350 30929 net.cpp:100] Creating Layer label_2_5x7_data_4_split
I1215 16:13:17.765353 30929 net.cpp:434] label_2_5x7_data_4_split <- label_2_5x7
I1215 16:13:17.765360 30929 net.cpp:408] label_2_5x7_data_4_split -> label_2_5x7_data_4_split_0
I1215 16:13:17.765367 30929 net.cpp:408] label_2_5x7_data_4_split -> label_2_5x7_data_4_split_1
I1215 16:13:17.765403 30929 net.cpp:150] Setting up label_2_5x7_data_4_split
I1215 16:13:17.765408 30929 net.cpp:157] Top shape: 2 6 36 48 (20736)
I1215 16:13:17.765411 30929 net.cpp:157] Top shape: 2 6 36 48 (20736)
I1215 16:13:17.765413 30929 net.cpp:165] Memory required for data: 16690752
I1215 16:13:17.765416 30929 layer_factory.hpp:77] Creating layer label_3_3x5_data_5_split
I1215 16:13:17.765420 30929 net.cpp:100] Creating Layer label_3_3x5_data_5_split
I1215 16:13:17.765424 30929 net.cpp:434] label_3_3x5_data_5_split <- label_3_3x5
I1215 16:13:17.765427 30929 net.cpp:408] label_3_3x5_data_5_split -> label_3_3x5_data_5_split_0
I1215 16:13:17.765437 30929 net.cpp:408] label_3_3x5_data_5_split -> label_3_3x5_data_5_split_1
I1215 16:13:17.765503 30929 net.cpp:150] Setting up label_3_3x5_data_5_split
I1215 16:13:17.765509 30929 net.cpp:157] Top shape: 2 6 18 24 (5184)
I1215 16:13:17.765513 30929 net.cpp:157] Top shape: 2 6 18 24 (5184)
I1215 16:13:17.765516 30929 net.cpp:165] Memory required for data: 16732224
I1215 16:13:17.765519 30929 layer_factory.hpp:77] Creating layer label_3_5x7_data_6_split
I1215 16:13:17.765525 30929 net.cpp:100] Creating Layer label_3_5x7_data_6_split
I1215 16:13:17.765529 30929 net.cpp:434] label_3_5x7_data_6_split <- label_3_5x7
I1215 16:13:17.765534 30929 net.cpp:408] label_3_5x7_data_6_split -> label_3_5x7_data_6_split_0
I1215 16:13:17.765542 30929 net.cpp:408] label_3_5x7_data_6_split -> label_3_5x7_data_6_split_1
I1215 16:13:17.766683 30929 net.cpp:150] Setting up label_3_5x7_data_6_split
I1215 16:13:17.766692 30929 net.cpp:157] Top shape: 2 6 18 24 (5184)
I1215 16:13:17.766696 30929 net.cpp:157] Top shape: 2 6 18 24 (5184)
I1215 16:13:17.766700 30929 net.cpp:165] Memory required for data: 16773696
I1215 16:13:17.766703 30929 layer_factory.hpp:77] Creating layer label_4_3x5_data_7_split
I1215 16:13:17.766710 30929 net.cpp:100] Creating Layer label_4_3x5_data_7_split
I1215 16:13:17.766713 30929 net.cpp:434] label_4_3x5_data_7_split <- label_4_3x5
I1215 16:13:17.766719 30929 net.cpp:408] label_4_3x5_data_7_split -> label_4_3x5_data_7_split_0
I1215 16:13:17.766733 30929 net.cpp:408] label_4_3x5_data_7_split -> label_4_3x5_data_7_split_1
I1215 16:13:17.766814 30929 net.cpp:150] Setting up label_4_3x5_data_7_split
I1215 16:13:17.766829 30929 net.cpp:157] Top shape: 2 6 9 12 (1296)
I1215 16:13:17.766832 30929 net.cpp:157] Top shape: 2 6 9 12 (1296)
I1215 16:13:17.766834 30929 net.cpp:165] Memory required for data: 16784064
I1215 16:13:17.766839 30929 layer_factory.hpp:77] Creating layer conv1_1
I1215 16:13:17.766863 30929 net.cpp:100] Creating Layer conv1_1
I1215 16:13:17.766870 30929 net.cpp:434] conv1_1 <- data
I1215 16:13:17.766877 30929 net.cpp:408] conv1_1 -> conv1_1
I1215 16:13:17.770946 30929 net.cpp:150] Setting up conv1_1
I1215 16:13:17.770967 30929 net.cpp:157] Top shape: 2 64 576 768 (56623104)
I1215 16:13:17.770968 30929 net.cpp:165] Memory required for data: 243276480
I1215 16:13:17.770987 30929 layer_factory.hpp:77] Creating layer relu1_1
I1215 16:13:17.770998 30929 net.cpp:100] Creating Layer relu1_1
I1215 16:13:17.771004 30929 net.cpp:434] relu1_1 <- conv1_1
I1215 16:13:17.771010 30929 net.cpp:395] relu1_1 -> conv1_1 (in-place)
I1215 16:13:17.771805 30929 net.cpp:150] Setting up relu1_1
I1215 16:13:17.771816 30929 net.cpp:157] Top shape: 2 64 576 768 (56623104)
I1215 16:13:17.771818 30929 net.cpp:165] Memory required for data: 469768896
I1215 16:13:17.771822 30929 layer_factory.hpp:77] Creating layer conv1_2
I1215 16:13:17.771831 30929 net.cpp:100] Creating Layer conv1_2
I1215 16:13:17.771836 30929 net.cpp:434] conv1_2 <- conv1_1
I1215 16:13:17.771842 30929 net.cpp:408] conv1_2 -> conv1_2
I1215 16:13:17.774399 30929 net.cpp:150] Setting up conv1_2
I1215 16:13:17.774421 30929 net.cpp:157] Top shape: 2 64 576 768 (56623104)
I1215 16:13:17.774425 30929 net.cpp:165] Memory required for data: 696261312
I1215 16:13:17.774441 30929 layer_factory.hpp:77] Creating layer relu1_2
I1215 16:13:17.774451 30929 net.cpp:100] Creating Layer relu1_2
I1215 16:13:17.774458 30929 net.cpp:434] relu1_2 <- conv1_2
I1215 16:13:17.774466 30929 net.cpp:395] relu1_2 -> conv1_2 (in-place)
I1215 16:13:17.775323 30929 net.cpp:150] Setting up relu1_2
I1215 16:13:17.775336 30929 net.cpp:157] Top shape: 2 64 576 768 (56623104)
I1215 16:13:17.775339 30929 net.cpp:165] Memory required for data: 922753728
I1215 16:13:17.775343 30929 layer_factory.hpp:77] Creating layer pool1
I1215 16:13:17.775352 30929 net.cpp:100] Creating Layer pool1
I1215 16:13:17.775357 30929 net.cpp:434] pool1 <- conv1_2
I1215 16:13:17.775363 30929 net.cpp:408] pool1 -> pool1
I1215 16:13:17.775416 30929 net.cpp:150] Setting up pool1
I1215 16:13:17.775422 30929 net.cpp:157] Top shape: 2 64 288 384 (14155776)
I1215 16:13:17.775425 30929 net.cpp:165] Memory required for data: 979376832
I1215 16:13:17.775429 30929 layer_factory.hpp:77] Creating layer conv2_1
I1215 16:13:17.775435 30929 net.cpp:100] Creating Layer conv2_1
I1215 16:13:17.775451 30929 net.cpp:434] conv2_1 <- pool1
I1215 16:13:17.775458 30929 net.cpp:408] conv2_1 -> conv2_1
I1215 16:13:17.777420 30929 net.cpp:150] Setting up conv2_1
I1215 16:13:17.777434 30929 net.cpp:157] Top shape: 2 128 288 384 (28311552)
I1215 16:13:17.777436 30929 net.cpp:165] Memory required for data: 1092623040
I1215 16:13:17.777446 30929 layer_factory.hpp:77] Creating layer relu2_1
I1215 16:13:17.777458 30929 net.cpp:100] Creating Layer relu2_1
I1215 16:13:17.777462 30929 net.cpp:434] relu2_1 <- conv2_1
I1215 16:13:17.777468 30929 net.cpp:395] relu2_1 -> conv2_1 (in-place)
I1215 16:13:17.777842 30929 net.cpp:150] Setting up relu2_1
I1215 16:13:17.777853 30929 net.cpp:157] Top shape: 2 128 288 384 (28311552)
I1215 16:13:17.777854 30929 net.cpp:165] Memory required for data: 1205869248
I1215 16:13:17.777858 30929 layer_factory.hpp:77] Creating layer conv2_2
I1215 16:13:17.777868 30929 net.cpp:100] Creating Layer conv2_2
I1215 16:13:17.777871 30929 net.cpp:434] conv2_2 <- conv2_1
I1215 16:13:17.777878 30929 net.cpp:408] conv2_2 -> conv2_2
I1215 16:13:17.781407 30929 net.cpp:150] Setting up conv2_2
I1215 16:13:17.781427 30929 net.cpp:157] Top shape: 2 128 288 384 (28311552)
I1215 16:13:17.781430 30929 net.cpp:165] Memory required for data: 1319115456
I1215 16:13:17.781438 30929 layer_factory.hpp:77] Creating layer relu2_2
I1215 16:13:17.781455 30929 net.cpp:100] Creating Layer relu2_2
I1215 16:13:17.781461 30929 net.cpp:434] relu2_2 <- conv2_2
I1215 16:13:17.781466 30929 net.cpp:395] relu2_2 -> conv2_2 (in-place)
I1215 16:13:17.781911 30929 net.cpp:150] Setting up relu2_2
I1215 16:13:17.781920 30929 net.cpp:157] Top shape: 2 128 288 384 (28311552)
I1215 16:13:17.781922 30929 net.cpp:165] Memory required for data: 1432361664
I1215 16:13:17.781924 30929 layer_factory.hpp:77] Creating layer pool2
I1215 16:13:17.781931 30929 net.cpp:100] Creating Layer pool2
I1215 16:13:17.781934 30929 net.cpp:434] pool2 <- conv2_2
I1215 16:13:17.781941 30929 net.cpp:408] pool2 -> pool2
I1215 16:13:17.782033 30929 net.cpp:150] Setting up pool2
I1215 16:13:17.782040 30929 net.cpp:157] Top shape: 2 128 144 192 (7077888)
I1215 16:13:17.782043 30929 net.cpp:165] Memory required for data: 1460673216
I1215 16:13:17.782047 30929 layer_factory.hpp:77] Creating layer conv3_1
I1215 16:13:17.782058 30929 net.cpp:100] Creating Layer conv3_1
I1215 16:13:17.782063 30929 net.cpp:434] conv3_1 <- pool2
I1215 16:13:17.782068 30929 net.cpp:408] conv3_1 -> conv3_1
I1215 16:13:17.784759 30929 net.cpp:150] Setting up conv3_1
I1215 16:13:17.784775 30929 net.cpp:157] Top shape: 2 256 144 192 (14155776)
I1215 16:13:17.784778 30929 net.cpp:165] Memory required for data: 1517296320
I1215 16:13:17.784791 30929 layer_factory.hpp:77] Creating layer relu3_1
I1215 16:13:17.784801 30929 net.cpp:100] Creating Layer relu3_1
I1215 16:13:17.784804 30929 net.cpp:434] relu3_1 <- conv3_1
I1215 16:13:17.784812 30929 net.cpp:395] relu3_1 -> conv3_1 (in-place)
I1215 16:13:17.785624 30929 net.cpp:150] Setting up relu3_1
I1215 16:13:17.785634 30929 net.cpp:157] Top shape: 2 256 144 192 (14155776)
I1215 16:13:17.785636 30929 net.cpp:165] Memory required for data: 1573919424
I1215 16:13:17.785640 30929 layer_factory.hpp:77] Creating layer conv3_2
I1215 16:13:17.785651 30929 net.cpp:100] Creating Layer conv3_2
I1215 16:13:17.785656 30929 net.cpp:434] conv3_2 <- conv3_1
I1215 16:13:17.785662 30929 net.cpp:408] conv3_2 -> conv3_2
I1215 16:13:17.789156 30929 net.cpp:150] Setting up conv3_2
I1215 16:13:17.789175 30929 net.cpp:157] Top shape: 2 256 144 192 (14155776)
I1215 16:13:17.789177 30929 net.cpp:165] Memory required for data: 1630542528
I1215 16:13:17.789186 30929 layer_factory.hpp:77] Creating layer relu3_2
I1215 16:13:17.789198 30929 net.cpp:100] Creating Layer relu3_2
I1215 16:13:17.789203 30929 net.cpp:434] relu3_2 <- conv3_2
I1215 16:13:17.789211 30929 net.cpp:395] relu3_2 -> conv3_2 (in-place)
I1215 16:13:17.789590 30929 net.cpp:150] Setting up relu3_2
I1215 16:13:17.789598 30929 net.cpp:157] Top shape: 2 256 144 192 (14155776)
I1215 16:13:17.789600 30929 net.cpp:165] Memory required for data: 1687165632
I1215 16:13:17.789602 30929 layer_factory.hpp:77] Creating layer conv3_3
I1215 16:13:17.789613 30929 net.cpp:100] Creating Layer conv3_3
I1215 16:13:17.789616 30929 net.cpp:434] conv3_3 <- conv3_2
I1215 16:13:17.789621 30929 net.cpp:408] conv3_3 -> conv3_3
I1215 16:13:17.794452 30929 net.cpp:150] Setting up conv3_3
I1215 16:13:17.794476 30929 net.cpp:157] Top shape: 2 256 144 192 (14155776)
I1215 16:13:17.794479 30929 net.cpp:165] Memory required for data: 1743788736
I1215 16:13:17.794490 30929 layer_factory.hpp:77] Creating layer relu3_3
I1215 16:13:17.794499 30929 net.cpp:100] Creating Layer relu3_3
I1215 16:13:17.794504 30929 net.cpp:434] relu3_3 <- conv3_3
I1215 16:13:17.794512 30929 net.cpp:395] relu3_3 -> conv3_3 (in-place)
I1215 16:13:17.795018 30929 net.cpp:150] Setting up relu3_3
I1215 16:13:17.795032 30929 net.cpp:157] Top shape: 2 256 144 192 (14155776)
I1215 16:13:17.795035 30929 net.cpp:165] Memory required for data: 1800411840
I1215 16:13:17.795040 30929 layer_factory.hpp:77] Creating layer pool3
I1215 16:13:17.795051 30929 net.cpp:100] Creating Layer pool3
I1215 16:13:17.795055 30929 net.cpp:434] pool3 <- conv3_3
I1215 16:13:17.795063 30929 net.cpp:408] pool3 -> pool3
I1215 16:13:17.795145 30929 net.cpp:150] Setting up pool3
I1215 16:13:17.795152 30929 net.cpp:157] Top shape: 2 256 72 96 (3538944)
I1215 16:13:17.795156 30929 net.cpp:165] Memory required for data: 1814567616
I1215 16:13:17.795158 30929 layer_factory.hpp:77] Creating layer conv4_1
I1215 16:13:17.795166 30929 net.cpp:100] Creating Layer conv4_1
I1215 16:13:17.795171 30929 net.cpp:434] conv4_1 <- pool3
I1215 16:13:17.795178 30929 net.cpp:408] conv4_1 -> conv4_1
I1215 16:13:17.800176 30929 net.cpp:150] Setting up conv4_1
I1215 16:13:17.800194 30929 net.cpp:157] Top shape: 2 512 72 96 (7077888)
I1215 16:13:17.800195 30929 net.cpp:165] Memory required for data: 1842879168
I1215 16:13:17.800202 30929 layer_factory.hpp:77] Creating layer relu4_1
I1215 16:13:17.800210 30929 net.cpp:100] Creating Layer relu4_1
I1215 16:13:17.800213 30929 net.cpp:434] relu4_1 <- conv4_1
I1215 16:13:17.800217 30929 net.cpp:395] relu4_1 -> conv4_1 (in-place)
I1215 16:13:17.800958 30929 net.cpp:150] Setting up relu4_1
I1215 16:13:17.800968 30929 net.cpp:157] Top shape: 2 512 72 96 (7077888)
I1215 16:13:17.800971 30929 net.cpp:165] Memory required for data: 1871190720
I1215 16:13:17.800973 30929 layer_factory.hpp:77] Creating layer conv4_2
I1215 16:13:17.800985 30929 net.cpp:100] Creating Layer conv4_2
I1215 16:13:17.800992 30929 net.cpp:434] conv4_2 <- conv4_1
I1215 16:13:17.800999 30929 net.cpp:408] conv4_2 -> conv4_2
I1215 16:13:17.806995 30929 net.cpp:150] Setting up conv4_2
I1215 16:13:17.807016 30929 net.cpp:157] Top shape: 2 512 72 96 (7077888)
I1215 16:13:17.807018 30929 net.cpp:165] Memory required for data: 1899502272
I1215 16:13:17.807034 30929 layer_factory.hpp:77] Creating layer relu4_2
I1215 16:13:17.807044 30929 net.cpp:100] Creating Layer relu4_2
I1215 16:13:17.807054 30929 net.cpp:434] relu4_2 <- conv4_2
I1215 16:13:17.807061 30929 net.cpp:395] relu4_2 -> conv4_2 (in-place)
I1215 16:13:17.807319 30929 net.cpp:150] Setting up relu4_2
I1215 16:13:17.807327 30929 net.cpp:157] Top shape: 2 512 72 96 (7077888)
I1215 16:13:17.807329 30929 net.cpp:165] Memory required for data: 1927813824
I1215 16:13:17.807332 30929 layer_factory.hpp:77] Creating layer conv4_3
I1215 16:13:17.807341 30929 net.cpp:100] Creating Layer conv4_3
I1215 16:13:17.807345 30929 net.cpp:434] conv4_3 <- conv4_2
I1215 16:13:17.807350 30929 net.cpp:408] conv4_3 -> conv4_3
I1215 16:13:17.813763 30929 net.cpp:150] Setting up conv4_3
I1215 16:13:17.813782 30929 net.cpp:157] Top shape: 2 512 72 96 (7077888)
I1215 16:13:17.813786 30929 net.cpp:165] Memory required for data: 1956125376
I1215 16:13:17.813794 30929 layer_factory.hpp:77] Creating layer relu4_3
I1215 16:13:17.813804 30929 net.cpp:100] Creating Layer relu4_3
I1215 16:13:17.813808 30929 net.cpp:434] relu4_3 <- conv4_3
I1215 16:13:17.813817 30929 net.cpp:395] relu4_3 -> conv4_3 (in-place)
I1215 16:13:17.814074 30929 net.cpp:150] Setting up relu4_3
I1215 16:13:17.814082 30929 net.cpp:157] Top shape: 2 512 72 96 (7077888)
I1215 16:13:17.814085 30929 net.cpp:165] Memory required for data: 1984436928
I1215 16:13:17.814088 30929 layer_factory.hpp:77] Creating layer conv4_3_relu4_3_0_split
I1215 16:13:17.814096 30929 net.cpp:100] Creating Layer conv4_3_relu4_3_0_split
I1215 16:13:17.814101 30929 net.cpp:434] conv4_3_relu4_3_0_split <- conv4_3
I1215 16:13:17.814108 30929 net.cpp:408] conv4_3_relu4_3_0_split -> conv4_3_relu4_3_0_split_0
I1215 16:13:17.814116 30929 net.cpp:408] conv4_3_relu4_3_0_split -> conv4_3_relu4_3_0_split_1
I1215 16:13:17.814170 30929 net.cpp:150] Setting up conv4_3_relu4_3_0_split
I1215 16:13:17.814177 30929 net.cpp:157] Top shape: 2 512 72 96 (7077888)
I1215 16:13:17.814180 30929 net.cpp:157] Top shape: 2 512 72 96 (7077888)
I1215 16:13:17.814183 30929 net.cpp:165] Memory required for data: 2041060032
I1215 16:13:17.814186 30929 layer_factory.hpp:77] Creating layer loss1_conv1
I1215 16:13:17.814206 30929 net.cpp:100] Creating Layer loss1_conv1
I1215 16:13:17.814211 30929 net.cpp:434] loss1_conv1 <- conv4_3_relu4_3_0_split_0
I1215 16:13:17.814218 30929 net.cpp:408] loss1_conv1 -> loss1_conv1
I1215 16:13:17.835901 30929 net.cpp:150] Setting up loss1_conv1
I1215 16:13:17.835917 30929 net.cpp:157] Top shape: 2 512 72 96 (7077888)
I1215 16:13:17.835919 30929 net.cpp:165] Memory required for data: 2069371584
I1215 16:13:17.835927 30929 layer_factory.hpp:77] Creating layer loss_relu1
I1215 16:13:17.835937 30929 net.cpp:100] Creating Layer loss_relu1
I1215 16:13:17.835940 30929 net.cpp:434] loss_relu1 <- loss1_conv1
I1215 16:13:17.835947 30929 net.cpp:395] loss_relu1 -> loss1_conv1 (in-place)
I1215 16:13:17.836707 30929 net.cpp:150] Setting up loss_relu1
I1215 16:13:17.836719 30929 net.cpp:157] Top shape: 2 512 72 96 (7077888)
I1215 16:13:17.836720 30929 net.cpp:165] Memory required for data: 2097683136
I1215 16:13:17.836724 30929 layer_factory.hpp:77] Creating layer loss1_conv1_loss_relu1_0_split
I1215 16:13:17.836733 30929 net.cpp:100] Creating Layer loss1_conv1_loss_relu1_0_split
I1215 16:13:17.836738 30929 net.cpp:434] loss1_conv1_loss_relu1_0_split <- loss1_conv1
I1215 16:13:17.836745 30929 net.cpp:408] loss1_conv1_loss_relu1_0_split -> loss1_conv1_loss_relu1_0_split_0
I1215 16:13:17.836752 30929 net.cpp:408] loss1_conv1_loss_relu1_0_split -> loss1_conv1_loss_relu1_0_split_1
I1215 16:13:17.836802 30929 net.cpp:150] Setting up loss1_conv1_loss_relu1_0_split
I1215 16:13:17.836807 30929 net.cpp:157] Top shape: 2 512 72 96 (7077888)
I1215 16:13:17.836812 30929 net.cpp:157] Top shape: 2 512 72 96 (7077888)
I1215 16:13:17.836814 30929 net.cpp:165] Memory required for data: 2154306240
I1215 16:13:17.836817 30929 layer_factory.hpp:77] Creating layer LFCN_1_3x5
I1215 16:13:17.836827 30929 net.cpp:100] Creating Layer LFCN_1_3x5
I1215 16:13:17.836832 30929 net.cpp:434] LFCN_1_3x5 <- loss1_conv1_loss_relu1_0_split_0
I1215 16:13:17.836838 30929 net.cpp:408] LFCN_1_3x5 -> LFCN_1_3x5
I1215 16:13:17.838783 30929 net.cpp:150] Setting up LFCN_1_3x5
I1215 16:13:17.838796 30929 net.cpp:157] Top shape: 2 7 72 96 (96768)
I1215 16:13:17.838798 30929 net.cpp:165] Memory required for data: 2154693312
I1215 16:13:17.838806 30929 layer_factory.hpp:77] Creating layer LFCN_1_3x5_LFCN_1_3x5_0_split
I1215 16:13:17.838816 30929 net.cpp:100] Creating Layer LFCN_1_3x5_LFCN_1_3x5_0_split
I1215 16:13:17.838821 30929 net.cpp:434] LFCN_1_3x5_LFCN_1_3x5_0_split <- LFCN_1_3x5
I1215 16:13:17.838829 30929 net.cpp:408] LFCN_1_3x5_LFCN_1_3x5_0_split -> LFCN_1_3x5_LFCN_1_3x5_0_split_0
I1215 16:13:17.838838 30929 net.cpp:408] LFCN_1_3x5_LFCN_1_3x5_0_split -> LFCN_1_3x5_LFCN_1_3x5_0_split_1
I1215 16:13:17.838891 30929 net.cpp:150] Setting up LFCN_1_3x5_LFCN_1_3x5_0_split
I1215 16:13:17.838902 30929 net.cpp:157] Top shape: 2 7 72 96 (96768)
I1215 16:13:17.838907 30929 net.cpp:157] Top shape: 2 7 72 96 (96768)
I1215 16:13:17.838908 30929 net.cpp:165] Memory required for data: 2155467456
I1215 16:13:17.838912 30929 layer_factory.hpp:77] Creating layer detection_loss_1_3x5
I1215 16:13:17.838918 30929 net.cpp:100] Creating Layer detection_loss_1_3x5
I1215 16:13:17.838922 30929 net.cpp:434] detection_loss_1_3x5 <- LFCN_1_3x5_LFCN_1_3x5_0_split_0
I1215 16:13:17.838927 30929 net.cpp:434] detection_loss_1_3x5 <- label_1_3x5_data_1_split_0
I1215 16:13:17.838933 30929 net.cpp:408] detection_loss_1_3x5 -> loss_1_3x5
I1215 16:13:17.838943 30929 layer_factory.hpp:77] Creating layer detection_loss_1_3x5
I1215 16:13:17.839900 30929 net.cpp:150] Setting up detection_loss_1_3x5
I1215 16:13:17.839910 30929 net.cpp:157] Top shape: 1 1 1 2 (2)
I1215 16:13:17.839911 30929 net.cpp:160]     with loss weight 0.9
I1215 16:13:17.839918 30929 net.cpp:165] Memory required for data: 2155467464
I1215 16:13:17.839920 30929 layer_factory.hpp:77] Creating layer detection_accuracy_1_3x5
I1215 16:13:17.839928 30929 net.cpp:100] Creating Layer detection_accuracy_1_3x5
I1215 16:13:17.839931 30929 net.cpp:434] detection_accuracy_1_3x5 <- LFCN_1_3x5_LFCN_1_3x5_0_split_1
I1215 16:13:17.839934 30929 net.cpp:434] detection_accuracy_1_3x5 <- label_1_3x5_data_1_split_1
I1215 16:13:17.839938 30929 net.cpp:408] detection_accuracy_1_3x5 -> accuracy_1_3x5
I1215 16:13:17.839946 30929 net.cpp:408] detection_accuracy_1_3x5 -> boxiou_1_3x5
I1215 16:13:17.839989 30929 net.cpp:150] Setting up detection_accuracy_1_3x5
I1215 16:13:17.839994 30929 net.cpp:157] Top shape: 1 1 1 2 (2)
I1215 16:13:17.839996 30929 net.cpp:157] Top shape: 1 1 1 1 (1)
I1215 16:13:17.839998 30929 net.cpp:165] Memory required for data: 2155467476
I1215 16:13:17.840001 30929 layer_factory.hpp:77] Creating layer LFCN_1_5x7
I1215 16:13:17.840011 30929 net.cpp:100] Creating Layer LFCN_1_5x7
I1215 16:13:17.840014 30929 net.cpp:434] LFCN_1_5x7 <- loss1_conv1_loss_relu1_0_split_1
I1215 16:13:17.840020 30929 net.cpp:408] LFCN_1_5x7 -> LFCN_1_5x7
I1215 16:13:17.843528 30929 net.cpp:150] Setting up LFCN_1_5x7
I1215 16:13:17.843546 30929 net.cpp:157] Top shape: 2 7 72 96 (96768)
I1215 16:13:17.843549 30929 net.cpp:165] Memory required for data: 2155854548
I1215 16:13:17.843556 30929 layer_factory.hpp:77] Creating layer LFCN_1_5x7_LFCN_1_5x7_0_split
I1215 16:13:17.843565 30929 net.cpp:100] Creating Layer LFCN_1_5x7_LFCN_1_5x7_0_split
I1215 16:13:17.843569 30929 net.cpp:434] LFCN_1_5x7_LFCN_1_5x7_0_split <- LFCN_1_5x7
I1215 16:13:17.843577 30929 net.cpp:408] LFCN_1_5x7_LFCN_1_5x7_0_split -> LFCN_1_5x7_LFCN_1_5x7_0_split_0
I1215 16:13:17.843590 30929 net.cpp:408] LFCN_1_5x7_LFCN_1_5x7_0_split -> LFCN_1_5x7_LFCN_1_5x7_0_split_1
I1215 16:13:17.843639 30929 net.cpp:150] Setting up LFCN_1_5x7_LFCN_1_5x7_0_split
I1215 16:13:17.843645 30929 net.cpp:157] Top shape: 2 7 72 96 (96768)
I1215 16:13:17.843648 30929 net.cpp:157] Top shape: 2 7 72 96 (96768)
I1215 16:13:17.843652 30929 net.cpp:165] Memory required for data: 2156628692
I1215 16:13:17.843654 30929 layer_factory.hpp:77] Creating layer detection_loss_1_5x7
I1215 16:13:17.843662 30929 net.cpp:100] Creating Layer detection_loss_1_5x7
I1215 16:13:17.843665 30929 net.cpp:434] detection_loss_1_5x7 <- LFCN_1_5x7_LFCN_1_5x7_0_split_0
I1215 16:13:17.843670 30929 net.cpp:434] detection_loss_1_5x7 <- label_1_5x7_data_2_split_0
I1215 16:13:17.843677 30929 net.cpp:408] detection_loss_1_5x7 -> loss_1_5x7
I1215 16:13:17.843685 30929 layer_factory.hpp:77] Creating layer detection_loss_1_5x7
I1215 16:13:17.844190 30929 net.cpp:150] Setting up detection_loss_1_5x7
I1215 16:13:17.844199 30929 net.cpp:157] Top shape: 1 1 1 2 (2)
I1215 16:13:17.844202 30929 net.cpp:160]     with loss weight 0.9
I1215 16:13:17.844210 30929 net.cpp:165] Memory required for data: 2156628700
I1215 16:13:17.844213 30929 layer_factory.hpp:77] Creating layer detection_accuracy_1_5x7
I1215 16:13:17.844220 30929 net.cpp:100] Creating Layer detection_accuracy_1_5x7
I1215 16:13:17.844224 30929 net.cpp:434] detection_accuracy_1_5x7 <- LFCN_1_5x7_LFCN_1_5x7_0_split_1
I1215 16:13:17.844228 30929 net.cpp:434] detection_accuracy_1_5x7 <- label_1_5x7_data_2_split_1
I1215 16:13:17.844236 30929 net.cpp:408] detection_accuracy_1_5x7 -> accuracy_1_5x7
I1215 16:13:17.844244 30929 net.cpp:408] detection_accuracy_1_5x7 -> boxiou_1_5x7
I1215 16:13:17.844288 30929 net.cpp:150] Setting up detection_accuracy_1_5x7
I1215 16:13:17.844295 30929 net.cpp:157] Top shape: 1 1 1 2 (2)
I1215 16:13:17.844298 30929 net.cpp:157] Top shape: 1 1 1 1 (1)
I1215 16:13:17.844300 30929 net.cpp:165] Memory required for data: 2156628712
I1215 16:13:17.844303 30929 layer_factory.hpp:77] Creating layer pool4
I1215 16:13:17.844310 30929 net.cpp:100] Creating Layer pool4
I1215 16:13:17.844314 30929 net.cpp:434] pool4 <- conv4_3_relu4_3_0_split_1
I1215 16:13:17.844321 30929 net.cpp:408] pool4 -> pool4
I1215 16:13:17.844365 30929 net.cpp:150] Setting up pool4
I1215 16:13:17.844372 30929 net.cpp:157] Top shape: 2 512 36 48 (1769472)
I1215 16:13:17.844373 30929 net.cpp:165] Memory required for data: 2163706600
I1215 16:13:17.844377 30929 layer_factory.hpp:77] Creating layer conv5_1
I1215 16:13:17.844386 30929 net.cpp:100] Creating Layer conv5_1
I1215 16:13:17.844389 30929 net.cpp:434] conv5_1 <- pool4
I1215 16:13:17.844395 30929 net.cpp:408] conv5_1 -> conv5_1
I1215 16:13:17.851208 30929 net.cpp:150] Setting up conv5_1
I1215 16:13:17.851227 30929 net.cpp:157] Top shape: 2 512 36 48 (1769472)
I1215 16:13:17.851229 30929 net.cpp:165] Memory required for data: 2170784488
I1215 16:13:17.851238 30929 layer_factory.hpp:77] Creating layer relu5_1
I1215 16:13:17.851248 30929 net.cpp:100] Creating Layer relu5_1
I1215 16:13:17.851253 30929 net.cpp:434] relu5_1 <- conv5_1
I1215 16:13:17.851260 30929 net.cpp:395] relu5_1 -> conv5_1 (in-place)
I1215 16:13:17.851554 30929 net.cpp:150] Setting up relu5_1
I1215 16:13:17.851563 30929 net.cpp:157] Top shape: 2 512 36 48 (1769472)
I1215 16:13:17.851567 30929 net.cpp:165] Memory required for data: 2177862376
I1215 16:13:17.851569 30929 layer_factory.hpp:77] Creating layer conv5_2
I1215 16:13:17.851579 30929 net.cpp:100] Creating Layer conv5_2
I1215 16:13:17.851584 30929 net.cpp:434] conv5_2 <- conv5_1
I1215 16:13:17.851594 30929 net.cpp:408] conv5_2 -> conv5_2
I1215 16:13:17.857944 30929 net.cpp:150] Setting up conv5_2
I1215 16:13:17.857969 30929 net.cpp:157] Top shape: 2 512 36 48 (1769472)
I1215 16:13:17.857971 30929 net.cpp:165] Memory required for data: 2184940264
I1215 16:13:17.857981 30929 layer_factory.hpp:77] Creating layer relu5_2
I1215 16:13:17.857991 30929 net.cpp:100] Creating Layer relu5_2
I1215 16:13:17.857996 30929 net.cpp:434] relu5_2 <- conv5_2
I1215 16:13:17.858002 30929 net.cpp:395] relu5_2 -> conv5_2 (in-place)
I1215 16:13:17.859086 30929 net.cpp:150] Setting up relu5_2
I1215 16:13:17.859097 30929 net.cpp:157] Top shape: 2 512 36 48 (1769472)
I1215 16:13:17.859099 30929 net.cpp:165] Memory required for data: 2192018152
I1215 16:13:17.859103 30929 layer_factory.hpp:77] Creating layer conv5_3
I1215 16:13:17.859114 30929 net.cpp:100] Creating Layer conv5_3
I1215 16:13:17.859119 30929 net.cpp:434] conv5_3 <- conv5_2
I1215 16:13:17.859125 30929 net.cpp:408] conv5_3 -> conv5_3
I1215 16:13:17.866580 30929 net.cpp:150] Setting up conv5_3
I1215 16:13:17.866596 30929 net.cpp:157] Top shape: 2 512 36 48 (1769472)
I1215 16:13:17.866600 30929 net.cpp:165] Memory required for data: 2199096040
I1215 16:13:17.866605 30929 layer_factory.hpp:77] Creating layer relu5_3
I1215 16:13:17.866611 30929 net.cpp:100] Creating Layer relu5_3
I1215 16:13:17.866616 30929 net.cpp:434] relu5_3 <- conv5_3
I1215 16:13:17.866621 30929 net.cpp:395] relu5_3 -> conv5_3 (in-place)
I1215 16:13:17.866911 30929 net.cpp:150] Setting up relu5_3
I1215 16:13:17.866920 30929 net.cpp:157] Top shape: 2 512 36 48 (1769472)
I1215 16:13:17.866922 30929 net.cpp:165] Memory required for data: 2206173928
I1215 16:13:17.866925 30929 layer_factory.hpp:77] Creating layer conv5_3_relu5_3_0_split
I1215 16:13:17.866930 30929 net.cpp:100] Creating Layer conv5_3_relu5_3_0_split
I1215 16:13:17.866933 30929 net.cpp:434] conv5_3_relu5_3_0_split <- conv5_3
I1215 16:13:17.866936 30929 net.cpp:408] conv5_3_relu5_3_0_split -> conv5_3_relu5_3_0_split_0
I1215 16:13:17.866941 30929 net.cpp:408] conv5_3_relu5_3_0_split -> conv5_3_relu5_3_0_split_1
I1215 16:13:17.866946 30929 net.cpp:408] conv5_3_relu5_3_0_split -> conv5_3_relu5_3_0_split_2
I1215 16:13:17.867008 30929 net.cpp:150] Setting up conv5_3_relu5_3_0_split
I1215 16:13:17.867013 30929 net.cpp:157] Top shape: 2 512 36 48 (1769472)
I1215 16:13:17.867015 30929 net.cpp:157] Top shape: 2 512 36 48 (1769472)
I1215 16:13:17.867018 30929 net.cpp:157] Top shape: 2 512 36 48 (1769472)
I1215 16:13:17.867022 30929 net.cpp:165] Memory required for data: 2227407592
I1215 16:13:17.867024 30929 layer_factory.hpp:77] Creating layer LFCN_2_3x5
I1215 16:13:17.867033 30929 net.cpp:100] Creating Layer LFCN_2_3x5
I1215 16:13:17.867036 30929 net.cpp:434] LFCN_2_3x5 <- conv5_3_relu5_3_0_split_0
I1215 16:13:17.867043 30929 net.cpp:408] LFCN_2_3x5 -> LFCN_2_3x5
I1215 16:13:17.870468 30929 net.cpp:150] Setting up LFCN_2_3x5
I1215 16:13:17.870484 30929 net.cpp:157] Top shape: 2 7 36 48 (24192)
I1215 16:13:17.870486 30929 net.cpp:165] Memory required for data: 2227504360
I1215 16:13:17.870498 30929 layer_factory.hpp:77] Creating layer LFCN_2_3x5_LFCN_2_3x5_0_split
I1215 16:13:17.870506 30929 net.cpp:100] Creating Layer LFCN_2_3x5_LFCN_2_3x5_0_split
I1215 16:13:17.870508 30929 net.cpp:434] LFCN_2_3x5_LFCN_2_3x5_0_split <- LFCN_2_3x5
I1215 16:13:17.870513 30929 net.cpp:408] LFCN_2_3x5_LFCN_2_3x5_0_split -> LFCN_2_3x5_LFCN_2_3x5_0_split_0
I1215 16:13:17.870519 30929 net.cpp:408] LFCN_2_3x5_LFCN_2_3x5_0_split -> LFCN_2_3x5_LFCN_2_3x5_0_split_1
I1215 16:13:17.870568 30929 net.cpp:150] Setting up LFCN_2_3x5_LFCN_2_3x5_0_split
I1215 16:13:17.870573 30929 net.cpp:157] Top shape: 2 7 36 48 (24192)
I1215 16:13:17.870574 30929 net.cpp:157] Top shape: 2 7 36 48 (24192)
I1215 16:13:17.870576 30929 net.cpp:165] Memory required for data: 2227697896
I1215 16:13:17.870579 30929 layer_factory.hpp:77] Creating layer detection_loss_2_3x5
I1215 16:13:17.870587 30929 net.cpp:100] Creating Layer detection_loss_2_3x5
I1215 16:13:17.870592 30929 net.cpp:434] detection_loss_2_3x5 <- LFCN_2_3x5_LFCN_2_3x5_0_split_0
I1215 16:13:17.870596 30929 net.cpp:434] detection_loss_2_3x5 <- label_2_3x5_data_3_split_0
I1215 16:13:17.870604 30929 net.cpp:408] detection_loss_2_3x5 -> loss_2_3x5
I1215 16:13:17.870612 30929 layer_factory.hpp:77] Creating layer detection_loss_2_3x5
I1215 16:13:17.871068 30929 net.cpp:150] Setting up detection_loss_2_3x5
I1215 16:13:17.871075 30929 net.cpp:157] Top shape: 1 1 1 2 (2)
I1215 16:13:17.871078 30929 net.cpp:160]     with loss weight 1
I1215 16:13:17.871084 30929 net.cpp:165] Memory required for data: 2227697904
I1215 16:13:17.871088 30929 layer_factory.hpp:77] Creating layer detection_accuracy_2_3x5
I1215 16:13:17.871096 30929 net.cpp:100] Creating Layer detection_accuracy_2_3x5
I1215 16:13:17.871100 30929 net.cpp:434] detection_accuracy_2_3x5 <- LFCN_2_3x5_LFCN_2_3x5_0_split_1
I1215 16:13:17.871105 30929 net.cpp:434] detection_accuracy_2_3x5 <- label_2_3x5_data_3_split_1
I1215 16:13:17.871111 30929 net.cpp:408] detection_accuracy_2_3x5 -> accuracy_2_3x5
I1215 16:13:17.871119 30929 net.cpp:408] detection_accuracy_2_3x5 -> boxiou_2_3x5
I1215 16:13:17.871179 30929 net.cpp:150] Setting up detection_accuracy_2_3x5
I1215 16:13:17.871186 30929 net.cpp:157] Top shape: 1 1 1 2 (2)
I1215 16:13:17.871191 30929 net.cpp:157] Top shape: 1 1 1 1 (1)
I1215 16:13:17.871193 30929 net.cpp:165] Memory required for data: 2227697916
I1215 16:13:17.871196 30929 layer_factory.hpp:77] Creating layer LFCN_2_5x7
I1215 16:13:17.871204 30929 net.cpp:100] Creating Layer LFCN_2_5x7
I1215 16:13:17.871209 30929 net.cpp:434] LFCN_2_5x7 <- conv5_3_relu5_3_0_split_1
I1215 16:13:17.871217 30929 net.cpp:408] LFCN_2_5x7 -> LFCN_2_5x7
I1215 16:13:17.873739 30929 net.cpp:150] Setting up LFCN_2_5x7
I1215 16:13:17.873754 30929 net.cpp:157] Top shape: 2 7 36 48 (24192)
I1215 16:13:17.873756 30929 net.cpp:165] Memory required for data: 2227794684
I1215 16:13:17.873765 30929 layer_factory.hpp:77] Creating layer LFCN_2_5x7_LFCN_2_5x7_0_split
I1215 16:13:17.873775 30929 net.cpp:100] Creating Layer LFCN_2_5x7_LFCN_2_5x7_0_split
I1215 16:13:17.873780 30929 net.cpp:434] LFCN_2_5x7_LFCN_2_5x7_0_split <- LFCN_2_5x7
I1215 16:13:17.873785 30929 net.cpp:408] LFCN_2_5x7_LFCN_2_5x7_0_split -> LFCN_2_5x7_LFCN_2_5x7_0_split_0
I1215 16:13:17.873795 30929 net.cpp:408] LFCN_2_5x7_LFCN_2_5x7_0_split -> LFCN_2_5x7_LFCN_2_5x7_0_split_1
I1215 16:13:17.873841 30929 net.cpp:150] Setting up LFCN_2_5x7_LFCN_2_5x7_0_split
I1215 16:13:17.873845 30929 net.cpp:157] Top shape: 2 7 36 48 (24192)
I1215 16:13:17.873849 30929 net.cpp:157] Top shape: 2 7 36 48 (24192)
I1215 16:13:17.873852 30929 net.cpp:165] Memory required for data: 2227988220
I1215 16:13:17.873854 30929 layer_factory.hpp:77] Creating layer detection_loss_2_5x7
I1215 16:13:17.873862 30929 net.cpp:100] Creating Layer detection_loss_2_5x7
I1215 16:13:17.873867 30929 net.cpp:434] detection_loss_2_5x7 <- LFCN_2_5x7_LFCN_2_5x7_0_split_0
I1215 16:13:17.873870 30929 net.cpp:434] detection_loss_2_5x7 <- label_2_5x7_data_4_split_0
I1215 16:13:17.873878 30929 net.cpp:408] detection_loss_2_5x7 -> loss_2_5x7
I1215 16:13:17.873886 30929 layer_factory.hpp:77] Creating layer detection_loss_2_5x7
I1215 16:13:17.874929 30929 net.cpp:150] Setting up detection_loss_2_5x7
I1215 16:13:17.874941 30929 net.cpp:157] Top shape: 1 1 1 2 (2)
I1215 16:13:17.874943 30929 net.cpp:160]     with loss weight 1
I1215 16:13:17.874953 30929 net.cpp:165] Memory required for data: 2227988228
I1215 16:13:17.874956 30929 layer_factory.hpp:77] Creating layer detection_accuracy_2_5x7
I1215 16:13:17.874964 30929 net.cpp:100] Creating Layer detection_accuracy_2_5x7
I1215 16:13:17.874970 30929 net.cpp:434] detection_accuracy_2_5x7 <- LFCN_2_5x7_LFCN_2_5x7_0_split_1
I1215 16:13:17.874977 30929 net.cpp:434] detection_accuracy_2_5x7 <- label_2_5x7_data_4_split_1
I1215 16:13:17.874986 30929 net.cpp:408] detection_accuracy_2_5x7 -> accuracy_2_5x7
I1215 16:13:17.874994 30929 net.cpp:408] detection_accuracy_2_5x7 -> boxiou_2_5x7
I1215 16:13:17.875037 30929 net.cpp:150] Setting up detection_accuracy_2_5x7
I1215 16:13:17.875043 30929 net.cpp:157] Top shape: 1 1 1 2 (2)
I1215 16:13:17.875046 30929 net.cpp:157] Top shape: 1 1 1 1 (1)
I1215 16:13:17.875049 30929 net.cpp:165] Memory required for data: 2227988240
I1215 16:13:17.875052 30929 layer_factory.hpp:77] Creating layer pool5
I1215 16:13:17.875058 30929 net.cpp:100] Creating Layer pool5
I1215 16:13:17.875061 30929 net.cpp:434] pool5 <- conv5_3_relu5_3_0_split_2
I1215 16:13:17.875067 30929 net.cpp:408] pool5 -> pool5
I1215 16:13:17.875104 30929 net.cpp:150] Setting up pool5
I1215 16:13:17.875109 30929 net.cpp:157] Top shape: 2 512 18 24 (442368)
I1215 16:13:17.875113 30929 net.cpp:165] Memory required for data: 2229757712
I1215 16:13:17.875115 30929 layer_factory.hpp:77] Creating layer conv6_1
I1215 16:13:17.875124 30929 net.cpp:100] Creating Layer conv6_1
I1215 16:13:17.875128 30929 net.cpp:434] conv6_1 <- pool5
I1215 16:13:17.875133 30929 net.cpp:408] conv6_1 -> conv6_1
I1215 16:13:17.898788 30929 net.cpp:150] Setting up conv6_1
I1215 16:13:17.898807 30929 net.cpp:157] Top shape: 2 512 18 24 (442368)
I1215 16:13:17.898809 30929 net.cpp:165] Memory required for data: 2231527184
I1215 16:13:17.898819 30929 layer_factory.hpp:77] Creating layer relu6_1
I1215 16:13:17.898833 30929 net.cpp:100] Creating Layer relu6_1
I1215 16:13:17.898838 30929 net.cpp:434] relu6_1 <- conv6_1
I1215 16:13:17.898845 30929 net.cpp:395] relu6_1 -> conv6_1 (in-place)
I1215 16:13:17.899152 30929 net.cpp:150] Setting up relu6_1
I1215 16:13:17.899160 30929 net.cpp:157] Top shape: 2 512 18 24 (442368)
I1215 16:13:17.899163 30929 net.cpp:165] Memory required for data: 2233296656
I1215 16:13:17.899166 30929 layer_factory.hpp:77] Creating layer conv6_1_relu6_1_0_split
I1215 16:13:17.899174 30929 net.cpp:100] Creating Layer conv6_1_relu6_1_0_split
I1215 16:13:17.899178 30929 net.cpp:434] conv6_1_relu6_1_0_split <- conv6_1
I1215 16:13:17.899184 30929 net.cpp:408] conv6_1_relu6_1_0_split -> conv6_1_relu6_1_0_split_0
I1215 16:13:17.899194 30929 net.cpp:408] conv6_1_relu6_1_0_split -> conv6_1_relu6_1_0_split_1
I1215 16:13:17.899201 30929 net.cpp:408] conv6_1_relu6_1_0_split -> conv6_1_relu6_1_0_split_2
I1215 16:13:17.899266 30929 net.cpp:150] Setting up conv6_1_relu6_1_0_split
I1215 16:13:17.899271 30929 net.cpp:157] Top shape: 2 512 18 24 (442368)
I1215 16:13:17.899274 30929 net.cpp:157] Top shape: 2 512 18 24 (442368)
I1215 16:13:17.899278 30929 net.cpp:157] Top shape: 2 512 18 24 (442368)
I1215 16:13:17.899281 30929 net.cpp:165] Memory required for data: 2238605072
I1215 16:13:17.899283 30929 layer_factory.hpp:77] Creating layer LFCN_3_3x5
I1215 16:13:17.899296 30929 net.cpp:100] Creating Layer LFCN_3_3x5
I1215 16:13:17.899299 30929 net.cpp:434] LFCN_3_3x5 <- conv6_1_relu6_1_0_split_0
I1215 16:13:17.899305 30929 net.cpp:408] LFCN_3_3x5 -> LFCN_3_3x5
I1215 16:13:17.902232 30929 net.cpp:150] Setting up LFCN_3_3x5
I1215 16:13:17.902248 30929 net.cpp:157] Top shape: 2 7 18 24 (6048)
I1215 16:13:17.902251 30929 net.cpp:165] Memory required for data: 2238629264
I1215 16:13:17.902259 30929 layer_factory.hpp:77] Creating layer LFCN_3_3x5_LFCN_3_3x5_0_split
I1215 16:13:17.902281 30929 net.cpp:100] Creating Layer LFCN_3_3x5_LFCN_3_3x5_0_split
I1215 16:13:17.902285 30929 net.cpp:434] LFCN_3_3x5_LFCN_3_3x5_0_split <- LFCN_3_3x5
I1215 16:13:17.902293 30929 net.cpp:408] LFCN_3_3x5_LFCN_3_3x5_0_split -> LFCN_3_3x5_LFCN_3_3x5_0_split_0
I1215 16:13:17.902303 30929 net.cpp:408] LFCN_3_3x5_LFCN_3_3x5_0_split -> LFCN_3_3x5_LFCN_3_3x5_0_split_1
I1215 16:13:17.902348 30929 net.cpp:150] Setting up LFCN_3_3x5_LFCN_3_3x5_0_split
I1215 16:13:17.902354 30929 net.cpp:157] Top shape: 2 7 18 24 (6048)
I1215 16:13:17.902357 30929 net.cpp:157] Top shape: 2 7 18 24 (6048)
I1215 16:13:17.902360 30929 net.cpp:165] Memory required for data: 2238677648
I1215 16:13:17.902364 30929 layer_factory.hpp:77] Creating layer detection_loss_3_3x5
I1215 16:13:17.902370 30929 net.cpp:100] Creating Layer detection_loss_3_3x5
I1215 16:13:17.902374 30929 net.cpp:434] detection_loss_3_3x5 <- LFCN_3_3x5_LFCN_3_3x5_0_split_0
I1215 16:13:17.902380 30929 net.cpp:434] detection_loss_3_3x5 <- label_3_3x5_data_5_split_0
I1215 16:13:17.902387 30929 net.cpp:408] detection_loss_3_3x5 -> loss_3_3x5
I1215 16:13:17.902396 30929 layer_factory.hpp:77] Creating layer detection_loss_3_3x5
I1215 16:13:17.902882 30929 net.cpp:150] Setting up detection_loss_3_3x5
I1215 16:13:17.902891 30929 net.cpp:157] Top shape: 1 1 1 2 (2)
I1215 16:13:17.902894 30929 net.cpp:160]     with loss weight 1
I1215 16:13:17.902902 30929 net.cpp:165] Memory required for data: 2238677656
I1215 16:13:17.902906 30929 layer_factory.hpp:77] Creating layer detection_accuracy_3_3x5
I1215 16:13:17.902914 30929 net.cpp:100] Creating Layer detection_accuracy_3_3x5
I1215 16:13:17.902917 30929 net.cpp:434] detection_accuracy_3_3x5 <- LFCN_3_3x5_LFCN_3_3x5_0_split_1
I1215 16:13:17.902922 30929 net.cpp:434] detection_accuracy_3_3x5 <- label_3_3x5_data_5_split_1
I1215 16:13:17.902930 30929 net.cpp:408] detection_accuracy_3_3x5 -> accuracy_3_3x5
I1215 16:13:17.902937 30929 net.cpp:408] detection_accuracy_3_3x5 -> boxiou_3_3x5
I1215 16:13:17.902984 30929 net.cpp:150] Setting up detection_accuracy_3_3x5
I1215 16:13:17.902990 30929 net.cpp:157] Top shape: 1 1 1 2 (2)
I1215 16:13:17.902993 30929 net.cpp:157] Top shape: 1 1 1 1 (1)
I1215 16:13:17.902995 30929 net.cpp:165] Memory required for data: 2238677668
I1215 16:13:17.902998 30929 layer_factory.hpp:77] Creating layer LFCN_3_5x7
I1215 16:13:17.903008 30929 net.cpp:100] Creating Layer LFCN_3_5x7
I1215 16:13:17.903012 30929 net.cpp:434] LFCN_3_5x7 <- conv6_1_relu6_1_0_split_1
I1215 16:13:17.903019 30929 net.cpp:408] LFCN_3_5x7 -> LFCN_3_5x7
I1215 16:13:17.906113 30929 net.cpp:150] Setting up LFCN_3_5x7
I1215 16:13:17.906131 30929 net.cpp:157] Top shape: 2 7 18 24 (6048)
I1215 16:13:17.906132 30929 net.cpp:165] Memory required for data: 2238701860
I1215 16:13:17.906141 30929 layer_factory.hpp:77] Creating layer LFCN_3_5x7_LFCN_3_5x7_0_split
I1215 16:13:17.906152 30929 net.cpp:100] Creating Layer LFCN_3_5x7_LFCN_3_5x7_0_split
I1215 16:13:17.906157 30929 net.cpp:434] LFCN_3_5x7_LFCN_3_5x7_0_split <- LFCN_3_5x7
I1215 16:13:17.906163 30929 net.cpp:408] LFCN_3_5x7_LFCN_3_5x7_0_split -> LFCN_3_5x7_LFCN_3_5x7_0_split_0
I1215 16:13:17.906172 30929 net.cpp:408] LFCN_3_5x7_LFCN_3_5x7_0_split -> LFCN_3_5x7_LFCN_3_5x7_0_split_1
I1215 16:13:17.906224 30929 net.cpp:150] Setting up LFCN_3_5x7_LFCN_3_5x7_0_split
I1215 16:13:17.906229 30929 net.cpp:157] Top shape: 2 7 18 24 (6048)
I1215 16:13:17.906232 30929 net.cpp:157] Top shape: 2 7 18 24 (6048)
I1215 16:13:17.906235 30929 net.cpp:165] Memory required for data: 2238750244
I1215 16:13:17.906239 30929 layer_factory.hpp:77] Creating layer detection_loss_3_5x7
I1215 16:13:17.906245 30929 net.cpp:100] Creating Layer detection_loss_3_5x7
I1215 16:13:17.906250 30929 net.cpp:434] detection_loss_3_5x7 <- LFCN_3_5x7_LFCN_3_5x7_0_split_0
I1215 16:13:17.906255 30929 net.cpp:434] detection_loss_3_5x7 <- label_3_5x7_data_6_split_0
I1215 16:13:17.906261 30929 net.cpp:408] detection_loss_3_5x7 -> loss_3_5x7
I1215 16:13:17.906271 30929 layer_factory.hpp:77] Creating layer detection_loss_3_5x7
I1215 16:13:17.907269 30929 net.cpp:150] Setting up detection_loss_3_5x7
I1215 16:13:17.907280 30929 net.cpp:157] Top shape: 1 1 1 2 (2)
I1215 16:13:17.907282 30929 net.cpp:160]     with loss weight 1
I1215 16:13:17.907291 30929 net.cpp:165] Memory required for data: 2238750252
I1215 16:13:17.907295 30929 layer_factory.hpp:77] Creating layer detection_accuracy_3_5x7
I1215 16:13:17.907305 30929 net.cpp:100] Creating Layer detection_accuracy_3_5x7
I1215 16:13:17.907310 30929 net.cpp:434] detection_accuracy_3_5x7 <- LFCN_3_5x7_LFCN_3_5x7_0_split_1
I1215 16:13:17.907315 30929 net.cpp:434] detection_accuracy_3_5x7 <- label_3_5x7_data_6_split_1
I1215 16:13:17.907323 30929 net.cpp:408] detection_accuracy_3_5x7 -> accuracy_3_5x7
I1215 16:13:17.907331 30929 net.cpp:408] detection_accuracy_3_5x7 -> boxiou_3_5x7
I1215 16:13:17.907377 30929 net.cpp:150] Setting up detection_accuracy_3_5x7
I1215 16:13:17.907383 30929 net.cpp:157] Top shape: 1 1 1 2 (2)
I1215 16:13:17.907387 30929 net.cpp:157] Top shape: 1 1 1 1 (1)
I1215 16:13:17.907389 30929 net.cpp:165] Memory required for data: 2238750264
I1215 16:13:17.907392 30929 layer_factory.hpp:77] Creating layer pool6
I1215 16:13:17.907398 30929 net.cpp:100] Creating Layer pool6
I1215 16:13:17.907402 30929 net.cpp:434] pool6 <- conv6_1_relu6_1_0_split_2
I1215 16:13:17.907407 30929 net.cpp:408] pool6 -> pool6
I1215 16:13:17.907462 30929 net.cpp:150] Setting up pool6
I1215 16:13:17.907469 30929 net.cpp:157] Top shape: 2 512 9 12 (110592)
I1215 16:13:17.907471 30929 net.cpp:165] Memory required for data: 2239192632
I1215 16:13:17.907474 30929 layer_factory.hpp:77] Creating layer LFCN_4_3x5
I1215 16:13:17.907486 30929 net.cpp:100] Creating Layer LFCN_4_3x5
I1215 16:13:17.907491 30929 net.cpp:434] LFCN_4_3x5 <- pool6
I1215 16:13:17.907500 30929 net.cpp:408] LFCN_4_3x5 -> LFCN_4_3x5
I1215 16:13:17.910035 30929 net.cpp:150] Setting up LFCN_4_3x5
I1215 16:13:17.910053 30929 net.cpp:157] Top shape: 2 7 9 12 (1512)
I1215 16:13:17.910055 30929 net.cpp:165] Memory required for data: 2239198680
I1215 16:13:17.910064 30929 layer_factory.hpp:77] Creating layer LFCN_4_3x5_LFCN_4_3x5_0_split
I1215 16:13:17.910073 30929 net.cpp:100] Creating Layer LFCN_4_3x5_LFCN_4_3x5_0_split
I1215 16:13:17.910079 30929 net.cpp:434] LFCN_4_3x5_LFCN_4_3x5_0_split <- LFCN_4_3x5
I1215 16:13:17.910087 30929 net.cpp:408] LFCN_4_3x5_LFCN_4_3x5_0_split -> LFCN_4_3x5_LFCN_4_3x5_0_split_0
I1215 16:13:17.910096 30929 net.cpp:408] LFCN_4_3x5_LFCN_4_3x5_0_split -> LFCN_4_3x5_LFCN_4_3x5_0_split_1
I1215 16:13:17.910156 30929 net.cpp:150] Setting up LFCN_4_3x5_LFCN_4_3x5_0_split
I1215 16:13:17.910161 30929 net.cpp:157] Top shape: 2 7 9 12 (1512)
I1215 16:13:17.910166 30929 net.cpp:157] Top shape: 2 7 9 12 (1512)
I1215 16:13:17.910167 30929 net.cpp:165] Memory required for data: 2239210776
I1215 16:13:17.910171 30929 layer_factory.hpp:77] Creating layer detection_loss_4_3x5
I1215 16:13:17.910178 30929 net.cpp:100] Creating Layer detection_loss_4_3x5
I1215 16:13:17.910182 30929 net.cpp:434] detection_loss_4_3x5 <- LFCN_4_3x5_LFCN_4_3x5_0_split_0
I1215 16:13:17.910187 30929 net.cpp:434] detection_loss_4_3x5 <- label_4_3x5_data_7_split_0
I1215 16:13:17.910193 30929 net.cpp:408] detection_loss_4_3x5 -> loss_4_3x5
I1215 16:13:17.910202 30929 layer_factory.hpp:77] Creating layer detection_loss_4_3x5
I1215 16:13:17.911195 30929 net.cpp:150] Setting up detection_loss_4_3x5
I1215 16:13:17.911206 30929 net.cpp:157] Top shape: 1 1 1 2 (2)
I1215 16:13:17.911209 30929 net.cpp:160]     with loss weight 1
I1215 16:13:17.911219 30929 net.cpp:165] Memory required for data: 2239210784
I1215 16:13:17.911222 30929 layer_factory.hpp:77] Creating layer detection_accuracy_4_3x5
I1215 16:13:17.911231 30929 net.cpp:100] Creating Layer detection_accuracy_4_3x5
I1215 16:13:17.911237 30929 net.cpp:434] detection_accuracy_4_3x5 <- LFCN_4_3x5_LFCN_4_3x5_0_split_1
I1215 16:13:17.911242 30929 net.cpp:434] detection_accuracy_4_3x5 <- label_4_3x5_data_7_split_1
I1215 16:13:17.911248 30929 net.cpp:408] detection_accuracy_4_3x5 -> accuracy_4_3x5
I1215 16:13:17.911257 30929 net.cpp:408] detection_accuracy_4_3x5 -> boxiou_4_3x5
I1215 16:13:17.911303 30929 net.cpp:150] Setting up detection_accuracy_4_3x5
I1215 16:13:17.911309 30929 net.cpp:157] Top shape: 1 1 1 2 (2)
I1215 16:13:17.911311 30929 net.cpp:157] Top shape: 1 1 1 1 (1)
I1215 16:13:17.911314 30929 net.cpp:165] Memory required for data: 2239210796
I1215 16:13:17.911317 30929 net.cpp:228] detection_accuracy_4_3x5 does not need backward computation.
I1215 16:13:17.911321 30929 net.cpp:226] detection_loss_4_3x5 needs backward computation.
I1215 16:13:17.911324 30929 net.cpp:226] LFCN_4_3x5_LFCN_4_3x5_0_split needs backward computation.
I1215 16:13:17.911329 30929 net.cpp:226] LFCN_4_3x5 needs backward computation.
…
