…
    downsample_rate: 16
    downsample_rate: 32
    downsample_rate: 32
    downsample_rate: 64
    coord_num: 4
    field_h: 60
    field_h: 84
    field_h: 120
    field_h: 168
    field_h: 240
    field_h: 336
    field_h: 480
    field_w: 40
    field_w: 56
    field_w: 80
    field_w: 112
    field_w: 160
    field_w: 224
    field_w: 360
    fg_threshold: 0.5
    resize_width: 1920
    resize_height: 576
    crop_width: 768
    crop_height: 576
    do_multiple_scale: true
    min_scale: 60
    max_scale: 480
    min_gt_height: 30
    shuffle: true
  }
}
layer {
  name: "conv1_1"
  type: "Convolution"
  bottom: "data"
  top: "conv1_1"
  convolution_param {
    num_output: 64
    pad: 1
    kernel_size: 3
  }
}
layer {
  name: "relu1_1"
  type: "ReLU"
  bottom: "conv1_1"
  top: "conv1_1"
}
layer {
  name: "conv1_2"
  type: "Convolution"
  bottom: "conv1_1"
  top: "conv1_2"
  convolution_param {
    num_output: 64
    pad: 1
    kernel_size: 3
  }
}
layer {
  name: "relu1_2"
  type: "ReLU"
  bottom: "conv1_2"
  top: "conv1_2"
}
layer {
  name: "pool1"
  type: "Pooling"
  bottom: "conv1_2"
  top: "pool1"
  pooling_param {
    pool: MAX
    kernel_size: 2
    stride: 2
  }
}
layer {
  name: "conv2_1"
  type: "Convolution"
  bottom: "pool1"
  top: "conv2_1"
  convolution_param {
    num_output: 128
    pad: 1
    kernel_size: 3
  }
}
layer {
  name: "relu2_1"
  type: "ReLU"
  bottom: "conv2_1"
  top: "conv2_1"
}
layer {
  name: "conv2_2"
  type: "Convolution"
  bottom: "conv2_1"
  top: "conv2_2"
  convolution_param {
    num_output: 128
    pad: 1
    kernel_size: 3
  }
}
layer {
  name: "relu2_2"
  type: "ReLU"
  bottom: "conv2_2"
  top: "conv2_2"
}
layer {
  name: "pool2"
  type: "Pooling"
  bottom: "conv2_2"
  top: "pool2"
  pooling_param {
    pool: MAX
    kernel_size: 2
    stride: 2
  }
}
layer {
  name: "conv3_1"
  type: "Convolution"
  bottom: "pool2"
  top: "conv3_1"
  convolution_param {
    num_output: 256
    pad: 1
    kernel_size: 3
  }
}
layer {
  name: "relu3_1"
  type: "ReLU"
  bottom: "conv3_1"
  top: "conv3_1"
}
layer {
  name: "conv3_2"
  type: "Convolution"
  bottom: "conv3_1"
  top: "conv3_2"
  convolution_param {
    num_output: 256
    pad: 1
    kernel_size: 3
  }
}
layer {
  name: "relu3_2"
  type: "ReLU"
  bottom: "conv3_2"
  top: "conv3_2"
}
layer {
  name: "conv3_3"
  type: "Convolution"
  bottom: "conv3_2"
  top: "conv3_3"
  convolution_param {
    num_output: 256
    pad: 1
    kernel_size: 3
  }
}
layer {
  name: "relu3_3"
  type: "ReLU"
  bottom: "conv3_3"
  top: "conv3_3"
}
layer {
  name: "pool3"
  type: "Pooling"
  bottom: "conv3_3"
  top: "pool3"
  pooling_param {
    pool: MAX
    kernel_size: 2
    stride: 2
  }
}
layer {
  name: "conv4_1"
  type: "Convolution"
  bottom: "pool3"
  top: "conv4_1"
  convolution_param {
    num_output: 512
    pad: 1
    kernel_size: 3
  }
}
layer {
  name: "relu4_1"
  type: "ReLU"
  bottom: "conv4_1"
  top: "conv4_1"
}
layer {
  name: "conv4_2"
  type: "Convolution"
  bottom: "conv4_1"
  top: "conv4_2"
  convolution_param {
    num_output: 512
    pad: 1
    kernel_size: 3
  }
}
layer {
  name: "relu4_2"
  type: "ReLU"
  bottom: "conv4_2"
  top: "conv4_2"
}
layer {
  name: "conv4_3"
  type: "Convolution"
  bottom: "conv4_2"
  top: "conv4_3"
  convolution_param {
    num_output: 512
    pad: 1
    kernel_size: 3
  }
}
layer {
  name: "relu4_3"
  type: "ReLU"
  bottom: "conv4_3"
  top: "conv4_3"
}
layer {
  name: "loss1_conv1"
  type: "Convolution"
  bottom: "conv4_3"
  top: "loss1_conv1"
  param {
    lr_mult: 1
    decay_mult: 1
  }
  param {
    lr_mult: 2
    decay_mult: 0
  }
  convolution_param {
    num_output: 512
    pad: 1
    kernel_size: 3
    weight_filler {
      type: "gaussian"
      std: 0.01
    }
    bias_filler {
      type: "constant"
    }
  }
}
layer {
  name: "loss_relu1"
  type: "ReLU"
  bottom: "loss1_conv1"
  top: "loss1_conv1"
}
layer {
  name: "LFCN_1_3x5"
  type: "Convolution"
  bottom: "loss1_conv1"
  top: "LFCN_1_3x5"
  param {
    lr_mult: 1
    decay_mult: 1
  }
  param {
    lr_mult: 2
    decay_mult: 0
  }
  convolution_param {
    num_output: 7
    weight_filler {
      type: "gaussian"
      std: 0.001
    }
    bias_filler {
      type: "constant"
    }
    pad_h: 2
    pad_w: 1
    kernel_h: 5
    kernel_w: 3
  }
}
layer {
  name: "detection_loss_1_3x5"
  type: "DetectionLoss"
  bottom: "LFCN_1_3x5"
  bottom: "label_1_3x5"
  top: "loss_1_3x5"
  loss_weight: 0.9
  detection_loss_param {
    cls_num: 3
    coord_num: 4
    lambda: 0.5
    field_h: 60
    field_w: 40
    downsample_rate: 8
    bb_smooth: true
    field_whr: 2
    field_xyr: 2
    bg_threshold: 0.2
    bg_multiple: 2
    sample_mode: "random"
    pos_neg_weighted: true
  }
}
layer {
  name: "detection_accuracy_1_3x5"
  type: "DetectionAccuracy"
  bottom: "LFCN_1_3x5"
  bottom: "label_1_3x5"
  top: "accuracy_1_3x5"
  top: "boxiou_1_3x5"
  detection_accuracy_param {
    cls_num: 3
    coord_num: 4
    field_h: 60
    field_w: 40
    downsample_rate: 8
    field_whr: 2
    field_xyr: 2
  }
}
layer {
  name: "LFCN_1_5x7"
  type: "Convolution"
  bottom: "loss1_conv1"
  top: "LFCN_1_5x7"
  param {
    lr_mult: 1
    decay_mult: 1
  }
  param {
    lr_mult: 2
    decay_mult: 0
  }
  convolution_param {
    num_output: 7
    weight_filler {
      type: "gaussian"
      std: 0.001
    }
    bias_filler {
      type: "constant"
    }
    pad_h: 3
    pad_w: 2
    kernel_h: 7
    kernel_w: 5
  }
}
layer {
  name: "detection_loss_1_5x7"
  type: "DetectionLoss"
  bottom: "LFCN_1_5x7"
  bottom: "label_1_5x7"
  top: "loss_1_5x7"
  loss_weight: 0.9
  detection_loss_param {
    cls_num: 3
    coord_num: 4
    lambda: 0.5
    field_h: 84
    field_w: 56
    downsample_rate: 8
    bb_smooth: true
    field_whr: 2
    field_xyr: 2
    bg_threshold: 0.2
    bg_multiple: 2
    sample_mode: "random"
    pos_neg_weighted: true
  }
}
layer {
  name: "detection_accuracy_1_5x7"
  type: "DetectionAccuracy"
  bottom: "LFCN_1_5x7"
  bottom: "label_1_5x7"
  top: "accuracy_1_5x7"
  top: "boxiou_1_5x7"
  detection_accuracy_param {
    cls_num: 3
    coord_num: 4
    field_h: 84
    field_w: 56
    downsample_rate: 8
    field_whr: 2
    field_xyr: 2
  }
}
layer {
  name: "pool4"
  type: "Pooling"
  bottom: "conv4_3"
  top: "pool4"
  pooling_param {
    pool: MAX
    kernel_size: 2
    stride: 2
  }
}
layer {
  name: "conv5_1"
  type: "Convolution"
  bottom: "pool4"
  top: "conv5_1"
  convolution_param {
    num_output: 512
    pad: 1
    kernel_size: 3
  }
}
layer {
  name: "relu5_1"
  type: "ReLU"
  bottom: "conv5_1"
  top: "conv5_1"
}
layer {
  name: "conv5_2"
  type: "Convolution"
  bottom: "conv5_1"
  top: "conv5_2"
  convolution_param {
    num_output: 512
    pad: 1
    kernel_size: 3
  }
}
layer {
  name: "relu5_2"
  type: "ReLU"
  bottom: "conv5_2"
  top: "conv5_2"
}
layer {
  name: "conv5_3"
  type: "Convolution"
  bottom: "conv5_2"
  top: "conv5_3"
  convolution_param {
    num_output: 512
    pad: 1
    kernel_size: 3
  }
}
layer {
  name: "relu5_3"
  type: "ReLU"
  bottom: "conv5_3"
  top: "conv5_3"
}
layer {
  name: "LFCN_2_3x5"
  type: "Convolution"
  bottom: "conv5_3"
  top: "LFCN_2_3x5"
  param {
    lr_mult: 1
    decay_mult: 1
  }
  param {
    lr_mult: 2
    decay_mult: 0
  }
  convolution_param {
    num_output: 7
    weight_filler {
      type: "gaussian"
      std: 0.001
    }
    bias_filler {
      type: "constant"
    }
    pad_h: 2
    pad_w: 1
    kernel_h: 5
    kernel_w: 3
  }
}
layer {
  name: "detection_loss_2_3x5"
  type: "DetectionLoss"
  bottom: "LFCN_2_3x5"
  bottom: "label_2_3x5"
  top: "loss_2_3x5"
  detection_loss_param {
    cls_num: 3
    coord_num: 4
    lambda: 0.5
    field_h: 120
    field_w: 80
    downsample_rate: 16
    bb_smooth: true
    field_whr: 2
    field_xyr: 2
    bg_threshold: 0.2
    bg_multiple: 2
    sample_mode: "random"
    pos_neg_weighted: true
  }
}
layer {
  name: "detection_accuracy_2_3x5"
  type: "DetectionAccuracy"
  bottom: "LFCN_2_3x5"
  bottom: "label_2_3x5"
  top: "accuracy_2_3x5"
  top: "boxiou_2_3x5"
  detection_accuracy_param {
    cls_num: 3
    coord_num: 4
    field_h: 120
    field_w: 80
    downsample_rate: 16
    field_whr: 2
    field_xyr: 2
  }
}
layer {
  name: "LFCN_2_5x7"
  type: "Convolution"
  bottom: "conv5_3"
  top: "LFCN_2_5x7"
  param {
    lr_mult: 1
    decay_mult: 1
  }
  param {
    lr_mult: 2
    decay_mult: 0
  }
  convolution_param {
    num_output: 7
    weight_filler {
      type: "gaussian"
      std: 0.001
    }
    bias_filler {
      type: "constant"
    }
    pad_h: 3
    pad_w: 2
    kernel_h: 7
    kernel_w: 5
  }
}
layer {
  name: "detection_loss_2_5x7"
  type: "DetectionLoss"
  bottom: "LFCN_2_5x7"
  bottom: "label_2_5x7"
  top: "loss_2_5x7"
  detection_loss_param {
    cls_num: 3
    coord_num: 4
    lambda: 0.5
    field_h: 168
    field_w: 112
    downsample_rate: 16
    bb_smooth: true
    field_whr: 2
    field_xyr: 2
    bg_threshold: 0.2
    bg_multiple: 2
    sample_mode: "random"
    pos_neg_weighted: true
  }
}
layer {
  name: "detection_accuracy_2_5x7"
  type: "DetectionAccuracy"
  bottom: "LFCN_2_5x7"
  bottom: "label_2_5x7"
  top: "accuracy_2_5x7"
  top: "boxiou_2_5x7"
  detection_accuracy_param {
    cls_num: 3
    coord_num: 4
    field_h: 168
    field_w: 112
    downsample_rate: 16
    field_whr: 2
    field_xyr: 2
  }
}
layer {
  name: "pool5"
  type: "Pooling"
  bottom: "conv5_3"
  top: "pool5"
  pooling_param {
    pool: MAX
    kernel_size: 2
    stride: 2
  }
}
layer {
  name: "conv6_1"
  type: "Convolution"
  bottom: "pool5"
  top: "conv6_1"
  param {
    lr_mult: 1
    decay_mult: 1
  }
  param {
    lr_mult: 2
    decay_mult: 0
  }
  convolution_param {
    num_output: 512
    pad: 1
    kernel_size: 3
    weight_filler {
      type: "gaussian"
      std: 0.01
    }
    bias_filler {
      type: "constant"
    }
  }
}
layer {
  name: "relu6_1"
  type: "ReLU"
  bottom: "conv6_1"
  top: "conv6_1"
}
layer {
  name: "LFCN_3_3x5"
  type: "Convolution"
  bottom: "conv6_1"
  top: "LFCN_3_3x5"
  param {
    lr_mult: 1
    decay_mult: 1
  }
  param {
    lr_mult: 2
    decay_mult: 0
  }
  convolution_param {
    num_output: 7
    weight_filler {
      type: "gaussian"
      std: 0.001
    }
    bias_filler {
      type: "constant"
    }
    pad_h: 2
    pad_w: 1
    kernel_h: 5
    kernel_w: 3
  }
}
layer {
  name: "detection_loss_3_3x5"
  type: "DetectionLoss"
  bottom: "LFCN_3_3x5"
  bottom: "label_3_3x5"
  top: "loss_3_3x5"
  detection_loss_param {
    cls_num: 3
    coord_num: 4
    lambda: 0.5
    field_h: 240
    field_w: 160
    downsample_rate: 32
    bb_smooth: true
    field_whr: 2
    field_xyr: 2
    bg_threshold: 0.2
    bg_multiple: 2
    sample_mode: "random"
    pos_neg_weighted: true
  }
}
layer {
  name: "detection_accuracy_3_3x5"
  type: "DetectionAccuracy"
  bottom: "LFCN_3_3x5"
  bottom: "label_3_3x5"
  top: "accuracy_3_3x5"
  top: "boxiou_3_3x5"
  detection_accuracy_param {
    cls_num: 3
    coord_num: 4
    field_h: 240
    field_w: 160
    downsample_rate: 32
    field_whr: 2
    field_xyr: 2
  }
}
layer {
  name: "LFCN_3_5x7"
  type: "Convolution"
  bottom: "conv6_1"
  top: "LFCN_3_5x7"
  param {
    lr_mult: 1
    decay_mult: 1
  }
  param {
    lr_mult: 2
    decay_mult: 0
  }
  convolution_param {
    num_output: 7
    weight_filler {
      type: "gaussian"
      std: 0.001
    }
    bias_filler {
      type: "constant"
    }
    pad_h: 3
    pad_w: 2
    kernel_h: 7
    kernel_w: 5
  }
}
layer {
  name: "detection_loss_3_5x7"
  type: "DetectionLoss"
  bottom: "LFCN_3_5x7"
  bottom: "label_3_5x7"
  top: "loss_3_5x7"
  detection_loss_param {
    cls_num: 3
    coord_num: 4
    lambda: 0.5
    field_h: 336
    field_w: 224
    downsample_rate: 32
    bb_smooth: true
    field_whr: 2
    field_xyr: 2
    bg_threshold: 0.2
    bg_multiple: 2
    sample_mode: "random"
    pos_neg_weighted: true
  }
}
layer {
  name: "detection_accuracy_3_5x7"
  type: "DetectionAccuracy"
  bottom: "LFCN_3_5x7"
  bottom: "label_3_5x7"
  top: "accuracy_3_5x7"
  top: "boxiou_3_5x7"
  detection_accuracy_param {
    cls_num: 3
    coord_num: 4
    field_h: 336
    field_w: 224
    downsample_rate: 32
    field_whr: 2
    field_xyr: 2
  }
}
layer {
  name: "pool6"
  type: "Pooling"
  bottom: "conv6_1"
  top: "pool6"
  pooling_param {
    pool: MAX
    kernel_size: 2
    stride: 2
  }
}
layer {
  name: "LFCN_4_3x5"
  type: "Convolution"
  bottom: "pool6"
  top: "LFCN_4_3x5"
  param {
    lr_mult: 1
    decay_mult: 1
  }
  param {
    lr_mult: 2
    decay_mult: 0
  }
  convolution_param {
    num_output: 7
    weight_filler {
      type: "gaussian"
      std: 0.001
    }
    bias_filler {
      type: "constant"
    }
    pad_h: 2
    pad_w: 1
    kernel_h: 5
    kernel_w: 3
  }
}
layer {
  name: "detection_loss_4_3x5"
  type: "DetectionLoss"
  bottom: "LFCN_4_3x5"
  bottom: "label_4_3x5"
  top: "loss_4_3x5"
  detection_loss_param {
    cls_num: 3
    coord_num: 4
    lambda: 0.5
    field_h: 480
    field_w: 360
    downsample_rate: 64
    bb_smooth: true
    field_whr: 2
    field_xyr: 2
    bg_threshold: 0.2
    bg_multiple: 2
    sample_mode: "random"
    pos_neg_weighted: true
  }
}
layer {
  name: "detection_accuracy_4_3x5"
  type: "DetectionAccuracy"
  bottom: "LFCN_4_3x5"
  bottom: "label_4_3x5"
  top: "accuracy_4_3x5"
  top: "boxiou_4_3x5"
  detection_accuracy_param {
    cls_num: 3
    coord_num: 4
    field_h: 480
    field_w: 360
    downsample_rate: 64
    field_whr: 2
    field_xyr: 2
  }
}
I0701 05:30:50.164919  1246 layer_factory.hpp:77] Creating layer data
I0701 05:30:50.164945  1246 net.cpp:100] Creating Layer data
I0701 05:30:50.164953  1246 net.cpp:408] data -> data
…
I0701 05:30:50.186589  1246 image_gt_data_layer.cpp:241] output label size 2 : 4,6,36,48
I0701 05:30:50.186628  1246 image_gt_data_layer.cpp:241] output label size 3 : 4,6,36,48
I0701 05:30:50.186668  1246 image_gt_data_layer.cpp:241] output label size 4 : 4,6,18,24
I0701 05:30:50.186712  1246 image_gt_data_layer.cpp:241] output label size 5 : 4,6,18,24
I0701 05:30:50.186755  1246 image_gt_data_layer.cpp:241] output label size 6 : 4,6,9,12
I0701 05:30:50.186758  1246 image_gt_data_layer.cpp:265]  --> has_mean_values_ = 1
I0701 05:30:50.226397  1246 net.cpp:150] Setting up data
I0701 05:30:50.226418  1246 net.cpp:157] Top shape: 4 4 576 768 (7077888)
I0701 05:30:50.226423  1246 net.cpp:157] Top shape: 4 6 72 96 (165888)
I0701 05:30:50.226428  1246 net.cpp:157] Top shape: 4 6 72 96 (165888)
I0701 05:30:50.226430  1246 net.cpp:157] Top shape: 4 6 36 48 (41472)
I0701 05:30:50.226434  1246 net.cpp:157] Top shape: 4 6 36 48 (41472)
I0701 05:30:50.226438  1246 net.cpp:157] Top shape: 4 6 18 24 (10368)
I0701 05:30:50.226442  1246 net.cpp:157] Top shape: 4 6 18 24 (10368)
I0701 05:30:50.226446  1246 net.cpp:157] Top shape: 4 6 9 12 (2592)
I0701 05:30:50.226449  1246 net.cpp:165] Memory required for data: 30063744
I0701 05:30:50.226456  1246 layer_factory.hpp:77] Creating layer label_1_3x5_data_1_split
I0701 05:30:50.226469  1246 net.cpp:100] Creating Layer label_1_3x5_data_1_split
I0701 05:30:50.226475  1246 net.cpp:434] label_1_3x5_data_1_split <- label_1_3x5
I0701 05:30:50.226486  1246 net.cpp:408] label_1_3x5_data_1_split -> label_1_3x5_data_1_split_0
I0701 05:30:50.226497  1246 net.cpp:408] label_1_3x5_data_1_split -> label_1_3x5_data_1_split_1
I0701 05:30:50.226539  1246 net.cpp:150] Setting up label_1_3x5_data_1_split
I0701 05:30:50.226546  1246 net.cpp:157] Top shape: 4 6 72 96 (165888)
I0701 05:30:50.226549  1246 net.cpp:157] Top shape: 4 6 72 96 (165888)
I0701 05:30:50.226552  1246 net.cpp:165] Memory required for data: 31390848
I0701 05:30:50.226555  1246 layer_factory.hpp:77] Creating layer label_1_5x7_data_2_split
I0701 05:30:50.226563  1246 net.cpp:100] Creating Layer label_1_5x7_data_2_split
I0701 05:30:50.226567  1246 net.cpp:434] label_1_5x7_data_2_split <- label_1_5x7
I0701 05:30:50.226572  1246 net.cpp:408] label_1_5x7_data_2_split -> label_1_5x7_data_2_split_0
I0701 05:30:50.226579  1246 net.cpp:408] label_1_5x7_data_2_split -> label_1_5x7_data_2_split_1
I0701 05:30:50.226608  1246 net.cpp:150] Setting up label_1_5x7_data_2_split
I0701 05:30:50.226614  1246 net.cpp:157] Top shape: 4 6 72 96 (165888)
I0701 05:30:50.226619  1246 net.cpp:157] Top shape: 4 6 72 96 (165888)
I0701 05:30:50.226620  1246 net.cpp:165] Memory required for data: 32717952
I0701 05:30:50.226624  1246 layer_factory.hpp:77] Creating layer label_2_3x5_data_3_split
I0701 05:30:50.226629  1246 net.cpp:100] Creating Layer label_2_3x5_data_3_split
I0701 05:30:50.226634  1246 net.cpp:434] label_2_3x5_data_3_split <- label_2_3x5
I0701 05:30:50.226639  1246 net.cpp:408] label_2_3x5_data_3_split -> label_2_3x5_data_3_split_0
I0701 05:30:50.226645  1246 net.cpp:408] label_2_3x5_data_3_split -> label_2_3x5_data_3_split_1
I0701 05:30:50.226673  1246 net.cpp:150] Setting up label_2_3x5_data_3_split
I0701 05:30:50.226678  1246 net.cpp:157] Top shape: 4 6 36 48 (41472)
I0701 05:30:50.226682  1246 net.cpp:157] Top shape: 4 6 36 48 (41472)
I0701 05:30:50.226686  1246 net.cpp:165] Memory required for data: 33049728
I0701 05:30:50.226688  1246 layer_factory.hpp:77] Creating layer label_2_5x7_data_4_split
I0701 05:30:50.226694  1246 net.cpp:100] Creating Layer label_2_5x7_data_4_split
I0701 05:30:50.226698  1246 net.cpp:434] label_2_5x7_data_4_split <- label_2_5x7
I0701 05:30:50.226703  1246 net.cpp:408] label_2_5x7_data_4_split -> label_2_5x7_data_4_split_0
I0701 05:30:50.226711  1246 net.cpp:408] label_2_5x7_data_4_split -> label_2_5x7_data_4_split_1
I0701 05:30:50.226739  1246 net.cpp:150] Setting up label_2_5x7_data_4_split
I0701 05:30:50.226744  1246 net.cpp:157] Top shape: 4 6 36 48 (41472)
I0701 05:30:50.226748  1246 net.cpp:157] Top shape: 4 6 36 48 (41472)
I0701 05:30:50.226752  1246 net.cpp:165] Memory required for data: 33381504
I0701 05:30:50.226754  1246 layer_factory.hpp:77] Creating layer label_3_3x5_data_5_split
I0701 05:30:50.226759  1246 net.cpp:100] Creating Layer label_3_3x5_data_5_split
I0701 05:30:50.226763  1246 net.cpp:434] label_3_3x5_data_5_split <- label_3_3x5
I0701 05:30:50.226768  1246 net.cpp:408] label_3_3x5_data_5_split -> label_3_3x5_data_5_split_0
I0701 05:30:50.226775  1246 net.cpp:408] label_3_3x5_data_5_split -> label_3_3x5_data_5_split_1
I0701 05:30:50.226804  1246 net.cpp:150] Setting up label_3_3x5_data_5_split
I0701 05:30:50.226809  1246 net.cpp:157] Top shape: 4 6 18 24 (10368)
I0701 05:30:50.226814  1246 net.cpp:157] Top shape: 4 6 18 24 (10368)
I0701 05:30:50.226815  1246 net.cpp:165] Memory required for data: 33464448
I0701 05:30:50.226819  1246 layer_factory.hpp:77] Creating layer label_3_5x7_data_6_split
I0701 05:30:50.226824  1246 net.cpp:100] Creating Layer label_3_5x7_data_6_split
I0701 05:30:50.226826  1246 net.cpp:434] label_3_5x7_data_6_split <- label_3_5x7
I0701 05:30:50.226832  1246 net.cpp:408] label_3_5x7_data_6_split -> label_3_5x7_data_6_split_0
I0701 05:30:50.226838  1246 net.cpp:408] label_3_5x7_data_6_split -> label_3_5x7_data_6_split_1
I0701 05:30:50.226902  1246 net.cpp:150] Setting up label_3_5x7_data_6_split
I0701 05:30:50.226909  1246 net.cpp:157] Top shape: 4 6 18 24 (10368)
I0701 05:30:50.226913  1246 net.cpp:157] Top shape: 4 6 18 24 (10368)
I0701 05:30:50.226917  1246 net.cpp:165] Memory required for data: 33547392
I0701 05:30:50.226919  1246 layer_factory.hpp:77] Creating layer label_4_3x5_data_7_split
I0701 05:30:50.226923  1246 net.cpp:100] Creating Layer label_4_3x5_data_7_split
I0701 05:30:50.226927  1246 net.cpp:434] label_4_3x5_data_7_split <- label_4_3x5
I0701 05:30:50.226933  1246 net.cpp:408] label_4_3x5_data_7_split -> label_4_3x5_data_7_split_0
I0701 05:30:50.226938  1246 net.cpp:408] label_4_3x5_data_7_split -> label_4_3x5_data_7_split_1
I0701 05:30:50.229171  1246 net.cpp:150] Setting up label_4_3x5_data_7_split
I0701 05:30:50.229179  1246 net.cpp:157] Top shape: 4 6 9 12 (2592)
I0701 05:30:50.229183  1246 net.cpp:157] Top shape: 4 6 9 12 (2592)
I0701 05:30:50.229185  1246 net.cpp:165] Memory required for data: 33568128
I0701 05:30:50.229190  1246 layer_factory.hpp:77] Creating layer conv1_1
I0701 05:30:50.229218  1246 net.cpp:100] Creating Layer conv1_1
I0701 05:30:50.229223  1246 net.cpp:434] conv1_1 <- data
I0701 05:30:50.229255  1246 net.cpp:408] conv1_1 -> conv1_1
I0701 05:30:50.782058  1246 net.cpp:150] Setting up conv1_1
I0701 05:30:50.782080  1246 net.cpp:157] Top shape: 4 64 576 768 (113246208)
I0701 05:30:50.782083  1246 net.cpp:165] Memory required for data: 486552960
I0701 05:30:50.782110  1246 layer_factory.hpp:77] Creating layer relu1_1
I0701 05:30:50.782121  1246 net.cpp:100] Creating Layer relu1_1
I0701 05:30:50.782125  1246 net.cpp:434] relu1_1 <- conv1_1
I0701 05:30:50.782130  1246 net.cpp:395] relu1_1 -> conv1_1 (in-place)
I0701 05:30:50.782413  1246 net.cpp:150] Setting up relu1_1
I0701 05:30:50.782420  1246 net.cpp:157] Top shape: 4 64 576 768 (113246208)
I0701 05:30:50.782423  1246 net.cpp:165] Memory required for data: 939537792
I0701 05:30:50.782424  1246 layer_factory.hpp:77] Creating layer conv1_2
I0701 05:30:50.782431  1246 net.cpp:100] Creating Layer conv1_2
I0701 05:30:50.782433  1246 net.cpp:434] conv1_2 <- conv1_1
I0701 05:30:50.782436  1246 net.cpp:408] conv1_2 -> conv1_2
I0701 05:30:50.786077  1246 net.cpp:150] Setting up conv1_2
I0701 05:30:50.786095  1246 net.cpp:157] Top shape: 4 64 576 768 (113246208)
I0701 05:30:50.786098  1246 net.cpp:165] Memory required for data: 1392522624
I0701 05:30:50.786108  1246 layer_factory.hpp:77] Creating layer relu1_2
I0701 05:30:50.786115  1246 net.cpp:100] Creating Layer relu1_2
I0701 05:30:50.786118  1246 net.cpp:434] relu1_2 <- conv1_2
I0701 05:30:50.786124  1246 net.cpp:395] relu1_2 -> conv1_2 (in-place)
I0701 05:30:50.786409  1246 net.cpp:150] Setting up relu1_2
I0701 05:30:50.786417  1246 net.cpp:157] Top shape: 4 64 576 768 (113246208)
I0701 05:30:50.786419  1246 net.cpp:165] Memory required for data: 1845507456
I0701 05:30:50.786422  1246 layer_factory.hpp:77] Creating layer pool1
I0701 05:30:50.786427  1246 net.cpp:100] Creating Layer pool1
I0701 05:30:50.786428  1246 net.cpp:434] pool1 <- conv1_2
I0701 05:30:50.786432  1246 net.cpp:408] pool1 -> pool1
I0701 05:30:50.786478  1246 net.cpp:150] Setting up pool1
I0701 05:30:50.786481  1246 net.cpp:157] Top shape: 4 64 288 384 (28311552)
I0701 05:30:50.786484  1246 net.cpp:165] Memory required for data: 1958753664
I0701 05:30:50.786485  1246 layer_factory.hpp:77] Creating layer conv2_1
I0701 05:30:50.786492  1246 net.cpp:100] Creating Layer conv2_1
I0701 05:30:50.786496  1246 net.cpp:434] conv2_1 <- pool1
I0701 05:30:50.786499  1246 net.cpp:408] conv2_1 -> conv2_1
I0701 05:30:50.788910  1246 net.cpp:150] Setting up conv2_1
I0701 05:30:50.788929  1246 net.cpp:157] Top shape: 4 128 288 384 (56623104)
I0701 05:30:50.788931  1246 net.cpp:165] Memory required for data: 2185246080
I0701 05:30:50.788942  1246 layer_factory.hpp:77] Creating layer relu2_1
I0701 05:30:50.788949  1246 net.cpp:100] Creating Layer relu2_1
I0701 05:30:50.788952  1246 net.cpp:434] relu2_1 <- conv2_1
I0701 05:30:50.788956  1246 net.cpp:395] relu2_1 -> conv2_1 (in-place)
I0701 05:30:50.789608  1246 net.cpp:150] Setting up relu2_1
I0701 05:30:50.789618  1246 net.cpp:157] Top shape: 4 128 288 384 (56623104)
I0701 05:30:50.789620  1246 net.cpp:165] Memory required for data: 2411738496
I0701 05:30:50.789623  1246 layer_factory.hpp:77] Creating layer conv2_2
I0701 05:30:50.789630  1246 net.cpp:100] Creating Layer conv2_2
I0701 05:30:50.789633  1246 net.cpp:434] conv2_2 <- conv2_1
I0701 05:30:50.789636  1246 net.cpp:408] conv2_2 -> conv2_2
I0701 05:30:50.791308  1246 net.cpp:150] Setting up conv2_2
I0701 05:30:50.791322  1246 net.cpp:157] Top shape: 4 128 288 384 (56623104)
I0701 05:30:50.791324  1246 net.cpp:165] Memory required for data: 2638230912
I0701 05:30:50.791332  1246 layer_factory.hpp:77] Creating layer relu2_2
I0701 05:30:50.791339  1246 net.cpp:100] Creating Layer relu2_2
I0701 05:30:50.791342  1246 net.cpp:434] relu2_2 <- conv2_2
I0701 05:30:50.791347  1246 net.cpp:395] relu2_2 -> conv2_2 (in-place)
I0701 05:30:50.791929  1246 net.cpp:150] Setting up relu2_2
I0701 05:30:50.791937  1246 net.cpp:157] Top shape: 4 128 288 384 (56623104)
I0701 05:30:50.791939  1246 net.cpp:165] Memory required for data: 2864723328
I0701 05:30:50.791941  1246 layer_factory.hpp:77] Creating layer pool2
I0701 05:30:50.791946  1246 net.cpp:100] Creating Layer pool2
I0701 05:30:50.791949  1246 net.cpp:434] pool2 <- conv2_2
I0701 05:30:50.791952  1246 net.cpp:408] pool2 -> pool2
I0701 05:30:50.791990  1246 net.cpp:150] Setting up pool2
I0701 05:30:50.791996  1246 net.cpp:157] Top shape: 4 128 144 192 (14155776)
I0701 05:30:50.791997  1246 net.cpp:165] Memory required for data: 2921346432
I0701 05:30:50.791999  1246 layer_factory.hpp:77] Creating layer conv3_1
I0701 05:30:50.792006  1246 net.cpp:100] Creating Layer conv3_1
I0701 05:30:50.792011  1246 net.cpp:434] conv3_1 <- pool2
I0701 05:30:50.792014  1246 net.cpp:408] conv3_1 -> conv3_1
I0701 05:30:50.794608  1246 net.cpp:150] Setting up conv3_1
I0701 05:30:50.794626  1246 net.cpp:157] Top shape: 4 256 144 192 (28311552)
I0701 05:30:50.794629  1246 net.cpp:165] Memory required for data: 3034592640
I0701 05:30:50.794638  1246 layer_factory.hpp:77] Creating layer relu3_1
I0701 05:30:50.794646  1246 net.cpp:100] Creating Layer relu3_1
I0701 05:30:50.794648  1246 net.cpp:434] relu3_1 <- conv3_1
I0701 05:30:50.794652  1246 net.cpp:395] relu3_1 -> conv3_1 (in-place)
I0701 05:30:50.794894  1246 net.cpp:150] Setting up relu3_1
I0701 05:30:50.794901  1246 net.cpp:157] Top shape: 4 256 144 192 (28311552)
I0701 05:30:50.794903  1246 net.cpp:165] Memory required for data: 3147838848
I0701 05:30:50.794906  1246 layer_factory.hpp:77] Creating layer conv3_2
I0701 05:30:50.794911  1246 net.cpp:100] Creating Layer conv3_2
I0701 05:30:50.794914  1246 net.cpp:434] conv3_2 <- conv3_1
I0701 05:30:50.794917  1246 net.cpp:408] conv3_2 -> conv3_2
I0701 05:30:50.798123  1246 net.cpp:150] Setting up conv3_2
I0701 05:30:50.798141  1246 net.cpp:157] Top shape: 4 256 144 192 (28311552)
I0701 05:30:50.798144  1246 net.cpp:165] Memory required for data: 3261085056
I0701 05:30:50.798151  1246 layer_factory.hpp:77] Creating layer relu3_2
I0701 05:30:50.798158  1246 net.cpp:100] Creating Layer relu3_2
I0701 05:30:50.798161  1246 net.cpp:434] relu3_2 <- conv3_2
I0701 05:30:50.798166  1246 net.cpp:395] relu3_2 -> conv3_2 (in-place)
I0701 05:30:50.798404  1246 net.cpp:150] Setting up relu3_2
I0701 05:30:50.798411  1246 net.cpp:157] Top shape: 4 256 144 192 (28311552)
I0701 05:30:50.798413  1246 net.cpp:165] Memory required for data: 3374331264
I0701 05:30:50.798415  1246 layer_factory.hpp:77] Creating layer conv3_3
I0701 05:30:50.798421  1246 net.cpp:100] Creating Layer conv3_3
I0701 05:30:50.798424  1246 net.cpp:434] conv3_3 <- conv3_2
I0701 05:30:50.798429  1246 net.cpp:408] conv3_3 -> conv3_3
I0701 05:30:50.801302  1246 net.cpp:150] Setting up conv3_3
I0701 05:30:50.801322  1246 net.cpp:157] Top shape: 4 256 144 192 (28311552)
I0701 05:30:50.801324  1246 net.cpp:165] Memory required for data: 3487577472
I0701 05:30:50.801331  1246 layer_factory.hpp:77] Creating layer relu3_3
I0701 05:30:50.801339  1246 net.cpp:100] Creating Layer relu3_3
I0701 05:30:50.801342  1246 net.cpp:434] relu3_3 <- conv3_3
I0701 05:30:50.801347  1246 net.cpp:395] relu3_3 -> conv3_3 (in-place)
I0701 05:30:50.801934  1246 net.cpp:150] Setting up relu3_3
I0701 05:30:50.801942  1246 net.cpp:157] Top shape: 4 256 144 192 (28311552)
I0701 05:30:50.801944  1246 net.cpp:165] Memory required for data: 3600823680
I0701 05:30:50.801946  1246 layer_factory.hpp:77] Creating layer pool3
I0701 05:30:50.801951  1246 net.cpp:100] Creating Layer pool3
I0701 05:30:50.801954  1246 net.cpp:434] pool3 <- conv3_3
I0701 05:30:50.801959  1246 net.cpp:408] pool3 -> pool3
I0701 05:30:50.801995  1246 net.cpp:150] Setting up pool3
I0701 05:30:50.802000  1246 net.cpp:157] Top shape: 4 256 72 96 (7077888)
I0701 05:30:50.802001  1246 net.cpp:165] Memory required for data: 3629135232
I0701 05:30:50.802004  1246 layer_factory.hpp:77] Creating layer conv4_1
I0701 05:30:50.802012  1246 net.cpp:100] Creating Layer conv4_1
I0701 05:30:50.802016  1246 net.cpp:434] conv4_1 <- pool3
I0701 05:30:50.802021  1246 net.cpp:408] conv4_1 -> conv4_1
I0701 05:30:50.807454  1246 net.cpp:150] Setting up conv4_1
I0701 05:30:50.807472  1246 net.cpp:157] Top shape: 4 512 72 96 (14155776)
I0701 05:30:50.807476  1246 net.cpp:165] Memory required for data: 3685758336
I0701 05:30:50.807482  1246 layer_factory.hpp:77] Creating layer relu4_1
I0701 05:30:50.807489  1246 net.cpp:100] Creating Layer relu4_1
I0701 05:30:50.807492  1246 net.cpp:434] relu4_1 <- conv4_1
I0701 05:30:50.807497  1246 net.cpp:395] relu4_1 -> conv4_1 (in-place)
I0701 05:30:50.807763  1246 net.cpp:150] Setting up relu4_1
I0701 05:30:50.807770  1246 net.cpp:157] Top shape: 4 512 72 96 (14155776)
I0701 05:30:50.807772  1246 net.cpp:165] Memory required for data: 3742381440
I0701 05:30:50.807775  1246 layer_factory.hpp:77] Creating layer conv4_2
I0701 05:30:50.807780  1246 net.cpp:100] Creating Layer conv4_2
I0701 05:30:50.807782  1246 net.cpp:434] conv4_2 <- conv4_1
I0701 05:30:50.807786  1246 net.cpp:408] conv4_2 -> conv4_2
I0701 05:30:50.813441  1246 net.cpp:150] Setting up conv4_2
I0701 05:30:50.813460  1246 net.cpp:157] Top shape: 4 512 72 96 (14155776)
I0701 05:30:50.813462  1246 net.cpp:165] Memory required for data: 3799004544
I0701 05:30:50.813472  1246 layer_factory.hpp:77] Creating layer relu4_2
I0701 05:30:50.813479  1246 net.cpp:100] Creating Layer relu4_2
I0701 05:30:50.813483  1246 net.cpp:434] relu4_2 <- conv4_2
I0701 05:30:50.813488  1246 net.cpp:395] relu4_2 -> conv4_2 (in-place)
I0701 05:30:50.813715  1246 net.cpp:150] Setting up relu4_2
I0701 05:30:50.813722  1246 net.cpp:157] Top shape: 4 512 72 96 (14155776)
I0701 05:30:50.813724  1246 net.cpp:165] Memory required for data: 3855627648
I0701 05:30:50.813726  1246 layer_factory.hpp:77] Creating layer conv4_3
I0701 05:30:50.813732  1246 net.cpp:100] Creating Layer conv4_3
I0701 05:30:50.813735  1246 net.cpp:434] conv4_3 <- conv4_2
I0701 05:30:50.813738  1246 net.cpp:408] conv4_3 -> conv4_3
I0701 05:30:50.819052  1246 net.cpp:150] Setting up conv4_3
I0701 05:30:50.819073  1246 net.cpp:157] Top shape: 4 512 72 96 (14155776)
I0701 05:30:50.819077  1246 net.cpp:165] Memory required for data: 3912250752
I0701 05:30:50.819083  1246 layer_factory.hpp:77] Creating layer relu4_3
I0701 05:30:50.819090  1246 net.cpp:100] Creating Layer relu4_3
I0701 05:30:50.819094  1246 net.cpp:434] relu4_3 <- conv4_3
I0701 05:30:50.819099  1246 net.cpp:395] relu4_3 -> conv4_3 (in-place)
I0701 05:30:50.819738  1246 net.cpp:150] Setting up relu4_3
I0701 05:30:50.819746  1246 net.cpp:157] Top shape: 4 512 72 96 (14155776)
I0701 05:30:50.819748  1246 net.cpp:165] Memory required for data: 3968873856
I0701 05:30:50.819751  1246 layer_factory.hpp:77] Creating layer conv4_3_relu4_3_0_split
I0701 05:30:50.819756  1246 net.cpp:100] Creating Layer conv4_3_relu4_3_0_split
I0701 05:30:50.819758  1246 net.cpp:434] conv4_3_relu4_3_0_split <- conv4_3
I0701 05:30:50.819762  1246 net.cpp:408] conv4_3_relu4_3_0_split -> conv4_3_relu4_3_0_split_0
I0701 05:30:50.819767  1246 net.cpp:408] conv4_3_relu4_3_0_split -> conv4_3_relu4_3_0_split_1
I0701 05:30:50.819802  1246 net.cpp:150] Setting up conv4_3_relu4_3_0_split
I0701 05:30:50.819806  1246 net.cpp:157] Top shape: 4 512 72 96 (14155776)
I0701 05:30:50.819809  1246 net.cpp:157] Top shape: 4 512 72 96 (14155776)
I0701 05:30:50.819811  1246 net.cpp:165] Memory required for data: 4082120064
I0701 05:30:50.819815  1246 layer_factory.hpp:77] Creating layer loss1_conv1
I0701 05:30:50.819828  1246 net.cpp:100] Creating Layer loss1_conv1
I0701 05:30:50.819833  1246 net.cpp:434] loss1_conv1 <- conv4_3_relu4_3_0_split_0
I0701 05:30:50.819836  1246 net.cpp:408] loss1_conv1 -> loss1_conv1
I0701 05:30:50.853833  1246 net.cpp:150] Setting up loss1_conv1
I0701 05:30:50.853852  1246 net.cpp:157] Top shape: 4 512 72 96 (14155776)
I0701 05:30:50.853853  1246 net.cpp:165] Memory required for data: 4138743168
I0701 05:30:50.853860  1246 layer_factory.hpp:77] Creating layer loss_relu1
I0701 05:30:50.853866  1246 net.cpp:100] Creating Layer loss_relu1
I0701 05:30:50.853870  1246 net.cpp:434] loss_relu1 <- loss1_conv1
I0701 05:30:50.853875  1246 net.cpp:395] loss_relu1 -> loss1_conv1 (in-place)
I0701 05:30:50.854118  1246 net.cpp:150] Setting up loss_relu1
I0701 05:30:50.854125  1246 net.cpp:157] Top shape: 4 512 72 96 (14155776)
I0701 05:30:50.854127  1246 net.cpp:165] Memory required for data: 4195366272
I0701 05:30:50.854130  1246 layer_factory.hpp:77] Creating layer loss1_conv1_loss_relu1_0_split
I0701 05:30:50.854132  1246 net.cpp:100] Creating Layer loss1_conv1_loss_relu1_0_split
I0701 05:30:50.854135  1246 net.cpp:434] loss1_conv1_loss_relu1_0_split <- loss1_conv1
I0701 05:30:50.854140  1246 net.cpp:408] loss1_conv1_loss_relu1_0_split -> loss1_conv1_loss_relu1_0_split_0
I0701 05:30:50.854146  1246 net.cpp:408] loss1_conv1_loss_relu1_0_split -> loss1_conv1_loss_relu1_0_split_1
I0701 05:30:50.854182  1246 net.cpp:150] Setting up loss1_conv1_loss_relu1_0_split
I0701 05:30:50.854187  1246 net.cpp:157] Top shape: 4 512 72 96 (14155776)
I0701 05:30:50.854188  1246 net.cpp:157] Top shape: 4 512 72 96 (14155776)
I0701 05:30:50.854190  1246 net.cpp:165] Memory required for data: 4308612480
I0701 05:30:50.854193  1246 layer_factory.hpp:77] Creating layer LFCN_1_3x5
I0701 05:30:50.854203  1246 net.cpp:100] Creating Layer LFCN_1_3x5
I0701 05:30:50.854207  1246 net.cpp:434] LFCN_1_3x5 <- loss1_conv1_loss_relu1_0_split_0
I0701 05:30:50.854212  1246 net.cpp:408] LFCN_1_3x5 -> LFCN_1_3x5
I0701 05:30:50.856330  1246 net.cpp:150] Setting up LFCN_1_3x5
I0701 05:30:50.856341  1246 net.cpp:157] Top shape: 4 7 72 96 (193536)
I0701 05:30:50.856343  1246 net.cpp:165] Memory required for data: 4309386624
I0701 05:30:50.856348  1246 layer_factory.hpp:77] Creating layer LFCN_1_3x5_LFCN_1_3x5_0_split
I0701 05:30:50.856354  1246 net.cpp:100] Creating Layer LFCN_1_3x5_LFCN_1_3x5_0_split
I0701 05:30:50.856357  1246 net.cpp:434] LFCN_1_3x5_LFCN_1_3x5_0_split <- LFCN_1_3x5
I0701 05:30:50.856361  1246 net.cpp:408] LFCN_1_3x5_LFCN_1_3x5_0_split -> LFCN_1_3x5_LFCN_1_3x5_0_split_0
I0701 05:30:50.856369  1246 net.cpp:408] LFCN_1_3x5_LFCN_1_3x5_0_split -> LFCN_1_3x5_LFCN_1_3x5_0_split_1
I0701 05:30:50.856405  1246 net.cpp:150] Setting up LFCN_1_3x5_LFCN_1_3x5_0_split
I0701 05:30:50.856410  1246 net.cpp:157] Top shape: 4 7 72 96 (193536)
I0701 05:30:50.856412  1246 net.cpp:157] Top shape: 4 7 72 96 (193536)
I0701 05:30:50.856415  1246 net.cpp:165] Memory required for data: 4310934912
I0701 05:30:50.856417  1246 layer_factory.hpp:77] Creating layer detection_loss_1_3x5
I0701 05:30:50.856426  1246 net.cpp:100] Creating Layer detection_loss_1_3x5
I0701 05:30:50.856429  1246 net.cpp:434] detection_loss_1_3x5 <- LFCN_1_3x5_LFCN_1_3x5_0_split_0
I0701 05:30:50.856433  1246 net.cpp:434] detection_loss_1_3x5 <- label_1_3x5_data_1_split_0
I0701 05:30:50.856441  1246 net.cpp:408] detection_loss_1_3x5 -> loss_1_3x5
I0701 05:30:50.856452  1246 layer_factory.hpp:77] Creating layer detection_loss_1_3x5
I0701 05:30:50.856868  1246 net.cpp:150] Setting up detection_loss_1_3x5
I0701 05:30:50.856875  1246 net.cpp:157] Top shape: 1 1 1 2 (2)
I0701 05:30:50.856878  1246 net.cpp:160]     with loss weight 0.9
I0701 05:30:50.856889  1246 net.cpp:165] Memory required for data: 4310934920
I0701 05:30:50.856892  1246 layer_factory.hpp:77] Creating layer detection_accuracy_1_3x5
I0701 05:30:50.856899  1246 net.cpp:100] Creating Layer detection_accuracy_1_3x5
I0701 05:30:50.856901  1246 net.cpp:434] detection_accuracy_1_3x5 <- LFCN_1_3x5_LFCN_1_3x5_0_split_1
I0701 05:30:50.856905  1246 net.cpp:434] detection_accuracy_1_3x5 <- label_1_3x5_data_1_split_1
I0701 05:30:50.856909  1246 net.cpp:408] detection_accuracy_1_3x5 -> accuracy_1_3x5
I0701 05:30:50.856916  1246 net.cpp:408] detection_accuracy_1_3x5 -> boxiou_1_3x5
I0701 05:30:50.856954  1246 net.cpp:150] Setting up detection_accuracy_1_3x5
I0701 05:30:50.856958  1246 net.cpp:157] Top shape: 1 1 1 2 (2)
I0701 05:30:50.856961  1246 net.cpp:157] Top shape: 1 1 1 1 (1)
I0701 05:30:50.856962  1246 net.cpp:165] Memory required for data: 4310934932
I0701 05:30:50.856966  1246 layer_factory.hpp:77] Creating layer LFCN_1_5x7
I0701 05:30:50.856976  1246 net.cpp:100] Creating Layer LFCN_1_5x7
I0701 05:30:50.856978  1246 net.cpp:434] LFCN_1_5x7 <- loss1_conv1_loss_relu1_0_split_1
I0701 05:30:50.856984  1246 net.cpp:408] LFCN_1_5x7 -> LFCN_1_5x7
I0701 05:30:50.859252  1246 net.cpp:150] Setting up LFCN_1_5x7
I0701 05:30:50.859264  1246 net.cpp:157] Top shape: 4 7 72 96 (193536)
I0701 05:30:50.859267  1246 net.cpp:165] Memory required for data: 4311709076
I0701 05:30:50.859275  1246 layer_factory.hpp:77] Creating layer LFCN_1_5x7_LFCN_1_5x7_0_split
I0701 05:30:50.859285  1246 net.cpp:100] Creating Layer LFCN_1_5x7_LFCN_1_5x7_0_split
I0701 05:30:50.859289  1246 net.cpp:434] LFCN_1_5x7_LFCN_1_5x7_0_split <- LFCN_1_5x7
I0701 05:30:50.859294  1246 net.cpp:408] LFCN_1_5x7_LFCN_1_5x7_0_split -> LFCN_1_5x7_LFCN_1_5x7_0_split_0
I0701 05:30:50.859303  1246 net.cpp:408] LFCN_1_5x7_LFCN_1_5x7_0_split -> LFCN_1_5x7_LFCN_1_5x7_0_split_1
I0701 05:30:50.859338  1246 net.cpp:150] Setting up LFCN_1_5x7_LFCN_1_5x7_0_split
I0701 05:30:50.859342  1246 net.cpp:157] Top shape: 4 7 72 96 (193536)
I0701 05:30:50.859345  1246 net.cpp:157] Top shape: 4 7 72 96 (193536)
I0701 05:30:50.859349  1246 net.cpp:165] Memory required for data: 4313257364
I0701 05:30:50.859352  1246 layer_factory.hpp:77] Creating layer detection_loss_1_5x7
I0701 05:30:50.859359  1246 net.cpp:100] Creating Layer detection_loss_1_5x7
I0701 05:30:50.859364  1246 net.cpp:434] detection_loss_1_5x7 <- LFCN_1_5x7_LFCN_1_5x7_0_split_0
I0701 05:30:50.859366  1246 net.cpp:434] detection_loss_1_5x7 <- label_1_5x7_data_2_split_0
I0701 05:30:50.859375  1246 net.cpp:408] detection_loss_1_5x7 -> loss_1_5x7
I0701 05:30:50.859382  1246 layer_factory.hpp:77] Creating layer detection_loss_1_5x7
I0701 05:30:50.860210  1246 net.cpp:150] Setting up detection_loss_1_5x7
I0701 05:30:50.860219  1246 net.cpp:157] Top shape: 1 1 1 2 (2)
I0701 05:30:50.860222  1246 net.cpp:160]     with loss weight 0.9
I0701 05:30:50.860230  1246 net.cpp:165] Memory required for data: 4313257372
I0701 05:30:50.860234  1246 layer_factory.hpp:77] Creating layer detection_accuracy_1_5x7
I0701 05:30:50.860244  1246 net.cpp:100] Creating Layer detection_accuracy_1_5x7
I0701 05:30:50.860247  1246 net.cpp:434] detection_accuracy_1_5x7 <- LFCN_1_5x7_LFCN_1_5x7_0_split_1
I0701 05:30:50.860251  1246 net.cpp:434] detection_accuracy_1_5x7 <- label_1_5x7_data_2_split_1
I0701 05:30:50.860257  1246 net.cpp:408] detection_accuracy_1_5x7 -> accuracy_1_5x7
I0701 05:30:50.860265  1246 net.cpp:408] detection_accuracy_1_5x7 -> boxiou_1_5x7
I0701 05:30:50.860301  1246 net.cpp:150] Setting up detection_accuracy_1_5x7
I0701 05:30:50.860306  1246 net.cpp:157] Top shape: 1 1 1 2 (2)
I0701 05:30:50.860308  1246 net.cpp:157] Top shape: 1 1 1 1 (1)
I0701 05:30:50.860311  1246 net.cpp:165] Memory required for data: 4313257384
I0701 05:30:50.860313  1246 layer_factory.hpp:77] Creating layer pool4
I0701 05:30:50.860318  1246 net.cpp:100] Creating Layer pool4
I0701 05:30:50.860321  1246 net.cpp:434] pool4 <- conv4_3_relu4_3_0_split_1
I0701 05:30:50.860327  1246 net.cpp:408] pool4 -> pool4
I0701 05:30:50.860359  1246 net.cpp:150] Setting up pool4
I0701 05:30:50.860364  1246 net.cpp:157] Top shape: 4 512 36 48 (3538944)
I0701 05:30:50.860366  1246 net.cpp:165] Memory required for data: 4327413160
I0701 05:30:50.860369  1246 layer_factory.hpp:77] Creating layer conv5_1
I0701 05:30:50.860376  1246 net.cpp:100] Creating Layer conv5_1
I0701 05:30:50.860380  1246 net.cpp:434] conv5_1 <- pool4
I0701 05:30:50.860384  1246 net.cpp:408] conv5_1 -> conv5_1
I0701 05:30:50.866778  1246 net.cpp:150] Setting up conv5_1
I0701 05:30:50.866796  1246 net.cpp:157] Top shape: 4 512 36 48 (3538944)
I0701 05:30:50.866798  1246 net.cpp:165] Memory required for data: 4341568936
I0701 05:30:50.866804  1246 layer_factory.hpp:77] Creating layer relu5_1
I0701 05:30:50.866811  1246 net.cpp:100] Creating Layer relu5_1
I0701 05:30:50.866814  1246 net.cpp:434] relu5_1 <- conv5_1
I0701 05:30:50.866819  1246 net.cpp:395] relu5_1 -> conv5_1 (in-place)
I0701 05:30:50.867472  1246 net.cpp:150] Setting up relu5_1
I0701 05:30:50.867482  1246 net.cpp:157] Top shape: 4 512 36 48 (3538944)
I0701 05:30:50.867485  1246 net.cpp:165] Memory required for data: 4355724712
I0701 05:30:50.867486  1246 layer_factory.hpp:77] Creating layer conv5_2
I0701 05:30:50.867494  1246 net.cpp:100] Creating Layer conv5_2
I0701 05:30:50.867497  1246 net.cpp:434] conv5_2 <- conv5_1
I0701 05:30:50.867501  1246 net.cpp:408] conv5_2 -> conv5_2
I0701 05:30:50.872866  1246 net.cpp:150] Setting up conv5_2
I0701 05:30:50.872889  1246 net.cpp:157] Top shape: 4 512 36 48 (3538944)
I0701 05:30:50.872890  1246 net.cpp:165] Memory required for data: 4369880488
I0701 05:30:50.872897  1246 layer_factory.hpp:77] Creating layer relu5_2
I0701 05:30:50.872903  1246 net.cpp:100] Creating Layer relu5_2
I0701 05:30:50.872907  1246 net.cpp:434] relu5_2 <- conv5_2
I0701 05:30:50.872913  1246 net.cpp:395] relu5_2 -> conv5_2 (in-place)
I0701 05:30:50.873162  1246 net.cpp:150] Setting up relu5_2
I0701 05:30:50.873167  1246 net.cpp:157] Top shape: 4 512 36 48 (3538944)
I0701 05:30:50.873169  1246 net.cpp:165] Memory required for data: 4384036264
I0701 05:30:50.873172  1246 layer_factory.hpp:77] Creating layer conv5_3
I0701 05:30:50.873178  1246 net.cpp:100] Creating Layer conv5_3
I0701 05:30:50.873181  1246 net.cpp:434] conv5_3 <- conv5_2
I0701 05:30:50.873185  1246 net.cpp:408] conv5_3 -> conv5_3
I0701 05:30:50.878976  1246 net.cpp:150] Setting up conv5_3
I0701 05:30:50.878998  1246 net.cpp:157] Top shape: 4 512 36 48 (3538944)
I0701 05:30:50.879000  1246 net.cpp:165] Memory required for data: 4398192040
I0701 05:30:50.879006  1246 layer_factory.hpp:77] Creating layer relu5_3
I0701 05:30:50.879014  1246 net.cpp:100] Creating Layer relu5_3
I0701 05:30:50.879017  1246 net.cpp:434] relu5_3 <- conv5_3
I0701 05:30:50.879022  1246 net.cpp:395] relu5_3 -> conv5_3 (in-place)
I0701 05:30:50.879271  1246 net.cpp:150] Setting up relu5_3
I0701 05:30:50.879276  1246 net.cpp:157] Top shape: 4 512 36 48 (3538944)
I0701 05:30:50.879278  1246 net.cpp:165] Memory required for data: 4412347816
I0701 05:30:50.879281  1246 layer_factory.hpp:77] Creating layer conv5_3_relu5_3_0_split
I0701 05:30:50.879285  1246 net.cpp:100] Creating Layer conv5_3_relu5_3_0_split
I0701 05:30:50.879287  1246 net.cpp:434] conv5_3_relu5_3_0_split <- conv5_3
I0701 05:30:50.879292  1246 net.cpp:408] conv5_3_relu5_3_0_split -> conv5_3_relu5_3_0_split_0
I0701 05:30:50.879297  1246 net.cpp:408] conv5_3_relu5_3_0_split -> conv5_3_relu5_3_0_split_1
I0701 05:30:50.879302  1246 net.cpp:408] conv5_3_relu5_3_0_split -> conv5_3_relu5_3_0_split_2
I0701 05:30:50.879350  1246 net.cpp:150] Setting up conv5_3_relu5_3_0_split
I0701 05:30:50.879355  1246 net.cpp:157] Top shape: 4 512 36 48 (3538944)
I0701 05:30:50.879357  1246 net.cpp:157] Top shape: 4 512 36 48 (3538944)
I0701 05:30:50.879360  1246 net.cpp:157] Top shape: 4 512 36 48 (3538944)
I0701 05:30:50.879364  1246 net.cpp:165] Memory required for data: 4454815144
I0701 05:30:50.879365  1246 layer_factory.hpp:77] Creating layer LFCN_2_3x5
I0701 05:30:50.879374  1246 net.cpp:100] Creating Layer LFCN_2_3x5
I0701 05:30:50.879379  1246 net.cpp:434] LFCN_2_3x5 <- conv5_3_relu5_3_0_split_0
I0701 05:30:50.879386  1246 net.cpp:408] LFCN_2_3x5 -> LFCN_2_3x5
I0701 05:30:50.881136  1246 net.cpp:150] Setting up LFCN_2_3x5
I0701 05:30:50.881147  1246 net.cpp:157] Top shape: 4 7 36 48 (48384)
I0701 05:30:50.881150  1246 net.cpp:165] Memory required for data: 4455008680
I0701 05:30:50.881160  1246 layer_factory.hpp:77] Creating layer LFCN_2_3x5_LFCN_2_3x5_0_split
I0701 05:30:50.881165  1246 net.cpp:100] Creating Layer LFCN_2_3x5_LFCN_2_3x5_0_split
I0701 05:30:50.881168  1246 net.cpp:434] LFCN_2_3x5_LFCN_2_3x5_0_split <- LFCN_2_3x5
I0701 05:30:50.881172  1246 net.cpp:408] LFCN_2_3x5_LFCN_2_3x5_0_split -> LFCN_2_3x5_LFCN_2_3x5_0_split_0
I0701 05:30:50.881178  1246 net.cpp:408] LFCN_2_3x5_LFCN_2_3x5_0_split -> LFCN_2_3x5_LFCN_2_3x5_0_split_1
I0701 05:30:50.881217  1246 net.cpp:150] Setting up LFCN_2_3x5_LFCN_2_3x5_0_split
I0701 05:30:50.881222  1246 net.cpp:157] Top shape: 4 7 36 48 (48384)
I0701 05:30:50.881223  1246 net.cpp:157] Top shape: 4 7 36 48 (48384)
I0701 05:30:50.881234  1246 net.cpp:165] Memory required for data: 4455395752
I0701 05:30:50.881238  1246 layer_factory.hpp:77] Creating layer detection_loss_2_3x5
I0701 05:30:50.881245  1246 net.cpp:100] Creating Layer detection_loss_2_3x5
I0701 05:30:50.881249  1246 net.cpp:434] detection_loss_2_3x5 <- LFCN_2_3x5_LFCN_2_3x5_0_split_0
I0701 05:30:50.881253  1246 net.cpp:434] detection_loss_2_3x5 <- label_2_3x5_data_3_split_0
I0701 05:30:50.881261  1246 net.cpp:408] detection_loss_2_3x5 -> loss_2_3x5
I0701 05:30:50.881269  1246 layer_factory.hpp:77] Creating layer detection_loss_2_3x5
I0701 05:30:50.882092  1246 net.cpp:150] Setting up detection_loss_2_3x5
I0701 05:30:50.882100  1246 net.cpp:157] Top shape: 1 1 1 2 (2)
I0701 05:30:50.882102  1246 net.cpp:160]     with loss weight 1
I0701 05:30:50.882109  1246 net.cpp:165] Memory required for data: 4455395760
I0701 05:30:50.882112  1246 layer_factory.hpp:77] Creating layer detection_accuracy_2_3x5
I0701 05:30:50.882117  1246 net.cpp:100] Creating Layer detection_accuracy_2_3x5
I0701 05:30:50.882119  1246 net.cpp:434] detection_accuracy_2_3x5 <- LFCN_2_3x5_LFCN_2_3x5_0_split_1
I0701 05:30:50.882122  1246 net.cpp:434] detection_accuracy_2_3x5 <- label_2_3x5_data_3_split_1
I0701 05:30:50.882128  1246 net.cpp:408] detection_accuracy_2_3x5 -> accuracy_2_3x5
I0701 05:30:50.882133  1246 net.cpp:408] detection_accuracy_2_3x5 -> boxiou_2_3x5
I0701 05:30:50.882180  1246 net.cpp:150] Setting up detection_accuracy_2_3x5
I0701 05:30:50.882184  1246 net.cpp:157] Top shape: 1 1 1 2 (2)
I0701 05:30:50.882187  1246 net.cpp:157] Top shape: 1 1 1 1 (1)
I0701 05:30:50.882190  1246 net.cpp:165] Memory required for data: 4455395772
I0701 05:30:50.882194  1246 layer_factory.hpp:77] Creating layer LFCN_2_5x7
I0701 05:30:50.882200  1246 net.cpp:100] Creating Layer LFCN_2_5x7
I0701 05:30:50.882205  1246 net.cpp:434] LFCN_2_5x7 <- conv5_3_relu5_3_0_split_1
I0701 05:30:50.882211  1246 net.cpp:408] LFCN_2_5x7 -> LFCN_2_5x7
I0701 05:30:50.886121  1246 net.cpp:150] Setting up LFCN_2_5x7
I0701 05:30:50.886138  1246 net.cpp:157] Top shape: 4 7 36 48 (48384)
I0701 05:30:50.886140  1246 net.cpp:165] Memory required for data: 4455589308
I0701 05:30:50.886147  1246 layer_factory.hpp:77] Creating layer LFCN_2_5x7_LFCN_2_5x7_0_split
I0701 05:30:50.886152  1246 net.cpp:100] Creating Layer LFCN_2_5x7_LFCN_2_5x7_0_split
I0701 05:30:50.886155  1246 net.cpp:434] LFCN_2_5x7_LFCN_2_5x7_0_split <- LFCN_2_5x7
I0701 05:30:50.886162  1246 net.cpp:408] LFCN_2_5x7_LFCN_2_5x7_0_split -> LFCN_2_5x7_LFCN_2_5x7_0_split_0
I0701 05:30:50.886168  1246 net.cpp:408] LFCN_2_5x7_LFCN_2_5x7_0_split -> LFCN_2_5x7_LFCN_2_5x7_0_split_1
I0701 05:30:50.886209  1246 net.cpp:150] Setting up LFCN_2_5x7_LFCN_2_5x7_0_split
I0701 05:30:50.886216  1246 net.cpp:157] Top shape: 4 7 36 48 (48384)
I0701 05:30:50.886220  1246 net.cpp:157] Top shape: 4 7 36 48 (48384)
I0701 05:30:50.886222  1246 net.cpp:165] Memory required for data: 4455976380
I0701 05:30:50.886225  1246 layer_factory.hpp:77] Creating layer detection_loss_2_5x7
I0701 05:30:50.886234  1246 net.cpp:100] Creating Layer detection_loss_2_5x7
I0701 05:30:50.886236  1246 net.cpp:434] detection_loss_2_5x7 <- LFCN_2_5x7_LFCN_2_5x7_0_split_0
I0701 05:30:50.886241  1246 net.cpp:434] detection_loss_2_5x7 <- label_2_5x7_data_4_split_0
I0701 05:30:50.886247  1246 net.cpp:408] detection_loss_2_5x7 -> loss_2_5x7
I0701 05:30:50.886258  1246 layer_factory.hpp:77] Creating layer detection_loss_2_5x7
I0701 05:30:50.886728  1246 net.cpp:150] Setting up detection_loss_2_5x7
I0701 05:30:50.886734  1246 net.cpp:157] Top shape: 1 1 1 2 (2)
I0701 05:30:50.886735  1246 net.cpp:160]     with loss weight 1
I0701 05:30:50.886742  1246 net.cpp:165] Memory required for data: 4455976388
I0701 05:30:50.886744  1246 layer_factory.hpp:77] Creating layer detection_accuracy_2_5x7
I0701 05:30:50.886749  1246 net.cpp:100] Creating Layer detection_accuracy_2_5x7
I0701 05:30:50.886752  1246 net.cpp:434] detection_accuracy_2_5x7 <- LFCN_2_5x7_LFCN_2_5x7_0_split_1
I0701 05:30:50.886755  1246 net.cpp:434] detection_accuracy_2_5x7 <- label_2_5x7_data_4_split_1
I0701 05:30:50.886759  1246 net.cpp:408] detection_accuracy_2_5x7 -> accuracy_2_5x7
I0701 05:30:50.886764  1246 net.cpp:408] detection_accuracy_2_5x7 -> boxiou_2_5x7
I0701 05:30:50.886809  1246 net.cpp:150] Setting up detection_accuracy_2_5x7
I0701 05:30:50.886816  1246 net.cpp:157] Top shape: 1 1 1 2 (2)
I0701 05:30:50.886821  1246 net.cpp:157] Top shape: 1 1 1 1 (1)
I0701 05:30:50.886822  1246 net.cpp:165] Memory required for data: 4455976400
I0701 05:30:50.886826  1246 layer_factory.hpp:77] Creating layer pool5
I0701 05:30:50.886831  1246 net.cpp:100] Creating Layer pool5
I0701 05:30:50.886837  1246 net.cpp:434] pool5 <- conv5_3_relu5_3_0_split_2
I0701 05:30:50.886842  1246 net.cpp:408] pool5 -> pool5
I0701 05:30:50.886886  1246 net.cpp:150] Setting up pool5
I0701 05:30:50.886893  1246 net.cpp:157] Top shape: 4 512 18 24 (884736)
I0701 05:30:50.886895  1246 net.cpp:165] Memory required for data: 4459515344
I0701 05:30:50.886898  1246 layer_factory.hpp:77] Creating layer conv6_1
I0701 05:30:50.886907  1246 net.cpp:100] Creating Layer conv6_1
I0701 05:30:50.886912  1246 net.cpp:434] conv6_1 <- pool5
I0701 05:30:50.886919  1246 net.cpp:408] conv6_1 -> conv6_1
I0701 05:30:50.908099  1246 net.cpp:150] Setting up conv6_1
I0701 05:30:50.908118  1246 net.cpp:157] Top shape: 4 512 18 24 (884736)
I0701 05:30:50.908120  1246 net.cpp:165] Memory required for data: 4463054288
I0701 05:30:50.908128  1246 layer_factory.hpp:77] Creating layer relu6_1
I0701 05:30:50.908138  1246 net.cpp:100] Creating Layer relu6_1
I0701 05:30:50.908143  1246 net.cpp:434] relu6_1 <- conv6_1
I0701 05:30:50.908149  1246 net.cpp:395] relu6_1 -> conv6_1 (in-place)
I0701 05:30:50.908428  1246 net.cpp:150] Setting up relu6_1
I0701 05:30:50.908434  1246 net.cpp:157] Top shape: 4 512 18 24 (884736)
I0701 05:30:50.908437  1246 net.cpp:165] Memory required for data: 4466593232
I0701 05:30:50.908439  1246 layer_factory.hpp:77] Creating layer conv6_1_relu6_1_0_split
I0701 05:30:50.908444  1246 net.cpp:100] Creating Layer conv6_1_relu6_1_0_split
I0701 05:30:50.908449  1246 net.cpp:434] conv6_1_relu6_1_0_split <- conv6_1
I0701 05:30:50.908457  1246 net.cpp:408] conv6_1_relu6_1_0_split -> conv6_1_relu6_1_0_split_0
I0701 05:30:50.908464  1246 net.cpp:408] conv6_1_relu6_1_0_split -> conv6_1_relu6_1_0_split_1
I0701 05:30:50.908473  1246 net.cpp:408] conv6_1_relu6_1_0_split -> conv6_1_relu6_1_0_split_2
I0701 05:30:50.908538  1246 net.cpp:150] Setting up conv6_1_relu6_1_0_split
I0701 05:30:50.908545  1246 net.cpp:157] Top shape: 4 512 18 24 (884736)
I0701 05:30:50.908548  1246 net.cpp:157] Top shape: 4 512 18 24 (884736)
I0701 05:30:50.908552  1246 net.cpp:157] Top shape: 4 512 18 24 (884736)
I0701 05:30:50.908555  1246 net.cpp:165] Memory required for data: 4477210064
I0701 05:30:50.908558  1246 layer_factory.hpp:77] Creating layer LFCN_3_3x5
I0701 05:30:50.908568  1246 net.cpp:100] Creating Layer LFCN_3_3x5
I0701 05:30:50.908573  1246 net.cpp:434] LFCN_3_3x5 <- conv6_1_relu6_1_0_split_0
I0701 05:30:50.908581  1246 net.cpp:408] LFCN_3_3x5 -> LFCN_3_3x5
I0701 05:30:50.911310  1246 net.cpp:150] Setting up LFCN_3_3x5
I0701 05:30:50.911329  1246 net.cpp:157] Top shape: 4 7 18 24 (12096)
I0701 05:30:50.911331  1246 net.cpp:165] Memory required for data: 4477258448
I0701 05:30:50.911339  1246 layer_factory.hpp:77] Creating layer LFCN_3_3x5_LFCN_3_3x5_0_split
I0701 05:30:50.911361  1246 net.cpp:100] Creating Layer LFCN_3_3x5_LFCN_3_3x5_0_split
I0701 05:30:50.911367  1246 net.cpp:434] LFCN_3_3x5_LFCN_3_3x5_0_split <- LFCN_3_3x5
I0701 05:30:50.911375  1246 net.cpp:408] LFCN_3_3x5_LFCN_3_3x5_0_split -> LFCN_3_3x5_LFCN_3_3x5_0_split_0
I0701 05:30:50.911383  1246 net.cpp:408] LFCN_3_3x5_LFCN_3_3x5_0_split -> LFCN_3_3x5_LFCN_3_3x5_0_split_1
I0701 05:30:50.911430  1246 net.cpp:150] Setting up LFCN_3_3x5_LFCN_3_3x5_0_split
I0701 05:30:50.911437  1246 net.cpp:157] Top shape: 4 7 18 24 (12096)
I0701 05:30:50.911440  1246 net.cpp:157] Top shape: 4 7 18 24 (12096)
I0701 05:30:50.911442  1246 net.cpp:165] Memory required for data: 4477355216
I0701 05:30:50.911445  1246 layer_factory.hpp:77] Creating layer detection_loss_3_3x5
I0701 05:30:50.911453  1246 net.cpp:100] Creating Layer detection_loss_3_3x5
I0701 05:30:50.911458  1246 net.cpp:434] detection_loss_3_3x5 <- LFCN_3_3x5_LFCN_3_3x5_0_split_0
I0701 05:30:50.911463  1246 net.cpp:434] detection_loss_3_3x5 <- label_3_3x5_data_5_split_0
I0701 05:30:50.911471  1246 net.cpp:408] detection_loss_3_3x5 -> loss_3_3x5
I0701 05:30:50.911481  1246 layer_factory.hpp:77] Creating layer detection_loss_3_3x5
I0701 05:30:50.912379  1246 net.cpp:150] Setting up detection_loss_3_3x5
I0701 05:30:50.912389  1246 net.cpp:157] Top shape: 1 1 1 2 (2)
I0701 05:30:50.912390  1246 net.cpp:160]     with loss weight 1
I0701 05:30:50.912400  1246 net.cpp:165] Memory required for data: 4477355224
I0701 05:30:50.912403  1246 layer_factory.hpp:77] Creating layer detection_accuracy_3_3x5
I0701 05:30:50.912410  1246 net.cpp:100] Creating Layer detection_accuracy_3_3x5
I0701 05:30:50.912415  1246 net.cpp:434] detection_accuracy_3_3x5 <- LFCN_3_3x5_LFCN_3_3x5_0_split_1
I0701 05:30:50.912420  1246 net.cpp:434] detection_accuracy_3_3x5 <- label_3_3x5_data_5_split_1
I0701 05:30:50.912428  1246 net.cpp:408] detection_accuracy_3_3x5 -> accuracy_3_3x5
I0701 05:30:50.912436  1246 net.cpp:408] detection_accuracy_3_3x5 -> boxiou_3_3x5
I0701 05:30:50.912487  1246 net.cpp:150] Setting up detection_accuracy_3_3x5
I0701 05:30:50.912493  1246 net.cpp:157] Top shape: 1 1 1 2 (2)
I0701 05:30:50.912497  1246 net.cpp:157] Top shape: 1 1 1 1 (1)
I0701 05:30:50.912501  1246 net.cpp:165] Memory required for data: 4477355236
I0701 05:30:50.912504  1246 layer_factory.hpp:77] Creating layer LFCN_3_5x7
I0701 05:30:50.912514  1246 net.cpp:100] Creating Layer LFCN_3_5x7
I0701 05:30:50.912519  1246 net.cpp:434] LFCN_3_5x7 <- conv6_1_relu6_1_0_split_1
I0701 05:30:50.912525  1246 net.cpp:408] LFCN_3_5x7 -> LFCN_3_5x7
I0701 05:30:50.914861  1246 net.cpp:150] Setting up LFCN_3_5x7
I0701 05:30:50.914875  1246 net.cpp:157] Top shape: 4 7 18 24 (12096)
I0701 05:30:50.914877  1246 net.cpp:165] Memory required for data: 4477403620
I0701 05:30:50.914885  1246 layer_factory.hpp:77] Creating layer LFCN_3_5x7_LFCN_3_5x7_0_split
I0701 05:30:50.914891  1246 net.cpp:100] Creating Layer LFCN_3_5x7_LFCN_3_5x7_0_split
I0701 05:30:50.914896  1246 net.cpp:434] LFCN_3_5x7_LFCN_3_5x7_0_split <- LFCN_3_5x7
I0701 05:30:50.914903  1246 net.cpp:408] LFCN_3_5x7_LFCN_3_5x7_0_split -> LFCN_3_5x7_LFCN_3_5x7_0_split_0
I0701 05:30:50.914911  1246 net.cpp:408] LFCN_3_5x7_LFCN_3_5x7_0_split -> LFCN_3_5x7_LFCN_3_5x7_0_split_1
I0701 05:30:50.914959  1246 net.cpp:150] Setting up LFCN_3_5x7_LFCN_3_5x7_0_split
I0701 05:30:50.914965  1246 net.cpp:157] Top shape: 4 7 18 24 (12096)
I0701 05:30:50.914969  1246 net.cpp:157] Top shape: 4 7 18 24 (12096)
I0701 05:30:50.914973  1246 net.cpp:165] Memory required for data: 4477500388
I0701 05:30:50.914975  1246 layer_factory.hpp:77] Creating layer detection_loss_3_5x7
I0701 05:30:50.914983  1246 net.cpp:100] Creating Layer detection_loss_3_5x7
I0701 05:30:50.914988  1246 net.cpp:434] detection_loss_3_5x7 <- LFCN_3_5x7_LFCN_3_5x7_0_split_0
I0701 05:30:50.914991  1246 net.cpp:434] detection_loss_3_5x7 <- label_3_5x7_data_6_split_0
I0701 05:30:50.914999  1246 net.cpp:408] detection_loss_3_5x7 -> loss_3_5x7
I0701 05:30:50.915009  1246 layer_factory.hpp:77] Creating layer detection_loss_3_5x7
I0701 05:30:50.915458  1246 net.cpp:150] Setting up detection_loss_3_5x7
I0701 05:30:50.915465  1246 net.cpp:157] Top shape: 1 1 1 2 (2)
I0701 05:30:50.915467  1246 net.cpp:160]     with loss weight 1
I0701 05:30:50.915474  1246 net.cpp:165] Memory required for data: 4477500396
I0701 05:30:50.915478  1246 layer_factory.hpp:77] Creating layer detection_accuracy_3_5x7
I0701 05:30:50.915485  1246 net.cpp:100] Creating Layer detection_accuracy_3_5x7
I0701 05:30:50.915490  1246 net.cpp:434] detection_accuracy_3_5x7 <- LFCN_3_5x7_LFCN_3_5x7_0_split_1
I0701 05:30:50.915495  1246 net.cpp:434] detection_accuracy_3_5x7 <- label_3_5x7_data_6_split_1
I0701 05:30:50.915501  1246 net.cpp:408] detection_accuracy_3_5x7 -> accuracy_3_5x7
I0701 05:30:50.915509  1246 net.cpp:408] detection_accuracy_3_5x7 -> boxiou_3_5x7
I0701 05:30:50.915558  1246 net.cpp:150] Setting up detection_accuracy_3_5x7
I0701 05:30:50.915563  1246 net.cpp:157] Top shape: 1 1 1 2 (2)
I0701 05:30:50.915567  1246 net.cpp:157] Top shape: 1 1 1 1 (1)
I0701 05:30:50.915571  1246 net.cpp:165] Memory required for data: 4477500408
I0701 05:30:50.915575  1246 layer_factory.hpp:77] Creating layer pool6
I0701 05:30:50.915580  1246 net.cpp:100] Creating Layer pool6
I0701 05:30:50.915587  1246 net.cpp:434] pool6 <- conv6_1_relu6_1_0_split_2
I0701 05:30:50.915592  1246 net.cpp:408] pool6 -> pool6
I0701 05:30:50.915637  1246 net.cpp:150] Setting up pool6
I0701 05:30:50.915643  1246 net.cpp:157] Top shape: 4 512 9 12 (221184)
I0701 05:30:50.915647  1246 net.cpp:165] Memory required for data: 4478385144
I0701 05:30:50.915649  1246 layer_factory.hpp:77] Creating layer LFCN_4_3x5
I0701 05:30:50.915658  1246 net.cpp:100] Creating Layer LFCN_4_3x5
I0701 05:30:50.915663  1246 net.cpp:434] LFCN_4_3x5 <- pool6
I0701 05:30:50.915669  1246 net.cpp:408] LFCN_4_3x5 -> LFCN_4_3x5
I0701 05:30:50.917907  1246 net.cpp:150] Setting up LFCN_4_3x5
I0701 05:30:50.917919  1246 net.cpp:157] Top shape: 4 7 9 12 (3024)
I0701 05:30:50.917922  1246 net.cpp:165] Memory required for data: 4478397240
I0701 05:30:50.917928  1246 layer_factory.hpp:77] Creating layer LFCN_4_3x5_LFCN_4_3x5_0_split
I0701 05:30:50.917935  1246 net.cpp:100] Creating Layer LFCN_4_3x5_LFCN_4_3x5_0_split
I0701 05:30:50.917940  1246 net.cpp:434] LFCN_4_3x5_LFCN_4_3x5_0_split <- LFCN_4_3x5
I0701 05:30:50.917945  1246 net.cpp:408] LFCN_4_3x5_LFCN_4_3x5_0_split -> LFCN_4_3x5_LFCN_4_3x5_0_split_0
I0701 05:30:50.917953  1246 net.cpp:408] LFCN_4_3x5_LFCN_4_3x5_0_split -> LFCN_4_3x5_LFCN_4_3x5_0_split_1
I0701 05:30:50.918006  1246 net.cpp:150] Setting up LFCN_4_3x5_LFCN_4_3x5_0_split
I0701 05:30:50.918012  1246 net.cpp:157] Top shape: 4 7 9 12 (3024)
I0701 05:30:50.918016  1246 net.cpp:157] Top shape: 4 7 9 12 (3024)
I0701 05:30:50.918020  1246 net.cpp:165] Memory required for data: 4478421432
I0701 05:30:50.918022  1246 layer_factory.hpp:77] Creating layer detection_loss_4_3x5
I0701 05:30:50.918030  1246 net.cpp:100] Creating Layer detection_loss_4_3x5
I0701 05:30:50.918035  1246 net.cpp:434] detection_loss_4_3x5 <- LFCN_4_3x5_LFCN_4_3x5_0_split_0
I0701 05:30:50.918040  1246 net.cpp:434] detection_loss_4_3x5 <- label_4_3x5_data_7_split_0
I0701 05:30:50.918046  1246 net.cpp:408] detection_loss_4_3x5 -> loss_4_3x5
I0701 05:30:50.918056  1246 layer_factory.hpp:77] Creating layer detection_loss_4_3x5
I0701 05:30:50.918495  1246 net.cpp:150] Setting up detection_loss_4_3x5
I0701 05:30:50.918503  1246 net.cpp:157] Top shape: 1 1 1 2 (2)
I0701 05:30:50.918504  1246 net.cpp:160]     with loss weight 1
I0701 05:30:50.918512  1246 net.cpp:165] Memory required for data: 4478421440
I0701 05:30:50.918515  1246 layer_factory.hpp:77] Creating layer detection_accuracy_4_3x5
I0701 05:30:50.918522  1246 net.cpp:100] Creating Layer detection_accuracy_4_3x5
I0701 05:30:50.918527  1246 net.cpp:434] detection_accuracy_4_3x5 <- LFCN_4_3x5_LFCN_4_3x5_0_split_1
I0701 05:30:50.918531  1246 net.cpp:434] detection_accuracy_4_3x5 <- label_4_3x5_data_7_split_1
I0701 05:30:50.918540  1246 net.cpp:408] detection_accuracy_4_3x5 -> accuracy_4_3x5
I0701 05:30:50.918547  1246 net.cpp:408] detection_accuracy_4_3x5 -> boxiou_4_3x5
I0701 05:30:50.918596  1246 net.cpp:150] Setting up detection_accuracy_4_3x5
I0701 05:30:50.918601  1246 net.cpp:157] Top shape: 1 1 1 2 (2)
I0701 05:30:50.918604  1246 net.cpp:157] Top shape: 1 1 1 1 (1)
I0701 05:30:50.918608  1246 net.cpp:165] Memory required for data: 4478421452
I0701 05:30:50.918612  1246 net.cpp:228] detection_accuracy_4_3x5 does not need backward computation.
I0701 05:30:50.918615  1246 net.cpp:226] detection_loss_4_3x5 needs backward computation.
I0701 05:30:50.918619  1246 net.cpp:226] LFCN_4_3x5_LFCN_4_3x5_0_split needs backward computation.
I0701 05:30:50.918623  1246 net.cpp:226] LFCN_4_3x5 needs backward computation.
…
I0701 05:30:50.931983  1246 image_gt_data_layer.cpp:241] output label size 2 : 2,6,36,48
I0701 05:30:50.932044  1246 image_gt_data_layer.cpp:241] output label size 3 : 2,6,36,48
I0701 05:30:50.932102  1246 image_gt_data_layer.cpp:241] output label size 4 : 2,6,18,24
I0701 05:30:50.932160  1246 image_gt_data_layer.cpp:241] output label size 5 : 2,6,18,24
I0701 05:30:50.932215  1246 image_gt_data_layer.cpp:241] output label size 6 : 2,6,9,12
I0701 05:30:50.932219  1246 image_gt_data_layer.cpp:265]  --> has_mean_values_ = 1
I0701 05:30:50.950945  1246 net.cpp:150] Setting up data
I0701 05:30:50.950966  1246 net.cpp:157] Top shape: 2 4 576 768 (3538944)
I0701 05:30:50.950970  1246 net.cpp:157] Top shape: 2 6 72 96 (82944)
I0701 05:30:50.950973  1246 net.cpp:157] Top shape: 2 6 72 96 (82944)
I0701 05:30:50.950978  1246 net.cpp:157] Top shape: 2 6 36 48 (20736)
I0701 05:30:50.950981  1246 net.cpp:157] Top shape: 2 6 36 48 (20736)
I0701 05:30:50.950984  1246 net.cpp:157] Top shape: 2 6 18 24 (5184)
I0701 05:30:50.950989  1246 net.cpp:157] Top shape: 2 6 18 24 (5184)
I0701 05:30:50.950991  1246 net.cpp:157] Top shape: 2 6 9 12 (1296)
I0701 05:30:50.950994  1246 net.cpp:165] Memory required for data: 15031872
I0701 05:30:50.950999  1246 layer_factory.hpp:77] Creating layer label_1_3x5_data_1_split
I0701 05:30:50.951010  1246 net.cpp:100] Creating Layer label_1_3x5_data_1_split
I0701 05:30:50.951014  1246 net.cpp:434] label_1_3x5_data_1_split <- label_1_3x5
I0701 05:30:50.951023  1246 net.cpp:408] label_1_3x5_data_1_split -> label_1_3x5_data_1_split_0
I0701 05:30:50.951033  1246 net.cpp:408] label_1_3x5_data_1_split -> label_1_3x5_data_1_split_1
I0701 05:30:50.951115  1246 net.cpp:150] Setting up label_1_3x5_data_1_split
I0701 05:30:50.951123  1246 net.cpp:157] Top shape: 2 6 72 96 (82944)
I0701 05:30:50.951128  1246 net.cpp:157] Top shape: 2 6 72 96 (82944)
I0701 05:30:50.951130  1246 net.cpp:165] Memory required for data: 15695424
I0701 05:30:50.951133  1246 layer_factory.hpp:77] Creating layer label_1_5x7_data_2_split
I0701 05:30:50.951138  1246 net.cpp:100] Creating Layer label_1_5x7_data_2_split
I0701 05:30:50.951143  1246 net.cpp:434] label_1_5x7_data_2_split <- label_1_5x7
I0701 05:30:50.951148  1246 net.cpp:408] label_1_5x7_data_2_split -> label_1_5x7_data_2_split_0
I0701 05:30:50.951153  1246 net.cpp:408] label_1_5x7_data_2_split -> label_1_5x7_data_2_split_1
I0701 05:30:50.951200  1246 net.cpp:150] Setting up label_1_5x7_data_2_split
I0701 05:30:50.951205  1246 net.cpp:157] Top shape: 2 6 72 96 (82944)
I0701 05:30:50.951210  1246 net.cpp:157] Top shape: 2 6 72 96 (82944)
I0701 05:30:50.951211  1246 net.cpp:165] Memory required for data: 16358976
I0701 05:30:50.951215  1246 layer_factory.hpp:77] Creating layer label_2_3x5_data_3_split
I0701 05:30:50.951220  1246 net.cpp:100] Creating Layer label_2_3x5_data_3_split
I0701 05:30:50.951223  1246 net.cpp:434] label_2_3x5_data_3_split <- label_2_3x5
I0701 05:30:50.951228  1246 net.cpp:408] label_2_3x5_data_3_split -> label_2_3x5_data_3_split_0
I0701 05:30:50.951234  1246 net.cpp:408] label_2_3x5_data_3_split -> label_2_3x5_data_3_split_1
I0701 05:30:50.951277  1246 net.cpp:150] Setting up label_2_3x5_data_3_split
I0701 05:30:50.951282  1246 net.cpp:157] Top shape: 2 6 36 48 (20736)
I0701 05:30:50.951287  1246 net.cpp:157] Top shape: 2 6 36 48 (20736)
I0701 05:30:50.951289  1246 net.cpp:165] Memory required for data: 16524864
I0701 05:30:50.951292  1246 layer_factory.hpp:77] Creating layer label_2_5x7_data_4_split
I0701 05:30:50.951299  1246 net.cpp:100] Creating Layer label_2_5x7_data_4_split
I0701 05:30:50.951303  1246 net.cpp:434] label_2_5x7_data_4_split <- label_2_5x7
I0701 05:30:50.951308  1246 net.cpp:408] label_2_5x7_data_4_split -> label_2_5x7_data_4_split_0
I0701 05:30:50.951313  1246 net.cpp:408] label_2_5x7_data_4_split -> label_2_5x7_data_4_split_1
I0701 05:30:50.951354  1246 net.cpp:150] Setting up label_2_5x7_data_4_split
I0701 05:30:50.951359  1246 net.cpp:157] Top shape: 2 6 36 48 (20736)
I0701 05:30:50.951364  1246 net.cpp:157] Top shape: 2 6 36 48 (20736)
I0701 05:30:50.951366  1246 net.cpp:165] Memory required for data: 16690752
I0701 05:30:50.951370  1246 layer_factory.hpp:77] Creating layer label_3_3x5_data_5_split
I0701 05:30:50.951373  1246 net.cpp:100] Creating Layer label_3_3x5_data_5_split
I0701 05:30:50.951376  1246 net.cpp:434] label_3_3x5_data_5_split <- label_3_3x5
I0701 05:30:50.951381  1246 net.cpp:408] label_3_3x5_data_5_split -> label_3_3x5_data_5_split_0
I0701 05:30:50.951390  1246 net.cpp:408] label_3_3x5_data_5_split -> label_3_3x5_data_5_split_1
I0701 05:30:50.951431  1246 net.cpp:150] Setting up label_3_3x5_data_5_split
I0701 05:30:50.951437  1246 net.cpp:157] Top shape: 2 6 18 24 (5184)
I0701 05:30:50.951442  1246 net.cpp:157] Top shape: 2 6 18 24 (5184)
I0701 05:30:50.951444  1246 net.cpp:165] Memory required for data: 16732224
I0701 05:30:50.951447  1246 layer_factory.hpp:77] Creating layer label_3_5x7_data_6_split
I0701 05:30:50.951452  1246 net.cpp:100] Creating Layer label_3_5x7_data_6_split
I0701 05:30:50.951455  1246 net.cpp:434] label_3_5x7_data_6_split <- label_3_5x7
I0701 05:30:50.951459  1246 net.cpp:408] label_3_5x7_data_6_split -> label_3_5x7_data_6_split_0
I0701 05:30:50.951465  1246 net.cpp:408] label_3_5x7_data_6_split -> label_3_5x7_data_6_split_1
I0701 05:30:50.951546  1246 net.cpp:150] Setting up label_3_5x7_data_6_split
I0701 05:30:50.951553  1246 net.cpp:157] Top shape: 2 6 18 24 (5184)
I0701 05:30:50.951557  1246 net.cpp:157] Top shape: 2 6 18 24 (5184)
I0701 05:30:50.951560  1246 net.cpp:165] Memory required for data: 16773696
I0701 05:30:50.951563  1246 layer_factory.hpp:77] Creating layer label_4_3x5_data_7_split
I0701 05:30:50.951568  1246 net.cpp:100] Creating Layer label_4_3x5_data_7_split
I0701 05:30:50.951571  1246 net.cpp:434] label_4_3x5_data_7_split <- label_4_3x5
I0701 05:30:50.951580  1246 net.cpp:408] label_4_3x5_data_7_split -> label_4_3x5_data_7_split_0
I0701 05:30:50.951586  1246 net.cpp:408] label_4_3x5_data_7_split -> label_4_3x5_data_7_split_1
I0701 05:30:50.952710  1246 net.cpp:150] Setting up label_4_3x5_data_7_split
I0701 05:30:50.952718  1246 net.cpp:157] Top shape: 2 6 9 12 (1296)
I0701 05:30:50.952720  1246 net.cpp:157] Top shape: 2 6 9 12 (1296)
I0701 05:30:50.952721  1246 net.cpp:165] Memory required for data: 16784064
I0701 05:30:50.952724  1246 layer_factory.hpp:77] Creating layer conv1_1
I0701 05:30:50.952744  1246 net.cpp:100] Creating Layer conv1_1
I0701 05:30:50.952750  1246 net.cpp:434] conv1_1 <- data
I0701 05:30:50.952757  1246 net.cpp:408] conv1_1 -> conv1_1
I0701 05:30:50.956710  1246 net.cpp:150] Setting up conv1_1
I0701 05:30:50.956733  1246 net.cpp:157] Top shape: 2 64 576 768 (56623104)
I0701 05:30:50.956735  1246 net.cpp:165] Memory required for data: 243276480
I0701 05:30:50.956748  1246 layer_factory.hpp:77] Creating layer relu1_1
I0701 05:30:50.956760  1246 net.cpp:100] Creating Layer relu1_1
I0701 05:30:50.956764  1246 net.cpp:434] relu1_1 <- conv1_1
I0701 05:30:50.956771  1246 net.cpp:395] relu1_1 -> conv1_1 (in-place)
I0701 05:30:50.957546  1246 net.cpp:150] Setting up relu1_1
I0701 05:30:50.957557  1246 net.cpp:157] Top shape: 2 64 576 768 (56623104)
I0701 05:30:50.957559  1246 net.cpp:165] Memory required for data: 469768896
I0701 05:30:50.957562  1246 layer_factory.hpp:77] Creating layer conv1_2
I0701 05:30:50.957572  1246 net.cpp:100] Creating Layer conv1_2
I0701 05:30:50.957576  1246 net.cpp:434] conv1_2 <- conv1_1
I0701 05:30:50.957582  1246 net.cpp:408] conv1_2 -> conv1_2
I0701 05:30:50.960129  1246 net.cpp:150] Setting up conv1_2
I0701 05:30:50.960150  1246 net.cpp:157] Top shape: 2 64 576 768 (56623104)
I0701 05:30:50.960152  1246 net.cpp:165] Memory required for data: 696261312
I0701 05:30:50.960166  1246 layer_factory.hpp:77] Creating layer relu1_2
I0701 05:30:50.960175  1246 net.cpp:100] Creating Layer relu1_2
I0701 05:30:50.960180  1246 net.cpp:434] relu1_2 <- conv1_2
I0701 05:30:50.960187  1246 net.cpp:395] relu1_2 -> conv1_2 (in-place)
I0701 05:30:50.961040  1246 net.cpp:150] Setting up relu1_2
I0701 05:30:50.961050  1246 net.cpp:157] Top shape: 2 64 576 768 (56623104)
I0701 05:30:50.961052  1246 net.cpp:165] Memory required for data: 922753728
I0701 05:30:50.961055  1246 layer_factory.hpp:77] Creating layer pool1
I0701 05:30:50.961063  1246 net.cpp:100] Creating Layer pool1
I0701 05:30:50.961066  1246 net.cpp:434] pool1 <- conv1_2
I0701 05:30:50.961073  1246 net.cpp:408] pool1 -> pool1
I0701 05:30:50.961139  1246 net.cpp:150] Setting up pool1
I0701 05:30:50.961146  1246 net.cpp:157] Top shape: 2 64 288 384 (14155776)
I0701 05:30:50.961149  1246 net.cpp:165] Memory required for data: 979376832
I0701 05:30:50.961153  1246 layer_factory.hpp:77] Creating layer conv2_1
I0701 05:30:50.961161  1246 net.cpp:100] Creating Layer conv2_1
I0701 05:30:50.961164  1246 net.cpp:434] conv2_1 <- pool1
I0701 05:30:50.961169  1246 net.cpp:408] conv2_1 -> conv2_1
I0701 05:30:50.963150  1246 net.cpp:150] Setting up conv2_1
I0701 05:30:50.963167  1246 net.cpp:157] Top shape: 2 128 288 384 (28311552)
I0701 05:30:50.963171  1246 net.cpp:165] Memory required for data: 1092623040
I0701 05:30:50.963181  1246 layer_factory.hpp:77] Creating layer relu2_1
I0701 05:30:50.963189  1246 net.cpp:100] Creating Layer relu2_1
I0701 05:30:50.963193  1246 net.cpp:434] relu2_1 <- conv2_1
I0701 05:30:50.963201  1246 net.cpp:395] relu2_1 -> conv2_1 (in-place)
I0701 05:30:50.963512  1246 net.cpp:150] Setting up relu2_1
I0701 05:30:50.963519  1246 net.cpp:157] Top shape: 2 128 288 384 (28311552)
I0701 05:30:50.963521  1246 net.cpp:165] Memory required for data: 1205869248
I0701 05:30:50.963524  1246 layer_factory.hpp:77] Creating layer conv2_2
I0701 05:30:50.963533  1246 net.cpp:100] Creating Layer conv2_2
I0701 05:30:50.963536  1246 net.cpp:434] conv2_2 <- conv2_1
I0701 05:30:50.963541  1246 net.cpp:408] conv2_2 -> conv2_2
I0701 05:30:50.966856  1246 net.cpp:150] Setting up conv2_2
I0701 05:30:50.966876  1246 net.cpp:157] Top shape: 2 128 288 384 (28311552)
I0701 05:30:50.966877  1246 net.cpp:165] Memory required for data: 1319115456
I0701 05:30:50.966888  1246 layer_factory.hpp:77] Creating layer relu2_2
I0701 05:30:50.966902  1246 net.cpp:100] Creating Layer relu2_2
I0701 05:30:50.966907  1246 net.cpp:434] relu2_2 <- conv2_2
I0701 05:30:50.966913  1246 net.cpp:395] relu2_2 -> conv2_2 (in-place)
I0701 05:30:50.967270  1246 net.cpp:150] Setting up relu2_2
I0701 05:30:50.967279  1246 net.cpp:157] Top shape: 2 128 288 384 (28311552)
I0701 05:30:50.967281  1246 net.cpp:165] Memory required for data: 1432361664
I0701 05:30:50.967283  1246 layer_factory.hpp:77] Creating layer pool2
I0701 05:30:50.967290  1246 net.cpp:100] Creating Layer pool2
I0701 05:30:50.967294  1246 net.cpp:434] pool2 <- conv2_2
I0701 05:30:50.967299  1246 net.cpp:408] pool2 -> pool2
I0701 05:30:50.967363  1246 net.cpp:150] Setting up pool2
I0701 05:30:50.967370  1246 net.cpp:157] Top shape: 2 128 144 192 (7077888)
I0701 05:30:50.967373  1246 net.cpp:165] Memory required for data: 1460673216
I0701 05:30:50.967376  1246 layer_factory.hpp:77] Creating layer conv3_1
I0701 05:30:50.967386  1246 net.cpp:100] Creating Layer conv3_1
I0701 05:30:50.967389  1246 net.cpp:434] conv3_1 <- pool2
I0701 05:30:50.967394  1246 net.cpp:408] conv3_1 -> conv3_1
I0701 05:30:50.972020  1246 net.cpp:150] Setting up conv3_1
I0701 05:30:50.972050  1246 net.cpp:157] Top shape: 2 256 144 192 (14155776)
I0701 05:30:50.972054  1246 net.cpp:165] Memory required for data: 1517296320
I0701 05:30:50.972081  1246 layer_factory.hpp:77] Creating layer relu3_1
I0701 05:30:50.972095  1246 net.cpp:100] Creating Layer relu3_1
I0701 05:30:50.972102  1246 net.cpp:434] relu3_1 <- conv3_1
I0701 05:30:50.972110  1246 net.cpp:395] relu3_1 -> conv3_1 (in-place)
I0701 05:30:50.973173  1246 net.cpp:150] Setting up relu3_1
I0701 05:30:50.973186  1246 net.cpp:157] Top shape: 2 256 144 192 (14155776)
I0701 05:30:50.973189  1246 net.cpp:165] Memory required for data: 1573919424
I0701 05:30:50.973194  1246 layer_factory.hpp:77] Creating layer conv3_2
I0701 05:30:50.973209  1246 net.cpp:100] Creating Layer conv3_2
I0701 05:30:50.973213  1246 net.cpp:434] conv3_2 <- conv3_1
I0701 05:30:50.973220  1246 net.cpp:408] conv3_2 -> conv3_2
I0701 05:30:50.977818  1246 net.cpp:150] Setting up conv3_2
I0701 05:30:50.977838  1246 net.cpp:157] Top shape: 2 256 144 192 (14155776)
I0701 05:30:50.977841  1246 net.cpp:165] Memory required for data: 1630542528
I0701 05:30:50.977850  1246 layer_factory.hpp:77] Creating layer relu3_2
I0701 05:30:50.977857  1246 net.cpp:100] Creating Layer relu3_2
I0701 05:30:50.977862  1246 net.cpp:434] relu3_2 <- conv3_2
I0701 05:30:50.977870  1246 net.cpp:395] relu3_2 -> conv3_2 (in-place)
I0701 05:30:50.978241  1246 net.cpp:150] Setting up relu3_2
I0701 05:30:50.978250  1246 net.cpp:157] Top shape: 2 256 144 192 (14155776)
I0701 05:30:50.978252  1246 net.cpp:165] Memory required for data: 1687165632
I0701 05:30:50.978256  1246 layer_factory.hpp:77] Creating layer conv3_3
I0701 05:30:50.978265  1246 net.cpp:100] Creating Layer conv3_3
I0701 05:30:50.978268  1246 net.cpp:434] conv3_3 <- conv3_2
I0701 05:30:50.978274  1246 net.cpp:408] conv3_3 -> conv3_3
I0701 05:30:50.983427  1246 net.cpp:150] Setting up conv3_3
I0701 05:30:50.983446  1246 net.cpp:157] Top shape: 2 256 144 192 (14155776)
I0701 05:30:50.983449  1246 net.cpp:165] Memory required for data: 1743788736
I0701 05:30:50.983459  1246 layer_factory.hpp:77] Creating layer relu3_3
I0701 05:30:50.983467  1246 net.cpp:100] Creating Layer relu3_3
I0701 05:30:50.983472  1246 net.cpp:434] relu3_3 <- conv3_3
I0701 05:30:50.983479  1246 net.cpp:395] relu3_3 -> conv3_3 (in-place)
I0701 05:30:50.983844  1246 net.cpp:150] Setting up relu3_3
I0701 05:30:50.983851  1246 net.cpp:157] Top shape: 2 256 144 192 (14155776)
I0701 05:30:50.983855  1246 net.cpp:165] Memory required for data: 1800411840
I0701 05:30:50.983857  1246 layer_factory.hpp:77] Creating layer pool3
I0701 05:30:50.983863  1246 net.cpp:100] Creating Layer pool3
I0701 05:30:50.983868  1246 net.cpp:434] pool3 <- conv3_3
I0701 05:30:50.983873  1246 net.cpp:408] pool3 -> pool3
I0701 05:30:50.983932  1246 net.cpp:150] Setting up pool3
I0701 05:30:50.983938  1246 net.cpp:157] Top shape: 2 256 72 96 (3538944)
I0701 05:30:50.983940  1246 net.cpp:165] Memory required for data: 1814567616
I0701 05:30:50.983943  1246 layer_factory.hpp:77] Creating layer conv4_1
I0701 05:30:50.983952  1246 net.cpp:100] Creating Layer conv4_1
I0701 05:30:50.983955  1246 net.cpp:434] conv4_1 <- pool3
I0701 05:30:50.983960  1246 net.cpp:408] conv4_1 -> conv4_1
I0701 05:30:50.989728  1246 net.cpp:150] Setting up conv4_1
I0701 05:30:50.989750  1246 net.cpp:157] Top shape: 2 512 72 96 (7077888)
I0701 05:30:50.989754  1246 net.cpp:165] Memory required for data: 1842879168
I0701 05:30:50.989763  1246 layer_factory.hpp:77] Creating layer relu4_1
I0701 05:30:50.989771  1246 net.cpp:100] Creating Layer relu4_1
I0701 05:30:50.989776  1246 net.cpp:434] relu4_1 <- conv4_1
I0701 05:30:50.989784  1246 net.cpp:395] relu4_1 -> conv4_1 (in-place)
I0701 05:30:50.990748  1246 net.cpp:150] Setting up relu4_1
I0701 05:30:50.990761  1246 net.cpp:157] Top shape: 2 512 72 96 (7077888)
I0701 05:30:50.990763  1246 net.cpp:165] Memory required for data: 1871190720
I0701 05:30:50.990767  1246 layer_factory.hpp:77] Creating layer conv4_2
I0701 05:30:50.990774  1246 net.cpp:100] Creating Layer conv4_2
I0701 05:30:50.990778  1246 net.cpp:434] conv4_2 <- conv4_1
I0701 05:30:50.990785  1246 net.cpp:408] conv4_2 -> conv4_2
I0701 05:30:50.998790  1246 net.cpp:150] Setting up conv4_2
I0701 05:30:50.998816  1246 net.cpp:157] Top shape: 2 512 72 96 (7077888)
I0701 05:30:50.998821  1246 net.cpp:165] Memory required for data: 1899502272
I0701 05:30:50.998837  1246 layer_factory.hpp:77] Creating layer relu4_2
I0701 05:30:50.998855  1246 net.cpp:100] Creating Layer relu4_2
I0701 05:30:50.998860  1246 net.cpp:434] relu4_2 <- conv4_2
I0701 05:30:50.998870  1246 net.cpp:395] relu4_2 -> conv4_2 (in-place)
I0701 05:30:50.999213  1246 net.cpp:150] Setting up relu4_2
I0701 05:30:50.999222  1246 net.cpp:157] Top shape: 2 512 72 96 (7077888)
I0701 05:30:50.999224  1246 net.cpp:165] Memory required for data: 1927813824
I0701 05:30:50.999228  1246 layer_factory.hpp:77] Creating layer conv4_3
I0701 05:30:50.999236  1246 net.cpp:100] Creating Layer conv4_3
I0701 05:30:50.999240  1246 net.cpp:434] conv4_3 <- conv4_2
I0701 05:30:50.999248  1246 net.cpp:408] conv4_3 -> conv4_3
I0701 05:30:51.009488  1246 net.cpp:150] Setting up conv4_3
I0701 05:30:51.009508  1246 net.cpp:157] Top shape: 2 512 72 96 (7077888)
I0701 05:30:51.009511  1246 net.cpp:165] Memory required for data: 1956125376
I0701 05:30:51.009521  1246 layer_factory.hpp:77] Creating layer relu4_3
I0701 05:30:51.009531  1246 net.cpp:100] Creating Layer relu4_3
I0701 05:30:51.009536  1246 net.cpp:434] relu4_3 <- conv4_3
I0701 05:30:51.009542  1246 net.cpp:395] relu4_3 -> conv4_3 (in-place)
I0701 05:30:51.009886  1246 net.cpp:150] Setting up relu4_3
I0701 05:30:51.009894  1246 net.cpp:157] Top shape: 2 512 72 96 (7077888)
I0701 05:30:51.009897  1246 net.cpp:165] Memory required for data: 1984436928
I0701 05:30:51.009902  1246 layer_factory.hpp:77] Creating layer conv4_3_relu4_3_0_split
I0701 05:30:51.009908  1246 net.cpp:100] Creating Layer conv4_3_relu4_3_0_split
I0701 05:30:51.009912  1246 net.cpp:434] conv4_3_relu4_3_0_split <- conv4_3
I0701 05:30:51.009917  1246 net.cpp:408] conv4_3_relu4_3_0_split -> conv4_3_relu4_3_0_split_0
I0701 05:30:51.009925  1246 net.cpp:408] conv4_3_relu4_3_0_split -> conv4_3_relu4_3_0_split_1
I0701 05:30:51.009979  1246 net.cpp:150] Setting up conv4_3_relu4_3_0_split
I0701 05:30:51.009984  1246 net.cpp:157] Top shape: 2 512 72 96 (7077888)
I0701 05:30:51.009989  1246 net.cpp:157] Top shape: 2 512 72 96 (7077888)
I0701 05:30:51.009991  1246 net.cpp:165] Memory required for data: 2041060032
I0701 05:30:51.009994  1246 layer_factory.hpp:77] Creating layer loss1_conv1
I0701 05:30:51.010010  1246 net.cpp:100] Creating Layer loss1_conv1
I0701 05:30:51.010015  1246 net.cpp:434] loss1_conv1 <- conv4_3_relu4_3_0_split_0
I0701 05:30:51.010020  1246 net.cpp:408] loss1_conv1 -> loss1_conv1
I0701 05:30:51.036890  1246 net.cpp:150] Setting up loss1_conv1
I0701 05:30:51.036907  1246 net.cpp:157] Top shape: 2 512 72 96 (7077888)
I0701 05:30:51.036909  1246 net.cpp:165] Memory required for data: 2069371584
I0701 05:30:51.036917  1246 layer_factory.hpp:77] Creating layer loss_relu1
I0701 05:30:51.036928  1246 net.cpp:100] Creating Layer loss_relu1
I0701 05:30:51.036933  1246 net.cpp:434] loss_relu1 <- loss1_conv1
I0701 05:30:51.036939  1246 net.cpp:395] loss_relu1 -> loss1_conv1 (in-place)
I0701 05:30:51.037722  1246 net.cpp:150] Setting up loss_relu1
I0701 05:30:51.037734  1246 net.cpp:157] Top shape: 2 512 72 96 (7077888)
I0701 05:30:51.037735  1246 net.cpp:165] Memory required for data: 2097683136
I0701 05:30:51.037739  1246 layer_factory.hpp:77] Creating layer loss1_conv1_loss_relu1_0_split
I0701 05:30:51.037745  1246 net.cpp:100] Creating Layer loss1_conv1_loss_relu1_0_split
I0701 05:30:51.037748  1246 net.cpp:434] loss1_conv1_loss_relu1_0_split <- loss1_conv1
I0701 05:30:51.037753  1246 net.cpp:408] loss1_conv1_loss_relu1_0_split -> loss1_conv1_loss_relu1_0_split_0
I0701 05:30:51.037762  1246 net.cpp:408] loss1_conv1_loss_relu1_0_split -> loss1_conv1_loss_relu1_0_split_1
I0701 05:30:51.037820  1246 net.cpp:150] Setting up loss1_conv1_loss_relu1_0_split
I0701 05:30:51.037827  1246 net.cpp:157] Top shape: 2 512 72 96 (7077888)
I0701 05:30:51.037832  1246 net.cpp:157] Top shape: 2 512 72 96 (7077888)
I0701 05:30:51.037834  1246 net.cpp:165] Memory required for data: 2154306240
I0701 05:30:51.037837  1246 layer_factory.hpp:77] Creating layer LFCN_1_3x5
I0701 05:30:51.037849  1246 net.cpp:100] Creating Layer LFCN_1_3x5
I0701 05:30:51.037853  1246 net.cpp:434] LFCN_1_3x5 <- loss1_conv1_loss_relu1_0_split_0
I0701 05:30:51.037859  1246 net.cpp:408] LFCN_1_3x5 -> LFCN_1_3x5
I0701 05:30:51.039794  1246 net.cpp:150] Setting up LFCN_1_3x5
I0701 05:30:51.039808  1246 net.cpp:157] Top shape: 2 7 72 96 (96768)
I0701 05:30:51.039810  1246 net.cpp:165] Memory required for data: 2154693312
I0701 05:30:51.039818  1246 layer_factory.hpp:77] Creating layer LFCN_1_3x5_LFCN_1_3x5_0_split
I0701 05:30:51.039824  1246 net.cpp:100] Creating Layer LFCN_1_3x5_LFCN_1_3x5_0_split
I0701 05:30:51.039829  1246 net.cpp:434] LFCN_1_3x5_LFCN_1_3x5_0_split <- LFCN_1_3x5
I0701 05:30:51.039835  1246 net.cpp:408] LFCN_1_3x5_LFCN_1_3x5_0_split -> LFCN_1_3x5_LFCN_1_3x5_0_split_0
I0701 05:30:51.039842  1246 net.cpp:408] LFCN_1_3x5_LFCN_1_3x5_0_split -> LFCN_1_3x5_LFCN_1_3x5_0_split_1
I0701 05:30:51.039896  1246 net.cpp:150] Setting up LFCN_1_3x5_LFCN_1_3x5_0_split
I0701 05:30:51.039903  1246 net.cpp:157] Top shape: 2 7 72 96 (96768)
I0701 05:30:51.039907  1246 net.cpp:157] Top shape: 2 7 72 96 (96768)
I0701 05:30:51.039911  1246 net.cpp:165] Memory required for data: 2155467456
I0701 05:30:51.039913  1246 layer_factory.hpp:77] Creating layer detection_loss_1_3x5
I0701 05:30:51.039921  1246 net.cpp:100] Creating Layer detection_loss_1_3x5
I0701 05:30:51.039924  1246 net.cpp:434] detection_loss_1_3x5 <- LFCN_1_3x5_LFCN_1_3x5_0_split_0
I0701 05:30:51.039930  1246 net.cpp:434] detection_loss_1_3x5 <- label_1_3x5_data_1_split_0
I0701 05:30:51.039937  1246 net.cpp:408] detection_loss_1_3x5 -> loss_1_3x5
I0701 05:30:51.039944  1246 layer_factory.hpp:77] Creating layer detection_loss_1_3x5
I0701 05:30:51.040900  1246 net.cpp:150] Setting up detection_loss_1_3x5
I0701 05:30:51.040910  1246 net.cpp:157] Top shape: 1 1 1 2 (2)
I0701 05:30:51.040911  1246 net.cpp:160]     with loss weight 0.9
I0701 05:30:51.040921  1246 net.cpp:165] Memory required for data: 2155467464
I0701 05:30:51.040925  1246 layer_factory.hpp:77] Creating layer detection_accuracy_1_3x5
I0701 05:30:51.040933  1246 net.cpp:100] Creating Layer detection_accuracy_1_3x5
I0701 05:30:51.040937  1246 net.cpp:434] detection_accuracy_1_3x5 <- LFCN_1_3x5_LFCN_1_3x5_0_split_1
I0701 05:30:51.040942  1246 net.cpp:434] detection_accuracy_1_3x5 <- label_1_3x5_data_1_split_1
I0701 05:30:51.040949  1246 net.cpp:408] detection_accuracy_1_3x5 -> accuracy_1_3x5
I0701 05:30:51.040956  1246 net.cpp:408] detection_accuracy_1_3x5 -> boxiou_1_3x5
I0701 05:30:51.041010  1246 net.cpp:150] Setting up detection_accuracy_1_3x5
I0701 05:30:51.041018  1246 net.cpp:157] Top shape: 1 1 1 2 (2)
I0701 05:30:51.041023  1246 net.cpp:157] Top shape: 1 1 1 1 (1)
I0701 05:30:51.041024  1246 net.cpp:165] Memory required for data: 2155467476
I0701 05:30:51.041028  1246 layer_factory.hpp:77] Creating layer LFCN_1_5x7
I0701 05:30:51.041038  1246 net.cpp:100] Creating Layer LFCN_1_5x7
I0701 05:30:51.041041  1246 net.cpp:434] LFCN_1_5x7 <- loss1_conv1_loss_relu1_0_split_1
I0701 05:30:51.041048  1246 net.cpp:408] LFCN_1_5x7 -> LFCN_1_5x7
I0701 05:30:51.045652  1246 net.cpp:150] Setting up LFCN_1_5x7
I0701 05:30:51.045686  1246 net.cpp:157] Top shape: 2 7 72 96 (96768)
I0701 05:30:51.045688  1246 net.cpp:165] Memory required for data: 2155854548
I0701 05:30:51.045701  1246 layer_factory.hpp:77] Creating layer LFCN_1_5x7_LFCN_1_5x7_0_split
I0701 05:30:51.045719  1246 net.cpp:100] Creating Layer LFCN_1_5x7_LFCN_1_5x7_0_split
I0701 05:30:51.045725  1246 net.cpp:434] LFCN_1_5x7_LFCN_1_5x7_0_split <- LFCN_1_5x7
I0701 05:30:51.045734  1246 net.cpp:408] LFCN_1_5x7_LFCN_1_5x7_0_split -> LFCN_1_5x7_LFCN_1_5x7_0_split_0
I0701 05:30:51.045745  1246 net.cpp:408] LFCN_1_5x7_LFCN_1_5x7_0_split -> LFCN_1_5x7_LFCN_1_5x7_0_split_1
I0701 05:30:51.045801  1246 net.cpp:150] Setting up LFCN_1_5x7_LFCN_1_5x7_0_split
I0701 05:30:51.045809  1246 net.cpp:157] Top shape: 2 7 72 96 (96768)
I0701 05:30:51.045811  1246 net.cpp:157] Top shape: 2 7 72 96 (96768)
I0701 05:30:51.045814  1246 net.cpp:165] Memory required for data: 2156628692
I0701 05:30:51.045817  1246 layer_factory.hpp:77] Creating layer detection_loss_1_5x7
I0701 05:30:51.045826  1246 net.cpp:100] Creating Layer detection_loss_1_5x7
I0701 05:30:51.045830  1246 net.cpp:434] detection_loss_1_5x7 <- LFCN_1_5x7_LFCN_1_5x7_0_split_0
I0701 05:30:51.045835  1246 net.cpp:434] detection_loss_1_5x7 <- label_1_5x7_data_2_split_0
I0701 05:30:51.045843  1246 net.cpp:408] detection_loss_1_5x7 -> loss_1_5x7
I0701 05:30:51.045853  1246 layer_factory.hpp:77] Creating layer detection_loss_1_5x7
I0701 05:30:51.046349  1246 net.cpp:150] Setting up detection_loss_1_5x7
I0701 05:30:51.046358  1246 net.cpp:157] Top shape: 1 1 1 2 (2)
I0701 05:30:51.046361  1246 net.cpp:160]     with loss weight 0.9
I0701 05:30:51.046375  1246 net.cpp:165] Memory required for data: 2156628700
I0701 05:30:51.046378  1246 layer_factory.hpp:77] Creating layer detection_accuracy_1_5x7
I0701 05:30:51.046386  1246 net.cpp:100] Creating Layer detection_accuracy_1_5x7
I0701 05:30:51.046391  1246 net.cpp:434] detection_accuracy_1_5x7 <- LFCN_1_5x7_LFCN_1_5x7_0_split_1
I0701 05:30:51.046396  1246 net.cpp:434] detection_accuracy_1_5x7 <- label_1_5x7_data_2_split_1
I0701 05:30:51.046402  1246 net.cpp:408] detection_accuracy_1_5x7 -> accuracy_1_5x7
I0701 05:30:51.046409  1246 net.cpp:408] detection_accuracy_1_5x7 -> boxiou_1_5x7
I0701 05:30:51.046459  1246 net.cpp:150] Setting up detection_accuracy_1_5x7
I0701 05:30:51.046465  1246 net.cpp:157] Top shape: 1 1 1 2 (2)
I0701 05:30:51.046468  1246 net.cpp:157] Top shape: 1 1 1 1 (1)
I0701 05:30:51.046471  1246 net.cpp:165] Memory required for data: 2156628712
I0701 05:30:51.046474  1246 layer_factory.hpp:77] Creating layer pool4
I0701 05:30:51.046480  1246 net.cpp:100] Creating Layer pool4
I0701 05:30:51.046484  1246 net.cpp:434] pool4 <- conv4_3_relu4_3_0_split_1
I0701 05:30:51.046490  1246 net.cpp:408] pool4 -> pool4
I0701 05:30:51.046532  1246 net.cpp:150] Setting up pool4
I0701 05:30:51.046540  1246 net.cpp:157] Top shape: 2 512 36 48 (1769472)
I0701 05:30:51.046543  1246 net.cpp:165] Memory required for data: 2163706600
I0701 05:30:51.046546  1246 layer_factory.hpp:77] Creating layer conv5_1
I0701 05:30:51.046555  1246 net.cpp:100] Creating Layer conv5_1
I0701 05:30:51.046557  1246 net.cpp:434] conv5_1 <- pool4
I0701 05:30:51.046564  1246 net.cpp:408] conv5_1 -> conv5_1
I0701 05:30:51.055606  1246 net.cpp:150] Setting up conv5_1
I0701 05:30:51.055624  1246 net.cpp:157] Top shape: 2 512 36 48 (1769472)
I0701 05:30:51.055627  1246 net.cpp:165] Memory required for data: 2170784488
I0701 05:30:51.055639  1246 layer_factory.hpp:77] Creating layer relu5_1
I0701 05:30:51.055649  1246 net.cpp:100] Creating Layer relu5_1
I0701 05:30:51.055655  1246 net.cpp:434] relu5_1 <- conv5_1
I0701 05:30:51.055661  1246 net.cpp:395] relu5_1 -> conv5_1 (in-place)
I0701 05:30:51.055939  1246 net.cpp:150] Setting up relu5_1
I0701 05:30:51.055946  1246 net.cpp:157] Top shape: 2 512 36 48 (1769472)
I0701 05:30:51.055949  1246 net.cpp:165] Memory required for data: 2177862376
I0701 05:30:51.055953  1246 layer_factory.hpp:77] Creating layer conv5_2
I0701 05:30:51.055963  1246 net.cpp:100] Creating Layer conv5_2
I0701 05:30:51.055966  1246 net.cpp:434] conv5_2 <- conv5_1
I0701 05:30:51.055971  1246 net.cpp:408] conv5_2 -> conv5_2
I0701 05:30:51.061766  1246 net.cpp:150] Setting up conv5_2
I0701 05:30:51.061785  1246 net.cpp:157] Top shape: 2 512 36 48 (1769472)
I0701 05:30:51.061789  1246 net.cpp:165] Memory required for data: 2184940264
I0701 05:30:51.061799  1246 layer_factory.hpp:77] Creating layer relu5_2
I0701 05:30:51.061808  1246 net.cpp:100] Creating Layer relu5_2
I0701 05:30:51.061813  1246 net.cpp:434] relu5_2 <- conv5_2
I0701 05:30:51.061821  1246 net.cpp:395] relu5_2 -> conv5_2 (in-place)
I0701 05:30:51.062580  1246 net.cpp:150] Setting up relu5_2
I0701 05:30:51.062590  1246 net.cpp:157] Top shape: 2 512 36 48 (1769472)
I0701 05:30:51.062593  1246 net.cpp:165] Memory required for data: 2192018152
I0701 05:30:51.062597  1246 layer_factory.hpp:77] Creating layer conv5_3
I0701 05:30:51.062608  1246 net.cpp:100] Creating Layer conv5_3
I0701 05:30:51.062613  1246 net.cpp:434] conv5_3 <- conv5_2
I0701 05:30:51.062619  1246 net.cpp:408] conv5_3 -> conv5_3
I0701 05:30:51.068395  1246 net.cpp:150] Setting up conv5_3
I0701 05:30:51.068416  1246 net.cpp:157] Top shape: 2 512 36 48 (1769472)
I0701 05:30:51.068419  1246 net.cpp:165] Memory required for data: 2199096040
I0701 05:30:51.068428  1246 layer_factory.hpp:77] Creating layer relu5_3
I0701 05:30:51.068440  1246 net.cpp:100] Creating Layer relu5_3
I0701 05:30:51.068445  1246 net.cpp:434] relu5_3 <- conv5_3
I0701 05:30:51.068452  1246 net.cpp:395] relu5_3 -> conv5_3 (in-place)
I0701 05:30:51.068727  1246 net.cpp:150] Setting up relu5_3
I0701 05:30:51.068734  1246 net.cpp:157] Top shape: 2 512 36 48 (1769472)
I0701 05:30:51.068737  1246 net.cpp:165] Memory required for data: 2206173928
I0701 05:30:51.068742  1246 layer_factory.hpp:77] Creating layer conv5_3_relu5_3_0_split
I0701 05:30:51.068747  1246 net.cpp:100] Creating Layer conv5_3_relu5_3_0_split
I0701 05:30:51.068751  1246 net.cpp:434] conv5_3_relu5_3_0_split <- conv5_3
I0701 05:30:51.068758  1246 net.cpp:408] conv5_3_relu5_3_0_split -> conv5_3_relu5_3_0_split_0
I0701 05:30:51.068765  1246 net.cpp:408] conv5_3_relu5_3_0_split -> conv5_3_relu5_3_0_split_1
I0701 05:30:51.068771  1246 net.cpp:408] conv5_3_relu5_3_0_split -> conv5_3_relu5_3_0_split_2
I0701 05:30:51.068836  1246 net.cpp:150] Setting up conv5_3_relu5_3_0_split
I0701 05:30:51.068841  1246 net.cpp:157] Top shape: 2 512 36 48 (1769472)
I0701 05:30:51.068845  1246 net.cpp:157] Top shape: 2 512 36 48 (1769472)
I0701 05:30:51.068850  1246 net.cpp:157] Top shape: 2 512 36 48 (1769472)
I0701 05:30:51.068852  1246 net.cpp:165] Memory required for data: 2227407592
I0701 05:30:51.068856  1246 layer_factory.hpp:77] Creating layer LFCN_2_3x5
I0701 05:30:51.068866  1246 net.cpp:100] Creating Layer LFCN_2_3x5
I0701 05:30:51.068868  1246 net.cpp:434] LFCN_2_3x5 <- conv5_3_relu5_3_0_split_0
I0701 05:30:51.068876  1246 net.cpp:408] LFCN_2_3x5 -> LFCN_2_3x5
I0701 05:30:51.073464  1246 net.cpp:150] Setting up LFCN_2_3x5
I0701 05:30:51.073495  1246 net.cpp:157] Top shape: 2 7 36 48 (24192)
I0701 05:30:51.073499  1246 net.cpp:165] Memory required for data: 2227504360
I0701 05:30:51.073523  1246 layer_factory.hpp:77] Creating layer LFCN_2_3x5_LFCN_2_3x5_0_split
I0701 05:30:51.073536  1246 net.cpp:100] Creating Layer LFCN_2_3x5_LFCN_2_3x5_0_split
I0701 05:30:51.073542  1246 net.cpp:434] LFCN_2_3x5_LFCN_2_3x5_0_split <- LFCN_2_3x5
I0701 05:30:51.073554  1246 net.cpp:408] LFCN_2_3x5_LFCN_2_3x5_0_split -> LFCN_2_3x5_LFCN_2_3x5_0_split_0
I0701 05:30:51.073565  1246 net.cpp:408] LFCN_2_3x5_LFCN_2_3x5_0_split -> LFCN_2_3x5_LFCN_2_3x5_0_split_1
I0701 05:30:51.073621  1246 net.cpp:150] Setting up LFCN_2_3x5_LFCN_2_3x5_0_split
I0701 05:30:51.073627  1246 net.cpp:157] Top shape: 2 7 36 48 (24192)
I0701 05:30:51.073632  1246 net.cpp:157] Top shape: 2 7 36 48 (24192)
I0701 05:30:51.073634  1246 net.cpp:165] Memory required for data: 2227697896
I0701 05:30:51.073637  1246 layer_factory.hpp:77] Creating layer detection_loss_2_3x5
I0701 05:30:51.073647  1246 net.cpp:100] Creating Layer detection_loss_2_3x5
I0701 05:30:51.073650  1246 net.cpp:434] detection_loss_2_3x5 <- LFCN_2_3x5_LFCN_2_3x5_0_split_0
I0701 05:30:51.073655  1246 net.cpp:434] detection_loss_2_3x5 <- label_2_3x5_data_3_split_0
I0701 05:30:51.073662  1246 net.cpp:408] detection_loss_2_3x5 -> loss_2_3x5
I0701 05:30:51.073671  1246 layer_factory.hpp:77] Creating layer detection_loss_2_3x5
I0701 05:30:51.074152  1246 net.cpp:150] Setting up detection_loss_2_3x5
I0701 05:30:51.074160  1246 net.cpp:157] Top shape: 1 1 1 2 (2)
I0701 05:30:51.074162  1246 net.cpp:160]     with loss weight 1
I0701 05:30:51.074172  1246 net.cpp:165] Memory required for data: 2227697904
I0701 05:30:51.074175  1246 layer_factory.hpp:77] Creating layer detection_accuracy_2_3x5
I0701 05:30:51.074182  1246 net.cpp:100] Creating Layer detection_accuracy_2_3x5
I0701 05:30:51.074187  1246 net.cpp:434] detection_accuracy_2_3x5 <- LFCN_2_3x5_LFCN_2_3x5_0_split_1
I0701 05:30:51.074192  1246 net.cpp:434] detection_accuracy_2_3x5 <- label_2_3x5_data_3_split_1
I0701 05:30:51.074198  1246 net.cpp:408] detection_accuracy_2_3x5 -> accuracy_2_3x5
I0701 05:30:51.074205  1246 net.cpp:408] detection_accuracy_2_3x5 -> boxiou_2_3x5
I0701 05:30:51.074260  1246 net.cpp:150] Setting up detection_accuracy_2_3x5
I0701 05:30:51.074265  1246 net.cpp:157] Top shape: 1 1 1 2 (2)
I0701 05:30:51.074270  1246 net.cpp:157] Top shape: 1 1 1 1 (1)
I0701 05:30:51.074272  1246 net.cpp:165] Memory required for data: 2227697916
I0701 05:30:51.074275  1246 layer_factory.hpp:77] Creating layer LFCN_2_5x7
I0701 05:30:51.074283  1246 net.cpp:100] Creating Layer LFCN_2_5x7
I0701 05:30:51.074287  1246 net.cpp:434] LFCN_2_5x7 <- conv5_3_relu5_3_0_split_1
I0701 05:30:51.074296  1246 net.cpp:408] LFCN_2_5x7 -> LFCN_2_5x7
I0701 05:30:51.076761  1246 net.cpp:150] Setting up LFCN_2_5x7
I0701 05:30:51.076776  1246 net.cpp:157] Top shape: 2 7 36 48 (24192)
I0701 05:30:51.076779  1246 net.cpp:165] Memory required for data: 2227794684
I0701 05:30:51.076787  1246 layer_factory.hpp:77] Creating layer LFCN_2_5x7_LFCN_2_5x7_0_split
I0701 05:30:51.076797  1246 net.cpp:100] Creating Layer LFCN_2_5x7_LFCN_2_5x7_0_split
I0701 05:30:51.076800  1246 net.cpp:434] LFCN_2_5x7_LFCN_2_5x7_0_split <- LFCN_2_5x7
I0701 05:30:51.076809  1246 net.cpp:408] LFCN_2_5x7_LFCN_2_5x7_0_split -> LFCN_2_5x7_LFCN_2_5x7_0_split_0
I0701 05:30:51.076818  1246 net.cpp:408] LFCN_2_5x7_LFCN_2_5x7_0_split -> LFCN_2_5x7_LFCN_2_5x7_0_split_1
I0701 05:30:51.076867  1246 net.cpp:150] Setting up LFCN_2_5x7_LFCN_2_5x7_0_split
I0701 05:30:51.076874  1246 net.cpp:157] Top shape: 2 7 36 48 (24192)
I0701 05:30:51.076877  1246 net.cpp:157] Top shape: 2 7 36 48 (24192)
I0701 05:30:51.076879  1246 net.cpp:165] Memory required for data: 2227988220
I0701 05:30:51.076884  1246 layer_factory.hpp:77] Creating layer detection_loss_2_5x7
I0701 05:30:51.076890  1246 net.cpp:100] Creating Layer detection_loss_2_5x7
I0701 05:30:51.076894  1246 net.cpp:434] detection_loss_2_5x7 <- LFCN_2_5x7_LFCN_2_5x7_0_split_0
I0701 05:30:51.076900  1246 net.cpp:434] detection_loss_2_5x7 <- label_2_5x7_data_4_split_0
I0701 05:30:51.076906  1246 net.cpp:408] detection_loss_2_5x7 -> loss_2_5x7
I0701 05:30:51.076915  1246 layer_factory.hpp:77] Creating layer detection_loss_2_5x7
I0701 05:30:51.077925  1246 net.cpp:150] Setting up detection_loss_2_5x7
I0701 05:30:51.077936  1246 net.cpp:157] Top shape: 1 1 1 2 (2)
I0701 05:30:51.077939  1246 net.cpp:160]     with loss weight 1
I0701 05:30:51.077950  1246 net.cpp:165] Memory required for data: 2227988228
I0701 05:30:51.077952  1246 layer_factory.hpp:77] Creating layer detection_accuracy_2_5x7
I0701 05:30:51.077961  1246 net.cpp:100] Creating Layer detection_accuracy_2_5x7
I0701 05:30:51.077965  1246 net.cpp:434] detection_accuracy_2_5x7 <- LFCN_2_5x7_LFCN_2_5x7_0_split_1
I0701 05:30:51.077971  1246 net.cpp:434] detection_accuracy_2_5x7 <- label_2_5x7_data_4_split_1
I0701 05:30:51.077980  1246 net.cpp:408] detection_accuracy_2_5x7 -> accuracy_2_5x7
I0701 05:30:51.077988  1246 net.cpp:408] detection_accuracy_2_5x7 -> boxiou_2_5x7
I0701 05:30:51.078037  1246 net.cpp:150] Setting up detection_accuracy_2_5x7
I0701 05:30:51.078042  1246 net.cpp:157] Top shape: 1 1 1 2 (2)
I0701 05:30:51.078045  1246 net.cpp:157] Top shape: 1 1 1 1 (1)
I0701 05:30:51.078048  1246 net.cpp:165] Memory required for data: 2227988240
I0701 05:30:51.078052  1246 layer_factory.hpp:77] Creating layer pool5
I0701 05:30:51.078058  1246 net.cpp:100] Creating Layer pool5
I0701 05:30:51.078061  1246 net.cpp:434] pool5 <- conv5_3_relu5_3_0_split_2
I0701 05:30:51.078066  1246 net.cpp:408] pool5 -> pool5
I0701 05:30:51.078109  1246 net.cpp:150] Setting up pool5
I0701 05:30:51.078115  1246 net.cpp:157] Top shape: 2 512 18 24 (442368)
I0701 05:30:51.078119  1246 net.cpp:165] Memory required for data: 2229757712
I0701 05:30:51.078121  1246 layer_factory.hpp:77] Creating layer conv6_1
I0701 05:30:51.078130  1246 net.cpp:100] Creating Layer conv6_1
I0701 05:30:51.078133  1246 net.cpp:434] conv6_1 <- pool5
I0701 05:30:51.078140  1246 net.cpp:408] conv6_1 -> conv6_1
I0701 05:30:51.099735  1246 net.cpp:150] Setting up conv6_1
I0701 05:30:51.099755  1246 net.cpp:157] Top shape: 2 512 18 24 (442368)
I0701 05:30:51.099757  1246 net.cpp:165] Memory required for data: 2231527184
I0701 05:30:51.099764  1246 layer_factory.hpp:77] Creating layer relu6_1
I0701 05:30:51.099773  1246 net.cpp:100] Creating Layer relu6_1
I0701 05:30:51.099777  1246 net.cpp:434] relu6_1 <- conv6_1
I0701 05:30:51.099784  1246 net.cpp:395] relu6_1 -> conv6_1 (in-place)
I0701 05:30:51.100050  1246 net.cpp:150] Setting up relu6_1
I0701 05:30:51.100059  1246 net.cpp:157] Top shape: 2 512 18 24 (442368)
I0701 05:30:51.100060  1246 net.cpp:165] Memory required for data: 2233296656
I0701 05:30:51.100064  1246 layer_factory.hpp:77] Creating layer conv6_1_relu6_1_0_split
I0701 05:30:51.100070  1246 net.cpp:100] Creating Layer conv6_1_relu6_1_0_split
I0701 05:30:51.100075  1246 net.cpp:434] conv6_1_relu6_1_0_split <- conv6_1
I0701 05:30:51.100081  1246 net.cpp:408] conv6_1_relu6_1_0_split -> conv6_1_relu6_1_0_split_0
I0701 05:30:51.100090  1246 net.cpp:408] conv6_1_relu6_1_0_split -> conv6_1_relu6_1_0_split_1
I0701 05:30:51.100096  1246 net.cpp:408] conv6_1_relu6_1_0_split -> conv6_1_relu6_1_0_split_2
I0701 05:30:51.100157  1246 net.cpp:150] Setting up conv6_1_relu6_1_0_split
I0701 05:30:51.100162  1246 net.cpp:157] Top shape: 2 512 18 24 (442368)
I0701 05:30:51.100165  1246 net.cpp:157] Top shape: 2 512 18 24 (442368)
I0701 05:30:51.100169  1246 net.cpp:157] Top shape: 2 512 18 24 (442368)
I0701 05:30:51.100172  1246 net.cpp:165] Memory required for data: 2238605072
I0701 05:30:51.100175  1246 layer_factory.hpp:77] Creating layer LFCN_3_3x5
I0701 05:30:51.100184  1246 net.cpp:100] Creating Layer LFCN_3_3x5
I0701 05:30:51.100188  1246 net.cpp:434] LFCN_3_3x5 <- conv6_1_relu6_1_0_split_0
I0701 05:30:51.100195  1246 net.cpp:408] LFCN_3_3x5 -> LFCN_3_3x5
I0701 05:30:51.103015  1246 net.cpp:150] Setting up LFCN_3_3x5
I0701 05:30:51.103030  1246 net.cpp:157] Top shape: 2 7 18 24 (6048)
I0701 05:30:51.103034  1246 net.cpp:165] Memory required for data: 2238629264
I0701 05:30:51.103041  1246 layer_factory.hpp:77] Creating layer LFCN_3_3x5_LFCN_3_3x5_0_split
I0701 05:30:51.103060  1246 net.cpp:100] Creating Layer LFCN_3_3x5_LFCN_3_3x5_0_split
I0701 05:30:51.103066  1246 net.cpp:434] LFCN_3_3x5_LFCN_3_3x5_0_split <- LFCN_3_3x5
I0701 05:30:51.103073  1246 net.cpp:408] LFCN_3_3x5_LFCN_3_3x5_0_split -> LFCN_3_3x5_LFCN_3_3x5_0_split_0
I0701 05:30:51.103082  1246 net.cpp:408] LFCN_3_3x5_LFCN_3_3x5_0_split -> LFCN_3_3x5_LFCN_3_3x5_0_split_1
I0701 05:30:51.103129  1246 net.cpp:150] Setting up LFCN_3_3x5_LFCN_3_3x5_0_split
I0701 05:30:51.103134  1246 net.cpp:157] Top shape: 2 7 18 24 (6048)
I0701 05:30:51.103138  1246 net.cpp:157] Top shape: 2 7 18 24 (6048)
I0701 05:30:51.103142  1246 net.cpp:165] Memory required for data: 2238677648
I0701 05:30:51.103145  1246 layer_factory.hpp:77] Creating layer detection_loss_3_3x5
I0701 05:30:51.103152  1246 net.cpp:100] Creating Layer detection_loss_3_3x5
I0701 05:30:51.103157  1246 net.cpp:434] detection_loss_3_3x5 <- LFCN_3_3x5_LFCN_3_3x5_0_split_0
I0701 05:30:51.103161  1246 net.cpp:434] detection_loss_3_3x5 <- label_3_3x5_data_5_split_0
I0701 05:30:51.103168  1246 net.cpp:408] detection_loss_3_3x5 -> loss_3_3x5
I0701 05:30:51.103178  1246 layer_factory.hpp:77] Creating layer detection_loss_3_3x5
I0701 05:30:51.103626  1246 net.cpp:150] Setting up detection_loss_3_3x5
I0701 05:30:51.103632  1246 net.cpp:157] Top shape: 1 1 1 2 (2)
I0701 05:30:51.103634  1246 net.cpp:160]     with loss weight 1
I0701 05:30:51.103643  1246 net.cpp:165] Memory required for data: 2238677656
I0701 05:30:51.103647  1246 layer_factory.hpp:77] Creating layer detection_accuracy_3_3x5
I0701 05:30:51.103655  1246 net.cpp:100] Creating Layer detection_accuracy_3_3x5
I0701 05:30:51.103659  1246 net.cpp:434] detection_accuracy_3_3x5 <- LFCN_3_3x5_LFCN_3_3x5_0_split_1
I0701 05:30:51.103663  1246 net.cpp:434] detection_accuracy_3_3x5 <- label_3_3x5_data_5_split_1
I0701 05:30:51.103669  1246 net.cpp:408] detection_accuracy_3_3x5 -> accuracy_3_3x5
I0701 05:30:51.103678  1246 net.cpp:408] detection_accuracy_3_3x5 -> boxiou_3_3x5
I0701 05:30:51.103723  1246 net.cpp:150] Setting up detection_accuracy_3_3x5
I0701 05:30:51.103727  1246 net.cpp:157] Top shape: 1 1 1 2 (2)
I0701 05:30:51.103731  1246 net.cpp:157] Top shape: 1 1 1 1 (1)
I0701 05:30:51.103734  1246 net.cpp:165] Memory required for data: 2238677668
I0701 05:30:51.103737  1246 layer_factory.hpp:77] Creating layer LFCN_3_5x7
I0701 05:30:51.103746  1246 net.cpp:100] Creating Layer LFCN_3_5x7
I0701 05:30:51.103750  1246 net.cpp:434] LFCN_3_5x7 <- conv6_1_relu6_1_0_split_1
I0701 05:30:51.103757  1246 net.cpp:408] LFCN_3_5x7 -> LFCN_3_5x7
I0701 05:30:51.106617  1246 net.cpp:150] Setting up LFCN_3_5x7
I0701 05:30:51.106631  1246 net.cpp:157] Top shape: 2 7 18 24 (6048)
I0701 05:30:51.106634  1246 net.cpp:165] Memory required for data: 2238701860
I0701 05:30:51.106643  1246 layer_factory.hpp:77] Creating layer LFCN_3_5x7_LFCN_3_5x7_0_split
I0701 05:30:51.106652  1246 net.cpp:100] Creating Layer LFCN_3_5x7_LFCN_3_5x7_0_split
I0701 05:30:51.106657  1246 net.cpp:434] LFCN_3_5x7_LFCN_3_5x7_0_split <- LFCN_3_5x7
I0701 05:30:51.106664  1246 net.cpp:408] LFCN_3_5x7_LFCN_3_5x7_0_split -> LFCN_3_5x7_LFCN_3_5x7_0_split_0
I0701 05:30:51.106673  1246 net.cpp:408] LFCN_3_5x7_LFCN_3_5x7_0_split -> LFCN_3_5x7_LFCN_3_5x7_0_split_1
I0701 05:30:51.106719  1246 net.cpp:150] Setting up LFCN_3_5x7_LFCN_3_5x7_0_split
I0701 05:30:51.106726  1246 net.cpp:157] Top shape: 2 7 18 24 (6048)
I0701 05:30:51.106730  1246 net.cpp:157] Top shape: 2 7 18 24 (6048)
I0701 05:30:51.106734  1246 net.cpp:165] Memory required for data: 2238750244
I0701 05:30:51.106736  1246 layer_factory.hpp:77] Creating layer detection_loss_3_5x7
I0701 05:30:51.106742  1246 net.cpp:100] Creating Layer detection_loss_3_5x7
I0701 05:30:51.106746  1246 net.cpp:434] detection_loss_3_5x7 <- LFCN_3_5x7_LFCN_3_5x7_0_split_0
I0701 05:30:51.106750  1246 net.cpp:434] detection_loss_3_5x7 <- label_3_5x7_data_6_split_0
I0701 05:30:51.106757  1246 net.cpp:408] detection_loss_3_5x7 -> loss_3_5x7
I0701 05:30:51.106766  1246 layer_factory.hpp:77] Creating layer detection_loss_3_5x7
I0701 05:30:51.107656  1246 net.cpp:150] Setting up detection_loss_3_5x7
I0701 05:30:51.107666  1246 net.cpp:157] Top shape: 1 1 1 2 (2)
I0701 05:30:51.107668  1246 net.cpp:160]     with loss weight 1
I0701 05:30:51.107676  1246 net.cpp:165] Memory required for data: 2238750252
I0701 05:30:51.107679  1246 layer_factory.hpp:77] Creating layer detection_accuracy_3_5x7
I0701 05:30:51.107687  1246 net.cpp:100] Creating Layer detection_accuracy_3_5x7
I0701 05:30:51.107692  1246 net.cpp:434] detection_accuracy_3_5x7 <- LFCN_3_5x7_LFCN_3_5x7_0_split_1
I0701 05:30:51.107697  1246 net.cpp:434] detection_accuracy_3_5x7 <- label_3_5x7_data_6_split_1
I0701 05:30:51.107704  1246 net.cpp:408] detection_accuracy_3_5x7 -> accuracy_3_5x7
I0701 05:30:51.107712  1246 net.cpp:408] detection_accuracy_3_5x7 -> boxiou_3_5x7
I0701 05:30:51.107756  1246 net.cpp:150] Setting up detection_accuracy_3_5x7
I0701 05:30:51.107761  1246 net.cpp:157] Top shape: 1 1 1 2 (2)
I0701 05:30:51.107765  1246 net.cpp:157] Top shape: 1 1 1 1 (1)
I0701 05:30:51.107767  1246 net.cpp:165] Memory required for data: 2238750264
I0701 05:30:51.107770  1246 layer_factory.hpp:77] Creating layer pool6
I0701 05:30:51.107776  1246 net.cpp:100] Creating Layer pool6
I0701 05:30:51.107780  1246 net.cpp:434] pool6 <- conv6_1_relu6_1_0_split_2
I0701 05:30:51.107787  1246 net.cpp:408] pool6 -> pool6
I0701 05:30:51.107827  1246 net.cpp:150] Setting up pool6
I0701 05:30:51.107832  1246 net.cpp:157] Top shape: 2 512 9 12 (110592)
I0701 05:30:51.107836  1246 net.cpp:165] Memory required for data: 2239192632
I0701 05:30:51.107838  1246 layer_factory.hpp:77] Creating layer LFCN_4_3x5
I0701 05:30:51.107848  1246 net.cpp:100] Creating Layer LFCN_4_3x5
I0701 05:30:51.107852  1246 net.cpp:434] LFCN_4_3x5 <- pool6
I0701 05:30:51.107858  1246 net.cpp:408] LFCN_4_3x5 -> LFCN_4_3x5
I0701 05:30:51.110163  1246 net.cpp:150] Setting up LFCN_4_3x5
I0701 05:30:51.110174  1246 net.cpp:157] Top shape: 2 7 9 12 (1512)
I0701 05:30:51.110177  1246 net.cpp:165] Memory required for data: 2239198680
I0701 05:30:51.110185  1246 layer_factory.hpp:77] Creating layer LFCN_4_3x5_LFCN_4_3x5_0_split
I0701 05:30:51.110193  1246 net.cpp:100] Creating Layer LFCN_4_3x5_LFCN_4_3x5_0_split
I0701 05:30:51.110196  1246 net.cpp:434] LFCN_4_3x5_LFCN_4_3x5_0_split <- LFCN_4_3x5
I0701 05:30:51.110204  1246 net.cpp:408] LFCN_4_3x5_LFCN_4_3x5_0_split -> LFCN_4_3x5_LFCN_4_3x5_0_split_0
I0701 05:30:51.110214  1246 net.cpp:408] LFCN_4_3x5_LFCN_4_3x5_0_split -> LFCN_4_3x5_LFCN_4_3x5_0_split_1
I0701 05:30:51.110270  1246 net.cpp:150] Setting up LFCN_4_3x5_LFCN_4_3x5_0_split
I0701 05:30:51.110275  1246 net.cpp:157] Top shape: 2 7 9 12 (1512)
I0701 05:30:51.110277  1246 net.cpp:157] Top shape: 2 7 9 12 (1512)
I0701 05:30:51.110280  1246 net.cpp:165] Memory required for data: 2239210776
I0701 05:30:51.110282  1246 layer_factory.hpp:77] Creating layer detection_loss_4_3x5
I0701 05:30:51.110291  1246 net.cpp:100] Creating Layer detection_loss_4_3x5
I0701 05:30:51.110294  1246 net.cpp:434] detection_loss_4_3x5 <- LFCN_4_3x5_LFCN_4_3x5_0_split_0
I0701 05:30:51.110298  1246 net.cpp:434] detection_loss_4_3x5 <- label_4_3x5_data_7_split_0
I0701 05:30:51.110304  1246 net.cpp:408] detection_loss_4_3x5 -> loss_4_3x5
I0701 05:30:51.110314  1246 layer_factory.hpp:77] Creating layer detection_loss_4_3x5
I0701 05:30:51.111209  1246 net.cpp:150] Setting up detection_loss_4_3x5
I0701 05:30:51.111218  1246 net.cpp:157] Top shape: 1 1 1 2 (2)
I0701 05:30:51.111222  1246 net.cpp:160]     with loss weight 1
I0701 05:30:51.111229  1246 net.cpp:165] Memory required for data: 2239210784
I0701 05:30:51.111232  1246 layer_factory.hpp:77] Creating layer detection_accuracy_4_3x5
I0701 05:30:51.111241  1246 net.cpp:100] Creating Layer detection_accuracy_4_3x5
I0701 05:30:51.111245  1246 net.cpp:434] detection_accuracy_4_3x5 <- LFCN_4_3x5_LFCN_4_3x5_0_split_1
I0701 05:30:51.111250  1246 net.cpp:434] detection_accuracy_4_3x5 <- label_4_3x5_data_7_split_1
I0701 05:30:51.111258  1246 net.cpp:408] detection_accuracy_4_3x5 -> accuracy_4_3x5
I0701 05:30:51.111266  1246 net.cpp:408] detection_accuracy_4_3x5 -> boxiou_4_3x5
I0701 05:30:51.111312  1246 net.cpp:150] Setting up detection_accuracy_4_3x5
I0701 05:30:51.111317  1246 net.cpp:157] Top shape: 1 1 1 2 (2)
I0701 05:30:51.111321  1246 net.cpp:157] Top shape: 1 1 1 1 (1)
I0701 05:30:51.111323  1246 net.cpp:165] Memory required for data: 2239210796
I0701 05:30:51.111327  1246 net.cpp:228] detection_accuracy_4_3x5 does not need backward computation.
I0701 05:30:51.111332  1246 net.cpp:226] detection_loss_4_3x5 needs backward computation.
I0701 05:30:51.111336  1246 net.cpp:226] LFCN_4_3x5_LFCN_4_3x5_0_split needs backward computation.
I0701 05:30:51.111340  1246 net.cpp:226] LFCN_4_3x5 needs backward computation.
…
