…
    downsample_rate: 32
    downsample_rate: 32
    downsample_rate: 64
    coord_num: 4
    field_h: 60
    field_h: 84
    field_h: 120
    field_h: 168
    field_h: 240
    field_h: 336
    field_h: 480
    field_w: 40
    field_w: 56
    field_w: 80
    field_w: 112
    field_w: 160
    field_w: 224
    field_w: 320
    fg_threshold: 0.5
    resize_width: 1920
    resize_height: 576
    crop_width: 768
    crop_height: 576
    do_multiple_scale: true
    min_scale: 50
    max_scale: 420
    min_gt_height: 35
    shuffle: true
    output_gt_boxes: true
  }
}
layer {
  name: "conv1_1"
  type: "Convolution"
  bottom: "data"
  top: "conv1_1"
  param {
    lr_mult: 0
    decay_mult: 0
  }
  param {
    lr_mult: 0
    decay_mult: 0
  }
  convolution_param {
    num_output: 64
    pad: 1
    kernel_size: 3
  }
}
layer {
  name: "relu1_1"
  type: "ReLU"
  bottom: "conv1_1"
  top: "conv1_1"
}
layer {
  name: "conv1_2"
  type: "Convolution"
  bottom: "conv1_1"
  top: "conv1_2"
  param {
    lr_mult: 0
    decay_mult: 0
  }
  param {
    lr_mult: 0
    decay_mult: 0
  }
  convolution_param {
    num_output: 64
    pad: 1
    kernel_size: 3
  }
}
layer {
  name: "relu1_2"
  type: "ReLU"
  bottom: "conv1_2"
  top: "conv1_2"
}
layer {
  name: "pool1"
  type: "Pooling"
  bottom: "conv1_2"
  top: "pool1"
  pooling_param {
    pool: MAX
    kernel_size: 2
    stride: 2
  }
}
layer {
  name: "conv2_1"
  type: "Convolution"
  bottom: "pool1"
  top: "conv2_1"
  param {
    lr_mult: 0
    decay_mult: 0
  }
  param {
    lr_mult: 0
    decay_mult: 0
  }
  convolution_param {
    num_output: 128
    pad: 1
    kernel_size: 3
  }
}
layer {
  name: "relu2_1"
  type: "ReLU"
  bottom: "conv2_1"
  top: "conv2_1"
}
layer {
  name: "conv2_2"
  type: "Convolution"
  bottom: "conv2_1"
  top: "conv2_2"
  param {
    lr_mult: 0
    decay_mult: 0
  }
  param {
    lr_mult: 0
    decay_mult: 0
  }
  convolution_param {
    num_output: 128
    pad: 1
    kernel_size: 3
  }
}
layer {
  name: "relu2_2"
  type: "ReLU"
  bottom: "conv2_2"
  top: "conv2_2"
}
layer {
  name: "pool2"
  type: "Pooling"
  bottom: "conv2_2"
  top: "pool2"
  pooling_param {
    pool: MAX
    kernel_size: 2
    stride: 2
  }
}
layer {
  name: "conv3_1"
  type: "Convolution"
  bottom: "pool2"
  top: "conv3_1"
  convolution_param {
    num_output: 256
    pad: 1
    kernel_size: 3
  }
}
layer {
  name: "relu3_1"
  type: "ReLU"
  bottom: "conv3_1"
  top: "conv3_1"
}
layer {
  name: "conv3_2"
  type: "Convolution"
  bottom: "conv3_1"
  top: "conv3_2"
  convolution_param {
    num_output: 256
    pad: 1
    kernel_size: 3
  }
}
layer {
  name: "relu3_2"
  type: "ReLU"
  bottom: "conv3_2"
  top: "conv3_2"
}
layer {
  name: "conv3_3"
  type: "Convolution"
  bottom: "conv3_2"
  top: "conv3_3"
  convolution_param {
    num_output: 256
    pad: 1
    kernel_size: 3
  }
}
layer {
  name: "relu3_3"
  type: "ReLU"
  bottom: "conv3_3"
  top: "conv3_3"
}
layer {
  name: "pool3"
  type: "Pooling"
  bottom: "conv3_3"
  top: "pool3"
  pooling_param {
    pool: MAX
    kernel_size: 2
    stride: 2
  }
}
layer {
  name: "conv4_1"
  type: "Convolution"
  bottom: "pool3"
  top: "conv4_1"
  convolution_param {
    num_output: 512
    pad: 1
    kernel_size: 3
  }
}
layer {
  name: "relu4_1"
  type: "ReLU"
  bottom: "conv4_1"
  top: "conv4_1"
}
layer {
  name: "conv4_2"
  type: "Convolution"
  bottom: "conv4_1"
  top: "conv4_2"
  convolution_param {
    num_output: 512
    pad: 1
    kernel_size: 3
  }
}
layer {
  name: "relu4_2"
  type: "ReLU"
  bottom: "conv4_2"
  top: "conv4_2"
}
layer {
  name: "conv4_3"
  type: "Convolution"
  bottom: "conv4_2"
  top: "conv4_3"
  convolution_param {
    num_output: 512
    pad: 1
    kernel_size: 3
  }
}
layer {
  name: "relu4_3"
  type: "ReLU"
  bottom: "conv4_3"
  top: "conv4_3"
}
layer {
  name: "loss1_conv1"
  type: "Convolution"
  bottom: "conv4_3"
  top: "loss1_conv1"
  param {
    lr_mult: 1
    decay_mult: 1
  }
  param {
    lr_mult: 2
    decay_mult: 0
  }
  convolution_param {
    num_output: 512
    pad: 1
    kernel_size: 3
    weight_filler {
      type: "gaussian"
      std: 0.01
    }
    bias_filler {
      type: "constant"
    }
  }
}
layer {
  name: "loss_relu1"
  type: "ReLU"
  bottom: "loss1_conv1"
  top: "loss1_conv1"
}
layer {
  name: "LFCN_1_3x5"
  type: "Convolution"
  bottom: "loss1_conv1"
  top: "LFCN_1_3x5"
  param {
    lr_mult: 1
    decay_mult: 1
  }
  param {
    lr_mult: 2
    decay_mult: 0
  }
  convolution_param {
    num_output: 7
    weight_filler {
      type: "gaussian"
      std: 0.001
    }
    bias_filler {
      type: "constant"
    }
    pad_h: 2
    pad_w: 1
    kernel_h: 5
    kernel_w: 3
  }
}
layer {
  name: "detection_loss_1_3x5"
  type: "DetectionLoss"
  bottom: "LFCN_1_3x5"
  bottom: "label_1_3x5"
  top: "loss_1_3x5"
  loss_weight: 0.5
  detection_loss_param {
    cls_num: 3
    coord_num: 4
    lambda: 1
    field_h: 60
    field_w: 40
    downsample_rate: 8
    bb_smooth: true
    field_whr: 2
    field_xyr: 2
    bg_threshold: 0.2
    bg_multiple: 2
    sample_mode: "bootstrap"
    pos_neg_weighted: true
  }
}
layer {
  name: "detection_accuracy_1_3x5"
  type: "DetectionAccuracy"
  bottom: "LFCN_1_3x5"
  bottom: "label_1_3x5"
  top: "accuracy_1_3x5"
  top: "boxiou_1_3x5"
  detection_accuracy_param {
    cls_num: 3
    coord_num: 4
    field_h: 60
    field_w: 40
    downsample_rate: 8
    field_whr: 2
    field_xyr: 2
  }
}
layer {
  name: "LFCN_1_5x7"
  type: "Convolution"
  bottom: "loss1_conv1"
  top: "LFCN_1_5x7"
  param {
    lr_mult: 1
    decay_mult: 1
  }
  param {
    lr_mult: 2
    decay_mult: 0
  }
  convolution_param {
    num_output: 7
    weight_filler {
      type: "gaussian"
      std: 0.001
    }
    bias_filler {
      type: "constant"
    }
    pad_h: 3
    pad_w: 2
    kernel_h: 7
    kernel_w: 5
  }
}
layer {
  name: "detection_loss_1_5x7"
  type: "DetectionLoss"
  bottom: "LFCN_1_5x7"
  bottom: "label_1_5x7"
  top: "loss_1_5x7"
  loss_weight: 0.9
  detection_loss_param {
    cls_num: 3
    coord_num: 4
    lambda: 1
    field_h: 84
    field_w: 56
    downsample_rate: 8
    bb_smooth: true
    field_whr: 2
    field_xyr: 2
    bg_threshold: 0.2
    bg_multiple: 2
    sample_mode: "bootstrap"
    pos_neg_weighted: true
  }
}
layer {
  name: "detection_accuracy_1_5x7"
  type: "DetectionAccuracy"
  bottom: "LFCN_1_5x7"
  bottom: "label_1_5x7"
  top: "accuracy_1_5x7"
  top: "boxiou_1_5x7"
  detection_accuracy_param {
    cls_num: 3
    coord_num: 4
    field_h: 84
    field_w: 56
    downsample_rate: 8
    field_whr: 2
    field_xyr: 2
  }
}
layer {
  name: "pool4"
  type: "Pooling"
  bottom: "conv4_3"
  top: "pool4"
  pooling_param {
    pool: MAX
    kernel_size: 2
    stride: 2
  }
}
layer {
  name: "conv5_1"
  type: "Convolution"
  bottom: "pool4"
  top: "conv5_1"
  convolution_param {
    num_output: 512
    pad: 1
    kernel_size: 3
  }
}
layer {
  name: "relu5_1"
  type: "ReLU"
  bottom: "conv5_1"
  top: "conv5_1"
}
layer {
  name: "conv5_2"
  type: "Convolution"
  bottom: "conv5_1"
  top: "conv5_2"
  convolution_param {
    num_output: 512
    pad: 1
    kernel_size: 3
  }
}
layer {
  name: "relu5_2"
  type: "ReLU"
  bottom: "conv5_2"
  top: "conv5_2"
}
layer {
  name: "conv5_3"
  type: "Convolution"
  bottom: "conv5_2"
  top: "conv5_3"
  convolution_param {
    num_output: 512
    pad: 1
    kernel_size: 3
  }
}
layer {
  name: "relu5_3"
  type: "ReLU"
  bottom: "conv5_3"
  top: "conv5_3"
}
layer {
  name: "LFCN_2_3x5"
  type: "Convolution"
  bottom: "conv5_3"
  top: "LFCN_2_3x5"
  param {
    lr_mult: 1
    decay_mult: 1
  }
  param {
    lr_mult: 2
    decay_mult: 0
  }
  convolution_param {
    num_output: 7
    weight_filler {
      type: "gaussian"
      std: 0.001
    }
    bias_filler {
      type: "constant"
    }
    pad_h: 2
    pad_w: 1
    kernel_h: 5
    kernel_w: 3
  }
}
layer {
  name: "detection_loss_2_3x5"
  type: "DetectionLoss"
  bottom: "LFCN_2_3x5"
  bottom: "label_2_3x5"
  top: "loss_2_3x5"
  detection_loss_param {
    cls_num: 3
    coord_num: 4
    lambda: 1
    field_h: 120
    field_w: 80
    downsample_rate: 16
    bb_smooth: true
    field_whr: 2
    field_xyr: 2
    bg_threshold: 0.2
    bg_multiple: 2
    sample_mode: "bootstrap"
    pos_neg_weighted: true
  }
}
layer {
  name: "detection_accuracy_2_3x5"
  type: "DetectionAccuracy"
  bottom: "LFCN_2_3x5"
  bottom: "label_2_3x5"
  top: "accuracy_2_3x5"
  top: "boxiou_2_3x5"
  detection_accuracy_param {
    cls_num: 3
    coord_num: 4
    field_h: 120
    field_w: 80
    downsample_rate: 16
    field_whr: 2
    field_xyr: 2
  }
}
layer {
  name: "LFCN_2_5x7"
  type: "Convolution"
  bottom: "conv5_3"
  top: "LFCN_2_5x7"
  param {
    lr_mult: 1
    decay_mult: 1
  }
  param {
    lr_mult: 2
    decay_mult: 0
  }
  convolution_param {
    num_output: 7
    weight_filler {
      type: "gaussian"
      std: 0.001
    }
    bias_filler {
      type: "constant"
    }
    pad_h: 3
    pad_w: 2
    kernel_h: 7
    kernel_w: 5
  }
}
layer {
  name: "detection_loss_2_5x7"
  type: "DetectionLoss"
  bottom: "LFCN_2_5x7"
  bottom: "label_2_5x7"
  top: "loss_2_5x7"
  detection_loss_param {
    cls_num: 3
    coord_num: 4
    lambda: 1
    field_h: 168
    field_w: 112
    downsample_rate: 16
    bb_smooth: true
    field_whr: 2
    field_xyr: 2
    bg_threshold: 0.2
    bg_multiple: 2
    sample_mode: "bootstrap"
    pos_neg_weighted: true
  }
}
layer {
  name: "detection_accuracy_2_5x7"
  type: "DetectionAccuracy"
  bottom: "LFCN_2_5x7"
  bottom: "label_2_5x7"
  top: "accuracy_2_5x7"
  top: "boxiou_2_5x7"
  detection_accuracy_param {
    cls_num: 3
    coord_num: 4
    field_h: 168
    field_w: 112
    downsample_rate: 16
    field_whr: 2
    field_xyr: 2
  }
}
layer {
  name: "pool5"
  type: "Pooling"
  bottom: "conv5_3"
  top: "pool5"
  pooling_param {
    pool: MAX
    kernel_size: 2
    stride: 2
  }
}
layer {
  name: "conv6_1"
  type: "Convolution"
  bottom: "pool5"
  top: "conv6_1"
  param {
    lr_mult: 1
    decay_mult: 1
  }
  param {
    lr_mult: 2
    decay_mult: 0
  }
  convolution_param {
    num_output: 512
    pad: 1
    kernel_size: 3
    weight_filler {
      type: "gaussian"
      std: 0.01
    }
    bias_filler {
      type: "constant"
    }
  }
}
layer {
  name: "relu6_1"
  type: "ReLU"
  bottom: "conv6_1"
  top: "conv6_1"
}
layer {
  name: "LFCN_3_3x5"
  type: "Convolution"
  bottom: "conv6_1"
  top: "LFCN_3_3x5"
  param {
    lr_mult: 1
    decay_mult: 1
  }
  param {
    lr_mult: 2
    decay_mult: 0
  }
  convolution_param {
    num_output: 7
    weight_filler {
      type: "gaussian"
      std: 0.001
    }
    bias_filler {
      type: "constant"
    }
    pad_h: 2
    pad_w: 1
    kernel_h: 5
    kernel_w: 3
  }
}
layer {
  name: "detection_loss_3_3x5"
  type: "DetectionLoss"
  bottom: "LFCN_3_3x5"
  bottom: "label_3_3x5"
  top: "loss_3_3x5"
  detection_loss_param {
    cls_num: 3
    coord_num: 4
    lambda: 1
    field_h: 240
    field_w: 160
    downsample_rate: 32
    bb_smooth: true
    field_whr: 2
    field_xyr: 2
    bg_threshold: 0.2
    bg_multiple: 2
    sample_mode: "bootstrap"
    pos_neg_weighted: true
  }
}
layer {
  name: "detection_accuracy_3_3x5"
  type: "DetectionAccuracy"
  bottom: "LFCN_3_3x5"
  bottom: "label_3_3x5"
  top: "accuracy_3_3x5"
  top: "boxiou_3_3x5"
  detection_accuracy_param {
    cls_num: 3
    coord_num: 4
    field_h: 240
    field_w: 160
    downsample_rate: 32
    field_whr: 2
    field_xyr: 2
  }
}
layer {
  name: "LFCN_3_5x7"
  type: "Convolution"
  bottom: "conv6_1"
  top: "LFCN_3_5x7"
  param {
    lr_mult: 1
    decay_mult: 1
  }
  param {
    lr_mult: 2
    decay_mult: 0
  }
  convolution_param {
    num_output: 7
    weight_filler {
      type: "gaussian"
      std: 0.001
    }
    bias_filler {
      type: "constant"
    }
    pad_h: 3
    pad_w: 2
    kernel_h: 7
    kernel_w: 5
  }
}
layer {
  name: "detection_loss_3_5x7"
  type: "DetectionLoss"
  bottom: "LFCN_3_5x7"
  bottom: "label_3_5x7"
  top: "loss_3_5x7"
  detection_loss_param {
    cls_num: 3
    coord_num: 4
    lambda: 1
    field_h: 336
    field_w: 224
    downsample_rate: 32
    bb_smooth: true
    field_whr: 2
    field_xyr: 2
    bg_threshold: 0.2
    bg_multiple: 2
    sample_mode: "bootstrap"
    pos_neg_weighted: true
  }
}
layer {
  name: "detection_accuracy_3_5x7"
  type: "DetectionAccuracy"
  bottom: "LFCN_3_5x7"
  bottom: "label_3_5x7"
  top: "accuracy_3_5x7"
  top: "boxiou_3_5x7"
  detection_accuracy_param {
    cls_num: 3
    coord_num: 4
    field_h: 336
    field_w: 224
    downsample_rate: 32
    field_whr: 2
    field_xyr: 2
  }
}
layer {
  name: "pool6"
  type: "Pooling"
  bottom: "conv6_1"
  top: "pool6"
  pooling_param {
    pool: MAX
    kernel_size: 2
    stride: 2
  }
}
layer {
  name: "LFCN_4_3x5"
  type: "Convolution"
  bottom: "pool6"
  top: "LFCN_4_3x5"
  param {
    lr_mult: 1
    decay_mult: 1
  }
  param {
    lr_mult: 2
    decay_mult: 0
  }
  convolution_param {
    num_output: 7
    weight_filler {
      type: "gaussian"
      std: 0.001
    }
    bias_filler {
      type: "constant"
    }
    pad_h: 2
    pad_w: 1
    kernel_h: 5
    kernel_w: 3
  }
}
layer {
  name: "detection_loss_4_3x5"
  type: "DetectionLoss"
  bottom: "LFCN_4_3x5"
  bottom: "label_4_3x5"
  top: "loss_4_3x5"
  detection_loss_param {
    cls_num: 3
    coord_num: 4
    lambda: 1
    field_h: 480
    field_w: 320
    downsample_rate: 64
    bb_smooth: true
    field_whr: 2
    field_xyr: 2
    bg_threshold: 0.2
    bg_multiple: 2
    sample_mode: "bootstrap"
    pos_neg_weighted: true
  }
}
layer {
  name: "detection_accuracy_4_3x5"
  type: "DetectionAccuracy"
  bottom: "LFCN_4_3x5"
  bottom: "label_4_3x5"
  top: "accuracy_4_3x5"
  top: "boxiou_4_3x5"
  detection_accuracy_param {
    cls_num: 3
    coord_num: 4
    field_h: 480
    field_w: 320
    downsample_rate: 64
    field_whr: 2
    field_xyr: 2
  }
}
layer {
  name: "proposals"
  type: "BoxOutput"
  bottom: "LFCN_1_3x5"
  bottom: "LFCN_1_5x7"
  bottom: "LFCN_2_3x5"
  bottom: "LFCN_2_5x7"
  bottom: "LFCN_3_3x5"
  bottom: "LFCN_3_5x7"
  bottom: "LFCN_4_3x5"
  top: "proposals"
  propagate_down: false
  propagate_down: false
  propagate_down: false
  propagate_down: false
  propagate_down: false
  propagate_down: false
  propagate_down: false
  box_output_param {
    fg_thr: -15
    iou_thr: 0.65
    nms_type: "IOU"
    field_h: 60
    field_h: 84
    field_h: 120
    field_h: 168
    field_h: 240
    field_h: 336
    field_h: 480
    field_w: 40
    field_w: 56
    field_w: 80
    field_w: 112
    field_w: 160
    field_w: 224
    field_w: 320
    downsample_rate: 8
    downsample_rate: 8
    downsample_rate: 16
    downsample_rate: 16
    downsample_rate: 32
    downsample_rate: 32
    downsample_rate: 64
    field_whr: 2
    field_xyr: 2
    max_nms_num: 3000
  }
}
layer {
  name: "proposal_info"
  type: "ProposalTarget"
  bottom: "proposals"
  bottom: "gt_boxes"
  top: "rois"
  top: "proposal_labels"
  top: "proposal_targets"
  top: "box_inside_weights"
  top: "box_outside_weights"
  top: "match_gt_boxes"
  include {
    phase: TRAIN
  }
  propagate_down: false
  propagate_down: false
  proposal_target_param {
    cls_num: 3
    batch_size: 128
    fg_fraction: 0.25
    num_img_per_batch: 4
    fg_thr: 0.5
    bg_thr_hg: 0.45
    bg_thr_lw: 0.05
    img_width: 768
    img_height: 576
  }
  bbox_reg_param {
    bbox_mean: 0
    bbox_mean: 0
    bbox_mean: 0
    bbox_mean: 0
    bbox_std: 0.1
    bbox_std: 0.1
    bbox_std: 0.2
    bbox_std: 0.2
  }
}
layer {
  name: "conv4_3_2x"
  type: "Deconvolution"
  bottom: "conv4_3"
  top: "conv4_3_2x"
  param {
    lr_mult: 0
    decay_mult: 0
  }
  convolution_param {
    num_output: 512
    bias_term: false
    pad: 1
    kernel_size: 4
    group: 512
    stride: 2
    weight_filler {
      type: "bilinear"
    }
  }
}
layer {
  name: "roi_pool_org"
  type: "ROIPooling"
  bottom: "conv4_3_2x"
  bottom: "rois"
  top: "roi_pool_org"
  roi_pooling_param {
    pooled_h: 7
    pooled_w: 5
    spatial_scale: 0.25
    pad_ratio: 0
  }
}
layer {
  name: "roi_pool_ctx"
  type: "ROIPooling"
  bottom: "conv4_3_2x"
  bottom: "rois"
  top: "roi_pool_ctx"
  roi_pooling_param {
    pooled_h: 7
    pooled_w: 5
    spatial_scale: 0.25
    pad_ratio: 0.25
  }
}
layer {
  name: "roi_pool"
  type: "Concat"
  bottom: "roi_pool_org"
  bottom: "roi_pool_ctx"
  top: "roi_pool"
}
layer {
  name: "roi_c1"
  type: "Convolution"
  bottom: "roi_pool"
  top: "roi_c1"
  param {
    lr_mult: 1
    decay_mult: 1
  }
  param {
    lr_mult: 2
    decay_mult: 0
  }
  convolution_param {
    num_output: 512
    kernel_size: 3
    weight_filler {
      type: "gaussian"
      std: 0.01
    }
    bias_filler {
      type: "constant"
    }
  }
}
layer {
  name: "roi_c1_relu"
  type: "ReLU"
  bottom: "roi_c1"
  top: "roi_c1"
}
layer {
  name: "fc6"
  type: "InnerProduct"
  bottom: "roi_c1"
  top: "fc6"
  param {
    lr_mult: 1
  }
  param {
    lr_mult: 2
  }
  inner_product_param {
    num_output: 2048
    weight_filler {
      type: "gaussian"
      std: 0.001
    }
    bias_filler {
      type: "constant"
      value: 0
    }
  }
}
layer {
  name: "relu6"
  type: "ReLU"
  bottom: "fc6"
  top: "fc6"
}
layer {
  name: "drop6"
  type: "Dropout"
  bottom: "fc6"
  top: "fc6"
  dropout_param {
    dropout_ratio: 0.5
  }
}
layer {
  name: "cls_pred"
  type: "InnerProduct"
  bottom: "fc6"
  top: "cls_pred"
  param {
    lr_mult: 1
  }
  param {
    lr_mult: 2
  }
  inner_product_param {
    num_output: 3
    weight_filler {
      type: "gaussian"
      std: 0.01
    }
    bias_filler {
      type: "constant"
      value: 0
    }
  }
}
layer {
  name: "bbox_pred"
  type: "InnerProduct"
  bottom: "fc6"
  top: "bbox_pred"
  param {
    lr_mult: 1
  }
  param {
    lr_mult: 2
  }
  inner_product_param {
    num_output: 12
    weight_filler {
      type: "gaussian"
      std: 0.001
    }
    bias_filler {
      type: "constant"
      value: 0
    }
  }
}
layer {
  name: "loss_cls"
  type: "SoftmaxWithLoss"
  bottom: "cls_pred"
  bottom: "proposal_labels"
  top: "loss_cls"
  loss_weight: 1
  propagate_down: true
  propagate_down: false
}
layer {
  name: "cls_accuracy"
  type: "Accuracy"
  bottom: "cls_pred"
  bottom: "proposal_labels"
  top: "cls_accuracy"
}
layer {
  name: "loss_bbox"
  type: "SmoothL1Loss"
  bottom: "bbox_pred"
  bottom: "proposal_targets"
  bottom: "box_inside_weights"
  bottom: "box_outside_weights"
  top: "loss_bbox"
  loss_weight: 1
}
layer {
  name: "bbox_iou"
  type: "BboxAccuracy"
  bottom: "bbox_pred"
  bottom: "rois"
  bottom: "match_gt_boxes"
  top: "bbox_iou"
  top: "bbox_iou_pre"
  bbox_reg_param {
    bbox_mean: 0
    bbox_mean: 0
    bbox_mean: 0
    bbox_mean: 0
    bbox_std: 0.1
    bbox_std: 0.1
    bbox_std: 0.2
    bbox_std: 0.2
  }
}
I0701 13:51:03.012800  2899 layer_factory.hpp:77] Creating layer data
I0701 13:51:03.012821  2899 net.cpp:100] Creating Layer data
I0701 13:51:03.012830  2899 net.cpp:408] data -> data
…
I0701 13:51:03.033743  2899 image_gt_data_layer.cpp:241] output label size 3 : 4,6,36,48
I0701 13:51:03.033777  2899 image_gt_data_layer.cpp:241] output label size 4 : 4,6,18,24
I0701 13:51:03.033816  2899 image_gt_data_layer.cpp:241] output label size 5 : 4,6,18,24
I0701 13:51:03.033852  2899 image_gt_data_layer.cpp:241] output label size 6 : 4,6,9,12
I0701 13:51:03.033885  2899 image_gt_data_layer.cpp:256] output gt boxes size: 1,7,1,1
I0701 13:51:03.033888  2899 image_gt_data_layer.cpp:265]  --> has_mean_values_ = 1
I0701 13:51:03.069245  2899 net.cpp:150] Setting up data
I0701 13:51:03.069265  2899 net.cpp:157] Top shape: 4 4 576 768 (7077888)
I0701 13:51:03.069270  2899 net.cpp:157] Top shape: 4 6 72 96 (165888)
I0701 13:51:03.069274  2899 net.cpp:157] Top shape: 4 6 72 96 (165888)
I0701 13:51:03.069278  2899 net.cpp:157] Top shape: 4 6 36 48 (41472)
I0701 13:51:03.069281  2899 net.cpp:157] Top shape: 4 6 36 48 (41472)
I0701 13:51:03.069284  2899 net.cpp:157] Top shape: 4 6 18 24 (10368)
I0701 13:51:03.069288  2899 net.cpp:157] Top shape: 4 6 18 24 (10368)
I0701 13:51:03.069291  2899 net.cpp:157] Top shape: 4 6 9 12 (2592)
I0701 13:51:03.069296  2899 net.cpp:157] Top shape: 1 7 1 1 (7)
I0701 13:51:03.069298  2899 net.cpp:165] Memory required for data: 30063772
I0701 13:51:03.069305  2899 layer_factory.hpp:77] Creating layer label_1_3x5_data_1_split
I0701 13:51:03.069316  2899 net.cpp:100] Creating Layer label_1_3x5_data_1_split
I0701 13:51:03.069324  2899 net.cpp:434] label_1_3x5_data_1_split <- label_1_3x5
I0701 13:51:03.069336  2899 net.cpp:408] label_1_3x5_data_1_split -> label_1_3x5_data_1_split_0
I0701 13:51:03.069344  2899 net.cpp:408] label_1_3x5_data_1_split -> label_1_3x5_data_1_split_1
I0701 13:51:03.069386  2899 net.cpp:150] Setting up label_1_3x5_data_1_split
I0701 13:51:03.069392  2899 net.cpp:157] Top shape: 4 6 72 96 (165888)
I0701 13:51:03.069396  2899 net.cpp:157] Top shape: 4 6 72 96 (165888)
I0701 13:51:03.069398  2899 net.cpp:165] Memory required for data: 31390876
I0701 13:51:03.069401  2899 layer_factory.hpp:77] Creating layer label_1_5x7_data_2_split
I0701 13:51:03.069407  2899 net.cpp:100] Creating Layer label_1_5x7_data_2_split
I0701 13:51:03.069411  2899 net.cpp:434] label_1_5x7_data_2_split <- label_1_5x7
I0701 13:51:03.069417  2899 net.cpp:408] label_1_5x7_data_2_split -> label_1_5x7_data_2_split_0
I0701 13:51:03.069424  2899 net.cpp:408] label_1_5x7_data_2_split -> label_1_5x7_data_2_split_1
I0701 13:51:03.069454  2899 net.cpp:150] Setting up label_1_5x7_data_2_split
I0701 13:51:03.069460  2899 net.cpp:157] Top shape: 4 6 72 96 (165888)
I0701 13:51:03.069463  2899 net.cpp:157] Top shape: 4 6 72 96 (165888)
I0701 13:51:03.069466  2899 net.cpp:165] Memory required for data: 32717980
I0701 13:51:03.069469  2899 layer_factory.hpp:77] Creating layer label_2_3x5_data_3_split
I0701 13:51:03.069474  2899 net.cpp:100] Creating Layer label_2_3x5_data_3_split
I0701 13:51:03.069478  2899 net.cpp:434] label_2_3x5_data_3_split <- label_2_3x5
I0701 13:51:03.069483  2899 net.cpp:408] label_2_3x5_data_3_split -> label_2_3x5_data_3_split_0
I0701 13:51:03.069489  2899 net.cpp:408] label_2_3x5_data_3_split -> label_2_3x5_data_3_split_1
I0701 13:51:03.069521  2899 net.cpp:150] Setting up label_2_3x5_data_3_split
I0701 13:51:03.069526  2899 net.cpp:157] Top shape: 4 6 36 48 (41472)
I0701 13:51:03.069530  2899 net.cpp:157] Top shape: 4 6 36 48 (41472)
I0701 13:51:03.069532  2899 net.cpp:165] Memory required for data: 33049756
I0701 13:51:03.069535  2899 layer_factory.hpp:77] Creating layer label_2_5x7_data_4_split
I0701 13:51:03.069542  2899 net.cpp:100] Creating Layer label_2_5x7_data_4_split
I0701 13:51:03.069545  2899 net.cpp:434] label_2_5x7_data_4_split <- label_2_5x7
I0701 13:51:03.069551  2899 net.cpp:408] label_2_5x7_data_4_split -> label_2_5x7_data_4_split_0
I0701 13:51:03.069556  2899 net.cpp:408] label_2_5x7_data_4_split -> label_2_5x7_data_4_split_1
I0701 13:51:03.069589  2899 net.cpp:150] Setting up label_2_5x7_data_4_split
I0701 13:51:03.069594  2899 net.cpp:157] Top shape: 4 6 36 48 (41472)
I0701 13:51:03.069599  2899 net.cpp:157] Top shape: 4 6 36 48 (41472)
I0701 13:51:03.069602  2899 net.cpp:165] Memory required for data: 33381532
I0701 13:51:03.069604  2899 layer_factory.hpp:77] Creating layer label_3_3x5_data_5_split
I0701 13:51:03.069610  2899 net.cpp:100] Creating Layer label_3_3x5_data_5_split
I0701 13:51:03.069613  2899 net.cpp:434] label_3_3x5_data_5_split <- label_3_3x5
I0701 13:51:03.069618  2899 net.cpp:408] label_3_3x5_data_5_split -> label_3_3x5_data_5_split_0
I0701 13:51:03.069624  2899 net.cpp:408] label_3_3x5_data_5_split -> label_3_3x5_data_5_split_1
I0701 13:51:03.069653  2899 net.cpp:150] Setting up label_3_3x5_data_5_split
I0701 13:51:03.069658  2899 net.cpp:157] Top shape: 4 6 18 24 (10368)
I0701 13:51:03.069660  2899 net.cpp:157] Top shape: 4 6 18 24 (10368)
I0701 13:51:03.069664  2899 net.cpp:165] Memory required for data: 33464476
I0701 13:51:03.069666  2899 layer_factory.hpp:77] Creating layer label_3_5x7_data_6_split
I0701 13:51:03.069670  2899 net.cpp:100] Creating Layer label_3_5x7_data_6_split
I0701 13:51:03.069674  2899 net.cpp:434] label_3_5x7_data_6_split <- label_3_5x7
I0701 13:51:03.069679  2899 net.cpp:408] label_3_5x7_data_6_split -> label_3_5x7_data_6_split_0
I0701 13:51:03.069686  2899 net.cpp:408] label_3_5x7_data_6_split -> label_3_5x7_data_6_split_1
I0701 13:51:03.069713  2899 net.cpp:150] Setting up label_3_5x7_data_6_split
I0701 13:51:03.069718  2899 net.cpp:157] Top shape: 4 6 18 24 (10368)
I0701 13:51:03.069722  2899 net.cpp:157] Top shape: 4 6 18 24 (10368)
I0701 13:51:03.069725  2899 net.cpp:165] Memory required for data: 33547420
I0701 13:51:03.069727  2899 layer_factory.hpp:77] Creating layer label_4_3x5_data_7_split
I0701 13:51:03.069734  2899 net.cpp:100] Creating Layer label_4_3x5_data_7_split
I0701 13:51:03.069737  2899 net.cpp:434] label_4_3x5_data_7_split <- label_4_3x5
I0701 13:51:03.069742  2899 net.cpp:408] label_4_3x5_data_7_split -> label_4_3x5_data_7_split_0
I0701 13:51:03.069748  2899 net.cpp:408] label_4_3x5_data_7_split -> label_4_3x5_data_7_split_1
I0701 13:51:03.069775  2899 net.cpp:150] Setting up label_4_3x5_data_7_split
I0701 13:51:03.069779  2899 net.cpp:157] Top shape: 4 6 9 12 (2592)
I0701 13:51:03.069783  2899 net.cpp:157] Top shape: 4 6 9 12 (2592)
I0701 13:51:03.069787  2899 net.cpp:165] Memory required for data: 33568156
I0701 13:51:03.069788  2899 layer_factory.hpp:77] Creating layer conv1_1
I0701 13:51:03.069802  2899 net.cpp:100] Creating Layer conv1_1
I0701 13:51:03.069806  2899 net.cpp:434] conv1_1 <- data
I0701 13:51:03.069811  2899 net.cpp:408] conv1_1 -> conv1_1
I0701 13:51:03.625931  2899 net.cpp:150] Setting up conv1_1
I0701 13:51:03.625952  2899 net.cpp:157] Top shape: 4 64 576 768 (113246208)
I0701 13:51:03.625954  2899 net.cpp:165] Memory required for data: 486552988
I0701 13:51:03.625970  2899 layer_factory.hpp:77] Creating layer relu1_1
I0701 13:51:03.625979  2899 net.cpp:100] Creating Layer relu1_1
I0701 13:51:03.625982  2899 net.cpp:434] relu1_1 <- conv1_1
I0701 13:51:03.625986  2899 net.cpp:395] relu1_1 -> conv1_1 (in-place)
I0701 13:51:03.626286  2899 net.cpp:150] Setting up relu1_1
I0701 13:51:03.626294  2899 net.cpp:157] Top shape: 4 64 576 768 (113246208)
I0701 13:51:03.626296  2899 net.cpp:165] Memory required for data: 939537820
I0701 13:51:03.626299  2899 layer_factory.hpp:77] Creating layer conv1_2
I0701 13:51:03.626307  2899 net.cpp:100] Creating Layer conv1_2
I0701 13:51:03.626309  2899 net.cpp:434] conv1_2 <- conv1_1
I0701 13:51:03.626312  2899 net.cpp:408] conv1_2 -> conv1_2
I0701 13:51:03.629237  2899 net.cpp:150] Setting up conv1_2
I0701 13:51:03.629259  2899 net.cpp:157] Top shape: 4 64 576 768 (113246208)
I0701 13:51:03.629262  2899 net.cpp:165] Memory required for data: 1392522652
I0701 13:51:03.629276  2899 layer_factory.hpp:77] Creating layer relu1_2
I0701 13:51:03.629288  2899 net.cpp:100] Creating Layer relu1_2
I0701 13:51:03.629293  2899 net.cpp:434] relu1_2 <- conv1_2
I0701 13:51:03.629302  2899 net.cpp:395] relu1_2 -> conv1_2 (in-place)
I0701 13:51:03.629609  2899 net.cpp:150] Setting up relu1_2
I0701 13:51:03.629616  2899 net.cpp:157] Top shape: 4 64 576 768 (113246208)
I0701 13:51:03.629618  2899 net.cpp:165] Memory required for data: 1845507484
I0701 13:51:03.629621  2899 layer_factory.hpp:77] Creating layer pool1
I0701 13:51:03.629626  2899 net.cpp:100] Creating Layer pool1
I0701 13:51:03.629628  2899 net.cpp:434] pool1 <- conv1_2
I0701 13:51:03.629632  2899 net.cpp:408] pool1 -> pool1
I0701 13:51:03.629681  2899 net.cpp:150] Setting up pool1
I0701 13:51:03.629686  2899 net.cpp:157] Top shape: 4 64 288 384 (28311552)
I0701 13:51:03.629688  2899 net.cpp:165] Memory required for data: 1958753692
I0701 13:51:03.629690  2899 layer_factory.hpp:77] Creating layer conv2_1
I0701 13:51:03.629703  2899 net.cpp:100] Creating Layer conv2_1
I0701 13:51:03.629705  2899 net.cpp:434] conv2_1 <- pool1
I0701 13:51:03.629709  2899 net.cpp:408] conv2_1 -> conv2_1
I0701 13:51:03.632259  2899 net.cpp:150] Setting up conv2_1
I0701 13:51:03.632279  2899 net.cpp:157] Top shape: 4 128 288 384 (56623104)
I0701 13:51:03.632282  2899 net.cpp:165] Memory required for data: 2185246108
I0701 13:51:03.632292  2899 layer_factory.hpp:77] Creating layer relu2_1
I0701 13:51:03.632299  2899 net.cpp:100] Creating Layer relu2_1
I0701 13:51:03.632302  2899 net.cpp:434] relu2_1 <- conv2_1
I0701 13:51:03.632309  2899 net.cpp:395] relu2_1 -> conv2_1 (in-place)
I0701 13:51:03.632977  2899 net.cpp:150] Setting up relu2_1
I0701 13:51:03.632987  2899 net.cpp:157] Top shape: 4 128 288 384 (56623104)
I0701 13:51:03.632989  2899 net.cpp:165] Memory required for data: 2411738524
I0701 13:51:03.632992  2899 layer_factory.hpp:77] Creating layer conv2_2
I0701 13:51:03.633000  2899 net.cpp:100] Creating Layer conv2_2
I0701 13:51:03.633002  2899 net.cpp:434] conv2_2 <- conv2_1
I0701 13:51:03.633008  2899 net.cpp:408] conv2_2 -> conv2_2
I0701 13:51:03.634796  2899 net.cpp:150] Setting up conv2_2
I0701 13:51:03.634811  2899 net.cpp:157] Top shape: 4 128 288 384 (56623104)
I0701 13:51:03.634814  2899 net.cpp:165] Memory required for data: 2638230940
I0701 13:51:03.634820  2899 layer_factory.hpp:77] Creating layer relu2_2
I0701 13:51:03.634829  2899 net.cpp:100] Creating Layer relu2_2
I0701 13:51:03.634832  2899 net.cpp:434] relu2_2 <- conv2_2
I0701 13:51:03.634836  2899 net.cpp:395] relu2_2 -> conv2_2 (in-place)
I0701 13:51:03.636116  2899 net.cpp:150] Setting up relu2_2
I0701 13:51:03.636126  2899 net.cpp:157] Top shape: 4 128 288 384 (56623104)
I0701 13:51:03.636128  2899 net.cpp:165] Memory required for data: 2864723356
I0701 13:51:03.636132  2899 layer_factory.hpp:77] Creating layer pool2
I0701 13:51:03.636137  2899 net.cpp:100] Creating Layer pool2
I0701 13:51:03.636140  2899 net.cpp:434] pool2 <- conv2_2
I0701 13:51:03.636144  2899 net.cpp:408] pool2 -> pool2
I0701 13:51:03.636190  2899 net.cpp:150] Setting up pool2
I0701 13:51:03.636195  2899 net.cpp:157] Top shape: 4 128 144 192 (14155776)
I0701 13:51:03.636196  2899 net.cpp:165] Memory required for data: 2921346460
I0701 13:51:03.636199  2899 layer_factory.hpp:77] Creating layer conv3_1
I0701 13:51:03.636207  2899 net.cpp:100] Creating Layer conv3_1
I0701 13:51:03.636212  2899 net.cpp:434] conv3_1 <- pool2
I0701 13:51:03.636219  2899 net.cpp:408] conv3_1 -> conv3_1
I0701 13:51:03.638945  2899 net.cpp:150] Setting up conv3_1
I0701 13:51:03.638962  2899 net.cpp:157] Top shape: 4 256 144 192 (28311552)
I0701 13:51:03.638965  2899 net.cpp:165] Memory required for data: 3034592668
I0701 13:51:03.638976  2899 layer_factory.hpp:77] Creating layer relu3_1
I0701 13:51:03.638983  2899 net.cpp:100] Creating Layer relu3_1
I0701 13:51:03.638986  2899 net.cpp:434] relu3_1 <- conv3_1
I0701 13:51:03.638991  2899 net.cpp:395] relu3_1 -> conv3_1 (in-place)
I0701 13:51:03.639259  2899 net.cpp:150] Setting up relu3_1
I0701 13:51:03.639269  2899 net.cpp:157] Top shape: 4 256 144 192 (28311552)
I0701 13:51:03.639273  2899 net.cpp:165] Memory required for data: 3147838876
I0701 13:51:03.639276  2899 layer_factory.hpp:77] Creating layer conv3_2
I0701 13:51:03.639284  2899 net.cpp:100] Creating Layer conv3_2
I0701 13:51:03.639289  2899 net.cpp:434] conv3_2 <- conv3_1
I0701 13:51:03.639297  2899 net.cpp:408] conv3_2 -> conv3_2
I0701 13:51:03.642645  2899 net.cpp:150] Setting up conv3_2
I0701 13:51:03.642665  2899 net.cpp:157] Top shape: 4 256 144 192 (28311552)
I0701 13:51:03.642668  2899 net.cpp:165] Memory required for data: 3261085084
I0701 13:51:03.642678  2899 layer_factory.hpp:77] Creating layer relu3_2
I0701 13:51:03.642688  2899 net.cpp:100] Creating Layer relu3_2
I0701 13:51:03.642691  2899 net.cpp:434] relu3_2 <- conv3_2
I0701 13:51:03.642700  2899 net.cpp:395] relu3_2 -> conv3_2 (in-place)
I0701 13:51:03.642961  2899 net.cpp:150] Setting up relu3_2
I0701 13:51:03.642968  2899 net.cpp:157] Top shape: 4 256 144 192 (28311552)
I0701 13:51:03.642971  2899 net.cpp:165] Memory required for data: 3374331292
I0701 13:51:03.642974  2899 layer_factory.hpp:77] Creating layer conv3_3
I0701 13:51:03.642983  2899 net.cpp:100] Creating Layer conv3_3
I0701 13:51:03.642987  2899 net.cpp:434] conv3_3 <- conv3_2
I0701 13:51:03.642994  2899 net.cpp:408] conv3_3 -> conv3_3
I0701 13:51:03.646013  2899 net.cpp:150] Setting up conv3_3
I0701 13:51:03.646031  2899 net.cpp:157] Top shape: 4 256 144 192 (28311552)
I0701 13:51:03.646034  2899 net.cpp:165] Memory required for data: 3487577500
I0701 13:51:03.646044  2899 layer_factory.hpp:77] Creating layer relu3_3
I0701 13:51:03.646052  2899 net.cpp:100] Creating Layer relu3_3
I0701 13:51:03.646056  2899 net.cpp:434] relu3_3 <- conv3_3
I0701 13:51:03.646066  2899 net.cpp:395] relu3_3 -> conv3_3 (in-place)
I0701 13:51:03.646714  2899 net.cpp:150] Setting up relu3_3
I0701 13:51:03.646725  2899 net.cpp:157] Top shape: 4 256 144 192 (28311552)
I0701 13:51:03.646728  2899 net.cpp:165] Memory required for data: 3600823708
I0701 13:51:03.646733  2899 layer_factory.hpp:77] Creating layer pool3
I0701 13:51:03.646739  2899 net.cpp:100] Creating Layer pool3
I0701 13:51:03.646744  2899 net.cpp:434] pool3 <- conv3_3
I0701 13:51:03.646750  2899 net.cpp:408] pool3 -> pool3
I0701 13:51:03.646800  2899 net.cpp:150] Setting up pool3
I0701 13:51:03.646809  2899 net.cpp:157] Top shape: 4 256 72 96 (7077888)
I0701 13:51:03.646812  2899 net.cpp:165] Memory required for data: 3629135260
I0701 13:51:03.646816  2899 layer_factory.hpp:77] Creating layer conv4_1
I0701 13:51:03.646823  2899 net.cpp:100] Creating Layer conv4_1
I0701 13:51:03.646827  2899 net.cpp:434] conv4_1 <- pool3
I0701 13:51:03.646833  2899 net.cpp:408] conv4_1 -> conv4_1
I0701 13:51:03.651602  2899 net.cpp:150] Setting up conv4_1
I0701 13:51:03.651625  2899 net.cpp:157] Top shape: 4 512 72 96 (14155776)
I0701 13:51:03.651628  2899 net.cpp:165] Memory required for data: 3685758364
I0701 13:51:03.651638  2899 layer_factory.hpp:77] Creating layer relu4_1
I0701 13:51:03.651645  2899 net.cpp:100] Creating Layer relu4_1
I0701 13:51:03.651650  2899 net.cpp:434] relu4_1 <- conv4_1
I0701 13:51:03.651659  2899 net.cpp:395] relu4_1 -> conv4_1 (in-place)
I0701 13:51:03.651922  2899 net.cpp:150] Setting up relu4_1
I0701 13:51:03.651932  2899 net.cpp:157] Top shape: 4 512 72 96 (14155776)
I0701 13:51:03.651934  2899 net.cpp:165] Memory required for data: 3742381468
I0701 13:51:03.651937  2899 layer_factory.hpp:77] Creating layer conv4_2
I0701 13:51:03.651947  2899 net.cpp:100] Creating Layer conv4_2
I0701 13:51:03.651952  2899 net.cpp:434] conv4_2 <- conv4_1
I0701 13:51:03.651957  2899 net.cpp:408] conv4_2 -> conv4_2
I0701 13:51:03.658026  2899 net.cpp:150] Setting up conv4_2
I0701 13:51:03.658046  2899 net.cpp:157] Top shape: 4 512 72 96 (14155776)
I0701 13:51:03.658048  2899 net.cpp:165] Memory required for data: 3799004572
I0701 13:51:03.658062  2899 layer_factory.hpp:77] Creating layer relu4_2
I0701 13:51:03.658072  2899 net.cpp:100] Creating Layer relu4_2
I0701 13:51:03.658077  2899 net.cpp:434] relu4_2 <- conv4_2
I0701 13:51:03.658087  2899 net.cpp:395] relu4_2 -> conv4_2 (in-place)
I0701 13:51:03.658349  2899 net.cpp:150] Setting up relu4_2
I0701 13:51:03.658357  2899 net.cpp:157] Top shape: 4 512 72 96 (14155776)
I0701 13:51:03.658360  2899 net.cpp:165] Memory required for data: 3855627676
I0701 13:51:03.658363  2899 layer_factory.hpp:77] Creating layer conv4_3
I0701 13:51:03.658372  2899 net.cpp:100] Creating Layer conv4_3
I0701 13:51:03.658377  2899 net.cpp:434] conv4_3 <- conv4_2
I0701 13:51:03.658385  2899 net.cpp:408] conv4_3 -> conv4_3
I0701 13:51:03.663786  2899 net.cpp:150] Setting up conv4_3
I0701 13:51:03.663810  2899 net.cpp:157] Top shape: 4 512 72 96 (14155776)
I0701 13:51:03.663812  2899 net.cpp:165] Memory required for data: 3912250780
I0701 13:51:03.663820  2899 layer_factory.hpp:77] Creating layer relu4_3
I0701 13:51:03.663830  2899 net.cpp:100] Creating Layer relu4_3
I0701 13:51:03.663836  2899 net.cpp:434] relu4_3 <- conv4_3
I0701 13:51:03.663841  2899 net.cpp:395] relu4_3 -> conv4_3 (in-place)
I0701 13:51:03.664527  2899 net.cpp:150] Setting up relu4_3
I0701 13:51:03.664539  2899 net.cpp:157] Top shape: 4 512 72 96 (14155776)
I0701 13:51:03.664542  2899 net.cpp:165] Memory required for data: 3968873884
I0701 13:51:03.664546  2899 layer_factory.hpp:77] Creating layer conv4_3_relu4_3_0_split
I0701 13:51:03.664553  2899 net.cpp:100] Creating Layer conv4_3_relu4_3_0_split
I0701 13:51:03.664558  2899 net.cpp:434] conv4_3_relu4_3_0_split <- conv4_3
I0701 13:51:03.664564  2899 net.cpp:408] conv4_3_relu4_3_0_split -> conv4_3_relu4_3_0_split_0
I0701 13:51:03.664574  2899 net.cpp:408] conv4_3_relu4_3_0_split -> conv4_3_relu4_3_0_split_1
I0701 13:51:03.664582  2899 net.cpp:408] conv4_3_relu4_3_0_split -> conv4_3_relu4_3_0_split_2
I0701 13:51:03.664633  2899 net.cpp:150] Setting up conv4_3_relu4_3_0_split
I0701 13:51:03.664639  2899 net.cpp:157] Top shape: 4 512 72 96 (14155776)
I0701 13:51:03.664644  2899 net.cpp:157] Top shape: 4 512 72 96 (14155776)
I0701 13:51:03.664647  2899 net.cpp:157] Top shape: 4 512 72 96 (14155776)
I0701 13:51:03.664649  2899 net.cpp:165] Memory required for data: 4138743196
I0701 13:51:03.664652  2899 layer_factory.hpp:77] Creating layer loss1_conv1
I0701 13:51:03.664666  2899 net.cpp:100] Creating Layer loss1_conv1
I0701 13:51:03.664670  2899 net.cpp:434] loss1_conv1 <- conv4_3_relu4_3_0_split_0
I0701 13:51:03.664676  2899 net.cpp:408] loss1_conv1 -> loss1_conv1
I0701 13:51:03.698753  2899 net.cpp:150] Setting up loss1_conv1
I0701 13:51:03.698772  2899 net.cpp:157] Top shape: 4 512 72 96 (14155776)
I0701 13:51:03.698776  2899 net.cpp:165] Memory required for data: 4195366300
I0701 13:51:03.698784  2899 layer_factory.hpp:77] Creating layer loss_relu1
I0701 13:51:03.698793  2899 net.cpp:100] Creating Layer loss_relu1
I0701 13:51:03.698798  2899 net.cpp:434] loss_relu1 <- loss1_conv1
I0701 13:51:03.698807  2899 net.cpp:395] loss_relu1 -> loss1_conv1 (in-place)
I0701 13:51:03.699053  2899 net.cpp:150] Setting up loss_relu1
I0701 13:51:03.699060  2899 net.cpp:157] Top shape: 4 512 72 96 (14155776)
I0701 13:51:03.699064  2899 net.cpp:165] Memory required for data: 4251989404
I0701 13:51:03.699066  2899 layer_factory.hpp:77] Creating layer loss1_conv1_loss_relu1_0_split
I0701 13:51:03.699074  2899 net.cpp:100] Creating Layer loss1_conv1_loss_relu1_0_split
I0701 13:51:03.699079  2899 net.cpp:434] loss1_conv1_loss_relu1_0_split <- loss1_conv1
I0701 13:51:03.699085  2899 net.cpp:408] loss1_conv1_loss_relu1_0_split -> loss1_conv1_loss_relu1_0_split_0
I0701 13:51:03.699093  2899 net.cpp:408] loss1_conv1_loss_relu1_0_split -> loss1_conv1_loss_relu1_0_split_1
I0701 13:51:03.699133  2899 net.cpp:150] Setting up loss1_conv1_loss_relu1_0_split
I0701 13:51:03.699141  2899 net.cpp:157] Top shape: 4 512 72 96 (14155776)
I0701 13:51:03.699144  2899 net.cpp:157] Top shape: 4 512 72 96 (14155776)
I0701 13:51:03.699146  2899 net.cpp:165] Memory required for data: 4365235612
I0701 13:51:03.699149  2899 layer_factory.hpp:77] Creating layer LFCN_1_3x5
I0701 13:51:03.699159  2899 net.cpp:100] Creating Layer LFCN_1_3x5
I0701 13:51:03.699163  2899 net.cpp:434] LFCN_1_3x5 <- loss1_conv1_loss_relu1_0_split_0
I0701 13:51:03.699169  2899 net.cpp:408] LFCN_1_3x5 -> LFCN_1_3x5
I0701 13:51:03.701351  2899 net.cpp:150] Setting up LFCN_1_3x5
I0701 13:51:03.701365  2899 net.cpp:157] Top shape: 4 7 72 96 (193536)
I0701 13:51:03.701369  2899 net.cpp:165] Memory required for data: 4366009756
I0701 13:51:03.701377  2899 layer_factory.hpp:77] Creating layer LFCN_1_3x5_LFCN_1_3x5_0_split
I0701 13:51:03.701385  2899 net.cpp:100] Creating Layer LFCN_1_3x5_LFCN_1_3x5_0_split
I0701 13:51:03.701390  2899 net.cpp:434] LFCN_1_3x5_LFCN_1_3x5_0_split <- LFCN_1_3x5
I0701 13:51:03.701396  2899 net.cpp:408] LFCN_1_3x5_LFCN_1_3x5_0_split -> LFCN_1_3x5_LFCN_1_3x5_0_split_0
I0701 13:51:03.701406  2899 net.cpp:408] LFCN_1_3x5_LFCN_1_3x5_0_split -> LFCN_1_3x5_LFCN_1_3x5_0_split_1
I0701 13:51:03.701412  2899 net.cpp:408] LFCN_1_3x5_LFCN_1_3x5_0_split -> LFCN_1_3x5_LFCN_1_3x5_0_split_2
I0701 13:51:03.701462  2899 net.cpp:150] Setting up LFCN_1_3x5_LFCN_1_3x5_0_split
I0701 13:51:03.701467  2899 net.cpp:157] Top shape: 4 7 72 96 (193536)
I0701 13:51:03.701472  2899 net.cpp:157] Top shape: 4 7 72 96 (193536)
I0701 13:51:03.701475  2899 net.cpp:157] Top shape: 4 7 72 96 (193536)
I0701 13:51:03.701478  2899 net.cpp:165] Memory required for data: 4368332188
I0701 13:51:03.701480  2899 layer_factory.hpp:77] Creating layer detection_loss_1_3x5
I0701 13:51:03.701489  2899 net.cpp:100] Creating Layer detection_loss_1_3x5
I0701 13:51:03.701493  2899 net.cpp:434] detection_loss_1_3x5 <- LFCN_1_3x5_LFCN_1_3x5_0_split_0
I0701 13:51:03.701498  2899 net.cpp:434] detection_loss_1_3x5 <- label_1_3x5_data_1_split_0
I0701 13:51:03.701503  2899 net.cpp:408] detection_loss_1_3x5 -> loss_1_3x5
I0701 13:51:03.701515  2899 layer_factory.hpp:77] Creating layer detection_loss_1_3x5
I0701 13:51:03.701997  2899 net.cpp:150] Setting up detection_loss_1_3x5
I0701 13:51:03.702006  2899 net.cpp:157] Top shape: 1 1 1 2 (2)
I0701 13:51:03.702008  2899 net.cpp:160]     with loss weight 0.5
I0701 13:51:03.702024  2899 net.cpp:165] Memory required for data: 4368332196
I0701 13:51:03.702028  2899 layer_factory.hpp:77] Creating layer detection_accuracy_1_3x5
I0701 13:51:03.702036  2899 net.cpp:100] Creating Layer detection_accuracy_1_3x5
I0701 13:51:03.702040  2899 net.cpp:434] detection_accuracy_1_3x5 <- LFCN_1_3x5_LFCN_1_3x5_0_split_1
I0701 13:51:03.702045  2899 net.cpp:434] detection_accuracy_1_3x5 <- label_1_3x5_data_1_split_1
I0701 13:51:03.702054  2899 net.cpp:408] detection_accuracy_1_3x5 -> accuracy_1_3x5
I0701 13:51:03.702064  2899 net.cpp:408] detection_accuracy_1_3x5 -> boxiou_1_3x5
I0701 13:51:03.702117  2899 net.cpp:150] Setting up detection_accuracy_1_3x5
I0701 13:51:03.702124  2899 net.cpp:157] Top shape: 1 1 1 2 (2)
I0701 13:51:03.702128  2899 net.cpp:157] Top shape: 1 1 1 1 (1)
I0701 13:51:03.702131  2899 net.cpp:165] Memory required for data: 4368332208
I0701 13:51:03.702134  2899 layer_factory.hpp:77] Creating layer LFCN_1_5x7
I0701 13:51:03.702145  2899 net.cpp:100] Creating Layer LFCN_1_5x7
I0701 13:51:03.702149  2899 net.cpp:434] LFCN_1_5x7 <- loss1_conv1_loss_relu1_0_split_1
I0701 13:51:03.702158  2899 net.cpp:408] LFCN_1_5x7 -> LFCN_1_5x7
I0701 13:51:03.704461  2899 net.cpp:150] Setting up LFCN_1_5x7
I0701 13:51:03.704474  2899 net.cpp:157] Top shape: 4 7 72 96 (193536)
I0701 13:51:03.704478  2899 net.cpp:165] Memory required for data: 4369106352
I0701 13:51:03.704485  2899 layer_factory.hpp:77] Creating layer LFCN_1_5x7_LFCN_1_5x7_0_split
I0701 13:51:03.704493  2899 net.cpp:100] Creating Layer LFCN_1_5x7_LFCN_1_5x7_0_split
I0701 13:51:03.704499  2899 net.cpp:434] LFCN_1_5x7_LFCN_1_5x7_0_split <- LFCN_1_5x7
I0701 13:51:03.704505  2899 net.cpp:408] LFCN_1_5x7_LFCN_1_5x7_0_split -> LFCN_1_5x7_LFCN_1_5x7_0_split_0
I0701 13:51:03.704514  2899 net.cpp:408] LFCN_1_5x7_LFCN_1_5x7_0_split -> LFCN_1_5x7_LFCN_1_5x7_0_split_1
I0701 13:51:03.704524  2899 net.cpp:408] LFCN_1_5x7_LFCN_1_5x7_0_split -> LFCN_1_5x7_LFCN_1_5x7_0_split_2
I0701 13:51:03.704572  2899 net.cpp:150] Setting up LFCN_1_5x7_LFCN_1_5x7_0_split
I0701 13:51:03.704577  2899 net.cpp:157] Top shape: 4 7 72 96 (193536)
I0701 13:51:03.704581  2899 net.cpp:157] Top shape: 4 7 72 96 (193536)
I0701 13:51:03.704586  2899 net.cpp:157] Top shape: 4 7 72 96 (193536)
I0701 13:51:03.704588  2899 net.cpp:165] Memory required for data: 4371428784
I0701 13:51:03.704591  2899 layer_factory.hpp:77] Creating layer detection_loss_1_5x7
I0701 13:51:03.704601  2899 net.cpp:100] Creating Layer detection_loss_1_5x7
I0701 13:51:03.704603  2899 net.cpp:434] detection_loss_1_5x7 <- LFCN_1_5x7_LFCN_1_5x7_0_split_0
I0701 13:51:03.704609  2899 net.cpp:434] detection_loss_1_5x7 <- label_1_5x7_data_2_split_0
I0701 13:51:03.704615  2899 net.cpp:408] detection_loss_1_5x7 -> loss_1_5x7
I0701 13:51:03.704624  2899 layer_factory.hpp:77] Creating layer detection_loss_1_5x7
I0701 13:51:03.705502  2899 net.cpp:150] Setting up detection_loss_1_5x7
I0701 13:51:03.705513  2899 net.cpp:157] Top shape: 1 1 1 2 (2)
I0701 13:51:03.705516  2899 net.cpp:160]     with loss weight 0.9
I0701 13:51:03.705528  2899 net.cpp:165] Memory required for data: 4371428792
I0701 13:51:03.705530  2899 layer_factory.hpp:77] Creating layer detection_accuracy_1_5x7
I0701 13:51:03.705540  2899 net.cpp:100] Creating Layer detection_accuracy_1_5x7
I0701 13:51:03.705545  2899 net.cpp:434] detection_accuracy_1_5x7 <- LFCN_1_5x7_LFCN_1_5x7_0_split_1
I0701 13:51:03.705551  2899 net.cpp:434] detection_accuracy_1_5x7 <- label_1_5x7_data_2_split_1
I0701 13:51:03.705559  2899 net.cpp:408] detection_accuracy_1_5x7 -> accuracy_1_5x7
I0701 13:51:03.705567  2899 net.cpp:408] detection_accuracy_1_5x7 -> boxiou_1_5x7
I0701 13:51:03.705608  2899 net.cpp:150] Setting up detection_accuracy_1_5x7
I0701 13:51:03.705613  2899 net.cpp:157] Top shape: 1 1 1 2 (2)
I0701 13:51:03.705617  2899 net.cpp:157] Top shape: 1 1 1 1 (1)
I0701 13:51:03.705621  2899 net.cpp:165] Memory required for data: 4371428804
I0701 13:51:03.705623  2899 layer_factory.hpp:77] Creating layer pool4
I0701 13:51:03.705629  2899 net.cpp:100] Creating Layer pool4
I0701 13:51:03.705632  2899 net.cpp:434] pool4 <- conv4_3_relu4_3_0_split_1
I0701 13:51:03.705641  2899 net.cpp:408] pool4 -> pool4
I0701 13:51:03.705674  2899 net.cpp:150] Setting up pool4
I0701 13:51:03.705679  2899 net.cpp:157] Top shape: 4 512 36 48 (3538944)
I0701 13:51:03.705682  2899 net.cpp:165] Memory required for data: 4385584580
I0701 13:51:03.705685  2899 layer_factory.hpp:77] Creating layer conv5_1
I0701 13:51:03.705695  2899 net.cpp:100] Creating Layer conv5_1
I0701 13:51:03.705698  2899 net.cpp:434] conv5_1 <- pool4
I0701 13:51:03.705703  2899 net.cpp:408] conv5_1 -> conv5_1
I0701 13:51:03.711508  2899 net.cpp:150] Setting up conv5_1
I0701 13:51:03.711529  2899 net.cpp:157] Top shape: 4 512 36 48 (3538944)
I0701 13:51:03.711532  2899 net.cpp:165] Memory required for data: 4399740356
I0701 13:51:03.711541  2899 layer_factory.hpp:77] Creating layer relu5_1
I0701 13:51:03.711549  2899 net.cpp:100] Creating Layer relu5_1
I0701 13:51:03.711555  2899 net.cpp:434] relu5_1 <- conv5_1
I0701 13:51:03.711561  2899 net.cpp:395] relu5_1 -> conv5_1 (in-place)
I0701 13:51:03.712229  2899 net.cpp:150] Setting up relu5_1
I0701 13:51:03.712239  2899 net.cpp:157] Top shape: 4 512 36 48 (3538944)
I0701 13:51:03.712242  2899 net.cpp:165] Memory required for data: 4413896132
I0701 13:51:03.712245  2899 layer_factory.hpp:77] Creating layer conv5_2
I0701 13:51:03.712255  2899 net.cpp:100] Creating Layer conv5_2
I0701 13:51:03.712260  2899 net.cpp:434] conv5_2 <- conv5_1
I0701 13:51:03.712268  2899 net.cpp:408] conv5_2 -> conv5_2
I0701 13:51:03.718014  2899 net.cpp:150] Setting up conv5_2
I0701 13:51:03.718034  2899 net.cpp:157] Top shape: 4 512 36 48 (3538944)
I0701 13:51:03.718036  2899 net.cpp:165] Memory required for data: 4428051908
I0701 13:51:03.718044  2899 layer_factory.hpp:77] Creating layer relu5_2
I0701 13:51:03.718053  2899 net.cpp:100] Creating Layer relu5_2
I0701 13:51:03.718058  2899 net.cpp:434] relu5_2 <- conv5_2
I0701 13:51:03.718065  2899 net.cpp:395] relu5_2 -> conv5_2 (in-place)
I0701 13:51:03.718322  2899 net.cpp:150] Setting up relu5_2
I0701 13:51:03.718333  2899 net.cpp:157] Top shape: 4 512 36 48 (3538944)
I0701 13:51:03.718335  2899 net.cpp:165] Memory required for data: 4442207684
I0701 13:51:03.718339  2899 layer_factory.hpp:77] Creating layer conv5_3
I0701 13:51:03.718348  2899 net.cpp:100] Creating Layer conv5_3
I0701 13:51:03.718351  2899 net.cpp:434] conv5_3 <- conv5_2
I0701 13:51:03.718358  2899 net.cpp:408] conv5_3 -> conv5_3
I0701 13:51:03.724182  2899 net.cpp:150] Setting up conv5_3
I0701 13:51:03.724206  2899 net.cpp:157] Top shape: 4 512 36 48 (3538944)
I0701 13:51:03.724210  2899 net.cpp:165] Memory required for data: 4456363460
I0701 13:51:03.724218  2899 layer_factory.hpp:77] Creating layer relu5_3
I0701 13:51:03.724231  2899 net.cpp:100] Creating Layer relu5_3
I0701 13:51:03.724236  2899 net.cpp:434] relu5_3 <- conv5_3
I0701 13:51:03.724243  2899 net.cpp:395] relu5_3 -> conv5_3 (in-place)
I0701 13:51:03.724521  2899 net.cpp:150] Setting up relu5_3
I0701 13:51:03.724530  2899 net.cpp:157] Top shape: 4 512 36 48 (3538944)
I0701 13:51:03.724534  2899 net.cpp:165] Memory required for data: 4470519236
I0701 13:51:03.724536  2899 layer_factory.hpp:77] Creating layer conv5_3_relu5_3_0_split
I0701 13:51:03.724544  2899 net.cpp:100] Creating Layer conv5_3_relu5_3_0_split
I0701 13:51:03.724548  2899 net.cpp:434] conv5_3_relu5_3_0_split <- conv5_3
I0701 13:51:03.724556  2899 net.cpp:408] conv5_3_relu5_3_0_split -> conv5_3_relu5_3_0_split_0
I0701 13:51:03.724565  2899 net.cpp:408] conv5_3_relu5_3_0_split -> conv5_3_relu5_3_0_split_1
I0701 13:51:03.724572  2899 net.cpp:408] conv5_3_relu5_3_0_split -> conv5_3_relu5_3_0_split_2
I0701 13:51:03.724640  2899 net.cpp:150] Setting up conv5_3_relu5_3_0_split
I0701 13:51:03.724647  2899 net.cpp:157] Top shape: 4 512 36 48 (3538944)
I0701 13:51:03.724649  2899 net.cpp:157] Top shape: 4 512 36 48 (3538944)
I0701 13:51:03.724653  2899 net.cpp:157] Top shape: 4 512 36 48 (3538944)
I0701 13:51:03.724656  2899 net.cpp:165] Memory required for data: 4512986564
I0701 13:51:03.724660  2899 layer_factory.hpp:77] Creating layer LFCN_2_3x5
I0701 13:51:03.724670  2899 net.cpp:100] Creating Layer LFCN_2_3x5
I0701 13:51:03.724674  2899 net.cpp:434] LFCN_2_3x5 <- conv5_3_relu5_3_0_split_0
I0701 13:51:03.724681  2899 net.cpp:408] LFCN_2_3x5 -> LFCN_2_3x5
I0701 13:51:03.726470  2899 net.cpp:150] Setting up LFCN_2_3x5
I0701 13:51:03.726483  2899 net.cpp:157] Top shape: 4 7 36 48 (48384)
I0701 13:51:03.726485  2899 net.cpp:165] Memory required for data: 4513180100
I0701 13:51:03.726497  2899 layer_factory.hpp:77] Creating layer LFCN_2_3x5_LFCN_2_3x5_0_split
I0701 13:51:03.726502  2899 net.cpp:100] Creating Layer LFCN_2_3x5_LFCN_2_3x5_0_split
I0701 13:51:03.726505  2899 net.cpp:434] LFCN_2_3x5_LFCN_2_3x5_0_split <- LFCN_2_3x5
I0701 13:51:03.726511  2899 net.cpp:408] LFCN_2_3x5_LFCN_2_3x5_0_split -> LFCN_2_3x5_LFCN_2_3x5_0_split_0
I0701 13:51:03.726529  2899 net.cpp:408] LFCN_2_3x5_LFCN_2_3x5_0_split -> LFCN_2_3x5_LFCN_2_3x5_0_split_1
I0701 13:51:03.726538  2899 net.cpp:408] LFCN_2_3x5_LFCN_2_3x5_0_split -> LFCN_2_3x5_LFCN_2_3x5_0_split_2
I0701 13:51:03.726588  2899 net.cpp:150] Setting up LFCN_2_3x5_LFCN_2_3x5_0_split
I0701 13:51:03.726594  2899 net.cpp:157] Top shape: 4 7 36 48 (48384)
I0701 13:51:03.726598  2899 net.cpp:157] Top shape: 4 7 36 48 (48384)
I0701 13:51:03.726601  2899 net.cpp:157] Top shape: 4 7 36 48 (48384)
I0701 13:51:03.726604  2899 net.cpp:165] Memory required for data: 4513760708
I0701 13:51:03.726608  2899 layer_factory.hpp:77] Creating layer detection_loss_2_3x5
I0701 13:51:03.726613  2899 net.cpp:100] Creating Layer detection_loss_2_3x5
I0701 13:51:03.726617  2899 net.cpp:434] detection_loss_2_3x5 <- LFCN_2_3x5_LFCN_2_3x5_0_split_0
I0701 13:51:03.726621  2899 net.cpp:434] detection_loss_2_3x5 <- label_2_3x5_data_3_split_0
I0701 13:51:03.726629  2899 net.cpp:408] detection_loss_2_3x5 -> loss_2_3x5
I0701 13:51:03.726635  2899 layer_factory.hpp:77] Creating layer detection_loss_2_3x5
I0701 13:51:03.727473  2899 net.cpp:150] Setting up detection_loss_2_3x5
I0701 13:51:03.727483  2899 net.cpp:157] Top shape: 1 1 1 2 (2)
I0701 13:51:03.727484  2899 net.cpp:160]     with loss weight 1
I0701 13:51:03.727490  2899 net.cpp:165] Memory required for data: 4513760716
I0701 13:51:03.727493  2899 layer_factory.hpp:77] Creating layer detection_accuracy_2_3x5
I0701 13:51:03.727497  2899 net.cpp:100] Creating Layer detection_accuracy_2_3x5
I0701 13:51:03.727500  2899 net.cpp:434] detection_accuracy_2_3x5 <- LFCN_2_3x5_LFCN_2_3x5_0_split_1
I0701 13:51:03.727504  2899 net.cpp:434] detection_accuracy_2_3x5 <- label_2_3x5_data_3_split_1
I0701 13:51:03.727510  2899 net.cpp:408] detection_accuracy_2_3x5 -> accuracy_2_3x5
I0701 13:51:03.727516  2899 net.cpp:408] detection_accuracy_2_3x5 -> boxiou_2_3x5
I0701 13:51:03.727552  2899 net.cpp:150] Setting up detection_accuracy_2_3x5
I0701 13:51:03.727557  2899 net.cpp:157] Top shape: 1 1 1 2 (2)
I0701 13:51:03.727560  2899 net.cpp:157] Top shape: 1 1 1 1 (1)
I0701 13:51:03.727561  2899 net.cpp:165] Memory required for data: 4513760728
I0701 13:51:03.727562  2899 layer_factory.hpp:77] Creating layer LFCN_2_5x7
I0701 13:51:03.727569  2899 net.cpp:100] Creating Layer LFCN_2_5x7
I0701 13:51:03.727572  2899 net.cpp:434] LFCN_2_5x7 <- conv5_3_relu5_3_0_split_1
I0701 13:51:03.727576  2899 net.cpp:408] LFCN_2_5x7 -> LFCN_2_5x7
I0701 13:51:03.730834  2899 net.cpp:150] Setting up LFCN_2_5x7
I0701 13:51:03.730849  2899 net.cpp:157] Top shape: 4 7 36 48 (48384)
I0701 13:51:03.730851  2899 net.cpp:165] Memory required for data: 4513954264
I0701 13:51:03.730859  2899 layer_factory.hpp:77] Creating layer LFCN_2_5x7_LFCN_2_5x7_0_split
I0701 13:51:03.730865  2899 net.cpp:100] Creating Layer LFCN_2_5x7_LFCN_2_5x7_0_split
I0701 13:51:03.730870  2899 net.cpp:434] LFCN_2_5x7_LFCN_2_5x7_0_split <- LFCN_2_5x7
I0701 13:51:03.730875  2899 net.cpp:408] LFCN_2_5x7_LFCN_2_5x7_0_split -> LFCN_2_5x7_LFCN_2_5x7_0_split_0
I0701 13:51:03.730883  2899 net.cpp:408] LFCN_2_5x7_LFCN_2_5x7_0_split -> LFCN_2_5x7_LFCN_2_5x7_0_split_1
I0701 13:51:03.730890  2899 net.cpp:408] LFCN_2_5x7_LFCN_2_5x7_0_split -> LFCN_2_5x7_LFCN_2_5x7_0_split_2
I0701 13:51:03.730942  2899 net.cpp:150] Setting up LFCN_2_5x7_LFCN_2_5x7_0_split
I0701 13:51:03.730945  2899 net.cpp:157] Top shape: 4 7 36 48 (48384)
I0701 13:51:03.730948  2899 net.cpp:157] Top shape: 4 7 36 48 (48384)
I0701 13:51:03.730952  2899 net.cpp:157] Top shape: 4 7 36 48 (48384)
I0701 13:51:03.730954  2899 net.cpp:165] Memory required for data: 4514534872
I0701 13:51:03.730957  2899 layer_factory.hpp:77] Creating layer detection_loss_2_5x7
I0701 13:51:03.730965  2899 net.cpp:100] Creating Layer detection_loss_2_5x7
I0701 13:51:03.730969  2899 net.cpp:434] detection_loss_2_5x7 <- LFCN_2_5x7_LFCN_2_5x7_0_split_0
I0701 13:51:03.730973  2899 net.cpp:434] detection_loss_2_5x7 <- label_2_5x7_data_4_split_0
I0701 13:51:03.730981  2899 net.cpp:408] detection_loss_2_5x7 -> loss_2_5x7
I0701 13:51:03.730989  2899 layer_factory.hpp:77] Creating layer detection_loss_2_5x7
I0701 13:51:03.731395  2899 net.cpp:150] Setting up detection_loss_2_5x7
I0701 13:51:03.731403  2899 net.cpp:157] Top shape: 1 1 1 2 (2)
I0701 13:51:03.731406  2899 net.cpp:160]     with loss weight 1
I0701 13:51:03.731415  2899 net.cpp:165] Memory required for data: 4514534880
I0701 13:51:03.731417  2899 layer_factory.hpp:77] Creating layer detection_accuracy_2_5x7
I0701 13:51:03.731425  2899 net.cpp:100] Creating Layer detection_accuracy_2_5x7
I0701 13:51:03.731429  2899 net.cpp:434] detection_accuracy_2_5x7 <- LFCN_2_5x7_LFCN_2_5x7_0_split_1
I0701 13:51:03.731436  2899 net.cpp:434] detection_accuracy_2_5x7 <- label_2_5x7_data_4_split_1
I0701 13:51:03.731441  2899 net.cpp:408] detection_accuracy_2_5x7 -> accuracy_2_5x7
I0701 13:51:03.731451  2899 net.cpp:408] detection_accuracy_2_5x7 -> boxiou_2_5x7
I0701 13:51:03.731490  2899 net.cpp:150] Setting up detection_accuracy_2_5x7
I0701 13:51:03.731495  2899 net.cpp:157] Top shape: 1 1 1 2 (2)
I0701 13:51:03.731498  2899 net.cpp:157] Top shape: 1 1 1 1 (1)
I0701 13:51:03.731500  2899 net.cpp:165] Memory required for data: 4514534892
I0701 13:51:03.731503  2899 layer_factory.hpp:77] Creating layer pool5
I0701 13:51:03.731511  2899 net.cpp:100] Creating Layer pool5
I0701 13:51:03.731515  2899 net.cpp:434] pool5 <- conv5_3_relu5_3_0_split_2
I0701 13:51:03.731520  2899 net.cpp:408] pool5 -> pool5
I0701 13:51:03.731556  2899 net.cpp:150] Setting up pool5
I0701 13:51:03.731561  2899 net.cpp:157] Top shape: 4 512 18 24 (884736)
I0701 13:51:03.731564  2899 net.cpp:165] Memory required for data: 4518073836
I0701 13:51:03.731567  2899 layer_factory.hpp:77] Creating layer conv6_1
I0701 13:51:03.731578  2899 net.cpp:100] Creating Layer conv6_1
I0701 13:51:03.731581  2899 net.cpp:434] conv6_1 <- pool5
I0701 13:51:03.731590  2899 net.cpp:408] conv6_1 -> conv6_1
I0701 13:51:03.752696  2899 net.cpp:150] Setting up conv6_1
I0701 13:51:03.752713  2899 net.cpp:157] Top shape: 4 512 18 24 (884736)
I0701 13:51:03.752717  2899 net.cpp:165] Memory required for data: 4521612780
I0701 13:51:03.752725  2899 layer_factory.hpp:77] Creating layer relu6_1
I0701 13:51:03.752735  2899 net.cpp:100] Creating Layer relu6_1
I0701 13:51:03.752743  2899 net.cpp:434] relu6_1 <- conv6_1
I0701 13:51:03.752749  2899 net.cpp:395] relu6_1 -> conv6_1 (in-place)
I0701 13:51:03.753021  2899 net.cpp:150] Setting up relu6_1
I0701 13:51:03.753031  2899 net.cpp:157] Top shape: 4 512 18 24 (884736)
I0701 13:51:03.753034  2899 net.cpp:165] Memory required for data: 4525151724
I0701 13:51:03.753037  2899 layer_factory.hpp:77] Creating layer conv6_1_relu6_1_0_split
I0701 13:51:03.753044  2899 net.cpp:100] Creating Layer conv6_1_relu6_1_0_split
I0701 13:51:03.753048  2899 net.cpp:434] conv6_1_relu6_1_0_split <- conv6_1
I0701 13:51:03.753054  2899 net.cpp:408] conv6_1_relu6_1_0_split -> conv6_1_relu6_1_0_split_0
I0701 13:51:03.753063  2899 net.cpp:408] conv6_1_relu6_1_0_split -> conv6_1_relu6_1_0_split_1
I0701 13:51:03.753070  2899 net.cpp:408] conv6_1_relu6_1_0_split -> conv6_1_relu6_1_0_split_2
I0701 13:51:03.753142  2899 net.cpp:150] Setting up conv6_1_relu6_1_0_split
I0701 13:51:03.753151  2899 net.cpp:157] Top shape: 4 512 18 24 (884736)
I0701 13:51:03.753155  2899 net.cpp:157] Top shape: 4 512 18 24 (884736)
I0701 13:51:03.753159  2899 net.cpp:157] Top shape: 4 512 18 24 (884736)
I0701 13:51:03.753162  2899 net.cpp:165] Memory required for data: 4535768556
I0701 13:51:03.753165  2899 layer_factory.hpp:77] Creating layer LFCN_3_3x5
I0701 13:51:03.753176  2899 net.cpp:100] Creating Layer LFCN_3_3x5
I0701 13:51:03.753180  2899 net.cpp:434] LFCN_3_3x5 <- conv6_1_relu6_1_0_split_0
I0701 13:51:03.753186  2899 net.cpp:408] LFCN_3_3x5 -> LFCN_3_3x5
I0701 13:51:03.756536  2899 net.cpp:150] Setting up LFCN_3_3x5
I0701 13:51:03.756553  2899 net.cpp:157] Top shape: 4 7 18 24 (12096)
I0701 13:51:03.756556  2899 net.cpp:165] Memory required for data: 4535816940
I0701 13:51:03.756567  2899 layer_factory.hpp:77] Creating layer LFCN_3_3x5_LFCN_3_3x5_0_split
I0701 13:51:03.756584  2899 net.cpp:100] Creating Layer LFCN_3_3x5_LFCN_3_3x5_0_split
I0701 13:51:03.756589  2899 net.cpp:434] LFCN_3_3x5_LFCN_3_3x5_0_split <- LFCN_3_3x5
I0701 13:51:03.756597  2899 net.cpp:408] LFCN_3_3x5_LFCN_3_3x5_0_split -> LFCN_3_3x5_LFCN_3_3x5_0_split_0
I0701 13:51:03.756606  2899 net.cpp:408] LFCN_3_3x5_LFCN_3_3x5_0_split -> LFCN_3_3x5_LFCN_3_3x5_0_split_1
I0701 13:51:03.756613  2899 net.cpp:408] LFCN_3_3x5_LFCN_3_3x5_0_split -> LFCN_3_3x5_LFCN_3_3x5_0_split_2
I0701 13:51:03.756665  2899 net.cpp:150] Setting up LFCN_3_3x5_LFCN_3_3x5_0_split
I0701 13:51:03.756670  2899 net.cpp:157] Top shape: 4 7 18 24 (12096)
I0701 13:51:03.756675  2899 net.cpp:157] Top shape: 4 7 18 24 (12096)
I0701 13:51:03.756677  2899 net.cpp:157] Top shape: 4 7 18 24 (12096)
I0701 13:51:03.756680  2899 net.cpp:165] Memory required for data: 4535962092
I0701 13:51:03.756683  2899 layer_factory.hpp:77] Creating layer detection_loss_3_3x5
I0701 13:51:03.756691  2899 net.cpp:100] Creating Layer detection_loss_3_3x5
I0701 13:51:03.756695  2899 net.cpp:434] detection_loss_3_3x5 <- LFCN_3_3x5_LFCN_3_3x5_0_split_0
I0701 13:51:03.756700  2899 net.cpp:434] detection_loss_3_3x5 <- label_3_3x5_data_5_split_0
I0701 13:51:03.756707  2899 net.cpp:408] detection_loss_3_3x5 -> loss_3_3x5
I0701 13:51:03.756717  2899 layer_factory.hpp:77] Creating layer detection_loss_3_3x5
I0701 13:51:03.757633  2899 net.cpp:150] Setting up detection_loss_3_3x5
I0701 13:51:03.757644  2899 net.cpp:157] Top shape: 1 1 1 2 (2)
I0701 13:51:03.757647  2899 net.cpp:160]     with loss weight 1
I0701 13:51:03.757655  2899 net.cpp:165] Memory required for data: 4535962100
I0701 13:51:03.757659  2899 layer_factory.hpp:77] Creating layer detection_accuracy_3_3x5
I0701 13:51:03.757668  2899 net.cpp:100] Creating Layer detection_accuracy_3_3x5
I0701 13:51:03.757673  2899 net.cpp:434] detection_accuracy_3_3x5 <- LFCN_3_3x5_LFCN_3_3x5_0_split_1
I0701 13:51:03.757679  2899 net.cpp:434] detection_accuracy_3_3x5 <- label_3_3x5_data_5_split_1
I0701 13:51:03.757686  2899 net.cpp:408] detection_accuracy_3_3x5 -> accuracy_3_3x5
I0701 13:51:03.757695  2899 net.cpp:408] detection_accuracy_3_3x5 -> boxiou_3_3x5
I0701 13:51:03.757737  2899 net.cpp:150] Setting up detection_accuracy_3_3x5
I0701 13:51:03.757742  2899 net.cpp:157] Top shape: 1 1 1 2 (2)
I0701 13:51:03.757745  2899 net.cpp:157] Top shape: 1 1 1 1 (1)
I0701 13:51:03.757748  2899 net.cpp:165] Memory required for data: 4535962112
I0701 13:51:03.757751  2899 layer_factory.hpp:77] Creating layer LFCN_3_5x7
I0701 13:51:03.757761  2899 net.cpp:100] Creating Layer LFCN_3_5x7
I0701 13:51:03.757766  2899 net.cpp:434] LFCN_3_5x7 <- conv6_1_relu6_1_0_split_1
I0701 13:51:03.757772  2899 net.cpp:408] LFCN_3_5x7 -> LFCN_3_5x7
I0701 13:51:03.760257  2899 net.cpp:150] Setting up LFCN_3_5x7
I0701 13:51:03.760274  2899 net.cpp:157] Top shape: 4 7 18 24 (12096)
I0701 13:51:03.760277  2899 net.cpp:165] Memory required for data: 4536010496
I0701 13:51:03.760284  2899 layer_factory.hpp:77] Creating layer LFCN_3_5x7_LFCN_3_5x7_0_split
I0701 13:51:03.760294  2899 net.cpp:100] Creating Layer LFCN_3_5x7_LFCN_3_5x7_0_split
I0701 13:51:03.760298  2899 net.cpp:434] LFCN_3_5x7_LFCN_3_5x7_0_split <- LFCN_3_5x7
I0701 13:51:03.760305  2899 net.cpp:408] LFCN_3_5x7_LFCN_3_5x7_0_split -> LFCN_3_5x7_LFCN_3_5x7_0_split_0
I0701 13:51:03.760313  2899 net.cpp:408] LFCN_3_5x7_LFCN_3_5x7_0_split -> LFCN_3_5x7_LFCN_3_5x7_0_split_1
I0701 13:51:03.760321  2899 net.cpp:408] LFCN_3_5x7_LFCN_3_5x7_0_split -> LFCN_3_5x7_LFCN_3_5x7_0_split_2
I0701 13:51:03.760390  2899 net.cpp:150] Setting up LFCN_3_5x7_LFCN_3_5x7_0_split
I0701 13:51:03.760396  2899 net.cpp:157] Top shape: 4 7 18 24 (12096)
I0701 13:51:03.760401  2899 net.cpp:157] Top shape: 4 7 18 24 (12096)
I0701 13:51:03.760406  2899 net.cpp:157] Top shape: 4 7 18 24 (12096)
I0701 13:51:03.760409  2899 net.cpp:165] Memory required for data: 4536155648
I0701 13:51:03.760412  2899 layer_factory.hpp:77] Creating layer detection_loss_3_5x7
I0701 13:51:03.760418  2899 net.cpp:100] Creating Layer detection_loss_3_5x7
I0701 13:51:03.760422  2899 net.cpp:434] detection_loss_3_5x7 <- LFCN_3_5x7_LFCN_3_5x7_0_split_0
I0701 13:51:03.760428  2899 net.cpp:434] detection_loss_3_5x7 <- label_3_5x7_data_6_split_0
I0701 13:51:03.760437  2899 net.cpp:408] detection_loss_3_5x7 -> loss_3_5x7
I0701 13:51:03.760445  2899 layer_factory.hpp:77] Creating layer detection_loss_3_5x7
I0701 13:51:03.761014  2899 net.cpp:150] Setting up detection_loss_3_5x7
I0701 13:51:03.761024  2899 net.cpp:157] Top shape: 1 1 1 2 (2)
I0701 13:51:03.761027  2899 net.cpp:160]     with loss weight 1
I0701 13:51:03.761036  2899 net.cpp:165] Memory required for data: 4536155656
I0701 13:51:03.761039  2899 layer_factory.hpp:77] Creating layer detection_accuracy_3_5x7
I0701 13:51:03.761047  2899 net.cpp:100] Creating Layer detection_accuracy_3_5x7
I0701 13:51:03.761051  2899 net.cpp:434] detection_accuracy_3_5x7 <- LFCN_3_5x7_LFCN_3_5x7_0_split_1
I0701 13:51:03.761056  2899 net.cpp:434] detection_accuracy_3_5x7 <- label_3_5x7_data_6_split_1
I0701 13:51:03.761065  2899 net.cpp:408] detection_accuracy_3_5x7 -> accuracy_3_5x7
I0701 13:51:03.761071  2899 net.cpp:408] detection_accuracy_3_5x7 -> boxiou_3_5x7
I0701 13:51:03.761123  2899 net.cpp:150] Setting up detection_accuracy_3_5x7
I0701 13:51:03.761128  2899 net.cpp:157] Top shape: 1 1 1 2 (2)
I0701 13:51:03.761133  2899 net.cpp:157] Top shape: 1 1 1 1 (1)
I0701 13:51:03.761137  2899 net.cpp:165] Memory required for data: 4536155668
I0701 13:51:03.761139  2899 layer_factory.hpp:77] Creating layer pool6
I0701 13:51:03.761145  2899 net.cpp:100] Creating Layer pool6
I0701 13:51:03.761149  2899 net.cpp:434] pool6 <- conv6_1_relu6_1_0_split_2
I0701 13:51:03.761157  2899 net.cpp:408] pool6 -> pool6
I0701 13:51:03.761201  2899 net.cpp:150] Setting up pool6
I0701 13:51:03.761209  2899 net.cpp:157] Top shape: 4 512 9 12 (221184)
I0701 13:51:03.761212  2899 net.cpp:165] Memory required for data: 4537040404
I0701 13:51:03.761215  2899 layer_factory.hpp:77] Creating layer LFCN_4_3x5
I0701 13:51:03.761232  2899 net.cpp:100] Creating Layer LFCN_4_3x5
I0701 13:51:03.761237  2899 net.cpp:434] LFCN_4_3x5 <- pool6
I0701 13:51:03.761245  2899 net.cpp:408] LFCN_4_3x5 -> LFCN_4_3x5
I0701 13:51:03.763813  2899 net.cpp:150] Setting up LFCN_4_3x5
I0701 13:51:03.763826  2899 net.cpp:157] Top shape: 4 7 9 12 (3024)
I0701 13:51:03.763828  2899 net.cpp:165] Memory required for data: 4537052500
I0701 13:51:03.763836  2899 layer_factory.hpp:77] Creating layer LFCN_4_3x5_LFCN_4_3x5_0_split
I0701 13:51:03.763844  2899 net.cpp:100] Creating Layer LFCN_4_3x5_LFCN_4_3x5_0_split
I0701 13:51:03.763852  2899 net.cpp:434] LFCN_4_3x5_LFCN_4_3x5_0_split <- LFCN_4_3x5
I0701 13:51:03.763859  2899 net.cpp:408] LFCN_4_3x5_LFCN_4_3x5_0_split -> LFCN_4_3x5_LFCN_4_3x5_0_split_0
I0701 13:51:03.763867  2899 net.cpp:408] LFCN_4_3x5_LFCN_4_3x5_0_split -> LFCN_4_3x5_LFCN_4_3x5_0_split_1
I0701 13:51:03.763875  2899 net.cpp:408] LFCN_4_3x5_LFCN_4_3x5_0_split -> LFCN_4_3x5_LFCN_4_3x5_0_split_2
I0701 13:51:03.763942  2899 net.cpp:150] Setting up LFCN_4_3x5_LFCN_4_3x5_0_split
I0701 13:51:03.763952  2899 net.cpp:157] Top shape: 4 7 9 12 (3024)
I0701 13:51:03.763955  2899 net.cpp:157] Top shape: 4 7 9 12 (3024)
I0701 13:51:03.763959  2899 net.cpp:157] Top shape: 4 7 9 12 (3024)
I0701 13:51:03.763962  2899 net.cpp:165] Memory required for data: 4537088788
I0701 13:51:03.763964  2899 layer_factory.hpp:77] Creating layer detection_loss_4_3x5
I0701 13:51:03.763972  2899 net.cpp:100] Creating Layer detection_loss_4_3x5
I0701 13:51:03.763976  2899 net.cpp:434] detection_loss_4_3x5 <- LFCN_4_3x5_LFCN_4_3x5_0_split_0
I0701 13:51:03.763981  2899 net.cpp:434] detection_loss_4_3x5 <- label_4_3x5_data_7_split_0
I0701 13:51:03.763989  2899 net.cpp:408] detection_loss_4_3x5 -> loss_4_3x5
I0701 13:51:03.763998  2899 layer_factory.hpp:77] Creating layer detection_loss_4_3x5
I0701 13:51:03.764577  2899 net.cpp:150] Setting up detection_loss_4_3x5
I0701 13:51:03.764587  2899 net.cpp:157] Top shape: 1 1 1 2 (2)
I0701 13:51:03.764590  2899 net.cpp:160]     with loss weight 1
I0701 13:51:03.764600  2899 net.cpp:165] Memory required for data: 4537088796
I0701 13:51:03.764602  2899 layer_factory.hpp:77] Creating layer detection_accuracy_4_3x5
I0701 13:51:03.764609  2899 net.cpp:100] Creating Layer detection_accuracy_4_3x5
I0701 13:51:03.764614  2899 net.cpp:434] detection_accuracy_4_3x5 <- LFCN_4_3x5_LFCN_4_3x5_0_split_1
I0701 13:51:03.764619  2899 net.cpp:434] detection_accuracy_4_3x5 <- label_4_3x5_data_7_split_1
I0701 13:51:03.764626  2899 net.cpp:408] detection_accuracy_4_3x5 -> accuracy_4_3x5
I0701 13:51:03.764636  2899 net.cpp:408] detection_accuracy_4_3x5 -> boxiou_4_3x5
I0701 13:51:03.764683  2899 net.cpp:150] Setting up detection_accuracy_4_3x5
I0701 13:51:03.764690  2899 net.cpp:157] Top shape: 1 1 1 2 (2)
I0701 13:51:03.764694  2899 net.cpp:157] Top shape: 1 1 1 1 (1)
I0701 13:51:03.764696  2899 net.cpp:165] Memory required for data: 4537088808
I0701 13:51:03.764699  2899 layer_factory.hpp:77] Creating layer proposals
I0701 13:51:03.764708  2899 net.cpp:100] Creating Layer proposals
I0701 13:51:03.764714  2899 net.cpp:434] proposals <- LFCN_1_3x5_LFCN_1_3x5_0_split_2
I0701 13:51:03.764717  2899 net.cpp:434] proposals <- LFCN_1_5x7_LFCN_1_5x7_0_split_2
I0701 13:51:03.764721  2899 net.cpp:434] proposals <- LFCN_2_3x5_LFCN_2_3x5_0_split_2
I0701 13:51:03.764725  2899 net.cpp:434] proposals <- LFCN_2_5x7_LFCN_2_5x7_0_split_2
I0701 13:51:03.764729  2899 net.cpp:434] proposals <- LFCN_3_3x5_LFCN_3_3x5_0_split_2
I0701 13:51:03.764734  2899 net.cpp:434] proposals <- LFCN_3_5x7_LFCN_3_5x7_0_split_2
I0701 13:51:03.764736  2899 net.cpp:434] proposals <- LFCN_4_3x5_LFCN_4_3x5_0_split_2
I0701 13:51:03.764744  2899 net.cpp:408] proposals -> proposals
I0701 13:51:03.764776  2899 net.cpp:150] Setting up proposals
I0701 13:51:03.764782  2899 net.cpp:157] Top shape: 1 5 1 1 (5)
I0701 13:51:03.764786  2899 net.cpp:165] Memory required for data: 4537088828
I0701 13:51:03.764788  2899 layer_factory.hpp:77] Creating layer proposal_info
I0701 13:51:03.764797  2899 net.cpp:100] Creating Layer proposal_info
I0701 13:51:03.764802  2899 net.cpp:434] proposal_info <- proposals
I0701 13:51:03.764806  2899 net.cpp:434] proposal_info <- gt_boxes
I0701 13:51:03.764816  2899 net.cpp:408] proposal_info -> rois
I0701 13:51:03.764827  2899 net.cpp:408] proposal_info -> proposal_labels
I0701 13:51:03.764834  2899 net.cpp:408] proposal_info -> proposal_targets
I0701 13:51:03.764842  2899 net.cpp:408] proposal_info -> box_inside_weights
I0701 13:51:03.764850  2899 net.cpp:408] proposal_info -> box_outside_weights
I0701 13:51:03.764860  2899 net.cpp:408] proposal_info -> match_gt_boxes
I0701 13:51:03.764973  2899 net.cpp:150] Setting up proposal_info
I0701 13:51:03.764979  2899 net.cpp:157] Top shape: 128 5 1 1 (640)
I0701 13:51:03.764983  2899 net.cpp:157] Top shape: 128 1 1 1 (128)
I0701 13:51:03.764988  2899 net.cpp:157] Top shape: 128 12 1 1 (1536)
I0701 13:51:03.764992  2899 net.cpp:157] Top shape: 128 12 1 1 (1536)
I0701 13:51:03.764997  2899 net.cpp:157] Top shape: 128 12 1 1 (1536)
I0701 13:51:03.765000  2899 net.cpp:157] Top shape: 128 6 1 1 (768)
I0701 13:51:03.765004  2899 net.cpp:165] Memory required for data: 4537113404
I0701 13:51:03.765007  2899 layer_factory.hpp:77] Creating layer rois_proposal_info_0_split
I0701 13:51:03.765012  2899 net.cpp:100] Creating Layer rois_proposal_info_0_split
I0701 13:51:03.765015  2899 net.cpp:434] rois_proposal_info_0_split <- rois
I0701 13:51:03.765020  2899 net.cpp:408] rois_proposal_info_0_split -> rois_proposal_info_0_split_0
I0701 13:51:03.765027  2899 net.cpp:408] rois_proposal_info_0_split -> rois_proposal_info_0_split_1
I0701 13:51:03.765034  2899 net.cpp:408] rois_proposal_info_0_split -> rois_proposal_info_0_split_2
I0701 13:51:03.765089  2899 net.cpp:150] Setting up rois_proposal_info_0_split
I0701 13:51:03.765097  2899 net.cpp:157] Top shape: 128 5 1 1 (640)
I0701 13:51:03.765101  2899 net.cpp:157] Top shape: 128 5 1 1 (640)
I0701 13:51:03.765105  2899 net.cpp:157] Top shape: 128 5 1 1 (640)
I0701 13:51:03.765107  2899 net.cpp:165] Memory required for data: 4537121084
I0701 13:51:03.765110  2899 layer_factory.hpp:77] Creating layer proposal_labels_proposal_info_1_split
I0701 13:51:03.765115  2899 net.cpp:100] Creating Layer proposal_labels_proposal_info_1_split
I0701 13:51:03.765118  2899 net.cpp:434] proposal_labels_proposal_info_1_split <- proposal_labels
I0701 13:51:03.765123  2899 net.cpp:408] proposal_labels_proposal_info_1_split -> proposal_labels_proposal_info_1_split_0
I0701 13:51:03.765130  2899 net.cpp:408] proposal_labels_proposal_info_1_split -> proposal_labels_proposal_info_1_split_1
I0701 13:51:03.765172  2899 net.cpp:150] Setting up proposal_labels_proposal_info_1_split
I0701 13:51:03.765178  2899 net.cpp:157] Top shape: 128 1 1 1 (128)
I0701 13:51:03.765182  2899 net.cpp:157] Top shape: 128 1 1 1 (128)
I0701 13:51:03.765184  2899 net.cpp:165] Memory required for data: 4537122108
I0701 13:51:03.765187  2899 layer_factory.hpp:77] Creating layer conv4_3_2x
I0701 13:51:03.765197  2899 net.cpp:100] Creating Layer conv4_3_2x
I0701 13:51:03.765202  2899 net.cpp:434] conv4_3_2x <- conv4_3_relu4_3_0_split_2
I0701 13:51:03.765208  2899 net.cpp:408] conv4_3_2x -> conv4_3_2x
I0701 13:51:03.765748  2899 net.cpp:150] Setting up conv4_3_2x
I0701 13:51:03.765754  2899 net.cpp:157] Top shape: 4 512 144 192 (56623104)
I0701 13:51:03.765756  2899 net.cpp:165] Memory required for data: 4763614524
I0701 13:51:03.765759  2899 layer_factory.hpp:77] Creating layer conv4_3_2x_conv4_3_2x_0_split
I0701 13:51:03.765763  2899 net.cpp:100] Creating Layer conv4_3_2x_conv4_3_2x_0_split
I0701 13:51:03.765765  2899 net.cpp:434] conv4_3_2x_conv4_3_2x_0_split <- conv4_3_2x
I0701 13:51:03.765770  2899 net.cpp:408] conv4_3_2x_conv4_3_2x_0_split -> conv4_3_2x_conv4_3_2x_0_split_0
I0701 13:51:03.765775  2899 net.cpp:408] conv4_3_2x_conv4_3_2x_0_split -> conv4_3_2x_conv4_3_2x_0_split_1
I0701 13:51:03.765806  2899 net.cpp:150] Setting up conv4_3_2x_conv4_3_2x_0_split
I0701 13:51:03.765810  2899 net.cpp:157] Top shape: 4 512 144 192 (56623104)
I0701 13:51:03.765813  2899 net.cpp:157] Top shape: 4 512 144 192 (56623104)
I0701 13:51:03.765815  2899 net.cpp:165] Memory required for data: 5216599356
I0701 13:51:03.765817  2899 layer_factory.hpp:77] Creating layer roi_pool_org
I0701 13:51:03.765820  2899 net.cpp:100] Creating Layer roi_pool_org
I0701 13:51:03.765825  2899 net.cpp:434] roi_pool_org <- conv4_3_2x_conv4_3_2x_0_split_0
I0701 13:51:03.765828  2899 net.cpp:434] roi_pool_org <- rois_proposal_info_0_split_0
I0701 13:51:03.765832  2899 net.cpp:408] roi_pool_org -> roi_pool_org
I0701 13:51:03.765838  2899 roi_pooling_layer.cpp:33] Spatial scale: 0.25
I0701 13:51:03.765871  2899 net.cpp:150] Setting up roi_pool_org
I0701 13:51:03.765874  2899 net.cpp:157] Top shape: 128 512 7 5 (2293760)
I0701 13:51:03.765877  2899 net.cpp:165] Memory required for data: 5225774396
I0701 13:51:03.765879  2899 layer_factory.hpp:77] Creating layer roi_pool_ctx
I0701 13:51:03.765882  2899 net.cpp:100] Creating Layer roi_pool_ctx
I0701 13:51:03.765885  2899 net.cpp:434] roi_pool_ctx <- conv4_3_2x_conv4_3_2x_0_split_1
I0701 13:51:03.765887  2899 net.cpp:434] roi_pool_ctx <- rois_proposal_info_0_split_1
I0701 13:51:03.765890  2899 net.cpp:408] roi_pool_ctx -> roi_pool_ctx
I0701 13:51:03.765894  2899 roi_pooling_layer.cpp:33] Spatial scale: 0.25
I0701 13:51:03.765923  2899 net.cpp:150] Setting up roi_pool_ctx
I0701 13:51:03.765928  2899 net.cpp:157] Top shape: 128 512 7 5 (2293760)
I0701 13:51:03.765929  2899 net.cpp:165] Memory required for data: 5234949436
I0701 13:51:03.765931  2899 layer_factory.hpp:77] Creating layer roi_pool
I0701 13:51:03.765934  2899 net.cpp:100] Creating Layer roi_pool
I0701 13:51:03.765936  2899 net.cpp:434] roi_pool <- roi_pool_org
I0701 13:51:03.765939  2899 net.cpp:434] roi_pool <- roi_pool_ctx
I0701 13:51:03.765944  2899 net.cpp:408] roi_pool -> roi_pool
I0701 13:51:03.765961  2899 net.cpp:150] Setting up roi_pool
I0701 13:51:03.765965  2899 net.cpp:157] Top shape: 128 1024 7 5 (4587520)
I0701 13:51:03.765967  2899 net.cpp:165] Memory required for data: 5253299516
I0701 13:51:03.765969  2899 layer_factory.hpp:77] Creating layer roi_c1
I0701 13:51:03.765975  2899 net.cpp:100] Creating Layer roi_c1
I0701 13:51:03.765978  2899 net.cpp:434] roi_c1 <- roi_pool
I0701 13:51:03.765983  2899 net.cpp:408] roi_c1 -> roi_c1
I0701 13:51:03.805359  2899 net.cpp:150] Setting up roi_c1
I0701 13:51:03.805377  2899 net.cpp:157] Top shape: 128 512 5 3 (983040)
I0701 13:51:03.805379  2899 net.cpp:165] Memory required for data: 5257231676
I0701 13:51:03.805387  2899 layer_factory.hpp:77] Creating layer roi_c1_relu
I0701 13:51:03.805393  2899 net.cpp:100] Creating Layer roi_c1_relu
I0701 13:51:03.805397  2899 net.cpp:434] roi_c1_relu <- roi_c1
I0701 13:51:03.805402  2899 net.cpp:395] roi_c1_relu -> roi_c1 (in-place)
I0701 13:51:03.806215  2899 net.cpp:150] Setting up roi_c1_relu
I0701 13:51:03.806226  2899 net.cpp:157] Top shape: 128 512 5 3 (983040)
I0701 13:51:03.806227  2899 net.cpp:165] Memory required for data: 5261163836
I0701 13:51:03.806231  2899 layer_factory.hpp:77] Creating layer fc6
I0701 13:51:03.806238  2899 net.cpp:100] Creating Layer fc6
I0701 13:51:03.806241  2899 net.cpp:434] fc6 <- roi_c1
I0701 13:51:03.806246  2899 net.cpp:408] fc6 -> fc6
I0701 13:51:03.928012  2899 net.cpp:150] Setting up fc6
I0701 13:51:03.928030  2899 net.cpp:157] Top shape: 128 2048 (262144)
I0701 13:51:03.928031  2899 net.cpp:165] Memory required for data: 5262212412
I0701 13:51:03.928038  2899 layer_factory.hpp:77] Creating layer relu6
I0701 13:51:03.928045  2899 net.cpp:100] Creating Layer relu6
I0701 13:51:03.928050  2899 net.cpp:434] relu6 <- fc6
I0701 13:51:03.928055  2899 net.cpp:395] relu6 -> fc6 (in-place)
I0701 13:51:03.928452  2899 net.cpp:150] Setting up relu6
I0701 13:51:03.928460  2899 net.cpp:157] Top shape: 128 2048 (262144)
I0701 13:51:03.928462  2899 net.cpp:165] Memory required for data: 5263260988
I0701 13:51:03.928464  2899 layer_factory.hpp:77] Creating layer drop6
I0701 13:51:03.928470  2899 net.cpp:100] Creating Layer drop6
I0701 13:51:03.928473  2899 net.cpp:434] drop6 <- fc6
I0701 13:51:03.928478  2899 net.cpp:395] drop6 -> fc6 (in-place)
I0701 13:51:03.928514  2899 net.cpp:150] Setting up drop6
I0701 13:51:03.928520  2899 net.cpp:157] Top shape: 128 2048 (262144)
I0701 13:51:03.928524  2899 net.cpp:165] Memory required for data: 5264309564
I0701 13:51:03.928526  2899 layer_factory.hpp:77] Creating layer fc6_drop6_0_split
I0701 13:51:03.928531  2899 net.cpp:100] Creating Layer fc6_drop6_0_split
I0701 13:51:03.928534  2899 net.cpp:434] fc6_drop6_0_split <- fc6
I0701 13:51:03.928541  2899 net.cpp:408] fc6_drop6_0_split -> fc6_drop6_0_split_0
I0701 13:51:03.928548  2899 net.cpp:408] fc6_drop6_0_split -> fc6_drop6_0_split_1
I0701 13:51:03.928596  2899 net.cpp:150] Setting up fc6_drop6_0_split
I0701 13:51:03.928601  2899 net.cpp:157] Top shape: 128 2048 (262144)
I0701 13:51:03.928606  2899 net.cpp:157] Top shape: 128 2048 (262144)
I0701 13:51:03.928608  2899 net.cpp:165] Memory required for data: 5266406716
I0701 13:51:03.928611  2899 layer_factory.hpp:77] Creating layer cls_pred
I0701 13:51:03.928619  2899 net.cpp:100] Creating Layer cls_pred
I0701 13:51:03.928624  2899 net.cpp:434] cls_pred <- fc6_drop6_0_split_0
I0701 13:51:03.928629  2899 net.cpp:408] cls_pred -> cls_pred
I0701 13:51:03.928843  2899 net.cpp:150] Setting up cls_pred
I0701 13:51:03.928850  2899 net.cpp:157] Top shape: 128 3 (384)
I0701 13:51:03.928853  2899 net.cpp:165] Memory required for data: 5266408252
I0701 13:51:03.928859  2899 layer_factory.hpp:77] Creating layer cls_pred_cls_pred_0_split
I0701 13:51:03.928864  2899 net.cpp:100] Creating Layer cls_pred_cls_pred_0_split
I0701 13:51:03.928869  2899 net.cpp:434] cls_pred_cls_pred_0_split <- cls_pred
I0701 13:51:03.928876  2899 net.cpp:408] cls_pred_cls_pred_0_split -> cls_pred_cls_pred_0_split_0
I0701 13:51:03.928884  2899 net.cpp:408] cls_pred_cls_pred_0_split -> cls_pred_cls_pred_0_split_1
I0701 13:51:03.928936  2899 net.cpp:150] Setting up cls_pred_cls_pred_0_split
I0701 13:51:03.928941  2899 net.cpp:157] Top shape: 128 3 (384)
I0701 13:51:03.928946  2899 net.cpp:157] Top shape: 128 3 (384)
I0701 13:51:03.928949  2899 net.cpp:165] Memory required for data: 5266411324
I0701 13:51:03.928952  2899 layer_factory.hpp:77] Creating layer bbox_pred
I0701 13:51:03.928958  2899 net.cpp:100] Creating Layer bbox_pred
I0701 13:51:03.928962  2899 net.cpp:434] bbox_pred <- fc6_drop6_0_split_1
I0701 13:51:03.928968  2899 net.cpp:408] bbox_pred -> bbox_pred
I0701 13:51:03.929390  2899 net.cpp:150] Setting up bbox_pred
I0701 13:51:03.929397  2899 net.cpp:157] Top shape: 128 12 (1536)
I0701 13:51:03.929400  2899 net.cpp:165] Memory required for data: 5266417468
I0701 13:51:03.929406  2899 layer_factory.hpp:77] Creating layer bbox_pred_bbox_pred_0_split
I0701 13:51:03.929412  2899 net.cpp:100] Creating Layer bbox_pred_bbox_pred_0_split
I0701 13:51:03.929416  2899 net.cpp:434] bbox_pred_bbox_pred_0_split <- bbox_pred
I0701 13:51:03.929422  2899 net.cpp:408] bbox_pred_bbox_pred_0_split -> bbox_pred_bbox_pred_0_split_0
I0701 13:51:03.929430  2899 net.cpp:408] bbox_pred_bbox_pred_0_split -> bbox_pred_bbox_pred_0_split_1
I0701 13:51:03.929467  2899 net.cpp:150] Setting up bbox_pred_bbox_pred_0_split
I0701 13:51:03.929472  2899 net.cpp:157] Top shape: 128 12 (1536)
I0701 13:51:03.929476  2899 net.cpp:157] Top shape: 128 12 (1536)
I0701 13:51:03.929479  2899 net.cpp:165] Memory required for data: 5266429756
I0701 13:51:03.929482  2899 layer_factory.hpp:77] Creating layer loss_cls
I0701 13:51:03.929487  2899 net.cpp:100] Creating Layer loss_cls
I0701 13:51:03.929492  2899 net.cpp:434] loss_cls <- cls_pred_cls_pred_0_split_0
I0701 13:51:03.929497  2899 net.cpp:434] loss_cls <- proposal_labels_proposal_info_1_split_0
…
I0701 13:51:03.946058  2899 image_gt_data_layer.cpp:241] output label size 3 : 2,6,36,48
I0701 13:51:03.946104  2899 image_gt_data_layer.cpp:241] output label size 4 : 2,6,18,24
I0701 13:51:03.946151  2899 image_gt_data_layer.cpp:241] output label size 5 : 2,6,18,24
I0701 13:51:03.946218  2899 image_gt_data_layer.cpp:241] output label size 6 : 2,6,9,12
I0701 13:51:03.946285  2899 image_gt_data_layer.cpp:256] output gt boxes size: 1,7,1,1
I0701 13:51:03.946290  2899 image_gt_data_layer.cpp:265]  --> has_mean_values_ = 1
I0701 13:51:03.968552  2899 net.cpp:150] Setting up data
I0701 13:51:03.968569  2899 net.cpp:157] Top shape: 2 4 576 768 (3538944)
I0701 13:51:03.968572  2899 net.cpp:157] Top shape: 2 6 72 96 (82944)
I0701 13:51:03.968575  2899 net.cpp:157] Top shape: 2 6 72 96 (82944)
I0701 13:51:03.968578  2899 net.cpp:157] Top shape: 2 6 36 48 (20736)
I0701 13:51:03.968581  2899 net.cpp:157] Top shape: 2 6 36 48 (20736)
I0701 13:51:03.968585  2899 net.cpp:157] Top shape: 2 6 18 24 (5184)
I0701 13:51:03.968590  2899 net.cpp:157] Top shape: 2 6 18 24 (5184)
I0701 13:51:03.968593  2899 net.cpp:157] Top shape: 2 6 9 12 (1296)
I0701 13:51:03.968597  2899 net.cpp:157] Top shape: 1 7 1 1 (7)
I0701 13:51:03.968600  2899 net.cpp:165] Memory required for data: 15031900
I0701 13:51:03.968605  2899 layer_factory.hpp:77] Creating layer label_1_3x5_data_1_split
I0701 13:51:03.968616  2899 net.cpp:100] Creating Layer label_1_3x5_data_1_split
I0701 13:51:03.968621  2899 net.cpp:434] label_1_3x5_data_1_split <- label_1_3x5
I0701 13:51:03.968631  2899 net.cpp:408] label_1_3x5_data_1_split -> label_1_3x5_data_1_split_0
I0701 13:51:03.968641  2899 net.cpp:408] label_1_3x5_data_1_split -> label_1_3x5_data_1_split_1
I0701 13:51:03.968760  2899 net.cpp:150] Setting up label_1_3x5_data_1_split
I0701 13:51:03.968767  2899 net.cpp:157] Top shape: 2 6 72 96 (82944)
I0701 13:51:03.968771  2899 net.cpp:157] Top shape: 2 6 72 96 (82944)
I0701 13:51:03.968773  2899 net.cpp:165] Memory required for data: 15695452
I0701 13:51:03.968777  2899 layer_factory.hpp:77] Creating layer label_1_5x7_data_2_split
I0701 13:51:03.968786  2899 net.cpp:100] Creating Layer label_1_5x7_data_2_split
I0701 13:51:03.968789  2899 net.cpp:434] label_1_5x7_data_2_split <- label_1_5x7
I0701 13:51:03.968797  2899 net.cpp:408] label_1_5x7_data_2_split -> label_1_5x7_data_2_split_0
I0701 13:51:03.968804  2899 net.cpp:408] label_1_5x7_data_2_split -> label_1_5x7_data_2_split_1
I0701 13:51:03.968852  2899 net.cpp:150] Setting up label_1_5x7_data_2_split
I0701 13:51:03.968860  2899 net.cpp:157] Top shape: 2 6 72 96 (82944)
I0701 13:51:03.968864  2899 net.cpp:157] Top shape: 2 6 72 96 (82944)
I0701 13:51:03.968868  2899 net.cpp:165] Memory required for data: 16359004
I0701 13:51:03.968870  2899 layer_factory.hpp:77] Creating layer label_2_3x5_data_3_split
I0701 13:51:03.968875  2899 net.cpp:100] Creating Layer label_2_3x5_data_3_split
I0701 13:51:03.968878  2899 net.cpp:434] label_2_3x5_data_3_split <- label_2_3x5
I0701 13:51:03.968884  2899 net.cpp:408] label_2_3x5_data_3_split -> label_2_3x5_data_3_split_0
I0701 13:51:03.968891  2899 net.cpp:408] label_2_3x5_data_3_split -> label_2_3x5_data_3_split_1
I0701 13:51:03.968933  2899 net.cpp:150] Setting up label_2_3x5_data_3_split
I0701 13:51:03.968940  2899 net.cpp:157] Top shape: 2 6 36 48 (20736)
I0701 13:51:03.968943  2899 net.cpp:157] Top shape: 2 6 36 48 (20736)
I0701 13:51:03.968946  2899 net.cpp:165] Memory required for data: 16524892
I0701 13:51:03.968950  2899 layer_factory.hpp:77] Creating layer label_2_5x7_data_4_split
I0701 13:51:03.968956  2899 net.cpp:100] Creating Layer label_2_5x7_data_4_split
I0701 13:51:03.968960  2899 net.cpp:434] label_2_5x7_data_4_split <- label_2_5x7
I0701 13:51:03.968966  2899 net.cpp:408] label_2_5x7_data_4_split -> label_2_5x7_data_4_split_0
I0701 13:51:03.968971  2899 net.cpp:408] label_2_5x7_data_4_split -> label_2_5x7_data_4_split_1
I0701 13:51:03.969017  2899 net.cpp:150] Setting up label_2_5x7_data_4_split
I0701 13:51:03.969022  2899 net.cpp:157] Top shape: 2 6 36 48 (20736)
I0701 13:51:03.969027  2899 net.cpp:157] Top shape: 2 6 36 48 (20736)
I0701 13:51:03.969029  2899 net.cpp:165] Memory required for data: 16690780
I0701 13:51:03.969033  2899 layer_factory.hpp:77] Creating layer label_3_3x5_data_5_split
I0701 13:51:03.969038  2899 net.cpp:100] Creating Layer label_3_3x5_data_5_split
I0701 13:51:03.969041  2899 net.cpp:434] label_3_3x5_data_5_split <- label_3_3x5
I0701 13:51:03.969046  2899 net.cpp:408] label_3_3x5_data_5_split -> label_3_3x5_data_5_split_0
I0701 13:51:03.969053  2899 net.cpp:408] label_3_3x5_data_5_split -> label_3_3x5_data_5_split_1
I0701 13:51:03.969092  2899 net.cpp:150] Setting up label_3_3x5_data_5_split
I0701 13:51:03.969099  2899 net.cpp:157] Top shape: 2 6 18 24 (5184)
I0701 13:51:03.969102  2899 net.cpp:157] Top shape: 2 6 18 24 (5184)
I0701 13:51:03.969105  2899 net.cpp:165] Memory required for data: 16732252
I0701 13:51:03.969108  2899 layer_factory.hpp:77] Creating layer label_3_5x7_data_6_split
I0701 13:51:03.969112  2899 net.cpp:100] Creating Layer label_3_5x7_data_6_split
I0701 13:51:03.969115  2899 net.cpp:434] label_3_5x7_data_6_split <- label_3_5x7
I0701 13:51:03.969120  2899 net.cpp:408] label_3_5x7_data_6_split -> label_3_5x7_data_6_split_0
I0701 13:51:03.969126  2899 net.cpp:408] label_3_5x7_data_6_split -> label_3_5x7_data_6_split_1
I0701 13:51:03.969202  2899 net.cpp:150] Setting up label_3_5x7_data_6_split
I0701 13:51:03.969208  2899 net.cpp:157] Top shape: 2 6 18 24 (5184)
I0701 13:51:03.969213  2899 net.cpp:157] Top shape: 2 6 18 24 (5184)
I0701 13:51:03.969215  2899 net.cpp:165] Memory required for data: 16773724
I0701 13:51:03.969218  2899 layer_factory.hpp:77] Creating layer label_4_3x5_data_7_split
I0701 13:51:03.969231  2899 net.cpp:100] Creating Layer label_4_3x5_data_7_split
I0701 13:51:03.969235  2899 net.cpp:434] label_4_3x5_data_7_split <- label_4_3x5
I0701 13:51:03.969240  2899 net.cpp:408] label_4_3x5_data_7_split -> label_4_3x5_data_7_split_0
I0701 13:51:03.969246  2899 net.cpp:408] label_4_3x5_data_7_split -> label_4_3x5_data_7_split_1
I0701 13:51:03.970494  2899 net.cpp:150] Setting up label_4_3x5_data_7_split
I0701 13:51:03.970533  2899 net.cpp:157] Top shape: 2 6 9 12 (1296)
I0701 13:51:03.970536  2899 net.cpp:157] Top shape: 2 6 9 12 (1296)
I0701 13:51:03.970538  2899 net.cpp:165] Memory required for data: 16784092
I0701 13:51:03.970546  2899 layer_factory.hpp:77] Creating layer conv1_1
I0701 13:51:03.970576  2899 net.cpp:100] Creating Layer conv1_1
I0701 13:51:03.970582  2899 net.cpp:434] conv1_1 <- data
I0701 13:51:03.970594  2899 net.cpp:408] conv1_1 -> conv1_1
I0701 13:51:03.975000  2899 net.cpp:150] Setting up conv1_1
I0701 13:51:03.975023  2899 net.cpp:157] Top shape: 2 64 576 768 (56623104)
I0701 13:51:03.975026  2899 net.cpp:165] Memory required for data: 243276508
I0701 13:51:03.975039  2899 layer_factory.hpp:77] Creating layer relu1_1
I0701 13:51:03.975052  2899 net.cpp:100] Creating Layer relu1_1
I0701 13:51:03.975056  2899 net.cpp:434] relu1_1 <- conv1_1
I0701 13:51:03.975062  2899 net.cpp:395] relu1_1 -> conv1_1 (in-place)
I0701 13:51:03.975498  2899 net.cpp:150] Setting up relu1_1
I0701 13:51:03.975507  2899 net.cpp:157] Top shape: 2 64 576 768 (56623104)
I0701 13:51:03.975510  2899 net.cpp:165] Memory required for data: 469768924
I0701 13:51:03.975512  2899 layer_factory.hpp:77] Creating layer conv1_2
I0701 13:51:03.975522  2899 net.cpp:100] Creating Layer conv1_2
I0701 13:51:03.975528  2899 net.cpp:434] conv1_2 <- conv1_1
I0701 13:51:03.975535  2899 net.cpp:408] conv1_2 -> conv1_2
I0701 13:51:03.978595  2899 net.cpp:150] Setting up conv1_2
I0701 13:51:03.978619  2899 net.cpp:157] Top shape: 2 64 576 768 (56623104)
I0701 13:51:03.978621  2899 net.cpp:165] Memory required for data: 696261340
I0701 13:51:03.978636  2899 layer_factory.hpp:77] Creating layer relu1_2
I0701 13:51:03.978647  2899 net.cpp:100] Creating Layer relu1_2
I0701 13:51:03.978652  2899 net.cpp:434] relu1_2 <- conv1_2
I0701 13:51:03.978660  2899 net.cpp:395] relu1_2 -> conv1_2 (in-place)
I0701 13:51:03.979101  2899 net.cpp:150] Setting up relu1_2
I0701 13:51:03.979110  2899 net.cpp:157] Top shape: 2 64 576 768 (56623104)
I0701 13:51:03.979112  2899 net.cpp:165] Memory required for data: 922753756
I0701 13:51:03.979115  2899 layer_factory.hpp:77] Creating layer pool1
I0701 13:51:03.979121  2899 net.cpp:100] Creating Layer pool1
I0701 13:51:03.979125  2899 net.cpp:434] pool1 <- conv1_2
I0701 13:51:03.979133  2899 net.cpp:408] pool1 -> pool1
I0701 13:51:03.979199  2899 net.cpp:150] Setting up pool1
I0701 13:51:03.979207  2899 net.cpp:157] Top shape: 2 64 288 384 (14155776)
I0701 13:51:03.979210  2899 net.cpp:165] Memory required for data: 979376860
I0701 13:51:03.979214  2899 layer_factory.hpp:77] Creating layer conv2_1
I0701 13:51:03.979221  2899 net.cpp:100] Creating Layer conv2_1
I0701 13:51:03.979224  2899 net.cpp:434] conv2_1 <- pool1
I0701 13:51:03.979231  2899 net.cpp:408] conv2_1 -> conv2_1
I0701 13:51:03.981437  2899 net.cpp:150] Setting up conv2_1
I0701 13:51:03.981453  2899 net.cpp:157] Top shape: 2 128 288 384 (28311552)
I0701 13:51:03.981456  2899 net.cpp:165] Memory required for data: 1092623068
I0701 13:51:03.981467  2899 layer_factory.hpp:77] Creating layer relu2_1
I0701 13:51:03.981477  2899 net.cpp:100] Creating Layer relu2_1
I0701 13:51:03.981482  2899 net.cpp:434] relu2_1 <- conv2_1
I0701 13:51:03.981487  2899 net.cpp:395] relu2_1 -> conv2_1 (in-place)
I0701 13:51:03.982314  2899 net.cpp:150] Setting up relu2_1
I0701 13:51:03.982326  2899 net.cpp:157] Top shape: 2 128 288 384 (28311552)
I0701 13:51:03.982328  2899 net.cpp:165] Memory required for data: 1205869276
I0701 13:51:03.982331  2899 layer_factory.hpp:77] Creating layer conv2_2
I0701 13:51:03.982342  2899 net.cpp:100] Creating Layer conv2_2
I0701 13:51:03.982347  2899 net.cpp:434] conv2_2 <- conv2_1
I0701 13:51:03.982353  2899 net.cpp:408] conv2_2 -> conv2_2
I0701 13:51:03.987958  2899 net.cpp:150] Setting up conv2_2
I0701 13:51:03.987985  2899 net.cpp:157] Top shape: 2 128 288 384 (28311552)
I0701 13:51:03.987989  2899 net.cpp:165] Memory required for data: 1319115484
I0701 13:51:03.988006  2899 layer_factory.hpp:77] Creating layer relu2_2
I0701 13:51:03.988021  2899 net.cpp:100] Creating Layer relu2_2
I0701 13:51:03.988026  2899 net.cpp:434] relu2_2 <- conv2_2
I0701 13:51:03.988034  2899 net.cpp:395] relu2_2 -> conv2_2 (in-place)
I0701 13:51:03.988530  2899 net.cpp:150] Setting up relu2_2
I0701 13:51:03.988546  2899 net.cpp:157] Top shape: 2 128 288 384 (28311552)
I0701 13:51:03.988548  2899 net.cpp:165] Memory required for data: 1432361692
I0701 13:51:03.988551  2899 layer_factory.hpp:77] Creating layer pool2
I0701 13:51:03.988561  2899 net.cpp:100] Creating Layer pool2
I0701 13:51:03.988565  2899 net.cpp:434] pool2 <- conv2_2
I0701 13:51:03.988572  2899 net.cpp:408] pool2 -> pool2
I0701 13:51:03.988662  2899 net.cpp:150] Setting up pool2
I0701 13:51:03.988670  2899 net.cpp:157] Top shape: 2 128 144 192 (7077888)
I0701 13:51:03.988673  2899 net.cpp:165] Memory required for data: 1460673244
I0701 13:51:03.988677  2899 layer_factory.hpp:77] Creating layer conv3_1
I0701 13:51:03.988685  2899 net.cpp:100] Creating Layer conv3_1
I0701 13:51:03.988689  2899 net.cpp:434] conv3_1 <- pool2
I0701 13:51:03.988696  2899 net.cpp:408] conv3_1 -> conv3_1
I0701 13:51:03.991708  2899 net.cpp:150] Setting up conv3_1
I0701 13:51:03.991725  2899 net.cpp:157] Top shape: 2 256 144 192 (14155776)
I0701 13:51:03.991727  2899 net.cpp:165] Memory required for data: 1517296348
I0701 13:51:03.991739  2899 layer_factory.hpp:77] Creating layer relu3_1
I0701 13:51:03.991749  2899 net.cpp:100] Creating Layer relu3_1
I0701 13:51:03.991755  2899 net.cpp:434] relu3_1 <- conv3_1
I0701 13:51:03.991762  2899 net.cpp:395] relu3_1 -> conv3_1 (in-place)
I0701 13:51:03.992142  2899 net.cpp:150] Setting up relu3_1
I0701 13:51:03.992151  2899 net.cpp:157] Top shape: 2 256 144 192 (14155776)
I0701 13:51:03.992152  2899 net.cpp:165] Memory required for data: 1573919452
I0701 13:51:03.992156  2899 layer_factory.hpp:77] Creating layer conv3_2
I0701 13:51:03.992164  2899 net.cpp:100] Creating Layer conv3_2
I0701 13:51:03.992168  2899 net.cpp:434] conv3_2 <- conv3_1
I0701 13:51:03.992175  2899 net.cpp:408] conv3_2 -> conv3_2
I0701 13:51:03.995591  2899 net.cpp:150] Setting up conv3_2
I0701 13:51:03.995613  2899 net.cpp:157] Top shape: 2 256 144 192 (14155776)
I0701 13:51:03.995615  2899 net.cpp:165] Memory required for data: 1630542556
I0701 13:51:03.995623  2899 layer_factory.hpp:77] Creating layer relu3_2
I0701 13:51:03.995635  2899 net.cpp:100] Creating Layer relu3_2
I0701 13:51:03.995638  2899 net.cpp:434] relu3_2 <- conv3_2
I0701 13:51:03.995645  2899 net.cpp:395] relu3_2 -> conv3_2 (in-place)
I0701 13:51:03.996449  2899 net.cpp:150] Setting up relu3_2
I0701 13:51:03.996461  2899 net.cpp:157] Top shape: 2 256 144 192 (14155776)
I0701 13:51:03.996464  2899 net.cpp:165] Memory required for data: 1687165660
I0701 13:51:03.996466  2899 layer_factory.hpp:77] Creating layer conv3_3
I0701 13:51:03.996476  2899 net.cpp:100] Creating Layer conv3_3
I0701 13:51:03.996480  2899 net.cpp:434] conv3_3 <- conv3_2
I0701 13:51:03.996486  2899 net.cpp:408] conv3_3 -> conv3_3
I0701 13:51:03.999912  2899 net.cpp:150] Setting up conv3_3
I0701 13:51:03.999934  2899 net.cpp:157] Top shape: 2 256 144 192 (14155776)
I0701 13:51:03.999936  2899 net.cpp:165] Memory required for data: 1743788764
I0701 13:51:03.999944  2899 layer_factory.hpp:77] Creating layer relu3_3
I0701 13:51:03.999956  2899 net.cpp:100] Creating Layer relu3_3
I0701 13:51:03.999960  2899 net.cpp:434] relu3_3 <- conv3_3
I0701 13:51:03.999967  2899 net.cpp:395] relu3_3 -> conv3_3 (in-place)
I0701 13:51:04.000785  2899 net.cpp:150] Setting up relu3_3
I0701 13:51:04.000797  2899 net.cpp:157] Top shape: 2 256 144 192 (14155776)
I0701 13:51:04.000800  2899 net.cpp:165] Memory required for data: 1800411868
I0701 13:51:04.000804  2899 layer_factory.hpp:77] Creating layer pool3
I0701 13:51:04.000813  2899 net.cpp:100] Creating Layer pool3
I0701 13:51:04.000816  2899 net.cpp:434] pool3 <- conv3_3
I0701 13:51:04.000823  2899 net.cpp:408] pool3 -> pool3
I0701 13:51:04.000897  2899 net.cpp:150] Setting up pool3
I0701 13:51:04.000908  2899 net.cpp:157] Top shape: 2 256 72 96 (3538944)
I0701 13:51:04.000912  2899 net.cpp:165] Memory required for data: 1814567644
I0701 13:51:04.000916  2899 layer_factory.hpp:77] Creating layer conv4_1
I0701 13:51:04.000923  2899 net.cpp:100] Creating Layer conv4_1
I0701 13:51:04.000927  2899 net.cpp:434] conv4_1 <- pool3
I0701 13:51:04.000933  2899 net.cpp:408] conv4_1 -> conv4_1
I0701 13:51:04.006099  2899 net.cpp:150] Setting up conv4_1
I0701 13:51:04.006124  2899 net.cpp:157] Top shape: 2 512 72 96 (7077888)
I0701 13:51:04.006129  2899 net.cpp:165] Memory required for data: 1842879196
I0701 13:51:04.006139  2899 layer_factory.hpp:77] Creating layer relu4_1
I0701 13:51:04.006148  2899 net.cpp:100] Creating Layer relu4_1
I0701 13:51:04.006153  2899 net.cpp:434] relu4_1 <- conv4_1
I0701 13:51:04.006160  2899 net.cpp:395] relu4_1 -> conv4_1 (in-place)
I0701 13:51:04.006501  2899 net.cpp:150] Setting up relu4_1
I0701 13:51:04.006512  2899 net.cpp:157] Top shape: 2 512 72 96 (7077888)
I0701 13:51:04.006518  2899 net.cpp:165] Memory required for data: 1871190748
I0701 13:51:04.006525  2899 layer_factory.hpp:77] Creating layer conv4_2
I0701 13:51:04.006533  2899 net.cpp:100] Creating Layer conv4_2
I0701 13:51:04.006537  2899 net.cpp:434] conv4_2 <- conv4_1
I0701 13:51:04.006544  2899 net.cpp:408] conv4_2 -> conv4_2
I0701 13:51:04.016230  2899 net.cpp:150] Setting up conv4_2
I0701 13:51:04.016248  2899 net.cpp:157] Top shape: 2 512 72 96 (7077888)
I0701 13:51:04.016252  2899 net.cpp:165] Memory required for data: 1899502300
I0701 13:51:04.016266  2899 layer_factory.hpp:77] Creating layer relu4_2
I0701 13:51:04.016276  2899 net.cpp:100] Creating Layer relu4_2
I0701 13:51:04.016281  2899 net.cpp:434] relu4_2 <- conv4_2
I0701 13:51:04.016289  2899 net.cpp:395] relu4_2 -> conv4_2 (in-place)
I0701 13:51:04.016652  2899 net.cpp:150] Setting up relu4_2
I0701 13:51:04.016660  2899 net.cpp:157] Top shape: 2 512 72 96 (7077888)
I0701 13:51:04.016662  2899 net.cpp:165] Memory required for data: 1927813852
I0701 13:51:04.016665  2899 layer_factory.hpp:77] Creating layer conv4_3
I0701 13:51:04.016675  2899 net.cpp:100] Creating Layer conv4_3
I0701 13:51:04.016680  2899 net.cpp:434] conv4_3 <- conv4_2
I0701 13:51:04.016686  2899 net.cpp:408] conv4_3 -> conv4_3
I0701 13:51:04.022475  2899 net.cpp:150] Setting up conv4_3
I0701 13:51:04.022496  2899 net.cpp:157] Top shape: 2 512 72 96 (7077888)
I0701 13:51:04.022500  2899 net.cpp:165] Memory required for data: 1956125404
I0701 13:51:04.022506  2899 layer_factory.hpp:77] Creating layer relu4_3
I0701 13:51:04.022517  2899 net.cpp:100] Creating Layer relu4_3
I0701 13:51:04.022521  2899 net.cpp:434] relu4_3 <- conv4_3
I0701 13:51:04.022528  2899 net.cpp:395] relu4_3 -> conv4_3 (in-place)
I0701 13:51:04.023375  2899 net.cpp:150] Setting up relu4_3
I0701 13:51:04.023388  2899 net.cpp:157] Top shape: 2 512 72 96 (7077888)
I0701 13:51:04.023391  2899 net.cpp:165] Memory required for data: 1984436956
I0701 13:51:04.023394  2899 layer_factory.hpp:77] Creating layer conv4_3_relu4_3_0_split
I0701 13:51:04.023401  2899 net.cpp:100] Creating Layer conv4_3_relu4_3_0_split
I0701 13:51:04.023406  2899 net.cpp:434] conv4_3_relu4_3_0_split <- conv4_3
I0701 13:51:04.023412  2899 net.cpp:408] conv4_3_relu4_3_0_split -> conv4_3_relu4_3_0_split_0
I0701 13:51:04.023422  2899 net.cpp:408] conv4_3_relu4_3_0_split -> conv4_3_relu4_3_0_split_1
I0701 13:51:04.023432  2899 net.cpp:408] conv4_3_relu4_3_0_split -> conv4_3_relu4_3_0_split_2
I0701 13:51:04.023516  2899 net.cpp:150] Setting up conv4_3_relu4_3_0_split
I0701 13:51:04.023524  2899 net.cpp:157] Top shape: 2 512 72 96 (7077888)
I0701 13:51:04.023527  2899 net.cpp:157] Top shape: 2 512 72 96 (7077888)
I0701 13:51:04.023531  2899 net.cpp:157] Top shape: 2 512 72 96 (7077888)
I0701 13:51:04.023535  2899 net.cpp:165] Memory required for data: 2069371612
I0701 13:51:04.023537  2899 layer_factory.hpp:77] Creating layer loss1_conv1
I0701 13:51:04.023555  2899 net.cpp:100] Creating Layer loss1_conv1
I0701 13:51:04.023558  2899 net.cpp:434] loss1_conv1 <- conv4_3_relu4_3_0_split_0
I0701 13:51:04.023566  2899 net.cpp:408] loss1_conv1 -> loss1_conv1
I0701 13:51:04.045872  2899 net.cpp:150] Setting up loss1_conv1
I0701 13:51:04.045899  2899 net.cpp:157] Top shape: 2 512 72 96 (7077888)
I0701 13:51:04.045903  2899 net.cpp:165] Memory required for data: 2097683164
I0701 13:51:04.045915  2899 layer_factory.hpp:77] Creating layer loss_relu1
I0701 13:51:04.045925  2899 net.cpp:100] Creating Layer loss_relu1
I0701 13:51:04.045931  2899 net.cpp:434] loss_relu1 <- loss1_conv1
I0701 13:51:04.045939  2899 net.cpp:395] loss_relu1 -> loss1_conv1 (in-place)
I0701 13:51:04.046305  2899 net.cpp:150] Setting up loss_relu1
I0701 13:51:04.046315  2899 net.cpp:157] Top shape: 2 512 72 96 (7077888)
I0701 13:51:04.046319  2899 net.cpp:165] Memory required for data: 2125994716
I0701 13:51:04.046321  2899 layer_factory.hpp:77] Creating layer loss1_conv1_loss_relu1_0_split
I0701 13:51:04.046329  2899 net.cpp:100] Creating Layer loss1_conv1_loss_relu1_0_split
I0701 13:51:04.046332  2899 net.cpp:434] loss1_conv1_loss_relu1_0_split <- loss1_conv1
I0701 13:51:04.046337  2899 net.cpp:408] loss1_conv1_loss_relu1_0_split -> loss1_conv1_loss_relu1_0_split_0
I0701 13:51:04.046347  2899 net.cpp:408] loss1_conv1_loss_relu1_0_split -> loss1_conv1_loss_relu1_0_split_1
I0701 13:51:04.046403  2899 net.cpp:150] Setting up loss1_conv1_loss_relu1_0_split
I0701 13:51:04.046411  2899 net.cpp:157] Top shape: 2 512 72 96 (7077888)
I0701 13:51:04.046416  2899 net.cpp:157] Top shape: 2 512 72 96 (7077888)
I0701 13:51:04.046417  2899 net.cpp:165] Memory required for data: 2182617820
I0701 13:51:04.046420  2899 layer_factory.hpp:77] Creating layer LFCN_1_3x5
I0701 13:51:04.046432  2899 net.cpp:100] Creating Layer LFCN_1_3x5
I0701 13:51:04.046437  2899 net.cpp:434] LFCN_1_3x5 <- loss1_conv1_loss_relu1_0_split_0
I0701 13:51:04.046443  2899 net.cpp:408] LFCN_1_3x5 -> LFCN_1_3x5
I0701 13:51:04.049448  2899 net.cpp:150] Setting up LFCN_1_3x5
I0701 13:51:04.049479  2899 net.cpp:157] Top shape: 2 7 72 96 (96768)
I0701 13:51:04.049482  2899 net.cpp:165] Memory required for data: 2183004892
I0701 13:51:04.049499  2899 layer_factory.hpp:77] Creating layer LFCN_1_3x5_LFCN_1_3x5_0_split
I0701 13:51:04.049511  2899 net.cpp:100] Creating Layer LFCN_1_3x5_LFCN_1_3x5_0_split
I0701 13:51:04.049517  2899 net.cpp:434] LFCN_1_3x5_LFCN_1_3x5_0_split <- LFCN_1_3x5
I0701 13:51:04.049527  2899 net.cpp:408] LFCN_1_3x5_LFCN_1_3x5_0_split -> LFCN_1_3x5_LFCN_1_3x5_0_split_0
I0701 13:51:04.049538  2899 net.cpp:408] LFCN_1_3x5_LFCN_1_3x5_0_split -> LFCN_1_3x5_LFCN_1_3x5_0_split_1
I0701 13:51:04.049546  2899 net.cpp:408] LFCN_1_3x5_LFCN_1_3x5_0_split -> LFCN_1_3x5_LFCN_1_3x5_0_split_2
I0701 13:51:04.049612  2899 net.cpp:150] Setting up LFCN_1_3x5_LFCN_1_3x5_0_split
I0701 13:51:04.049618  2899 net.cpp:157] Top shape: 2 7 72 96 (96768)
I0701 13:51:04.049621  2899 net.cpp:157] Top shape: 2 7 72 96 (96768)
I0701 13:51:04.049624  2899 net.cpp:157] Top shape: 2 7 72 96 (96768)
I0701 13:51:04.049628  2899 net.cpp:165] Memory required for data: 2184166108
I0701 13:51:04.049630  2899 layer_factory.hpp:77] Creating layer detection_loss_1_3x5
I0701 13:51:04.049639  2899 net.cpp:100] Creating Layer detection_loss_1_3x5
I0701 13:51:04.049643  2899 net.cpp:434] detection_loss_1_3x5 <- LFCN_1_3x5_LFCN_1_3x5_0_split_0
I0701 13:51:04.049648  2899 net.cpp:434] detection_loss_1_3x5 <- label_1_3x5_data_1_split_0
I0701 13:51:04.049654  2899 net.cpp:408] detection_loss_1_3x5 -> loss_1_3x5
I0701 13:51:04.049661  2899 layer_factory.hpp:77] Creating layer detection_loss_1_3x5
I0701 13:51:04.050158  2899 net.cpp:150] Setting up detection_loss_1_3x5
I0701 13:51:04.050168  2899 net.cpp:157] Top shape: 1 1 1 2 (2)
I0701 13:51:04.050170  2899 net.cpp:160]     with loss weight 0.5
I0701 13:51:04.050179  2899 net.cpp:165] Memory required for data: 2184166116
I0701 13:51:04.050182  2899 layer_factory.hpp:77] Creating layer detection_accuracy_1_3x5
I0701 13:51:04.050189  2899 net.cpp:100] Creating Layer detection_accuracy_1_3x5
I0701 13:51:04.050194  2899 net.cpp:434] detection_accuracy_1_3x5 <- LFCN_1_3x5_LFCN_1_3x5_0_split_1
I0701 13:51:04.050199  2899 net.cpp:434] detection_accuracy_1_3x5 <- label_1_3x5_data_1_split_1
I0701 13:51:04.050205  2899 net.cpp:408] detection_accuracy_1_3x5 -> accuracy_1_3x5
I0701 13:51:04.050213  2899 net.cpp:408] detection_accuracy_1_3x5 -> boxiou_1_3x5
I0701 13:51:04.050262  2899 net.cpp:150] Setting up detection_accuracy_1_3x5
I0701 13:51:04.050268  2899 net.cpp:157] Top shape: 1 1 1 2 (2)
I0701 13:51:04.050272  2899 net.cpp:157] Top shape: 1 1 1 1 (1)
I0701 13:51:04.050274  2899 net.cpp:165] Memory required for data: 2184166128
I0701 13:51:04.050277  2899 layer_factory.hpp:77] Creating layer LFCN_1_5x7
I0701 13:51:04.050288  2899 net.cpp:100] Creating Layer LFCN_1_5x7
I0701 13:51:04.050292  2899 net.cpp:434] LFCN_1_5x7 <- loss1_conv1_loss_relu1_0_split_1
I0701 13:51:04.050298  2899 net.cpp:408] LFCN_1_5x7 -> LFCN_1_5x7
I0701 13:51:04.056077  2899 net.cpp:150] Setting up LFCN_1_5x7
I0701 13:51:04.056095  2899 net.cpp:157] Top shape: 2 7 72 96 (96768)
I0701 13:51:04.056098  2899 net.cpp:165] Memory required for data: 2184553200
I0701 13:51:04.056109  2899 layer_factory.hpp:77] Creating layer LFCN_1_5x7_LFCN_1_5x7_0_split
I0701 13:51:04.056123  2899 net.cpp:100] Creating Layer LFCN_1_5x7_LFCN_1_5x7_0_split
I0701 13:51:04.056129  2899 net.cpp:434] LFCN_1_5x7_LFCN_1_5x7_0_split <- LFCN_1_5x7
I0701 13:51:04.056138  2899 net.cpp:408] LFCN_1_5x7_LFCN_1_5x7_0_split -> LFCN_1_5x7_LFCN_1_5x7_0_split_0
I0701 13:51:04.056152  2899 net.cpp:408] LFCN_1_5x7_LFCN_1_5x7_0_split -> LFCN_1_5x7_LFCN_1_5x7_0_split_1
I0701 13:51:04.056161  2899 net.cpp:408] LFCN_1_5x7_LFCN_1_5x7_0_split -> LFCN_1_5x7_LFCN_1_5x7_0_split_2
I0701 13:51:04.056223  2899 net.cpp:150] Setting up LFCN_1_5x7_LFCN_1_5x7_0_split
I0701 13:51:04.056229  2899 net.cpp:157] Top shape: 2 7 72 96 (96768)
I0701 13:51:04.056233  2899 net.cpp:157] Top shape: 2 7 72 96 (96768)
I0701 13:51:04.056237  2899 net.cpp:157] Top shape: 2 7 72 96 (96768)
I0701 13:51:04.056239  2899 net.cpp:165] Memory required for data: 2185714416
I0701 13:51:04.056242  2899 layer_factory.hpp:77] Creating layer detection_loss_1_5x7
I0701 13:51:04.056251  2899 net.cpp:100] Creating Layer detection_loss_1_5x7
I0701 13:51:04.056255  2899 net.cpp:434] detection_loss_1_5x7 <- LFCN_1_5x7_LFCN_1_5x7_0_split_0
I0701 13:51:04.056260  2899 net.cpp:434] detection_loss_1_5x7 <- label_1_5x7_data_2_split_0
I0701 13:51:04.056267  2899 net.cpp:408] detection_loss_1_5x7 -> loss_1_5x7
I0701 13:51:04.056277  2899 layer_factory.hpp:77] Creating layer detection_loss_1_5x7
I0701 13:51:04.057359  2899 net.cpp:150] Setting up detection_loss_1_5x7
I0701 13:51:04.057371  2899 net.cpp:157] Top shape: 1 1 1 2 (2)
I0701 13:51:04.057374  2899 net.cpp:160]     with loss weight 0.9
I0701 13:51:04.057385  2899 net.cpp:165] Memory required for data: 2185714424
I0701 13:51:04.057389  2899 layer_factory.hpp:77] Creating layer detection_accuracy_1_5x7
I0701 13:51:04.057399  2899 net.cpp:100] Creating Layer detection_accuracy_1_5x7
I0701 13:51:04.057404  2899 net.cpp:434] detection_accuracy_1_5x7 <- LFCN_1_5x7_LFCN_1_5x7_0_split_1
I0701 13:51:04.057410  2899 net.cpp:434] detection_accuracy_1_5x7 <- label_1_5x7_data_2_split_1
I0701 13:51:04.057416  2899 net.cpp:408] detection_accuracy_1_5x7 -> accuracy_1_5x7
I0701 13:51:04.057425  2899 net.cpp:408] detection_accuracy_1_5x7 -> boxiou_1_5x7
I0701 13:51:04.057480  2899 net.cpp:150] Setting up detection_accuracy_1_5x7
I0701 13:51:04.057490  2899 net.cpp:157] Top shape: 1 1 1 2 (2)
I0701 13:51:04.057494  2899 net.cpp:157] Top shape: 1 1 1 1 (1)
I0701 13:51:04.057497  2899 net.cpp:165] Memory required for data: 2185714436
I0701 13:51:04.057499  2899 layer_factory.hpp:77] Creating layer pool4
I0701 13:51:04.057508  2899 net.cpp:100] Creating Layer pool4
I0701 13:51:04.057512  2899 net.cpp:434] pool4 <- conv4_3_relu4_3_0_split_1
I0701 13:51:04.057518  2899 net.cpp:408] pool4 -> pool4
I0701 13:51:04.057569  2899 net.cpp:150] Setting up pool4
I0701 13:51:04.057574  2899 net.cpp:157] Top shape: 2 512 36 48 (1769472)
I0701 13:51:04.057576  2899 net.cpp:165] Memory required for data: 2192792324
I0701 13:51:04.057579  2899 layer_factory.hpp:77] Creating layer conv5_1
I0701 13:51:04.057587  2899 net.cpp:100] Creating Layer conv5_1
I0701 13:51:04.057591  2899 net.cpp:434] conv5_1 <- pool4
I0701 13:51:04.057596  2899 net.cpp:408] conv5_1 -> conv5_1
I0701 13:51:04.063431  2899 net.cpp:150] Setting up conv5_1
I0701 13:51:04.063452  2899 net.cpp:157] Top shape: 2 512 36 48 (1769472)
I0701 13:51:04.063455  2899 net.cpp:165] Memory required for data: 2199870212
I0701 13:51:04.063464  2899 layer_factory.hpp:77] Creating layer relu5_1
I0701 13:51:04.063474  2899 net.cpp:100] Creating Layer relu5_1
I0701 13:51:04.063479  2899 net.cpp:434] relu5_1 <- conv5_1
I0701 13:51:04.063488  2899 net.cpp:395] relu5_1 -> conv5_1 (in-place)
I0701 13:51:04.063766  2899 net.cpp:150] Setting up relu5_1
I0701 13:51:04.063776  2899 net.cpp:157] Top shape: 2 512 36 48 (1769472)
I0701 13:51:04.063778  2899 net.cpp:165] Memory required for data: 2206948100
I0701 13:51:04.063781  2899 layer_factory.hpp:77] Creating layer conv5_2
I0701 13:51:04.063791  2899 net.cpp:100] Creating Layer conv5_2
I0701 13:51:04.063794  2899 net.cpp:434] conv5_2 <- conv5_1
I0701 13:51:04.063798  2899 net.cpp:408] conv5_2 -> conv5_2
I0701 13:51:04.070284  2899 net.cpp:150] Setting up conv5_2
I0701 13:51:04.070308  2899 net.cpp:157] Top shape: 2 512 36 48 (1769472)
I0701 13:51:04.070312  2899 net.cpp:165] Memory required for data: 2214025988
I0701 13:51:04.070322  2899 layer_factory.hpp:77] Creating layer relu5_2
I0701 13:51:04.070330  2899 net.cpp:100] Creating Layer relu5_2
I0701 13:51:04.070335  2899 net.cpp:434] relu5_2 <- conv5_2
I0701 13:51:04.070343  2899 net.cpp:395] relu5_2 -> conv5_2 (in-place)
I0701 13:51:04.070724  2899 net.cpp:150] Setting up relu5_2
I0701 13:51:04.070734  2899 net.cpp:157] Top shape: 2 512 36 48 (1769472)
I0701 13:51:04.070737  2899 net.cpp:165] Memory required for data: 2221103876
I0701 13:51:04.070740  2899 layer_factory.hpp:77] Creating layer conv5_3
I0701 13:51:04.070750  2899 net.cpp:100] Creating Layer conv5_3
I0701 13:51:04.070753  2899 net.cpp:434] conv5_3 <- conv5_2
I0701 13:51:04.070760  2899 net.cpp:408] conv5_3 -> conv5_3
I0701 13:51:04.077782  2899 net.cpp:150] Setting up conv5_3
I0701 13:51:04.077800  2899 net.cpp:157] Top shape: 2 512 36 48 (1769472)
I0701 13:51:04.077803  2899 net.cpp:165] Memory required for data: 2228181764
I0701 13:51:04.077813  2899 layer_factory.hpp:77] Creating layer relu5_3
I0701 13:51:04.077824  2899 net.cpp:100] Creating Layer relu5_3
I0701 13:51:04.077829  2899 net.cpp:434] relu5_3 <- conv5_3
I0701 13:51:04.077836  2899 net.cpp:395] relu5_3 -> conv5_3 (in-place)
I0701 13:51:04.078665  2899 net.cpp:150] Setting up relu5_3
I0701 13:51:04.078676  2899 net.cpp:157] Top shape: 2 512 36 48 (1769472)
I0701 13:51:04.078680  2899 net.cpp:165] Memory required for data: 2235259652
I0701 13:51:04.078683  2899 layer_factory.hpp:77] Creating layer conv5_3_relu5_3_0_split
I0701 13:51:04.078691  2899 net.cpp:100] Creating Layer conv5_3_relu5_3_0_split
I0701 13:51:04.078696  2899 net.cpp:434] conv5_3_relu5_3_0_split <- conv5_3
I0701 13:51:04.078703  2899 net.cpp:408] conv5_3_relu5_3_0_split -> conv5_3_relu5_3_0_split_0
I0701 13:51:04.078712  2899 net.cpp:408] conv5_3_relu5_3_0_split -> conv5_3_relu5_3_0_split_1
I0701 13:51:04.078719  2899 net.cpp:408] conv5_3_relu5_3_0_split -> conv5_3_relu5_3_0_split_2
I0701 13:51:04.078790  2899 net.cpp:150] Setting up conv5_3_relu5_3_0_split
I0701 13:51:04.078796  2899 net.cpp:157] Top shape: 2 512 36 48 (1769472)
I0701 13:51:04.078800  2899 net.cpp:157] Top shape: 2 512 36 48 (1769472)
I0701 13:51:04.078804  2899 net.cpp:157] Top shape: 2 512 36 48 (1769472)
I0701 13:51:04.078806  2899 net.cpp:165] Memory required for data: 2256493316
I0701 13:51:04.078809  2899 layer_factory.hpp:77] Creating layer LFCN_2_3x5
I0701 13:51:04.078820  2899 net.cpp:100] Creating Layer LFCN_2_3x5
I0701 13:51:04.078824  2899 net.cpp:434] LFCN_2_3x5 <- conv5_3_relu5_3_0_split_0
I0701 13:51:04.078831  2899 net.cpp:408] LFCN_2_3x5 -> LFCN_2_3x5
I0701 13:51:04.081907  2899 net.cpp:150] Setting up LFCN_2_3x5
I0701 13:51:04.081928  2899 net.cpp:157] Top shape: 2 7 36 48 (24192)
I0701 13:51:04.081931  2899 net.cpp:165] Memory required for data: 2256590084
I0701 13:51:04.081948  2899 layer_factory.hpp:77] Creating layer LFCN_2_3x5_LFCN_2_3x5_0_split
I0701 13:51:04.081959  2899 net.cpp:100] Creating Layer LFCN_2_3x5_LFCN_2_3x5_0_split
I0701 13:51:04.081964  2899 net.cpp:434] LFCN_2_3x5_LFCN_2_3x5_0_split <- LFCN_2_3x5
I0701 13:51:04.081971  2899 net.cpp:408] LFCN_2_3x5_LFCN_2_3x5_0_split -> LFCN_2_3x5_LFCN_2_3x5_0_split_0
I0701 13:51:04.081993  2899 net.cpp:408] LFCN_2_3x5_LFCN_2_3x5_0_split -> LFCN_2_3x5_LFCN_2_3x5_0_split_1
I0701 13:51:04.082000  2899 net.cpp:408] LFCN_2_3x5_LFCN_2_3x5_0_split -> LFCN_2_3x5_LFCN_2_3x5_0_split_2
I0701 13:51:04.082060  2899 net.cpp:150] Setting up LFCN_2_3x5_LFCN_2_3x5_0_split
I0701 13:51:04.082068  2899 net.cpp:157] Top shape: 2 7 36 48 (24192)
I0701 13:51:04.082072  2899 net.cpp:157] Top shape: 2 7 36 48 (24192)
I0701 13:51:04.082077  2899 net.cpp:157] Top shape: 2 7 36 48 (24192)
I0701 13:51:04.082078  2899 net.cpp:165] Memory required for data: 2256880388
I0701 13:51:04.082082  2899 layer_factory.hpp:77] Creating layer detection_loss_2_3x5
I0701 13:51:04.082089  2899 net.cpp:100] Creating Layer detection_loss_2_3x5
I0701 13:51:04.082094  2899 net.cpp:434] detection_loss_2_3x5 <- LFCN_2_3x5_LFCN_2_3x5_0_split_0
I0701 13:51:04.082099  2899 net.cpp:434] detection_loss_2_3x5 <- label_2_3x5_data_3_split_0
I0701 13:51:04.082106  2899 net.cpp:408] detection_loss_2_3x5 -> loss_2_3x5
I0701 13:51:04.082115  2899 layer_factory.hpp:77] Creating layer detection_loss_2_3x5
I0701 13:51:04.083156  2899 net.cpp:150] Setting up detection_loss_2_3x5
I0701 13:51:04.083168  2899 net.cpp:157] Top shape: 1 1 1 2 (2)
I0701 13:51:04.083171  2899 net.cpp:160]     with loss weight 1
I0701 13:51:04.083180  2899 net.cpp:165] Memory required for data: 2256880396
I0701 13:51:04.083184  2899 layer_factory.hpp:77] Creating layer detection_accuracy_2_3x5
I0701 13:51:04.083192  2899 net.cpp:100] Creating Layer detection_accuracy_2_3x5
I0701 13:51:04.083197  2899 net.cpp:434] detection_accuracy_2_3x5 <- LFCN_2_3x5_LFCN_2_3x5_0_split_1
I0701 13:51:04.083204  2899 net.cpp:434] detection_accuracy_2_3x5 <- label_2_3x5_data_3_split_1
I0701 13:51:04.083210  2899 net.cpp:408] detection_accuracy_2_3x5 -> accuracy_2_3x5
I0701 13:51:04.083218  2899 net.cpp:408] detection_accuracy_2_3x5 -> boxiou_2_3x5
I0701 13:51:04.083266  2899 net.cpp:150] Setting up detection_accuracy_2_3x5
I0701 13:51:04.083271  2899 net.cpp:157] Top shape: 1 1 1 2 (2)
I0701 13:51:04.083273  2899 net.cpp:157] Top shape: 1 1 1 1 (1)
I0701 13:51:04.083276  2899 net.cpp:165] Memory required for data: 2256880408
I0701 13:51:04.083279  2899 layer_factory.hpp:77] Creating layer LFCN_2_5x7
I0701 13:51:04.083288  2899 net.cpp:100] Creating Layer LFCN_2_5x7
I0701 13:51:04.083292  2899 net.cpp:434] LFCN_2_5x7 <- conv5_3_relu5_3_0_split_1
I0701 13:51:04.083298  2899 net.cpp:408] LFCN_2_5x7 -> LFCN_2_5x7
I0701 13:51:04.086297  2899 net.cpp:150] Setting up LFCN_2_5x7
I0701 13:51:04.086313  2899 net.cpp:157] Top shape: 2 7 36 48 (24192)
I0701 13:51:04.086316  2899 net.cpp:165] Memory required for data: 2256977176
I0701 13:51:04.086325  2899 layer_factory.hpp:77] Creating layer LFCN_2_5x7_LFCN_2_5x7_0_split
I0701 13:51:04.086335  2899 net.cpp:100] Creating Layer LFCN_2_5x7_LFCN_2_5x7_0_split
I0701 13:51:04.086342  2899 net.cpp:434] LFCN_2_5x7_LFCN_2_5x7_0_split <- LFCN_2_5x7
I0701 13:51:04.086350  2899 net.cpp:408] LFCN_2_5x7_LFCN_2_5x7_0_split -> LFCN_2_5x7_LFCN_2_5x7_0_split_0
I0701 13:51:04.086362  2899 net.cpp:408] LFCN_2_5x7_LFCN_2_5x7_0_split -> LFCN_2_5x7_LFCN_2_5x7_0_split_1
I0701 13:51:04.086369  2899 net.cpp:408] LFCN_2_5x7_LFCN_2_5x7_0_split -> LFCN_2_5x7_LFCN_2_5x7_0_split_2
I0701 13:51:04.086438  2899 net.cpp:150] Setting up LFCN_2_5x7_LFCN_2_5x7_0_split
I0701 13:51:04.086443  2899 net.cpp:157] Top shape: 2 7 36 48 (24192)
I0701 13:51:04.086447  2899 net.cpp:157] Top shape: 2 7 36 48 (24192)
I0701 13:51:04.086450  2899 net.cpp:157] Top shape: 2 7 36 48 (24192)
I0701 13:51:04.086453  2899 net.cpp:165] Memory required for data: 2257267480
I0701 13:51:04.086457  2899 layer_factory.hpp:77] Creating layer detection_loss_2_5x7
I0701 13:51:04.086464  2899 net.cpp:100] Creating Layer detection_loss_2_5x7
I0701 13:51:04.086467  2899 net.cpp:434] detection_loss_2_5x7 <- LFCN_2_5x7_LFCN_2_5x7_0_split_0
I0701 13:51:04.086472  2899 net.cpp:434] detection_loss_2_5x7 <- label_2_5x7_data_4_split_0
I0701 13:51:04.086479  2899 net.cpp:408] detection_loss_2_5x7 -> loss_2_5x7
I0701 13:51:04.086489  2899 layer_factory.hpp:77] Creating layer detection_loss_2_5x7
I0701 13:51:04.086994  2899 net.cpp:150] Setting up detection_loss_2_5x7
I0701 13:51:04.087003  2899 net.cpp:157] Top shape: 1 1 1 2 (2)
I0701 13:51:04.087007  2899 net.cpp:160]     with loss weight 1
I0701 13:51:04.087014  2899 net.cpp:165] Memory required for data: 2257267488
I0701 13:51:04.087018  2899 layer_factory.hpp:77] Creating layer detection_accuracy_2_5x7
I0701 13:51:04.087028  2899 net.cpp:100] Creating Layer detection_accuracy_2_5x7
I0701 13:51:04.087031  2899 net.cpp:434] detection_accuracy_2_5x7 <- LFCN_2_5x7_LFCN_2_5x7_0_split_1
I0701 13:51:04.087038  2899 net.cpp:434] detection_accuracy_2_5x7 <- label_2_5x7_data_4_split_1
I0701 13:51:04.087044  2899 net.cpp:408] detection_accuracy_2_5x7 -> accuracy_2_5x7
I0701 13:51:04.087052  2899 net.cpp:408] detection_accuracy_2_5x7 -> boxiou_2_5x7
I0701 13:51:04.087110  2899 net.cpp:150] Setting up detection_accuracy_2_5x7
I0701 13:51:04.087118  2899 net.cpp:157] Top shape: 1 1 1 2 (2)
I0701 13:51:04.087121  2899 net.cpp:157] Top shape: 1 1 1 1 (1)
I0701 13:51:04.087124  2899 net.cpp:165] Memory required for data: 2257267500
I0701 13:51:04.087127  2899 layer_factory.hpp:77] Creating layer pool5
I0701 13:51:04.087134  2899 net.cpp:100] Creating Layer pool5
I0701 13:51:04.087138  2899 net.cpp:434] pool5 <- conv5_3_relu5_3_0_split_2
I0701 13:51:04.087144  2899 net.cpp:408] pool5 -> pool5
I0701 13:51:04.087195  2899 net.cpp:150] Setting up pool5
I0701 13:51:04.087201  2899 net.cpp:157] Top shape: 2 512 18 24 (442368)
I0701 13:51:04.087204  2899 net.cpp:165] Memory required for data: 2259036972
I0701 13:51:04.087208  2899 layer_factory.hpp:77] Creating layer conv6_1
I0701 13:51:04.087218  2899 net.cpp:100] Creating Layer conv6_1
I0701 13:51:04.087222  2899 net.cpp:434] conv6_1 <- pool5
I0701 13:51:04.087230  2899 net.cpp:408] conv6_1 -> conv6_1
I0701 13:51:04.109213  2899 net.cpp:150] Setting up conv6_1
I0701 13:51:04.109237  2899 net.cpp:157] Top shape: 2 512 18 24 (442368)
I0701 13:51:04.109241  2899 net.cpp:165] Memory required for data: 2260806444
I0701 13:51:04.109249  2899 layer_factory.hpp:77] Creating layer relu6_1
I0701 13:51:04.109259  2899 net.cpp:100] Creating Layer relu6_1
I0701 13:51:04.109266  2899 net.cpp:434] relu6_1 <- conv6_1
I0701 13:51:04.109272  2899 net.cpp:395] relu6_1 -> conv6_1 (in-place)
I0701 13:51:04.109577  2899 net.cpp:150] Setting up relu6_1
I0701 13:51:04.109587  2899 net.cpp:157] Top shape: 2 512 18 24 (442368)
I0701 13:51:04.109591  2899 net.cpp:165] Memory required for data: 2262575916
I0701 13:51:04.109594  2899 layer_factory.hpp:77] Creating layer conv6_1_relu6_1_0_split
I0701 13:51:04.109601  2899 net.cpp:100] Creating Layer conv6_1_relu6_1_0_split
I0701 13:51:04.109606  2899 net.cpp:434] conv6_1_relu6_1_0_split <- conv6_1
I0701 13:51:04.109613  2899 net.cpp:408] conv6_1_relu6_1_0_split -> conv6_1_relu6_1_0_split_0
I0701 13:51:04.109622  2899 net.cpp:408] conv6_1_relu6_1_0_split -> conv6_1_relu6_1_0_split_1
I0701 13:51:04.109628  2899 net.cpp:408] conv6_1_relu6_1_0_split -> conv6_1_relu6_1_0_split_2
I0701 13:51:04.109694  2899 net.cpp:150] Setting up conv6_1_relu6_1_0_split
I0701 13:51:04.109699  2899 net.cpp:157] Top shape: 2 512 18 24 (442368)
I0701 13:51:04.109702  2899 net.cpp:157] Top shape: 2 512 18 24 (442368)
I0701 13:51:04.109706  2899 net.cpp:157] Top shape: 2 512 18 24 (442368)
I0701 13:51:04.109709  2899 net.cpp:165] Memory required for data: 2267884332
I0701 13:51:04.109711  2899 layer_factory.hpp:77] Creating layer LFCN_3_3x5
I0701 13:51:04.109722  2899 net.cpp:100] Creating Layer LFCN_3_3x5
I0701 13:51:04.109726  2899 net.cpp:434] LFCN_3_3x5 <- conv6_1_relu6_1_0_split_0
I0701 13:51:04.109732  2899 net.cpp:408] LFCN_3_3x5 -> LFCN_3_3x5
I0701 13:51:04.112162  2899 net.cpp:150] Setting up LFCN_3_3x5
I0701 13:51:04.112177  2899 net.cpp:157] Top shape: 2 7 18 24 (6048)
I0701 13:51:04.112180  2899 net.cpp:165] Memory required for data: 2267908524
I0701 13:51:04.112188  2899 layer_factory.hpp:77] Creating layer LFCN_3_3x5_LFCN_3_3x5_0_split
I0701 13:51:04.112205  2899 net.cpp:100] Creating Layer LFCN_3_3x5_LFCN_3_3x5_0_split
I0701 13:51:04.112210  2899 net.cpp:434] LFCN_3_3x5_LFCN_3_3x5_0_split <- LFCN_3_3x5
I0701 13:51:04.112216  2899 net.cpp:408] LFCN_3_3x5_LFCN_3_3x5_0_split -> LFCN_3_3x5_LFCN_3_3x5_0_split_0
I0701 13:51:04.112226  2899 net.cpp:408] LFCN_3_3x5_LFCN_3_3x5_0_split -> LFCN_3_3x5_LFCN_3_3x5_0_split_1
I0701 13:51:04.112231  2899 net.cpp:408] LFCN_3_3x5_LFCN_3_3x5_0_split -> LFCN_3_3x5_LFCN_3_3x5_0_split_2
I0701 13:51:04.112291  2899 net.cpp:150] Setting up LFCN_3_3x5_LFCN_3_3x5_0_split
I0701 13:51:04.112298  2899 net.cpp:157] Top shape: 2 7 18 24 (6048)
I0701 13:51:04.112300  2899 net.cpp:157] Top shape: 2 7 18 24 (6048)
I0701 13:51:04.112304  2899 net.cpp:157] Top shape: 2 7 18 24 (6048)
I0701 13:51:04.112308  2899 net.cpp:165] Memory required for data: 2267981100
I0701 13:51:04.112310  2899 layer_factory.hpp:77] Creating layer detection_loss_3_3x5
I0701 13:51:04.112318  2899 net.cpp:100] Creating Layer detection_loss_3_3x5
I0701 13:51:04.112323  2899 net.cpp:434] detection_loss_3_3x5 <- LFCN_3_3x5_LFCN_3_3x5_0_split_0
I0701 13:51:04.112327  2899 net.cpp:434] detection_loss_3_3x5 <- label_3_3x5_data_5_split_0
I0701 13:51:04.112334  2899 net.cpp:408] detection_loss_3_3x5 -> loss_3_3x5
I0701 13:51:04.112342  2899 layer_factory.hpp:77] Creating layer detection_loss_3_3x5
I0701 13:51:04.113338  2899 net.cpp:150] Setting up detection_loss_3_3x5
I0701 13:51:04.113348  2899 net.cpp:157] Top shape: 1 1 1 2 (2)
I0701 13:51:04.113351  2899 net.cpp:160]     with loss weight 1
I0701 13:51:04.113360  2899 net.cpp:165] Memory required for data: 2267981108
I0701 13:51:04.113363  2899 layer_factory.hpp:77] Creating layer detection_accuracy_3_3x5
I0701 13:51:04.113373  2899 net.cpp:100] Creating Layer detection_accuracy_3_3x5
I0701 13:51:04.113379  2899 net.cpp:434] detection_accuracy_3_3x5 <- LFCN_3_3x5_LFCN_3_3x5_0_split_1
I0701 13:51:04.113384  2899 net.cpp:434] detection_accuracy_3_3x5 <- label_3_3x5_data_5_split_1
I0701 13:51:04.113389  2899 net.cpp:408] detection_accuracy_3_3x5 -> accuracy_3_3x5
I0701 13:51:04.113397  2899 net.cpp:408] detection_accuracy_3_3x5 -> boxiou_3_3x5
I0701 13:51:04.113446  2899 net.cpp:150] Setting up detection_accuracy_3_3x5
I0701 13:51:04.113451  2899 net.cpp:157] Top shape: 1 1 1 2 (2)
I0701 13:51:04.113456  2899 net.cpp:157] Top shape: 1 1 1 1 (1)
I0701 13:51:04.113457  2899 net.cpp:165] Memory required for data: 2267981120
I0701 13:51:04.113461  2899 layer_factory.hpp:77] Creating layer LFCN_3_5x7
I0701 13:51:04.113471  2899 net.cpp:100] Creating Layer LFCN_3_5x7
I0701 13:51:04.113476  2899 net.cpp:434] LFCN_3_5x7 <- conv6_1_relu6_1_0_split_1
I0701 13:51:04.113483  2899 net.cpp:408] LFCN_3_5x7 -> LFCN_3_5x7
I0701 13:51:04.115962  2899 net.cpp:150] Setting up LFCN_3_5x7
I0701 13:51:04.115977  2899 net.cpp:157] Top shape: 2 7 18 24 (6048)
I0701 13:51:04.115979  2899 net.cpp:165] Memory required for data: 2268005312
I0701 13:51:04.115988  2899 layer_factory.hpp:77] Creating layer LFCN_3_5x7_LFCN_3_5x7_0_split
I0701 13:51:04.115996  2899 net.cpp:100] Creating Layer LFCN_3_5x7_LFCN_3_5x7_0_split
I0701 13:51:04.116001  2899 net.cpp:434] LFCN_3_5x7_LFCN_3_5x7_0_split <- LFCN_3_5x7
I0701 13:51:04.116008  2899 net.cpp:408] LFCN_3_5x7_LFCN_3_5x7_0_split -> LFCN_3_5x7_LFCN_3_5x7_0_split_0
I0701 13:51:04.116019  2899 net.cpp:408] LFCN_3_5x7_LFCN_3_5x7_0_split -> LFCN_3_5x7_LFCN_3_5x7_0_split_1
I0701 13:51:04.116025  2899 net.cpp:408] LFCN_3_5x7_LFCN_3_5x7_0_split -> LFCN_3_5x7_LFCN_3_5x7_0_split_2
I0701 13:51:04.116086  2899 net.cpp:150] Setting up LFCN_3_5x7_LFCN_3_5x7_0_split
I0701 13:51:04.116091  2899 net.cpp:157] Top shape: 2 7 18 24 (6048)
I0701 13:51:04.116096  2899 net.cpp:157] Top shape: 2 7 18 24 (6048)
I0701 13:51:04.116099  2899 net.cpp:157] Top shape: 2 7 18 24 (6048)
I0701 13:51:04.116101  2899 net.cpp:165] Memory required for data: 2268077888
I0701 13:51:04.116104  2899 layer_factory.hpp:77] Creating layer detection_loss_3_5x7
I0701 13:51:04.116111  2899 net.cpp:100] Creating Layer detection_loss_3_5x7
I0701 13:51:04.116116  2899 net.cpp:434] detection_loss_3_5x7 <- LFCN_3_5x7_LFCN_3_5x7_0_split_0
I0701 13:51:04.116120  2899 net.cpp:434] detection_loss_3_5x7 <- label_3_5x7_data_6_split_0
I0701 13:51:04.116127  2899 net.cpp:408] detection_loss_3_5x7 -> loss_3_5x7
I0701 13:51:04.116135  2899 layer_factory.hpp:77] Creating layer detection_loss_3_5x7
I0701 13:51:04.116621  2899 net.cpp:150] Setting up detection_loss_3_5x7
I0701 13:51:04.116629  2899 net.cpp:157] Top shape: 1 1 1 2 (2)
I0701 13:51:04.116632  2899 net.cpp:160]     with loss weight 1
I0701 13:51:04.116641  2899 net.cpp:165] Memory required for data: 2268077896
I0701 13:51:04.116645  2899 layer_factory.hpp:77] Creating layer detection_accuracy_3_5x7
I0701 13:51:04.116652  2899 net.cpp:100] Creating Layer detection_accuracy_3_5x7
I0701 13:51:04.116657  2899 net.cpp:434] detection_accuracy_3_5x7 <- LFCN_3_5x7_LFCN_3_5x7_0_split_1
I0701 13:51:04.116662  2899 net.cpp:434] detection_accuracy_3_5x7 <- label_3_5x7_data_6_split_1
I0701 13:51:04.116669  2899 net.cpp:408] detection_accuracy_3_5x7 -> accuracy_3_5x7
I0701 13:51:04.116677  2899 net.cpp:408] detection_accuracy_3_5x7 -> boxiou_3_5x7
I0701 13:51:04.116724  2899 net.cpp:150] Setting up detection_accuracy_3_5x7
I0701 13:51:04.116729  2899 net.cpp:157] Top shape: 1 1 1 2 (2)
I0701 13:51:04.116732  2899 net.cpp:157] Top shape: 1 1 1 1 (1)
I0701 13:51:04.116734  2899 net.cpp:165] Memory required for data: 2268077908
I0701 13:51:04.116737  2899 layer_factory.hpp:77] Creating layer pool6
I0701 13:51:04.116744  2899 net.cpp:100] Creating Layer pool6
I0701 13:51:04.116746  2899 net.cpp:434] pool6 <- conv6_1_relu6_1_0_split_2
I0701 13:51:04.116753  2899 net.cpp:408] pool6 -> pool6
I0701 13:51:04.116792  2899 net.cpp:150] Setting up pool6
I0701 13:51:04.116798  2899 net.cpp:157] Top shape: 2 512 9 12 (110592)
I0701 13:51:04.116801  2899 net.cpp:165] Memory required for data: 2268520276
I0701 13:51:04.116803  2899 layer_factory.hpp:77] Creating layer LFCN_4_3x5
I0701 13:51:04.116813  2899 net.cpp:100] Creating Layer LFCN_4_3x5
I0701 13:51:04.116817  2899 net.cpp:434] LFCN_4_3x5 <- pool6
I0701 13:51:04.116823  2899 net.cpp:408] LFCN_4_3x5 -> LFCN_4_3x5
I0701 13:51:04.119689  2899 net.cpp:150] Setting up LFCN_4_3x5
I0701 13:51:04.119704  2899 net.cpp:157] Top shape: 2 7 9 12 (1512)
I0701 13:51:04.119706  2899 net.cpp:165] Memory required for data: 2268526324
I0701 13:51:04.119715  2899 layer_factory.hpp:77] Creating layer LFCN_4_3x5_LFCN_4_3x5_0_split
I0701 13:51:04.119722  2899 net.cpp:100] Creating Layer LFCN_4_3x5_LFCN_4_3x5_0_split
I0701 13:51:04.119729  2899 net.cpp:434] LFCN_4_3x5_LFCN_4_3x5_0_split <- LFCN_4_3x5
I0701 13:51:04.119735  2899 net.cpp:408] LFCN_4_3x5_LFCN_4_3x5_0_split -> LFCN_4_3x5_LFCN_4_3x5_0_split_0
I0701 13:51:04.119745  2899 net.cpp:408] LFCN_4_3x5_LFCN_4_3x5_0_split -> LFCN_4_3x5_LFCN_4_3x5_0_split_1
I0701 13:51:04.119752  2899 net.cpp:408] LFCN_4_3x5_LFCN_4_3x5_0_split -> LFCN_4_3x5_LFCN_4_3x5_0_split_2
I0701 13:51:04.119820  2899 net.cpp:150] Setting up LFCN_4_3x5_LFCN_4_3x5_0_split
I0701 13:51:04.119825  2899 net.cpp:157] Top shape: 2 7 9 12 (1512)
I0701 13:51:04.119829  2899 net.cpp:157] Top shape: 2 7 9 12 (1512)
I0701 13:51:04.119832  2899 net.cpp:157] Top shape: 2 7 9 12 (1512)
I0701 13:51:04.119835  2899 net.cpp:165] Memory required for data: 2268544468
I0701 13:51:04.119838  2899 layer_factory.hpp:77] Creating layer detection_loss_4_3x5
I0701 13:51:04.119845  2899 net.cpp:100] Creating Layer detection_loss_4_3x5
I0701 13:51:04.119849  2899 net.cpp:434] detection_loss_4_3x5 <- LFCN_4_3x5_LFCN_4_3x5_0_split_0
I0701 13:51:04.119855  2899 net.cpp:434] detection_loss_4_3x5 <- label_4_3x5_data_7_split_0
I0701 13:51:04.119861  2899 net.cpp:408] detection_loss_4_3x5 -> loss_4_3x5
I0701 13:51:04.119873  2899 layer_factory.hpp:77] Creating layer detection_loss_4_3x5
I0701 13:51:04.120370  2899 net.cpp:150] Setting up detection_loss_4_3x5
I0701 13:51:04.120380  2899 net.cpp:157] Top shape: 1 1 1 2 (2)
I0701 13:51:04.120383  2899 net.cpp:160]     with loss weight 1
I0701 13:51:04.120393  2899 net.cpp:165] Memory required for data: 2268544476
I0701 13:51:04.120396  2899 layer_factory.hpp:77] Creating layer detection_accuracy_4_3x5
I0701 13:51:04.120404  2899 net.cpp:100] Creating Layer detection_accuracy_4_3x5
I0701 13:51:04.120407  2899 net.cpp:434] detection_accuracy_4_3x5 <- LFCN_4_3x5_LFCN_4_3x5_0_split_1
I0701 13:51:04.120414  2899 net.cpp:434] detection_accuracy_4_3x5 <- label_4_3x5_data_7_split_1
I0701 13:51:04.120419  2899 net.cpp:408] detection_accuracy_4_3x5 -> accuracy_4_3x5
I0701 13:51:04.120429  2899 net.cpp:408] detection_accuracy_4_3x5 -> boxiou_4_3x5
I0701 13:51:04.120476  2899 net.cpp:150] Setting up detection_accuracy_4_3x5
I0701 13:51:04.120481  2899 net.cpp:157] Top shape: 1 1 1 2 (2)
I0701 13:51:04.120484  2899 net.cpp:157] Top shape: 1 1 1 1 (1)
I0701 13:51:04.120487  2899 net.cpp:165] Memory required for data: 2268544488
I0701 13:51:04.120491  2899 layer_factory.hpp:77] Creating layer proposals
I0701 13:51:04.120498  2899 net.cpp:100] Creating Layer proposals
I0701 13:51:04.120503  2899 net.cpp:434] proposals <- LFCN_1_3x5_LFCN_1_3x5_0_split_2
I0701 13:51:04.120507  2899 net.cpp:434] proposals <- LFCN_1_5x7_LFCN_1_5x7_0_split_2
I0701 13:51:04.120512  2899 net.cpp:434] proposals <- LFCN_2_3x5_LFCN_2_3x5_0_split_2
I0701 13:51:04.120515  2899 net.cpp:434] proposals <- LFCN_2_5x7_LFCN_2_5x7_0_split_2
I0701 13:51:04.120518  2899 net.cpp:434] proposals <- LFCN_3_3x5_LFCN_3_3x5_0_split_2
I0701 13:51:04.120522  2899 net.cpp:434] proposals <- LFCN_3_5x7_LFCN_3_5x7_0_split_2
I0701 13:51:04.120525  2899 net.cpp:434] proposals <- LFCN_4_3x5_LFCN_4_3x5_0_split_2
I0701 13:51:04.120532  2899 net.cpp:408] proposals -> proposals
I0701 13:51:04.120559  2899 net.cpp:150] Setting up proposals
I0701 13:51:04.120564  2899 net.cpp:157] Top shape: 1 5 1 1 (5)
I0701 13:51:04.120566  2899 net.cpp:165] Memory required for data: 2268544508
I0701 13:51:04.120569  2899 layer_factory.hpp:77] Creating layer proposal_info
I0701 13:51:04.120579  2899 net.cpp:100] Creating Layer proposal_info
I0701 13:51:04.120581  2899 net.cpp:434] proposal_info <- proposals
I0701 13:51:04.120586  2899 net.cpp:434] proposal_info <- gt_boxes
I0701 13:51:04.120594  2899 net.cpp:408] proposal_info -> rois
I0701 13:51:04.120601  2899 net.cpp:408] proposal_info -> proposal_labels
I0701 13:51:04.120609  2899 net.cpp:408] proposal_info -> proposal_targets
I0701 13:51:04.120616  2899 net.cpp:408] proposal_info -> box_inside_weights
I0701 13:51:04.120623  2899 net.cpp:408] proposal_info -> box_outside_weights
I0701 13:51:04.120632  2899 net.cpp:408] proposal_info -> match_gt_boxes
I0701 13:51:04.120748  2899 net.cpp:150] Setting up proposal_info
I0701 13:51:04.120756  2899 net.cpp:157] Top shape: 64 5 1 1 (320)
I0701 13:51:04.120759  2899 net.cpp:157] Top shape: 64 1 1 1 (64)
I0701 13:51:04.120764  2899 net.cpp:157] Top shape: 64 12 1 1 (768)
I0701 13:51:04.120767  2899 net.cpp:157] Top shape: 64 12 1 1 (768)
I0701 13:51:04.120770  2899 net.cpp:157] Top shape: 64 12 1 1 (768)
I0701 13:51:04.120774  2899 net.cpp:157] Top shape: 64 6 1 1 (384)
I0701 13:51:04.120776  2899 net.cpp:165] Memory required for data: 2268556796
I0701 13:51:04.120780  2899 layer_factory.hpp:77] Creating layer rois_proposal_info_0_split
I0701 13:51:04.120785  2899 net.cpp:100] Creating Layer rois_proposal_info_0_split
I0701 13:51:04.120790  2899 net.cpp:434] rois_proposal_info_0_split <- rois
I0701 13:51:04.120795  2899 net.cpp:408] rois_proposal_info_0_split -> rois_proposal_info_0_split_0
I0701 13:51:04.120802  2899 net.cpp:408] rois_proposal_info_0_split -> rois_proposal_info_0_split_1
I0701 13:51:04.120808  2899 net.cpp:408] rois_proposal_info_0_split -> rois_proposal_info_0_split_2
I0701 13:51:04.120860  2899 net.cpp:150] Setting up rois_proposal_info_0_split
I0701 13:51:04.120864  2899 net.cpp:157] Top shape: 64 5 1 1 (320)
I0701 13:51:04.120868  2899 net.cpp:157] Top shape: 64 5 1 1 (320)
I0701 13:51:04.120872  2899 net.cpp:157] Top shape: 64 5 1 1 (320)
I0701 13:51:04.120874  2899 net.cpp:165] Memory required for data: 2268560636
I0701 13:51:04.120877  2899 layer_factory.hpp:77] Creating layer proposal_labels_proposal_info_1_split
I0701 13:51:04.120882  2899 net.cpp:100] Creating Layer proposal_labels_proposal_info_1_split
I0701 13:51:04.120885  2899 net.cpp:434] proposal_labels_proposal_info_1_split <- proposal_labels
I0701 13:51:04.120890  2899 net.cpp:408] proposal_labels_proposal_info_1_split -> proposal_labels_proposal_info_1_split_0
I0701 13:51:04.120896  2899 net.cpp:408] proposal_labels_proposal_info_1_split -> proposal_labels_proposal_info_1_split_1
I0701 13:51:04.120934  2899 net.cpp:150] Setting up proposal_labels_proposal_info_1_split
I0701 13:51:04.120939  2899 net.cpp:157] Top shape: 64 1 1 1 (64)
I0701 13:51:04.120942  2899 net.cpp:157] Top shape: 64 1 1 1 (64)
I0701 13:51:04.120944  2899 net.cpp:165] Memory required for data: 2268561148
I0701 13:51:04.120947  2899 layer_factory.hpp:77] Creating layer conv4_3_2x
I0701 13:51:04.120955  2899 net.cpp:100] Creating Layer conv4_3_2x
I0701 13:51:04.120959  2899 net.cpp:434] conv4_3_2x <- conv4_3_relu4_3_0_split_2
I0701 13:51:04.120965  2899 net.cpp:408] conv4_3_2x -> conv4_3_2x
I0701 13:51:04.121420  2899 net.cpp:150] Setting up conv4_3_2x
I0701 13:51:04.121429  2899 net.cpp:157] Top shape: 2 512 144 192 (28311552)
I0701 13:51:04.121433  2899 net.cpp:165] Memory required for data: 2381807356
I0701 13:51:04.121438  2899 layer_factory.hpp:77] Creating layer conv4_3_2x_conv4_3_2x_0_split
I0701 13:51:04.121443  2899 net.cpp:100] Creating Layer conv4_3_2x_conv4_3_2x_0_split
I0701 13:51:04.121448  2899 net.cpp:434] conv4_3_2x_conv4_3_2x_0_split <- conv4_3_2x
I0701 13:51:04.121453  2899 net.cpp:408] conv4_3_2x_conv4_3_2x_0_split -> conv4_3_2x_conv4_3_2x_0_split_0
I0701 13:51:04.121461  2899 net.cpp:408] conv4_3_2x_conv4_3_2x_0_split -> conv4_3_2x_conv4_3_2x_0_split_1
I0701 13:51:04.121500  2899 net.cpp:150] Setting up conv4_3_2x_conv4_3_2x_0_split
I0701 13:51:04.121505  2899 net.cpp:157] Top shape: 2 512 144 192 (28311552)
I0701 13:51:04.121510  2899 net.cpp:157] Top shape: 2 512 144 192 (28311552)
I0701 13:51:04.121512  2899 net.cpp:165] Memory required for data: 2608299772
I0701 13:51:04.121515  2899 layer_factory.hpp:77] Creating layer roi_pool_org
I0701 13:51:04.121522  2899 net.cpp:100] Creating Layer roi_pool_org
I0701 13:51:04.121526  2899 net.cpp:434] roi_pool_org <- conv4_3_2x_conv4_3_2x_0_split_0
I0701 13:51:04.121531  2899 net.cpp:434] roi_pool_org <- rois_proposal_info_0_split_0
I0701 13:51:04.121536  2899 net.cpp:408] roi_pool_org -> roi_pool_org
I0701 13:51:04.121543  2899 roi_pooling_layer.cpp:33] Spatial scale: 0.25
I0701 13:51:04.121585  2899 net.cpp:150] Setting up roi_pool_org
I0701 13:51:04.121590  2899 net.cpp:157] Top shape: 64 512 7 5 (1146880)
I0701 13:51:04.121593  2899 net.cpp:165] Memory required for data: 2612887292
I0701 13:51:04.121596  2899 layer_factory.hpp:77] Creating layer roi_pool_ctx
I0701 13:51:04.121603  2899 net.cpp:100] Creating Layer roi_pool_ctx
I0701 13:51:04.121605  2899 net.cpp:434] roi_pool_ctx <- conv4_3_2x_conv4_3_2x_0_split_1
I0701 13:51:04.121610  2899 net.cpp:434] roi_pool_ctx <- rois_proposal_info_0_split_1
I0701 13:51:04.121616  2899 net.cpp:408] roi_pool_ctx -> roi_pool_ctx
I0701 13:51:04.121621  2899 roi_pooling_layer.cpp:33] Spatial scale: 0.25
I0701 13:51:04.121664  2899 net.cpp:150] Setting up roi_pool_ctx
I0701 13:51:04.121668  2899 net.cpp:157] Top shape: 64 512 7 5 (1146880)
I0701 13:51:04.121670  2899 net.cpp:165] Memory required for data: 2617474812
I0701 13:51:04.121673  2899 layer_factory.hpp:77] Creating layer roi_pool
I0701 13:51:04.121677  2899 net.cpp:100] Creating Layer roi_pool
I0701 13:51:04.121681  2899 net.cpp:434] roi_pool <- roi_pool_org
I0701 13:51:04.121685  2899 net.cpp:434] roi_pool <- roi_pool_ctx
I0701 13:51:04.121693  2899 net.cpp:408] roi_pool -> roi_pool
I0701 13:51:04.121719  2899 net.cpp:150] Setting up roi_pool
I0701 13:51:04.121726  2899 net.cpp:157] Top shape: 64 1024 7 5 (2293760)
I0701 13:51:04.121729  2899 net.cpp:165] Memory required for data: 2626649852
I0701 13:51:04.121732  2899 layer_factory.hpp:77] Creating layer roi_c1
I0701 13:51:04.121742  2899 net.cpp:100] Creating Layer roi_c1
I0701 13:51:04.121745  2899 net.cpp:434] roi_c1 <- roi_pool
I0701 13:51:04.121752  2899 net.cpp:408] roi_c1 -> roi_c1
I0701 13:51:04.160425  2899 net.cpp:150] Setting up roi_c1
I0701 13:51:04.160444  2899 net.cpp:157] Top shape: 64 512 5 3 (491520)
I0701 13:51:04.160446  2899 net.cpp:165] Memory required for data: 2628615932
I0701 13:51:04.160455  2899 layer_factory.hpp:77] Creating layer roi_c1_relu
I0701 13:51:04.160465  2899 net.cpp:100] Creating Layer roi_c1_relu
I0701 13:51:04.160470  2899 net.cpp:434] roi_c1_relu <- roi_c1
I0701 13:51:04.160478  2899 net.cpp:395] roi_c1_relu -> roi_c1 (in-place)
I0701 13:51:04.161288  2899 net.cpp:150] Setting up roi_c1_relu
I0701 13:51:04.161299  2899 net.cpp:157] Top shape: 64 512 5 3 (491520)
I0701 13:51:04.161303  2899 net.cpp:165] Memory required for data: 2630582012
I0701 13:51:04.161306  2899 layer_factory.hpp:77] Creating layer fc6
I0701 13:51:04.161315  2899 net.cpp:100] Creating Layer fc6
I0701 13:51:04.161320  2899 net.cpp:434] fc6 <- roi_c1
I0701 13:51:04.161329  2899 net.cpp:408] fc6 -> fc6
I0701 13:51:04.283080  2899 net.cpp:150] Setting up fc6
I0701 13:51:04.283099  2899 net.cpp:157] Top shape: 64 2048 (131072)
I0701 13:51:04.283102  2899 net.cpp:165] Memory required for data: 2631106300
I0701 13:51:04.283112  2899 layer_factory.hpp:77] Creating layer relu6
I0701 13:51:04.283121  2899 net.cpp:100] Creating Layer relu6
I0701 13:51:04.283128  2899 net.cpp:434] relu6 <- fc6
I0701 13:51:04.283134  2899 net.cpp:395] relu6 -> fc6 (in-place)
I0701 13:51:04.283494  2899 net.cpp:150] Setting up relu6
I0701 13:51:04.283504  2899 net.cpp:157] Top shape: 64 2048 (131072)
I0701 13:51:04.283507  2899 net.cpp:165] Memory required for data: 2631630588
I0701 13:51:04.283511  2899 layer_factory.hpp:77] Creating layer drop6
I0701 13:51:04.283519  2899 net.cpp:100] Creating Layer drop6
I0701 13:51:04.283524  2899 net.cpp:434] drop6 <- fc6
I0701 13:51:04.283530  2899 net.cpp:395] drop6 -> fc6 (in-place)
I0701 13:51:04.283565  2899 net.cpp:150] Setting up drop6
I0701 13:51:04.283569  2899 net.cpp:157] Top shape: 64 2048 (131072)
I0701 13:51:04.283572  2899 net.cpp:165] Memory required for data: 2632154876
I0701 13:51:04.283576  2899 layer_factory.hpp:77] Creating layer fc6_drop6_0_split
I0701 13:51:04.283581  2899 net.cpp:100] Creating Layer fc6_drop6_0_split
I0701 13:51:04.283584  2899 net.cpp:434] fc6_drop6_0_split <- fc6
I0701 13:51:04.283591  2899 net.cpp:408] fc6_drop6_0_split -> fc6_drop6_0_split_0
I0701 13:51:04.283598  2899 net.cpp:408] fc6_drop6_0_split -> fc6_drop6_0_split_1
I0701 13:51:04.283644  2899 net.cpp:150] Setting up fc6_drop6_0_split
I0701 13:51:04.283649  2899 net.cpp:157] Top shape: 64 2048 (131072)
I0701 13:51:04.283653  2899 net.cpp:157] Top shape: 64 2048 (131072)
I0701 13:51:04.283656  2899 net.cpp:165] Memory required for data: 2633203452
I0701 13:51:04.283658  2899 layer_factory.hpp:77] Creating layer cls_pred
I0701 13:51:04.283668  2899 net.cpp:100] Creating Layer cls_pred
I0701 13:51:04.283670  2899 net.cpp:434] cls_pred <- fc6_drop6_0_split_0
I0701 13:51:04.283676  2899 net.cpp:408] cls_pred -> cls_pred
I0701 13:51:04.283845  2899 net.cpp:150] Setting up cls_pred
I0701 13:51:04.283851  2899 net.cpp:157] Top shape: 64 3 (192)
I0701 13:51:04.283854  2899 net.cpp:165] Memory required for data: 2633204220
I0701 13:51:04.283859  2899 layer_factory.hpp:77] Creating layer cls_pred_cls_pred_0_split
I0701 13:51:04.283864  2899 net.cpp:100] Creating Layer cls_pred_cls_pred_0_split
I0701 13:51:04.283869  2899 net.cpp:434] cls_pred_cls_pred_0_split <- cls_pred
I0701 13:51:04.283875  2899 net.cpp:408] cls_pred_cls_pred_0_split -> cls_pred_cls_pred_0_split_0
I0701 13:51:04.283882  2899 net.cpp:408] cls_pred_cls_pred_0_split -> cls_pred_cls_pred_0_split_1
I0701 13:51:04.283934  2899 net.cpp:150] Setting up cls_pred_cls_pred_0_split
I0701 13:51:04.283939  2899 net.cpp:157] Top shape: 64 3 (192)
I0701 13:51:04.283943  2899 net.cpp:157] Top shape: 64 3 (192)
I0701 13:51:04.283946  2899 net.cpp:165] Memory required for data: 2633205756
I0701 13:51:04.283949  2899 layer_factory.hpp:77] Creating layer bbox_pred
I0701 13:51:04.283954  2899 net.cpp:100] Creating Layer bbox_pred
I0701 13:51:04.283958  2899 net.cpp:434] bbox_pred <- fc6_drop6_0_split_1
I0701 13:51:04.283963  2899 net.cpp:408] bbox_pred -> bbox_pred
I0701 13:51:04.284278  2899 net.cpp:150] Setting up bbox_pred
I0701 13:51:04.284286  2899 net.cpp:157] Top shape: 64 12 (768)
I0701 13:51:04.284288  2899 net.cpp:165] Memory required for data: 2633208828
I0701 13:51:04.284294  2899 layer_factory.hpp:77] Creating layer bbox_pred_bbox_pred_0_split
I0701 13:51:04.284301  2899 net.cpp:100] Creating Layer bbox_pred_bbox_pred_0_split
I0701 13:51:04.284304  2899 net.cpp:434] bbox_pred_bbox_pred_0_split <- bbox_pred
I0701 13:51:04.284309  2899 net.cpp:408] bbox_pred_bbox_pred_0_split -> bbox_pred_bbox_pred_0_split_0
I0701 13:51:04.284318  2899 net.cpp:408] bbox_pred_bbox_pred_0_split -> bbox_pred_bbox_pred_0_split_1
I0701 13:51:04.284359  2899 net.cpp:150] Setting up bbox_pred_bbox_pred_0_split
I0701 13:51:04.284369  2899 net.cpp:157] Top shape: 64 12 (768)
I0701 13:51:04.284374  2899 net.cpp:157] Top shape: 64 12 (768)
I0701 13:51:04.284376  2899 net.cpp:165] Memory required for data: 2633214972
I0701 13:51:04.284380  2899 layer_factory.hpp:77] Creating layer loss_cls
I0701 13:51:04.284389  2899 net.cpp:100] Creating Layer loss_cls
I0701 13:51:04.284392  2899 net.cpp:434] loss_cls <- cls_pred_cls_pred_0_split_0
I0701 13:51:04.284397  2899 net.cpp:434] loss_cls <- proposal_labels_proposal_info_1_split_0
…
