…
    downsample_rate: 32
    downsample_rate: 32
    downsample_rate: 64
    coord_num: 4
    field_h: 60
    field_h: 84
    field_h: 120
    field_h: 168
    field_h: 240
    field_h: 336
    field_h: 480
    field_w: 40
    field_w: 56
    field_w: 80
    field_w: 112
    field_w: 160
    field_w: 224
    field_w: 320
    fg_threshold: 0.5
    resize_width: 1920
    resize_height: 576
    crop_width: 768
    crop_height: 576
    do_multiple_scale: true
    min_scale: 50
    max_scale: 420
    min_gt_height: 35
    shuffle: true
    output_gt_boxes: true
  }
}
layer {
  name: "conv1_1"
  type: "Convolution"
  bottom: "data"
  top: "conv1_1"
  param {
    lr_mult: 0
    decay_mult: 0
  }
  param {
    lr_mult: 0
    decay_mult: 0
  }
  convolution_param {
    num_output: 64
    pad: 1
    kernel_size: 3
  }
}
layer {
  name: "relu1_1"
  type: "ReLU"
  bottom: "conv1_1"
  top: "conv1_1"
}
layer {
  name: "conv1_2"
  type: "Convolution"
  bottom: "conv1_1"
  top: "conv1_2"
  param {
    lr_mult: 0
    decay_mult: 0
  }
  param {
    lr_mult: 0
    decay_mult: 0
  }
  convolution_param {
    num_output: 64
    pad: 1
    kernel_size: 3
  }
}
layer {
  name: "relu1_2"
  type: "ReLU"
  bottom: "conv1_2"
  top: "conv1_2"
}
layer {
  name: "pool1"
  type: "Pooling"
  bottom: "conv1_2"
  top: "pool1"
  pooling_param {
    pool: MAX
    kernel_size: 2
    stride: 2
  }
}
layer {
  name: "conv2_1"
  type: "Convolution"
  bottom: "pool1"
  top: "conv2_1"
  param {
    lr_mult: 0
    decay_mult: 0
  }
  param {
    lr_mult: 0
    decay_mult: 0
  }
  convolution_param {
    num_output: 128
    pad: 1
    kernel_size: 3
  }
}
layer {
  name: "relu2_1"
  type: "ReLU"
  bottom: "conv2_1"
  top: "conv2_1"
}
layer {
  name: "conv2_2"
  type: "Convolution"
  bottom: "conv2_1"
  top: "conv2_2"
  param {
    lr_mult: 0
    decay_mult: 0
  }
  param {
    lr_mult: 0
    decay_mult: 0
  }
  convolution_param {
    num_output: 128
    pad: 1
    kernel_size: 3
  }
}
layer {
  name: "relu2_2"
  type: "ReLU"
  bottom: "conv2_2"
  top: "conv2_2"
}
layer {
  name: "pool2"
  type: "Pooling"
  bottom: "conv2_2"
  top: "pool2"
  pooling_param {
    pool: MAX
    kernel_size: 2
    stride: 2
  }
}
layer {
  name: "conv3_1"
  type: "Convolution"
  bottom: "pool2"
  top: "conv3_1"
  convolution_param {
    num_output: 256
    pad: 1
    kernel_size: 3
  }
}
layer {
  name: "relu3_1"
  type: "ReLU"
  bottom: "conv3_1"
  top: "conv3_1"
}
layer {
  name: "conv3_2"
  type: "Convolution"
  bottom: "conv3_1"
  top: "conv3_2"
  convolution_param {
    num_output: 256
    pad: 1
    kernel_size: 3
  }
}
layer {
  name: "relu3_2"
  type: "ReLU"
  bottom: "conv3_2"
  top: "conv3_2"
}
layer {
  name: "conv3_3"
  type: "Convolution"
  bottom: "conv3_2"
  top: "conv3_3"
  convolution_param {
    num_output: 256
    pad: 1
    kernel_size: 3
  }
}
layer {
  name: "relu3_3"
  type: "ReLU"
  bottom: "conv3_3"
  top: "conv3_3"
}
layer {
  name: "pool3"
  type: "Pooling"
  bottom: "conv3_3"
  top: "pool3"
  pooling_param {
    pool: MAX
    kernel_size: 2
    stride: 2
  }
}
layer {
  name: "conv4_1"
  type: "Convolution"
  bottom: "pool3"
  top: "conv4_1"
  convolution_param {
    num_output: 512
    pad: 1
    kernel_size: 3
  }
}
layer {
  name: "relu4_1"
  type: "ReLU"
  bottom: "conv4_1"
  top: "conv4_1"
}
layer {
  name: "conv4_2"
  type: "Convolution"
  bottom: "conv4_1"
  top: "conv4_2"
  convolution_param {
    num_output: 512
    pad: 1
    kernel_size: 3
  }
}
layer {
  name: "relu4_2"
  type: "ReLU"
  bottom: "conv4_2"
  top: "conv4_2"
}
layer {
  name: "conv4_3"
  type: "Convolution"
  bottom: "conv4_2"
  top: "conv4_3"
  convolution_param {
    num_output: 512
    pad: 1
    kernel_size: 3
  }
}
layer {
  name: "relu4_3"
  type: "ReLU"
  bottom: "conv4_3"
  top: "conv4_3"
}
layer {
  name: "loss1_conv1"
  type: "Convolution"
  bottom: "conv4_3"
  top: "loss1_conv1"
  param {
    lr_mult: 1
    decay_mult: 1
  }
  param {
    lr_mult: 2
    decay_mult: 0
  }
  convolution_param {
    num_output: 512
    pad: 1
    kernel_size: 3
    weight_filler {
      type: "gaussian"
      std: 0.01
    }
    bias_filler {
      type: "constant"
    }
  }
}
layer {
  name: "loss_relu1"
  type: "ReLU"
  bottom: "loss1_conv1"
  top: "loss1_conv1"
}
layer {
  name: "LFCN_1_3x5"
  type: "Convolution"
  bottom: "loss1_conv1"
  top: "LFCN_1_3x5"
  param {
    lr_mult: 1
    decay_mult: 1
  }
  param {
    lr_mult: 2
    decay_mult: 0
  }
  convolution_param {
    num_output: 7
    weight_filler {
      type: "gaussian"
      std: 0.001
    }
    bias_filler {
      type: "constant"
    }
    pad_h: 2
    pad_w: 1
    kernel_h: 5
    kernel_w: 3
  }
}
layer {
  name: "detection_loss_1_3x5"
  type: "DetectionLoss"
  bottom: "LFCN_1_3x5"
  bottom: "label_1_3x5"
  top: "loss_1_3x5"
  loss_weight: 0.5
  detection_loss_param {
    cls_num: 3
    coord_num: 4
    lambda: 1
    field_h: 60
    field_w: 40
    downsample_rate: 8
    bb_smooth: true
    field_whr: 2
    field_xyr: 2
    bg_threshold: 0.2
    bg_multiple: 2
    sample_mode: "bootstrap"
    pos_neg_weighted: true
  }
}
layer {
  name: "detection_accuracy_1_3x5"
  type: "DetectionAccuracy"
  bottom: "LFCN_1_3x5"
  bottom: "label_1_3x5"
  top: "accuracy_1_3x5"
  top: "boxiou_1_3x5"
  detection_accuracy_param {
    cls_num: 3
    coord_num: 4
    field_h: 60
    field_w: 40
    downsample_rate: 8
    field_whr: 2
    field_xyr: 2
  }
}
layer {
  name: "LFCN_1_5x7"
  type: "Convolution"
  bottom: "loss1_conv1"
  top: "LFCN_1_5x7"
  param {
    lr_mult: 1
    decay_mult: 1
  }
  param {
    lr_mult: 2
    decay_mult: 0
  }
  convolution_param {
    num_output: 7
    weight_filler {
      type: "gaussian"
      std: 0.001
    }
    bias_filler {
      type: "constant"
    }
    pad_h: 3
    pad_w: 2
    kernel_h: 7
    kernel_w: 5
  }
}
layer {
  name: "detection_loss_1_5x7"
  type: "DetectionLoss"
  bottom: "LFCN_1_5x7"
  bottom: "label_1_5x7"
  top: "loss_1_5x7"
  loss_weight: 0.9
  detection_loss_param {
    cls_num: 3
    coord_num: 4
    lambda: 1
    field_h: 84
    field_w: 56
    downsample_rate: 8
    bb_smooth: true
    field_whr: 2
    field_xyr: 2
    bg_threshold: 0.2
    bg_multiple: 2
    sample_mode: "bootstrap"
    pos_neg_weighted: true
  }
}
layer {
  name: "detection_accuracy_1_5x7"
  type: "DetectionAccuracy"
  bottom: "LFCN_1_5x7"
  bottom: "label_1_5x7"
  top: "accuracy_1_5x7"
  top: "boxiou_1_5x7"
  detection_accuracy_param {
    cls_num: 3
    coord_num: 4
    field_h: 84
    field_w: 56
    downsample_rate: 8
    field_whr: 2
    field_xyr: 2
  }
}
layer {
  name: "pool4"
  type: "Pooling"
  bottom: "conv4_3"
  top: "pool4"
  pooling_param {
    pool: MAX
    kernel_size: 2
    stride: 2
  }
}
layer {
  name: "conv5_1"
  type: "Convolution"
  bottom: "pool4"
  top: "conv5_1"
  convolution_param {
    num_output: 512
    pad: 1
    kernel_size: 3
  }
}
layer {
  name: "relu5_1"
  type: "ReLU"
  bottom: "conv5_1"
  top: "conv5_1"
}
layer {
  name: "conv5_2"
  type: "Convolution"
  bottom: "conv5_1"
  top: "conv5_2"
  convolution_param {
    num_output: 512
    pad: 1
    kernel_size: 3
  }
}
layer {
  name: "relu5_2"
  type: "ReLU"
  bottom: "conv5_2"
  top: "conv5_2"
}
layer {
  name: "conv5_3"
  type: "Convolution"
  bottom: "conv5_2"
  top: "conv5_3"
  convolution_param {
    num_output: 512
    pad: 1
    kernel_size: 3
  }
}
layer {
  name: "relu5_3"
  type: "ReLU"
  bottom: "conv5_3"
  top: "conv5_3"
}
layer {
  name: "LFCN_2_3x5"
  type: "Convolution"
  bottom: "conv5_3"
  top: "LFCN_2_3x5"
  param {
    lr_mult: 1
    decay_mult: 1
  }
  param {
    lr_mult: 2
    decay_mult: 0
  }
  convolution_param {
    num_output: 7
    weight_filler {
      type: "gaussian"
      std: 0.001
    }
    bias_filler {
      type: "constant"
    }
    pad_h: 2
    pad_w: 1
    kernel_h: 5
    kernel_w: 3
  }
}
layer {
  name: "detection_loss_2_3x5"
  type: "DetectionLoss"
  bottom: "LFCN_2_3x5"
  bottom: "label_2_3x5"
  top: "loss_2_3x5"
  detection_loss_param {
    cls_num: 3
    coord_num: 4
    lambda: 1
    field_h: 120
    field_w: 80
    downsample_rate: 16
    bb_smooth: true
    field_whr: 2
    field_xyr: 2
    bg_threshold: 0.2
    bg_multiple: 2
    sample_mode: "bootstrap"
    pos_neg_weighted: true
  }
}
layer {
  name: "detection_accuracy_2_3x5"
  type: "DetectionAccuracy"
  bottom: "LFCN_2_3x5"
  bottom: "label_2_3x5"
  top: "accuracy_2_3x5"
  top: "boxiou_2_3x5"
  detection_accuracy_param {
    cls_num: 3
    coord_num: 4
    field_h: 120
    field_w: 80
    downsample_rate: 16
    field_whr: 2
    field_xyr: 2
  }
}
layer {
  name: "LFCN_2_5x7"
  type: "Convolution"
  bottom: "conv5_3"
  top: "LFCN_2_5x7"
  param {
    lr_mult: 1
    decay_mult: 1
  }
  param {
    lr_mult: 2
    decay_mult: 0
  }
  convolution_param {
    num_output: 7
    weight_filler {
      type: "gaussian"
      std: 0.001
    }
    bias_filler {
      type: "constant"
    }
    pad_h: 3
    pad_w: 2
    kernel_h: 7
    kernel_w: 5
  }
}
layer {
  name: "detection_loss_2_5x7"
  type: "DetectionLoss"
  bottom: "LFCN_2_5x7"
  bottom: "label_2_5x7"
  top: "loss_2_5x7"
  detection_loss_param {
    cls_num: 3
    coord_num: 4
    lambda: 1
    field_h: 168
    field_w: 112
    downsample_rate: 16
    bb_smooth: true
    field_whr: 2
    field_xyr: 2
    bg_threshold: 0.2
    bg_multiple: 2
    sample_mode: "bootstrap"
    pos_neg_weighted: true
  }
}
layer {
  name: "detection_accuracy_2_5x7"
  type: "DetectionAccuracy"
  bottom: "LFCN_2_5x7"
  bottom: "label_2_5x7"
  top: "accuracy_2_5x7"
  top: "boxiou_2_5x7"
  detection_accuracy_param {
    cls_num: 3
    coord_num: 4
    field_h: 168
    field_w: 112
    downsample_rate: 16
    field_whr: 2
    field_xyr: 2
  }
}
layer {
  name: "pool5"
  type: "Pooling"
  bottom: "conv5_3"
  top: "pool5"
  pooling_param {
    pool: MAX
    kernel_size: 2
    stride: 2
  }
}
layer {
  name: "conv6_1"
  type: "Convolution"
  bottom: "pool5"
  top: "conv6_1"
  param {
    lr_mult: 1
    decay_mult: 1
  }
  param {
    lr_mult: 2
    decay_mult: 0
  }
  convolution_param {
    num_output: 512
    pad: 1
    kernel_size: 3
    weight_filler {
      type: "gaussian"
      std: 0.01
    }
    bias_filler {
      type: "constant"
    }
  }
}
layer {
  name: "relu6_1"
  type: "ReLU"
  bottom: "conv6_1"
  top: "conv6_1"
}
layer {
  name: "LFCN_3_3x5"
  type: "Convolution"
  bottom: "conv6_1"
  top: "LFCN_3_3x5"
  param {
    lr_mult: 1
    decay_mult: 1
  }
  param {
    lr_mult: 2
    decay_mult: 0
  }
  convolution_param {
    num_output: 7
    weight_filler {
      type: "gaussian"
      std: 0.001
    }
    bias_filler {
      type: "constant"
    }
    pad_h: 2
    pad_w: 1
    kernel_h: 5
    kernel_w: 3
  }
}
layer {
  name: "detection_loss_3_3x5"
  type: "DetectionLoss"
  bottom: "LFCN_3_3x5"
  bottom: "label_3_3x5"
  top: "loss_3_3x5"
  detection_loss_param {
    cls_num: 3
    coord_num: 4
    lambda: 1
    field_h: 240
    field_w: 160
    downsample_rate: 32
    bb_smooth: true
    field_whr: 2
    field_xyr: 2
    bg_threshold: 0.2
    bg_multiple: 2
    sample_mode: "bootstrap"
    pos_neg_weighted: true
  }
}
layer {
  name: "detection_accuracy_3_3x5"
  type: "DetectionAccuracy"
  bottom: "LFCN_3_3x5"
  bottom: "label_3_3x5"
  top: "accuracy_3_3x5"
  top: "boxiou_3_3x5"
  detection_accuracy_param {
    cls_num: 3
    coord_num: 4
    field_h: 240
    field_w: 160
    downsample_rate: 32
    field_whr: 2
    field_xyr: 2
  }
}
layer {
  name: "LFCN_3_5x7"
  type: "Convolution"
  bottom: "conv6_1"
  top: "LFCN_3_5x7"
  param {
    lr_mult: 1
    decay_mult: 1
  }
  param {
    lr_mult: 2
    decay_mult: 0
  }
  convolution_param {
    num_output: 7
    weight_filler {
      type: "gaussian"
      std: 0.001
    }
    bias_filler {
      type: "constant"
    }
    pad_h: 3
    pad_w: 2
    kernel_h: 7
    kernel_w: 5
  }
}
layer {
  name: "detection_loss_3_5x7"
  type: "DetectionLoss"
  bottom: "LFCN_3_5x7"
  bottom: "label_3_5x7"
  top: "loss_3_5x7"
  detection_loss_param {
    cls_num: 3
    coord_num: 4
    lambda: 1
    field_h: 336
    field_w: 224
    downsample_rate: 32
    bb_smooth: true
    field_whr: 2
    field_xyr: 2
    bg_threshold: 0.2
    bg_multiple: 2
    sample_mode: "bootstrap"
    pos_neg_weighted: true
  }
}
layer {
  name: "detection_accuracy_3_5x7"
  type: "DetectionAccuracy"
  bottom: "LFCN_3_5x7"
  bottom: "label_3_5x7"
  top: "accuracy_3_5x7"
  top: "boxiou_3_5x7"
  detection_accuracy_param {
    cls_num: 3
    coord_num: 4
    field_h: 336
    field_w: 224
    downsample_rate: 32
    field_whr: 2
    field_xyr: 2
  }
}
layer {
  name: "pool6"
  type: "Pooling"
  bottom: "conv6_1"
  top: "pool6"
  pooling_param {
    pool: MAX
    kernel_size: 2
    stride: 2
  }
}
layer {
  name: "LFCN_4_3x5"
  type: "Convolution"
  bottom: "pool6"
  top: "LFCN_4_3x5"
  param {
    lr_mult: 1
    decay_mult: 1
  }
  param {
    lr_mult: 2
    decay_mult: 0
  }
  convolution_param {
    num_output: 7
    weight_filler {
      type: "gaussian"
      std: 0.001
    }
    bias_filler {
      type: "constant"
    }
    pad_h: 2
    pad_w: 1
    kernel_h: 5
    kernel_w: 3
  }
}
layer {
  name: "detection_loss_4_3x5"
  type: "DetectionLoss"
  bottom: "LFCN_4_3x5"
  bottom: "label_4_3x5"
  top: "loss_4_3x5"
  detection_loss_param {
    cls_num: 3
    coord_num: 4
    lambda: 1
    field_h: 480
    field_w: 320
    downsample_rate: 64
    bb_smooth: true
    field_whr: 2
    field_xyr: 2
    bg_threshold: 0.2
    bg_multiple: 2
    sample_mode: "bootstrap"
    pos_neg_weighted: true
  }
}
layer {
  name: "detection_accuracy_4_3x5"
  type: "DetectionAccuracy"
  bottom: "LFCN_4_3x5"
  bottom: "label_4_3x5"
  top: "accuracy_4_3x5"
  top: "boxiou_4_3x5"
  detection_accuracy_param {
    cls_num: 3
    coord_num: 4
    field_h: 480
    field_w: 320
    downsample_rate: 64
    field_whr: 2
    field_xyr: 2
  }
}
layer {
  name: "proposals"
  type: "BoxOutput"
  bottom: "LFCN_1_3x5"
  bottom: "LFCN_1_5x7"
  bottom: "LFCN_2_3x5"
  bottom: "LFCN_2_5x7"
  bottom: "LFCN_3_3x5"
  bottom: "LFCN_3_5x7"
  bottom: "LFCN_4_3x5"
  top: "proposals"
  propagate_down: false
  propagate_down: false
  propagate_down: false
  propagate_down: false
  propagate_down: false
  propagate_down: false
  propagate_down: false
  box_output_param {
    fg_thr: -15
    iou_thr: 0.65
    nms_type: "IOU"
    field_h: 60
    field_h: 84
    field_h: 120
    field_h: 168
    field_h: 240
    field_h: 336
    field_h: 480
    field_w: 40
    field_w: 56
    field_w: 80
    field_w: 112
    field_w: 160
    field_w: 224
    field_w: 320
    downsample_rate: 8
    downsample_rate: 8
    downsample_rate: 16
    downsample_rate: 16
    downsample_rate: 32
    downsample_rate: 32
    downsample_rate: 64
    field_whr: 2
    field_xyr: 2
    max_nms_num: 3000
  }
}
layer {
  name: "proposal_info"
  type: "ProposalTarget"
  bottom: "proposals"
  bottom: "gt_boxes"
  top: "rois"
  top: "proposal_labels"
  top: "proposal_targets"
  top: "box_inside_weights"
  top: "box_outside_weights"
  top: "match_gt_boxes"
  include {
    phase: TRAIN
  }
  propagate_down: false
  propagate_down: false
  proposal_target_param {
    cls_num: 3
    batch_size: 128
    fg_fraction: 0.25
    num_img_per_batch: 4
    fg_thr: 0.5
    bg_thr_hg: 0.45
    bg_thr_lw: 0.05
    img_width: 768
    img_height: 576
  }
  bbox_reg_param {
    bbox_mean: 0
    bbox_mean: 0
    bbox_mean: 0
    bbox_mean: 0
    bbox_std: 0.1
    bbox_std: 0.1
    bbox_std: 0.2
    bbox_std: 0.2
  }
}
layer {
  name: "conv4_3_2x"
  type: "Deconvolution"
  bottom: "conv4_3"
  top: "conv4_3_2x"
  param {
    lr_mult: 0
    decay_mult: 0
  }
  convolution_param {
    num_output: 512
    bias_term: false
    pad: 1
    kernel_size: 4
    group: 512
    stride: 2
    weight_filler {
      type: "bilinear"
    }
  }
}
layer {
  name: "roi_pool_org"
  type: "ROIPooling"
  bottom: "conv4_3_2x"
  bottom: "rois"
  top: "roi_pool_org"
  roi_pooling_param {
    pooled_h: 7
    pooled_w: 5
    spatial_scale: 0.25
    pad_ratio: 0
  }
}
layer {
  name: "roi_pool_ctx"
  type: "ROIPooling"
  bottom: "conv4_3_2x"
  bottom: "rois"
  top: "roi_pool_ctx"
  roi_pooling_param {
    pooled_h: 7
    pooled_w: 5
    spatial_scale: 0.25
    pad_ratio: 0.25
  }
}
layer {
  name: "roi_pool"
  type: "Concat"
  bottom: "roi_pool_org"
  bottom: "roi_pool_ctx"
  top: "roi_pool"
}
layer {
  name: "roi_c1"
  type: "Convolution"
  bottom: "roi_pool"
  top: "roi_c1"
  param {
    lr_mult: 1
    decay_mult: 1
  }
  param {
    lr_mult: 2
    decay_mult: 0
  }
  convolution_param {
    num_output: 512
    kernel_size: 3
    weight_filler {
      type: "gaussian"
      std: 0.01
    }
    bias_filler {
      type: "constant"
    }
  }
}
layer {
  name: "roi_c1_relu"
  type: "ReLU"
  bottom: "roi_c1"
  top: "roi_c1"
}
layer {
  name: "fc6"
  type: "InnerProduct"
  bottom: "roi_c1"
  top: "fc6"
  param {
    lr_mult: 1
  }
  param {
    lr_mult: 2
  }
  inner_product_param {
    num_output: 2048
    weight_filler {
      type: "gaussian"
      std: 0.001
    }
    bias_filler {
      type: "constant"
      value: 0
    }
  }
}
layer {
  name: "relu6"
  type: "ReLU"
  bottom: "fc6"
  top: "fc6"
}
layer {
  name: "drop6"
  type: "Dropout"
  bottom: "fc6"
  top: "fc6"
  dropout_param {
    dropout_ratio: 0.5
  }
}
layer {
  name: "cls_pred"
  type: "InnerProduct"
  bottom: "fc6"
  top: "cls_pred"
  param {
    lr_mult: 1
  }
  param {
    lr_mult: 2
  }
  inner_product_param {
    num_output: 3
    weight_filler {
      type: "gaussian"
      std: 0.01
    }
    bias_filler {
      type: "constant"
      value: 0
    }
  }
}
layer {
  name: "bbox_pred"
  type: "InnerProduct"
  bottom: "fc6"
  top: "bbox_pred"
  param {
    lr_mult: 1
  }
  param {
    lr_mult: 2
  }
  inner_product_param {
    num_output: 12
    weight_filler {
      type: "gaussian"
      std: 0.001
    }
    bias_filler {
      type: "constant"
      value: 0
    }
  }
}
layer {
  name: "loss_cls"
  type: "SoftmaxWithLoss"
  bottom: "cls_pred"
  bottom: "proposal_labels"
  top: "loss_cls"
  loss_weight: 1
  propagate_down: true
  propagate_down: false
}
layer {
  name: "cls_accuracy"
  type: "Accuracy"
  bottom: "cls_pred"
  bottom: "proposal_labels"
  top: "cls_accuracy"
}
layer {
  name: "loss_bbox"
  type: "SmoothL1Loss"
  bottom: "bbox_pred"
  bottom: "proposal_targets"
  bottom: "box_inside_weights"
  bottom: "box_outside_weights"
  top: "loss_bbox"
  loss_weight: 1
}
layer {
  name: "bbox_iou"
  type: "BboxAccuracy"
  bottom: "bbox_pred"
  bottom: "rois"
  bottom: "match_gt_boxes"
  top: "bbox_iou"
  top: "bbox_iou_pre"
  bbox_reg_param {
    bbox_mean: 0
    bbox_mean: 0
    bbox_mean: 0
    bbox_mean: 0
    bbox_std: 0.1
    bbox_std: 0.1
    bbox_std: 0.2
    bbox_std: 0.2
  }
}
I0702 18:14:23.139679 10683 layer_factory.hpp:77] Creating layer data
I0702 18:14:23.139705 10683 net.cpp:100] Creating Layer data
I0702 18:14:23.139713 10683 net.cpp:408] data -> data
…
I0702 18:14:23.160039 10683 image_gt_data_layer.cpp:241] output label size 3 : 4,6,36,48
I0702 18:14:23.160070 10683 image_gt_data_layer.cpp:241] output label size 4 : 4,6,18,24
I0702 18:14:23.160105 10683 image_gt_data_layer.cpp:241] output label size 5 : 4,6,18,24
I0702 18:14:23.160138 10683 image_gt_data_layer.cpp:241] output label size 6 : 4,6,9,12
I0702 18:14:23.160172 10683 image_gt_data_layer.cpp:256] output gt boxes size: 1,7,1,1
I0702 18:14:23.160176 10683 image_gt_data_layer.cpp:265]  --> has_mean_values_ = 1
I0702 18:14:23.200438 10683 net.cpp:150] Setting up data
I0702 18:14:23.200458 10683 net.cpp:157] Top shape: 4 4 576 768 (7077888)
I0702 18:14:23.200462 10683 net.cpp:157] Top shape: 4 6 72 96 (165888)
I0702 18:14:23.200466 10683 net.cpp:157] Top shape: 4 6 72 96 (165888)
I0702 18:14:23.200469 10683 net.cpp:157] Top shape: 4 6 36 48 (41472)
I0702 18:14:23.200474 10683 net.cpp:157] Top shape: 4 6 36 48 (41472)
I0702 18:14:23.200476 10683 net.cpp:157] Top shape: 4 6 18 24 (10368)
I0702 18:14:23.200479 10683 net.cpp:157] Top shape: 4 6 18 24 (10368)
I0702 18:14:23.200484 10683 net.cpp:157] Top shape: 4 6 9 12 (2592)
I0702 18:14:23.200487 10683 net.cpp:157] Top shape: 1 7 1 1 (7)
I0702 18:14:23.200490 10683 net.cpp:165] Memory required for data: 30063772
I0702 18:14:23.200497 10683 layer_factory.hpp:77] Creating layer label_1_3x5_data_1_split
I0702 18:14:23.200510 10683 net.cpp:100] Creating Layer label_1_3x5_data_1_split
I0702 18:14:23.200516 10683 net.cpp:434] label_1_3x5_data_1_split <- label_1_3x5
I0702 18:14:23.200527 10683 net.cpp:408] label_1_3x5_data_1_split -> label_1_3x5_data_1_split_0
I0702 18:14:23.200536 10683 net.cpp:408] label_1_3x5_data_1_split -> label_1_3x5_data_1_split_1
I0702 18:14:23.200582 10683 net.cpp:150] Setting up label_1_3x5_data_1_split
I0702 18:14:23.200587 10683 net.cpp:157] Top shape: 4 6 72 96 (165888)
I0702 18:14:23.200592 10683 net.cpp:157] Top shape: 4 6 72 96 (165888)
I0702 18:14:23.200594 10683 net.cpp:165] Memory required for data: 31390876
I0702 18:14:23.200598 10683 layer_factory.hpp:77] Creating layer label_1_5x7_data_2_split
I0702 18:14:23.200603 10683 net.cpp:100] Creating Layer label_1_5x7_data_2_split
I0702 18:14:23.200608 10683 net.cpp:434] label_1_5x7_data_2_split <- label_1_5x7
I0702 18:14:23.200613 10683 net.cpp:408] label_1_5x7_data_2_split -> label_1_5x7_data_2_split_0
I0702 18:14:23.200620 10683 net.cpp:408] label_1_5x7_data_2_split -> label_1_5x7_data_2_split_1
I0702 18:14:23.200650 10683 net.cpp:150] Setting up label_1_5x7_data_2_split
I0702 18:14:23.200655 10683 net.cpp:157] Top shape: 4 6 72 96 (165888)
I0702 18:14:23.200659 10683 net.cpp:157] Top shape: 4 6 72 96 (165888)
I0702 18:14:23.200661 10683 net.cpp:165] Memory required for data: 32717980
I0702 18:14:23.200664 10683 layer_factory.hpp:77] Creating layer label_2_3x5_data_3_split
I0702 18:14:23.200670 10683 net.cpp:100] Creating Layer label_2_3x5_data_3_split
I0702 18:14:23.200675 10683 net.cpp:434] label_2_3x5_data_3_split <- label_2_3x5
I0702 18:14:23.200680 10683 net.cpp:408] label_2_3x5_data_3_split -> label_2_3x5_data_3_split_0
I0702 18:14:23.200686 10683 net.cpp:408] label_2_3x5_data_3_split -> label_2_3x5_data_3_split_1
I0702 18:14:23.200716 10683 net.cpp:150] Setting up label_2_3x5_data_3_split
I0702 18:14:23.200721 10683 net.cpp:157] Top shape: 4 6 36 48 (41472)
I0702 18:14:23.200724 10683 net.cpp:157] Top shape: 4 6 36 48 (41472)
I0702 18:14:23.200727 10683 net.cpp:165] Memory required for data: 33049756
I0702 18:14:23.200731 10683 layer_factory.hpp:77] Creating layer label_2_5x7_data_4_split
I0702 18:14:23.200737 10683 net.cpp:100] Creating Layer label_2_5x7_data_4_split
I0702 18:14:23.200740 10683 net.cpp:434] label_2_5x7_data_4_split <- label_2_5x7
I0702 18:14:23.200747 10683 net.cpp:408] label_2_5x7_data_4_split -> label_2_5x7_data_4_split_0
I0702 18:14:23.200752 10683 net.cpp:408] label_2_5x7_data_4_split -> label_2_5x7_data_4_split_1
I0702 18:14:23.200785 10683 net.cpp:150] Setting up label_2_5x7_data_4_split
I0702 18:14:23.200791 10683 net.cpp:157] Top shape: 4 6 36 48 (41472)
I0702 18:14:23.200795 10683 net.cpp:157] Top shape: 4 6 36 48 (41472)
I0702 18:14:23.200798 10683 net.cpp:165] Memory required for data: 33381532
I0702 18:14:23.200800 10683 layer_factory.hpp:77] Creating layer label_3_3x5_data_5_split
I0702 18:14:23.200804 10683 net.cpp:100] Creating Layer label_3_3x5_data_5_split
I0702 18:14:23.200809 10683 net.cpp:434] label_3_3x5_data_5_split <- label_3_3x5
I0702 18:14:23.200814 10683 net.cpp:408] label_3_3x5_data_5_split -> label_3_3x5_data_5_split_0
I0702 18:14:23.200820 10683 net.cpp:408] label_3_3x5_data_5_split -> label_3_3x5_data_5_split_1
I0702 18:14:23.200855 10683 net.cpp:150] Setting up label_3_3x5_data_5_split
I0702 18:14:23.200860 10683 net.cpp:157] Top shape: 4 6 18 24 (10368)
I0702 18:14:23.200862 10683 net.cpp:157] Top shape: 4 6 18 24 (10368)
I0702 18:14:23.200865 10683 net.cpp:165] Memory required for data: 33464476
I0702 18:14:23.200868 10683 layer_factory.hpp:77] Creating layer label_3_5x7_data_6_split
I0702 18:14:23.200872 10683 net.cpp:100] Creating Layer label_3_5x7_data_6_split
I0702 18:14:23.200876 10683 net.cpp:434] label_3_5x7_data_6_split <- label_3_5x7
I0702 18:14:23.200881 10683 net.cpp:408] label_3_5x7_data_6_split -> label_3_5x7_data_6_split_0
I0702 18:14:23.200886 10683 net.cpp:408] label_3_5x7_data_6_split -> label_3_5x7_data_6_split_1
I0702 18:14:23.200917 10683 net.cpp:150] Setting up label_3_5x7_data_6_split
I0702 18:14:23.200922 10683 net.cpp:157] Top shape: 4 6 18 24 (10368)
I0702 18:14:23.200925 10683 net.cpp:157] Top shape: 4 6 18 24 (10368)
I0702 18:14:23.200928 10683 net.cpp:165] Memory required for data: 33547420
I0702 18:14:23.200932 10683 layer_factory.hpp:77] Creating layer label_4_3x5_data_7_split
I0702 18:14:23.200935 10683 net.cpp:100] Creating Layer label_4_3x5_data_7_split
I0702 18:14:23.200938 10683 net.cpp:434] label_4_3x5_data_7_split <- label_4_3x5
I0702 18:14:23.200944 10683 net.cpp:408] label_4_3x5_data_7_split -> label_4_3x5_data_7_split_0
I0702 18:14:23.200950 10683 net.cpp:408] label_4_3x5_data_7_split -> label_4_3x5_data_7_split_1
I0702 18:14:23.203356 10683 net.cpp:150] Setting up label_4_3x5_data_7_split
I0702 18:14:23.203394 10683 net.cpp:157] Top shape: 4 6 9 12 (2592)
I0702 18:14:23.203399 10683 net.cpp:157] Top shape: 4 6 9 12 (2592)
I0702 18:14:23.203402 10683 net.cpp:165] Memory required for data: 33568156
I0702 18:14:23.203411 10683 layer_factory.hpp:77] Creating layer conv1_1
I0702 18:14:23.203467 10683 net.cpp:100] Creating Layer conv1_1
I0702 18:14:23.203480 10683 net.cpp:434] conv1_1 <- data
I0702 18:14:23.203496 10683 net.cpp:408] conv1_1 -> conv1_1
I0702 18:14:23.742023 10683 net.cpp:150] Setting up conv1_1
I0702 18:14:23.742045 10683 net.cpp:157] Top shape: 4 64 576 768 (113246208)
I0702 18:14:23.742048 10683 net.cpp:165] Memory required for data: 486552988
I0702 18:14:23.742063 10683 layer_factory.hpp:77] Creating layer relu1_1
I0702 18:14:23.742074 10683 net.cpp:100] Creating Layer relu1_1
I0702 18:14:23.742076 10683 net.cpp:434] relu1_1 <- conv1_1
I0702 18:14:23.742080 10683 net.cpp:395] relu1_1 -> conv1_1 (in-place)
I0702 18:14:23.742377 10683 net.cpp:150] Setting up relu1_1
I0702 18:14:23.742386 10683 net.cpp:157] Top shape: 4 64 576 768 (113246208)
I0702 18:14:23.742388 10683 net.cpp:165] Memory required for data: 939537820
I0702 18:14:23.742390 10683 layer_factory.hpp:77] Creating layer conv1_2
I0702 18:14:23.742400 10683 net.cpp:100] Creating Layer conv1_2
I0702 18:14:23.742403 10683 net.cpp:434] conv1_2 <- conv1_1
I0702 18:14:23.742409 10683 net.cpp:408] conv1_2 -> conv1_2
I0702 18:14:23.745364 10683 net.cpp:150] Setting up conv1_2
I0702 18:14:23.745383 10683 net.cpp:157] Top shape: 4 64 576 768 (113246208)
I0702 18:14:23.745384 10683 net.cpp:165] Memory required for data: 1392522652
I0702 18:14:23.745396 10683 layer_factory.hpp:77] Creating layer relu1_2
I0702 18:14:23.745402 10683 net.cpp:100] Creating Layer relu1_2
I0702 18:14:23.745405 10683 net.cpp:434] relu1_2 <- conv1_2
I0702 18:14:23.745410 10683 net.cpp:395] relu1_2 -> conv1_2 (in-place)
I0702 18:14:23.745712 10683 net.cpp:150] Setting up relu1_2
I0702 18:14:23.745719 10683 net.cpp:157] Top shape: 4 64 576 768 (113246208)
I0702 18:14:23.745721 10683 net.cpp:165] Memory required for data: 1845507484
I0702 18:14:23.745723 10683 layer_factory.hpp:77] Creating layer pool1
I0702 18:14:23.745728 10683 net.cpp:100] Creating Layer pool1
I0702 18:14:23.745730 10683 net.cpp:434] pool1 <- conv1_2
I0702 18:14:23.745734 10683 net.cpp:408] pool1 -> pool1
I0702 18:14:23.745781 10683 net.cpp:150] Setting up pool1
I0702 18:14:23.745786 10683 net.cpp:157] Top shape: 4 64 288 384 (28311552)
I0702 18:14:23.745788 10683 net.cpp:165] Memory required for data: 1958753692
I0702 18:14:23.745790 10683 layer_factory.hpp:77] Creating layer conv2_1
I0702 18:14:23.745797 10683 net.cpp:100] Creating Layer conv2_1
I0702 18:14:23.745801 10683 net.cpp:434] conv2_1 <- pool1
I0702 18:14:23.745805 10683 net.cpp:408] conv2_1 -> conv2_1
I0702 18:14:23.748292 10683 net.cpp:150] Setting up conv2_1
I0702 18:14:23.748311 10683 net.cpp:157] Top shape: 4 128 288 384 (56623104)
I0702 18:14:23.748312 10683 net.cpp:165] Memory required for data: 2185246108
I0702 18:14:23.748323 10683 layer_factory.hpp:77] Creating layer relu2_1
I0702 18:14:23.748330 10683 net.cpp:100] Creating Layer relu2_1
I0702 18:14:23.748334 10683 net.cpp:434] relu2_1 <- conv2_1
I0702 18:14:23.748339 10683 net.cpp:395] relu2_1 -> conv2_1 (in-place)
I0702 18:14:23.748980 10683 net.cpp:150] Setting up relu2_1
I0702 18:14:23.748988 10683 net.cpp:157] Top shape: 4 128 288 384 (56623104)
I0702 18:14:23.748991 10683 net.cpp:165] Memory required for data: 2411738524
I0702 18:14:23.748993 10683 layer_factory.hpp:77] Creating layer conv2_2
I0702 18:14:23.749001 10683 net.cpp:100] Creating Layer conv2_2
I0702 18:14:23.749003 10683 net.cpp:434] conv2_2 <- conv2_1
I0702 18:14:23.749007 10683 net.cpp:408] conv2_2 -> conv2_2
I0702 18:14:23.750747 10683 net.cpp:150] Setting up conv2_2
I0702 18:14:23.750762 10683 net.cpp:157] Top shape: 4 128 288 384 (56623104)
I0702 18:14:23.750764 10683 net.cpp:165] Memory required for data: 2638230940
I0702 18:14:23.750771 10683 layer_factory.hpp:77] Creating layer relu2_2
I0702 18:14:23.750779 10683 net.cpp:100] Creating Layer relu2_2
I0702 18:14:23.750782 10683 net.cpp:434] relu2_2 <- conv2_2
I0702 18:14:23.750787 10683 net.cpp:395] relu2_2 -> conv2_2 (in-place)
I0702 18:14:23.751397 10683 net.cpp:150] Setting up relu2_2
I0702 18:14:23.751406 10683 net.cpp:157] Top shape: 4 128 288 384 (56623104)
I0702 18:14:23.751408 10683 net.cpp:165] Memory required for data: 2864723356
I0702 18:14:23.751411 10683 layer_factory.hpp:77] Creating layer pool2
I0702 18:14:23.751416 10683 net.cpp:100] Creating Layer pool2
I0702 18:14:23.751418 10683 net.cpp:434] pool2 <- conv2_2
I0702 18:14:23.751422 10683 net.cpp:408] pool2 -> pool2
I0702 18:14:23.751461 10683 net.cpp:150] Setting up pool2
I0702 18:14:23.751466 10683 net.cpp:157] Top shape: 4 128 144 192 (14155776)
I0702 18:14:23.751468 10683 net.cpp:165] Memory required for data: 2921346460
I0702 18:14:23.751471 10683 layer_factory.hpp:77] Creating layer conv3_1
I0702 18:14:23.751477 10683 net.cpp:100] Creating Layer conv3_1
I0702 18:14:23.751482 10683 net.cpp:434] conv3_1 <- pool2
I0702 18:14:23.751485 10683 net.cpp:408] conv3_1 -> conv3_1
I0702 18:14:23.754200 10683 net.cpp:150] Setting up conv3_1
I0702 18:14:23.754220 10683 net.cpp:157] Top shape: 4 256 144 192 (28311552)
I0702 18:14:23.754221 10683 net.cpp:165] Memory required for data: 3034592668
I0702 18:14:23.754232 10683 layer_factory.hpp:77] Creating layer relu3_1
I0702 18:14:23.754240 10683 net.cpp:100] Creating Layer relu3_1
I0702 18:14:23.754243 10683 net.cpp:434] relu3_1 <- conv3_1
I0702 18:14:23.754248 10683 net.cpp:395] relu3_1 -> conv3_1 (in-place)
I0702 18:14:23.754519 10683 net.cpp:150] Setting up relu3_1
I0702 18:14:23.754528 10683 net.cpp:157] Top shape: 4 256 144 192 (28311552)
I0702 18:14:23.754531 10683 net.cpp:165] Memory required for data: 3147838876
I0702 18:14:23.754534 10683 layer_factory.hpp:77] Creating layer conv3_2
I0702 18:14:23.754545 10683 net.cpp:100] Creating Layer conv3_2
I0702 18:14:23.754549 10683 net.cpp:434] conv3_2 <- conv3_1
I0702 18:14:23.754556 10683 net.cpp:408] conv3_2 -> conv3_2
I0702 18:14:23.757905 10683 net.cpp:150] Setting up conv3_2
I0702 18:14:23.757922 10683 net.cpp:157] Top shape: 4 256 144 192 (28311552)
I0702 18:14:23.757925 10683 net.cpp:165] Memory required for data: 3261085084
I0702 18:14:23.757935 10683 layer_factory.hpp:77] Creating layer relu3_2
I0702 18:14:23.757943 10683 net.cpp:100] Creating Layer relu3_2
I0702 18:14:23.757947 10683 net.cpp:434] relu3_2 <- conv3_2
I0702 18:14:23.757956 10683 net.cpp:395] relu3_2 -> conv3_2 (in-place)
I0702 18:14:23.758215 10683 net.cpp:150] Setting up relu3_2
I0702 18:14:23.758224 10683 net.cpp:157] Top shape: 4 256 144 192 (28311552)
I0702 18:14:23.758226 10683 net.cpp:165] Memory required for data: 3374331292
I0702 18:14:23.758229 10683 layer_factory.hpp:77] Creating layer conv3_3
I0702 18:14:23.758239 10683 net.cpp:100] Creating Layer conv3_3
I0702 18:14:23.758244 10683 net.cpp:434] conv3_3 <- conv3_2
I0702 18:14:23.758250 10683 net.cpp:408] conv3_3 -> conv3_3
I0702 18:14:23.762156 10683 net.cpp:150] Setting up conv3_3
I0702 18:14:23.762176 10683 net.cpp:157] Top shape: 4 256 144 192 (28311552)
I0702 18:14:23.762178 10683 net.cpp:165] Memory required for data: 3487577500
I0702 18:14:23.762189 10683 layer_factory.hpp:77] Creating layer relu3_3
I0702 18:14:23.762202 10683 net.cpp:100] Creating Layer relu3_3
I0702 18:14:23.762205 10683 net.cpp:434] relu3_3 <- conv3_3
I0702 18:14:23.762213 10683 net.cpp:395] relu3_3 -> conv3_3 (in-place)
I0702 18:14:23.762872 10683 net.cpp:150] Setting up relu3_3
I0702 18:14:23.762883 10683 net.cpp:157] Top shape: 4 256 144 192 (28311552)
I0702 18:14:23.762887 10683 net.cpp:165] Memory required for data: 3600823708
I0702 18:14:23.762892 10683 layer_factory.hpp:77] Creating layer pool3
I0702 18:14:23.762898 10683 net.cpp:100] Creating Layer pool3
I0702 18:14:23.762904 10683 net.cpp:434] pool3 <- conv3_3
I0702 18:14:23.762912 10683 net.cpp:408] pool3 -> pool3
I0702 18:14:23.762960 10683 net.cpp:150] Setting up pool3
I0702 18:14:23.762966 10683 net.cpp:157] Top shape: 4 256 72 96 (7077888)
I0702 18:14:23.762969 10683 net.cpp:165] Memory required for data: 3629135260
I0702 18:14:23.762972 10683 layer_factory.hpp:77] Creating layer conv4_1
I0702 18:14:23.762982 10683 net.cpp:100] Creating Layer conv4_1
I0702 18:14:23.762985 10683 net.cpp:434] conv4_1 <- pool3
I0702 18:14:23.762992 10683 net.cpp:408] conv4_1 -> conv4_1
I0702 18:14:23.767796 10683 net.cpp:150] Setting up conv4_1
I0702 18:14:23.767818 10683 net.cpp:157] Top shape: 4 512 72 96 (14155776)
I0702 18:14:23.767822 10683 net.cpp:165] Memory required for data: 3685758364
I0702 18:14:23.767832 10683 layer_factory.hpp:77] Creating layer relu4_1
I0702 18:14:23.767845 10683 net.cpp:100] Creating Layer relu4_1
I0702 18:14:23.767850 10683 net.cpp:434] relu4_1 <- conv4_1
I0702 18:14:23.767856 10683 net.cpp:395] relu4_1 -> conv4_1 (in-place)
I0702 18:14:23.768139 10683 net.cpp:150] Setting up relu4_1
I0702 18:14:23.768151 10683 net.cpp:157] Top shape: 4 512 72 96 (14155776)
I0702 18:14:23.768153 10683 net.cpp:165] Memory required for data: 3742381468
I0702 18:14:23.768157 10683 layer_factory.hpp:77] Creating layer conv4_2
I0702 18:14:23.768164 10683 net.cpp:100] Creating Layer conv4_2
I0702 18:14:23.768169 10683 net.cpp:434] conv4_2 <- conv4_1
I0702 18:14:23.768177 10683 net.cpp:408] conv4_2 -> conv4_2
I0702 18:14:23.773968 10683 net.cpp:150] Setting up conv4_2
I0702 18:14:23.773988 10683 net.cpp:157] Top shape: 4 512 72 96 (14155776)
I0702 18:14:23.773990 10683 net.cpp:165] Memory required for data: 3799004572
I0702 18:14:23.774005 10683 layer_factory.hpp:77] Creating layer relu4_2
I0702 18:14:23.774014 10683 net.cpp:100] Creating Layer relu4_2
I0702 18:14:23.774019 10683 net.cpp:434] relu4_2 <- conv4_2
I0702 18:14:23.774026 10683 net.cpp:395] relu4_2 -> conv4_2 (in-place)
I0702 18:14:23.774281 10683 net.cpp:150] Setting up relu4_2
I0702 18:14:23.774292 10683 net.cpp:157] Top shape: 4 512 72 96 (14155776)
I0702 18:14:23.774296 10683 net.cpp:165] Memory required for data: 3855627676
I0702 18:14:23.774299 10683 layer_factory.hpp:77] Creating layer conv4_3
I0702 18:14:23.774308 10683 net.cpp:100] Creating Layer conv4_3
I0702 18:14:23.774312 10683 net.cpp:434] conv4_3 <- conv4_2
I0702 18:14:23.774314 10683 net.cpp:408] conv4_3 -> conv4_3
I0702 18:14:23.779786 10683 net.cpp:150] Setting up conv4_3
I0702 18:14:23.779808 10683 net.cpp:157] Top shape: 4 512 72 96 (14155776)
I0702 18:14:23.779809 10683 net.cpp:165] Memory required for data: 3912250780
I0702 18:14:23.779819 10683 layer_factory.hpp:77] Creating layer relu4_3
I0702 18:14:23.779829 10683 net.cpp:100] Creating Layer relu4_3
I0702 18:14:23.779832 10683 net.cpp:434] relu4_3 <- conv4_3
I0702 18:14:23.779841 10683 net.cpp:395] relu4_3 -> conv4_3 (in-place)
I0702 18:14:23.780652 10683 net.cpp:150] Setting up relu4_3
I0702 18:14:23.780663 10683 net.cpp:157] Top shape: 4 512 72 96 (14155776)
I0702 18:14:23.780665 10683 net.cpp:165] Memory required for data: 3968873884
I0702 18:14:23.780668 10683 layer_factory.hpp:77] Creating layer conv4_3_relu4_3_0_split
I0702 18:14:23.780673 10683 net.cpp:100] Creating Layer conv4_3_relu4_3_0_split
I0702 18:14:23.780676 10683 net.cpp:434] conv4_3_relu4_3_0_split <- conv4_3
I0702 18:14:23.780681 10683 net.cpp:408] conv4_3_relu4_3_0_split -> conv4_3_relu4_3_0_split_0
I0702 18:14:23.780688 10683 net.cpp:408] conv4_3_relu4_3_0_split -> conv4_3_relu4_3_0_split_1
I0702 18:14:23.780694 10683 net.cpp:408] conv4_3_relu4_3_0_split -> conv4_3_relu4_3_0_split_2
I0702 18:14:23.780747 10683 net.cpp:150] Setting up conv4_3_relu4_3_0_split
I0702 18:14:23.780752 10683 net.cpp:157] Top shape: 4 512 72 96 (14155776)
I0702 18:14:23.780755 10683 net.cpp:157] Top shape: 4 512 72 96 (14155776)
I0702 18:14:23.780758 10683 net.cpp:157] Top shape: 4 512 72 96 (14155776)
I0702 18:14:23.780761 10683 net.cpp:165] Memory required for data: 4138743196
I0702 18:14:23.780763 10683 layer_factory.hpp:77] Creating layer loss1_conv1
I0702 18:14:23.780777 10683 net.cpp:100] Creating Layer loss1_conv1
I0702 18:14:23.780781 10683 net.cpp:434] loss1_conv1 <- conv4_3_relu4_3_0_split_0
I0702 18:14:23.780784 10683 net.cpp:408] loss1_conv1 -> loss1_conv1
I0702 18:14:23.814676 10683 net.cpp:150] Setting up loss1_conv1
I0702 18:14:23.814693 10683 net.cpp:157] Top shape: 4 512 72 96 (14155776)
I0702 18:14:23.814695 10683 net.cpp:165] Memory required for data: 4195366300
I0702 18:14:23.814702 10683 layer_factory.hpp:77] Creating layer loss_relu1
I0702 18:14:23.814708 10683 net.cpp:100] Creating Layer loss_relu1
I0702 18:14:23.814712 10683 net.cpp:434] loss_relu1 <- loss1_conv1
I0702 18:14:23.814716 10683 net.cpp:395] loss_relu1 -> loss1_conv1 (in-place)
I0702 18:14:23.814960 10683 net.cpp:150] Setting up loss_relu1
I0702 18:14:23.814970 10683 net.cpp:157] Top shape: 4 512 72 96 (14155776)
I0702 18:14:23.814972 10683 net.cpp:165] Memory required for data: 4251989404
I0702 18:14:23.814975 10683 layer_factory.hpp:77] Creating layer loss1_conv1_loss_relu1_0_split
I0702 18:14:23.814982 10683 net.cpp:100] Creating Layer loss1_conv1_loss_relu1_0_split
I0702 18:14:23.814985 10683 net.cpp:434] loss1_conv1_loss_relu1_0_split <- loss1_conv1
I0702 18:14:23.814991 10683 net.cpp:408] loss1_conv1_loss_relu1_0_split -> loss1_conv1_loss_relu1_0_split_0
I0702 18:14:23.814998 10683 net.cpp:408] loss1_conv1_loss_relu1_0_split -> loss1_conv1_loss_relu1_0_split_1
I0702 18:14:23.815043 10683 net.cpp:150] Setting up loss1_conv1_loss_relu1_0_split
I0702 18:14:23.815049 10683 net.cpp:157] Top shape: 4 512 72 96 (14155776)
I0702 18:14:23.815052 10683 net.cpp:157] Top shape: 4 512 72 96 (14155776)
I0702 18:14:23.815055 10683 net.cpp:165] Memory required for data: 4365235612
I0702 18:14:23.815058 10683 layer_factory.hpp:77] Creating layer LFCN_1_3x5
I0702 18:14:23.815068 10683 net.cpp:100] Creating Layer LFCN_1_3x5
I0702 18:14:23.815073 10683 net.cpp:434] LFCN_1_3x5 <- loss1_conv1_loss_relu1_0_split_0
I0702 18:14:23.815080 10683 net.cpp:408] LFCN_1_3x5 -> LFCN_1_3x5
I0702 18:14:23.817278 10683 net.cpp:150] Setting up LFCN_1_3x5
I0702 18:14:23.817291 10683 net.cpp:157] Top shape: 4 7 72 96 (193536)
I0702 18:14:23.817294 10683 net.cpp:165] Memory required for data: 4366009756
I0702 18:14:23.817302 10683 layer_factory.hpp:77] Creating layer LFCN_1_3x5_LFCN_1_3x5_0_split
I0702 18:14:23.817312 10683 net.cpp:100] Creating Layer LFCN_1_3x5_LFCN_1_3x5_0_split
I0702 18:14:23.817317 10683 net.cpp:434] LFCN_1_3x5_LFCN_1_3x5_0_split <- LFCN_1_3x5
I0702 18:14:23.817324 10683 net.cpp:408] LFCN_1_3x5_LFCN_1_3x5_0_split -> LFCN_1_3x5_LFCN_1_3x5_0_split_0
I0702 18:14:23.817334 10683 net.cpp:408] LFCN_1_3x5_LFCN_1_3x5_0_split -> LFCN_1_3x5_LFCN_1_3x5_0_split_1
I0702 18:14:23.817342 10683 net.cpp:408] LFCN_1_3x5_LFCN_1_3x5_0_split -> LFCN_1_3x5_LFCN_1_3x5_0_split_2
I0702 18:14:23.817392 10683 net.cpp:150] Setting up LFCN_1_3x5_LFCN_1_3x5_0_split
I0702 18:14:23.817399 10683 net.cpp:157] Top shape: 4 7 72 96 (193536)
I0702 18:14:23.817402 10683 net.cpp:157] Top shape: 4 7 72 96 (193536)
I0702 18:14:23.817405 10683 net.cpp:157] Top shape: 4 7 72 96 (193536)
I0702 18:14:23.817409 10683 net.cpp:165] Memory required for data: 4368332188
I0702 18:14:23.817411 10683 layer_factory.hpp:77] Creating layer detection_loss_1_3x5
I0702 18:14:23.817420 10683 net.cpp:100] Creating Layer detection_loss_1_3x5
I0702 18:14:23.817425 10683 net.cpp:434] detection_loss_1_3x5 <- LFCN_1_3x5_LFCN_1_3x5_0_split_0
I0702 18:14:23.817430 10683 net.cpp:434] detection_loss_1_3x5 <- label_1_3x5_data_1_split_0
I0702 18:14:23.817435 10683 net.cpp:408] detection_loss_1_3x5 -> loss_1_3x5
I0702 18:14:23.817447 10683 layer_factory.hpp:77] Creating layer detection_loss_1_3x5
I0702 18:14:23.817899 10683 net.cpp:150] Setting up detection_loss_1_3x5
I0702 18:14:23.817908 10683 net.cpp:157] Top shape: 1 1 1 2 (2)
I0702 18:14:23.817910 10683 net.cpp:160]     with loss weight 0.5
I0702 18:14:23.817929 10683 net.cpp:165] Memory required for data: 4368332196
I0702 18:14:23.817934 10683 layer_factory.hpp:77] Creating layer detection_accuracy_1_3x5
I0702 18:14:23.817942 10683 net.cpp:100] Creating Layer detection_accuracy_1_3x5
I0702 18:14:23.817946 10683 net.cpp:434] detection_accuracy_1_3x5 <- LFCN_1_3x5_LFCN_1_3x5_0_split_1
I0702 18:14:23.817951 10683 net.cpp:434] detection_accuracy_1_3x5 <- label_1_3x5_data_1_split_1
I0702 18:14:23.817958 10683 net.cpp:408] detection_accuracy_1_3x5 -> accuracy_1_3x5
I0702 18:14:23.817967 10683 net.cpp:408] detection_accuracy_1_3x5 -> boxiou_1_3x5
I0702 18:14:23.818004 10683 net.cpp:150] Setting up detection_accuracy_1_3x5
I0702 18:14:23.818011 10683 net.cpp:157] Top shape: 1 1 1 2 (2)
I0702 18:14:23.818014 10683 net.cpp:157] Top shape: 1 1 1 1 (1)
I0702 18:14:23.818017 10683 net.cpp:165] Memory required for data: 4368332208
I0702 18:14:23.818019 10683 layer_factory.hpp:77] Creating layer LFCN_1_5x7
I0702 18:14:23.818030 10683 net.cpp:100] Creating Layer LFCN_1_5x7
I0702 18:14:23.818034 10683 net.cpp:434] LFCN_1_5x7 <- loss1_conv1_loss_relu1_0_split_1
I0702 18:14:23.818040 10683 net.cpp:408] LFCN_1_5x7 -> LFCN_1_5x7
I0702 18:14:23.820992 10683 net.cpp:150] Setting up LFCN_1_5x7
I0702 18:14:23.821007 10683 net.cpp:157] Top shape: 4 7 72 96 (193536)
I0702 18:14:23.821010 10683 net.cpp:165] Memory required for data: 4369106352
I0702 18:14:23.821018 10683 layer_factory.hpp:77] Creating layer LFCN_1_5x7_LFCN_1_5x7_0_split
I0702 18:14:23.821027 10683 net.cpp:100] Creating Layer LFCN_1_5x7_LFCN_1_5x7_0_split
I0702 18:14:23.821030 10683 net.cpp:434] LFCN_1_5x7_LFCN_1_5x7_0_split <- LFCN_1_5x7
I0702 18:14:23.821039 10683 net.cpp:408] LFCN_1_5x7_LFCN_1_5x7_0_split -> LFCN_1_5x7_LFCN_1_5x7_0_split_0
I0702 18:14:23.821048 10683 net.cpp:408] LFCN_1_5x7_LFCN_1_5x7_0_split -> LFCN_1_5x7_LFCN_1_5x7_0_split_1
I0702 18:14:23.821054 10683 net.cpp:408] LFCN_1_5x7_LFCN_1_5x7_0_split -> LFCN_1_5x7_LFCN_1_5x7_0_split_2
I0702 18:14:23.821104 10683 net.cpp:150] Setting up LFCN_1_5x7_LFCN_1_5x7_0_split
I0702 18:14:23.821110 10683 net.cpp:157] Top shape: 4 7 72 96 (193536)
I0702 18:14:23.821113 10683 net.cpp:157] Top shape: 4 7 72 96 (193536)
I0702 18:14:23.821116 10683 net.cpp:157] Top shape: 4 7 72 96 (193536)
I0702 18:14:23.821120 10683 net.cpp:165] Memory required for data: 4371428784
I0702 18:14:23.821122 10683 layer_factory.hpp:77] Creating layer detection_loss_1_5x7
I0702 18:14:23.821131 10683 net.cpp:100] Creating Layer detection_loss_1_5x7
I0702 18:14:23.821135 10683 net.cpp:434] detection_loss_1_5x7 <- LFCN_1_5x7_LFCN_1_5x7_0_split_0
I0702 18:14:23.821141 10683 net.cpp:434] detection_loss_1_5x7 <- label_1_5x7_data_2_split_0
I0702 18:14:23.821146 10683 net.cpp:408] detection_loss_1_5x7 -> loss_1_5x7
I0702 18:14:23.821156 10683 layer_factory.hpp:77] Creating layer detection_loss_1_5x7
I0702 18:14:23.822079 10683 net.cpp:150] Setting up detection_loss_1_5x7
I0702 18:14:23.822091 10683 net.cpp:157] Top shape: 1 1 1 2 (2)
I0702 18:14:23.822094 10683 net.cpp:160]     with loss weight 0.9
I0702 18:14:23.822104 10683 net.cpp:165] Memory required for data: 4371428792
I0702 18:14:23.822108 10683 layer_factory.hpp:77] Creating layer detection_accuracy_1_5x7
I0702 18:14:23.822116 10683 net.cpp:100] Creating Layer detection_accuracy_1_5x7
I0702 18:14:23.822121 10683 net.cpp:434] detection_accuracy_1_5x7 <- LFCN_1_5x7_LFCN_1_5x7_0_split_1
I0702 18:14:23.822127 10683 net.cpp:434] detection_accuracy_1_5x7 <- label_1_5x7_data_2_split_1
I0702 18:14:23.822135 10683 net.cpp:408] detection_accuracy_1_5x7 -> accuracy_1_5x7
I0702 18:14:23.822144 10683 net.cpp:408] detection_accuracy_1_5x7 -> boxiou_1_5x7
I0702 18:14:23.822201 10683 net.cpp:150] Setting up detection_accuracy_1_5x7
I0702 18:14:23.822208 10683 net.cpp:157] Top shape: 1 1 1 2 (2)
I0702 18:14:23.822212 10683 net.cpp:157] Top shape: 1 1 1 1 (1)
I0702 18:14:23.822216 10683 net.cpp:165] Memory required for data: 4371428804
I0702 18:14:23.822218 10683 layer_factory.hpp:77] Creating layer pool4
I0702 18:14:23.822224 10683 net.cpp:100] Creating Layer pool4
I0702 18:14:23.822229 10683 net.cpp:434] pool4 <- conv4_3_relu4_3_0_split_1
I0702 18:14:23.822237 10683 net.cpp:408] pool4 -> pool4
I0702 18:14:23.822273 10683 net.cpp:150] Setting up pool4
I0702 18:14:23.822278 10683 net.cpp:157] Top shape: 4 512 36 48 (3538944)
I0702 18:14:23.822280 10683 net.cpp:165] Memory required for data: 4385584580
I0702 18:14:23.822283 10683 layer_factory.hpp:77] Creating layer conv5_1
I0702 18:14:23.822291 10683 net.cpp:100] Creating Layer conv5_1
I0702 18:14:23.822294 10683 net.cpp:434] conv5_1 <- pool4
I0702 18:14:23.822301 10683 net.cpp:408] conv5_1 -> conv5_1
I0702 18:14:23.828161 10683 net.cpp:150] Setting up conv5_1
I0702 18:14:23.828181 10683 net.cpp:157] Top shape: 4 512 36 48 (3538944)
I0702 18:14:23.828184 10683 net.cpp:165] Memory required for data: 4399740356
I0702 18:14:23.828194 10683 layer_factory.hpp:77] Creating layer relu5_1
I0702 18:14:23.828208 10683 net.cpp:100] Creating Layer relu5_1
I0702 18:14:23.828212 10683 net.cpp:434] relu5_1 <- conv5_1
I0702 18:14:23.828219 10683 net.cpp:395] relu5_1 -> conv5_1 (in-place)
I0702 18:14:23.828903 10683 net.cpp:150] Setting up relu5_1
I0702 18:14:23.828914 10683 net.cpp:157] Top shape: 4 512 36 48 (3538944)
I0702 18:14:23.828917 10683 net.cpp:165] Memory required for data: 4413896132
I0702 18:14:23.828922 10683 layer_factory.hpp:77] Creating layer conv5_2
I0702 18:14:23.828930 10683 net.cpp:100] Creating Layer conv5_2
I0702 18:14:23.828935 10683 net.cpp:434] conv5_2 <- conv5_1
I0702 18:14:23.828941 10683 net.cpp:408] conv5_2 -> conv5_2
I0702 18:14:23.834440 10683 net.cpp:150] Setting up conv5_2
I0702 18:14:23.834460 10683 net.cpp:157] Top shape: 4 512 36 48 (3538944)
I0702 18:14:23.834463 10683 net.cpp:165] Memory required for data: 4428051908
I0702 18:14:23.834471 10683 layer_factory.hpp:77] Creating layer relu5_2
I0702 18:14:23.834481 10683 net.cpp:100] Creating Layer relu5_2
I0702 18:14:23.834486 10683 net.cpp:434] relu5_2 <- conv5_2
I0702 18:14:23.834492 10683 net.cpp:395] relu5_2 -> conv5_2 (in-place)
I0702 18:14:23.834755 10683 net.cpp:150] Setting up relu5_2
I0702 18:14:23.834767 10683 net.cpp:157] Top shape: 4 512 36 48 (3538944)
I0702 18:14:23.834770 10683 net.cpp:165] Memory required for data: 4442207684
I0702 18:14:23.834774 10683 layer_factory.hpp:77] Creating layer conv5_3
I0702 18:14:23.834781 10683 net.cpp:100] Creating Layer conv5_3
I0702 18:14:23.834784 10683 net.cpp:434] conv5_3 <- conv5_2
I0702 18:14:23.834789 10683 net.cpp:408] conv5_3 -> conv5_3
I0702 18:14:23.841549 10683 net.cpp:150] Setting up conv5_3
I0702 18:14:23.841567 10683 net.cpp:157] Top shape: 4 512 36 48 (3538944)
I0702 18:14:23.841568 10683 net.cpp:165] Memory required for data: 4456363460
I0702 18:14:23.841575 10683 layer_factory.hpp:77] Creating layer relu5_3
I0702 18:14:23.841583 10683 net.cpp:100] Creating Layer relu5_3
I0702 18:14:23.841586 10683 net.cpp:434] relu5_3 <- conv5_3
I0702 18:14:23.841590 10683 net.cpp:395] relu5_3 -> conv5_3 (in-place)
I0702 18:14:23.841847 10683 net.cpp:150] Setting up relu5_3
I0702 18:14:23.841859 10683 net.cpp:157] Top shape: 4 512 36 48 (3538944)
I0702 18:14:23.841863 10683 net.cpp:165] Memory required for data: 4470519236
I0702 18:14:23.841866 10683 layer_factory.hpp:77] Creating layer conv5_3_relu5_3_0_split
I0702 18:14:23.841872 10683 net.cpp:100] Creating Layer conv5_3_relu5_3_0_split
I0702 18:14:23.841876 10683 net.cpp:434] conv5_3_relu5_3_0_split <- conv5_3
I0702 18:14:23.841883 10683 net.cpp:408] conv5_3_relu5_3_0_split -> conv5_3_relu5_3_0_split_0
I0702 18:14:23.841892 10683 net.cpp:408] conv5_3_relu5_3_0_split -> conv5_3_relu5_3_0_split_1
I0702 18:14:23.841898 10683 net.cpp:408] conv5_3_relu5_3_0_split -> conv5_3_relu5_3_0_split_2
I0702 18:14:23.841958 10683 net.cpp:150] Setting up conv5_3_relu5_3_0_split
I0702 18:14:23.841967 10683 net.cpp:157] Top shape: 4 512 36 48 (3538944)
I0702 18:14:23.841971 10683 net.cpp:157] Top shape: 4 512 36 48 (3538944)
I0702 18:14:23.841975 10683 net.cpp:157] Top shape: 4 512 36 48 (3538944)
I0702 18:14:23.841979 10683 net.cpp:165] Memory required for data: 4512986564
I0702 18:14:23.841981 10683 layer_factory.hpp:77] Creating layer LFCN_2_3x5
I0702 18:14:23.841992 10683 net.cpp:100] Creating Layer LFCN_2_3x5
I0702 18:14:23.841996 10683 net.cpp:434] LFCN_2_3x5 <- conv5_3_relu5_3_0_split_0
I0702 18:14:23.842005 10683 net.cpp:408] LFCN_2_3x5 -> LFCN_2_3x5
I0702 18:14:23.843809 10683 net.cpp:150] Setting up LFCN_2_3x5
I0702 18:14:23.843822 10683 net.cpp:157] Top shape: 4 7 36 48 (48384)
I0702 18:14:23.843824 10683 net.cpp:165] Memory required for data: 4513180100
I0702 18:14:23.843840 10683 layer_factory.hpp:77] Creating layer LFCN_2_3x5_LFCN_2_3x5_0_split
I0702 18:14:23.843847 10683 net.cpp:100] Creating Layer LFCN_2_3x5_LFCN_2_3x5_0_split
I0702 18:14:23.843850 10683 net.cpp:434] LFCN_2_3x5_LFCN_2_3x5_0_split <- LFCN_2_3x5
I0702 18:14:23.843857 10683 net.cpp:408] LFCN_2_3x5_LFCN_2_3x5_0_split -> LFCN_2_3x5_LFCN_2_3x5_0_split_0
I0702 18:14:23.843873 10683 net.cpp:408] LFCN_2_3x5_LFCN_2_3x5_0_split -> LFCN_2_3x5_LFCN_2_3x5_0_split_1
I0702 18:14:23.843878 10683 net.cpp:408] LFCN_2_3x5_LFCN_2_3x5_0_split -> LFCN_2_3x5_LFCN_2_3x5_0_split_2
I0702 18:14:23.843927 10683 net.cpp:150] Setting up LFCN_2_3x5_LFCN_2_3x5_0_split
I0702 18:14:23.843932 10683 net.cpp:157] Top shape: 4 7 36 48 (48384)
I0702 18:14:23.843935 10683 net.cpp:157] Top shape: 4 7 36 48 (48384)
I0702 18:14:23.843938 10683 net.cpp:157] Top shape: 4 7 36 48 (48384)
I0702 18:14:23.843941 10683 net.cpp:165] Memory required for data: 4513760708
I0702 18:14:23.843945 10683 layer_factory.hpp:77] Creating layer detection_loss_2_3x5
I0702 18:14:23.843952 10683 net.cpp:100] Creating Layer detection_loss_2_3x5
I0702 18:14:23.843956 10683 net.cpp:434] detection_loss_2_3x5 <- LFCN_2_3x5_LFCN_2_3x5_0_split_0
I0702 18:14:23.843960 10683 net.cpp:434] detection_loss_2_3x5 <- label_2_3x5_data_3_split_0
I0702 18:14:23.843966 10683 net.cpp:408] detection_loss_2_3x5 -> loss_2_3x5
I0702 18:14:23.843972 10683 layer_factory.hpp:77] Creating layer detection_loss_2_3x5
I0702 18:14:23.844827 10683 net.cpp:150] Setting up detection_loss_2_3x5
I0702 18:14:23.844836 10683 net.cpp:157] Top shape: 1 1 1 2 (2)
I0702 18:14:23.844838 10683 net.cpp:160]     with loss weight 1
I0702 18:14:23.844844 10683 net.cpp:165] Memory required for data: 4513760716
I0702 18:14:23.844846 10683 layer_factory.hpp:77] Creating layer detection_accuracy_2_3x5
I0702 18:14:23.844854 10683 net.cpp:100] Creating Layer detection_accuracy_2_3x5
I0702 18:14:23.844857 10683 net.cpp:434] detection_accuracy_2_3x5 <- LFCN_2_3x5_LFCN_2_3x5_0_split_1
I0702 18:14:23.844861 10683 net.cpp:434] detection_accuracy_2_3x5 <- label_2_3x5_data_3_split_1
I0702 18:14:23.844866 10683 net.cpp:408] detection_accuracy_2_3x5 -> accuracy_2_3x5
I0702 18:14:23.844872 10683 net.cpp:408] detection_accuracy_2_3x5 -> boxiou_2_3x5
I0702 18:14:23.844911 10683 net.cpp:150] Setting up detection_accuracy_2_3x5
I0702 18:14:23.844915 10683 net.cpp:157] Top shape: 1 1 1 2 (2)
I0702 18:14:23.844918 10683 net.cpp:157] Top shape: 1 1 1 1 (1)
I0702 18:14:23.844919 10683 net.cpp:165] Memory required for data: 4513760728
I0702 18:14:23.844923 10683 layer_factory.hpp:77] Creating layer LFCN_2_5x7
I0702 18:14:23.844931 10683 net.cpp:100] Creating Layer LFCN_2_5x7
I0702 18:14:23.844935 10683 net.cpp:434] LFCN_2_5x7 <- conv5_3_relu5_3_0_split_1
I0702 18:14:23.844941 10683 net.cpp:408] LFCN_2_5x7 -> LFCN_2_5x7
I0702 18:14:23.848170 10683 net.cpp:150] Setting up LFCN_2_5x7
I0702 18:14:23.848191 10683 net.cpp:157] Top shape: 4 7 36 48 (48384)
I0702 18:14:23.848192 10683 net.cpp:165] Memory required for data: 4513954264
I0702 18:14:23.848199 10683 layer_factory.hpp:77] Creating layer LFCN_2_5x7_LFCN_2_5x7_0_split
I0702 18:14:23.848204 10683 net.cpp:100] Creating Layer LFCN_2_5x7_LFCN_2_5x7_0_split
I0702 18:14:23.848208 10683 net.cpp:434] LFCN_2_5x7_LFCN_2_5x7_0_split <- LFCN_2_5x7
I0702 18:14:23.848215 10683 net.cpp:408] LFCN_2_5x7_LFCN_2_5x7_0_split -> LFCN_2_5x7_LFCN_2_5x7_0_split_0
I0702 18:14:23.848222 10683 net.cpp:408] LFCN_2_5x7_LFCN_2_5x7_0_split -> LFCN_2_5x7_LFCN_2_5x7_0_split_1
I0702 18:14:23.848227 10683 net.cpp:408] LFCN_2_5x7_LFCN_2_5x7_0_split -> LFCN_2_5x7_LFCN_2_5x7_0_split_2
I0702 18:14:23.848279 10683 net.cpp:150] Setting up LFCN_2_5x7_LFCN_2_5x7_0_split
I0702 18:14:23.848284 10683 net.cpp:157] Top shape: 4 7 36 48 (48384)
I0702 18:14:23.848287 10683 net.cpp:157] Top shape: 4 7 36 48 (48384)
I0702 18:14:23.848290 10683 net.cpp:157] Top shape: 4 7 36 48 (48384)
I0702 18:14:23.848292 10683 net.cpp:165] Memory required for data: 4514534872
I0702 18:14:23.848295 10683 layer_factory.hpp:77] Creating layer detection_loss_2_5x7
I0702 18:14:23.848304 10683 net.cpp:100] Creating Layer detection_loss_2_5x7
I0702 18:14:23.848307 10683 net.cpp:434] detection_loss_2_5x7 <- LFCN_2_5x7_LFCN_2_5x7_0_split_0
I0702 18:14:23.848311 10683 net.cpp:434] detection_loss_2_5x7 <- label_2_5x7_data_4_split_0
I0702 18:14:23.848318 10683 net.cpp:408] detection_loss_2_5x7 -> loss_2_5x7
I0702 18:14:23.848326 10683 layer_factory.hpp:77] Creating layer detection_loss_2_5x7
I0702 18:14:23.848731 10683 net.cpp:150] Setting up detection_loss_2_5x7
I0702 18:14:23.848737 10683 net.cpp:157] Top shape: 1 1 1 2 (2)
I0702 18:14:23.848739 10683 net.cpp:160]     with loss weight 1
I0702 18:14:23.848747 10683 net.cpp:165] Memory required for data: 4514534880
I0702 18:14:23.848749 10683 layer_factory.hpp:77] Creating layer detection_accuracy_2_5x7
I0702 18:14:23.848757 10683 net.cpp:100] Creating Layer detection_accuracy_2_5x7
I0702 18:14:23.848762 10683 net.cpp:434] detection_accuracy_2_5x7 <- LFCN_2_5x7_LFCN_2_5x7_0_split_1
I0702 18:14:23.848765 10683 net.cpp:434] detection_accuracy_2_5x7 <- label_2_5x7_data_4_split_1
I0702 18:14:23.848770 10683 net.cpp:408] detection_accuracy_2_5x7 -> accuracy_2_5x7
I0702 18:14:23.848778 10683 net.cpp:408] detection_accuracy_2_5x7 -> boxiou_2_5x7
I0702 18:14:23.848815 10683 net.cpp:150] Setting up detection_accuracy_2_5x7
I0702 18:14:23.848819 10683 net.cpp:157] Top shape: 1 1 1 2 (2)
I0702 18:14:23.848821 10683 net.cpp:157] Top shape: 1 1 1 1 (1)
I0702 18:14:23.848824 10683 net.cpp:165] Memory required for data: 4514534892
I0702 18:14:23.848827 10683 layer_factory.hpp:77] Creating layer pool5
I0702 18:14:23.848832 10683 net.cpp:100] Creating Layer pool5
I0702 18:14:23.848836 10683 net.cpp:434] pool5 <- conv5_3_relu5_3_0_split_2
I0702 18:14:23.848842 10683 net.cpp:408] pool5 -> pool5
I0702 18:14:23.848875 10683 net.cpp:150] Setting up pool5
I0702 18:14:23.848879 10683 net.cpp:157] Top shape: 4 512 18 24 (884736)
I0702 18:14:23.848881 10683 net.cpp:165] Memory required for data: 4518073836
I0702 18:14:23.848883 10683 layer_factory.hpp:77] Creating layer conv6_1
I0702 18:14:23.848896 10683 net.cpp:100] Creating Layer conv6_1
I0702 18:14:23.848901 10683 net.cpp:434] conv6_1 <- pool5
I0702 18:14:23.848908 10683 net.cpp:408] conv6_1 -> conv6_1
I0702 18:14:23.869491 10683 net.cpp:150] Setting up conv6_1
I0702 18:14:23.869509 10683 net.cpp:157] Top shape: 4 512 18 24 (884736)
I0702 18:14:23.869513 10683 net.cpp:165] Memory required for data: 4521612780
I0702 18:14:23.869521 10683 layer_factory.hpp:77] Creating layer relu6_1
I0702 18:14:23.869530 10683 net.cpp:100] Creating Layer relu6_1
I0702 18:14:23.869534 10683 net.cpp:434] relu6_1 <- conv6_1
I0702 18:14:23.869541 10683 net.cpp:395] relu6_1 -> conv6_1 (in-place)
I0702 18:14:23.869798 10683 net.cpp:150] Setting up relu6_1
I0702 18:14:23.869809 10683 net.cpp:157] Top shape: 4 512 18 24 (884736)
I0702 18:14:23.869812 10683 net.cpp:165] Memory required for data: 4525151724
I0702 18:14:23.869814 10683 layer_factory.hpp:77] Creating layer conv6_1_relu6_1_0_split
I0702 18:14:23.869822 10683 net.cpp:100] Creating Layer conv6_1_relu6_1_0_split
I0702 18:14:23.869827 10683 net.cpp:434] conv6_1_relu6_1_0_split <- conv6_1
I0702 18:14:23.869830 10683 net.cpp:408] conv6_1_relu6_1_0_split -> conv6_1_relu6_1_0_split_0
I0702 18:14:23.869837 10683 net.cpp:408] conv6_1_relu6_1_0_split -> conv6_1_relu6_1_0_split_1
I0702 18:14:23.869841 10683 net.cpp:408] conv6_1_relu6_1_0_split -> conv6_1_relu6_1_0_split_2
I0702 18:14:23.869899 10683 net.cpp:150] Setting up conv6_1_relu6_1_0_split
I0702 18:14:23.869904 10683 net.cpp:157] Top shape: 4 512 18 24 (884736)
I0702 18:14:23.869906 10683 net.cpp:157] Top shape: 4 512 18 24 (884736)
I0702 18:14:23.869910 10683 net.cpp:157] Top shape: 4 512 18 24 (884736)
I0702 18:14:23.869912 10683 net.cpp:165] Memory required for data: 4535768556
I0702 18:14:23.869915 10683 layer_factory.hpp:77] Creating layer LFCN_3_3x5
I0702 18:14:23.869925 10683 net.cpp:100] Creating Layer LFCN_3_3x5
I0702 18:14:23.869928 10683 net.cpp:434] LFCN_3_3x5 <- conv6_1_relu6_1_0_split_0
I0702 18:14:23.869935 10683 net.cpp:408] LFCN_3_3x5 -> LFCN_3_3x5
I0702 18:14:23.872658 10683 net.cpp:150] Setting up LFCN_3_3x5
I0702 18:14:23.872676 10683 net.cpp:157] Top shape: 4 7 18 24 (12096)
I0702 18:14:23.872678 10683 net.cpp:165] Memory required for data: 4535816940
I0702 18:14:23.872684 10683 layer_factory.hpp:77] Creating layer LFCN_3_3x5_LFCN_3_3x5_0_split
I0702 18:14:23.872699 10683 net.cpp:100] Creating Layer LFCN_3_3x5_LFCN_3_3x5_0_split
I0702 18:14:23.872704 10683 net.cpp:434] LFCN_3_3x5_LFCN_3_3x5_0_split <- LFCN_3_3x5
I0702 18:14:23.872709 10683 net.cpp:408] LFCN_3_3x5_LFCN_3_3x5_0_split -> LFCN_3_3x5_LFCN_3_3x5_0_split_0
I0702 18:14:23.872716 10683 net.cpp:408] LFCN_3_3x5_LFCN_3_3x5_0_split -> LFCN_3_3x5_LFCN_3_3x5_0_split_1
I0702 18:14:23.872722 10683 net.cpp:408] LFCN_3_3x5_LFCN_3_3x5_0_split -> LFCN_3_3x5_LFCN_3_3x5_0_split_2
I0702 18:14:23.872773 10683 net.cpp:150] Setting up LFCN_3_3x5_LFCN_3_3x5_0_split
I0702 18:14:23.872778 10683 net.cpp:157] Top shape: 4 7 18 24 (12096)
I0702 18:14:23.872781 10683 net.cpp:157] Top shape: 4 7 18 24 (12096)
I0702 18:14:23.872783 10683 net.cpp:157] Top shape: 4 7 18 24 (12096)
I0702 18:14:23.872786 10683 net.cpp:165] Memory required for data: 4535962092
I0702 18:14:23.872789 10683 layer_factory.hpp:77] Creating layer detection_loss_3_3x5
I0702 18:14:23.872797 10683 net.cpp:100] Creating Layer detection_loss_3_3x5
I0702 18:14:23.872799 10683 net.cpp:434] detection_loss_3_3x5 <- LFCN_3_3x5_LFCN_3_3x5_0_split_0
I0702 18:14:23.872803 10683 net.cpp:434] detection_loss_3_3x5 <- label_3_3x5_data_5_split_0
I0702 18:14:23.872808 10683 net.cpp:408] detection_loss_3_3x5 -> loss_3_3x5
I0702 18:14:23.872817 10683 layer_factory.hpp:77] Creating layer detection_loss_3_3x5
I0702 18:14:23.873729 10683 net.cpp:150] Setting up detection_loss_3_3x5
I0702 18:14:23.873740 10683 net.cpp:157] Top shape: 1 1 1 2 (2)
I0702 18:14:23.873742 10683 net.cpp:160]     with loss weight 1
I0702 18:14:23.873749 10683 net.cpp:165] Memory required for data: 4535962100
I0702 18:14:23.873751 10683 layer_factory.hpp:77] Creating layer detection_accuracy_3_3x5
I0702 18:14:23.873757 10683 net.cpp:100] Creating Layer detection_accuracy_3_3x5
I0702 18:14:23.873760 10683 net.cpp:434] detection_accuracy_3_3x5 <- LFCN_3_3x5_LFCN_3_3x5_0_split_1
I0702 18:14:23.873765 10683 net.cpp:434] detection_accuracy_3_3x5 <- label_3_3x5_data_5_split_1
I0702 18:14:23.873769 10683 net.cpp:408] detection_accuracy_3_3x5 -> accuracy_3_3x5
I0702 18:14:23.873777 10683 net.cpp:408] detection_accuracy_3_3x5 -> boxiou_3_3x5
I0702 18:14:23.873817 10683 net.cpp:150] Setting up detection_accuracy_3_3x5
I0702 18:14:23.873822 10683 net.cpp:157] Top shape: 1 1 1 2 (2)
I0702 18:14:23.873824 10683 net.cpp:157] Top shape: 1 1 1 1 (1)
I0702 18:14:23.873826 10683 net.cpp:165] Memory required for data: 4535962112
I0702 18:14:23.873829 10683 layer_factory.hpp:77] Creating layer LFCN_3_5x7
I0702 18:14:23.873838 10683 net.cpp:100] Creating Layer LFCN_3_5x7
I0702 18:14:23.873842 10683 net.cpp:434] LFCN_3_5x7 <- conv6_1_relu6_1_0_split_1
I0702 18:14:23.873847 10683 net.cpp:408] LFCN_3_5x7 -> LFCN_3_5x7
I0702 18:14:23.876185 10683 net.cpp:150] Setting up LFCN_3_5x7
I0702 18:14:23.876199 10683 net.cpp:157] Top shape: 4 7 18 24 (12096)
I0702 18:14:23.876200 10683 net.cpp:165] Memory required for data: 4536010496
I0702 18:14:23.876206 10683 layer_factory.hpp:77] Creating layer LFCN_3_5x7_LFCN_3_5x7_0_split
I0702 18:14:23.876212 10683 net.cpp:100] Creating Layer LFCN_3_5x7_LFCN_3_5x7_0_split
I0702 18:14:23.876215 10683 net.cpp:434] LFCN_3_5x7_LFCN_3_5x7_0_split <- LFCN_3_5x7
I0702 18:14:23.876220 10683 net.cpp:408] LFCN_3_5x7_LFCN_3_5x7_0_split -> LFCN_3_5x7_LFCN_3_5x7_0_split_0
I0702 18:14:23.876226 10683 net.cpp:408] LFCN_3_5x7_LFCN_3_5x7_0_split -> LFCN_3_5x7_LFCN_3_5x7_0_split_1
I0702 18:14:23.876230 10683 net.cpp:408] LFCN_3_5x7_LFCN_3_5x7_0_split -> LFCN_3_5x7_LFCN_3_5x7_0_split_2
I0702 18:14:23.876283 10683 net.cpp:150] Setting up LFCN_3_5x7_LFCN_3_5x7_0_split
I0702 18:14:23.876288 10683 net.cpp:157] Top shape: 4 7 18 24 (12096)
I0702 18:14:23.876291 10683 net.cpp:157] Top shape: 4 7 18 24 (12096)
I0702 18:14:23.876294 10683 net.cpp:157] Top shape: 4 7 18 24 (12096)
I0702 18:14:23.876297 10683 net.cpp:165] Memory required for data: 4536155648
I0702 18:14:23.876300 10683 layer_factory.hpp:77] Creating layer detection_loss_3_5x7
I0702 18:14:23.876308 10683 net.cpp:100] Creating Layer detection_loss_3_5x7
I0702 18:14:23.876312 10683 net.cpp:434] detection_loss_3_5x7 <- LFCN_3_5x7_LFCN_3_5x7_0_split_0
I0702 18:14:23.876315 10683 net.cpp:434] detection_loss_3_5x7 <- label_3_5x7_data_6_split_0
I0702 18:14:23.876322 10683 net.cpp:408] detection_loss_3_5x7 -> loss_3_5x7
I0702 18:14:23.876332 10683 layer_factory.hpp:77] Creating layer detection_loss_3_5x7
I0702 18:14:23.876735 10683 net.cpp:150] Setting up detection_loss_3_5x7
I0702 18:14:23.876741 10683 net.cpp:157] Top shape: 1 1 1 2 (2)
I0702 18:14:23.876744 10683 net.cpp:160]     with loss weight 1
I0702 18:14:23.876750 10683 net.cpp:165] Memory required for data: 4536155656
I0702 18:14:23.876754 10683 layer_factory.hpp:77] Creating layer detection_accuracy_3_5x7
I0702 18:14:23.876760 10683 net.cpp:100] Creating Layer detection_accuracy_3_5x7
I0702 18:14:23.876765 10683 net.cpp:434] detection_accuracy_3_5x7 <- LFCN_3_5x7_LFCN_3_5x7_0_split_1
I0702 18:14:23.876770 10683 net.cpp:434] detection_accuracy_3_5x7 <- label_3_5x7_data_6_split_1
I0702 18:14:23.876775 10683 net.cpp:408] detection_accuracy_3_5x7 -> accuracy_3_5x7
I0702 18:14:23.876781 10683 net.cpp:408] detection_accuracy_3_5x7 -> boxiou_3_5x7
I0702 18:14:23.876817 10683 net.cpp:150] Setting up detection_accuracy_3_5x7
I0702 18:14:23.876821 10683 net.cpp:157] Top shape: 1 1 1 2 (2)
I0702 18:14:23.876823 10683 net.cpp:157] Top shape: 1 1 1 1 (1)
I0702 18:14:23.876826 10683 net.cpp:165] Memory required for data: 4536155668
I0702 18:14:23.876829 10683 layer_factory.hpp:77] Creating layer pool6
I0702 18:14:23.876837 10683 net.cpp:100] Creating Layer pool6
I0702 18:14:23.876842 10683 net.cpp:434] pool6 <- conv6_1_relu6_1_0_split_2
I0702 18:14:23.876845 10683 net.cpp:408] pool6 -> pool6
I0702 18:14:23.876881 10683 net.cpp:150] Setting up pool6
I0702 18:14:23.876888 10683 net.cpp:157] Top shape: 4 512 9 12 (221184)
I0702 18:14:23.876890 10683 net.cpp:165] Memory required for data: 4537040404
I0702 18:14:23.876893 10683 layer_factory.hpp:77] Creating layer LFCN_4_3x5
I0702 18:14:23.876904 10683 net.cpp:100] Creating Layer LFCN_4_3x5
I0702 18:14:23.876906 10683 net.cpp:434] LFCN_4_3x5 <- pool6
I0702 18:14:23.876914 10683 net.cpp:408] LFCN_4_3x5 -> LFCN_4_3x5
I0702 18:14:23.879179 10683 net.cpp:150] Setting up LFCN_4_3x5
I0702 18:14:23.879196 10683 net.cpp:157] Top shape: 4 7 9 12 (3024)
I0702 18:14:23.879199 10683 net.cpp:165] Memory required for data: 4537052500
I0702 18:14:23.879207 10683 layer_factory.hpp:77] Creating layer LFCN_4_3x5_LFCN_4_3x5_0_split
I0702 18:14:23.879216 10683 net.cpp:100] Creating Layer LFCN_4_3x5_LFCN_4_3x5_0_split
I0702 18:14:23.879223 10683 net.cpp:434] LFCN_4_3x5_LFCN_4_3x5_0_split <- LFCN_4_3x5
I0702 18:14:23.879232 10683 net.cpp:408] LFCN_4_3x5_LFCN_4_3x5_0_split -> LFCN_4_3x5_LFCN_4_3x5_0_split_0
I0702 18:14:23.879241 10683 net.cpp:408] LFCN_4_3x5_LFCN_4_3x5_0_split -> LFCN_4_3x5_LFCN_4_3x5_0_split_1
I0702 18:14:23.879248 10683 net.cpp:408] LFCN_4_3x5_LFCN_4_3x5_0_split -> LFCN_4_3x5_LFCN_4_3x5_0_split_2
I0702 18:14:23.879305 10683 net.cpp:150] Setting up LFCN_4_3x5_LFCN_4_3x5_0_split
I0702 18:14:23.879310 10683 net.cpp:157] Top shape: 4 7 9 12 (3024)
I0702 18:14:23.879313 10683 net.cpp:157] Top shape: 4 7 9 12 (3024)
I0702 18:14:23.879317 10683 net.cpp:157] Top shape: 4 7 9 12 (3024)
I0702 18:14:23.879319 10683 net.cpp:165] Memory required for data: 4537088788
I0702 18:14:23.879323 10683 layer_factory.hpp:77] Creating layer detection_loss_4_3x5
I0702 18:14:23.879330 10683 net.cpp:100] Creating Layer detection_loss_4_3x5
I0702 18:14:23.879334 10683 net.cpp:434] detection_loss_4_3x5 <- LFCN_4_3x5_LFCN_4_3x5_0_split_0
I0702 18:14:23.879339 10683 net.cpp:434] detection_loss_4_3x5 <- label_4_3x5_data_7_split_0
I0702 18:14:23.879344 10683 net.cpp:408] detection_loss_4_3x5 -> loss_4_3x5
I0702 18:14:23.879354 10683 layer_factory.hpp:77] Creating layer detection_loss_4_3x5
I0702 18:14:23.879783 10683 net.cpp:150] Setting up detection_loss_4_3x5
I0702 18:14:23.879793 10683 net.cpp:157] Top shape: 1 1 1 2 (2)
I0702 18:14:23.879796 10683 net.cpp:160]     with loss weight 1
I0702 18:14:23.879806 10683 net.cpp:165] Memory required for data: 4537088796
I0702 18:14:23.879808 10683 layer_factory.hpp:77] Creating layer detection_accuracy_4_3x5
I0702 18:14:23.879815 10683 net.cpp:100] Creating Layer detection_accuracy_4_3x5
I0702 18:14:23.879819 10683 net.cpp:434] detection_accuracy_4_3x5 <- LFCN_4_3x5_LFCN_4_3x5_0_split_1
I0702 18:14:23.879823 10683 net.cpp:434] detection_accuracy_4_3x5 <- label_4_3x5_data_7_split_1
I0702 18:14:23.879829 10683 net.cpp:408] detection_accuracy_4_3x5 -> accuracy_4_3x5
I0702 18:14:23.879837 10683 net.cpp:408] detection_accuracy_4_3x5 -> boxiou_4_3x5
I0702 18:14:23.879878 10683 net.cpp:150] Setting up detection_accuracy_4_3x5
I0702 18:14:23.879884 10683 net.cpp:157] Top shape: 1 1 1 2 (2)
I0702 18:14:23.879889 10683 net.cpp:157] Top shape: 1 1 1 1 (1)
I0702 18:14:23.879890 10683 net.cpp:165] Memory required for data: 4537088808
I0702 18:14:23.879894 10683 layer_factory.hpp:77] Creating layer proposals
I0702 18:14:23.879901 10683 net.cpp:100] Creating Layer proposals
I0702 18:14:23.879904 10683 net.cpp:434] proposals <- LFCN_1_3x5_LFCN_1_3x5_0_split_2
I0702 18:14:23.879909 10683 net.cpp:434] proposals <- LFCN_1_5x7_LFCN_1_5x7_0_split_2
I0702 18:14:23.879912 10683 net.cpp:434] proposals <- LFCN_2_3x5_LFCN_2_3x5_0_split_2
I0702 18:14:23.879916 10683 net.cpp:434] proposals <- LFCN_2_5x7_LFCN_2_5x7_0_split_2
I0702 18:14:23.879920 10683 net.cpp:434] proposals <- LFCN_3_3x5_LFCN_3_3x5_0_split_2
I0702 18:14:23.879923 10683 net.cpp:434] proposals <- LFCN_3_5x7_LFCN_3_5x7_0_split_2
I0702 18:14:23.879926 10683 net.cpp:434] proposals <- LFCN_4_3x5_LFCN_4_3x5_0_split_2
I0702 18:14:23.879932 10683 net.cpp:408] proposals -> proposals
I0702 18:14:23.879959 10683 net.cpp:150] Setting up proposals
I0702 18:14:23.879964 10683 net.cpp:157] Top shape: 1 5 1 1 (5)
I0702 18:14:23.879966 10683 net.cpp:165] Memory required for data: 4537088828
I0702 18:14:23.879969 10683 layer_factory.hpp:77] Creating layer proposal_info
I0702 18:14:23.879976 10683 net.cpp:100] Creating Layer proposal_info
I0702 18:14:23.879979 10683 net.cpp:434] proposal_info <- proposals
I0702 18:14:23.879982 10683 net.cpp:434] proposal_info <- gt_boxes
I0702 18:14:23.879990 10683 net.cpp:408] proposal_info -> rois
I0702 18:14:23.880002 10683 net.cpp:408] proposal_info -> proposal_labels
I0702 18:14:23.880008 10683 net.cpp:408] proposal_info -> proposal_targets
I0702 18:14:23.880017 10683 net.cpp:408] proposal_info -> box_inside_weights
I0702 18:14:23.880023 10683 net.cpp:408] proposal_info -> box_outside_weights
I0702 18:14:23.880029 10683 net.cpp:408] proposal_info -> match_gt_boxes
I0702 18:14:23.880108 10683 net.cpp:150] Setting up proposal_info
I0702 18:14:23.880112 10683 net.cpp:157] Top shape: 128 5 1 1 (640)
I0702 18:14:23.880115 10683 net.cpp:157] Top shape: 128 1 1 1 (128)
I0702 18:14:23.880120 10683 net.cpp:157] Top shape: 128 12 1 1 (1536)
I0702 18:14:23.880125 10683 net.cpp:157] Top shape: 128 12 1 1 (1536)
I0702 18:14:23.880128 10683 net.cpp:157] Top shape: 128 12 1 1 (1536)
I0702 18:14:23.880132 10683 net.cpp:157] Top shape: 128 6 1 1 (768)
I0702 18:14:23.880134 10683 net.cpp:165] Memory required for data: 4537113404
I0702 18:14:23.880137 10683 layer_factory.hpp:77] Creating layer rois_proposal_info_0_split
I0702 18:14:23.880142 10683 net.cpp:100] Creating Layer rois_proposal_info_0_split
I0702 18:14:23.880146 10683 net.cpp:434] rois_proposal_info_0_split <- rois
I0702 18:14:23.880151 10683 net.cpp:408] rois_proposal_info_0_split -> rois_proposal_info_0_split_0
I0702 18:14:23.880157 10683 net.cpp:408] rois_proposal_info_0_split -> rois_proposal_info_0_split_1
I0702 18:14:23.880163 10683 net.cpp:408] rois_proposal_info_0_split -> rois_proposal_info_0_split_2
I0702 18:14:23.880216 10683 net.cpp:150] Setting up rois_proposal_info_0_split
I0702 18:14:23.880221 10683 net.cpp:157] Top shape: 128 5 1 1 (640)
I0702 18:14:23.880224 10683 net.cpp:157] Top shape: 128 5 1 1 (640)
I0702 18:14:23.880228 10683 net.cpp:157] Top shape: 128 5 1 1 (640)
I0702 18:14:23.880230 10683 net.cpp:165] Memory required for data: 4537121084
I0702 18:14:23.880234 10683 layer_factory.hpp:77] Creating layer proposal_labels_proposal_info_1_split
I0702 18:14:23.880239 10683 net.cpp:100] Creating Layer proposal_labels_proposal_info_1_split
I0702 18:14:23.880241 10683 net.cpp:434] proposal_labels_proposal_info_1_split <- proposal_labels
I0702 18:14:23.880246 10683 net.cpp:408] proposal_labels_proposal_info_1_split -> proposal_labels_proposal_info_1_split_0
I0702 18:14:23.880252 10683 net.cpp:408] proposal_labels_proposal_info_1_split -> proposal_labels_proposal_info_1_split_1
I0702 18:14:23.880285 10683 net.cpp:150] Setting up proposal_labels_proposal_info_1_split
I0702 18:14:23.880288 10683 net.cpp:157] Top shape: 128 1 1 1 (128)
I0702 18:14:23.880290 10683 net.cpp:157] Top shape: 128 1 1 1 (128)
I0702 18:14:23.880293 10683 net.cpp:165] Memory required for data: 4537122108
I0702 18:14:23.880296 10683 layer_factory.hpp:77] Creating layer conv4_3_2x
I0702 18:14:23.880304 10683 net.cpp:100] Creating Layer conv4_3_2x
I0702 18:14:23.880307 10683 net.cpp:434] conv4_3_2x <- conv4_3_relu4_3_0_split_2
I0702 18:14:23.880312 10683 net.cpp:408] conv4_3_2x -> conv4_3_2x
I0702 18:14:23.880707 10683 net.cpp:150] Setting up conv4_3_2x
I0702 18:14:23.880713 10683 net.cpp:157] Top shape: 4 512 144 192 (56623104)
I0702 18:14:23.880715 10683 net.cpp:165] Memory required for data: 4763614524
I0702 18:14:23.880720 10683 layer_factory.hpp:77] Creating layer conv4_3_2x_conv4_3_2x_0_split
I0702 18:14:23.880725 10683 net.cpp:100] Creating Layer conv4_3_2x_conv4_3_2x_0_split
I0702 18:14:23.880728 10683 net.cpp:434] conv4_3_2x_conv4_3_2x_0_split <- conv4_3_2x
I0702 18:14:23.880733 10683 net.cpp:408] conv4_3_2x_conv4_3_2x_0_split -> conv4_3_2x_conv4_3_2x_0_split_0
I0702 18:14:23.880743 10683 net.cpp:408] conv4_3_2x_conv4_3_2x_0_split -> conv4_3_2x_conv4_3_2x_0_split_1
I0702 18:14:23.880774 10683 net.cpp:150] Setting up conv4_3_2x_conv4_3_2x_0_split
I0702 18:14:23.880779 10683 net.cpp:157] Top shape: 4 512 144 192 (56623104)
I0702 18:14:23.880781 10683 net.cpp:157] Top shape: 4 512 144 192 (56623104)
I0702 18:14:23.880784 10683 net.cpp:165] Memory required for data: 5216599356
I0702 18:14:23.880787 10683 layer_factory.hpp:77] Creating layer roi_pool_org
I0702 18:14:23.880795 10683 net.cpp:100] Creating Layer roi_pool_org
I0702 18:14:23.880800 10683 net.cpp:434] roi_pool_org <- conv4_3_2x_conv4_3_2x_0_split_0
I0702 18:14:23.880802 10683 net.cpp:434] roi_pool_org <- rois_proposal_info_0_split_0
I0702 18:14:23.880807 10683 net.cpp:408] roi_pool_org -> roi_pool_org
I0702 18:14:23.880817 10683 roi_pooling_layer.cpp:33] Spatial scale: 0.25
I0702 18:14:23.880852 10683 net.cpp:150] Setting up roi_pool_org
I0702 18:14:23.880859 10683 net.cpp:157] Top shape: 128 512 7 5 (2293760)
I0702 18:14:23.880861 10683 net.cpp:165] Memory required for data: 5225774396
I0702 18:14:23.880864 10683 layer_factory.hpp:77] Creating layer roi_pool_ctx
I0702 18:14:23.880870 10683 net.cpp:100] Creating Layer roi_pool_ctx
I0702 18:14:23.880873 10683 net.cpp:434] roi_pool_ctx <- conv4_3_2x_conv4_3_2x_0_split_1
I0702 18:14:23.880877 10683 net.cpp:434] roi_pool_ctx <- rois_proposal_info_0_split_1
I0702 18:14:23.880882 10683 net.cpp:408] roi_pool_ctx -> roi_pool_ctx
I0702 18:14:23.880888 10683 roi_pooling_layer.cpp:33] Spatial scale: 0.25
I0702 18:14:23.880923 10683 net.cpp:150] Setting up roi_pool_ctx
I0702 18:14:23.880928 10683 net.cpp:157] Top shape: 128 512 7 5 (2293760)
I0702 18:14:23.880930 10683 net.cpp:165] Memory required for data: 5234949436
I0702 18:14:23.880934 10683 layer_factory.hpp:77] Creating layer roi_pool
I0702 18:14:23.880937 10683 net.cpp:100] Creating Layer roi_pool
I0702 18:14:23.880940 10683 net.cpp:434] roi_pool <- roi_pool_org
I0702 18:14:23.880944 10683 net.cpp:434] roi_pool <- roi_pool_ctx
I0702 18:14:23.880951 10683 net.cpp:408] roi_pool -> roi_pool
I0702 18:14:23.880972 10683 net.cpp:150] Setting up roi_pool
I0702 18:14:23.880978 10683 net.cpp:157] Top shape: 128 1024 7 5 (4587520)
I0702 18:14:23.880980 10683 net.cpp:165] Memory required for data: 5253299516
I0702 18:14:23.880983 10683 layer_factory.hpp:77] Creating layer roi_c1
I0702 18:14:23.880991 10683 net.cpp:100] Creating Layer roi_c1
I0702 18:14:23.880995 10683 net.cpp:434] roi_c1 <- roi_pool
I0702 18:14:23.881000 10683 net.cpp:408] roi_c1 -> roi_c1
I0702 18:14:23.919739 10683 net.cpp:150] Setting up roi_c1
I0702 18:14:23.919757 10683 net.cpp:157] Top shape: 128 512 5 3 (983040)
I0702 18:14:23.919759 10683 net.cpp:165] Memory required for data: 5257231676
I0702 18:14:23.919765 10683 layer_factory.hpp:77] Creating layer roi_c1_relu
I0702 18:14:23.919772 10683 net.cpp:100] Creating Layer roi_c1_relu
I0702 18:14:23.919775 10683 net.cpp:434] roi_c1_relu <- roi_c1
I0702 18:14:23.919783 10683 net.cpp:395] roi_c1_relu -> roi_c1 (in-place)
I0702 18:14:23.920502 10683 net.cpp:150] Setting up roi_c1_relu
I0702 18:14:23.920512 10683 net.cpp:157] Top shape: 128 512 5 3 (983040)
I0702 18:14:23.920514 10683 net.cpp:165] Memory required for data: 5261163836
I0702 18:14:23.920517 10683 layer_factory.hpp:77] Creating layer fc6
I0702 18:14:23.920526 10683 net.cpp:100] Creating Layer fc6
I0702 18:14:23.920528 10683 net.cpp:434] fc6 <- roi_c1
I0702 18:14:23.920532 10683 net.cpp:408] fc6 -> fc6
I0702 18:14:24.042073 10683 net.cpp:150] Setting up fc6
I0702 18:14:24.042088 10683 net.cpp:157] Top shape: 128 2048 (262144)
I0702 18:14:24.042090 10683 net.cpp:165] Memory required for data: 5262212412
I0702 18:14:24.042098 10683 layer_factory.hpp:77] Creating layer relu6
I0702 18:14:24.042105 10683 net.cpp:100] Creating Layer relu6
I0702 18:14:24.042109 10683 net.cpp:434] relu6 <- fc6
I0702 18:14:24.042114 10683 net.cpp:395] relu6 -> fc6 (in-place)
I0702 18:14:24.042449 10683 net.cpp:150] Setting up relu6
I0702 18:14:24.042455 10683 net.cpp:157] Top shape: 128 2048 (262144)
I0702 18:14:24.042457 10683 net.cpp:165] Memory required for data: 5263260988
I0702 18:14:24.042459 10683 layer_factory.hpp:77] Creating layer drop6
I0702 18:14:24.042464 10683 net.cpp:100] Creating Layer drop6
I0702 18:14:24.042466 10683 net.cpp:434] drop6 <- fc6
I0702 18:14:24.042471 10683 net.cpp:395] drop6 -> fc6 (in-place)
I0702 18:14:24.042501 10683 net.cpp:150] Setting up drop6
I0702 18:14:24.042505 10683 net.cpp:157] Top shape: 128 2048 (262144)
I0702 18:14:24.042507 10683 net.cpp:165] Memory required for data: 5264309564
I0702 18:14:24.042510 10683 layer_factory.hpp:77] Creating layer fc6_drop6_0_split
I0702 18:14:24.042515 10683 net.cpp:100] Creating Layer fc6_drop6_0_split
I0702 18:14:24.042517 10683 net.cpp:434] fc6_drop6_0_split <- fc6
I0702 18:14:24.042523 10683 net.cpp:408] fc6_drop6_0_split -> fc6_drop6_0_split_0
I0702 18:14:24.042531 10683 net.cpp:408] fc6_drop6_0_split -> fc6_drop6_0_split_1
I0702 18:14:24.042568 10683 net.cpp:150] Setting up fc6_drop6_0_split
I0702 18:14:24.042572 10683 net.cpp:157] Top shape: 128 2048 (262144)
I0702 18:14:24.042574 10683 net.cpp:157] Top shape: 128 2048 (262144)
I0702 18:14:24.042577 10683 net.cpp:165] Memory required for data: 5266406716
I0702 18:14:24.042580 10683 layer_factory.hpp:77] Creating layer cls_pred
I0702 18:14:24.042588 10683 net.cpp:100] Creating Layer cls_pred
I0702 18:14:24.042593 10683 net.cpp:434] cls_pred <- fc6_drop6_0_split_0
I0702 18:14:24.042598 10683 net.cpp:408] cls_pred -> cls_pred
I0702 18:14:24.042748 10683 net.cpp:150] Setting up cls_pred
I0702 18:14:24.042753 10683 net.cpp:157] Top shape: 128 3 (384)
I0702 18:14:24.042755 10683 net.cpp:165] Memory required for data: 5266408252
I0702 18:14:24.042759 10683 layer_factory.hpp:77] Creating layer cls_pred_cls_pred_0_split
I0702 18:14:24.042764 10683 net.cpp:100] Creating Layer cls_pred_cls_pred_0_split
I0702 18:14:24.042768 10683 net.cpp:434] cls_pred_cls_pred_0_split <- cls_pred
I0702 18:14:24.042773 10683 net.cpp:408] cls_pred_cls_pred_0_split -> cls_pred_cls_pred_0_split_0
I0702 18:14:24.042779 10683 net.cpp:408] cls_pred_cls_pred_0_split -> cls_pred_cls_pred_0_split_1
I0702 18:14:24.042819 10683 net.cpp:150] Setting up cls_pred_cls_pred_0_split
I0702 18:14:24.042824 10683 net.cpp:157] Top shape: 128 3 (384)
I0702 18:14:24.042827 10683 net.cpp:157] Top shape: 128 3 (384)
I0702 18:14:24.042829 10683 net.cpp:165] Memory required for data: 5266411324
I0702 18:14:24.042832 10683 layer_factory.hpp:77] Creating layer bbox_pred
I0702 18:14:24.042837 10683 net.cpp:100] Creating Layer bbox_pred
I0702 18:14:24.042842 10683 net.cpp:434] bbox_pred <- fc6_drop6_0_split_1
I0702 18:14:24.042846 10683 net.cpp:408] bbox_pred -> bbox_pred
I0702 18:14:24.043120 10683 net.cpp:150] Setting up bbox_pred
I0702 18:14:24.043125 10683 net.cpp:157] Top shape: 128 12 (1536)
I0702 18:14:24.043126 10683 net.cpp:165] Memory required for data: 5266417468
I0702 18:14:24.043130 10683 layer_factory.hpp:77] Creating layer bbox_pred_bbox_pred_0_split
I0702 18:14:24.043135 10683 net.cpp:100] Creating Layer bbox_pred_bbox_pred_0_split
I0702 18:14:24.043139 10683 net.cpp:434] bbox_pred_bbox_pred_0_split <- bbox_pred
I0702 18:14:24.043144 10683 net.cpp:408] bbox_pred_bbox_pred_0_split -> bbox_pred_bbox_pred_0_split_0
I0702 18:14:24.043150 10683 net.cpp:408] bbox_pred_bbox_pred_0_split -> bbox_pred_bbox_pred_0_split_1
I0702 18:14:24.043180 10683 net.cpp:150] Setting up bbox_pred_bbox_pred_0_split
I0702 18:14:24.043184 10683 net.cpp:157] Top shape: 128 12 (1536)
I0702 18:14:24.043186 10683 net.cpp:157] Top shape: 128 12 (1536)
I0702 18:14:24.043189 10683 net.cpp:165] Memory required for data: 5266429756
I0702 18:14:24.043191 10683 layer_factory.hpp:77] Creating layer loss_cls
I0702 18:14:24.043197 10683 net.cpp:100] Creating Layer loss_cls
I0702 18:14:24.043200 10683 net.cpp:434] loss_cls <- cls_pred_cls_pred_0_split_0
I0702 18:14:24.043205 10683 net.cpp:434] loss_cls <- proposal_labels_proposal_info_1_split_0
…
I0702 18:14:24.056088 10683 image_gt_data_layer.cpp:241] output label size 3 : 2,6,36,48
I0702 18:14:24.056136 10683 image_gt_data_layer.cpp:241] output label size 4 : 2,6,18,24
I0702 18:14:24.056185 10683 image_gt_data_layer.cpp:241] output label size 5 : 2,6,18,24
I0702 18:14:24.056232 10683 image_gt_data_layer.cpp:241] output label size 6 : 2,6,9,12
I0702 18:14:24.056288 10683 image_gt_data_layer.cpp:256] output gt boxes size: 1,7,1,1
I0702 18:14:24.056290 10683 image_gt_data_layer.cpp:265]  --> has_mean_values_ = 1
I0702 18:14:24.075541 10683 net.cpp:150] Setting up data
I0702 18:14:24.075561 10683 net.cpp:157] Top shape: 2 4 576 768 (3538944)
I0702 18:14:24.075565 10683 net.cpp:157] Top shape: 2 6 72 96 (82944)
I0702 18:14:24.075569 10683 net.cpp:157] Top shape: 2 6 72 96 (82944)
I0702 18:14:24.075572 10683 net.cpp:157] Top shape: 2 6 36 48 (20736)
I0702 18:14:24.075577 10683 net.cpp:157] Top shape: 2 6 36 48 (20736)
I0702 18:14:24.075579 10683 net.cpp:157] Top shape: 2 6 18 24 (5184)
I0702 18:14:24.075582 10683 net.cpp:157] Top shape: 2 6 18 24 (5184)
I0702 18:14:24.075587 10683 net.cpp:157] Top shape: 2 6 9 12 (1296)
I0702 18:14:24.075590 10683 net.cpp:157] Top shape: 1 7 1 1 (7)
I0702 18:14:24.075592 10683 net.cpp:165] Memory required for data: 15031900
I0702 18:14:24.075598 10683 layer_factory.hpp:77] Creating layer label_1_3x5_data_1_split
I0702 18:14:24.075618 10683 net.cpp:100] Creating Layer label_1_3x5_data_1_split
I0702 18:14:24.075623 10683 net.cpp:434] label_1_3x5_data_1_split <- label_1_3x5
I0702 18:14:24.075630 10683 net.cpp:408] label_1_3x5_data_1_split -> label_1_3x5_data_1_split_0
I0702 18:14:24.075639 10683 net.cpp:408] label_1_3x5_data_1_split -> label_1_3x5_data_1_split_1
I0702 18:14:24.075700 10683 net.cpp:150] Setting up label_1_3x5_data_1_split
I0702 18:14:24.075706 10683 net.cpp:157] Top shape: 2 6 72 96 (82944)
I0702 18:14:24.075709 10683 net.cpp:157] Top shape: 2 6 72 96 (82944)
I0702 18:14:24.075711 10683 net.cpp:165] Memory required for data: 15695452
I0702 18:14:24.075714 10683 layer_factory.hpp:77] Creating layer label_1_5x7_data_2_split
I0702 18:14:24.075721 10683 net.cpp:100] Creating Layer label_1_5x7_data_2_split
I0702 18:14:24.075724 10683 net.cpp:434] label_1_5x7_data_2_split <- label_1_5x7
I0702 18:14:24.075729 10683 net.cpp:408] label_1_5x7_data_2_split -> label_1_5x7_data_2_split_0
I0702 18:14:24.075736 10683 net.cpp:408] label_1_5x7_data_2_split -> label_1_5x7_data_2_split_1
I0702 18:14:24.075783 10683 net.cpp:150] Setting up label_1_5x7_data_2_split
I0702 18:14:24.075788 10683 net.cpp:157] Top shape: 2 6 72 96 (82944)
I0702 18:14:24.075790 10683 net.cpp:157] Top shape: 2 6 72 96 (82944)
I0702 18:14:24.075793 10683 net.cpp:165] Memory required for data: 16359004
I0702 18:14:24.075796 10683 layer_factory.hpp:77] Creating layer label_2_3x5_data_3_split
I0702 18:14:24.075801 10683 net.cpp:100] Creating Layer label_2_3x5_data_3_split
I0702 18:14:24.075805 10683 net.cpp:434] label_2_3x5_data_3_split <- label_2_3x5
I0702 18:14:24.075810 10683 net.cpp:408] label_2_3x5_data_3_split -> label_2_3x5_data_3_split_0
I0702 18:14:24.075816 10683 net.cpp:408] label_2_3x5_data_3_split -> label_2_3x5_data_3_split_1
I0702 18:14:24.075852 10683 net.cpp:150] Setting up label_2_3x5_data_3_split
I0702 18:14:24.075857 10683 net.cpp:157] Top shape: 2 6 36 48 (20736)
I0702 18:14:24.075861 10683 net.cpp:157] Top shape: 2 6 36 48 (20736)
I0702 18:14:24.075863 10683 net.cpp:165] Memory required for data: 16524892
I0702 18:14:24.075866 10683 layer_factory.hpp:77] Creating layer label_2_5x7_data_4_split
I0702 18:14:24.075873 10683 net.cpp:100] Creating Layer label_2_5x7_data_4_split
I0702 18:14:24.075876 10683 net.cpp:434] label_2_5x7_data_4_split <- label_2_5x7
I0702 18:14:24.075881 10683 net.cpp:408] label_2_5x7_data_4_split -> label_2_5x7_data_4_split_0
I0702 18:14:24.075891 10683 net.cpp:408] label_2_5x7_data_4_split -> label_2_5x7_data_4_split_1
I0702 18:14:24.075927 10683 net.cpp:150] Setting up label_2_5x7_data_4_split
I0702 18:14:24.075932 10683 net.cpp:157] Top shape: 2 6 36 48 (20736)
I0702 18:14:24.075935 10683 net.cpp:157] Top shape: 2 6 36 48 (20736)
I0702 18:14:24.075937 10683 net.cpp:165] Memory required for data: 16690780
I0702 18:14:24.075940 10683 layer_factory.hpp:77] Creating layer label_3_3x5_data_5_split
I0702 18:14:24.075944 10683 net.cpp:100] Creating Layer label_3_3x5_data_5_split
I0702 18:14:24.075947 10683 net.cpp:434] label_3_3x5_data_5_split <- label_3_3x5
I0702 18:14:24.075953 10683 net.cpp:408] label_3_3x5_data_5_split -> label_3_3x5_data_5_split_0
I0702 18:14:24.075959 10683 net.cpp:408] label_3_3x5_data_5_split -> label_3_3x5_data_5_split_1
I0702 18:14:24.075992 10683 net.cpp:150] Setting up label_3_3x5_data_5_split
I0702 18:14:24.075997 10683 net.cpp:157] Top shape: 2 6 18 24 (5184)
I0702 18:14:24.076001 10683 net.cpp:157] Top shape: 2 6 18 24 (5184)
I0702 18:14:24.076004 10683 net.cpp:165] Memory required for data: 16732252
I0702 18:14:24.076006 10683 layer_factory.hpp:77] Creating layer label_3_5x7_data_6_split
I0702 18:14:24.076012 10683 net.cpp:100] Creating Layer label_3_5x7_data_6_split
I0702 18:14:24.076016 10683 net.cpp:434] label_3_5x7_data_6_split <- label_3_5x7
I0702 18:14:24.076021 10683 net.cpp:408] label_3_5x7_data_6_split -> label_3_5x7_data_6_split_0
I0702 18:14:24.076027 10683 net.cpp:408] label_3_5x7_data_6_split -> label_3_5x7_data_6_split_1
I0702 18:14:24.076079 10683 net.cpp:150] Setting up label_3_5x7_data_6_split
I0702 18:14:24.076087 10683 net.cpp:157] Top shape: 2 6 18 24 (5184)
I0702 18:14:24.076090 10683 net.cpp:157] Top shape: 2 6 18 24 (5184)
I0702 18:14:24.076093 10683 net.cpp:165] Memory required for data: 16773724
I0702 18:14:24.076097 10683 layer_factory.hpp:77] Creating layer label_4_3x5_data_7_split
I0702 18:14:24.076100 10683 net.cpp:100] Creating Layer label_4_3x5_data_7_split
I0702 18:14:24.076104 10683 net.cpp:434] label_4_3x5_data_7_split <- label_4_3x5
I0702 18:14:24.076110 10683 net.cpp:408] label_4_3x5_data_7_split -> label_4_3x5_data_7_split_0
I0702 18:14:24.076117 10683 net.cpp:408] label_4_3x5_data_7_split -> label_4_3x5_data_7_split_1
I0702 18:14:24.076153 10683 net.cpp:150] Setting up label_4_3x5_data_7_split
I0702 18:14:24.076156 10683 net.cpp:157] Top shape: 2 6 9 12 (1296)
I0702 18:14:24.076159 10683 net.cpp:157] Top shape: 2 6 9 12 (1296)
I0702 18:14:24.076160 10683 net.cpp:165] Memory required for data: 16784092
I0702 18:14:24.076164 10683 layer_factory.hpp:77] Creating layer conv1_1
I0702 18:14:24.076172 10683 net.cpp:100] Creating Layer conv1_1
I0702 18:14:24.076175 10683 net.cpp:434] conv1_1 <- data
I0702 18:14:24.076181 10683 net.cpp:408] conv1_1 -> conv1_1
I0702 18:14:24.081645 10683 net.cpp:150] Setting up conv1_1
I0702 18:14:24.081665 10683 net.cpp:157] Top shape: 2 64 576 768 (56623104)
I0702 18:14:24.081667 10683 net.cpp:165] Memory required for data: 243276508
I0702 18:14:24.081684 10683 layer_factory.hpp:77] Creating layer relu1_1
I0702 18:14:24.081694 10683 net.cpp:100] Creating Layer relu1_1
I0702 18:14:24.081701 10683 net.cpp:434] relu1_1 <- conv1_1
I0702 18:14:24.081707 10683 net.cpp:395] relu1_1 -> conv1_1 (in-place)
I0702 18:14:24.082096 10683 net.cpp:150] Setting up relu1_1
I0702 18:14:24.082108 10683 net.cpp:157] Top shape: 2 64 576 768 (56623104)
I0702 18:14:24.082110 10683 net.cpp:165] Memory required for data: 469768924
I0702 18:14:24.082113 10683 layer_factory.hpp:77] Creating layer conv1_2
I0702 18:14:24.082124 10683 net.cpp:100] Creating Layer conv1_2
I0702 18:14:24.082129 10683 net.cpp:434] conv1_2 <- conv1_1
I0702 18:14:24.082136 10683 net.cpp:408] conv1_2 -> conv1_2
I0702 18:14:24.085150 10683 net.cpp:150] Setting up conv1_2
I0702 18:14:24.085172 10683 net.cpp:157] Top shape: 2 64 576 768 (56623104)
I0702 18:14:24.085175 10683 net.cpp:165] Memory required for data: 696261340
I0702 18:14:24.085191 10683 layer_factory.hpp:77] Creating layer relu1_2
I0702 18:14:24.085203 10683 net.cpp:100] Creating Layer relu1_2
I0702 18:14:24.085208 10683 net.cpp:434] relu1_2 <- conv1_2
I0702 18:14:24.085216 10683 net.cpp:395] relu1_2 -> conv1_2 (in-place)
I0702 18:14:24.085610 10683 net.cpp:150] Setting up relu1_2
I0702 18:14:24.085621 10683 net.cpp:157] Top shape: 2 64 576 768 (56623104)
I0702 18:14:24.085624 10683 net.cpp:165] Memory required for data: 922753756
I0702 18:14:24.085628 10683 layer_factory.hpp:77] Creating layer pool1
I0702 18:14:24.085636 10683 net.cpp:100] Creating Layer pool1
I0702 18:14:24.085640 10683 net.cpp:434] pool1 <- conv1_2
I0702 18:14:24.085645 10683 net.cpp:408] pool1 -> pool1
I0702 18:14:24.085700 10683 net.cpp:150] Setting up pool1
I0702 18:14:24.085706 10683 net.cpp:157] Top shape: 2 64 288 384 (14155776)
I0702 18:14:24.085708 10683 net.cpp:165] Memory required for data: 979376860
I0702 18:14:24.085711 10683 layer_factory.hpp:77] Creating layer conv2_1
I0702 18:14:24.085721 10683 net.cpp:100] Creating Layer conv2_1
I0702 18:14:24.085724 10683 net.cpp:434] conv2_1 <- pool1
I0702 18:14:24.085731 10683 net.cpp:408] conv2_1 -> conv2_1
I0702 18:14:24.087836 10683 net.cpp:150] Setting up conv2_1
I0702 18:14:24.087852 10683 net.cpp:157] Top shape: 2 128 288 384 (28311552)
I0702 18:14:24.087855 10683 net.cpp:165] Memory required for data: 1092623068
I0702 18:14:24.087867 10683 layer_factory.hpp:77] Creating layer relu2_1
I0702 18:14:24.087877 10683 net.cpp:100] Creating Layer relu2_1
I0702 18:14:24.087882 10683 net.cpp:434] relu2_1 <- conv2_1
I0702 18:14:24.087888 10683 net.cpp:395] relu2_1 -> conv2_1 (in-place)
I0702 18:14:24.088651 10683 net.cpp:150] Setting up relu2_1
I0702 18:14:24.088663 10683 net.cpp:157] Top shape: 2 128 288 384 (28311552)
I0702 18:14:24.088666 10683 net.cpp:165] Memory required for data: 1205869276
I0702 18:14:24.088670 10683 layer_factory.hpp:77] Creating layer conv2_2
I0702 18:14:24.088681 10683 net.cpp:100] Creating Layer conv2_2
I0702 18:14:24.088685 10683 net.cpp:434] conv2_2 <- conv2_1
I0702 18:14:24.088693 10683 net.cpp:408] conv2_2 -> conv2_2
I0702 18:14:24.092095 10683 net.cpp:150] Setting up conv2_2
I0702 18:14:24.092119 10683 net.cpp:157] Top shape: 2 128 288 384 (28311552)
I0702 18:14:24.092123 10683 net.cpp:165] Memory required for data: 1319115484
I0702 18:14:24.092133 10683 layer_factory.hpp:77] Creating layer relu2_2
I0702 18:14:24.092151 10683 net.cpp:100] Creating Layer relu2_2
I0702 18:14:24.092164 10683 net.cpp:434] relu2_2 <- conv2_2
I0702 18:14:24.092171 10683 net.cpp:395] relu2_2 -> conv2_2 (in-place)
I0702 18:14:24.092553 10683 net.cpp:150] Setting up relu2_2
I0702 18:14:24.092563 10683 net.cpp:157] Top shape: 2 128 288 384 (28311552)
I0702 18:14:24.092566 10683 net.cpp:165] Memory required for data: 1432361692
I0702 18:14:24.092569 10683 layer_factory.hpp:77] Creating layer pool2
I0702 18:14:24.092576 10683 net.cpp:100] Creating Layer pool2
I0702 18:14:24.092581 10683 net.cpp:434] pool2 <- conv2_2
I0702 18:14:24.092588 10683 net.cpp:408] pool2 -> pool2
I0702 18:14:24.092643 10683 net.cpp:150] Setting up pool2
I0702 18:14:24.092650 10683 net.cpp:157] Top shape: 2 128 144 192 (7077888)
I0702 18:14:24.092653 10683 net.cpp:165] Memory required for data: 1460673244
I0702 18:14:24.092656 10683 layer_factory.hpp:77] Creating layer conv3_1
I0702 18:14:24.092664 10683 net.cpp:100] Creating Layer conv3_1
I0702 18:14:24.092667 10683 net.cpp:434] conv3_1 <- pool2
I0702 18:14:24.092674 10683 net.cpp:408] conv3_1 -> conv3_1
I0702 18:14:24.096846 10683 net.cpp:150] Setting up conv3_1
I0702 18:14:24.096882 10683 net.cpp:157] Top shape: 2 256 144 192 (14155776)
I0702 18:14:24.096884 10683 net.cpp:165] Memory required for data: 1517296348
I0702 18:14:24.096909 10683 layer_factory.hpp:77] Creating layer relu3_1
I0702 18:14:24.096925 10683 net.cpp:100] Creating Layer relu3_1
I0702 18:14:24.096932 10683 net.cpp:434] relu3_1 <- conv3_1
I0702 18:14:24.096941 10683 net.cpp:395] relu3_1 -> conv3_1 (in-place)
I0702 18:14:24.097497 10683 net.cpp:150] Setting up relu3_1
I0702 18:14:24.097509 10683 net.cpp:157] Top shape: 2 256 144 192 (14155776)
I0702 18:14:24.097512 10683 net.cpp:165] Memory required for data: 1573919452
I0702 18:14:24.097514 10683 layer_factory.hpp:77] Creating layer conv3_2
I0702 18:14:24.097527 10683 net.cpp:100] Creating Layer conv3_2
I0702 18:14:24.097530 10683 net.cpp:434] conv3_2 <- conv3_1
I0702 18:14:24.097537 10683 net.cpp:408] conv3_2 -> conv3_2
I0702 18:14:24.101197 10683 net.cpp:150] Setting up conv3_2
I0702 18:14:24.101217 10683 net.cpp:157] Top shape: 2 256 144 192 (14155776)
I0702 18:14:24.101218 10683 net.cpp:165] Memory required for data: 1630542556
I0702 18:14:24.101240 10683 layer_factory.hpp:77] Creating layer relu3_2
I0702 18:14:24.101253 10683 net.cpp:100] Creating Layer relu3_2
I0702 18:14:24.101256 10683 net.cpp:434] relu3_2 <- conv3_2
I0702 18:14:24.101263 10683 net.cpp:395] relu3_2 -> conv3_2 (in-place)
I0702 18:14:24.102087 10683 net.cpp:150] Setting up relu3_2
I0702 18:14:24.102097 10683 net.cpp:157] Top shape: 2 256 144 192 (14155776)
I0702 18:14:24.102098 10683 net.cpp:165] Memory required for data: 1687165660
I0702 18:14:24.102102 10683 layer_factory.hpp:77] Creating layer conv3_3
I0702 18:14:24.102111 10683 net.cpp:100] Creating Layer conv3_3
I0702 18:14:24.102115 10683 net.cpp:434] conv3_3 <- conv3_2
I0702 18:14:24.102123 10683 net.cpp:408] conv3_3 -> conv3_3
I0702 18:14:24.105581 10683 net.cpp:150] Setting up conv3_3
I0702 18:14:24.105602 10683 net.cpp:157] Top shape: 2 256 144 192 (14155776)
I0702 18:14:24.105604 10683 net.cpp:165] Memory required for data: 1743788764
I0702 18:14:24.105613 10683 layer_factory.hpp:77] Creating layer relu3_3
I0702 18:14:24.105624 10683 net.cpp:100] Creating Layer relu3_3
I0702 18:14:24.105628 10683 net.cpp:434] relu3_3 <- conv3_3
I0702 18:14:24.105640 10683 net.cpp:395] relu3_3 -> conv3_3 (in-place)
I0702 18:14:24.106469 10683 net.cpp:150] Setting up relu3_3
I0702 18:14:24.106479 10683 net.cpp:157] Top shape: 2 256 144 192 (14155776)
I0702 18:14:24.106482 10683 net.cpp:165] Memory required for data: 1800411868
I0702 18:14:24.106483 10683 layer_factory.hpp:77] Creating layer pool3
I0702 18:14:24.106492 10683 net.cpp:100] Creating Layer pool3
I0702 18:14:24.106495 10683 net.cpp:434] pool3 <- conv3_3
I0702 18:14:24.106501 10683 net.cpp:408] pool3 -> pool3
I0702 18:14:24.106576 10683 net.cpp:150] Setting up pool3
I0702 18:14:24.106585 10683 net.cpp:157] Top shape: 2 256 72 96 (3538944)
I0702 18:14:24.106587 10683 net.cpp:165] Memory required for data: 1814567644
I0702 18:14:24.106590 10683 layer_factory.hpp:77] Creating layer conv4_1
I0702 18:14:24.106600 10683 net.cpp:100] Creating Layer conv4_1
I0702 18:14:24.106603 10683 net.cpp:434] conv4_1 <- pool3
I0702 18:14:24.106609 10683 net.cpp:408] conv4_1 -> conv4_1
I0702 18:14:24.111088 10683 net.cpp:150] Setting up conv4_1
I0702 18:14:24.111106 10683 net.cpp:157] Top shape: 2 512 72 96 (7077888)
I0702 18:14:24.111109 10683 net.cpp:165] Memory required for data: 1842879196
I0702 18:14:24.111116 10683 layer_factory.hpp:77] Creating layer relu4_1
I0702 18:14:24.111126 10683 net.cpp:100] Creating Layer relu4_1
I0702 18:14:24.111130 10683 net.cpp:434] relu4_1 <- conv4_1
I0702 18:14:24.111137 10683 net.cpp:395] relu4_1 -> conv4_1 (in-place)
I0702 18:14:24.111503 10683 net.cpp:150] Setting up relu4_1
I0702 18:14:24.111511 10683 net.cpp:157] Top shape: 2 512 72 96 (7077888)
I0702 18:14:24.111513 10683 net.cpp:165] Memory required for data: 1871190748
I0702 18:14:24.111515 10683 layer_factory.hpp:77] Creating layer conv4_2
I0702 18:14:24.111523 10683 net.cpp:100] Creating Layer conv4_2
I0702 18:14:24.111527 10683 net.cpp:434] conv4_2 <- conv4_1
I0702 18:14:24.111532 10683 net.cpp:408] conv4_2 -> conv4_2
I0702 18:14:24.122027 10683 net.cpp:150] Setting up conv4_2
I0702 18:14:24.122097 10683 net.cpp:157] Top shape: 2 512 72 96 (7077888)
I0702 18:14:24.122100 10683 net.cpp:165] Memory required for data: 1899502300
I0702 18:14:24.122134 10683 layer_factory.hpp:77] Creating layer relu4_2
I0702 18:14:24.122156 10683 net.cpp:100] Creating Layer relu4_2
I0702 18:14:24.122164 10683 net.cpp:434] relu4_2 <- conv4_2
I0702 18:14:24.122175 10683 net.cpp:395] relu4_2 -> conv4_2 (in-place)
I0702 18:14:24.122944 10683 net.cpp:150] Setting up relu4_2
I0702 18:14:24.122961 10683 net.cpp:157] Top shape: 2 512 72 96 (7077888)
I0702 18:14:24.122962 10683 net.cpp:165] Memory required for data: 1927813852
I0702 18:14:24.122967 10683 layer_factory.hpp:77] Creating layer conv4_3
I0702 18:14:24.122979 10683 net.cpp:100] Creating Layer conv4_3
I0702 18:14:24.122983 10683 net.cpp:434] conv4_3 <- conv4_2
I0702 18:14:24.122992 10683 net.cpp:408] conv4_3 -> conv4_3
I0702 18:14:24.128849 10683 net.cpp:150] Setting up conv4_3
I0702 18:14:24.128872 10683 net.cpp:157] Top shape: 2 512 72 96 (7077888)
I0702 18:14:24.128875 10683 net.cpp:165] Memory required for data: 1956125404
I0702 18:14:24.128882 10683 layer_factory.hpp:77] Creating layer relu4_3
I0702 18:14:24.128891 10683 net.cpp:100] Creating Layer relu4_3
I0702 18:14:24.128896 10683 net.cpp:434] relu4_3 <- conv4_3
I0702 18:14:24.128902 10683 net.cpp:395] relu4_3 -> conv4_3 (in-place)
I0702 18:14:24.129777 10683 net.cpp:150] Setting up relu4_3
I0702 18:14:24.129791 10683 net.cpp:157] Top shape: 2 512 72 96 (7077888)
I0702 18:14:24.129792 10683 net.cpp:165] Memory required for data: 1984436956
I0702 18:14:24.129796 10683 layer_factory.hpp:77] Creating layer conv4_3_relu4_3_0_split
I0702 18:14:24.129802 10683 net.cpp:100] Creating Layer conv4_3_relu4_3_0_split
I0702 18:14:24.129806 10683 net.cpp:434] conv4_3_relu4_3_0_split <- conv4_3
I0702 18:14:24.129814 10683 net.cpp:408] conv4_3_relu4_3_0_split -> conv4_3_relu4_3_0_split_0
I0702 18:14:24.129827 10683 net.cpp:408] conv4_3_relu4_3_0_split -> conv4_3_relu4_3_0_split_1
I0702 18:14:24.129833 10683 net.cpp:408] conv4_3_relu4_3_0_split -> conv4_3_relu4_3_0_split_2
I0702 18:14:24.129923 10683 net.cpp:150] Setting up conv4_3_relu4_3_0_split
I0702 18:14:24.129930 10683 net.cpp:157] Top shape: 2 512 72 96 (7077888)
I0702 18:14:24.129933 10683 net.cpp:157] Top shape: 2 512 72 96 (7077888)
I0702 18:14:24.129937 10683 net.cpp:157] Top shape: 2 512 72 96 (7077888)
I0702 18:14:24.129940 10683 net.cpp:165] Memory required for data: 2069371612
I0702 18:14:24.129943 10683 layer_factory.hpp:77] Creating layer loss1_conv1
I0702 18:14:24.129961 10683 net.cpp:100] Creating Layer loss1_conv1
I0702 18:14:24.129964 10683 net.cpp:434] loss1_conv1 <- conv4_3_relu4_3_0_split_0
I0702 18:14:24.129971 10683 net.cpp:408] loss1_conv1 -> loss1_conv1
I0702 18:14:24.151803 10683 net.cpp:150] Setting up loss1_conv1
I0702 18:14:24.151819 10683 net.cpp:157] Top shape: 2 512 72 96 (7077888)
I0702 18:14:24.151823 10683 net.cpp:165] Memory required for data: 2097683164
I0702 18:14:24.151829 10683 layer_factory.hpp:77] Creating layer loss_relu1
I0702 18:14:24.151839 10683 net.cpp:100] Creating Layer loss_relu1
I0702 18:14:24.151842 10683 net.cpp:434] loss_relu1 <- loss1_conv1
I0702 18:14:24.151849 10683 net.cpp:395] loss_relu1 -> loss1_conv1 (in-place)
I0702 18:14:24.152240 10683 net.cpp:150] Setting up loss_relu1
I0702 18:14:24.152256 10683 net.cpp:157] Top shape: 2 512 72 96 (7077888)
I0702 18:14:24.152258 10683 net.cpp:165] Memory required for data: 2125994716
I0702 18:14:24.152262 10683 layer_factory.hpp:77] Creating layer loss1_conv1_loss_relu1_0_split
I0702 18:14:24.152269 10683 net.cpp:100] Creating Layer loss1_conv1_loss_relu1_0_split
I0702 18:14:24.152273 10683 net.cpp:434] loss1_conv1_loss_relu1_0_split <- loss1_conv1
I0702 18:14:24.152281 10683 net.cpp:408] loss1_conv1_loss_relu1_0_split -> loss1_conv1_loss_relu1_0_split_0
I0702 18:14:24.152289 10683 net.cpp:408] loss1_conv1_loss_relu1_0_split -> loss1_conv1_loss_relu1_0_split_1
I0702 18:14:24.152359 10683 net.cpp:150] Setting up loss1_conv1_loss_relu1_0_split
I0702 18:14:24.152366 10683 net.cpp:157] Top shape: 2 512 72 96 (7077888)
I0702 18:14:24.152370 10683 net.cpp:157] Top shape: 2 512 72 96 (7077888)
I0702 18:14:24.152374 10683 net.cpp:165] Memory required for data: 2182617820
I0702 18:14:24.152376 10683 layer_factory.hpp:77] Creating layer LFCN_1_3x5
I0702 18:14:24.152390 10683 net.cpp:100] Creating Layer LFCN_1_3x5
I0702 18:14:24.152400 10683 net.cpp:434] LFCN_1_3x5 <- loss1_conv1_loss_relu1_0_split_0
I0702 18:14:24.152410 10683 net.cpp:408] LFCN_1_3x5 -> LFCN_1_3x5
I0702 18:14:24.155242 10683 net.cpp:150] Setting up LFCN_1_3x5
I0702 18:14:24.155263 10683 net.cpp:157] Top shape: 2 7 72 96 (96768)
I0702 18:14:24.155267 10683 net.cpp:165] Memory required for data: 2183004892
I0702 18:14:24.155277 10683 layer_factory.hpp:77] Creating layer LFCN_1_3x5_LFCN_1_3x5_0_split
I0702 18:14:24.155287 10683 net.cpp:100] Creating Layer LFCN_1_3x5_LFCN_1_3x5_0_split
I0702 18:14:24.155292 10683 net.cpp:434] LFCN_1_3x5_LFCN_1_3x5_0_split <- LFCN_1_3x5
I0702 18:14:24.155298 10683 net.cpp:408] LFCN_1_3x5_LFCN_1_3x5_0_split -> LFCN_1_3x5_LFCN_1_3x5_0_split_0
I0702 18:14:24.155309 10683 net.cpp:408] LFCN_1_3x5_LFCN_1_3x5_0_split -> LFCN_1_3x5_LFCN_1_3x5_0_split_1
I0702 18:14:24.155315 10683 net.cpp:408] LFCN_1_3x5_LFCN_1_3x5_0_split -> LFCN_1_3x5_LFCN_1_3x5_0_split_2
I0702 18:14:24.155395 10683 net.cpp:150] Setting up LFCN_1_3x5_LFCN_1_3x5_0_split
I0702 18:14:24.155403 10683 net.cpp:157] Top shape: 2 7 72 96 (96768)
I0702 18:14:24.155407 10683 net.cpp:157] Top shape: 2 7 72 96 (96768)
I0702 18:14:24.155411 10683 net.cpp:157] Top shape: 2 7 72 96 (96768)
I0702 18:14:24.155413 10683 net.cpp:165] Memory required for data: 2184166108
I0702 18:14:24.155416 10683 layer_factory.hpp:77] Creating layer detection_loss_1_3x5
I0702 18:14:24.155426 10683 net.cpp:100] Creating Layer detection_loss_1_3x5
I0702 18:14:24.155429 10683 net.cpp:434] detection_loss_1_3x5 <- LFCN_1_3x5_LFCN_1_3x5_0_split_0
I0702 18:14:24.155433 10683 net.cpp:434] detection_loss_1_3x5 <- label_1_3x5_data_1_split_0
I0702 18:14:24.155441 10683 net.cpp:408] detection_loss_1_3x5 -> loss_1_3x5
I0702 18:14:24.155449 10683 layer_factory.hpp:77] Creating layer detection_loss_1_3x5
I0702 18:14:24.156127 10683 net.cpp:150] Setting up detection_loss_1_3x5
I0702 18:14:24.156142 10683 net.cpp:157] Top shape: 1 1 1 2 (2)
I0702 18:14:24.156146 10683 net.cpp:160]     with loss weight 0.5
I0702 18:14:24.156158 10683 net.cpp:165] Memory required for data: 2184166116
I0702 18:14:24.156162 10683 layer_factory.hpp:77] Creating layer detection_accuracy_1_3x5
I0702 18:14:24.156172 10683 net.cpp:100] Creating Layer detection_accuracy_1_3x5
I0702 18:14:24.156177 10683 net.cpp:434] detection_accuracy_1_3x5 <- LFCN_1_3x5_LFCN_1_3x5_0_split_1
I0702 18:14:24.156183 10683 net.cpp:434] detection_accuracy_1_3x5 <- label_1_3x5_data_1_split_1
I0702 18:14:24.156190 10683 net.cpp:408] detection_accuracy_1_3x5 -> accuracy_1_3x5
I0702 18:14:24.156199 10683 net.cpp:408] detection_accuracy_1_3x5 -> boxiou_1_3x5
I0702 18:14:24.156257 10683 net.cpp:150] Setting up detection_accuracy_1_3x5
I0702 18:14:24.156265 10683 net.cpp:157] Top shape: 1 1 1 2 (2)
I0702 18:14:24.156267 10683 net.cpp:157] Top shape: 1 1 1 1 (1)
I0702 18:14:24.156270 10683 net.cpp:165] Memory required for data: 2184166128
I0702 18:14:24.156273 10683 layer_factory.hpp:77] Creating layer LFCN_1_5x7
I0702 18:14:24.156283 10683 net.cpp:100] Creating Layer LFCN_1_5x7
I0702 18:14:24.156288 10683 net.cpp:434] LFCN_1_5x7 <- loss1_conv1_loss_relu1_0_split_1
I0702 18:14:24.156296 10683 net.cpp:408] LFCN_1_5x7 -> LFCN_1_5x7
I0702 18:14:24.162922 10683 net.cpp:150] Setting up LFCN_1_5x7
I0702 18:14:24.162942 10683 net.cpp:157] Top shape: 2 7 72 96 (96768)
I0702 18:14:24.162945 10683 net.cpp:165] Memory required for data: 2184553200
I0702 18:14:24.162955 10683 layer_factory.hpp:77] Creating layer LFCN_1_5x7_LFCN_1_5x7_0_split
I0702 18:14:24.162966 10683 net.cpp:100] Creating Layer LFCN_1_5x7_LFCN_1_5x7_0_split
I0702 18:14:24.162971 10683 net.cpp:434] LFCN_1_5x7_LFCN_1_5x7_0_split <- LFCN_1_5x7
I0702 18:14:24.162979 10683 net.cpp:408] LFCN_1_5x7_LFCN_1_5x7_0_split -> LFCN_1_5x7_LFCN_1_5x7_0_split_0
I0702 18:14:24.162994 10683 net.cpp:408] LFCN_1_5x7_LFCN_1_5x7_0_split -> LFCN_1_5x7_LFCN_1_5x7_0_split_1
I0702 18:14:24.163002 10683 net.cpp:408] LFCN_1_5x7_LFCN_1_5x7_0_split -> LFCN_1_5x7_LFCN_1_5x7_0_split_2
I0702 18:14:24.163079 10683 net.cpp:150] Setting up LFCN_1_5x7_LFCN_1_5x7_0_split
I0702 18:14:24.163087 10683 net.cpp:157] Top shape: 2 7 72 96 (96768)
I0702 18:14:24.163091 10683 net.cpp:157] Top shape: 2 7 72 96 (96768)
I0702 18:14:24.163095 10683 net.cpp:157] Top shape: 2 7 72 96 (96768)
I0702 18:14:24.163098 10683 net.cpp:165] Memory required for data: 2185714416
I0702 18:14:24.163101 10683 layer_factory.hpp:77] Creating layer detection_loss_1_5x7
I0702 18:14:24.163110 10683 net.cpp:100] Creating Layer detection_loss_1_5x7
I0702 18:14:24.163115 10683 net.cpp:434] detection_loss_1_5x7 <- LFCN_1_5x7_LFCN_1_5x7_0_split_0
I0702 18:14:24.163120 10683 net.cpp:434] detection_loss_1_5x7 <- label_1_5x7_data_2_split_0
I0702 18:14:24.163125 10683 net.cpp:408] detection_loss_1_5x7 -> loss_1_5x7
I0702 18:14:24.163136 10683 layer_factory.hpp:77] Creating layer detection_loss_1_5x7
I0702 18:14:24.164410 10683 net.cpp:150] Setting up detection_loss_1_5x7
I0702 18:14:24.164422 10683 net.cpp:157] Top shape: 1 1 1 2 (2)
I0702 18:14:24.164423 10683 net.cpp:160]     with loss weight 0.9
I0702 18:14:24.164432 10683 net.cpp:165] Memory required for data: 2185714424
I0702 18:14:24.164435 10683 layer_factory.hpp:77] Creating layer detection_accuracy_1_5x7
I0702 18:14:24.164443 10683 net.cpp:100] Creating Layer detection_accuracy_1_5x7
I0702 18:14:24.164448 10683 net.cpp:434] detection_accuracy_1_5x7 <- LFCN_1_5x7_LFCN_1_5x7_0_split_1
I0702 18:14:24.164453 10683 net.cpp:434] detection_accuracy_1_5x7 <- label_1_5x7_data_2_split_1
I0702 18:14:24.164463 10683 net.cpp:408] detection_accuracy_1_5x7 -> accuracy_1_5x7
I0702 18:14:24.164470 10683 net.cpp:408] detection_accuracy_1_5x7 -> boxiou_1_5x7
I0702 18:14:24.164528 10683 net.cpp:150] Setting up detection_accuracy_1_5x7
I0702 18:14:24.164535 10683 net.cpp:157] Top shape: 1 1 1 2 (2)
I0702 18:14:24.164539 10683 net.cpp:157] Top shape: 1 1 1 1 (1)
I0702 18:14:24.164541 10683 net.cpp:165] Memory required for data: 2185714436
I0702 18:14:24.164544 10683 layer_factory.hpp:77] Creating layer pool4
I0702 18:14:24.164551 10683 net.cpp:100] Creating Layer pool4
I0702 18:14:24.164556 10683 net.cpp:434] pool4 <- conv4_3_relu4_3_0_split_1
I0702 18:14:24.164562 10683 net.cpp:408] pool4 -> pool4
I0702 18:14:24.164614 10683 net.cpp:150] Setting up pool4
I0702 18:14:24.164623 10683 net.cpp:157] Top shape: 2 512 36 48 (1769472)
I0702 18:14:24.164626 10683 net.cpp:165] Memory required for data: 2192792324
I0702 18:14:24.164629 10683 layer_factory.hpp:77] Creating layer conv5_1
I0702 18:14:24.164636 10683 net.cpp:100] Creating Layer conv5_1
I0702 18:14:24.164639 10683 net.cpp:434] conv5_1 <- pool4
I0702 18:14:24.164645 10683 net.cpp:408] conv5_1 -> conv5_1
I0702 18:14:24.170727 10683 net.cpp:150] Setting up conv5_1
I0702 18:14:24.170747 10683 net.cpp:157] Top shape: 2 512 36 48 (1769472)
I0702 18:14:24.170748 10683 net.cpp:165] Memory required for data: 2199870212
I0702 18:14:24.170755 10683 layer_factory.hpp:77] Creating layer relu5_1
I0702 18:14:24.170768 10683 net.cpp:100] Creating Layer relu5_1
I0702 18:14:24.170773 10683 net.cpp:434] relu5_1 <- conv5_1
I0702 18:14:24.170778 10683 net.cpp:395] relu5_1 -> conv5_1 (in-place)
I0702 18:14:24.171136 10683 net.cpp:150] Setting up relu5_1
I0702 18:14:24.171144 10683 net.cpp:157] Top shape: 2 512 36 48 (1769472)
I0702 18:14:24.171146 10683 net.cpp:165] Memory required for data: 2206948100
I0702 18:14:24.171149 10683 layer_factory.hpp:77] Creating layer conv5_2
I0702 18:14:24.171159 10683 net.cpp:100] Creating Layer conv5_2
I0702 18:14:24.171164 10683 net.cpp:434] conv5_2 <- conv5_1
I0702 18:14:24.171169 10683 net.cpp:408] conv5_2 -> conv5_2
I0702 18:14:24.178263 10683 net.cpp:150] Setting up conv5_2
I0702 18:14:24.178290 10683 net.cpp:157] Top shape: 2 512 36 48 (1769472)
I0702 18:14:24.178293 10683 net.cpp:165] Memory required for data: 2214025988
I0702 18:14:24.178304 10683 layer_factory.hpp:77] Creating layer relu5_2
I0702 18:14:24.178318 10683 net.cpp:100] Creating Layer relu5_2
I0702 18:14:24.178323 10683 net.cpp:434] relu5_2 <- conv5_2
I0702 18:14:24.178330 10683 net.cpp:395] relu5_2 -> conv5_2 (in-place)
I0702 18:14:24.178668 10683 net.cpp:150] Setting up relu5_2
I0702 18:14:24.178675 10683 net.cpp:157] Top shape: 2 512 36 48 (1769472)
I0702 18:14:24.178678 10683 net.cpp:165] Memory required for data: 2221103876
I0702 18:14:24.178679 10683 layer_factory.hpp:77] Creating layer conv5_3
I0702 18:14:24.178688 10683 net.cpp:100] Creating Layer conv5_3
I0702 18:14:24.178690 10683 net.cpp:434] conv5_3 <- conv5_2
I0702 18:14:24.178695 10683 net.cpp:408] conv5_3 -> conv5_3
I0702 18:14:24.186501 10683 net.cpp:150] Setting up conv5_3
I0702 18:14:24.186520 10683 net.cpp:157] Top shape: 2 512 36 48 (1769472)
I0702 18:14:24.186524 10683 net.cpp:165] Memory required for data: 2228181764
I0702 18:14:24.186532 10683 layer_factory.hpp:77] Creating layer relu5_3
I0702 18:14:24.186540 10683 net.cpp:100] Creating Layer relu5_3
I0702 18:14:24.186545 10683 net.cpp:434] relu5_3 <- conv5_3
I0702 18:14:24.186553 10683 net.cpp:395] relu5_3 -> conv5_3 (in-place)
I0702 18:14:24.187640 10683 net.cpp:150] Setting up relu5_3
I0702 18:14:24.187652 10683 net.cpp:157] Top shape: 2 512 36 48 (1769472)
I0702 18:14:24.187655 10683 net.cpp:165] Memory required for data: 2235259652
I0702 18:14:24.187659 10683 layer_factory.hpp:77] Creating layer conv5_3_relu5_3_0_split
I0702 18:14:24.187667 10683 net.cpp:100] Creating Layer conv5_3_relu5_3_0_split
I0702 18:14:24.187671 10683 net.cpp:434] conv5_3_relu5_3_0_split <- conv5_3
I0702 18:14:24.187677 10683 net.cpp:408] conv5_3_relu5_3_0_split -> conv5_3_relu5_3_0_split_0
I0702 18:14:24.187685 10683 net.cpp:408] conv5_3_relu5_3_0_split -> conv5_3_relu5_3_0_split_1
I0702 18:14:24.187691 10683 net.cpp:408] conv5_3_relu5_3_0_split -> conv5_3_relu5_3_0_split_2
I0702 18:14:24.187773 10683 net.cpp:150] Setting up conv5_3_relu5_3_0_split
I0702 18:14:24.187782 10683 net.cpp:157] Top shape: 2 512 36 48 (1769472)
I0702 18:14:24.187785 10683 net.cpp:157] Top shape: 2 512 36 48 (1769472)
I0702 18:14:24.187789 10683 net.cpp:157] Top shape: 2 512 36 48 (1769472)
I0702 18:14:24.187791 10683 net.cpp:165] Memory required for data: 2256493316
I0702 18:14:24.187794 10683 layer_factory.hpp:77] Creating layer LFCN_2_3x5
I0702 18:14:24.187805 10683 net.cpp:100] Creating Layer LFCN_2_3x5
I0702 18:14:24.187809 10683 net.cpp:434] LFCN_2_3x5 <- conv5_3_relu5_3_0_split_0
I0702 18:14:24.187815 10683 net.cpp:408] LFCN_2_3x5 -> LFCN_2_3x5
I0702 18:14:24.192098 10683 net.cpp:150] Setting up LFCN_2_3x5
I0702 18:14:24.192118 10683 net.cpp:157] Top shape: 2 7 36 48 (24192)
I0702 18:14:24.192122 10683 net.cpp:165] Memory required for data: 2256590084
I0702 18:14:24.192137 10683 layer_factory.hpp:77] Creating layer LFCN_2_3x5_LFCN_2_3x5_0_split
I0702 18:14:24.192148 10683 net.cpp:100] Creating Layer LFCN_2_3x5_LFCN_2_3x5_0_split
I0702 18:14:24.192153 10683 net.cpp:434] LFCN_2_3x5_LFCN_2_3x5_0_split <- LFCN_2_3x5
I0702 18:14:24.192162 10683 net.cpp:408] LFCN_2_3x5_LFCN_2_3x5_0_split -> LFCN_2_3x5_LFCN_2_3x5_0_split_0
I0702 18:14:24.192181 10683 net.cpp:408] LFCN_2_3x5_LFCN_2_3x5_0_split -> LFCN_2_3x5_LFCN_2_3x5_0_split_1
I0702 18:14:24.192188 10683 net.cpp:408] LFCN_2_3x5_LFCN_2_3x5_0_split -> LFCN_2_3x5_LFCN_2_3x5_0_split_2
I0702 18:14:24.192265 10683 net.cpp:150] Setting up LFCN_2_3x5_LFCN_2_3x5_0_split
I0702 18:14:24.192272 10683 net.cpp:157] Top shape: 2 7 36 48 (24192)
I0702 18:14:24.192276 10683 net.cpp:157] Top shape: 2 7 36 48 (24192)
I0702 18:14:24.192279 10683 net.cpp:157] Top shape: 2 7 36 48 (24192)
I0702 18:14:24.192282 10683 net.cpp:165] Memory required for data: 2256880388
I0702 18:14:24.192286 10683 layer_factory.hpp:77] Creating layer detection_loss_2_3x5
I0702 18:14:24.192293 10683 net.cpp:100] Creating Layer detection_loss_2_3x5
I0702 18:14:24.192297 10683 net.cpp:434] detection_loss_2_3x5 <- LFCN_2_3x5_LFCN_2_3x5_0_split_0
I0702 18:14:24.192302 10683 net.cpp:434] detection_loss_2_3x5 <- label_2_3x5_data_3_split_0
I0702 18:14:24.192309 10683 net.cpp:408] detection_loss_2_3x5 -> loss_2_3x5
I0702 18:14:24.192318 10683 layer_factory.hpp:77] Creating layer detection_loss_2_3x5
I0702 18:14:24.193675 10683 net.cpp:150] Setting up detection_loss_2_3x5
I0702 18:14:24.193687 10683 net.cpp:157] Top shape: 1 1 1 2 (2)
I0702 18:14:24.193691 10683 net.cpp:160]     with loss weight 1
I0702 18:14:24.193699 10683 net.cpp:165] Memory required for data: 2256880396
I0702 18:14:24.193702 10683 layer_factory.hpp:77] Creating layer detection_accuracy_2_3x5
I0702 18:14:24.193711 10683 net.cpp:100] Creating Layer detection_accuracy_2_3x5
I0702 18:14:24.193716 10683 net.cpp:434] detection_accuracy_2_3x5 <- LFCN_2_3x5_LFCN_2_3x5_0_split_1
I0702 18:14:24.193722 10683 net.cpp:434] detection_accuracy_2_3x5 <- label_2_3x5_data_3_split_1
I0702 18:14:24.193727 10683 net.cpp:408] detection_accuracy_2_3x5 -> accuracy_2_3x5
I0702 18:14:24.193737 10683 net.cpp:408] detection_accuracy_2_3x5 -> boxiou_2_3x5
I0702 18:14:24.193794 10683 net.cpp:150] Setting up detection_accuracy_2_3x5
I0702 18:14:24.193799 10683 net.cpp:157] Top shape: 1 1 1 2 (2)
I0702 18:14:24.193802 10683 net.cpp:157] Top shape: 1 1 1 1 (1)
I0702 18:14:24.193805 10683 net.cpp:165] Memory required for data: 2256880408
I0702 18:14:24.193809 10683 layer_factory.hpp:77] Creating layer LFCN_2_5x7
I0702 18:14:24.193817 10683 net.cpp:100] Creating Layer LFCN_2_5x7
I0702 18:14:24.193821 10683 net.cpp:434] LFCN_2_5x7 <- conv5_3_relu5_3_0_split_1
I0702 18:14:24.193828 10683 net.cpp:408] LFCN_2_5x7 -> LFCN_2_5x7
I0702 18:14:24.198246 10683 net.cpp:150] Setting up LFCN_2_5x7
I0702 18:14:24.198262 10683 net.cpp:157] Top shape: 2 7 36 48 (24192)
I0702 18:14:24.198266 10683 net.cpp:165] Memory required for data: 2256977176
I0702 18:14:24.198274 10683 layer_factory.hpp:77] Creating layer LFCN_2_5x7_LFCN_2_5x7_0_split
I0702 18:14:24.198282 10683 net.cpp:100] Creating Layer LFCN_2_5x7_LFCN_2_5x7_0_split
I0702 18:14:24.198287 10683 net.cpp:434] LFCN_2_5x7_LFCN_2_5x7_0_split <- LFCN_2_5x7
I0702 18:14:24.198295 10683 net.cpp:408] LFCN_2_5x7_LFCN_2_5x7_0_split -> LFCN_2_5x7_LFCN_2_5x7_0_split_0
I0702 18:14:24.198304 10683 net.cpp:408] LFCN_2_5x7_LFCN_2_5x7_0_split -> LFCN_2_5x7_LFCN_2_5x7_0_split_1
I0702 18:14:24.198312 10683 net.cpp:408] LFCN_2_5x7_LFCN_2_5x7_0_split -> LFCN_2_5x7_LFCN_2_5x7_0_split_2
I0702 18:14:24.198398 10683 net.cpp:150] Setting up LFCN_2_5x7_LFCN_2_5x7_0_split
I0702 18:14:24.198405 10683 net.cpp:157] Top shape: 2 7 36 48 (24192)
I0702 18:14:24.198408 10683 net.cpp:157] Top shape: 2 7 36 48 (24192)
I0702 18:14:24.198412 10683 net.cpp:157] Top shape: 2 7 36 48 (24192)
I0702 18:14:24.198415 10683 net.cpp:165] Memory required for data: 2257267480
I0702 18:14:24.198417 10683 layer_factory.hpp:77] Creating layer detection_loss_2_5x7
I0702 18:14:24.198426 10683 net.cpp:100] Creating Layer detection_loss_2_5x7
I0702 18:14:24.198428 10683 net.cpp:434] detection_loss_2_5x7 <- LFCN_2_5x7_LFCN_2_5x7_0_split_0
I0702 18:14:24.198434 10683 net.cpp:434] detection_loss_2_5x7 <- label_2_5x7_data_4_split_0
I0702 18:14:24.198439 10683 net.cpp:408] detection_loss_2_5x7 -> loss_2_5x7
I0702 18:14:24.198449 10683 layer_factory.hpp:77] Creating layer detection_loss_2_5x7
I0702 18:14:24.199106 10683 net.cpp:150] Setting up detection_loss_2_5x7
I0702 18:14:24.199116 10683 net.cpp:157] Top shape: 1 1 1 2 (2)
I0702 18:14:24.199120 10683 net.cpp:160]     with loss weight 1
I0702 18:14:24.199127 10683 net.cpp:165] Memory required for data: 2257267488
I0702 18:14:24.199131 10683 layer_factory.hpp:77] Creating layer detection_accuracy_2_5x7
I0702 18:14:24.199139 10683 net.cpp:100] Creating Layer detection_accuracy_2_5x7
I0702 18:14:24.199143 10683 net.cpp:434] detection_accuracy_2_5x7 <- LFCN_2_5x7_LFCN_2_5x7_0_split_1
I0702 18:14:24.199149 10683 net.cpp:434] detection_accuracy_2_5x7 <- label_2_5x7_data_4_split_1
I0702 18:14:24.199156 10683 net.cpp:408] detection_accuracy_2_5x7 -> accuracy_2_5x7
I0702 18:14:24.199162 10683 net.cpp:408] detection_accuracy_2_5x7 -> boxiou_2_5x7
I0702 18:14:24.199216 10683 net.cpp:150] Setting up detection_accuracy_2_5x7
I0702 18:14:24.199221 10683 net.cpp:157] Top shape: 1 1 1 2 (2)
I0702 18:14:24.199225 10683 net.cpp:157] Top shape: 1 1 1 1 (1)
I0702 18:14:24.199228 10683 net.cpp:165] Memory required for data: 2257267500
I0702 18:14:24.199230 10683 layer_factory.hpp:77] Creating layer pool5
I0702 18:14:24.199237 10683 net.cpp:100] Creating Layer pool5
I0702 18:14:24.199241 10683 net.cpp:434] pool5 <- conv5_3_relu5_3_0_split_2
I0702 18:14:24.199245 10683 net.cpp:408] pool5 -> pool5
I0702 18:14:24.199296 10683 net.cpp:150] Setting up pool5
I0702 18:14:24.199301 10683 net.cpp:157] Top shape: 2 512 18 24 (442368)
I0702 18:14:24.199304 10683 net.cpp:165] Memory required for data: 2259036972
I0702 18:14:24.199307 10683 layer_factory.hpp:77] Creating layer conv6_1
I0702 18:14:24.199317 10683 net.cpp:100] Creating Layer conv6_1
I0702 18:14:24.199321 10683 net.cpp:434] conv6_1 <- pool5
I0702 18:14:24.199328 10683 net.cpp:408] conv6_1 -> conv6_1
I0702 18:14:24.222004 10683 net.cpp:150] Setting up conv6_1
I0702 18:14:24.222021 10683 net.cpp:157] Top shape: 2 512 18 24 (442368)
I0702 18:14:24.222023 10683 net.cpp:165] Memory required for data: 2260806444
I0702 18:14:24.222033 10683 layer_factory.hpp:77] Creating layer relu6_1
I0702 18:14:24.222043 10683 net.cpp:100] Creating Layer relu6_1
I0702 18:14:24.222048 10683 net.cpp:434] relu6_1 <- conv6_1
I0702 18:14:24.222055 10683 net.cpp:395] relu6_1 -> conv6_1 (in-place)
I0702 18:14:24.222337 10683 net.cpp:150] Setting up relu6_1
I0702 18:14:24.222344 10683 net.cpp:157] Top shape: 2 512 18 24 (442368)
I0702 18:14:24.222347 10683 net.cpp:165] Memory required for data: 2262575916
I0702 18:14:24.222348 10683 layer_factory.hpp:77] Creating layer conv6_1_relu6_1_0_split
I0702 18:14:24.222353 10683 net.cpp:100] Creating Layer conv6_1_relu6_1_0_split
I0702 18:14:24.222355 10683 net.cpp:434] conv6_1_relu6_1_0_split <- conv6_1
I0702 18:14:24.222360 10683 net.cpp:408] conv6_1_relu6_1_0_split -> conv6_1_relu6_1_0_split_0
I0702 18:14:24.222365 10683 net.cpp:408] conv6_1_relu6_1_0_split -> conv6_1_relu6_1_0_split_1
I0702 18:14:24.222373 10683 net.cpp:408] conv6_1_relu6_1_0_split -> conv6_1_relu6_1_0_split_2
I0702 18:14:24.222434 10683 net.cpp:150] Setting up conv6_1_relu6_1_0_split
I0702 18:14:24.222440 10683 net.cpp:157] Top shape: 2 512 18 24 (442368)
I0702 18:14:24.222441 10683 net.cpp:157] Top shape: 2 512 18 24 (442368)
I0702 18:14:24.222445 10683 net.cpp:157] Top shape: 2 512 18 24 (442368)
I0702 18:14:24.222447 10683 net.cpp:165] Memory required for data: 2267884332
I0702 18:14:24.222450 10683 layer_factory.hpp:77] Creating layer LFCN_3_3x5
I0702 18:14:24.222460 10683 net.cpp:100] Creating Layer LFCN_3_3x5
I0702 18:14:24.222465 10683 net.cpp:434] LFCN_3_3x5 <- conv6_1_relu6_1_0_split_0
I0702 18:14:24.222470 10683 net.cpp:408] LFCN_3_3x5 -> LFCN_3_3x5
I0702 18:14:24.224876 10683 net.cpp:150] Setting up LFCN_3_3x5
I0702 18:14:24.224889 10683 net.cpp:157] Top shape: 2 7 18 24 (6048)
I0702 18:14:24.224891 10683 net.cpp:165] Memory required for data: 2267908524
I0702 18:14:24.224898 10683 layer_factory.hpp:77] Creating layer LFCN_3_3x5_LFCN_3_3x5_0_split
I0702 18:14:24.224917 10683 net.cpp:100] Creating Layer LFCN_3_3x5_LFCN_3_3x5_0_split
I0702 18:14:24.224922 10683 net.cpp:434] LFCN_3_3x5_LFCN_3_3x5_0_split <- LFCN_3_3x5
I0702 18:14:24.224928 10683 net.cpp:408] LFCN_3_3x5_LFCN_3_3x5_0_split -> LFCN_3_3x5_LFCN_3_3x5_0_split_0
I0702 18:14:24.224936 10683 net.cpp:408] LFCN_3_3x5_LFCN_3_3x5_0_split -> LFCN_3_3x5_LFCN_3_3x5_0_split_1
I0702 18:14:24.224941 10683 net.cpp:408] LFCN_3_3x5_LFCN_3_3x5_0_split -> LFCN_3_3x5_LFCN_3_3x5_0_split_2
I0702 18:14:24.225001 10683 net.cpp:150] Setting up LFCN_3_3x5_LFCN_3_3x5_0_split
I0702 18:14:24.225006 10683 net.cpp:157] Top shape: 2 7 18 24 (6048)
I0702 18:14:24.225009 10683 net.cpp:157] Top shape: 2 7 18 24 (6048)
I0702 18:14:24.225013 10683 net.cpp:157] Top shape: 2 7 18 24 (6048)
I0702 18:14:24.225016 10683 net.cpp:165] Memory required for data: 2267981100
I0702 18:14:24.225019 10683 layer_factory.hpp:77] Creating layer detection_loss_3_3x5
I0702 18:14:24.225025 10683 net.cpp:100] Creating Layer detection_loss_3_3x5
I0702 18:14:24.225030 10683 net.cpp:434] detection_loss_3_3x5 <- LFCN_3_3x5_LFCN_3_3x5_0_split_0
I0702 18:14:24.225034 10683 net.cpp:434] detection_loss_3_3x5 <- label_3_3x5_data_5_split_0
I0702 18:14:24.225041 10683 net.cpp:408] detection_loss_3_3x5 -> loss_3_3x5
I0702 18:14:24.225050 10683 layer_factory.hpp:77] Creating layer detection_loss_3_3x5
I0702 18:14:24.226024 10683 net.cpp:150] Setting up detection_loss_3_3x5
I0702 18:14:24.226035 10683 net.cpp:157] Top shape: 1 1 1 2 (2)
I0702 18:14:24.226037 10683 net.cpp:160]     with loss weight 1
I0702 18:14:24.226043 10683 net.cpp:165] Memory required for data: 2267981108
I0702 18:14:24.226045 10683 layer_factory.hpp:77] Creating layer detection_accuracy_3_3x5
I0702 18:14:24.226052 10683 net.cpp:100] Creating Layer detection_accuracy_3_3x5
I0702 18:14:24.226055 10683 net.cpp:434] detection_accuracy_3_3x5 <- LFCN_3_3x5_LFCN_3_3x5_0_split_1
I0702 18:14:24.226059 10683 net.cpp:434] detection_accuracy_3_3x5 <- label_3_3x5_data_5_split_1
I0702 18:14:24.226064 10683 net.cpp:408] detection_accuracy_3_3x5 -> accuracy_3_3x5
I0702 18:14:24.226071 10683 net.cpp:408] detection_accuracy_3_3x5 -> boxiou_3_3x5
I0702 18:14:24.226117 10683 net.cpp:150] Setting up detection_accuracy_3_3x5
I0702 18:14:24.226122 10683 net.cpp:157] Top shape: 1 1 1 2 (2)
I0702 18:14:24.226125 10683 net.cpp:157] Top shape: 1 1 1 1 (1)
I0702 18:14:24.226126 10683 net.cpp:165] Memory required for data: 2267981120
I0702 18:14:24.226130 10683 layer_factory.hpp:77] Creating layer LFCN_3_5x7
I0702 18:14:24.226140 10683 net.cpp:100] Creating Layer LFCN_3_5x7
I0702 18:14:24.226143 10683 net.cpp:434] LFCN_3_5x7 <- conv6_1_relu6_1_0_split_1
I0702 18:14:24.226148 10683 net.cpp:408] LFCN_3_5x7 -> LFCN_3_5x7
I0702 18:14:24.228605 10683 net.cpp:150] Setting up LFCN_3_5x7
I0702 18:14:24.228618 10683 net.cpp:157] Top shape: 2 7 18 24 (6048)
I0702 18:14:24.228621 10683 net.cpp:165] Memory required for data: 2268005312
I0702 18:14:24.228626 10683 layer_factory.hpp:77] Creating layer LFCN_3_5x7_LFCN_3_5x7_0_split
I0702 18:14:24.228632 10683 net.cpp:100] Creating Layer LFCN_3_5x7_LFCN_3_5x7_0_split
I0702 18:14:24.228636 10683 net.cpp:434] LFCN_3_5x7_LFCN_3_5x7_0_split <- LFCN_3_5x7
I0702 18:14:24.228641 10683 net.cpp:408] LFCN_3_5x7_LFCN_3_5x7_0_split -> LFCN_3_5x7_LFCN_3_5x7_0_split_0
I0702 18:14:24.228647 10683 net.cpp:408] LFCN_3_5x7_LFCN_3_5x7_0_split -> LFCN_3_5x7_LFCN_3_5x7_0_split_1
I0702 18:14:24.228652 10683 net.cpp:408] LFCN_3_5x7_LFCN_3_5x7_0_split -> LFCN_3_5x7_LFCN_3_5x7_0_split_2
I0702 18:14:24.228713 10683 net.cpp:150] Setting up LFCN_3_5x7_LFCN_3_5x7_0_split
I0702 18:14:24.228718 10683 net.cpp:157] Top shape: 2 7 18 24 (6048)
I0702 18:14:24.228720 10683 net.cpp:157] Top shape: 2 7 18 24 (6048)
I0702 18:14:24.228724 10683 net.cpp:157] Top shape: 2 7 18 24 (6048)
I0702 18:14:24.228726 10683 net.cpp:165] Memory required for data: 2268077888
I0702 18:14:24.228729 10683 layer_factory.hpp:77] Creating layer detection_loss_3_5x7
I0702 18:14:24.228736 10683 net.cpp:100] Creating Layer detection_loss_3_5x7
I0702 18:14:24.228739 10683 net.cpp:434] detection_loss_3_5x7 <- LFCN_3_5x7_LFCN_3_5x7_0_split_0
I0702 18:14:24.228744 10683 net.cpp:434] detection_loss_3_5x7 <- label_3_5x7_data_6_split_0
I0702 18:14:24.228751 10683 net.cpp:408] detection_loss_3_5x7 -> loss_3_5x7
I0702 18:14:24.228760 10683 layer_factory.hpp:77] Creating layer detection_loss_3_5x7
I0702 18:14:24.229204 10683 net.cpp:150] Setting up detection_loss_3_5x7
I0702 18:14:24.229212 10683 net.cpp:157] Top shape: 1 1 1 2 (2)
I0702 18:14:24.229213 10683 net.cpp:160]     with loss weight 1
I0702 18:14:24.229220 10683 net.cpp:165] Memory required for data: 2268077896
I0702 18:14:24.229224 10683 layer_factory.hpp:77] Creating layer detection_accuracy_3_5x7
I0702 18:14:24.229240 10683 net.cpp:100] Creating Layer detection_accuracy_3_5x7
I0702 18:14:24.229245 10683 net.cpp:434] detection_accuracy_3_5x7 <- LFCN_3_5x7_LFCN_3_5x7_0_split_1
I0702 18:14:24.229250 10683 net.cpp:434] detection_accuracy_3_5x7 <- label_3_5x7_data_6_split_1
I0702 18:14:24.229259 10683 net.cpp:408] detection_accuracy_3_5x7 -> accuracy_3_5x7
I0702 18:14:24.229265 10683 net.cpp:408] detection_accuracy_3_5x7 -> boxiou_3_5x7
I0702 18:14:24.229311 10683 net.cpp:150] Setting up detection_accuracy_3_5x7
I0702 18:14:24.229318 10683 net.cpp:157] Top shape: 1 1 1 2 (2)
I0702 18:14:24.229322 10683 net.cpp:157] Top shape: 1 1 1 1 (1)
I0702 18:14:24.229326 10683 net.cpp:165] Memory required for data: 2268077908
I0702 18:14:24.229328 10683 layer_factory.hpp:77] Creating layer pool6
I0702 18:14:24.229334 10683 net.cpp:100] Creating Layer pool6
I0702 18:14:24.229338 10683 net.cpp:434] pool6 <- conv6_1_relu6_1_0_split_2
I0702 18:14:24.229344 10683 net.cpp:408] pool6 -> pool6
I0702 18:14:24.229390 10683 net.cpp:150] Setting up pool6
I0702 18:14:24.229396 10683 net.cpp:157] Top shape: 2 512 9 12 (110592)
I0702 18:14:24.229399 10683 net.cpp:165] Memory required for data: 2268520276
I0702 18:14:24.229403 10683 layer_factory.hpp:77] Creating layer LFCN_4_3x5
I0702 18:14:24.229411 10683 net.cpp:100] Creating Layer LFCN_4_3x5
I0702 18:14:24.229415 10683 net.cpp:434] LFCN_4_3x5 <- pool6
I0702 18:14:24.229423 10683 net.cpp:408] LFCN_4_3x5 -> LFCN_4_3x5
I0702 18:14:24.232270 10683 net.cpp:150] Setting up LFCN_4_3x5
I0702 18:14:24.232283 10683 net.cpp:157] Top shape: 2 7 9 12 (1512)
I0702 18:14:24.232286 10683 net.cpp:165] Memory required for data: 2268526324
I0702 18:14:24.232295 10683 layer_factory.hpp:77] Creating layer LFCN_4_3x5_LFCN_4_3x5_0_split
I0702 18:14:24.232303 10683 net.cpp:100] Creating Layer LFCN_4_3x5_LFCN_4_3x5_0_split
I0702 18:14:24.232309 10683 net.cpp:434] LFCN_4_3x5_LFCN_4_3x5_0_split <- LFCN_4_3x5
I0702 18:14:24.232317 10683 net.cpp:408] LFCN_4_3x5_LFCN_4_3x5_0_split -> LFCN_4_3x5_LFCN_4_3x5_0_split_0
I0702 18:14:24.232326 10683 net.cpp:408] LFCN_4_3x5_LFCN_4_3x5_0_split -> LFCN_4_3x5_LFCN_4_3x5_0_split_1
I0702 18:14:24.232333 10683 net.cpp:408] LFCN_4_3x5_LFCN_4_3x5_0_split -> LFCN_4_3x5_LFCN_4_3x5_0_split_2
I0702 18:14:24.232403 10683 net.cpp:150] Setting up LFCN_4_3x5_LFCN_4_3x5_0_split
I0702 18:14:24.232409 10683 net.cpp:157] Top shape: 2 7 9 12 (1512)
I0702 18:14:24.232412 10683 net.cpp:157] Top shape: 2 7 9 12 (1512)
I0702 18:14:24.232415 10683 net.cpp:157] Top shape: 2 7 9 12 (1512)
I0702 18:14:24.232419 10683 net.cpp:165] Memory required for data: 2268544468
I0702 18:14:24.232421 10683 layer_factory.hpp:77] Creating layer detection_loss_4_3x5
I0702 18:14:24.232430 10683 net.cpp:100] Creating Layer detection_loss_4_3x5
I0702 18:14:24.232435 10683 net.cpp:434] detection_loss_4_3x5 <- LFCN_4_3x5_LFCN_4_3x5_0_split_0
I0702 18:14:24.232440 10683 net.cpp:434] detection_loss_4_3x5 <- label_4_3x5_data_7_split_0
I0702 18:14:24.232445 10683 net.cpp:408] detection_loss_4_3x5 -> loss_4_3x5
I0702 18:14:24.232455 10683 layer_factory.hpp:77] Creating layer detection_loss_4_3x5
I0702 18:14:24.232941 10683 net.cpp:150] Setting up detection_loss_4_3x5
I0702 18:14:24.232950 10683 net.cpp:157] Top shape: 1 1 1 2 (2)
I0702 18:14:24.232954 10683 net.cpp:160]     with loss weight 1
I0702 18:14:24.232960 10683 net.cpp:165] Memory required for data: 2268544476
I0702 18:14:24.232964 10683 layer_factory.hpp:77] Creating layer detection_accuracy_4_3x5
I0702 18:14:24.232971 10683 net.cpp:100] Creating Layer detection_accuracy_4_3x5
I0702 18:14:24.232976 10683 net.cpp:434] detection_accuracy_4_3x5 <- LFCN_4_3x5_LFCN_4_3x5_0_split_1
I0702 18:14:24.232982 10683 net.cpp:434] detection_accuracy_4_3x5 <- label_4_3x5_data_7_split_1
I0702 18:14:24.232990 10683 net.cpp:408] detection_accuracy_4_3x5 -> accuracy_4_3x5
I0702 18:14:24.232997 10683 net.cpp:408] detection_accuracy_4_3x5 -> boxiou_4_3x5
I0702 18:14:24.233044 10683 net.cpp:150] Setting up detection_accuracy_4_3x5
I0702 18:14:24.233049 10683 net.cpp:157] Top shape: 1 1 1 2 (2)
I0702 18:14:24.233052 10683 net.cpp:157] Top shape: 1 1 1 1 (1)
I0702 18:14:24.233055 10683 net.cpp:165] Memory required for data: 2268544488
I0702 18:14:24.233058 10683 layer_factory.hpp:77] Creating layer proposals
I0702 18:14:24.233067 10683 net.cpp:100] Creating Layer proposals
I0702 18:14:24.233070 10683 net.cpp:434] proposals <- LFCN_1_3x5_LFCN_1_3x5_0_split_2
I0702 18:14:24.233074 10683 net.cpp:434] proposals <- LFCN_1_5x7_LFCN_1_5x7_0_split_2
I0702 18:14:24.233078 10683 net.cpp:434] proposals <- LFCN_2_3x5_LFCN_2_3x5_0_split_2
I0702 18:14:24.233083 10683 net.cpp:434] proposals <- LFCN_2_5x7_LFCN_2_5x7_0_split_2
I0702 18:14:24.233085 10683 net.cpp:434] proposals <- LFCN_3_3x5_LFCN_3_3x5_0_split_2
I0702 18:14:24.233089 10683 net.cpp:434] proposals <- LFCN_3_5x7_LFCN_3_5x7_0_split_2
I0702 18:14:24.233093 10683 net.cpp:434] proposals <- LFCN_4_3x5_LFCN_4_3x5_0_split_2
I0702 18:14:24.233099 10683 net.cpp:408] proposals -> proposals
I0702 18:14:24.233126 10683 net.cpp:150] Setting up proposals
I0702 18:14:24.233131 10683 net.cpp:157] Top shape: 1 5 1 1 (5)
I0702 18:14:24.233134 10683 net.cpp:165] Memory required for data: 2268544508
I0702 18:14:24.233136 10683 layer_factory.hpp:77] Creating layer proposal_info
I0702 18:14:24.233144 10683 net.cpp:100] Creating Layer proposal_info
I0702 18:14:24.233147 10683 net.cpp:434] proposal_info <- proposals
I0702 18:14:24.233152 10683 net.cpp:434] proposal_info <- gt_boxes
I0702 18:14:24.233160 10683 net.cpp:408] proposal_info -> rois
I0702 18:14:24.233168 10683 net.cpp:408] proposal_info -> proposal_labels
I0702 18:14:24.233176 10683 net.cpp:408] proposal_info -> proposal_targets
I0702 18:14:24.233184 10683 net.cpp:408] proposal_info -> box_inside_weights
I0702 18:14:24.233191 10683 net.cpp:408] proposal_info -> box_outside_weights
I0702 18:14:24.233199 10683 net.cpp:408] proposal_info -> match_gt_boxes
I0702 18:14:24.233304 10683 net.cpp:150] Setting up proposal_info
I0702 18:14:24.233309 10683 net.cpp:157] Top shape: 64 5 1 1 (320)
I0702 18:14:24.233314 10683 net.cpp:157] Top shape: 64 1 1 1 (64)
I0702 18:14:24.233316 10683 net.cpp:157] Top shape: 64 12 1 1 (768)
I0702 18:14:24.233320 10683 net.cpp:157] Top shape: 64 12 1 1 (768)
I0702 18:14:24.233323 10683 net.cpp:157] Top shape: 64 12 1 1 (768)
I0702 18:14:24.233326 10683 net.cpp:157] Top shape: 64 6 1 1 (384)
I0702 18:14:24.233330 10683 net.cpp:165] Memory required for data: 2268556796
I0702 18:14:24.233332 10683 layer_factory.hpp:77] Creating layer rois_proposal_info_0_split
I0702 18:14:24.233338 10683 net.cpp:100] Creating Layer rois_proposal_info_0_split
I0702 18:14:24.233342 10683 net.cpp:434] rois_proposal_info_0_split <- rois
I0702 18:14:24.233347 10683 net.cpp:408] rois_proposal_info_0_split -> rois_proposal_info_0_split_0
I0702 18:14:24.233355 10683 net.cpp:408] rois_proposal_info_0_split -> rois_proposal_info_0_split_1
I0702 18:14:24.233361 10683 net.cpp:408] rois_proposal_info_0_split -> rois_proposal_info_0_split_2
I0702 18:14:24.233413 10683 net.cpp:150] Setting up rois_proposal_info_0_split
I0702 18:14:24.233418 10683 net.cpp:157] Top shape: 64 5 1 1 (320)
I0702 18:14:24.233422 10683 net.cpp:157] Top shape: 64 5 1 1 (320)
I0702 18:14:24.233425 10683 net.cpp:157] Top shape: 64 5 1 1 (320)
I0702 18:14:24.233428 10683 net.cpp:165] Memory required for data: 2268560636
I0702 18:14:24.233430 10683 layer_factory.hpp:77] Creating layer proposal_labels_proposal_info_1_split
I0702 18:14:24.233435 10683 net.cpp:100] Creating Layer proposal_labels_proposal_info_1_split
I0702 18:14:24.233438 10683 net.cpp:434] proposal_labels_proposal_info_1_split <- proposal_labels
I0702 18:14:24.233443 10683 net.cpp:408] proposal_labels_proposal_info_1_split -> proposal_labels_proposal_info_1_split_0
I0702 18:14:24.233449 10683 net.cpp:408] proposal_labels_proposal_info_1_split -> proposal_labels_proposal_info_1_split_1
I0702 18:14:24.233489 10683 net.cpp:150] Setting up proposal_labels_proposal_info_1_split
I0702 18:14:24.233494 10683 net.cpp:157] Top shape: 64 1 1 1 (64)
I0702 18:14:24.233497 10683 net.cpp:157] Top shape: 64 1 1 1 (64)
I0702 18:14:24.233500 10683 net.cpp:165] Memory required for data: 2268561148
I0702 18:14:24.233502 10683 layer_factory.hpp:77] Creating layer conv4_3_2x
I0702 18:14:24.233510 10683 net.cpp:100] Creating Layer conv4_3_2x
I0702 18:14:24.233515 10683 net.cpp:434] conv4_3_2x <- conv4_3_relu4_3_0_split_2
I0702 18:14:24.233521 10683 net.cpp:408] conv4_3_2x -> conv4_3_2x
I0702 18:14:24.233928 10683 net.cpp:150] Setting up conv4_3_2x
I0702 18:14:24.233938 10683 net.cpp:157] Top shape: 2 512 144 192 (28311552)
I0702 18:14:24.233942 10683 net.cpp:165] Memory required for data: 2381807356
I0702 18:14:24.233947 10683 layer_factory.hpp:77] Creating layer conv4_3_2x_conv4_3_2x_0_split
I0702 18:14:24.233952 10683 net.cpp:100] Creating Layer conv4_3_2x_conv4_3_2x_0_split
I0702 18:14:24.233955 10683 net.cpp:434] conv4_3_2x_conv4_3_2x_0_split <- conv4_3_2x
I0702 18:14:24.233961 10683 net.cpp:408] conv4_3_2x_conv4_3_2x_0_split -> conv4_3_2x_conv4_3_2x_0_split_0
I0702 18:14:24.233968 10683 net.cpp:408] conv4_3_2x_conv4_3_2x_0_split -> conv4_3_2x_conv4_3_2x_0_split_1
I0702 18:14:24.234011 10683 net.cpp:150] Setting up conv4_3_2x_conv4_3_2x_0_split
I0702 18:14:24.234015 10683 net.cpp:157] Top shape: 2 512 144 192 (28311552)
I0702 18:14:24.234019 10683 net.cpp:157] Top shape: 2 512 144 192 (28311552)
I0702 18:14:24.234021 10683 net.cpp:165] Memory required for data: 2608299772
I0702 18:14:24.234025 10683 layer_factory.hpp:77] Creating layer roi_pool_org
I0702 18:14:24.234031 10683 net.cpp:100] Creating Layer roi_pool_org
I0702 18:14:24.234035 10683 net.cpp:434] roi_pool_org <- conv4_3_2x_conv4_3_2x_0_split_0
I0702 18:14:24.234037 10683 net.cpp:434] roi_pool_org <- rois_proposal_info_0_split_0
I0702 18:14:24.234042 10683 net.cpp:408] roi_pool_org -> roi_pool_org
I0702 18:14:24.234050 10683 roi_pooling_layer.cpp:33] Spatial scale: 0.25
I0702 18:14:24.234091 10683 net.cpp:150] Setting up roi_pool_org
I0702 18:14:24.234094 10683 net.cpp:157] Top shape: 64 512 7 5 (1146880)
I0702 18:14:24.234097 10683 net.cpp:165] Memory required for data: 2612887292
I0702 18:14:24.234099 10683 layer_factory.hpp:77] Creating layer roi_pool_ctx
I0702 18:14:24.234103 10683 net.cpp:100] Creating Layer roi_pool_ctx
I0702 18:14:24.234107 10683 net.cpp:434] roi_pool_ctx <- conv4_3_2x_conv4_3_2x_0_split_1
I0702 18:14:24.234110 10683 net.cpp:434] roi_pool_ctx <- rois_proposal_info_0_split_1
I0702 18:14:24.234117 10683 net.cpp:408] roi_pool_ctx -> roi_pool_ctx
I0702 18:14:24.234122 10683 roi_pooling_layer.cpp:33] Spatial scale: 0.25
I0702 18:14:24.234159 10683 net.cpp:150] Setting up roi_pool_ctx
I0702 18:14:24.234164 10683 net.cpp:157] Top shape: 64 512 7 5 (1146880)
I0702 18:14:24.234166 10683 net.cpp:165] Memory required for data: 2617474812
I0702 18:14:24.234169 10683 layer_factory.hpp:77] Creating layer roi_pool
I0702 18:14:24.234174 10683 net.cpp:100] Creating Layer roi_pool
I0702 18:14:24.234177 10683 net.cpp:434] roi_pool <- roi_pool_org
I0702 18:14:24.234181 10683 net.cpp:434] roi_pool <- roi_pool_ctx
I0702 18:14:24.234186 10683 net.cpp:408] roi_pool -> roi_pool
I0702 18:14:24.234211 10683 net.cpp:150] Setting up roi_pool
I0702 18:14:24.234215 10683 net.cpp:157] Top shape: 64 1024 7 5 (2293760)
I0702 18:14:24.234217 10683 net.cpp:165] Memory required for data: 2626649852
I0702 18:14:24.234220 10683 layer_factory.hpp:77] Creating layer roi_c1
I0702 18:14:24.234230 10683 net.cpp:100] Creating Layer roi_c1
I0702 18:14:24.234232 10683 net.cpp:434] roi_c1 <- roi_pool
I0702 18:14:24.234237 10683 net.cpp:408] roi_c1 -> roi_c1
I0702 18:14:24.273339 10683 net.cpp:150] Setting up roi_c1
I0702 18:14:24.273355 10683 net.cpp:157] Top shape: 64 512 5 3 (491520)
I0702 18:14:24.273358 10683 net.cpp:165] Memory required for data: 2628615932
I0702 18:14:24.273365 10683 layer_factory.hpp:77] Creating layer roi_c1_relu
I0702 18:14:24.273370 10683 net.cpp:100] Creating Layer roi_c1_relu
I0702 18:14:24.273375 10683 net.cpp:434] roi_c1_relu <- roi_c1
I0702 18:14:24.273380 10683 net.cpp:395] roi_c1_relu -> roi_c1 (in-place)
I0702 18:14:24.274278 10683 net.cpp:150] Setting up roi_c1_relu
I0702 18:14:24.274289 10683 net.cpp:157] Top shape: 64 512 5 3 (491520)
I0702 18:14:24.274291 10683 net.cpp:165] Memory required for data: 2630582012
I0702 18:14:24.274294 10683 layer_factory.hpp:77] Creating layer fc6
I0702 18:14:24.274302 10683 net.cpp:100] Creating Layer fc6
I0702 18:14:24.274304 10683 net.cpp:434] fc6 <- roi_c1
I0702 18:14:24.274309 10683 net.cpp:408] fc6 -> fc6
I0702 18:14:24.395200 10683 net.cpp:150] Setting up fc6
I0702 18:14:24.395220 10683 net.cpp:157] Top shape: 64 2048 (131072)
I0702 18:14:24.395222 10683 net.cpp:165] Memory required for data: 2631106300
I0702 18:14:24.395231 10683 layer_factory.hpp:77] Creating layer relu6
I0702 18:14:24.395237 10683 net.cpp:100] Creating Layer relu6
I0702 18:14:24.395241 10683 net.cpp:434] relu6 <- fc6
I0702 18:14:24.395247 10683 net.cpp:395] relu6 -> fc6 (in-place)
I0702 18:14:24.395687 10683 net.cpp:150] Setting up relu6
I0702 18:14:24.395696 10683 net.cpp:157] Top shape: 64 2048 (131072)
I0702 18:14:24.395699 10683 net.cpp:165] Memory required for data: 2631630588
I0702 18:14:24.395701 10683 layer_factory.hpp:77] Creating layer drop6
I0702 18:14:24.395705 10683 net.cpp:100] Creating Layer drop6
I0702 18:14:24.395709 10683 net.cpp:434] drop6 <- fc6
I0702 18:14:24.395712 10683 net.cpp:395] drop6 -> fc6 (in-place)
I0702 18:14:24.395746 10683 net.cpp:150] Setting up drop6
I0702 18:14:24.395753 10683 net.cpp:157] Top shape: 64 2048 (131072)
I0702 18:14:24.395756 10683 net.cpp:165] Memory required for data: 2632154876
I0702 18:14:24.395759 10683 layer_factory.hpp:77] Creating layer fc6_drop6_0_split
I0702 18:14:24.395764 10683 net.cpp:100] Creating Layer fc6_drop6_0_split
I0702 18:14:24.395767 10683 net.cpp:434] fc6_drop6_0_split <- fc6
I0702 18:14:24.395774 10683 net.cpp:408] fc6_drop6_0_split -> fc6_drop6_0_split_0
I0702 18:14:24.395781 10683 net.cpp:408] fc6_drop6_0_split -> fc6_drop6_0_split_1
I0702 18:14:24.395836 10683 net.cpp:150] Setting up fc6_drop6_0_split
I0702 18:14:24.395841 10683 net.cpp:157] Top shape: 64 2048 (131072)
I0702 18:14:24.395845 10683 net.cpp:157] Top shape: 64 2048 (131072)
I0702 18:14:24.395848 10683 net.cpp:165] Memory required for data: 2633203452
I0702 18:14:24.395851 10683 layer_factory.hpp:77] Creating layer cls_pred
I0702 18:14:24.395859 10683 net.cpp:100] Creating Layer cls_pred
I0702 18:14:24.395862 10683 net.cpp:434] cls_pred <- fc6_drop6_0_split_0
I0702 18:14:24.395869 10683 net.cpp:408] cls_pred -> cls_pred
I0702 18:14:24.396114 10683 net.cpp:150] Setting up cls_pred
I0702 18:14:24.396121 10683 net.cpp:157] Top shape: 64 3 (192)
I0702 18:14:24.396124 10683 net.cpp:165] Memory required for data: 2633204220
I0702 18:14:24.396131 10683 layer_factory.hpp:77] Creating layer cls_pred_cls_pred_0_split
I0702 18:14:24.396136 10683 net.cpp:100] Creating Layer cls_pred_cls_pred_0_split
I0702 18:14:24.396140 10683 net.cpp:434] cls_pred_cls_pred_0_split <- cls_pred
I0702 18:14:24.396147 10683 net.cpp:408] cls_pred_cls_pred_0_split -> cls_pred_cls_pred_0_split_0
I0702 18:14:24.396154 10683 net.cpp:408] cls_pred_cls_pred_0_split -> cls_pred_cls_pred_0_split_1
I0702 18:14:24.396221 10683 net.cpp:150] Setting up cls_pred_cls_pred_0_split
I0702 18:14:24.396226 10683 net.cpp:157] Top shape: 64 3 (192)
I0702 18:14:24.396231 10683 net.cpp:157] Top shape: 64 3 (192)
I0702 18:14:24.396234 10683 net.cpp:165] Memory required for data: 2633205756
I0702 18:14:24.396236 10683 layer_factory.hpp:77] Creating layer bbox_pred
I0702 18:14:24.396242 10683 net.cpp:100] Creating Layer bbox_pred
I0702 18:14:24.396246 10683 net.cpp:434] bbox_pred <- fc6_drop6_0_split_1
I0702 18:14:24.396252 10683 net.cpp:408] bbox_pred -> bbox_pred
I0702 18:14:24.396695 10683 net.cpp:150] Setting up bbox_pred
I0702 18:14:24.396703 10683 net.cpp:157] Top shape: 64 12 (768)
I0702 18:14:24.396705 10683 net.cpp:165] Memory required for data: 2633208828
I0702 18:14:24.396711 10683 layer_factory.hpp:77] Creating layer bbox_pred_bbox_pred_0_split
I0702 18:14:24.396718 10683 net.cpp:100] Creating Layer bbox_pred_bbox_pred_0_split
I0702 18:14:24.396720 10683 net.cpp:434] bbox_pred_bbox_pred_0_split <- bbox_pred
I0702 18:14:24.396726 10683 net.cpp:408] bbox_pred_bbox_pred_0_split -> bbox_pred_bbox_pred_0_split_0
I0702 18:14:24.396733 10683 net.cpp:408] bbox_pred_bbox_pred_0_split -> bbox_pred_bbox_pred_0_split_1
I0702 18:14:24.396785 10683 net.cpp:150] Setting up bbox_pred_bbox_pred_0_split
I0702 18:14:24.396790 10683 net.cpp:157] Top shape: 64 12 (768)
I0702 18:14:24.396793 10683 net.cpp:157] Top shape: 64 12 (768)
I0702 18:14:24.396795 10683 net.cpp:165] Memory required for data: 2633214972
I0702 18:14:24.396798 10683 layer_factory.hpp:77] Creating layer loss_cls
I0702 18:14:24.396805 10683 net.cpp:100] Creating Layer loss_cls
I0702 18:14:24.396808 10683 net.cpp:434] loss_cls <- cls_pred_cls_pred_0_split_0
I0702 18:14:24.396814 10683 net.cpp:434] loss_cls <- proposal_labels_proposal_info_1_split_0
…
