…
    downsample_rate: 16
    downsample_rate: 32
    downsample_rate: 32
    downsample_rate: 64
    coord_num: 4
    field_h: 60
    field_h: 84
    field_h: 120
    field_h: 168
    field_h: 240
    field_h: 336
    field_h: 480
    field_w: 40
    field_w: 56
    field_w: 80
    field_w: 112
    field_w: 160
    field_w: 224
    field_w: 360
    fg_threshold: 0.5
    resize_width: 1920
    resize_height: 576
    crop_width: 768
    crop_height: 576
    do_multiple_scale: true
    min_scale: 60
    max_scale: 480
    min_gt_height: 30
    shuffle: true
  }
}
layer {
  name: "conv1_1"
  type: "Convolution"
  bottom: "data"
  top: "conv1_1"
  convolution_param {
    num_output: 64
    pad: 1
    kernel_size: 3
  }
}
layer {
  name: "relu1_1"
  type: "ReLU"
  bottom: "conv1_1"
  top: "conv1_1"
}
layer {
  name: "conv1_2"
  type: "Convolution"
  bottom: "conv1_1"
  top: "conv1_2"
  convolution_param {
    num_output: 64
    pad: 1
    kernel_size: 3
  }
}
layer {
  name: "relu1_2"
  type: "ReLU"
  bottom: "conv1_2"
  top: "conv1_2"
}
layer {
  name: "pool1"
  type: "Pooling"
  bottom: "conv1_2"
  top: "pool1"
  pooling_param {
    pool: MAX
    kernel_size: 2
    stride: 2
  }
}
layer {
  name: "conv2_1"
  type: "Convolution"
  bottom: "pool1"
  top: "conv2_1"
  convolution_param {
    num_output: 128
    pad: 1
    kernel_size: 3
  }
}
layer {
  name: "relu2_1"
  type: "ReLU"
  bottom: "conv2_1"
  top: "conv2_1"
}
layer {
  name: "conv2_2"
  type: "Convolution"
  bottom: "conv2_1"
  top: "conv2_2"
  convolution_param {
    num_output: 128
    pad: 1
    kernel_size: 3
  }
}
layer {
  name: "relu2_2"
  type: "ReLU"
  bottom: "conv2_2"
  top: "conv2_2"
}
layer {
  name: "pool2"
  type: "Pooling"
  bottom: "conv2_2"
  top: "pool2"
  pooling_param {
    pool: MAX
    kernel_size: 2
    stride: 2
  }
}
layer {
  name: "conv3_1"
  type: "Convolution"
  bottom: "pool2"
  top: "conv3_1"
  convolution_param {
    num_output: 256
    pad: 1
    kernel_size: 3
  }
}
layer {
  name: "relu3_1"
  type: "ReLU"
  bottom: "conv3_1"
  top: "conv3_1"
}
layer {
  name: "conv3_2"
  type: "Convolution"
  bottom: "conv3_1"
  top: "conv3_2"
  convolution_param {
    num_output: 256
    pad: 1
    kernel_size: 3
  }
}
layer {
  name: "relu3_2"
  type: "ReLU"
  bottom: "conv3_2"
  top: "conv3_2"
}
layer {
  name: "conv3_3"
  type: "Convolution"
  bottom: "conv3_2"
  top: "conv3_3"
  convolution_param {
    num_output: 256
    pad: 1
    kernel_size: 3
  }
}
layer {
  name: "relu3_3"
  type: "ReLU"
  bottom: "conv3_3"
  top: "conv3_3"
}
layer {
  name: "pool3"
  type: "Pooling"
  bottom: "conv3_3"
  top: "pool3"
  pooling_param {
    pool: MAX
    kernel_size: 2
    stride: 2
  }
}
layer {
  name: "conv4_1"
  type: "Convolution"
  bottom: "pool3"
  top: "conv4_1"
  convolution_param {
    num_output: 512
    pad: 1
    kernel_size: 3
  }
}
layer {
  name: "relu4_1"
  type: "ReLU"
  bottom: "conv4_1"
  top: "conv4_1"
}
layer {
  name: "conv4_2"
  type: "Convolution"
  bottom: "conv4_1"
  top: "conv4_2"
  convolution_param {
    num_output: 512
    pad: 1
    kernel_size: 3
  }
}
layer {
  name: "relu4_2"
  type: "ReLU"
  bottom: "conv4_2"
  top: "conv4_2"
}
layer {
  name: "conv4_3"
  type: "Convolution"
  bottom: "conv4_2"
  top: "conv4_3"
  convolution_param {
    num_output: 512
    pad: 1
    kernel_size: 3
  }
}
layer {
  name: "relu4_3"
  type: "ReLU"
  bottom: "conv4_3"
  top: "conv4_3"
}
layer {
  name: "loss1_conv1"
  type: "Convolution"
  bottom: "conv4_3"
  top: "loss1_conv1"
  param {
    lr_mult: 1
    decay_mult: 1
  }
  param {
    lr_mult: 2
    decay_mult: 0
  }
  convolution_param {
    num_output: 512
    pad: 1
    kernel_size: 3
    weight_filler {
      type: "gaussian"
      std: 0.01
    }
    bias_filler {
      type: "constant"
    }
  }
}
layer {
  name: "loss_relu1"
  type: "ReLU"
  bottom: "loss1_conv1"
  top: "loss1_conv1"
}
layer {
  name: "LFCN_1_3x5"
  type: "Convolution"
  bottom: "loss1_conv1"
  top: "LFCN_1_3x5"
  param {
    lr_mult: 1
    decay_mult: 1
  }
  param {
    lr_mult: 2
    decay_mult: 0
  }
  convolution_param {
    num_output: 7
    weight_filler {
      type: "gaussian"
      std: 0.001
    }
    bias_filler {
      type: "constant"
    }
    pad_h: 2
    pad_w: 1
    kernel_h: 5
    kernel_w: 3
  }
}
layer {
  name: "detection_loss_1_3x5"
  type: "DetectionLoss"
  bottom: "LFCN_1_3x5"
  bottom: "label_1_3x5"
  top: "loss_1_3x5"
  loss_weight: 0.9
  detection_loss_param {
    cls_num: 3
    coord_num: 4
    lambda: 0.5
    field_h: 60
    field_w: 40
    downsample_rate: 8
    bb_smooth: true
    field_whr: 2
    field_xyr: 2
    bg_threshold: 0.2
    bg_multiple: 2
    sample_mode: "random"
    pos_neg_weighted: true
  }
}
layer {
  name: "detection_accuracy_1_3x5"
  type: "DetectionAccuracy"
  bottom: "LFCN_1_3x5"
  bottom: "label_1_3x5"
  top: "accuracy_1_3x5"
  top: "boxiou_1_3x5"
  detection_accuracy_param {
    cls_num: 3
    coord_num: 4
    field_h: 60
    field_w: 40
    downsample_rate: 8
    field_whr: 2
    field_xyr: 2
  }
}
layer {
  name: "LFCN_1_5x7"
  type: "Convolution"
  bottom: "loss1_conv1"
  top: "LFCN_1_5x7"
  param {
    lr_mult: 1
    decay_mult: 1
  }
  param {
    lr_mult: 2
    decay_mult: 0
  }
  convolution_param {
    num_output: 7
    weight_filler {
      type: "gaussian"
      std: 0.001
    }
    bias_filler {
      type: "constant"
    }
    pad_h: 3
    pad_w: 2
    kernel_h: 7
    kernel_w: 5
  }
}
layer {
  name: "detection_loss_1_5x7"
  type: "DetectionLoss"
  bottom: "LFCN_1_5x7"
  bottom: "label_1_5x7"
  top: "loss_1_5x7"
  loss_weight: 0.9
  detection_loss_param {
    cls_num: 3
    coord_num: 4
    lambda: 0.5
    field_h: 84
    field_w: 56
    downsample_rate: 8
    bb_smooth: true
    field_whr: 2
    field_xyr: 2
    bg_threshold: 0.2
    bg_multiple: 2
    sample_mode: "random"
    pos_neg_weighted: true
  }
}
layer {
  name: "detection_accuracy_1_5x7"
  type: "DetectionAccuracy"
  bottom: "LFCN_1_5x7"
  bottom: "label_1_5x7"
  top: "accuracy_1_5x7"
  top: "boxiou_1_5x7"
  detection_accuracy_param {
    cls_num: 3
    coord_num: 4
    field_h: 84
    field_w: 56
    downsample_rate: 8
    field_whr: 2
    field_xyr: 2
  }
}
layer {
  name: "pool4"
  type: "Pooling"
  bottom: "conv4_3"
  top: "pool4"
  pooling_param {
    pool: MAX
    kernel_size: 2
    stride: 2
  }
}
layer {
  name: "conv5_1"
  type: "Convolution"
  bottom: "pool4"
  top: "conv5_1"
  convolution_param {
    num_output: 512
    pad: 1
    kernel_size: 3
  }
}
layer {
  name: "relu5_1"
  type: "ReLU"
  bottom: "conv5_1"
  top: "conv5_1"
}
layer {
  name: "conv5_2"
  type: "Convolution"
  bottom: "conv5_1"
  top: "conv5_2"
  convolution_param {
    num_output: 512
    pad: 1
    kernel_size: 3
  }
}
layer {
  name: "relu5_2"
  type: "ReLU"
  bottom: "conv5_2"
  top: "conv5_2"
}
layer {
  name: "conv5_3"
  type: "Convolution"
  bottom: "conv5_2"
  top: "conv5_3"
  convolution_param {
    num_output: 512
    pad: 1
    kernel_size: 3
  }
}
layer {
  name: "relu5_3"
  type: "ReLU"
  bottom: "conv5_3"
  top: "conv5_3"
}
layer {
  name: "LFCN_2_3x5"
  type: "Convolution"
  bottom: "conv5_3"
  top: "LFCN_2_3x5"
  param {
    lr_mult: 1
    decay_mult: 1
  }
  param {
    lr_mult: 2
    decay_mult: 0
  }
  convolution_param {
    num_output: 7
    weight_filler {
      type: "gaussian"
      std: 0.001
    }
    bias_filler {
      type: "constant"
    }
    pad_h: 2
    pad_w: 1
    kernel_h: 5
    kernel_w: 3
  }
}
layer {
  name: "detection_loss_2_3x5"
  type: "DetectionLoss"
  bottom: "LFCN_2_3x5"
  bottom: "label_2_3x5"
  top: "loss_2_3x5"
  detection_loss_param {
    cls_num: 3
    coord_num: 4
    lambda: 0.5
    field_h: 120
    field_w: 80
    downsample_rate: 16
    bb_smooth: true
    field_whr: 2
    field_xyr: 2
    bg_threshold: 0.2
    bg_multiple: 2
    sample_mode: "random"
    pos_neg_weighted: true
  }
}
layer {
  name: "detection_accuracy_2_3x5"
  type: "DetectionAccuracy"
  bottom: "LFCN_2_3x5"
  bottom: "label_2_3x5"
  top: "accuracy_2_3x5"
  top: "boxiou_2_3x5"
  detection_accuracy_param {
    cls_num: 3
    coord_num: 4
    field_h: 120
    field_w: 80
    downsample_rate: 16
    field_whr: 2
    field_xyr: 2
  }
}
layer {
  name: "LFCN_2_5x7"
  type: "Convolution"
  bottom: "conv5_3"
  top: "LFCN_2_5x7"
  param {
    lr_mult: 1
    decay_mult: 1
  }
  param {
    lr_mult: 2
    decay_mult: 0
  }
  convolution_param {
    num_output: 7
    weight_filler {
      type: "gaussian"
      std: 0.001
    }
    bias_filler {
      type: "constant"
    }
    pad_h: 3
    pad_w: 2
    kernel_h: 7
    kernel_w: 5
  }
}
layer {
  name: "detection_loss_2_5x7"
  type: "DetectionLoss"
  bottom: "LFCN_2_5x7"
  bottom: "label_2_5x7"
  top: "loss_2_5x7"
  detection_loss_param {
    cls_num: 3
    coord_num: 4
    lambda: 0.5
    field_h: 168
    field_w: 112
    downsample_rate: 16
    bb_smooth: true
    field_whr: 2
    field_xyr: 2
    bg_threshold: 0.2
    bg_multiple: 2
    sample_mode: "random"
    pos_neg_weighted: true
  }
}
layer {
  name: "detection_accuracy_2_5x7"
  type: "DetectionAccuracy"
  bottom: "LFCN_2_5x7"
  bottom: "label_2_5x7"
  top: "accuracy_2_5x7"
  top: "boxiou_2_5x7"
  detection_accuracy_param {
    cls_num: 3
    coord_num: 4
    field_h: 168
    field_w: 112
    downsample_rate: 16
    field_whr: 2
    field_xyr: 2
  }
}
layer {
  name: "pool5"
  type: "Pooling"
  bottom: "conv5_3"
  top: "pool5"
  pooling_param {
    pool: MAX
    kernel_size: 2
    stride: 2
  }
}
layer {
  name: "conv6_1"
  type: "Convolution"
  bottom: "pool5"
  top: "conv6_1"
  param {
    lr_mult: 1
    decay_mult: 1
  }
  param {
    lr_mult: 2
    decay_mult: 0
  }
  convolution_param {
    num_output: 512
    pad: 1
    kernel_size: 3
    weight_filler {
      type: "gaussian"
      std: 0.01
    }
    bias_filler {
      type: "constant"
    }
  }
}
layer {
  name: "relu6_1"
  type: "ReLU"
  bottom: "conv6_1"
  top: "conv6_1"
}
layer {
  name: "LFCN_3_3x5"
  type: "Convolution"
  bottom: "conv6_1"
  top: "LFCN_3_3x5"
  param {
    lr_mult: 1
    decay_mult: 1
  }
  param {
    lr_mult: 2
    decay_mult: 0
  }
  convolution_param {
    num_output: 7
    weight_filler {
      type: "gaussian"
      std: 0.001
    }
    bias_filler {
      type: "constant"
    }
    pad_h: 2
    pad_w: 1
    kernel_h: 5
    kernel_w: 3
  }
}
layer {
  name: "detection_loss_3_3x5"
  type: "DetectionLoss"
  bottom: "LFCN_3_3x5"
  bottom: "label_3_3x5"
  top: "loss_3_3x5"
  detection_loss_param {
    cls_num: 3
    coord_num: 4
    lambda: 0.5
    field_h: 240
    field_w: 160
    downsample_rate: 32
    bb_smooth: true
    field_whr: 2
    field_xyr: 2
    bg_threshold: 0.2
    bg_multiple: 2
    sample_mode: "random"
    pos_neg_weighted: true
  }
}
layer {
  name: "detection_accuracy_3_3x5"
  type: "DetectionAccuracy"
  bottom: "LFCN_3_3x5"
  bottom: "label_3_3x5"
  top: "accuracy_3_3x5"
  top: "boxiou_3_3x5"
  detection_accuracy_param {
    cls_num: 3
    coord_num: 4
    field_h: 240
    field_w: 160
    downsample_rate: 32
    field_whr: 2
    field_xyr: 2
  }
}
layer {
  name: "LFCN_3_5x7"
  type: "Convolution"
  bottom: "conv6_1"
  top: "LFCN_3_5x7"
  param {
    lr_mult: 1
    decay_mult: 1
  }
  param {
    lr_mult: 2
    decay_mult: 0
  }
  convolution_param {
    num_output: 7
    weight_filler {
      type: "gaussian"
      std: 0.001
    }
    bias_filler {
      type: "constant"
    }
    pad_h: 3
    pad_w: 2
    kernel_h: 7
    kernel_w: 5
  }
}
layer {
  name: "detection_loss_3_5x7"
  type: "DetectionLoss"
  bottom: "LFCN_3_5x7"
  bottom: "label_3_5x7"
  top: "loss_3_5x7"
  detection_loss_param {
    cls_num: 3
    coord_num: 4
    lambda: 0.5
    field_h: 336
    field_w: 224
    downsample_rate: 32
    bb_smooth: true
    field_whr: 2
    field_xyr: 2
    bg_threshold: 0.2
    bg_multiple: 2
    sample_mode: "random"
    pos_neg_weighted: true
  }
}
layer {
  name: "detection_accuracy_3_5x7"
  type: "DetectionAccuracy"
  bottom: "LFCN_3_5x7"
  bottom: "label_3_5x7"
  top: "accuracy_3_5x7"
  top: "boxiou_3_5x7"
  detection_accuracy_param {
    cls_num: 3
    coord_num: 4
    field_h: 336
    field_w: 224
    downsample_rate: 32
    field_whr: 2
    field_xyr: 2
  }
}
layer {
  name: "pool6"
  type: "Pooling"
  bottom: "conv6_1"
  top: "pool6"
  pooling_param {
    pool: MAX
    kernel_size: 2
    stride: 2
  }
}
layer {
  name: "LFCN_4_3x5"
  type: "Convolution"
  bottom: "pool6"
  top: "LFCN_4_3x5"
  param {
    lr_mult: 1
    decay_mult: 1
  }
  param {
    lr_mult: 2
    decay_mult: 0
  }
  convolution_param {
    num_output: 7
    weight_filler {
      type: "gaussian"
      std: 0.001
    }
    bias_filler {
      type: "constant"
    }
    pad_h: 2
    pad_w: 1
    kernel_h: 5
    kernel_w: 3
  }
}
layer {
  name: "detection_loss_4_3x5"
  type: "DetectionLoss"
  bottom: "LFCN_4_3x5"
  bottom: "label_4_3x5"
  top: "loss_4_3x5"
  detection_loss_param {
    cls_num: 3
    coord_num: 4
    lambda: 0.5
    field_h: 480
    field_w: 360
    downsample_rate: 64
    bb_smooth: true
    field_whr: 2
    field_xyr: 2
    bg_threshold: 0.2
    bg_multiple: 2
    sample_mode: "random"
    pos_neg_weighted: true
  }
}
layer {
  name: "detection_accuracy_4_3x5"
  type: "DetectionAccuracy"
  bottom: "LFCN_4_3x5"
  bottom: "label_4_3x5"
  top: "accuracy_4_3x5"
  top: "boxiou_4_3x5"
  detection_accuracy_param {
    cls_num: 3
    coord_num: 4
    field_h: 480
    field_w: 360
    downsample_rate: 64
    field_whr: 2
    field_xyr: 2
  }
}
I0702 09:28:49.588491  9396 layer_factory.hpp:77] Creating layer data
I0702 09:28:49.588518  9396 net.cpp:100] Creating Layer data
I0702 09:28:49.588526  9396 net.cpp:408] data -> data
…
I0702 09:28:49.610036  9396 image_gt_data_layer.cpp:241] output label size 2 : 4,6,36,48
I0702 09:28:49.610076  9396 image_gt_data_layer.cpp:241] output label size 3 : 4,6,36,48
I0702 09:28:49.610117  9396 image_gt_data_layer.cpp:241] output label size 4 : 4,6,18,24
I0702 09:28:49.610149  9396 image_gt_data_layer.cpp:241] output label size 5 : 4,6,18,24
I0702 09:28:49.610188  9396 image_gt_data_layer.cpp:241] output label size 6 : 4,6,9,12
I0702 09:28:49.610193  9396 image_gt_data_layer.cpp:265]  --> has_mean_values_ = 1
I0702 09:28:49.648319  9396 net.cpp:150] Setting up data
I0702 09:28:49.648336  9396 net.cpp:157] Top shape: 4 4 576 768 (7077888)
I0702 09:28:49.648340  9396 net.cpp:157] Top shape: 4 6 72 96 (165888)
I0702 09:28:49.648344  9396 net.cpp:157] Top shape: 4 6 72 96 (165888)
I0702 09:28:49.648345  9396 net.cpp:157] Top shape: 4 6 36 48 (41472)
I0702 09:28:49.648349  9396 net.cpp:157] Top shape: 4 6 36 48 (41472)
I0702 09:28:49.648351  9396 net.cpp:157] Top shape: 4 6 18 24 (10368)
I0702 09:28:49.648355  9396 net.cpp:157] Top shape: 4 6 18 24 (10368)
I0702 09:28:49.648358  9396 net.cpp:157] Top shape: 4 6 9 12 (2592)
I0702 09:28:49.648361  9396 net.cpp:165] Memory required for data: 30063744
I0702 09:28:49.648368  9396 layer_factory.hpp:77] Creating layer label_1_3x5_data_1_split
I0702 09:28:49.648378  9396 net.cpp:100] Creating Layer label_1_3x5_data_1_split
I0702 09:28:49.648383  9396 net.cpp:434] label_1_3x5_data_1_split <- label_1_3x5
I0702 09:28:49.648396  9396 net.cpp:408] label_1_3x5_data_1_split -> label_1_3x5_data_1_split_0
I0702 09:28:49.648406  9396 net.cpp:408] label_1_3x5_data_1_split -> label_1_3x5_data_1_split_1
I0702 09:28:49.648481  9396 net.cpp:150] Setting up label_1_3x5_data_1_split
I0702 09:28:49.648489  9396 net.cpp:157] Top shape: 4 6 72 96 (165888)
I0702 09:28:49.648494  9396 net.cpp:157] Top shape: 4 6 72 96 (165888)
I0702 09:28:49.648496  9396 net.cpp:165] Memory required for data: 31390848
I0702 09:28:49.648499  9396 layer_factory.hpp:77] Creating layer label_1_5x7_data_2_split
I0702 09:28:49.648505  9396 net.cpp:100] Creating Layer label_1_5x7_data_2_split
I0702 09:28:49.648509  9396 net.cpp:434] label_1_5x7_data_2_split <- label_1_5x7
I0702 09:28:49.648517  9396 net.cpp:408] label_1_5x7_data_2_split -> label_1_5x7_data_2_split_0
I0702 09:28:49.648524  9396 net.cpp:408] label_1_5x7_data_2_split -> label_1_5x7_data_2_split_1
I0702 09:28:49.648556  9396 net.cpp:150] Setting up label_1_5x7_data_2_split
I0702 09:28:49.648561  9396 net.cpp:157] Top shape: 4 6 72 96 (165888)
I0702 09:28:49.648566  9396 net.cpp:157] Top shape: 4 6 72 96 (165888)
I0702 09:28:49.648568  9396 net.cpp:165] Memory required for data: 32717952
I0702 09:28:49.648571  9396 layer_factory.hpp:77] Creating layer label_2_3x5_data_3_split
I0702 09:28:49.648576  9396 net.cpp:100] Creating Layer label_2_3x5_data_3_split
I0702 09:28:49.648579  9396 net.cpp:434] label_2_3x5_data_3_split <- label_2_3x5
I0702 09:28:49.648586  9396 net.cpp:408] label_2_3x5_data_3_split -> label_2_3x5_data_3_split_0
I0702 09:28:49.648591  9396 net.cpp:408] label_2_3x5_data_3_split -> label_2_3x5_data_3_split_1
I0702 09:28:49.648622  9396 net.cpp:150] Setting up label_2_3x5_data_3_split
I0702 09:28:49.648627  9396 net.cpp:157] Top shape: 4 6 36 48 (41472)
I0702 09:28:49.648632  9396 net.cpp:157] Top shape: 4 6 36 48 (41472)
I0702 09:28:49.648634  9396 net.cpp:165] Memory required for data: 33049728
I0702 09:28:49.648638  9396 layer_factory.hpp:77] Creating layer label_2_5x7_data_4_split
I0702 09:28:49.648643  9396 net.cpp:100] Creating Layer label_2_5x7_data_4_split
I0702 09:28:49.648646  9396 net.cpp:434] label_2_5x7_data_4_split <- label_2_5x7
I0702 09:28:49.648653  9396 net.cpp:408] label_2_5x7_data_4_split -> label_2_5x7_data_4_split_0
I0702 09:28:49.648658  9396 net.cpp:408] label_2_5x7_data_4_split -> label_2_5x7_data_4_split_1
I0702 09:28:49.648687  9396 net.cpp:150] Setting up label_2_5x7_data_4_split
I0702 09:28:49.648694  9396 net.cpp:157] Top shape: 4 6 36 48 (41472)
I0702 09:28:49.648697  9396 net.cpp:157] Top shape: 4 6 36 48 (41472)
I0702 09:28:49.648699  9396 net.cpp:165] Memory required for data: 33381504
I0702 09:28:49.648702  9396 layer_factory.hpp:77] Creating layer label_3_3x5_data_5_split
I0702 09:28:49.648706  9396 net.cpp:100] Creating Layer label_3_3x5_data_5_split
I0702 09:28:49.648710  9396 net.cpp:434] label_3_3x5_data_5_split <- label_3_3x5
I0702 09:28:49.648715  9396 net.cpp:408] label_3_3x5_data_5_split -> label_3_3x5_data_5_split_0
I0702 09:28:49.648725  9396 net.cpp:408] label_3_3x5_data_5_split -> label_3_3x5_data_5_split_1
I0702 09:28:49.648751  9396 net.cpp:150] Setting up label_3_3x5_data_5_split
I0702 09:28:49.648757  9396 net.cpp:157] Top shape: 4 6 18 24 (10368)
I0702 09:28:49.648761  9396 net.cpp:157] Top shape: 4 6 18 24 (10368)
I0702 09:28:49.648764  9396 net.cpp:165] Memory required for data: 33464448
I0702 09:28:49.648767  9396 layer_factory.hpp:77] Creating layer label_3_5x7_data_6_split
I0702 09:28:49.648773  9396 net.cpp:100] Creating Layer label_3_5x7_data_6_split
I0702 09:28:49.648777  9396 net.cpp:434] label_3_5x7_data_6_split <- label_3_5x7
I0702 09:28:49.648780  9396 net.cpp:408] label_3_5x7_data_6_split -> label_3_5x7_data_6_split_0
I0702 09:28:49.648787  9396 net.cpp:408] label_3_5x7_data_6_split -> label_3_5x7_data_6_split_1
I0702 09:28:49.648838  9396 net.cpp:150] Setting up label_3_5x7_data_6_split
I0702 09:28:49.648845  9396 net.cpp:157] Top shape: 4 6 18 24 (10368)
I0702 09:28:49.648849  9396 net.cpp:157] Top shape: 4 6 18 24 (10368)
I0702 09:28:49.648851  9396 net.cpp:165] Memory required for data: 33547392
I0702 09:28:49.648854  9396 layer_factory.hpp:77] Creating layer label_4_3x5_data_7_split
I0702 09:28:49.648859  9396 net.cpp:100] Creating Layer label_4_3x5_data_7_split
I0702 09:28:49.648862  9396 net.cpp:434] label_4_3x5_data_7_split <- label_4_3x5
I0702 09:28:49.648867  9396 net.cpp:408] label_4_3x5_data_7_split -> label_4_3x5_data_7_split_0
I0702 09:28:49.648872  9396 net.cpp:408] label_4_3x5_data_7_split -> label_4_3x5_data_7_split_1
I0702 09:28:49.651156  9396 net.cpp:150] Setting up label_4_3x5_data_7_split
I0702 09:28:49.651178  9396 net.cpp:157] Top shape: 4 6 9 12 (2592)
I0702 09:28:49.651180  9396 net.cpp:157] Top shape: 4 6 9 12 (2592)
I0702 09:28:49.651183  9396 net.cpp:165] Memory required for data: 33568128
I0702 09:28:49.651188  9396 layer_factory.hpp:77] Creating layer conv1_1
I0702 09:28:49.651229  9396 net.cpp:100] Creating Layer conv1_1
I0702 09:28:49.651235  9396 net.cpp:434] conv1_1 <- data
I0702 09:28:49.651245  9396 net.cpp:408] conv1_1 -> conv1_1
I0702 09:28:50.194229  9396 net.cpp:150] Setting up conv1_1
I0702 09:28:50.194250  9396 net.cpp:157] Top shape: 4 64 576 768 (113246208)
I0702 09:28:50.194252  9396 net.cpp:165] Memory required for data: 486552960
I0702 09:28:50.194268  9396 layer_factory.hpp:77] Creating layer relu1_1
I0702 09:28:50.194277  9396 net.cpp:100] Creating Layer relu1_1
I0702 09:28:50.194280  9396 net.cpp:434] relu1_1 <- conv1_1
I0702 09:28:50.194285  9396 net.cpp:395] relu1_1 -> conv1_1 (in-place)
I0702 09:28:50.194608  9396 net.cpp:150] Setting up relu1_1
I0702 09:28:50.194617  9396 net.cpp:157] Top shape: 4 64 576 768 (113246208)
I0702 09:28:50.194619  9396 net.cpp:165] Memory required for data: 939537792
I0702 09:28:50.194622  9396 layer_factory.hpp:77] Creating layer conv1_2
I0702 09:28:50.194628  9396 net.cpp:100] Creating Layer conv1_2
I0702 09:28:50.194630  9396 net.cpp:434] conv1_2 <- conv1_1
I0702 09:28:50.194633  9396 net.cpp:408] conv1_2 -> conv1_2
I0702 09:28:50.197548  9396 net.cpp:150] Setting up conv1_2
I0702 09:28:50.197568  9396 net.cpp:157] Top shape: 4 64 576 768 (113246208)
I0702 09:28:50.197571  9396 net.cpp:165] Memory required for data: 1392522624
I0702 09:28:50.197582  9396 layer_factory.hpp:77] Creating layer relu1_2
I0702 09:28:50.197588  9396 net.cpp:100] Creating Layer relu1_2
I0702 09:28:50.197592  9396 net.cpp:434] relu1_2 <- conv1_2
I0702 09:28:50.197597  9396 net.cpp:395] relu1_2 -> conv1_2 (in-place)
I0702 09:28:50.197880  9396 net.cpp:150] Setting up relu1_2
I0702 09:28:50.197886  9396 net.cpp:157] Top shape: 4 64 576 768 (113246208)
I0702 09:28:50.197890  9396 net.cpp:165] Memory required for data: 1845507456
I0702 09:28:50.197891  9396 layer_factory.hpp:77] Creating layer pool1
I0702 09:28:50.197896  9396 net.cpp:100] Creating Layer pool1
I0702 09:28:50.197898  9396 net.cpp:434] pool1 <- conv1_2
I0702 09:28:50.197901  9396 net.cpp:408] pool1 -> pool1
I0702 09:28:50.197954  9396 net.cpp:150] Setting up pool1
I0702 09:28:50.197959  9396 net.cpp:157] Top shape: 4 64 288 384 (28311552)
I0702 09:28:50.197962  9396 net.cpp:165] Memory required for data: 1958753664
I0702 09:28:50.197963  9396 layer_factory.hpp:77] Creating layer conv2_1
I0702 09:28:50.197971  9396 net.cpp:100] Creating Layer conv2_1
I0702 09:28:50.197975  9396 net.cpp:434] conv2_1 <- pool1
I0702 09:28:50.197978  9396 net.cpp:408] conv2_1 -> conv2_1
I0702 09:28:50.200409  9396 net.cpp:150] Setting up conv2_1
I0702 09:28:50.200428  9396 net.cpp:157] Top shape: 4 128 288 384 (56623104)
I0702 09:28:50.200430  9396 net.cpp:165] Memory required for data: 2185246080
I0702 09:28:50.200440  9396 layer_factory.hpp:77] Creating layer relu2_1
I0702 09:28:50.200446  9396 net.cpp:100] Creating Layer relu2_1
I0702 09:28:50.200451  9396 net.cpp:434] relu2_1 <- conv2_1
I0702 09:28:50.200456  9396 net.cpp:395] relu2_1 -> conv2_1 (in-place)
I0702 09:28:50.201086  9396 net.cpp:150] Setting up relu2_1
I0702 09:28:50.201095  9396 net.cpp:157] Top shape: 4 128 288 384 (56623104)
I0702 09:28:50.201097  9396 net.cpp:165] Memory required for data: 2411738496
I0702 09:28:50.201100  9396 layer_factory.hpp:77] Creating layer conv2_2
I0702 09:28:50.201107  9396 net.cpp:100] Creating Layer conv2_2
I0702 09:28:50.201109  9396 net.cpp:434] conv2_2 <- conv2_1
I0702 09:28:50.201112  9396 net.cpp:408] conv2_2 -> conv2_2
I0702 09:28:50.202786  9396 net.cpp:150] Setting up conv2_2
I0702 09:28:50.202800  9396 net.cpp:157] Top shape: 4 128 288 384 (56623104)
I0702 09:28:50.202802  9396 net.cpp:165] Memory required for data: 2638230912
I0702 09:28:50.202808  9396 layer_factory.hpp:77] Creating layer relu2_2
I0702 09:28:50.202816  9396 net.cpp:100] Creating Layer relu2_2
I0702 09:28:50.202819  9396 net.cpp:434] relu2_2 <- conv2_2
I0702 09:28:50.202823  9396 net.cpp:395] relu2_2 -> conv2_2 (in-place)
I0702 09:28:50.203402  9396 net.cpp:150] Setting up relu2_2
I0702 09:28:50.203410  9396 net.cpp:157] Top shape: 4 128 288 384 (56623104)
I0702 09:28:50.203413  9396 net.cpp:165] Memory required for data: 2864723328
I0702 09:28:50.203415  9396 layer_factory.hpp:77] Creating layer pool2
I0702 09:28:50.203420  9396 net.cpp:100] Creating Layer pool2
I0702 09:28:50.203423  9396 net.cpp:434] pool2 <- conv2_2
I0702 09:28:50.203426  9396 net.cpp:408] pool2 -> pool2
I0702 09:28:50.203464  9396 net.cpp:150] Setting up pool2
I0702 09:28:50.203469  9396 net.cpp:157] Top shape: 4 128 144 192 (14155776)
I0702 09:28:50.203470  9396 net.cpp:165] Memory required for data: 2921346432
I0702 09:28:50.203472  9396 layer_factory.hpp:77] Creating layer conv3_1
I0702 09:28:50.203480  9396 net.cpp:100] Creating Layer conv3_1
I0702 09:28:50.203483  9396 net.cpp:434] conv3_1 <- pool2
I0702 09:28:50.203487  9396 net.cpp:408] conv3_1 -> conv3_1
I0702 09:28:50.206115  9396 net.cpp:150] Setting up conv3_1
I0702 09:28:50.206132  9396 net.cpp:157] Top shape: 4 256 144 192 (28311552)
I0702 09:28:50.206135  9396 net.cpp:165] Memory required for data: 3034592640
I0702 09:28:50.206146  9396 layer_factory.hpp:77] Creating layer relu3_1
I0702 09:28:50.206151  9396 net.cpp:100] Creating Layer relu3_1
I0702 09:28:50.206154  9396 net.cpp:434] relu3_1 <- conv3_1
I0702 09:28:50.206159  9396 net.cpp:395] relu3_1 -> conv3_1 (in-place)
I0702 09:28:50.206403  9396 net.cpp:150] Setting up relu3_1
I0702 09:28:50.206409  9396 net.cpp:157] Top shape: 4 256 144 192 (28311552)
I0702 09:28:50.206411  9396 net.cpp:165] Memory required for data: 3147838848
I0702 09:28:50.206413  9396 layer_factory.hpp:77] Creating layer conv3_2
I0702 09:28:50.206419  9396 net.cpp:100] Creating Layer conv3_2
I0702 09:28:50.206421  9396 net.cpp:434] conv3_2 <- conv3_1
I0702 09:28:50.206424  9396 net.cpp:408] conv3_2 -> conv3_2
I0702 09:28:50.209808  9396 net.cpp:150] Setting up conv3_2
I0702 09:28:50.209826  9396 net.cpp:157] Top shape: 4 256 144 192 (28311552)
I0702 09:28:50.209830  9396 net.cpp:165] Memory required for data: 3261085056
I0702 09:28:50.209836  9396 layer_factory.hpp:77] Creating layer relu3_2
I0702 09:28:50.209843  9396 net.cpp:100] Creating Layer relu3_2
I0702 09:28:50.209846  9396 net.cpp:434] relu3_2 <- conv3_2
I0702 09:28:50.209851  9396 net.cpp:395] relu3_2 -> conv3_2 (in-place)
I0702 09:28:50.210085  9396 net.cpp:150] Setting up relu3_2
I0702 09:28:50.210091  9396 net.cpp:157] Top shape: 4 256 144 192 (28311552)
I0702 09:28:50.210093  9396 net.cpp:165] Memory required for data: 3374331264
I0702 09:28:50.210096  9396 layer_factory.hpp:77] Creating layer conv3_3
I0702 09:28:50.210101  9396 net.cpp:100] Creating Layer conv3_3
I0702 09:28:50.210104  9396 net.cpp:434] conv3_3 <- conv3_2
I0702 09:28:50.210108  9396 net.cpp:408] conv3_3 -> conv3_3
I0702 09:28:50.212985  9396 net.cpp:150] Setting up conv3_3
I0702 09:28:50.213006  9396 net.cpp:157] Top shape: 4 256 144 192 (28311552)
I0702 09:28:50.213007  9396 net.cpp:165] Memory required for data: 3487577472
I0702 09:28:50.213014  9396 layer_factory.hpp:77] Creating layer relu3_3
I0702 09:28:50.213021  9396 net.cpp:100] Creating Layer relu3_3
I0702 09:28:50.213023  9396 net.cpp:434] relu3_3 <- conv3_3
I0702 09:28:50.213028  9396 net.cpp:395] relu3_3 -> conv3_3 (in-place)
I0702 09:28:50.213625  9396 net.cpp:150] Setting up relu3_3
I0702 09:28:50.213635  9396 net.cpp:157] Top shape: 4 256 144 192 (28311552)
I0702 09:28:50.213637  9396 net.cpp:165] Memory required for data: 3600823680
I0702 09:28:50.213640  9396 layer_factory.hpp:77] Creating layer pool3
I0702 09:28:50.213645  9396 net.cpp:100] Creating Layer pool3
I0702 09:28:50.213647  9396 net.cpp:434] pool3 <- conv3_3
I0702 09:28:50.213651  9396 net.cpp:408] pool3 -> pool3
I0702 09:28:50.213690  9396 net.cpp:150] Setting up pool3
I0702 09:28:50.213693  9396 net.cpp:157] Top shape: 4 256 72 96 (7077888)
I0702 09:28:50.213696  9396 net.cpp:165] Memory required for data: 3629135232
I0702 09:28:50.213697  9396 layer_factory.hpp:77] Creating layer conv4_1
I0702 09:28:50.213706  9396 net.cpp:100] Creating Layer conv4_1
I0702 09:28:50.213709  9396 net.cpp:434] conv4_1 <- pool3
I0702 09:28:50.213713  9396 net.cpp:408] conv4_1 -> conv4_1
I0702 09:28:50.218400  9396 net.cpp:150] Setting up conv4_1
I0702 09:28:50.218418  9396 net.cpp:157] Top shape: 4 512 72 96 (14155776)
I0702 09:28:50.218421  9396 net.cpp:165] Memory required for data: 3685758336
I0702 09:28:50.218428  9396 layer_factory.hpp:77] Creating layer relu4_1
I0702 09:28:50.218435  9396 net.cpp:100] Creating Layer relu4_1
I0702 09:28:50.218437  9396 net.cpp:434] relu4_1 <- conv4_1
I0702 09:28:50.218442  9396 net.cpp:395] relu4_1 -> conv4_1 (in-place)
I0702 09:28:50.218678  9396 net.cpp:150] Setting up relu4_1
I0702 09:28:50.218684  9396 net.cpp:157] Top shape: 4 512 72 96 (14155776)
I0702 09:28:50.218686  9396 net.cpp:165] Memory required for data: 3742381440
I0702 09:28:50.218689  9396 layer_factory.hpp:77] Creating layer conv4_2
I0702 09:28:50.218694  9396 net.cpp:100] Creating Layer conv4_2
I0702 09:28:50.218696  9396 net.cpp:434] conv4_2 <- conv4_1
I0702 09:28:50.218700  9396 net.cpp:408] conv4_2 -> conv4_2
I0702 09:28:50.224373  9396 net.cpp:150] Setting up conv4_2
I0702 09:28:50.224392  9396 net.cpp:157] Top shape: 4 512 72 96 (14155776)
I0702 09:28:50.224395  9396 net.cpp:165] Memory required for data: 3799004544
I0702 09:28:50.224406  9396 layer_factory.hpp:77] Creating layer relu4_2
I0702 09:28:50.224412  9396 net.cpp:100] Creating Layer relu4_2
I0702 09:28:50.224416  9396 net.cpp:434] relu4_2 <- conv4_2
I0702 09:28:50.224421  9396 net.cpp:395] relu4_2 -> conv4_2 (in-place)
I0702 09:28:50.224645  9396 net.cpp:150] Setting up relu4_2
I0702 09:28:50.224653  9396 net.cpp:157] Top shape: 4 512 72 96 (14155776)
I0702 09:28:50.224654  9396 net.cpp:165] Memory required for data: 3855627648
I0702 09:28:50.224656  9396 layer_factory.hpp:77] Creating layer conv4_3
I0702 09:28:50.224663  9396 net.cpp:100] Creating Layer conv4_3
I0702 09:28:50.224665  9396 net.cpp:434] conv4_3 <- conv4_2
I0702 09:28:50.224668  9396 net.cpp:408] conv4_3 -> conv4_3
I0702 09:28:50.230074  9396 net.cpp:150] Setting up conv4_3
I0702 09:28:50.230094  9396 net.cpp:157] Top shape: 4 512 72 96 (14155776)
I0702 09:28:50.230096  9396 net.cpp:165] Memory required for data: 3912250752
I0702 09:28:50.230103  9396 layer_factory.hpp:77] Creating layer relu4_3
I0702 09:28:50.230109  9396 net.cpp:100] Creating Layer relu4_3
I0702 09:28:50.230113  9396 net.cpp:434] relu4_3 <- conv4_3
I0702 09:28:50.230118  9396 net.cpp:395] relu4_3 -> conv4_3 (in-place)
I0702 09:28:50.230756  9396 net.cpp:150] Setting up relu4_3
I0702 09:28:50.230765  9396 net.cpp:157] Top shape: 4 512 72 96 (14155776)
I0702 09:28:50.230767  9396 net.cpp:165] Memory required for data: 3968873856
I0702 09:28:50.230770  9396 layer_factory.hpp:77] Creating layer conv4_3_relu4_3_0_split
I0702 09:28:50.230774  9396 net.cpp:100] Creating Layer conv4_3_relu4_3_0_split
I0702 09:28:50.230777  9396 net.cpp:434] conv4_3_relu4_3_0_split <- conv4_3
I0702 09:28:50.230780  9396 net.cpp:408] conv4_3_relu4_3_0_split -> conv4_3_relu4_3_0_split_0
I0702 09:28:50.230785  9396 net.cpp:408] conv4_3_relu4_3_0_split -> conv4_3_relu4_3_0_split_1
I0702 09:28:50.230821  9396 net.cpp:150] Setting up conv4_3_relu4_3_0_split
I0702 09:28:50.230826  9396 net.cpp:157] Top shape: 4 512 72 96 (14155776)
I0702 09:28:50.230829  9396 net.cpp:157] Top shape: 4 512 72 96 (14155776)
I0702 09:28:50.230831  9396 net.cpp:165] Memory required for data: 4082120064
I0702 09:28:50.230834  9396 layer_factory.hpp:77] Creating layer loss1_conv1
I0702 09:28:50.230847  9396 net.cpp:100] Creating Layer loss1_conv1
I0702 09:28:50.230850  9396 net.cpp:434] loss1_conv1 <- conv4_3_relu4_3_0_split_0
I0702 09:28:50.230855  9396 net.cpp:408] loss1_conv1 -> loss1_conv1
I0702 09:28:50.264624  9396 net.cpp:150] Setting up loss1_conv1
I0702 09:28:50.264643  9396 net.cpp:157] Top shape: 4 512 72 96 (14155776)
I0702 09:28:50.264645  9396 net.cpp:165] Memory required for data: 4138743168
I0702 09:28:50.264653  9396 layer_factory.hpp:77] Creating layer loss_relu1
I0702 09:28:50.264664  9396 net.cpp:100] Creating Layer loss_relu1
I0702 09:28:50.264670  9396 net.cpp:434] loss_relu1 <- loss1_conv1
I0702 09:28:50.264677  9396 net.cpp:395] loss_relu1 -> loss1_conv1 (in-place)
I0702 09:28:50.264896  9396 net.cpp:150] Setting up loss_relu1
I0702 09:28:50.264902  9396 net.cpp:157] Top shape: 4 512 72 96 (14155776)
I0702 09:28:50.264904  9396 net.cpp:165] Memory required for data: 4195366272
I0702 09:28:50.264906  9396 layer_factory.hpp:77] Creating layer loss1_conv1_loss_relu1_0_split
I0702 09:28:50.264909  9396 net.cpp:100] Creating Layer loss1_conv1_loss_relu1_0_split
I0702 09:28:50.264912  9396 net.cpp:434] loss1_conv1_loss_relu1_0_split <- loss1_conv1
I0702 09:28:50.264915  9396 net.cpp:408] loss1_conv1_loss_relu1_0_split -> loss1_conv1_loss_relu1_0_split_0
I0702 09:28:50.264920  9396 net.cpp:408] loss1_conv1_loss_relu1_0_split -> loss1_conv1_loss_relu1_0_split_1
I0702 09:28:50.264955  9396 net.cpp:150] Setting up loss1_conv1_loss_relu1_0_split
I0702 09:28:50.264961  9396 net.cpp:157] Top shape: 4 512 72 96 (14155776)
I0702 09:28:50.264962  9396 net.cpp:157] Top shape: 4 512 72 96 (14155776)
I0702 09:28:50.264964  9396 net.cpp:165] Memory required for data: 4308612480
I0702 09:28:50.264967  9396 layer_factory.hpp:77] Creating layer LFCN_1_3x5
I0702 09:28:50.264976  9396 net.cpp:100] Creating Layer LFCN_1_3x5
I0702 09:28:50.264979  9396 net.cpp:434] LFCN_1_3x5 <- loss1_conv1_loss_relu1_0_split_0
I0702 09:28:50.264984  9396 net.cpp:408] LFCN_1_3x5 -> LFCN_1_3x5
I0702 09:28:50.267035  9396 net.cpp:150] Setting up LFCN_1_3x5
I0702 09:28:50.267046  9396 net.cpp:157] Top shape: 4 7 72 96 (193536)
I0702 09:28:50.267050  9396 net.cpp:165] Memory required for data: 4309386624
I0702 09:28:50.267055  9396 layer_factory.hpp:77] Creating layer LFCN_1_3x5_LFCN_1_3x5_0_split
I0702 09:28:50.267060  9396 net.cpp:100] Creating Layer LFCN_1_3x5_LFCN_1_3x5_0_split
I0702 09:28:50.267062  9396 net.cpp:434] LFCN_1_3x5_LFCN_1_3x5_0_split <- LFCN_1_3x5
I0702 09:28:50.267066  9396 net.cpp:408] LFCN_1_3x5_LFCN_1_3x5_0_split -> LFCN_1_3x5_LFCN_1_3x5_0_split_0
I0702 09:28:50.267071  9396 net.cpp:408] LFCN_1_3x5_LFCN_1_3x5_0_split -> LFCN_1_3x5_LFCN_1_3x5_0_split_1
I0702 09:28:50.267107  9396 net.cpp:150] Setting up LFCN_1_3x5_LFCN_1_3x5_0_split
I0702 09:28:50.267112  9396 net.cpp:157] Top shape: 4 7 72 96 (193536)
I0702 09:28:50.267113  9396 net.cpp:157] Top shape: 4 7 72 96 (193536)
I0702 09:28:50.267115  9396 net.cpp:165] Memory required for data: 4310934912
I0702 09:28:50.267119  9396 layer_factory.hpp:77] Creating layer detection_loss_1_3x5
I0702 09:28:50.267127  9396 net.cpp:100] Creating Layer detection_loss_1_3x5
I0702 09:28:50.267132  9396 net.cpp:434] detection_loss_1_3x5 <- LFCN_1_3x5_LFCN_1_3x5_0_split_0
I0702 09:28:50.267134  9396 net.cpp:434] detection_loss_1_3x5 <- label_1_3x5_data_1_split_0
I0702 09:28:50.267140  9396 net.cpp:408] detection_loss_1_3x5 -> loss_1_3x5
I0702 09:28:50.267153  9396 layer_factory.hpp:77] Creating layer detection_loss_1_3x5
I0702 09:28:50.267554  9396 net.cpp:150] Setting up detection_loss_1_3x5
I0702 09:28:50.267562  9396 net.cpp:157] Top shape: 1 1 1 2 (2)
I0702 09:28:50.267565  9396 net.cpp:160]     with loss weight 0.9
I0702 09:28:50.267580  9396 net.cpp:165] Memory required for data: 4310934920
I0702 09:28:50.267583  9396 layer_factory.hpp:77] Creating layer detection_accuracy_1_3x5
I0702 09:28:50.267590  9396 net.cpp:100] Creating Layer detection_accuracy_1_3x5
I0702 09:28:50.267594  9396 net.cpp:434] detection_accuracy_1_3x5 <- LFCN_1_3x5_LFCN_1_3x5_0_split_1
I0702 09:28:50.267598  9396 net.cpp:434] detection_accuracy_1_3x5 <- label_1_3x5_data_1_split_1
I0702 09:28:50.267604  9396 net.cpp:408] detection_accuracy_1_3x5 -> accuracy_1_3x5
I0702 09:28:50.267613  9396 net.cpp:408] detection_accuracy_1_3x5 -> boxiou_1_3x5
I0702 09:28:50.267659  9396 net.cpp:150] Setting up detection_accuracy_1_3x5
I0702 09:28:50.267665  9396 net.cpp:157] Top shape: 1 1 1 2 (2)
I0702 09:28:50.267669  9396 net.cpp:157] Top shape: 1 1 1 1 (1)
I0702 09:28:50.267673  9396 net.cpp:165] Memory required for data: 4310934932
I0702 09:28:50.267675  9396 layer_factory.hpp:77] Creating layer LFCN_1_5x7
I0702 09:28:50.267684  9396 net.cpp:100] Creating Layer LFCN_1_5x7
I0702 09:28:50.267688  9396 net.cpp:434] LFCN_1_5x7 <- loss1_conv1_loss_relu1_0_split_1
I0702 09:28:50.267693  9396 net.cpp:408] LFCN_1_5x7 -> LFCN_1_5x7
I0702 09:28:50.269974  9396 net.cpp:150] Setting up LFCN_1_5x7
I0702 09:28:50.269986  9396 net.cpp:157] Top shape: 4 7 72 96 (193536)
I0702 09:28:50.269989  9396 net.cpp:165] Memory required for data: 4311709076
I0702 09:28:50.269994  9396 layer_factory.hpp:77] Creating layer LFCN_1_5x7_LFCN_1_5x7_0_split
I0702 09:28:50.269999  9396 net.cpp:100] Creating Layer LFCN_1_5x7_LFCN_1_5x7_0_split
I0702 09:28:50.270002  9396 net.cpp:434] LFCN_1_5x7_LFCN_1_5x7_0_split <- LFCN_1_5x7
I0702 09:28:50.270007  9396 net.cpp:408] LFCN_1_5x7_LFCN_1_5x7_0_split -> LFCN_1_5x7_LFCN_1_5x7_0_split_0
I0702 09:28:50.270012  9396 net.cpp:408] LFCN_1_5x7_LFCN_1_5x7_0_split -> LFCN_1_5x7_LFCN_1_5x7_0_split_1
I0702 09:28:50.270048  9396 net.cpp:150] Setting up LFCN_1_5x7_LFCN_1_5x7_0_split
I0702 09:28:50.270053  9396 net.cpp:157] Top shape: 4 7 72 96 (193536)
I0702 09:28:50.270056  9396 net.cpp:157] Top shape: 4 7 72 96 (193536)
I0702 09:28:50.270058  9396 net.cpp:165] Memory required for data: 4313257364
I0702 09:28:50.270061  9396 layer_factory.hpp:77] Creating layer detection_loss_1_5x7
I0702 09:28:50.270068  9396 net.cpp:100] Creating Layer detection_loss_1_5x7
I0702 09:28:50.270073  9396 net.cpp:434] detection_loss_1_5x7 <- LFCN_1_5x7_LFCN_1_5x7_0_split_0
I0702 09:28:50.270077  9396 net.cpp:434] detection_loss_1_5x7 <- label_1_5x7_data_2_split_0
I0702 09:28:50.270083  9396 net.cpp:408] detection_loss_1_5x7 -> loss_1_5x7
I0702 09:28:50.270092  9396 layer_factory.hpp:77] Creating layer detection_loss_1_5x7
I0702 09:28:50.270903  9396 net.cpp:150] Setting up detection_loss_1_5x7
I0702 09:28:50.270912  9396 net.cpp:157] Top shape: 1 1 1 2 (2)
I0702 09:28:50.270915  9396 net.cpp:160]     with loss weight 0.9
I0702 09:28:50.270920  9396 net.cpp:165] Memory required for data: 4313257372
I0702 09:28:50.270923  9396 layer_factory.hpp:77] Creating layer detection_accuracy_1_5x7
I0702 09:28:50.270929  9396 net.cpp:100] Creating Layer detection_accuracy_1_5x7
I0702 09:28:50.270932  9396 net.cpp:434] detection_accuracy_1_5x7 <- LFCN_1_5x7_LFCN_1_5x7_0_split_1
I0702 09:28:50.270936  9396 net.cpp:434] detection_accuracy_1_5x7 <- label_1_5x7_data_2_split_1
I0702 09:28:50.270941  9396 net.cpp:408] detection_accuracy_1_5x7 -> accuracy_1_5x7
I0702 09:28:50.270946  9396 net.cpp:408] detection_accuracy_1_5x7 -> boxiou_1_5x7
I0702 09:28:50.270983  9396 net.cpp:150] Setting up detection_accuracy_1_5x7
I0702 09:28:50.270987  9396 net.cpp:157] Top shape: 1 1 1 2 (2)
I0702 09:28:50.270990  9396 net.cpp:157] Top shape: 1 1 1 1 (1)
I0702 09:28:50.270992  9396 net.cpp:165] Memory required for data: 4313257384
I0702 09:28:50.270995  9396 layer_factory.hpp:77] Creating layer pool4
I0702 09:28:50.271000  9396 net.cpp:100] Creating Layer pool4
I0702 09:28:50.271003  9396 net.cpp:434] pool4 <- conv4_3_relu4_3_0_split_1
I0702 09:28:50.271009  9396 net.cpp:408] pool4 -> pool4
I0702 09:28:50.271044  9396 net.cpp:150] Setting up pool4
I0702 09:28:50.271049  9396 net.cpp:157] Top shape: 4 512 36 48 (3538944)
I0702 09:28:50.271050  9396 net.cpp:165] Memory required for data: 4327413160
I0702 09:28:50.271052  9396 layer_factory.hpp:77] Creating layer conv5_1
I0702 09:28:50.271061  9396 net.cpp:100] Creating Layer conv5_1
I0702 09:28:50.271065  9396 net.cpp:434] conv5_1 <- pool4
I0702 09:28:50.271070  9396 net.cpp:408] conv5_1 -> conv5_1
I0702 09:28:50.276820  9396 net.cpp:150] Setting up conv5_1
I0702 09:28:50.276844  9396 net.cpp:157] Top shape: 4 512 36 48 (3538944)
I0702 09:28:50.276846  9396 net.cpp:165] Memory required for data: 4341568936
I0702 09:28:50.276857  9396 layer_factory.hpp:77] Creating layer relu5_1
I0702 09:28:50.276868  9396 net.cpp:100] Creating Layer relu5_1
I0702 09:28:50.276873  9396 net.cpp:434] relu5_1 <- conv5_1
I0702 09:28:50.276880  9396 net.cpp:395] relu5_1 -> conv5_1 (in-place)
I0702 09:28:50.277529  9396 net.cpp:150] Setting up relu5_1
I0702 09:28:50.277537  9396 net.cpp:157] Top shape: 4 512 36 48 (3538944)
I0702 09:28:50.277539  9396 net.cpp:165] Memory required for data: 4355724712
I0702 09:28:50.277542  9396 layer_factory.hpp:77] Creating layer conv5_2
I0702 09:28:50.277549  9396 net.cpp:100] Creating Layer conv5_2
I0702 09:28:50.277551  9396 net.cpp:434] conv5_2 <- conv5_1
I0702 09:28:50.277555  9396 net.cpp:408] conv5_2 -> conv5_2
I0702 09:28:50.282977  9396 net.cpp:150] Setting up conv5_2
I0702 09:28:50.282995  9396 net.cpp:157] Top shape: 4 512 36 48 (3538944)
I0702 09:28:50.282999  9396 net.cpp:165] Memory required for data: 4369880488
I0702 09:28:50.283004  9396 layer_factory.hpp:77] Creating layer relu5_2
I0702 09:28:50.283010  9396 net.cpp:100] Creating Layer relu5_2
I0702 09:28:50.283015  9396 net.cpp:434] relu5_2 <- conv5_2
I0702 09:28:50.283020  9396 net.cpp:395] relu5_2 -> conv5_2 (in-place)
I0702 09:28:50.283272  9396 net.cpp:150] Setting up relu5_2
I0702 09:28:50.283278  9396 net.cpp:157] Top shape: 4 512 36 48 (3538944)
I0702 09:28:50.283280  9396 net.cpp:165] Memory required for data: 4384036264
I0702 09:28:50.283282  9396 layer_factory.hpp:77] Creating layer conv5_3
I0702 09:28:50.283288  9396 net.cpp:100] Creating Layer conv5_3
I0702 09:28:50.283291  9396 net.cpp:434] conv5_3 <- conv5_2
I0702 09:28:50.283295  9396 net.cpp:408] conv5_3 -> conv5_3
I0702 09:28:50.289523  9396 net.cpp:150] Setting up conv5_3
I0702 09:28:50.289543  9396 net.cpp:157] Top shape: 4 512 36 48 (3538944)
I0702 09:28:50.289546  9396 net.cpp:165] Memory required for data: 4398192040
I0702 09:28:50.289552  9396 layer_factory.hpp:77] Creating layer relu5_3
I0702 09:28:50.289558  9396 net.cpp:100] Creating Layer relu5_3
I0702 09:28:50.289562  9396 net.cpp:434] relu5_3 <- conv5_3
I0702 09:28:50.289566  9396 net.cpp:395] relu5_3 -> conv5_3 (in-place)
I0702 09:28:50.289818  9396 net.cpp:150] Setting up relu5_3
I0702 09:28:50.289824  9396 net.cpp:157] Top shape: 4 512 36 48 (3538944)
I0702 09:28:50.289826  9396 net.cpp:165] Memory required for data: 4412347816
I0702 09:28:50.289829  9396 layer_factory.hpp:77] Creating layer conv5_3_relu5_3_0_split
I0702 09:28:50.289834  9396 net.cpp:100] Creating Layer conv5_3_relu5_3_0_split
I0702 09:28:50.289835  9396 net.cpp:434] conv5_3_relu5_3_0_split <- conv5_3
I0702 09:28:50.289840  9396 net.cpp:408] conv5_3_relu5_3_0_split -> conv5_3_relu5_3_0_split_0
I0702 09:28:50.289845  9396 net.cpp:408] conv5_3_relu5_3_0_split -> conv5_3_relu5_3_0_split_1
I0702 09:28:50.289849  9396 net.cpp:408] conv5_3_relu5_3_0_split -> conv5_3_relu5_3_0_split_2
I0702 09:28:50.289901  9396 net.cpp:150] Setting up conv5_3_relu5_3_0_split
I0702 09:28:50.289906  9396 net.cpp:157] Top shape: 4 512 36 48 (3538944)
I0702 09:28:50.289909  9396 net.cpp:157] Top shape: 4 512 36 48 (3538944)
I0702 09:28:50.289912  9396 net.cpp:157] Top shape: 4 512 36 48 (3538944)
I0702 09:28:50.289916  9396 net.cpp:165] Memory required for data: 4454815144
I0702 09:28:50.289918  9396 layer_factory.hpp:77] Creating layer LFCN_2_3x5
I0702 09:28:50.289927  9396 net.cpp:100] Creating Layer LFCN_2_3x5
I0702 09:28:50.289932  9396 net.cpp:434] LFCN_2_3x5 <- conv5_3_relu5_3_0_split_0
I0702 09:28:50.289938  9396 net.cpp:408] LFCN_2_3x5 -> LFCN_2_3x5
I0702 09:28:50.291698  9396 net.cpp:150] Setting up LFCN_2_3x5
I0702 09:28:50.291709  9396 net.cpp:157] Top shape: 4 7 36 48 (48384)
I0702 09:28:50.291712  9396 net.cpp:165] Memory required for data: 4455008680
I0702 09:28:50.291723  9396 layer_factory.hpp:77] Creating layer LFCN_2_3x5_LFCN_2_3x5_0_split
I0702 09:28:50.291728  9396 net.cpp:100] Creating Layer LFCN_2_3x5_LFCN_2_3x5_0_split
I0702 09:28:50.291730  9396 net.cpp:434] LFCN_2_3x5_LFCN_2_3x5_0_split <- LFCN_2_3x5
I0702 09:28:50.291735  9396 net.cpp:408] LFCN_2_3x5_LFCN_2_3x5_0_split -> LFCN_2_3x5_LFCN_2_3x5_0_split_0
I0702 09:28:50.291740  9396 net.cpp:408] LFCN_2_3x5_LFCN_2_3x5_0_split -> LFCN_2_3x5_LFCN_2_3x5_0_split_1
I0702 09:28:50.291779  9396 net.cpp:150] Setting up LFCN_2_3x5_LFCN_2_3x5_0_split
I0702 09:28:50.291784  9396 net.cpp:157] Top shape: 4 7 36 48 (48384)
I0702 09:28:50.291785  9396 net.cpp:157] Top shape: 4 7 36 48 (48384)
I0702 09:28:50.291787  9396 net.cpp:165] Memory required for data: 4455395752
I0702 09:28:50.291790  9396 layer_factory.hpp:77] Creating layer detection_loss_2_3x5
I0702 09:28:50.291798  9396 net.cpp:100] Creating Layer detection_loss_2_3x5
I0702 09:28:50.291802  9396 net.cpp:434] detection_loss_2_3x5 <- LFCN_2_3x5_LFCN_2_3x5_0_split_0
I0702 09:28:50.291806  9396 net.cpp:434] detection_loss_2_3x5 <- label_2_3x5_data_3_split_0
I0702 09:28:50.291813  9396 net.cpp:408] detection_loss_2_3x5 -> loss_2_3x5
I0702 09:28:50.291821  9396 layer_factory.hpp:77] Creating layer detection_loss_2_3x5
I0702 09:28:50.292635  9396 net.cpp:150] Setting up detection_loss_2_3x5
I0702 09:28:50.292644  9396 net.cpp:157] Top shape: 1 1 1 2 (2)
I0702 09:28:50.292646  9396 net.cpp:160]     with loss weight 1
I0702 09:28:50.292654  9396 net.cpp:165] Memory required for data: 4455395760
I0702 09:28:50.292655  9396 layer_factory.hpp:77] Creating layer detection_accuracy_2_3x5
I0702 09:28:50.292660  9396 net.cpp:100] Creating Layer detection_accuracy_2_3x5
I0702 09:28:50.292663  9396 net.cpp:434] detection_accuracy_2_3x5 <- LFCN_2_3x5_LFCN_2_3x5_0_split_1
I0702 09:28:50.292666  9396 net.cpp:434] detection_accuracy_2_3x5 <- label_2_3x5_data_3_split_1
I0702 09:28:50.292672  9396 net.cpp:408] detection_accuracy_2_3x5 -> accuracy_2_3x5
I0702 09:28:50.292678  9396 net.cpp:408] detection_accuracy_2_3x5 -> boxiou_2_3x5
I0702 09:28:50.292726  9396 net.cpp:150] Setting up detection_accuracy_2_3x5
I0702 09:28:50.292731  9396 net.cpp:157] Top shape: 1 1 1 2 (2)
I0702 09:28:50.292733  9396 net.cpp:157] Top shape: 1 1 1 1 (1)
I0702 09:28:50.292735  9396 net.cpp:165] Memory required for data: 4455395772
I0702 09:28:50.292738  9396 layer_factory.hpp:77] Creating layer LFCN_2_5x7
I0702 09:28:50.292745  9396 net.cpp:100] Creating Layer LFCN_2_5x7
I0702 09:28:50.292750  9396 net.cpp:434] LFCN_2_5x7 <- conv5_3_relu5_3_0_split_1
I0702 09:28:50.292755  9396 net.cpp:408] LFCN_2_5x7 -> LFCN_2_5x7
I0702 09:28:50.295938  9396 net.cpp:150] Setting up LFCN_2_5x7
I0702 09:28:50.295958  9396 net.cpp:157] Top shape: 4 7 36 48 (48384)
I0702 09:28:50.295961  9396 net.cpp:165] Memory required for data: 4455589308
I0702 09:28:50.295969  9396 layer_factory.hpp:77] Creating layer LFCN_2_5x7_LFCN_2_5x7_0_split
I0702 09:28:50.295979  9396 net.cpp:100] Creating Layer LFCN_2_5x7_LFCN_2_5x7_0_split
I0702 09:28:50.295987  9396 net.cpp:434] LFCN_2_5x7_LFCN_2_5x7_0_split <- LFCN_2_5x7
I0702 09:28:50.295996  9396 net.cpp:408] LFCN_2_5x7_LFCN_2_5x7_0_split -> LFCN_2_5x7_LFCN_2_5x7_0_split_0
I0702 09:28:50.296003  9396 net.cpp:408] LFCN_2_5x7_LFCN_2_5x7_0_split -> LFCN_2_5x7_LFCN_2_5x7_0_split_1
I0702 09:28:50.296046  9396 net.cpp:150] Setting up LFCN_2_5x7_LFCN_2_5x7_0_split
I0702 09:28:50.296049  9396 net.cpp:157] Top shape: 4 7 36 48 (48384)
I0702 09:28:50.296052  9396 net.cpp:157] Top shape: 4 7 36 48 (48384)
I0702 09:28:50.296056  9396 net.cpp:165] Memory required for data: 4455976380
I0702 09:28:50.296058  9396 layer_factory.hpp:77] Creating layer detection_loss_2_5x7
I0702 09:28:50.296066  9396 net.cpp:100] Creating Layer detection_loss_2_5x7
I0702 09:28:50.296070  9396 net.cpp:434] detection_loss_2_5x7 <- LFCN_2_5x7_LFCN_2_5x7_0_split_0
I0702 09:28:50.296074  9396 net.cpp:434] detection_loss_2_5x7 <- label_2_5x7_data_4_split_0
I0702 09:28:50.296082  9396 net.cpp:408] detection_loss_2_5x7 -> loss_2_5x7
I0702 09:28:50.296090  9396 layer_factory.hpp:77] Creating layer detection_loss_2_5x7
I0702 09:28:50.296483  9396 net.cpp:150] Setting up detection_loss_2_5x7
I0702 09:28:50.296490  9396 net.cpp:157] Top shape: 1 1 1 2 (2)
I0702 09:28:50.296492  9396 net.cpp:160]     with loss weight 1
I0702 09:28:50.296501  9396 net.cpp:165] Memory required for data: 4455976388
I0702 09:28:50.296504  9396 layer_factory.hpp:77] Creating layer detection_accuracy_2_5x7
I0702 09:28:50.296510  9396 net.cpp:100] Creating Layer detection_accuracy_2_5x7
I0702 09:28:50.296516  9396 net.cpp:434] detection_accuracy_2_5x7 <- LFCN_2_5x7_LFCN_2_5x7_0_split_1
I0702 09:28:50.296520  9396 net.cpp:434] detection_accuracy_2_5x7 <- label_2_5x7_data_4_split_1
I0702 09:28:50.296526  9396 net.cpp:408] detection_accuracy_2_5x7 -> accuracy_2_5x7
I0702 09:28:50.296533  9396 net.cpp:408] detection_accuracy_2_5x7 -> boxiou_2_5x7
I0702 09:28:50.296571  9396 net.cpp:150] Setting up detection_accuracy_2_5x7
I0702 09:28:50.296574  9396 net.cpp:157] Top shape: 1 1 1 2 (2)
I0702 09:28:50.296577  9396 net.cpp:157] Top shape: 1 1 1 1 (1)
I0702 09:28:50.296581  9396 net.cpp:165] Memory required for data: 4455976400
I0702 09:28:50.296583  9396 layer_factory.hpp:77] Creating layer pool5
I0702 09:28:50.296589  9396 net.cpp:100] Creating Layer pool5
I0702 09:28:50.296593  9396 net.cpp:434] pool5 <- conv5_3_relu5_3_0_split_2
I0702 09:28:50.296600  9396 net.cpp:408] pool5 -> pool5
I0702 09:28:50.296633  9396 net.cpp:150] Setting up pool5
I0702 09:28:50.296636  9396 net.cpp:157] Top shape: 4 512 18 24 (884736)
I0702 09:28:50.296638  9396 net.cpp:165] Memory required for data: 4459515344
I0702 09:28:50.296641  9396 layer_factory.hpp:77] Creating layer conv6_1
I0702 09:28:50.296653  9396 net.cpp:100] Creating Layer conv6_1
I0702 09:28:50.296655  9396 net.cpp:434] conv6_1 <- pool5
I0702 09:28:50.296660  9396 net.cpp:408] conv6_1 -> conv6_1
I0702 09:28:50.317276  9396 net.cpp:150] Setting up conv6_1
I0702 09:28:50.317293  9396 net.cpp:157] Top shape: 4 512 18 24 (884736)
I0702 09:28:50.317296  9396 net.cpp:165] Memory required for data: 4463054288
I0702 09:28:50.317302  9396 layer_factory.hpp:77] Creating layer relu6_1
I0702 09:28:50.317309  9396 net.cpp:100] Creating Layer relu6_1
I0702 09:28:50.317312  9396 net.cpp:434] relu6_1 <- conv6_1
I0702 09:28:50.317317  9396 net.cpp:395] relu6_1 -> conv6_1 (in-place)
I0702 09:28:50.317562  9396 net.cpp:150] Setting up relu6_1
I0702 09:28:50.317569  9396 net.cpp:157] Top shape: 4 512 18 24 (884736)
I0702 09:28:50.317571  9396 net.cpp:165] Memory required for data: 4466593232
I0702 09:28:50.317574  9396 layer_factory.hpp:77] Creating layer conv6_1_relu6_1_0_split
I0702 09:28:50.317577  9396 net.cpp:100] Creating Layer conv6_1_relu6_1_0_split
I0702 09:28:50.317580  9396 net.cpp:434] conv6_1_relu6_1_0_split <- conv6_1
I0702 09:28:50.317584  9396 net.cpp:408] conv6_1_relu6_1_0_split -> conv6_1_relu6_1_0_split_0
I0702 09:28:50.317589  9396 net.cpp:408] conv6_1_relu6_1_0_split -> conv6_1_relu6_1_0_split_1
I0702 09:28:50.317593  9396 net.cpp:408] conv6_1_relu6_1_0_split -> conv6_1_relu6_1_0_split_2
I0702 09:28:50.317644  9396 net.cpp:150] Setting up conv6_1_relu6_1_0_split
I0702 09:28:50.317649  9396 net.cpp:157] Top shape: 4 512 18 24 (884736)
I0702 09:28:50.317651  9396 net.cpp:157] Top shape: 4 512 18 24 (884736)
I0702 09:28:50.317654  9396 net.cpp:157] Top shape: 4 512 18 24 (884736)
I0702 09:28:50.317657  9396 net.cpp:165] Memory required for data: 4477210064
I0702 09:28:50.317661  9396 layer_factory.hpp:77] Creating layer LFCN_3_3x5
I0702 09:28:50.317669  9396 net.cpp:100] Creating Layer LFCN_3_3x5
I0702 09:28:50.317672  9396 net.cpp:434] LFCN_3_3x5 <- conv6_1_relu6_1_0_split_0
I0702 09:28:50.317680  9396 net.cpp:408] LFCN_3_3x5 -> LFCN_3_3x5
I0702 09:28:50.320375  9396 net.cpp:150] Setting up LFCN_3_3x5
I0702 09:28:50.320392  9396 net.cpp:157] Top shape: 4 7 18 24 (12096)
I0702 09:28:50.320395  9396 net.cpp:165] Memory required for data: 4477258448
I0702 09:28:50.320401  9396 layer_factory.hpp:77] Creating layer LFCN_3_3x5_LFCN_3_3x5_0_split
I0702 09:28:50.320416  9396 net.cpp:100] Creating Layer LFCN_3_3x5_LFCN_3_3x5_0_split
I0702 09:28:50.320420  9396 net.cpp:434] LFCN_3_3x5_LFCN_3_3x5_0_split <- LFCN_3_3x5
I0702 09:28:50.320425  9396 net.cpp:408] LFCN_3_3x5_LFCN_3_3x5_0_split -> LFCN_3_3x5_LFCN_3_3x5_0_split_0
I0702 09:28:50.320432  9396 net.cpp:408] LFCN_3_3x5_LFCN_3_3x5_0_split -> LFCN_3_3x5_LFCN_3_3x5_0_split_1
I0702 09:28:50.320474  9396 net.cpp:150] Setting up LFCN_3_3x5_LFCN_3_3x5_0_split
I0702 09:28:50.320479  9396 net.cpp:157] Top shape: 4 7 18 24 (12096)
I0702 09:28:50.320482  9396 net.cpp:157] Top shape: 4 7 18 24 (12096)
I0702 09:28:50.320485  9396 net.cpp:165] Memory required for data: 4477355216
I0702 09:28:50.320488  9396 layer_factory.hpp:77] Creating layer detection_loss_3_3x5
I0702 09:28:50.320495  9396 net.cpp:100] Creating Layer detection_loss_3_3x5
I0702 09:28:50.320499  9396 net.cpp:434] detection_loss_3_3x5 <- LFCN_3_3x5_LFCN_3_3x5_0_split_0
I0702 09:28:50.320503  9396 net.cpp:434] detection_loss_3_3x5 <- label_3_3x5_data_5_split_0
I0702 09:28:50.320510  9396 net.cpp:408] detection_loss_3_3x5 -> loss_3_3x5
I0702 09:28:50.320519  9396 layer_factory.hpp:77] Creating layer detection_loss_3_3x5
I0702 09:28:50.321372  9396 net.cpp:150] Setting up detection_loss_3_3x5
I0702 09:28:50.321382  9396 net.cpp:157] Top shape: 1 1 1 2 (2)
I0702 09:28:50.321384  9396 net.cpp:160]     with loss weight 1
I0702 09:28:50.321390  9396 net.cpp:165] Memory required for data: 4477355224
I0702 09:28:50.321393  9396 layer_factory.hpp:77] Creating layer detection_accuracy_3_3x5
I0702 09:28:50.321398  9396 net.cpp:100] Creating Layer detection_accuracy_3_3x5
I0702 09:28:50.321401  9396 net.cpp:434] detection_accuracy_3_3x5 <- LFCN_3_3x5_LFCN_3_3x5_0_split_1
I0702 09:28:50.321404  9396 net.cpp:434] detection_accuracy_3_3x5 <- label_3_3x5_data_5_split_1
I0702 09:28:50.321408  9396 net.cpp:408] detection_accuracy_3_3x5 -> accuracy_3_3x5
I0702 09:28:50.321415  9396 net.cpp:408] detection_accuracy_3_3x5 -> boxiou_3_3x5
I0702 09:28:50.321455  9396 net.cpp:150] Setting up detection_accuracy_3_3x5
I0702 09:28:50.321458  9396 net.cpp:157] Top shape: 1 1 1 2 (2)
I0702 09:28:50.321460  9396 net.cpp:157] Top shape: 1 1 1 1 (1)
I0702 09:28:50.321462  9396 net.cpp:165] Memory required for data: 4477355236
I0702 09:28:50.321466  9396 layer_factory.hpp:77] Creating layer LFCN_3_5x7
I0702 09:28:50.321475  9396 net.cpp:100] Creating Layer LFCN_3_5x7
I0702 09:28:50.321480  9396 net.cpp:434] LFCN_3_5x7 <- conv6_1_relu6_1_0_split_1
I0702 09:28:50.321485  9396 net.cpp:408] LFCN_3_5x7 -> LFCN_3_5x7
I0702 09:28:50.323770  9396 net.cpp:150] Setting up LFCN_3_5x7
I0702 09:28:50.323783  9396 net.cpp:157] Top shape: 4 7 18 24 (12096)
I0702 09:28:50.323786  9396 net.cpp:165] Memory required for data: 4477403620
I0702 09:28:50.323791  9396 layer_factory.hpp:77] Creating layer LFCN_3_5x7_LFCN_3_5x7_0_split
I0702 09:28:50.323796  9396 net.cpp:100] Creating Layer LFCN_3_5x7_LFCN_3_5x7_0_split
I0702 09:28:50.323798  9396 net.cpp:434] LFCN_3_5x7_LFCN_3_5x7_0_split <- LFCN_3_5x7
I0702 09:28:50.323804  9396 net.cpp:408] LFCN_3_5x7_LFCN_3_5x7_0_split -> LFCN_3_5x7_LFCN_3_5x7_0_split_0
I0702 09:28:50.323809  9396 net.cpp:408] LFCN_3_5x7_LFCN_3_5x7_0_split -> LFCN_3_5x7_LFCN_3_5x7_0_split_1
I0702 09:28:50.323848  9396 net.cpp:150] Setting up LFCN_3_5x7_LFCN_3_5x7_0_split
I0702 09:28:50.323853  9396 net.cpp:157] Top shape: 4 7 18 24 (12096)
I0702 09:28:50.323855  9396 net.cpp:157] Top shape: 4 7 18 24 (12096)
I0702 09:28:50.323858  9396 net.cpp:165] Memory required for data: 4477500388
I0702 09:28:50.323861  9396 layer_factory.hpp:77] Creating layer detection_loss_3_5x7
I0702 09:28:50.323869  9396 net.cpp:100] Creating Layer detection_loss_3_5x7
I0702 09:28:50.323873  9396 net.cpp:434] detection_loss_3_5x7 <- LFCN_3_5x7_LFCN_3_5x7_0_split_0
I0702 09:28:50.323876  9396 net.cpp:434] detection_loss_3_5x7 <- label_3_5x7_data_6_split_0
I0702 09:28:50.323884  9396 net.cpp:408] detection_loss_3_5x7 -> loss_3_5x7
I0702 09:28:50.323894  9396 layer_factory.hpp:77] Creating layer detection_loss_3_5x7
I0702 09:28:50.324290  9396 net.cpp:150] Setting up detection_loss_3_5x7
I0702 09:28:50.324295  9396 net.cpp:157] Top shape: 1 1 1 2 (2)
I0702 09:28:50.324298  9396 net.cpp:160]     with loss weight 1
I0702 09:28:50.324306  9396 net.cpp:165] Memory required for data: 4477500396
I0702 09:28:50.324311  9396 layer_factory.hpp:77] Creating layer detection_accuracy_3_5x7
I0702 09:28:50.324317  9396 net.cpp:100] Creating Layer detection_accuracy_3_5x7
I0702 09:28:50.324321  9396 net.cpp:434] detection_accuracy_3_5x7 <- LFCN_3_5x7_LFCN_3_5x7_0_split_1
I0702 09:28:50.324326  9396 net.cpp:434] detection_accuracy_3_5x7 <- label_3_5x7_data_6_split_1
I0702 09:28:50.324331  9396 net.cpp:408] detection_accuracy_3_5x7 -> accuracy_3_5x7
I0702 09:28:50.324339  9396 net.cpp:408] detection_accuracy_3_5x7 -> boxiou_3_5x7
I0702 09:28:50.324378  9396 net.cpp:150] Setting up detection_accuracy_3_5x7
I0702 09:28:50.324381  9396 net.cpp:157] Top shape: 1 1 1 2 (2)
I0702 09:28:50.324383  9396 net.cpp:157] Top shape: 1 1 1 1 (1)
I0702 09:28:50.324386  9396 net.cpp:165] Memory required for data: 4477500408
I0702 09:28:50.324389  9396 layer_factory.hpp:77] Creating layer pool6
I0702 09:28:50.324395  9396 net.cpp:100] Creating Layer pool6
I0702 09:28:50.324399  9396 net.cpp:434] pool6 <- conv6_1_relu6_1_0_split_2
I0702 09:28:50.324406  9396 net.cpp:408] pool6 -> pool6
I0702 09:28:50.324440  9396 net.cpp:150] Setting up pool6
I0702 09:28:50.324443  9396 net.cpp:157] Top shape: 4 512 9 12 (221184)
I0702 09:28:50.324446  9396 net.cpp:165] Memory required for data: 4478385144
I0702 09:28:50.324450  9396 layer_factory.hpp:77] Creating layer LFCN_4_3x5
I0702 09:28:50.324458  9396 net.cpp:100] Creating Layer LFCN_4_3x5
I0702 09:28:50.324461  9396 net.cpp:434] LFCN_4_3x5 <- pool6
I0702 09:28:50.324466  9396 net.cpp:408] LFCN_4_3x5 -> LFCN_4_3x5
I0702 09:28:50.326666  9396 net.cpp:150] Setting up LFCN_4_3x5
I0702 09:28:50.326679  9396 net.cpp:157] Top shape: 4 7 9 12 (3024)
I0702 09:28:50.326681  9396 net.cpp:165] Memory required for data: 4478397240
I0702 09:28:50.326689  9396 layer_factory.hpp:77] Creating layer LFCN_4_3x5_LFCN_4_3x5_0_split
I0702 09:28:50.326697  9396 net.cpp:100] Creating Layer LFCN_4_3x5_LFCN_4_3x5_0_split
I0702 09:28:50.326702  9396 net.cpp:434] LFCN_4_3x5_LFCN_4_3x5_0_split <- LFCN_4_3x5
I0702 09:28:50.326709  9396 net.cpp:408] LFCN_4_3x5_LFCN_4_3x5_0_split -> LFCN_4_3x5_LFCN_4_3x5_0_split_0
I0702 09:28:50.326716  9396 net.cpp:408] LFCN_4_3x5_LFCN_4_3x5_0_split -> LFCN_4_3x5_LFCN_4_3x5_0_split_1
I0702 09:28:50.326756  9396 net.cpp:150] Setting up LFCN_4_3x5_LFCN_4_3x5_0_split
I0702 09:28:50.326761  9396 net.cpp:157] Top shape: 4 7 9 12 (3024)
I0702 09:28:50.326763  9396 net.cpp:157] Top shape: 4 7 9 12 (3024)
I0702 09:28:50.326766  9396 net.cpp:165] Memory required for data: 4478421432
I0702 09:28:50.326768  9396 layer_factory.hpp:77] Creating layer detection_loss_4_3x5
I0702 09:28:50.326776  9396 net.cpp:100] Creating Layer detection_loss_4_3x5
I0702 09:28:50.326781  9396 net.cpp:434] detection_loss_4_3x5 <- LFCN_4_3x5_LFCN_4_3x5_0_split_0
I0702 09:28:50.326783  9396 net.cpp:434] detection_loss_4_3x5 <- label_4_3x5_data_7_split_0
I0702 09:28:50.326789  9396 net.cpp:408] detection_loss_4_3x5 -> loss_4_3x5
I0702 09:28:50.326799  9396 layer_factory.hpp:77] Creating layer detection_loss_4_3x5
I0702 09:28:50.327193  9396 net.cpp:150] Setting up detection_loss_4_3x5
I0702 09:28:50.327200  9396 net.cpp:157] Top shape: 1 1 1 2 (2)
I0702 09:28:50.327203  9396 net.cpp:160]     with loss weight 1
I0702 09:28:50.327210  9396 net.cpp:165] Memory required for data: 4478421440
I0702 09:28:50.327214  9396 layer_factory.hpp:77] Creating layer detection_accuracy_4_3x5
I0702 09:28:50.327219  9396 net.cpp:100] Creating Layer detection_accuracy_4_3x5
I0702 09:28:50.327224  9396 net.cpp:434] detection_accuracy_4_3x5 <- LFCN_4_3x5_LFCN_4_3x5_0_split_1
I0702 09:28:50.327229  9396 net.cpp:434] detection_accuracy_4_3x5 <- label_4_3x5_data_7_split_1
I0702 09:28:50.327234  9396 net.cpp:408] detection_accuracy_4_3x5 -> accuracy_4_3x5
I0702 09:28:50.327242  9396 net.cpp:408] detection_accuracy_4_3x5 -> boxiou_4_3x5
I0702 09:28:50.327280  9396 net.cpp:150] Setting up detection_accuracy_4_3x5
I0702 09:28:50.327283  9396 net.cpp:157] Top shape: 1 1 1 2 (2)
I0702 09:28:50.327286  9396 net.cpp:157] Top shape: 1 1 1 1 (1)
I0702 09:28:50.327287  9396 net.cpp:165] Memory required for data: 4478421452
I0702 09:28:50.327291  9396 net.cpp:228] detection_accuracy_4_3x5 does not need backward computation.
I0702 09:28:50.327294  9396 net.cpp:226] detection_loss_4_3x5 needs backward computation.
I0702 09:28:50.327298  9396 net.cpp:226] LFCN_4_3x5_LFCN_4_3x5_0_split needs backward computation.
I0702 09:28:50.327301  9396 net.cpp:226] LFCN_4_3x5 needs backward computation.
…
I0702 09:28:50.338138  9396 image_gt_data_layer.cpp:241] output label size 2 : 2,6,36,48
I0702 09:28:50.338186  9396 image_gt_data_layer.cpp:241] output label size 3 : 2,6,36,48
I0702 09:28:50.338234  9396 image_gt_data_layer.cpp:241] output label size 4 : 2,6,18,24
I0702 09:28:50.338281  9396 image_gt_data_layer.cpp:241] output label size 5 : 2,6,18,24
I0702 09:28:50.338327  9396 image_gt_data_layer.cpp:241] output label size 6 : 2,6,9,12
I0702 09:28:50.338330  9396 image_gt_data_layer.cpp:265]  --> has_mean_values_ = 1
I0702 09:28:50.357064  9396 net.cpp:150] Setting up data
I0702 09:28:50.357084  9396 net.cpp:157] Top shape: 2 4 576 768 (3538944)
I0702 09:28:50.357089  9396 net.cpp:157] Top shape: 2 6 72 96 (82944)
I0702 09:28:50.357094  9396 net.cpp:157] Top shape: 2 6 72 96 (82944)
I0702 09:28:50.357097  9396 net.cpp:157] Top shape: 2 6 36 48 (20736)
I0702 09:28:50.357101  9396 net.cpp:157] Top shape: 2 6 36 48 (20736)
I0702 09:28:50.357105  9396 net.cpp:157] Top shape: 2 6 18 24 (5184)
I0702 09:28:50.357107  9396 net.cpp:157] Top shape: 2 6 18 24 (5184)
I0702 09:28:50.357111  9396 net.cpp:157] Top shape: 2 6 9 12 (1296)
I0702 09:28:50.357113  9396 net.cpp:165] Memory required for data: 15031872
I0702 09:28:50.357120  9396 layer_factory.hpp:77] Creating layer label_1_3x5_data_1_split
I0702 09:28:50.357129  9396 net.cpp:100] Creating Layer label_1_3x5_data_1_split
I0702 09:28:50.357134  9396 net.cpp:434] label_1_3x5_data_1_split <- label_1_3x5
I0702 09:28:50.357141  9396 net.cpp:408] label_1_3x5_data_1_split -> label_1_3x5_data_1_split_0
I0702 09:28:50.357152  9396 net.cpp:408] label_1_3x5_data_1_split -> label_1_3x5_data_1_split_1
I0702 09:28:50.357271  9396 net.cpp:150] Setting up label_1_3x5_data_1_split
I0702 09:28:50.357280  9396 net.cpp:157] Top shape: 2 6 72 96 (82944)
I0702 09:28:50.357285  9396 net.cpp:157] Top shape: 2 6 72 96 (82944)
I0702 09:28:50.357287  9396 net.cpp:165] Memory required for data: 15695424
I0702 09:28:50.357290  9396 layer_factory.hpp:77] Creating layer label_1_5x7_data_2_split
I0702 09:28:50.357298  9396 net.cpp:100] Creating Layer label_1_5x7_data_2_split
I0702 09:28:50.357301  9396 net.cpp:434] label_1_5x7_data_2_split <- label_1_5x7
I0702 09:28:50.357308  9396 net.cpp:408] label_1_5x7_data_2_split -> label_1_5x7_data_2_split_0
I0702 09:28:50.357314  9396 net.cpp:408] label_1_5x7_data_2_split -> label_1_5x7_data_2_split_1
I0702 09:28:50.357359  9396 net.cpp:150] Setting up label_1_5x7_data_2_split
I0702 09:28:50.357367  9396 net.cpp:157] Top shape: 2 6 72 96 (82944)
I0702 09:28:50.357370  9396 net.cpp:157] Top shape: 2 6 72 96 (82944)
I0702 09:28:50.357373  9396 net.cpp:165] Memory required for data: 16358976
I0702 09:28:50.357376  9396 layer_factory.hpp:77] Creating layer label_2_3x5_data_3_split
I0702 09:28:50.357381  9396 net.cpp:100] Creating Layer label_2_3x5_data_3_split
I0702 09:28:50.357384  9396 net.cpp:434] label_2_3x5_data_3_split <- label_2_3x5
I0702 09:28:50.357390  9396 net.cpp:408] label_2_3x5_data_3_split -> label_2_3x5_data_3_split_0
I0702 09:28:50.357396  9396 net.cpp:408] label_2_3x5_data_3_split -> label_2_3x5_data_3_split_1
I0702 09:28:50.357439  9396 net.cpp:150] Setting up label_2_3x5_data_3_split
I0702 09:28:50.357445  9396 net.cpp:157] Top shape: 2 6 36 48 (20736)
I0702 09:28:50.357448  9396 net.cpp:157] Top shape: 2 6 36 48 (20736)
I0702 09:28:50.357450  9396 net.cpp:165] Memory required for data: 16524864
I0702 09:28:50.357453  9396 layer_factory.hpp:77] Creating layer label_2_5x7_data_4_split
I0702 09:28:50.357460  9396 net.cpp:100] Creating Layer label_2_5x7_data_4_split
I0702 09:28:50.357463  9396 net.cpp:434] label_2_5x7_data_4_split <- label_2_5x7
I0702 09:28:50.357470  9396 net.cpp:408] label_2_5x7_data_4_split -> label_2_5x7_data_4_split_0
I0702 09:28:50.357475  9396 net.cpp:408] label_2_5x7_data_4_split -> label_2_5x7_data_4_split_1
I0702 09:28:50.357517  9396 net.cpp:150] Setting up label_2_5x7_data_4_split
I0702 09:28:50.357522  9396 net.cpp:157] Top shape: 2 6 36 48 (20736)
I0702 09:28:50.357527  9396 net.cpp:157] Top shape: 2 6 36 48 (20736)
I0702 09:28:50.357529  9396 net.cpp:165] Memory required for data: 16690752
I0702 09:28:50.357532  9396 layer_factory.hpp:77] Creating layer label_3_3x5_data_5_split
I0702 09:28:50.357537  9396 net.cpp:100] Creating Layer label_3_3x5_data_5_split
I0702 09:28:50.357539  9396 net.cpp:434] label_3_3x5_data_5_split <- label_3_3x5
I0702 09:28:50.357545  9396 net.cpp:408] label_3_3x5_data_5_split -> label_3_3x5_data_5_split_0
I0702 09:28:50.357553  9396 net.cpp:408] label_3_3x5_data_5_split -> label_3_3x5_data_5_split_1
I0702 09:28:50.357631  9396 net.cpp:150] Setting up label_3_3x5_data_5_split
I0702 09:28:50.357638  9396 net.cpp:157] Top shape: 2 6 18 24 (5184)
I0702 09:28:50.357642  9396 net.cpp:157] Top shape: 2 6 18 24 (5184)
I0702 09:28:50.357645  9396 net.cpp:165] Memory required for data: 16732224
I0702 09:28:50.357648  9396 layer_factory.hpp:77] Creating layer label_3_5x7_data_6_split
I0702 09:28:50.357653  9396 net.cpp:100] Creating Layer label_3_5x7_data_6_split
I0702 09:28:50.357656  9396 net.cpp:434] label_3_5x7_data_6_split <- label_3_5x7
I0702 09:28:50.357661  9396 net.cpp:408] label_3_5x7_data_6_split -> label_3_5x7_data_6_split_0
I0702 09:28:50.357667  9396 net.cpp:408] label_3_5x7_data_6_split -> label_3_5x7_data_6_split_1
I0702 09:28:50.358798  9396 net.cpp:150] Setting up label_3_5x7_data_6_split
I0702 09:28:50.358808  9396 net.cpp:157] Top shape: 2 6 18 24 (5184)
I0702 09:28:50.358810  9396 net.cpp:157] Top shape: 2 6 18 24 (5184)
I0702 09:28:50.358813  9396 net.cpp:165] Memory required for data: 16773696
I0702 09:28:50.358817  9396 layer_factory.hpp:77] Creating layer label_4_3x5_data_7_split
I0702 09:28:50.358829  9396 net.cpp:100] Creating Layer label_4_3x5_data_7_split
I0702 09:28:50.358832  9396 net.cpp:434] label_4_3x5_data_7_split <- label_4_3x5
I0702 09:28:50.358840  9396 net.cpp:408] label_4_3x5_data_7_split -> label_4_3x5_data_7_split_0
I0702 09:28:50.358849  9396 net.cpp:408] label_4_3x5_data_7_split -> label_4_3x5_data_7_split_1
I0702 09:28:50.358932  9396 net.cpp:150] Setting up label_4_3x5_data_7_split
I0702 09:28:50.358940  9396 net.cpp:157] Top shape: 2 6 9 12 (1296)
I0702 09:28:50.358945  9396 net.cpp:157] Top shape: 2 6 9 12 (1296)
I0702 09:28:50.358948  9396 net.cpp:165] Memory required for data: 16784064
I0702 09:28:50.358952  9396 layer_factory.hpp:77] Creating layer conv1_1
I0702 09:28:50.358971  9396 net.cpp:100] Creating Layer conv1_1
I0702 09:28:50.358978  9396 net.cpp:434] conv1_1 <- data
I0702 09:28:50.358984  9396 net.cpp:408] conv1_1 -> conv1_1
I0702 09:28:50.362851  9396 net.cpp:150] Setting up conv1_1
I0702 09:28:50.362874  9396 net.cpp:157] Top shape: 2 64 576 768 (56623104)
I0702 09:28:50.362876  9396 net.cpp:165] Memory required for data: 243276480
I0702 09:28:50.362892  9396 layer_factory.hpp:77] Creating layer relu1_1
I0702 09:28:50.362905  9396 net.cpp:100] Creating Layer relu1_1
I0702 09:28:50.362910  9396 net.cpp:434] relu1_1 <- conv1_1
I0702 09:28:50.362915  9396 net.cpp:395] relu1_1 -> conv1_1 (in-place)
I0702 09:28:50.363682  9396 net.cpp:150] Setting up relu1_1
I0702 09:28:50.363692  9396 net.cpp:157] Top shape: 2 64 576 768 (56623104)
I0702 09:28:50.363695  9396 net.cpp:165] Memory required for data: 469768896
I0702 09:28:50.363698  9396 layer_factory.hpp:77] Creating layer conv1_2
I0702 09:28:50.363706  9396 net.cpp:100] Creating Layer conv1_2
I0702 09:28:50.363710  9396 net.cpp:434] conv1_2 <- conv1_1
I0702 09:28:50.363718  9396 net.cpp:408] conv1_2 -> conv1_2
I0702 09:28:50.366281  9396 net.cpp:150] Setting up conv1_2
I0702 09:28:50.366304  9396 net.cpp:157] Top shape: 2 64 576 768 (56623104)
I0702 09:28:50.366307  9396 net.cpp:165] Memory required for data: 696261312
I0702 09:28:50.366319  9396 layer_factory.hpp:77] Creating layer relu1_2
I0702 09:28:50.366329  9396 net.cpp:100] Creating Layer relu1_2
I0702 09:28:50.366333  9396 net.cpp:434] relu1_2 <- conv1_2
I0702 09:28:50.366341  9396 net.cpp:395] relu1_2 -> conv1_2 (in-place)
I0702 09:28:50.367200  9396 net.cpp:150] Setting up relu1_2
I0702 09:28:50.367213  9396 net.cpp:157] Top shape: 2 64 576 768 (56623104)
I0702 09:28:50.367216  9396 net.cpp:165] Memory required for data: 922753728
I0702 09:28:50.367219  9396 layer_factory.hpp:77] Creating layer pool1
I0702 09:28:50.367226  9396 net.cpp:100] Creating Layer pool1
I0702 09:28:50.367230  9396 net.cpp:434] pool1 <- conv1_2
I0702 09:28:50.367236  9396 net.cpp:408] pool1 -> pool1
I0702 09:28:50.367302  9396 net.cpp:150] Setting up pool1
I0702 09:28:50.367311  9396 net.cpp:157] Top shape: 2 64 288 384 (14155776)
I0702 09:28:50.367312  9396 net.cpp:165] Memory required for data: 979376832
I0702 09:28:50.367316  9396 layer_factory.hpp:77] Creating layer conv2_1
I0702 09:28:50.367323  9396 net.cpp:100] Creating Layer conv2_1
I0702 09:28:50.367326  9396 net.cpp:434] conv2_1 <- pool1
I0702 09:28:50.367331  9396 net.cpp:408] conv2_1 -> conv2_1
I0702 09:28:50.369312  9396 net.cpp:150] Setting up conv2_1
I0702 09:28:50.369324  9396 net.cpp:157] Top shape: 2 128 288 384 (28311552)
I0702 09:28:50.369328  9396 net.cpp:165] Memory required for data: 1092623040
I0702 09:28:50.369340  9396 layer_factory.hpp:77] Creating layer relu2_1
I0702 09:28:50.369349  9396 net.cpp:100] Creating Layer relu2_1
I0702 09:28:50.369352  9396 net.cpp:434] relu2_1 <- conv2_1
I0702 09:28:50.369357  9396 net.cpp:395] relu2_1 -> conv2_1 (in-place)
I0702 09:28:50.369673  9396 net.cpp:150] Setting up relu2_1
I0702 09:28:50.369681  9396 net.cpp:157] Top shape: 2 128 288 384 (28311552)
I0702 09:28:50.369683  9396 net.cpp:165] Memory required for data: 1205869248
I0702 09:28:50.369686  9396 layer_factory.hpp:77] Creating layer conv2_2
I0702 09:28:50.369694  9396 net.cpp:100] Creating Layer conv2_2
I0702 09:28:50.369698  9396 net.cpp:434] conv2_2 <- conv2_1
I0702 09:28:50.369704  9396 net.cpp:408] conv2_2 -> conv2_2
I0702 09:28:50.372972  9396 net.cpp:150] Setting up conv2_2
I0702 09:28:50.372992  9396 net.cpp:157] Top shape: 2 128 288 384 (28311552)
I0702 09:28:50.372994  9396 net.cpp:165] Memory required for data: 1319115456
I0702 09:28:50.373003  9396 layer_factory.hpp:77] Creating layer relu2_2
I0702 09:28:50.373019  9396 net.cpp:100] Creating Layer relu2_2
I0702 09:28:50.373024  9396 net.cpp:434] relu2_2 <- conv2_2
I0702 09:28:50.373030  9396 net.cpp:395] relu2_2 -> conv2_2 (in-place)
I0702 09:28:50.373406  9396 net.cpp:150] Setting up relu2_2
I0702 09:28:50.373414  9396 net.cpp:157] Top shape: 2 128 288 384 (28311552)
I0702 09:28:50.373416  9396 net.cpp:165] Memory required for data: 1432361664
I0702 09:28:50.373420  9396 layer_factory.hpp:77] Creating layer pool2
I0702 09:28:50.373425  9396 net.cpp:100] Creating Layer pool2
I0702 09:28:50.373428  9396 net.cpp:434] pool2 <- conv2_2
I0702 09:28:50.373435  9396 net.cpp:408] pool2 -> pool2
I0702 09:28:50.373500  9396 net.cpp:150] Setting up pool2
I0702 09:28:50.373507  9396 net.cpp:157] Top shape: 2 128 144 192 (7077888)
I0702 09:28:50.373509  9396 net.cpp:165] Memory required for data: 1460673216
I0702 09:28:50.373512  9396 layer_factory.hpp:77] Creating layer conv3_1
I0702 09:28:50.373520  9396 net.cpp:100] Creating Layer conv3_1
I0702 09:28:50.373524  9396 net.cpp:434] conv3_1 <- pool2
I0702 09:28:50.373529  9396 net.cpp:408] conv3_1 -> conv3_1
I0702 09:28:50.376927  9396 net.cpp:150] Setting up conv3_1
I0702 09:28:50.377001  9396 net.cpp:157] Top shape: 2 256 144 192 (14155776)
I0702 09:28:50.377089  9396 net.cpp:165] Memory required for data: 1517296320
I0702 09:28:50.377121  9396 layer_factory.hpp:77] Creating layer relu3_1
I0702 09:28:50.377143  9396 net.cpp:100] Creating Layer relu3_1
I0702 09:28:50.377161  9396 net.cpp:434] relu3_1 <- conv3_1
I0702 09:28:50.377183  9396 net.cpp:395] relu3_1 -> conv3_1 (in-place)
I0702 09:28:50.378250  9396 net.cpp:150] Setting up relu3_1
I0702 09:28:50.378270  9396 net.cpp:157] Top shape: 2 256 144 192 (14155776)
I0702 09:28:50.378273  9396 net.cpp:165] Memory required for data: 1573919424
I0702 09:28:50.378276  9396 layer_factory.hpp:77] Creating layer conv3_2
I0702 09:28:50.378293  9396 net.cpp:100] Creating Layer conv3_2
I0702 09:28:50.378298  9396 net.cpp:434] conv3_2 <- conv3_1
I0702 09:28:50.378305  9396 net.cpp:408] conv3_2 -> conv3_2
I0702 09:28:50.381872  9396 net.cpp:150] Setting up conv3_2
I0702 09:28:50.381891  9396 net.cpp:157] Top shape: 2 256 144 192 (14155776)
I0702 09:28:50.381894  9396 net.cpp:165] Memory required for data: 1630542528
I0702 09:28:50.381901  9396 layer_factory.hpp:77] Creating layer relu3_2
I0702 09:28:50.381911  9396 net.cpp:100] Creating Layer relu3_2
I0702 09:28:50.381916  9396 net.cpp:434] relu3_2 <- conv3_2
I0702 09:28:50.381922  9396 net.cpp:395] relu3_2 -> conv3_2 (in-place)
I0702 09:28:50.382239  9396 net.cpp:150] Setting up relu3_2
I0702 09:28:50.382246  9396 net.cpp:157] Top shape: 2 256 144 192 (14155776)
I0702 09:28:50.382248  9396 net.cpp:165] Memory required for data: 1687165632
I0702 09:28:50.382251  9396 layer_factory.hpp:77] Creating layer conv3_3
I0702 09:28:50.382259  9396 net.cpp:100] Creating Layer conv3_3
I0702 09:28:50.382263  9396 net.cpp:434] conv3_3 <- conv3_2
I0702 09:28:50.382268  9396 net.cpp:408] conv3_3 -> conv3_3
I0702 09:28:50.385987  9396 net.cpp:150] Setting up conv3_3
I0702 09:28:50.386006  9396 net.cpp:157] Top shape: 2 256 144 192 (14155776)
I0702 09:28:50.386008  9396 net.cpp:165] Memory required for data: 1743788736
I0702 09:28:50.386016  9396 layer_factory.hpp:77] Creating layer relu3_3
I0702 09:28:50.386026  9396 net.cpp:100] Creating Layer relu3_3
I0702 09:28:50.386030  9396 net.cpp:434] relu3_3 <- conv3_3
I0702 09:28:50.386036  9396 net.cpp:395] relu3_3 -> conv3_3 (in-place)
I0702 09:28:50.386348  9396 net.cpp:150] Setting up relu3_3
I0702 09:28:50.386354  9396 net.cpp:157] Top shape: 2 256 144 192 (14155776)
I0702 09:28:50.386356  9396 net.cpp:165] Memory required for data: 1800411840
I0702 09:28:50.386359  9396 layer_factory.hpp:77] Creating layer pool3
I0702 09:28:50.386366  9396 net.cpp:100] Creating Layer pool3
I0702 09:28:50.386370  9396 net.cpp:434] pool3 <- conv3_3
I0702 09:28:50.386378  9396 net.cpp:408] pool3 -> pool3
I0702 09:28:50.386436  9396 net.cpp:150] Setting up pool3
I0702 09:28:50.386442  9396 net.cpp:157] Top shape: 2 256 72 96 (3538944)
I0702 09:28:50.386445  9396 net.cpp:165] Memory required for data: 1814567616
I0702 09:28:50.386448  9396 layer_factory.hpp:77] Creating layer conv4_1
I0702 09:28:50.386458  9396 net.cpp:100] Creating Layer conv4_1
I0702 09:28:50.386461  9396 net.cpp:434] conv4_1 <- pool3
I0702 09:28:50.386468  9396 net.cpp:408] conv4_1 -> conv4_1
I0702 09:28:50.390792  9396 net.cpp:150] Setting up conv4_1
I0702 09:28:50.390813  9396 net.cpp:157] Top shape: 2 512 72 96 (7077888)
I0702 09:28:50.390815  9396 net.cpp:165] Memory required for data: 1842879168
I0702 09:28:50.390823  9396 layer_factory.hpp:77] Creating layer relu4_1
I0702 09:28:50.390832  9396 net.cpp:100] Creating Layer relu4_1
I0702 09:28:50.390837  9396 net.cpp:434] relu4_1 <- conv4_1
I0702 09:28:50.390843  9396 net.cpp:395] relu4_1 -> conv4_1 (in-place)
I0702 09:28:50.391572  9396 net.cpp:150] Setting up relu4_1
I0702 09:28:50.391582  9396 net.cpp:157] Top shape: 2 512 72 96 (7077888)
I0702 09:28:50.391584  9396 net.cpp:165] Memory required for data: 1871190720
I0702 09:28:50.391587  9396 layer_factory.hpp:77] Creating layer conv4_2
I0702 09:28:50.391597  9396 net.cpp:100] Creating Layer conv4_2
I0702 09:28:50.391602  9396 net.cpp:434] conv4_2 <- conv4_1
I0702 09:28:50.391609  9396 net.cpp:408] conv4_2 -> conv4_2
I0702 09:28:50.398412  9396 net.cpp:150] Setting up conv4_2
I0702 09:28:50.398443  9396 net.cpp:157] Top shape: 2 512 72 96 (7077888)
I0702 09:28:50.398445  9396 net.cpp:165] Memory required for data: 1899502272
I0702 09:28:50.398463  9396 layer_factory.hpp:77] Creating layer relu4_2
I0702 09:28:50.398478  9396 net.cpp:100] Creating Layer relu4_2
I0702 09:28:50.398483  9396 net.cpp:434] relu4_2 <- conv4_2
I0702 09:28:50.398491  9396 net.cpp:395] relu4_2 -> conv4_2 (in-place)
I0702 09:28:50.398820  9396 net.cpp:150] Setting up relu4_2
I0702 09:28:50.398829  9396 net.cpp:157] Top shape: 2 512 72 96 (7077888)
I0702 09:28:50.398831  9396 net.cpp:165] Memory required for data: 1927813824
I0702 09:28:50.398833  9396 layer_factory.hpp:77] Creating layer conv4_3
I0702 09:28:50.398844  9396 net.cpp:100] Creating Layer conv4_3
I0702 09:28:50.398847  9396 net.cpp:434] conv4_3 <- conv4_2
I0702 09:28:50.398854  9396 net.cpp:408] conv4_3 -> conv4_3
I0702 09:28:50.407820  9396 net.cpp:150] Setting up conv4_3
I0702 09:28:50.407840  9396 net.cpp:157] Top shape: 2 512 72 96 (7077888)
I0702 09:28:50.407841  9396 net.cpp:165] Memory required for data: 1956125376
I0702 09:28:50.407850  9396 layer_factory.hpp:77] Creating layer relu4_3
I0702 09:28:50.407858  9396 net.cpp:100] Creating Layer relu4_3
I0702 09:28:50.407863  9396 net.cpp:434] relu4_3 <- conv4_3
I0702 09:28:50.407871  9396 net.cpp:395] relu4_3 -> conv4_3 (in-place)
I0702 09:28:50.408164  9396 net.cpp:150] Setting up relu4_3
I0702 09:28:50.408170  9396 net.cpp:157] Top shape: 2 512 72 96 (7077888)
I0702 09:28:50.408172  9396 net.cpp:165] Memory required for data: 1984436928
I0702 09:28:50.408174  9396 layer_factory.hpp:77] Creating layer conv4_3_relu4_3_0_split
I0702 09:28:50.408180  9396 net.cpp:100] Creating Layer conv4_3_relu4_3_0_split
I0702 09:28:50.408185  9396 net.cpp:434] conv4_3_relu4_3_0_split <- conv4_3
I0702 09:28:50.408190  9396 net.cpp:408] conv4_3_relu4_3_0_split -> conv4_3_relu4_3_0_split_0
I0702 09:28:50.408198  9396 net.cpp:408] conv4_3_relu4_3_0_split -> conv4_3_relu4_3_0_split_1
I0702 09:28:50.408254  9396 net.cpp:150] Setting up conv4_3_relu4_3_0_split
I0702 09:28:50.408260  9396 net.cpp:157] Top shape: 2 512 72 96 (7077888)
I0702 09:28:50.408265  9396 net.cpp:157] Top shape: 2 512 72 96 (7077888)
I0702 09:28:50.408267  9396 net.cpp:165] Memory required for data: 2041060032
I0702 09:28:50.408270  9396 layer_factory.hpp:77] Creating layer loss1_conv1
I0702 09:28:50.408288  9396 net.cpp:100] Creating Layer loss1_conv1
I0702 09:28:50.408291  9396 net.cpp:434] loss1_conv1 <- conv4_3_relu4_3_0_split_0
I0702 09:28:50.408298  9396 net.cpp:408] loss1_conv1 -> loss1_conv1
I0702 09:28:50.429774  9396 net.cpp:150] Setting up loss1_conv1
I0702 09:28:50.429795  9396 net.cpp:157] Top shape: 2 512 72 96 (7077888)
I0702 09:28:50.429797  9396 net.cpp:165] Memory required for data: 2069371584
I0702 09:28:50.429806  9396 layer_factory.hpp:77] Creating layer loss_relu1
I0702 09:28:50.429816  9396 net.cpp:100] Creating Layer loss_relu1
I0702 09:28:50.429821  9396 net.cpp:434] loss_relu1 <- loss1_conv1
I0702 09:28:50.429829  9396 net.cpp:395] loss_relu1 -> loss1_conv1 (in-place)
I0702 09:28:50.430567  9396 net.cpp:150] Setting up loss_relu1
I0702 09:28:50.430578  9396 net.cpp:157] Top shape: 2 512 72 96 (7077888)
I0702 09:28:50.430582  9396 net.cpp:165] Memory required for data: 2097683136
I0702 09:28:50.430585  9396 layer_factory.hpp:77] Creating layer loss1_conv1_loss_relu1_0_split
I0702 09:28:50.430591  9396 net.cpp:100] Creating Layer loss1_conv1_loss_relu1_0_split
I0702 09:28:50.430595  9396 net.cpp:434] loss1_conv1_loss_relu1_0_split <- loss1_conv1
I0702 09:28:50.430603  9396 net.cpp:408] loss1_conv1_loss_relu1_0_split -> loss1_conv1_loss_relu1_0_split_0
I0702 09:28:50.430611  9396 net.cpp:408] loss1_conv1_loss_relu1_0_split -> loss1_conv1_loss_relu1_0_split_1
I0702 09:28:50.430661  9396 net.cpp:150] Setting up loss1_conv1_loss_relu1_0_split
I0702 09:28:50.430667  9396 net.cpp:157] Top shape: 2 512 72 96 (7077888)
I0702 09:28:50.430671  9396 net.cpp:157] Top shape: 2 512 72 96 (7077888)
I0702 09:28:50.430675  9396 net.cpp:165] Memory required for data: 2154306240
I0702 09:28:50.430677  9396 layer_factory.hpp:77] Creating layer LFCN_1_3x5
I0702 09:28:50.430687  9396 net.cpp:100] Creating Layer LFCN_1_3x5
I0702 09:28:50.430691  9396 net.cpp:434] LFCN_1_3x5 <- loss1_conv1_loss_relu1_0_split_0
I0702 09:28:50.430698  9396 net.cpp:408] LFCN_1_3x5 -> LFCN_1_3x5
I0702 09:28:50.432595  9396 net.cpp:150] Setting up LFCN_1_3x5
I0702 09:28:50.432607  9396 net.cpp:157] Top shape: 2 7 72 96 (96768)
I0702 09:28:50.432612  9396 net.cpp:165] Memory required for data: 2154693312
I0702 09:28:50.432621  9396 layer_factory.hpp:77] Creating layer LFCN_1_3x5_LFCN_1_3x5_0_split
I0702 09:28:50.432629  9396 net.cpp:100] Creating Layer LFCN_1_3x5_LFCN_1_3x5_0_split
I0702 09:28:50.432633  9396 net.cpp:434] LFCN_1_3x5_LFCN_1_3x5_0_split <- LFCN_1_3x5
I0702 09:28:50.432639  9396 net.cpp:408] LFCN_1_3x5_LFCN_1_3x5_0_split -> LFCN_1_3x5_LFCN_1_3x5_0_split_0
I0702 09:28:50.432649  9396 net.cpp:408] LFCN_1_3x5_LFCN_1_3x5_0_split -> LFCN_1_3x5_LFCN_1_3x5_0_split_1
I0702 09:28:50.432696  9396 net.cpp:150] Setting up LFCN_1_3x5_LFCN_1_3x5_0_split
I0702 09:28:50.432703  9396 net.cpp:157] Top shape: 2 7 72 96 (96768)
I0702 09:28:50.432706  9396 net.cpp:157] Top shape: 2 7 72 96 (96768)
I0702 09:28:50.432708  9396 net.cpp:165] Memory required for data: 2155467456
I0702 09:28:50.432711  9396 layer_factory.hpp:77] Creating layer detection_loss_1_3x5
I0702 09:28:50.432720  9396 net.cpp:100] Creating Layer detection_loss_1_3x5
I0702 09:28:50.432723  9396 net.cpp:434] detection_loss_1_3x5 <- LFCN_1_3x5_LFCN_1_3x5_0_split_0
I0702 09:28:50.432729  9396 net.cpp:434] detection_loss_1_3x5 <- label_1_3x5_data_1_split_0
I0702 09:28:50.432735  9396 net.cpp:408] detection_loss_1_3x5 -> loss_1_3x5
I0702 09:28:50.432744  9396 layer_factory.hpp:77] Creating layer detection_loss_1_3x5
I0702 09:28:50.433676  9396 net.cpp:150] Setting up detection_loss_1_3x5
I0702 09:28:50.433687  9396 net.cpp:157] Top shape: 1 1 1 2 (2)
I0702 09:28:50.433691  9396 net.cpp:160]     with loss weight 0.9
I0702 09:28:50.433701  9396 net.cpp:165] Memory required for data: 2155467464
I0702 09:28:50.433704  9396 layer_factory.hpp:77] Creating layer detection_accuracy_1_3x5
I0702 09:28:50.433712  9396 net.cpp:100] Creating Layer detection_accuracy_1_3x5
I0702 09:28:50.433715  9396 net.cpp:434] detection_accuracy_1_3x5 <- LFCN_1_3x5_LFCN_1_3x5_0_split_1
I0702 09:28:50.433720  9396 net.cpp:434] detection_accuracy_1_3x5 <- label_1_3x5_data_1_split_1
I0702 09:28:50.433727  9396 net.cpp:408] detection_accuracy_1_3x5 -> accuracy_1_3x5
I0702 09:28:50.433735  9396 net.cpp:408] detection_accuracy_1_3x5 -> boxiou_1_3x5
I0702 09:28:50.433781  9396 net.cpp:150] Setting up detection_accuracy_1_3x5
I0702 09:28:50.433786  9396 net.cpp:157] Top shape: 1 1 1 2 (2)
I0702 09:28:50.433790  9396 net.cpp:157] Top shape: 1 1 1 1 (1)
I0702 09:28:50.433794  9396 net.cpp:165] Memory required for data: 2155467476
I0702 09:28:50.433796  9396 layer_factory.hpp:77] Creating layer LFCN_1_5x7
I0702 09:28:50.433806  9396 net.cpp:100] Creating Layer LFCN_1_5x7
I0702 09:28:50.433810  9396 net.cpp:434] LFCN_1_5x7 <- loss1_conv1_loss_relu1_0_split_1
I0702 09:28:50.433817  9396 net.cpp:408] LFCN_1_5x7 -> LFCN_1_5x7
I0702 09:28:50.437243  9396 net.cpp:150] Setting up LFCN_1_5x7
I0702 09:28:50.437363  9396 net.cpp:157] Top shape: 2 7 72 96 (96768)
I0702 09:28:50.437415  9396 net.cpp:165] Memory required for data: 2155854548
I0702 09:28:50.437467  9396 layer_factory.hpp:77] Creating layer LFCN_1_5x7_LFCN_1_5x7_0_split
I0702 09:28:50.437520  9396 net.cpp:100] Creating Layer LFCN_1_5x7_LFCN_1_5x7_0_split
I0702 09:28:50.437567  9396 net.cpp:434] LFCN_1_5x7_LFCN_1_5x7_0_split <- LFCN_1_5x7
I0702 09:28:50.437618  9396 net.cpp:408] LFCN_1_5x7_LFCN_1_5x7_0_split -> LFCN_1_5x7_LFCN_1_5x7_0_split_0
I0702 09:28:50.437671  9396 net.cpp:408] LFCN_1_5x7_LFCN_1_5x7_0_split -> LFCN_1_5x7_LFCN_1_5x7_0_split_1
I0702 09:28:50.437798  9396 net.cpp:150] Setting up LFCN_1_5x7_LFCN_1_5x7_0_split
I0702 09:28:50.437844  9396 net.cpp:157] Top shape: 2 7 72 96 (96768)
I0702 09:28:50.437888  9396 net.cpp:157] Top shape: 2 7 72 96 (96768)
I0702 09:28:50.437929  9396 net.cpp:165] Memory required for data: 2156628692
I0702 09:28:50.437971  9396 layer_factory.hpp:77] Creating layer detection_loss_1_5x7
I0702 09:28:50.438024  9396 net.cpp:100] Creating Layer detection_loss_1_5x7
I0702 09:28:50.438067  9396 net.cpp:434] detection_loss_1_5x7 <- LFCN_1_5x7_LFCN_1_5x7_0_split_0
I0702 09:28:50.438115  9396 net.cpp:434] detection_loss_1_5x7 <- label_1_5x7_data_2_split_0
I0702 09:28:50.438164  9396 net.cpp:408] detection_loss_1_5x7 -> loss_1_5x7
I0702 09:28:50.438215  9396 layer_factory.hpp:77] Creating layer detection_loss_1_5x7
I0702 09:28:50.438951  9396 net.cpp:150] Setting up detection_loss_1_5x7
I0702 09:28:50.439009  9396 net.cpp:157] Top shape: 1 1 1 2 (2)
I0702 09:28:50.439052  9396 net.cpp:160]     with loss weight 0.9
I0702 09:28:50.439112  9396 net.cpp:165] Memory required for data: 2156628700
I0702 09:28:50.439155  9396 layer_factory.hpp:77] Creating layer detection_accuracy_1_5x7
I0702 09:28:50.439203  9396 net.cpp:100] Creating Layer detection_accuracy_1_5x7
I0702 09:28:50.439247  9396 net.cpp:434] detection_accuracy_1_5x7 <- LFCN_1_5x7_LFCN_1_5x7_0_split_1
I0702 09:28:50.439296  9396 net.cpp:434] detection_accuracy_1_5x7 <- label_1_5x7_data_2_split_1
I0702 09:28:50.439348  9396 net.cpp:408] detection_accuracy_1_5x7 -> accuracy_1_5x7
I0702 09:28:50.439397  9396 net.cpp:408] detection_accuracy_1_5x7 -> boxiou_1_5x7
I0702 09:28:50.439504  9396 net.cpp:150] Setting up detection_accuracy_1_5x7
I0702 09:28:50.439514  9396 net.cpp:157] Top shape: 1 1 1 2 (2)
I0702 09:28:50.439518  9396 net.cpp:157] Top shape: 1 1 1 1 (1)
I0702 09:28:50.439520  9396 net.cpp:165] Memory required for data: 2156628712
I0702 09:28:50.439523  9396 layer_factory.hpp:77] Creating layer pool4
I0702 09:28:50.439530  9396 net.cpp:100] Creating Layer pool4
I0702 09:28:50.439533  9396 net.cpp:434] pool4 <- conv4_3_relu4_3_0_split_1
I0702 09:28:50.439539  9396 net.cpp:408] pool4 -> pool4
I0702 09:28:50.439589  9396 net.cpp:150] Setting up pool4
I0702 09:28:50.439595  9396 net.cpp:157] Top shape: 2 512 36 48 (1769472)
I0702 09:28:50.439599  9396 net.cpp:165] Memory required for data: 2163706600
I0702 09:28:50.439601  9396 layer_factory.hpp:77] Creating layer conv5_1
I0702 09:28:50.439610  9396 net.cpp:100] Creating Layer conv5_1
I0702 09:28:50.439613  9396 net.cpp:434] conv5_1 <- pool4
I0702 09:28:50.439620  9396 net.cpp:408] conv5_1 -> conv5_1
I0702 09:28:50.449388  9396 net.cpp:150] Setting up conv5_1
I0702 09:28:50.449406  9396 net.cpp:157] Top shape: 2 512 36 48 (1769472)
I0702 09:28:50.449409  9396 net.cpp:165] Memory required for data: 2170784488
I0702 09:28:50.449421  9396 layer_factory.hpp:77] Creating layer relu5_1
I0702 09:28:50.449430  9396 net.cpp:100] Creating Layer relu5_1
I0702 09:28:50.449436  9396 net.cpp:434] relu5_1 <- conv5_1
I0702 09:28:50.449445  9396 net.cpp:395] relu5_1 -> conv5_1 (in-place)
I0702 09:28:50.449733  9396 net.cpp:150] Setting up relu5_1
I0702 09:28:50.449739  9396 net.cpp:157] Top shape: 2 512 36 48 (1769472)
I0702 09:28:50.449743  9396 net.cpp:165] Memory required for data: 2177862376
I0702 09:28:50.449745  9396 layer_factory.hpp:77] Creating layer conv5_2
I0702 09:28:50.449755  9396 net.cpp:100] Creating Layer conv5_2
I0702 09:28:50.449759  9396 net.cpp:434] conv5_2 <- conv5_1
I0702 09:28:50.449765  9396 net.cpp:408] conv5_2 -> conv5_2
I0702 09:28:50.455538  9396 net.cpp:150] Setting up conv5_2
I0702 09:28:50.455560  9396 net.cpp:157] Top shape: 2 512 36 48 (1769472)
I0702 09:28:50.455564  9396 net.cpp:165] Memory required for data: 2184940264
I0702 09:28:50.455572  9396 layer_factory.hpp:77] Creating layer relu5_2
I0702 09:28:50.455582  9396 net.cpp:100] Creating Layer relu5_2
I0702 09:28:50.455588  9396 net.cpp:434] relu5_2 <- conv5_2
I0702 09:28:50.455595  9396 net.cpp:395] relu5_2 -> conv5_2 (in-place)
I0702 09:28:50.456352  9396 net.cpp:150] Setting up relu5_2
I0702 09:28:50.456364  9396 net.cpp:157] Top shape: 2 512 36 48 (1769472)
I0702 09:28:50.456367  9396 net.cpp:165] Memory required for data: 2192018152
I0702 09:28:50.456370  9396 layer_factory.hpp:77] Creating layer conv5_3
I0702 09:28:50.456380  9396 net.cpp:100] Creating Layer conv5_3
I0702 09:28:50.456384  9396 net.cpp:434] conv5_3 <- conv5_2
I0702 09:28:50.456390  9396 net.cpp:408] conv5_3 -> conv5_3
I0702 09:28:50.462153  9396 net.cpp:150] Setting up conv5_3
I0702 09:28:50.462174  9396 net.cpp:157] Top shape: 2 512 36 48 (1769472)
I0702 09:28:50.462177  9396 net.cpp:165] Memory required for data: 2199096040
I0702 09:28:50.462186  9396 layer_factory.hpp:77] Creating layer relu5_3
I0702 09:28:50.462196  9396 net.cpp:100] Creating Layer relu5_3
I0702 09:28:50.462201  9396 net.cpp:434] relu5_3 <- conv5_3
I0702 09:28:50.462209  9396 net.cpp:395] relu5_3 -> conv5_3 (in-place)
I0702 09:28:50.462484  9396 net.cpp:150] Setting up relu5_3
I0702 09:28:50.462491  9396 net.cpp:157] Top shape: 2 512 36 48 (1769472)
I0702 09:28:50.462494  9396 net.cpp:165] Memory required for data: 2206173928
I0702 09:28:50.462497  9396 layer_factory.hpp:77] Creating layer conv5_3_relu5_3_0_split
I0702 09:28:50.462504  9396 net.cpp:100] Creating Layer conv5_3_relu5_3_0_split
I0702 09:28:50.462508  9396 net.cpp:434] conv5_3_relu5_3_0_split <- conv5_3
I0702 09:28:50.462514  9396 net.cpp:408] conv5_3_relu5_3_0_split -> conv5_3_relu5_3_0_split_0
I0702 09:28:50.462523  9396 net.cpp:408] conv5_3_relu5_3_0_split -> conv5_3_relu5_3_0_split_1
I0702 09:28:50.462529  9396 net.cpp:408] conv5_3_relu5_3_0_split -> conv5_3_relu5_3_0_split_2
I0702 09:28:50.462592  9396 net.cpp:150] Setting up conv5_3_relu5_3_0_split
I0702 09:28:50.462599  9396 net.cpp:157] Top shape: 2 512 36 48 (1769472)
I0702 09:28:50.462602  9396 net.cpp:157] Top shape: 2 512 36 48 (1769472)
I0702 09:28:50.462606  9396 net.cpp:157] Top shape: 2 512 36 48 (1769472)
I0702 09:28:50.462608  9396 net.cpp:165] Memory required for data: 2227407592
I0702 09:28:50.462612  9396 layer_factory.hpp:77] Creating layer LFCN_2_3x5
I0702 09:28:50.462623  9396 net.cpp:100] Creating Layer LFCN_2_3x5
I0702 09:28:50.462627  9396 net.cpp:434] LFCN_2_3x5 <- conv5_3_relu5_3_0_split_0
I0702 09:28:50.462633  9396 net.cpp:408] LFCN_2_3x5 -> LFCN_2_3x5
I0702 09:28:50.467200  9396 net.cpp:150] Setting up LFCN_2_3x5
I0702 09:28:50.467236  9396 net.cpp:157] Top shape: 2 7 36 48 (24192)
I0702 09:28:50.467241  9396 net.cpp:165] Memory required for data: 2227504360
I0702 09:28:50.467265  9396 layer_factory.hpp:77] Creating layer LFCN_2_3x5_LFCN_2_3x5_0_split
I0702 09:28:50.467281  9396 net.cpp:100] Creating Layer LFCN_2_3x5_LFCN_2_3x5_0_split
I0702 09:28:50.467288  9396 net.cpp:434] LFCN_2_3x5_LFCN_2_3x5_0_split <- LFCN_2_3x5
I0702 09:28:50.467296  9396 net.cpp:408] LFCN_2_3x5_LFCN_2_3x5_0_split -> LFCN_2_3x5_LFCN_2_3x5_0_split_0
I0702 09:28:50.467308  9396 net.cpp:408] LFCN_2_3x5_LFCN_2_3x5_0_split -> LFCN_2_3x5_LFCN_2_3x5_0_split_1
I0702 09:28:50.467367  9396 net.cpp:150] Setting up LFCN_2_3x5_LFCN_2_3x5_0_split
I0702 09:28:50.467373  9396 net.cpp:157] Top shape: 2 7 36 48 (24192)
I0702 09:28:50.467376  9396 net.cpp:157] Top shape: 2 7 36 48 (24192)
I0702 09:28:50.467380  9396 net.cpp:165] Memory required for data: 2227697896
I0702 09:28:50.467382  9396 layer_factory.hpp:77] Creating layer detection_loss_2_3x5
I0702 09:28:50.467391  9396 net.cpp:100] Creating Layer detection_loss_2_3x5
I0702 09:28:50.467394  9396 net.cpp:434] detection_loss_2_3x5 <- LFCN_2_3x5_LFCN_2_3x5_0_split_0
I0702 09:28:50.467399  9396 net.cpp:434] detection_loss_2_3x5 <- label_2_3x5_data_3_split_0
I0702 09:28:50.467406  9396 net.cpp:408] detection_loss_2_3x5 -> loss_2_3x5
I0702 09:28:50.467417  9396 layer_factory.hpp:77] Creating layer detection_loss_2_3x5
I0702 09:28:50.467885  9396 net.cpp:150] Setting up detection_loss_2_3x5
I0702 09:28:50.467895  9396 net.cpp:157] Top shape: 1 1 1 2 (2)
I0702 09:28:50.467896  9396 net.cpp:160]     with loss weight 1
I0702 09:28:50.467906  9396 net.cpp:165] Memory required for data: 2227697904
I0702 09:28:50.467909  9396 layer_factory.hpp:77] Creating layer detection_accuracy_2_3x5
I0702 09:28:50.467916  9396 net.cpp:100] Creating Layer detection_accuracy_2_3x5
I0702 09:28:50.467921  9396 net.cpp:434] detection_accuracy_2_3x5 <- LFCN_2_3x5_LFCN_2_3x5_0_split_1
I0702 09:28:50.467926  9396 net.cpp:434] detection_accuracy_2_3x5 <- label_2_3x5_data_3_split_1
I0702 09:28:50.467931  9396 net.cpp:408] detection_accuracy_2_3x5 -> accuracy_2_3x5
I0702 09:28:50.467939  9396 net.cpp:408] detection_accuracy_2_3x5 -> boxiou_2_3x5
I0702 09:28:50.467993  9396 net.cpp:150] Setting up detection_accuracy_2_3x5
I0702 09:28:50.467998  9396 net.cpp:157] Top shape: 1 1 1 2 (2)
I0702 09:28:50.468003  9396 net.cpp:157] Top shape: 1 1 1 1 (1)
I0702 09:28:50.468004  9396 net.cpp:165] Memory required for data: 2227697916
I0702 09:28:50.468008  9396 layer_factory.hpp:77] Creating layer LFCN_2_5x7
I0702 09:28:50.468019  9396 net.cpp:100] Creating Layer LFCN_2_5x7
I0702 09:28:50.468022  9396 net.cpp:434] LFCN_2_5x7 <- conv5_3_relu5_3_0_split_1
I0702 09:28:50.468029  9396 net.cpp:408] LFCN_2_5x7 -> LFCN_2_5x7
I0702 09:28:50.470523  9396 net.cpp:150] Setting up LFCN_2_5x7
I0702 09:28:50.470538  9396 net.cpp:157] Top shape: 2 7 36 48 (24192)
I0702 09:28:50.470541  9396 net.cpp:165] Memory required for data: 2227794684
I0702 09:28:50.470551  9396 layer_factory.hpp:77] Creating layer LFCN_2_5x7_LFCN_2_5x7_0_split
I0702 09:28:50.470561  9396 net.cpp:100] Creating Layer LFCN_2_5x7_LFCN_2_5x7_0_split
I0702 09:28:50.470566  9396 net.cpp:434] LFCN_2_5x7_LFCN_2_5x7_0_split <- LFCN_2_5x7
I0702 09:28:50.470571  9396 net.cpp:408] LFCN_2_5x7_LFCN_2_5x7_0_split -> LFCN_2_5x7_LFCN_2_5x7_0_split_0
I0702 09:28:50.470582  9396 net.cpp:408] LFCN_2_5x7_LFCN_2_5x7_0_split -> LFCN_2_5x7_LFCN_2_5x7_0_split_1
I0702 09:28:50.470629  9396 net.cpp:150] Setting up LFCN_2_5x7_LFCN_2_5x7_0_split
I0702 09:28:50.470635  9396 net.cpp:157] Top shape: 2 7 36 48 (24192)
I0702 09:28:50.470639  9396 net.cpp:157] Top shape: 2 7 36 48 (24192)
I0702 09:28:50.470643  9396 net.cpp:165] Memory required for data: 2227988220
I0702 09:28:50.470645  9396 layer_factory.hpp:77] Creating layer detection_loss_2_5x7
I0702 09:28:50.470654  9396 net.cpp:100] Creating Layer detection_loss_2_5x7
I0702 09:28:50.470656  9396 net.cpp:434] detection_loss_2_5x7 <- LFCN_2_5x7_LFCN_2_5x7_0_split_0
I0702 09:28:50.470661  9396 net.cpp:434] detection_loss_2_5x7 <- label_2_5x7_data_4_split_0
I0702 09:28:50.470670  9396 net.cpp:408] detection_loss_2_5x7 -> loss_2_5x7
I0702 09:28:50.470679  9396 layer_factory.hpp:77] Creating layer detection_loss_2_5x7
I0702 09:28:50.471684  9396 net.cpp:150] Setting up detection_loss_2_5x7
I0702 09:28:50.471695  9396 net.cpp:157] Top shape: 1 1 1 2 (2)
I0702 09:28:50.471698  9396 net.cpp:160]     with loss weight 1
I0702 09:28:50.471707  9396 net.cpp:165] Memory required for data: 2227988228
I0702 09:28:50.471711  9396 layer_factory.hpp:77] Creating layer detection_accuracy_2_5x7
I0702 09:28:50.471719  9396 net.cpp:100] Creating Layer detection_accuracy_2_5x7
I0702 09:28:50.471724  9396 net.cpp:434] detection_accuracy_2_5x7 <- LFCN_2_5x7_LFCN_2_5x7_0_split_1
I0702 09:28:50.471729  9396 net.cpp:434] detection_accuracy_2_5x7 <- label_2_5x7_data_4_split_1
I0702 09:28:50.471738  9396 net.cpp:408] detection_accuracy_2_5x7 -> accuracy_2_5x7
I0702 09:28:50.471747  9396 net.cpp:408] detection_accuracy_2_5x7 -> boxiou_2_5x7
I0702 09:28:50.471793  9396 net.cpp:150] Setting up detection_accuracy_2_5x7
I0702 09:28:50.471798  9396 net.cpp:157] Top shape: 1 1 1 2 (2)
I0702 09:28:50.471802  9396 net.cpp:157] Top shape: 1 1 1 1 (1)
I0702 09:28:50.471804  9396 net.cpp:165] Memory required for data: 2227988240
I0702 09:28:50.471808  9396 layer_factory.hpp:77] Creating layer pool5
I0702 09:28:50.471814  9396 net.cpp:100] Creating Layer pool5
I0702 09:28:50.471818  9396 net.cpp:434] pool5 <- conv5_3_relu5_3_0_split_2
I0702 09:28:50.471823  9396 net.cpp:408] pool5 -> pool5
I0702 09:28:50.471868  9396 net.cpp:150] Setting up pool5
I0702 09:28:50.471873  9396 net.cpp:157] Top shape: 2 512 18 24 (442368)
I0702 09:28:50.471875  9396 net.cpp:165] Memory required for data: 2229757712
I0702 09:28:50.471879  9396 layer_factory.hpp:77] Creating layer conv6_1
I0702 09:28:50.471887  9396 net.cpp:100] Creating Layer conv6_1
I0702 09:28:50.471891  9396 net.cpp:434] conv6_1 <- pool5
I0702 09:28:50.471897  9396 net.cpp:408] conv6_1 -> conv6_1
I0702 09:28:50.493502  9396 net.cpp:150] Setting up conv6_1
I0702 09:28:50.493520  9396 net.cpp:157] Top shape: 2 512 18 24 (442368)
I0702 09:28:50.493523  9396 net.cpp:165] Memory required for data: 2231527184
I0702 09:28:50.493530  9396 layer_factory.hpp:77] Creating layer relu6_1
I0702 09:28:50.493541  9396 net.cpp:100] Creating Layer relu6_1
I0702 09:28:50.493548  9396 net.cpp:434] relu6_1 <- conv6_1
I0702 09:28:50.493554  9396 net.cpp:395] relu6_1 -> conv6_1 (in-place)
I0702 09:28:50.493822  9396 net.cpp:150] Setting up relu6_1
I0702 09:28:50.493830  9396 net.cpp:157] Top shape: 2 512 18 24 (442368)
I0702 09:28:50.493834  9396 net.cpp:165] Memory required for data: 2233296656
I0702 09:28:50.493836  9396 layer_factory.hpp:77] Creating layer conv6_1_relu6_1_0_split
I0702 09:28:50.493844  9396 net.cpp:100] Creating Layer conv6_1_relu6_1_0_split
I0702 09:28:50.493847  9396 net.cpp:434] conv6_1_relu6_1_0_split <- conv6_1
I0702 09:28:50.493852  9396 net.cpp:408] conv6_1_relu6_1_0_split -> conv6_1_relu6_1_0_split_0
I0702 09:28:50.493862  9396 net.cpp:408] conv6_1_relu6_1_0_split -> conv6_1_relu6_1_0_split_1
I0702 09:28:50.493870  9396 net.cpp:408] conv6_1_relu6_1_0_split -> conv6_1_relu6_1_0_split_2
I0702 09:28:50.493927  9396 net.cpp:150] Setting up conv6_1_relu6_1_0_split
I0702 09:28:50.493934  9396 net.cpp:157] Top shape: 2 512 18 24 (442368)
I0702 09:28:50.493938  9396 net.cpp:157] Top shape: 2 512 18 24 (442368)
I0702 09:28:50.493942  9396 net.cpp:157] Top shape: 2 512 18 24 (442368)
I0702 09:28:50.493944  9396 net.cpp:165] Memory required for data: 2238605072
I0702 09:28:50.493947  9396 layer_factory.hpp:77] Creating layer LFCN_3_3x5
I0702 09:28:50.493958  9396 net.cpp:100] Creating Layer LFCN_3_3x5
I0702 09:28:50.493962  9396 net.cpp:434] LFCN_3_3x5 <- conv6_1_relu6_1_0_split_0
I0702 09:28:50.493968  9396 net.cpp:408] LFCN_3_3x5 -> LFCN_3_3x5
I0702 09:28:50.496778  9396 net.cpp:150] Setting up LFCN_3_3x5
I0702 09:28:50.496793  9396 net.cpp:157] Top shape: 2 7 18 24 (6048)
I0702 09:28:50.496795  9396 net.cpp:165] Memory required for data: 2238629264
I0702 09:28:50.496804  9396 layer_factory.hpp:77] Creating layer LFCN_3_3x5_LFCN_3_3x5_0_split
I0702 09:28:50.496822  9396 net.cpp:100] Creating Layer LFCN_3_3x5_LFCN_3_3x5_0_split
I0702 09:28:50.496827  9396 net.cpp:434] LFCN_3_3x5_LFCN_3_3x5_0_split <- LFCN_3_3x5
I0702 09:28:50.496834  9396 net.cpp:408] LFCN_3_3x5_LFCN_3_3x5_0_split -> LFCN_3_3x5_LFCN_3_3x5_0_split_0
I0702 09:28:50.496842  9396 net.cpp:408] LFCN_3_3x5_LFCN_3_3x5_0_split -> LFCN_3_3x5_LFCN_3_3x5_0_split_1
I0702 09:28:50.496889  9396 net.cpp:150] Setting up LFCN_3_3x5_LFCN_3_3x5_0_split
I0702 09:28:50.496894  9396 net.cpp:157] Top shape: 2 7 18 24 (6048)
I0702 09:28:50.496898  9396 net.cpp:157] Top shape: 2 7 18 24 (6048)
I0702 09:28:50.496901  9396 net.cpp:165] Memory required for data: 2238677648
I0702 09:28:50.496904  9396 layer_factory.hpp:77] Creating layer detection_loss_3_3x5
I0702 09:28:50.496912  9396 net.cpp:100] Creating Layer detection_loss_3_3x5
I0702 09:28:50.496917  9396 net.cpp:434] detection_loss_3_3x5 <- LFCN_3_3x5_LFCN_3_3x5_0_split_0
I0702 09:28:50.496922  9396 net.cpp:434] detection_loss_3_3x5 <- label_3_3x5_data_5_split_0
I0702 09:28:50.496927  9396 net.cpp:408] detection_loss_3_3x5 -> loss_3_3x5
I0702 09:28:50.496937  9396 layer_factory.hpp:77] Creating layer detection_loss_3_3x5
I0702 09:28:50.497388  9396 net.cpp:150] Setting up detection_loss_3_3x5
I0702 09:28:50.497396  9396 net.cpp:157] Top shape: 1 1 1 2 (2)
I0702 09:28:50.497400  9396 net.cpp:160]     with loss weight 1
I0702 09:28:50.497408  9396 net.cpp:165] Memory required for data: 2238677656
I0702 09:28:50.497412  9396 layer_factory.hpp:77] Creating layer detection_accuracy_3_3x5
I0702 09:28:50.497419  9396 net.cpp:100] Creating Layer detection_accuracy_3_3x5
I0702 09:28:50.497424  9396 net.cpp:434] detection_accuracy_3_3x5 <- LFCN_3_3x5_LFCN_3_3x5_0_split_1
I0702 09:28:50.497429  9396 net.cpp:434] detection_accuracy_3_3x5 <- label_3_3x5_data_5_split_1
I0702 09:28:50.497434  9396 net.cpp:408] detection_accuracy_3_3x5 -> accuracy_3_3x5
I0702 09:28:50.497442  9396 net.cpp:408] detection_accuracy_3_3x5 -> boxiou_3_3x5
I0702 09:28:50.497488  9396 net.cpp:150] Setting up detection_accuracy_3_3x5
I0702 09:28:50.497493  9396 net.cpp:157] Top shape: 1 1 1 2 (2)
I0702 09:28:50.497495  9396 net.cpp:157] Top shape: 1 1 1 1 (1)
I0702 09:28:50.497498  9396 net.cpp:165] Memory required for data: 2238677668
I0702 09:28:50.497501  9396 layer_factory.hpp:77] Creating layer LFCN_3_5x7
I0702 09:28:50.497510  9396 net.cpp:100] Creating Layer LFCN_3_5x7
I0702 09:28:50.497514  9396 net.cpp:434] LFCN_3_5x7 <- conv6_1_relu6_1_0_split_1
I0702 09:28:50.497522  9396 net.cpp:408] LFCN_3_5x7 -> LFCN_3_5x7
I0702 09:28:50.500381  9396 net.cpp:150] Setting up LFCN_3_5x7
I0702 09:28:50.500396  9396 net.cpp:157] Top shape: 2 7 18 24 (6048)
I0702 09:28:50.500398  9396 net.cpp:165] Memory required for data: 2238701860
I0702 09:28:50.500407  9396 layer_factory.hpp:77] Creating layer LFCN_3_5x7_LFCN_3_5x7_0_split
I0702 09:28:50.500416  9396 net.cpp:100] Creating Layer LFCN_3_5x7_LFCN_3_5x7_0_split
I0702 09:28:50.500422  9396 net.cpp:434] LFCN_3_5x7_LFCN_3_5x7_0_split <- LFCN_3_5x7
I0702 09:28:50.500428  9396 net.cpp:408] LFCN_3_5x7_LFCN_3_5x7_0_split -> LFCN_3_5x7_LFCN_3_5x7_0_split_0
I0702 09:28:50.500437  9396 net.cpp:408] LFCN_3_5x7_LFCN_3_5x7_0_split -> LFCN_3_5x7_LFCN_3_5x7_0_split_1
I0702 09:28:50.500483  9396 net.cpp:150] Setting up LFCN_3_5x7_LFCN_3_5x7_0_split
I0702 09:28:50.500488  9396 net.cpp:157] Top shape: 2 7 18 24 (6048)
I0702 09:28:50.500491  9396 net.cpp:157] Top shape: 2 7 18 24 (6048)
I0702 09:28:50.500494  9396 net.cpp:165] Memory required for data: 2238750244
I0702 09:28:50.500497  9396 layer_factory.hpp:77] Creating layer detection_loss_3_5x7
I0702 09:28:50.500504  9396 net.cpp:100] Creating Layer detection_loss_3_5x7
I0702 09:28:50.500509  9396 net.cpp:434] detection_loss_3_5x7 <- LFCN_3_5x7_LFCN_3_5x7_0_split_0
I0702 09:28:50.500514  9396 net.cpp:434] detection_loss_3_5x7 <- label_3_5x7_data_6_split_0
I0702 09:28:50.500522  9396 net.cpp:408] detection_loss_3_5x7 -> loss_3_5x7
I0702 09:28:50.500531  9396 layer_factory.hpp:77] Creating layer detection_loss_3_5x7
I0702 09:28:50.501432  9396 net.cpp:150] Setting up detection_loss_3_5x7
I0702 09:28:50.501441  9396 net.cpp:157] Top shape: 1 1 1 2 (2)
I0702 09:28:50.501444  9396 net.cpp:160]     with loss weight 1
I0702 09:28:50.501452  9396 net.cpp:165] Memory required for data: 2238750252
I0702 09:28:50.501456  9396 layer_factory.hpp:77] Creating layer detection_accuracy_3_5x7
I0702 09:28:50.501462  9396 net.cpp:100] Creating Layer detection_accuracy_3_5x7
I0702 09:28:50.501467  9396 net.cpp:434] detection_accuracy_3_5x7 <- LFCN_3_5x7_LFCN_3_5x7_0_split_1
I0702 09:28:50.501472  9396 net.cpp:434] detection_accuracy_3_5x7 <- label_3_5x7_data_6_split_1
I0702 09:28:50.501480  9396 net.cpp:408] detection_accuracy_3_5x7 -> accuracy_3_5x7
I0702 09:28:50.501489  9396 net.cpp:408] detection_accuracy_3_5x7 -> boxiou_3_5x7
I0702 09:28:50.501534  9396 net.cpp:150] Setting up detection_accuracy_3_5x7
I0702 09:28:50.501539  9396 net.cpp:157] Top shape: 1 1 1 2 (2)
I0702 09:28:50.501543  9396 net.cpp:157] Top shape: 1 1 1 1 (1)
I0702 09:28:50.501545  9396 net.cpp:165] Memory required for data: 2238750264
I0702 09:28:50.501549  9396 layer_factory.hpp:77] Creating layer pool6
I0702 09:28:50.501555  9396 net.cpp:100] Creating Layer pool6
I0702 09:28:50.501559  9396 net.cpp:434] pool6 <- conv6_1_relu6_1_0_split_2
I0702 09:28:50.501565  9396 net.cpp:408] pool6 -> pool6
I0702 09:28:50.501605  9396 net.cpp:150] Setting up pool6
I0702 09:28:50.501610  9396 net.cpp:157] Top shape: 2 512 9 12 (110592)
I0702 09:28:50.501613  9396 net.cpp:165] Memory required for data: 2239192632
I0702 09:28:50.501616  9396 layer_factory.hpp:77] Creating layer LFCN_4_3x5
I0702 09:28:50.501626  9396 net.cpp:100] Creating Layer LFCN_4_3x5
I0702 09:28:50.501629  9396 net.cpp:434] LFCN_4_3x5 <- pool6
I0702 09:28:50.501638  9396 net.cpp:408] LFCN_4_3x5 -> LFCN_4_3x5
I0702 09:28:50.503964  9396 net.cpp:150] Setting up LFCN_4_3x5
I0702 09:28:50.503978  9396 net.cpp:157] Top shape: 2 7 9 12 (1512)
I0702 09:28:50.503979  9396 net.cpp:165] Memory required for data: 2239198680
I0702 09:28:50.503988  9396 layer_factory.hpp:77] Creating layer LFCN_4_3x5_LFCN_4_3x5_0_split
I0702 09:28:50.503995  9396 net.cpp:100] Creating Layer LFCN_4_3x5_LFCN_4_3x5_0_split
I0702 09:28:50.504000  9396 net.cpp:434] LFCN_4_3x5_LFCN_4_3x5_0_split <- LFCN_4_3x5
I0702 09:28:50.504007  9396 net.cpp:408] LFCN_4_3x5_LFCN_4_3x5_0_split -> LFCN_4_3x5_LFCN_4_3x5_0_split_0
I0702 09:28:50.504017  9396 net.cpp:408] LFCN_4_3x5_LFCN_4_3x5_0_split -> LFCN_4_3x5_LFCN_4_3x5_0_split_1
I0702 09:28:50.504071  9396 net.cpp:150] Setting up LFCN_4_3x5_LFCN_4_3x5_0_split
I0702 09:28:50.504077  9396 net.cpp:157] Top shape: 2 7 9 12 (1512)
I0702 09:28:50.504081  9396 net.cpp:157] Top shape: 2 7 9 12 (1512)
I0702 09:28:50.504083  9396 net.cpp:165] Memory required for data: 2239210776
I0702 09:28:50.504086  9396 layer_factory.hpp:77] Creating layer detection_loss_4_3x5
I0702 09:28:50.504092  9396 net.cpp:100] Creating Layer detection_loss_4_3x5
I0702 09:28:50.504096  9396 net.cpp:434] detection_loss_4_3x5 <- LFCN_4_3x5_LFCN_4_3x5_0_split_0
I0702 09:28:50.504101  9396 net.cpp:434] detection_loss_4_3x5 <- label_4_3x5_data_7_split_0
I0702 09:28:50.504108  9396 net.cpp:408] detection_loss_4_3x5 -> loss_4_3x5
I0702 09:28:50.504117  9396 layer_factory.hpp:77] Creating layer detection_loss_4_3x5
I0702 09:28:50.505031  9396 net.cpp:150] Setting up detection_loss_4_3x5
I0702 09:28:50.505041  9396 net.cpp:157] Top shape: 1 1 1 2 (2)
I0702 09:28:50.505044  9396 net.cpp:160]     with loss weight 1
I0702 09:28:50.505053  9396 net.cpp:165] Memory required for data: 2239210784
I0702 09:28:50.505055  9396 layer_factory.hpp:77] Creating layer detection_accuracy_4_3x5
I0702 09:28:50.505064  9396 net.cpp:100] Creating Layer detection_accuracy_4_3x5
I0702 09:28:50.505069  9396 net.cpp:434] detection_accuracy_4_3x5 <- LFCN_4_3x5_LFCN_4_3x5_0_split_1
I0702 09:28:50.505074  9396 net.cpp:434] detection_accuracy_4_3x5 <- label_4_3x5_data_7_split_1
I0702 09:28:50.505082  9396 net.cpp:408] detection_accuracy_4_3x5 -> accuracy_4_3x5
I0702 09:28:50.505089  9396 net.cpp:408] detection_accuracy_4_3x5 -> boxiou_4_3x5
I0702 09:28:50.505134  9396 net.cpp:150] Setting up detection_accuracy_4_3x5
I0702 09:28:50.505139  9396 net.cpp:157] Top shape: 1 1 1 2 (2)
I0702 09:28:50.505143  9396 net.cpp:157] Top shape: 1 1 1 1 (1)
I0702 09:28:50.505146  9396 net.cpp:165] Memory required for data: 2239210796
I0702 09:28:50.505149  9396 net.cpp:228] detection_accuracy_4_3x5 does not need backward computation.
I0702 09:28:50.505153  9396 net.cpp:226] detection_loss_4_3x5 needs backward computation.
I0702 09:28:50.505156  9396 net.cpp:226] LFCN_4_3x5_LFCN_4_3x5_0_split needs backward computation.
I0702 09:28:50.505161  9396 net.cpp:226] LFCN_4_3x5 needs backward computation.
…
