…
    downsample_rate: 16
    downsample_rate: 32
    downsample_rate: 32
    downsample_rate: 64
    coord_num: 4
    field_h: 60
    field_h: 84
    field_h: 120
    field_h: 168
    field_h: 240
    field_h: 336
    field_h: 480
    field_w: 40
    field_w: 56
    field_w: 80
    field_w: 112
    field_w: 160
    field_w: 224
    field_w: 360
    fg_threshold: 0.5
    resize_width: 1920
    resize_height: 576
    crop_width: 768
    crop_height: 576
    do_multiple_scale: true
    min_scale: 60
    max_scale: 480
    min_gt_height: 30
    shuffle: true
  }
}
layer {
  name: "conv1_1"
  type: "Convolution"
  bottom: "data"
  top: "conv1_1"
  convolution_param {
    num_output: 64
    pad: 1
    kernel_size: 3
  }
}
layer {
  name: "relu1_1"
  type: "ReLU"
  bottom: "conv1_1"
  top: "conv1_1"
}
layer {
  name: "conv1_2"
  type: "Convolution"
  bottom: "conv1_1"
  top: "conv1_2"
  convolution_param {
    num_output: 64
    pad: 1
    kernel_size: 3
  }
}
layer {
  name: "relu1_2"
  type: "ReLU"
  bottom: "conv1_2"
  top: "conv1_2"
}
layer {
  name: "pool1"
  type: "Pooling"
  bottom: "conv1_2"
  top: "pool1"
  pooling_param {
    pool: MAX
    kernel_size: 2
    stride: 2
  }
}
layer {
  name: "conv2_1"
  type: "Convolution"
  bottom: "pool1"
  top: "conv2_1"
  convolution_param {
    num_output: 128
    pad: 1
    kernel_size: 3
  }
}
layer {
  name: "relu2_1"
  type: "ReLU"
  bottom: "conv2_1"
  top: "conv2_1"
}
layer {
  name: "conv2_2"
  type: "Convolution"
  bottom: "conv2_1"
  top: "conv2_2"
  convolution_param {
    num_output: 128
    pad: 1
    kernel_size: 3
  }
}
layer {
  name: "relu2_2"
  type: "ReLU"
  bottom: "conv2_2"
  top: "conv2_2"
}
layer {
  name: "pool2"
  type: "Pooling"
  bottom: "conv2_2"
  top: "pool2"
  pooling_param {
    pool: MAX
    kernel_size: 2
    stride: 2
  }
}
layer {
  name: "conv3_1"
  type: "Convolution"
  bottom: "pool2"
  top: "conv3_1"
  convolution_param {
    num_output: 256
    pad: 1
    kernel_size: 3
  }
}
layer {
  name: "relu3_1"
  type: "ReLU"
  bottom: "conv3_1"
  top: "conv3_1"
}
layer {
  name: "conv3_2"
  type: "Convolution"
  bottom: "conv3_1"
  top: "conv3_2"
  convolution_param {
    num_output: 256
    pad: 1
    kernel_size: 3
  }
}
layer {
  name: "relu3_2"
  type: "ReLU"
  bottom: "conv3_2"
  top: "conv3_2"
}
layer {
  name: "conv3_3"
  type: "Convolution"
  bottom: "conv3_2"
  top: "conv3_3"
  convolution_param {
    num_output: 256
    pad: 1
    kernel_size: 3
  }
}
layer {
  name: "relu3_3"
  type: "ReLU"
  bottom: "conv3_3"
  top: "conv3_3"
}
layer {
  name: "pool3"
  type: "Pooling"
  bottom: "conv3_3"
  top: "pool3"
  pooling_param {
    pool: MAX
    kernel_size: 2
    stride: 2
  }
}
layer {
  name: "conv4_1"
  type: "Convolution"
  bottom: "pool3"
  top: "conv4_1"
  convolution_param {
    num_output: 512
    pad: 1
    kernel_size: 3
  }
}
layer {
  name: "relu4_1"
  type: "ReLU"
  bottom: "conv4_1"
  top: "conv4_1"
}
layer {
  name: "conv4_2"
  type: "Convolution"
  bottom: "conv4_1"
  top: "conv4_2"
  convolution_param {
    num_output: 512
    pad: 1
    kernel_size: 3
  }
}
layer {
  name: "relu4_2"
  type: "ReLU"
  bottom: "conv4_2"
  top: "conv4_2"
}
layer {
  name: "conv4_3"
  type: "Convolution"
  bottom: "conv4_2"
  top: "conv4_3"
  convolution_param {
    num_output: 512
    pad: 1
    kernel_size: 3
  }
}
layer {
  name: "relu4_3"
  type: "ReLU"
  bottom: "conv4_3"
  top: "conv4_3"
}
layer {
  name: "loss1_conv1"
  type: "Convolution"
  bottom: "conv4_3"
  top: "loss1_conv1"
  param {
    lr_mult: 1
    decay_mult: 1
  }
  param {
    lr_mult: 2
    decay_mult: 0
  }
  convolution_param {
    num_output: 512
    pad: 1
    kernel_size: 3
    weight_filler {
      type: "gaussian"
      std: 0.01
    }
    bias_filler {
      type: "constant"
    }
  }
}
layer {
  name: "loss_relu1"
  type: "ReLU"
  bottom: "loss1_conv1"
  top: "loss1_conv1"
}
layer {
  name: "LFCN_1_3x5"
  type: "Convolution"
  bottom: "loss1_conv1"
  top: "LFCN_1_3x5"
  param {
    lr_mult: 1
    decay_mult: 1
  }
  param {
    lr_mult: 2
    decay_mult: 0
  }
  convolution_param {
    num_output: 7
    weight_filler {
      type: "gaussian"
      std: 0.001
    }
    bias_filler {
      type: "constant"
    }
    pad_h: 2
    pad_w: 1
    kernel_h: 5
    kernel_w: 3
  }
}
layer {
  name: "detection_loss_1_3x5"
  type: "DetectionLoss"
  bottom: "LFCN_1_3x5"
  bottom: "label_1_3x5"
  top: "loss_1_3x5"
  loss_weight: 0.9
  detection_loss_param {
    cls_num: 3
    coord_num: 4
    lambda: 0.5
    field_h: 60
    field_w: 40
    downsample_rate: 8
    bb_smooth: true
    field_whr: 2
    field_xyr: 2
    bg_threshold: 0.2
    bg_multiple: 2
    sample_mode: "random"
    pos_neg_weighted: true
  }
}
layer {
  name: "detection_accuracy_1_3x5"
  type: "DetectionAccuracy"
  bottom: "LFCN_1_3x5"
  bottom: "label_1_3x5"
  top: "accuracy_1_3x5"
  top: "boxiou_1_3x5"
  detection_accuracy_param {
    cls_num: 3
    coord_num: 4
    field_h: 60
    field_w: 40
    downsample_rate: 8
    field_whr: 2
    field_xyr: 2
  }
}
layer {
  name: "LFCN_1_5x7"
  type: "Convolution"
  bottom: "loss1_conv1"
  top: "LFCN_1_5x7"
  param {
    lr_mult: 1
    decay_mult: 1
  }
  param {
    lr_mult: 2
    decay_mult: 0
  }
  convolution_param {
    num_output: 7
    weight_filler {
      type: "gaussian"
      std: 0.001
    }
    bias_filler {
      type: "constant"
    }
    pad_h: 3
    pad_w: 2
    kernel_h: 7
    kernel_w: 5
  }
}
layer {
  name: "detection_loss_1_5x7"
  type: "DetectionLoss"
  bottom: "LFCN_1_5x7"
  bottom: "label_1_5x7"
  top: "loss_1_5x7"
  loss_weight: 0.9
  detection_loss_param {
    cls_num: 3
    coord_num: 4
    lambda: 0.5
    field_h: 84
    field_w: 56
    downsample_rate: 8
    bb_smooth: true
    field_whr: 2
    field_xyr: 2
    bg_threshold: 0.2
    bg_multiple: 2
    sample_mode: "random"
    pos_neg_weighted: true
  }
}
layer {
  name: "detection_accuracy_1_5x7"
  type: "DetectionAccuracy"
  bottom: "LFCN_1_5x7"
  bottom: "label_1_5x7"
  top: "accuracy_1_5x7"
  top: "boxiou_1_5x7"
  detection_accuracy_param {
    cls_num: 3
    coord_num: 4
    field_h: 84
    field_w: 56
    downsample_rate: 8
    field_whr: 2
    field_xyr: 2
  }
}
layer {
  name: "pool4"
  type: "Pooling"
  bottom: "conv4_3"
  top: "pool4"
  pooling_param {
    pool: MAX
    kernel_size: 2
    stride: 2
  }
}
layer {
  name: "conv5_1"
  type: "Convolution"
  bottom: "pool4"
  top: "conv5_1"
  convolution_param {
    num_output: 512
    pad: 1
    kernel_size: 3
  }
}
layer {
  name: "relu5_1"
  type: "ReLU"
  bottom: "conv5_1"
  top: "conv5_1"
}
layer {
  name: "conv5_2"
  type: "Convolution"
  bottom: "conv5_1"
  top: "conv5_2"
  convolution_param {
    num_output: 512
    pad: 1
    kernel_size: 3
  }
}
layer {
  name: "relu5_2"
  type: "ReLU"
  bottom: "conv5_2"
  top: "conv5_2"
}
layer {
  name: "conv5_3"
  type: "Convolution"
  bottom: "conv5_2"
  top: "conv5_3"
  convolution_param {
    num_output: 512
    pad: 1
    kernel_size: 3
  }
}
layer {
  name: "relu5_3"
  type: "ReLU"
  bottom: "conv5_3"
  top: "conv5_3"
}
layer {
  name: "LFCN_2_3x5"
  type: "Convolution"
  bottom: "conv5_3"
  top: "LFCN_2_3x5"
  param {
    lr_mult: 1
    decay_mult: 1
  }
  param {
    lr_mult: 2
    decay_mult: 0
  }
  convolution_param {
    num_output: 7
    weight_filler {
      type: "gaussian"
      std: 0.001
    }
    bias_filler {
      type: "constant"
    }
    pad_h: 2
    pad_w: 1
    kernel_h: 5
    kernel_w: 3
  }
}
layer {
  name: "detection_loss_2_3x5"
  type: "DetectionLoss"
  bottom: "LFCN_2_3x5"
  bottom: "label_2_3x5"
  top: "loss_2_3x5"
  detection_loss_param {
    cls_num: 3
    coord_num: 4
    lambda: 0.5
    field_h: 120
    field_w: 80
    downsample_rate: 16
    bb_smooth: true
    field_whr: 2
    field_xyr: 2
    bg_threshold: 0.2
    bg_multiple: 2
    sample_mode: "random"
    pos_neg_weighted: true
  }
}
layer {
  name: "detection_accuracy_2_3x5"
  type: "DetectionAccuracy"
  bottom: "LFCN_2_3x5"
  bottom: "label_2_3x5"
  top: "accuracy_2_3x5"
  top: "boxiou_2_3x5"
  detection_accuracy_param {
    cls_num: 3
    coord_num: 4
    field_h: 120
    field_w: 80
    downsample_rate: 16
    field_whr: 2
    field_xyr: 2
  }
}
layer {
  name: "LFCN_2_5x7"
  type: "Convolution"
  bottom: "conv5_3"
  top: "LFCN_2_5x7"
  param {
    lr_mult: 1
    decay_mult: 1
  }
  param {
    lr_mult: 2
    decay_mult: 0
  }
  convolution_param {
    num_output: 7
    weight_filler {
      type: "gaussian"
      std: 0.001
    }
    bias_filler {
      type: "constant"
    }
    pad_h: 3
    pad_w: 2
    kernel_h: 7
    kernel_w: 5
  }
}
layer {
  name: "detection_loss_2_5x7"
  type: "DetectionLoss"
  bottom: "LFCN_2_5x7"
  bottom: "label_2_5x7"
  top: "loss_2_5x7"
  detection_loss_param {
    cls_num: 3
    coord_num: 4
    lambda: 0.5
    field_h: 168
    field_w: 112
    downsample_rate: 16
    bb_smooth: true
    field_whr: 2
    field_xyr: 2
    bg_threshold: 0.2
    bg_multiple: 2
    sample_mode: "random"
    pos_neg_weighted: true
  }
}
layer {
  name: "detection_accuracy_2_5x7"
  type: "DetectionAccuracy"
  bottom: "LFCN_2_5x7"
  bottom: "label_2_5x7"
  top: "accuracy_2_5x7"
  top: "boxiou_2_5x7"
  detection_accuracy_param {
    cls_num: 3
    coord_num: 4
    field_h: 168
    field_w: 112
    downsample_rate: 16
    field_whr: 2
    field_xyr: 2
  }
}
layer {
  name: "pool5"
  type: "Pooling"
  bottom: "conv5_3"
  top: "pool5"
  pooling_param {
    pool: MAX
    kernel_size: 2
    stride: 2
  }
}
layer {
  name: "conv6_1"
  type: "Convolution"
  bottom: "pool5"
  top: "conv6_1"
  param {
    lr_mult: 1
    decay_mult: 1
  }
  param {
    lr_mult: 2
    decay_mult: 0
  }
  convolution_param {
    num_output: 512
    pad: 1
    kernel_size: 3
    weight_filler {
      type: "gaussian"
      std: 0.01
    }
    bias_filler {
      type: "constant"
    }
  }
}
layer {
  name: "relu6_1"
  type: "ReLU"
  bottom: "conv6_1"
  top: "conv6_1"
}
layer {
  name: "LFCN_3_3x5"
  type: "Convolution"
  bottom: "conv6_1"
  top: "LFCN_3_3x5"
  param {
    lr_mult: 1
    decay_mult: 1
  }
  param {
    lr_mult: 2
    decay_mult: 0
  }
  convolution_param {
    num_output: 7
    weight_filler {
      type: "gaussian"
      std: 0.001
    }
    bias_filler {
      type: "constant"
    }
    pad_h: 2
    pad_w: 1
    kernel_h: 5
    kernel_w: 3
  }
}
layer {
  name: "detection_loss_3_3x5"
  type: "DetectionLoss"
  bottom: "LFCN_3_3x5"
  bottom: "label_3_3x5"
  top: "loss_3_3x5"
  detection_loss_param {
    cls_num: 3
    coord_num: 4
    lambda: 0.5
    field_h: 240
    field_w: 160
    downsample_rate: 32
    bb_smooth: true
    field_whr: 2
    field_xyr: 2
    bg_threshold: 0.2
    bg_multiple: 2
    sample_mode: "random"
    pos_neg_weighted: true
  }
}
layer {
  name: "detection_accuracy_3_3x5"
  type: "DetectionAccuracy"
  bottom: "LFCN_3_3x5"
  bottom: "label_3_3x5"
  top: "accuracy_3_3x5"
  top: "boxiou_3_3x5"
  detection_accuracy_param {
    cls_num: 3
    coord_num: 4
    field_h: 240
    field_w: 160
    downsample_rate: 32
    field_whr: 2
    field_xyr: 2
  }
}
layer {
  name: "LFCN_3_5x7"
  type: "Convolution"
  bottom: "conv6_1"
  top: "LFCN_3_5x7"
  param {
    lr_mult: 1
    decay_mult: 1
  }
  param {
    lr_mult: 2
    decay_mult: 0
  }
  convolution_param {
    num_output: 7
    weight_filler {
      type: "gaussian"
      std: 0.001
    }
    bias_filler {
      type: "constant"
    }
    pad_h: 3
    pad_w: 2
    kernel_h: 7
    kernel_w: 5
  }
}
layer {
  name: "detection_loss_3_5x7"
  type: "DetectionLoss"
  bottom: "LFCN_3_5x7"
  bottom: "label_3_5x7"
  top: "loss_3_5x7"
  detection_loss_param {
    cls_num: 3
    coord_num: 4
    lambda: 0.5
    field_h: 336
    field_w: 224
    downsample_rate: 32
    bb_smooth: true
    field_whr: 2
    field_xyr: 2
    bg_threshold: 0.2
    bg_multiple: 2
    sample_mode: "random"
    pos_neg_weighted: true
  }
}
layer {
  name: "detection_accuracy_3_5x7"
  type: "DetectionAccuracy"
  bottom: "LFCN_3_5x7"
  bottom: "label_3_5x7"
  top: "accuracy_3_5x7"
  top: "boxiou_3_5x7"
  detection_accuracy_param {
    cls_num: 3
    coord_num: 4
    field_h: 336
    field_w: 224
    downsample_rate: 32
    field_whr: 2
    field_xyr: 2
  }
}
layer {
  name: "pool6"
  type: "Pooling"
  bottom: "conv6_1"
  top: "pool6"
  pooling_param {
    pool: MAX
    kernel_size: 2
    stride: 2
  }
}
layer {
  name: "LFCN_4_3x5"
  type: "Convolution"
  bottom: "pool6"
  top: "LFCN_4_3x5"
  param {
    lr_mult: 1
    decay_mult: 1
  }
  param {
    lr_mult: 2
    decay_mult: 0
  }
  convolution_param {
    num_output: 7
    weight_filler {
      type: "gaussian"
      std: 0.001
    }
    bias_filler {
      type: "constant"
    }
    pad_h: 2
    pad_w: 1
    kernel_h: 5
    kernel_w: 3
  }
}
layer {
  name: "detection_loss_4_3x5"
  type: "DetectionLoss"
  bottom: "LFCN_4_3x5"
  bottom: "label_4_3x5"
  top: "loss_4_3x5"
  detection_loss_param {
    cls_num: 3
    coord_num: 4
    lambda: 0.5
    field_h: 480
    field_w: 360
    downsample_rate: 64
    bb_smooth: true
    field_whr: 2
    field_xyr: 2
    bg_threshold: 0.2
    bg_multiple: 2
    sample_mode: "random"
    pos_neg_weighted: true
  }
}
layer {
  name: "detection_accuracy_4_3x5"
  type: "DetectionAccuracy"
  bottom: "LFCN_4_3x5"
  bottom: "label_4_3x5"
  top: "accuracy_4_3x5"
  top: "boxiou_4_3x5"
  detection_accuracy_param {
    cls_num: 3
    coord_num: 4
    field_h: 480
    field_w: 360
    downsample_rate: 64
    field_whr: 2
    field_xyr: 2
  }
}
I0629 00:09:06.995052 21714 layer_factory.hpp:77] Creating layer data
I0629 00:09:06.995079 21714 net.cpp:100] Creating Layer data
I0629 00:09:06.995085 21714 net.cpp:408] data -> data
…
I0629 00:09:07.019322 21714 image_gt_data_layer.cpp:241] output label size 2 : 4,6,36,48
I0629 00:09:07.019356 21714 image_gt_data_layer.cpp:241] output label size 3 : 4,6,36,48
I0629 00:09:07.019387 21714 image_gt_data_layer.cpp:241] output label size 4 : 4,6,18,24
I0629 00:09:07.019420 21714 image_gt_data_layer.cpp:241] output label size 5 : 4,6,18,24
I0629 00:09:07.019453 21714 image_gt_data_layer.cpp:241] output label size 6 : 4,6,9,12
I0629 00:09:07.019456 21714 image_gt_data_layer.cpp:265]  --> has_mean_values_ = 1
I0629 00:09:07.055410 21714 net.cpp:150] Setting up data
I0629 00:09:07.055430 21714 net.cpp:157] Top shape: 4 4 576 768 (7077888)
I0629 00:09:07.055435 21714 net.cpp:157] Top shape: 4 6 72 96 (165888)
I0629 00:09:07.055439 21714 net.cpp:157] Top shape: 4 6 72 96 (165888)
I0629 00:09:07.055443 21714 net.cpp:157] Top shape: 4 6 36 48 (41472)
I0629 00:09:07.055446 21714 net.cpp:157] Top shape: 4 6 36 48 (41472)
I0629 00:09:07.055450 21714 net.cpp:157] Top shape: 4 6 18 24 (10368)
I0629 00:09:07.055454 21714 net.cpp:157] Top shape: 4 6 18 24 (10368)
I0629 00:09:07.055457 21714 net.cpp:157] Top shape: 4 6 9 12 (2592)
I0629 00:09:07.055460 21714 net.cpp:165] Memory required for data: 30063744
I0629 00:09:07.055467 21714 layer_factory.hpp:77] Creating layer label_1_3x5_data_1_split
I0629 00:09:07.055480 21714 net.cpp:100] Creating Layer label_1_3x5_data_1_split
I0629 00:09:07.055487 21714 net.cpp:434] label_1_3x5_data_1_split <- label_1_3x5
I0629 00:09:07.055500 21714 net.cpp:408] label_1_3x5_data_1_split -> label_1_3x5_data_1_split_0
I0629 00:09:07.055512 21714 net.cpp:408] label_1_3x5_data_1_split -> label_1_3x5_data_1_split_1
I0629 00:09:07.055549 21714 net.cpp:150] Setting up label_1_3x5_data_1_split
I0629 00:09:07.055555 21714 net.cpp:157] Top shape: 4 6 72 96 (165888)
I0629 00:09:07.055558 21714 net.cpp:157] Top shape: 4 6 72 96 (165888)
I0629 00:09:07.055562 21714 net.cpp:165] Memory required for data: 31390848
I0629 00:09:07.055564 21714 layer_factory.hpp:77] Creating layer label_1_5x7_data_2_split
I0629 00:09:07.055572 21714 net.cpp:100] Creating Layer label_1_5x7_data_2_split
I0629 00:09:07.055577 21714 net.cpp:434] label_1_5x7_data_2_split <- label_1_5x7
I0629 00:09:07.055582 21714 net.cpp:408] label_1_5x7_data_2_split -> label_1_5x7_data_2_split_0
I0629 00:09:07.055589 21714 net.cpp:408] label_1_5x7_data_2_split -> label_1_5x7_data_2_split_1
I0629 00:09:07.055616 21714 net.cpp:150] Setting up label_1_5x7_data_2_split
I0629 00:09:07.055621 21714 net.cpp:157] Top shape: 4 6 72 96 (165888)
I0629 00:09:07.055625 21714 net.cpp:157] Top shape: 4 6 72 96 (165888)
I0629 00:09:07.055627 21714 net.cpp:165] Memory required for data: 32717952
I0629 00:09:07.055630 21714 layer_factory.hpp:77] Creating layer label_2_3x5_data_3_split
I0629 00:09:07.055636 21714 net.cpp:100] Creating Layer label_2_3x5_data_3_split
I0629 00:09:07.055640 21714 net.cpp:434] label_2_3x5_data_3_split <- label_2_3x5
I0629 00:09:07.055645 21714 net.cpp:408] label_2_3x5_data_3_split -> label_2_3x5_data_3_split_0
I0629 00:09:07.055654 21714 net.cpp:408] label_2_3x5_data_3_split -> label_2_3x5_data_3_split_1
I0629 00:09:07.055681 21714 net.cpp:150] Setting up label_2_3x5_data_3_split
I0629 00:09:07.055687 21714 net.cpp:157] Top shape: 4 6 36 48 (41472)
I0629 00:09:07.055691 21714 net.cpp:157] Top shape: 4 6 36 48 (41472)
I0629 00:09:07.055696 21714 net.cpp:165] Memory required for data: 33049728
I0629 00:09:07.055698 21714 layer_factory.hpp:77] Creating layer label_2_5x7_data_4_split
I0629 00:09:07.055703 21714 net.cpp:100] Creating Layer label_2_5x7_data_4_split
I0629 00:09:07.055707 21714 net.cpp:434] label_2_5x7_data_4_split <- label_2_5x7
I0629 00:09:07.055712 21714 net.cpp:408] label_2_5x7_data_4_split -> label_2_5x7_data_4_split_0
I0629 00:09:07.055721 21714 net.cpp:408] label_2_5x7_data_4_split -> label_2_5x7_data_4_split_1
I0629 00:09:07.055747 21714 net.cpp:150] Setting up label_2_5x7_data_4_split
I0629 00:09:07.055752 21714 net.cpp:157] Top shape: 4 6 36 48 (41472)
I0629 00:09:07.055757 21714 net.cpp:157] Top shape: 4 6 36 48 (41472)
I0629 00:09:07.055758 21714 net.cpp:165] Memory required for data: 33381504
I0629 00:09:07.055761 21714 layer_factory.hpp:77] Creating layer label_3_3x5_data_5_split
I0629 00:09:07.055766 21714 net.cpp:100] Creating Layer label_3_3x5_data_5_split
I0629 00:09:07.055770 21714 net.cpp:434] label_3_3x5_data_5_split <- label_3_3x5
I0629 00:09:07.055775 21714 net.cpp:408] label_3_3x5_data_5_split -> label_3_3x5_data_5_split_0
I0629 00:09:07.055784 21714 net.cpp:408] label_3_3x5_data_5_split -> label_3_3x5_data_5_split_1
I0629 00:09:07.055809 21714 net.cpp:150] Setting up label_3_3x5_data_5_split
I0629 00:09:07.055814 21714 net.cpp:157] Top shape: 4 6 18 24 (10368)
I0629 00:09:07.055819 21714 net.cpp:157] Top shape: 4 6 18 24 (10368)
I0629 00:09:07.055821 21714 net.cpp:165] Memory required for data: 33464448
I0629 00:09:07.055824 21714 layer_factory.hpp:77] Creating layer label_3_5x7_data_6_split
I0629 00:09:07.055829 21714 net.cpp:100] Creating Layer label_3_5x7_data_6_split
I0629 00:09:07.055831 21714 net.cpp:434] label_3_5x7_data_6_split <- label_3_5x7
I0629 00:09:07.055837 21714 net.cpp:408] label_3_5x7_data_6_split -> label_3_5x7_data_6_split_0
I0629 00:09:07.055845 21714 net.cpp:408] label_3_5x7_data_6_split -> label_3_5x7_data_6_split_1
I0629 00:09:07.055874 21714 net.cpp:150] Setting up label_3_5x7_data_6_split
I0629 00:09:07.055879 21714 net.cpp:157] Top shape: 4 6 18 24 (10368)
I0629 00:09:07.055883 21714 net.cpp:157] Top shape: 4 6 18 24 (10368)
I0629 00:09:07.055886 21714 net.cpp:165] Memory required for data: 33547392
I0629 00:09:07.055889 21714 layer_factory.hpp:77] Creating layer label_4_3x5_data_7_split
I0629 00:09:07.055893 21714 net.cpp:100] Creating Layer label_4_3x5_data_7_split
I0629 00:09:07.055897 21714 net.cpp:434] label_4_3x5_data_7_split <- label_4_3x5
I0629 00:09:07.055902 21714 net.cpp:408] label_4_3x5_data_7_split -> label_4_3x5_data_7_split_0
I0629 00:09:07.055909 21714 net.cpp:408] label_4_3x5_data_7_split -> label_4_3x5_data_7_split_1
I0629 00:09:07.055938 21714 net.cpp:150] Setting up label_4_3x5_data_7_split
I0629 00:09:07.055941 21714 net.cpp:157] Top shape: 4 6 9 12 (2592)
I0629 00:09:07.055945 21714 net.cpp:157] Top shape: 4 6 9 12 (2592)
I0629 00:09:07.055948 21714 net.cpp:165] Memory required for data: 33568128
I0629 00:09:07.055950 21714 layer_factory.hpp:77] Creating layer conv1_1
I0629 00:09:07.055965 21714 net.cpp:100] Creating Layer conv1_1
I0629 00:09:07.055969 21714 net.cpp:434] conv1_1 <- data
I0629 00:09:07.055974 21714 net.cpp:408] conv1_1 -> conv1_1
I0629 00:09:07.594529 21714 net.cpp:150] Setting up conv1_1
I0629 00:09:07.594552 21714 net.cpp:157] Top shape: 4 64 576 768 (113246208)
I0629 00:09:07.594555 21714 net.cpp:165] Memory required for data: 486552960
I0629 00:09:07.594575 21714 layer_factory.hpp:77] Creating layer relu1_1
I0629 00:09:07.594585 21714 net.cpp:100] Creating Layer relu1_1
I0629 00:09:07.594590 21714 net.cpp:434] relu1_1 <- conv1_1
I0629 00:09:07.594599 21714 net.cpp:395] relu1_1 -> conv1_1 (in-place)
I0629 00:09:07.594888 21714 net.cpp:150] Setting up relu1_1
I0629 00:09:07.594895 21714 net.cpp:157] Top shape: 4 64 576 768 (113246208)
I0629 00:09:07.594898 21714 net.cpp:165] Memory required for data: 939537792
I0629 00:09:07.594902 21714 layer_factory.hpp:77] Creating layer conv1_2
I0629 00:09:07.594910 21714 net.cpp:100] Creating Layer conv1_2
I0629 00:09:07.594915 21714 net.cpp:434] conv1_2 <- conv1_1
I0629 00:09:07.594920 21714 net.cpp:408] conv1_2 -> conv1_2
I0629 00:09:07.597820 21714 net.cpp:150] Setting up conv1_2
I0629 00:09:07.597838 21714 net.cpp:157] Top shape: 4 64 576 768 (113246208)
I0629 00:09:07.597841 21714 net.cpp:165] Memory required for data: 1392522624
I0629 00:09:07.597856 21714 layer_factory.hpp:77] Creating layer relu1_2
I0629 00:09:07.597864 21714 net.cpp:100] Creating Layer relu1_2
I0629 00:09:07.597870 21714 net.cpp:434] relu1_2 <- conv1_2
I0629 00:09:07.597877 21714 net.cpp:395] relu1_2 -> conv1_2 (in-place)
I0629 00:09:07.598156 21714 net.cpp:150] Setting up relu1_2
I0629 00:09:07.598163 21714 net.cpp:157] Top shape: 4 64 576 768 (113246208)
I0629 00:09:07.598166 21714 net.cpp:165] Memory required for data: 1845507456
I0629 00:09:07.598170 21714 layer_factory.hpp:77] Creating layer pool1
I0629 00:09:07.598176 21714 net.cpp:100] Creating Layer pool1
I0629 00:09:07.598179 21714 net.cpp:434] pool1 <- conv1_2
I0629 00:09:07.598184 21714 net.cpp:408] pool1 -> pool1
I0629 00:09:07.598240 21714 net.cpp:150] Setting up pool1
I0629 00:09:07.598245 21714 net.cpp:157] Top shape: 4 64 288 384 (28311552)
I0629 00:09:07.598248 21714 net.cpp:165] Memory required for data: 1958753664
I0629 00:09:07.598250 21714 layer_factory.hpp:77] Creating layer conv2_1
I0629 00:09:07.598258 21714 net.cpp:100] Creating Layer conv2_1
I0629 00:09:07.598263 21714 net.cpp:434] conv2_1 <- pool1
I0629 00:09:07.598266 21714 net.cpp:408] conv2_1 -> conv2_1
I0629 00:09:07.600726 21714 net.cpp:150] Setting up conv2_1
I0629 00:09:07.600744 21714 net.cpp:157] Top shape: 4 128 288 384 (56623104)
I0629 00:09:07.600747 21714 net.cpp:165] Memory required for data: 2185246080
I0629 00:09:07.600762 21714 layer_factory.hpp:77] Creating layer relu2_1
I0629 00:09:07.600771 21714 net.cpp:100] Creating Layer relu2_1
I0629 00:09:07.600777 21714 net.cpp:434] relu2_1 <- conv2_1
I0629 00:09:07.600786 21714 net.cpp:395] relu2_1 -> conv2_1 (in-place)
I0629 00:09:07.601441 21714 net.cpp:150] Setting up relu2_1
I0629 00:09:07.601452 21714 net.cpp:157] Top shape: 4 128 288 384 (56623104)
I0629 00:09:07.601455 21714 net.cpp:165] Memory required for data: 2411738496
I0629 00:09:07.601459 21714 layer_factory.hpp:77] Creating layer conv2_2
I0629 00:09:07.601467 21714 net.cpp:100] Creating Layer conv2_2
I0629 00:09:07.601472 21714 net.cpp:434] conv2_2 <- conv2_1
I0629 00:09:07.601480 21714 net.cpp:408] conv2_2 -> conv2_2
I0629 00:09:07.603220 21714 net.cpp:150] Setting up conv2_2
I0629 00:09:07.603235 21714 net.cpp:157] Top shape: 4 128 288 384 (56623104)
I0629 00:09:07.603237 21714 net.cpp:165] Memory required for data: 2638230912
I0629 00:09:07.603245 21714 layer_factory.hpp:77] Creating layer relu2_2
I0629 00:09:07.603258 21714 net.cpp:100] Creating Layer relu2_2
I0629 00:09:07.603263 21714 net.cpp:434] relu2_2 <- conv2_2
I0629 00:09:07.603269 21714 net.cpp:395] relu2_2 -> conv2_2 (in-place)
I0629 00:09:07.603870 21714 net.cpp:150] Setting up relu2_2
I0629 00:09:07.603879 21714 net.cpp:157] Top shape: 4 128 288 384 (56623104)
I0629 00:09:07.603883 21714 net.cpp:165] Memory required for data: 2864723328
I0629 00:09:07.603885 21714 layer_factory.hpp:77] Creating layer pool2
I0629 00:09:07.603891 21714 net.cpp:100] Creating Layer pool2
I0629 00:09:07.603896 21714 net.cpp:434] pool2 <- conv2_2
I0629 00:09:07.603904 21714 net.cpp:408] pool2 -> pool2
I0629 00:09:07.603945 21714 net.cpp:150] Setting up pool2
I0629 00:09:07.603953 21714 net.cpp:157] Top shape: 4 128 144 192 (14155776)
I0629 00:09:07.603956 21714 net.cpp:165] Memory required for data: 2921346432
I0629 00:09:07.603960 21714 layer_factory.hpp:77] Creating layer conv3_1
I0629 00:09:07.603967 21714 net.cpp:100] Creating Layer conv3_1
I0629 00:09:07.603971 21714 net.cpp:434] conv3_1 <- pool2
I0629 00:09:07.603976 21714 net.cpp:408] conv3_1 -> conv3_1
I0629 00:09:07.607271 21714 net.cpp:150] Setting up conv3_1
I0629 00:09:07.607291 21714 net.cpp:157] Top shape: 4 256 144 192 (28311552)
I0629 00:09:07.607295 21714 net.cpp:165] Memory required for data: 3034592640
I0629 00:09:07.607308 21714 layer_factory.hpp:77] Creating layer relu3_1
I0629 00:09:07.607316 21714 net.cpp:100] Creating Layer relu3_1
I0629 00:09:07.607322 21714 net.cpp:434] relu3_1 <- conv3_1
I0629 00:09:07.607329 21714 net.cpp:395] relu3_1 -> conv3_1 (in-place)
I0629 00:09:07.607587 21714 net.cpp:150] Setting up relu3_1
I0629 00:09:07.607595 21714 net.cpp:157] Top shape: 4 256 144 192 (28311552)
I0629 00:09:07.607599 21714 net.cpp:165] Memory required for data: 3147838848
I0629 00:09:07.607601 21714 layer_factory.hpp:77] Creating layer conv3_2
I0629 00:09:07.607609 21714 net.cpp:100] Creating Layer conv3_2
I0629 00:09:07.607614 21714 net.cpp:434] conv3_2 <- conv3_1
I0629 00:09:07.607620 21714 net.cpp:408] conv3_2 -> conv3_2
I0629 00:09:07.610865 21714 net.cpp:150] Setting up conv3_2
I0629 00:09:07.610886 21714 net.cpp:157] Top shape: 4 256 144 192 (28311552)
I0629 00:09:07.610888 21714 net.cpp:165] Memory required for data: 3261085056
I0629 00:09:07.610898 21714 layer_factory.hpp:77] Creating layer relu3_2
I0629 00:09:07.610911 21714 net.cpp:100] Creating Layer relu3_2
I0629 00:09:07.610915 21714 net.cpp:434] relu3_2 <- conv3_2
I0629 00:09:07.610924 21714 net.cpp:395] relu3_2 -> conv3_2 (in-place)
I0629 00:09:07.611178 21714 net.cpp:150] Setting up relu3_2
I0629 00:09:07.611186 21714 net.cpp:157] Top shape: 4 256 144 192 (28311552)
I0629 00:09:07.611188 21714 net.cpp:165] Memory required for data: 3374331264
I0629 00:09:07.611192 21714 layer_factory.hpp:77] Creating layer conv3_3
I0629 00:09:07.611201 21714 net.cpp:100] Creating Layer conv3_3
I0629 00:09:07.611204 21714 net.cpp:434] conv3_3 <- conv3_2
I0629 00:09:07.611209 21714 net.cpp:408] conv3_3 -> conv3_3
I0629 00:09:07.614132 21714 net.cpp:150] Setting up conv3_3
I0629 00:09:07.614153 21714 net.cpp:157] Top shape: 4 256 144 192 (28311552)
I0629 00:09:07.614156 21714 net.cpp:165] Memory required for data: 3487577472
I0629 00:09:07.614169 21714 layer_factory.hpp:77] Creating layer relu3_3
I0629 00:09:07.614179 21714 net.cpp:100] Creating Layer relu3_3
I0629 00:09:07.614184 21714 net.cpp:434] relu3_3 <- conv3_3
I0629 00:09:07.614192 21714 net.cpp:395] relu3_3 -> conv3_3 (in-place)
I0629 00:09:07.614783 21714 net.cpp:150] Setting up relu3_3
I0629 00:09:07.614790 21714 net.cpp:157] Top shape: 4 256 144 192 (28311552)
I0629 00:09:07.614794 21714 net.cpp:165] Memory required for data: 3600823680
I0629 00:09:07.614796 21714 layer_factory.hpp:77] Creating layer pool3
I0629 00:09:07.614804 21714 net.cpp:100] Creating Layer pool3
I0629 00:09:07.614809 21714 net.cpp:434] pool3 <- conv3_3
I0629 00:09:07.614814 21714 net.cpp:408] pool3 -> pool3
I0629 00:09:07.614856 21714 net.cpp:150] Setting up pool3
I0629 00:09:07.614861 21714 net.cpp:157] Top shape: 4 256 72 96 (7077888)
I0629 00:09:07.614864 21714 net.cpp:165] Memory required for data: 3629135232
I0629 00:09:07.614866 21714 layer_factory.hpp:77] Creating layer conv4_1
I0629 00:09:07.614876 21714 net.cpp:100] Creating Layer conv4_1
I0629 00:09:07.614879 21714 net.cpp:434] conv4_1 <- pool3
I0629 00:09:07.614886 21714 net.cpp:408] conv4_1 -> conv4_1
I0629 00:09:07.619552 21714 net.cpp:150] Setting up conv4_1
I0629 00:09:07.619573 21714 net.cpp:157] Top shape: 4 512 72 96 (14155776)
I0629 00:09:07.619576 21714 net.cpp:165] Memory required for data: 3685758336
I0629 00:09:07.619585 21714 layer_factory.hpp:77] Creating layer relu4_1
I0629 00:09:07.619601 21714 net.cpp:100] Creating Layer relu4_1
I0629 00:09:07.619606 21714 net.cpp:434] relu4_1 <- conv4_1
I0629 00:09:07.619612 21714 net.cpp:395] relu4_1 -> conv4_1 (in-place)
I0629 00:09:07.619863 21714 net.cpp:150] Setting up relu4_1
I0629 00:09:07.619869 21714 net.cpp:157] Top shape: 4 512 72 96 (14155776)
I0629 00:09:07.619873 21714 net.cpp:165] Memory required for data: 3742381440
I0629 00:09:07.619875 21714 layer_factory.hpp:77] Creating layer conv4_2
I0629 00:09:07.619884 21714 net.cpp:100] Creating Layer conv4_2
I0629 00:09:07.619889 21714 net.cpp:434] conv4_2 <- conv4_1
I0629 00:09:07.619894 21714 net.cpp:408] conv4_2 -> conv4_2
I0629 00:09:07.626293 21714 net.cpp:150] Setting up conv4_2
I0629 00:09:07.626312 21714 net.cpp:157] Top shape: 4 512 72 96 (14155776)
I0629 00:09:07.626314 21714 net.cpp:165] Memory required for data: 3799004544
I0629 00:09:07.626332 21714 layer_factory.hpp:77] Creating layer relu4_2
I0629 00:09:07.626343 21714 net.cpp:100] Creating Layer relu4_2
I0629 00:09:07.626348 21714 net.cpp:434] relu4_2 <- conv4_2
I0629 00:09:07.626354 21714 net.cpp:395] relu4_2 -> conv4_2 (in-place)
I0629 00:09:07.626593 21714 net.cpp:150] Setting up relu4_2
I0629 00:09:07.626602 21714 net.cpp:157] Top shape: 4 512 72 96 (14155776)
I0629 00:09:07.626605 21714 net.cpp:165] Memory required for data: 3855627648
I0629 00:09:07.626608 21714 layer_factory.hpp:77] Creating layer conv4_3
I0629 00:09:07.626616 21714 net.cpp:100] Creating Layer conv4_3
I0629 00:09:07.626619 21714 net.cpp:434] conv4_3 <- conv4_2
I0629 00:09:07.626626 21714 net.cpp:408] conv4_3 -> conv4_3
I0629 00:09:07.631958 21714 net.cpp:150] Setting up conv4_3
I0629 00:09:07.631979 21714 net.cpp:157] Top shape: 4 512 72 96 (14155776)
I0629 00:09:07.631981 21714 net.cpp:165] Memory required for data: 3912250752
I0629 00:09:07.631991 21714 layer_factory.hpp:77] Creating layer relu4_3
I0629 00:09:07.632002 21714 net.cpp:100] Creating Layer relu4_3
I0629 00:09:07.632007 21714 net.cpp:434] relu4_3 <- conv4_3
I0629 00:09:07.632014 21714 net.cpp:395] relu4_3 -> conv4_3 (in-place)
I0629 00:09:07.632661 21714 net.cpp:150] Setting up relu4_3
I0629 00:09:07.632670 21714 net.cpp:157] Top shape: 4 512 72 96 (14155776)
I0629 00:09:07.632673 21714 net.cpp:165] Memory required for data: 3968873856
I0629 00:09:07.632676 21714 layer_factory.hpp:77] Creating layer conv4_3_relu4_3_0_split
I0629 00:09:07.632683 21714 net.cpp:100] Creating Layer conv4_3_relu4_3_0_split
I0629 00:09:07.632688 21714 net.cpp:434] conv4_3_relu4_3_0_split <- conv4_3
I0629 00:09:07.632695 21714 net.cpp:408] conv4_3_relu4_3_0_split -> conv4_3_relu4_3_0_split_0
I0629 00:09:07.632704 21714 net.cpp:408] conv4_3_relu4_3_0_split -> conv4_3_relu4_3_0_split_1
I0629 00:09:07.632745 21714 net.cpp:150] Setting up conv4_3_relu4_3_0_split
I0629 00:09:07.632750 21714 net.cpp:157] Top shape: 4 512 72 96 (14155776)
I0629 00:09:07.632755 21714 net.cpp:157] Top shape: 4 512 72 96 (14155776)
I0629 00:09:07.632756 21714 net.cpp:165] Memory required for data: 4082120064
I0629 00:09:07.632761 21714 layer_factory.hpp:77] Creating layer loss1_conv1
I0629 00:09:07.632776 21714 net.cpp:100] Creating Layer loss1_conv1
I0629 00:09:07.632778 21714 net.cpp:434] loss1_conv1 <- conv4_3_relu4_3_0_split_0
I0629 00:09:07.632784 21714 net.cpp:408] loss1_conv1 -> loss1_conv1
I0629 00:09:07.667194 21714 net.cpp:150] Setting up loss1_conv1
I0629 00:09:07.667215 21714 net.cpp:157] Top shape: 4 512 72 96 (14155776)
I0629 00:09:07.667218 21714 net.cpp:165] Memory required for data: 4138743168
I0629 00:09:07.667228 21714 layer_factory.hpp:77] Creating layer loss_relu1
I0629 00:09:07.667237 21714 net.cpp:100] Creating Layer loss_relu1
I0629 00:09:07.667241 21714 net.cpp:434] loss_relu1 <- loss1_conv1
I0629 00:09:07.667250 21714 net.cpp:395] loss_relu1 -> loss1_conv1 (in-place)
I0629 00:09:07.667490 21714 net.cpp:150] Setting up loss_relu1
I0629 00:09:07.667497 21714 net.cpp:157] Top shape: 4 512 72 96 (14155776)
I0629 00:09:07.667500 21714 net.cpp:165] Memory required for data: 4195366272
I0629 00:09:07.667503 21714 layer_factory.hpp:77] Creating layer loss1_conv1_loss_relu1_0_split
I0629 00:09:07.667510 21714 net.cpp:100] Creating Layer loss1_conv1_loss_relu1_0_split
I0629 00:09:07.667513 21714 net.cpp:434] loss1_conv1_loss_relu1_0_split <- loss1_conv1
I0629 00:09:07.667520 21714 net.cpp:408] loss1_conv1_loss_relu1_0_split -> loss1_conv1_loss_relu1_0_split_0
I0629 00:09:07.667528 21714 net.cpp:408] loss1_conv1_loss_relu1_0_split -> loss1_conv1_loss_relu1_0_split_1
I0629 00:09:07.667567 21714 net.cpp:150] Setting up loss1_conv1_loss_relu1_0_split
I0629 00:09:07.667572 21714 net.cpp:157] Top shape: 4 512 72 96 (14155776)
I0629 00:09:07.667577 21714 net.cpp:157] Top shape: 4 512 72 96 (14155776)
I0629 00:09:07.667579 21714 net.cpp:165] Memory required for data: 4308612480
I0629 00:09:07.667582 21714 layer_factory.hpp:77] Creating layer LFCN_1_3x5
I0629 00:09:07.667593 21714 net.cpp:100] Creating Layer LFCN_1_3x5
I0629 00:09:07.667596 21714 net.cpp:434] LFCN_1_3x5 <- loss1_conv1_loss_relu1_0_split_0
I0629 00:09:07.667603 21714 net.cpp:408] LFCN_1_3x5 -> LFCN_1_3x5
I0629 00:09:07.669710 21714 net.cpp:150] Setting up LFCN_1_3x5
I0629 00:09:07.669721 21714 net.cpp:157] Top shape: 4 7 72 96 (193536)
I0629 00:09:07.669724 21714 net.cpp:165] Memory required for data: 4309386624
I0629 00:09:07.669731 21714 layer_factory.hpp:77] Creating layer LFCN_1_3x5_LFCN_1_3x5_0_split
I0629 00:09:07.669740 21714 net.cpp:100] Creating Layer LFCN_1_3x5_LFCN_1_3x5_0_split
I0629 00:09:07.669745 21714 net.cpp:434] LFCN_1_3x5_LFCN_1_3x5_0_split <- LFCN_1_3x5
I0629 00:09:07.669751 21714 net.cpp:408] LFCN_1_3x5_LFCN_1_3x5_0_split -> LFCN_1_3x5_LFCN_1_3x5_0_split_0
I0629 00:09:07.669760 21714 net.cpp:408] LFCN_1_3x5_LFCN_1_3x5_0_split -> LFCN_1_3x5_LFCN_1_3x5_0_split_1
I0629 00:09:07.669800 21714 net.cpp:150] Setting up LFCN_1_3x5_LFCN_1_3x5_0_split
I0629 00:09:07.669806 21714 net.cpp:157] Top shape: 4 7 72 96 (193536)
I0629 00:09:07.669809 21714 net.cpp:157] Top shape: 4 7 72 96 (193536)
I0629 00:09:07.669812 21714 net.cpp:165] Memory required for data: 4310934912
I0629 00:09:07.669816 21714 layer_factory.hpp:77] Creating layer detection_loss_1_3x5
I0629 00:09:07.669823 21714 net.cpp:100] Creating Layer detection_loss_1_3x5
I0629 00:09:07.669827 21714 net.cpp:434] detection_loss_1_3x5 <- LFCN_1_3x5_LFCN_1_3x5_0_split_0
I0629 00:09:07.669831 21714 net.cpp:434] detection_loss_1_3x5 <- label_1_3x5_data_1_split_0
I0629 00:09:07.669838 21714 net.cpp:408] detection_loss_1_3x5 -> loss_1_3x5
I0629 00:09:07.669852 21714 layer_factory.hpp:77] Creating layer detection_loss_1_3x5
I0629 00:09:07.670267 21714 net.cpp:150] Setting up detection_loss_1_3x5
I0629 00:09:07.670274 21714 net.cpp:157] Top shape: 1 1 1 2 (2)
I0629 00:09:07.670277 21714 net.cpp:160]     with loss weight 0.9
I0629 00:09:07.670294 21714 net.cpp:165] Memory required for data: 4310934920
I0629 00:09:07.670296 21714 layer_factory.hpp:77] Creating layer detection_accuracy_1_3x5
I0629 00:09:07.670303 21714 net.cpp:100] Creating Layer detection_accuracy_1_3x5
I0629 00:09:07.670307 21714 net.cpp:434] detection_accuracy_1_3x5 <- LFCN_1_3x5_LFCN_1_3x5_0_split_1
I0629 00:09:07.670312 21714 net.cpp:434] detection_accuracy_1_3x5 <- label_1_3x5_data_1_split_1
I0629 00:09:07.670318 21714 net.cpp:408] detection_accuracy_1_3x5 -> accuracy_1_3x5
I0629 00:09:07.670327 21714 net.cpp:408] detection_accuracy_1_3x5 -> boxiou_1_3x5
I0629 00:09:07.670364 21714 net.cpp:150] Setting up detection_accuracy_1_3x5
I0629 00:09:07.670369 21714 net.cpp:157] Top shape: 1 1 1 2 (2)
I0629 00:09:07.670372 21714 net.cpp:157] Top shape: 1 1 1 1 (1)
I0629 00:09:07.670375 21714 net.cpp:165] Memory required for data: 4310934932
I0629 00:09:07.670378 21714 layer_factory.hpp:77] Creating layer LFCN_1_5x7
I0629 00:09:07.670387 21714 net.cpp:100] Creating Layer LFCN_1_5x7
I0629 00:09:07.670392 21714 net.cpp:434] LFCN_1_5x7 <- loss1_conv1_loss_relu1_0_split_1
I0629 00:09:07.670400 21714 net.cpp:408] LFCN_1_5x7 -> LFCN_1_5x7
I0629 00:09:07.672646 21714 net.cpp:150] Setting up LFCN_1_5x7
I0629 00:09:07.672658 21714 net.cpp:157] Top shape: 4 7 72 96 (193536)
I0629 00:09:07.672662 21714 net.cpp:165] Memory required for data: 4311709076
I0629 00:09:07.672669 21714 layer_factory.hpp:77] Creating layer LFCN_1_5x7_LFCN_1_5x7_0_split
I0629 00:09:07.672677 21714 net.cpp:100] Creating Layer LFCN_1_5x7_LFCN_1_5x7_0_split
I0629 00:09:07.672680 21714 net.cpp:434] LFCN_1_5x7_LFCN_1_5x7_0_split <- LFCN_1_5x7
I0629 00:09:07.672686 21714 net.cpp:408] LFCN_1_5x7_LFCN_1_5x7_0_split -> LFCN_1_5x7_LFCN_1_5x7_0_split_0
I0629 00:09:07.672693 21714 net.cpp:408] LFCN_1_5x7_LFCN_1_5x7_0_split -> LFCN_1_5x7_LFCN_1_5x7_0_split_1
I0629 00:09:07.672731 21714 net.cpp:150] Setting up LFCN_1_5x7_LFCN_1_5x7_0_split
I0629 00:09:07.672736 21714 net.cpp:157] Top shape: 4 7 72 96 (193536)
I0629 00:09:07.672740 21714 net.cpp:157] Top shape: 4 7 72 96 (193536)
I0629 00:09:07.672744 21714 net.cpp:165] Memory required for data: 4313257364
I0629 00:09:07.672746 21714 layer_factory.hpp:77] Creating layer detection_loss_1_5x7
I0629 00:09:07.672755 21714 net.cpp:100] Creating Layer detection_loss_1_5x7
I0629 00:09:07.672757 21714 net.cpp:434] detection_loss_1_5x7 <- LFCN_1_5x7_LFCN_1_5x7_0_split_0
I0629 00:09:07.672762 21714 net.cpp:434] detection_loss_1_5x7 <- label_1_5x7_data_2_split_0
I0629 00:09:07.672770 21714 net.cpp:408] detection_loss_1_5x7 -> loss_1_5x7
I0629 00:09:07.672778 21714 layer_factory.hpp:77] Creating layer detection_loss_1_5x7
I0629 00:09:07.673621 21714 net.cpp:150] Setting up detection_loss_1_5x7
I0629 00:09:07.673631 21714 net.cpp:157] Top shape: 1 1 1 2 (2)
I0629 00:09:07.673633 21714 net.cpp:160]     with loss weight 0.9
I0629 00:09:07.673643 21714 net.cpp:165] Memory required for data: 4313257372
I0629 00:09:07.673647 21714 layer_factory.hpp:77] Creating layer detection_accuracy_1_5x7
I0629 00:09:07.673656 21714 net.cpp:100] Creating Layer detection_accuracy_1_5x7
I0629 00:09:07.673660 21714 net.cpp:434] detection_accuracy_1_5x7 <- LFCN_1_5x7_LFCN_1_5x7_0_split_1
I0629 00:09:07.673666 21714 net.cpp:434] detection_accuracy_1_5x7 <- label_1_5x7_data_2_split_1
I0629 00:09:07.673672 21714 net.cpp:408] detection_accuracy_1_5x7 -> accuracy_1_5x7
I0629 00:09:07.673679 21714 net.cpp:408] detection_accuracy_1_5x7 -> boxiou_1_5x7
I0629 00:09:07.673717 21714 net.cpp:150] Setting up detection_accuracy_1_5x7
I0629 00:09:07.673722 21714 net.cpp:157] Top shape: 1 1 1 2 (2)
I0629 00:09:07.673727 21714 net.cpp:157] Top shape: 1 1 1 1 (1)
I0629 00:09:07.673729 21714 net.cpp:165] Memory required for data: 4313257384
I0629 00:09:07.673732 21714 layer_factory.hpp:77] Creating layer pool4
I0629 00:09:07.673738 21714 net.cpp:100] Creating Layer pool4
I0629 00:09:07.673741 21714 net.cpp:434] pool4 <- conv4_3_relu4_3_0_split_1
I0629 00:09:07.673748 21714 net.cpp:408] pool4 -> pool4
I0629 00:09:07.673781 21714 net.cpp:150] Setting up pool4
I0629 00:09:07.673786 21714 net.cpp:157] Top shape: 4 512 36 48 (3538944)
I0629 00:09:07.673789 21714 net.cpp:165] Memory required for data: 4327413160
I0629 00:09:07.673792 21714 layer_factory.hpp:77] Creating layer conv5_1
I0629 00:09:07.673800 21714 net.cpp:100] Creating Layer conv5_1
I0629 00:09:07.673804 21714 net.cpp:434] conv5_1 <- pool4
I0629 00:09:07.673810 21714 net.cpp:408] conv5_1 -> conv5_1
I0629 00:09:07.679548 21714 net.cpp:150] Setting up conv5_1
I0629 00:09:07.679569 21714 net.cpp:157] Top shape: 4 512 36 48 (3538944)
I0629 00:09:07.679571 21714 net.cpp:165] Memory required for data: 4341568936
I0629 00:09:07.679580 21714 layer_factory.hpp:77] Creating layer relu5_1
I0629 00:09:07.679591 21714 net.cpp:100] Creating Layer relu5_1
I0629 00:09:07.679596 21714 net.cpp:434] relu5_1 <- conv5_1
I0629 00:09:07.679605 21714 net.cpp:395] relu5_1 -> conv5_1 (in-place)
I0629 00:09:07.680245 21714 net.cpp:150] Setting up relu5_1
I0629 00:09:07.680254 21714 net.cpp:157] Top shape: 4 512 36 48 (3538944)
I0629 00:09:07.680258 21714 net.cpp:165] Memory required for data: 4355724712
I0629 00:09:07.680260 21714 layer_factory.hpp:77] Creating layer conv5_2
I0629 00:09:07.680270 21714 net.cpp:100] Creating Layer conv5_2
I0629 00:09:07.680275 21714 net.cpp:434] conv5_2 <- conv5_1
I0629 00:09:07.680281 21714 net.cpp:408] conv5_2 -> conv5_2
I0629 00:09:07.685755 21714 net.cpp:150] Setting up conv5_2
I0629 00:09:07.685776 21714 net.cpp:157] Top shape: 4 512 36 48 (3538944)
I0629 00:09:07.685780 21714 net.cpp:165] Memory required for data: 4369880488
I0629 00:09:07.685789 21714 layer_factory.hpp:77] Creating layer relu5_2
I0629 00:09:07.685801 21714 net.cpp:100] Creating Layer relu5_2
I0629 00:09:07.685806 21714 net.cpp:434] relu5_2 <- conv5_2
I0629 00:09:07.685813 21714 net.cpp:395] relu5_2 -> conv5_2 (in-place)
I0629 00:09:07.686139 21714 net.cpp:150] Setting up relu5_2
I0629 00:09:07.686148 21714 net.cpp:157] Top shape: 4 512 36 48 (3538944)
I0629 00:09:07.686151 21714 net.cpp:165] Memory required for data: 4384036264
I0629 00:09:07.686154 21714 layer_factory.hpp:77] Creating layer conv5_3
I0629 00:09:07.686162 21714 net.cpp:100] Creating Layer conv5_3
I0629 00:09:07.686167 21714 net.cpp:434] conv5_3 <- conv5_2
I0629 00:09:07.686172 21714 net.cpp:408] conv5_3 -> conv5_3
I0629 00:09:07.692153 21714 net.cpp:150] Setting up conv5_3
I0629 00:09:07.692173 21714 net.cpp:157] Top shape: 4 512 36 48 (3538944)
I0629 00:09:07.692174 21714 net.cpp:165] Memory required for data: 4398192040
I0629 00:09:07.692181 21714 layer_factory.hpp:77] Creating layer relu5_3
I0629 00:09:07.692188 21714 net.cpp:100] Creating Layer relu5_3
I0629 00:09:07.692191 21714 net.cpp:434] relu5_3 <- conv5_3
I0629 00:09:07.692195 21714 net.cpp:395] relu5_3 -> conv5_3 (in-place)
I0629 00:09:07.692443 21714 net.cpp:150] Setting up relu5_3
I0629 00:09:07.692451 21714 net.cpp:157] Top shape: 4 512 36 48 (3538944)
I0629 00:09:07.692452 21714 net.cpp:165] Memory required for data: 4412347816
I0629 00:09:07.692454 21714 layer_factory.hpp:77] Creating layer conv5_3_relu5_3_0_split
I0629 00:09:07.692458 21714 net.cpp:100] Creating Layer conv5_3_relu5_3_0_split
I0629 00:09:07.692461 21714 net.cpp:434] conv5_3_relu5_3_0_split <- conv5_3
I0629 00:09:07.692466 21714 net.cpp:408] conv5_3_relu5_3_0_split -> conv5_3_relu5_3_0_split_0
I0629 00:09:07.692471 21714 net.cpp:408] conv5_3_relu5_3_0_split -> conv5_3_relu5_3_0_split_1
I0629 00:09:07.692474 21714 net.cpp:408] conv5_3_relu5_3_0_split -> conv5_3_relu5_3_0_split_2
I0629 00:09:07.692536 21714 net.cpp:150] Setting up conv5_3_relu5_3_0_split
I0629 00:09:07.692543 21714 net.cpp:157] Top shape: 4 512 36 48 (3538944)
I0629 00:09:07.692548 21714 net.cpp:157] Top shape: 4 512 36 48 (3538944)
I0629 00:09:07.692551 21714 net.cpp:157] Top shape: 4 512 36 48 (3538944)
I0629 00:09:07.692553 21714 net.cpp:165] Memory required for data: 4454815144
I0629 00:09:07.692557 21714 layer_factory.hpp:77] Creating layer LFCN_2_3x5
I0629 00:09:07.692566 21714 net.cpp:100] Creating Layer LFCN_2_3x5
I0629 00:09:07.692570 21714 net.cpp:434] LFCN_2_3x5 <- conv5_3_relu5_3_0_split_0
I0629 00:09:07.692579 21714 net.cpp:408] LFCN_2_3x5 -> LFCN_2_3x5
I0629 00:09:07.694396 21714 net.cpp:150] Setting up LFCN_2_3x5
I0629 00:09:07.694408 21714 net.cpp:157] Top shape: 4 7 36 48 (48384)
I0629 00:09:07.694411 21714 net.cpp:165] Memory required for data: 4455008680
I0629 00:09:07.694422 21714 layer_factory.hpp:77] Creating layer LFCN_2_3x5_LFCN_2_3x5_0_split
I0629 00:09:07.694427 21714 net.cpp:100] Creating Layer LFCN_2_3x5_LFCN_2_3x5_0_split
I0629 00:09:07.694430 21714 net.cpp:434] LFCN_2_3x5_LFCN_2_3x5_0_split <- LFCN_2_3x5
I0629 00:09:07.694435 21714 net.cpp:408] LFCN_2_3x5_LFCN_2_3x5_0_split -> LFCN_2_3x5_LFCN_2_3x5_0_split_0
I0629 00:09:07.694442 21714 net.cpp:408] LFCN_2_3x5_LFCN_2_3x5_0_split -> LFCN_2_3x5_LFCN_2_3x5_0_split_1
I0629 00:09:07.694483 21714 net.cpp:150] Setting up LFCN_2_3x5_LFCN_2_3x5_0_split
I0629 00:09:07.694490 21714 net.cpp:157] Top shape: 4 7 36 48 (48384)
I0629 00:09:07.694494 21714 net.cpp:157] Top shape: 4 7 36 48 (48384)
I0629 00:09:07.694497 21714 net.cpp:165] Memory required for data: 4455395752
I0629 00:09:07.694499 21714 layer_factory.hpp:77] Creating layer detection_loss_2_3x5
I0629 00:09:07.694507 21714 net.cpp:100] Creating Layer detection_loss_2_3x5
I0629 00:09:07.694511 21714 net.cpp:434] detection_loss_2_3x5 <- LFCN_2_3x5_LFCN_2_3x5_0_split_0
I0629 00:09:07.694516 21714 net.cpp:434] detection_loss_2_3x5 <- label_2_3x5_data_3_split_0
I0629 00:09:07.694524 21714 net.cpp:408] detection_loss_2_3x5 -> loss_2_3x5
I0629 00:09:07.694532 21714 layer_factory.hpp:77] Creating layer detection_loss_2_3x5
I0629 00:09:07.695411 21714 net.cpp:150] Setting up detection_loss_2_3x5
I0629 00:09:07.695420 21714 net.cpp:157] Top shape: 1 1 1 2 (2)
I0629 00:09:07.695422 21714 net.cpp:160]     with loss weight 1
I0629 00:09:07.695430 21714 net.cpp:165] Memory required for data: 4455395760
I0629 00:09:07.695433 21714 layer_factory.hpp:77] Creating layer detection_accuracy_2_3x5
I0629 00:09:07.695441 21714 net.cpp:100] Creating Layer detection_accuracy_2_3x5
I0629 00:09:07.695446 21714 net.cpp:434] detection_accuracy_2_3x5 <- LFCN_2_3x5_LFCN_2_3x5_0_split_1
I0629 00:09:07.695451 21714 net.cpp:434] detection_accuracy_2_3x5 <- label_2_3x5_data_3_split_1
I0629 00:09:07.695459 21714 net.cpp:408] detection_accuracy_2_3x5 -> accuracy_2_3x5
I0629 00:09:07.695467 21714 net.cpp:408] detection_accuracy_2_3x5 -> boxiou_2_3x5
I0629 00:09:07.695526 21714 net.cpp:150] Setting up detection_accuracy_2_3x5
I0629 00:09:07.695533 21714 net.cpp:157] Top shape: 1 1 1 2 (2)
I0629 00:09:07.695538 21714 net.cpp:157] Top shape: 1 1 1 1 (1)
I0629 00:09:07.695539 21714 net.cpp:165] Memory required for data: 4455395772
I0629 00:09:07.695544 21714 layer_factory.hpp:77] Creating layer LFCN_2_5x7
I0629 00:09:07.695551 21714 net.cpp:100] Creating Layer LFCN_2_5x7
I0629 00:09:07.695556 21714 net.cpp:434] LFCN_2_5x7 <- conv5_3_relu5_3_0_split_1
I0629 00:09:07.695562 21714 net.cpp:408] LFCN_2_5x7 -> LFCN_2_5x7
I0629 00:09:07.698776 21714 net.cpp:150] Setting up LFCN_2_5x7
I0629 00:09:07.698794 21714 net.cpp:157] Top shape: 4 7 36 48 (48384)
I0629 00:09:07.698796 21714 net.cpp:165] Memory required for data: 4455589308
I0629 00:09:07.698806 21714 layer_factory.hpp:77] Creating layer LFCN_2_5x7_LFCN_2_5x7_0_split
I0629 00:09:07.698813 21714 net.cpp:100] Creating Layer LFCN_2_5x7_LFCN_2_5x7_0_split
I0629 00:09:07.698818 21714 net.cpp:434] LFCN_2_5x7_LFCN_2_5x7_0_split <- LFCN_2_5x7
I0629 00:09:07.698827 21714 net.cpp:408] LFCN_2_5x7_LFCN_2_5x7_0_split -> LFCN_2_5x7_LFCN_2_5x7_0_split_0
I0629 00:09:07.698837 21714 net.cpp:408] LFCN_2_5x7_LFCN_2_5x7_0_split -> LFCN_2_5x7_LFCN_2_5x7_0_split_1
I0629 00:09:07.698884 21714 net.cpp:150] Setting up LFCN_2_5x7_LFCN_2_5x7_0_split
I0629 00:09:07.698890 21714 net.cpp:157] Top shape: 4 7 36 48 (48384)
I0629 00:09:07.698895 21714 net.cpp:157] Top shape: 4 7 36 48 (48384)
I0629 00:09:07.698897 21714 net.cpp:165] Memory required for data: 4455976380
I0629 00:09:07.698900 21714 layer_factory.hpp:77] Creating layer detection_loss_2_5x7
I0629 00:09:07.698909 21714 net.cpp:100] Creating Layer detection_loss_2_5x7
I0629 00:09:07.698912 21714 net.cpp:434] detection_loss_2_5x7 <- LFCN_2_5x7_LFCN_2_5x7_0_split_0
I0629 00:09:07.698917 21714 net.cpp:434] detection_loss_2_5x7 <- label_2_5x7_data_4_split_0
I0629 00:09:07.698925 21714 net.cpp:408] detection_loss_2_5x7 -> loss_2_5x7
I0629 00:09:07.698933 21714 layer_factory.hpp:77] Creating layer detection_loss_2_5x7
I0629 00:09:07.699393 21714 net.cpp:150] Setting up detection_loss_2_5x7
I0629 00:09:07.699399 21714 net.cpp:157] Top shape: 1 1 1 2 (2)
I0629 00:09:07.699401 21714 net.cpp:160]     with loss weight 1
I0629 00:09:07.699409 21714 net.cpp:165] Memory required for data: 4455976388
I0629 00:09:07.699414 21714 layer_factory.hpp:77] Creating layer detection_accuracy_2_5x7
I0629 00:09:07.699419 21714 net.cpp:100] Creating Layer detection_accuracy_2_5x7
I0629 00:09:07.699425 21714 net.cpp:434] detection_accuracy_2_5x7 <- LFCN_2_5x7_LFCN_2_5x7_0_split_1
I0629 00:09:07.699430 21714 net.cpp:434] detection_accuracy_2_5x7 <- label_2_5x7_data_4_split_1
I0629 00:09:07.699436 21714 net.cpp:408] detection_accuracy_2_5x7 -> accuracy_2_5x7
I0629 00:09:07.699445 21714 net.cpp:408] detection_accuracy_2_5x7 -> boxiou_2_5x7
I0629 00:09:07.699492 21714 net.cpp:150] Setting up detection_accuracy_2_5x7
I0629 00:09:07.699498 21714 net.cpp:157] Top shape: 1 1 1 2 (2)
I0629 00:09:07.699504 21714 net.cpp:157] Top shape: 1 1 1 1 (1)
I0629 00:09:07.699507 21714 net.cpp:165] Memory required for data: 4455976400
I0629 00:09:07.699510 21714 layer_factory.hpp:77] Creating layer pool5
I0629 00:09:07.699517 21714 net.cpp:100] Creating Layer pool5
I0629 00:09:07.699520 21714 net.cpp:434] pool5 <- conv5_3_relu5_3_0_split_2
I0629 00:09:07.699527 21714 net.cpp:408] pool5 -> pool5
I0629 00:09:07.699570 21714 net.cpp:150] Setting up pool5
I0629 00:09:07.699576 21714 net.cpp:157] Top shape: 4 512 18 24 (884736)
I0629 00:09:07.699580 21714 net.cpp:165] Memory required for data: 4459515344
I0629 00:09:07.699584 21714 layer_factory.hpp:77] Creating layer conv6_1
I0629 00:09:07.699595 21714 net.cpp:100] Creating Layer conv6_1
I0629 00:09:07.699599 21714 net.cpp:434] conv6_1 <- pool5
I0629 00:09:07.699606 21714 net.cpp:408] conv6_1 -> conv6_1
I0629 00:09:07.720715 21714 net.cpp:150] Setting up conv6_1
I0629 00:09:07.720732 21714 net.cpp:157] Top shape: 4 512 18 24 (884736)
I0629 00:09:07.720736 21714 net.cpp:165] Memory required for data: 4463054288
I0629 00:09:07.720742 21714 layer_factory.hpp:77] Creating layer relu6_1
I0629 00:09:07.720752 21714 net.cpp:100] Creating Layer relu6_1
I0629 00:09:07.720757 21714 net.cpp:434] relu6_1 <- conv6_1
I0629 00:09:07.720767 21714 net.cpp:395] relu6_1 -> conv6_1 (in-place)
I0629 00:09:07.721045 21714 net.cpp:150] Setting up relu6_1
I0629 00:09:07.721051 21714 net.cpp:157] Top shape: 4 512 18 24 (884736)
I0629 00:09:07.721053 21714 net.cpp:165] Memory required for data: 4466593232
I0629 00:09:07.721056 21714 layer_factory.hpp:77] Creating layer conv6_1_relu6_1_0_split
I0629 00:09:07.721061 21714 net.cpp:100] Creating Layer conv6_1_relu6_1_0_split
I0629 00:09:07.721065 21714 net.cpp:434] conv6_1_relu6_1_0_split <- conv6_1
I0629 00:09:07.721072 21714 net.cpp:408] conv6_1_relu6_1_0_split -> conv6_1_relu6_1_0_split_0
I0629 00:09:07.721081 21714 net.cpp:408] conv6_1_relu6_1_0_split -> conv6_1_relu6_1_0_split_1
I0629 00:09:07.721087 21714 net.cpp:408] conv6_1_relu6_1_0_split -> conv6_1_relu6_1_0_split_2
I0629 00:09:07.721153 21714 net.cpp:150] Setting up conv6_1_relu6_1_0_split
I0629 00:09:07.721159 21714 net.cpp:157] Top shape: 4 512 18 24 (884736)
I0629 00:09:07.721164 21714 net.cpp:157] Top shape: 4 512 18 24 (884736)
I0629 00:09:07.721169 21714 net.cpp:157] Top shape: 4 512 18 24 (884736)
I0629 00:09:07.721174 21714 net.cpp:165] Memory required for data: 4477210064
I0629 00:09:07.721176 21714 layer_factory.hpp:77] Creating layer LFCN_3_3x5
I0629 00:09:07.721186 21714 net.cpp:100] Creating Layer LFCN_3_3x5
I0629 00:09:07.721190 21714 net.cpp:434] LFCN_3_3x5 <- conv6_1_relu6_1_0_split_0
I0629 00:09:07.721199 21714 net.cpp:408] LFCN_3_3x5 -> LFCN_3_3x5
I0629 00:09:07.723907 21714 net.cpp:150] Setting up LFCN_3_3x5
I0629 00:09:07.723927 21714 net.cpp:157] Top shape: 4 7 18 24 (12096)
I0629 00:09:07.723929 21714 net.cpp:165] Memory required for data: 4477258448
I0629 00:09:07.723938 21714 layer_factory.hpp:77] Creating layer LFCN_3_3x5_LFCN_3_3x5_0_split
I0629 00:09:07.723958 21714 net.cpp:100] Creating Layer LFCN_3_3x5_LFCN_3_3x5_0_split
I0629 00:09:07.723965 21714 net.cpp:434] LFCN_3_3x5_LFCN_3_3x5_0_split <- LFCN_3_3x5
I0629 00:09:07.723973 21714 net.cpp:408] LFCN_3_3x5_LFCN_3_3x5_0_split -> LFCN_3_3x5_LFCN_3_3x5_0_split_0
I0629 00:09:07.723983 21714 net.cpp:408] LFCN_3_3x5_LFCN_3_3x5_0_split -> LFCN_3_3x5_LFCN_3_3x5_0_split_1
I0629 00:09:07.724031 21714 net.cpp:150] Setting up LFCN_3_3x5_LFCN_3_3x5_0_split
I0629 00:09:07.724040 21714 net.cpp:157] Top shape: 4 7 18 24 (12096)
I0629 00:09:07.724043 21714 net.cpp:157] Top shape: 4 7 18 24 (12096)
I0629 00:09:07.724045 21714 net.cpp:165] Memory required for data: 4477355216
I0629 00:09:07.724050 21714 layer_factory.hpp:77] Creating layer detection_loss_3_3x5
I0629 00:09:07.724056 21714 net.cpp:100] Creating Layer detection_loss_3_3x5
I0629 00:09:07.724061 21714 net.cpp:434] detection_loss_3_3x5 <- LFCN_3_3x5_LFCN_3_3x5_0_split_0
I0629 00:09:07.724066 21714 net.cpp:434] detection_loss_3_3x5 <- label_3_3x5_data_5_split_0
I0629 00:09:07.724074 21714 net.cpp:408] detection_loss_3_3x5 -> loss_3_3x5
I0629 00:09:07.724083 21714 layer_factory.hpp:77] Creating layer detection_loss_3_3x5
I0629 00:09:07.724984 21714 net.cpp:150] Setting up detection_loss_3_3x5
I0629 00:09:07.724993 21714 net.cpp:157] Top shape: 1 1 1 2 (2)
I0629 00:09:07.724995 21714 net.cpp:160]     with loss weight 1
I0629 00:09:07.725003 21714 net.cpp:165] Memory required for data: 4477355224
I0629 00:09:07.725008 21714 layer_factory.hpp:77] Creating layer detection_accuracy_3_3x5
I0629 00:09:07.725014 21714 net.cpp:100] Creating Layer detection_accuracy_3_3x5
I0629 00:09:07.725019 21714 net.cpp:434] detection_accuracy_3_3x5 <- LFCN_3_3x5_LFCN_3_3x5_0_split_1
I0629 00:09:07.725024 21714 net.cpp:434] detection_accuracy_3_3x5 <- label_3_3x5_data_5_split_1
I0629 00:09:07.725031 21714 net.cpp:408] detection_accuracy_3_3x5 -> accuracy_3_3x5
I0629 00:09:07.725039 21714 net.cpp:408] detection_accuracy_3_3x5 -> boxiou_3_3x5
I0629 00:09:07.725087 21714 net.cpp:150] Setting up detection_accuracy_3_3x5
I0629 00:09:07.725093 21714 net.cpp:157] Top shape: 1 1 1 2 (2)
I0629 00:09:07.725097 21714 net.cpp:157] Top shape: 1 1 1 1 (1)
I0629 00:09:07.725100 21714 net.cpp:165] Memory required for data: 4477355236
I0629 00:09:07.725102 21714 layer_factory.hpp:77] Creating layer LFCN_3_5x7
I0629 00:09:07.725111 21714 net.cpp:100] Creating Layer LFCN_3_5x7
I0629 00:09:07.725116 21714 net.cpp:434] LFCN_3_5x7 <- conv6_1_relu6_1_0_split_1
I0629 00:09:07.725121 21714 net.cpp:408] LFCN_3_5x7 -> LFCN_3_5x7
I0629 00:09:07.727458 21714 net.cpp:150] Setting up LFCN_3_5x7
I0629 00:09:07.727471 21714 net.cpp:157] Top shape: 4 7 18 24 (12096)
I0629 00:09:07.727473 21714 net.cpp:165] Memory required for data: 4477403620
I0629 00:09:07.727481 21714 layer_factory.hpp:77] Creating layer LFCN_3_5x7_LFCN_3_5x7_0_split
I0629 00:09:07.727488 21714 net.cpp:100] Creating Layer LFCN_3_5x7_LFCN_3_5x7_0_split
I0629 00:09:07.727494 21714 net.cpp:434] LFCN_3_5x7_LFCN_3_5x7_0_split <- LFCN_3_5x7
I0629 00:09:07.727500 21714 net.cpp:408] LFCN_3_5x7_LFCN_3_5x7_0_split -> LFCN_3_5x7_LFCN_3_5x7_0_split_0
I0629 00:09:07.727509 21714 net.cpp:408] LFCN_3_5x7_LFCN_3_5x7_0_split -> LFCN_3_5x7_LFCN_3_5x7_0_split_1
I0629 00:09:07.727556 21714 net.cpp:150] Setting up LFCN_3_5x7_LFCN_3_5x7_0_split
I0629 00:09:07.727562 21714 net.cpp:157] Top shape: 4 7 18 24 (12096)
I0629 00:09:07.727566 21714 net.cpp:157] Top shape: 4 7 18 24 (12096)
I0629 00:09:07.727569 21714 net.cpp:165] Memory required for data: 4477500388
I0629 00:09:07.727572 21714 layer_factory.hpp:77] Creating layer detection_loss_3_5x7
I0629 00:09:07.727581 21714 net.cpp:100] Creating Layer detection_loss_3_5x7
I0629 00:09:07.727584 21714 net.cpp:434] detection_loss_3_5x7 <- LFCN_3_5x7_LFCN_3_5x7_0_split_0
I0629 00:09:07.727589 21714 net.cpp:434] detection_loss_3_5x7 <- label_3_5x7_data_6_split_0
I0629 00:09:07.727598 21714 net.cpp:408] detection_loss_3_5x7 -> loss_3_5x7
I0629 00:09:07.727607 21714 layer_factory.hpp:77] Creating layer detection_loss_3_5x7
I0629 00:09:07.728060 21714 net.cpp:150] Setting up detection_loss_3_5x7
I0629 00:09:07.728066 21714 net.cpp:157] Top shape: 1 1 1 2 (2)
I0629 00:09:07.728068 21714 net.cpp:160]     with loss weight 1
I0629 00:09:07.728076 21714 net.cpp:165] Memory required for data: 4477500396
I0629 00:09:07.728080 21714 layer_factory.hpp:77] Creating layer detection_accuracy_3_5x7
I0629 00:09:07.728087 21714 net.cpp:100] Creating Layer detection_accuracy_3_5x7
I0629 00:09:07.728092 21714 net.cpp:434] detection_accuracy_3_5x7 <- LFCN_3_5x7_LFCN_3_5x7_0_split_1
I0629 00:09:07.728096 21714 net.cpp:434] detection_accuracy_3_5x7 <- label_3_5x7_data_6_split_1
I0629 00:09:07.728103 21714 net.cpp:408] detection_accuracy_3_5x7 -> accuracy_3_5x7
I0629 00:09:07.728111 21714 net.cpp:408] detection_accuracy_3_5x7 -> boxiou_3_5x7
I0629 00:09:07.728159 21714 net.cpp:150] Setting up detection_accuracy_3_5x7
I0629 00:09:07.728165 21714 net.cpp:157] Top shape: 1 1 1 2 (2)
I0629 00:09:07.728169 21714 net.cpp:157] Top shape: 1 1 1 1 (1)
I0629 00:09:07.728173 21714 net.cpp:165] Memory required for data: 4477500408
I0629 00:09:07.728175 21714 layer_factory.hpp:77] Creating layer pool6
I0629 00:09:07.728181 21714 net.cpp:100] Creating Layer pool6
I0629 00:09:07.728185 21714 net.cpp:434] pool6 <- conv6_1_relu6_1_0_split_2
I0629 00:09:07.728193 21714 net.cpp:408] pool6 -> pool6
I0629 00:09:07.728236 21714 net.cpp:150] Setting up pool6
I0629 00:09:07.728242 21714 net.cpp:157] Top shape: 4 512 9 12 (221184)
I0629 00:09:07.728246 21714 net.cpp:165] Memory required for data: 4478385144
I0629 00:09:07.728250 21714 layer_factory.hpp:77] Creating layer LFCN_4_3x5
I0629 00:09:07.728260 21714 net.cpp:100] Creating Layer LFCN_4_3x5
I0629 00:09:07.728263 21714 net.cpp:434] LFCN_4_3x5 <- pool6
I0629 00:09:07.728269 21714 net.cpp:408] LFCN_4_3x5 -> LFCN_4_3x5
I0629 00:09:07.730507 21714 net.cpp:150] Setting up LFCN_4_3x5
I0629 00:09:07.730518 21714 net.cpp:157] Top shape: 4 7 9 12 (3024)
I0629 00:09:07.730520 21714 net.cpp:165] Memory required for data: 4478397240
I0629 00:09:07.730527 21714 layer_factory.hpp:77] Creating layer LFCN_4_3x5_LFCN_4_3x5_0_split
I0629 00:09:07.730535 21714 net.cpp:100] Creating Layer LFCN_4_3x5_LFCN_4_3x5_0_split
I0629 00:09:07.730537 21714 net.cpp:434] LFCN_4_3x5_LFCN_4_3x5_0_split <- LFCN_4_3x5
I0629 00:09:07.730545 21714 net.cpp:408] LFCN_4_3x5_LFCN_4_3x5_0_split -> LFCN_4_3x5_LFCN_4_3x5_0_split_0
I0629 00:09:07.730553 21714 net.cpp:408] LFCN_4_3x5_LFCN_4_3x5_0_split -> LFCN_4_3x5_LFCN_4_3x5_0_split_1
I0629 00:09:07.730605 21714 net.cpp:150] Setting up LFCN_4_3x5_LFCN_4_3x5_0_split
I0629 00:09:07.730612 21714 net.cpp:157] Top shape: 4 7 9 12 (3024)
I0629 00:09:07.730615 21714 net.cpp:157] Top shape: 4 7 9 12 (3024)
I0629 00:09:07.730618 21714 net.cpp:165] Memory required for data: 4478421432
I0629 00:09:07.730621 21714 layer_factory.hpp:77] Creating layer detection_loss_4_3x5
I0629 00:09:07.730629 21714 net.cpp:100] Creating Layer detection_loss_4_3x5
I0629 00:09:07.730633 21714 net.cpp:434] detection_loss_4_3x5 <- LFCN_4_3x5_LFCN_4_3x5_0_split_0
I0629 00:09:07.730638 21714 net.cpp:434] detection_loss_4_3x5 <- label_4_3x5_data_7_split_0
I0629 00:09:07.730644 21714 net.cpp:408] detection_loss_4_3x5 -> loss_4_3x5
I0629 00:09:07.730653 21714 layer_factory.hpp:77] Creating layer detection_loss_4_3x5
I0629 00:09:07.731096 21714 net.cpp:150] Setting up detection_loss_4_3x5
I0629 00:09:07.731104 21714 net.cpp:157] Top shape: 1 1 1 2 (2)
I0629 00:09:07.731106 21714 net.cpp:160]     with loss weight 1
I0629 00:09:07.731114 21714 net.cpp:165] Memory required for data: 4478421440
I0629 00:09:07.731117 21714 layer_factory.hpp:77] Creating layer detection_accuracy_4_3x5
I0629 00:09:07.731123 21714 net.cpp:100] Creating Layer detection_accuracy_4_3x5
I0629 00:09:07.731128 21714 net.cpp:434] detection_accuracy_4_3x5 <- LFCN_4_3x5_LFCN_4_3x5_0_split_1
I0629 00:09:07.731133 21714 net.cpp:434] detection_accuracy_4_3x5 <- label_4_3x5_data_7_split_1
I0629 00:09:07.731139 21714 net.cpp:408] detection_accuracy_4_3x5 -> accuracy_4_3x5
I0629 00:09:07.731148 21714 net.cpp:408] detection_accuracy_4_3x5 -> boxiou_4_3x5
I0629 00:09:07.731195 21714 net.cpp:150] Setting up detection_accuracy_4_3x5
I0629 00:09:07.731200 21714 net.cpp:157] Top shape: 1 1 1 2 (2)
I0629 00:09:07.731205 21714 net.cpp:157] Top shape: 1 1 1 1 (1)
I0629 00:09:07.731209 21714 net.cpp:165] Memory required for data: 4478421452
I0629 00:09:07.731211 21714 net.cpp:228] detection_accuracy_4_3x5 does not need backward computation.
I0629 00:09:07.731215 21714 net.cpp:226] detection_loss_4_3x5 needs backward computation.
I0629 00:09:07.731220 21714 net.cpp:226] LFCN_4_3x5_LFCN_4_3x5_0_split needs backward computation.
I0629 00:09:07.731223 21714 net.cpp:226] LFCN_4_3x5 needs backward computation.
…
I0629 00:09:07.744024 21714 image_gt_data_layer.cpp:241] output label size 2 : 2,6,36,48
I0629 00:09:07.744079 21714 image_gt_data_layer.cpp:241] output label size 3 : 2,6,36,48
I0629 00:09:07.744132 21714 image_gt_data_layer.cpp:241] output label size 4 : 2,6,18,24
I0629 00:09:07.744189 21714 image_gt_data_layer.cpp:241] output label size 5 : 2,6,18,24
I0629 00:09:07.744243 21714 image_gt_data_layer.cpp:241] output label size 6 : 2,6,9,12
I0629 00:09:07.744247 21714 image_gt_data_layer.cpp:265]  --> has_mean_values_ = 1
I0629 00:09:07.762892 21714 net.cpp:150] Setting up data
I0629 00:09:07.762909 21714 net.cpp:157] Top shape: 2 4 576 768 (3538944)
I0629 00:09:07.762912 21714 net.cpp:157] Top shape: 2 6 72 96 (82944)
I0629 00:09:07.762915 21714 net.cpp:157] Top shape: 2 6 72 96 (82944)
I0629 00:09:07.762919 21714 net.cpp:157] Top shape: 2 6 36 48 (20736)
I0629 00:09:07.762923 21714 net.cpp:157] Top shape: 2 6 36 48 (20736)
I0629 00:09:07.762926 21714 net.cpp:157] Top shape: 2 6 18 24 (5184)
I0629 00:09:07.762929 21714 net.cpp:157] Top shape: 2 6 18 24 (5184)
I0629 00:09:07.762933 21714 net.cpp:157] Top shape: 2 6 9 12 (1296)
I0629 00:09:07.762935 21714 net.cpp:165] Memory required for data: 15031872
I0629 00:09:07.762940 21714 layer_factory.hpp:77] Creating layer label_1_3x5_data_1_split
I0629 00:09:07.762953 21714 net.cpp:100] Creating Layer label_1_3x5_data_1_split
I0629 00:09:07.762958 21714 net.cpp:434] label_1_3x5_data_1_split <- label_1_3x5
I0629 00:09:07.762964 21714 net.cpp:408] label_1_3x5_data_1_split -> label_1_3x5_data_1_split_0
I0629 00:09:07.762976 21714 net.cpp:408] label_1_3x5_data_1_split -> label_1_3x5_data_1_split_1
I0629 00:09:07.763057 21714 net.cpp:150] Setting up label_1_3x5_data_1_split
I0629 00:09:07.763064 21714 net.cpp:157] Top shape: 2 6 72 96 (82944)
I0629 00:09:07.763068 21714 net.cpp:157] Top shape: 2 6 72 96 (82944)
I0629 00:09:07.763072 21714 net.cpp:165] Memory required for data: 15695424
I0629 00:09:07.763074 21714 layer_factory.hpp:77] Creating layer label_1_5x7_data_2_split
I0629 00:09:07.763082 21714 net.cpp:100] Creating Layer label_1_5x7_data_2_split
I0629 00:09:07.763084 21714 net.cpp:434] label_1_5x7_data_2_split <- label_1_5x7
I0629 00:09:07.763090 21714 net.cpp:408] label_1_5x7_data_2_split -> label_1_5x7_data_2_split_0
I0629 00:09:07.763097 21714 net.cpp:408] label_1_5x7_data_2_split -> label_1_5x7_data_2_split_1
I0629 00:09:07.763140 21714 net.cpp:150] Setting up label_1_5x7_data_2_split
I0629 00:09:07.763145 21714 net.cpp:157] Top shape: 2 6 72 96 (82944)
I0629 00:09:07.763149 21714 net.cpp:157] Top shape: 2 6 72 96 (82944)
I0629 00:09:07.763152 21714 net.cpp:165] Memory required for data: 16358976
I0629 00:09:07.763155 21714 layer_factory.hpp:77] Creating layer label_2_3x5_data_3_split
I0629 00:09:07.763160 21714 net.cpp:100] Creating Layer label_2_3x5_data_3_split
I0629 00:09:07.763164 21714 net.cpp:434] label_2_3x5_data_3_split <- label_2_3x5
I0629 00:09:07.763170 21714 net.cpp:408] label_2_3x5_data_3_split -> label_2_3x5_data_3_split_0
I0629 00:09:07.763175 21714 net.cpp:408] label_2_3x5_data_3_split -> label_2_3x5_data_3_split_1
I0629 00:09:07.763216 21714 net.cpp:150] Setting up label_2_3x5_data_3_split
I0629 00:09:07.763221 21714 net.cpp:157] Top shape: 2 6 36 48 (20736)
I0629 00:09:07.763224 21714 net.cpp:157] Top shape: 2 6 36 48 (20736)
I0629 00:09:07.763227 21714 net.cpp:165] Memory required for data: 16524864
I0629 00:09:07.763231 21714 layer_factory.hpp:77] Creating layer label_2_5x7_data_4_split
I0629 00:09:07.763237 21714 net.cpp:100] Creating Layer label_2_5x7_data_4_split
I0629 00:09:07.763240 21714 net.cpp:434] label_2_5x7_data_4_split <- label_2_5x7
I0629 00:09:07.763247 21714 net.cpp:408] label_2_5x7_data_4_split -> label_2_5x7_data_4_split_0
I0629 00:09:07.763252 21714 net.cpp:408] label_2_5x7_data_4_split -> label_2_5x7_data_4_split_1
I0629 00:09:07.763291 21714 net.cpp:150] Setting up label_2_5x7_data_4_split
I0629 00:09:07.763296 21714 net.cpp:157] Top shape: 2 6 36 48 (20736)
I0629 00:09:07.763300 21714 net.cpp:157] Top shape: 2 6 36 48 (20736)
I0629 00:09:07.763303 21714 net.cpp:165] Memory required for data: 16690752
I0629 00:09:07.763306 21714 layer_factory.hpp:77] Creating layer label_3_3x5_data_5_split
I0629 00:09:07.763311 21714 net.cpp:100] Creating Layer label_3_3x5_data_5_split
I0629 00:09:07.763314 21714 net.cpp:434] label_3_3x5_data_5_split <- label_3_3x5
I0629 00:09:07.763320 21714 net.cpp:408] label_3_3x5_data_5_split -> label_3_3x5_data_5_split_0
I0629 00:09:07.763327 21714 net.cpp:408] label_3_3x5_data_5_split -> label_3_3x5_data_5_split_1
I0629 00:09:07.763367 21714 net.cpp:150] Setting up label_3_3x5_data_5_split
I0629 00:09:07.763373 21714 net.cpp:157] Top shape: 2 6 18 24 (5184)
I0629 00:09:07.763377 21714 net.cpp:157] Top shape: 2 6 18 24 (5184)
I0629 00:09:07.763379 21714 net.cpp:165] Memory required for data: 16732224
I0629 00:09:07.763382 21714 layer_factory.hpp:77] Creating layer label_3_5x7_data_6_split
I0629 00:09:07.763387 21714 net.cpp:100] Creating Layer label_3_5x7_data_6_split
I0629 00:09:07.763391 21714 net.cpp:434] label_3_5x7_data_6_split <- label_3_5x7
I0629 00:09:07.763394 21714 net.cpp:408] label_3_5x7_data_6_split -> label_3_5x7_data_6_split_0
I0629 00:09:07.763401 21714 net.cpp:408] label_3_5x7_data_6_split -> label_3_5x7_data_6_split_1
I0629 00:09:07.763442 21714 net.cpp:150] Setting up label_3_5x7_data_6_split
I0629 00:09:07.763447 21714 net.cpp:157] Top shape: 2 6 18 24 (5184)
I0629 00:09:07.763450 21714 net.cpp:157] Top shape: 2 6 18 24 (5184)
I0629 00:09:07.763453 21714 net.cpp:165] Memory required for data: 16773696
I0629 00:09:07.763456 21714 layer_factory.hpp:77] Creating layer label_4_3x5_data_7_split
I0629 00:09:07.763463 21714 net.cpp:100] Creating Layer label_4_3x5_data_7_split
I0629 00:09:07.763466 21714 net.cpp:434] label_4_3x5_data_7_split <- label_4_3x5
I0629 00:09:07.763471 21714 net.cpp:408] label_4_3x5_data_7_split -> label_4_3x5_data_7_split_0
I0629 00:09:07.763476 21714 net.cpp:408] label_4_3x5_data_7_split -> label_4_3x5_data_7_split_1
I0629 00:09:07.764729 21714 net.cpp:150] Setting up label_4_3x5_data_7_split
I0629 00:09:07.764763 21714 net.cpp:157] Top shape: 2 6 9 12 (1296)
I0629 00:09:07.764770 21714 net.cpp:157] Top shape: 2 6 9 12 (1296)
I0629 00:09:07.764771 21714 net.cpp:165] Memory required for data: 16784064
I0629 00:09:07.764777 21714 layer_factory.hpp:77] Creating layer conv1_1
I0629 00:09:07.764806 21714 net.cpp:100] Creating Layer conv1_1
I0629 00:09:07.764812 21714 net.cpp:434] conv1_1 <- data
I0629 00:09:07.764823 21714 net.cpp:408] conv1_1 -> conv1_1
I0629 00:09:07.768762 21714 net.cpp:150] Setting up conv1_1
I0629 00:09:07.768785 21714 net.cpp:157] Top shape: 2 64 576 768 (56623104)
I0629 00:09:07.768788 21714 net.cpp:165] Memory required for data: 243276480
I0629 00:09:07.768803 21714 layer_factory.hpp:77] Creating layer relu1_1
I0629 00:09:07.768813 21714 net.cpp:100] Creating Layer relu1_1
I0629 00:09:07.768818 21714 net.cpp:434] relu1_1 <- conv1_1
I0629 00:09:07.768826 21714 net.cpp:395] relu1_1 -> conv1_1 (in-place)
I0629 00:09:07.769604 21714 net.cpp:150] Setting up relu1_1
I0629 00:09:07.769614 21714 net.cpp:157] Top shape: 2 64 576 768 (56623104)
I0629 00:09:07.769616 21714 net.cpp:165] Memory required for data: 469768896
I0629 00:09:07.769619 21714 layer_factory.hpp:77] Creating layer conv1_2
I0629 00:09:07.769630 21714 net.cpp:100] Creating Layer conv1_2
I0629 00:09:07.769634 21714 net.cpp:434] conv1_2 <- conv1_1
I0629 00:09:07.769640 21714 net.cpp:408] conv1_2 -> conv1_2
I0629 00:09:07.772168 21714 net.cpp:150] Setting up conv1_2
I0629 00:09:07.772188 21714 net.cpp:157] Top shape: 2 64 576 768 (56623104)
I0629 00:09:07.772192 21714 net.cpp:165] Memory required for data: 696261312
I0629 00:09:07.772204 21714 layer_factory.hpp:77] Creating layer relu1_2
I0629 00:09:07.772215 21714 net.cpp:100] Creating Layer relu1_2
I0629 00:09:07.772219 21714 net.cpp:434] relu1_2 <- conv1_2
I0629 00:09:07.772227 21714 net.cpp:395] relu1_2 -> conv1_2 (in-place)
I0629 00:09:07.773077 21714 net.cpp:150] Setting up relu1_2
I0629 00:09:07.773087 21714 net.cpp:157] Top shape: 2 64 576 768 (56623104)
I0629 00:09:07.773089 21714 net.cpp:165] Memory required for data: 922753728
I0629 00:09:07.773093 21714 layer_factory.hpp:77] Creating layer pool1
I0629 00:09:07.773100 21714 net.cpp:100] Creating Layer pool1
I0629 00:09:07.773104 21714 net.cpp:434] pool1 <- conv1_2
I0629 00:09:07.773110 21714 net.cpp:408] pool1 -> pool1
I0629 00:09:07.773175 21714 net.cpp:150] Setting up pool1
I0629 00:09:07.773182 21714 net.cpp:157] Top shape: 2 64 288 384 (14155776)
I0629 00:09:07.773185 21714 net.cpp:165] Memory required for data: 979376832
I0629 00:09:07.773188 21714 layer_factory.hpp:77] Creating layer conv2_1
I0629 00:09:07.773196 21714 net.cpp:100] Creating Layer conv2_1
I0629 00:09:07.773200 21714 net.cpp:434] conv2_1 <- pool1
I0629 00:09:07.773207 21714 net.cpp:408] conv2_1 -> conv2_1
I0629 00:09:07.775193 21714 net.cpp:150] Setting up conv2_1
I0629 00:09:07.775209 21714 net.cpp:157] Top shape: 2 128 288 384 (28311552)
I0629 00:09:07.775212 21714 net.cpp:165] Memory required for data: 1092623040
I0629 00:09:07.775223 21714 layer_factory.hpp:77] Creating layer relu2_1
I0629 00:09:07.775230 21714 net.cpp:100] Creating Layer relu2_1
I0629 00:09:07.775234 21714 net.cpp:434] relu2_1 <- conv2_1
I0629 00:09:07.775240 21714 net.cpp:395] relu2_1 -> conv2_1 (in-place)
I0629 00:09:07.775549 21714 net.cpp:150] Setting up relu2_1
I0629 00:09:07.775557 21714 net.cpp:157] Top shape: 2 128 288 384 (28311552)
I0629 00:09:07.775558 21714 net.cpp:165] Memory required for data: 1205869248
I0629 00:09:07.775562 21714 layer_factory.hpp:77] Creating layer conv2_2
I0629 00:09:07.775569 21714 net.cpp:100] Creating Layer conv2_2
I0629 00:09:07.775573 21714 net.cpp:434] conv2_2 <- conv2_1
I0629 00:09:07.775579 21714 net.cpp:408] conv2_2 -> conv2_2
I0629 00:09:07.778853 21714 net.cpp:150] Setting up conv2_2
I0629 00:09:07.778872 21714 net.cpp:157] Top shape: 2 128 288 384 (28311552)
I0629 00:09:07.778875 21714 net.cpp:165] Memory required for data: 1319115456
I0629 00:09:07.778884 21714 layer_factory.hpp:77] Creating layer relu2_2
I0629 00:09:07.778900 21714 net.cpp:100] Creating Layer relu2_2
I0629 00:09:07.778905 21714 net.cpp:434] relu2_2 <- conv2_2
I0629 00:09:07.778913 21714 net.cpp:395] relu2_2 -> conv2_2 (in-place)
I0629 00:09:07.779268 21714 net.cpp:150] Setting up relu2_2
I0629 00:09:07.779274 21714 net.cpp:157] Top shape: 2 128 288 384 (28311552)
I0629 00:09:07.779276 21714 net.cpp:165] Memory required for data: 1432361664
I0629 00:09:07.779279 21714 layer_factory.hpp:77] Creating layer pool2
I0629 00:09:07.779285 21714 net.cpp:100] Creating Layer pool2
I0629 00:09:07.779289 21714 net.cpp:434] pool2 <- conv2_2
I0629 00:09:07.779295 21714 net.cpp:408] pool2 -> pool2
I0629 00:09:07.779358 21714 net.cpp:150] Setting up pool2
I0629 00:09:07.779368 21714 net.cpp:157] Top shape: 2 128 144 192 (7077888)
I0629 00:09:07.779371 21714 net.cpp:165] Memory required for data: 1460673216
I0629 00:09:07.779374 21714 layer_factory.hpp:77] Creating layer conv3_1
I0629 00:09:07.779381 21714 net.cpp:100] Creating Layer conv3_1
I0629 00:09:07.779386 21714 net.cpp:434] conv3_1 <- pool2
I0629 00:09:07.779392 21714 net.cpp:408] conv3_1 -> conv3_1
I0629 00:09:07.783535 21714 net.cpp:150] Setting up conv3_1
I0629 00:09:07.783562 21714 net.cpp:157] Top shape: 2 256 144 192 (14155776)
I0629 00:09:07.783565 21714 net.cpp:165] Memory required for data: 1517296320
I0629 00:09:07.783586 21714 layer_factory.hpp:77] Creating layer relu3_1
I0629 00:09:07.783599 21714 net.cpp:100] Creating Layer relu3_1
I0629 00:09:07.783605 21714 net.cpp:434] relu3_1 <- conv3_1
I0629 00:09:07.783615 21714 net.cpp:395] relu3_1 -> conv3_1 (in-place)
I0629 00:09:07.784579 21714 net.cpp:150] Setting up relu3_1
I0629 00:09:07.784605 21714 net.cpp:157] Top shape: 2 256 144 192 (14155776)
I0629 00:09:07.784606 21714 net.cpp:165] Memory required for data: 1573919424
I0629 00:09:07.784610 21714 layer_factory.hpp:77] Creating layer conv3_2
I0629 00:09:07.784631 21714 net.cpp:100] Creating Layer conv3_2
I0629 00:09:07.784636 21714 net.cpp:434] conv3_2 <- conv3_1
I0629 00:09:07.784646 21714 net.cpp:408] conv3_2 -> conv3_2
I0629 00:09:07.787989 21714 net.cpp:150] Setting up conv3_2
I0629 00:09:07.788009 21714 net.cpp:157] Top shape: 2 256 144 192 (14155776)
I0629 00:09:07.788012 21714 net.cpp:165] Memory required for data: 1630542528
I0629 00:09:07.788019 21714 layer_factory.hpp:77] Creating layer relu3_2
I0629 00:09:07.788029 21714 net.cpp:100] Creating Layer relu3_2
I0629 00:09:07.788034 21714 net.cpp:434] relu3_2 <- conv3_2
I0629 00:09:07.788041 21714 net.cpp:395] relu3_2 -> conv3_2 (in-place)
I0629 00:09:07.788349 21714 net.cpp:150] Setting up relu3_2
I0629 00:09:07.788357 21714 net.cpp:157] Top shape: 2 256 144 192 (14155776)
I0629 00:09:07.788358 21714 net.cpp:165] Memory required for data: 1687165632
I0629 00:09:07.788362 21714 layer_factory.hpp:77] Creating layer conv3_3
I0629 00:09:07.788372 21714 net.cpp:100] Creating Layer conv3_3
I0629 00:09:07.788375 21714 net.cpp:434] conv3_3 <- conv3_2
I0629 00:09:07.788381 21714 net.cpp:408] conv3_3 -> conv3_3
I0629 00:09:07.792119 21714 net.cpp:150] Setting up conv3_3
I0629 00:09:07.792136 21714 net.cpp:157] Top shape: 2 256 144 192 (14155776)
I0629 00:09:07.792138 21714 net.cpp:165] Memory required for data: 1743788736
I0629 00:09:07.792146 21714 layer_factory.hpp:77] Creating layer relu3_3
I0629 00:09:07.792156 21714 net.cpp:100] Creating Layer relu3_3
I0629 00:09:07.792160 21714 net.cpp:434] relu3_3 <- conv3_3
I0629 00:09:07.792166 21714 net.cpp:395] relu3_3 -> conv3_3 (in-place)
I0629 00:09:07.792474 21714 net.cpp:150] Setting up relu3_3
I0629 00:09:07.792481 21714 net.cpp:157] Top shape: 2 256 144 192 (14155776)
I0629 00:09:07.792484 21714 net.cpp:165] Memory required for data: 1800411840
I0629 00:09:07.792486 21714 layer_factory.hpp:77] Creating layer pool3
I0629 00:09:07.792492 21714 net.cpp:100] Creating Layer pool3
I0629 00:09:07.792496 21714 net.cpp:434] pool3 <- conv3_3
I0629 00:09:07.792501 21714 net.cpp:408] pool3 -> pool3
I0629 00:09:07.792562 21714 net.cpp:150] Setting up pool3
I0629 00:09:07.792568 21714 net.cpp:157] Top shape: 2 256 72 96 (3538944)
I0629 00:09:07.792572 21714 net.cpp:165] Memory required for data: 1814567616
I0629 00:09:07.792574 21714 layer_factory.hpp:77] Creating layer conv4_1
I0629 00:09:07.792583 21714 net.cpp:100] Creating Layer conv4_1
I0629 00:09:07.792587 21714 net.cpp:434] conv4_1 <- pool3
I0629 00:09:07.792594 21714 net.cpp:408] conv4_1 -> conv4_1
I0629 00:09:07.796880 21714 net.cpp:150] Setting up conv4_1
I0629 00:09:07.796901 21714 net.cpp:157] Top shape: 2 512 72 96 (7077888)
I0629 00:09:07.796903 21714 net.cpp:165] Memory required for data: 1842879168
I0629 00:09:07.796911 21714 layer_factory.hpp:77] Creating layer relu4_1
I0629 00:09:07.796921 21714 net.cpp:100] Creating Layer relu4_1
I0629 00:09:07.796924 21714 net.cpp:434] relu4_1 <- conv4_1
I0629 00:09:07.796931 21714 net.cpp:395] relu4_1 -> conv4_1 (in-place)
I0629 00:09:07.797669 21714 net.cpp:150] Setting up relu4_1
I0629 00:09:07.797678 21714 net.cpp:157] Top shape: 2 512 72 96 (7077888)
I0629 00:09:07.797682 21714 net.cpp:165] Memory required for data: 1871190720
I0629 00:09:07.797683 21714 layer_factory.hpp:77] Creating layer conv4_2
I0629 00:09:07.797693 21714 net.cpp:100] Creating Layer conv4_2
I0629 00:09:07.797698 21714 net.cpp:434] conv4_2 <- conv4_1
I0629 00:09:07.797705 21714 net.cpp:408] conv4_2 -> conv4_2
I0629 00:09:07.804837 21714 net.cpp:150] Setting up conv4_2
I0629 00:09:07.804875 21714 net.cpp:157] Top shape: 2 512 72 96 (7077888)
I0629 00:09:07.804878 21714 net.cpp:165] Memory required for data: 1899502272
I0629 00:09:07.804898 21714 layer_factory.hpp:77] Creating layer relu4_2
I0629 00:09:07.804913 21714 net.cpp:100] Creating Layer relu4_2
I0629 00:09:07.804919 21714 net.cpp:434] relu4_2 <- conv4_2
I0629 00:09:07.804927 21714 net.cpp:395] relu4_2 -> conv4_2 (in-place)
I0629 00:09:07.805261 21714 net.cpp:150] Setting up relu4_2
I0629 00:09:07.805269 21714 net.cpp:157] Top shape: 2 512 72 96 (7077888)
I0629 00:09:07.805270 21714 net.cpp:165] Memory required for data: 1927813824
I0629 00:09:07.805274 21714 layer_factory.hpp:77] Creating layer conv4_3
I0629 00:09:07.805282 21714 net.cpp:100] Creating Layer conv4_3
I0629 00:09:07.805286 21714 net.cpp:434] conv4_3 <- conv4_2
I0629 00:09:07.805291 21714 net.cpp:408] conv4_3 -> conv4_3
I0629 00:09:07.814266 21714 net.cpp:150] Setting up conv4_3
I0629 00:09:07.814285 21714 net.cpp:157] Top shape: 2 512 72 96 (7077888)
I0629 00:09:07.814286 21714 net.cpp:165] Memory required for data: 1956125376
I0629 00:09:07.814296 21714 layer_factory.hpp:77] Creating layer relu4_3
I0629 00:09:07.814306 21714 net.cpp:100] Creating Layer relu4_3
I0629 00:09:07.814311 21714 net.cpp:434] relu4_3 <- conv4_3
I0629 00:09:07.814317 21714 net.cpp:395] relu4_3 -> conv4_3 (in-place)
I0629 00:09:07.814611 21714 net.cpp:150] Setting up relu4_3
I0629 00:09:07.814618 21714 net.cpp:157] Top shape: 2 512 72 96 (7077888)
I0629 00:09:07.814620 21714 net.cpp:165] Memory required for data: 1984436928
I0629 00:09:07.814623 21714 layer_factory.hpp:77] Creating layer conv4_3_relu4_3_0_split
I0629 00:09:07.814630 21714 net.cpp:100] Creating Layer conv4_3_relu4_3_0_split
I0629 00:09:07.814633 21714 net.cpp:434] conv4_3_relu4_3_0_split <- conv4_3
I0629 00:09:07.814640 21714 net.cpp:408] conv4_3_relu4_3_0_split -> conv4_3_relu4_3_0_split_0
I0629 00:09:07.814647 21714 net.cpp:408] conv4_3_relu4_3_0_split -> conv4_3_relu4_3_0_split_1
I0629 00:09:07.814704 21714 net.cpp:150] Setting up conv4_3_relu4_3_0_split
I0629 00:09:07.814712 21714 net.cpp:157] Top shape: 2 512 72 96 (7077888)
I0629 00:09:07.814715 21714 net.cpp:157] Top shape: 2 512 72 96 (7077888)
I0629 00:09:07.814718 21714 net.cpp:165] Memory required for data: 2041060032
I0629 00:09:07.814721 21714 layer_factory.hpp:77] Creating layer loss1_conv1
I0629 00:09:07.814738 21714 net.cpp:100] Creating Layer loss1_conv1
I0629 00:09:07.814741 21714 net.cpp:434] loss1_conv1 <- conv4_3_relu4_3_0_split_0
I0629 00:09:07.814749 21714 net.cpp:408] loss1_conv1 -> loss1_conv1
I0629 00:09:07.836211 21714 net.cpp:150] Setting up loss1_conv1
I0629 00:09:07.836230 21714 net.cpp:157] Top shape: 2 512 72 96 (7077888)
I0629 00:09:07.836232 21714 net.cpp:165] Memory required for data: 2069371584
I0629 00:09:07.836239 21714 layer_factory.hpp:77] Creating layer loss_relu1
I0629 00:09:07.836249 21714 net.cpp:100] Creating Layer loss_relu1
I0629 00:09:07.836254 21714 net.cpp:434] loss_relu1 <- loss1_conv1
I0629 00:09:07.836261 21714 net.cpp:395] loss_relu1 -> loss1_conv1 (in-place)
I0629 00:09:07.837041 21714 net.cpp:150] Setting up loss_relu1
I0629 00:09:07.837051 21714 net.cpp:157] Top shape: 2 512 72 96 (7077888)
I0629 00:09:07.837054 21714 net.cpp:165] Memory required for data: 2097683136
I0629 00:09:07.837056 21714 layer_factory.hpp:77] Creating layer loss1_conv1_loss_relu1_0_split
I0629 00:09:07.837062 21714 net.cpp:100] Creating Layer loss1_conv1_loss_relu1_0_split
I0629 00:09:07.837066 21714 net.cpp:434] loss1_conv1_loss_relu1_0_split <- loss1_conv1
I0629 00:09:07.837074 21714 net.cpp:408] loss1_conv1_loss_relu1_0_split -> loss1_conv1_loss_relu1_0_split_0
I0629 00:09:07.837080 21714 net.cpp:408] loss1_conv1_loss_relu1_0_split -> loss1_conv1_loss_relu1_0_split_1
I0629 00:09:07.837141 21714 net.cpp:150] Setting up loss1_conv1_loss_relu1_0_split
I0629 00:09:07.837146 21714 net.cpp:157] Top shape: 2 512 72 96 (7077888)
I0629 00:09:07.837150 21714 net.cpp:157] Top shape: 2 512 72 96 (7077888)
I0629 00:09:07.837153 21714 net.cpp:165] Memory required for data: 2154306240
I0629 00:09:07.837157 21714 layer_factory.hpp:77] Creating layer LFCN_1_3x5
I0629 00:09:07.837167 21714 net.cpp:100] Creating Layer LFCN_1_3x5
I0629 00:09:07.837170 21714 net.cpp:434] LFCN_1_3x5 <- loss1_conv1_loss_relu1_0_split_0
I0629 00:09:07.837177 21714 net.cpp:408] LFCN_1_3x5 -> LFCN_1_3x5
I0629 00:09:07.839125 21714 net.cpp:150] Setting up LFCN_1_3x5
I0629 00:09:07.839138 21714 net.cpp:157] Top shape: 2 7 72 96 (96768)
I0629 00:09:07.839140 21714 net.cpp:165] Memory required for data: 2154693312
I0629 00:09:07.839148 21714 layer_factory.hpp:77] Creating layer LFCN_1_3x5_LFCN_1_3x5_0_split
I0629 00:09:07.839157 21714 net.cpp:100] Creating Layer LFCN_1_3x5_LFCN_1_3x5_0_split
I0629 00:09:07.839161 21714 net.cpp:434] LFCN_1_3x5_LFCN_1_3x5_0_split <- LFCN_1_3x5
I0629 00:09:07.839167 21714 net.cpp:408] LFCN_1_3x5_LFCN_1_3x5_0_split -> LFCN_1_3x5_LFCN_1_3x5_0_split_0
I0629 00:09:07.839176 21714 net.cpp:408] LFCN_1_3x5_LFCN_1_3x5_0_split -> LFCN_1_3x5_LFCN_1_3x5_0_split_1
I0629 00:09:07.839229 21714 net.cpp:150] Setting up LFCN_1_3x5_LFCN_1_3x5_0_split
I0629 00:09:07.839236 21714 net.cpp:157] Top shape: 2 7 72 96 (96768)
I0629 00:09:07.839241 21714 net.cpp:157] Top shape: 2 7 72 96 (96768)
I0629 00:09:07.839242 21714 net.cpp:165] Memory required for data: 2155467456
I0629 00:09:07.839246 21714 layer_factory.hpp:77] Creating layer detection_loss_1_3x5
I0629 00:09:07.839254 21714 net.cpp:100] Creating Layer detection_loss_1_3x5
I0629 00:09:07.839257 21714 net.cpp:434] detection_loss_1_3x5 <- LFCN_1_3x5_LFCN_1_3x5_0_split_0
I0629 00:09:07.839262 21714 net.cpp:434] detection_loss_1_3x5 <- label_1_3x5_data_1_split_0
I0629 00:09:07.839269 21714 net.cpp:408] detection_loss_1_3x5 -> loss_1_3x5
I0629 00:09:07.839277 21714 layer_factory.hpp:77] Creating layer detection_loss_1_3x5
I0629 00:09:07.840237 21714 net.cpp:150] Setting up detection_loss_1_3x5
I0629 00:09:07.840247 21714 net.cpp:157] Top shape: 1 1 1 2 (2)
I0629 00:09:07.840250 21714 net.cpp:160]     with loss weight 0.9
I0629 00:09:07.840260 21714 net.cpp:165] Memory required for data: 2155467464
I0629 00:09:07.840262 21714 layer_factory.hpp:77] Creating layer detection_accuracy_1_3x5
I0629 00:09:07.840270 21714 net.cpp:100] Creating Layer detection_accuracy_1_3x5
I0629 00:09:07.840275 21714 net.cpp:434] detection_accuracy_1_3x5 <- LFCN_1_3x5_LFCN_1_3x5_0_split_1
I0629 00:09:07.840281 21714 net.cpp:434] detection_accuracy_1_3x5 <- label_1_3x5_data_1_split_1
I0629 00:09:07.840286 21714 net.cpp:408] detection_accuracy_1_3x5 -> accuracy_1_3x5
I0629 00:09:07.840292 21714 net.cpp:408] detection_accuracy_1_3x5 -> boxiou_1_3x5
I0629 00:09:07.840348 21714 net.cpp:150] Setting up detection_accuracy_1_3x5
I0629 00:09:07.840353 21714 net.cpp:157] Top shape: 1 1 1 2 (2)
I0629 00:09:07.840358 21714 net.cpp:157] Top shape: 1 1 1 1 (1)
I0629 00:09:07.840360 21714 net.cpp:165] Memory required for data: 2155467476
I0629 00:09:07.840363 21714 layer_factory.hpp:77] Creating layer LFCN_1_5x7
I0629 00:09:07.840373 21714 net.cpp:100] Creating Layer LFCN_1_5x7
I0629 00:09:07.840376 21714 net.cpp:434] LFCN_1_5x7 <- loss1_conv1_loss_relu1_0_split_1
I0629 00:09:07.840384 21714 net.cpp:408] LFCN_1_5x7 -> LFCN_1_5x7
I0629 00:09:07.843914 21714 net.cpp:150] Setting up LFCN_1_5x7
I0629 00:09:07.843938 21714 net.cpp:157] Top shape: 2 7 72 96 (96768)
I0629 00:09:07.843942 21714 net.cpp:165] Memory required for data: 2155854548
I0629 00:09:07.843952 21714 layer_factory.hpp:77] Creating layer LFCN_1_5x7_LFCN_1_5x7_0_split
I0629 00:09:07.843961 21714 net.cpp:100] Creating Layer LFCN_1_5x7_LFCN_1_5x7_0_split
I0629 00:09:07.843966 21714 net.cpp:434] LFCN_1_5x7_LFCN_1_5x7_0_split <- LFCN_1_5x7
I0629 00:09:07.843974 21714 net.cpp:408] LFCN_1_5x7_LFCN_1_5x7_0_split -> LFCN_1_5x7_LFCN_1_5x7_0_split_0
I0629 00:09:07.843983 21714 net.cpp:408] LFCN_1_5x7_LFCN_1_5x7_0_split -> LFCN_1_5x7_LFCN_1_5x7_0_split_1
I0629 00:09:07.844036 21714 net.cpp:150] Setting up LFCN_1_5x7_LFCN_1_5x7_0_split
I0629 00:09:07.844041 21714 net.cpp:157] Top shape: 2 7 72 96 (96768)
I0629 00:09:07.844045 21714 net.cpp:157] Top shape: 2 7 72 96 (96768)
I0629 00:09:07.844048 21714 net.cpp:165] Memory required for data: 2156628692
I0629 00:09:07.844051 21714 layer_factory.hpp:77] Creating layer detection_loss_1_5x7
I0629 00:09:07.844060 21714 net.cpp:100] Creating Layer detection_loss_1_5x7
I0629 00:09:07.844064 21714 net.cpp:434] detection_loss_1_5x7 <- LFCN_1_5x7_LFCN_1_5x7_0_split_0
I0629 00:09:07.844069 21714 net.cpp:434] detection_loss_1_5x7 <- label_1_5x7_data_2_split_0
I0629 00:09:07.844075 21714 net.cpp:408] detection_loss_1_5x7 -> loss_1_5x7
I0629 00:09:07.844084 21714 layer_factory.hpp:77] Creating layer detection_loss_1_5x7
I0629 00:09:07.844728 21714 net.cpp:150] Setting up detection_loss_1_5x7
I0629 00:09:07.844735 21714 net.cpp:157] Top shape: 1 1 1 2 (2)
I0629 00:09:07.844738 21714 net.cpp:160]     with loss weight 0.9
I0629 00:09:07.844746 21714 net.cpp:165] Memory required for data: 2156628700
I0629 00:09:07.844750 21714 layer_factory.hpp:77] Creating layer detection_accuracy_1_5x7
I0629 00:09:07.844758 21714 net.cpp:100] Creating Layer detection_accuracy_1_5x7
I0629 00:09:07.844763 21714 net.cpp:434] detection_accuracy_1_5x7 <- LFCN_1_5x7_LFCN_1_5x7_0_split_1
I0629 00:09:07.844768 21714 net.cpp:434] detection_accuracy_1_5x7 <- label_1_5x7_data_2_split_1
I0629 00:09:07.844774 21714 net.cpp:408] detection_accuracy_1_5x7 -> accuracy_1_5x7
I0629 00:09:07.844780 21714 net.cpp:408] detection_accuracy_1_5x7 -> boxiou_1_5x7
I0629 00:09:07.844831 21714 net.cpp:150] Setting up detection_accuracy_1_5x7
I0629 00:09:07.844836 21714 net.cpp:157] Top shape: 1 1 1 2 (2)
I0629 00:09:07.844841 21714 net.cpp:157] Top shape: 1 1 1 1 (1)
I0629 00:09:07.844842 21714 net.cpp:165] Memory required for data: 2156628712
I0629 00:09:07.844846 21714 layer_factory.hpp:77] Creating layer pool4
I0629 00:09:07.844851 21714 net.cpp:100] Creating Layer pool4
I0629 00:09:07.844856 21714 net.cpp:434] pool4 <- conv4_3_relu4_3_0_split_1
I0629 00:09:07.844861 21714 net.cpp:408] pool4 -> pool4
I0629 00:09:07.844909 21714 net.cpp:150] Setting up pool4
I0629 00:09:07.844914 21714 net.cpp:157] Top shape: 2 512 36 48 (1769472)
I0629 00:09:07.844918 21714 net.cpp:165] Memory required for data: 2163706600
I0629 00:09:07.844920 21714 layer_factory.hpp:77] Creating layer conv5_1
I0629 00:09:07.844928 21714 net.cpp:100] Creating Layer conv5_1
I0629 00:09:07.844931 21714 net.cpp:434] conv5_1 <- pool4
I0629 00:09:07.844938 21714 net.cpp:408] conv5_1 -> conv5_1
I0629 00:09:07.854933 21714 net.cpp:150] Setting up conv5_1
I0629 00:09:07.854951 21714 net.cpp:157] Top shape: 2 512 36 48 (1769472)
I0629 00:09:07.854954 21714 net.cpp:165] Memory required for data: 2170784488
I0629 00:09:07.854961 21714 layer_factory.hpp:77] Creating layer relu5_1
I0629 00:09:07.854970 21714 net.cpp:100] Creating Layer relu5_1
I0629 00:09:07.854975 21714 net.cpp:434] relu5_1 <- conv5_1
I0629 00:09:07.854984 21714 net.cpp:395] relu5_1 -> conv5_1 (in-place)
I0629 00:09:07.855288 21714 net.cpp:150] Setting up relu5_1
I0629 00:09:07.855294 21714 net.cpp:157] Top shape: 2 512 36 48 (1769472)
I0629 00:09:07.855296 21714 net.cpp:165] Memory required for data: 2177862376
I0629 00:09:07.855299 21714 layer_factory.hpp:77] Creating layer conv5_2
I0629 00:09:07.855309 21714 net.cpp:100] Creating Layer conv5_2
I0629 00:09:07.855311 21714 net.cpp:434] conv5_2 <- conv5_1
I0629 00:09:07.855319 21714 net.cpp:408] conv5_2 -> conv5_2
I0629 00:09:07.861049 21714 net.cpp:150] Setting up conv5_2
I0629 00:09:07.861070 21714 net.cpp:157] Top shape: 2 512 36 48 (1769472)
I0629 00:09:07.861073 21714 net.cpp:165] Memory required for data: 2184940264
I0629 00:09:07.861080 21714 layer_factory.hpp:77] Creating layer relu5_2
I0629 00:09:07.861089 21714 net.cpp:100] Creating Layer relu5_2
I0629 00:09:07.861094 21714 net.cpp:434] relu5_2 <- conv5_2
I0629 00:09:07.861100 21714 net.cpp:395] relu5_2 -> conv5_2 (in-place)
I0629 00:09:07.861887 21714 net.cpp:150] Setting up relu5_2
I0629 00:09:07.861898 21714 net.cpp:157] Top shape: 2 512 36 48 (1769472)
I0629 00:09:07.861901 21714 net.cpp:165] Memory required for data: 2192018152
I0629 00:09:07.861903 21714 layer_factory.hpp:77] Creating layer conv5_3
I0629 00:09:07.861913 21714 net.cpp:100] Creating Layer conv5_3
I0629 00:09:07.861918 21714 net.cpp:434] conv5_3 <- conv5_2
I0629 00:09:07.861924 21714 net.cpp:408] conv5_3 -> conv5_3
I0629 00:09:07.867666 21714 net.cpp:150] Setting up conv5_3
I0629 00:09:07.867686 21714 net.cpp:157] Top shape: 2 512 36 48 (1769472)
I0629 00:09:07.867687 21714 net.cpp:165] Memory required for data: 2199096040
I0629 00:09:07.867694 21714 layer_factory.hpp:77] Creating layer relu5_3
I0629 00:09:07.867704 21714 net.cpp:100] Creating Layer relu5_3
I0629 00:09:07.867709 21714 net.cpp:434] relu5_3 <- conv5_3
I0629 00:09:07.867717 21714 net.cpp:395] relu5_3 -> conv5_3 (in-place)
I0629 00:09:07.868018 21714 net.cpp:150] Setting up relu5_3
I0629 00:09:07.868026 21714 net.cpp:157] Top shape: 2 512 36 48 (1769472)
I0629 00:09:07.868028 21714 net.cpp:165] Memory required for data: 2206173928
I0629 00:09:07.868031 21714 layer_factory.hpp:77] Creating layer conv5_3_relu5_3_0_split
I0629 00:09:07.868036 21714 net.cpp:100] Creating Layer conv5_3_relu5_3_0_split
I0629 00:09:07.868041 21714 net.cpp:434] conv5_3_relu5_3_0_split <- conv5_3
I0629 00:09:07.868046 21714 net.cpp:408] conv5_3_relu5_3_0_split -> conv5_3_relu5_3_0_split_0
I0629 00:09:07.868054 21714 net.cpp:408] conv5_3_relu5_3_0_split -> conv5_3_relu5_3_0_split_1
I0629 00:09:07.868062 21714 net.cpp:408] conv5_3_relu5_3_0_split -> conv5_3_relu5_3_0_split_2
I0629 00:09:07.868137 21714 net.cpp:150] Setting up conv5_3_relu5_3_0_split
I0629 00:09:07.868144 21714 net.cpp:157] Top shape: 2 512 36 48 (1769472)
I0629 00:09:07.868147 21714 net.cpp:157] Top shape: 2 512 36 48 (1769472)
I0629 00:09:07.868151 21714 net.cpp:157] Top shape: 2 512 36 48 (1769472)
I0629 00:09:07.868155 21714 net.cpp:165] Memory required for data: 2227407592
I0629 00:09:07.868157 21714 layer_factory.hpp:77] Creating layer LFCN_2_3x5
I0629 00:09:07.868167 21714 net.cpp:100] Creating Layer LFCN_2_3x5
I0629 00:09:07.868172 21714 net.cpp:434] LFCN_2_3x5 <- conv5_3_relu5_3_0_split_0
I0629 00:09:07.868178 21714 net.cpp:408] LFCN_2_3x5 -> LFCN_2_3x5
I0629 00:09:07.872848 21714 net.cpp:150] Setting up LFCN_2_3x5
I0629 00:09:07.872887 21714 net.cpp:157] Top shape: 2 7 36 48 (24192)
I0629 00:09:07.872891 21714 net.cpp:165] Memory required for data: 2227504360
I0629 00:09:07.872915 21714 layer_factory.hpp:77] Creating layer LFCN_2_3x5_LFCN_2_3x5_0_split
I0629 00:09:07.872931 21714 net.cpp:100] Creating Layer LFCN_2_3x5_LFCN_2_3x5_0_split
I0629 00:09:07.872937 21714 net.cpp:434] LFCN_2_3x5_LFCN_2_3x5_0_split <- LFCN_2_3x5
I0629 00:09:07.872948 21714 net.cpp:408] LFCN_2_3x5_LFCN_2_3x5_0_split -> LFCN_2_3x5_LFCN_2_3x5_0_split_0
I0629 00:09:07.872961 21714 net.cpp:408] LFCN_2_3x5_LFCN_2_3x5_0_split -> LFCN_2_3x5_LFCN_2_3x5_0_split_1
I0629 00:09:07.873028 21714 net.cpp:150] Setting up LFCN_2_3x5_LFCN_2_3x5_0_split
I0629 00:09:07.873034 21714 net.cpp:157] Top shape: 2 7 36 48 (24192)
I0629 00:09:07.873039 21714 net.cpp:157] Top shape: 2 7 36 48 (24192)
I0629 00:09:07.873041 21714 net.cpp:165] Memory required for data: 2227697896
I0629 00:09:07.873044 21714 layer_factory.hpp:77] Creating layer detection_loss_2_3x5
I0629 00:09:07.873054 21714 net.cpp:100] Creating Layer detection_loss_2_3x5
I0629 00:09:07.873057 21714 net.cpp:434] detection_loss_2_3x5 <- LFCN_2_3x5_LFCN_2_3x5_0_split_0
I0629 00:09:07.873062 21714 net.cpp:434] detection_loss_2_3x5 <- label_2_3x5_data_3_split_0
I0629 00:09:07.873069 21714 net.cpp:408] detection_loss_2_3x5 -> loss_2_3x5
I0629 00:09:07.873077 21714 layer_factory.hpp:77] Creating layer detection_loss_2_3x5
I0629 00:09:07.873556 21714 net.cpp:150] Setting up detection_loss_2_3x5
I0629 00:09:07.873564 21714 net.cpp:157] Top shape: 1 1 1 2 (2)
I0629 00:09:07.873567 21714 net.cpp:160]     with loss weight 1
I0629 00:09:07.873576 21714 net.cpp:165] Memory required for data: 2227697904
I0629 00:09:07.873579 21714 layer_factory.hpp:77] Creating layer detection_accuracy_2_3x5
I0629 00:09:07.873586 21714 net.cpp:100] Creating Layer detection_accuracy_2_3x5
I0629 00:09:07.873589 21714 net.cpp:434] detection_accuracy_2_3x5 <- LFCN_2_3x5_LFCN_2_3x5_0_split_1
I0629 00:09:07.873595 21714 net.cpp:434] detection_accuracy_2_3x5 <- label_2_3x5_data_3_split_1
I0629 00:09:07.873600 21714 net.cpp:408] detection_accuracy_2_3x5 -> accuracy_2_3x5
I0629 00:09:07.873607 21714 net.cpp:408] detection_accuracy_2_3x5 -> boxiou_2_3x5
I0629 00:09:07.873666 21714 net.cpp:150] Setting up detection_accuracy_2_3x5
I0629 00:09:07.873672 21714 net.cpp:157] Top shape: 1 1 1 2 (2)
I0629 00:09:07.873675 21714 net.cpp:157] Top shape: 1 1 1 1 (1)
I0629 00:09:07.873678 21714 net.cpp:165] Memory required for data: 2227697916
I0629 00:09:07.873680 21714 layer_factory.hpp:77] Creating layer LFCN_2_5x7
I0629 00:09:07.873692 21714 net.cpp:100] Creating Layer LFCN_2_5x7
I0629 00:09:07.873695 21714 net.cpp:434] LFCN_2_5x7 <- conv5_3_relu5_3_0_split_1
I0629 00:09:07.873703 21714 net.cpp:408] LFCN_2_5x7 -> LFCN_2_5x7
I0629 00:09:07.876170 21714 net.cpp:150] Setting up LFCN_2_5x7
I0629 00:09:07.876185 21714 net.cpp:157] Top shape: 2 7 36 48 (24192)
I0629 00:09:07.876188 21714 net.cpp:165] Memory required for data: 2227794684
I0629 00:09:07.876196 21714 layer_factory.hpp:77] Creating layer LFCN_2_5x7_LFCN_2_5x7_0_split
I0629 00:09:07.876204 21714 net.cpp:100] Creating Layer LFCN_2_5x7_LFCN_2_5x7_0_split
I0629 00:09:07.876209 21714 net.cpp:434] LFCN_2_5x7_LFCN_2_5x7_0_split <- LFCN_2_5x7
I0629 00:09:07.876216 21714 net.cpp:408] LFCN_2_5x7_LFCN_2_5x7_0_split -> LFCN_2_5x7_LFCN_2_5x7_0_split_0
I0629 00:09:07.876224 21714 net.cpp:408] LFCN_2_5x7_LFCN_2_5x7_0_split -> LFCN_2_5x7_LFCN_2_5x7_0_split_1
I0629 00:09:07.876276 21714 net.cpp:150] Setting up LFCN_2_5x7_LFCN_2_5x7_0_split
I0629 00:09:07.876281 21714 net.cpp:157] Top shape: 2 7 36 48 (24192)
I0629 00:09:07.876284 21714 net.cpp:157] Top shape: 2 7 36 48 (24192)
I0629 00:09:07.876287 21714 net.cpp:165] Memory required for data: 2227988220
I0629 00:09:07.876291 21714 layer_factory.hpp:77] Creating layer detection_loss_2_5x7
I0629 00:09:07.876298 21714 net.cpp:100] Creating Layer detection_loss_2_5x7
I0629 00:09:07.876302 21714 net.cpp:434] detection_loss_2_5x7 <- LFCN_2_5x7_LFCN_2_5x7_0_split_0
I0629 00:09:07.876307 21714 net.cpp:434] detection_loss_2_5x7 <- label_2_5x7_data_4_split_0
I0629 00:09:07.876315 21714 net.cpp:408] detection_loss_2_5x7 -> loss_2_5x7
I0629 00:09:07.876324 21714 layer_factory.hpp:77] Creating layer detection_loss_2_5x7
I0629 00:09:07.877336 21714 net.cpp:150] Setting up detection_loss_2_5x7
I0629 00:09:07.877347 21714 net.cpp:157] Top shape: 1 1 1 2 (2)
I0629 00:09:07.877351 21714 net.cpp:160]     with loss weight 1
I0629 00:09:07.877360 21714 net.cpp:165] Memory required for data: 2227988228
I0629 00:09:07.877363 21714 layer_factory.hpp:77] Creating layer detection_accuracy_2_5x7
I0629 00:09:07.877372 21714 net.cpp:100] Creating Layer detection_accuracy_2_5x7
I0629 00:09:07.877375 21714 net.cpp:434] detection_accuracy_2_5x7 <- LFCN_2_5x7_LFCN_2_5x7_0_split_1
I0629 00:09:07.877382 21714 net.cpp:434] detection_accuracy_2_5x7 <- label_2_5x7_data_4_split_1
I0629 00:09:07.877393 21714 net.cpp:408] detection_accuracy_2_5x7 -> accuracy_2_5x7
I0629 00:09:07.877401 21714 net.cpp:408] detection_accuracy_2_5x7 -> boxiou_2_5x7
I0629 00:09:07.877447 21714 net.cpp:150] Setting up detection_accuracy_2_5x7
I0629 00:09:07.877454 21714 net.cpp:157] Top shape: 1 1 1 2 (2)
I0629 00:09:07.877457 21714 net.cpp:157] Top shape: 1 1 1 1 (1)
I0629 00:09:07.877460 21714 net.cpp:165] Memory required for data: 2227988240
I0629 00:09:07.877462 21714 layer_factory.hpp:77] Creating layer pool5
I0629 00:09:07.877470 21714 net.cpp:100] Creating Layer pool5
I0629 00:09:07.877473 21714 net.cpp:434] pool5 <- conv5_3_relu5_3_0_split_2
I0629 00:09:07.877478 21714 net.cpp:408] pool5 -> pool5
I0629 00:09:07.877521 21714 net.cpp:150] Setting up pool5
I0629 00:09:07.877526 21714 net.cpp:157] Top shape: 2 512 18 24 (442368)
I0629 00:09:07.877529 21714 net.cpp:165] Memory required for data: 2229757712
I0629 00:09:07.877532 21714 layer_factory.hpp:77] Creating layer conv6_1
I0629 00:09:07.877542 21714 net.cpp:100] Creating Layer conv6_1
I0629 00:09:07.877545 21714 net.cpp:434] conv6_1 <- pool5
I0629 00:09:07.877552 21714 net.cpp:408] conv6_1 -> conv6_1
I0629 00:09:07.901891 21714 net.cpp:150] Setting up conv6_1
I0629 00:09:07.901907 21714 net.cpp:157] Top shape: 2 512 18 24 (442368)
I0629 00:09:07.901911 21714 net.cpp:165] Memory required for data: 2231527184
I0629 00:09:07.901919 21714 layer_factory.hpp:77] Creating layer relu6_1
I0629 00:09:07.901928 21714 net.cpp:100] Creating Layer relu6_1
I0629 00:09:07.901933 21714 net.cpp:434] relu6_1 <- conv6_1
I0629 00:09:07.901938 21714 net.cpp:395] relu6_1 -> conv6_1 (in-place)
I0629 00:09:07.902204 21714 net.cpp:150] Setting up relu6_1
I0629 00:09:07.902210 21714 net.cpp:157] Top shape: 2 512 18 24 (442368)
I0629 00:09:07.902212 21714 net.cpp:165] Memory required for data: 2233296656
I0629 00:09:07.902215 21714 layer_factory.hpp:77] Creating layer conv6_1_relu6_1_0_split
I0629 00:09:07.902222 21714 net.cpp:100] Creating Layer conv6_1_relu6_1_0_split
I0629 00:09:07.902227 21714 net.cpp:434] conv6_1_relu6_1_0_split <- conv6_1
I0629 00:09:07.902233 21714 net.cpp:408] conv6_1_relu6_1_0_split -> conv6_1_relu6_1_0_split_0
I0629 00:09:07.902241 21714 net.cpp:408] conv6_1_relu6_1_0_split -> conv6_1_relu6_1_0_split_1
I0629 00:09:07.902249 21714 net.cpp:408] conv6_1_relu6_1_0_split -> conv6_1_relu6_1_0_split_2
I0629 00:09:07.902309 21714 net.cpp:150] Setting up conv6_1_relu6_1_0_split
I0629 00:09:07.902315 21714 net.cpp:157] Top shape: 2 512 18 24 (442368)
I0629 00:09:07.902319 21714 net.cpp:157] Top shape: 2 512 18 24 (442368)
I0629 00:09:07.902323 21714 net.cpp:157] Top shape: 2 512 18 24 (442368)
I0629 00:09:07.902326 21714 net.cpp:165] Memory required for data: 2238605072
I0629 00:09:07.902329 21714 layer_factory.hpp:77] Creating layer LFCN_3_3x5
I0629 00:09:07.902338 21714 net.cpp:100] Creating Layer LFCN_3_3x5
I0629 00:09:07.902343 21714 net.cpp:434] LFCN_3_3x5 <- conv6_1_relu6_1_0_split_0
I0629 00:09:07.902348 21714 net.cpp:408] LFCN_3_3x5 -> LFCN_3_3x5
I0629 00:09:07.905150 21714 net.cpp:150] Setting up LFCN_3_3x5
I0629 00:09:07.905164 21714 net.cpp:157] Top shape: 2 7 18 24 (6048)
I0629 00:09:07.905166 21714 net.cpp:165] Memory required for data: 2238629264
I0629 00:09:07.905174 21714 layer_factory.hpp:77] Creating layer LFCN_3_3x5_LFCN_3_3x5_0_split
I0629 00:09:07.905194 21714 net.cpp:100] Creating Layer LFCN_3_3x5_LFCN_3_3x5_0_split
I0629 00:09:07.905200 21714 net.cpp:434] LFCN_3_3x5_LFCN_3_3x5_0_split <- LFCN_3_3x5
I0629 00:09:07.905206 21714 net.cpp:408] LFCN_3_3x5_LFCN_3_3x5_0_split -> LFCN_3_3x5_LFCN_3_3x5_0_split_0
I0629 00:09:07.905215 21714 net.cpp:408] LFCN_3_3x5_LFCN_3_3x5_0_split -> LFCN_3_3x5_LFCN_3_3x5_0_split_1
I0629 00:09:07.905269 21714 net.cpp:150] Setting up LFCN_3_3x5_LFCN_3_3x5_0_split
I0629 00:09:07.905277 21714 net.cpp:157] Top shape: 2 7 18 24 (6048)
I0629 00:09:07.905280 21714 net.cpp:157] Top shape: 2 7 18 24 (6048)
I0629 00:09:07.905282 21714 net.cpp:165] Memory required for data: 2238677648
I0629 00:09:07.905287 21714 layer_factory.hpp:77] Creating layer detection_loss_3_3x5
I0629 00:09:07.905294 21714 net.cpp:100] Creating Layer detection_loss_3_3x5
I0629 00:09:07.905300 21714 net.cpp:434] detection_loss_3_3x5 <- LFCN_3_3x5_LFCN_3_3x5_0_split_0
I0629 00:09:07.905304 21714 net.cpp:434] detection_loss_3_3x5 <- label_3_3x5_data_5_split_0
I0629 00:09:07.905310 21714 net.cpp:408] detection_loss_3_3x5 -> loss_3_3x5
I0629 00:09:07.905319 21714 layer_factory.hpp:77] Creating layer detection_loss_3_3x5
I0629 00:09:07.905771 21714 net.cpp:150] Setting up detection_loss_3_3x5
I0629 00:09:07.905777 21714 net.cpp:157] Top shape: 1 1 1 2 (2)
I0629 00:09:07.905781 21714 net.cpp:160]     with loss weight 1
I0629 00:09:07.905789 21714 net.cpp:165] Memory required for data: 2238677656
I0629 00:09:07.905793 21714 layer_factory.hpp:77] Creating layer detection_accuracy_3_3x5
I0629 00:09:07.905799 21714 net.cpp:100] Creating Layer detection_accuracy_3_3x5
I0629 00:09:07.905803 21714 net.cpp:434] detection_accuracy_3_3x5 <- LFCN_3_3x5_LFCN_3_3x5_0_split_1
I0629 00:09:07.905808 21714 net.cpp:434] detection_accuracy_3_3x5 <- label_3_3x5_data_5_split_1
I0629 00:09:07.905817 21714 net.cpp:408] detection_accuracy_3_3x5 -> accuracy_3_3x5
I0629 00:09:07.905824 21714 net.cpp:408] detection_accuracy_3_3x5 -> boxiou_3_3x5
I0629 00:09:07.905869 21714 net.cpp:150] Setting up detection_accuracy_3_3x5
I0629 00:09:07.905874 21714 net.cpp:157] Top shape: 1 1 1 2 (2)
I0629 00:09:07.905877 21714 net.cpp:157] Top shape: 1 1 1 1 (1)
I0629 00:09:07.905880 21714 net.cpp:165] Memory required for data: 2238677668
I0629 00:09:07.905882 21714 layer_factory.hpp:77] Creating layer LFCN_3_5x7
I0629 00:09:07.905892 21714 net.cpp:100] Creating Layer LFCN_3_5x7
I0629 00:09:07.905896 21714 net.cpp:434] LFCN_3_5x7 <- conv6_1_relu6_1_0_split_1
I0629 00:09:07.905903 21714 net.cpp:408] LFCN_3_5x7 -> LFCN_3_5x7
I0629 00:09:07.908762 21714 net.cpp:150] Setting up LFCN_3_5x7
I0629 00:09:07.908774 21714 net.cpp:157] Top shape: 2 7 18 24 (6048)
I0629 00:09:07.908777 21714 net.cpp:165] Memory required for data: 2238701860
I0629 00:09:07.908785 21714 layer_factory.hpp:77] Creating layer LFCN_3_5x7_LFCN_3_5x7_0_split
I0629 00:09:07.908794 21714 net.cpp:100] Creating Layer LFCN_3_5x7_LFCN_3_5x7_0_split
I0629 00:09:07.908799 21714 net.cpp:434] LFCN_3_5x7_LFCN_3_5x7_0_split <- LFCN_3_5x7
I0629 00:09:07.908805 21714 net.cpp:408] LFCN_3_5x7_LFCN_3_5x7_0_split -> LFCN_3_5x7_LFCN_3_5x7_0_split_0
I0629 00:09:07.908815 21714 net.cpp:408] LFCN_3_5x7_LFCN_3_5x7_0_split -> LFCN_3_5x7_LFCN_3_5x7_0_split_1
I0629 00:09:07.908862 21714 net.cpp:150] Setting up LFCN_3_5x7_LFCN_3_5x7_0_split
I0629 00:09:07.908869 21714 net.cpp:157] Top shape: 2 7 18 24 (6048)
I0629 00:09:07.908872 21714 net.cpp:157] Top shape: 2 7 18 24 (6048)
I0629 00:09:07.908874 21714 net.cpp:165] Memory required for data: 2238750244
I0629 00:09:07.908877 21714 layer_factory.hpp:77] Creating layer detection_loss_3_5x7
I0629 00:09:07.908885 21714 net.cpp:100] Creating Layer detection_loss_3_5x7
I0629 00:09:07.908890 21714 net.cpp:434] detection_loss_3_5x7 <- LFCN_3_5x7_LFCN_3_5x7_0_split_0
I0629 00:09:07.908895 21714 net.cpp:434] detection_loss_3_5x7 <- label_3_5x7_data_6_split_0
I0629 00:09:07.908901 21714 net.cpp:408] detection_loss_3_5x7 -> loss_3_5x7
I0629 00:09:07.908910 21714 layer_factory.hpp:77] Creating layer detection_loss_3_5x7
I0629 00:09:07.909811 21714 net.cpp:150] Setting up detection_loss_3_5x7
I0629 00:09:07.909821 21714 net.cpp:157] Top shape: 1 1 1 2 (2)
I0629 00:09:07.909824 21714 net.cpp:160]     with loss weight 1
I0629 00:09:07.909832 21714 net.cpp:165] Memory required for data: 2238750252
I0629 00:09:07.909837 21714 layer_factory.hpp:77] Creating layer detection_accuracy_3_5x7
I0629 00:09:07.909843 21714 net.cpp:100] Creating Layer detection_accuracy_3_5x7
I0629 00:09:07.909848 21714 net.cpp:434] detection_accuracy_3_5x7 <- LFCN_3_5x7_LFCN_3_5x7_0_split_1
I0629 00:09:07.909853 21714 net.cpp:434] detection_accuracy_3_5x7 <- label_3_5x7_data_6_split_1
I0629 00:09:07.909860 21714 net.cpp:408] detection_accuracy_3_5x7 -> accuracy_3_5x7
I0629 00:09:07.909870 21714 net.cpp:408] detection_accuracy_3_5x7 -> boxiou_3_5x7
I0629 00:09:07.909914 21714 net.cpp:150] Setting up detection_accuracy_3_5x7
I0629 00:09:07.909919 21714 net.cpp:157] Top shape: 1 1 1 2 (2)
I0629 00:09:07.909921 21714 net.cpp:157] Top shape: 1 1 1 1 (1)
I0629 00:09:07.909924 21714 net.cpp:165] Memory required for data: 2238750264
I0629 00:09:07.909927 21714 layer_factory.hpp:77] Creating layer pool6
I0629 00:09:07.909934 21714 net.cpp:100] Creating Layer pool6
I0629 00:09:07.909938 21714 net.cpp:434] pool6 <- conv6_1_relu6_1_0_split_2
I0629 00:09:07.909945 21714 net.cpp:408] pool6 -> pool6
I0629 00:09:07.909983 21714 net.cpp:150] Setting up pool6
I0629 00:09:07.909989 21714 net.cpp:157] Top shape: 2 512 9 12 (110592)
I0629 00:09:07.909991 21714 net.cpp:165] Memory required for data: 2239192632
I0629 00:09:07.909994 21714 layer_factory.hpp:77] Creating layer LFCN_4_3x5
I0629 00:09:07.910003 21714 net.cpp:100] Creating Layer LFCN_4_3x5
I0629 00:09:07.910007 21714 net.cpp:434] LFCN_4_3x5 <- pool6
I0629 00:09:07.910015 21714 net.cpp:408] LFCN_4_3x5 -> LFCN_4_3x5
I0629 00:09:07.912317 21714 net.cpp:150] Setting up LFCN_4_3x5
I0629 00:09:07.912326 21714 net.cpp:157] Top shape: 2 7 9 12 (1512)
I0629 00:09:07.912329 21714 net.cpp:165] Memory required for data: 2239198680
I0629 00:09:07.912338 21714 layer_factory.hpp:77] Creating layer LFCN_4_3x5_LFCN_4_3x5_0_split
I0629 00:09:07.912345 21714 net.cpp:100] Creating Layer LFCN_4_3x5_LFCN_4_3x5_0_split
I0629 00:09:07.912349 21714 net.cpp:434] LFCN_4_3x5_LFCN_4_3x5_0_split <- LFCN_4_3x5
I0629 00:09:07.912356 21714 net.cpp:408] LFCN_4_3x5_LFCN_4_3x5_0_split -> LFCN_4_3x5_LFCN_4_3x5_0_split_0
I0629 00:09:07.912364 21714 net.cpp:408] LFCN_4_3x5_LFCN_4_3x5_0_split -> LFCN_4_3x5_LFCN_4_3x5_0_split_1
I0629 00:09:07.912416 21714 net.cpp:150] Setting up LFCN_4_3x5_LFCN_4_3x5_0_split
I0629 00:09:07.912422 21714 net.cpp:157] Top shape: 2 7 9 12 (1512)
I0629 00:09:07.912426 21714 net.cpp:157] Top shape: 2 7 9 12 (1512)
I0629 00:09:07.912428 21714 net.cpp:165] Memory required for data: 2239210776
I0629 00:09:07.912431 21714 layer_factory.hpp:77] Creating layer detection_loss_4_3x5
I0629 00:09:07.912438 21714 net.cpp:100] Creating Layer detection_loss_4_3x5
I0629 00:09:07.912441 21714 net.cpp:434] detection_loss_4_3x5 <- LFCN_4_3x5_LFCN_4_3x5_0_split_0
I0629 00:09:07.912446 21714 net.cpp:434] detection_loss_4_3x5 <- label_4_3x5_data_7_split_0
I0629 00:09:07.912454 21714 net.cpp:408] detection_loss_4_3x5 -> loss_4_3x5
I0629 00:09:07.912463 21714 layer_factory.hpp:77] Creating layer detection_loss_4_3x5
I0629 00:09:07.913363 21714 net.cpp:150] Setting up detection_loss_4_3x5
I0629 00:09:07.913372 21714 net.cpp:157] Top shape: 1 1 1 2 (2)
I0629 00:09:07.913375 21714 net.cpp:160]     with loss weight 1
I0629 00:09:07.913383 21714 net.cpp:165] Memory required for data: 2239210784
I0629 00:09:07.913388 21714 layer_factory.hpp:77] Creating layer detection_accuracy_4_3x5
I0629 00:09:07.913394 21714 net.cpp:100] Creating Layer detection_accuracy_4_3x5
I0629 00:09:07.913398 21714 net.cpp:434] detection_accuracy_4_3x5 <- LFCN_4_3x5_LFCN_4_3x5_0_split_1
I0629 00:09:07.913403 21714 net.cpp:434] detection_accuracy_4_3x5 <- label_4_3x5_data_7_split_1
I0629 00:09:07.913413 21714 net.cpp:408] detection_accuracy_4_3x5 -> accuracy_4_3x5
I0629 00:09:07.913420 21714 net.cpp:408] detection_accuracy_4_3x5 -> boxiou_4_3x5
I0629 00:09:07.913466 21714 net.cpp:150] Setting up detection_accuracy_4_3x5
I0629 00:09:07.913471 21714 net.cpp:157] Top shape: 1 1 1 2 (2)
I0629 00:09:07.913475 21714 net.cpp:157] Top shape: 1 1 1 1 (1)
I0629 00:09:07.913477 21714 net.cpp:165] Memory required for data: 2239210796
I0629 00:09:07.913480 21714 net.cpp:228] detection_accuracy_4_3x5 does not need backward computation.
I0629 00:09:07.913484 21714 net.cpp:226] detection_loss_4_3x5 needs backward computation.
I0629 00:09:07.913488 21714 net.cpp:226] LFCN_4_3x5_LFCN_4_3x5_0_split needs backward computation.
I0629 00:09:07.913491 21714 net.cpp:226] LFCN_4_3x5 needs backward computation.
…
