…
    downsample_rate: 32
    downsample_rate: 32
    downsample_rate: 64
    coord_num: 4
    field_h: 60
    field_h: 84
    field_h: 120
    field_h: 168
    field_h: 240
    field_h: 336
    field_h: 480
    field_w: 40
    field_w: 56
    field_w: 80
    field_w: 112
    field_w: 160
    field_w: 224
    field_w: 320
    fg_threshold: 0.5
    resize_width: 1920
    resize_height: 576
    crop_width: 768
    crop_height: 576
    do_multiple_scale: true
    min_scale: 50
    max_scale: 420
    min_gt_height: 35
    shuffle: true
    output_gt_boxes: true
  }
}
layer {
  name: "conv1_1"
  type: "Convolution"
  bottom: "data"
  top: "conv1_1"
  param {
    lr_mult: 0
    decay_mult: 0
  }
  param {
    lr_mult: 0
    decay_mult: 0
  }
  convolution_param {
    num_output: 64
    pad: 1
    kernel_size: 3
  }
}
layer {
  name: "relu1_1"
  type: "ReLU"
  bottom: "conv1_1"
  top: "conv1_1"
}
layer {
  name: "conv1_2"
  type: "Convolution"
  bottom: "conv1_1"
  top: "conv1_2"
  param {
    lr_mult: 0
    decay_mult: 0
  }
  param {
    lr_mult: 0
    decay_mult: 0
  }
  convolution_param {
    num_output: 64
    pad: 1
    kernel_size: 3
  }
}
layer {
  name: "relu1_2"
  type: "ReLU"
  bottom: "conv1_2"
  top: "conv1_2"
}
layer {
  name: "pool1"
  type: "Pooling"
  bottom: "conv1_2"
  top: "pool1"
  pooling_param {
    pool: MAX
    kernel_size: 2
    stride: 2
  }
}
layer {
  name: "conv2_1"
  type: "Convolution"
  bottom: "pool1"
  top: "conv2_1"
  param {
    lr_mult: 0
    decay_mult: 0
  }
  param {
    lr_mult: 0
    decay_mult: 0
  }
  convolution_param {
    num_output: 128
    pad: 1
    kernel_size: 3
  }
}
layer {
  name: "relu2_1"
  type: "ReLU"
  bottom: "conv2_1"
  top: "conv2_1"
}
layer {
  name: "conv2_2"
  type: "Convolution"
  bottom: "conv2_1"
  top: "conv2_2"
  param {
    lr_mult: 0
    decay_mult: 0
  }
  param {
    lr_mult: 0
    decay_mult: 0
  }
  convolution_param {
    num_output: 128
    pad: 1
    kernel_size: 3
  }
}
layer {
  name: "relu2_2"
  type: "ReLU"
  bottom: "conv2_2"
  top: "conv2_2"
}
layer {
  name: "pool2"
  type: "Pooling"
  bottom: "conv2_2"
  top: "pool2"
  pooling_param {
    pool: MAX
    kernel_size: 2
    stride: 2
  }
}
layer {
  name: "conv3_1"
  type: "Convolution"
  bottom: "pool2"
  top: "conv3_1"
  convolution_param {
    num_output: 256
    pad: 1
    kernel_size: 3
  }
}
layer {
  name: "relu3_1"
  type: "ReLU"
  bottom: "conv3_1"
  top: "conv3_1"
}
layer {
  name: "conv3_2"
  type: "Convolution"
  bottom: "conv3_1"
  top: "conv3_2"
  convolution_param {
    num_output: 256
    pad: 1
    kernel_size: 3
  }
}
layer {
  name: "relu3_2"
  type: "ReLU"
  bottom: "conv3_2"
  top: "conv3_2"
}
layer {
  name: "conv3_3"
  type: "Convolution"
  bottom: "conv3_2"
  top: "conv3_3"
  convolution_param {
    num_output: 256
    pad: 1
    kernel_size: 3
  }
}
layer {
  name: "relu3_3"
  type: "ReLU"
  bottom: "conv3_3"
  top: "conv3_3"
}
layer {
  name: "pool3"
  type: "Pooling"
  bottom: "conv3_3"
  top: "pool3"
  pooling_param {
    pool: MAX
    kernel_size: 2
    stride: 2
  }
}
layer {
  name: "conv4_1"
  type: "Convolution"
  bottom: "pool3"
  top: "conv4_1"
  convolution_param {
    num_output: 512
    pad: 1
    kernel_size: 3
  }
}
layer {
  name: "relu4_1"
  type: "ReLU"
  bottom: "conv4_1"
  top: "conv4_1"
}
layer {
  name: "conv4_2"
  type: "Convolution"
  bottom: "conv4_1"
  top: "conv4_2"
  convolution_param {
    num_output: 512
    pad: 1
    kernel_size: 3
  }
}
layer {
  name: "relu4_2"
  type: "ReLU"
  bottom: "conv4_2"
  top: "conv4_2"
}
layer {
  name: "conv4_3"
  type: "Convolution"
  bottom: "conv4_2"
  top: "conv4_3"
  convolution_param {
    num_output: 512
    pad: 1
    kernel_size: 3
  }
}
layer {
  name: "relu4_3"
  type: "ReLU"
  bottom: "conv4_3"
  top: "conv4_3"
}
layer {
  name: "loss1_conv1"
  type: "Convolution"
  bottom: "conv4_3"
  top: "loss1_conv1"
  param {
    lr_mult: 1
    decay_mult: 1
  }
  param {
    lr_mult: 2
    decay_mult: 0
  }
  convolution_param {
    num_output: 512
    pad: 1
    kernel_size: 3
    weight_filler {
      type: "gaussian"
      std: 0.01
    }
    bias_filler {
      type: "constant"
    }
  }
}
layer {
  name: "loss_relu1"
  type: "ReLU"
  bottom: "loss1_conv1"
  top: "loss1_conv1"
}
layer {
  name: "LFCN_1_3x5"
  type: "Convolution"
  bottom: "loss1_conv1"
  top: "LFCN_1_3x5"
  param {
    lr_mult: 1
    decay_mult: 1
  }
  param {
    lr_mult: 2
    decay_mult: 0
  }
  convolution_param {
    num_output: 7
    weight_filler {
      type: "gaussian"
      std: 0.001
    }
    bias_filler {
      type: "constant"
    }
    pad_h: 2
    pad_w: 1
    kernel_h: 5
    kernel_w: 3
  }
}
layer {
  name: "detection_loss_1_3x5"
  type: "DetectionLoss"
  bottom: "LFCN_1_3x5"
  bottom: "label_1_3x5"
  top: "loss_1_3x5"
  loss_weight: 0.5
  detection_loss_param {
    cls_num: 3
    coord_num: 4
    lambda: 1
    field_h: 60
    field_w: 40
    downsample_rate: 8
    bb_smooth: true
    field_whr: 2
    field_xyr: 2
    bg_threshold: 0.2
    bg_multiple: 2
    sample_mode: "bootstrap"
    pos_neg_weighted: true
  }
}
layer {
  name: "detection_accuracy_1_3x5"
  type: "DetectionAccuracy"
  bottom: "LFCN_1_3x5"
  bottom: "label_1_3x5"
  top: "accuracy_1_3x5"
  top: "boxiou_1_3x5"
  detection_accuracy_param {
    cls_num: 3
    coord_num: 4
    field_h: 60
    field_w: 40
    downsample_rate: 8
    field_whr: 2
    field_xyr: 2
  }
}
layer {
  name: "LFCN_1_5x7"
  type: "Convolution"
  bottom: "loss1_conv1"
  top: "LFCN_1_5x7"
  param {
    lr_mult: 1
    decay_mult: 1
  }
  param {
    lr_mult: 2
    decay_mult: 0
  }
  convolution_param {
    num_output: 7
    weight_filler {
      type: "gaussian"
      std: 0.001
    }
    bias_filler {
      type: "constant"
    }
    pad_h: 3
    pad_w: 2
    kernel_h: 7
    kernel_w: 5
  }
}
layer {
  name: "detection_loss_1_5x7"
  type: "DetectionLoss"
  bottom: "LFCN_1_5x7"
  bottom: "label_1_5x7"
  top: "loss_1_5x7"
  loss_weight: 0.9
  detection_loss_param {
    cls_num: 3
    coord_num: 4
    lambda: 1
    field_h: 84
    field_w: 56
    downsample_rate: 8
    bb_smooth: true
    field_whr: 2
    field_xyr: 2
    bg_threshold: 0.2
    bg_multiple: 2
    sample_mode: "bootstrap"
    pos_neg_weighted: true
  }
}
layer {
  name: "detection_accuracy_1_5x7"
  type: "DetectionAccuracy"
  bottom: "LFCN_1_5x7"
  bottom: "label_1_5x7"
  top: "accuracy_1_5x7"
  top: "boxiou_1_5x7"
  detection_accuracy_param {
    cls_num: 3
    coord_num: 4
    field_h: 84
    field_w: 56
    downsample_rate: 8
    field_whr: 2
    field_xyr: 2
  }
}
layer {
  name: "pool4"
  type: "Pooling"
  bottom: "conv4_3"
  top: "pool4"
  pooling_param {
    pool: MAX
    kernel_size: 2
    stride: 2
  }
}
layer {
  name: "conv5_1"
  type: "Convolution"
  bottom: "pool4"
  top: "conv5_1"
  convolution_param {
    num_output: 512
    pad: 1
    kernel_size: 3
  }
}
layer {
  name: "relu5_1"
  type: "ReLU"
  bottom: "conv5_1"
  top: "conv5_1"
}
layer {
  name: "conv5_2"
  type: "Convolution"
  bottom: "conv5_1"
  top: "conv5_2"
  convolution_param {
    num_output: 512
    pad: 1
    kernel_size: 3
  }
}
layer {
  name: "relu5_2"
  type: "ReLU"
  bottom: "conv5_2"
  top: "conv5_2"
}
layer {
  name: "conv5_3"
  type: "Convolution"
  bottom: "conv5_2"
  top: "conv5_3"
  convolution_param {
    num_output: 512
    pad: 1
    kernel_size: 3
  }
}
layer {
  name: "relu5_3"
  type: "ReLU"
  bottom: "conv5_3"
  top: "conv5_3"
}
layer {
  name: "LFCN_2_3x5"
  type: "Convolution"
  bottom: "conv5_3"
  top: "LFCN_2_3x5"
  param {
    lr_mult: 1
    decay_mult: 1
  }
  param {
    lr_mult: 2
    decay_mult: 0
  }
  convolution_param {
    num_output: 7
    weight_filler {
      type: "gaussian"
      std: 0.001
    }
    bias_filler {
      type: "constant"
    }
    pad_h: 2
    pad_w: 1
    kernel_h: 5
    kernel_w: 3
  }
}
layer {
  name: "detection_loss_2_3x5"
  type: "DetectionLoss"
  bottom: "LFCN_2_3x5"
  bottom: "label_2_3x5"
  top: "loss_2_3x5"
  detection_loss_param {
    cls_num: 3
    coord_num: 4
    lambda: 1
    field_h: 120
    field_w: 80
    downsample_rate: 16
    bb_smooth: true
    field_whr: 2
    field_xyr: 2
    bg_threshold: 0.2
    bg_multiple: 2
    sample_mode: "bootstrap"
    pos_neg_weighted: true
  }
}
layer {
  name: "detection_accuracy_2_3x5"
  type: "DetectionAccuracy"
  bottom: "LFCN_2_3x5"
  bottom: "label_2_3x5"
  top: "accuracy_2_3x5"
  top: "boxiou_2_3x5"
  detection_accuracy_param {
    cls_num: 3
    coord_num: 4
    field_h: 120
    field_w: 80
    downsample_rate: 16
    field_whr: 2
    field_xyr: 2
  }
}
layer {
  name: "LFCN_2_5x7"
  type: "Convolution"
  bottom: "conv5_3"
  top: "LFCN_2_5x7"
  param {
    lr_mult: 1
    decay_mult: 1
  }
  param {
    lr_mult: 2
    decay_mult: 0
  }
  convolution_param {
    num_output: 7
    weight_filler {
      type: "gaussian"
      std: 0.001
    }
    bias_filler {
      type: "constant"
    }
    pad_h: 3
    pad_w: 2
    kernel_h: 7
    kernel_w: 5
  }
}
layer {
  name: "detection_loss_2_5x7"
  type: "DetectionLoss"
  bottom: "LFCN_2_5x7"
  bottom: "label_2_5x7"
  top: "loss_2_5x7"
  detection_loss_param {
    cls_num: 3
    coord_num: 4
    lambda: 1
    field_h: 168
    field_w: 112
    downsample_rate: 16
    bb_smooth: true
    field_whr: 2
    field_xyr: 2
    bg_threshold: 0.2
    bg_multiple: 2
    sample_mode: "bootstrap"
    pos_neg_weighted: true
  }
}
layer {
  name: "detection_accuracy_2_5x7"
  type: "DetectionAccuracy"
  bottom: "LFCN_2_5x7"
  bottom: "label_2_5x7"
  top: "accuracy_2_5x7"
  top: "boxiou_2_5x7"
  detection_accuracy_param {
    cls_num: 3
    coord_num: 4
    field_h: 168
    field_w: 112
    downsample_rate: 16
    field_whr: 2
    field_xyr: 2
  }
}
layer {
  name: "pool5"
  type: "Pooling"
  bottom: "conv5_3"
  top: "pool5"
  pooling_param {
    pool: MAX
    kernel_size: 2
    stride: 2
  }
}
layer {
  name: "conv6_1"
  type: "Convolution"
  bottom: "pool5"
  top: "conv6_1"
  param {
    lr_mult: 1
    decay_mult: 1
  }
  param {
    lr_mult: 2
    decay_mult: 0
  }
  convolution_param {
    num_output: 512
    pad: 1
    kernel_size: 3
    weight_filler {
      type: "gaussian"
      std: 0.01
    }
    bias_filler {
      type: "constant"
    }
  }
}
layer {
  name: "relu6_1"
  type: "ReLU"
  bottom: "conv6_1"
  top: "conv6_1"
}
layer {
  name: "LFCN_3_3x5"
  type: "Convolution"
  bottom: "conv6_1"
  top: "LFCN_3_3x5"
  param {
    lr_mult: 1
    decay_mult: 1
  }
  param {
    lr_mult: 2
    decay_mult: 0
  }
  convolution_param {
    num_output: 7
    weight_filler {
      type: "gaussian"
      std: 0.001
    }
    bias_filler {
      type: "constant"
    }
    pad_h: 2
    pad_w: 1
    kernel_h: 5
    kernel_w: 3
  }
}
layer {
  name: "detection_loss_3_3x5"
  type: "DetectionLoss"
  bottom: "LFCN_3_3x5"
  bottom: "label_3_3x5"
  top: "loss_3_3x5"
  detection_loss_param {
    cls_num: 3
    coord_num: 4
    lambda: 1
    field_h: 240
    field_w: 160
    downsample_rate: 32
    bb_smooth: true
    field_whr: 2
    field_xyr: 2
    bg_threshold: 0.2
    bg_multiple: 2
    sample_mode: "bootstrap"
    pos_neg_weighted: true
  }
}
layer {
  name: "detection_accuracy_3_3x5"
  type: "DetectionAccuracy"
  bottom: "LFCN_3_3x5"
  bottom: "label_3_3x5"
  top: "accuracy_3_3x5"
  top: "boxiou_3_3x5"
  detection_accuracy_param {
    cls_num: 3
    coord_num: 4
    field_h: 240
    field_w: 160
    downsample_rate: 32
    field_whr: 2
    field_xyr: 2
  }
}
layer {
  name: "LFCN_3_5x7"
  type: "Convolution"
  bottom: "conv6_1"
  top: "LFCN_3_5x7"
  param {
    lr_mult: 1
    decay_mult: 1
  }
  param {
    lr_mult: 2
    decay_mult: 0
  }
  convolution_param {
    num_output: 7
    weight_filler {
      type: "gaussian"
      std: 0.001
    }
    bias_filler {
      type: "constant"
    }
    pad_h: 3
    pad_w: 2
    kernel_h: 7
    kernel_w: 5
  }
}
layer {
  name: "detection_loss_3_5x7"
  type: "DetectionLoss"
  bottom: "LFCN_3_5x7"
  bottom: "label_3_5x7"
  top: "loss_3_5x7"
  detection_loss_param {
    cls_num: 3
    coord_num: 4
    lambda: 1
    field_h: 336
    field_w: 224
    downsample_rate: 32
    bb_smooth: true
    field_whr: 2
    field_xyr: 2
    bg_threshold: 0.2
    bg_multiple: 2
    sample_mode: "bootstrap"
    pos_neg_weighted: true
  }
}
layer {
  name: "detection_accuracy_3_5x7"
  type: "DetectionAccuracy"
  bottom: "LFCN_3_5x7"
  bottom: "label_3_5x7"
  top: "accuracy_3_5x7"
  top: "boxiou_3_5x7"
  detection_accuracy_param {
    cls_num: 3
    coord_num: 4
    field_h: 336
    field_w: 224
    downsample_rate: 32
    field_whr: 2
    field_xyr: 2
  }
}
layer {
  name: "pool6"
  type: "Pooling"
  bottom: "conv6_1"
  top: "pool6"
  pooling_param {
    pool: MAX
    kernel_size: 2
    stride: 2
  }
}
layer {
  name: "LFCN_4_3x5"
  type: "Convolution"
  bottom: "pool6"
  top: "LFCN_4_3x5"
  param {
    lr_mult: 1
    decay_mult: 1
  }
  param {
    lr_mult: 2
    decay_mult: 0
  }
  convolution_param {
    num_output: 7
    weight_filler {
      type: "gaussian"
      std: 0.001
    }
    bias_filler {
      type: "constant"
    }
    pad_h: 2
    pad_w: 1
    kernel_h: 5
    kernel_w: 3
  }
}
layer {
  name: "detection_loss_4_3x5"
  type: "DetectionLoss"
  bottom: "LFCN_4_3x5"
  bottom: "label_4_3x5"
  top: "loss_4_3x5"
  detection_loss_param {
    cls_num: 3
    coord_num: 4
    lambda: 1
    field_h: 480
    field_w: 320
    downsample_rate: 64
    bb_smooth: true
    field_whr: 2
    field_xyr: 2
    bg_threshold: 0.2
    bg_multiple: 2
    sample_mode: "bootstrap"
    pos_neg_weighted: true
  }
}
layer {
  name: "detection_accuracy_4_3x5"
  type: "DetectionAccuracy"
  bottom: "LFCN_4_3x5"
  bottom: "label_4_3x5"
  top: "accuracy_4_3x5"
  top: "boxiou_4_3x5"
  detection_accuracy_param {
    cls_num: 3
    coord_num: 4
    field_h: 480
    field_w: 320
    downsample_rate: 64
    field_whr: 2
    field_xyr: 2
  }
}
layer {
  name: "proposals"
  type: "BoxOutput"
  bottom: "LFCN_1_3x5"
  bottom: "LFCN_1_5x7"
  bottom: "LFCN_2_3x5"
  bottom: "LFCN_2_5x7"
  bottom: "LFCN_3_3x5"
  bottom: "LFCN_3_5x7"
  bottom: "LFCN_4_3x5"
  top: "proposals"
  propagate_down: false
  propagate_down: false
  propagate_down: false
  propagate_down: false
  propagate_down: false
  propagate_down: false
  propagate_down: false
  box_output_param {
    fg_thr: -15
    iou_thr: 0.65
    nms_type: "IOU"
    field_h: 60
    field_h: 84
    field_h: 120
    field_h: 168
    field_h: 240
    field_h: 336
    field_h: 480
    field_w: 40
    field_w: 56
    field_w: 80
    field_w: 112
    field_w: 160
    field_w: 224
    field_w: 320
    downsample_rate: 8
    downsample_rate: 8
    downsample_rate: 16
    downsample_rate: 16
    downsample_rate: 32
    downsample_rate: 32
    downsample_rate: 64
    field_whr: 2
    field_xyr: 2
    max_nms_num: 3000
  }
}
layer {
  name: "proposal_info"
  type: "ProposalTarget"
  bottom: "proposals"
  bottom: "gt_boxes"
  top: "rois"
  top: "proposal_labels"
  top: "proposal_targets"
  top: "box_inside_weights"
  top: "box_outside_weights"
  top: "match_gt_boxes"
  include {
    phase: TRAIN
  }
  propagate_down: false
  propagate_down: false
  proposal_target_param {
    cls_num: 3
    batch_size: 128
    fg_fraction: 0.25
    num_img_per_batch: 4
    fg_thr: 0.5
    bg_thr_hg: 0.45
    bg_thr_lw: 0.05
    img_width: 768
    img_height: 576
  }
  bbox_reg_param {
    bbox_mean: 0
    bbox_mean: 0
    bbox_mean: 0
    bbox_mean: 0
    bbox_std: 0.1
    bbox_std: 0.1
    bbox_std: 0.2
    bbox_std: 0.2
  }
}
layer {
  name: "conv4_3_2x"
  type: "Deconvolution"
  bottom: "conv4_3"
  top: "conv4_3_2x"
  param {
    lr_mult: 0
    decay_mult: 0
  }
  convolution_param {
    num_output: 512
    bias_term: false
    pad: 1
    kernel_size: 4
    group: 512
    stride: 2
    weight_filler {
      type: "bilinear"
    }
  }
}
layer {
  name: "roi_pool_org"
  type: "ROIPooling"
  bottom: "conv4_3_2x"
  bottom: "rois"
  top: "roi_pool_org"
  roi_pooling_param {
    pooled_h: 7
    pooled_w: 5
    spatial_scale: 0.25
    pad_ratio: 0
  }
}
layer {
  name: "roi_pool_ctx"
  type: "ROIPooling"
  bottom: "conv4_3_2x"
  bottom: "rois"
  top: "roi_pool_ctx"
  roi_pooling_param {
    pooled_h: 7
    pooled_w: 5
    spatial_scale: 0.25
    pad_ratio: 0.25
  }
}
layer {
  name: "roi_pool"
  type: "Concat"
  bottom: "roi_pool_org"
  bottom: "roi_pool_ctx"
  top: "roi_pool"
}
layer {
  name: "roi_c1"
  type: "Convolution"
  bottom: "roi_pool"
  top: "roi_c1"
  param {
    lr_mult: 1
    decay_mult: 1
  }
  param {
    lr_mult: 2
    decay_mult: 0
  }
  convolution_param {
    num_output: 512
    kernel_size: 3
    weight_filler {
      type: "gaussian"
      std: 0.01
    }
    bias_filler {
      type: "constant"
    }
  }
}
layer {
  name: "roi_c1_relu"
  type: "ReLU"
  bottom: "roi_c1"
  top: "roi_c1"
}
layer {
  name: "fc6"
  type: "InnerProduct"
  bottom: "roi_c1"
  top: "fc6"
  param {
    lr_mult: 1
  }
  param {
    lr_mult: 2
  }
  inner_product_param {
    num_output: 2048
    weight_filler {
      type: "gaussian"
      std: 0.001
    }
    bias_filler {
      type: "constant"
      value: 0
    }
  }
}
layer {
  name: "relu6"
  type: "ReLU"
  bottom: "fc6"
  top: "fc6"
}
layer {
  name: "drop6"
  type: "Dropout"
  bottom: "fc6"
  top: "fc6"
  dropout_param {
    dropout_ratio: 0.5
  }
}
layer {
  name: "cls_pred"
  type: "InnerProduct"
  bottom: "fc6"
  top: "cls_pred"
  param {
    lr_mult: 1
  }
  param {
    lr_mult: 2
  }
  inner_product_param {
    num_output: 3
    weight_filler {
      type: "gaussian"
      std: 0.01
    }
    bias_filler {
      type: "constant"
      value: 0
    }
  }
}
layer {
  name: "bbox_pred"
  type: "InnerProduct"
  bottom: "fc6"
  top: "bbox_pred"
  param {
    lr_mult: 1
  }
  param {
    lr_mult: 2
  }
  inner_product_param {
    num_output: 12
    weight_filler {
      type: "gaussian"
      std: 0.001
    }
    bias_filler {
      type: "constant"
      value: 0
    }
  }
}
layer {
  name: "loss_cls"
  type: "SoftmaxWithLoss"
  bottom: "cls_pred"
  bottom: "proposal_labels"
  top: "loss_cls"
  loss_weight: 1
  propagate_down: true
  propagate_down: false
}
layer {
  name: "cls_accuracy"
  type: "Accuracy"
  bottom: "cls_pred"
  bottom: "proposal_labels"
  top: "cls_accuracy"
}
layer {
  name: "loss_bbox"
  type: "SmoothL1Loss"
  bottom: "bbox_pred"
  bottom: "proposal_targets"
  bottom: "box_inside_weights"
  bottom: "box_outside_weights"
  top: "loss_bbox"
  loss_weight: 1
}
layer {
  name: "bbox_iou"
  type: "BboxAccuracy"
  bottom: "bbox_pred"
  bottom: "rois"
  bottom: "match_gt_boxes"
  top: "bbox_iou"
  top: "bbox_iou_pre"
  bbox_reg_param {
    bbox_mean: 0
    bbox_mean: 0
    bbox_mean: 0
    bbox_mean: 0
    bbox_std: 0.1
    bbox_std: 0.1
    bbox_std: 0.2
    bbox_std: 0.2
  }
}
I0708 19:08:08.289409 17985 layer_factory.hpp:77] Creating layer data
I0708 19:08:08.289438 17985 net.cpp:100] Creating Layer data
I0708 19:08:08.289444 17985 net.cpp:408] data -> data
…
I0708 19:08:08.388748 17985 image_gt_data_layer.cpp:241] output label size 3 : 4,6,36,48
I0708 19:08:08.388842 17985 image_gt_data_layer.cpp:241] output label size 4 : 4,6,18,24
I0708 19:08:08.388919 17985 image_gt_data_layer.cpp:241] output label size 5 : 4,6,18,24
I0708 19:08:08.388985 17985 image_gt_data_layer.cpp:241] output label size 6 : 4,6,9,12
I0708 19:08:08.389058 17985 image_gt_data_layer.cpp:256] output gt boxes size: 1,7,1,1
I0708 19:08:08.389072 17985 image_gt_data_layer.cpp:265]  --> has_mean_values_ = 1
I0708 19:08:08.427989 17985 net.cpp:150] Setting up data
I0708 19:08:08.428006 17985 net.cpp:157] Top shape: 4 4 576 768 (7077888)
I0708 19:08:08.428009 17985 net.cpp:157] Top shape: 4 6 72 96 (165888)
I0708 19:08:08.428012 17985 net.cpp:157] Top shape: 4 6 72 96 (165888)
I0708 19:08:08.428014 17985 net.cpp:157] Top shape: 4 6 36 48 (41472)
I0708 19:08:08.428017 17985 net.cpp:157] Top shape: 4 6 36 48 (41472)
I0708 19:08:08.428020 17985 net.cpp:157] Top shape: 4 6 18 24 (10368)
I0708 19:08:08.428023 17985 net.cpp:157] Top shape: 4 6 18 24 (10368)
I0708 19:08:08.428027 17985 net.cpp:157] Top shape: 4 6 9 12 (2592)
I0708 19:08:08.428031 17985 net.cpp:157] Top shape: 1 7 1 1 (7)
I0708 19:08:08.428035 17985 net.cpp:165] Memory required for data: 30063772
I0708 19:08:08.428041 17985 layer_factory.hpp:77] Creating layer label_1_3x5_data_1_split
I0708 19:08:08.428052 17985 net.cpp:100] Creating Layer label_1_3x5_data_1_split
I0708 19:08:08.428058 17985 net.cpp:434] label_1_3x5_data_1_split <- label_1_3x5
I0708 19:08:08.428069 17985 net.cpp:408] label_1_3x5_data_1_split -> label_1_3x5_data_1_split_0
I0708 19:08:08.428081 17985 net.cpp:408] label_1_3x5_data_1_split -> label_1_3x5_data_1_split_1
I0708 19:08:08.428139 17985 net.cpp:150] Setting up label_1_3x5_data_1_split
I0708 19:08:08.428146 17985 net.cpp:157] Top shape: 4 6 72 96 (165888)
I0708 19:08:08.428150 17985 net.cpp:157] Top shape: 4 6 72 96 (165888)
I0708 19:08:08.428153 17985 net.cpp:165] Memory required for data: 31390876
I0708 19:08:08.428156 17985 layer_factory.hpp:77] Creating layer label_1_5x7_data_2_split
I0708 19:08:08.428164 17985 net.cpp:100] Creating Layer label_1_5x7_data_2_split
I0708 19:08:08.428166 17985 net.cpp:434] label_1_5x7_data_2_split <- label_1_5x7
I0708 19:08:08.428174 17985 net.cpp:408] label_1_5x7_data_2_split -> label_1_5x7_data_2_split_0
I0708 19:08:08.428180 17985 net.cpp:408] label_1_5x7_data_2_split -> label_1_5x7_data_2_split_1
I0708 19:08:08.428213 17985 net.cpp:150] Setting up label_1_5x7_data_2_split
I0708 19:08:08.428220 17985 net.cpp:157] Top shape: 4 6 72 96 (165888)
I0708 19:08:08.428225 17985 net.cpp:157] Top shape: 4 6 72 96 (165888)
I0708 19:08:08.428227 17985 net.cpp:165] Memory required for data: 32717980
I0708 19:08:08.428231 17985 layer_factory.hpp:77] Creating layer label_2_3x5_data_3_split
I0708 19:08:08.428236 17985 net.cpp:100] Creating Layer label_2_3x5_data_3_split
I0708 19:08:08.428238 17985 net.cpp:434] label_2_3x5_data_3_split <- label_2_3x5
I0708 19:08:08.428243 17985 net.cpp:408] label_2_3x5_data_3_split -> label_2_3x5_data_3_split_0
I0708 19:08:08.428251 17985 net.cpp:408] label_2_3x5_data_3_split -> label_2_3x5_data_3_split_1
I0708 19:08:08.428280 17985 net.cpp:150] Setting up label_2_3x5_data_3_split
I0708 19:08:08.428285 17985 net.cpp:157] Top shape: 4 6 36 48 (41472)
I0708 19:08:08.428290 17985 net.cpp:157] Top shape: 4 6 36 48 (41472)
I0708 19:08:08.428292 17985 net.cpp:165] Memory required for data: 33049756
I0708 19:08:08.428295 17985 layer_factory.hpp:77] Creating layer label_2_5x7_data_4_split
I0708 19:08:08.428303 17985 net.cpp:100] Creating Layer label_2_5x7_data_4_split
I0708 19:08:08.428305 17985 net.cpp:434] label_2_5x7_data_4_split <- label_2_5x7
I0708 19:08:08.428313 17985 net.cpp:408] label_2_5x7_data_4_split -> label_2_5x7_data_4_split_0
I0708 19:08:08.428318 17985 net.cpp:408] label_2_5x7_data_4_split -> label_2_5x7_data_4_split_1
I0708 19:08:08.428350 17985 net.cpp:150] Setting up label_2_5x7_data_4_split
I0708 19:08:08.428356 17985 net.cpp:157] Top shape: 4 6 36 48 (41472)
I0708 19:08:08.428360 17985 net.cpp:157] Top shape: 4 6 36 48 (41472)
I0708 19:08:08.428364 17985 net.cpp:165] Memory required for data: 33381532
I0708 19:08:08.428366 17985 layer_factory.hpp:77] Creating layer label_3_3x5_data_5_split
I0708 19:08:08.428370 17985 net.cpp:100] Creating Layer label_3_3x5_data_5_split
I0708 19:08:08.428375 17985 net.cpp:434] label_3_3x5_data_5_split <- label_3_3x5
I0708 19:08:08.428380 17985 net.cpp:408] label_3_3x5_data_5_split -> label_3_3x5_data_5_split_0
I0708 19:08:08.428385 17985 net.cpp:408] label_3_3x5_data_5_split -> label_3_3x5_data_5_split_1
I0708 19:08:08.428413 17985 net.cpp:150] Setting up label_3_3x5_data_5_split
I0708 19:08:08.428419 17985 net.cpp:157] Top shape: 4 6 18 24 (10368)
I0708 19:08:08.428423 17985 net.cpp:157] Top shape: 4 6 18 24 (10368)
I0708 19:08:08.428426 17985 net.cpp:165] Memory required for data: 33464476
I0708 19:08:08.428428 17985 layer_factory.hpp:77] Creating layer label_3_5x7_data_6_split
I0708 19:08:08.428432 17985 net.cpp:100] Creating Layer label_3_5x7_data_6_split
I0708 19:08:08.428436 17985 net.cpp:434] label_3_5x7_data_6_split <- label_3_5x7
I0708 19:08:08.428442 17985 net.cpp:408] label_3_5x7_data_6_split -> label_3_5x7_data_6_split_0
I0708 19:08:08.428447 17985 net.cpp:408] label_3_5x7_data_6_split -> label_3_5x7_data_6_split_1
I0708 19:08:08.428474 17985 net.cpp:150] Setting up label_3_5x7_data_6_split
I0708 19:08:08.428480 17985 net.cpp:157] Top shape: 4 6 18 24 (10368)
I0708 19:08:08.428484 17985 net.cpp:157] Top shape: 4 6 18 24 (10368)
I0708 19:08:08.428488 17985 net.cpp:165] Memory required for data: 33547420
I0708 19:08:08.428490 17985 layer_factory.hpp:77] Creating layer label_4_3x5_data_7_split
I0708 19:08:08.428494 17985 net.cpp:100] Creating Layer label_4_3x5_data_7_split
I0708 19:08:08.428498 17985 net.cpp:434] label_4_3x5_data_7_split <- label_4_3x5
I0708 19:08:08.428504 17985 net.cpp:408] label_4_3x5_data_7_split -> label_4_3x5_data_7_split_0
I0708 19:08:08.428509 17985 net.cpp:408] label_4_3x5_data_7_split -> label_4_3x5_data_7_split_1
I0708 19:08:08.428566 17985 net.cpp:150] Setting up label_4_3x5_data_7_split
I0708 19:08:08.428572 17985 net.cpp:157] Top shape: 4 6 9 12 (2592)
I0708 19:08:08.428576 17985 net.cpp:157] Top shape: 4 6 9 12 (2592)
I0708 19:08:08.428580 17985 net.cpp:165] Memory required for data: 33568156
I0708 19:08:08.428582 17985 layer_factory.hpp:77] Creating layer conv1_1
I0708 19:08:08.428601 17985 net.cpp:100] Creating Layer conv1_1
I0708 19:08:08.428606 17985 net.cpp:434] conv1_1 <- data
I0708 19:08:08.428612 17985 net.cpp:408] conv1_1 -> conv1_1
I0708 19:08:08.962610 17985 net.cpp:150] Setting up conv1_1
I0708 19:08:08.962632 17985 net.cpp:157] Top shape: 4 64 576 768 (113246208)
I0708 19:08:08.962635 17985 net.cpp:165] Memory required for data: 486552988
I0708 19:08:08.962651 17985 layer_factory.hpp:77] Creating layer relu1_1
I0708 19:08:08.962661 17985 net.cpp:100] Creating Layer relu1_1
I0708 19:08:08.962663 17985 net.cpp:434] relu1_1 <- conv1_1
I0708 19:08:08.962668 17985 net.cpp:395] relu1_1 -> conv1_1 (in-place)
I0708 19:08:08.962981 17985 net.cpp:150] Setting up relu1_1
I0708 19:08:08.962992 17985 net.cpp:157] Top shape: 4 64 576 768 (113246208)
I0708 19:08:08.962996 17985 net.cpp:165] Memory required for data: 939537820
I0708 19:08:08.962999 17985 layer_factory.hpp:77] Creating layer conv1_2
I0708 19:08:08.963011 17985 net.cpp:100] Creating Layer conv1_2
I0708 19:08:08.963016 17985 net.cpp:434] conv1_2 <- conv1_1
I0708 19:08:08.963030 17985 net.cpp:408] conv1_2 -> conv1_2
I0708 19:08:08.966025 17985 net.cpp:150] Setting up conv1_2
I0708 19:08:08.966047 17985 net.cpp:157] Top shape: 4 64 576 768 (113246208)
I0708 19:08:08.966049 17985 net.cpp:165] Memory required for data: 1392522652
I0708 19:08:08.966064 17985 layer_factory.hpp:77] Creating layer relu1_2
I0708 19:08:08.966074 17985 net.cpp:100] Creating Layer relu1_2
I0708 19:08:08.966081 17985 net.cpp:434] relu1_2 <- conv1_2
I0708 19:08:08.966089 17985 net.cpp:395] relu1_2 -> conv1_2 (in-place)
I0708 19:08:08.966400 17985 net.cpp:150] Setting up relu1_2
I0708 19:08:08.966409 17985 net.cpp:157] Top shape: 4 64 576 768 (113246208)
I0708 19:08:08.966413 17985 net.cpp:165] Memory required for data: 1845507484
I0708 19:08:08.966416 17985 layer_factory.hpp:77] Creating layer pool1
I0708 19:08:08.966423 17985 net.cpp:100] Creating Layer pool1
I0708 19:08:08.966428 17985 net.cpp:434] pool1 <- conv1_2
I0708 19:08:08.966434 17985 net.cpp:408] pool1 -> pool1
I0708 19:08:08.966480 17985 net.cpp:150] Setting up pool1
I0708 19:08:08.966486 17985 net.cpp:157] Top shape: 4 64 288 384 (28311552)
I0708 19:08:08.966490 17985 net.cpp:165] Memory required for data: 1958753692
I0708 19:08:08.966492 17985 layer_factory.hpp:77] Creating layer conv2_1
I0708 19:08:08.966500 17985 net.cpp:100] Creating Layer conv2_1
I0708 19:08:08.966504 17985 net.cpp:434] conv2_1 <- pool1
I0708 19:08:08.966509 17985 net.cpp:408] conv2_1 -> conv2_1
I0708 19:08:08.969032 17985 net.cpp:150] Setting up conv2_1
I0708 19:08:08.969050 17985 net.cpp:157] Top shape: 4 128 288 384 (56623104)
I0708 19:08:08.969053 17985 net.cpp:165] Memory required for data: 2185246108
I0708 19:08:08.969071 17985 layer_factory.hpp:77] Creating layer relu2_1
I0708 19:08:08.969081 17985 net.cpp:100] Creating Layer relu2_1
I0708 19:08:08.969087 17985 net.cpp:434] relu2_1 <- conv2_1
I0708 19:08:08.969094 17985 net.cpp:395] relu2_1 -> conv2_1 (in-place)
I0708 19:08:08.969785 17985 net.cpp:150] Setting up relu2_1
I0708 19:08:08.969795 17985 net.cpp:157] Top shape: 4 128 288 384 (56623104)
I0708 19:08:08.969799 17985 net.cpp:165] Memory required for data: 2411738524
I0708 19:08:08.969802 17985 layer_factory.hpp:77] Creating layer conv2_2
I0708 19:08:08.969812 17985 net.cpp:100] Creating Layer conv2_2
I0708 19:08:08.969816 17985 net.cpp:434] conv2_2 <- conv2_1
I0708 19:08:08.969823 17985 net.cpp:408] conv2_2 -> conv2_2
I0708 19:08:08.971673 17985 net.cpp:150] Setting up conv2_2
I0708 19:08:08.971691 17985 net.cpp:157] Top shape: 4 128 288 384 (56623104)
I0708 19:08:08.971694 17985 net.cpp:165] Memory required for data: 2638230940
I0708 19:08:08.971705 17985 layer_factory.hpp:77] Creating layer relu2_2
I0708 19:08:08.971717 17985 net.cpp:100] Creating Layer relu2_2
I0708 19:08:08.971724 17985 net.cpp:434] relu2_2 <- conv2_2
I0708 19:08:08.971730 17985 net.cpp:395] relu2_2 -> conv2_2 (in-place)
I0708 19:08:08.972388 17985 net.cpp:150] Setting up relu2_2
I0708 19:08:08.972398 17985 net.cpp:157] Top shape: 4 128 288 384 (56623104)
I0708 19:08:08.972401 17985 net.cpp:165] Memory required for data: 2864723356
I0708 19:08:08.972405 17985 layer_factory.hpp:77] Creating layer pool2
I0708 19:08:08.972412 17985 net.cpp:100] Creating Layer pool2
I0708 19:08:08.972416 17985 net.cpp:434] pool2 <- conv2_2
I0708 19:08:08.972424 17985 net.cpp:408] pool2 -> pool2
I0708 19:08:08.972465 17985 net.cpp:150] Setting up pool2
I0708 19:08:08.972470 17985 net.cpp:157] Top shape: 4 128 144 192 (14155776)
I0708 19:08:08.972473 17985 net.cpp:165] Memory required for data: 2921346460
I0708 19:08:08.972476 17985 layer_factory.hpp:77] Creating layer conv3_1
I0708 19:08:08.972483 17985 net.cpp:100] Creating Layer conv3_1
I0708 19:08:08.972487 17985 net.cpp:434] conv3_1 <- pool2
I0708 19:08:08.972492 17985 net.cpp:408] conv3_1 -> conv3_1
I0708 19:08:08.975358 17985 net.cpp:150] Setting up conv3_1
I0708 19:08:08.975378 17985 net.cpp:157] Top shape: 4 256 144 192 (28311552)
I0708 19:08:08.975380 17985 net.cpp:165] Memory required for data: 3034592668
I0708 19:08:08.975395 17985 layer_factory.hpp:77] Creating layer relu3_1
I0708 19:08:08.975406 17985 net.cpp:100] Creating Layer relu3_1
I0708 19:08:08.975412 17985 net.cpp:434] relu3_1 <- conv3_1
I0708 19:08:08.975419 17985 net.cpp:395] relu3_1 -> conv3_1 (in-place)
I0708 19:08:08.975715 17985 net.cpp:150] Setting up relu3_1
I0708 19:08:08.975725 17985 net.cpp:157] Top shape: 4 256 144 192 (28311552)
I0708 19:08:08.975728 17985 net.cpp:165] Memory required for data: 3147838876
I0708 19:08:08.975731 17985 layer_factory.hpp:77] Creating layer conv3_2
I0708 19:08:08.975740 17985 net.cpp:100] Creating Layer conv3_2
I0708 19:08:08.975744 17985 net.cpp:434] conv3_2 <- conv3_1
I0708 19:08:08.975750 17985 net.cpp:408] conv3_2 -> conv3_2
I0708 19:08:08.979132 17985 net.cpp:150] Setting up conv3_2
I0708 19:08:08.979151 17985 net.cpp:157] Top shape: 4 256 144 192 (28311552)
I0708 19:08:08.979153 17985 net.cpp:165] Memory required for data: 3261085084
I0708 19:08:08.979163 17985 layer_factory.hpp:77] Creating layer relu3_2
I0708 19:08:08.979174 17985 net.cpp:100] Creating Layer relu3_2
I0708 19:08:08.979179 17985 net.cpp:434] relu3_2 <- conv3_2
I0708 19:08:08.979187 17985 net.cpp:395] relu3_2 -> conv3_2 (in-place)
I0708 19:08:08.979456 17985 net.cpp:150] Setting up relu3_2
I0708 19:08:08.979465 17985 net.cpp:157] Top shape: 4 256 144 192 (28311552)
I0708 19:08:08.979467 17985 net.cpp:165] Memory required for data: 3374331292
I0708 19:08:08.979471 17985 layer_factory.hpp:77] Creating layer conv3_3
I0708 19:08:08.979480 17985 net.cpp:100] Creating Layer conv3_3
I0708 19:08:08.979485 17985 net.cpp:434] conv3_3 <- conv3_2
I0708 19:08:08.979490 17985 net.cpp:408] conv3_3 -> conv3_3
I0708 19:08:08.982518 17985 net.cpp:150] Setting up conv3_3
I0708 19:08:08.982539 17985 net.cpp:157] Top shape: 4 256 144 192 (28311552)
I0708 19:08:08.982542 17985 net.cpp:165] Memory required for data: 3487577500
I0708 19:08:08.982551 17985 layer_factory.hpp:77] Creating layer relu3_3
I0708 19:08:08.982563 17985 net.cpp:100] Creating Layer relu3_3
I0708 19:08:08.982566 17985 net.cpp:434] relu3_3 <- conv3_3
I0708 19:08:08.982573 17985 net.cpp:395] relu3_3 -> conv3_3 (in-place)
I0708 19:08:08.983214 17985 net.cpp:150] Setting up relu3_3
I0708 19:08:08.983225 17985 net.cpp:157] Top shape: 4 256 144 192 (28311552)
I0708 19:08:08.983228 17985 net.cpp:165] Memory required for data: 3600823708
I0708 19:08:08.983232 17985 layer_factory.hpp:77] Creating layer pool3
I0708 19:08:08.983239 17985 net.cpp:100] Creating Layer pool3
I0708 19:08:08.983244 17985 net.cpp:434] pool3 <- conv3_3
I0708 19:08:08.983250 17985 net.cpp:408] pool3 -> pool3
I0708 19:08:08.983295 17985 net.cpp:150] Setting up pool3
I0708 19:08:08.983301 17985 net.cpp:157] Top shape: 4 256 72 96 (7077888)
I0708 19:08:08.983304 17985 net.cpp:165] Memory required for data: 3629135260
I0708 19:08:08.983307 17985 layer_factory.hpp:77] Creating layer conv4_1
I0708 19:08:08.983315 17985 net.cpp:100] Creating Layer conv4_1
I0708 19:08:08.983319 17985 net.cpp:434] conv4_1 <- pool3
I0708 19:08:08.983325 17985 net.cpp:408] conv4_1 -> conv4_1
I0708 19:08:08.989599 17985 net.cpp:150] Setting up conv4_1
I0708 19:08:08.989629 17985 net.cpp:157] Top shape: 4 512 72 96 (14155776)
I0708 19:08:08.989632 17985 net.cpp:165] Memory required for data: 3685758364
I0708 19:08:08.989647 17985 layer_factory.hpp:77] Creating layer relu4_1
I0708 19:08:08.989662 17985 net.cpp:100] Creating Layer relu4_1
I0708 19:08:08.989667 17985 net.cpp:434] relu4_1 <- conv4_1
I0708 19:08:08.989675 17985 net.cpp:395] relu4_1 -> conv4_1 (in-place)
I0708 19:08:08.989998 17985 net.cpp:150] Setting up relu4_1
I0708 19:08:08.990010 17985 net.cpp:157] Top shape: 4 512 72 96 (14155776)
I0708 19:08:08.990013 17985 net.cpp:165] Memory required for data: 3742381468
I0708 19:08:08.990017 17985 layer_factory.hpp:77] Creating layer conv4_2
I0708 19:08:08.990028 17985 net.cpp:100] Creating Layer conv4_2
I0708 19:08:08.990032 17985 net.cpp:434] conv4_2 <- conv4_1
I0708 19:08:08.990038 17985 net.cpp:408] conv4_2 -> conv4_2
I0708 19:08:08.995823 17985 net.cpp:150] Setting up conv4_2
I0708 19:08:08.995842 17985 net.cpp:157] Top shape: 4 512 72 96 (14155776)
I0708 19:08:08.995846 17985 net.cpp:165] Memory required for data: 3799004572
I0708 19:08:08.995863 17985 layer_factory.hpp:77] Creating layer relu4_2
I0708 19:08:08.995874 17985 net.cpp:100] Creating Layer relu4_2
I0708 19:08:08.995879 17985 net.cpp:434] relu4_2 <- conv4_2
I0708 19:08:08.995887 17985 net.cpp:395] relu4_2 -> conv4_2 (in-place)
I0708 19:08:08.996148 17985 net.cpp:150] Setting up relu4_2
I0708 19:08:08.996157 17985 net.cpp:157] Top shape: 4 512 72 96 (14155776)
I0708 19:08:08.996160 17985 net.cpp:165] Memory required for data: 3855627676
I0708 19:08:08.996163 17985 layer_factory.hpp:77] Creating layer conv4_3
I0708 19:08:08.996172 17985 net.cpp:100] Creating Layer conv4_3
I0708 19:08:08.996176 17985 net.cpp:434] conv4_3 <- conv4_2
I0708 19:08:08.996182 17985 net.cpp:408] conv4_3 -> conv4_3
I0708 19:08:09.001570 17985 net.cpp:150] Setting up conv4_3
I0708 19:08:09.001588 17985 net.cpp:157] Top shape: 4 512 72 96 (14155776)
I0708 19:08:09.001591 17985 net.cpp:165] Memory required for data: 3912250780
I0708 19:08:09.001603 17985 layer_factory.hpp:77] Creating layer relu4_3
I0708 19:08:09.001615 17985 net.cpp:100] Creating Layer relu4_3
I0708 19:08:09.001619 17985 net.cpp:434] relu4_3 <- conv4_3
I0708 19:08:09.001628 17985 net.cpp:395] relu4_3 -> conv4_3 (in-place)
I0708 19:08:09.002308 17985 net.cpp:150] Setting up relu4_3
I0708 19:08:09.002318 17985 net.cpp:157] Top shape: 4 512 72 96 (14155776)
I0708 19:08:09.002321 17985 net.cpp:165] Memory required for data: 3968873884
I0708 19:08:09.002326 17985 layer_factory.hpp:77] Creating layer conv4_3_relu4_3_0_split
I0708 19:08:09.002331 17985 net.cpp:100] Creating Layer conv4_3_relu4_3_0_split
I0708 19:08:09.002336 17985 net.cpp:434] conv4_3_relu4_3_0_split <- conv4_3
I0708 19:08:09.002343 17985 net.cpp:408] conv4_3_relu4_3_0_split -> conv4_3_relu4_3_0_split_0
I0708 19:08:09.002351 17985 net.cpp:408] conv4_3_relu4_3_0_split -> conv4_3_relu4_3_0_split_1
I0708 19:08:09.002358 17985 net.cpp:408] conv4_3_relu4_3_0_split -> conv4_3_relu4_3_0_split_2
I0708 19:08:09.002406 17985 net.cpp:150] Setting up conv4_3_relu4_3_0_split
I0708 19:08:09.002411 17985 net.cpp:157] Top shape: 4 512 72 96 (14155776)
I0708 19:08:09.002415 17985 net.cpp:157] Top shape: 4 512 72 96 (14155776)
I0708 19:08:09.002419 17985 net.cpp:157] Top shape: 4 512 72 96 (14155776)
I0708 19:08:09.002423 17985 net.cpp:165] Memory required for data: 4138743196
I0708 19:08:09.002425 17985 layer_factory.hpp:77] Creating layer loss1_conv1
I0708 19:08:09.002439 17985 net.cpp:100] Creating Layer loss1_conv1
I0708 19:08:09.002442 17985 net.cpp:434] loss1_conv1 <- conv4_3_relu4_3_0_split_0
I0708 19:08:09.002449 17985 net.cpp:408] loss1_conv1 -> loss1_conv1
I0708 19:08:09.036556 17985 net.cpp:150] Setting up loss1_conv1
I0708 19:08:09.036573 17985 net.cpp:157] Top shape: 4 512 72 96 (14155776)
I0708 19:08:09.036576 17985 net.cpp:165] Memory required for data: 4195366300
I0708 19:08:09.036586 17985 layer_factory.hpp:77] Creating layer loss_relu1
I0708 19:08:09.036593 17985 net.cpp:100] Creating Layer loss_relu1
I0708 19:08:09.036598 17985 net.cpp:434] loss_relu1 <- loss1_conv1
I0708 19:08:09.036607 17985 net.cpp:395] loss_relu1 -> loss1_conv1 (in-place)
I0708 19:08:09.036844 17985 net.cpp:150] Setting up loss_relu1
I0708 19:08:09.036854 17985 net.cpp:157] Top shape: 4 512 72 96 (14155776)
I0708 19:08:09.036856 17985 net.cpp:165] Memory required for data: 4251989404
I0708 19:08:09.036859 17985 layer_factory.hpp:77] Creating layer loss1_conv1_loss_relu1_0_split
I0708 19:08:09.036865 17985 net.cpp:100] Creating Layer loss1_conv1_loss_relu1_0_split
I0708 19:08:09.036869 17985 net.cpp:434] loss1_conv1_loss_relu1_0_split <- loss1_conv1
I0708 19:08:09.036872 17985 net.cpp:408] loss1_conv1_loss_relu1_0_split -> loss1_conv1_loss_relu1_0_split_0
I0708 19:08:09.036886 17985 net.cpp:408] loss1_conv1_loss_relu1_0_split -> loss1_conv1_loss_relu1_0_split_1
I0708 19:08:09.036926 17985 net.cpp:150] Setting up loss1_conv1_loss_relu1_0_split
I0708 19:08:09.036931 17985 net.cpp:157] Top shape: 4 512 72 96 (14155776)
I0708 19:08:09.036933 17985 net.cpp:157] Top shape: 4 512 72 96 (14155776)
I0708 19:08:09.036936 17985 net.cpp:165] Memory required for data: 4365235612
I0708 19:08:09.036938 17985 layer_factory.hpp:77] Creating layer LFCN_1_3x5
I0708 19:08:09.036947 17985 net.cpp:100] Creating Layer LFCN_1_3x5
I0708 19:08:09.036950 17985 net.cpp:434] LFCN_1_3x5 <- loss1_conv1_loss_relu1_0_split_0
I0708 19:08:09.036955 17985 net.cpp:408] LFCN_1_3x5 -> LFCN_1_3x5
I0708 19:08:09.039093 17985 net.cpp:150] Setting up LFCN_1_3x5
I0708 19:08:09.039105 17985 net.cpp:157] Top shape: 4 7 72 96 (193536)
I0708 19:08:09.039108 17985 net.cpp:165] Memory required for data: 4366009756
I0708 19:08:09.039114 17985 layer_factory.hpp:77] Creating layer LFCN_1_3x5_LFCN_1_3x5_0_split
I0708 19:08:09.039119 17985 net.cpp:100] Creating Layer LFCN_1_3x5_LFCN_1_3x5_0_split
I0708 19:08:09.039122 17985 net.cpp:434] LFCN_1_3x5_LFCN_1_3x5_0_split <- LFCN_1_3x5
I0708 19:08:09.039127 17985 net.cpp:408] LFCN_1_3x5_LFCN_1_3x5_0_split -> LFCN_1_3x5_LFCN_1_3x5_0_split_0
I0708 19:08:09.039132 17985 net.cpp:408] LFCN_1_3x5_LFCN_1_3x5_0_split -> LFCN_1_3x5_LFCN_1_3x5_0_split_1
I0708 19:08:09.039136 17985 net.cpp:408] LFCN_1_3x5_LFCN_1_3x5_0_split -> LFCN_1_3x5_LFCN_1_3x5_0_split_2
I0708 19:08:09.039182 17985 net.cpp:150] Setting up LFCN_1_3x5_LFCN_1_3x5_0_split
I0708 19:08:09.039187 17985 net.cpp:157] Top shape: 4 7 72 96 (193536)
I0708 19:08:09.039191 17985 net.cpp:157] Top shape: 4 7 72 96 (193536)
I0708 19:08:09.039193 17985 net.cpp:157] Top shape: 4 7 72 96 (193536)
I0708 19:08:09.039197 17985 net.cpp:165] Memory required for data: 4368332188
I0708 19:08:09.039201 17985 layer_factory.hpp:77] Creating layer detection_loss_1_3x5
I0708 19:08:09.039214 17985 net.cpp:100] Creating Layer detection_loss_1_3x5
I0708 19:08:09.039217 17985 net.cpp:434] detection_loss_1_3x5 <- LFCN_1_3x5_LFCN_1_3x5_0_split_0
I0708 19:08:09.039221 17985 net.cpp:434] detection_loss_1_3x5 <- label_1_3x5_data_1_split_0
I0708 19:08:09.039227 17985 net.cpp:408] detection_loss_1_3x5 -> loss_1_3x5
I0708 19:08:09.039238 17985 layer_factory.hpp:77] Creating layer detection_loss_1_3x5
I0708 19:08:09.039659 17985 net.cpp:150] Setting up detection_loss_1_3x5
I0708 19:08:09.039665 17985 net.cpp:157] Top shape: 1 1 1 2 (2)
I0708 19:08:09.039667 17985 net.cpp:160]     with loss weight 0.5
I0708 19:08:09.039677 17985 net.cpp:165] Memory required for data: 4368332196
I0708 19:08:09.039680 17985 layer_factory.hpp:77] Creating layer detection_accuracy_1_3x5
I0708 19:08:09.039685 17985 net.cpp:100] Creating Layer detection_accuracy_1_3x5
I0708 19:08:09.039687 17985 net.cpp:434] detection_accuracy_1_3x5 <- LFCN_1_3x5_LFCN_1_3x5_0_split_1
I0708 19:08:09.039691 17985 net.cpp:434] detection_accuracy_1_3x5 <- label_1_3x5_data_1_split_1
I0708 19:08:09.039696 17985 net.cpp:408] detection_accuracy_1_3x5 -> accuracy_1_3x5
I0708 19:08:09.039705 17985 net.cpp:408] detection_accuracy_1_3x5 -> boxiou_1_3x5
I0708 19:08:09.039741 17985 net.cpp:150] Setting up detection_accuracy_1_3x5
I0708 19:08:09.039746 17985 net.cpp:157] Top shape: 1 1 1 2 (2)
I0708 19:08:09.039748 17985 net.cpp:157] Top shape: 1 1 1 1 (1)
I0708 19:08:09.039750 17985 net.cpp:165] Memory required for data: 4368332208
I0708 19:08:09.039753 17985 layer_factory.hpp:77] Creating layer LFCN_1_5x7
I0708 19:08:09.039762 17985 net.cpp:100] Creating Layer LFCN_1_5x7
I0708 19:08:09.039767 17985 net.cpp:434] LFCN_1_5x7 <- loss1_conv1_loss_relu1_0_split_1
I0708 19:08:09.039772 17985 net.cpp:408] LFCN_1_5x7 -> LFCN_1_5x7
I0708 19:08:09.042218 17985 net.cpp:150] Setting up LFCN_1_5x7
I0708 19:08:09.042234 17985 net.cpp:157] Top shape: 4 7 72 96 (193536)
I0708 19:08:09.042237 17985 net.cpp:165] Memory required for data: 4369106352
I0708 19:08:09.042246 17985 layer_factory.hpp:77] Creating layer LFCN_1_5x7_LFCN_1_5x7_0_split
I0708 19:08:09.042255 17985 net.cpp:100] Creating Layer LFCN_1_5x7_LFCN_1_5x7_0_split
I0708 19:08:09.042259 17985 net.cpp:434] LFCN_1_5x7_LFCN_1_5x7_0_split <- LFCN_1_5x7
I0708 19:08:09.042264 17985 net.cpp:408] LFCN_1_5x7_LFCN_1_5x7_0_split -> LFCN_1_5x7_LFCN_1_5x7_0_split_0
I0708 19:08:09.042273 17985 net.cpp:408] LFCN_1_5x7_LFCN_1_5x7_0_split -> LFCN_1_5x7_LFCN_1_5x7_0_split_1
I0708 19:08:09.042279 17985 net.cpp:408] LFCN_1_5x7_LFCN_1_5x7_0_split -> LFCN_1_5x7_LFCN_1_5x7_0_split_2
I0708 19:08:09.042328 17985 net.cpp:150] Setting up LFCN_1_5x7_LFCN_1_5x7_0_split
I0708 19:08:09.042335 17985 net.cpp:157] Top shape: 4 7 72 96 (193536)
I0708 19:08:09.042338 17985 net.cpp:157] Top shape: 4 7 72 96 (193536)
I0708 19:08:09.042346 17985 net.cpp:157] Top shape: 4 7 72 96 (193536)
I0708 19:08:09.042351 17985 net.cpp:165] Memory required for data: 4371428784
I0708 19:08:09.042353 17985 layer_factory.hpp:77] Creating layer detection_loss_1_5x7
I0708 19:08:09.042361 17985 net.cpp:100] Creating Layer detection_loss_1_5x7
I0708 19:08:09.042366 17985 net.cpp:434] detection_loss_1_5x7 <- LFCN_1_5x7_LFCN_1_5x7_0_split_0
I0708 19:08:09.042371 17985 net.cpp:434] detection_loss_1_5x7 <- label_1_5x7_data_2_split_0
I0708 19:08:09.042377 17985 net.cpp:408] detection_loss_1_5x7 -> loss_1_5x7
I0708 19:08:09.042387 17985 layer_factory.hpp:77] Creating layer detection_loss_1_5x7
I0708 19:08:09.043293 17985 net.cpp:150] Setting up detection_loss_1_5x7
I0708 19:08:09.043305 17985 net.cpp:157] Top shape: 1 1 1 2 (2)
I0708 19:08:09.043308 17985 net.cpp:160]     with loss weight 0.9
I0708 19:08:09.043318 17985 net.cpp:165] Memory required for data: 4371428792
I0708 19:08:09.043321 17985 layer_factory.hpp:77] Creating layer detection_accuracy_1_5x7
I0708 19:08:09.043331 17985 net.cpp:100] Creating Layer detection_accuracy_1_5x7
I0708 19:08:09.043336 17985 net.cpp:434] detection_accuracy_1_5x7 <- LFCN_1_5x7_LFCN_1_5x7_0_split_1
I0708 19:08:09.043341 17985 net.cpp:434] detection_accuracy_1_5x7 <- label_1_5x7_data_2_split_1
I0708 19:08:09.043349 17985 net.cpp:408] detection_accuracy_1_5x7 -> accuracy_1_5x7
I0708 19:08:09.043359 17985 net.cpp:408] detection_accuracy_1_5x7 -> boxiou_1_5x7
I0708 19:08:09.043395 17985 net.cpp:150] Setting up detection_accuracy_1_5x7
I0708 19:08:09.043400 17985 net.cpp:157] Top shape: 1 1 1 2 (2)
I0708 19:08:09.043403 17985 net.cpp:157] Top shape: 1 1 1 1 (1)
I0708 19:08:09.043406 17985 net.cpp:165] Memory required for data: 4371428804
I0708 19:08:09.043408 17985 layer_factory.hpp:77] Creating layer pool4
I0708 19:08:09.043417 17985 net.cpp:100] Creating Layer pool4
I0708 19:08:09.043421 17985 net.cpp:434] pool4 <- conv4_3_relu4_3_0_split_1
I0708 19:08:09.043426 17985 net.cpp:408] pool4 -> pool4
I0708 19:08:09.043462 17985 net.cpp:150] Setting up pool4
I0708 19:08:09.043467 17985 net.cpp:157] Top shape: 4 512 36 48 (3538944)
I0708 19:08:09.043470 17985 net.cpp:165] Memory required for data: 4385584580
I0708 19:08:09.043473 17985 layer_factory.hpp:77] Creating layer conv5_1
I0708 19:08:09.043481 17985 net.cpp:100] Creating Layer conv5_1
I0708 19:08:09.043485 17985 net.cpp:434] conv5_1 <- pool4
I0708 19:08:09.043490 17985 net.cpp:408] conv5_1 -> conv5_1
I0708 19:08:09.049388 17985 net.cpp:150] Setting up conv5_1
I0708 19:08:09.049407 17985 net.cpp:157] Top shape: 4 512 36 48 (3538944)
I0708 19:08:09.049409 17985 net.cpp:165] Memory required for data: 4399740356
I0708 19:08:09.049418 17985 layer_factory.hpp:77] Creating layer relu5_1
I0708 19:08:09.049427 17985 net.cpp:100] Creating Layer relu5_1
I0708 19:08:09.049432 17985 net.cpp:434] relu5_1 <- conv5_1
I0708 19:08:09.049443 17985 net.cpp:395] relu5_1 -> conv5_1 (in-place)
I0708 19:08:09.050127 17985 net.cpp:150] Setting up relu5_1
I0708 19:08:09.050137 17985 net.cpp:157] Top shape: 4 512 36 48 (3538944)
I0708 19:08:09.050140 17985 net.cpp:165] Memory required for data: 4413896132
I0708 19:08:09.050144 17985 layer_factory.hpp:77] Creating layer conv5_2
I0708 19:08:09.050155 17985 net.cpp:100] Creating Layer conv5_2
I0708 19:08:09.050160 17985 net.cpp:434] conv5_2 <- conv5_1
I0708 19:08:09.050168 17985 net.cpp:408] conv5_2 -> conv5_2
I0708 19:08:09.055846 17985 net.cpp:150] Setting up conv5_2
I0708 19:08:09.055865 17985 net.cpp:157] Top shape: 4 512 36 48 (3538944)
I0708 19:08:09.055867 17985 net.cpp:165] Memory required for data: 4428051908
I0708 19:08:09.055877 17985 layer_factory.hpp:77] Creating layer relu5_2
I0708 19:08:09.055888 17985 net.cpp:100] Creating Layer relu5_2
I0708 19:08:09.055893 17985 net.cpp:434] relu5_2 <- conv5_2
I0708 19:08:09.055905 17985 net.cpp:395] relu5_2 -> conv5_2 (in-place)
I0708 19:08:09.056192 17985 net.cpp:150] Setting up relu5_2
I0708 19:08:09.056201 17985 net.cpp:157] Top shape: 4 512 36 48 (3538944)
I0708 19:08:09.056205 17985 net.cpp:165] Memory required for data: 4442207684
I0708 19:08:09.056208 17985 layer_factory.hpp:77] Creating layer conv5_3
I0708 19:08:09.056218 17985 net.cpp:100] Creating Layer conv5_3
I0708 19:08:09.056223 17985 net.cpp:434] conv5_3 <- conv5_2
I0708 19:08:09.056229 17985 net.cpp:408] conv5_3 -> conv5_3
I0708 19:08:09.062386 17985 net.cpp:150] Setting up conv5_3
I0708 19:08:09.062407 17985 net.cpp:157] Top shape: 4 512 36 48 (3538944)
I0708 19:08:09.062410 17985 net.cpp:165] Memory required for data: 4456363460
I0708 19:08:09.062420 17985 layer_factory.hpp:77] Creating layer relu5_3
I0708 19:08:09.062430 17985 net.cpp:100] Creating Layer relu5_3
I0708 19:08:09.062436 17985 net.cpp:434] relu5_3 <- conv5_3
I0708 19:08:09.062443 17985 net.cpp:395] relu5_3 -> conv5_3 (in-place)
I0708 19:08:09.062731 17985 net.cpp:150] Setting up relu5_3
I0708 19:08:09.062741 17985 net.cpp:157] Top shape: 4 512 36 48 (3538944)
I0708 19:08:09.062743 17985 net.cpp:165] Memory required for data: 4470519236
I0708 19:08:09.062747 17985 layer_factory.hpp:77] Creating layer conv5_3_relu5_3_0_split
I0708 19:08:09.062752 17985 net.cpp:100] Creating Layer conv5_3_relu5_3_0_split
I0708 19:08:09.062757 17985 net.cpp:434] conv5_3_relu5_3_0_split <- conv5_3
I0708 19:08:09.062762 17985 net.cpp:408] conv5_3_relu5_3_0_split -> conv5_3_relu5_3_0_split_0
I0708 19:08:09.062772 17985 net.cpp:408] conv5_3_relu5_3_0_split -> conv5_3_relu5_3_0_split_1
I0708 19:08:09.062779 17985 net.cpp:408] conv5_3_relu5_3_0_split -> conv5_3_relu5_3_0_split_2
I0708 19:08:09.062834 17985 net.cpp:150] Setting up conv5_3_relu5_3_0_split
I0708 19:08:09.062839 17985 net.cpp:157] Top shape: 4 512 36 48 (3538944)
I0708 19:08:09.062844 17985 net.cpp:157] Top shape: 4 512 36 48 (3538944)
I0708 19:08:09.062847 17985 net.cpp:157] Top shape: 4 512 36 48 (3538944)
I0708 19:08:09.062849 17985 net.cpp:165] Memory required for data: 4512986564
I0708 19:08:09.062852 17985 layer_factory.hpp:77] Creating layer LFCN_2_3x5
I0708 19:08:09.062865 17985 net.cpp:100] Creating Layer LFCN_2_3x5
I0708 19:08:09.062868 17985 net.cpp:434] LFCN_2_3x5 <- conv5_3_relu5_3_0_split_0
I0708 19:08:09.062876 17985 net.cpp:408] LFCN_2_3x5 -> LFCN_2_3x5
I0708 19:08:09.064748 17985 net.cpp:150] Setting up LFCN_2_3x5
I0708 19:08:09.064764 17985 net.cpp:157] Top shape: 4 7 36 48 (48384)
I0708 19:08:09.064767 17985 net.cpp:165] Memory required for data: 4513180100
I0708 19:08:09.064783 17985 layer_factory.hpp:77] Creating layer LFCN_2_3x5_LFCN_2_3x5_0_split
I0708 19:08:09.064791 17985 net.cpp:100] Creating Layer LFCN_2_3x5_LFCN_2_3x5_0_split
I0708 19:08:09.064796 17985 net.cpp:434] LFCN_2_3x5_LFCN_2_3x5_0_split <- LFCN_2_3x5
I0708 19:08:09.064805 17985 net.cpp:408] LFCN_2_3x5_LFCN_2_3x5_0_split -> LFCN_2_3x5_LFCN_2_3x5_0_split_0
I0708 19:08:09.064823 17985 net.cpp:408] LFCN_2_3x5_LFCN_2_3x5_0_split -> LFCN_2_3x5_LFCN_2_3x5_0_split_1
I0708 19:08:09.064831 17985 net.cpp:408] LFCN_2_3x5_LFCN_2_3x5_0_split -> LFCN_2_3x5_LFCN_2_3x5_0_split_2
I0708 19:08:09.064883 17985 net.cpp:150] Setting up LFCN_2_3x5_LFCN_2_3x5_0_split
I0708 19:08:09.064890 17985 net.cpp:157] Top shape: 4 7 36 48 (48384)
I0708 19:08:09.064895 17985 net.cpp:157] Top shape: 4 7 36 48 (48384)
I0708 19:08:09.064899 17985 net.cpp:157] Top shape: 4 7 36 48 (48384)
I0708 19:08:09.064903 17985 net.cpp:165] Memory required for data: 4513760708
I0708 19:08:09.064905 17985 layer_factory.hpp:77] Creating layer detection_loss_2_3x5
I0708 19:08:09.064911 17985 net.cpp:100] Creating Layer detection_loss_2_3x5
I0708 19:08:09.064916 17985 net.cpp:434] detection_loss_2_3x5 <- LFCN_2_3x5_LFCN_2_3x5_0_split_0
I0708 19:08:09.064921 17985 net.cpp:434] detection_loss_2_3x5 <- label_2_3x5_data_3_split_0
I0708 19:08:09.064927 17985 net.cpp:408] detection_loss_2_3x5 -> loss_2_3x5
I0708 19:08:09.064935 17985 layer_factory.hpp:77] Creating layer detection_loss_2_3x5
I0708 19:08:09.065873 17985 net.cpp:150] Setting up detection_loss_2_3x5
I0708 19:08:09.065886 17985 net.cpp:157] Top shape: 1 1 1 2 (2)
I0708 19:08:09.065889 17985 net.cpp:160]     with loss weight 1
I0708 19:08:09.065898 17985 net.cpp:165] Memory required for data: 4513760716
I0708 19:08:09.065902 17985 layer_factory.hpp:77] Creating layer detection_accuracy_2_3x5
I0708 19:08:09.065910 17985 net.cpp:100] Creating Layer detection_accuracy_2_3x5
I0708 19:08:09.065915 17985 net.cpp:434] detection_accuracy_2_3x5 <- LFCN_2_3x5_LFCN_2_3x5_0_split_1
I0708 19:08:09.065939 17985 net.cpp:434] detection_accuracy_2_3x5 <- label_2_3x5_data_3_split_1
I0708 19:08:09.065949 17985 net.cpp:408] detection_accuracy_2_3x5 -> accuracy_2_3x5
I0708 19:08:09.065961 17985 net.cpp:408] detection_accuracy_2_3x5 -> boxiou_2_3x5
I0708 19:08:09.066017 17985 net.cpp:150] Setting up detection_accuracy_2_3x5
I0708 19:08:09.066025 17985 net.cpp:157] Top shape: 1 1 1 2 (2)
I0708 19:08:09.066028 17985 net.cpp:157] Top shape: 1 1 1 1 (1)
I0708 19:08:09.066030 17985 net.cpp:165] Memory required for data: 4513760728
I0708 19:08:09.066033 17985 layer_factory.hpp:77] Creating layer LFCN_2_5x7
I0708 19:08:09.066045 17985 net.cpp:100] Creating Layer LFCN_2_5x7
I0708 19:08:09.066049 17985 net.cpp:434] LFCN_2_5x7 <- conv5_3_relu5_3_0_split_1
I0708 19:08:09.066056 17985 net.cpp:408] LFCN_2_5x7 -> LFCN_2_5x7
I0708 19:08:09.069639 17985 net.cpp:150] Setting up LFCN_2_5x7
I0708 19:08:09.069665 17985 net.cpp:157] Top shape: 4 7 36 48 (48384)
I0708 19:08:09.069669 17985 net.cpp:165] Memory required for data: 4513954264
I0708 19:08:09.069679 17985 layer_factory.hpp:77] Creating layer LFCN_2_5x7_LFCN_2_5x7_0_split
I0708 19:08:09.069689 17985 net.cpp:100] Creating Layer LFCN_2_5x7_LFCN_2_5x7_0_split
I0708 19:08:09.069694 17985 net.cpp:434] LFCN_2_5x7_LFCN_2_5x7_0_split <- LFCN_2_5x7
I0708 19:08:09.069702 17985 net.cpp:408] LFCN_2_5x7_LFCN_2_5x7_0_split -> LFCN_2_5x7_LFCN_2_5x7_0_split_0
I0708 19:08:09.069713 17985 net.cpp:408] LFCN_2_5x7_LFCN_2_5x7_0_split -> LFCN_2_5x7_LFCN_2_5x7_0_split_1
I0708 19:08:09.069720 17985 net.cpp:408] LFCN_2_5x7_LFCN_2_5x7_0_split -> LFCN_2_5x7_LFCN_2_5x7_0_split_2
I0708 19:08:09.069785 17985 net.cpp:150] Setting up LFCN_2_5x7_LFCN_2_5x7_0_split
I0708 19:08:09.069792 17985 net.cpp:157] Top shape: 4 7 36 48 (48384)
I0708 19:08:09.069797 17985 net.cpp:157] Top shape: 4 7 36 48 (48384)
I0708 19:08:09.069800 17985 net.cpp:157] Top shape: 4 7 36 48 (48384)
I0708 19:08:09.069803 17985 net.cpp:165] Memory required for data: 4514534872
I0708 19:08:09.069806 17985 layer_factory.hpp:77] Creating layer detection_loss_2_5x7
I0708 19:08:09.069815 17985 net.cpp:100] Creating Layer detection_loss_2_5x7
I0708 19:08:09.069819 17985 net.cpp:434] detection_loss_2_5x7 <- LFCN_2_5x7_LFCN_2_5x7_0_split_0
I0708 19:08:09.069824 17985 net.cpp:434] detection_loss_2_5x7 <- label_2_5x7_data_4_split_0
I0708 19:08:09.069831 17985 net.cpp:408] detection_loss_2_5x7 -> loss_2_5x7
I0708 19:08:09.069840 17985 layer_factory.hpp:77] Creating layer detection_loss_2_5x7
I0708 19:08:09.070417 17985 net.cpp:150] Setting up detection_loss_2_5x7
I0708 19:08:09.070427 17985 net.cpp:157] Top shape: 1 1 1 2 (2)
I0708 19:08:09.070430 17985 net.cpp:160]     with loss weight 1
I0708 19:08:09.070439 17985 net.cpp:165] Memory required for data: 4514534880
I0708 19:08:09.070443 17985 layer_factory.hpp:77] Creating layer detection_accuracy_2_5x7
I0708 19:08:09.070452 17985 net.cpp:100] Creating Layer detection_accuracy_2_5x7
I0708 19:08:09.070456 17985 net.cpp:434] detection_accuracy_2_5x7 <- LFCN_2_5x7_LFCN_2_5x7_0_split_1
I0708 19:08:09.070461 17985 net.cpp:434] detection_accuracy_2_5x7 <- label_2_5x7_data_4_split_1
I0708 19:08:09.070468 17985 net.cpp:408] detection_accuracy_2_5x7 -> accuracy_2_5x7
I0708 19:08:09.070475 17985 net.cpp:408] detection_accuracy_2_5x7 -> boxiou_2_5x7
I0708 19:08:09.070523 17985 net.cpp:150] Setting up detection_accuracy_2_5x7
I0708 19:08:09.070531 17985 net.cpp:157] Top shape: 1 1 1 2 (2)
I0708 19:08:09.070535 17985 net.cpp:157] Top shape: 1 1 1 1 (1)
I0708 19:08:09.070538 17985 net.cpp:165] Memory required for data: 4514534892
I0708 19:08:09.070541 17985 layer_factory.hpp:77] Creating layer pool5
I0708 19:08:09.070547 17985 net.cpp:100] Creating Layer pool5
I0708 19:08:09.070551 17985 net.cpp:434] pool5 <- conv5_3_relu5_3_0_split_2
I0708 19:08:09.070556 17985 net.cpp:408] pool5 -> pool5
I0708 19:08:09.070601 17985 net.cpp:150] Setting up pool5
I0708 19:08:09.070608 17985 net.cpp:157] Top shape: 4 512 18 24 (884736)
I0708 19:08:09.070611 17985 net.cpp:165] Memory required for data: 4518073836
I0708 19:08:09.070614 17985 layer_factory.hpp:77] Creating layer conv6_1
I0708 19:08:09.070624 17985 net.cpp:100] Creating Layer conv6_1
I0708 19:08:09.070628 17985 net.cpp:434] conv6_1 <- pool5
I0708 19:08:09.070636 17985 net.cpp:408] conv6_1 -> conv6_1
I0708 19:08:09.092489 17985 net.cpp:150] Setting up conv6_1
I0708 19:08:09.092509 17985 net.cpp:157] Top shape: 4 512 18 24 (884736)
I0708 19:08:09.092511 17985 net.cpp:165] Memory required for data: 4521612780
I0708 19:08:09.092521 17985 layer_factory.hpp:77] Creating layer relu6_1
I0708 19:08:09.092533 17985 net.cpp:100] Creating Layer relu6_1
I0708 19:08:09.092540 17985 net.cpp:434] relu6_1 <- conv6_1
I0708 19:08:09.092545 17985 net.cpp:395] relu6_1 -> conv6_1 (in-place)
I0708 19:08:09.092825 17985 net.cpp:150] Setting up relu6_1
I0708 19:08:09.092835 17985 net.cpp:157] Top shape: 4 512 18 24 (884736)
I0708 19:08:09.092839 17985 net.cpp:165] Memory required for data: 4525151724
I0708 19:08:09.092841 17985 layer_factory.hpp:77] Creating layer conv6_1_relu6_1_0_split
I0708 19:08:09.092849 17985 net.cpp:100] Creating Layer conv6_1_relu6_1_0_split
I0708 19:08:09.092854 17985 net.cpp:434] conv6_1_relu6_1_0_split <- conv6_1
I0708 19:08:09.092861 17985 net.cpp:408] conv6_1_relu6_1_0_split -> conv6_1_relu6_1_0_split_0
I0708 19:08:09.092870 17985 net.cpp:408] conv6_1_relu6_1_0_split -> conv6_1_relu6_1_0_split_1
I0708 19:08:09.092876 17985 net.cpp:408] conv6_1_relu6_1_0_split -> conv6_1_relu6_1_0_split_2
I0708 19:08:09.092933 17985 net.cpp:150] Setting up conv6_1_relu6_1_0_split
I0708 19:08:09.092938 17985 net.cpp:157] Top shape: 4 512 18 24 (884736)
I0708 19:08:09.092942 17985 net.cpp:157] Top shape: 4 512 18 24 (884736)
I0708 19:08:09.092947 17985 net.cpp:157] Top shape: 4 512 18 24 (884736)
I0708 19:08:09.092949 17985 net.cpp:165] Memory required for data: 4535768556
I0708 19:08:09.092952 17985 layer_factory.hpp:77] Creating layer LFCN_3_3x5
I0708 19:08:09.092963 17985 net.cpp:100] Creating Layer LFCN_3_3x5
I0708 19:08:09.092967 17985 net.cpp:434] LFCN_3_3x5 <- conv6_1_relu6_1_0_split_0
I0708 19:08:09.092973 17985 net.cpp:408] LFCN_3_3x5 -> LFCN_3_3x5
I0708 19:08:09.095789 17985 net.cpp:150] Setting up LFCN_3_3x5
I0708 19:08:09.095813 17985 net.cpp:157] Top shape: 4 7 18 24 (12096)
I0708 19:08:09.095815 17985 net.cpp:165] Memory required for data: 4535816940
I0708 19:08:09.095825 17985 layer_factory.hpp:77] Creating layer LFCN_3_3x5_LFCN_3_3x5_0_split
I0708 19:08:09.095846 17985 net.cpp:100] Creating Layer LFCN_3_3x5_LFCN_3_3x5_0_split
I0708 19:08:09.095851 17985 net.cpp:434] LFCN_3_3x5_LFCN_3_3x5_0_split <- LFCN_3_3x5
I0708 19:08:09.095860 17985 net.cpp:408] LFCN_3_3x5_LFCN_3_3x5_0_split -> LFCN_3_3x5_LFCN_3_3x5_0_split_0
I0708 19:08:09.095870 17985 net.cpp:408] LFCN_3_3x5_LFCN_3_3x5_0_split -> LFCN_3_3x5_LFCN_3_3x5_0_split_1
I0708 19:08:09.095875 17985 net.cpp:408] LFCN_3_3x5_LFCN_3_3x5_0_split -> LFCN_3_3x5_LFCN_3_3x5_0_split_2
I0708 19:08:09.095927 17985 net.cpp:150] Setting up LFCN_3_3x5_LFCN_3_3x5_0_split
I0708 19:08:09.095932 17985 net.cpp:157] Top shape: 4 7 18 24 (12096)
I0708 19:08:09.095935 17985 net.cpp:157] Top shape: 4 7 18 24 (12096)
I0708 19:08:09.095939 17985 net.cpp:157] Top shape: 4 7 18 24 (12096)
I0708 19:08:09.095942 17985 net.cpp:165] Memory required for data: 4535962092
I0708 19:08:09.095944 17985 layer_factory.hpp:77] Creating layer detection_loss_3_3x5
I0708 19:08:09.095952 17985 net.cpp:100] Creating Layer detection_loss_3_3x5
I0708 19:08:09.095957 17985 net.cpp:434] detection_loss_3_3x5 <- LFCN_3_3x5_LFCN_3_3x5_0_split_0
I0708 19:08:09.095963 17985 net.cpp:434] detection_loss_3_3x5 <- label_3_3x5_data_5_split_0
I0708 19:08:09.095969 17985 net.cpp:408] detection_loss_3_3x5 -> loss_3_3x5
I0708 19:08:09.095978 17985 layer_factory.hpp:77] Creating layer detection_loss_3_3x5
I0708 19:08:09.096915 17985 net.cpp:150] Setting up detection_loss_3_3x5
I0708 19:08:09.096926 17985 net.cpp:157] Top shape: 1 1 1 2 (2)
I0708 19:08:09.096928 17985 net.cpp:160]     with loss weight 1
I0708 19:08:09.096937 17985 net.cpp:165] Memory required for data: 4535962100
I0708 19:08:09.096941 17985 layer_factory.hpp:77] Creating layer detection_accuracy_3_3x5
I0708 19:08:09.096952 17985 net.cpp:100] Creating Layer detection_accuracy_3_3x5
I0708 19:08:09.096956 17985 net.cpp:434] detection_accuracy_3_3x5 <- LFCN_3_3x5_LFCN_3_3x5_0_split_1
I0708 19:08:09.096962 17985 net.cpp:434] detection_accuracy_3_3x5 <- label_3_3x5_data_5_split_1
I0708 19:08:09.096969 17985 net.cpp:408] detection_accuracy_3_3x5 -> accuracy_3_3x5
I0708 19:08:09.096978 17985 net.cpp:408] detection_accuracy_3_3x5 -> boxiou_3_3x5
I0708 19:08:09.097026 17985 net.cpp:150] Setting up detection_accuracy_3_3x5
I0708 19:08:09.097035 17985 net.cpp:157] Top shape: 1 1 1 2 (2)
I0708 19:08:09.097039 17985 net.cpp:157] Top shape: 1 1 1 1 (1)
I0708 19:08:09.097043 17985 net.cpp:165] Memory required for data: 4535962112
I0708 19:08:09.097045 17985 layer_factory.hpp:77] Creating layer LFCN_3_5x7
I0708 19:08:09.097054 17985 net.cpp:100] Creating Layer LFCN_3_5x7
I0708 19:08:09.097059 17985 net.cpp:434] LFCN_3_5x7 <- conv6_1_relu6_1_0_split_1
I0708 19:08:09.097064 17985 net.cpp:408] LFCN_3_5x7 -> LFCN_3_5x7
I0708 19:08:09.099484 17985 net.cpp:150] Setting up LFCN_3_5x7
I0708 19:08:09.099501 17985 net.cpp:157] Top shape: 4 7 18 24 (12096)
I0708 19:08:09.099503 17985 net.cpp:165] Memory required for data: 4536010496
I0708 19:08:09.099511 17985 layer_factory.hpp:77] Creating layer LFCN_3_5x7_LFCN_3_5x7_0_split
I0708 19:08:09.099521 17985 net.cpp:100] Creating Layer LFCN_3_5x7_LFCN_3_5x7_0_split
I0708 19:08:09.099529 17985 net.cpp:434] LFCN_3_5x7_LFCN_3_5x7_0_split <- LFCN_3_5x7
I0708 19:08:09.099537 17985 net.cpp:408] LFCN_3_5x7_LFCN_3_5x7_0_split -> LFCN_3_5x7_LFCN_3_5x7_0_split_0
I0708 19:08:09.099547 17985 net.cpp:408] LFCN_3_5x7_LFCN_3_5x7_0_split -> LFCN_3_5x7_LFCN_3_5x7_0_split_1
I0708 19:08:09.099555 17985 net.cpp:408] LFCN_3_5x7_LFCN_3_5x7_0_split -> LFCN_3_5x7_LFCN_3_5x7_0_split_2
I0708 19:08:09.099608 17985 net.cpp:150] Setting up LFCN_3_5x7_LFCN_3_5x7_0_split
I0708 19:08:09.099614 17985 net.cpp:157] Top shape: 4 7 18 24 (12096)
I0708 19:08:09.099618 17985 net.cpp:157] Top shape: 4 7 18 24 (12096)
I0708 19:08:09.099622 17985 net.cpp:157] Top shape: 4 7 18 24 (12096)
I0708 19:08:09.099624 17985 net.cpp:165] Memory required for data: 4536155648
I0708 19:08:09.099627 17985 layer_factory.hpp:77] Creating layer detection_loss_3_5x7
I0708 19:08:09.099637 17985 net.cpp:100] Creating Layer detection_loss_3_5x7
I0708 19:08:09.099640 17985 net.cpp:434] detection_loss_3_5x7 <- LFCN_3_5x7_LFCN_3_5x7_0_split_0
I0708 19:08:09.099645 17985 net.cpp:434] detection_loss_3_5x7 <- label_3_5x7_data_6_split_0
I0708 19:08:09.099653 17985 net.cpp:408] detection_loss_3_5x7 -> loss_3_5x7
I0708 19:08:09.099661 17985 layer_factory.hpp:77] Creating layer detection_loss_3_5x7
I0708 19:08:09.100101 17985 net.cpp:150] Setting up detection_loss_3_5x7
I0708 19:08:09.100109 17985 net.cpp:157] Top shape: 1 1 1 2 (2)
I0708 19:08:09.100112 17985 net.cpp:160]     with loss weight 1
I0708 19:08:09.100121 17985 net.cpp:165] Memory required for data: 4536155656
I0708 19:08:09.100123 17985 layer_factory.hpp:77] Creating layer detection_accuracy_3_5x7
I0708 19:08:09.100132 17985 net.cpp:100] Creating Layer detection_accuracy_3_5x7
I0708 19:08:09.100136 17985 net.cpp:434] detection_accuracy_3_5x7 <- LFCN_3_5x7_LFCN_3_5x7_0_split_1
I0708 19:08:09.100142 17985 net.cpp:434] detection_accuracy_3_5x7 <- label_3_5x7_data_6_split_1
I0708 19:08:09.100147 17985 net.cpp:408] detection_accuracy_3_5x7 -> accuracy_3_5x7
I0708 19:08:09.100154 17985 net.cpp:408] detection_accuracy_3_5x7 -> boxiou_3_5x7
I0708 19:08:09.100198 17985 net.cpp:150] Setting up detection_accuracy_3_5x7
I0708 19:08:09.100203 17985 net.cpp:157] Top shape: 1 1 1 2 (2)
I0708 19:08:09.100208 17985 net.cpp:157] Top shape: 1 1 1 1 (1)
I0708 19:08:09.100210 17985 net.cpp:165] Memory required for data: 4536155668
I0708 19:08:09.100212 17985 layer_factory.hpp:77] Creating layer pool6
I0708 19:08:09.100219 17985 net.cpp:100] Creating Layer pool6
I0708 19:08:09.100222 17985 net.cpp:434] pool6 <- conv6_1_relu6_1_0_split_2
I0708 19:08:09.100229 17985 net.cpp:408] pool6 -> pool6
I0708 19:08:09.100283 17985 net.cpp:150] Setting up pool6
I0708 19:08:09.100294 17985 net.cpp:157] Top shape: 4 512 9 12 (221184)
I0708 19:08:09.100297 17985 net.cpp:165] Memory required for data: 4537040404
I0708 19:08:09.100301 17985 layer_factory.hpp:77] Creating layer LFCN_4_3x5
I0708 19:08:09.100314 17985 net.cpp:100] Creating Layer LFCN_4_3x5
I0708 19:08:09.100318 17985 net.cpp:434] LFCN_4_3x5 <- pool6
I0708 19:08:09.100325 17985 net.cpp:408] LFCN_4_3x5 -> LFCN_4_3x5
I0708 19:08:09.102685 17985 net.cpp:150] Setting up LFCN_4_3x5
I0708 19:08:09.102702 17985 net.cpp:157] Top shape: 4 7 9 12 (3024)
I0708 19:08:09.102705 17985 net.cpp:165] Memory required for data: 4537052500
I0708 19:08:09.102715 17985 layer_factory.hpp:77] Creating layer LFCN_4_3x5_LFCN_4_3x5_0_split
I0708 19:08:09.102725 17985 net.cpp:100] Creating Layer LFCN_4_3x5_LFCN_4_3x5_0_split
I0708 19:08:09.102730 17985 net.cpp:434] LFCN_4_3x5_LFCN_4_3x5_0_split <- LFCN_4_3x5
I0708 19:08:09.102737 17985 net.cpp:408] LFCN_4_3x5_LFCN_4_3x5_0_split -> LFCN_4_3x5_LFCN_4_3x5_0_split_0
I0708 19:08:09.102747 17985 net.cpp:408] LFCN_4_3x5_LFCN_4_3x5_0_split -> LFCN_4_3x5_LFCN_4_3x5_0_split_1
I0708 19:08:09.102754 17985 net.cpp:408] LFCN_4_3x5_LFCN_4_3x5_0_split -> LFCN_4_3x5_LFCN_4_3x5_0_split_2
I0708 19:08:09.102830 17985 net.cpp:150] Setting up LFCN_4_3x5_LFCN_4_3x5_0_split
I0708 19:08:09.102838 17985 net.cpp:157] Top shape: 4 7 9 12 (3024)
I0708 19:08:09.102843 17985 net.cpp:157] Top shape: 4 7 9 12 (3024)
I0708 19:08:09.102846 17985 net.cpp:157] Top shape: 4 7 9 12 (3024)
I0708 19:08:09.102849 17985 net.cpp:165] Memory required for data: 4537088788
I0708 19:08:09.102852 17985 layer_factory.hpp:77] Creating layer detection_loss_4_3x5
I0708 19:08:09.102860 17985 net.cpp:100] Creating Layer detection_loss_4_3x5
I0708 19:08:09.102864 17985 net.cpp:434] detection_loss_4_3x5 <- LFCN_4_3x5_LFCN_4_3x5_0_split_0
I0708 19:08:09.102870 17985 net.cpp:434] detection_loss_4_3x5 <- label_4_3x5_data_7_split_0
I0708 19:08:09.102877 17985 net.cpp:408] detection_loss_4_3x5 -> loss_4_3x5
I0708 19:08:09.102887 17985 layer_factory.hpp:77] Creating layer detection_loss_4_3x5
I0708 19:08:09.103325 17985 net.cpp:150] Setting up detection_loss_4_3x5
I0708 19:08:09.103333 17985 net.cpp:157] Top shape: 1 1 1 2 (2)
I0708 19:08:09.103337 17985 net.cpp:160]     with loss weight 1
I0708 19:08:09.103344 17985 net.cpp:165] Memory required for data: 4537088796
I0708 19:08:09.103348 17985 layer_factory.hpp:77] Creating layer detection_accuracy_4_3x5
I0708 19:08:09.103358 17985 net.cpp:100] Creating Layer detection_accuracy_4_3x5
I0708 19:08:09.103363 17985 net.cpp:434] detection_accuracy_4_3x5 <- LFCN_4_3x5_LFCN_4_3x5_0_split_1
I0708 19:08:09.103368 17985 net.cpp:434] detection_accuracy_4_3x5 <- label_4_3x5_data_7_split_1
I0708 19:08:09.103374 17985 net.cpp:408] detection_accuracy_4_3x5 -> accuracy_4_3x5
I0708 19:08:09.103382 17985 net.cpp:408] detection_accuracy_4_3x5 -> boxiou_4_3x5
I0708 19:08:09.103425 17985 net.cpp:150] Setting up detection_accuracy_4_3x5
I0708 19:08:09.103432 17985 net.cpp:157] Top shape: 1 1 1 2 (2)
I0708 19:08:09.103436 17985 net.cpp:157] Top shape: 1 1 1 1 (1)
I0708 19:08:09.103438 17985 net.cpp:165] Memory required for data: 4537088808
I0708 19:08:09.103441 17985 layer_factory.hpp:77] Creating layer proposals
I0708 19:08:09.103448 17985 net.cpp:100] Creating Layer proposals
I0708 19:08:09.103452 17985 net.cpp:434] proposals <- LFCN_1_3x5_LFCN_1_3x5_0_split_2
I0708 19:08:09.103457 17985 net.cpp:434] proposals <- LFCN_1_5x7_LFCN_1_5x7_0_split_2
I0708 19:08:09.103461 17985 net.cpp:434] proposals <- LFCN_2_3x5_LFCN_2_3x5_0_split_2
I0708 19:08:09.103466 17985 net.cpp:434] proposals <- LFCN_2_5x7_LFCN_2_5x7_0_split_2
I0708 19:08:09.103468 17985 net.cpp:434] proposals <- LFCN_3_3x5_LFCN_3_3x5_0_split_2
I0708 19:08:09.103472 17985 net.cpp:434] proposals <- LFCN_3_5x7_LFCN_3_5x7_0_split_2
I0708 19:08:09.103477 17985 net.cpp:434] proposals <- LFCN_4_3x5_LFCN_4_3x5_0_split_2
I0708 19:08:09.103483 17985 net.cpp:408] proposals -> proposals
I0708 19:08:09.103513 17985 net.cpp:150] Setting up proposals
I0708 19:08:09.103520 17985 net.cpp:157] Top shape: 1 5 1 1 (5)
I0708 19:08:09.103523 17985 net.cpp:165] Memory required for data: 4537088828
I0708 19:08:09.103526 17985 layer_factory.hpp:77] Creating layer proposal_info
I0708 19:08:09.103533 17985 net.cpp:100] Creating Layer proposal_info
I0708 19:08:09.103536 17985 net.cpp:434] proposal_info <- proposals
I0708 19:08:09.103541 17985 net.cpp:434] proposal_info <- gt_boxes
I0708 19:08:09.103549 17985 net.cpp:408] proposal_info -> rois
I0708 19:08:09.103559 17985 net.cpp:408] proposal_info -> proposal_labels
I0708 19:08:09.103566 17985 net.cpp:408] proposal_info -> proposal_targets
I0708 19:08:09.103574 17985 net.cpp:408] proposal_info -> box_inside_weights
I0708 19:08:09.103580 17985 net.cpp:408] proposal_info -> box_outside_weights
I0708 19:08:09.103590 17985 net.cpp:408] proposal_info -> match_gt_boxes
I0708 19:08:09.103690 17985 net.cpp:150] Setting up proposal_info
I0708 19:08:09.103696 17985 net.cpp:157] Top shape: 128 5 1 1 (640)
I0708 19:08:09.103698 17985 net.cpp:157] Top shape: 128 1 1 1 (128)
I0708 19:08:09.103703 17985 net.cpp:157] Top shape: 128 12 1 1 (1536)
I0708 19:08:09.103706 17985 net.cpp:157] Top shape: 128 12 1 1 (1536)
I0708 19:08:09.103709 17985 net.cpp:157] Top shape: 128 12 1 1 (1536)
I0708 19:08:09.103713 17985 net.cpp:157] Top shape: 128 6 1 1 (768)
I0708 19:08:09.103715 17985 net.cpp:165] Memory required for data: 4537113404
I0708 19:08:09.103718 17985 layer_factory.hpp:77] Creating layer rois_proposal_info_0_split
I0708 19:08:09.103724 17985 net.cpp:100] Creating Layer rois_proposal_info_0_split
I0708 19:08:09.103726 17985 net.cpp:434] rois_proposal_info_0_split <- rois
I0708 19:08:09.103732 17985 net.cpp:408] rois_proposal_info_0_split -> rois_proposal_info_0_split_0
I0708 19:08:09.103739 17985 net.cpp:408] rois_proposal_info_0_split -> rois_proposal_info_0_split_1
I0708 19:08:09.103744 17985 net.cpp:408] rois_proposal_info_0_split -> rois_proposal_info_0_split_2
I0708 19:08:09.103785 17985 net.cpp:150] Setting up rois_proposal_info_0_split
I0708 19:08:09.103790 17985 net.cpp:157] Top shape: 128 5 1 1 (640)
I0708 19:08:09.103792 17985 net.cpp:157] Top shape: 128 5 1 1 (640)
I0708 19:08:09.103796 17985 net.cpp:157] Top shape: 128 5 1 1 (640)
I0708 19:08:09.103798 17985 net.cpp:165] Memory required for data: 4537121084
I0708 19:08:09.103801 17985 layer_factory.hpp:77] Creating layer proposal_labels_proposal_info_1_split
I0708 19:08:09.103806 17985 net.cpp:100] Creating Layer proposal_labels_proposal_info_1_split
I0708 19:08:09.103811 17985 net.cpp:434] proposal_labels_proposal_info_1_split <- proposal_labels
I0708 19:08:09.103814 17985 net.cpp:408] proposal_labels_proposal_info_1_split -> proposal_labels_proposal_info_1_split_0
I0708 19:08:09.103819 17985 net.cpp:408] proposal_labels_proposal_info_1_split -> proposal_labels_proposal_info_1_split_1
I0708 19:08:09.103850 17985 net.cpp:150] Setting up proposal_labels_proposal_info_1_split
I0708 19:08:09.103853 17985 net.cpp:157] Top shape: 128 1 1 1 (128)
I0708 19:08:09.103857 17985 net.cpp:157] Top shape: 128 1 1 1 (128)
I0708 19:08:09.103859 17985 net.cpp:165] Memory required for data: 4537122108
I0708 19:08:09.103862 17985 layer_factory.hpp:77] Creating layer conv4_3_2x
I0708 19:08:09.103868 17985 net.cpp:100] Creating Layer conv4_3_2x
I0708 19:08:09.103870 17985 net.cpp:434] conv4_3_2x <- conv4_3_relu4_3_0_split_2
I0708 19:08:09.103878 17985 net.cpp:408] conv4_3_2x -> conv4_3_2x
I0708 19:08:09.104264 17985 net.cpp:150] Setting up conv4_3_2x
I0708 19:08:09.104269 17985 net.cpp:157] Top shape: 4 512 144 192 (56623104)
I0708 19:08:09.104271 17985 net.cpp:165] Memory required for data: 4763614524
I0708 19:08:09.104277 17985 layer_factory.hpp:77] Creating layer conv4_3_2x_conv4_3_2x_0_split
I0708 19:08:09.104281 17985 net.cpp:100] Creating Layer conv4_3_2x_conv4_3_2x_0_split
I0708 19:08:09.104286 17985 net.cpp:434] conv4_3_2x_conv4_3_2x_0_split <- conv4_3_2x
I0708 19:08:09.104290 17985 net.cpp:408] conv4_3_2x_conv4_3_2x_0_split -> conv4_3_2x_conv4_3_2x_0_split_0
I0708 19:08:09.104296 17985 net.cpp:408] conv4_3_2x_conv4_3_2x_0_split -> conv4_3_2x_conv4_3_2x_0_split_1
I0708 19:08:09.104328 17985 net.cpp:150] Setting up conv4_3_2x_conv4_3_2x_0_split
I0708 19:08:09.104333 17985 net.cpp:157] Top shape: 4 512 144 192 (56623104)
I0708 19:08:09.104336 17985 net.cpp:157] Top shape: 4 512 144 192 (56623104)
I0708 19:08:09.104339 17985 net.cpp:165] Memory required for data: 5216599356
I0708 19:08:09.104341 17985 layer_factory.hpp:77] Creating layer roi_pool_org
I0708 19:08:09.104353 17985 net.cpp:100] Creating Layer roi_pool_org
I0708 19:08:09.104357 17985 net.cpp:434] roi_pool_org <- conv4_3_2x_conv4_3_2x_0_split_0
I0708 19:08:09.104359 17985 net.cpp:434] roi_pool_org <- rois_proposal_info_0_split_0
I0708 19:08:09.104365 17985 net.cpp:408] roi_pool_org -> roi_pool_org
I0708 19:08:09.104374 17985 roi_pooling_layer.cpp:33] Spatial scale: 0.25
I0708 19:08:09.104408 17985 net.cpp:150] Setting up roi_pool_org
I0708 19:08:09.104411 17985 net.cpp:157] Top shape: 128 512 7 5 (2293760)
I0708 19:08:09.104413 17985 net.cpp:165] Memory required for data: 5225774396
I0708 19:08:09.104416 17985 layer_factory.hpp:77] Creating layer roi_pool_ctx
I0708 19:08:09.104423 17985 net.cpp:100] Creating Layer roi_pool_ctx
I0708 19:08:09.104425 17985 net.cpp:434] roi_pool_ctx <- conv4_3_2x_conv4_3_2x_0_split_1
I0708 19:08:09.104429 17985 net.cpp:434] roi_pool_ctx <- rois_proposal_info_0_split_1
I0708 19:08:09.104435 17985 net.cpp:408] roi_pool_ctx -> roi_pool_ctx
I0708 19:08:09.104440 17985 roi_pooling_layer.cpp:33] Spatial scale: 0.25
I0708 19:08:09.104471 17985 net.cpp:150] Setting up roi_pool_ctx
I0708 19:08:09.104475 17985 net.cpp:157] Top shape: 128 512 7 5 (2293760)
I0708 19:08:09.104477 17985 net.cpp:165] Memory required for data: 5234949436
I0708 19:08:09.104480 17985 layer_factory.hpp:77] Creating layer roi_pool
I0708 19:08:09.104485 17985 net.cpp:100] Creating Layer roi_pool
I0708 19:08:09.104490 17985 net.cpp:434] roi_pool <- roi_pool_org
I0708 19:08:09.104492 17985 net.cpp:434] roi_pool <- roi_pool_ctx
I0708 19:08:09.104496 17985 net.cpp:408] roi_pool -> roi_pool
I0708 19:08:09.104517 17985 net.cpp:150] Setting up roi_pool
I0708 19:08:09.104521 17985 net.cpp:157] Top shape: 128 1024 7 5 (4587520)
I0708 19:08:09.104523 17985 net.cpp:165] Memory required for data: 5253299516
I0708 19:08:09.104526 17985 layer_factory.hpp:77] Creating layer roi_c1
I0708 19:08:09.104534 17985 net.cpp:100] Creating Layer roi_c1
I0708 19:08:09.104537 17985 net.cpp:434] roi_c1 <- roi_pool
I0708 19:08:09.104543 17985 net.cpp:408] roi_c1 -> roi_c1
I0708 19:08:09.145884 17985 net.cpp:150] Setting up roi_c1
I0708 19:08:09.145900 17985 net.cpp:157] Top shape: 128 512 5 3 (983040)
I0708 19:08:09.145902 17985 net.cpp:165] Memory required for data: 5257231676
I0708 19:08:09.145908 17985 layer_factory.hpp:77] Creating layer roi_c1_relu
I0708 19:08:09.145915 17985 net.cpp:100] Creating Layer roi_c1_relu
I0708 19:08:09.145918 17985 net.cpp:434] roi_c1_relu <- roi_c1
I0708 19:08:09.145923 17985 net.cpp:395] roi_c1_relu -> roi_c1 (in-place)
I0708 19:08:09.146745 17985 net.cpp:150] Setting up roi_c1_relu
I0708 19:08:09.146757 17985 net.cpp:157] Top shape: 128 512 5 3 (983040)
I0708 19:08:09.146759 17985 net.cpp:165] Memory required for data: 5261163836
I0708 19:08:09.146762 17985 layer_factory.hpp:77] Creating layer fc6
I0708 19:08:09.146770 17985 net.cpp:100] Creating Layer fc6
I0708 19:08:09.146772 17985 net.cpp:434] fc6 <- roi_c1
I0708 19:08:09.146778 17985 net.cpp:408] fc6 -> fc6
I0708 19:08:09.268967 17985 net.cpp:150] Setting up fc6
I0708 19:08:09.268987 17985 net.cpp:157] Top shape: 128 2048 (262144)
I0708 19:08:09.268990 17985 net.cpp:165] Memory required for data: 5262212412
I0708 19:08:09.268997 17985 layer_factory.hpp:77] Creating layer relu6
I0708 19:08:09.269003 17985 net.cpp:100] Creating Layer relu6
I0708 19:08:09.269006 17985 net.cpp:434] relu6 <- fc6
I0708 19:08:09.269011 17985 net.cpp:395] relu6 -> fc6 (in-place)
I0708 19:08:09.269342 17985 net.cpp:150] Setting up relu6
I0708 19:08:09.269351 17985 net.cpp:157] Top shape: 128 2048 (262144)
I0708 19:08:09.269353 17985 net.cpp:165] Memory required for data: 5263260988
I0708 19:08:09.269356 17985 layer_factory.hpp:77] Creating layer drop6
I0708 19:08:09.269367 17985 net.cpp:100] Creating Layer drop6
I0708 19:08:09.269371 17985 net.cpp:434] drop6 <- fc6
I0708 19:08:09.269373 17985 net.cpp:395] drop6 -> fc6 (in-place)
I0708 19:08:09.269407 17985 net.cpp:150] Setting up drop6
I0708 19:08:09.269412 17985 net.cpp:157] Top shape: 128 2048 (262144)
I0708 19:08:09.269413 17985 net.cpp:165] Memory required for data: 5264309564
I0708 19:08:09.269415 17985 layer_factory.hpp:77] Creating layer fc6_drop6_0_split
I0708 19:08:09.269421 17985 net.cpp:100] Creating Layer fc6_drop6_0_split
I0708 19:08:09.269425 17985 net.cpp:434] fc6_drop6_0_split <- fc6
I0708 19:08:09.269429 17985 net.cpp:408] fc6_drop6_0_split -> fc6_drop6_0_split_0
I0708 19:08:09.269436 17985 net.cpp:408] fc6_drop6_0_split -> fc6_drop6_0_split_1
I0708 19:08:09.269476 17985 net.cpp:150] Setting up fc6_drop6_0_split
I0708 19:08:09.269481 17985 net.cpp:157] Top shape: 128 2048 (262144)
I0708 19:08:09.269484 17985 net.cpp:157] Top shape: 128 2048 (262144)
I0708 19:08:09.269486 17985 net.cpp:165] Memory required for data: 5266406716
I0708 19:08:09.269490 17985 layer_factory.hpp:77] Creating layer cls_pred
I0708 19:08:09.269497 17985 net.cpp:100] Creating Layer cls_pred
I0708 19:08:09.269500 17985 net.cpp:434] cls_pred <- fc6_drop6_0_split_0
I0708 19:08:09.269505 17985 net.cpp:408] cls_pred -> cls_pred
I0708 19:08:09.269659 17985 net.cpp:150] Setting up cls_pred
I0708 19:08:09.269664 17985 net.cpp:157] Top shape: 128 3 (384)
I0708 19:08:09.269665 17985 net.cpp:165] Memory required for data: 5266408252
I0708 19:08:09.269670 17985 layer_factory.hpp:77] Creating layer cls_pred_cls_pred_0_split
I0708 19:08:09.269676 17985 net.cpp:100] Creating Layer cls_pred_cls_pred_0_split
I0708 19:08:09.269680 17985 net.cpp:434] cls_pred_cls_pred_0_split <- cls_pred
I0708 19:08:09.269685 17985 net.cpp:408] cls_pred_cls_pred_0_split -> cls_pred_cls_pred_0_split_0
I0708 19:08:09.269690 17985 net.cpp:408] cls_pred_cls_pred_0_split -> cls_pred_cls_pred_0_split_1
I0708 19:08:09.269731 17985 net.cpp:150] Setting up cls_pred_cls_pred_0_split
I0708 19:08:09.269737 17985 net.cpp:157] Top shape: 128 3 (384)
I0708 19:08:09.269739 17985 net.cpp:157] Top shape: 128 3 (384)
I0708 19:08:09.269742 17985 net.cpp:165] Memory required for data: 5266411324
I0708 19:08:09.269745 17985 layer_factory.hpp:77] Creating layer bbox_pred
I0708 19:08:09.269752 17985 net.cpp:100] Creating Layer bbox_pred
I0708 19:08:09.269754 17985 net.cpp:434] bbox_pred <- fc6_drop6_0_split_1
I0708 19:08:09.269760 17985 net.cpp:408] bbox_pred -> bbox_pred
I0708 19:08:09.270035 17985 net.cpp:150] Setting up bbox_pred
I0708 19:08:09.270040 17985 net.cpp:157] Top shape: 128 12 (1536)
I0708 19:08:09.270042 17985 net.cpp:165] Memory required for data: 5266417468
I0708 19:08:09.270047 17985 layer_factory.hpp:77] Creating layer bbox_pred_bbox_pred_0_split
I0708 19:08:09.270052 17985 net.cpp:100] Creating Layer bbox_pred_bbox_pred_0_split
I0708 19:08:09.270056 17985 net.cpp:434] bbox_pred_bbox_pred_0_split <- bbox_pred
I0708 19:08:09.270061 17985 net.cpp:408] bbox_pred_bbox_pred_0_split -> bbox_pred_bbox_pred_0_split_0
I0708 19:08:09.270067 17985 net.cpp:408] bbox_pred_bbox_pred_0_split -> bbox_pred_bbox_pred_0_split_1
I0708 19:08:09.270097 17985 net.cpp:150] Setting up bbox_pred_bbox_pred_0_split
I0708 19:08:09.270102 17985 net.cpp:157] Top shape: 128 12 (1536)
I0708 19:08:09.270104 17985 net.cpp:157] Top shape: 128 12 (1536)
I0708 19:08:09.270107 17985 net.cpp:165] Memory required for data: 5266429756
I0708 19:08:09.270109 17985 layer_factory.hpp:77] Creating layer loss_cls
I0708 19:08:09.270115 17985 net.cpp:100] Creating Layer loss_cls
I0708 19:08:09.270118 17985 net.cpp:434] loss_cls <- cls_pred_cls_pred_0_split_0
I0708 19:08:09.270123 17985 net.cpp:434] loss_cls <- proposal_labels_proposal_info_1_split_0
…
I0708 19:08:09.336426 17985 image_gt_data_layer.cpp:241] output label size 3 : 2,6,36,48
I0708 19:08:09.336508 17985 image_gt_data_layer.cpp:241] output label size 4 : 2,6,18,24
I0708 19:08:09.336591 17985 image_gt_data_layer.cpp:241] output label size 5 : 2,6,18,24
I0708 19:08:09.336714 17985 image_gt_data_layer.cpp:241] output label size 6 : 2,6,9,12
I0708 19:08:09.336822 17985 image_gt_data_layer.cpp:256] output gt boxes size: 1,7,1,1
I0708 19:08:09.336829 17985 image_gt_data_layer.cpp:265]  --> has_mean_values_ = 1
I0708 19:08:09.358692 17985 net.cpp:150] Setting up data
I0708 19:08:09.358711 17985 net.cpp:157] Top shape: 2 4 576 768 (3538944)
I0708 19:08:09.358716 17985 net.cpp:157] Top shape: 2 6 72 96 (82944)
I0708 19:08:09.358718 17985 net.cpp:157] Top shape: 2 6 72 96 (82944)
I0708 19:08:09.358721 17985 net.cpp:157] Top shape: 2 6 36 48 (20736)
I0708 19:08:09.358723 17985 net.cpp:157] Top shape: 2 6 36 48 (20736)
I0708 19:08:09.358726 17985 net.cpp:157] Top shape: 2 6 18 24 (5184)
I0708 19:08:09.358728 17985 net.cpp:157] Top shape: 2 6 18 24 (5184)
I0708 19:08:09.358732 17985 net.cpp:157] Top shape: 2 6 9 12 (1296)
I0708 19:08:09.358736 17985 net.cpp:157] Top shape: 1 7 1 1 (7)
I0708 19:08:09.358738 17985 net.cpp:165] Memory required for data: 15031900
I0708 19:08:09.358745 17985 layer_factory.hpp:77] Creating layer label_1_3x5_data_1_split
I0708 19:08:09.358757 17985 net.cpp:100] Creating Layer label_1_3x5_data_1_split
I0708 19:08:09.358763 17985 net.cpp:434] label_1_3x5_data_1_split <- label_1_3x5
I0708 19:08:09.358772 17985 net.cpp:408] label_1_3x5_data_1_split -> label_1_3x5_data_1_split_0
I0708 19:08:09.358781 17985 net.cpp:408] label_1_3x5_data_1_split -> label_1_3x5_data_1_split_1
I0708 19:08:09.358871 17985 net.cpp:150] Setting up label_1_3x5_data_1_split
I0708 19:08:09.358878 17985 net.cpp:157] Top shape: 2 6 72 96 (82944)
I0708 19:08:09.358883 17985 net.cpp:157] Top shape: 2 6 72 96 (82944)
I0708 19:08:09.358886 17985 net.cpp:165] Memory required for data: 15695452
I0708 19:08:09.358889 17985 layer_factory.hpp:77] Creating layer label_1_5x7_data_2_split
I0708 19:08:09.358896 17985 net.cpp:100] Creating Layer label_1_5x7_data_2_split
I0708 19:08:09.358901 17985 net.cpp:434] label_1_5x7_data_2_split <- label_1_5x7
I0708 19:08:09.358908 17985 net.cpp:408] label_1_5x7_data_2_split -> label_1_5x7_data_2_split_0
I0708 19:08:09.358916 17985 net.cpp:408] label_1_5x7_data_2_split -> label_1_5x7_data_2_split_1
I0708 19:08:09.358983 17985 net.cpp:150] Setting up label_1_5x7_data_2_split
I0708 19:08:09.358989 17985 net.cpp:157] Top shape: 2 6 72 96 (82944)
I0708 19:08:09.358994 17985 net.cpp:157] Top shape: 2 6 72 96 (82944)
I0708 19:08:09.358996 17985 net.cpp:165] Memory required for data: 16359004
I0708 19:08:09.358999 17985 layer_factory.hpp:77] Creating layer label_2_3x5_data_3_split
I0708 19:08:09.359004 17985 net.cpp:100] Creating Layer label_2_3x5_data_3_split
I0708 19:08:09.359007 17985 net.cpp:434] label_2_3x5_data_3_split <- label_2_3x5
I0708 19:08:09.359014 17985 net.cpp:408] label_2_3x5_data_3_split -> label_2_3x5_data_3_split_0
I0708 19:08:09.359020 17985 net.cpp:408] label_2_3x5_data_3_split -> label_2_3x5_data_3_split_1
I0708 19:08:09.359084 17985 net.cpp:150] Setting up label_2_3x5_data_3_split
I0708 19:08:09.359091 17985 net.cpp:157] Top shape: 2 6 36 48 (20736)
I0708 19:08:09.359095 17985 net.cpp:157] Top shape: 2 6 36 48 (20736)
I0708 19:08:09.359098 17985 net.cpp:165] Memory required for data: 16524892
I0708 19:08:09.359102 17985 layer_factory.hpp:77] Creating layer label_2_5x7_data_4_split
I0708 19:08:09.359108 17985 net.cpp:100] Creating Layer label_2_5x7_data_4_split
I0708 19:08:09.359112 17985 net.cpp:434] label_2_5x7_data_4_split <- label_2_5x7
I0708 19:08:09.359117 17985 net.cpp:408] label_2_5x7_data_4_split -> label_2_5x7_data_4_split_0
I0708 19:08:09.359125 17985 net.cpp:408] label_2_5x7_data_4_split -> label_2_5x7_data_4_split_1
I0708 19:08:09.359172 17985 net.cpp:150] Setting up label_2_5x7_data_4_split
I0708 19:08:09.359179 17985 net.cpp:157] Top shape: 2 6 36 48 (20736)
I0708 19:08:09.359182 17985 net.cpp:157] Top shape: 2 6 36 48 (20736)
I0708 19:08:09.359186 17985 net.cpp:165] Memory required for data: 16690780
I0708 19:08:09.359189 17985 layer_factory.hpp:77] Creating layer label_3_3x5_data_5_split
I0708 19:08:09.359194 17985 net.cpp:100] Creating Layer label_3_3x5_data_5_split
I0708 19:08:09.359197 17985 net.cpp:434] label_3_3x5_data_5_split <- label_3_3x5
I0708 19:08:09.359201 17985 net.cpp:408] label_3_3x5_data_5_split -> label_3_3x5_data_5_split_0
I0708 19:08:09.359208 17985 net.cpp:408] label_3_3x5_data_5_split -> label_3_3x5_data_5_split_1
I0708 19:08:09.359251 17985 net.cpp:150] Setting up label_3_3x5_data_5_split
I0708 19:08:09.359257 17985 net.cpp:157] Top shape: 2 6 18 24 (5184)
I0708 19:08:09.359261 17985 net.cpp:157] Top shape: 2 6 18 24 (5184)
I0708 19:08:09.359264 17985 net.cpp:165] Memory required for data: 16732252
I0708 19:08:09.359267 17985 layer_factory.hpp:77] Creating layer label_3_5x7_data_6_split
I0708 19:08:09.359274 17985 net.cpp:100] Creating Layer label_3_5x7_data_6_split
I0708 19:08:09.359278 17985 net.cpp:434] label_3_5x7_data_6_split <- label_3_5x7
I0708 19:08:09.359283 17985 net.cpp:408] label_3_5x7_data_6_split -> label_3_5x7_data_6_split_0
I0708 19:08:09.359289 17985 net.cpp:408] label_3_5x7_data_6_split -> label_3_5x7_data_6_split_1
I0708 19:08:09.359330 17985 net.cpp:150] Setting up label_3_5x7_data_6_split
I0708 19:08:09.359335 17985 net.cpp:157] Top shape: 2 6 18 24 (5184)
I0708 19:08:09.359339 17985 net.cpp:157] Top shape: 2 6 18 24 (5184)
I0708 19:08:09.359341 17985 net.cpp:165] Memory required for data: 16773724
I0708 19:08:09.359344 17985 layer_factory.hpp:77] Creating layer label_4_3x5_data_7_split
I0708 19:08:09.359349 17985 net.cpp:100] Creating Layer label_4_3x5_data_7_split
I0708 19:08:09.359352 17985 net.cpp:434] label_4_3x5_data_7_split <- label_4_3x5
I0708 19:08:09.359356 17985 net.cpp:408] label_4_3x5_data_7_split -> label_4_3x5_data_7_split_0
I0708 19:08:09.359364 17985 net.cpp:408] label_4_3x5_data_7_split -> label_4_3x5_data_7_split_1
I0708 19:08:09.359441 17985 net.cpp:150] Setting up label_4_3x5_data_7_split
I0708 19:08:09.359447 17985 net.cpp:157] Top shape: 2 6 9 12 (1296)
I0708 19:08:09.359450 17985 net.cpp:157] Top shape: 2 6 9 12 (1296)
I0708 19:08:09.359453 17985 net.cpp:165] Memory required for data: 16784092
I0708 19:08:09.359457 17985 layer_factory.hpp:77] Creating layer conv1_1
I0708 19:08:09.359467 17985 net.cpp:100] Creating Layer conv1_1
I0708 19:08:09.359470 17985 net.cpp:434] conv1_1 <- data
I0708 19:08:09.359477 17985 net.cpp:408] conv1_1 -> conv1_1
I0708 19:08:09.364665 17985 net.cpp:150] Setting up conv1_1
I0708 19:08:09.364689 17985 net.cpp:157] Top shape: 2 64 576 768 (56623104)
I0708 19:08:09.364691 17985 net.cpp:165] Memory required for data: 243276508
I0708 19:08:09.364708 17985 layer_factory.hpp:77] Creating layer relu1_1
I0708 19:08:09.364722 17985 net.cpp:100] Creating Layer relu1_1
I0708 19:08:09.364725 17985 net.cpp:434] relu1_1 <- conv1_1
I0708 19:08:09.364740 17985 net.cpp:395] relu1_1 -> conv1_1 (in-place)
I0708 19:08:09.365191 17985 net.cpp:150] Setting up relu1_1
I0708 19:08:09.365201 17985 net.cpp:157] Top shape: 2 64 576 768 (56623104)
I0708 19:08:09.365203 17985 net.cpp:165] Memory required for data: 469768924
I0708 19:08:09.365206 17985 layer_factory.hpp:77] Creating layer conv1_2
I0708 19:08:09.365213 17985 net.cpp:100] Creating Layer conv1_2
I0708 19:08:09.365216 17985 net.cpp:434] conv1_2 <- conv1_1
I0708 19:08:09.365221 17985 net.cpp:408] conv1_2 -> conv1_2
I0708 19:08:09.368224 17985 net.cpp:150] Setting up conv1_2
I0708 19:08:09.368248 17985 net.cpp:157] Top shape: 2 64 576 768 (56623104)
I0708 19:08:09.368250 17985 net.cpp:165] Memory required for data: 696261340
I0708 19:08:09.368263 17985 layer_factory.hpp:77] Creating layer relu1_2
I0708 19:08:09.368275 17985 net.cpp:100] Creating Layer relu1_2
I0708 19:08:09.368280 17985 net.cpp:434] relu1_2 <- conv1_2
I0708 19:08:09.368289 17985 net.cpp:395] relu1_2 -> conv1_2 (in-place)
I0708 19:08:09.368717 17985 net.cpp:150] Setting up relu1_2
I0708 19:08:09.368726 17985 net.cpp:157] Top shape: 2 64 576 768 (56623104)
I0708 19:08:09.368728 17985 net.cpp:165] Memory required for data: 922753756
I0708 19:08:09.368731 17985 layer_factory.hpp:77] Creating layer pool1
I0708 19:08:09.368736 17985 net.cpp:100] Creating Layer pool1
I0708 19:08:09.368741 17985 net.cpp:434] pool1 <- conv1_2
I0708 19:08:09.368746 17985 net.cpp:408] pool1 -> pool1
I0708 19:08:09.368813 17985 net.cpp:150] Setting up pool1
I0708 19:08:09.368819 17985 net.cpp:157] Top shape: 2 64 288 384 (14155776)
I0708 19:08:09.368824 17985 net.cpp:165] Memory required for data: 979376860
I0708 19:08:09.368827 17985 layer_factory.hpp:77] Creating layer conv2_1
I0708 19:08:09.368839 17985 net.cpp:100] Creating Layer conv2_1
I0708 19:08:09.368844 17985 net.cpp:434] conv2_1 <- pool1
I0708 19:08:09.368849 17985 net.cpp:408] conv2_1 -> conv2_1
I0708 19:08:09.371009 17985 net.cpp:150] Setting up conv2_1
I0708 19:08:09.371026 17985 net.cpp:157] Top shape: 2 128 288 384 (28311552)
I0708 19:08:09.371029 17985 net.cpp:165] Memory required for data: 1092623068
I0708 19:08:09.371042 17985 layer_factory.hpp:77] Creating layer relu2_1
I0708 19:08:09.371049 17985 net.cpp:100] Creating Layer relu2_1
I0708 19:08:09.371053 17985 net.cpp:434] relu2_1 <- conv2_1
I0708 19:08:09.371060 17985 net.cpp:395] relu2_1 -> conv2_1 (in-place)
I0708 19:08:09.371865 17985 net.cpp:150] Setting up relu2_1
I0708 19:08:09.371873 17985 net.cpp:157] Top shape: 2 128 288 384 (28311552)
I0708 19:08:09.371876 17985 net.cpp:165] Memory required for data: 1205869276
I0708 19:08:09.371878 17985 layer_factory.hpp:77] Creating layer conv2_2
I0708 19:08:09.371889 17985 net.cpp:100] Creating Layer conv2_2
I0708 19:08:09.371894 17985 net.cpp:434] conv2_2 <- conv2_1
I0708 19:08:09.371901 17985 net.cpp:408] conv2_2 -> conv2_2
I0708 19:08:09.375329 17985 net.cpp:150] Setting up conv2_2
I0708 19:08:09.375351 17985 net.cpp:157] Top shape: 2 128 288 384 (28311552)
I0708 19:08:09.375355 17985 net.cpp:165] Memory required for data: 1319115484
I0708 19:08:09.375366 17985 layer_factory.hpp:77] Creating layer relu2_2
I0708 19:08:09.375385 17985 net.cpp:100] Creating Layer relu2_2
I0708 19:08:09.375393 17985 net.cpp:434] relu2_2 <- conv2_2
I0708 19:08:09.375401 17985 net.cpp:395] relu2_2 -> conv2_2 (in-place)
I0708 19:08:09.375808 17985 net.cpp:150] Setting up relu2_2
I0708 19:08:09.375818 17985 net.cpp:157] Top shape: 2 128 288 384 (28311552)
I0708 19:08:09.375819 17985 net.cpp:165] Memory required for data: 1432361692
I0708 19:08:09.375821 17985 layer_factory.hpp:77] Creating layer pool2
I0708 19:08:09.375828 17985 net.cpp:100] Creating Layer pool2
I0708 19:08:09.375833 17985 net.cpp:434] pool2 <- conv2_2
I0708 19:08:09.375840 17985 net.cpp:408] pool2 -> pool2
I0708 19:08:09.375905 17985 net.cpp:150] Setting up pool2
I0708 19:08:09.375910 17985 net.cpp:157] Top shape: 2 128 144 192 (7077888)
I0708 19:08:09.375913 17985 net.cpp:165] Memory required for data: 1460673244
I0708 19:08:09.375916 17985 layer_factory.hpp:77] Creating layer conv3_1
I0708 19:08:09.375926 17985 net.cpp:100] Creating Layer conv3_1
I0708 19:08:09.375929 17985 net.cpp:434] conv3_1 <- pool2
I0708 19:08:09.375936 17985 net.cpp:408] conv3_1 -> conv3_1
I0708 19:08:09.378578 17985 net.cpp:150] Setting up conv3_1
I0708 19:08:09.378597 17985 net.cpp:157] Top shape: 2 256 144 192 (14155776)
I0708 19:08:09.378598 17985 net.cpp:165] Memory required for data: 1517296348
I0708 19:08:09.378613 17985 layer_factory.hpp:77] Creating layer relu3_1
I0708 19:08:09.378623 17985 net.cpp:100] Creating Layer relu3_1
I0708 19:08:09.378628 17985 net.cpp:434] relu3_1 <- conv3_1
I0708 19:08:09.378633 17985 net.cpp:395] relu3_1 -> conv3_1 (in-place)
I0708 19:08:09.378984 17985 net.cpp:150] Setting up relu3_1
I0708 19:08:09.378993 17985 net.cpp:157] Top shape: 2 256 144 192 (14155776)
I0708 19:08:09.378995 17985 net.cpp:165] Memory required for data: 1573919452
I0708 19:08:09.378998 17985 layer_factory.hpp:77] Creating layer conv3_2
I0708 19:08:09.379005 17985 net.cpp:100] Creating Layer conv3_2
I0708 19:08:09.379010 17985 net.cpp:434] conv3_2 <- conv3_1
I0708 19:08:09.379017 17985 net.cpp:408] conv3_2 -> conv3_2
I0708 19:08:09.382364 17985 net.cpp:150] Setting up conv3_2
I0708 19:08:09.382383 17985 net.cpp:157] Top shape: 2 256 144 192 (14155776)
I0708 19:08:09.382385 17985 net.cpp:165] Memory required for data: 1630542556
I0708 19:08:09.382395 17985 layer_factory.hpp:77] Creating layer relu3_2
I0708 19:08:09.382406 17985 net.cpp:100] Creating Layer relu3_2
I0708 19:08:09.382411 17985 net.cpp:434] relu3_2 <- conv3_2
I0708 19:08:09.382417 17985 net.cpp:395] relu3_2 -> conv3_2 (in-place)
I0708 19:08:09.383225 17985 net.cpp:150] Setting up relu3_2
I0708 19:08:09.383236 17985 net.cpp:157] Top shape: 2 256 144 192 (14155776)
I0708 19:08:09.383239 17985 net.cpp:165] Memory required for data: 1687165660
I0708 19:08:09.383241 17985 layer_factory.hpp:77] Creating layer conv3_3
I0708 19:08:09.383252 17985 net.cpp:100] Creating Layer conv3_3
I0708 19:08:09.383257 17985 net.cpp:434] conv3_3 <- conv3_2
I0708 19:08:09.383265 17985 net.cpp:408] conv3_3 -> conv3_3
I0708 19:08:09.386623 17985 net.cpp:150] Setting up conv3_3
I0708 19:08:09.386641 17985 net.cpp:157] Top shape: 2 256 144 192 (14155776)
I0708 19:08:09.386644 17985 net.cpp:165] Memory required for data: 1743788764
I0708 19:08:09.386651 17985 layer_factory.hpp:77] Creating layer relu3_3
I0708 19:08:09.386657 17985 net.cpp:100] Creating Layer relu3_3
I0708 19:08:09.386660 17985 net.cpp:434] relu3_3 <- conv3_3
I0708 19:08:09.386665 17985 net.cpp:395] relu3_3 -> conv3_3 (in-place)
I0708 19:08:09.387471 17985 net.cpp:150] Setting up relu3_3
I0708 19:08:09.387482 17985 net.cpp:157] Top shape: 2 256 144 192 (14155776)
I0708 19:08:09.387485 17985 net.cpp:165] Memory required for data: 1800411868
I0708 19:08:09.387487 17985 layer_factory.hpp:77] Creating layer pool3
I0708 19:08:09.387492 17985 net.cpp:100] Creating Layer pool3
I0708 19:08:09.387495 17985 net.cpp:434] pool3 <- conv3_3
I0708 19:08:09.387501 17985 net.cpp:408] pool3 -> pool3
I0708 19:08:09.387567 17985 net.cpp:150] Setting up pool3
I0708 19:08:09.387575 17985 net.cpp:157] Top shape: 2 256 72 96 (3538944)
I0708 19:08:09.387578 17985 net.cpp:165] Memory required for data: 1814567644
I0708 19:08:09.387581 17985 layer_factory.hpp:77] Creating layer conv4_1
I0708 19:08:09.387589 17985 net.cpp:100] Creating Layer conv4_1
I0708 19:08:09.387593 17985 net.cpp:434] conv4_1 <- pool3
I0708 19:08:09.387598 17985 net.cpp:408] conv4_1 -> conv4_1
I0708 19:08:09.392051 17985 net.cpp:150] Setting up conv4_1
I0708 19:08:09.392071 17985 net.cpp:157] Top shape: 2 512 72 96 (7077888)
I0708 19:08:09.392072 17985 net.cpp:165] Memory required for data: 1842879196
I0708 19:08:09.392079 17985 layer_factory.hpp:77] Creating layer relu4_1
I0708 19:08:09.392086 17985 net.cpp:100] Creating Layer relu4_1
I0708 19:08:09.392088 17985 net.cpp:434] relu4_1 <- conv4_1
I0708 19:08:09.392094 17985 net.cpp:395] relu4_1 -> conv4_1 (in-place)
I0708 19:08:09.392449 17985 net.cpp:150] Setting up relu4_1
I0708 19:08:09.392458 17985 net.cpp:157] Top shape: 2 512 72 96 (7077888)
I0708 19:08:09.392460 17985 net.cpp:165] Memory required for data: 1871190748
I0708 19:08:09.392463 17985 layer_factory.hpp:77] Creating layer conv4_2
I0708 19:08:09.392474 17985 net.cpp:100] Creating Layer conv4_2
I0708 19:08:09.392478 17985 net.cpp:434] conv4_2 <- conv4_1
I0708 19:08:09.392484 17985 net.cpp:408] conv4_2 -> conv4_2
I0708 19:08:09.398833 17985 net.cpp:150] Setting up conv4_2
I0708 19:08:09.398855 17985 net.cpp:157] Top shape: 2 512 72 96 (7077888)
I0708 19:08:09.398857 17985 net.cpp:165] Memory required for data: 1899502300
I0708 19:08:09.398874 17985 layer_factory.hpp:77] Creating layer relu4_2
I0708 19:08:09.398883 17985 net.cpp:100] Creating Layer relu4_2
I0708 19:08:09.398910 17985 net.cpp:434] relu4_2 <- conv4_2
I0708 19:08:09.398921 17985 net.cpp:395] relu4_2 -> conv4_2 (in-place)
I0708 19:08:09.399231 17985 net.cpp:150] Setting up relu4_2
I0708 19:08:09.399241 17985 net.cpp:157] Top shape: 2 512 72 96 (7077888)
I0708 19:08:09.399245 17985 net.cpp:165] Memory required for data: 1927813852
I0708 19:08:09.399248 17985 layer_factory.hpp:77] Creating layer conv4_3
I0708 19:08:09.399258 17985 net.cpp:100] Creating Layer conv4_3
I0708 19:08:09.399262 17985 net.cpp:434] conv4_3 <- conv4_2
I0708 19:08:09.399268 17985 net.cpp:408] conv4_3 -> conv4_3
I0708 19:08:09.405079 17985 net.cpp:150] Setting up conv4_3
I0708 19:08:09.405100 17985 net.cpp:157] Top shape: 2 512 72 96 (7077888)
I0708 19:08:09.405103 17985 net.cpp:165] Memory required for data: 1956125404
I0708 19:08:09.405112 17985 layer_factory.hpp:77] Creating layer relu4_3
I0708 19:08:09.405122 17985 net.cpp:100] Creating Layer relu4_3
I0708 19:08:09.405128 17985 net.cpp:434] relu4_3 <- conv4_3
I0708 19:08:09.405181 17985 net.cpp:395] relu4_3 -> conv4_3 (in-place)
I0708 19:08:09.406002 17985 net.cpp:150] Setting up relu4_3
I0708 19:08:09.406013 17985 net.cpp:157] Top shape: 2 512 72 96 (7077888)
I0708 19:08:09.406018 17985 net.cpp:165] Memory required for data: 1984436956
I0708 19:08:09.406021 17985 layer_factory.hpp:77] Creating layer conv4_3_relu4_3_0_split
I0708 19:08:09.406031 17985 net.cpp:100] Creating Layer conv4_3_relu4_3_0_split
I0708 19:08:09.406035 17985 net.cpp:434] conv4_3_relu4_3_0_split <- conv4_3
I0708 19:08:09.406041 17985 net.cpp:408] conv4_3_relu4_3_0_split -> conv4_3_relu4_3_0_split_0
I0708 19:08:09.406049 17985 net.cpp:408] conv4_3_relu4_3_0_split -> conv4_3_relu4_3_0_split_1
I0708 19:08:09.406057 17985 net.cpp:408] conv4_3_relu4_3_0_split -> conv4_3_relu4_3_0_split_2
I0708 19:08:09.406123 17985 net.cpp:150] Setting up conv4_3_relu4_3_0_split
I0708 19:08:09.406131 17985 net.cpp:157] Top shape: 2 512 72 96 (7077888)
I0708 19:08:09.406134 17985 net.cpp:157] Top shape: 2 512 72 96 (7077888)
I0708 19:08:09.406138 17985 net.cpp:157] Top shape: 2 512 72 96 (7077888)
I0708 19:08:09.406141 17985 net.cpp:165] Memory required for data: 2069371612
I0708 19:08:09.406144 17985 layer_factory.hpp:77] Creating layer loss1_conv1
I0708 19:08:09.406162 17985 net.cpp:100] Creating Layer loss1_conv1
I0708 19:08:09.406165 17985 net.cpp:434] loss1_conv1 <- conv4_3_relu4_3_0_split_0
I0708 19:08:09.406172 17985 net.cpp:408] loss1_conv1 -> loss1_conv1
I0708 19:08:09.428032 17985 net.cpp:150] Setting up loss1_conv1
I0708 19:08:09.428056 17985 net.cpp:157] Top shape: 2 512 72 96 (7077888)
I0708 19:08:09.428058 17985 net.cpp:165] Memory required for data: 2097683164
I0708 19:08:09.428067 17985 layer_factory.hpp:77] Creating layer loss_relu1
I0708 19:08:09.428077 17985 net.cpp:100] Creating Layer loss_relu1
I0708 19:08:09.428082 17985 net.cpp:434] loss_relu1 <- loss1_conv1
I0708 19:08:09.428088 17985 net.cpp:395] loss_relu1 -> loss1_conv1 (in-place)
I0708 19:08:09.428383 17985 net.cpp:150] Setting up loss_relu1
I0708 19:08:09.428396 17985 net.cpp:157] Top shape: 2 512 72 96 (7077888)
I0708 19:08:09.428400 17985 net.cpp:165] Memory required for data: 2125994716
I0708 19:08:09.428403 17985 layer_factory.hpp:77] Creating layer loss1_conv1_loss_relu1_0_split
I0708 19:08:09.428409 17985 net.cpp:100] Creating Layer loss1_conv1_loss_relu1_0_split
I0708 19:08:09.428412 17985 net.cpp:434] loss1_conv1_loss_relu1_0_split <- loss1_conv1
I0708 19:08:09.428421 17985 net.cpp:408] loss1_conv1_loss_relu1_0_split -> loss1_conv1_loss_relu1_0_split_0
I0708 19:08:09.428428 17985 net.cpp:408] loss1_conv1_loss_relu1_0_split -> loss1_conv1_loss_relu1_0_split_1
I0708 19:08:09.428481 17985 net.cpp:150] Setting up loss1_conv1_loss_relu1_0_split
I0708 19:08:09.428488 17985 net.cpp:157] Top shape: 2 512 72 96 (7077888)
I0708 19:08:09.428491 17985 net.cpp:157] Top shape: 2 512 72 96 (7077888)
I0708 19:08:09.428494 17985 net.cpp:165] Memory required for data: 2182617820
I0708 19:08:09.428498 17985 layer_factory.hpp:77] Creating layer LFCN_1_3x5
I0708 19:08:09.428509 17985 net.cpp:100] Creating Layer LFCN_1_3x5
I0708 19:08:09.428514 17985 net.cpp:434] LFCN_1_3x5 <- loss1_conv1_loss_relu1_0_split_0
I0708 19:08:09.428520 17985 net.cpp:408] LFCN_1_3x5 -> LFCN_1_3x5
I0708 19:08:09.430995 17985 net.cpp:150] Setting up LFCN_1_3x5
I0708 19:08:09.431013 17985 net.cpp:157] Top shape: 2 7 72 96 (96768)
I0708 19:08:09.431016 17985 net.cpp:165] Memory required for data: 2183004892
I0708 19:08:09.431025 17985 layer_factory.hpp:77] Creating layer LFCN_1_3x5_LFCN_1_3x5_0_split
I0708 19:08:09.431033 17985 net.cpp:100] Creating Layer LFCN_1_3x5_LFCN_1_3x5_0_split
I0708 19:08:09.431037 17985 net.cpp:434] LFCN_1_3x5_LFCN_1_3x5_0_split <- LFCN_1_3x5
I0708 19:08:09.431046 17985 net.cpp:408] LFCN_1_3x5_LFCN_1_3x5_0_split -> LFCN_1_3x5_LFCN_1_3x5_0_split_0
I0708 19:08:09.431059 17985 net.cpp:408] LFCN_1_3x5_LFCN_1_3x5_0_split -> LFCN_1_3x5_LFCN_1_3x5_0_split_1
I0708 19:08:09.431066 17985 net.cpp:408] LFCN_1_3x5_LFCN_1_3x5_0_split -> LFCN_1_3x5_LFCN_1_3x5_0_split_2
I0708 19:08:09.431128 17985 net.cpp:150] Setting up LFCN_1_3x5_LFCN_1_3x5_0_split
I0708 19:08:09.431134 17985 net.cpp:157] Top shape: 2 7 72 96 (96768)
I0708 19:08:09.431138 17985 net.cpp:157] Top shape: 2 7 72 96 (96768)
I0708 19:08:09.431141 17985 net.cpp:157] Top shape: 2 7 72 96 (96768)
I0708 19:08:09.431144 17985 net.cpp:165] Memory required for data: 2184166108
I0708 19:08:09.431147 17985 layer_factory.hpp:77] Creating layer detection_loss_1_3x5
I0708 19:08:09.431156 17985 net.cpp:100] Creating Layer detection_loss_1_3x5
I0708 19:08:09.431160 17985 net.cpp:434] detection_loss_1_3x5 <- LFCN_1_3x5_LFCN_1_3x5_0_split_0
I0708 19:08:09.431164 17985 net.cpp:434] detection_loss_1_3x5 <- label_1_3x5_data_1_split_0
I0708 19:08:09.431170 17985 net.cpp:408] detection_loss_1_3x5 -> loss_1_3x5
I0708 19:08:09.431181 17985 layer_factory.hpp:77] Creating layer detection_loss_1_3x5
I0708 19:08:09.431659 17985 net.cpp:150] Setting up detection_loss_1_3x5
I0708 19:08:09.431669 17985 net.cpp:157] Top shape: 1 1 1 2 (2)
I0708 19:08:09.431671 17985 net.cpp:160]     with loss weight 0.5
I0708 19:08:09.431680 17985 net.cpp:165] Memory required for data: 2184166116
I0708 19:08:09.431684 17985 layer_factory.hpp:77] Creating layer detection_accuracy_1_3x5
I0708 19:08:09.431691 17985 net.cpp:100] Creating Layer detection_accuracy_1_3x5
I0708 19:08:09.431695 17985 net.cpp:434] detection_accuracy_1_3x5 <- LFCN_1_3x5_LFCN_1_3x5_0_split_1
I0708 19:08:09.431700 17985 net.cpp:434] detection_accuracy_1_3x5 <- label_1_3x5_data_1_split_1
I0708 19:08:09.431707 17985 net.cpp:408] detection_accuracy_1_3x5 -> accuracy_1_3x5
I0708 19:08:09.431715 17985 net.cpp:408] detection_accuracy_1_3x5 -> boxiou_1_3x5
I0708 19:08:09.431764 17985 net.cpp:150] Setting up detection_accuracy_1_3x5
I0708 19:08:09.431769 17985 net.cpp:157] Top shape: 1 1 1 2 (2)
I0708 19:08:09.431773 17985 net.cpp:157] Top shape: 1 1 1 1 (1)
I0708 19:08:09.431777 17985 net.cpp:165] Memory required for data: 2184166128
I0708 19:08:09.431778 17985 layer_factory.hpp:77] Creating layer LFCN_1_5x7
I0708 19:08:09.431789 17985 net.cpp:100] Creating Layer LFCN_1_5x7
I0708 19:08:09.431793 17985 net.cpp:434] LFCN_1_5x7 <- loss1_conv1_loss_relu1_0_split_1
I0708 19:08:09.431802 17985 net.cpp:408] LFCN_1_5x7 -> LFCN_1_5x7
I0708 19:08:09.435528 17985 net.cpp:150] Setting up LFCN_1_5x7
I0708 19:08:09.435549 17985 net.cpp:157] Top shape: 2 7 72 96 (96768)
I0708 19:08:09.435554 17985 net.cpp:165] Memory required for data: 2184553200
I0708 19:08:09.435564 17985 layer_factory.hpp:77] Creating layer LFCN_1_5x7_LFCN_1_5x7_0_split
I0708 19:08:09.435575 17985 net.cpp:100] Creating Layer LFCN_1_5x7_LFCN_1_5x7_0_split
I0708 19:08:09.435580 17985 net.cpp:434] LFCN_1_5x7_LFCN_1_5x7_0_split <- LFCN_1_5x7
I0708 19:08:09.435588 17985 net.cpp:408] LFCN_1_5x7_LFCN_1_5x7_0_split -> LFCN_1_5x7_LFCN_1_5x7_0_split_0
I0708 19:08:09.435597 17985 net.cpp:408] LFCN_1_5x7_LFCN_1_5x7_0_split -> LFCN_1_5x7_LFCN_1_5x7_0_split_1
I0708 19:08:09.435603 17985 net.cpp:408] LFCN_1_5x7_LFCN_1_5x7_0_split -> LFCN_1_5x7_LFCN_1_5x7_0_split_2
I0708 19:08:09.435679 17985 net.cpp:150] Setting up LFCN_1_5x7_LFCN_1_5x7_0_split
I0708 19:08:09.435685 17985 net.cpp:157] Top shape: 2 7 72 96 (96768)
I0708 19:08:09.435689 17985 net.cpp:157] Top shape: 2 7 72 96 (96768)
I0708 19:08:09.435693 17985 net.cpp:157] Top shape: 2 7 72 96 (96768)
I0708 19:08:09.435695 17985 net.cpp:165] Memory required for data: 2185714416
I0708 19:08:09.435698 17985 layer_factory.hpp:77] Creating layer detection_loss_1_5x7
I0708 19:08:09.435706 17985 net.cpp:100] Creating Layer detection_loss_1_5x7
I0708 19:08:09.435710 17985 net.cpp:434] detection_loss_1_5x7 <- LFCN_1_5x7_LFCN_1_5x7_0_split_0
I0708 19:08:09.435715 17985 net.cpp:434] detection_loss_1_5x7 <- label_1_5x7_data_2_split_0
I0708 19:08:09.435722 17985 net.cpp:408] detection_loss_1_5x7 -> loss_1_5x7
I0708 19:08:09.435731 17985 layer_factory.hpp:77] Creating layer detection_loss_1_5x7
I0708 19:08:09.437119 17985 net.cpp:150] Setting up detection_loss_1_5x7
I0708 19:08:09.437132 17985 net.cpp:157] Top shape: 1 1 1 2 (2)
I0708 19:08:09.437135 17985 net.cpp:160]     with loss weight 0.9
I0708 19:08:09.437161 17985 net.cpp:165] Memory required for data: 2185714424
I0708 19:08:09.437165 17985 layer_factory.hpp:77] Creating layer detection_accuracy_1_5x7
I0708 19:08:09.437173 17985 net.cpp:100] Creating Layer detection_accuracy_1_5x7
I0708 19:08:09.437178 17985 net.cpp:434] detection_accuracy_1_5x7 <- LFCN_1_5x7_LFCN_1_5x7_0_split_1
I0708 19:08:09.437185 17985 net.cpp:434] detection_accuracy_1_5x7 <- label_1_5x7_data_2_split_1
I0708 19:08:09.437189 17985 net.cpp:408] detection_accuracy_1_5x7 -> accuracy_1_5x7
I0708 19:08:09.437198 17985 net.cpp:408] detection_accuracy_1_5x7 -> boxiou_1_5x7
I0708 19:08:09.437252 17985 net.cpp:150] Setting up detection_accuracy_1_5x7
I0708 19:08:09.437256 17985 net.cpp:157] Top shape: 1 1 1 2 (2)
I0708 19:08:09.437260 17985 net.cpp:157] Top shape: 1 1 1 1 (1)
I0708 19:08:09.437263 17985 net.cpp:165] Memory required for data: 2185714436
I0708 19:08:09.437265 17985 layer_factory.hpp:77] Creating layer pool4
I0708 19:08:09.437273 17985 net.cpp:100] Creating Layer pool4
I0708 19:08:09.437276 17985 net.cpp:434] pool4 <- conv4_3_relu4_3_0_split_1
I0708 19:08:09.437283 17985 net.cpp:408] pool4 -> pool4
I0708 19:08:09.437332 17985 net.cpp:150] Setting up pool4
I0708 19:08:09.437338 17985 net.cpp:157] Top shape: 2 512 36 48 (1769472)
I0708 19:08:09.437341 17985 net.cpp:165] Memory required for data: 2192792324
I0708 19:08:09.437345 17985 layer_factory.hpp:77] Creating layer conv5_1
I0708 19:08:09.437355 17985 net.cpp:100] Creating Layer conv5_1
I0708 19:08:09.437357 17985 net.cpp:434] conv5_1 <- pool4
I0708 19:08:09.437363 17985 net.cpp:408] conv5_1 -> conv5_1
I0708 19:08:09.446996 17985 net.cpp:150] Setting up conv5_1
I0708 19:08:09.447017 17985 net.cpp:157] Top shape: 2 512 36 48 (1769472)
I0708 19:08:09.447019 17985 net.cpp:165] Memory required for data: 2199870212
I0708 19:08:09.447027 17985 layer_factory.hpp:77] Creating layer relu5_1
I0708 19:08:09.447034 17985 net.cpp:100] Creating Layer relu5_1
I0708 19:08:09.447038 17985 net.cpp:434] relu5_1 <- conv5_1
I0708 19:08:09.447046 17985 net.cpp:395] relu5_1 -> conv5_1 (in-place)
I0708 19:08:09.447417 17985 net.cpp:150] Setting up relu5_1
I0708 19:08:09.447427 17985 net.cpp:157] Top shape: 2 512 36 48 (1769472)
I0708 19:08:09.447428 17985 net.cpp:165] Memory required for data: 2206948100
I0708 19:08:09.447430 17985 layer_factory.hpp:77] Creating layer conv5_2
I0708 19:08:09.447440 17985 net.cpp:100] Creating Layer conv5_2
I0708 19:08:09.447444 17985 net.cpp:434] conv5_2 <- conv5_1
I0708 19:08:09.447451 17985 net.cpp:408] conv5_2 -> conv5_2
I0708 19:08:09.453621 17985 net.cpp:150] Setting up conv5_2
I0708 19:08:09.453640 17985 net.cpp:157] Top shape: 2 512 36 48 (1769472)
I0708 19:08:09.453642 17985 net.cpp:165] Memory required for data: 2214025988
I0708 19:08:09.453649 17985 layer_factory.hpp:77] Creating layer relu5_2
I0708 19:08:09.453656 17985 net.cpp:100] Creating Layer relu5_2
I0708 19:08:09.453660 17985 net.cpp:434] relu5_2 <- conv5_2
I0708 19:08:09.453663 17985 net.cpp:395] relu5_2 -> conv5_2 (in-place)
I0708 19:08:09.454017 17985 net.cpp:150] Setting up relu5_2
I0708 19:08:09.454027 17985 net.cpp:157] Top shape: 2 512 36 48 (1769472)
I0708 19:08:09.454030 17985 net.cpp:165] Memory required for data: 2221103876
I0708 19:08:09.454035 17985 layer_factory.hpp:77] Creating layer conv5_3
I0708 19:08:09.454046 17985 net.cpp:100] Creating Layer conv5_3
I0708 19:08:09.454051 17985 net.cpp:434] conv5_3 <- conv5_2
I0708 19:08:09.454058 17985 net.cpp:408] conv5_3 -> conv5_3
I0708 19:08:09.459991 17985 net.cpp:150] Setting up conv5_3
I0708 19:08:09.460011 17985 net.cpp:157] Top shape: 2 512 36 48 (1769472)
I0708 19:08:09.460013 17985 net.cpp:165] Memory required for data: 2228181764
I0708 19:08:09.460022 17985 layer_factory.hpp:77] Creating layer relu5_3
I0708 19:08:09.460031 17985 net.cpp:100] Creating Layer relu5_3
I0708 19:08:09.460036 17985 net.cpp:434] relu5_3 <- conv5_3
I0708 19:08:09.460045 17985 net.cpp:395] relu5_3 -> conv5_3 (in-place)
I0708 19:08:09.460839 17985 net.cpp:150] Setting up relu5_3
I0708 19:08:09.460850 17985 net.cpp:157] Top shape: 2 512 36 48 (1769472)
I0708 19:08:09.460853 17985 net.cpp:165] Memory required for data: 2235259652
I0708 19:08:09.460857 17985 layer_factory.hpp:77] Creating layer conv5_3_relu5_3_0_split
I0708 19:08:09.460866 17985 net.cpp:100] Creating Layer conv5_3_relu5_3_0_split
I0708 19:08:09.460870 17985 net.cpp:434] conv5_3_relu5_3_0_split <- conv5_3
I0708 19:08:09.460877 17985 net.cpp:408] conv5_3_relu5_3_0_split -> conv5_3_relu5_3_0_split_0
I0708 19:08:09.460886 17985 net.cpp:408] conv5_3_relu5_3_0_split -> conv5_3_relu5_3_0_split_1
I0708 19:08:09.460894 17985 net.cpp:408] conv5_3_relu5_3_0_split -> conv5_3_relu5_3_0_split_2
I0708 19:08:09.460959 17985 net.cpp:150] Setting up conv5_3_relu5_3_0_split
I0708 19:08:09.460965 17985 net.cpp:157] Top shape: 2 512 36 48 (1769472)
I0708 19:08:09.460969 17985 net.cpp:157] Top shape: 2 512 36 48 (1769472)
I0708 19:08:09.460973 17985 net.cpp:157] Top shape: 2 512 36 48 (1769472)
I0708 19:08:09.460976 17985 net.cpp:165] Memory required for data: 2256493316
I0708 19:08:09.460979 17985 layer_factory.hpp:77] Creating layer LFCN_2_3x5
I0708 19:08:09.460989 17985 net.cpp:100] Creating Layer LFCN_2_3x5
I0708 19:08:09.460994 17985 net.cpp:434] LFCN_2_3x5 <- conv5_3_relu5_3_0_split_0
I0708 19:08:09.461001 17985 net.cpp:408] LFCN_2_3x5 -> LFCN_2_3x5
I0708 19:08:09.464059 17985 net.cpp:150] Setting up LFCN_2_3x5
I0708 19:08:09.464077 17985 net.cpp:157] Top shape: 2 7 36 48 (24192)
I0708 19:08:09.464081 17985 net.cpp:165] Memory required for data: 2256590084
I0708 19:08:09.464098 17985 layer_factory.hpp:77] Creating layer LFCN_2_3x5_LFCN_2_3x5_0_split
I0708 19:08:09.464109 17985 net.cpp:100] Creating Layer LFCN_2_3x5_LFCN_2_3x5_0_split
I0708 19:08:09.464115 17985 net.cpp:434] LFCN_2_3x5_LFCN_2_3x5_0_split <- LFCN_2_3x5
I0708 19:08:09.464123 17985 net.cpp:408] LFCN_2_3x5_LFCN_2_3x5_0_split -> LFCN_2_3x5_LFCN_2_3x5_0_split_0
I0708 19:08:09.464143 17985 net.cpp:408] LFCN_2_3x5_LFCN_2_3x5_0_split -> LFCN_2_3x5_LFCN_2_3x5_0_split_1
I0708 19:08:09.464149 17985 net.cpp:408] LFCN_2_3x5_LFCN_2_3x5_0_split -> LFCN_2_3x5_LFCN_2_3x5_0_split_2
I0708 19:08:09.464212 17985 net.cpp:150] Setting up LFCN_2_3x5_LFCN_2_3x5_0_split
I0708 19:08:09.464218 17985 net.cpp:157] Top shape: 2 7 36 48 (24192)
I0708 19:08:09.464223 17985 net.cpp:157] Top shape: 2 7 36 48 (24192)
I0708 19:08:09.464226 17985 net.cpp:157] Top shape: 2 7 36 48 (24192)
I0708 19:08:09.464229 17985 net.cpp:165] Memory required for data: 2256880388
I0708 19:08:09.464232 17985 layer_factory.hpp:77] Creating layer detection_loss_2_3x5
I0708 19:08:09.464241 17985 net.cpp:100] Creating Layer detection_loss_2_3x5
I0708 19:08:09.464246 17985 net.cpp:434] detection_loss_2_3x5 <- LFCN_2_3x5_LFCN_2_3x5_0_split_0
I0708 19:08:09.464251 17985 net.cpp:434] detection_loss_2_3x5 <- label_2_3x5_data_3_split_0
I0708 19:08:09.464257 17985 net.cpp:408] detection_loss_2_3x5 -> loss_2_3x5
I0708 19:08:09.464267 17985 layer_factory.hpp:77] Creating layer detection_loss_2_3x5
I0708 19:08:09.465245 17985 net.cpp:150] Setting up detection_loss_2_3x5
I0708 19:08:09.465255 17985 net.cpp:157] Top shape: 1 1 1 2 (2)
I0708 19:08:09.465257 17985 net.cpp:160]     with loss weight 1
I0708 19:08:09.465266 17985 net.cpp:165] Memory required for data: 2256880396
I0708 19:08:09.465270 17985 layer_factory.hpp:77] Creating layer detection_accuracy_2_3x5
I0708 19:08:09.465279 17985 net.cpp:100] Creating Layer detection_accuracy_2_3x5
I0708 19:08:09.465286 17985 net.cpp:434] detection_accuracy_2_3x5 <- LFCN_2_3x5_LFCN_2_3x5_0_split_1
I0708 19:08:09.465291 17985 net.cpp:434] detection_accuracy_2_3x5 <- label_2_3x5_data_3_split_1
I0708 19:08:09.465296 17985 net.cpp:408] detection_accuracy_2_3x5 -> accuracy_2_3x5
I0708 19:08:09.465304 17985 net.cpp:408] detection_accuracy_2_3x5 -> boxiou_2_3x5
I0708 19:08:09.465353 17985 net.cpp:150] Setting up detection_accuracy_2_3x5
I0708 19:08:09.465358 17985 net.cpp:157] Top shape: 1 1 1 2 (2)
I0708 19:08:09.465361 17985 net.cpp:157] Top shape: 1 1 1 1 (1)
I0708 19:08:09.465364 17985 net.cpp:165] Memory required for data: 2256880408
I0708 19:08:09.465368 17985 layer_factory.hpp:77] Creating layer LFCN_2_5x7
I0708 19:08:09.465378 17985 net.cpp:100] Creating Layer LFCN_2_5x7
I0708 19:08:09.465381 17985 net.cpp:434] LFCN_2_5x7 <- conv5_3_relu5_3_0_split_1
I0708 19:08:09.465389 17985 net.cpp:408] LFCN_2_5x7 -> LFCN_2_5x7
I0708 19:08:09.468343 17985 net.cpp:150] Setting up LFCN_2_5x7
I0708 19:08:09.468359 17985 net.cpp:157] Top shape: 2 7 36 48 (24192)
I0708 19:08:09.468364 17985 net.cpp:165] Memory required for data: 2256977176
I0708 19:08:09.468372 17985 layer_factory.hpp:77] Creating layer LFCN_2_5x7_LFCN_2_5x7_0_split
I0708 19:08:09.468379 17985 net.cpp:100] Creating Layer LFCN_2_5x7_LFCN_2_5x7_0_split
I0708 19:08:09.468384 17985 net.cpp:434] LFCN_2_5x7_LFCN_2_5x7_0_split <- LFCN_2_5x7
I0708 19:08:09.468394 17985 net.cpp:408] LFCN_2_5x7_LFCN_2_5x7_0_split -> LFCN_2_5x7_LFCN_2_5x7_0_split_0
I0708 19:08:09.468403 17985 net.cpp:408] LFCN_2_5x7_LFCN_2_5x7_0_split -> LFCN_2_5x7_LFCN_2_5x7_0_split_1
I0708 19:08:09.468410 17985 net.cpp:408] LFCN_2_5x7_LFCN_2_5x7_0_split -> LFCN_2_5x7_LFCN_2_5x7_0_split_2
I0708 19:08:09.468482 17985 net.cpp:150] Setting up LFCN_2_5x7_LFCN_2_5x7_0_split
I0708 19:08:09.468487 17985 net.cpp:157] Top shape: 2 7 36 48 (24192)
I0708 19:08:09.468492 17985 net.cpp:157] Top shape: 2 7 36 48 (24192)
I0708 19:08:09.468495 17985 net.cpp:157] Top shape: 2 7 36 48 (24192)
I0708 19:08:09.468498 17985 net.cpp:165] Memory required for data: 2257267480
I0708 19:08:09.468502 17985 layer_factory.hpp:77] Creating layer detection_loss_2_5x7
I0708 19:08:09.468508 17985 net.cpp:100] Creating Layer detection_loss_2_5x7
I0708 19:08:09.468513 17985 net.cpp:434] detection_loss_2_5x7 <- LFCN_2_5x7_LFCN_2_5x7_0_split_0
I0708 19:08:09.468518 17985 net.cpp:434] detection_loss_2_5x7 <- label_2_5x7_data_4_split_0
I0708 19:08:09.468525 17985 net.cpp:408] detection_loss_2_5x7 -> loss_2_5x7
I0708 19:08:09.468534 17985 layer_factory.hpp:77] Creating layer detection_loss_2_5x7
I0708 19:08:09.469039 17985 net.cpp:150] Setting up detection_loss_2_5x7
I0708 19:08:09.469048 17985 net.cpp:157] Top shape: 1 1 1 2 (2)
I0708 19:08:09.469051 17985 net.cpp:160]     with loss weight 1
I0708 19:08:09.469060 17985 net.cpp:165] Memory required for data: 2257267488
I0708 19:08:09.469064 17985 layer_factory.hpp:77] Creating layer detection_accuracy_2_5x7
I0708 19:08:09.469071 17985 net.cpp:100] Creating Layer detection_accuracy_2_5x7
I0708 19:08:09.469075 17985 net.cpp:434] detection_accuracy_2_5x7 <- LFCN_2_5x7_LFCN_2_5x7_0_split_1
I0708 19:08:09.469080 17985 net.cpp:434] detection_accuracy_2_5x7 <- label_2_5x7_data_4_split_1
I0708 19:08:09.469089 17985 net.cpp:408] detection_accuracy_2_5x7 -> accuracy_2_5x7
I0708 19:08:09.469097 17985 net.cpp:408] detection_accuracy_2_5x7 -> boxiou_2_5x7
I0708 19:08:09.469154 17985 net.cpp:150] Setting up detection_accuracy_2_5x7
I0708 19:08:09.469161 17985 net.cpp:157] Top shape: 1 1 1 2 (2)
I0708 19:08:09.469164 17985 net.cpp:157] Top shape: 1 1 1 1 (1)
I0708 19:08:09.469166 17985 net.cpp:165] Memory required for data: 2257267500
I0708 19:08:09.469169 17985 layer_factory.hpp:77] Creating layer pool5
I0708 19:08:09.469175 17985 net.cpp:100] Creating Layer pool5
I0708 19:08:09.469179 17985 net.cpp:434] pool5 <- conv5_3_relu5_3_0_split_2
I0708 19:08:09.469187 17985 net.cpp:408] pool5 -> pool5
I0708 19:08:09.469228 17985 net.cpp:150] Setting up pool5
I0708 19:08:09.469233 17985 net.cpp:157] Top shape: 2 512 18 24 (442368)
I0708 19:08:09.469236 17985 net.cpp:165] Memory required for data: 2259036972
I0708 19:08:09.469239 17985 layer_factory.hpp:77] Creating layer conv6_1
I0708 19:08:09.469250 17985 net.cpp:100] Creating Layer conv6_1
I0708 19:08:09.469254 17985 net.cpp:434] conv6_1 <- pool5
I0708 19:08:09.469259 17985 net.cpp:408] conv6_1 -> conv6_1
I0708 19:08:09.497685 17985 net.cpp:150] Setting up conv6_1
I0708 19:08:09.497704 17985 net.cpp:157] Top shape: 2 512 18 24 (442368)
I0708 19:08:09.497706 17985 net.cpp:165] Memory required for data: 2260806444
I0708 19:08:09.497714 17985 layer_factory.hpp:77] Creating layer relu6_1
I0708 19:08:09.497722 17985 net.cpp:100] Creating Layer relu6_1
I0708 19:08:09.497727 17985 net.cpp:434] relu6_1 <- conv6_1
I0708 19:08:09.497735 17985 net.cpp:395] relu6_1 -> conv6_1 (in-place)
I0708 19:08:09.498034 17985 net.cpp:150] Setting up relu6_1
I0708 19:08:09.498044 17985 net.cpp:157] Top shape: 2 512 18 24 (442368)
I0708 19:08:09.498047 17985 net.cpp:165] Memory required for data: 2262575916
I0708 19:08:09.498051 17985 layer_factory.hpp:77] Creating layer conv6_1_relu6_1_0_split
I0708 19:08:09.498057 17985 net.cpp:100] Creating Layer conv6_1_relu6_1_0_split
I0708 19:08:09.498061 17985 net.cpp:434] conv6_1_relu6_1_0_split <- conv6_1
I0708 19:08:09.498069 17985 net.cpp:408] conv6_1_relu6_1_0_split -> conv6_1_relu6_1_0_split_0
I0708 19:08:09.498077 17985 net.cpp:408] conv6_1_relu6_1_0_split -> conv6_1_relu6_1_0_split_1
I0708 19:08:09.498085 17985 net.cpp:408] conv6_1_relu6_1_0_split -> conv6_1_relu6_1_0_split_2
I0708 19:08:09.498149 17985 net.cpp:150] Setting up conv6_1_relu6_1_0_split
I0708 19:08:09.498155 17985 net.cpp:157] Top shape: 2 512 18 24 (442368)
I0708 19:08:09.498159 17985 net.cpp:157] Top shape: 2 512 18 24 (442368)
I0708 19:08:09.498162 17985 net.cpp:157] Top shape: 2 512 18 24 (442368)
I0708 19:08:09.498165 17985 net.cpp:165] Memory required for data: 2267884332
I0708 19:08:09.498168 17985 layer_factory.hpp:77] Creating layer LFCN_3_3x5
I0708 19:08:09.498178 17985 net.cpp:100] Creating Layer LFCN_3_3x5
I0708 19:08:09.498181 17985 net.cpp:434] LFCN_3_3x5 <- conv6_1_relu6_1_0_split_0
I0708 19:08:09.498189 17985 net.cpp:408] LFCN_3_3x5 -> LFCN_3_3x5
I0708 19:08:09.500612 17985 net.cpp:150] Setting up LFCN_3_3x5
I0708 19:08:09.500628 17985 net.cpp:157] Top shape: 2 7 18 24 (6048)
I0708 19:08:09.500632 17985 net.cpp:165] Memory required for data: 2267908524
I0708 19:08:09.500640 17985 layer_factory.hpp:77] Creating layer LFCN_3_3x5_LFCN_3_3x5_0_split
I0708 19:08:09.500658 17985 net.cpp:100] Creating Layer LFCN_3_3x5_LFCN_3_3x5_0_split
I0708 19:08:09.500663 17985 net.cpp:434] LFCN_3_3x5_LFCN_3_3x5_0_split <- LFCN_3_3x5
I0708 19:08:09.500670 17985 net.cpp:408] LFCN_3_3x5_LFCN_3_3x5_0_split -> LFCN_3_3x5_LFCN_3_3x5_0_split_0
I0708 19:08:09.500679 17985 net.cpp:408] LFCN_3_3x5_LFCN_3_3x5_0_split -> LFCN_3_3x5_LFCN_3_3x5_0_split_1
I0708 19:08:09.500685 17985 net.cpp:408] LFCN_3_3x5_LFCN_3_3x5_0_split -> LFCN_3_3x5_LFCN_3_3x5_0_split_2
I0708 19:08:09.500751 17985 net.cpp:150] Setting up LFCN_3_3x5_LFCN_3_3x5_0_split
I0708 19:08:09.500762 17985 net.cpp:157] Top shape: 2 7 18 24 (6048)
I0708 19:08:09.500766 17985 net.cpp:157] Top shape: 2 7 18 24 (6048)
I0708 19:08:09.500769 17985 net.cpp:157] Top shape: 2 7 18 24 (6048)
I0708 19:08:09.500772 17985 net.cpp:165] Memory required for data: 2267981100
I0708 19:08:09.500775 17985 layer_factory.hpp:77] Creating layer detection_loss_3_3x5
I0708 19:08:09.500784 17985 net.cpp:100] Creating Layer detection_loss_3_3x5
I0708 19:08:09.500788 17985 net.cpp:434] detection_loss_3_3x5 <- LFCN_3_3x5_LFCN_3_3x5_0_split_0
I0708 19:08:09.500792 17985 net.cpp:434] detection_loss_3_3x5 <- label_3_3x5_data_5_split_0
I0708 19:08:09.500799 17985 net.cpp:408] detection_loss_3_3x5 -> loss_3_3x5
I0708 19:08:09.500809 17985 layer_factory.hpp:77] Creating layer detection_loss_3_3x5
I0708 19:08:09.501783 17985 net.cpp:150] Setting up detection_loss_3_3x5
I0708 19:08:09.501794 17985 net.cpp:157] Top shape: 1 1 1 2 (2)
I0708 19:08:09.501796 17985 net.cpp:160]     with loss weight 1
I0708 19:08:09.501806 17985 net.cpp:165] Memory required for data: 2267981108
I0708 19:08:09.501811 17985 layer_factory.hpp:77] Creating layer detection_accuracy_3_3x5
I0708 19:08:09.501819 17985 net.cpp:100] Creating Layer detection_accuracy_3_3x5
I0708 19:08:09.501823 17985 net.cpp:434] detection_accuracy_3_3x5 <- LFCN_3_3x5_LFCN_3_3x5_0_split_1
I0708 19:08:09.501827 17985 net.cpp:434] detection_accuracy_3_3x5 <- label_3_3x5_data_5_split_1
I0708 19:08:09.501835 17985 net.cpp:408] detection_accuracy_3_3x5 -> accuracy_3_3x5
I0708 19:08:09.501842 17985 net.cpp:408] detection_accuracy_3_3x5 -> boxiou_3_3x5
I0708 19:08:09.501890 17985 net.cpp:150] Setting up detection_accuracy_3_3x5
I0708 19:08:09.501896 17985 net.cpp:157] Top shape: 1 1 1 2 (2)
I0708 19:08:09.501899 17985 net.cpp:157] Top shape: 1 1 1 1 (1)
I0708 19:08:09.501902 17985 net.cpp:165] Memory required for data: 2267981120
I0708 19:08:09.501904 17985 layer_factory.hpp:77] Creating layer LFCN_3_5x7
I0708 19:08:09.501914 17985 net.cpp:100] Creating Layer LFCN_3_5x7
I0708 19:08:09.501917 17985 net.cpp:434] LFCN_3_5x7 <- conv6_1_relu6_1_0_split_1
I0708 19:08:09.501925 17985 net.cpp:408] LFCN_3_5x7 -> LFCN_3_5x7
I0708 19:08:09.504645 17985 net.cpp:150] Setting up LFCN_3_5x7
I0708 19:08:09.504664 17985 net.cpp:157] Top shape: 2 7 18 24 (6048)
I0708 19:08:09.504667 17985 net.cpp:165] Memory required for data: 2268005312
I0708 19:08:09.504674 17985 layer_factory.hpp:77] Creating layer LFCN_3_5x7_LFCN_3_5x7_0_split
I0708 19:08:09.504683 17985 net.cpp:100] Creating Layer LFCN_3_5x7_LFCN_3_5x7_0_split
I0708 19:08:09.504688 17985 net.cpp:434] LFCN_3_5x7_LFCN_3_5x7_0_split <- LFCN_3_5x7
I0708 19:08:09.504698 17985 net.cpp:408] LFCN_3_5x7_LFCN_3_5x7_0_split -> LFCN_3_5x7_LFCN_3_5x7_0_split_0
I0708 19:08:09.504705 17985 net.cpp:408] LFCN_3_5x7_LFCN_3_5x7_0_split -> LFCN_3_5x7_LFCN_3_5x7_0_split_1
I0708 19:08:09.504712 17985 net.cpp:408] LFCN_3_5x7_LFCN_3_5x7_0_split -> LFCN_3_5x7_LFCN_3_5x7_0_split_2
I0708 19:08:09.504794 17985 net.cpp:150] Setting up LFCN_3_5x7_LFCN_3_5x7_0_split
I0708 19:08:09.504801 17985 net.cpp:157] Top shape: 2 7 18 24 (6048)
I0708 19:08:09.504806 17985 net.cpp:157] Top shape: 2 7 18 24 (6048)
I0708 19:08:09.504809 17985 net.cpp:157] Top shape: 2 7 18 24 (6048)
I0708 19:08:09.504812 17985 net.cpp:165] Memory required for data: 2268077888
I0708 19:08:09.504817 17985 layer_factory.hpp:77] Creating layer detection_loss_3_5x7
I0708 19:08:09.504824 17985 net.cpp:100] Creating Layer detection_loss_3_5x7
I0708 19:08:09.504828 17985 net.cpp:434] detection_loss_3_5x7 <- LFCN_3_5x7_LFCN_3_5x7_0_split_0
I0708 19:08:09.504834 17985 net.cpp:434] detection_loss_3_5x7 <- label_3_5x7_data_6_split_0
I0708 19:08:09.504839 17985 net.cpp:408] detection_loss_3_5x7 -> loss_3_5x7
I0708 19:08:09.504849 17985 layer_factory.hpp:77] Creating layer detection_loss_3_5x7
I0708 19:08:09.505484 17985 net.cpp:150] Setting up detection_loss_3_5x7
I0708 19:08:09.505493 17985 net.cpp:157] Top shape: 1 1 1 2 (2)
I0708 19:08:09.505497 17985 net.cpp:160]     with loss weight 1
I0708 19:08:09.505504 17985 net.cpp:165] Memory required for data: 2268077896
I0708 19:08:09.505508 17985 layer_factory.hpp:77] Creating layer detection_accuracy_3_5x7
I0708 19:08:09.505517 17985 net.cpp:100] Creating Layer detection_accuracy_3_5x7
I0708 19:08:09.505520 17985 net.cpp:434] detection_accuracy_3_5x7 <- LFCN_3_5x7_LFCN_3_5x7_0_split_1
I0708 19:08:09.505525 17985 net.cpp:434] detection_accuracy_3_5x7 <- label_3_5x7_data_6_split_1
I0708 19:08:09.505532 17985 net.cpp:408] detection_accuracy_3_5x7 -> accuracy_3_5x7
I0708 19:08:09.505540 17985 net.cpp:408] detection_accuracy_3_5x7 -> boxiou_3_5x7
I0708 19:08:09.505599 17985 net.cpp:150] Setting up detection_accuracy_3_5x7
I0708 19:08:09.505605 17985 net.cpp:157] Top shape: 1 1 1 2 (2)
I0708 19:08:09.505609 17985 net.cpp:157] Top shape: 1 1 1 1 (1)
I0708 19:08:09.505612 17985 net.cpp:165] Memory required for data: 2268077908
I0708 19:08:09.505615 17985 layer_factory.hpp:77] Creating layer pool6
I0708 19:08:09.505622 17985 net.cpp:100] Creating Layer pool6
I0708 19:08:09.505626 17985 net.cpp:434] pool6 <- conv6_1_relu6_1_0_split_2
I0708 19:08:09.505631 17985 net.cpp:408] pool6 -> pool6
I0708 19:08:09.505683 17985 net.cpp:150] Setting up pool6
I0708 19:08:09.505690 17985 net.cpp:157] Top shape: 2 512 9 12 (110592)
I0708 19:08:09.505693 17985 net.cpp:165] Memory required for data: 2268520276
I0708 19:08:09.505697 17985 layer_factory.hpp:77] Creating layer LFCN_4_3x5
I0708 19:08:09.505707 17985 net.cpp:100] Creating Layer LFCN_4_3x5
I0708 19:08:09.505709 17985 net.cpp:434] LFCN_4_3x5 <- pool6
I0708 19:08:09.505717 17985 net.cpp:408] LFCN_4_3x5 -> LFCN_4_3x5
I0708 19:08:09.508988 17985 net.cpp:150] Setting up LFCN_4_3x5
I0708 19:08:09.509002 17985 net.cpp:157] Top shape: 2 7 9 12 (1512)
I0708 19:08:09.509004 17985 net.cpp:165] Memory required for data: 2268526324
I0708 19:08:09.509013 17985 layer_factory.hpp:77] Creating layer LFCN_4_3x5_LFCN_4_3x5_0_split
I0708 19:08:09.509023 17985 net.cpp:100] Creating Layer LFCN_4_3x5_LFCN_4_3x5_0_split
I0708 19:08:09.509030 17985 net.cpp:434] LFCN_4_3x5_LFCN_4_3x5_0_split <- LFCN_4_3x5
I0708 19:08:09.509040 17985 net.cpp:408] LFCN_4_3x5_LFCN_4_3x5_0_split -> LFCN_4_3x5_LFCN_4_3x5_0_split_0
I0708 19:08:09.509050 17985 net.cpp:408] LFCN_4_3x5_LFCN_4_3x5_0_split -> LFCN_4_3x5_LFCN_4_3x5_0_split_1
I0708 19:08:09.509057 17985 net.cpp:408] LFCN_4_3x5_LFCN_4_3x5_0_split -> LFCN_4_3x5_LFCN_4_3x5_0_split_2
I0708 19:08:09.509166 17985 net.cpp:150] Setting up LFCN_4_3x5_LFCN_4_3x5_0_split
I0708 19:08:09.509173 17985 net.cpp:157] Top shape: 2 7 9 12 (1512)
I0708 19:08:09.509177 17985 net.cpp:157] Top shape: 2 7 9 12 (1512)
I0708 19:08:09.509181 17985 net.cpp:157] Top shape: 2 7 9 12 (1512)
I0708 19:08:09.509183 17985 net.cpp:165] Memory required for data: 2268544468
I0708 19:08:09.509187 17985 layer_factory.hpp:77] Creating layer detection_loss_4_3x5
I0708 19:08:09.509196 17985 net.cpp:100] Creating Layer detection_loss_4_3x5
I0708 19:08:09.509199 17985 net.cpp:434] detection_loss_4_3x5 <- LFCN_4_3x5_LFCN_4_3x5_0_split_0
I0708 19:08:09.509205 17985 net.cpp:434] detection_loss_4_3x5 <- label_4_3x5_data_7_split_0
I0708 19:08:09.509212 17985 net.cpp:408] detection_loss_4_3x5 -> loss_4_3x5
I0708 19:08:09.509220 17985 layer_factory.hpp:77] Creating layer detection_loss_4_3x5
I0708 19:08:09.509878 17985 net.cpp:150] Setting up detection_loss_4_3x5
I0708 19:08:09.509887 17985 net.cpp:157] Top shape: 1 1 1 2 (2)
I0708 19:08:09.509891 17985 net.cpp:160]     with loss weight 1
I0708 19:08:09.509898 17985 net.cpp:165] Memory required for data: 2268544476
I0708 19:08:09.509902 17985 layer_factory.hpp:77] Creating layer detection_accuracy_4_3x5
I0708 19:08:09.509910 17985 net.cpp:100] Creating Layer detection_accuracy_4_3x5
I0708 19:08:09.509914 17985 net.cpp:434] detection_accuracy_4_3x5 <- LFCN_4_3x5_LFCN_4_3x5_0_split_1
I0708 19:08:09.509919 17985 net.cpp:434] detection_accuracy_4_3x5 <- label_4_3x5_data_7_split_1
I0708 19:08:09.509927 17985 net.cpp:408] detection_accuracy_4_3x5 -> accuracy_4_3x5
I0708 19:08:09.509934 17985 net.cpp:408] detection_accuracy_4_3x5 -> boxiou_4_3x5
I0708 19:08:09.509994 17985 net.cpp:150] Setting up detection_accuracy_4_3x5
I0708 19:08:09.509999 17985 net.cpp:157] Top shape: 1 1 1 2 (2)
I0708 19:08:09.510004 17985 net.cpp:157] Top shape: 1 1 1 1 (1)
I0708 19:08:09.510006 17985 net.cpp:165] Memory required for data: 2268544488
I0708 19:08:09.510010 17985 layer_factory.hpp:77] Creating layer proposals
I0708 19:08:09.510017 17985 net.cpp:100] Creating Layer proposals
I0708 19:08:09.510020 17985 net.cpp:434] proposals <- LFCN_1_3x5_LFCN_1_3x5_0_split_2
I0708 19:08:09.510025 17985 net.cpp:434] proposals <- LFCN_1_5x7_LFCN_1_5x7_0_split_2
I0708 19:08:09.510030 17985 net.cpp:434] proposals <- LFCN_2_3x5_LFCN_2_3x5_0_split_2
I0708 19:08:09.510033 17985 net.cpp:434] proposals <- LFCN_2_5x7_LFCN_2_5x7_0_split_2
I0708 19:08:09.510037 17985 net.cpp:434] proposals <- LFCN_3_3x5_LFCN_3_3x5_0_split_2
I0708 19:08:09.510041 17985 net.cpp:434] proposals <- LFCN_3_5x7_LFCN_3_5x7_0_split_2
I0708 19:08:09.510044 17985 net.cpp:434] proposals <- LFCN_4_3x5_LFCN_4_3x5_0_split_2
I0708 19:08:09.510052 17985 net.cpp:408] proposals -> proposals
I0708 19:08:09.510085 17985 net.cpp:150] Setting up proposals
I0708 19:08:09.510092 17985 net.cpp:157] Top shape: 1 5 1 1 (5)
I0708 19:08:09.510093 17985 net.cpp:165] Memory required for data: 2268544508
I0708 19:08:09.510097 17985 layer_factory.hpp:77] Creating layer proposal_info
I0708 19:08:09.510104 17985 net.cpp:100] Creating Layer proposal_info
I0708 19:08:09.510107 17985 net.cpp:434] proposal_info <- proposals
I0708 19:08:09.510112 17985 net.cpp:434] proposal_info <- gt_boxes
I0708 19:08:09.510118 17985 net.cpp:408] proposal_info -> rois
I0708 19:08:09.510126 17985 net.cpp:408] proposal_info -> proposal_labels
I0708 19:08:09.510133 17985 net.cpp:408] proposal_info -> proposal_targets
I0708 19:08:09.510141 17985 net.cpp:408] proposal_info -> box_inside_weights
I0708 19:08:09.510149 17985 net.cpp:408] proposal_info -> box_outside_weights
I0708 19:08:09.510155 17985 net.cpp:408] proposal_info -> match_gt_boxes
I0708 19:08:09.510282 17985 net.cpp:150] Setting up proposal_info
I0708 19:08:09.510289 17985 net.cpp:157] Top shape: 64 5 1 1 (320)
I0708 19:08:09.510293 17985 net.cpp:157] Top shape: 64 1 1 1 (64)
I0708 19:08:09.510296 17985 net.cpp:157] Top shape: 64 12 1 1 (768)
I0708 19:08:09.510300 17985 net.cpp:157] Top shape: 64 12 1 1 (768)
I0708 19:08:09.510304 17985 net.cpp:157] Top shape: 64 12 1 1 (768)
I0708 19:08:09.510308 17985 net.cpp:157] Top shape: 64 6 1 1 (384)
I0708 19:08:09.510310 17985 net.cpp:165] Memory required for data: 2268556796
I0708 19:08:09.510313 17985 layer_factory.hpp:77] Creating layer rois_proposal_info_0_split
I0708 19:08:09.510319 17985 net.cpp:100] Creating Layer rois_proposal_info_0_split
I0708 19:08:09.510323 17985 net.cpp:434] rois_proposal_info_0_split <- rois
I0708 19:08:09.510329 17985 net.cpp:408] rois_proposal_info_0_split -> rois_proposal_info_0_split_0
I0708 19:08:09.510334 17985 net.cpp:408] rois_proposal_info_0_split -> rois_proposal_info_0_split_1
I0708 19:08:09.510340 17985 net.cpp:408] rois_proposal_info_0_split -> rois_proposal_info_0_split_2
I0708 19:08:09.510408 17985 net.cpp:150] Setting up rois_proposal_info_0_split
I0708 19:08:09.510414 17985 net.cpp:157] Top shape: 64 5 1 1 (320)
I0708 19:08:09.510417 17985 net.cpp:157] Top shape: 64 5 1 1 (320)
I0708 19:08:09.510421 17985 net.cpp:157] Top shape: 64 5 1 1 (320)
I0708 19:08:09.510424 17985 net.cpp:165] Memory required for data: 2268560636
I0708 19:08:09.510427 17985 layer_factory.hpp:77] Creating layer proposal_labels_proposal_info_1_split
I0708 19:08:09.510433 17985 net.cpp:100] Creating Layer proposal_labels_proposal_info_1_split
I0708 19:08:09.510437 17985 net.cpp:434] proposal_labels_proposal_info_1_split <- proposal_labels
I0708 19:08:09.510442 17985 net.cpp:408] proposal_labels_proposal_info_1_split -> proposal_labels_proposal_info_1_split_0
I0708 19:08:09.510447 17985 net.cpp:408] proposal_labels_proposal_info_1_split -> proposal_labels_proposal_info_1_split_1
I0708 19:08:09.510494 17985 net.cpp:150] Setting up proposal_labels_proposal_info_1_split
I0708 19:08:09.510500 17985 net.cpp:157] Top shape: 64 1 1 1 (64)
I0708 19:08:09.510504 17985 net.cpp:157] Top shape: 64 1 1 1 (64)
I0708 19:08:09.510506 17985 net.cpp:165] Memory required for data: 2268561148
I0708 19:08:09.510509 17985 layer_factory.hpp:77] Creating layer conv4_3_2x
I0708 19:08:09.510516 17985 net.cpp:100] Creating Layer conv4_3_2x
I0708 19:08:09.510520 17985 net.cpp:434] conv4_3_2x <- conv4_3_relu4_3_0_split_2
I0708 19:08:09.510527 17985 net.cpp:408] conv4_3_2x -> conv4_3_2x
I0708 19:08:09.511188 17985 net.cpp:150] Setting up conv4_3_2x
I0708 19:08:09.511195 17985 net.cpp:157] Top shape: 2 512 144 192 (28311552)
I0708 19:08:09.511198 17985 net.cpp:165] Memory required for data: 2381807356
I0708 19:08:09.511204 17985 layer_factory.hpp:77] Creating layer conv4_3_2x_conv4_3_2x_0_split
I0708 19:08:09.511209 17985 net.cpp:100] Creating Layer conv4_3_2x_conv4_3_2x_0_split
I0708 19:08:09.511214 17985 net.cpp:434] conv4_3_2x_conv4_3_2x_0_split <- conv4_3_2x
I0708 19:08:09.511219 17985 net.cpp:408] conv4_3_2x_conv4_3_2x_0_split -> conv4_3_2x_conv4_3_2x_0_split_0
I0708 19:08:09.511224 17985 net.cpp:408] conv4_3_2x_conv4_3_2x_0_split -> conv4_3_2x_conv4_3_2x_0_split_1
I0708 19:08:09.511272 17985 net.cpp:150] Setting up conv4_3_2x_conv4_3_2x_0_split
I0708 19:08:09.511279 17985 net.cpp:157] Top shape: 2 512 144 192 (28311552)
I0708 19:08:09.511283 17985 net.cpp:157] Top shape: 2 512 144 192 (28311552)
I0708 19:08:09.511286 17985 net.cpp:165] Memory required for data: 2608299772
I0708 19:08:09.511289 17985 layer_factory.hpp:77] Creating layer roi_pool_org
I0708 19:08:09.511296 17985 net.cpp:100] Creating Layer roi_pool_org
I0708 19:08:09.511298 17985 net.cpp:434] roi_pool_org <- conv4_3_2x_conv4_3_2x_0_split_0
I0708 19:08:09.511303 17985 net.cpp:434] roi_pool_org <- rois_proposal_info_0_split_0
I0708 19:08:09.511310 17985 net.cpp:408] roi_pool_org -> roi_pool_org
I0708 19:08:09.511317 17985 roi_pooling_layer.cpp:33] Spatial scale: 0.25
I0708 19:08:09.511361 17985 net.cpp:150] Setting up roi_pool_org
I0708 19:08:09.511368 17985 net.cpp:157] Top shape: 64 512 7 5 (1146880)
I0708 19:08:09.511369 17985 net.cpp:165] Memory required for data: 2612887292
I0708 19:08:09.511371 17985 layer_factory.hpp:77] Creating layer roi_pool_ctx
I0708 19:08:09.511376 17985 net.cpp:100] Creating Layer roi_pool_ctx
I0708 19:08:09.511379 17985 net.cpp:434] roi_pool_ctx <- conv4_3_2x_conv4_3_2x_0_split_1
I0708 19:08:09.511384 17985 net.cpp:434] roi_pool_ctx <- rois_proposal_info_0_split_1
I0708 19:08:09.511389 17985 net.cpp:408] roi_pool_ctx -> roi_pool_ctx
I0708 19:08:09.511395 17985 roi_pooling_layer.cpp:33] Spatial scale: 0.25
I0708 19:08:09.511433 17985 net.cpp:150] Setting up roi_pool_ctx
I0708 19:08:09.511438 17985 net.cpp:157] Top shape: 64 512 7 5 (1146880)
I0708 19:08:09.511440 17985 net.cpp:165] Memory required for data: 2617474812
I0708 19:08:09.511442 17985 layer_factory.hpp:77] Creating layer roi_pool
I0708 19:08:09.511448 17985 net.cpp:100] Creating Layer roi_pool
I0708 19:08:09.511451 17985 net.cpp:434] roi_pool <- roi_pool_org
I0708 19:08:09.511456 17985 net.cpp:434] roi_pool <- roi_pool_ctx
I0708 19:08:09.511461 17985 net.cpp:408] roi_pool -> roi_pool
I0708 19:08:09.511484 17985 net.cpp:150] Setting up roi_pool
I0708 19:08:09.511489 17985 net.cpp:157] Top shape: 64 1024 7 5 (2293760)
I0708 19:08:09.511492 17985 net.cpp:165] Memory required for data: 2626649852
I0708 19:08:09.511493 17985 layer_factory.hpp:77] Creating layer roi_c1
I0708 19:08:09.511502 17985 net.cpp:100] Creating Layer roi_c1
I0708 19:08:09.511504 17985 net.cpp:434] roi_c1 <- roi_pool
I0708 19:08:09.511510 17985 net.cpp:408] roi_c1 -> roi_c1
I0708 19:08:09.552650 17985 net.cpp:150] Setting up roi_c1
I0708 19:08:09.552670 17985 net.cpp:157] Top shape: 64 512 5 3 (491520)
I0708 19:08:09.552671 17985 net.cpp:165] Memory required for data: 2628615932
I0708 19:08:09.552678 17985 layer_factory.hpp:77] Creating layer roi_c1_relu
I0708 19:08:09.552690 17985 net.cpp:100] Creating Layer roi_c1_relu
I0708 19:08:09.552695 17985 net.cpp:434] roi_c1_relu <- roi_c1
I0708 19:08:09.552700 17985 net.cpp:395] roi_c1_relu -> roi_c1 (in-place)
I0708 19:08:09.553599 17985 net.cpp:150] Setting up roi_c1_relu
I0708 19:08:09.553611 17985 net.cpp:157] Top shape: 64 512 5 3 (491520)
I0708 19:08:09.553613 17985 net.cpp:165] Memory required for data: 2630582012
I0708 19:08:09.553617 17985 layer_factory.hpp:77] Creating layer fc6
I0708 19:08:09.553627 17985 net.cpp:100] Creating Layer fc6
I0708 19:08:09.553632 17985 net.cpp:434] fc6 <- roi_c1
I0708 19:08:09.553639 17985 net.cpp:408] fc6 -> fc6
I0708 19:08:09.678478 17985 net.cpp:150] Setting up fc6
I0708 19:08:09.678496 17985 net.cpp:157] Top shape: 64 2048 (131072)
I0708 19:08:09.678498 17985 net.cpp:165] Memory required for data: 2631106300
I0708 19:08:09.678505 17985 layer_factory.hpp:77] Creating layer relu6
I0708 19:08:09.678511 17985 net.cpp:100] Creating Layer relu6
I0708 19:08:09.678514 17985 net.cpp:434] relu6 <- fc6
I0708 19:08:09.678519 17985 net.cpp:395] relu6 -> fc6 (in-place)
I0708 19:08:09.678921 17985 net.cpp:150] Setting up relu6
I0708 19:08:09.678931 17985 net.cpp:157] Top shape: 64 2048 (131072)
I0708 19:08:09.678933 17985 net.cpp:165] Memory required for data: 2631630588
I0708 19:08:09.678936 17985 layer_factory.hpp:77] Creating layer drop6
I0708 19:08:09.678941 17985 net.cpp:100] Creating Layer drop6
I0708 19:08:09.678943 17985 net.cpp:434] drop6 <- fc6
I0708 19:08:09.678947 17985 net.cpp:395] drop6 -> fc6 (in-place)
I0708 19:08:09.678977 17985 net.cpp:150] Setting up drop6
I0708 19:08:09.678985 17985 net.cpp:157] Top shape: 64 2048 (131072)
I0708 19:08:09.678988 17985 net.cpp:165] Memory required for data: 2632154876
I0708 19:08:09.678992 17985 layer_factory.hpp:77] Creating layer fc6_drop6_0_split
I0708 19:08:09.678997 17985 net.cpp:100] Creating Layer fc6_drop6_0_split
I0708 19:08:09.678999 17985 net.cpp:434] fc6_drop6_0_split <- fc6
I0708 19:08:09.679004 17985 net.cpp:408] fc6_drop6_0_split -> fc6_drop6_0_split_0
I0708 19:08:09.679013 17985 net.cpp:408] fc6_drop6_0_split -> fc6_drop6_0_split_1
I0708 19:08:09.679069 17985 net.cpp:150] Setting up fc6_drop6_0_split
I0708 19:08:09.679075 17985 net.cpp:157] Top shape: 64 2048 (131072)
I0708 19:08:09.679078 17985 net.cpp:157] Top shape: 64 2048 (131072)
I0708 19:08:09.679081 17985 net.cpp:165] Memory required for data: 2633203452
I0708 19:08:09.679085 17985 layer_factory.hpp:77] Creating layer cls_pred
I0708 19:08:09.679092 17985 net.cpp:100] Creating Layer cls_pred
I0708 19:08:09.679095 17985 net.cpp:434] cls_pred <- fc6_drop6_0_split_0
I0708 19:08:09.679102 17985 net.cpp:408] cls_pred -> cls_pred
I0708 19:08:09.679342 17985 net.cpp:150] Setting up cls_pred
I0708 19:08:09.679352 17985 net.cpp:157] Top shape: 64 3 (192)
I0708 19:08:09.679354 17985 net.cpp:165] Memory required for data: 2633204220
I0708 19:08:09.679361 17985 layer_factory.hpp:77] Creating layer cls_pred_cls_pred_0_split
I0708 19:08:09.679366 17985 net.cpp:100] Creating Layer cls_pred_cls_pred_0_split
I0708 19:08:09.679369 17985 net.cpp:434] cls_pred_cls_pred_0_split <- cls_pred
I0708 19:08:09.679375 17985 net.cpp:408] cls_pred_cls_pred_0_split -> cls_pred_cls_pred_0_split_0
I0708 19:08:09.679383 17985 net.cpp:408] cls_pred_cls_pred_0_split -> cls_pred_cls_pred_0_split_1
I0708 19:08:09.679447 17985 net.cpp:150] Setting up cls_pred_cls_pred_0_split
I0708 19:08:09.679452 17985 net.cpp:157] Top shape: 64 3 (192)
I0708 19:08:09.679456 17985 net.cpp:157] Top shape: 64 3 (192)
I0708 19:08:09.679460 17985 net.cpp:165] Memory required for data: 2633205756
I0708 19:08:09.679461 17985 layer_factory.hpp:77] Creating layer bbox_pred
I0708 19:08:09.679467 17985 net.cpp:100] Creating Layer bbox_pred
I0708 19:08:09.679471 17985 net.cpp:434] bbox_pred <- fc6_drop6_0_split_1
I0708 19:08:09.679477 17985 net.cpp:408] bbox_pred -> bbox_pred
I0708 19:08:09.679922 17985 net.cpp:150] Setting up bbox_pred
I0708 19:08:09.679930 17985 net.cpp:157] Top shape: 64 12 (768)
I0708 19:08:09.679934 17985 net.cpp:165] Memory required for data: 2633208828
I0708 19:08:09.679939 17985 layer_factory.hpp:77] Creating layer bbox_pred_bbox_pred_0_split
I0708 19:08:09.679944 17985 net.cpp:100] Creating Layer bbox_pred_bbox_pred_0_split
I0708 19:08:09.679949 17985 net.cpp:434] bbox_pred_bbox_pred_0_split <- bbox_pred
I0708 19:08:09.679955 17985 net.cpp:408] bbox_pred_bbox_pred_0_split -> bbox_pred_bbox_pred_0_split_0
I0708 19:08:09.679961 17985 net.cpp:408] bbox_pred_bbox_pred_0_split -> bbox_pred_bbox_pred_0_split_1
I0708 19:08:09.680012 17985 net.cpp:150] Setting up bbox_pred_bbox_pred_0_split
I0708 19:08:09.680017 17985 net.cpp:157] Top shape: 64 12 (768)
I0708 19:08:09.680022 17985 net.cpp:157] Top shape: 64 12 (768)
I0708 19:08:09.680024 17985 net.cpp:165] Memory required for data: 2633214972
I0708 19:08:09.680027 17985 layer_factory.hpp:77] Creating layer loss_cls
I0708 19:08:09.680032 17985 net.cpp:100] Creating Layer loss_cls
I0708 19:08:09.680037 17985 net.cpp:434] loss_cls <- cls_pred_cls_pred_0_split_0
I0708 19:08:09.680042 17985 net.cpp:434] loss_cls <- proposal_labels_proposal_info_1_split_0
…
