…
    downsample_rate: 32
    downsample_rate: 32
    downsample_rate: 64
    coord_num: 4
    field_h: 60
    field_h: 84
    field_h: 120
    field_h: 168
    field_h: 240
    field_h: 336
    field_h: 480
    field_w: 40
    field_w: 56
    field_w: 80
    field_w: 112
    field_w: 160
    field_w: 224
    field_w: 320
    fg_threshold: 0.5
    resize_width: 1920
    resize_height: 576
    crop_width: 768
    crop_height: 576
    do_multiple_scale: true
    min_scale: 50
    max_scale: 420
    min_gt_height: 35
    shuffle: true
    output_gt_boxes: true
  }
}
layer {
  name: "conv1_1"
  type: "Convolution"
  bottom: "data"
  top: "conv1_1"
  param {
    lr_mult: 0
    decay_mult: 0
  }
  param {
    lr_mult: 0
    decay_mult: 0
  }
  convolution_param {
    num_output: 64
    pad: 1
    kernel_size: 3
  }
}
layer {
  name: "relu1_1"
  type: "ReLU"
  bottom: "conv1_1"
  top: "conv1_1"
}
layer {
  name: "conv1_2"
  type: "Convolution"
  bottom: "conv1_1"
  top: "conv1_2"
  param {
    lr_mult: 0
    decay_mult: 0
  }
  param {
    lr_mult: 0
    decay_mult: 0
  }
  convolution_param {
    num_output: 64
    pad: 1
    kernel_size: 3
  }
}
layer {
  name: "relu1_2"
  type: "ReLU"
  bottom: "conv1_2"
  top: "conv1_2"
}
layer {
  name: "pool1"
  type: "Pooling"
  bottom: "conv1_2"
  top: "pool1"
  pooling_param {
    pool: MAX
    kernel_size: 2
    stride: 2
  }
}
layer {
  name: "conv2_1"
  type: "Convolution"
  bottom: "pool1"
  top: "conv2_1"
  param {
    lr_mult: 0
    decay_mult: 0
  }
  param {
    lr_mult: 0
    decay_mult: 0
  }
  convolution_param {
    num_output: 128
    pad: 1
    kernel_size: 3
  }
}
layer {
  name: "relu2_1"
  type: "ReLU"
  bottom: "conv2_1"
  top: "conv2_1"
}
layer {
  name: "conv2_2"
  type: "Convolution"
  bottom: "conv2_1"
  top: "conv2_2"
  param {
    lr_mult: 0
    decay_mult: 0
  }
  param {
    lr_mult: 0
    decay_mult: 0
  }
  convolution_param {
    num_output: 128
    pad: 1
    kernel_size: 3
  }
}
layer {
  name: "relu2_2"
  type: "ReLU"
  bottom: "conv2_2"
  top: "conv2_2"
}
layer {
  name: "pool2"
  type: "Pooling"
  bottom: "conv2_2"
  top: "pool2"
  pooling_param {
    pool: MAX
    kernel_size: 2
    stride: 2
  }
}
layer {
  name: "conv3_1"
  type: "Convolution"
  bottom: "pool2"
  top: "conv3_1"
  convolution_param {
    num_output: 256
    pad: 1
    kernel_size: 3
  }
}
layer {
  name: "relu3_1"
  type: "ReLU"
  bottom: "conv3_1"
  top: "conv3_1"
}
layer {
  name: "conv3_2"
  type: "Convolution"
  bottom: "conv3_1"
  top: "conv3_2"
  convolution_param {
    num_output: 256
    pad: 1
    kernel_size: 3
  }
}
layer {
  name: "relu3_2"
  type: "ReLU"
  bottom: "conv3_2"
  top: "conv3_2"
}
layer {
  name: "conv3_3"
  type: "Convolution"
  bottom: "conv3_2"
  top: "conv3_3"
  convolution_param {
    num_output: 256
    pad: 1
    kernel_size: 3
  }
}
layer {
  name: "relu3_3"
  type: "ReLU"
  bottom: "conv3_3"
  top: "conv3_3"
}
layer {
  name: "pool3"
  type: "Pooling"
  bottom: "conv3_3"
  top: "pool3"
  pooling_param {
    pool: MAX
    kernel_size: 2
    stride: 2
  }
}
layer {
  name: "conv4_1"
  type: "Convolution"
  bottom: "pool3"
  top: "conv4_1"
  convolution_param {
    num_output: 512
    pad: 1
    kernel_size: 3
  }
}
layer {
  name: "relu4_1"
  type: "ReLU"
  bottom: "conv4_1"
  top: "conv4_1"
}
layer {
  name: "conv4_2"
  type: "Convolution"
  bottom: "conv4_1"
  top: "conv4_2"
  convolution_param {
    num_output: 512
    pad: 1
    kernel_size: 3
  }
}
layer {
  name: "relu4_2"
  type: "ReLU"
  bottom: "conv4_2"
  top: "conv4_2"
}
layer {
  name: "conv4_3"
  type: "Convolution"
  bottom: "conv4_2"
  top: "conv4_3"
  convolution_param {
    num_output: 512
    pad: 1
    kernel_size: 3
  }
}
layer {
  name: "relu4_3"
  type: "ReLU"
  bottom: "conv4_3"
  top: "conv4_3"
}
layer {
  name: "loss1_conv1"
  type: "Convolution"
  bottom: "conv4_3"
  top: "loss1_conv1"
  param {
    lr_mult: 1
    decay_mult: 1
  }
  param {
    lr_mult: 2
    decay_mult: 0
  }
  convolution_param {
    num_output: 512
    pad: 1
    kernel_size: 3
    weight_filler {
      type: "gaussian"
      std: 0.01
    }
    bias_filler {
      type: "constant"
    }
  }
}
layer {
  name: "loss_relu1"
  type: "ReLU"
  bottom: "loss1_conv1"
  top: "loss1_conv1"
}
layer {
  name: "LFCN_1_3x5"
  type: "Convolution"
  bottom: "loss1_conv1"
  top: "LFCN_1_3x5"
  param {
    lr_mult: 1
    decay_mult: 1
  }
  param {
    lr_mult: 2
    decay_mult: 0
  }
  convolution_param {
    num_output: 7
    weight_filler {
      type: "gaussian"
      std: 0.001
    }
    bias_filler {
      type: "constant"
    }
    pad_h: 2
    pad_w: 1
    kernel_h: 5
    kernel_w: 3
  }
}
layer {
  name: "detection_loss_1_3x5"
  type: "DetectionLoss"
  bottom: "LFCN_1_3x5"
  bottom: "label_1_3x5"
  top: "loss_1_3x5"
  loss_weight: 0.5
  detection_loss_param {
    cls_num: 3
    coord_num: 4
    lambda: 1
    field_h: 60
    field_w: 40
    downsample_rate: 8
    bb_smooth: true
    field_whr: 2
    field_xyr: 2
    bg_threshold: 0.2
    bg_multiple: 2
    sample_mode: "bootstrap"
    pos_neg_weighted: true
  }
}
layer {
  name: "detection_accuracy_1_3x5"
  type: "DetectionAccuracy"
  bottom: "LFCN_1_3x5"
  bottom: "label_1_3x5"
  top: "accuracy_1_3x5"
  top: "boxiou_1_3x5"
  detection_accuracy_param {
    cls_num: 3
    coord_num: 4
    field_h: 60
    field_w: 40
    downsample_rate: 8
    field_whr: 2
    field_xyr: 2
  }
}
layer {
  name: "LFCN_1_5x7"
  type: "Convolution"
  bottom: "loss1_conv1"
  top: "LFCN_1_5x7"
  param {
    lr_mult: 1
    decay_mult: 1
  }
  param {
    lr_mult: 2
    decay_mult: 0
  }
  convolution_param {
    num_output: 7
    weight_filler {
      type: "gaussian"
      std: 0.001
    }
    bias_filler {
      type: "constant"
    }
    pad_h: 3
    pad_w: 2
    kernel_h: 7
    kernel_w: 5
  }
}
layer {
  name: "detection_loss_1_5x7"
  type: "DetectionLoss"
  bottom: "LFCN_1_5x7"
  bottom: "label_1_5x7"
  top: "loss_1_5x7"
  loss_weight: 0.9
  detection_loss_param {
    cls_num: 3
    coord_num: 4
    lambda: 1
    field_h: 84
    field_w: 56
    downsample_rate: 8
    bb_smooth: true
    field_whr: 2
    field_xyr: 2
    bg_threshold: 0.2
    bg_multiple: 2
    sample_mode: "bootstrap"
    pos_neg_weighted: true
  }
}
layer {
  name: "detection_accuracy_1_5x7"
  type: "DetectionAccuracy"
  bottom: "LFCN_1_5x7"
  bottom: "label_1_5x7"
  top: "accuracy_1_5x7"
  top: "boxiou_1_5x7"
  detection_accuracy_param {
    cls_num: 3
    coord_num: 4
    field_h: 84
    field_w: 56
    downsample_rate: 8
    field_whr: 2
    field_xyr: 2
  }
}
layer {
  name: "pool4"
  type: "Pooling"
  bottom: "conv4_3"
  top: "pool4"
  pooling_param {
    pool: MAX
    kernel_size: 2
    stride: 2
  }
}
layer {
  name: "conv5_1"
  type: "Convolution"
  bottom: "pool4"
  top: "conv5_1"
  convolution_param {
    num_output: 512
    pad: 1
    kernel_size: 3
  }
}
layer {
  name: "relu5_1"
  type: "ReLU"
  bottom: "conv5_1"
  top: "conv5_1"
}
layer {
  name: "conv5_2"
  type: "Convolution"
  bottom: "conv5_1"
  top: "conv5_2"
  convolution_param {
    num_output: 512
    pad: 1
    kernel_size: 3
  }
}
layer {
  name: "relu5_2"
  type: "ReLU"
  bottom: "conv5_2"
  top: "conv5_2"
}
layer {
  name: "conv5_3"
  type: "Convolution"
  bottom: "conv5_2"
  top: "conv5_3"
  convolution_param {
    num_output: 512
    pad: 1
    kernel_size: 3
  }
}
layer {
  name: "relu5_3"
  type: "ReLU"
  bottom: "conv5_3"
  top: "conv5_3"
}
layer {
  name: "LFCN_2_3x5"
  type: "Convolution"
  bottom: "conv5_3"
  top: "LFCN_2_3x5"
  param {
    lr_mult: 1
    decay_mult: 1
  }
  param {
    lr_mult: 2
    decay_mult: 0
  }
  convolution_param {
    num_output: 7
    weight_filler {
      type: "gaussian"
      std: 0.001
    }
    bias_filler {
      type: "constant"
    }
    pad_h: 2
    pad_w: 1
    kernel_h: 5
    kernel_w: 3
  }
}
layer {
  name: "detection_loss_2_3x5"
  type: "DetectionLoss"
  bottom: "LFCN_2_3x5"
  bottom: "label_2_3x5"
  top: "loss_2_3x5"
  detection_loss_param {
    cls_num: 3
    coord_num: 4
    lambda: 1
    field_h: 120
    field_w: 80
    downsample_rate: 16
    bb_smooth: true
    field_whr: 2
    field_xyr: 2
    bg_threshold: 0.2
    bg_multiple: 2
    sample_mode: "bootstrap"
    pos_neg_weighted: true
  }
}
layer {
  name: "detection_accuracy_2_3x5"
  type: "DetectionAccuracy"
  bottom: "LFCN_2_3x5"
  bottom: "label_2_3x5"
  top: "accuracy_2_3x5"
  top: "boxiou_2_3x5"
  detection_accuracy_param {
    cls_num: 3
    coord_num: 4
    field_h: 120
    field_w: 80
    downsample_rate: 16
    field_whr: 2
    field_xyr: 2
  }
}
layer {
  name: "LFCN_2_5x7"
  type: "Convolution"
  bottom: "conv5_3"
  top: "LFCN_2_5x7"
  param {
    lr_mult: 1
    decay_mult: 1
  }
  param {
    lr_mult: 2
    decay_mult: 0
  }
  convolution_param {
    num_output: 7
    weight_filler {
      type: "gaussian"
      std: 0.001
    }
    bias_filler {
      type: "constant"
    }
    pad_h: 3
    pad_w: 2
    kernel_h: 7
    kernel_w: 5
  }
}
layer {
  name: "detection_loss_2_5x7"
  type: "DetectionLoss"
  bottom: "LFCN_2_5x7"
  bottom: "label_2_5x7"
  top: "loss_2_5x7"
  detection_loss_param {
    cls_num: 3
    coord_num: 4
    lambda: 1
    field_h: 168
    field_w: 112
    downsample_rate: 16
    bb_smooth: true
    field_whr: 2
    field_xyr: 2
    bg_threshold: 0.2
    bg_multiple: 2
    sample_mode: "bootstrap"
    pos_neg_weighted: true
  }
}
layer {
  name: "detection_accuracy_2_5x7"
  type: "DetectionAccuracy"
  bottom: "LFCN_2_5x7"
  bottom: "label_2_5x7"
  top: "accuracy_2_5x7"
  top: "boxiou_2_5x7"
  detection_accuracy_param {
    cls_num: 3
    coord_num: 4
    field_h: 168
    field_w: 112
    downsample_rate: 16
    field_whr: 2
    field_xyr: 2
  }
}
layer {
  name: "pool5"
  type: "Pooling"
  bottom: "conv5_3"
  top: "pool5"
  pooling_param {
    pool: MAX
    kernel_size: 2
    stride: 2
  }
}
layer {
  name: "conv6_1"
  type: "Convolution"
  bottom: "pool5"
  top: "conv6_1"
  param {
    lr_mult: 1
    decay_mult: 1
  }
  param {
    lr_mult: 2
    decay_mult: 0
  }
  convolution_param {
    num_output: 512
    pad: 1
    kernel_size: 3
    weight_filler {
      type: "gaussian"
      std: 0.01
    }
    bias_filler {
      type: "constant"
    }
  }
}
layer {
  name: "relu6_1"
  type: "ReLU"
  bottom: "conv6_1"
  top: "conv6_1"
}
layer {
  name: "LFCN_3_3x5"
  type: "Convolution"
  bottom: "conv6_1"
  top: "LFCN_3_3x5"
  param {
    lr_mult: 1
    decay_mult: 1
  }
  param {
    lr_mult: 2
    decay_mult: 0
  }
  convolution_param {
    num_output: 7
    weight_filler {
      type: "gaussian"
      std: 0.001
    }
    bias_filler {
      type: "constant"
    }
    pad_h: 2
    pad_w: 1
    kernel_h: 5
    kernel_w: 3
  }
}
layer {
  name: "detection_loss_3_3x5"
  type: "DetectionLoss"
  bottom: "LFCN_3_3x5"
  bottom: "label_3_3x5"
  top: "loss_3_3x5"
  detection_loss_param {
    cls_num: 3
    coord_num: 4
    lambda: 1
    field_h: 240
    field_w: 160
    downsample_rate: 32
    bb_smooth: true
    field_whr: 2
    field_xyr: 2
    bg_threshold: 0.2
    bg_multiple: 2
    sample_mode: "bootstrap"
    pos_neg_weighted: true
  }
}
layer {
  name: "detection_accuracy_3_3x5"
  type: "DetectionAccuracy"
  bottom: "LFCN_3_3x5"
  bottom: "label_3_3x5"
  top: "accuracy_3_3x5"
  top: "boxiou_3_3x5"
  detection_accuracy_param {
    cls_num: 3
    coord_num: 4
    field_h: 240
    field_w: 160
    downsample_rate: 32
    field_whr: 2
    field_xyr: 2
  }
}
layer {
  name: "LFCN_3_5x7"
  type: "Convolution"
  bottom: "conv6_1"
  top: "LFCN_3_5x7"
  param {
    lr_mult: 1
    decay_mult: 1
  }
  param {
    lr_mult: 2
    decay_mult: 0
  }
  convolution_param {
    num_output: 7
    weight_filler {
      type: "gaussian"
      std: 0.001
    }
    bias_filler {
      type: "constant"
    }
    pad_h: 3
    pad_w: 2
    kernel_h: 7
    kernel_w: 5
  }
}
layer {
  name: "detection_loss_3_5x7"
  type: "DetectionLoss"
  bottom: "LFCN_3_5x7"
  bottom: "label_3_5x7"
  top: "loss_3_5x7"
  detection_loss_param {
    cls_num: 3
    coord_num: 4
    lambda: 1
    field_h: 336
    field_w: 224
    downsample_rate: 32
    bb_smooth: true
    field_whr: 2
    field_xyr: 2
    bg_threshold: 0.2
    bg_multiple: 2
    sample_mode: "bootstrap"
    pos_neg_weighted: true
  }
}
layer {
  name: "detection_accuracy_3_5x7"
  type: "DetectionAccuracy"
  bottom: "LFCN_3_5x7"
  bottom: "label_3_5x7"
  top: "accuracy_3_5x7"
  top: "boxiou_3_5x7"
  detection_accuracy_param {
    cls_num: 3
    coord_num: 4
    field_h: 336
    field_w: 224
    downsample_rate: 32
    field_whr: 2
    field_xyr: 2
  }
}
layer {
  name: "pool6"
  type: "Pooling"
  bottom: "conv6_1"
  top: "pool6"
  pooling_param {
    pool: MAX
    kernel_size: 2
    stride: 2
  }
}
layer {
  name: "LFCN_4_3x5"
  type: "Convolution"
  bottom: "pool6"
  top: "LFCN_4_3x5"
  param {
    lr_mult: 1
    decay_mult: 1
  }
  param {
    lr_mult: 2
    decay_mult: 0
  }
  convolution_param {
    num_output: 7
    weight_filler {
      type: "gaussian"
      std: 0.001
    }
    bias_filler {
      type: "constant"
    }
    pad_h: 2
    pad_w: 1
    kernel_h: 5
    kernel_w: 3
  }
}
layer {
  name: "detection_loss_4_3x5"
  type: "DetectionLoss"
  bottom: "LFCN_4_3x5"
  bottom: "label_4_3x5"
  top: "loss_4_3x5"
  detection_loss_param {
    cls_num: 3
    coord_num: 4
    lambda: 1
    field_h: 480
    field_w: 320
    downsample_rate: 64
    bb_smooth: true
    field_whr: 2
    field_xyr: 2
    bg_threshold: 0.2
    bg_multiple: 2
    sample_mode: "bootstrap"
    pos_neg_weighted: true
  }
}
layer {
  name: "detection_accuracy_4_3x5"
  type: "DetectionAccuracy"
  bottom: "LFCN_4_3x5"
  bottom: "label_4_3x5"
  top: "accuracy_4_3x5"
  top: "boxiou_4_3x5"
  detection_accuracy_param {
    cls_num: 3
    coord_num: 4
    field_h: 480
    field_w: 320
    downsample_rate: 64
    field_whr: 2
    field_xyr: 2
  }
}
layer {
  name: "proposals"
  type: "BoxOutput"
  bottom: "LFCN_1_3x5"
  bottom: "LFCN_1_5x7"
  bottom: "LFCN_2_3x5"
  bottom: "LFCN_2_5x7"
  bottom: "LFCN_3_3x5"
  bottom: "LFCN_3_5x7"
  bottom: "LFCN_4_3x5"
  top: "proposals"
  propagate_down: false
  propagate_down: false
  propagate_down: false
  propagate_down: false
  propagate_down: false
  propagate_down: false
  propagate_down: false
  box_output_param {
    fg_thr: -15
    iou_thr: 0.65
    nms_type: "IOU"
    field_h: 60
    field_h: 84
    field_h: 120
    field_h: 168
    field_h: 240
    field_h: 336
    field_h: 480
    field_w: 40
    field_w: 56
    field_w: 80
    field_w: 112
    field_w: 160
    field_w: 224
    field_w: 320
    downsample_rate: 8
    downsample_rate: 8
    downsample_rate: 16
    downsample_rate: 16
    downsample_rate: 32
    downsample_rate: 32
    downsample_rate: 64
    field_whr: 2
    field_xyr: 2
    max_nms_num: 3000
  }
}
layer {
  name: "proposal_info"
  type: "ProposalTarget"
  bottom: "proposals"
  bottom: "gt_boxes"
  top: "rois"
  top: "proposal_labels"
  top: "proposal_targets"
  top: "box_inside_weights"
  top: "box_outside_weights"
  top: "match_gt_boxes"
  include {
    phase: TRAIN
  }
  propagate_down: false
  propagate_down: false
  proposal_target_param {
    cls_num: 3
    batch_size: 128
    fg_fraction: 0.25
    num_img_per_batch: 4
    fg_thr: 0.5
    bg_thr_hg: 0.45
    bg_thr_lw: 0.05
    img_width: 768
    img_height: 576
  }
  bbox_reg_param {
    bbox_mean: 0
    bbox_mean: 0
    bbox_mean: 0
    bbox_mean: 0
    bbox_std: 0.1
    bbox_std: 0.1
    bbox_std: 0.2
    bbox_std: 0.2
  }
}
layer {
  name: "conv4_3_2x"
  type: "Deconvolution"
  bottom: "conv4_3"
  top: "conv4_3_2x"
  param {
    lr_mult: 0
    decay_mult: 0
  }
  convolution_param {
    num_output: 512
    bias_term: false
    pad: 1
    kernel_size: 4
    group: 512
    stride: 2
    weight_filler {
      type: "bilinear"
    }
  }
}
layer {
  name: "roi_pool_org"
  type: "ROIPooling"
  bottom: "conv4_3_2x"
  bottom: "rois"
  top: "roi_pool_org"
  roi_pooling_param {
    pooled_h: 7
    pooled_w: 5
    spatial_scale: 0.25
    pad_ratio: 0
  }
}
layer {
  name: "roi_pool_ctx"
  type: "ROIPooling"
  bottom: "conv4_3_2x"
  bottom: "rois"
  top: "roi_pool_ctx"
  roi_pooling_param {
    pooled_h: 7
    pooled_w: 5
    spatial_scale: 0.25
    pad_ratio: 0.25
  }
}
layer {
  name: "roi_pool"
  type: "Concat"
  bottom: "roi_pool_org"
  bottom: "roi_pool_ctx"
  top: "roi_pool"
}
layer {
  name: "roi_c1"
  type: "Convolution"
  bottom: "roi_pool"
  top: "roi_c1"
  param {
    lr_mult: 1
    decay_mult: 1
  }
  param {
    lr_mult: 2
    decay_mult: 0
  }
  convolution_param {
    num_output: 512
    kernel_size: 3
    weight_filler {
      type: "gaussian"
      std: 0.01
    }
    bias_filler {
      type: "constant"
    }
  }
}
layer {
  name: "roi_c1_relu"
  type: "ReLU"
  bottom: "roi_c1"
  top: "roi_c1"
}
layer {
  name: "fc6"
  type: "InnerProduct"
  bottom: "roi_c1"
  top: "fc6"
  param {
    lr_mult: 1
  }
  param {
    lr_mult: 2
  }
  inner_product_param {
    num_output: 2048
    weight_filler {
      type: "gaussian"
      std: 0.001
    }
    bias_filler {
      type: "constant"
      value: 0
    }
  }
}
layer {
  name: "relu6"
  type: "ReLU"
  bottom: "fc6"
  top: "fc6"
}
layer {
  name: "drop6"
  type: "Dropout"
  bottom: "fc6"
  top: "fc6"
  dropout_param {
    dropout_ratio: 0.5
  }
}
layer {
  name: "cls_pred"
  type: "InnerProduct"
  bottom: "fc6"
  top: "cls_pred"
  param {
    lr_mult: 1
  }
  param {
    lr_mult: 2
  }
  inner_product_param {
    num_output: 3
    weight_filler {
      type: "gaussian"
      std: 0.01
    }
    bias_filler {
      type: "constant"
      value: 0
    }
  }
}
layer {
  name: "bbox_pred"
  type: "InnerProduct"
  bottom: "fc6"
  top: "bbox_pred"
  param {
    lr_mult: 1
  }
  param {
    lr_mult: 2
  }
  inner_product_param {
    num_output: 12
    weight_filler {
      type: "gaussian"
      std: 0.001
    }
    bias_filler {
      type: "constant"
      value: 0
    }
  }
}
layer {
  name: "loss_cls"
  type: "SoftmaxWithLoss"
  bottom: "cls_pred"
  bottom: "proposal_labels"
  top: "loss_cls"
  loss_weight: 1
  propagate_down: true
  propagate_down: false
}
layer {
  name: "cls_accuracy"
  type: "Accuracy"
  bottom: "cls_pred"
  bottom: "proposal_labels"
  top: "cls_accuracy"
}
layer {
  name: "loss_bbox"
  type: "SmoothL1Loss"
  bottom: "bbox_pred"
  bottom: "proposal_targets"
  bottom: "box_inside_weights"
  bottom: "box_outside_weights"
  top: "loss_bbox"
  loss_weight: 1
}
layer {
  name: "bbox_iou"
  type: "BboxAccuracy"
  bottom: "bbox_pred"
  bottom: "rois"
  bottom: "match_gt_boxes"
  top: "bbox_iou"
  top: "bbox_iou_pre"
  bbox_reg_param {
    bbox_mean: 0
    bbox_mean: 0
    bbox_mean: 0
    bbox_mean: 0
    bbox_std: 0.1
    bbox_std: 0.1
    bbox_std: 0.2
    bbox_std: 0.2
  }
}
I0703 03:17:49.921130 13301 layer_factory.hpp:77] Creating layer data
I0703 03:17:49.921159 13301 net.cpp:100] Creating Layer data
I0703 03:17:49.921166 13301 net.cpp:408] data -> data
…
I0703 03:17:49.942981 13301 image_gt_data_layer.cpp:241] output label size 3 : 4,6,36,48
I0703 03:17:49.943018 13301 image_gt_data_layer.cpp:241] output label size 4 : 4,6,18,24
I0703 03:17:49.943061 13301 image_gt_data_layer.cpp:241] output label size 5 : 4,6,18,24
I0703 03:17:49.943099 13301 image_gt_data_layer.cpp:241] output label size 6 : 4,6,9,12
I0703 03:17:49.943137 13301 image_gt_data_layer.cpp:256] output gt boxes size: 1,7,1,1
I0703 03:17:49.943141 13301 image_gt_data_layer.cpp:265]  --> has_mean_values_ = 1
I0703 03:17:49.979234 13301 net.cpp:150] Setting up data
I0703 03:17:49.979254 13301 net.cpp:157] Top shape: 4 4 576 768 (7077888)
I0703 03:17:49.979256 13301 net.cpp:157] Top shape: 4 6 72 96 (165888)
I0703 03:17:49.979259 13301 net.cpp:157] Top shape: 4 6 72 96 (165888)
I0703 03:17:49.979261 13301 net.cpp:157] Top shape: 4 6 36 48 (41472)
I0703 03:17:49.979264 13301 net.cpp:157] Top shape: 4 6 36 48 (41472)
I0703 03:17:49.979266 13301 net.cpp:157] Top shape: 4 6 18 24 (10368)
I0703 03:17:49.979269 13301 net.cpp:157] Top shape: 4 6 18 24 (10368)
I0703 03:17:49.979272 13301 net.cpp:157] Top shape: 4 6 9 12 (2592)
I0703 03:17:49.979276 13301 net.cpp:157] Top shape: 1 7 1 1 (7)
I0703 03:17:49.979279 13301 net.cpp:165] Memory required for data: 30063772
I0703 03:17:49.979286 13301 layer_factory.hpp:77] Creating layer label_1_3x5_data_1_split
I0703 03:17:49.979297 13301 net.cpp:100] Creating Layer label_1_3x5_data_1_split
I0703 03:17:49.979303 13301 net.cpp:434] label_1_3x5_data_1_split <- label_1_3x5
I0703 03:17:49.979315 13301 net.cpp:408] label_1_3x5_data_1_split -> label_1_3x5_data_1_split_0
I0703 03:17:49.979324 13301 net.cpp:408] label_1_3x5_data_1_split -> label_1_3x5_data_1_split_1
I0703 03:17:49.979369 13301 net.cpp:150] Setting up label_1_3x5_data_1_split
I0703 03:17:49.979375 13301 net.cpp:157] Top shape: 4 6 72 96 (165888)
I0703 03:17:49.979379 13301 net.cpp:157] Top shape: 4 6 72 96 (165888)
I0703 03:17:49.979382 13301 net.cpp:165] Memory required for data: 31390876
I0703 03:17:49.979385 13301 layer_factory.hpp:77] Creating layer label_1_5x7_data_2_split
I0703 03:17:49.979393 13301 net.cpp:100] Creating Layer label_1_5x7_data_2_split
I0703 03:17:49.979395 13301 net.cpp:434] label_1_5x7_data_2_split <- label_1_5x7
I0703 03:17:49.979403 13301 net.cpp:408] label_1_5x7_data_2_split -> label_1_5x7_data_2_split_0
I0703 03:17:49.979408 13301 net.cpp:408] label_1_5x7_data_2_split -> label_1_5x7_data_2_split_1
I0703 03:17:49.979461 13301 net.cpp:150] Setting up label_1_5x7_data_2_split
I0703 03:17:49.979468 13301 net.cpp:157] Top shape: 4 6 72 96 (165888)
I0703 03:17:49.979472 13301 net.cpp:157] Top shape: 4 6 72 96 (165888)
I0703 03:17:49.979475 13301 net.cpp:165] Memory required for data: 32717980
I0703 03:17:49.979478 13301 layer_factory.hpp:77] Creating layer label_2_3x5_data_3_split
I0703 03:17:49.979483 13301 net.cpp:100] Creating Layer label_2_3x5_data_3_split
I0703 03:17:49.979486 13301 net.cpp:434] label_2_3x5_data_3_split <- label_2_3x5
I0703 03:17:49.979492 13301 net.cpp:408] label_2_3x5_data_3_split -> label_2_3x5_data_3_split_0
I0703 03:17:49.979498 13301 net.cpp:408] label_2_3x5_data_3_split -> label_2_3x5_data_3_split_1
I0703 03:17:49.979527 13301 net.cpp:150] Setting up label_2_3x5_data_3_split
I0703 03:17:49.979533 13301 net.cpp:157] Top shape: 4 6 36 48 (41472)
I0703 03:17:49.979538 13301 net.cpp:157] Top shape: 4 6 36 48 (41472)
I0703 03:17:49.979540 13301 net.cpp:165] Memory required for data: 33049756
I0703 03:17:49.979544 13301 layer_factory.hpp:77] Creating layer label_2_5x7_data_4_split
I0703 03:17:49.979552 13301 net.cpp:100] Creating Layer label_2_5x7_data_4_split
I0703 03:17:49.979554 13301 net.cpp:434] label_2_5x7_data_4_split <- label_2_5x7
I0703 03:17:49.979562 13301 net.cpp:408] label_2_5x7_data_4_split -> label_2_5x7_data_4_split_0
I0703 03:17:49.979568 13301 net.cpp:408] label_2_5x7_data_4_split -> label_2_5x7_data_4_split_1
I0703 03:17:49.979599 13301 net.cpp:150] Setting up label_2_5x7_data_4_split
I0703 03:17:49.979605 13301 net.cpp:157] Top shape: 4 6 36 48 (41472)
I0703 03:17:49.979610 13301 net.cpp:157] Top shape: 4 6 36 48 (41472)
I0703 03:17:49.979614 13301 net.cpp:165] Memory required for data: 33381532
I0703 03:17:49.979615 13301 layer_factory.hpp:77] Creating layer label_3_3x5_data_5_split
I0703 03:17:49.979625 13301 net.cpp:100] Creating Layer label_3_3x5_data_5_split
I0703 03:17:49.979629 13301 net.cpp:434] label_3_3x5_data_5_split <- label_3_3x5
I0703 03:17:49.979634 13301 net.cpp:408] label_3_3x5_data_5_split -> label_3_3x5_data_5_split_0
I0703 03:17:49.979640 13301 net.cpp:408] label_3_3x5_data_5_split -> label_3_3x5_data_5_split_1
I0703 03:17:49.979666 13301 net.cpp:150] Setting up label_3_3x5_data_5_split
I0703 03:17:49.979672 13301 net.cpp:157] Top shape: 4 6 18 24 (10368)
I0703 03:17:49.979677 13301 net.cpp:157] Top shape: 4 6 18 24 (10368)
I0703 03:17:49.979679 13301 net.cpp:165] Memory required for data: 33464476
I0703 03:17:49.979682 13301 layer_factory.hpp:77] Creating layer label_3_5x7_data_6_split
I0703 03:17:49.979687 13301 net.cpp:100] Creating Layer label_3_5x7_data_6_split
I0703 03:17:49.979691 13301 net.cpp:434] label_3_5x7_data_6_split <- label_3_5x7
I0703 03:17:49.979696 13301 net.cpp:408] label_3_5x7_data_6_split -> label_3_5x7_data_6_split_0
I0703 03:17:49.979701 13301 net.cpp:408] label_3_5x7_data_6_split -> label_3_5x7_data_6_split_1
I0703 03:17:49.979729 13301 net.cpp:150] Setting up label_3_5x7_data_6_split
I0703 03:17:49.979735 13301 net.cpp:157] Top shape: 4 6 18 24 (10368)
I0703 03:17:49.979739 13301 net.cpp:157] Top shape: 4 6 18 24 (10368)
I0703 03:17:49.979743 13301 net.cpp:165] Memory required for data: 33547420
I0703 03:17:49.979745 13301 layer_factory.hpp:77] Creating layer label_4_3x5_data_7_split
I0703 03:17:49.979753 13301 net.cpp:100] Creating Layer label_4_3x5_data_7_split
I0703 03:17:49.979755 13301 net.cpp:434] label_4_3x5_data_7_split <- label_4_3x5
I0703 03:17:49.979760 13301 net.cpp:408] label_4_3x5_data_7_split -> label_4_3x5_data_7_split_0
I0703 03:17:49.979765 13301 net.cpp:408] label_4_3x5_data_7_split -> label_4_3x5_data_7_split_1
I0703 03:17:49.979833 13301 net.cpp:150] Setting up label_4_3x5_data_7_split
I0703 03:17:49.979840 13301 net.cpp:157] Top shape: 4 6 9 12 (2592)
I0703 03:17:49.979846 13301 net.cpp:157] Top shape: 4 6 9 12 (2592)
I0703 03:17:49.979847 13301 net.cpp:165] Memory required for data: 33568156
I0703 03:17:49.979851 13301 layer_factory.hpp:77] Creating layer conv1_1
I0703 03:17:49.979874 13301 net.cpp:100] Creating Layer conv1_1
I0703 03:17:49.979878 13301 net.cpp:434] conv1_1 <- data
I0703 03:17:49.979884 13301 net.cpp:408] conv1_1 -> conv1_1
I0703 03:17:50.538635 13301 net.cpp:150] Setting up conv1_1
I0703 03:17:50.538656 13301 net.cpp:157] Top shape: 4 64 576 768 (113246208)
I0703 03:17:50.538658 13301 net.cpp:165] Memory required for data: 486552988
I0703 03:17:50.538676 13301 layer_factory.hpp:77] Creating layer relu1_1
I0703 03:17:50.538684 13301 net.cpp:100] Creating Layer relu1_1
I0703 03:17:50.538689 13301 net.cpp:434] relu1_1 <- conv1_1
I0703 03:17:50.538693 13301 net.cpp:395] relu1_1 -> conv1_1 (in-place)
I0703 03:17:50.539019 13301 net.cpp:150] Setting up relu1_1
I0703 03:17:50.539027 13301 net.cpp:157] Top shape: 4 64 576 768 (113246208)
I0703 03:17:50.539029 13301 net.cpp:165] Memory required for data: 939537820
I0703 03:17:50.539032 13301 layer_factory.hpp:77] Creating layer conv1_2
I0703 03:17:50.539039 13301 net.cpp:100] Creating Layer conv1_2
I0703 03:17:50.539041 13301 net.cpp:434] conv1_2 <- conv1_1
I0703 03:17:50.539046 13301 net.cpp:408] conv1_2 -> conv1_2
I0703 03:17:50.541962 13301 net.cpp:150] Setting up conv1_2
I0703 03:17:50.541982 13301 net.cpp:157] Top shape: 4 64 576 768 (113246208)
I0703 03:17:50.541985 13301 net.cpp:165] Memory required for data: 1392522652
I0703 03:17:50.541996 13301 layer_factory.hpp:77] Creating layer relu1_2
I0703 03:17:50.542002 13301 net.cpp:100] Creating Layer relu1_2
I0703 03:17:50.542006 13301 net.cpp:434] relu1_2 <- conv1_2
I0703 03:17:50.542011 13301 net.cpp:395] relu1_2 -> conv1_2 (in-place)
I0703 03:17:50.542295 13301 net.cpp:150] Setting up relu1_2
I0703 03:17:50.542302 13301 net.cpp:157] Top shape: 4 64 576 768 (113246208)
I0703 03:17:50.542304 13301 net.cpp:165] Memory required for data: 1845507484
I0703 03:17:50.542307 13301 layer_factory.hpp:77] Creating layer pool1
I0703 03:17:50.542311 13301 net.cpp:100] Creating Layer pool1
I0703 03:17:50.542313 13301 net.cpp:434] pool1 <- conv1_2
I0703 03:17:50.542317 13301 net.cpp:408] pool1 -> pool1
I0703 03:17:50.542366 13301 net.cpp:150] Setting up pool1
I0703 03:17:50.542371 13301 net.cpp:157] Top shape: 4 64 288 384 (28311552)
I0703 03:17:50.542372 13301 net.cpp:165] Memory required for data: 1958753692
I0703 03:17:50.542374 13301 layer_factory.hpp:77] Creating layer conv2_1
I0703 03:17:50.542382 13301 net.cpp:100] Creating Layer conv2_1
I0703 03:17:50.542387 13301 net.cpp:434] conv2_1 <- pool1
I0703 03:17:50.542392 13301 net.cpp:408] conv2_1 -> conv2_1
I0703 03:17:50.544806 13301 net.cpp:150] Setting up conv2_1
I0703 03:17:50.544824 13301 net.cpp:157] Top shape: 4 128 288 384 (56623104)
I0703 03:17:50.544826 13301 net.cpp:165] Memory required for data: 2185246108
I0703 03:17:50.544837 13301 layer_factory.hpp:77] Creating layer relu2_1
I0703 03:17:50.544843 13301 net.cpp:100] Creating Layer relu2_1
I0703 03:17:50.544847 13301 net.cpp:434] relu2_1 <- conv2_1
I0703 03:17:50.544852 13301 net.cpp:395] relu2_1 -> conv2_1 (in-place)
I0703 03:17:50.545477 13301 net.cpp:150] Setting up relu2_1
I0703 03:17:50.545487 13301 net.cpp:157] Top shape: 4 128 288 384 (56623104)
I0703 03:17:50.545490 13301 net.cpp:165] Memory required for data: 2411738524
I0703 03:17:50.545492 13301 layer_factory.hpp:77] Creating layer conv2_2
I0703 03:17:50.545500 13301 net.cpp:100] Creating Layer conv2_2
I0703 03:17:50.545501 13301 net.cpp:434] conv2_2 <- conv2_1
I0703 03:17:50.545506 13301 net.cpp:408] conv2_2 -> conv2_2
I0703 03:17:50.547183 13301 net.cpp:150] Setting up conv2_2
I0703 03:17:50.547199 13301 net.cpp:157] Top shape: 4 128 288 384 (56623104)
I0703 03:17:50.547200 13301 net.cpp:165] Memory required for data: 2638230940
I0703 03:17:50.547206 13301 layer_factory.hpp:77] Creating layer relu2_2
I0703 03:17:50.547214 13301 net.cpp:100] Creating Layer relu2_2
I0703 03:17:50.547217 13301 net.cpp:434] relu2_2 <- conv2_2
I0703 03:17:50.547221 13301 net.cpp:395] relu2_2 -> conv2_2 (in-place)
I0703 03:17:50.547804 13301 net.cpp:150] Setting up relu2_2
I0703 03:17:50.547812 13301 net.cpp:157] Top shape: 4 128 288 384 (56623104)
I0703 03:17:50.547816 13301 net.cpp:165] Memory required for data: 2864723356
I0703 03:17:50.547817 13301 layer_factory.hpp:77] Creating layer pool2
I0703 03:17:50.547822 13301 net.cpp:100] Creating Layer pool2
I0703 03:17:50.547825 13301 net.cpp:434] pool2 <- conv2_2
I0703 03:17:50.547828 13301 net.cpp:408] pool2 -> pool2
I0703 03:17:50.547868 13301 net.cpp:150] Setting up pool2
I0703 03:17:50.547873 13301 net.cpp:157] Top shape: 4 128 144 192 (14155776)
I0703 03:17:50.547874 13301 net.cpp:165] Memory required for data: 2921346460
I0703 03:17:50.547876 13301 layer_factory.hpp:77] Creating layer conv3_1
I0703 03:17:50.547884 13301 net.cpp:100] Creating Layer conv3_1
I0703 03:17:50.547889 13301 net.cpp:434] conv3_1 <- pool2
I0703 03:17:50.547894 13301 net.cpp:408] conv3_1 -> conv3_1
I0703 03:17:50.550511 13301 net.cpp:150] Setting up conv3_1
I0703 03:17:50.550530 13301 net.cpp:157] Top shape: 4 256 144 192 (28311552)
I0703 03:17:50.550534 13301 net.cpp:165] Memory required for data: 3034592668
I0703 03:17:50.550544 13301 layer_factory.hpp:77] Creating layer relu3_1
I0703 03:17:50.550549 13301 net.cpp:100] Creating Layer relu3_1
I0703 03:17:50.550552 13301 net.cpp:434] relu3_1 <- conv3_1
I0703 03:17:50.550557 13301 net.cpp:395] relu3_1 -> conv3_1 (in-place)
I0703 03:17:50.550803 13301 net.cpp:150] Setting up relu3_1
I0703 03:17:50.550810 13301 net.cpp:157] Top shape: 4 256 144 192 (28311552)
I0703 03:17:50.550812 13301 net.cpp:165] Memory required for data: 3147838876
I0703 03:17:50.550815 13301 layer_factory.hpp:77] Creating layer conv3_2
I0703 03:17:50.550820 13301 net.cpp:100] Creating Layer conv3_2
I0703 03:17:50.550823 13301 net.cpp:434] conv3_2 <- conv3_1
I0703 03:17:50.550827 13301 net.cpp:408] conv3_2 -> conv3_2
I0703 03:17:50.554030 13301 net.cpp:150] Setting up conv3_2
I0703 03:17:50.554050 13301 net.cpp:157] Top shape: 4 256 144 192 (28311552)
I0703 03:17:50.554054 13301 net.cpp:165] Memory required for data: 3261085084
I0703 03:17:50.554060 13301 layer_factory.hpp:77] Creating layer relu3_2
I0703 03:17:50.554066 13301 net.cpp:100] Creating Layer relu3_2
I0703 03:17:50.554069 13301 net.cpp:434] relu3_2 <- conv3_2
I0703 03:17:50.554075 13301 net.cpp:395] relu3_2 -> conv3_2 (in-place)
I0703 03:17:50.554308 13301 net.cpp:150] Setting up relu3_2
I0703 03:17:50.554314 13301 net.cpp:157] Top shape: 4 256 144 192 (28311552)
I0703 03:17:50.554317 13301 net.cpp:165] Memory required for data: 3374331292
I0703 03:17:50.554319 13301 layer_factory.hpp:77] Creating layer conv3_3
I0703 03:17:50.554325 13301 net.cpp:100] Creating Layer conv3_3
I0703 03:17:50.554327 13301 net.cpp:434] conv3_3 <- conv3_2
I0703 03:17:50.554332 13301 net.cpp:408] conv3_3 -> conv3_3
I0703 03:17:50.557736 13301 net.cpp:150] Setting up conv3_3
I0703 03:17:50.557756 13301 net.cpp:157] Top shape: 4 256 144 192 (28311552)
I0703 03:17:50.557760 13301 net.cpp:165] Memory required for data: 3487577500
I0703 03:17:50.557767 13301 layer_factory.hpp:77] Creating layer relu3_3
I0703 03:17:50.557775 13301 net.cpp:100] Creating Layer relu3_3
I0703 03:17:50.557778 13301 net.cpp:434] relu3_3 <- conv3_3
I0703 03:17:50.557783 13301 net.cpp:395] relu3_3 -> conv3_3 (in-place)
I0703 03:17:50.558414 13301 net.cpp:150] Setting up relu3_3
I0703 03:17:50.558424 13301 net.cpp:157] Top shape: 4 256 144 192 (28311552)
I0703 03:17:50.558426 13301 net.cpp:165] Memory required for data: 3600823708
I0703 03:17:50.558429 13301 layer_factory.hpp:77] Creating layer pool3
I0703 03:17:50.558434 13301 net.cpp:100] Creating Layer pool3
I0703 03:17:50.558436 13301 net.cpp:434] pool3 <- conv3_3
I0703 03:17:50.558441 13301 net.cpp:408] pool3 -> pool3
I0703 03:17:50.558487 13301 net.cpp:150] Setting up pool3
I0703 03:17:50.558493 13301 net.cpp:157] Top shape: 4 256 72 96 (7077888)
I0703 03:17:50.558495 13301 net.cpp:165] Memory required for data: 3629135260
I0703 03:17:50.558497 13301 layer_factory.hpp:77] Creating layer conv4_1
I0703 03:17:50.558506 13301 net.cpp:100] Creating Layer conv4_1
I0703 03:17:50.558511 13301 net.cpp:434] conv4_1 <- pool3
I0703 03:17:50.558514 13301 net.cpp:408] conv4_1 -> conv4_1
I0703 03:17:50.563205 13301 net.cpp:150] Setting up conv4_1
I0703 03:17:50.563226 13301 net.cpp:157] Top shape: 4 512 72 96 (14155776)
I0703 03:17:50.563230 13301 net.cpp:165] Memory required for data: 3685758364
I0703 03:17:50.563236 13301 layer_factory.hpp:77] Creating layer relu4_1
I0703 03:17:50.563243 13301 net.cpp:100] Creating Layer relu4_1
I0703 03:17:50.563246 13301 net.cpp:434] relu4_1 <- conv4_1
I0703 03:17:50.563251 13301 net.cpp:395] relu4_1 -> conv4_1 (in-place)
I0703 03:17:50.563489 13301 net.cpp:150] Setting up relu4_1
I0703 03:17:50.563496 13301 net.cpp:157] Top shape: 4 512 72 96 (14155776)
I0703 03:17:50.563498 13301 net.cpp:165] Memory required for data: 3742381468
I0703 03:17:50.563500 13301 layer_factory.hpp:77] Creating layer conv4_2
I0703 03:17:50.563506 13301 net.cpp:100] Creating Layer conv4_2
I0703 03:17:50.563508 13301 net.cpp:434] conv4_2 <- conv4_1
I0703 03:17:50.563513 13301 net.cpp:408] conv4_2 -> conv4_2
I0703 03:17:50.569144 13301 net.cpp:150] Setting up conv4_2
I0703 03:17:50.569165 13301 net.cpp:157] Top shape: 4 512 72 96 (14155776)
I0703 03:17:50.569169 13301 net.cpp:165] Memory required for data: 3799004572
I0703 03:17:50.569178 13301 layer_factory.hpp:77] Creating layer relu4_2
I0703 03:17:50.569186 13301 net.cpp:100] Creating Layer relu4_2
I0703 03:17:50.569190 13301 net.cpp:434] relu4_2 <- conv4_2
I0703 03:17:50.569195 13301 net.cpp:395] relu4_2 -> conv4_2 (in-place)
I0703 03:17:50.569448 13301 net.cpp:150] Setting up relu4_2
I0703 03:17:50.569455 13301 net.cpp:157] Top shape: 4 512 72 96 (14155776)
I0703 03:17:50.569458 13301 net.cpp:165] Memory required for data: 3855627676
I0703 03:17:50.569460 13301 layer_factory.hpp:77] Creating layer conv4_3
I0703 03:17:50.569466 13301 net.cpp:100] Creating Layer conv4_3
I0703 03:17:50.569468 13301 net.cpp:434] conv4_3 <- conv4_2
I0703 03:17:50.569473 13301 net.cpp:408] conv4_3 -> conv4_3
I0703 03:17:50.574786 13301 net.cpp:150] Setting up conv4_3
I0703 03:17:50.574805 13301 net.cpp:157] Top shape: 4 512 72 96 (14155776)
I0703 03:17:50.574808 13301 net.cpp:165] Memory required for data: 3912250780
I0703 03:17:50.574815 13301 layer_factory.hpp:77] Creating layer relu4_3
I0703 03:17:50.574822 13301 net.cpp:100] Creating Layer relu4_3
I0703 03:17:50.574826 13301 net.cpp:434] relu4_3 <- conv4_3
I0703 03:17:50.574831 13301 net.cpp:395] relu4_3 -> conv4_3 (in-place)
I0703 03:17:50.575475 13301 net.cpp:150] Setting up relu4_3
I0703 03:17:50.575484 13301 net.cpp:157] Top shape: 4 512 72 96 (14155776)
I0703 03:17:50.575487 13301 net.cpp:165] Memory required for data: 3968873884
I0703 03:17:50.575489 13301 layer_factory.hpp:77] Creating layer conv4_3_relu4_3_0_split
I0703 03:17:50.575495 13301 net.cpp:100] Creating Layer conv4_3_relu4_3_0_split
I0703 03:17:50.575496 13301 net.cpp:434] conv4_3_relu4_3_0_split <- conv4_3
I0703 03:17:50.575500 13301 net.cpp:408] conv4_3_relu4_3_0_split -> conv4_3_relu4_3_0_split_0
I0703 03:17:50.575505 13301 net.cpp:408] conv4_3_relu4_3_0_split -> conv4_3_relu4_3_0_split_1
I0703 03:17:50.575510 13301 net.cpp:408] conv4_3_relu4_3_0_split -> conv4_3_relu4_3_0_split_2
I0703 03:17:50.575558 13301 net.cpp:150] Setting up conv4_3_relu4_3_0_split
I0703 03:17:50.575563 13301 net.cpp:157] Top shape: 4 512 72 96 (14155776)
I0703 03:17:50.575565 13301 net.cpp:157] Top shape: 4 512 72 96 (14155776)
I0703 03:17:50.575569 13301 net.cpp:157] Top shape: 4 512 72 96 (14155776)
I0703 03:17:50.575572 13301 net.cpp:165] Memory required for data: 4138743196
I0703 03:17:50.575575 13301 layer_factory.hpp:77] Creating layer loss1_conv1
I0703 03:17:50.575588 13301 net.cpp:100] Creating Layer loss1_conv1
I0703 03:17:50.575592 13301 net.cpp:434] loss1_conv1 <- conv4_3_relu4_3_0_split_0
I0703 03:17:50.575598 13301 net.cpp:408] loss1_conv1 -> loss1_conv1
I0703 03:17:50.609380 13301 net.cpp:150] Setting up loss1_conv1
I0703 03:17:50.609398 13301 net.cpp:157] Top shape: 4 512 72 96 (14155776)
I0703 03:17:50.609400 13301 net.cpp:165] Memory required for data: 4195366300
I0703 03:17:50.609407 13301 layer_factory.hpp:77] Creating layer loss_relu1
I0703 03:17:50.609413 13301 net.cpp:100] Creating Layer loss_relu1
I0703 03:17:50.609417 13301 net.cpp:434] loss_relu1 <- loss1_conv1
I0703 03:17:50.609421 13301 net.cpp:395] loss_relu1 -> loss1_conv1 (in-place)
I0703 03:17:50.609644 13301 net.cpp:150] Setting up loss_relu1
I0703 03:17:50.609652 13301 net.cpp:157] Top shape: 4 512 72 96 (14155776)
I0703 03:17:50.609653 13301 net.cpp:165] Memory required for data: 4251989404
I0703 03:17:50.609655 13301 layer_factory.hpp:77] Creating layer loss1_conv1_loss_relu1_0_split
I0703 03:17:50.609659 13301 net.cpp:100] Creating Layer loss1_conv1_loss_relu1_0_split
I0703 03:17:50.609661 13301 net.cpp:434] loss1_conv1_loss_relu1_0_split <- loss1_conv1
I0703 03:17:50.609665 13301 net.cpp:408] loss1_conv1_loss_relu1_0_split -> loss1_conv1_loss_relu1_0_split_0
I0703 03:17:50.609670 13301 net.cpp:408] loss1_conv1_loss_relu1_0_split -> loss1_conv1_loss_relu1_0_split_1
I0703 03:17:50.609706 13301 net.cpp:150] Setting up loss1_conv1_loss_relu1_0_split
I0703 03:17:50.609711 13301 net.cpp:157] Top shape: 4 512 72 96 (14155776)
I0703 03:17:50.609714 13301 net.cpp:157] Top shape: 4 512 72 96 (14155776)
I0703 03:17:50.609716 13301 net.cpp:165] Memory required for data: 4365235612
I0703 03:17:50.609719 13301 layer_factory.hpp:77] Creating layer LFCN_1_3x5
I0703 03:17:50.609727 13301 net.cpp:100] Creating Layer LFCN_1_3x5
I0703 03:17:50.609730 13301 net.cpp:434] LFCN_1_3x5 <- loss1_conv1_loss_relu1_0_split_0
I0703 03:17:50.609735 13301 net.cpp:408] LFCN_1_3x5 -> LFCN_1_3x5
I0703 03:17:50.611781 13301 net.cpp:150] Setting up LFCN_1_3x5
I0703 03:17:50.611793 13301 net.cpp:157] Top shape: 4 7 72 96 (193536)
I0703 03:17:50.611795 13301 net.cpp:165] Memory required for data: 4366009756
I0703 03:17:50.611800 13301 layer_factory.hpp:77] Creating layer LFCN_1_3x5_LFCN_1_3x5_0_split
I0703 03:17:50.611805 13301 net.cpp:100] Creating Layer LFCN_1_3x5_LFCN_1_3x5_0_split
I0703 03:17:50.611807 13301 net.cpp:434] LFCN_1_3x5_LFCN_1_3x5_0_split <- LFCN_1_3x5
I0703 03:17:50.611811 13301 net.cpp:408] LFCN_1_3x5_LFCN_1_3x5_0_split -> LFCN_1_3x5_LFCN_1_3x5_0_split_0
I0703 03:17:50.611817 13301 net.cpp:408] LFCN_1_3x5_LFCN_1_3x5_0_split -> LFCN_1_3x5_LFCN_1_3x5_0_split_1
I0703 03:17:50.611821 13301 net.cpp:408] LFCN_1_3x5_LFCN_1_3x5_0_split -> LFCN_1_3x5_LFCN_1_3x5_0_split_2
I0703 03:17:50.611865 13301 net.cpp:150] Setting up LFCN_1_3x5_LFCN_1_3x5_0_split
I0703 03:17:50.611871 13301 net.cpp:157] Top shape: 4 7 72 96 (193536)
I0703 03:17:50.611873 13301 net.cpp:157] Top shape: 4 7 72 96 (193536)
I0703 03:17:50.611876 13301 net.cpp:157] Top shape: 4 7 72 96 (193536)
I0703 03:17:50.611879 13301 net.cpp:165] Memory required for data: 4368332188
I0703 03:17:50.611883 13301 layer_factory.hpp:77] Creating layer detection_loss_1_3x5
I0703 03:17:50.611891 13301 net.cpp:100] Creating Layer detection_loss_1_3x5
I0703 03:17:50.611893 13301 net.cpp:434] detection_loss_1_3x5 <- LFCN_1_3x5_LFCN_1_3x5_0_split_0
I0703 03:17:50.611897 13301 net.cpp:434] detection_loss_1_3x5 <- label_1_3x5_data_1_split_0
I0703 03:17:50.611902 13301 net.cpp:408] detection_loss_1_3x5 -> loss_1_3x5
I0703 03:17:50.611914 13301 layer_factory.hpp:77] Creating layer detection_loss_1_3x5
I0703 03:17:50.612306 13301 net.cpp:150] Setting up detection_loss_1_3x5
I0703 03:17:50.612313 13301 net.cpp:157] Top shape: 1 1 1 2 (2)
I0703 03:17:50.612315 13301 net.cpp:160]     with loss weight 0.5
I0703 03:17:50.612332 13301 net.cpp:165] Memory required for data: 4368332196
I0703 03:17:50.612335 13301 layer_factory.hpp:77] Creating layer detection_accuracy_1_3x5
I0703 03:17:50.612340 13301 net.cpp:100] Creating Layer detection_accuracy_1_3x5
I0703 03:17:50.612344 13301 net.cpp:434] detection_accuracy_1_3x5 <- LFCN_1_3x5_LFCN_1_3x5_0_split_1
I0703 03:17:50.612349 13301 net.cpp:434] detection_accuracy_1_3x5 <- label_1_3x5_data_1_split_1
I0703 03:17:50.612356 13301 net.cpp:408] detection_accuracy_1_3x5 -> accuracy_1_3x5
I0703 03:17:50.612365 13301 net.cpp:408] detection_accuracy_1_3x5 -> boxiou_1_3x5
I0703 03:17:50.612401 13301 net.cpp:150] Setting up detection_accuracy_1_3x5
I0703 03:17:50.612404 13301 net.cpp:157] Top shape: 1 1 1 2 (2)
I0703 03:17:50.612406 13301 net.cpp:157] Top shape: 1 1 1 1 (1)
I0703 03:17:50.612409 13301 net.cpp:165] Memory required for data: 4368332208
I0703 03:17:50.612412 13301 layer_factory.hpp:77] Creating layer LFCN_1_5x7
I0703 03:17:50.612421 13301 net.cpp:100] Creating Layer LFCN_1_5x7
I0703 03:17:50.612424 13301 net.cpp:434] LFCN_1_5x7 <- loss1_conv1_loss_relu1_0_split_1
I0703 03:17:50.612429 13301 net.cpp:408] LFCN_1_5x7 -> LFCN_1_5x7
I0703 03:17:50.614642 13301 net.cpp:150] Setting up LFCN_1_5x7
I0703 03:17:50.614655 13301 net.cpp:157] Top shape: 4 7 72 96 (193536)
I0703 03:17:50.614657 13301 net.cpp:165] Memory required for data: 4369106352
I0703 03:17:50.614666 13301 layer_factory.hpp:77] Creating layer LFCN_1_5x7_LFCN_1_5x7_0_split
I0703 03:17:50.614673 13301 net.cpp:100] Creating Layer LFCN_1_5x7_LFCN_1_5x7_0_split
I0703 03:17:50.614678 13301 net.cpp:434] LFCN_1_5x7_LFCN_1_5x7_0_split <- LFCN_1_5x7
I0703 03:17:50.614684 13301 net.cpp:408] LFCN_1_5x7_LFCN_1_5x7_0_split -> LFCN_1_5x7_LFCN_1_5x7_0_split_0
I0703 03:17:50.614691 13301 net.cpp:408] LFCN_1_5x7_LFCN_1_5x7_0_split -> LFCN_1_5x7_LFCN_1_5x7_0_split_1
I0703 03:17:50.614696 13301 net.cpp:408] LFCN_1_5x7_LFCN_1_5x7_0_split -> LFCN_1_5x7_LFCN_1_5x7_0_split_2
I0703 03:17:50.614740 13301 net.cpp:150] Setting up LFCN_1_5x7_LFCN_1_5x7_0_split
I0703 03:17:50.614744 13301 net.cpp:157] Top shape: 4 7 72 96 (193536)
I0703 03:17:50.614748 13301 net.cpp:157] Top shape: 4 7 72 96 (193536)
I0703 03:17:50.614750 13301 net.cpp:157] Top shape: 4 7 72 96 (193536)
I0703 03:17:50.614753 13301 net.cpp:165] Memory required for data: 4371428784
I0703 03:17:50.614755 13301 layer_factory.hpp:77] Creating layer detection_loss_1_5x7
I0703 03:17:50.614763 13301 net.cpp:100] Creating Layer detection_loss_1_5x7
I0703 03:17:50.614768 13301 net.cpp:434] detection_loss_1_5x7 <- LFCN_1_5x7_LFCN_1_5x7_0_split_0
I0703 03:17:50.614771 13301 net.cpp:434] detection_loss_1_5x7 <- label_1_5x7_data_2_split_0
I0703 03:17:50.614778 13301 net.cpp:408] detection_loss_1_5x7 -> loss_1_5x7
I0703 03:17:50.614785 13301 layer_factory.hpp:77] Creating layer detection_loss_1_5x7
I0703 03:17:50.615591 13301 net.cpp:150] Setting up detection_loss_1_5x7
I0703 03:17:50.615599 13301 net.cpp:157] Top shape: 1 1 1 2 (2)
I0703 03:17:50.615602 13301 net.cpp:160]     with loss weight 0.9
I0703 03:17:50.615612 13301 net.cpp:165] Memory required for data: 4371428792
I0703 03:17:50.615613 13301 layer_factory.hpp:77] Creating layer detection_accuracy_1_5x7
I0703 03:17:50.615620 13301 net.cpp:100] Creating Layer detection_accuracy_1_5x7
I0703 03:17:50.615624 13301 net.cpp:434] detection_accuracy_1_5x7 <- LFCN_1_5x7_LFCN_1_5x7_0_split_1
I0703 03:17:50.615629 13301 net.cpp:434] detection_accuracy_1_5x7 <- label_1_5x7_data_2_split_1
I0703 03:17:50.615635 13301 net.cpp:408] detection_accuracy_1_5x7 -> accuracy_1_5x7
I0703 03:17:50.615643 13301 net.cpp:408] detection_accuracy_1_5x7 -> boxiou_1_5x7
I0703 03:17:50.615677 13301 net.cpp:150] Setting up detection_accuracy_1_5x7
I0703 03:17:50.615684 13301 net.cpp:157] Top shape: 1 1 1 2 (2)
I0703 03:17:50.615686 13301 net.cpp:157] Top shape: 1 1 1 1 (1)
I0703 03:17:50.615689 13301 net.cpp:165] Memory required for data: 4371428804
I0703 03:17:50.615692 13301 layer_factory.hpp:77] Creating layer pool4
I0703 03:17:50.615698 13301 net.cpp:100] Creating Layer pool4
I0703 03:17:50.615701 13301 net.cpp:434] pool4 <- conv4_3_relu4_3_0_split_1
I0703 03:17:50.615707 13301 net.cpp:408] pool4 -> pool4
I0703 03:17:50.615741 13301 net.cpp:150] Setting up pool4
I0703 03:17:50.615747 13301 net.cpp:157] Top shape: 4 512 36 48 (3538944)
I0703 03:17:50.615751 13301 net.cpp:165] Memory required for data: 4385584580
I0703 03:17:50.615752 13301 layer_factory.hpp:77] Creating layer conv5_1
I0703 03:17:50.615761 13301 net.cpp:100] Creating Layer conv5_1
I0703 03:17:50.615763 13301 net.cpp:434] conv5_1 <- pool4
I0703 03:17:50.615769 13301 net.cpp:408] conv5_1 -> conv5_1
I0703 03:17:50.621511 13301 net.cpp:150] Setting up conv5_1
I0703 03:17:50.621533 13301 net.cpp:157] Top shape: 4 512 36 48 (3538944)
I0703 03:17:50.621536 13301 net.cpp:165] Memory required for data: 4399740356
I0703 03:17:50.621544 13301 layer_factory.hpp:77] Creating layer relu5_1
I0703 03:17:50.621554 13301 net.cpp:100] Creating Layer relu5_1
I0703 03:17:50.621559 13301 net.cpp:434] relu5_1 <- conv5_1
I0703 03:17:50.621567 13301 net.cpp:395] relu5_1 -> conv5_1 (in-place)
I0703 03:17:50.622195 13301 net.cpp:150] Setting up relu5_1
I0703 03:17:50.622205 13301 net.cpp:157] Top shape: 4 512 36 48 (3538944)
I0703 03:17:50.622207 13301 net.cpp:165] Memory required for data: 4413896132
I0703 03:17:50.622211 13301 layer_factory.hpp:77] Creating layer conv5_2
I0703 03:17:50.622218 13301 net.cpp:100] Creating Layer conv5_2
I0703 03:17:50.622223 13301 net.cpp:434] conv5_2 <- conv5_1
I0703 03:17:50.622229 13301 net.cpp:408] conv5_2 -> conv5_2
I0703 03:17:50.627568 13301 net.cpp:150] Setting up conv5_2
I0703 03:17:50.627590 13301 net.cpp:157] Top shape: 4 512 36 48 (3538944)
I0703 03:17:50.627594 13301 net.cpp:165] Memory required for data: 4428051908
I0703 03:17:50.627602 13301 layer_factory.hpp:77] Creating layer relu5_2
I0703 03:17:50.627612 13301 net.cpp:100] Creating Layer relu5_2
I0703 03:17:50.627616 13301 net.cpp:434] relu5_2 <- conv5_2
I0703 03:17:50.627622 13301 net.cpp:395] relu5_2 -> conv5_2 (in-place)
I0703 03:17:50.627861 13301 net.cpp:150] Setting up relu5_2
I0703 03:17:50.627868 13301 net.cpp:157] Top shape: 4 512 36 48 (3538944)
I0703 03:17:50.627871 13301 net.cpp:165] Memory required for data: 4442207684
I0703 03:17:50.627874 13301 layer_factory.hpp:77] Creating layer conv5_3
I0703 03:17:50.627882 13301 net.cpp:100] Creating Layer conv5_3
I0703 03:17:50.627887 13301 net.cpp:434] conv5_3 <- conv5_2
I0703 03:17:50.627892 13301 net.cpp:408] conv5_3 -> conv5_3
I0703 03:17:50.633679 13301 net.cpp:150] Setting up conv5_3
I0703 03:17:50.633699 13301 net.cpp:157] Top shape: 4 512 36 48 (3538944)
I0703 03:17:50.633702 13301 net.cpp:165] Memory required for data: 4456363460
I0703 03:17:50.633711 13301 layer_factory.hpp:77] Creating layer relu5_3
I0703 03:17:50.633720 13301 net.cpp:100] Creating Layer relu5_3
I0703 03:17:50.633725 13301 net.cpp:434] relu5_3 <- conv5_3
I0703 03:17:50.633731 13301 net.cpp:395] relu5_3 -> conv5_3 (in-place)
I0703 03:17:50.634003 13301 net.cpp:150] Setting up relu5_3
I0703 03:17:50.634011 13301 net.cpp:157] Top shape: 4 512 36 48 (3538944)
I0703 03:17:50.634013 13301 net.cpp:165] Memory required for data: 4470519236
I0703 03:17:50.634017 13301 layer_factory.hpp:77] Creating layer conv5_3_relu5_3_0_split
I0703 03:17:50.634022 13301 net.cpp:100] Creating Layer conv5_3_relu5_3_0_split
I0703 03:17:50.634027 13301 net.cpp:434] conv5_3_relu5_3_0_split <- conv5_3
I0703 03:17:50.634033 13301 net.cpp:408] conv5_3_relu5_3_0_split -> conv5_3_relu5_3_0_split_0
I0703 03:17:50.634042 13301 net.cpp:408] conv5_3_relu5_3_0_split -> conv5_3_relu5_3_0_split_1
I0703 03:17:50.634048 13301 net.cpp:408] conv5_3_relu5_3_0_split -> conv5_3_relu5_3_0_split_2
I0703 03:17:50.634099 13301 net.cpp:150] Setting up conv5_3_relu5_3_0_split
I0703 03:17:50.634104 13301 net.cpp:157] Top shape: 4 512 36 48 (3538944)
I0703 03:17:50.634109 13301 net.cpp:157] Top shape: 4 512 36 48 (3538944)
I0703 03:17:50.634112 13301 net.cpp:157] Top shape: 4 512 36 48 (3538944)
I0703 03:17:50.634114 13301 net.cpp:165] Memory required for data: 4512986564
I0703 03:17:50.634117 13301 layer_factory.hpp:77] Creating layer LFCN_2_3x5
I0703 03:17:50.634127 13301 net.cpp:100] Creating Layer LFCN_2_3x5
I0703 03:17:50.634132 13301 net.cpp:434] LFCN_2_3x5 <- conv5_3_relu5_3_0_split_0
I0703 03:17:50.634138 13301 net.cpp:408] LFCN_2_3x5 -> LFCN_2_3x5
I0703 03:17:50.635818 13301 net.cpp:150] Setting up LFCN_2_3x5
I0703 03:17:50.635828 13301 net.cpp:157] Top shape: 4 7 36 48 (48384)
I0703 03:17:50.635831 13301 net.cpp:165] Memory required for data: 4513180100
I0703 03:17:50.635844 13301 layer_factory.hpp:77] Creating layer LFCN_2_3x5_LFCN_2_3x5_0_split
I0703 03:17:50.635852 13301 net.cpp:100] Creating Layer LFCN_2_3x5_LFCN_2_3x5_0_split
I0703 03:17:50.635857 13301 net.cpp:434] LFCN_2_3x5_LFCN_2_3x5_0_split <- LFCN_2_3x5
I0703 03:17:50.635864 13301 net.cpp:408] LFCN_2_3x5_LFCN_2_3x5_0_split -> LFCN_2_3x5_LFCN_2_3x5_0_split_0
I0703 03:17:50.635879 13301 net.cpp:408] LFCN_2_3x5_LFCN_2_3x5_0_split -> LFCN_2_3x5_LFCN_2_3x5_0_split_1
I0703 03:17:50.635886 13301 net.cpp:408] LFCN_2_3x5_LFCN_2_3x5_0_split -> LFCN_2_3x5_LFCN_2_3x5_0_split_2
I0703 03:17:50.635936 13301 net.cpp:150] Setting up LFCN_2_3x5_LFCN_2_3x5_0_split
I0703 03:17:50.635941 13301 net.cpp:157] Top shape: 4 7 36 48 (48384)
I0703 03:17:50.635946 13301 net.cpp:157] Top shape: 4 7 36 48 (48384)
I0703 03:17:50.635949 13301 net.cpp:157] Top shape: 4 7 36 48 (48384)
I0703 03:17:50.635951 13301 net.cpp:165] Memory required for data: 4513760708
I0703 03:17:50.635956 13301 layer_factory.hpp:77] Creating layer detection_loss_2_3x5
I0703 03:17:50.635962 13301 net.cpp:100] Creating Layer detection_loss_2_3x5
I0703 03:17:50.635965 13301 net.cpp:434] detection_loss_2_3x5 <- LFCN_2_3x5_LFCN_2_3x5_0_split_0
I0703 03:17:50.635970 13301 net.cpp:434] detection_loss_2_3x5 <- label_2_3x5_data_3_split_0
I0703 03:17:50.635977 13301 net.cpp:408] detection_loss_2_3x5 -> loss_2_3x5
I0703 03:17:50.635985 13301 layer_factory.hpp:77] Creating layer detection_loss_2_3x5
I0703 03:17:50.636780 13301 net.cpp:150] Setting up detection_loss_2_3x5
I0703 03:17:50.636790 13301 net.cpp:157] Top shape: 1 1 1 2 (2)
I0703 03:17:50.636792 13301 net.cpp:160]     with loss weight 1
I0703 03:17:50.636801 13301 net.cpp:165] Memory required for data: 4513760716
I0703 03:17:50.636804 13301 layer_factory.hpp:77] Creating layer detection_accuracy_2_3x5
I0703 03:17:50.636813 13301 net.cpp:100] Creating Layer detection_accuracy_2_3x5
I0703 03:17:50.636817 13301 net.cpp:434] detection_accuracy_2_3x5 <- LFCN_2_3x5_LFCN_2_3x5_0_split_1
I0703 03:17:50.636822 13301 net.cpp:434] detection_accuracy_2_3x5 <- label_2_3x5_data_3_split_1
I0703 03:17:50.636828 13301 net.cpp:408] detection_accuracy_2_3x5 -> accuracy_2_3x5
I0703 03:17:50.636837 13301 net.cpp:408] detection_accuracy_2_3x5 -> boxiou_2_3x5
I0703 03:17:50.636876 13301 net.cpp:150] Setting up detection_accuracy_2_3x5
I0703 03:17:50.636881 13301 net.cpp:157] Top shape: 1 1 1 2 (2)
I0703 03:17:50.636885 13301 net.cpp:157] Top shape: 1 1 1 1 (1)
I0703 03:17:50.636888 13301 net.cpp:165] Memory required for data: 4513760728
I0703 03:17:50.636891 13301 layer_factory.hpp:77] Creating layer LFCN_2_5x7
I0703 03:17:50.636900 13301 net.cpp:100] Creating Layer LFCN_2_5x7
I0703 03:17:50.636904 13301 net.cpp:434] LFCN_2_5x7 <- conv5_3_relu5_3_0_split_1
I0703 03:17:50.636910 13301 net.cpp:408] LFCN_2_5x7 -> LFCN_2_5x7
I0703 03:17:50.640029 13301 net.cpp:150] Setting up LFCN_2_5x7
I0703 03:17:50.640050 13301 net.cpp:157] Top shape: 4 7 36 48 (48384)
I0703 03:17:50.640053 13301 net.cpp:165] Memory required for data: 4513954264
I0703 03:17:50.640061 13301 layer_factory.hpp:77] Creating layer LFCN_2_5x7_LFCN_2_5x7_0_split
I0703 03:17:50.640074 13301 net.cpp:100] Creating Layer LFCN_2_5x7_LFCN_2_5x7_0_split
I0703 03:17:50.640079 13301 net.cpp:434] LFCN_2_5x7_LFCN_2_5x7_0_split <- LFCN_2_5x7
I0703 03:17:50.640087 13301 net.cpp:408] LFCN_2_5x7_LFCN_2_5x7_0_split -> LFCN_2_5x7_LFCN_2_5x7_0_split_0
I0703 03:17:50.640097 13301 net.cpp:408] LFCN_2_5x7_LFCN_2_5x7_0_split -> LFCN_2_5x7_LFCN_2_5x7_0_split_1
I0703 03:17:50.640105 13301 net.cpp:408] LFCN_2_5x7_LFCN_2_5x7_0_split -> LFCN_2_5x7_LFCN_2_5x7_0_split_2
I0703 03:17:50.640153 13301 net.cpp:150] Setting up LFCN_2_5x7_LFCN_2_5x7_0_split
I0703 03:17:50.640158 13301 net.cpp:157] Top shape: 4 7 36 48 (48384)
I0703 03:17:50.640162 13301 net.cpp:157] Top shape: 4 7 36 48 (48384)
I0703 03:17:50.640167 13301 net.cpp:157] Top shape: 4 7 36 48 (48384)
I0703 03:17:50.640169 13301 net.cpp:165] Memory required for data: 4514534872
I0703 03:17:50.640172 13301 layer_factory.hpp:77] Creating layer detection_loss_2_5x7
I0703 03:17:50.640180 13301 net.cpp:100] Creating Layer detection_loss_2_5x7
I0703 03:17:50.640184 13301 net.cpp:434] detection_loss_2_5x7 <- LFCN_2_5x7_LFCN_2_5x7_0_split_0
I0703 03:17:50.640189 13301 net.cpp:434] detection_loss_2_5x7 <- label_2_5x7_data_4_split_0
I0703 03:17:50.640195 13301 net.cpp:408] detection_loss_2_5x7 -> loss_2_5x7
I0703 03:17:50.640206 13301 layer_factory.hpp:77] Creating layer detection_loss_2_5x7
I0703 03:17:50.640585 13301 net.cpp:150] Setting up detection_loss_2_5x7
I0703 03:17:50.640592 13301 net.cpp:157] Top shape: 1 1 1 2 (2)
I0703 03:17:50.640595 13301 net.cpp:160]     with loss weight 1
I0703 03:17:50.640604 13301 net.cpp:165] Memory required for data: 4514534880
I0703 03:17:50.640607 13301 layer_factory.hpp:77] Creating layer detection_accuracy_2_5x7
I0703 03:17:50.640614 13301 net.cpp:100] Creating Layer detection_accuracy_2_5x7
I0703 03:17:50.640619 13301 net.cpp:434] detection_accuracy_2_5x7 <- LFCN_2_5x7_LFCN_2_5x7_0_split_1
I0703 03:17:50.640624 13301 net.cpp:434] detection_accuracy_2_5x7 <- label_2_5x7_data_4_split_1
I0703 03:17:50.640630 13301 net.cpp:408] detection_accuracy_2_5x7 -> accuracy_2_5x7
I0703 03:17:50.640637 13301 net.cpp:408] detection_accuracy_2_5x7 -> boxiou_2_5x7
I0703 03:17:50.640676 13301 net.cpp:150] Setting up detection_accuracy_2_5x7
I0703 03:17:50.640681 13301 net.cpp:157] Top shape: 1 1 1 2 (2)
I0703 03:17:50.640684 13301 net.cpp:157] Top shape: 1 1 1 1 (1)
I0703 03:17:50.640687 13301 net.cpp:165] Memory required for data: 4514534892
I0703 03:17:50.640691 13301 layer_factory.hpp:77] Creating layer pool5
I0703 03:17:50.640696 13301 net.cpp:100] Creating Layer pool5
I0703 03:17:50.640699 13301 net.cpp:434] pool5 <- conv5_3_relu5_3_0_split_2
I0703 03:17:50.640704 13301 net.cpp:408] pool5 -> pool5
I0703 03:17:50.640738 13301 net.cpp:150] Setting up pool5
I0703 03:17:50.640743 13301 net.cpp:157] Top shape: 4 512 18 24 (884736)
I0703 03:17:50.640745 13301 net.cpp:165] Memory required for data: 4518073836
I0703 03:17:50.640748 13301 layer_factory.hpp:77] Creating layer conv6_1
I0703 03:17:50.640758 13301 net.cpp:100] Creating Layer conv6_1
I0703 03:17:50.640761 13301 net.cpp:434] conv6_1 <- pool5
I0703 03:17:50.640766 13301 net.cpp:408] conv6_1 -> conv6_1
I0703 03:17:50.661326 13301 net.cpp:150] Setting up conv6_1
I0703 03:17:50.661345 13301 net.cpp:157] Top shape: 4 512 18 24 (884736)
I0703 03:17:50.661347 13301 net.cpp:165] Memory required for data: 4521612780
I0703 03:17:50.661356 13301 layer_factory.hpp:77] Creating layer relu6_1
I0703 03:17:50.661365 13301 net.cpp:100] Creating Layer relu6_1
I0703 03:17:50.661372 13301 net.cpp:434] relu6_1 <- conv6_1
I0703 03:17:50.661378 13301 net.cpp:395] relu6_1 -> conv6_1 (in-place)
I0703 03:17:50.661612 13301 net.cpp:150] Setting up relu6_1
I0703 03:17:50.661618 13301 net.cpp:157] Top shape: 4 512 18 24 (884736)
I0703 03:17:50.661622 13301 net.cpp:165] Memory required for data: 4525151724
I0703 03:17:50.661624 13301 layer_factory.hpp:77] Creating layer conv6_1_relu6_1_0_split
I0703 03:17:50.661630 13301 net.cpp:100] Creating Layer conv6_1_relu6_1_0_split
I0703 03:17:50.661634 13301 net.cpp:434] conv6_1_relu6_1_0_split <- conv6_1
I0703 03:17:50.661639 13301 net.cpp:408] conv6_1_relu6_1_0_split -> conv6_1_relu6_1_0_split_0
I0703 03:17:50.661648 13301 net.cpp:408] conv6_1_relu6_1_0_split -> conv6_1_relu6_1_0_split_1
I0703 03:17:50.661655 13301 net.cpp:408] conv6_1_relu6_1_0_split -> conv6_1_relu6_1_0_split_2
I0703 03:17:50.661707 13301 net.cpp:150] Setting up conv6_1_relu6_1_0_split
I0703 03:17:50.661713 13301 net.cpp:157] Top shape: 4 512 18 24 (884736)
I0703 03:17:50.661717 13301 net.cpp:157] Top shape: 4 512 18 24 (884736)
I0703 03:17:50.661721 13301 net.cpp:157] Top shape: 4 512 18 24 (884736)
I0703 03:17:50.661723 13301 net.cpp:165] Memory required for data: 4535768556
I0703 03:17:50.661727 13301 layer_factory.hpp:77] Creating layer LFCN_3_3x5
I0703 03:17:50.661736 13301 net.cpp:100] Creating Layer LFCN_3_3x5
I0703 03:17:50.661741 13301 net.cpp:434] LFCN_3_3x5 <- conv6_1_relu6_1_0_split_0
I0703 03:17:50.661746 13301 net.cpp:408] LFCN_3_3x5 -> LFCN_3_3x5
I0703 03:17:50.664361 13301 net.cpp:150] Setting up LFCN_3_3x5
I0703 03:17:50.664381 13301 net.cpp:157] Top shape: 4 7 18 24 (12096)
I0703 03:17:50.664383 13301 net.cpp:165] Memory required for data: 4535816940
I0703 03:17:50.664392 13301 layer_factory.hpp:77] Creating layer LFCN_3_3x5_LFCN_3_3x5_0_split
I0703 03:17:50.664412 13301 net.cpp:100] Creating Layer LFCN_3_3x5_LFCN_3_3x5_0_split
I0703 03:17:50.664417 13301 net.cpp:434] LFCN_3_3x5_LFCN_3_3x5_0_split <- LFCN_3_3x5
I0703 03:17:50.664425 13301 net.cpp:408] LFCN_3_3x5_LFCN_3_3x5_0_split -> LFCN_3_3x5_LFCN_3_3x5_0_split_0
I0703 03:17:50.664441 13301 net.cpp:408] LFCN_3_3x5_LFCN_3_3x5_0_split -> LFCN_3_3x5_LFCN_3_3x5_0_split_1
I0703 03:17:50.664448 13301 net.cpp:408] LFCN_3_3x5_LFCN_3_3x5_0_split -> LFCN_3_3x5_LFCN_3_3x5_0_split_2
I0703 03:17:50.664499 13301 net.cpp:150] Setting up LFCN_3_3x5_LFCN_3_3x5_0_split
I0703 03:17:50.664503 13301 net.cpp:157] Top shape: 4 7 18 24 (12096)
I0703 03:17:50.664507 13301 net.cpp:157] Top shape: 4 7 18 24 (12096)
I0703 03:17:50.664511 13301 net.cpp:157] Top shape: 4 7 18 24 (12096)
I0703 03:17:50.664515 13301 net.cpp:165] Memory required for data: 4535962092
I0703 03:17:50.664518 13301 layer_factory.hpp:77] Creating layer detection_loss_3_3x5
I0703 03:17:50.664525 13301 net.cpp:100] Creating Layer detection_loss_3_3x5
I0703 03:17:50.664528 13301 net.cpp:434] detection_loss_3_3x5 <- LFCN_3_3x5_LFCN_3_3x5_0_split_0
I0703 03:17:50.664533 13301 net.cpp:434] detection_loss_3_3x5 <- label_3_3x5_data_5_split_0
I0703 03:17:50.664539 13301 net.cpp:408] detection_loss_3_3x5 -> loss_3_3x5
I0703 03:17:50.664549 13301 layer_factory.hpp:77] Creating layer detection_loss_3_3x5
I0703 03:17:50.665379 13301 net.cpp:150] Setting up detection_loss_3_3x5
I0703 03:17:50.665387 13301 net.cpp:157] Top shape: 1 1 1 2 (2)
I0703 03:17:50.665390 13301 net.cpp:160]     with loss weight 1
I0703 03:17:50.665400 13301 net.cpp:165] Memory required for data: 4535962100
I0703 03:17:50.665402 13301 layer_factory.hpp:77] Creating layer detection_accuracy_3_3x5
I0703 03:17:50.665410 13301 net.cpp:100] Creating Layer detection_accuracy_3_3x5
I0703 03:17:50.665415 13301 net.cpp:434] detection_accuracy_3_3x5 <- LFCN_3_3x5_LFCN_3_3x5_0_split_1
I0703 03:17:50.665419 13301 net.cpp:434] detection_accuracy_3_3x5 <- label_3_3x5_data_5_split_1
I0703 03:17:50.665426 13301 net.cpp:408] detection_accuracy_3_3x5 -> accuracy_3_3x5
I0703 03:17:50.665436 13301 net.cpp:408] detection_accuracy_3_3x5 -> boxiou_3_3x5
I0703 03:17:50.665473 13301 net.cpp:150] Setting up detection_accuracy_3_3x5
I0703 03:17:50.665478 13301 net.cpp:157] Top shape: 1 1 1 2 (2)
I0703 03:17:50.665482 13301 net.cpp:157] Top shape: 1 1 1 1 (1)
I0703 03:17:50.665485 13301 net.cpp:165] Memory required for data: 4535962112
I0703 03:17:50.665488 13301 layer_factory.hpp:77] Creating layer LFCN_3_5x7
I0703 03:17:50.665496 13301 net.cpp:100] Creating Layer LFCN_3_5x7
I0703 03:17:50.665501 13301 net.cpp:434] LFCN_3_5x7 <- conv6_1_relu6_1_0_split_1
I0703 03:17:50.665506 13301 net.cpp:408] LFCN_3_5x7 -> LFCN_3_5x7
I0703 03:17:50.667711 13301 net.cpp:150] Setting up LFCN_3_5x7
I0703 03:17:50.667723 13301 net.cpp:157] Top shape: 4 7 18 24 (12096)
I0703 03:17:50.667727 13301 net.cpp:165] Memory required for data: 4536010496
I0703 03:17:50.667735 13301 layer_factory.hpp:77] Creating layer LFCN_3_5x7_LFCN_3_5x7_0_split
I0703 03:17:50.667742 13301 net.cpp:100] Creating Layer LFCN_3_5x7_LFCN_3_5x7_0_split
I0703 03:17:50.667747 13301 net.cpp:434] LFCN_3_5x7_LFCN_3_5x7_0_split <- LFCN_3_5x7
I0703 03:17:50.667752 13301 net.cpp:408] LFCN_3_5x7_LFCN_3_5x7_0_split -> LFCN_3_5x7_LFCN_3_5x7_0_split_0
I0703 03:17:50.667762 13301 net.cpp:408] LFCN_3_5x7_LFCN_3_5x7_0_split -> LFCN_3_5x7_LFCN_3_5x7_0_split_1
I0703 03:17:50.667769 13301 net.cpp:408] LFCN_3_5x7_LFCN_3_5x7_0_split -> LFCN_3_5x7_LFCN_3_5x7_0_split_2
I0703 03:17:50.667817 13301 net.cpp:150] Setting up LFCN_3_5x7_LFCN_3_5x7_0_split
I0703 03:17:50.667822 13301 net.cpp:157] Top shape: 4 7 18 24 (12096)
I0703 03:17:50.667826 13301 net.cpp:157] Top shape: 4 7 18 24 (12096)
I0703 03:17:50.667830 13301 net.cpp:157] Top shape: 4 7 18 24 (12096)
I0703 03:17:50.667834 13301 net.cpp:165] Memory required for data: 4536155648
I0703 03:17:50.667836 13301 layer_factory.hpp:77] Creating layer detection_loss_3_5x7
I0703 03:17:50.667842 13301 net.cpp:100] Creating Layer detection_loss_3_5x7
I0703 03:17:50.667846 13301 net.cpp:434] detection_loss_3_5x7 <- LFCN_3_5x7_LFCN_3_5x7_0_split_0
I0703 03:17:50.667851 13301 net.cpp:434] detection_loss_3_5x7 <- label_3_5x7_data_6_split_0
I0703 03:17:50.667857 13301 net.cpp:408] detection_loss_3_5x7 -> loss_3_5x7
I0703 03:17:50.667866 13301 layer_factory.hpp:77] Creating layer detection_loss_3_5x7
I0703 03:17:50.668242 13301 net.cpp:150] Setting up detection_loss_3_5x7
I0703 03:17:50.668249 13301 net.cpp:157] Top shape: 1 1 1 2 (2)
I0703 03:17:50.668252 13301 net.cpp:160]     with loss weight 1
I0703 03:17:50.668259 13301 net.cpp:165] Memory required for data: 4536155656
I0703 03:17:50.668262 13301 layer_factory.hpp:77] Creating layer detection_accuracy_3_5x7
I0703 03:17:50.668268 13301 net.cpp:100] Creating Layer detection_accuracy_3_5x7
I0703 03:17:50.668272 13301 net.cpp:434] detection_accuracy_3_5x7 <- LFCN_3_5x7_LFCN_3_5x7_0_split_1
I0703 03:17:50.668277 13301 net.cpp:434] detection_accuracy_3_5x7 <- label_3_5x7_data_6_split_1
I0703 03:17:50.668282 13301 net.cpp:408] detection_accuracy_3_5x7 -> accuracy_3_5x7
I0703 03:17:50.668289 13301 net.cpp:408] detection_accuracy_3_5x7 -> boxiou_3_5x7
I0703 03:17:50.668326 13301 net.cpp:150] Setting up detection_accuracy_3_5x7
I0703 03:17:50.668331 13301 net.cpp:157] Top shape: 1 1 1 2 (2)
I0703 03:17:50.668335 13301 net.cpp:157] Top shape: 1 1 1 1 (1)
I0703 03:17:50.668337 13301 net.cpp:165] Memory required for data: 4536155668
I0703 03:17:50.668340 13301 layer_factory.hpp:77] Creating layer pool6
I0703 03:17:50.668346 13301 net.cpp:100] Creating Layer pool6
I0703 03:17:50.668350 13301 net.cpp:434] pool6 <- conv6_1_relu6_1_0_split_2
I0703 03:17:50.668355 13301 net.cpp:408] pool6 -> pool6
I0703 03:17:50.668388 13301 net.cpp:150] Setting up pool6
I0703 03:17:50.668393 13301 net.cpp:157] Top shape: 4 512 9 12 (221184)
I0703 03:17:50.668396 13301 net.cpp:165] Memory required for data: 4537040404
I0703 03:17:50.668400 13301 layer_factory.hpp:77] Creating layer LFCN_4_3x5
I0703 03:17:50.668407 13301 net.cpp:100] Creating Layer LFCN_4_3x5
I0703 03:17:50.668411 13301 net.cpp:434] LFCN_4_3x5 <- pool6
I0703 03:17:50.668416 13301 net.cpp:408] LFCN_4_3x5 -> LFCN_4_3x5
I0703 03:17:50.670553 13301 net.cpp:150] Setting up LFCN_4_3x5
I0703 03:17:50.670567 13301 net.cpp:157] Top shape: 4 7 9 12 (3024)
I0703 03:17:50.670569 13301 net.cpp:165] Memory required for data: 4537052500
I0703 03:17:50.670577 13301 layer_factory.hpp:77] Creating layer LFCN_4_3x5_LFCN_4_3x5_0_split
I0703 03:17:50.670583 13301 net.cpp:100] Creating Layer LFCN_4_3x5_LFCN_4_3x5_0_split
I0703 03:17:50.670588 13301 net.cpp:434] LFCN_4_3x5_LFCN_4_3x5_0_split <- LFCN_4_3x5
I0703 03:17:50.670595 13301 net.cpp:408] LFCN_4_3x5_LFCN_4_3x5_0_split -> LFCN_4_3x5_LFCN_4_3x5_0_split_0
I0703 03:17:50.670604 13301 net.cpp:408] LFCN_4_3x5_LFCN_4_3x5_0_split -> LFCN_4_3x5_LFCN_4_3x5_0_split_1
I0703 03:17:50.670611 13301 net.cpp:408] LFCN_4_3x5_LFCN_4_3x5_0_split -> LFCN_4_3x5_LFCN_4_3x5_0_split_2
I0703 03:17:50.670663 13301 net.cpp:150] Setting up LFCN_4_3x5_LFCN_4_3x5_0_split
I0703 03:17:50.670670 13301 net.cpp:157] Top shape: 4 7 9 12 (3024)
I0703 03:17:50.670673 13301 net.cpp:157] Top shape: 4 7 9 12 (3024)
I0703 03:17:50.670676 13301 net.cpp:157] Top shape: 4 7 9 12 (3024)
I0703 03:17:50.670680 13301 net.cpp:165] Memory required for data: 4537088788
I0703 03:17:50.670682 13301 layer_factory.hpp:77] Creating layer detection_loss_4_3x5
I0703 03:17:50.670688 13301 net.cpp:100] Creating Layer detection_loss_4_3x5
I0703 03:17:50.670693 13301 net.cpp:434] detection_loss_4_3x5 <- LFCN_4_3x5_LFCN_4_3x5_0_split_0
I0703 03:17:50.670698 13301 net.cpp:434] detection_loss_4_3x5 <- label_4_3x5_data_7_split_0
I0703 03:17:50.670704 13301 net.cpp:408] detection_loss_4_3x5 -> loss_4_3x5
I0703 03:17:50.670713 13301 layer_factory.hpp:77] Creating layer detection_loss_4_3x5
I0703 03:17:50.671092 13301 net.cpp:150] Setting up detection_loss_4_3x5
I0703 03:17:50.671099 13301 net.cpp:157] Top shape: 1 1 1 2 (2)
I0703 03:17:50.671102 13301 net.cpp:160]     with loss weight 1
I0703 03:17:50.671108 13301 net.cpp:165] Memory required for data: 4537088796
I0703 03:17:50.671113 13301 layer_factory.hpp:77] Creating layer detection_accuracy_4_3x5
I0703 03:17:50.671118 13301 net.cpp:100] Creating Layer detection_accuracy_4_3x5
I0703 03:17:50.671123 13301 net.cpp:434] detection_accuracy_4_3x5 <- LFCN_4_3x5_LFCN_4_3x5_0_split_1
I0703 03:17:50.671128 13301 net.cpp:434] detection_accuracy_4_3x5 <- label_4_3x5_data_7_split_1
I0703 03:17:50.671133 13301 net.cpp:408] detection_accuracy_4_3x5 -> accuracy_4_3x5
I0703 03:17:50.671140 13301 net.cpp:408] detection_accuracy_4_3x5 -> boxiou_4_3x5
I0703 03:17:50.671180 13301 net.cpp:150] Setting up detection_accuracy_4_3x5
I0703 03:17:50.671185 13301 net.cpp:157] Top shape: 1 1 1 2 (2)
I0703 03:17:50.671188 13301 net.cpp:157] Top shape: 1 1 1 1 (1)
I0703 03:17:50.671190 13301 net.cpp:165] Memory required for data: 4537088808
I0703 03:17:50.671193 13301 layer_factory.hpp:77] Creating layer proposals
I0703 03:17:50.671200 13301 net.cpp:100] Creating Layer proposals
I0703 03:17:50.671205 13301 net.cpp:434] proposals <- LFCN_1_3x5_LFCN_1_3x5_0_split_2
I0703 03:17:50.671208 13301 net.cpp:434] proposals <- LFCN_1_5x7_LFCN_1_5x7_0_split_2
I0703 03:17:50.671212 13301 net.cpp:434] proposals <- LFCN_2_3x5_LFCN_2_3x5_0_split_2
I0703 03:17:50.671216 13301 net.cpp:434] proposals <- LFCN_2_5x7_LFCN_2_5x7_0_split_2
I0703 03:17:50.671221 13301 net.cpp:434] proposals <- LFCN_3_3x5_LFCN_3_3x5_0_split_2
I0703 03:17:50.671223 13301 net.cpp:434] proposals <- LFCN_3_5x7_LFCN_3_5x7_0_split_2
I0703 03:17:50.671227 13301 net.cpp:434] proposals <- LFCN_4_3x5_LFCN_4_3x5_0_split_2
I0703 03:17:50.671232 13301 net.cpp:408] proposals -> proposals
I0703 03:17:50.671258 13301 net.cpp:150] Setting up proposals
I0703 03:17:50.671263 13301 net.cpp:157] Top shape: 1 5 1 1 (5)
I0703 03:17:50.671267 13301 net.cpp:165] Memory required for data: 4537088828
I0703 03:17:50.671269 13301 layer_factory.hpp:77] Creating layer proposal_info
I0703 03:17:50.671277 13301 net.cpp:100] Creating Layer proposal_info
I0703 03:17:50.671281 13301 net.cpp:434] proposal_info <- proposals
I0703 03:17:50.671285 13301 net.cpp:434] proposal_info <- gt_boxes
I0703 03:17:50.671291 13301 net.cpp:408] proposal_info -> rois
I0703 03:17:50.671301 13301 net.cpp:408] proposal_info -> proposal_labels
I0703 03:17:50.671309 13301 net.cpp:408] proposal_info -> proposal_targets
I0703 03:17:50.671317 13301 net.cpp:408] proposal_info -> box_inside_weights
I0703 03:17:50.671325 13301 net.cpp:408] proposal_info -> box_outside_weights
I0703 03:17:50.671332 13301 net.cpp:408] proposal_info -> match_gt_boxes
I0703 03:17:50.671411 13301 net.cpp:150] Setting up proposal_info
I0703 03:17:50.671416 13301 net.cpp:157] Top shape: 128 5 1 1 (640)
I0703 03:17:50.671419 13301 net.cpp:157] Top shape: 128 1 1 1 (128)
I0703 03:17:50.671423 13301 net.cpp:157] Top shape: 128 12 1 1 (1536)
I0703 03:17:50.671427 13301 net.cpp:157] Top shape: 128 12 1 1 (1536)
I0703 03:17:50.671432 13301 net.cpp:157] Top shape: 128 12 1 1 (1536)
I0703 03:17:50.671437 13301 net.cpp:157] Top shape: 128 6 1 1 (768)
I0703 03:17:50.671439 13301 net.cpp:165] Memory required for data: 4537113404
I0703 03:17:50.671442 13301 layer_factory.hpp:77] Creating layer rois_proposal_info_0_split
I0703 03:17:50.671447 13301 net.cpp:100] Creating Layer rois_proposal_info_0_split
I0703 03:17:50.671450 13301 net.cpp:434] rois_proposal_info_0_split <- rois
I0703 03:17:50.671455 13301 net.cpp:408] rois_proposal_info_0_split -> rois_proposal_info_0_split_0
I0703 03:17:50.671463 13301 net.cpp:408] rois_proposal_info_0_split -> rois_proposal_info_0_split_1
I0703 03:17:50.671468 13301 net.cpp:408] rois_proposal_info_0_split -> rois_proposal_info_0_split_2
I0703 03:17:50.671510 13301 net.cpp:150] Setting up rois_proposal_info_0_split
I0703 03:17:50.671515 13301 net.cpp:157] Top shape: 128 5 1 1 (640)
I0703 03:17:50.671519 13301 net.cpp:157] Top shape: 128 5 1 1 (640)
I0703 03:17:50.671522 13301 net.cpp:157] Top shape: 128 5 1 1 (640)
I0703 03:17:50.671525 13301 net.cpp:165] Memory required for data: 4537121084
I0703 03:17:50.671528 13301 layer_factory.hpp:77] Creating layer proposal_labels_proposal_info_1_split
I0703 03:17:50.671532 13301 net.cpp:100] Creating Layer proposal_labels_proposal_info_1_split
I0703 03:17:50.671536 13301 net.cpp:434] proposal_labels_proposal_info_1_split <- proposal_labels
I0703 03:17:50.671541 13301 net.cpp:408] proposal_labels_proposal_info_1_split -> proposal_labels_proposal_info_1_split_0
I0703 03:17:50.671547 13301 net.cpp:408] proposal_labels_proposal_info_1_split -> proposal_labels_proposal_info_1_split_1
I0703 03:17:50.671579 13301 net.cpp:150] Setting up proposal_labels_proposal_info_1_split
I0703 03:17:50.671583 13301 net.cpp:157] Top shape: 128 1 1 1 (128)
I0703 03:17:50.671587 13301 net.cpp:157] Top shape: 128 1 1 1 (128)
I0703 03:17:50.671591 13301 net.cpp:165] Memory required for data: 4537122108
I0703 03:17:50.671593 13301 layer_factory.hpp:77] Creating layer conv4_3_2x
I0703 03:17:50.671600 13301 net.cpp:100] Creating Layer conv4_3_2x
I0703 03:17:50.671604 13301 net.cpp:434] conv4_3_2x <- conv4_3_relu4_3_0_split_2
I0703 03:17:50.671610 13301 net.cpp:408] conv4_3_2x -> conv4_3_2x
I0703 03:17:50.671988 13301 net.cpp:150] Setting up conv4_3_2x
I0703 03:17:50.671995 13301 net.cpp:157] Top shape: 4 512 144 192 (56623104)
I0703 03:17:50.671998 13301 net.cpp:165] Memory required for data: 4763614524
I0703 03:17:50.672003 13301 layer_factory.hpp:77] Creating layer conv4_3_2x_conv4_3_2x_0_split
I0703 03:17:50.672008 13301 net.cpp:100] Creating Layer conv4_3_2x_conv4_3_2x_0_split
I0703 03:17:50.672011 13301 net.cpp:434] conv4_3_2x_conv4_3_2x_0_split <- conv4_3_2x
I0703 03:17:50.672016 13301 net.cpp:408] conv4_3_2x_conv4_3_2x_0_split -> conv4_3_2x_conv4_3_2x_0_split_0
I0703 03:17:50.672024 13301 net.cpp:408] conv4_3_2x_conv4_3_2x_0_split -> conv4_3_2x_conv4_3_2x_0_split_1
I0703 03:17:50.672057 13301 net.cpp:150] Setting up conv4_3_2x_conv4_3_2x_0_split
I0703 03:17:50.672062 13301 net.cpp:157] Top shape: 4 512 144 192 (56623104)
I0703 03:17:50.672066 13301 net.cpp:157] Top shape: 4 512 144 192 (56623104)
I0703 03:17:50.672070 13301 net.cpp:165] Memory required for data: 5216599356
I0703 03:17:50.672072 13301 layer_factory.hpp:77] Creating layer roi_pool_org
I0703 03:17:50.672077 13301 net.cpp:100] Creating Layer roi_pool_org
I0703 03:17:50.672080 13301 net.cpp:434] roi_pool_org <- conv4_3_2x_conv4_3_2x_0_split_0
I0703 03:17:50.672086 13301 net.cpp:434] roi_pool_org <- rois_proposal_info_0_split_0
I0703 03:17:50.672091 13301 net.cpp:408] roi_pool_org -> roi_pool_org
I0703 03:17:50.672101 13301 roi_pooling_layer.cpp:33] Spatial scale: 0.25
I0703 03:17:50.672135 13301 net.cpp:150] Setting up roi_pool_org
I0703 03:17:50.672140 13301 net.cpp:157] Top shape: 128 512 7 5 (2293760)
I0703 03:17:50.672142 13301 net.cpp:165] Memory required for data: 5225774396
I0703 03:17:50.672145 13301 layer_factory.hpp:77] Creating layer roi_pool_ctx
I0703 03:17:50.672150 13301 net.cpp:100] Creating Layer roi_pool_ctx
I0703 03:17:50.672154 13301 net.cpp:434] roi_pool_ctx <- conv4_3_2x_conv4_3_2x_0_split_1
I0703 03:17:50.672158 13301 net.cpp:434] roi_pool_ctx <- rois_proposal_info_0_split_1
I0703 03:17:50.672163 13301 net.cpp:408] roi_pool_ctx -> roi_pool_ctx
I0703 03:17:50.672168 13301 roi_pooling_layer.cpp:33] Spatial scale: 0.25
I0703 03:17:50.672201 13301 net.cpp:150] Setting up roi_pool_ctx
I0703 03:17:50.672206 13301 net.cpp:157] Top shape: 128 512 7 5 (2293760)
I0703 03:17:50.672209 13301 net.cpp:165] Memory required for data: 5234949436
I0703 03:17:50.672211 13301 layer_factory.hpp:77] Creating layer roi_pool
I0703 03:17:50.672216 13301 net.cpp:100] Creating Layer roi_pool
I0703 03:17:50.672220 13301 net.cpp:434] roi_pool <- roi_pool_org
I0703 03:17:50.672224 13301 net.cpp:434] roi_pool <- roi_pool_ctx
I0703 03:17:50.672228 13301 net.cpp:408] roi_pool -> roi_pool
I0703 03:17:50.672250 13301 net.cpp:150] Setting up roi_pool
I0703 03:17:50.672255 13301 net.cpp:157] Top shape: 128 1024 7 5 (4587520)
I0703 03:17:50.672257 13301 net.cpp:165] Memory required for data: 5253299516
I0703 03:17:50.672260 13301 layer_factory.hpp:77] Creating layer roi_c1
I0703 03:17:50.672267 13301 net.cpp:100] Creating Layer roi_c1
I0703 03:17:50.672271 13301 net.cpp:434] roi_c1 <- roi_pool
I0703 03:17:50.672276 13301 net.cpp:408] roi_c1 -> roi_c1
I0703 03:17:50.710716 13301 net.cpp:150] Setting up roi_c1
I0703 03:17:50.710736 13301 net.cpp:157] Top shape: 128 512 5 3 (983040)
I0703 03:17:50.710738 13301 net.cpp:165] Memory required for data: 5257231676
I0703 03:17:50.710747 13301 layer_factory.hpp:77] Creating layer roi_c1_relu
I0703 03:17:50.710757 13301 net.cpp:100] Creating Layer roi_c1_relu
I0703 03:17:50.710763 13301 net.cpp:434] roi_c1_relu <- roi_c1
I0703 03:17:50.710770 13301 net.cpp:395] roi_c1_relu -> roi_c1 (in-place)
I0703 03:17:50.711439 13301 net.cpp:150] Setting up roi_c1_relu
I0703 03:17:50.711450 13301 net.cpp:157] Top shape: 128 512 5 3 (983040)
I0703 03:17:50.711453 13301 net.cpp:165] Memory required for data: 5261163836
I0703 03:17:50.711457 13301 layer_factory.hpp:77] Creating layer fc6
I0703 03:17:50.711465 13301 net.cpp:100] Creating Layer fc6
I0703 03:17:50.711469 13301 net.cpp:434] fc6 <- roi_c1
I0703 03:17:50.711477 13301 net.cpp:408] fc6 -> fc6
I0703 03:17:50.832903 13301 net.cpp:150] Setting up fc6
I0703 03:17:50.832924 13301 net.cpp:157] Top shape: 128 2048 (262144)
I0703 03:17:50.832927 13301 net.cpp:165] Memory required for data: 5262212412
I0703 03:17:50.832937 13301 layer_factory.hpp:77] Creating layer relu6
I0703 03:17:50.832947 13301 net.cpp:100] Creating Layer relu6
I0703 03:17:50.832952 13301 net.cpp:434] relu6 <- fc6
I0703 03:17:50.832959 13301 net.cpp:395] relu6 -> fc6 (in-place)
I0703 03:17:50.833266 13301 net.cpp:150] Setting up relu6
I0703 03:17:50.833273 13301 net.cpp:157] Top shape: 128 2048 (262144)
I0703 03:17:50.833276 13301 net.cpp:165] Memory required for data: 5263260988
I0703 03:17:50.833279 13301 layer_factory.hpp:77] Creating layer drop6
I0703 03:17:50.833287 13301 net.cpp:100] Creating Layer drop6
I0703 03:17:50.833290 13301 net.cpp:434] drop6 <- fc6
I0703 03:17:50.833295 13301 net.cpp:395] drop6 -> fc6 (in-place)
I0703 03:17:50.833328 13301 net.cpp:150] Setting up drop6
I0703 03:17:50.833333 13301 net.cpp:157] Top shape: 128 2048 (262144)
I0703 03:17:50.833335 13301 net.cpp:165] Memory required for data: 5264309564
I0703 03:17:50.833338 13301 layer_factory.hpp:77] Creating layer fc6_drop6_0_split
I0703 03:17:50.833343 13301 net.cpp:100] Creating Layer fc6_drop6_0_split
I0703 03:17:50.833348 13301 net.cpp:434] fc6_drop6_0_split <- fc6
I0703 03:17:50.833353 13301 net.cpp:408] fc6_drop6_0_split -> fc6_drop6_0_split_0
I0703 03:17:50.833360 13301 net.cpp:408] fc6_drop6_0_split -> fc6_drop6_0_split_1
I0703 03:17:50.833398 13301 net.cpp:150] Setting up fc6_drop6_0_split
I0703 03:17:50.833403 13301 net.cpp:157] Top shape: 128 2048 (262144)
I0703 03:17:50.833407 13301 net.cpp:157] Top shape: 128 2048 (262144)
I0703 03:17:50.833410 13301 net.cpp:165] Memory required for data: 5266406716
I0703 03:17:50.833413 13301 layer_factory.hpp:77] Creating layer cls_pred
I0703 03:17:50.833420 13301 net.cpp:100] Creating Layer cls_pred
I0703 03:17:50.833425 13301 net.cpp:434] cls_pred <- fc6_drop6_0_split_0
I0703 03:17:50.833431 13301 net.cpp:408] cls_pred -> cls_pred
I0703 03:17:50.833570 13301 net.cpp:150] Setting up cls_pred
I0703 03:17:50.833575 13301 net.cpp:157] Top shape: 128 3 (384)
I0703 03:17:50.833578 13301 net.cpp:165] Memory required for data: 5266408252
I0703 03:17:50.833585 13301 layer_factory.hpp:77] Creating layer cls_pred_cls_pred_0_split
I0703 03:17:50.833590 13301 net.cpp:100] Creating Layer cls_pred_cls_pred_0_split
I0703 03:17:50.833593 13301 net.cpp:434] cls_pred_cls_pred_0_split <- cls_pred
I0703 03:17:50.833598 13301 net.cpp:408] cls_pred_cls_pred_0_split -> cls_pred_cls_pred_0_split_0
I0703 03:17:50.833604 13301 net.cpp:408] cls_pred_cls_pred_0_split -> cls_pred_cls_pred_0_split_1
I0703 03:17:50.833645 13301 net.cpp:150] Setting up cls_pred_cls_pred_0_split
I0703 03:17:50.833650 13301 net.cpp:157] Top shape: 128 3 (384)
I0703 03:17:50.833654 13301 net.cpp:157] Top shape: 128 3 (384)
I0703 03:17:50.833657 13301 net.cpp:165] Memory required for data: 5266411324
I0703 03:17:50.833660 13301 layer_factory.hpp:77] Creating layer bbox_pred
I0703 03:17:50.833665 13301 net.cpp:100] Creating Layer bbox_pred
I0703 03:17:50.833670 13301 net.cpp:434] bbox_pred <- fc6_drop6_0_split_1
I0703 03:17:50.833675 13301 net.cpp:408] bbox_pred -> bbox_pred
I0703 03:17:50.833940 13301 net.cpp:150] Setting up bbox_pred
I0703 03:17:50.833945 13301 net.cpp:157] Top shape: 128 12 (1536)
I0703 03:17:50.833948 13301 net.cpp:165] Memory required for data: 5266417468
I0703 03:17:50.833953 13301 layer_factory.hpp:77] Creating layer bbox_pred_bbox_pred_0_split
I0703 03:17:50.833958 13301 net.cpp:100] Creating Layer bbox_pred_bbox_pred_0_split
I0703 03:17:50.833961 13301 net.cpp:434] bbox_pred_bbox_pred_0_split <- bbox_pred
I0703 03:17:50.833966 13301 net.cpp:408] bbox_pred_bbox_pred_0_split -> bbox_pred_bbox_pred_0_split_0
I0703 03:17:50.833973 13301 net.cpp:408] bbox_pred_bbox_pred_0_split -> bbox_pred_bbox_pred_0_split_1
I0703 03:17:50.834005 13301 net.cpp:150] Setting up bbox_pred_bbox_pred_0_split
I0703 03:17:50.834009 13301 net.cpp:157] Top shape: 128 12 (1536)
I0703 03:17:50.834013 13301 net.cpp:157] Top shape: 128 12 (1536)
I0703 03:17:50.834017 13301 net.cpp:165] Memory required for data: 5266429756
I0703 03:17:50.834019 13301 layer_factory.hpp:77] Creating layer loss_cls
I0703 03:17:50.834024 13301 net.cpp:100] Creating Layer loss_cls
I0703 03:17:50.834028 13301 net.cpp:434] loss_cls <- cls_pred_cls_pred_0_split_0
I0703 03:17:50.834033 13301 net.cpp:434] loss_cls <- proposal_labels_proposal_info_1_split_0
…
I0703 03:17:50.846639 13301 image_gt_data_layer.cpp:241] output label size 3 : 2,6,36,48
I0703 03:17:50.846690 13301 image_gt_data_layer.cpp:241] output label size 4 : 2,6,18,24
I0703 03:17:50.846741 13301 image_gt_data_layer.cpp:241] output label size 5 : 2,6,18,24
I0703 03:17:50.846791 13301 image_gt_data_layer.cpp:241] output label size 6 : 2,6,9,12
I0703 03:17:50.846843 13301 image_gt_data_layer.cpp:256] output gt boxes size: 1,7,1,1
I0703 03:17:50.846845 13301 image_gt_data_layer.cpp:265]  --> has_mean_values_ = 1
I0703 03:17:50.865697 13301 net.cpp:150] Setting up data
I0703 03:17:50.865720 13301 net.cpp:157] Top shape: 2 4 576 768 (3538944)
I0703 03:17:50.865725 13301 net.cpp:157] Top shape: 2 6 72 96 (82944)
I0703 03:17:50.865730 13301 net.cpp:157] Top shape: 2 6 72 96 (82944)
I0703 03:17:50.865733 13301 net.cpp:157] Top shape: 2 6 36 48 (20736)
I0703 03:17:50.865736 13301 net.cpp:157] Top shape: 2 6 36 48 (20736)
I0703 03:17:50.865741 13301 net.cpp:157] Top shape: 2 6 18 24 (5184)
I0703 03:17:50.865746 13301 net.cpp:157] Top shape: 2 6 18 24 (5184)
I0703 03:17:50.865749 13301 net.cpp:157] Top shape: 2 6 9 12 (1296)
I0703 03:17:50.865753 13301 net.cpp:157] Top shape: 1 7 1 1 (7)
I0703 03:17:50.865756 13301 net.cpp:165] Memory required for data: 15031900
I0703 03:17:50.865762 13301 layer_factory.hpp:77] Creating layer label_1_3x5_data_1_split
I0703 03:17:50.865773 13301 net.cpp:100] Creating Layer label_1_3x5_data_1_split
I0703 03:17:50.865778 13301 net.cpp:434] label_1_3x5_data_1_split <- label_1_3x5
I0703 03:17:50.865787 13301 net.cpp:408] label_1_3x5_data_1_split -> label_1_3x5_data_1_split_0
I0703 03:17:50.865797 13301 net.cpp:408] label_1_3x5_data_1_split -> label_1_3x5_data_1_split_1
I0703 03:17:50.865867 13301 net.cpp:150] Setting up label_1_3x5_data_1_split
I0703 03:17:50.865873 13301 net.cpp:157] Top shape: 2 6 72 96 (82944)
I0703 03:17:50.865877 13301 net.cpp:157] Top shape: 2 6 72 96 (82944)
I0703 03:17:50.865880 13301 net.cpp:165] Memory required for data: 15695452
I0703 03:17:50.865883 13301 layer_factory.hpp:77] Creating layer label_1_5x7_data_2_split
I0703 03:17:50.865890 13301 net.cpp:100] Creating Layer label_1_5x7_data_2_split
I0703 03:17:50.865895 13301 net.cpp:434] label_1_5x7_data_2_split <- label_1_5x7
I0703 03:17:50.865900 13301 net.cpp:408] label_1_5x7_data_2_split -> label_1_5x7_data_2_split_0
I0703 03:17:50.865907 13301 net.cpp:408] label_1_5x7_data_2_split -> label_1_5x7_data_2_split_1
I0703 03:17:50.865949 13301 net.cpp:150] Setting up label_1_5x7_data_2_split
I0703 03:17:50.865955 13301 net.cpp:157] Top shape: 2 6 72 96 (82944)
I0703 03:17:50.865959 13301 net.cpp:157] Top shape: 2 6 72 96 (82944)
I0703 03:17:50.865962 13301 net.cpp:165] Memory required for data: 16359004
I0703 03:17:50.865964 13301 layer_factory.hpp:77] Creating layer label_2_3x5_data_3_split
I0703 03:17:50.865969 13301 net.cpp:100] Creating Layer label_2_3x5_data_3_split
I0703 03:17:50.865972 13301 net.cpp:434] label_2_3x5_data_3_split <- label_2_3x5
I0703 03:17:50.865979 13301 net.cpp:408] label_2_3x5_data_3_split -> label_2_3x5_data_3_split_0
I0703 03:17:50.865985 13301 net.cpp:408] label_2_3x5_data_3_split -> label_2_3x5_data_3_split_1
I0703 03:17:50.866025 13301 net.cpp:150] Setting up label_2_3x5_data_3_split
I0703 03:17:50.866030 13301 net.cpp:157] Top shape: 2 6 36 48 (20736)
I0703 03:17:50.866034 13301 net.cpp:157] Top shape: 2 6 36 48 (20736)
I0703 03:17:50.866037 13301 net.cpp:165] Memory required for data: 16524892
I0703 03:17:50.866040 13301 layer_factory.hpp:77] Creating layer label_2_5x7_data_4_split
I0703 03:17:50.866046 13301 net.cpp:100] Creating Layer label_2_5x7_data_4_split
I0703 03:17:50.866050 13301 net.cpp:434] label_2_5x7_data_4_split <- label_2_5x7
I0703 03:17:50.866055 13301 net.cpp:408] label_2_5x7_data_4_split -> label_2_5x7_data_4_split_0
I0703 03:17:50.866061 13301 net.cpp:408] label_2_5x7_data_4_split -> label_2_5x7_data_4_split_1
I0703 03:17:50.866101 13301 net.cpp:150] Setting up label_2_5x7_data_4_split
I0703 03:17:50.866106 13301 net.cpp:157] Top shape: 2 6 36 48 (20736)
I0703 03:17:50.866111 13301 net.cpp:157] Top shape: 2 6 36 48 (20736)
I0703 03:17:50.866114 13301 net.cpp:165] Memory required for data: 16690780
I0703 03:17:50.866117 13301 layer_factory.hpp:77] Creating layer label_3_3x5_data_5_split
I0703 03:17:50.866122 13301 net.cpp:100] Creating Layer label_3_3x5_data_5_split
I0703 03:17:50.866125 13301 net.cpp:434] label_3_3x5_data_5_split <- label_3_3x5
I0703 03:17:50.866130 13301 net.cpp:408] label_3_3x5_data_5_split -> label_3_3x5_data_5_split_0
I0703 03:17:50.866137 13301 net.cpp:408] label_3_3x5_data_5_split -> label_3_3x5_data_5_split_1
I0703 03:17:50.866173 13301 net.cpp:150] Setting up label_3_3x5_data_5_split
I0703 03:17:50.866179 13301 net.cpp:157] Top shape: 2 6 18 24 (5184)
I0703 03:17:50.866183 13301 net.cpp:157] Top shape: 2 6 18 24 (5184)
I0703 03:17:50.866186 13301 net.cpp:165] Memory required for data: 16732252
I0703 03:17:50.866189 13301 layer_factory.hpp:77] Creating layer label_3_5x7_data_6_split
I0703 03:17:50.866194 13301 net.cpp:100] Creating Layer label_3_5x7_data_6_split
I0703 03:17:50.866196 13301 net.cpp:434] label_3_5x7_data_6_split <- label_3_5x7
I0703 03:17:50.866201 13301 net.cpp:408] label_3_5x7_data_6_split -> label_3_5x7_data_6_split_0
I0703 03:17:50.866209 13301 net.cpp:408] label_3_5x7_data_6_split -> label_3_5x7_data_6_split_1
I0703 03:17:50.866247 13301 net.cpp:150] Setting up label_3_5x7_data_6_split
I0703 03:17:50.866253 13301 net.cpp:157] Top shape: 2 6 18 24 (5184)
I0703 03:17:50.866257 13301 net.cpp:157] Top shape: 2 6 18 24 (5184)
I0703 03:17:50.866259 13301 net.cpp:165] Memory required for data: 16773724
I0703 03:17:50.866262 13301 layer_factory.hpp:77] Creating layer label_4_3x5_data_7_split
I0703 03:17:50.866268 13301 net.cpp:100] Creating Layer label_4_3x5_data_7_split
I0703 03:17:50.866271 13301 net.cpp:434] label_4_3x5_data_7_split <- label_4_3x5
I0703 03:17:50.866276 13301 net.cpp:408] label_4_3x5_data_7_split -> label_4_3x5_data_7_split_0
I0703 03:17:50.866282 13301 net.cpp:408] label_4_3x5_data_7_split -> label_4_3x5_data_7_split_1
I0703 03:17:50.866322 13301 net.cpp:150] Setting up label_4_3x5_data_7_split
I0703 03:17:50.866327 13301 net.cpp:157] Top shape: 2 6 9 12 (1296)
I0703 03:17:50.866329 13301 net.cpp:157] Top shape: 2 6 9 12 (1296)
I0703 03:17:50.866333 13301 net.cpp:165] Memory required for data: 16784092
I0703 03:17:50.866335 13301 layer_factory.hpp:77] Creating layer conv1_1
I0703 03:17:50.866348 13301 net.cpp:100] Creating Layer conv1_1
I0703 03:17:50.866350 13301 net.cpp:434] conv1_1 <- data
I0703 03:17:50.866356 13301 net.cpp:408] conv1_1 -> conv1_1
I0703 03:17:50.871490 13301 net.cpp:150] Setting up conv1_1
I0703 03:17:50.871511 13301 net.cpp:157] Top shape: 2 64 576 768 (56623104)
I0703 03:17:50.871515 13301 net.cpp:165] Memory required for data: 243276508
I0703 03:17:50.871531 13301 layer_factory.hpp:77] Creating layer relu1_1
I0703 03:17:50.871544 13301 net.cpp:100] Creating Layer relu1_1
I0703 03:17:50.871549 13301 net.cpp:434] relu1_1 <- conv1_1
I0703 03:17:50.871556 13301 net.cpp:395] relu1_1 -> conv1_1 (in-place)
I0703 03:17:50.871903 13301 net.cpp:150] Setting up relu1_1
I0703 03:17:50.871912 13301 net.cpp:157] Top shape: 2 64 576 768 (56623104)
I0703 03:17:50.871915 13301 net.cpp:165] Memory required for data: 469768924
I0703 03:17:50.871918 13301 layer_factory.hpp:77] Creating layer conv1_2
I0703 03:17:50.871932 13301 net.cpp:100] Creating Layer conv1_2
I0703 03:17:50.871934 13301 net.cpp:434] conv1_2 <- conv1_1
I0703 03:17:50.871940 13301 net.cpp:408] conv1_2 -> conv1_2
I0703 03:17:50.874910 13301 net.cpp:150] Setting up conv1_2
I0703 03:17:50.874935 13301 net.cpp:157] Top shape: 2 64 576 768 (56623104)
I0703 03:17:50.874938 13301 net.cpp:165] Memory required for data: 696261340
I0703 03:17:50.874954 13301 layer_factory.hpp:77] Creating layer relu1_2
I0703 03:17:50.874964 13301 net.cpp:100] Creating Layer relu1_2
I0703 03:17:50.874970 13301 net.cpp:434] relu1_2 <- conv1_2
I0703 03:17:50.874979 13301 net.cpp:395] relu1_2 -> conv1_2 (in-place)
I0703 03:17:50.875327 13301 net.cpp:150] Setting up relu1_2
I0703 03:17:50.875336 13301 net.cpp:157] Top shape: 2 64 576 768 (56623104)
I0703 03:17:50.875339 13301 net.cpp:165] Memory required for data: 922753756
I0703 03:17:50.875342 13301 layer_factory.hpp:77] Creating layer pool1
I0703 03:17:50.875349 13301 net.cpp:100] Creating Layer pool1
I0703 03:17:50.875353 13301 net.cpp:434] pool1 <- conv1_2
I0703 03:17:50.875360 13301 net.cpp:408] pool1 -> pool1
I0703 03:17:50.875416 13301 net.cpp:150] Setting up pool1
I0703 03:17:50.875422 13301 net.cpp:157] Top shape: 2 64 288 384 (14155776)
I0703 03:17:50.875425 13301 net.cpp:165] Memory required for data: 979376860
I0703 03:17:50.875428 13301 layer_factory.hpp:77] Creating layer conv2_1
I0703 03:17:50.875437 13301 net.cpp:100] Creating Layer conv2_1
I0703 03:17:50.875440 13301 net.cpp:434] conv2_1 <- pool1
I0703 03:17:50.875445 13301 net.cpp:408] conv2_1 -> conv2_1
I0703 03:17:50.877521 13301 net.cpp:150] Setting up conv2_1
I0703 03:17:50.877537 13301 net.cpp:157] Top shape: 2 128 288 384 (28311552)
I0703 03:17:50.877540 13301 net.cpp:165] Memory required for data: 1092623068
I0703 03:17:50.877555 13301 layer_factory.hpp:77] Creating layer relu2_1
I0703 03:17:50.877564 13301 net.cpp:100] Creating Layer relu2_1
I0703 03:17:50.877568 13301 net.cpp:434] relu2_1 <- conv2_1
I0703 03:17:50.877576 13301 net.cpp:395] relu2_1 -> conv2_1 (in-place)
I0703 03:17:50.878288 13301 net.cpp:150] Setting up relu2_1
I0703 03:17:50.878298 13301 net.cpp:157] Top shape: 2 128 288 384 (28311552)
I0703 03:17:50.878300 13301 net.cpp:165] Memory required for data: 1205869276
I0703 03:17:50.878304 13301 layer_factory.hpp:77] Creating layer conv2_2
I0703 03:17:50.878314 13301 net.cpp:100] Creating Layer conv2_2
I0703 03:17:50.878319 13301 net.cpp:434] conv2_2 <- conv2_1
I0703 03:17:50.878324 13301 net.cpp:408] conv2_2 -> conv2_2
I0703 03:17:50.881675 13301 net.cpp:150] Setting up conv2_2
I0703 03:17:50.881695 13301 net.cpp:157] Top shape: 2 128 288 384 (28311552)
I0703 03:17:50.881697 13301 net.cpp:165] Memory required for data: 1319115484
I0703 03:17:50.881708 13301 layer_factory.hpp:77] Creating layer relu2_2
I0703 03:17:50.881723 13301 net.cpp:100] Creating Layer relu2_2
I0703 03:17:50.881728 13301 net.cpp:434] relu2_2 <- conv2_2
I0703 03:17:50.881736 13301 net.cpp:395] relu2_2 -> conv2_2 (in-place)
I0703 03:17:50.882081 13301 net.cpp:150] Setting up relu2_2
I0703 03:17:50.882091 13301 net.cpp:157] Top shape: 2 128 288 384 (28311552)
I0703 03:17:50.882092 13301 net.cpp:165] Memory required for data: 1432361692
I0703 03:17:50.882097 13301 layer_factory.hpp:77] Creating layer pool2
I0703 03:17:50.882102 13301 net.cpp:100] Creating Layer pool2
I0703 03:17:50.882105 13301 net.cpp:434] pool2 <- conv2_2
I0703 03:17:50.882112 13301 net.cpp:408] pool2 -> pool2
I0703 03:17:50.882170 13301 net.cpp:150] Setting up pool2
I0703 03:17:50.882175 13301 net.cpp:157] Top shape: 2 128 144 192 (7077888)
I0703 03:17:50.882179 13301 net.cpp:165] Memory required for data: 1460673244
I0703 03:17:50.882181 13301 layer_factory.hpp:77] Creating layer conv3_1
I0703 03:17:50.882190 13301 net.cpp:100] Creating Layer conv3_1
I0703 03:17:50.882194 13301 net.cpp:434] conv3_1 <- pool2
I0703 03:17:50.882200 13301 net.cpp:408] conv3_1 -> conv3_1
I0703 03:17:50.887073 13301 net.cpp:150] Setting up conv3_1
I0703 03:17:50.887094 13301 net.cpp:157] Top shape: 2 256 144 192 (14155776)
I0703 03:17:50.887096 13301 net.cpp:165] Memory required for data: 1517296348
I0703 03:17:50.887111 13301 layer_factory.hpp:77] Creating layer relu3_1
I0703 03:17:50.887123 13301 net.cpp:100] Creating Layer relu3_1
I0703 03:17:50.887128 13301 net.cpp:434] relu3_1 <- conv3_1
I0703 03:17:50.887135 13301 net.cpp:395] relu3_1 -> conv3_1 (in-place)
I0703 03:17:50.887428 13301 net.cpp:150] Setting up relu3_1
I0703 03:17:50.887435 13301 net.cpp:157] Top shape: 2 256 144 192 (14155776)
I0703 03:17:50.887439 13301 net.cpp:165] Memory required for data: 1573919452
I0703 03:17:50.887441 13301 layer_factory.hpp:77] Creating layer conv3_2
I0703 03:17:50.887451 13301 net.cpp:100] Creating Layer conv3_2
I0703 03:17:50.887455 13301 net.cpp:434] conv3_2 <- conv3_1
I0703 03:17:50.887462 13301 net.cpp:408] conv3_2 -> conv3_2
I0703 03:17:50.890789 13301 net.cpp:150] Setting up conv3_2
I0703 03:17:50.890810 13301 net.cpp:157] Top shape: 2 256 144 192 (14155776)
I0703 03:17:50.890812 13301 net.cpp:165] Memory required for data: 1630542556
I0703 03:17:50.890822 13301 layer_factory.hpp:77] Creating layer relu3_2
I0703 03:17:50.890832 13301 net.cpp:100] Creating Layer relu3_2
I0703 03:17:50.890837 13301 net.cpp:434] relu3_2 <- conv3_2
I0703 03:17:50.890846 13301 net.cpp:395] relu3_2 -> conv3_2 (in-place)
I0703 03:17:50.891538 13301 net.cpp:150] Setting up relu3_2
I0703 03:17:50.891549 13301 net.cpp:157] Top shape: 2 256 144 192 (14155776)
I0703 03:17:50.891551 13301 net.cpp:165] Memory required for data: 1687165660
I0703 03:17:50.891556 13301 layer_factory.hpp:77] Creating layer conv3_3
I0703 03:17:50.891566 13301 net.cpp:100] Creating Layer conv3_3
I0703 03:17:50.891571 13301 net.cpp:434] conv3_3 <- conv3_2
I0703 03:17:50.891575 13301 net.cpp:408] conv3_3 -> conv3_3
I0703 03:17:50.894918 13301 net.cpp:150] Setting up conv3_3
I0703 03:17:50.894939 13301 net.cpp:157] Top shape: 2 256 144 192 (14155776)
I0703 03:17:50.894942 13301 net.cpp:165] Memory required for data: 1743788764
I0703 03:17:50.894953 13301 layer_factory.hpp:77] Creating layer relu3_3
I0703 03:17:50.894963 13301 net.cpp:100] Creating Layer relu3_3
I0703 03:17:50.894968 13301 net.cpp:434] relu3_3 <- conv3_3
I0703 03:17:50.894975 13301 net.cpp:395] relu3_3 -> conv3_3 (in-place)
I0703 03:17:50.895690 13301 net.cpp:150] Setting up relu3_3
I0703 03:17:50.895701 13301 net.cpp:157] Top shape: 2 256 144 192 (14155776)
I0703 03:17:50.895704 13301 net.cpp:165] Memory required for data: 1800411868
I0703 03:17:50.895709 13301 layer_factory.hpp:77] Creating layer pool3
I0703 03:17:50.895715 13301 net.cpp:100] Creating Layer pool3
I0703 03:17:50.895720 13301 net.cpp:434] pool3 <- conv3_3
I0703 03:17:50.895727 13301 net.cpp:408] pool3 -> pool3
I0703 03:17:50.895788 13301 net.cpp:150] Setting up pool3
I0703 03:17:50.895797 13301 net.cpp:157] Top shape: 2 256 72 96 (3538944)
I0703 03:17:50.895799 13301 net.cpp:165] Memory required for data: 1814567644
I0703 03:17:50.895802 13301 layer_factory.hpp:77] Creating layer conv4_1
I0703 03:17:50.895810 13301 net.cpp:100] Creating Layer conv4_1
I0703 03:17:50.895814 13301 net.cpp:434] conv4_1 <- pool3
I0703 03:17:50.895820 13301 net.cpp:408] conv4_1 -> conv4_1
I0703 03:17:50.900151 13301 net.cpp:150] Setting up conv4_1
I0703 03:17:50.900177 13301 net.cpp:157] Top shape: 2 512 72 96 (7077888)
I0703 03:17:50.900179 13301 net.cpp:165] Memory required for data: 1842879196
I0703 03:17:50.900189 13301 layer_factory.hpp:77] Creating layer relu4_1
I0703 03:17:50.900199 13301 net.cpp:100] Creating Layer relu4_1
I0703 03:17:50.900204 13301 net.cpp:434] relu4_1 <- conv4_1
I0703 03:17:50.900212 13301 net.cpp:395] relu4_1 -> conv4_1 (in-place)
I0703 03:17:50.900501 13301 net.cpp:150] Setting up relu4_1
I0703 03:17:50.900509 13301 net.cpp:157] Top shape: 2 512 72 96 (7077888)
I0703 03:17:50.900512 13301 net.cpp:165] Memory required for data: 1871190748
I0703 03:17:50.900516 13301 layer_factory.hpp:77] Creating layer conv4_2
I0703 03:17:50.900526 13301 net.cpp:100] Creating Layer conv4_2
I0703 03:17:50.900529 13301 net.cpp:434] conv4_2 <- conv4_1
I0703 03:17:50.900535 13301 net.cpp:408] conv4_2 -> conv4_2
I0703 03:17:50.910475 13301 net.cpp:150] Setting up conv4_2
I0703 03:17:50.910548 13301 net.cpp:157] Top shape: 2 512 72 96 (7077888)
I0703 03:17:50.910552 13301 net.cpp:165] Memory required for data: 1899502300
I0703 03:17:50.910588 13301 layer_factory.hpp:77] Creating layer relu4_2
I0703 03:17:50.910610 13301 net.cpp:100] Creating Layer relu4_2
I0703 03:17:50.910617 13301 net.cpp:434] relu4_2 <- conv4_2
I0703 03:17:50.910634 13301 net.cpp:395] relu4_2 -> conv4_2 (in-place)
I0703 03:17:50.911393 13301 net.cpp:150] Setting up relu4_2
I0703 03:17:50.911418 13301 net.cpp:157] Top shape: 2 512 72 96 (7077888)
I0703 03:17:50.911422 13301 net.cpp:165] Memory required for data: 1927813852
I0703 03:17:50.911428 13301 layer_factory.hpp:77] Creating layer conv4_3
I0703 03:17:50.911449 13301 net.cpp:100] Creating Layer conv4_3
I0703 03:17:50.911454 13301 net.cpp:434] conv4_3 <- conv4_2
I0703 03:17:50.911465 13301 net.cpp:408] conv4_3 -> conv4_3
I0703 03:17:50.917245 13301 net.cpp:150] Setting up conv4_3
I0703 03:17:50.917268 13301 net.cpp:157] Top shape: 2 512 72 96 (7077888)
I0703 03:17:50.917270 13301 net.cpp:165] Memory required for data: 1956125404
I0703 03:17:50.917280 13301 layer_factory.hpp:77] Creating layer relu4_3
I0703 03:17:50.917294 13301 net.cpp:100] Creating Layer relu4_3
I0703 03:17:50.917297 13301 net.cpp:434] relu4_3 <- conv4_3
I0703 03:17:50.917304 13301 net.cpp:395] relu4_3 -> conv4_3 (in-place)
I0703 03:17:50.918051 13301 net.cpp:150] Setting up relu4_3
I0703 03:17:50.918062 13301 net.cpp:157] Top shape: 2 512 72 96 (7077888)
I0703 03:17:50.918066 13301 net.cpp:165] Memory required for data: 1984436956
I0703 03:17:50.918069 13301 layer_factory.hpp:77] Creating layer conv4_3_relu4_3_0_split
I0703 03:17:50.918076 13301 net.cpp:100] Creating Layer conv4_3_relu4_3_0_split
I0703 03:17:50.918081 13301 net.cpp:434] conv4_3_relu4_3_0_split <- conv4_3
I0703 03:17:50.918087 13301 net.cpp:408] conv4_3_relu4_3_0_split -> conv4_3_relu4_3_0_split_0
I0703 03:17:50.918097 13301 net.cpp:408] conv4_3_relu4_3_0_split -> conv4_3_relu4_3_0_split_1
I0703 03:17:50.918103 13301 net.cpp:408] conv4_3_relu4_3_0_split -> conv4_3_relu4_3_0_split_2
I0703 03:17:50.918169 13301 net.cpp:150] Setting up conv4_3_relu4_3_0_split
I0703 03:17:50.918175 13301 net.cpp:157] Top shape: 2 512 72 96 (7077888)
I0703 03:17:50.918179 13301 net.cpp:157] Top shape: 2 512 72 96 (7077888)
I0703 03:17:50.918184 13301 net.cpp:157] Top shape: 2 512 72 96 (7077888)
I0703 03:17:50.918186 13301 net.cpp:165] Memory required for data: 2069371612
I0703 03:17:50.918190 13301 layer_factory.hpp:77] Creating layer loss1_conv1
I0703 03:17:50.918205 13301 net.cpp:100] Creating Layer loss1_conv1
I0703 03:17:50.918210 13301 net.cpp:434] loss1_conv1 <- conv4_3_relu4_3_0_split_0
I0703 03:17:50.918215 13301 net.cpp:408] loss1_conv1 -> loss1_conv1
I0703 03:17:50.939869 13301 net.cpp:150] Setting up loss1_conv1
I0703 03:17:50.939889 13301 net.cpp:157] Top shape: 2 512 72 96 (7077888)
I0703 03:17:50.939893 13301 net.cpp:165] Memory required for data: 2097683164
I0703 03:17:50.939901 13301 layer_factory.hpp:77] Creating layer loss_relu1
I0703 03:17:50.939913 13301 net.cpp:100] Creating Layer loss_relu1
I0703 03:17:50.939918 13301 net.cpp:434] loss_relu1 <- loss1_conv1
I0703 03:17:50.939925 13301 net.cpp:395] loss_relu1 -> loss1_conv1 (in-place)
I0703 03:17:50.940198 13301 net.cpp:150] Setting up loss_relu1
I0703 03:17:50.940207 13301 net.cpp:157] Top shape: 2 512 72 96 (7077888)
I0703 03:17:50.940208 13301 net.cpp:165] Memory required for data: 2125994716
I0703 03:17:50.940212 13301 layer_factory.hpp:77] Creating layer loss1_conv1_loss_relu1_0_split
I0703 03:17:50.940218 13301 net.cpp:100] Creating Layer loss1_conv1_loss_relu1_0_split
I0703 03:17:50.940222 13301 net.cpp:434] loss1_conv1_loss_relu1_0_split <- loss1_conv1
I0703 03:17:50.940229 13301 net.cpp:408] loss1_conv1_loss_relu1_0_split -> loss1_conv1_loss_relu1_0_split_0
I0703 03:17:50.940237 13301 net.cpp:408] loss1_conv1_loss_relu1_0_split -> loss1_conv1_loss_relu1_0_split_1
I0703 03:17:50.940286 13301 net.cpp:150] Setting up loss1_conv1_loss_relu1_0_split
I0703 03:17:50.940294 13301 net.cpp:157] Top shape: 2 512 72 96 (7077888)
I0703 03:17:50.940297 13301 net.cpp:157] Top shape: 2 512 72 96 (7077888)
I0703 03:17:50.940300 13301 net.cpp:165] Memory required for data: 2182617820
I0703 03:17:50.940304 13301 layer_factory.hpp:77] Creating layer LFCN_1_3x5
I0703 03:17:50.940313 13301 net.cpp:100] Creating Layer LFCN_1_3x5
I0703 03:17:50.940317 13301 net.cpp:434] LFCN_1_3x5 <- loss1_conv1_loss_relu1_0_split_0
I0703 03:17:50.940323 13301 net.cpp:408] LFCN_1_3x5 -> LFCN_1_3x5
I0703 03:17:50.943688 13301 net.cpp:150] Setting up LFCN_1_3x5
I0703 03:17:50.943719 13301 net.cpp:157] Top shape: 2 7 72 96 (96768)
I0703 03:17:50.943722 13301 net.cpp:165] Memory required for data: 2183004892
I0703 03:17:50.943737 13301 layer_factory.hpp:77] Creating layer LFCN_1_3x5_LFCN_1_3x5_0_split
I0703 03:17:50.943748 13301 net.cpp:100] Creating Layer LFCN_1_3x5_LFCN_1_3x5_0_split
I0703 03:17:50.943753 13301 net.cpp:434] LFCN_1_3x5_LFCN_1_3x5_0_split <- LFCN_1_3x5
I0703 03:17:50.943763 13301 net.cpp:408] LFCN_1_3x5_LFCN_1_3x5_0_split -> LFCN_1_3x5_LFCN_1_3x5_0_split_0
I0703 03:17:50.943773 13301 net.cpp:408] LFCN_1_3x5_LFCN_1_3x5_0_split -> LFCN_1_3x5_LFCN_1_3x5_0_split_1
I0703 03:17:50.943779 13301 net.cpp:408] LFCN_1_3x5_LFCN_1_3x5_0_split -> LFCN_1_3x5_LFCN_1_3x5_0_split_2
I0703 03:17:50.943851 13301 net.cpp:150] Setting up LFCN_1_3x5_LFCN_1_3x5_0_split
I0703 03:17:50.943857 13301 net.cpp:157] Top shape: 2 7 72 96 (96768)
I0703 03:17:50.943861 13301 net.cpp:157] Top shape: 2 7 72 96 (96768)
I0703 03:17:50.943866 13301 net.cpp:157] Top shape: 2 7 72 96 (96768)
I0703 03:17:50.943867 13301 net.cpp:165] Memory required for data: 2184166108
I0703 03:17:50.943871 13301 layer_factory.hpp:77] Creating layer detection_loss_1_3x5
I0703 03:17:50.943879 13301 net.cpp:100] Creating Layer detection_loss_1_3x5
I0703 03:17:50.943883 13301 net.cpp:434] detection_loss_1_3x5 <- LFCN_1_3x5_LFCN_1_3x5_0_split_0
I0703 03:17:50.943887 13301 net.cpp:434] detection_loss_1_3x5 <- label_1_3x5_data_1_split_0
I0703 03:17:50.943893 13301 net.cpp:408] detection_loss_1_3x5 -> loss_1_3x5
I0703 03:17:50.943903 13301 layer_factory.hpp:77] Creating layer detection_loss_1_3x5
I0703 03:17:50.944403 13301 net.cpp:150] Setting up detection_loss_1_3x5
I0703 03:17:50.944414 13301 net.cpp:157] Top shape: 1 1 1 2 (2)
I0703 03:17:50.944417 13301 net.cpp:160]     with loss weight 0.5
I0703 03:17:50.944430 13301 net.cpp:165] Memory required for data: 2184166116
I0703 03:17:50.944434 13301 layer_factory.hpp:77] Creating layer detection_accuracy_1_3x5
I0703 03:17:50.944443 13301 net.cpp:100] Creating Layer detection_accuracy_1_3x5
I0703 03:17:50.944447 13301 net.cpp:434] detection_accuracy_1_3x5 <- LFCN_1_3x5_LFCN_1_3x5_0_split_1
I0703 03:17:50.944453 13301 net.cpp:434] detection_accuracy_1_3x5 <- label_1_3x5_data_1_split_1
I0703 03:17:50.944460 13301 net.cpp:408] detection_accuracy_1_3x5 -> accuracy_1_3x5
I0703 03:17:50.944468 13301 net.cpp:408] detection_accuracy_1_3x5 -> boxiou_1_3x5
I0703 03:17:50.944520 13301 net.cpp:150] Setting up detection_accuracy_1_3x5
I0703 03:17:50.944526 13301 net.cpp:157] Top shape: 1 1 1 2 (2)
I0703 03:17:50.944530 13301 net.cpp:157] Top shape: 1 1 1 1 (1)
I0703 03:17:50.944532 13301 net.cpp:165] Memory required for data: 2184166128
I0703 03:17:50.944535 13301 layer_factory.hpp:77] Creating layer LFCN_1_5x7
I0703 03:17:50.944546 13301 net.cpp:100] Creating Layer LFCN_1_5x7
I0703 03:17:50.944550 13301 net.cpp:434] LFCN_1_5x7 <- loss1_conv1_loss_relu1_0_split_1
I0703 03:17:50.944558 13301 net.cpp:408] LFCN_1_5x7 -> LFCN_1_5x7
I0703 03:17:50.950373 13301 net.cpp:150] Setting up LFCN_1_5x7
I0703 03:17:50.950405 13301 net.cpp:157] Top shape: 2 7 72 96 (96768)
I0703 03:17:50.950408 13301 net.cpp:165] Memory required for data: 2184553200
I0703 03:17:50.950424 13301 layer_factory.hpp:77] Creating layer LFCN_1_5x7_LFCN_1_5x7_0_split
I0703 03:17:50.950446 13301 net.cpp:100] Creating Layer LFCN_1_5x7_LFCN_1_5x7_0_split
I0703 03:17:50.950453 13301 net.cpp:434] LFCN_1_5x7_LFCN_1_5x7_0_split <- LFCN_1_5x7
I0703 03:17:50.950462 13301 net.cpp:408] LFCN_1_5x7_LFCN_1_5x7_0_split -> LFCN_1_5x7_LFCN_1_5x7_0_split_0
I0703 03:17:50.950475 13301 net.cpp:408] LFCN_1_5x7_LFCN_1_5x7_0_split -> LFCN_1_5x7_LFCN_1_5x7_0_split_1
I0703 03:17:50.950482 13301 net.cpp:408] LFCN_1_5x7_LFCN_1_5x7_0_split -> LFCN_1_5x7_LFCN_1_5x7_0_split_2
I0703 03:17:50.950562 13301 net.cpp:150] Setting up LFCN_1_5x7_LFCN_1_5x7_0_split
I0703 03:17:50.950570 13301 net.cpp:157] Top shape: 2 7 72 96 (96768)
I0703 03:17:50.950574 13301 net.cpp:157] Top shape: 2 7 72 96 (96768)
I0703 03:17:50.950577 13301 net.cpp:157] Top shape: 2 7 72 96 (96768)
I0703 03:17:50.950580 13301 net.cpp:165] Memory required for data: 2185714416
I0703 03:17:50.950583 13301 layer_factory.hpp:77] Creating layer detection_loss_1_5x7
I0703 03:17:50.950592 13301 net.cpp:100] Creating Layer detection_loss_1_5x7
I0703 03:17:50.950594 13301 net.cpp:434] detection_loss_1_5x7 <- LFCN_1_5x7_LFCN_1_5x7_0_split_0
I0703 03:17:50.950599 13301 net.cpp:434] detection_loss_1_5x7 <- label_1_5x7_data_2_split_0
I0703 03:17:50.950608 13301 net.cpp:408] detection_loss_1_5x7 -> loss_1_5x7
I0703 03:17:50.950616 13301 layer_factory.hpp:77] Creating layer detection_loss_1_5x7
I0703 03:17:50.951656 13301 net.cpp:150] Setting up detection_loss_1_5x7
I0703 03:17:50.951668 13301 net.cpp:157] Top shape: 1 1 1 2 (2)
I0703 03:17:50.951670 13301 net.cpp:160]     with loss weight 0.9
I0703 03:17:50.951680 13301 net.cpp:165] Memory required for data: 2185714424
I0703 03:17:50.951683 13301 layer_factory.hpp:77] Creating layer detection_accuracy_1_5x7
I0703 03:17:50.951694 13301 net.cpp:100] Creating Layer detection_accuracy_1_5x7
I0703 03:17:50.951697 13301 net.cpp:434] detection_accuracy_1_5x7 <- LFCN_1_5x7_LFCN_1_5x7_0_split_1
I0703 03:17:50.951704 13301 net.cpp:434] detection_accuracy_1_5x7 <- label_1_5x7_data_2_split_1
I0703 03:17:50.951710 13301 net.cpp:408] detection_accuracy_1_5x7 -> accuracy_1_5x7
I0703 03:17:50.951719 13301 net.cpp:408] detection_accuracy_1_5x7 -> boxiou_1_5x7
I0703 03:17:50.951766 13301 net.cpp:150] Setting up detection_accuracy_1_5x7
I0703 03:17:50.951771 13301 net.cpp:157] Top shape: 1 1 1 2 (2)
I0703 03:17:50.951776 13301 net.cpp:157] Top shape: 1 1 1 1 (1)
I0703 03:17:50.951777 13301 net.cpp:165] Memory required for data: 2185714436
I0703 03:17:50.951781 13301 layer_factory.hpp:77] Creating layer pool4
I0703 03:17:50.951787 13301 net.cpp:100] Creating Layer pool4
I0703 03:17:50.951792 13301 net.cpp:434] pool4 <- conv4_3_relu4_3_0_split_1
I0703 03:17:50.951797 13301 net.cpp:408] pool4 -> pool4
I0703 03:17:50.951843 13301 net.cpp:150] Setting up pool4
I0703 03:17:50.951848 13301 net.cpp:157] Top shape: 2 512 36 48 (1769472)
I0703 03:17:50.951851 13301 net.cpp:165] Memory required for data: 2192792324
I0703 03:17:50.951854 13301 layer_factory.hpp:77] Creating layer conv5_1
I0703 03:17:50.951862 13301 net.cpp:100] Creating Layer conv5_1
I0703 03:17:50.951866 13301 net.cpp:434] conv5_1 <- pool4
I0703 03:17:50.951872 13301 net.cpp:408] conv5_1 -> conv5_1
I0703 03:17:50.957684 13301 net.cpp:150] Setting up conv5_1
I0703 03:17:50.957705 13301 net.cpp:157] Top shape: 2 512 36 48 (1769472)
I0703 03:17:50.957707 13301 net.cpp:165] Memory required for data: 2199870212
I0703 03:17:50.957716 13301 layer_factory.hpp:77] Creating layer relu5_1
I0703 03:17:50.957726 13301 net.cpp:100] Creating Layer relu5_1
I0703 03:17:50.957731 13301 net.cpp:434] relu5_1 <- conv5_1
I0703 03:17:50.957738 13301 net.cpp:395] relu5_1 -> conv5_1 (in-place)
I0703 03:17:50.958009 13301 net.cpp:150] Setting up relu5_1
I0703 03:17:50.958017 13301 net.cpp:157] Top shape: 2 512 36 48 (1769472)
I0703 03:17:50.958020 13301 net.cpp:165] Memory required for data: 2206948100
I0703 03:17:50.958024 13301 layer_factory.hpp:77] Creating layer conv5_2
I0703 03:17:50.958034 13301 net.cpp:100] Creating Layer conv5_2
I0703 03:17:50.958037 13301 net.cpp:434] conv5_2 <- conv5_1
I0703 03:17:50.958045 13301 net.cpp:408] conv5_2 -> conv5_2
I0703 03:17:50.964573 13301 net.cpp:150] Setting up conv5_2
I0703 03:17:50.964599 13301 net.cpp:157] Top shape: 2 512 36 48 (1769472)
I0703 03:17:50.964602 13301 net.cpp:165] Memory required for data: 2214025988
I0703 03:17:50.964612 13301 layer_factory.hpp:77] Creating layer relu5_2
I0703 03:17:50.964623 13301 net.cpp:100] Creating Layer relu5_2
I0703 03:17:50.964629 13301 net.cpp:434] relu5_2 <- conv5_2
I0703 03:17:50.964635 13301 net.cpp:395] relu5_2 -> conv5_2 (in-place)
I0703 03:17:50.965035 13301 net.cpp:150] Setting up relu5_2
I0703 03:17:50.965047 13301 net.cpp:157] Top shape: 2 512 36 48 (1769472)
I0703 03:17:50.965050 13301 net.cpp:165] Memory required for data: 2221103876
I0703 03:17:50.965054 13301 layer_factory.hpp:77] Creating layer conv5_3
I0703 03:17:50.965062 13301 net.cpp:100] Creating Layer conv5_3
I0703 03:17:50.965066 13301 net.cpp:434] conv5_3 <- conv5_2
I0703 03:17:50.965073 13301 net.cpp:408] conv5_3 -> conv5_3
I0703 03:17:50.971880 13301 net.cpp:150] Setting up conv5_3
I0703 03:17:50.971904 13301 net.cpp:157] Top shape: 2 512 36 48 (1769472)
I0703 03:17:50.971906 13301 net.cpp:165] Memory required for data: 2228181764
I0703 03:17:50.971915 13301 layer_factory.hpp:77] Creating layer relu5_3
I0703 03:17:50.971926 13301 net.cpp:100] Creating Layer relu5_3
I0703 03:17:50.971931 13301 net.cpp:434] relu5_3 <- conv5_3
I0703 03:17:50.971940 13301 net.cpp:395] relu5_3 -> conv5_3 (in-place)
I0703 03:17:50.972717 13301 net.cpp:150] Setting up relu5_3
I0703 03:17:50.972728 13301 net.cpp:157] Top shape: 2 512 36 48 (1769472)
I0703 03:17:50.972731 13301 net.cpp:165] Memory required for data: 2235259652
I0703 03:17:50.972735 13301 layer_factory.hpp:77] Creating layer conv5_3_relu5_3_0_split
I0703 03:17:50.972741 13301 net.cpp:100] Creating Layer conv5_3_relu5_3_0_split
I0703 03:17:50.972745 13301 net.cpp:434] conv5_3_relu5_3_0_split <- conv5_3
I0703 03:17:50.972754 13301 net.cpp:408] conv5_3_relu5_3_0_split -> conv5_3_relu5_3_0_split_0
I0703 03:17:50.972761 13301 net.cpp:408] conv5_3_relu5_3_0_split -> conv5_3_relu5_3_0_split_1
I0703 03:17:50.972769 13301 net.cpp:408] conv5_3_relu5_3_0_split -> conv5_3_relu5_3_0_split_2
I0703 03:17:50.972837 13301 net.cpp:150] Setting up conv5_3_relu5_3_0_split
I0703 03:17:50.972843 13301 net.cpp:157] Top shape: 2 512 36 48 (1769472)
I0703 03:17:50.972847 13301 net.cpp:157] Top shape: 2 512 36 48 (1769472)
I0703 03:17:50.972851 13301 net.cpp:157] Top shape: 2 512 36 48 (1769472)
I0703 03:17:50.972853 13301 net.cpp:165] Memory required for data: 2256493316
I0703 03:17:50.972856 13301 layer_factory.hpp:77] Creating layer LFCN_2_3x5
I0703 03:17:50.972867 13301 net.cpp:100] Creating Layer LFCN_2_3x5
I0703 03:17:50.972870 13301 net.cpp:434] LFCN_2_3x5 <- conv5_3_relu5_3_0_split_0
I0703 03:17:50.972878 13301 net.cpp:408] LFCN_2_3x5 -> LFCN_2_3x5
I0703 03:17:50.975894 13301 net.cpp:150] Setting up LFCN_2_3x5
I0703 03:17:50.975917 13301 net.cpp:157] Top shape: 2 7 36 48 (24192)
I0703 03:17:50.975919 13301 net.cpp:165] Memory required for data: 2256590084
I0703 03:17:50.975936 13301 layer_factory.hpp:77] Creating layer LFCN_2_3x5_LFCN_2_3x5_0_split
I0703 03:17:50.975947 13301 net.cpp:100] Creating Layer LFCN_2_3x5_LFCN_2_3x5_0_split
I0703 03:17:50.975952 13301 net.cpp:434] LFCN_2_3x5_LFCN_2_3x5_0_split <- LFCN_2_3x5
I0703 03:17:50.975960 13301 net.cpp:408] LFCN_2_3x5_LFCN_2_3x5_0_split -> LFCN_2_3x5_LFCN_2_3x5_0_split_0
I0703 03:17:50.975978 13301 net.cpp:408] LFCN_2_3x5_LFCN_2_3x5_0_split -> LFCN_2_3x5_LFCN_2_3x5_0_split_1
I0703 03:17:50.975987 13301 net.cpp:408] LFCN_2_3x5_LFCN_2_3x5_0_split -> LFCN_2_3x5_LFCN_2_3x5_0_split_2
I0703 03:17:50.976052 13301 net.cpp:150] Setting up LFCN_2_3x5_LFCN_2_3x5_0_split
I0703 03:17:50.976058 13301 net.cpp:157] Top shape: 2 7 36 48 (24192)
I0703 03:17:50.976063 13301 net.cpp:157] Top shape: 2 7 36 48 (24192)
I0703 03:17:50.976066 13301 net.cpp:157] Top shape: 2 7 36 48 (24192)
I0703 03:17:50.976068 13301 net.cpp:165] Memory required for data: 2256880388
I0703 03:17:50.976073 13301 layer_factory.hpp:77] Creating layer detection_loss_2_3x5
I0703 03:17:50.976080 13301 net.cpp:100] Creating Layer detection_loss_2_3x5
I0703 03:17:50.976083 13301 net.cpp:434] detection_loss_2_3x5 <- LFCN_2_3x5_LFCN_2_3x5_0_split_0
I0703 03:17:50.976089 13301 net.cpp:434] detection_loss_2_3x5 <- label_2_3x5_data_3_split_0
I0703 03:17:50.976094 13301 net.cpp:408] detection_loss_2_3x5 -> loss_2_3x5
I0703 03:17:50.976104 13301 layer_factory.hpp:77] Creating layer detection_loss_2_3x5
I0703 03:17:50.977069 13301 net.cpp:150] Setting up detection_loss_2_3x5
I0703 03:17:50.977080 13301 net.cpp:157] Top shape: 1 1 1 2 (2)
I0703 03:17:50.977082 13301 net.cpp:160]     with loss weight 1
I0703 03:17:50.977092 13301 net.cpp:165] Memory required for data: 2256880396
I0703 03:17:50.977095 13301 layer_factory.hpp:77] Creating layer detection_accuracy_2_3x5
I0703 03:17:50.977103 13301 net.cpp:100] Creating Layer detection_accuracy_2_3x5
I0703 03:17:50.977108 13301 net.cpp:434] detection_accuracy_2_3x5 <- LFCN_2_3x5_LFCN_2_3x5_0_split_1
I0703 03:17:50.977113 13301 net.cpp:434] detection_accuracy_2_3x5 <- label_2_3x5_data_3_split_1
I0703 03:17:50.977123 13301 net.cpp:408] detection_accuracy_2_3x5 -> accuracy_2_3x5
I0703 03:17:50.977130 13301 net.cpp:408] detection_accuracy_2_3x5 -> boxiou_2_3x5
I0703 03:17:50.977180 13301 net.cpp:150] Setting up detection_accuracy_2_3x5
I0703 03:17:50.977186 13301 net.cpp:157] Top shape: 1 1 1 2 (2)
I0703 03:17:50.977190 13301 net.cpp:157] Top shape: 1 1 1 1 (1)
I0703 03:17:50.977192 13301 net.cpp:165] Memory required for data: 2256880408
I0703 03:17:50.977195 13301 layer_factory.hpp:77] Creating layer LFCN_2_5x7
I0703 03:17:50.977205 13301 net.cpp:100] Creating Layer LFCN_2_5x7
I0703 03:17:50.977210 13301 net.cpp:434] LFCN_2_5x7 <- conv5_3_relu5_3_0_split_1
I0703 03:17:50.977216 13301 net.cpp:408] LFCN_2_5x7 -> LFCN_2_5x7
I0703 03:17:50.980159 13301 net.cpp:150] Setting up LFCN_2_5x7
I0703 03:17:50.980176 13301 net.cpp:157] Top shape: 2 7 36 48 (24192)
I0703 03:17:50.980180 13301 net.cpp:165] Memory required for data: 2256977176
I0703 03:17:50.980190 13301 layer_factory.hpp:77] Creating layer LFCN_2_5x7_LFCN_2_5x7_0_split
I0703 03:17:50.980199 13301 net.cpp:100] Creating Layer LFCN_2_5x7_LFCN_2_5x7_0_split
I0703 03:17:50.980206 13301 net.cpp:434] LFCN_2_5x7_LFCN_2_5x7_0_split <- LFCN_2_5x7
I0703 03:17:50.980214 13301 net.cpp:408] LFCN_2_5x7_LFCN_2_5x7_0_split -> LFCN_2_5x7_LFCN_2_5x7_0_split_0
I0703 03:17:50.980223 13301 net.cpp:408] LFCN_2_5x7_LFCN_2_5x7_0_split -> LFCN_2_5x7_LFCN_2_5x7_0_split_1
I0703 03:17:50.980229 13301 net.cpp:408] LFCN_2_5x7_LFCN_2_5x7_0_split -> LFCN_2_5x7_LFCN_2_5x7_0_split_2
I0703 03:17:50.980303 13301 net.cpp:150] Setting up LFCN_2_5x7_LFCN_2_5x7_0_split
I0703 03:17:50.980309 13301 net.cpp:157] Top shape: 2 7 36 48 (24192)
I0703 03:17:50.980312 13301 net.cpp:157] Top shape: 2 7 36 48 (24192)
I0703 03:17:50.980316 13301 net.cpp:157] Top shape: 2 7 36 48 (24192)
I0703 03:17:50.980319 13301 net.cpp:165] Memory required for data: 2257267480
I0703 03:17:50.980322 13301 layer_factory.hpp:77] Creating layer detection_loss_2_5x7
I0703 03:17:50.980329 13301 net.cpp:100] Creating Layer detection_loss_2_5x7
I0703 03:17:50.980334 13301 net.cpp:434] detection_loss_2_5x7 <- LFCN_2_5x7_LFCN_2_5x7_0_split_0
I0703 03:17:50.980340 13301 net.cpp:434] detection_loss_2_5x7 <- label_2_5x7_data_4_split_0
I0703 03:17:50.980346 13301 net.cpp:408] detection_loss_2_5x7 -> loss_2_5x7
I0703 03:17:50.980355 13301 layer_factory.hpp:77] Creating layer detection_loss_2_5x7
I0703 03:17:50.980845 13301 net.cpp:150] Setting up detection_loss_2_5x7
I0703 03:17:50.980854 13301 net.cpp:157] Top shape: 1 1 1 2 (2)
I0703 03:17:50.980856 13301 net.cpp:160]     with loss weight 1
I0703 03:17:50.980865 13301 net.cpp:165] Memory required for data: 2257267488
I0703 03:17:50.980868 13301 layer_factory.hpp:77] Creating layer detection_accuracy_2_5x7
I0703 03:17:50.980875 13301 net.cpp:100] Creating Layer detection_accuracy_2_5x7
I0703 03:17:50.980880 13301 net.cpp:434] detection_accuracy_2_5x7 <- LFCN_2_5x7_LFCN_2_5x7_0_split_1
I0703 03:17:50.980885 13301 net.cpp:434] detection_accuracy_2_5x7 <- label_2_5x7_data_4_split_1
I0703 03:17:50.980891 13301 net.cpp:408] detection_accuracy_2_5x7 -> accuracy_2_5x7
I0703 03:17:50.980900 13301 net.cpp:408] detection_accuracy_2_5x7 -> boxiou_2_5x7
I0703 03:17:50.980947 13301 net.cpp:150] Setting up detection_accuracy_2_5x7
I0703 03:17:50.980952 13301 net.cpp:157] Top shape: 1 1 1 2 (2)
I0703 03:17:50.980955 13301 net.cpp:157] Top shape: 1 1 1 1 (1)
I0703 03:17:50.980958 13301 net.cpp:165] Memory required for data: 2257267500
I0703 03:17:50.980962 13301 layer_factory.hpp:77] Creating layer pool5
I0703 03:17:50.980967 13301 net.cpp:100] Creating Layer pool5
I0703 03:17:50.980971 13301 net.cpp:434] pool5 <- conv5_3_relu5_3_0_split_2
I0703 03:17:50.980976 13301 net.cpp:408] pool5 -> pool5
I0703 03:17:50.981021 13301 net.cpp:150] Setting up pool5
I0703 03:17:50.981027 13301 net.cpp:157] Top shape: 2 512 18 24 (442368)
I0703 03:17:50.981030 13301 net.cpp:165] Memory required for data: 2259036972
I0703 03:17:50.981034 13301 layer_factory.hpp:77] Creating layer conv6_1
I0703 03:17:50.981043 13301 net.cpp:100] Creating Layer conv6_1
I0703 03:17:50.981047 13301 net.cpp:434] conv6_1 <- pool5
I0703 03:17:50.981053 13301 net.cpp:408] conv6_1 -> conv6_1
I0703 03:17:51.002753 13301 net.cpp:150] Setting up conv6_1
I0703 03:17:51.002774 13301 net.cpp:157] Top shape: 2 512 18 24 (442368)
I0703 03:17:51.002776 13301 net.cpp:165] Memory required for data: 2260806444
I0703 03:17:51.002785 13301 layer_factory.hpp:77] Creating layer relu6_1
I0703 03:17:51.002794 13301 net.cpp:100] Creating Layer relu6_1
I0703 03:17:51.002800 13301 net.cpp:434] relu6_1 <- conv6_1
I0703 03:17:51.002806 13301 net.cpp:395] relu6_1 -> conv6_1 (in-place)
I0703 03:17:51.003079 13301 net.cpp:150] Setting up relu6_1
I0703 03:17:51.003087 13301 net.cpp:157] Top shape: 2 512 18 24 (442368)
I0703 03:17:51.003090 13301 net.cpp:165] Memory required for data: 2262575916
I0703 03:17:51.003094 13301 layer_factory.hpp:77] Creating layer conv6_1_relu6_1_0_split
I0703 03:17:51.003101 13301 net.cpp:100] Creating Layer conv6_1_relu6_1_0_split
I0703 03:17:51.003105 13301 net.cpp:434] conv6_1_relu6_1_0_split <- conv6_1
I0703 03:17:51.003113 13301 net.cpp:408] conv6_1_relu6_1_0_split -> conv6_1_relu6_1_0_split_0
I0703 03:17:51.003121 13301 net.cpp:408] conv6_1_relu6_1_0_split -> conv6_1_relu6_1_0_split_1
I0703 03:17:51.003127 13301 net.cpp:408] conv6_1_relu6_1_0_split -> conv6_1_relu6_1_0_split_2
I0703 03:17:51.003192 13301 net.cpp:150] Setting up conv6_1_relu6_1_0_split
I0703 03:17:51.003198 13301 net.cpp:157] Top shape: 2 512 18 24 (442368)
I0703 03:17:51.003202 13301 net.cpp:157] Top shape: 2 512 18 24 (442368)
I0703 03:17:51.003206 13301 net.cpp:157] Top shape: 2 512 18 24 (442368)
I0703 03:17:51.003209 13301 net.cpp:165] Memory required for data: 2267884332
I0703 03:17:51.003212 13301 layer_factory.hpp:77] Creating layer LFCN_3_3x5
I0703 03:17:51.003222 13301 net.cpp:100] Creating Layer LFCN_3_3x5
I0703 03:17:51.003226 13301 net.cpp:434] LFCN_3_3x5 <- conv6_1_relu6_1_0_split_0
I0703 03:17:51.003233 13301 net.cpp:408] LFCN_3_3x5 -> LFCN_3_3x5
I0703 03:17:51.005604 13301 net.cpp:150] Setting up LFCN_3_3x5
I0703 03:17:51.005617 13301 net.cpp:157] Top shape: 2 7 18 24 (6048)
I0703 03:17:51.005621 13301 net.cpp:165] Memory required for data: 2267908524
I0703 03:17:51.005630 13301 layer_factory.hpp:77] Creating layer LFCN_3_3x5_LFCN_3_3x5_0_split
I0703 03:17:51.005648 13301 net.cpp:100] Creating Layer LFCN_3_3x5_LFCN_3_3x5_0_split
I0703 03:17:51.005653 13301 net.cpp:434] LFCN_3_3x5_LFCN_3_3x5_0_split <- LFCN_3_3x5
I0703 03:17:51.005659 13301 net.cpp:408] LFCN_3_3x5_LFCN_3_3x5_0_split -> LFCN_3_3x5_LFCN_3_3x5_0_split_0
I0703 03:17:51.005668 13301 net.cpp:408] LFCN_3_3x5_LFCN_3_3x5_0_split -> LFCN_3_3x5_LFCN_3_3x5_0_split_1
I0703 03:17:51.005676 13301 net.cpp:408] LFCN_3_3x5_LFCN_3_3x5_0_split -> LFCN_3_3x5_LFCN_3_3x5_0_split_2
I0703 03:17:51.005736 13301 net.cpp:150] Setting up LFCN_3_3x5_LFCN_3_3x5_0_split
I0703 03:17:51.005743 13301 net.cpp:157] Top shape: 2 7 18 24 (6048)
I0703 03:17:51.005746 13301 net.cpp:157] Top shape: 2 7 18 24 (6048)
I0703 03:17:51.005749 13301 net.cpp:157] Top shape: 2 7 18 24 (6048)
I0703 03:17:51.005753 13301 net.cpp:165] Memory required for data: 2267981100
I0703 03:17:51.005755 13301 layer_factory.hpp:77] Creating layer detection_loss_3_3x5
I0703 03:17:51.005764 13301 net.cpp:100] Creating Layer detection_loss_3_3x5
I0703 03:17:51.005767 13301 net.cpp:434] detection_loss_3_3x5 <- LFCN_3_3x5_LFCN_3_3x5_0_split_0
I0703 03:17:51.005772 13301 net.cpp:434] detection_loss_3_3x5 <- label_3_3x5_data_5_split_0
I0703 03:17:51.005780 13301 net.cpp:408] detection_loss_3_3x5 -> loss_3_3x5
I0703 03:17:51.005789 13301 layer_factory.hpp:77] Creating layer detection_loss_3_3x5
I0703 03:17:51.006698 13301 net.cpp:150] Setting up detection_loss_3_3x5
I0703 03:17:51.006711 13301 net.cpp:157] Top shape: 1 1 1 2 (2)
I0703 03:17:51.006713 13301 net.cpp:160]     with loss weight 1
I0703 03:17:51.006723 13301 net.cpp:165] Memory required for data: 2267981108
I0703 03:17:51.006726 13301 layer_factory.hpp:77] Creating layer detection_accuracy_3_3x5
I0703 03:17:51.006734 13301 net.cpp:100] Creating Layer detection_accuracy_3_3x5
I0703 03:17:51.006738 13301 net.cpp:434] detection_accuracy_3_3x5 <- LFCN_3_3x5_LFCN_3_3x5_0_split_1
I0703 03:17:51.006744 13301 net.cpp:434] detection_accuracy_3_3x5 <- label_3_3x5_data_5_split_1
I0703 03:17:51.006750 13301 net.cpp:408] detection_accuracy_3_3x5 -> accuracy_3_3x5
I0703 03:17:51.006759 13301 net.cpp:408] detection_accuracy_3_3x5 -> boxiou_3_3x5
I0703 03:17:51.006806 13301 net.cpp:150] Setting up detection_accuracy_3_3x5
I0703 03:17:51.006811 13301 net.cpp:157] Top shape: 1 1 1 2 (2)
I0703 03:17:51.006815 13301 net.cpp:157] Top shape: 1 1 1 1 (1)
I0703 03:17:51.006819 13301 net.cpp:165] Memory required for data: 2267981120
I0703 03:17:51.006821 13301 layer_factory.hpp:77] Creating layer LFCN_3_5x7
I0703 03:17:51.006830 13301 net.cpp:100] Creating Layer LFCN_3_5x7
I0703 03:17:51.006835 13301 net.cpp:434] LFCN_3_5x7 <- conv6_1_relu6_1_0_split_1
I0703 03:17:51.006842 13301 net.cpp:408] LFCN_3_5x7 -> LFCN_3_5x7
I0703 03:17:51.009249 13301 net.cpp:150] Setting up LFCN_3_5x7
I0703 03:17:51.009263 13301 net.cpp:157] Top shape: 2 7 18 24 (6048)
I0703 03:17:51.009265 13301 net.cpp:165] Memory required for data: 2268005312
I0703 03:17:51.009274 13301 layer_factory.hpp:77] Creating layer LFCN_3_5x7_LFCN_3_5x7_0_split
I0703 03:17:51.009284 13301 net.cpp:100] Creating Layer LFCN_3_5x7_LFCN_3_5x7_0_split
I0703 03:17:51.009289 13301 net.cpp:434] LFCN_3_5x7_LFCN_3_5x7_0_split <- LFCN_3_5x7
I0703 03:17:51.009295 13301 net.cpp:408] LFCN_3_5x7_LFCN_3_5x7_0_split -> LFCN_3_5x7_LFCN_3_5x7_0_split_0
I0703 03:17:51.009305 13301 net.cpp:408] LFCN_3_5x7_LFCN_3_5x7_0_split -> LFCN_3_5x7_LFCN_3_5x7_0_split_1
I0703 03:17:51.009312 13301 net.cpp:408] LFCN_3_5x7_LFCN_3_5x7_0_split -> LFCN_3_5x7_LFCN_3_5x7_0_split_2
I0703 03:17:51.009373 13301 net.cpp:150] Setting up LFCN_3_5x7_LFCN_3_5x7_0_split
I0703 03:17:51.009378 13301 net.cpp:157] Top shape: 2 7 18 24 (6048)
I0703 03:17:51.009382 13301 net.cpp:157] Top shape: 2 7 18 24 (6048)
I0703 03:17:51.009387 13301 net.cpp:157] Top shape: 2 7 18 24 (6048)
I0703 03:17:51.009389 13301 net.cpp:165] Memory required for data: 2268077888
I0703 03:17:51.009392 13301 layer_factory.hpp:77] Creating layer detection_loss_3_5x7
I0703 03:17:51.009400 13301 net.cpp:100] Creating Layer detection_loss_3_5x7
I0703 03:17:51.009405 13301 net.cpp:434] detection_loss_3_5x7 <- LFCN_3_5x7_LFCN_3_5x7_0_split_0
I0703 03:17:51.009410 13301 net.cpp:434] detection_loss_3_5x7 <- label_3_5x7_data_6_split_0
I0703 03:17:51.009415 13301 net.cpp:408] detection_loss_3_5x7 -> loss_3_5x7
I0703 03:17:51.009425 13301 layer_factory.hpp:77] Creating layer detection_loss_3_5x7
I0703 03:17:51.009863 13301 net.cpp:150] Setting up detection_loss_3_5x7
I0703 03:17:51.009871 13301 net.cpp:157] Top shape: 1 1 1 2 (2)
I0703 03:17:51.009873 13301 net.cpp:160]     with loss weight 1
I0703 03:17:51.009882 13301 net.cpp:165] Memory required for data: 2268077896
I0703 03:17:51.009886 13301 layer_factory.hpp:77] Creating layer detection_accuracy_3_5x7
I0703 03:17:51.009893 13301 net.cpp:100] Creating Layer detection_accuracy_3_5x7
I0703 03:17:51.009897 13301 net.cpp:434] detection_accuracy_3_5x7 <- LFCN_3_5x7_LFCN_3_5x7_0_split_1
I0703 03:17:51.009902 13301 net.cpp:434] detection_accuracy_3_5x7 <- label_3_5x7_data_6_split_1
I0703 03:17:51.009908 13301 net.cpp:408] detection_accuracy_3_5x7 -> accuracy_3_5x7
I0703 03:17:51.009917 13301 net.cpp:408] detection_accuracy_3_5x7 -> boxiou_3_5x7
I0703 03:17:51.009961 13301 net.cpp:150] Setting up detection_accuracy_3_5x7
I0703 03:17:51.009966 13301 net.cpp:157] Top shape: 1 1 1 2 (2)
I0703 03:17:51.009970 13301 net.cpp:157] Top shape: 1 1 1 1 (1)
I0703 03:17:51.009973 13301 net.cpp:165] Memory required for data: 2268077908
I0703 03:17:51.009975 13301 layer_factory.hpp:77] Creating layer pool6
I0703 03:17:51.009981 13301 net.cpp:100] Creating Layer pool6
I0703 03:17:51.009984 13301 net.cpp:434] pool6 <- conv6_1_relu6_1_0_split_2
I0703 03:17:51.009991 13301 net.cpp:408] pool6 -> pool6
I0703 03:17:51.010031 13301 net.cpp:150] Setting up pool6
I0703 03:17:51.010036 13301 net.cpp:157] Top shape: 2 512 9 12 (110592)
I0703 03:17:51.010040 13301 net.cpp:165] Memory required for data: 2268520276
I0703 03:17:51.010042 13301 layer_factory.hpp:77] Creating layer LFCN_4_3x5
I0703 03:17:51.010053 13301 net.cpp:100] Creating Layer LFCN_4_3x5
I0703 03:17:51.010057 13301 net.cpp:434] LFCN_4_3x5 <- pool6
I0703 03:17:51.010063 13301 net.cpp:408] LFCN_4_3x5 -> LFCN_4_3x5
I0703 03:17:51.012847 13301 net.cpp:150] Setting up LFCN_4_3x5
I0703 03:17:51.012861 13301 net.cpp:157] Top shape: 2 7 9 12 (1512)
I0703 03:17:51.012863 13301 net.cpp:165] Memory required for data: 2268526324
I0703 03:17:51.012871 13301 layer_factory.hpp:77] Creating layer LFCN_4_3x5_LFCN_4_3x5_0_split
I0703 03:17:51.012879 13301 net.cpp:100] Creating Layer LFCN_4_3x5_LFCN_4_3x5_0_split
I0703 03:17:51.012883 13301 net.cpp:434] LFCN_4_3x5_LFCN_4_3x5_0_split <- LFCN_4_3x5
I0703 03:17:51.012890 13301 net.cpp:408] LFCN_4_3x5_LFCN_4_3x5_0_split -> LFCN_4_3x5_LFCN_4_3x5_0_split_0
I0703 03:17:51.012902 13301 net.cpp:408] LFCN_4_3x5_LFCN_4_3x5_0_split -> LFCN_4_3x5_LFCN_4_3x5_0_split_1
I0703 03:17:51.012908 13301 net.cpp:408] LFCN_4_3x5_LFCN_4_3x5_0_split -> LFCN_4_3x5_LFCN_4_3x5_0_split_2
I0703 03:17:51.012976 13301 net.cpp:150] Setting up LFCN_4_3x5_LFCN_4_3x5_0_split
I0703 03:17:51.012984 13301 net.cpp:157] Top shape: 2 7 9 12 (1512)
I0703 03:17:51.012989 13301 net.cpp:157] Top shape: 2 7 9 12 (1512)
I0703 03:17:51.012993 13301 net.cpp:157] Top shape: 2 7 9 12 (1512)
I0703 03:17:51.012995 13301 net.cpp:165] Memory required for data: 2268544468
I0703 03:17:51.012998 13301 layer_factory.hpp:77] Creating layer detection_loss_4_3x5
I0703 03:17:51.013005 13301 net.cpp:100] Creating Layer detection_loss_4_3x5
I0703 03:17:51.013010 13301 net.cpp:434] detection_loss_4_3x5 <- LFCN_4_3x5_LFCN_4_3x5_0_split_0
I0703 03:17:51.013015 13301 net.cpp:434] detection_loss_4_3x5 <- label_4_3x5_data_7_split_0
I0703 03:17:51.013022 13301 net.cpp:408] detection_loss_4_3x5 -> loss_4_3x5
I0703 03:17:51.013031 13301 layer_factory.hpp:77] Creating layer detection_loss_4_3x5
I0703 03:17:51.013492 13301 net.cpp:150] Setting up detection_loss_4_3x5
I0703 03:17:51.013500 13301 net.cpp:157] Top shape: 1 1 1 2 (2)
I0703 03:17:51.013504 13301 net.cpp:160]     with loss weight 1
I0703 03:17:51.013511 13301 net.cpp:165] Memory required for data: 2268544476
I0703 03:17:51.013514 13301 layer_factory.hpp:77] Creating layer detection_accuracy_4_3x5
I0703 03:17:51.013520 13301 net.cpp:100] Creating Layer detection_accuracy_4_3x5
I0703 03:17:51.013525 13301 net.cpp:434] detection_accuracy_4_3x5 <- LFCN_4_3x5_LFCN_4_3x5_0_split_1
I0703 03:17:51.013530 13301 net.cpp:434] detection_accuracy_4_3x5 <- label_4_3x5_data_7_split_1
I0703 03:17:51.013537 13301 net.cpp:408] detection_accuracy_4_3x5 -> accuracy_4_3x5
I0703 03:17:51.013545 13301 net.cpp:408] detection_accuracy_4_3x5 -> boxiou_4_3x5
I0703 03:17:51.013590 13301 net.cpp:150] Setting up detection_accuracy_4_3x5
I0703 03:17:51.013595 13301 net.cpp:157] Top shape: 1 1 1 2 (2)
I0703 03:17:51.013599 13301 net.cpp:157] Top shape: 1 1 1 1 (1)
I0703 03:17:51.013602 13301 net.cpp:165] Memory required for data: 2268544488
I0703 03:17:51.013604 13301 layer_factory.hpp:77] Creating layer proposals
I0703 03:17:51.013613 13301 net.cpp:100] Creating Layer proposals
I0703 03:17:51.013618 13301 net.cpp:434] proposals <- LFCN_1_3x5_LFCN_1_3x5_0_split_2
I0703 03:17:51.013622 13301 net.cpp:434] proposals <- LFCN_1_5x7_LFCN_1_5x7_0_split_2
I0703 03:17:51.013630 13301 net.cpp:434] proposals <- LFCN_2_3x5_LFCN_2_3x5_0_split_2
I0703 03:17:51.013634 13301 net.cpp:434] proposals <- LFCN_2_5x7_LFCN_2_5x7_0_split_2
I0703 03:17:51.013638 13301 net.cpp:434] proposals <- LFCN_3_3x5_LFCN_3_3x5_0_split_2
I0703 03:17:51.013641 13301 net.cpp:434] proposals <- LFCN_3_5x7_LFCN_3_5x7_0_split_2
I0703 03:17:51.013644 13301 net.cpp:434] proposals <- LFCN_4_3x5_LFCN_4_3x5_0_split_2
I0703 03:17:51.013650 13301 net.cpp:408] proposals -> proposals
I0703 03:17:51.013679 13301 net.cpp:150] Setting up proposals
I0703 03:17:51.013684 13301 net.cpp:157] Top shape: 1 5 1 1 (5)
I0703 03:17:51.013686 13301 net.cpp:165] Memory required for data: 2268544508
I0703 03:17:51.013689 13301 layer_factory.hpp:77] Creating layer proposal_info
I0703 03:17:51.013697 13301 net.cpp:100] Creating Layer proposal_info
I0703 03:17:51.013701 13301 net.cpp:434] proposal_info <- proposals
I0703 03:17:51.013705 13301 net.cpp:434] proposal_info <- gt_boxes
I0703 03:17:51.013713 13301 net.cpp:408] proposal_info -> rois
I0703 03:17:51.013721 13301 net.cpp:408] proposal_info -> proposal_labels
I0703 03:17:51.013730 13301 net.cpp:408] proposal_info -> proposal_targets
I0703 03:17:51.013737 13301 net.cpp:408] proposal_info -> box_inside_weights
I0703 03:17:51.013746 13301 net.cpp:408] proposal_info -> box_outside_weights
I0703 03:17:51.013754 13301 net.cpp:408] proposal_info -> match_gt_boxes
I0703 03:17:51.013851 13301 net.cpp:150] Setting up proposal_info
I0703 03:17:51.013856 13301 net.cpp:157] Top shape: 64 5 1 1 (320)
I0703 03:17:51.013860 13301 net.cpp:157] Top shape: 64 1 1 1 (64)
I0703 03:17:51.013864 13301 net.cpp:157] Top shape: 64 12 1 1 (768)
I0703 03:17:51.013867 13301 net.cpp:157] Top shape: 64 12 1 1 (768)
I0703 03:17:51.013871 13301 net.cpp:157] Top shape: 64 12 1 1 (768)
I0703 03:17:51.013875 13301 net.cpp:157] Top shape: 64 6 1 1 (384)
I0703 03:17:51.013877 13301 net.cpp:165] Memory required for data: 2268556796
I0703 03:17:51.013880 13301 layer_factory.hpp:77] Creating layer rois_proposal_info_0_split
I0703 03:17:51.013885 13301 net.cpp:100] Creating Layer rois_proposal_info_0_split
I0703 03:17:51.013887 13301 net.cpp:434] rois_proposal_info_0_split <- rois
I0703 03:17:51.013893 13301 net.cpp:408] rois_proposal_info_0_split -> rois_proposal_info_0_split_0
I0703 03:17:51.013900 13301 net.cpp:408] rois_proposal_info_0_split -> rois_proposal_info_0_split_1
I0703 03:17:51.013907 13301 net.cpp:408] rois_proposal_info_0_split -> rois_proposal_info_0_split_2
I0703 03:17:51.013957 13301 net.cpp:150] Setting up rois_proposal_info_0_split
I0703 03:17:51.013962 13301 net.cpp:157] Top shape: 64 5 1 1 (320)
I0703 03:17:51.013967 13301 net.cpp:157] Top shape: 64 5 1 1 (320)
I0703 03:17:51.013969 13301 net.cpp:157] Top shape: 64 5 1 1 (320)
I0703 03:17:51.013972 13301 net.cpp:165] Memory required for data: 2268560636
I0703 03:17:51.013974 13301 layer_factory.hpp:77] Creating layer proposal_labels_proposal_info_1_split
I0703 03:17:51.013979 13301 net.cpp:100] Creating Layer proposal_labels_proposal_info_1_split
I0703 03:17:51.013983 13301 net.cpp:434] proposal_labels_proposal_info_1_split <- proposal_labels
I0703 03:17:51.013988 13301 net.cpp:408] proposal_labels_proposal_info_1_split -> proposal_labels_proposal_info_1_split_0
I0703 03:17:51.013996 13301 net.cpp:408] proposal_labels_proposal_info_1_split -> proposal_labels_proposal_info_1_split_1
I0703 03:17:51.014034 13301 net.cpp:150] Setting up proposal_labels_proposal_info_1_split
I0703 03:17:51.014039 13301 net.cpp:157] Top shape: 64 1 1 1 (64)
I0703 03:17:51.014042 13301 net.cpp:157] Top shape: 64 1 1 1 (64)
I0703 03:17:51.014045 13301 net.cpp:165] Memory required for data: 2268561148
I0703 03:17:51.014047 13301 layer_factory.hpp:77] Creating layer conv4_3_2x
I0703 03:17:51.014055 13301 net.cpp:100] Creating Layer conv4_3_2x
I0703 03:17:51.014060 13301 net.cpp:434] conv4_3_2x <- conv4_3_relu4_3_0_split_2
I0703 03:17:51.014065 13301 net.cpp:408] conv4_3_2x -> conv4_3_2x
I0703 03:17:51.014466 13301 net.cpp:150] Setting up conv4_3_2x
I0703 03:17:51.014472 13301 net.cpp:157] Top shape: 2 512 144 192 (28311552)
I0703 03:17:51.014475 13301 net.cpp:165] Memory required for data: 2381807356
I0703 03:17:51.014480 13301 layer_factory.hpp:77] Creating layer conv4_3_2x_conv4_3_2x_0_split
I0703 03:17:51.014484 13301 net.cpp:100] Creating Layer conv4_3_2x_conv4_3_2x_0_split
I0703 03:17:51.014489 13301 net.cpp:434] conv4_3_2x_conv4_3_2x_0_split <- conv4_3_2x
I0703 03:17:51.014495 13301 net.cpp:408] conv4_3_2x_conv4_3_2x_0_split -> conv4_3_2x_conv4_3_2x_0_split_0
I0703 03:17:51.014503 13301 net.cpp:408] conv4_3_2x_conv4_3_2x_0_split -> conv4_3_2x_conv4_3_2x_0_split_1
I0703 03:17:51.014542 13301 net.cpp:150] Setting up conv4_3_2x_conv4_3_2x_0_split
I0703 03:17:51.014547 13301 net.cpp:157] Top shape: 2 512 144 192 (28311552)
I0703 03:17:51.014551 13301 net.cpp:157] Top shape: 2 512 144 192 (28311552)
I0703 03:17:51.014554 13301 net.cpp:165] Memory required for data: 2608299772
I0703 03:17:51.014557 13301 layer_factory.hpp:77] Creating layer roi_pool_org
I0703 03:17:51.014562 13301 net.cpp:100] Creating Layer roi_pool_org
I0703 03:17:51.014566 13301 net.cpp:434] roi_pool_org <- conv4_3_2x_conv4_3_2x_0_split_0
I0703 03:17:51.014570 13301 net.cpp:434] roi_pool_org <- rois_proposal_info_0_split_0
I0703 03:17:51.014576 13301 net.cpp:408] roi_pool_org -> roi_pool_org
I0703 03:17:51.014583 13301 roi_pooling_layer.cpp:33] Spatial scale: 0.25
I0703 03:17:51.014626 13301 net.cpp:150] Setting up roi_pool_org
I0703 03:17:51.014631 13301 net.cpp:157] Top shape: 64 512 7 5 (1146880)
I0703 03:17:51.014634 13301 net.cpp:165] Memory required for data: 2612887292
I0703 03:17:51.014637 13301 layer_factory.hpp:77] Creating layer roi_pool_ctx
I0703 03:17:51.014642 13301 net.cpp:100] Creating Layer roi_pool_ctx
I0703 03:17:51.014645 13301 net.cpp:434] roi_pool_ctx <- conv4_3_2x_conv4_3_2x_0_split_1
I0703 03:17:51.014649 13301 net.cpp:434] roi_pool_ctx <- rois_proposal_info_0_split_1
I0703 03:17:51.014654 13301 net.cpp:408] roi_pool_ctx -> roi_pool_ctx
I0703 03:17:51.014662 13301 roi_pooling_layer.cpp:33] Spatial scale: 0.25
I0703 03:17:51.014701 13301 net.cpp:150] Setting up roi_pool_ctx
I0703 03:17:51.014708 13301 net.cpp:157] Top shape: 64 512 7 5 (1146880)
I0703 03:17:51.014709 13301 net.cpp:165] Memory required for data: 2617474812
I0703 03:17:51.014713 13301 layer_factory.hpp:77] Creating layer roi_pool
I0703 03:17:51.014717 13301 net.cpp:100] Creating Layer roi_pool
I0703 03:17:51.014720 13301 net.cpp:434] roi_pool <- roi_pool_org
I0703 03:17:51.014724 13301 net.cpp:434] roi_pool <- roi_pool_ctx
I0703 03:17:51.014730 13301 net.cpp:408] roi_pool -> roi_pool
I0703 03:17:51.014757 13301 net.cpp:150] Setting up roi_pool
I0703 03:17:51.014763 13301 net.cpp:157] Top shape: 64 1024 7 5 (2293760)
I0703 03:17:51.014765 13301 net.cpp:165] Memory required for data: 2626649852
I0703 03:17:51.014768 13301 layer_factory.hpp:77] Creating layer roi_c1
I0703 03:17:51.014777 13301 net.cpp:100] Creating Layer roi_c1
I0703 03:17:51.014781 13301 net.cpp:434] roi_c1 <- roi_pool
I0703 03:17:51.014788 13301 net.cpp:408] roi_c1 -> roi_c1
I0703 03:17:51.053438 13301 net.cpp:150] Setting up roi_c1
I0703 03:17:51.053458 13301 net.cpp:157] Top shape: 64 512 5 3 (491520)
I0703 03:17:51.053464 13301 net.cpp:165] Memory required for data: 2628615932
I0703 03:17:51.053474 13301 layer_factory.hpp:77] Creating layer roi_c1_relu
I0703 03:17:51.053483 13301 net.cpp:100] Creating Layer roi_c1_relu
I0703 03:17:51.053488 13301 net.cpp:434] roi_c1_relu <- roi_c1
I0703 03:17:51.053494 13301 net.cpp:395] roi_c1_relu -> roi_c1 (in-place)
I0703 03:17:51.054260 13301 net.cpp:150] Setting up roi_c1_relu
I0703 03:17:51.054270 13301 net.cpp:157] Top shape: 64 512 5 3 (491520)
I0703 03:17:51.054273 13301 net.cpp:165] Memory required for data: 2630582012
I0703 03:17:51.054276 13301 layer_factory.hpp:77] Creating layer fc6
I0703 03:17:51.054286 13301 net.cpp:100] Creating Layer fc6
I0703 03:17:51.054291 13301 net.cpp:434] fc6 <- roi_c1
I0703 03:17:51.054298 13301 net.cpp:408] fc6 -> fc6
I0703 03:17:51.178164 13301 net.cpp:150] Setting up fc6
I0703 03:17:51.178184 13301 net.cpp:157] Top shape: 64 2048 (131072)
I0703 03:17:51.178186 13301 net.cpp:165] Memory required for data: 2631106300
I0703 03:17:51.178196 13301 layer_factory.hpp:77] Creating layer relu6
I0703 03:17:51.178206 13301 net.cpp:100] Creating Layer relu6
I0703 03:17:51.178211 13301 net.cpp:434] relu6 <- fc6
I0703 03:17:51.178218 13301 net.cpp:395] relu6 -> fc6 (in-place)
I0703 03:17:51.178545 13301 net.cpp:150] Setting up relu6
I0703 03:17:51.178552 13301 net.cpp:157] Top shape: 64 2048 (131072)
I0703 03:17:51.178556 13301 net.cpp:165] Memory required for data: 2631630588
I0703 03:17:51.178560 13301 layer_factory.hpp:77] Creating layer drop6
I0703 03:17:51.178566 13301 net.cpp:100] Creating Layer drop6
I0703 03:17:51.178570 13301 net.cpp:434] drop6 <- fc6
I0703 03:17:51.178576 13301 net.cpp:395] drop6 -> fc6 (in-place)
I0703 03:17:51.178607 13301 net.cpp:150] Setting up drop6
I0703 03:17:51.178612 13301 net.cpp:157] Top shape: 64 2048 (131072)
I0703 03:17:51.178616 13301 net.cpp:165] Memory required for data: 2632154876
I0703 03:17:51.178617 13301 layer_factory.hpp:77] Creating layer fc6_drop6_0_split
I0703 03:17:51.178624 13301 net.cpp:100] Creating Layer fc6_drop6_0_split
I0703 03:17:51.178628 13301 net.cpp:434] fc6_drop6_0_split <- fc6
I0703 03:17:51.178633 13301 net.cpp:408] fc6_drop6_0_split -> fc6_drop6_0_split_0
I0703 03:17:51.178642 13301 net.cpp:408] fc6_drop6_0_split -> fc6_drop6_0_split_1
I0703 03:17:51.178686 13301 net.cpp:150] Setting up fc6_drop6_0_split
I0703 03:17:51.178691 13301 net.cpp:157] Top shape: 64 2048 (131072)
I0703 03:17:51.178695 13301 net.cpp:157] Top shape: 64 2048 (131072)
I0703 03:17:51.178697 13301 net.cpp:165] Memory required for data: 2633203452
I0703 03:17:51.178700 13301 layer_factory.hpp:77] Creating layer cls_pred
I0703 03:17:51.178709 13301 net.cpp:100] Creating Layer cls_pred
I0703 03:17:51.178714 13301 net.cpp:434] cls_pred <- fc6_drop6_0_split_0
I0703 03:17:51.178720 13301 net.cpp:408] cls_pred -> cls_pred
I0703 03:17:51.178894 13301 net.cpp:150] Setting up cls_pred
I0703 03:17:51.178900 13301 net.cpp:157] Top shape: 64 3 (192)
I0703 03:17:51.178901 13301 net.cpp:165] Memory required for data: 2633204220
I0703 03:17:51.178907 13301 layer_factory.hpp:77] Creating layer cls_pred_cls_pred_0_split
I0703 03:17:51.178915 13301 net.cpp:100] Creating Layer cls_pred_cls_pred_0_split
I0703 03:17:51.178918 13301 net.cpp:434] cls_pred_cls_pred_0_split <- cls_pred
I0703 03:17:51.178923 13301 net.cpp:408] cls_pred_cls_pred_0_split -> cls_pred_cls_pred_0_split_0
I0703 03:17:51.178930 13301 net.cpp:408] cls_pred_cls_pred_0_split -> cls_pred_cls_pred_0_split_1
I0703 03:17:51.178985 13301 net.cpp:150] Setting up cls_pred_cls_pred_0_split
I0703 03:17:51.178992 13301 net.cpp:157] Top shape: 64 3 (192)
I0703 03:17:51.178995 13301 net.cpp:157] Top shape: 64 3 (192)
I0703 03:17:51.178998 13301 net.cpp:165] Memory required for data: 2633205756
I0703 03:17:51.179002 13301 layer_factory.hpp:77] Creating layer bbox_pred
I0703 03:17:51.179006 13301 net.cpp:100] Creating Layer bbox_pred
I0703 03:17:51.179010 13301 net.cpp:434] bbox_pred <- fc6_drop6_0_split_1
I0703 03:17:51.179015 13301 net.cpp:408] bbox_pred -> bbox_pred
I0703 03:17:51.179301 13301 net.cpp:150] Setting up bbox_pred
I0703 03:17:51.179306 13301 net.cpp:157] Top shape: 64 12 (768)
I0703 03:17:51.179309 13301 net.cpp:165] Memory required for data: 2633208828
I0703 03:17:51.179314 13301 layer_factory.hpp:77] Creating layer bbox_pred_bbox_pred_0_split
I0703 03:17:51.179319 13301 net.cpp:100] Creating Layer bbox_pred_bbox_pred_0_split
I0703 03:17:51.179323 13301 net.cpp:434] bbox_pred_bbox_pred_0_split <- bbox_pred
I0703 03:17:51.179329 13301 net.cpp:408] bbox_pred_bbox_pred_0_split -> bbox_pred_bbox_pred_0_split_0
I0703 03:17:51.179337 13301 net.cpp:408] bbox_pred_bbox_pred_0_split -> bbox_pred_bbox_pred_0_split_1
I0703 03:17:51.179375 13301 net.cpp:150] Setting up bbox_pred_bbox_pred_0_split
I0703 03:17:51.179380 13301 net.cpp:157] Top shape: 64 12 (768)
I0703 03:17:51.179384 13301 net.cpp:157] Top shape: 64 12 (768)
I0703 03:17:51.179386 13301 net.cpp:165] Memory required for data: 2633214972
I0703 03:17:51.179389 13301 layer_factory.hpp:77] Creating layer loss_cls
I0703 03:17:51.179396 13301 net.cpp:100] Creating Layer loss_cls
I0703 03:17:51.179401 13301 net.cpp:434] loss_cls <- cls_pred_cls_pred_0_split_0
I0703 03:17:51.179406 13301 net.cpp:434] loss_cls <- proposal_labels_proposal_info_1_split_0
…
