…
    downsample_rate: 16
    downsample_rate: 32
    downsample_rate: 32
    downsample_rate: 64
    coord_num: 4
    field_h: 60
    field_h: 84
    field_h: 120
    field_h: 168
    field_h: 240
    field_h: 336
    field_h: 480
    field_w: 40
    field_w: 56
    field_w: 80
    field_w: 112
    field_w: 160
    field_w: 224
    field_w: 360
    fg_threshold: 0.5
    resize_width: 1920
    resize_height: 576
    crop_width: 768
    crop_height: 576
    do_multiple_scale: true
    min_scale: 60
    max_scale: 480
    min_gt_height: 30
    shuffle: true
  }
}
layer {
  name: "conv1_1"
  type: "Convolution"
  bottom: "data"
  top: "conv1_1"
  convolution_param {
    num_output: 64
    pad: 1
    kernel_size: 3
  }
}
layer {
  name: "relu1_1"
  type: "ReLU"
  bottom: "conv1_1"
  top: "conv1_1"
}
layer {
  name: "conv1_2"
  type: "Convolution"
  bottom: "conv1_1"
  top: "conv1_2"
  convolution_param {
    num_output: 64
    pad: 1
    kernel_size: 3
  }
}
layer {
  name: "relu1_2"
  type: "ReLU"
  bottom: "conv1_2"
  top: "conv1_2"
}
layer {
  name: "pool1"
  type: "Pooling"
  bottom: "conv1_2"
  top: "pool1"
  pooling_param {
    pool: MAX
    kernel_size: 2
    stride: 2
  }
}
layer {
  name: "conv2_1"
  type: "Convolution"
  bottom: "pool1"
  top: "conv2_1"
  convolution_param {
    num_output: 128
    pad: 1
    kernel_size: 3
  }
}
layer {
  name: "relu2_1"
  type: "ReLU"
  bottom: "conv2_1"
  top: "conv2_1"
}
layer {
  name: "conv2_2"
  type: "Convolution"
  bottom: "conv2_1"
  top: "conv2_2"
  convolution_param {
    num_output: 128
    pad: 1
    kernel_size: 3
  }
}
layer {
  name: "relu2_2"
  type: "ReLU"
  bottom: "conv2_2"
  top: "conv2_2"
}
layer {
  name: "pool2"
  type: "Pooling"
  bottom: "conv2_2"
  top: "pool2"
  pooling_param {
    pool: MAX
    kernel_size: 2
    stride: 2
  }
}
layer {
  name: "conv3_1"
  type: "Convolution"
  bottom: "pool2"
  top: "conv3_1"
  convolution_param {
    num_output: 256
    pad: 1
    kernel_size: 3
  }
}
layer {
  name: "relu3_1"
  type: "ReLU"
  bottom: "conv3_1"
  top: "conv3_1"
}
layer {
  name: "conv3_2"
  type: "Convolution"
  bottom: "conv3_1"
  top: "conv3_2"
  convolution_param {
    num_output: 256
    pad: 1
    kernel_size: 3
  }
}
layer {
  name: "relu3_2"
  type: "ReLU"
  bottom: "conv3_2"
  top: "conv3_2"
}
layer {
  name: "conv3_3"
  type: "Convolution"
  bottom: "conv3_2"
  top: "conv3_3"
  convolution_param {
    num_output: 256
    pad: 1
    kernel_size: 3
  }
}
layer {
  name: "relu3_3"
  type: "ReLU"
  bottom: "conv3_3"
  top: "conv3_3"
}
layer {
  name: "pool3"
  type: "Pooling"
  bottom: "conv3_3"
  top: "pool3"
  pooling_param {
    pool: MAX
    kernel_size: 2
    stride: 2
  }
}
layer {
  name: "conv4_1"
  type: "Convolution"
  bottom: "pool3"
  top: "conv4_1"
  convolution_param {
    num_output: 512
    pad: 1
    kernel_size: 3
  }
}
layer {
  name: "relu4_1"
  type: "ReLU"
  bottom: "conv4_1"
  top: "conv4_1"
}
layer {
  name: "conv4_2"
  type: "Convolution"
  bottom: "conv4_1"
  top: "conv4_2"
  convolution_param {
    num_output: 512
    pad: 1
    kernel_size: 3
  }
}
layer {
  name: "relu4_2"
  type: "ReLU"
  bottom: "conv4_2"
  top: "conv4_2"
}
layer {
  name: "conv4_3"
  type: "Convolution"
  bottom: "conv4_2"
  top: "conv4_3"
  convolution_param {
    num_output: 512
    pad: 1
    kernel_size: 3
  }
}
layer {
  name: "relu4_3"
  type: "ReLU"
  bottom: "conv4_3"
  top: "conv4_3"
}
layer {
  name: "loss1_conv1"
  type: "Convolution"
  bottom: "conv4_3"
  top: "loss1_conv1"
  param {
    lr_mult: 1
    decay_mult: 1
  }
  param {
    lr_mult: 2
    decay_mult: 0
  }
  convolution_param {
    num_output: 512
    pad: 1
    kernel_size: 3
    weight_filler {
      type: "gaussian"
      std: 0.01
    }
    bias_filler {
      type: "constant"
    }
  }
}
layer {
  name: "loss_relu1"
  type: "ReLU"
  bottom: "loss1_conv1"
  top: "loss1_conv1"
}
layer {
  name: "LFCN_1_3x5"
  type: "Convolution"
  bottom: "loss1_conv1"
  top: "LFCN_1_3x5"
  param {
    lr_mult: 1
    decay_mult: 1
  }
  param {
    lr_mult: 2
    decay_mult: 0
  }
  convolution_param {
    num_output: 7
    weight_filler {
      type: "gaussian"
      std: 0.001
    }
    bias_filler {
      type: "constant"
    }
    pad_h: 2
    pad_w: 1
    kernel_h: 5
    kernel_w: 3
  }
}
layer {
  name: "detection_loss_1_3x5"
  type: "DetectionLoss"
  bottom: "LFCN_1_3x5"
  bottom: "label_1_3x5"
  top: "loss_1_3x5"
  loss_weight: 0.9
  detection_loss_param {
    cls_num: 3
    coord_num: 4
    lambda: 0.5
    field_h: 60
    field_w: 40
    downsample_rate: 8
    bb_smooth: true
    field_whr: 2
    field_xyr: 2
    bg_threshold: 0.2
    bg_multiple: 2
    sample_mode: "random"
    pos_neg_weighted: true
  }
}
layer {
  name: "detection_accuracy_1_3x5"
  type: "DetectionAccuracy"
  bottom: "LFCN_1_3x5"
  bottom: "label_1_3x5"
  top: "accuracy_1_3x5"
  top: "boxiou_1_3x5"
  detection_accuracy_param {
    cls_num: 3
    coord_num: 4
    field_h: 60
    field_w: 40
    downsample_rate: 8
    field_whr: 2
    field_xyr: 2
  }
}
layer {
  name: "LFCN_1_5x7"
  type: "Convolution"
  bottom: "loss1_conv1"
  top: "LFCN_1_5x7"
  param {
    lr_mult: 1
    decay_mult: 1
  }
  param {
    lr_mult: 2
    decay_mult: 0
  }
  convolution_param {
    num_output: 7
    weight_filler {
      type: "gaussian"
      std: 0.001
    }
    bias_filler {
      type: "constant"
    }
    pad_h: 3
    pad_w: 2
    kernel_h: 7
    kernel_w: 5
  }
}
layer {
  name: "detection_loss_1_5x7"
  type: "DetectionLoss"
  bottom: "LFCN_1_5x7"
  bottom: "label_1_5x7"
  top: "loss_1_5x7"
  loss_weight: 0.9
  detection_loss_param {
    cls_num: 3
    coord_num: 4
    lambda: 0.5
    field_h: 84
    field_w: 56
    downsample_rate: 8
    bb_smooth: true
    field_whr: 2
    field_xyr: 2
    bg_threshold: 0.2
    bg_multiple: 2
    sample_mode: "random"
    pos_neg_weighted: true
  }
}
layer {
  name: "detection_accuracy_1_5x7"
  type: "DetectionAccuracy"
  bottom: "LFCN_1_5x7"
  bottom: "label_1_5x7"
  top: "accuracy_1_5x7"
  top: "boxiou_1_5x7"
  detection_accuracy_param {
    cls_num: 3
    coord_num: 4
    field_h: 84
    field_w: 56
    downsample_rate: 8
    field_whr: 2
    field_xyr: 2
  }
}
layer {
  name: "pool4"
  type: "Pooling"
  bottom: "conv4_3"
  top: "pool4"
  pooling_param {
    pool: MAX
    kernel_size: 2
    stride: 2
  }
}
layer {
  name: "conv5_1"
  type: "Convolution"
  bottom: "pool4"
  top: "conv5_1"
  convolution_param {
    num_output: 512
    pad: 1
    kernel_size: 3
  }
}
layer {
  name: "relu5_1"
  type: "ReLU"
  bottom: "conv5_1"
  top: "conv5_1"
}
layer {
  name: "conv5_2"
  type: "Convolution"
  bottom: "conv5_1"
  top: "conv5_2"
  convolution_param {
    num_output: 512
    pad: 1
    kernel_size: 3
  }
}
layer {
  name: "relu5_2"
  type: "ReLU"
  bottom: "conv5_2"
  top: "conv5_2"
}
layer {
  name: "conv5_3"
  type: "Convolution"
  bottom: "conv5_2"
  top: "conv5_3"
  convolution_param {
    num_output: 512
    pad: 1
    kernel_size: 3
  }
}
layer {
  name: "relu5_3"
  type: "ReLU"
  bottom: "conv5_3"
  top: "conv5_3"
}
layer {
  name: "LFCN_2_3x5"
  type: "Convolution"
  bottom: "conv5_3"
  top: "LFCN_2_3x5"
  param {
    lr_mult: 1
    decay_mult: 1
  }
  param {
    lr_mult: 2
    decay_mult: 0
  }
  convolution_param {
    num_output: 7
    weight_filler {
      type: "gaussian"
      std: 0.001
    }
    bias_filler {
      type: "constant"
    }
    pad_h: 2
    pad_w: 1
    kernel_h: 5
    kernel_w: 3
  }
}
layer {
  name: "detection_loss_2_3x5"
  type: "DetectionLoss"
  bottom: "LFCN_2_3x5"
  bottom: "label_2_3x5"
  top: "loss_2_3x5"
  detection_loss_param {
    cls_num: 3
    coord_num: 4
    lambda: 0.5
    field_h: 120
    field_w: 80
    downsample_rate: 16
    bb_smooth: true
    field_whr: 2
    field_xyr: 2
    bg_threshold: 0.2
    bg_multiple: 2
    sample_mode: "random"
    pos_neg_weighted: true
  }
}
layer {
  name: "detection_accuracy_2_3x5"
  type: "DetectionAccuracy"
  bottom: "LFCN_2_3x5"
  bottom: "label_2_3x5"
  top: "accuracy_2_3x5"
  top: "boxiou_2_3x5"
  detection_accuracy_param {
    cls_num: 3
    coord_num: 4
    field_h: 120
    field_w: 80
    downsample_rate: 16
    field_whr: 2
    field_xyr: 2
  }
}
layer {
  name: "LFCN_2_5x7"
  type: "Convolution"
  bottom: "conv5_3"
  top: "LFCN_2_5x7"
  param {
    lr_mult: 1
    decay_mult: 1
  }
  param {
    lr_mult: 2
    decay_mult: 0
  }
  convolution_param {
    num_output: 7
    weight_filler {
      type: "gaussian"
      std: 0.001
    }
    bias_filler {
      type: "constant"
    }
    pad_h: 3
    pad_w: 2
    kernel_h: 7
    kernel_w: 5
  }
}
layer {
  name: "detection_loss_2_5x7"
  type: "DetectionLoss"
  bottom: "LFCN_2_5x7"
  bottom: "label_2_5x7"
  top: "loss_2_5x7"
  detection_loss_param {
    cls_num: 3
    coord_num: 4
    lambda: 0.5
    field_h: 168
    field_w: 112
    downsample_rate: 16
    bb_smooth: true
    field_whr: 2
    field_xyr: 2
    bg_threshold: 0.2
    bg_multiple: 2
    sample_mode: "random"
    pos_neg_weighted: true
  }
}
layer {
  name: "detection_accuracy_2_5x7"
  type: "DetectionAccuracy"
  bottom: "LFCN_2_5x7"
  bottom: "label_2_5x7"
  top: "accuracy_2_5x7"
  top: "boxiou_2_5x7"
  detection_accuracy_param {
    cls_num: 3
    coord_num: 4
    field_h: 168
    field_w: 112
    downsample_rate: 16
    field_whr: 2
    field_xyr: 2
  }
}
layer {
  name: "pool5"
  type: "Pooling"
  bottom: "conv5_3"
  top: "pool5"
  pooling_param {
    pool: MAX
    kernel_size: 2
    stride: 2
  }
}
layer {
  name: "conv6_1"
  type: "Convolution"
  bottom: "pool5"
  top: "conv6_1"
  param {
    lr_mult: 1
    decay_mult: 1
  }
  param {
    lr_mult: 2
    decay_mult: 0
  }
  convolution_param {
    num_output: 512
    pad: 1
    kernel_size: 3
    weight_filler {
      type: "gaussian"
      std: 0.01
    }
    bias_filler {
      type: "constant"
    }
  }
}
layer {
  name: "relu6_1"
  type: "ReLU"
  bottom: "conv6_1"
  top: "conv6_1"
}
layer {
  name: "LFCN_3_3x5"
  type: "Convolution"
  bottom: "conv6_1"
  top: "LFCN_3_3x5"
  param {
    lr_mult: 1
    decay_mult: 1
  }
  param {
    lr_mult: 2
    decay_mult: 0
  }
  convolution_param {
    num_output: 7
    weight_filler {
      type: "gaussian"
      std: 0.001
    }
    bias_filler {
      type: "constant"
    }
    pad_h: 2
    pad_w: 1
    kernel_h: 5
    kernel_w: 3
  }
}
layer {
  name: "detection_loss_3_3x5"
  type: "DetectionLoss"
  bottom: "LFCN_3_3x5"
  bottom: "label_3_3x5"
  top: "loss_3_3x5"
  detection_loss_param {
    cls_num: 3
    coord_num: 4
    lambda: 0.5
    field_h: 240
    field_w: 160
    downsample_rate: 32
    bb_smooth: true
    field_whr: 2
    field_xyr: 2
    bg_threshold: 0.2
    bg_multiple: 2
    sample_mode: "random"
    pos_neg_weighted: true
  }
}
layer {
  name: "detection_accuracy_3_3x5"
  type: "DetectionAccuracy"
  bottom: "LFCN_3_3x5"
  bottom: "label_3_3x5"
  top: "accuracy_3_3x5"
  top: "boxiou_3_3x5"
  detection_accuracy_param {
    cls_num: 3
    coord_num: 4
    field_h: 240
    field_w: 160
    downsample_rate: 32
    field_whr: 2
    field_xyr: 2
  }
}
layer {
  name: "LFCN_3_5x7"
  type: "Convolution"
  bottom: "conv6_1"
  top: "LFCN_3_5x7"
  param {
    lr_mult: 1
    decay_mult: 1
  }
  param {
    lr_mult: 2
    decay_mult: 0
  }
  convolution_param {
    num_output: 7
    weight_filler {
      type: "gaussian"
      std: 0.001
    }
    bias_filler {
      type: "constant"
    }
    pad_h: 3
    pad_w: 2
    kernel_h: 7
    kernel_w: 5
  }
}
layer {
  name: "detection_loss_3_5x7"
  type: "DetectionLoss"
  bottom: "LFCN_3_5x7"
  bottom: "label_3_5x7"
  top: "loss_3_5x7"
  detection_loss_param {
    cls_num: 3
    coord_num: 4
    lambda: 0.5
    field_h: 336
    field_w: 224
    downsample_rate: 32
    bb_smooth: true
    field_whr: 2
    field_xyr: 2
    bg_threshold: 0.2
    bg_multiple: 2
    sample_mode: "random"
    pos_neg_weighted: true
  }
}
layer {
  name: "detection_accuracy_3_5x7"
  type: "DetectionAccuracy"
  bottom: "LFCN_3_5x7"
  bottom: "label_3_5x7"
  top: "accuracy_3_5x7"
  top: "boxiou_3_5x7"
  detection_accuracy_param {
    cls_num: 3
    coord_num: 4
    field_h: 336
    field_w: 224
    downsample_rate: 32
    field_whr: 2
    field_xyr: 2
  }
}
layer {
  name: "pool6"
  type: "Pooling"
  bottom: "conv6_1"
  top: "pool6"
  pooling_param {
    pool: MAX
    kernel_size: 2
    stride: 2
  }
}
layer {
  name: "LFCN_4_3x5"
  type: "Convolution"
  bottom: "pool6"
  top: "LFCN_4_3x5"
  param {
    lr_mult: 1
    decay_mult: 1
  }
  param {
    lr_mult: 2
    decay_mult: 0
  }
  convolution_param {
    num_output: 7
    weight_filler {
      type: "gaussian"
      std: 0.001
    }
    bias_filler {
      type: "constant"
    }
    pad_h: 2
    pad_w: 1
    kernel_h: 5
    kernel_w: 3
  }
}
layer {
  name: "detection_loss_4_3x5"
  type: "DetectionLoss"
  bottom: "LFCN_4_3x5"
  bottom: "label_4_3x5"
  top: "loss_4_3x5"
  detection_loss_param {
    cls_num: 3
    coord_num: 4
    lambda: 0.5
    field_h: 480
    field_w: 360
    downsample_rate: 64
    bb_smooth: true
    field_whr: 2
    field_xyr: 2
    bg_threshold: 0.2
    bg_multiple: 2
    sample_mode: "random"
    pos_neg_weighted: true
  }
}
layer {
  name: "detection_accuracy_4_3x5"
  type: "DetectionAccuracy"
  bottom: "LFCN_4_3x5"
  bottom: "label_4_3x5"
  top: "accuracy_4_3x5"
  top: "boxiou_4_3x5"
  detection_accuracy_param {
    cls_num: 3
    coord_num: 4
    field_h: 480
    field_w: 360
    downsample_rate: 64
    field_whr: 2
    field_xyr: 2
  }
}
I0703 00:54:33.240136 12973 layer_factory.hpp:77] Creating layer data
I0703 00:54:33.240169 12973 net.cpp:100] Creating Layer data
I0703 00:54:33.240176 12973 net.cpp:408] data -> data
…
I0703 00:54:33.266410 12973 image_gt_data_layer.cpp:241] output label size 2 : 4,6,36,48
I0703 00:54:33.266453 12973 image_gt_data_layer.cpp:241] output label size 3 : 4,6,36,48
I0703 00:54:33.266497 12973 image_gt_data_layer.cpp:241] output label size 4 : 4,6,18,24
I0703 00:54:33.266541 12973 image_gt_data_layer.cpp:241] output label size 5 : 4,6,18,24
I0703 00:54:33.266584 12973 image_gt_data_layer.cpp:241] output label size 6 : 4,6,9,12
I0703 00:54:33.266588 12973 image_gt_data_layer.cpp:265]  --> has_mean_values_ = 1
I0703 00:54:33.301539 12973 net.cpp:150] Setting up data
I0703 00:54:33.301558 12973 net.cpp:157] Top shape: 4 4 576 768 (7077888)
I0703 00:54:33.301563 12973 net.cpp:157] Top shape: 4 6 72 96 (165888)
I0703 00:54:33.301566 12973 net.cpp:157] Top shape: 4 6 72 96 (165888)
I0703 00:54:33.301570 12973 net.cpp:157] Top shape: 4 6 36 48 (41472)
I0703 00:54:33.301574 12973 net.cpp:157] Top shape: 4 6 36 48 (41472)
I0703 00:54:33.301578 12973 net.cpp:157] Top shape: 4 6 18 24 (10368)
I0703 00:54:33.301581 12973 net.cpp:157] Top shape: 4 6 18 24 (10368)
I0703 00:54:33.301585 12973 net.cpp:157] Top shape: 4 6 9 12 (2592)
I0703 00:54:33.301587 12973 net.cpp:165] Memory required for data: 30063744
I0703 00:54:33.301595 12973 layer_factory.hpp:77] Creating layer label_1_3x5_data_1_split
I0703 00:54:33.301607 12973 net.cpp:100] Creating Layer label_1_3x5_data_1_split
I0703 00:54:33.301614 12973 net.cpp:434] label_1_3x5_data_1_split <- label_1_3x5
I0703 00:54:33.301626 12973 net.cpp:408] label_1_3x5_data_1_split -> label_1_3x5_data_1_split_0
I0703 00:54:33.301637 12973 net.cpp:408] label_1_3x5_data_1_split -> label_1_3x5_data_1_split_1
I0703 00:54:33.301695 12973 net.cpp:150] Setting up label_1_3x5_data_1_split
I0703 00:54:33.301702 12973 net.cpp:157] Top shape: 4 6 72 96 (165888)
I0703 00:54:33.301707 12973 net.cpp:157] Top shape: 4 6 72 96 (165888)
I0703 00:54:33.301709 12973 net.cpp:165] Memory required for data: 31390848
I0703 00:54:33.301713 12973 layer_factory.hpp:77] Creating layer label_1_5x7_data_2_split
I0703 00:54:33.301718 12973 net.cpp:100] Creating Layer label_1_5x7_data_2_split
I0703 00:54:33.301723 12973 net.cpp:434] label_1_5x7_data_2_split <- label_1_5x7
I0703 00:54:33.301730 12973 net.cpp:408] label_1_5x7_data_2_split -> label_1_5x7_data_2_split_0
I0703 00:54:33.301738 12973 net.cpp:408] label_1_5x7_data_2_split -> label_1_5x7_data_2_split_1
I0703 00:54:33.301767 12973 net.cpp:150] Setting up label_1_5x7_data_2_split
I0703 00:54:33.301772 12973 net.cpp:157] Top shape: 4 6 72 96 (165888)
I0703 00:54:33.301776 12973 net.cpp:157] Top shape: 4 6 72 96 (165888)
I0703 00:54:33.301779 12973 net.cpp:165] Memory required for data: 32717952
I0703 00:54:33.301782 12973 layer_factory.hpp:77] Creating layer label_2_3x5_data_3_split
I0703 00:54:33.301786 12973 net.cpp:100] Creating Layer label_2_3x5_data_3_split
I0703 00:54:33.301789 12973 net.cpp:434] label_2_3x5_data_3_split <- label_2_3x5
I0703 00:54:33.301796 12973 net.cpp:408] label_2_3x5_data_3_split -> label_2_3x5_data_3_split_0
I0703 00:54:33.301806 12973 net.cpp:408] label_2_3x5_data_3_split -> label_2_3x5_data_3_split_1
I0703 00:54:33.301841 12973 net.cpp:150] Setting up label_2_3x5_data_3_split
I0703 00:54:33.301846 12973 net.cpp:157] Top shape: 4 6 36 48 (41472)
I0703 00:54:33.301851 12973 net.cpp:157] Top shape: 4 6 36 48 (41472)
I0703 00:54:33.301853 12973 net.cpp:165] Memory required for data: 33049728
I0703 00:54:33.301856 12973 layer_factory.hpp:77] Creating layer label_2_5x7_data_4_split
I0703 00:54:33.301862 12973 net.cpp:100] Creating Layer label_2_5x7_data_4_split
I0703 00:54:33.301865 12973 net.cpp:434] label_2_5x7_data_4_split <- label_2_5x7
I0703 00:54:33.301872 12973 net.cpp:408] label_2_5x7_data_4_split -> label_2_5x7_data_4_split_0
I0703 00:54:33.301878 12973 net.cpp:408] label_2_5x7_data_4_split -> label_2_5x7_data_4_split_1
I0703 00:54:33.301910 12973 net.cpp:150] Setting up label_2_5x7_data_4_split
I0703 00:54:33.301915 12973 net.cpp:157] Top shape: 4 6 36 48 (41472)
I0703 00:54:33.301919 12973 net.cpp:157] Top shape: 4 6 36 48 (41472)
I0703 00:54:33.301923 12973 net.cpp:165] Memory required for data: 33381504
I0703 00:54:33.301924 12973 layer_factory.hpp:77] Creating layer label_3_3x5_data_5_split
I0703 00:54:33.301929 12973 net.cpp:100] Creating Layer label_3_3x5_data_5_split
I0703 00:54:33.301932 12973 net.cpp:434] label_3_3x5_data_5_split <- label_3_3x5
I0703 00:54:33.301939 12973 net.cpp:408] label_3_3x5_data_5_split -> label_3_3x5_data_5_split_0
I0703 00:54:33.301947 12973 net.cpp:408] label_3_3x5_data_5_split -> label_3_3x5_data_5_split_1
I0703 00:54:33.301976 12973 net.cpp:150] Setting up label_3_3x5_data_5_split
I0703 00:54:33.301982 12973 net.cpp:157] Top shape: 4 6 18 24 (10368)
I0703 00:54:33.301986 12973 net.cpp:157] Top shape: 4 6 18 24 (10368)
I0703 00:54:33.301990 12973 net.cpp:165] Memory required for data: 33464448
I0703 00:54:33.301992 12973 layer_factory.hpp:77] Creating layer label_3_5x7_data_6_split
I0703 00:54:33.301998 12973 net.cpp:100] Creating Layer label_3_5x7_data_6_split
I0703 00:54:33.302002 12973 net.cpp:434] label_3_5x7_data_6_split <- label_3_5x7
I0703 00:54:33.302006 12973 net.cpp:408] label_3_5x7_data_6_split -> label_3_5x7_data_6_split_0
I0703 00:54:33.302012 12973 net.cpp:408] label_3_5x7_data_6_split -> label_3_5x7_data_6_split_1
I0703 00:54:33.302042 12973 net.cpp:150] Setting up label_3_5x7_data_6_split
I0703 00:54:33.302047 12973 net.cpp:157] Top shape: 4 6 18 24 (10368)
I0703 00:54:33.302052 12973 net.cpp:157] Top shape: 4 6 18 24 (10368)
I0703 00:54:33.302054 12973 net.cpp:165] Memory required for data: 33547392
I0703 00:54:33.302057 12973 layer_factory.hpp:77] Creating layer label_4_3x5_data_7_split
I0703 00:54:33.302062 12973 net.cpp:100] Creating Layer label_4_3x5_data_7_split
I0703 00:54:33.302064 12973 net.cpp:434] label_4_3x5_data_7_split <- label_4_3x5
I0703 00:54:33.302069 12973 net.cpp:408] label_4_3x5_data_7_split -> label_4_3x5_data_7_split_0
I0703 00:54:33.302078 12973 net.cpp:408] label_4_3x5_data_7_split -> label_4_3x5_data_7_split_1
I0703 00:54:33.302101 12973 net.cpp:150] Setting up label_4_3x5_data_7_split
I0703 00:54:33.302105 12973 net.cpp:157] Top shape: 4 6 9 12 (2592)
I0703 00:54:33.302109 12973 net.cpp:157] Top shape: 4 6 9 12 (2592)
I0703 00:54:33.302111 12973 net.cpp:165] Memory required for data: 33568128
I0703 00:54:33.302114 12973 layer_factory.hpp:77] Creating layer conv1_1
I0703 00:54:33.302129 12973 net.cpp:100] Creating Layer conv1_1
I0703 00:54:33.302131 12973 net.cpp:434] conv1_1 <- data
I0703 00:54:33.302136 12973 net.cpp:408] conv1_1 -> conv1_1
I0703 00:54:33.859007 12973 net.cpp:150] Setting up conv1_1
I0703 00:54:33.859028 12973 net.cpp:157] Top shape: 4 64 576 768 (113246208)
I0703 00:54:33.859031 12973 net.cpp:165] Memory required for data: 486552960
I0703 00:54:33.859047 12973 layer_factory.hpp:77] Creating layer relu1_1
I0703 00:54:33.859056 12973 net.cpp:100] Creating Layer relu1_1
I0703 00:54:33.859061 12973 net.cpp:434] relu1_1 <- conv1_1
I0703 00:54:33.859064 12973 net.cpp:395] relu1_1 -> conv1_1 (in-place)
I0703 00:54:33.859361 12973 net.cpp:150] Setting up relu1_1
I0703 00:54:33.859370 12973 net.cpp:157] Top shape: 4 64 576 768 (113246208)
I0703 00:54:33.859372 12973 net.cpp:165] Memory required for data: 939537792
I0703 00:54:33.859375 12973 layer_factory.hpp:77] Creating layer conv1_2
I0703 00:54:33.859385 12973 net.cpp:100] Creating Layer conv1_2
I0703 00:54:33.859390 12973 net.cpp:434] conv1_2 <- conv1_1
I0703 00:54:33.859395 12973 net.cpp:408] conv1_2 -> conv1_2
I0703 00:54:33.862390 12973 net.cpp:150] Setting up conv1_2
I0703 00:54:33.862411 12973 net.cpp:157] Top shape: 4 64 576 768 (113246208)
I0703 00:54:33.862413 12973 net.cpp:165] Memory required for data: 1392522624
I0703 00:54:33.862423 12973 layer_factory.hpp:77] Creating layer relu1_2
I0703 00:54:33.862431 12973 net.cpp:100] Creating Layer relu1_2
I0703 00:54:33.862433 12973 net.cpp:434] relu1_2 <- conv1_2
I0703 00:54:33.862439 12973 net.cpp:395] relu1_2 -> conv1_2 (in-place)
I0703 00:54:33.862817 12973 net.cpp:150] Setting up relu1_2
I0703 00:54:33.862826 12973 net.cpp:157] Top shape: 4 64 576 768 (113246208)
I0703 00:54:33.862829 12973 net.cpp:165] Memory required for data: 1845507456
I0703 00:54:33.862833 12973 layer_factory.hpp:77] Creating layer pool1
I0703 00:54:33.862843 12973 net.cpp:100] Creating Layer pool1
I0703 00:54:33.862848 12973 net.cpp:434] pool1 <- conv1_2
I0703 00:54:33.862855 12973 net.cpp:408] pool1 -> pool1
I0703 00:54:33.862928 12973 net.cpp:150] Setting up pool1
I0703 00:54:33.862936 12973 net.cpp:157] Top shape: 4 64 288 384 (28311552)
I0703 00:54:33.862938 12973 net.cpp:165] Memory required for data: 1958753664
I0703 00:54:33.862941 12973 layer_factory.hpp:77] Creating layer conv2_1
I0703 00:54:33.862951 12973 net.cpp:100] Creating Layer conv2_1
I0703 00:54:33.862954 12973 net.cpp:434] conv2_1 <- pool1
I0703 00:54:33.862959 12973 net.cpp:408] conv2_1 -> conv2_1
I0703 00:54:33.865661 12973 net.cpp:150] Setting up conv2_1
I0703 00:54:33.865679 12973 net.cpp:157] Top shape: 4 128 288 384 (56623104)
I0703 00:54:33.865681 12973 net.cpp:165] Memory required for data: 2185246080
I0703 00:54:33.865698 12973 layer_factory.hpp:77] Creating layer relu2_1
I0703 00:54:33.865710 12973 net.cpp:100] Creating Layer relu2_1
I0703 00:54:33.865715 12973 net.cpp:434] relu2_1 <- conv2_1
I0703 00:54:33.865720 12973 net.cpp:395] relu2_1 -> conv2_1 (in-place)
I0703 00:54:33.866478 12973 net.cpp:150] Setting up relu2_1
I0703 00:54:33.866487 12973 net.cpp:157] Top shape: 4 128 288 384 (56623104)
I0703 00:54:33.866489 12973 net.cpp:165] Memory required for data: 2411738496
I0703 00:54:33.866492 12973 layer_factory.hpp:77] Creating layer conv2_2
I0703 00:54:33.866502 12973 net.cpp:100] Creating Layer conv2_2
I0703 00:54:33.866503 12973 net.cpp:434] conv2_2 <- conv2_1
I0703 00:54:33.866509 12973 net.cpp:408] conv2_2 -> conv2_2
I0703 00:54:33.868548 12973 net.cpp:150] Setting up conv2_2
I0703 00:54:33.868563 12973 net.cpp:157] Top shape: 4 128 288 384 (56623104)
I0703 00:54:33.868566 12973 net.cpp:165] Memory required for data: 2638230912
I0703 00:54:33.868571 12973 layer_factory.hpp:77] Creating layer relu2_2
I0703 00:54:33.868582 12973 net.cpp:100] Creating Layer relu2_2
I0703 00:54:33.868584 12973 net.cpp:434] relu2_2 <- conv2_2
I0703 00:54:33.868589 12973 net.cpp:395] relu2_2 -> conv2_2 (in-place)
I0703 00:54:33.869236 12973 net.cpp:150] Setting up relu2_2
I0703 00:54:33.869247 12973 net.cpp:157] Top shape: 4 128 288 384 (56623104)
I0703 00:54:33.869249 12973 net.cpp:165] Memory required for data: 2864723328
I0703 00:54:33.869252 12973 layer_factory.hpp:77] Creating layer pool2
I0703 00:54:33.869257 12973 net.cpp:100] Creating Layer pool2
I0703 00:54:33.869261 12973 net.cpp:434] pool2 <- conv2_2
I0703 00:54:33.869266 12973 net.cpp:408] pool2 -> pool2
I0703 00:54:33.869310 12973 net.cpp:150] Setting up pool2
I0703 00:54:33.869315 12973 net.cpp:157] Top shape: 4 128 144 192 (14155776)
I0703 00:54:33.869321 12973 net.cpp:165] Memory required for data: 2921346432
I0703 00:54:33.869324 12973 layer_factory.hpp:77] Creating layer conv3_1
I0703 00:54:33.869331 12973 net.cpp:100] Creating Layer conv3_1
I0703 00:54:33.869336 12973 net.cpp:434] conv3_1 <- pool2
I0703 00:54:33.869341 12973 net.cpp:408] conv3_1 -> conv3_1
I0703 00:54:33.872025 12973 net.cpp:150] Setting up conv3_1
I0703 00:54:33.872045 12973 net.cpp:157] Top shape: 4 256 144 192 (28311552)
I0703 00:54:33.872046 12973 net.cpp:165] Memory required for data: 3034592640
I0703 00:54:33.872058 12973 layer_factory.hpp:77] Creating layer relu3_1
I0703 00:54:33.872066 12973 net.cpp:100] Creating Layer relu3_1
I0703 00:54:33.872068 12973 net.cpp:434] relu3_1 <- conv3_1
I0703 00:54:33.872073 12973 net.cpp:395] relu3_1 -> conv3_1 (in-place)
I0703 00:54:33.872344 12973 net.cpp:150] Setting up relu3_1
I0703 00:54:33.872352 12973 net.cpp:157] Top shape: 4 256 144 192 (28311552)
I0703 00:54:33.872354 12973 net.cpp:165] Memory required for data: 3147838848
I0703 00:54:33.872357 12973 layer_factory.hpp:77] Creating layer conv3_2
I0703 00:54:33.872367 12973 net.cpp:100] Creating Layer conv3_2
I0703 00:54:33.872372 12973 net.cpp:434] conv3_2 <- conv3_1
I0703 00:54:33.872378 12973 net.cpp:408] conv3_2 -> conv3_2
I0703 00:54:33.875663 12973 net.cpp:150] Setting up conv3_2
I0703 00:54:33.875682 12973 net.cpp:157] Top shape: 4 256 144 192 (28311552)
I0703 00:54:33.875684 12973 net.cpp:165] Memory required for data: 3261085056
I0703 00:54:33.875691 12973 layer_factory.hpp:77] Creating layer relu3_2
I0703 00:54:33.875699 12973 net.cpp:100] Creating Layer relu3_2
I0703 00:54:33.875702 12973 net.cpp:434] relu3_2 <- conv3_2
I0703 00:54:33.875706 12973 net.cpp:395] relu3_2 -> conv3_2 (in-place)
I0703 00:54:33.875957 12973 net.cpp:150] Setting up relu3_2
I0703 00:54:33.875967 12973 net.cpp:157] Top shape: 4 256 144 192 (28311552)
I0703 00:54:33.875970 12973 net.cpp:165] Memory required for data: 3374331264
I0703 00:54:33.875973 12973 layer_factory.hpp:77] Creating layer conv3_3
I0703 00:54:33.875983 12973 net.cpp:100] Creating Layer conv3_3
I0703 00:54:33.875988 12973 net.cpp:434] conv3_3 <- conv3_2
I0703 00:54:33.875995 12973 net.cpp:408] conv3_3 -> conv3_3
I0703 00:54:33.878995 12973 net.cpp:150] Setting up conv3_3
I0703 00:54:33.879015 12973 net.cpp:157] Top shape: 4 256 144 192 (28311552)
I0703 00:54:33.879017 12973 net.cpp:165] Memory required for data: 3487577472
I0703 00:54:33.879027 12973 layer_factory.hpp:77] Creating layer relu3_3
I0703 00:54:33.879037 12973 net.cpp:100] Creating Layer relu3_3
I0703 00:54:33.879041 12973 net.cpp:434] relu3_3 <- conv3_3
I0703 00:54:33.879047 12973 net.cpp:395] relu3_3 -> conv3_3 (in-place)
I0703 00:54:33.879680 12973 net.cpp:150] Setting up relu3_3
I0703 00:54:33.879690 12973 net.cpp:157] Top shape: 4 256 144 192 (28311552)
I0703 00:54:33.879693 12973 net.cpp:165] Memory required for data: 3600823680
I0703 00:54:33.879698 12973 layer_factory.hpp:77] Creating layer pool3
I0703 00:54:33.879705 12973 net.cpp:100] Creating Layer pool3
I0703 00:54:33.879710 12973 net.cpp:434] pool3 <- conv3_3
I0703 00:54:33.879716 12973 net.cpp:408] pool3 -> pool3
I0703 00:54:33.879760 12973 net.cpp:150] Setting up pool3
I0703 00:54:33.879765 12973 net.cpp:157] Top shape: 4 256 72 96 (7077888)
I0703 00:54:33.879767 12973 net.cpp:165] Memory required for data: 3629135232
I0703 00:54:33.879770 12973 layer_factory.hpp:77] Creating layer conv4_1
I0703 00:54:33.879779 12973 net.cpp:100] Creating Layer conv4_1
I0703 00:54:33.879783 12973 net.cpp:434] conv4_1 <- pool3
I0703 00:54:33.879788 12973 net.cpp:408] conv4_1 -> conv4_1
I0703 00:54:33.884524 12973 net.cpp:150] Setting up conv4_1
I0703 00:54:33.884543 12973 net.cpp:157] Top shape: 4 512 72 96 (14155776)
I0703 00:54:33.884546 12973 net.cpp:165] Memory required for data: 3685758336
I0703 00:54:33.884555 12973 layer_factory.hpp:77] Creating layer relu4_1
I0703 00:54:33.884565 12973 net.cpp:100] Creating Layer relu4_1
I0703 00:54:33.884569 12973 net.cpp:434] relu4_1 <- conv4_1
I0703 00:54:33.884579 12973 net.cpp:395] relu4_1 -> conv4_1 (in-place)
I0703 00:54:33.884851 12973 net.cpp:150] Setting up relu4_1
I0703 00:54:33.884860 12973 net.cpp:157] Top shape: 4 512 72 96 (14155776)
I0703 00:54:33.884862 12973 net.cpp:165] Memory required for data: 3742381440
I0703 00:54:33.884866 12973 layer_factory.hpp:77] Creating layer conv4_2
I0703 00:54:33.884876 12973 net.cpp:100] Creating Layer conv4_2
I0703 00:54:33.884881 12973 net.cpp:434] conv4_2 <- conv4_1
I0703 00:54:33.884886 12973 net.cpp:408] conv4_2 -> conv4_2
I0703 00:54:33.891286 12973 net.cpp:150] Setting up conv4_2
I0703 00:54:33.891309 12973 net.cpp:157] Top shape: 4 512 72 96 (14155776)
I0703 00:54:33.891311 12973 net.cpp:165] Memory required for data: 3799004544
I0703 00:54:33.891324 12973 layer_factory.hpp:77] Creating layer relu4_2
I0703 00:54:33.891335 12973 net.cpp:100] Creating Layer relu4_2
I0703 00:54:33.891341 12973 net.cpp:434] relu4_2 <- conv4_2
I0703 00:54:33.891348 12973 net.cpp:395] relu4_2 -> conv4_2 (in-place)
I0703 00:54:33.891618 12973 net.cpp:150] Setting up relu4_2
I0703 00:54:33.891628 12973 net.cpp:157] Top shape: 4 512 72 96 (14155776)
I0703 00:54:33.891629 12973 net.cpp:165] Memory required for data: 3855627648
I0703 00:54:33.891633 12973 layer_factory.hpp:77] Creating layer conv4_3
I0703 00:54:33.891644 12973 net.cpp:100] Creating Layer conv4_3
I0703 00:54:33.891649 12973 net.cpp:434] conv4_3 <- conv4_2
I0703 00:54:33.891655 12973 net.cpp:408] conv4_3 -> conv4_3
I0703 00:54:33.897027 12973 net.cpp:150] Setting up conv4_3
I0703 00:54:33.897052 12973 net.cpp:157] Top shape: 4 512 72 96 (14155776)
I0703 00:54:33.897053 12973 net.cpp:165] Memory required for data: 3912250752
I0703 00:54:33.897063 12973 layer_factory.hpp:77] Creating layer relu4_3
I0703 00:54:33.897073 12973 net.cpp:100] Creating Layer relu4_3
I0703 00:54:33.897078 12973 net.cpp:434] relu4_3 <- conv4_3
I0703 00:54:33.897083 12973 net.cpp:395] relu4_3 -> conv4_3 (in-place)
I0703 00:54:33.897811 12973 net.cpp:150] Setting up relu4_3
I0703 00:54:33.897824 12973 net.cpp:157] Top shape: 4 512 72 96 (14155776)
I0703 00:54:33.897825 12973 net.cpp:165] Memory required for data: 3968873856
I0703 00:54:33.897830 12973 layer_factory.hpp:77] Creating layer conv4_3_relu4_3_0_split
I0703 00:54:33.897837 12973 net.cpp:100] Creating Layer conv4_3_relu4_3_0_split
I0703 00:54:33.897841 12973 net.cpp:434] conv4_3_relu4_3_0_split <- conv4_3
I0703 00:54:33.897848 12973 net.cpp:408] conv4_3_relu4_3_0_split -> conv4_3_relu4_3_0_split_0
I0703 00:54:33.897857 12973 net.cpp:408] conv4_3_relu4_3_0_split -> conv4_3_relu4_3_0_split_1
I0703 00:54:33.897902 12973 net.cpp:150] Setting up conv4_3_relu4_3_0_split
I0703 00:54:33.897907 12973 net.cpp:157] Top shape: 4 512 72 96 (14155776)
I0703 00:54:33.897912 12973 net.cpp:157] Top shape: 4 512 72 96 (14155776)
I0703 00:54:33.897914 12973 net.cpp:165] Memory required for data: 4082120064
I0703 00:54:33.897917 12973 layer_factory.hpp:77] Creating layer loss1_conv1
I0703 00:54:33.897933 12973 net.cpp:100] Creating Layer loss1_conv1
I0703 00:54:33.897938 12973 net.cpp:434] loss1_conv1 <- conv4_3_relu4_3_0_split_0
I0703 00:54:33.897943 12973 net.cpp:408] loss1_conv1 -> loss1_conv1
I0703 00:54:33.931767 12973 net.cpp:150] Setting up loss1_conv1
I0703 00:54:33.931789 12973 net.cpp:157] Top shape: 4 512 72 96 (14155776)
I0703 00:54:33.931792 12973 net.cpp:165] Memory required for data: 4138743168
I0703 00:54:33.931802 12973 layer_factory.hpp:77] Creating layer loss_relu1
I0703 00:54:33.931810 12973 net.cpp:100] Creating Layer loss_relu1
I0703 00:54:33.931818 12973 net.cpp:434] loss_relu1 <- loss1_conv1
I0703 00:54:33.931824 12973 net.cpp:395] loss_relu1 -> loss1_conv1 (in-place)
I0703 00:54:33.932080 12973 net.cpp:150] Setting up loss_relu1
I0703 00:54:33.932092 12973 net.cpp:157] Top shape: 4 512 72 96 (14155776)
I0703 00:54:33.932094 12973 net.cpp:165] Memory required for data: 4195366272
I0703 00:54:33.932098 12973 layer_factory.hpp:77] Creating layer loss1_conv1_loss_relu1_0_split
I0703 00:54:33.932104 12973 net.cpp:100] Creating Layer loss1_conv1_loss_relu1_0_split
I0703 00:54:33.932107 12973 net.cpp:434] loss1_conv1_loss_relu1_0_split <- loss1_conv1
I0703 00:54:33.932111 12973 net.cpp:408] loss1_conv1_loss_relu1_0_split -> loss1_conv1_loss_relu1_0_split_0
I0703 00:54:33.932119 12973 net.cpp:408] loss1_conv1_loss_relu1_0_split -> loss1_conv1_loss_relu1_0_split_1
I0703 00:54:33.932160 12973 net.cpp:150] Setting up loss1_conv1_loss_relu1_0_split
I0703 00:54:33.932165 12973 net.cpp:157] Top shape: 4 512 72 96 (14155776)
I0703 00:54:33.932168 12973 net.cpp:157] Top shape: 4 512 72 96 (14155776)
I0703 00:54:33.932169 12973 net.cpp:165] Memory required for data: 4308612480
I0703 00:54:33.932173 12973 layer_factory.hpp:77] Creating layer LFCN_1_3x5
I0703 00:54:33.932184 12973 net.cpp:100] Creating Layer LFCN_1_3x5
I0703 00:54:33.932188 12973 net.cpp:434] LFCN_1_3x5 <- loss1_conv1_loss_relu1_0_split_0
I0703 00:54:33.932191 12973 net.cpp:408] LFCN_1_3x5 -> LFCN_1_3x5
I0703 00:54:33.934422 12973 net.cpp:150] Setting up LFCN_1_3x5
I0703 00:54:33.934434 12973 net.cpp:157] Top shape: 4 7 72 96 (193536)
I0703 00:54:33.934437 12973 net.cpp:165] Memory required for data: 4309386624
I0703 00:54:33.934442 12973 layer_factory.hpp:77] Creating layer LFCN_1_3x5_LFCN_1_3x5_0_split
I0703 00:54:33.934448 12973 net.cpp:100] Creating Layer LFCN_1_3x5_LFCN_1_3x5_0_split
I0703 00:54:33.934449 12973 net.cpp:434] LFCN_1_3x5_LFCN_1_3x5_0_split <- LFCN_1_3x5
I0703 00:54:33.934455 12973 net.cpp:408] LFCN_1_3x5_LFCN_1_3x5_0_split -> LFCN_1_3x5_LFCN_1_3x5_0_split_0
I0703 00:54:33.934460 12973 net.cpp:408] LFCN_1_3x5_LFCN_1_3x5_0_split -> LFCN_1_3x5_LFCN_1_3x5_0_split_1
I0703 00:54:33.934499 12973 net.cpp:150] Setting up LFCN_1_3x5_LFCN_1_3x5_0_split
I0703 00:54:33.934504 12973 net.cpp:157] Top shape: 4 7 72 96 (193536)
I0703 00:54:33.934506 12973 net.cpp:157] Top shape: 4 7 72 96 (193536)
I0703 00:54:33.934509 12973 net.cpp:165] Memory required for data: 4310934912
I0703 00:54:33.934511 12973 layer_factory.hpp:77] Creating layer detection_loss_1_3x5
I0703 00:54:33.934520 12973 net.cpp:100] Creating Layer detection_loss_1_3x5
I0703 00:54:33.934523 12973 net.cpp:434] detection_loss_1_3x5 <- LFCN_1_3x5_LFCN_1_3x5_0_split_0
I0703 00:54:33.934526 12973 net.cpp:434] detection_loss_1_3x5 <- label_1_3x5_data_1_split_0
I0703 00:54:33.934532 12973 net.cpp:408] detection_loss_1_3x5 -> loss_1_3x5
I0703 00:54:33.934545 12973 layer_factory.hpp:77] Creating layer detection_loss_1_3x5
I0703 00:54:33.934983 12973 net.cpp:150] Setting up detection_loss_1_3x5
I0703 00:54:33.934990 12973 net.cpp:157] Top shape: 1 1 1 2 (2)
I0703 00:54:33.934993 12973 net.cpp:160]     with loss weight 0.9
I0703 00:54:33.935009 12973 net.cpp:165] Memory required for data: 4310934920
I0703 00:54:33.935012 12973 layer_factory.hpp:77] Creating layer detection_accuracy_1_3x5
I0703 00:54:33.935019 12973 net.cpp:100] Creating Layer detection_accuracy_1_3x5
I0703 00:54:33.935024 12973 net.cpp:434] detection_accuracy_1_3x5 <- LFCN_1_3x5_LFCN_1_3x5_0_split_1
I0703 00:54:33.935029 12973 net.cpp:434] detection_accuracy_1_3x5 <- label_1_3x5_data_1_split_1
I0703 00:54:33.935034 12973 net.cpp:408] detection_accuracy_1_3x5 -> accuracy_1_3x5
I0703 00:54:33.935042 12973 net.cpp:408] detection_accuracy_1_3x5 -> boxiou_1_3x5
I0703 00:54:33.935083 12973 net.cpp:150] Setting up detection_accuracy_1_3x5
I0703 00:54:33.935088 12973 net.cpp:157] Top shape: 1 1 1 2 (2)
I0703 00:54:33.935092 12973 net.cpp:157] Top shape: 1 1 1 1 (1)
I0703 00:54:33.935096 12973 net.cpp:165] Memory required for data: 4310934932
I0703 00:54:33.935098 12973 layer_factory.hpp:77] Creating layer LFCN_1_5x7
I0703 00:54:33.935107 12973 net.cpp:100] Creating Layer LFCN_1_5x7
I0703 00:54:33.935111 12973 net.cpp:434] LFCN_1_5x7 <- loss1_conv1_loss_relu1_0_split_1
I0703 00:54:33.935118 12973 net.cpp:408] LFCN_1_5x7 -> LFCN_1_5x7
I0703 00:54:33.937466 12973 net.cpp:150] Setting up LFCN_1_5x7
I0703 00:54:33.937480 12973 net.cpp:157] Top shape: 4 7 72 96 (193536)
I0703 00:54:33.937484 12973 net.cpp:165] Memory required for data: 4311709076
I0703 00:54:33.937491 12973 layer_factory.hpp:77] Creating layer LFCN_1_5x7_LFCN_1_5x7_0_split
I0703 00:54:33.937499 12973 net.cpp:100] Creating Layer LFCN_1_5x7_LFCN_1_5x7_0_split
I0703 00:54:33.937503 12973 net.cpp:434] LFCN_1_5x7_LFCN_1_5x7_0_split <- LFCN_1_5x7
I0703 00:54:33.937510 12973 net.cpp:408] LFCN_1_5x7_LFCN_1_5x7_0_split -> LFCN_1_5x7_LFCN_1_5x7_0_split_0
I0703 00:54:33.937520 12973 net.cpp:408] LFCN_1_5x7_LFCN_1_5x7_0_split -> LFCN_1_5x7_LFCN_1_5x7_0_split_1
I0703 00:54:33.937561 12973 net.cpp:150] Setting up LFCN_1_5x7_LFCN_1_5x7_0_split
I0703 00:54:33.937566 12973 net.cpp:157] Top shape: 4 7 72 96 (193536)
I0703 00:54:33.937569 12973 net.cpp:157] Top shape: 4 7 72 96 (193536)
I0703 00:54:33.937572 12973 net.cpp:165] Memory required for data: 4313257364
I0703 00:54:33.937575 12973 layer_factory.hpp:77] Creating layer detection_loss_1_5x7
I0703 00:54:33.937583 12973 net.cpp:100] Creating Layer detection_loss_1_5x7
I0703 00:54:33.937587 12973 net.cpp:434] detection_loss_1_5x7 <- LFCN_1_5x7_LFCN_1_5x7_0_split_0
I0703 00:54:33.937592 12973 net.cpp:434] detection_loss_1_5x7 <- label_1_5x7_data_2_split_0
I0703 00:54:33.937597 12973 net.cpp:408] detection_loss_1_5x7 -> loss_1_5x7
I0703 00:54:33.937605 12973 layer_factory.hpp:77] Creating layer detection_loss_1_5x7
I0703 00:54:33.938508 12973 net.cpp:150] Setting up detection_loss_1_5x7
I0703 00:54:33.938519 12973 net.cpp:157] Top shape: 1 1 1 2 (2)
I0703 00:54:33.938522 12973 net.cpp:160]     with loss weight 0.9
I0703 00:54:33.938532 12973 net.cpp:165] Memory required for data: 4313257372
I0703 00:54:33.938536 12973 layer_factory.hpp:77] Creating layer detection_accuracy_1_5x7
I0703 00:54:33.938544 12973 net.cpp:100] Creating Layer detection_accuracy_1_5x7
I0703 00:54:33.938549 12973 net.cpp:434] detection_accuracy_1_5x7 <- LFCN_1_5x7_LFCN_1_5x7_0_split_1
I0703 00:54:33.938555 12973 net.cpp:434] detection_accuracy_1_5x7 <- label_1_5x7_data_2_split_1
I0703 00:54:33.938562 12973 net.cpp:408] detection_accuracy_1_5x7 -> accuracy_1_5x7
I0703 00:54:33.938571 12973 net.cpp:408] detection_accuracy_1_5x7 -> boxiou_1_5x7
I0703 00:54:33.938613 12973 net.cpp:150] Setting up detection_accuracy_1_5x7
I0703 00:54:33.938624 12973 net.cpp:157] Top shape: 1 1 1 2 (2)
I0703 00:54:33.938628 12973 net.cpp:157] Top shape: 1 1 1 1 (1)
I0703 00:54:33.938630 12973 net.cpp:165] Memory required for data: 4313257384
I0703 00:54:33.938633 12973 layer_factory.hpp:77] Creating layer pool4
I0703 00:54:33.938640 12973 net.cpp:100] Creating Layer pool4
I0703 00:54:33.938644 12973 net.cpp:434] pool4 <- conv4_3_relu4_3_0_split_1
I0703 00:54:33.938652 12973 net.cpp:408] pool4 -> pool4
I0703 00:54:33.938688 12973 net.cpp:150] Setting up pool4
I0703 00:54:33.938694 12973 net.cpp:157] Top shape: 4 512 36 48 (3538944)
I0703 00:54:33.938695 12973 net.cpp:165] Memory required for data: 4327413160
I0703 00:54:33.938697 12973 layer_factory.hpp:77] Creating layer conv5_1
I0703 00:54:33.938702 12973 net.cpp:100] Creating Layer conv5_1
I0703 00:54:33.938704 12973 net.cpp:434] conv5_1 <- pool4
I0703 00:54:33.938709 12973 net.cpp:408] conv5_1 -> conv5_1
I0703 00:54:33.944538 12973 net.cpp:150] Setting up conv5_1
I0703 00:54:33.944563 12973 net.cpp:157] Top shape: 4 512 36 48 (3538944)
I0703 00:54:33.944566 12973 net.cpp:165] Memory required for data: 4341568936
I0703 00:54:33.944574 12973 layer_factory.hpp:77] Creating layer relu5_1
I0703 00:54:33.944586 12973 net.cpp:100] Creating Layer relu5_1
I0703 00:54:33.944591 12973 net.cpp:434] relu5_1 <- conv5_1
I0703 00:54:33.944597 12973 net.cpp:395] relu5_1 -> conv5_1 (in-place)
I0703 00:54:33.945390 12973 net.cpp:150] Setting up relu5_1
I0703 00:54:33.945401 12973 net.cpp:157] Top shape: 4 512 36 48 (3538944)
I0703 00:54:33.945403 12973 net.cpp:165] Memory required for data: 4355724712
I0703 00:54:33.945406 12973 layer_factory.hpp:77] Creating layer conv5_2
I0703 00:54:33.945415 12973 net.cpp:100] Creating Layer conv5_2
I0703 00:54:33.945416 12973 net.cpp:434] conv5_2 <- conv5_1
I0703 00:54:33.945420 12973 net.cpp:408] conv5_2 -> conv5_2
I0703 00:54:33.950956 12973 net.cpp:150] Setting up conv5_2
I0703 00:54:33.950975 12973 net.cpp:157] Top shape: 4 512 36 48 (3538944)
I0703 00:54:33.950978 12973 net.cpp:165] Memory required for data: 4369880488
I0703 00:54:33.950984 12973 layer_factory.hpp:77] Creating layer relu5_2
I0703 00:54:33.950989 12973 net.cpp:100] Creating Layer relu5_2
I0703 00:54:33.950994 12973 net.cpp:434] relu5_2 <- conv5_2
I0703 00:54:33.950999 12973 net.cpp:395] relu5_2 -> conv5_2 (in-place)
I0703 00:54:33.951320 12973 net.cpp:150] Setting up relu5_2
I0703 00:54:33.951329 12973 net.cpp:157] Top shape: 4 512 36 48 (3538944)
I0703 00:54:33.951331 12973 net.cpp:165] Memory required for data: 4384036264
I0703 00:54:33.951335 12973 layer_factory.hpp:77] Creating layer conv5_3
I0703 00:54:33.951345 12973 net.cpp:100] Creating Layer conv5_3
I0703 00:54:33.951349 12973 net.cpp:434] conv5_3 <- conv5_2
I0703 00:54:33.951354 12973 net.cpp:408] conv5_3 -> conv5_3
I0703 00:54:33.957312 12973 net.cpp:150] Setting up conv5_3
I0703 00:54:33.957330 12973 net.cpp:157] Top shape: 4 512 36 48 (3538944)
I0703 00:54:33.957334 12973 net.cpp:165] Memory required for data: 4398192040
I0703 00:54:33.957340 12973 layer_factory.hpp:77] Creating layer relu5_3
I0703 00:54:33.957345 12973 net.cpp:100] Creating Layer relu5_3
I0703 00:54:33.957348 12973 net.cpp:434] relu5_3 <- conv5_3
I0703 00:54:33.957355 12973 net.cpp:395] relu5_3 -> conv5_3 (in-place)
I0703 00:54:33.957684 12973 net.cpp:150] Setting up relu5_3
I0703 00:54:33.957693 12973 net.cpp:157] Top shape: 4 512 36 48 (3538944)
I0703 00:54:33.957696 12973 net.cpp:165] Memory required for data: 4412347816
I0703 00:54:33.957700 12973 layer_factory.hpp:77] Creating layer conv5_3_relu5_3_0_split
I0703 00:54:33.957706 12973 net.cpp:100] Creating Layer conv5_3_relu5_3_0_split
I0703 00:54:33.957708 12973 net.cpp:434] conv5_3_relu5_3_0_split <- conv5_3
I0703 00:54:33.957713 12973 net.cpp:408] conv5_3_relu5_3_0_split -> conv5_3_relu5_3_0_split_0
I0703 00:54:33.957718 12973 net.cpp:408] conv5_3_relu5_3_0_split -> conv5_3_relu5_3_0_split_1
I0703 00:54:33.957725 12973 net.cpp:408] conv5_3_relu5_3_0_split -> conv5_3_relu5_3_0_split_2
I0703 00:54:33.957798 12973 net.cpp:150] Setting up conv5_3_relu5_3_0_split
I0703 00:54:33.957804 12973 net.cpp:157] Top shape: 4 512 36 48 (3538944)
I0703 00:54:33.957808 12973 net.cpp:157] Top shape: 4 512 36 48 (3538944)
I0703 00:54:33.957810 12973 net.cpp:157] Top shape: 4 512 36 48 (3538944)
I0703 00:54:33.957813 12973 net.cpp:165] Memory required for data: 4454815144
I0703 00:54:33.957815 12973 layer_factory.hpp:77] Creating layer LFCN_2_3x5
I0703 00:54:33.957826 12973 net.cpp:100] Creating Layer LFCN_2_3x5
I0703 00:54:33.957830 12973 net.cpp:434] LFCN_2_3x5 <- conv5_3_relu5_3_0_split_0
I0703 00:54:33.957836 12973 net.cpp:408] LFCN_2_3x5 -> LFCN_2_3x5
I0703 00:54:33.959633 12973 net.cpp:150] Setting up LFCN_2_3x5
I0703 00:54:33.959646 12973 net.cpp:157] Top shape: 4 7 36 48 (48384)
I0703 00:54:33.959650 12973 net.cpp:165] Memory required for data: 4455008680
I0703 00:54:33.959662 12973 layer_factory.hpp:77] Creating layer LFCN_2_3x5_LFCN_2_3x5_0_split
I0703 00:54:33.959669 12973 net.cpp:100] Creating Layer LFCN_2_3x5_LFCN_2_3x5_0_split
I0703 00:54:33.959673 12973 net.cpp:434] LFCN_2_3x5_LFCN_2_3x5_0_split <- LFCN_2_3x5
I0703 00:54:33.959678 12973 net.cpp:408] LFCN_2_3x5_LFCN_2_3x5_0_split -> LFCN_2_3x5_LFCN_2_3x5_0_split_0
I0703 00:54:33.959687 12973 net.cpp:408] LFCN_2_3x5_LFCN_2_3x5_0_split -> LFCN_2_3x5_LFCN_2_3x5_0_split_1
I0703 00:54:33.959725 12973 net.cpp:150] Setting up LFCN_2_3x5_LFCN_2_3x5_0_split
I0703 00:54:33.959730 12973 net.cpp:157] Top shape: 4 7 36 48 (48384)
I0703 00:54:33.959733 12973 net.cpp:157] Top shape: 4 7 36 48 (48384)
I0703 00:54:33.959735 12973 net.cpp:165] Memory required for data: 4455395752
I0703 00:54:33.959738 12973 layer_factory.hpp:77] Creating layer detection_loss_2_3x5
I0703 00:54:33.959745 12973 net.cpp:100] Creating Layer detection_loss_2_3x5
I0703 00:54:33.959749 12973 net.cpp:434] detection_loss_2_3x5 <- LFCN_2_3x5_LFCN_2_3x5_0_split_0
I0703 00:54:33.959753 12973 net.cpp:434] detection_loss_2_3x5 <- label_2_3x5_data_3_split_0
I0703 00:54:33.959759 12973 net.cpp:408] detection_loss_2_3x5 -> loss_2_3x5
I0703 00:54:33.959767 12973 layer_factory.hpp:77] Creating layer detection_loss_2_3x5
I0703 00:54:33.960630 12973 net.cpp:150] Setting up detection_loss_2_3x5
I0703 00:54:33.960639 12973 net.cpp:157] Top shape: 1 1 1 2 (2)
I0703 00:54:33.960641 12973 net.cpp:160]     with loss weight 1
I0703 00:54:33.960649 12973 net.cpp:165] Memory required for data: 4455395760
I0703 00:54:33.960650 12973 layer_factory.hpp:77] Creating layer detection_accuracy_2_3x5
I0703 00:54:33.960656 12973 net.cpp:100] Creating Layer detection_accuracy_2_3x5
I0703 00:54:33.960659 12973 net.cpp:434] detection_accuracy_2_3x5 <- LFCN_2_3x5_LFCN_2_3x5_0_split_1
I0703 00:54:33.960664 12973 net.cpp:434] detection_accuracy_2_3x5 <- label_2_3x5_data_3_split_1
I0703 00:54:33.960669 12973 net.cpp:408] detection_accuracy_2_3x5 -> accuracy_2_3x5
I0703 00:54:33.960674 12973 net.cpp:408] detection_accuracy_2_3x5 -> boxiou_2_3x5
I0703 00:54:33.960721 12973 net.cpp:150] Setting up detection_accuracy_2_3x5
I0703 00:54:33.960726 12973 net.cpp:157] Top shape: 1 1 1 2 (2)
I0703 00:54:33.960729 12973 net.cpp:157] Top shape: 1 1 1 1 (1)
I0703 00:54:33.960731 12973 net.cpp:165] Memory required for data: 4455395772
I0703 00:54:33.960734 12973 layer_factory.hpp:77] Creating layer LFCN_2_5x7
I0703 00:54:33.960743 12973 net.cpp:100] Creating Layer LFCN_2_5x7
I0703 00:54:33.960747 12973 net.cpp:434] LFCN_2_5x7 <- conv5_3_relu5_3_0_split_1
I0703 00:54:33.960754 12973 net.cpp:408] LFCN_2_5x7 -> LFCN_2_5x7
I0703 00:54:33.963984 12973 net.cpp:150] Setting up LFCN_2_5x7
I0703 00:54:33.964002 12973 net.cpp:157] Top shape: 4 7 36 48 (48384)
I0703 00:54:33.964004 12973 net.cpp:165] Memory required for data: 4455589308
I0703 00:54:33.964010 12973 layer_factory.hpp:77] Creating layer LFCN_2_5x7_LFCN_2_5x7_0_split
I0703 00:54:33.964017 12973 net.cpp:100] Creating Layer LFCN_2_5x7_LFCN_2_5x7_0_split
I0703 00:54:33.964021 12973 net.cpp:434] LFCN_2_5x7_LFCN_2_5x7_0_split <- LFCN_2_5x7
I0703 00:54:33.964027 12973 net.cpp:408] LFCN_2_5x7_LFCN_2_5x7_0_split -> LFCN_2_5x7_LFCN_2_5x7_0_split_0
I0703 00:54:33.964033 12973 net.cpp:408] LFCN_2_5x7_LFCN_2_5x7_0_split -> LFCN_2_5x7_LFCN_2_5x7_0_split_1
I0703 00:54:33.964072 12973 net.cpp:150] Setting up LFCN_2_5x7_LFCN_2_5x7_0_split
I0703 00:54:33.964079 12973 net.cpp:157] Top shape: 4 7 36 48 (48384)
I0703 00:54:33.964083 12973 net.cpp:157] Top shape: 4 7 36 48 (48384)
I0703 00:54:33.964087 12973 net.cpp:165] Memory required for data: 4455976380
I0703 00:54:33.964090 12973 layer_factory.hpp:77] Creating layer detection_loss_2_5x7
I0703 00:54:33.964097 12973 net.cpp:100] Creating Layer detection_loss_2_5x7
I0703 00:54:33.964102 12973 net.cpp:434] detection_loss_2_5x7 <- LFCN_2_5x7_LFCN_2_5x7_0_split_0
I0703 00:54:33.964105 12973 net.cpp:434] detection_loss_2_5x7 <- label_2_5x7_data_4_split_0
I0703 00:54:33.964112 12973 net.cpp:408] detection_loss_2_5x7 -> loss_2_5x7
I0703 00:54:33.964121 12973 layer_factory.hpp:77] Creating layer detection_loss_2_5x7
I0703 00:54:33.964527 12973 net.cpp:150] Setting up detection_loss_2_5x7
I0703 00:54:33.964534 12973 net.cpp:157] Top shape: 1 1 1 2 (2)
I0703 00:54:33.964536 12973 net.cpp:160]     with loss weight 1
I0703 00:54:33.964545 12973 net.cpp:165] Memory required for data: 4455976388
I0703 00:54:33.964547 12973 layer_factory.hpp:77] Creating layer detection_accuracy_2_5x7
I0703 00:54:33.964555 12973 net.cpp:100] Creating Layer detection_accuracy_2_5x7
I0703 00:54:33.964557 12973 net.cpp:434] detection_accuracy_2_5x7 <- LFCN_2_5x7_LFCN_2_5x7_0_split_1
I0703 00:54:33.964562 12973 net.cpp:434] detection_accuracy_2_5x7 <- label_2_5x7_data_4_split_1
I0703 00:54:33.964571 12973 net.cpp:408] detection_accuracy_2_5x7 -> accuracy_2_5x7
I0703 00:54:33.964577 12973 net.cpp:408] detection_accuracy_2_5x7 -> boxiou_2_5x7
I0703 00:54:33.964612 12973 net.cpp:150] Setting up detection_accuracy_2_5x7
I0703 00:54:33.964617 12973 net.cpp:157] Top shape: 1 1 1 2 (2)
I0703 00:54:33.964619 12973 net.cpp:157] Top shape: 1 1 1 1 (1)
I0703 00:54:33.964622 12973 net.cpp:165] Memory required for data: 4455976400
I0703 00:54:33.964623 12973 layer_factory.hpp:77] Creating layer pool5
I0703 00:54:33.964632 12973 net.cpp:100] Creating Layer pool5
I0703 00:54:33.964635 12973 net.cpp:434] pool5 <- conv5_3_relu5_3_0_split_2
I0703 00:54:33.964642 12973 net.cpp:408] pool5 -> pool5
I0703 00:54:33.964682 12973 net.cpp:150] Setting up pool5
I0703 00:54:33.964687 12973 net.cpp:157] Top shape: 4 512 18 24 (884736)
I0703 00:54:33.964689 12973 net.cpp:165] Memory required for data: 4459515344
I0703 00:54:33.964692 12973 layer_factory.hpp:77] Creating layer conv6_1
I0703 00:54:33.964704 12973 net.cpp:100] Creating Layer conv6_1
I0703 00:54:33.964707 12973 net.cpp:434] conv6_1 <- pool5
I0703 00:54:33.964713 12973 net.cpp:408] conv6_1 -> conv6_1
I0703 00:54:33.985374 12973 net.cpp:150] Setting up conv6_1
I0703 00:54:33.985394 12973 net.cpp:157] Top shape: 4 512 18 24 (884736)
I0703 00:54:33.985396 12973 net.cpp:165] Memory required for data: 4463054288
I0703 00:54:33.985402 12973 layer_factory.hpp:77] Creating layer relu6_1
I0703 00:54:33.985409 12973 net.cpp:100] Creating Layer relu6_1
I0703 00:54:33.985412 12973 net.cpp:434] relu6_1 <- conv6_1
I0703 00:54:33.985417 12973 net.cpp:395] relu6_1 -> conv6_1 (in-place)
I0703 00:54:33.985672 12973 net.cpp:150] Setting up relu6_1
I0703 00:54:33.985682 12973 net.cpp:157] Top shape: 4 512 18 24 (884736)
I0703 00:54:33.985684 12973 net.cpp:165] Memory required for data: 4466593232
I0703 00:54:33.985687 12973 layer_factory.hpp:77] Creating layer conv6_1_relu6_1_0_split
I0703 00:54:33.985692 12973 net.cpp:100] Creating Layer conv6_1_relu6_1_0_split
I0703 00:54:33.985695 12973 net.cpp:434] conv6_1_relu6_1_0_split <- conv6_1
I0703 00:54:33.985702 12973 net.cpp:408] conv6_1_relu6_1_0_split -> conv6_1_relu6_1_0_split_0
I0703 00:54:33.985709 12973 net.cpp:408] conv6_1_relu6_1_0_split -> conv6_1_relu6_1_0_split_1
I0703 00:54:33.985716 12973 net.cpp:408] conv6_1_relu6_1_0_split -> conv6_1_relu6_1_0_split_2
I0703 00:54:33.985786 12973 net.cpp:150] Setting up conv6_1_relu6_1_0_split
I0703 00:54:33.985793 12973 net.cpp:157] Top shape: 4 512 18 24 (884736)
I0703 00:54:33.985797 12973 net.cpp:157] Top shape: 4 512 18 24 (884736)
I0703 00:54:33.985801 12973 net.cpp:157] Top shape: 4 512 18 24 (884736)
I0703 00:54:33.985803 12973 net.cpp:165] Memory required for data: 4477210064
I0703 00:54:33.985807 12973 layer_factory.hpp:77] Creating layer LFCN_3_3x5
I0703 00:54:33.985817 12973 net.cpp:100] Creating Layer LFCN_3_3x5
I0703 00:54:33.985821 12973 net.cpp:434] LFCN_3_3x5 <- conv6_1_relu6_1_0_split_0
I0703 00:54:33.985828 12973 net.cpp:408] LFCN_3_3x5 -> LFCN_3_3x5
I0703 00:54:33.988760 12973 net.cpp:150] Setting up LFCN_3_3x5
I0703 00:54:33.988778 12973 net.cpp:157] Top shape: 4 7 18 24 (12096)
I0703 00:54:33.988781 12973 net.cpp:165] Memory required for data: 4477258448
I0703 00:54:33.988787 12973 layer_factory.hpp:77] Creating layer LFCN_3_3x5_LFCN_3_3x5_0_split
I0703 00:54:33.988802 12973 net.cpp:100] Creating Layer LFCN_3_3x5_LFCN_3_3x5_0_split
I0703 00:54:33.988806 12973 net.cpp:434] LFCN_3_3x5_LFCN_3_3x5_0_split <- LFCN_3_3x5
I0703 00:54:33.988811 12973 net.cpp:408] LFCN_3_3x5_LFCN_3_3x5_0_split -> LFCN_3_3x5_LFCN_3_3x5_0_split_0
I0703 00:54:33.988817 12973 net.cpp:408] LFCN_3_3x5_LFCN_3_3x5_0_split -> LFCN_3_3x5_LFCN_3_3x5_0_split_1
I0703 00:54:33.988863 12973 net.cpp:150] Setting up LFCN_3_3x5_LFCN_3_3x5_0_split
I0703 00:54:33.988869 12973 net.cpp:157] Top shape: 4 7 18 24 (12096)
I0703 00:54:33.988873 12973 net.cpp:157] Top shape: 4 7 18 24 (12096)
I0703 00:54:33.988876 12973 net.cpp:165] Memory required for data: 4477355216
I0703 00:54:33.988880 12973 layer_factory.hpp:77] Creating layer detection_loss_3_3x5
I0703 00:54:33.988888 12973 net.cpp:100] Creating Layer detection_loss_3_3x5
I0703 00:54:33.988891 12973 net.cpp:434] detection_loss_3_3x5 <- LFCN_3_3x5_LFCN_3_3x5_0_split_0
I0703 00:54:33.988896 12973 net.cpp:434] detection_loss_3_3x5 <- label_3_3x5_data_5_split_0
I0703 00:54:33.988904 12973 net.cpp:408] detection_loss_3_3x5 -> loss_3_3x5
I0703 00:54:33.988912 12973 layer_factory.hpp:77] Creating layer detection_loss_3_3x5
I0703 00:54:33.990049 12973 net.cpp:150] Setting up detection_loss_3_3x5
I0703 00:54:33.990061 12973 net.cpp:157] Top shape: 1 1 1 2 (2)
I0703 00:54:33.990062 12973 net.cpp:160]     with loss weight 1
I0703 00:54:33.990068 12973 net.cpp:165] Memory required for data: 4477355224
I0703 00:54:33.990072 12973 layer_factory.hpp:77] Creating layer detection_accuracy_3_3x5
I0703 00:54:33.990078 12973 net.cpp:100] Creating Layer detection_accuracy_3_3x5
I0703 00:54:33.990082 12973 net.cpp:434] detection_accuracy_3_3x5 <- LFCN_3_3x5_LFCN_3_3x5_0_split_1
I0703 00:54:33.990085 12973 net.cpp:434] detection_accuracy_3_3x5 <- label_3_3x5_data_5_split_1
I0703 00:54:33.990089 12973 net.cpp:408] detection_accuracy_3_3x5 -> accuracy_3_3x5
I0703 00:54:33.990095 12973 net.cpp:408] detection_accuracy_3_3x5 -> boxiou_3_3x5
I0703 00:54:33.990137 12973 net.cpp:150] Setting up detection_accuracy_3_3x5
I0703 00:54:33.990141 12973 net.cpp:157] Top shape: 1 1 1 2 (2)
I0703 00:54:33.990144 12973 net.cpp:157] Top shape: 1 1 1 1 (1)
I0703 00:54:33.990145 12973 net.cpp:165] Memory required for data: 4477355236
I0703 00:54:33.990149 12973 layer_factory.hpp:77] Creating layer LFCN_3_5x7
I0703 00:54:33.990159 12973 net.cpp:100] Creating Layer LFCN_3_5x7
I0703 00:54:33.990161 12973 net.cpp:434] LFCN_3_5x7 <- conv6_1_relu6_1_0_split_1
I0703 00:54:33.990170 12973 net.cpp:408] LFCN_3_5x7 -> LFCN_3_5x7
I0703 00:54:33.992521 12973 net.cpp:150] Setting up LFCN_3_5x7
I0703 00:54:33.992533 12973 net.cpp:157] Top shape: 4 7 18 24 (12096)
I0703 00:54:33.992535 12973 net.cpp:165] Memory required for data: 4477403620
I0703 00:54:33.992542 12973 layer_factory.hpp:77] Creating layer LFCN_3_5x7_LFCN_3_5x7_0_split
I0703 00:54:33.992547 12973 net.cpp:100] Creating Layer LFCN_3_5x7_LFCN_3_5x7_0_split
I0703 00:54:33.992550 12973 net.cpp:434] LFCN_3_5x7_LFCN_3_5x7_0_split <- LFCN_3_5x7
I0703 00:54:33.992554 12973 net.cpp:408] LFCN_3_5x7_LFCN_3_5x7_0_split -> LFCN_3_5x7_LFCN_3_5x7_0_split_0
I0703 00:54:33.992561 12973 net.cpp:408] LFCN_3_5x7_LFCN_3_5x7_0_split -> LFCN_3_5x7_LFCN_3_5x7_0_split_1
I0703 00:54:33.992600 12973 net.cpp:150] Setting up LFCN_3_5x7_LFCN_3_5x7_0_split
I0703 00:54:33.992605 12973 net.cpp:157] Top shape: 4 7 18 24 (12096)
I0703 00:54:33.992607 12973 net.cpp:157] Top shape: 4 7 18 24 (12096)
I0703 00:54:33.992610 12973 net.cpp:165] Memory required for data: 4477500388
I0703 00:54:33.992612 12973 layer_factory.hpp:77] Creating layer detection_loss_3_5x7
I0703 00:54:33.992620 12973 net.cpp:100] Creating Layer detection_loss_3_5x7
I0703 00:54:33.992624 12973 net.cpp:434] detection_loss_3_5x7 <- LFCN_3_5x7_LFCN_3_5x7_0_split_0
I0703 00:54:33.992627 12973 net.cpp:434] detection_loss_3_5x7 <- label_3_5x7_data_6_split_0
I0703 00:54:33.992635 12973 net.cpp:408] detection_loss_3_5x7 -> loss_3_5x7
I0703 00:54:33.992645 12973 layer_factory.hpp:77] Creating layer detection_loss_3_5x7
I0703 00:54:33.993052 12973 net.cpp:150] Setting up detection_loss_3_5x7
I0703 00:54:33.993057 12973 net.cpp:157] Top shape: 1 1 1 2 (2)
I0703 00:54:33.993059 12973 net.cpp:160]     with loss weight 1
I0703 00:54:33.993067 12973 net.cpp:165] Memory required for data: 4477500396
I0703 00:54:33.993070 12973 layer_factory.hpp:77] Creating layer detection_accuracy_3_5x7
I0703 00:54:33.993077 12973 net.cpp:100] Creating Layer detection_accuracy_3_5x7
I0703 00:54:33.993080 12973 net.cpp:434] detection_accuracy_3_5x7 <- LFCN_3_5x7_LFCN_3_5x7_0_split_1
I0703 00:54:33.993088 12973 net.cpp:434] detection_accuracy_3_5x7 <- label_3_5x7_data_6_split_1
I0703 00:54:33.993094 12973 net.cpp:408] detection_accuracy_3_5x7 -> accuracy_3_5x7
I0703 00:54:33.993101 12973 net.cpp:408] detection_accuracy_3_5x7 -> boxiou_3_5x7
I0703 00:54:33.993139 12973 net.cpp:150] Setting up detection_accuracy_3_5x7
I0703 00:54:33.993142 12973 net.cpp:157] Top shape: 1 1 1 2 (2)
I0703 00:54:33.993145 12973 net.cpp:157] Top shape: 1 1 1 1 (1)
I0703 00:54:33.993146 12973 net.cpp:165] Memory required for data: 4477500408
I0703 00:54:33.993149 12973 layer_factory.hpp:77] Creating layer pool6
I0703 00:54:33.993156 12973 net.cpp:100] Creating Layer pool6
I0703 00:54:33.993161 12973 net.cpp:434] pool6 <- conv6_1_relu6_1_0_split_2
I0703 00:54:33.993170 12973 net.cpp:408] pool6 -> pool6
I0703 00:54:33.993211 12973 net.cpp:150] Setting up pool6
I0703 00:54:33.993216 12973 net.cpp:157] Top shape: 4 512 9 12 (221184)
I0703 00:54:33.993217 12973 net.cpp:165] Memory required for data: 4478385144
I0703 00:54:33.993221 12973 layer_factory.hpp:77] Creating layer LFCN_4_3x5
I0703 00:54:33.993237 12973 net.cpp:100] Creating Layer LFCN_4_3x5
I0703 00:54:33.993240 12973 net.cpp:434] LFCN_4_3x5 <- pool6
I0703 00:54:33.993248 12973 net.cpp:408] LFCN_4_3x5 -> LFCN_4_3x5
I0703 00:54:33.995522 12973 net.cpp:150] Setting up LFCN_4_3x5
I0703 00:54:33.995533 12973 net.cpp:157] Top shape: 4 7 9 12 (3024)
I0703 00:54:33.995535 12973 net.cpp:165] Memory required for data: 4478397240
I0703 00:54:33.995542 12973 layer_factory.hpp:77] Creating layer LFCN_4_3x5_LFCN_4_3x5_0_split
I0703 00:54:33.995546 12973 net.cpp:100] Creating Layer LFCN_4_3x5_LFCN_4_3x5_0_split
I0703 00:54:33.995549 12973 net.cpp:434] LFCN_4_3x5_LFCN_4_3x5_0_split <- LFCN_4_3x5
I0703 00:54:33.995554 12973 net.cpp:408] LFCN_4_3x5_LFCN_4_3x5_0_split -> LFCN_4_3x5_LFCN_4_3x5_0_split_0
I0703 00:54:33.995559 12973 net.cpp:408] LFCN_4_3x5_LFCN_4_3x5_0_split -> LFCN_4_3x5_LFCN_4_3x5_0_split_1
I0703 00:54:33.995604 12973 net.cpp:150] Setting up LFCN_4_3x5_LFCN_4_3x5_0_split
I0703 00:54:33.995609 12973 net.cpp:157] Top shape: 4 7 9 12 (3024)
I0703 00:54:33.995610 12973 net.cpp:157] Top shape: 4 7 9 12 (3024)
I0703 00:54:33.995612 12973 net.cpp:165] Memory required for data: 4478421432
I0703 00:54:33.995615 12973 layer_factory.hpp:77] Creating layer detection_loss_4_3x5
I0703 00:54:33.995622 12973 net.cpp:100] Creating Layer detection_loss_4_3x5
I0703 00:54:33.995626 12973 net.cpp:434] detection_loss_4_3x5 <- LFCN_4_3x5_LFCN_4_3x5_0_split_0
I0703 00:54:33.995630 12973 net.cpp:434] detection_loss_4_3x5 <- label_4_3x5_data_7_split_0
I0703 00:54:33.995636 12973 net.cpp:408] detection_loss_4_3x5 -> loss_4_3x5
I0703 00:54:33.995645 12973 layer_factory.hpp:77] Creating layer detection_loss_4_3x5
I0703 00:54:33.996068 12973 net.cpp:150] Setting up detection_loss_4_3x5
I0703 00:54:33.996075 12973 net.cpp:157] Top shape: 1 1 1 2 (2)
I0703 00:54:33.996078 12973 net.cpp:160]     with loss weight 1
I0703 00:54:33.996085 12973 net.cpp:165] Memory required for data: 4478421440
I0703 00:54:33.996088 12973 layer_factory.hpp:77] Creating layer detection_accuracy_4_3x5
I0703 00:54:33.996094 12973 net.cpp:100] Creating Layer detection_accuracy_4_3x5
I0703 00:54:33.996098 12973 net.cpp:434] detection_accuracy_4_3x5 <- LFCN_4_3x5_LFCN_4_3x5_0_split_1
I0703 00:54:33.996104 12973 net.cpp:434] detection_accuracy_4_3x5 <- label_4_3x5_data_7_split_1
I0703 00:54:33.996110 12973 net.cpp:408] detection_accuracy_4_3x5 -> accuracy_4_3x5
I0703 00:54:33.996117 12973 net.cpp:408] detection_accuracy_4_3x5 -> boxiou_4_3x5
I0703 00:54:33.996166 12973 net.cpp:150] Setting up detection_accuracy_4_3x5
I0703 00:54:33.996173 12973 net.cpp:157] Top shape: 1 1 1 2 (2)
I0703 00:54:33.996176 12973 net.cpp:157] Top shape: 1 1 1 1 (1)
I0703 00:54:33.996179 12973 net.cpp:165] Memory required for data: 4478421452
I0703 00:54:33.996182 12973 net.cpp:228] detection_accuracy_4_3x5 does not need backward computation.
I0703 00:54:33.996186 12973 net.cpp:226] detection_loss_4_3x5 needs backward computation.
I0703 00:54:33.996191 12973 net.cpp:226] LFCN_4_3x5_LFCN_4_3x5_0_split needs backward computation.
I0703 00:54:33.996194 12973 net.cpp:226] LFCN_4_3x5 needs backward computation.
…
I0703 00:54:34.007263 12973 image_gt_data_layer.cpp:241] output label size 2 : 2,6,36,48
I0703 00:54:34.007316 12973 image_gt_data_layer.cpp:241] output label size 3 : 2,6,36,48
I0703 00:54:34.007365 12973 image_gt_data_layer.cpp:241] output label size 4 : 2,6,18,24
I0703 00:54:34.007413 12973 image_gt_data_layer.cpp:241] output label size 5 : 2,6,18,24
I0703 00:54:34.007460 12973 image_gt_data_layer.cpp:241] output label size 6 : 2,6,9,12
I0703 00:54:34.007463 12973 image_gt_data_layer.cpp:265]  --> has_mean_values_ = 1
I0703 00:54:34.026548 12973 net.cpp:150] Setting up data
I0703 00:54:34.026566 12973 net.cpp:157] Top shape: 2 4 576 768 (3538944)
I0703 00:54:34.026568 12973 net.cpp:157] Top shape: 2 6 72 96 (82944)
I0703 00:54:34.026571 12973 net.cpp:157] Top shape: 2 6 72 96 (82944)
I0703 00:54:34.026574 12973 net.cpp:157] Top shape: 2 6 36 48 (20736)
I0703 00:54:34.026576 12973 net.cpp:157] Top shape: 2 6 36 48 (20736)
I0703 00:54:34.026579 12973 net.cpp:157] Top shape: 2 6 18 24 (5184)
I0703 00:54:34.026582 12973 net.cpp:157] Top shape: 2 6 18 24 (5184)
I0703 00:54:34.026584 12973 net.cpp:157] Top shape: 2 6 9 12 (1296)
I0703 00:54:34.026585 12973 net.cpp:165] Memory required for data: 15031872
I0703 00:54:34.026590 12973 layer_factory.hpp:77] Creating layer label_1_3x5_data_1_split
I0703 00:54:34.026603 12973 net.cpp:100] Creating Layer label_1_3x5_data_1_split
I0703 00:54:34.026607 12973 net.cpp:434] label_1_3x5_data_1_split <- label_1_3x5
I0703 00:54:34.026615 12973 net.cpp:408] label_1_3x5_data_1_split -> label_1_3x5_data_1_split_0
I0703 00:54:34.026631 12973 net.cpp:408] label_1_3x5_data_1_split -> label_1_3x5_data_1_split_1
I0703 00:54:34.026710 12973 net.cpp:150] Setting up label_1_3x5_data_1_split
I0703 00:54:34.026716 12973 net.cpp:157] Top shape: 2 6 72 96 (82944)
I0703 00:54:34.026721 12973 net.cpp:157] Top shape: 2 6 72 96 (82944)
I0703 00:54:34.026723 12973 net.cpp:165] Memory required for data: 15695424
I0703 00:54:34.026726 12973 layer_factory.hpp:77] Creating layer label_1_5x7_data_2_split
I0703 00:54:34.026736 12973 net.cpp:100] Creating Layer label_1_5x7_data_2_split
I0703 00:54:34.026741 12973 net.cpp:434] label_1_5x7_data_2_split <- label_1_5x7
I0703 00:54:34.026747 12973 net.cpp:408] label_1_5x7_data_2_split -> label_1_5x7_data_2_split_0
I0703 00:54:34.026753 12973 net.cpp:408] label_1_5x7_data_2_split -> label_1_5x7_data_2_split_1
I0703 00:54:34.026808 12973 net.cpp:150] Setting up label_1_5x7_data_2_split
I0703 00:54:34.026814 12973 net.cpp:157] Top shape: 2 6 72 96 (82944)
I0703 00:54:34.026818 12973 net.cpp:157] Top shape: 2 6 72 96 (82944)
I0703 00:54:34.026820 12973 net.cpp:165] Memory required for data: 16358976
I0703 00:54:34.026823 12973 layer_factory.hpp:77] Creating layer label_2_3x5_data_3_split
I0703 00:54:34.026829 12973 net.cpp:100] Creating Layer label_2_3x5_data_3_split
I0703 00:54:34.026832 12973 net.cpp:434] label_2_3x5_data_3_split <- label_2_3x5
I0703 00:54:34.026837 12973 net.cpp:408] label_2_3x5_data_3_split -> label_2_3x5_data_3_split_0
I0703 00:54:34.026845 12973 net.cpp:408] label_2_3x5_data_3_split -> label_2_3x5_data_3_split_1
I0703 00:54:34.026890 12973 net.cpp:150] Setting up label_2_3x5_data_3_split
I0703 00:54:34.026895 12973 net.cpp:157] Top shape: 2 6 36 48 (20736)
I0703 00:54:34.026898 12973 net.cpp:157] Top shape: 2 6 36 48 (20736)
I0703 00:54:34.026901 12973 net.cpp:165] Memory required for data: 16524864
I0703 00:54:34.026904 12973 layer_factory.hpp:77] Creating layer label_2_5x7_data_4_split
I0703 00:54:34.026911 12973 net.cpp:100] Creating Layer label_2_5x7_data_4_split
I0703 00:54:34.026914 12973 net.cpp:434] label_2_5x7_data_4_split <- label_2_5x7
I0703 00:54:34.026919 12973 net.cpp:408] label_2_5x7_data_4_split -> label_2_5x7_data_4_split_0
I0703 00:54:34.026928 12973 net.cpp:408] label_2_5x7_data_4_split -> label_2_5x7_data_4_split_1
I0703 00:54:34.026970 12973 net.cpp:150] Setting up label_2_5x7_data_4_split
I0703 00:54:34.026975 12973 net.cpp:157] Top shape: 2 6 36 48 (20736)
I0703 00:54:34.026979 12973 net.cpp:157] Top shape: 2 6 36 48 (20736)
I0703 00:54:34.026983 12973 net.cpp:165] Memory required for data: 16690752
I0703 00:54:34.026985 12973 layer_factory.hpp:77] Creating layer label_3_3x5_data_5_split
I0703 00:54:34.026990 12973 net.cpp:100] Creating Layer label_3_3x5_data_5_split
I0703 00:54:34.026993 12973 net.cpp:434] label_3_3x5_data_5_split <- label_3_3x5
I0703 00:54:34.026998 12973 net.cpp:408] label_3_3x5_data_5_split -> label_3_3x5_data_5_split_0
I0703 00:54:34.027006 12973 net.cpp:408] label_3_3x5_data_5_split -> label_3_3x5_data_5_split_1
I0703 00:54:34.027048 12973 net.cpp:150] Setting up label_3_3x5_data_5_split
I0703 00:54:34.027055 12973 net.cpp:157] Top shape: 2 6 18 24 (5184)
I0703 00:54:34.027058 12973 net.cpp:157] Top shape: 2 6 18 24 (5184)
I0703 00:54:34.027060 12973 net.cpp:165] Memory required for data: 16732224
I0703 00:54:34.027063 12973 layer_factory.hpp:77] Creating layer label_3_5x7_data_6_split
I0703 00:54:34.027067 12973 net.cpp:100] Creating Layer label_3_5x7_data_6_split
I0703 00:54:34.027071 12973 net.cpp:434] label_3_5x7_data_6_split <- label_3_5x7
I0703 00:54:34.027077 12973 net.cpp:408] label_3_5x7_data_6_split -> label_3_5x7_data_6_split_0
I0703 00:54:34.027084 12973 net.cpp:408] label_3_5x7_data_6_split -> label_3_5x7_data_6_split_1
I0703 00:54:34.027124 12973 net.cpp:150] Setting up label_3_5x7_data_6_split
I0703 00:54:34.027130 12973 net.cpp:157] Top shape: 2 6 18 24 (5184)
I0703 00:54:34.027134 12973 net.cpp:157] Top shape: 2 6 18 24 (5184)
I0703 00:54:34.027137 12973 net.cpp:165] Memory required for data: 16773696
I0703 00:54:34.027140 12973 layer_factory.hpp:77] Creating layer label_4_3x5_data_7_split
I0703 00:54:34.027144 12973 net.cpp:100] Creating Layer label_4_3x5_data_7_split
I0703 00:54:34.027148 12973 net.cpp:434] label_4_3x5_data_7_split <- label_4_3x5
I0703 00:54:34.027151 12973 net.cpp:408] label_4_3x5_data_7_split -> label_4_3x5_data_7_split_0
I0703 00:54:34.027158 12973 net.cpp:408] label_4_3x5_data_7_split -> label_4_3x5_data_7_split_1
I0703 00:54:34.027199 12973 net.cpp:150] Setting up label_4_3x5_data_7_split
I0703 00:54:34.027204 12973 net.cpp:157] Top shape: 2 6 9 12 (1296)
I0703 00:54:34.027207 12973 net.cpp:157] Top shape: 2 6 9 12 (1296)
I0703 00:54:34.027209 12973 net.cpp:165] Memory required for data: 16784064
I0703 00:54:34.027212 12973 layer_factory.hpp:77] Creating layer conv1_1
I0703 00:54:34.027225 12973 net.cpp:100] Creating Layer conv1_1
I0703 00:54:34.027228 12973 net.cpp:434] conv1_1 <- data
I0703 00:54:34.027235 12973 net.cpp:408] conv1_1 -> conv1_1
I0703 00:54:34.032572 12973 net.cpp:150] Setting up conv1_1
I0703 00:54:34.032594 12973 net.cpp:157] Top shape: 2 64 576 768 (56623104)
I0703 00:54:34.032596 12973 net.cpp:165] Memory required for data: 243276480
I0703 00:54:34.032610 12973 layer_factory.hpp:77] Creating layer relu1_1
I0703 00:54:34.032621 12973 net.cpp:100] Creating Layer relu1_1
I0703 00:54:34.032625 12973 net.cpp:434] relu1_1 <- conv1_1
I0703 00:54:34.032632 12973 net.cpp:395] relu1_1 -> conv1_1 (in-place)
I0703 00:54:34.033502 12973 net.cpp:150] Setting up relu1_1
I0703 00:54:34.033514 12973 net.cpp:157] Top shape: 2 64 576 768 (56623104)
I0703 00:54:34.033515 12973 net.cpp:165] Memory required for data: 469768896
I0703 00:54:34.033519 12973 layer_factory.hpp:77] Creating layer conv1_2
I0703 00:54:34.033529 12973 net.cpp:100] Creating Layer conv1_2
I0703 00:54:34.033533 12973 net.cpp:434] conv1_2 <- conv1_1
I0703 00:54:34.033540 12973 net.cpp:408] conv1_2 -> conv1_2
I0703 00:54:34.036195 12973 net.cpp:150] Setting up conv1_2
I0703 00:54:34.036218 12973 net.cpp:157] Top shape: 2 64 576 768 (56623104)
I0703 00:54:34.036221 12973 net.cpp:165] Memory required for data: 696261312
I0703 00:54:34.036236 12973 layer_factory.hpp:77] Creating layer relu1_2
I0703 00:54:34.036247 12973 net.cpp:100] Creating Layer relu1_2
I0703 00:54:34.036252 12973 net.cpp:434] relu1_2 <- conv1_2
I0703 00:54:34.036257 12973 net.cpp:395] relu1_2 -> conv1_2 (in-place)
I0703 00:54:34.037175 12973 net.cpp:150] Setting up relu1_2
I0703 00:54:34.037187 12973 net.cpp:157] Top shape: 2 64 576 768 (56623104)
I0703 00:54:34.037189 12973 net.cpp:165] Memory required for data: 922753728
I0703 00:54:34.037192 12973 layer_factory.hpp:77] Creating layer pool1
I0703 00:54:34.037201 12973 net.cpp:100] Creating Layer pool1
I0703 00:54:34.037205 12973 net.cpp:434] pool1 <- conv1_2
I0703 00:54:34.037211 12973 net.cpp:408] pool1 -> pool1
I0703 00:54:34.037289 12973 net.cpp:150] Setting up pool1
I0703 00:54:34.037297 12973 net.cpp:157] Top shape: 2 64 288 384 (14155776)
I0703 00:54:34.037300 12973 net.cpp:165] Memory required for data: 979376832
I0703 00:54:34.037303 12973 layer_factory.hpp:77] Creating layer conv2_1
I0703 00:54:34.037312 12973 net.cpp:100] Creating Layer conv2_1
I0703 00:54:34.037317 12973 net.cpp:434] conv2_1 <- pool1
I0703 00:54:34.037322 12973 net.cpp:408] conv2_1 -> conv2_1
I0703 00:54:34.039453 12973 net.cpp:150] Setting up conv2_1
I0703 00:54:34.039467 12973 net.cpp:157] Top shape: 2 128 288 384 (28311552)
I0703 00:54:34.039469 12973 net.cpp:165] Memory required for data: 1092623040
I0703 00:54:34.039479 12973 layer_factory.hpp:77] Creating layer relu2_1
I0703 00:54:34.039489 12973 net.cpp:100] Creating Layer relu2_1
I0703 00:54:34.039492 12973 net.cpp:434] relu2_1 <- conv2_1
I0703 00:54:34.039499 12973 net.cpp:395] relu2_1 -> conv2_1 (in-place)
I0703 00:54:34.039888 12973 net.cpp:150] Setting up relu2_1
I0703 00:54:34.039897 12973 net.cpp:157] Top shape: 2 128 288 384 (28311552)
I0703 00:54:34.039899 12973 net.cpp:165] Memory required for data: 1205869248
I0703 00:54:34.039902 12973 layer_factory.hpp:77] Creating layer conv2_2
I0703 00:54:34.039911 12973 net.cpp:100] Creating Layer conv2_2
I0703 00:54:34.039916 12973 net.cpp:434] conv2_2 <- conv2_1
I0703 00:54:34.039923 12973 net.cpp:408] conv2_2 -> conv2_2
I0703 00:54:34.043364 12973 net.cpp:150] Setting up conv2_2
I0703 00:54:34.043385 12973 net.cpp:157] Top shape: 2 128 288 384 (28311552)
I0703 00:54:34.043386 12973 net.cpp:165] Memory required for data: 1319115456
I0703 00:54:34.043395 12973 layer_factory.hpp:77] Creating layer relu2_2
I0703 00:54:34.043411 12973 net.cpp:100] Creating Layer relu2_2
I0703 00:54:34.043416 12973 net.cpp:434] relu2_2 <- conv2_2
I0703 00:54:34.043421 12973 net.cpp:395] relu2_2 -> conv2_2 (in-place)
I0703 00:54:34.043855 12973 net.cpp:150] Setting up relu2_2
I0703 00:54:34.043867 12973 net.cpp:157] Top shape: 2 128 288 384 (28311552)
I0703 00:54:34.043870 12973 net.cpp:165] Memory required for data: 1432361664
I0703 00:54:34.043875 12973 layer_factory.hpp:77] Creating layer pool2
I0703 00:54:34.043884 12973 net.cpp:100] Creating Layer pool2
I0703 00:54:34.043887 12973 net.cpp:434] pool2 <- conv2_2
I0703 00:54:34.043895 12973 net.cpp:408] pool2 -> pool2
I0703 00:54:34.043954 12973 net.cpp:150] Setting up pool2
I0703 00:54:34.043961 12973 net.cpp:157] Top shape: 2 128 144 192 (7077888)
I0703 00:54:34.043962 12973 net.cpp:165] Memory required for data: 1460673216
I0703 00:54:34.043965 12973 layer_factory.hpp:77] Creating layer conv3_1
I0703 00:54:34.043975 12973 net.cpp:100] Creating Layer conv3_1
I0703 00:54:34.043980 12973 net.cpp:434] conv3_1 <- pool2
I0703 00:54:34.043987 12973 net.cpp:408] conv3_1 -> conv3_1
I0703 00:54:34.047961 12973 net.cpp:150] Setting up conv3_1
I0703 00:54:34.047994 12973 net.cpp:157] Top shape: 2 256 144 192 (14155776)
I0703 00:54:34.047996 12973 net.cpp:165] Memory required for data: 1517296320
I0703 00:54:34.048017 12973 layer_factory.hpp:77] Creating layer relu3_1
I0703 00:54:34.048035 12973 net.cpp:100] Creating Layer relu3_1
I0703 00:54:34.048040 12973 net.cpp:434] relu3_1 <- conv3_1
I0703 00:54:34.048048 12973 net.cpp:395] relu3_1 -> conv3_1 (in-place)
I0703 00:54:34.049069 12973 net.cpp:150] Setting up relu3_1
I0703 00:54:34.049087 12973 net.cpp:157] Top shape: 2 256 144 192 (14155776)
I0703 00:54:34.049088 12973 net.cpp:165] Memory required for data: 1573919424
I0703 00:54:34.049093 12973 layer_factory.hpp:77] Creating layer conv3_2
I0703 00:54:34.049108 12973 net.cpp:100] Creating Layer conv3_2
I0703 00:54:34.049113 12973 net.cpp:434] conv3_2 <- conv3_1
I0703 00:54:34.049120 12973 net.cpp:408] conv3_2 -> conv3_2
I0703 00:54:34.052579 12973 net.cpp:150] Setting up conv3_2
I0703 00:54:34.052599 12973 net.cpp:157] Top shape: 2 256 144 192 (14155776)
I0703 00:54:34.052601 12973 net.cpp:165] Memory required for data: 1630542528
I0703 00:54:34.052610 12973 layer_factory.hpp:77] Creating layer relu3_2
I0703 00:54:34.052621 12973 net.cpp:100] Creating Layer relu3_2
I0703 00:54:34.052625 12973 net.cpp:434] relu3_2 <- conv3_2
I0703 00:54:34.052631 12973 net.cpp:395] relu3_2 -> conv3_2 (in-place)
I0703 00:54:34.053002 12973 net.cpp:150] Setting up relu3_2
I0703 00:54:34.053017 12973 net.cpp:157] Top shape: 2 256 144 192 (14155776)
I0703 00:54:34.053020 12973 net.cpp:165] Memory required for data: 1687165632
I0703 00:54:34.053023 12973 layer_factory.hpp:77] Creating layer conv3_3
I0703 00:54:34.053031 12973 net.cpp:100] Creating Layer conv3_3
I0703 00:54:34.053036 12973 net.cpp:434] conv3_3 <- conv3_2
I0703 00:54:34.053042 12973 net.cpp:408] conv3_3 -> conv3_3
I0703 00:54:34.056874 12973 net.cpp:150] Setting up conv3_3
I0703 00:54:34.056895 12973 net.cpp:157] Top shape: 2 256 144 192 (14155776)
I0703 00:54:34.056896 12973 net.cpp:165] Memory required for data: 1743788736
I0703 00:54:34.056905 12973 layer_factory.hpp:77] Creating layer relu3_3
I0703 00:54:34.056915 12973 net.cpp:100] Creating Layer relu3_3
I0703 00:54:34.056919 12973 net.cpp:434] relu3_3 <- conv3_3
I0703 00:54:34.056927 12973 net.cpp:395] relu3_3 -> conv3_3 (in-place)
I0703 00:54:34.057320 12973 net.cpp:150] Setting up relu3_3
I0703 00:54:34.057329 12973 net.cpp:157] Top shape: 2 256 144 192 (14155776)
I0703 00:54:34.057332 12973 net.cpp:165] Memory required for data: 1800411840
I0703 00:54:34.057333 12973 layer_factory.hpp:77] Creating layer pool3
I0703 00:54:34.057341 12973 net.cpp:100] Creating Layer pool3
I0703 00:54:34.057345 12973 net.cpp:434] pool3 <- conv3_3
I0703 00:54:34.057351 12973 net.cpp:408] pool3 -> pool3
I0703 00:54:34.057415 12973 net.cpp:150] Setting up pool3
I0703 00:54:34.057421 12973 net.cpp:157] Top shape: 2 256 72 96 (3538944)
I0703 00:54:34.057425 12973 net.cpp:165] Memory required for data: 1814567616
I0703 00:54:34.057427 12973 layer_factory.hpp:77] Creating layer conv4_1
I0703 00:54:34.057440 12973 net.cpp:100] Creating Layer conv4_1
I0703 00:54:34.057446 12973 net.cpp:434] conv4_1 <- pool3
I0703 00:54:34.057454 12973 net.cpp:408] conv4_1 -> conv4_1
I0703 00:54:34.061969 12973 net.cpp:150] Setting up conv4_1
I0703 00:54:34.061986 12973 net.cpp:157] Top shape: 2 512 72 96 (7077888)
I0703 00:54:34.061990 12973 net.cpp:165] Memory required for data: 1842879168
I0703 00:54:34.061998 12973 layer_factory.hpp:77] Creating layer relu4_1
I0703 00:54:34.062008 12973 net.cpp:100] Creating Layer relu4_1
I0703 00:54:34.062012 12973 net.cpp:434] relu4_1 <- conv4_1
I0703 00:54:34.062019 12973 net.cpp:395] relu4_1 -> conv4_1 (in-place)
I0703 00:54:34.062860 12973 net.cpp:150] Setting up relu4_1
I0703 00:54:34.062870 12973 net.cpp:157] Top shape: 2 512 72 96 (7077888)
I0703 00:54:34.062872 12973 net.cpp:165] Memory required for data: 1871190720
I0703 00:54:34.062875 12973 layer_factory.hpp:77] Creating layer conv4_2
I0703 00:54:34.062887 12973 net.cpp:100] Creating Layer conv4_2
I0703 00:54:34.062891 12973 net.cpp:434] conv4_2 <- conv4_1
I0703 00:54:34.062897 12973 net.cpp:408] conv4_2 -> conv4_2
I0703 00:54:34.070749 12973 net.cpp:150] Setting up conv4_2
I0703 00:54:34.070789 12973 net.cpp:157] Top shape: 2 512 72 96 (7077888)
I0703 00:54:34.070792 12973 net.cpp:165] Memory required for data: 1899502272
I0703 00:54:34.070814 12973 layer_factory.hpp:77] Creating layer relu4_2
I0703 00:54:34.070837 12973 net.cpp:100] Creating Layer relu4_2
I0703 00:54:34.070843 12973 net.cpp:434] relu4_2 <- conv4_2
I0703 00:54:34.070853 12973 net.cpp:395] relu4_2 -> conv4_2 (in-place)
I0703 00:54:34.071177 12973 net.cpp:150] Setting up relu4_2
I0703 00:54:34.071221 12973 net.cpp:157] Top shape: 2 512 72 96 (7077888)
I0703 00:54:34.071238 12973 net.cpp:165] Memory required for data: 1927813824
I0703 00:54:34.071254 12973 layer_factory.hpp:77] Creating layer conv4_3
I0703 00:54:34.071285 12973 net.cpp:100] Creating Layer conv4_3
I0703 00:54:34.071300 12973 net.cpp:434] conv4_3 <- conv4_2
I0703 00:54:34.071352 12973 net.cpp:408] conv4_3 -> conv4_3
I0703 00:54:34.079824 12973 net.cpp:150] Setting up conv4_3
I0703 00:54:34.079846 12973 net.cpp:157] Top shape: 2 512 72 96 (7077888)
I0703 00:54:34.079849 12973 net.cpp:165] Memory required for data: 1956125376
I0703 00:54:34.079859 12973 layer_factory.hpp:77] Creating layer relu4_3
I0703 00:54:34.079869 12973 net.cpp:100] Creating Layer relu4_3
I0703 00:54:34.079874 12973 net.cpp:434] relu4_3 <- conv4_3
I0703 00:54:34.079881 12973 net.cpp:395] relu4_3 -> conv4_3 (in-place)
I0703 00:54:34.080143 12973 net.cpp:150] Setting up relu4_3
I0703 00:54:34.080152 12973 net.cpp:157] Top shape: 2 512 72 96 (7077888)
I0703 00:54:34.080153 12973 net.cpp:165] Memory required for data: 1984436928
I0703 00:54:34.080157 12973 layer_factory.hpp:77] Creating layer conv4_3_relu4_3_0_split
I0703 00:54:34.080164 12973 net.cpp:100] Creating Layer conv4_3_relu4_3_0_split
I0703 00:54:34.080170 12973 net.cpp:434] conv4_3_relu4_3_0_split <- conv4_3
I0703 00:54:34.080178 12973 net.cpp:408] conv4_3_relu4_3_0_split -> conv4_3_relu4_3_0_split_0
I0703 00:54:34.080185 12973 net.cpp:408] conv4_3_relu4_3_0_split -> conv4_3_relu4_3_0_split_1
I0703 00:54:34.080245 12973 net.cpp:150] Setting up conv4_3_relu4_3_0_split
I0703 00:54:34.080265 12973 net.cpp:157] Top shape: 2 512 72 96 (7077888)
I0703 00:54:34.080276 12973 net.cpp:157] Top shape: 2 512 72 96 (7077888)
I0703 00:54:34.080293 12973 net.cpp:165] Memory required for data: 2041060032
I0703 00:54:34.080297 12973 layer_factory.hpp:77] Creating layer loss1_conv1
I0703 00:54:34.080317 12973 net.cpp:100] Creating Layer loss1_conv1
I0703 00:54:34.080322 12973 net.cpp:434] loss1_conv1 <- conv4_3_relu4_3_0_split_0
I0703 00:54:34.080328 12973 net.cpp:408] loss1_conv1 -> loss1_conv1
I0703 00:54:34.101842 12973 net.cpp:150] Setting up loss1_conv1
I0703 00:54:34.101861 12973 net.cpp:157] Top shape: 2 512 72 96 (7077888)
I0703 00:54:34.101863 12973 net.cpp:165] Memory required for data: 2069371584
I0703 00:54:34.101872 12973 layer_factory.hpp:77] Creating layer loss_relu1
I0703 00:54:34.101881 12973 net.cpp:100] Creating Layer loss_relu1
I0703 00:54:34.101886 12973 net.cpp:434] loss_relu1 <- loss1_conv1
I0703 00:54:34.101896 12973 net.cpp:395] loss_relu1 -> loss1_conv1 (in-place)
I0703 00:54:34.102702 12973 net.cpp:150] Setting up loss_relu1
I0703 00:54:34.102715 12973 net.cpp:157] Top shape: 2 512 72 96 (7077888)
I0703 00:54:34.102718 12973 net.cpp:165] Memory required for data: 2097683136
I0703 00:54:34.102722 12973 layer_factory.hpp:77] Creating layer loss1_conv1_loss_relu1_0_split
I0703 00:54:34.102730 12973 net.cpp:100] Creating Layer loss1_conv1_loss_relu1_0_split
I0703 00:54:34.102736 12973 net.cpp:434] loss1_conv1_loss_relu1_0_split <- loss1_conv1
I0703 00:54:34.102744 12973 net.cpp:408] loss1_conv1_loss_relu1_0_split -> loss1_conv1_loss_relu1_0_split_0
I0703 00:54:34.102753 12973 net.cpp:408] loss1_conv1_loss_relu1_0_split -> loss1_conv1_loss_relu1_0_split_1
I0703 00:54:34.102805 12973 net.cpp:150] Setting up loss1_conv1_loss_relu1_0_split
I0703 00:54:34.102810 12973 net.cpp:157] Top shape: 2 512 72 96 (7077888)
I0703 00:54:34.102814 12973 net.cpp:157] Top shape: 2 512 72 96 (7077888)
I0703 00:54:34.102818 12973 net.cpp:165] Memory required for data: 2154306240
I0703 00:54:34.102820 12973 layer_factory.hpp:77] Creating layer LFCN_1_3x5
I0703 00:54:34.102833 12973 net.cpp:100] Creating Layer LFCN_1_3x5
I0703 00:54:34.102835 12973 net.cpp:434] LFCN_1_3x5 <- loss1_conv1_loss_relu1_0_split_0
I0703 00:54:34.102843 12973 net.cpp:408] LFCN_1_3x5 -> LFCN_1_3x5
I0703 00:54:34.104882 12973 net.cpp:150] Setting up LFCN_1_3x5
I0703 00:54:34.104895 12973 net.cpp:157] Top shape: 2 7 72 96 (96768)
I0703 00:54:34.104898 12973 net.cpp:165] Memory required for data: 2154693312
I0703 00:54:34.104907 12973 layer_factory.hpp:77] Creating layer LFCN_1_3x5_LFCN_1_3x5_0_split
I0703 00:54:34.104914 12973 net.cpp:100] Creating Layer LFCN_1_3x5_LFCN_1_3x5_0_split
I0703 00:54:34.104919 12973 net.cpp:434] LFCN_1_3x5_LFCN_1_3x5_0_split <- LFCN_1_3x5
I0703 00:54:34.104928 12973 net.cpp:408] LFCN_1_3x5_LFCN_1_3x5_0_split -> LFCN_1_3x5_LFCN_1_3x5_0_split_0
I0703 00:54:34.104938 12973 net.cpp:408] LFCN_1_3x5_LFCN_1_3x5_0_split -> LFCN_1_3x5_LFCN_1_3x5_0_split_1
I0703 00:54:34.104982 12973 net.cpp:150] Setting up LFCN_1_3x5_LFCN_1_3x5_0_split
I0703 00:54:34.104988 12973 net.cpp:157] Top shape: 2 7 72 96 (96768)
I0703 00:54:34.104992 12973 net.cpp:157] Top shape: 2 7 72 96 (96768)
I0703 00:54:34.104995 12973 net.cpp:165] Memory required for data: 2155467456
I0703 00:54:34.104998 12973 layer_factory.hpp:77] Creating layer detection_loss_1_3x5
I0703 00:54:34.105006 12973 net.cpp:100] Creating Layer detection_loss_1_3x5
I0703 00:54:34.105010 12973 net.cpp:434] detection_loss_1_3x5 <- LFCN_1_3x5_LFCN_1_3x5_0_split_0
I0703 00:54:34.105015 12973 net.cpp:434] detection_loss_1_3x5 <- label_1_3x5_data_1_split_0
I0703 00:54:34.105020 12973 net.cpp:408] detection_loss_1_3x5 -> loss_1_3x5
I0703 00:54:34.105031 12973 layer_factory.hpp:77] Creating layer detection_loss_1_3x5
I0703 00:54:34.106031 12973 net.cpp:150] Setting up detection_loss_1_3x5
I0703 00:54:34.106043 12973 net.cpp:157] Top shape: 1 1 1 2 (2)
I0703 00:54:34.106046 12973 net.cpp:160]     with loss weight 0.9
I0703 00:54:34.106056 12973 net.cpp:165] Memory required for data: 2155467464
I0703 00:54:34.106060 12973 layer_factory.hpp:77] Creating layer detection_accuracy_1_3x5
I0703 00:54:34.106068 12973 net.cpp:100] Creating Layer detection_accuracy_1_3x5
I0703 00:54:34.106073 12973 net.cpp:434] detection_accuracy_1_3x5 <- LFCN_1_3x5_LFCN_1_3x5_0_split_1
I0703 00:54:34.106081 12973 net.cpp:434] detection_accuracy_1_3x5 <- label_1_3x5_data_1_split_1
I0703 00:54:34.106087 12973 net.cpp:408] detection_accuracy_1_3x5 -> accuracy_1_3x5
I0703 00:54:34.106096 12973 net.cpp:408] detection_accuracy_1_3x5 -> boxiou_1_3x5
I0703 00:54:34.106140 12973 net.cpp:150] Setting up detection_accuracy_1_3x5
I0703 00:54:34.106145 12973 net.cpp:157] Top shape: 1 1 1 2 (2)
I0703 00:54:34.106149 12973 net.cpp:157] Top shape: 1 1 1 1 (1)
I0703 00:54:34.106151 12973 net.cpp:165] Memory required for data: 2155467476
I0703 00:54:34.106154 12973 layer_factory.hpp:77] Creating layer LFCN_1_5x7
I0703 00:54:34.106164 12973 net.cpp:100] Creating Layer LFCN_1_5x7
I0703 00:54:34.106169 12973 net.cpp:434] LFCN_1_5x7 <- loss1_conv1_loss_relu1_0_split_1
I0703 00:54:34.106176 12973 net.cpp:408] LFCN_1_5x7 -> LFCN_1_5x7
I0703 00:54:34.109766 12973 net.cpp:150] Setting up LFCN_1_5x7
I0703 00:54:34.109819 12973 net.cpp:157] Top shape: 2 7 72 96 (96768)
I0703 00:54:34.109838 12973 net.cpp:165] Memory required for data: 2155854548
I0703 00:54:34.109861 12973 layer_factory.hpp:77] Creating layer LFCN_1_5x7_LFCN_1_5x7_0_split
I0703 00:54:34.109885 12973 net.cpp:100] Creating Layer LFCN_1_5x7_LFCN_1_5x7_0_split
I0703 00:54:34.109902 12973 net.cpp:434] LFCN_1_5x7_LFCN_1_5x7_0_split <- LFCN_1_5x7
I0703 00:54:34.109925 12973 net.cpp:408] LFCN_1_5x7_LFCN_1_5x7_0_split -> LFCN_1_5x7_LFCN_1_5x7_0_split_0
I0703 00:54:34.109946 12973 net.cpp:408] LFCN_1_5x7_LFCN_1_5x7_0_split -> LFCN_1_5x7_LFCN_1_5x7_0_split_1
I0703 00:54:34.110026 12973 net.cpp:150] Setting up LFCN_1_5x7_LFCN_1_5x7_0_split
I0703 00:54:34.110047 12973 net.cpp:157] Top shape: 2 7 72 96 (96768)
I0703 00:54:34.110064 12973 net.cpp:157] Top shape: 2 7 72 96 (96768)
I0703 00:54:34.110078 12973 net.cpp:165] Memory required for data: 2156628692
I0703 00:54:34.110093 12973 layer_factory.hpp:77] Creating layer detection_loss_1_5x7
I0703 00:54:34.110112 12973 net.cpp:100] Creating Layer detection_loss_1_5x7
I0703 00:54:34.110127 12973 net.cpp:434] detection_loss_1_5x7 <- LFCN_1_5x7_LFCN_1_5x7_0_split_0
I0703 00:54:34.110146 12973 net.cpp:434] detection_loss_1_5x7 <- label_1_5x7_data_2_split_0
I0703 00:54:34.110164 12973 net.cpp:408] detection_loss_1_5x7 -> loss_1_5x7
I0703 00:54:34.110188 12973 layer_factory.hpp:77] Creating layer detection_loss_1_5x7
I0703 00:54:34.110862 12973 net.cpp:150] Setting up detection_loss_1_5x7
I0703 00:54:34.110890 12973 net.cpp:157] Top shape: 1 1 1 2 (2)
I0703 00:54:34.110906 12973 net.cpp:160]     with loss weight 0.9
I0703 00:54:34.110936 12973 net.cpp:165] Memory required for data: 2156628700
I0703 00:54:34.110952 12973 layer_factory.hpp:77] Creating layer detection_accuracy_1_5x7
I0703 00:54:34.110971 12973 net.cpp:100] Creating Layer detection_accuracy_1_5x7
I0703 00:54:34.110987 12973 net.cpp:434] detection_accuracy_1_5x7 <- LFCN_1_5x7_LFCN_1_5x7_0_split_1
I0703 00:54:34.111004 12973 net.cpp:434] detection_accuracy_1_5x7 <- label_1_5x7_data_2_split_1
I0703 00:54:34.111021 12973 net.cpp:408] detection_accuracy_1_5x7 -> accuracy_1_5x7
I0703 00:54:34.111043 12973 net.cpp:408] detection_accuracy_1_5x7 -> boxiou_1_5x7
I0703 00:54:34.111114 12973 net.cpp:150] Setting up detection_accuracy_1_5x7
I0703 00:54:34.111133 12973 net.cpp:157] Top shape: 1 1 1 2 (2)
I0703 00:54:34.111148 12973 net.cpp:157] Top shape: 1 1 1 1 (1)
I0703 00:54:34.111162 12973 net.cpp:165] Memory required for data: 2156628712
I0703 00:54:34.111177 12973 layer_factory.hpp:77] Creating layer pool4
I0703 00:54:34.111199 12973 net.cpp:100] Creating Layer pool4
I0703 00:54:34.111215 12973 net.cpp:434] pool4 <- conv4_3_relu4_3_0_split_1
I0703 00:54:34.111232 12973 net.cpp:408] pool4 -> pool4
I0703 00:54:34.111300 12973 net.cpp:150] Setting up pool4
I0703 00:54:34.111320 12973 net.cpp:157] Top shape: 2 512 36 48 (1769472)
I0703 00:54:34.111335 12973 net.cpp:165] Memory required for data: 2163706600
I0703 00:54:34.111349 12973 layer_factory.hpp:77] Creating layer conv5_1
I0703 00:54:34.111371 12973 net.cpp:100] Creating Layer conv5_1
I0703 00:54:34.111387 12973 net.cpp:434] conv5_1 <- pool4
I0703 00:54:34.111403 12973 net.cpp:408] conv5_1 -> conv5_1
I0703 00:54:34.122079 12973 net.cpp:150] Setting up conv5_1
I0703 00:54:34.122099 12973 net.cpp:157] Top shape: 2 512 36 48 (1769472)
I0703 00:54:34.122102 12973 net.cpp:165] Memory required for data: 2170784488
I0703 00:54:34.122109 12973 layer_factory.hpp:77] Creating layer relu5_1
I0703 00:54:34.122119 12973 net.cpp:100] Creating Layer relu5_1
I0703 00:54:34.122124 12973 net.cpp:434] relu5_1 <- conv5_1
I0703 00:54:34.122131 12973 net.cpp:395] relu5_1 -> conv5_1 (in-place)
I0703 00:54:34.122515 12973 net.cpp:150] Setting up relu5_1
I0703 00:54:34.122524 12973 net.cpp:157] Top shape: 2 512 36 48 (1769472)
I0703 00:54:34.122524 12973 net.cpp:165] Memory required for data: 2177862376
I0703 00:54:34.122527 12973 layer_factory.hpp:77] Creating layer conv5_2
I0703 00:54:34.122537 12973 net.cpp:100] Creating Layer conv5_2
I0703 00:54:34.122541 12973 net.cpp:434] conv5_2 <- conv5_1
I0703 00:54:34.122548 12973 net.cpp:408] conv5_2 -> conv5_2
I0703 00:54:34.128440 12973 net.cpp:150] Setting up conv5_2
I0703 00:54:34.128463 12973 net.cpp:157] Top shape: 2 512 36 48 (1769472)
I0703 00:54:34.128466 12973 net.cpp:165] Memory required for data: 2184940264
I0703 00:54:34.128473 12973 layer_factory.hpp:77] Creating layer relu5_2
I0703 00:54:34.128482 12973 net.cpp:100] Creating Layer relu5_2
I0703 00:54:34.128487 12973 net.cpp:434] relu5_2 <- conv5_2
I0703 00:54:34.128494 12973 net.cpp:395] relu5_2 -> conv5_2 (in-place)
I0703 00:54:34.129400 12973 net.cpp:150] Setting up relu5_2
I0703 00:54:34.129411 12973 net.cpp:157] Top shape: 2 512 36 48 (1769472)
I0703 00:54:34.129415 12973 net.cpp:165] Memory required for data: 2192018152
I0703 00:54:34.129417 12973 layer_factory.hpp:77] Creating layer conv5_3
I0703 00:54:34.129427 12973 net.cpp:100] Creating Layer conv5_3
I0703 00:54:34.129431 12973 net.cpp:434] conv5_3 <- conv5_2
I0703 00:54:34.129438 12973 net.cpp:408] conv5_3 -> conv5_3
I0703 00:54:34.135370 12973 net.cpp:150] Setting up conv5_3
I0703 00:54:34.135390 12973 net.cpp:157] Top shape: 2 512 36 48 (1769472)
I0703 00:54:34.135392 12973 net.cpp:165] Memory required for data: 2199096040
I0703 00:54:34.135399 12973 layer_factory.hpp:77] Creating layer relu5_3
I0703 00:54:34.135409 12973 net.cpp:100] Creating Layer relu5_3
I0703 00:54:34.135413 12973 net.cpp:434] relu5_3 <- conv5_3
I0703 00:54:34.135419 12973 net.cpp:395] relu5_3 -> conv5_3 (in-place)
I0703 00:54:34.135836 12973 net.cpp:150] Setting up relu5_3
I0703 00:54:34.135879 12973 net.cpp:157] Top shape: 2 512 36 48 (1769472)
I0703 00:54:34.135905 12973 net.cpp:165] Memory required for data: 2206173928
I0703 00:54:34.135923 12973 layer_factory.hpp:77] Creating layer conv5_3_relu5_3_0_split
I0703 00:54:34.135943 12973 net.cpp:100] Creating Layer conv5_3_relu5_3_0_split
I0703 00:54:34.135962 12973 net.cpp:434] conv5_3_relu5_3_0_split <- conv5_3
I0703 00:54:34.135988 12973 net.cpp:408] conv5_3_relu5_3_0_split -> conv5_3_relu5_3_0_split_0
I0703 00:54:34.136011 12973 net.cpp:408] conv5_3_relu5_3_0_split -> conv5_3_relu5_3_0_split_1
I0703 00:54:34.136031 12973 net.cpp:408] conv5_3_relu5_3_0_split -> conv5_3_relu5_3_0_split_2
I0703 00:54:34.136148 12973 net.cpp:150] Setting up conv5_3_relu5_3_0_split
I0703 00:54:34.136173 12973 net.cpp:157] Top shape: 2 512 36 48 (1769472)
I0703 00:54:34.136190 12973 net.cpp:157] Top shape: 2 512 36 48 (1769472)
I0703 00:54:34.136206 12973 net.cpp:157] Top shape: 2 512 36 48 (1769472)
I0703 00:54:34.136219 12973 net.cpp:165] Memory required for data: 2227407592
I0703 00:54:34.136236 12973 layer_factory.hpp:77] Creating layer LFCN_2_3x5
I0703 00:54:34.136260 12973 net.cpp:100] Creating Layer LFCN_2_3x5
I0703 00:54:34.136277 12973 net.cpp:434] LFCN_2_3x5 <- conv5_3_relu5_3_0_split_0
I0703 00:54:34.136297 12973 net.cpp:408] LFCN_2_3x5 -> LFCN_2_3x5
I0703 00:54:34.140254 12973 net.cpp:150] Setting up LFCN_2_3x5
I0703 00:54:34.140285 12973 net.cpp:157] Top shape: 2 7 36 48 (24192)
I0703 00:54:34.140286 12973 net.cpp:165] Memory required for data: 2227504360
I0703 00:54:34.140306 12973 layer_factory.hpp:77] Creating layer LFCN_2_3x5_LFCN_2_3x5_0_split
I0703 00:54:34.140319 12973 net.cpp:100] Creating Layer LFCN_2_3x5_LFCN_2_3x5_0_split
I0703 00:54:34.140326 12973 net.cpp:434] LFCN_2_3x5_LFCN_2_3x5_0_split <- LFCN_2_3x5
I0703 00:54:34.140334 12973 net.cpp:408] LFCN_2_3x5_LFCN_2_3x5_0_split -> LFCN_2_3x5_LFCN_2_3x5_0_split_0
I0703 00:54:34.140344 12973 net.cpp:408] LFCN_2_3x5_LFCN_2_3x5_0_split -> LFCN_2_3x5_LFCN_2_3x5_0_split_1
I0703 00:54:34.140413 12973 net.cpp:150] Setting up LFCN_2_3x5_LFCN_2_3x5_0_split
I0703 00:54:34.140420 12973 net.cpp:157] Top shape: 2 7 36 48 (24192)
I0703 00:54:34.140424 12973 net.cpp:157] Top shape: 2 7 36 48 (24192)
I0703 00:54:34.140427 12973 net.cpp:165] Memory required for data: 2227697896
I0703 00:54:34.140430 12973 layer_factory.hpp:77] Creating layer detection_loss_2_3x5
I0703 00:54:34.140439 12973 net.cpp:100] Creating Layer detection_loss_2_3x5
I0703 00:54:34.140442 12973 net.cpp:434] detection_loss_2_3x5 <- LFCN_2_3x5_LFCN_2_3x5_0_split_0
I0703 00:54:34.140447 12973 net.cpp:434] detection_loss_2_3x5 <- label_2_3x5_data_3_split_0
I0703 00:54:34.140453 12973 net.cpp:408] detection_loss_2_3x5 -> loss_2_3x5
I0703 00:54:34.140465 12973 layer_factory.hpp:77] Creating layer detection_loss_2_3x5
I0703 00:54:34.141222 12973 net.cpp:150] Setting up detection_loss_2_3x5
I0703 00:54:34.141252 12973 net.cpp:157] Top shape: 1 1 1 2 (2)
I0703 00:54:34.141258 12973 net.cpp:160]     with loss weight 1
I0703 00:54:34.141273 12973 net.cpp:165] Memory required for data: 2227697904
I0703 00:54:34.141278 12973 layer_factory.hpp:77] Creating layer detection_accuracy_2_3x5
I0703 00:54:34.141289 12973 net.cpp:100] Creating Layer detection_accuracy_2_3x5
I0703 00:54:34.141294 12973 net.cpp:434] detection_accuracy_2_3x5 <- LFCN_2_3x5_LFCN_2_3x5_0_split_1
I0703 00:54:34.141300 12973 net.cpp:434] detection_accuracy_2_3x5 <- label_2_3x5_data_3_split_1
I0703 00:54:34.141306 12973 net.cpp:408] detection_accuracy_2_3x5 -> accuracy_2_3x5
I0703 00:54:34.141314 12973 net.cpp:408] detection_accuracy_2_3x5 -> boxiou_2_3x5
I0703 00:54:34.141398 12973 net.cpp:150] Setting up detection_accuracy_2_3x5
I0703 00:54:34.141407 12973 net.cpp:157] Top shape: 1 1 1 2 (2)
I0703 00:54:34.141410 12973 net.cpp:157] Top shape: 1 1 1 1 (1)
I0703 00:54:34.141413 12973 net.cpp:165] Memory required for data: 2227697916
I0703 00:54:34.141417 12973 layer_factory.hpp:77] Creating layer LFCN_2_5x7
I0703 00:54:34.141429 12973 net.cpp:100] Creating Layer LFCN_2_5x7
I0703 00:54:34.141433 12973 net.cpp:434] LFCN_2_5x7 <- conv5_3_relu5_3_0_split_1
I0703 00:54:34.141463 12973 net.cpp:408] LFCN_2_5x7 -> LFCN_2_5x7
I0703 00:54:34.144286 12973 net.cpp:150] Setting up LFCN_2_5x7
I0703 00:54:34.144304 12973 net.cpp:157] Top shape: 2 7 36 48 (24192)
I0703 00:54:34.144306 12973 net.cpp:165] Memory required for data: 2227794684
I0703 00:54:34.144313 12973 layer_factory.hpp:77] Creating layer LFCN_2_5x7_LFCN_2_5x7_0_split
I0703 00:54:34.144321 12973 net.cpp:100] Creating Layer LFCN_2_5x7_LFCN_2_5x7_0_split
I0703 00:54:34.144326 12973 net.cpp:434] LFCN_2_5x7_LFCN_2_5x7_0_split <- LFCN_2_5x7
I0703 00:54:34.144335 12973 net.cpp:408] LFCN_2_5x7_LFCN_2_5x7_0_split -> LFCN_2_5x7_LFCN_2_5x7_0_split_0
I0703 00:54:34.144341 12973 net.cpp:408] LFCN_2_5x7_LFCN_2_5x7_0_split -> LFCN_2_5x7_LFCN_2_5x7_0_split_1
I0703 00:54:34.144398 12973 net.cpp:150] Setting up LFCN_2_5x7_LFCN_2_5x7_0_split
I0703 00:54:34.144404 12973 net.cpp:157] Top shape: 2 7 36 48 (24192)
I0703 00:54:34.144408 12973 net.cpp:157] Top shape: 2 7 36 48 (24192)
I0703 00:54:34.144412 12973 net.cpp:165] Memory required for data: 2227988220
I0703 00:54:34.144414 12973 layer_factory.hpp:77] Creating layer detection_loss_2_5x7
I0703 00:54:34.144424 12973 net.cpp:100] Creating Layer detection_loss_2_5x7
I0703 00:54:34.144428 12973 net.cpp:434] detection_loss_2_5x7 <- LFCN_2_5x7_LFCN_2_5x7_0_split_0
I0703 00:54:34.144433 12973 net.cpp:434] detection_loss_2_5x7 <- label_2_5x7_data_4_split_0
I0703 00:54:34.144438 12973 net.cpp:408] detection_loss_2_5x7 -> loss_2_5x7
I0703 00:54:34.144448 12973 layer_factory.hpp:77] Creating layer detection_loss_2_5x7
I0703 00:54:34.145774 12973 net.cpp:150] Setting up detection_loss_2_5x7
I0703 00:54:34.145787 12973 net.cpp:157] Top shape: 1 1 1 2 (2)
I0703 00:54:34.145789 12973 net.cpp:160]     with loss weight 1
I0703 00:54:34.145797 12973 net.cpp:165] Memory required for data: 2227988228
I0703 00:54:34.145802 12973 layer_factory.hpp:77] Creating layer detection_accuracy_2_5x7
I0703 00:54:34.145810 12973 net.cpp:100] Creating Layer detection_accuracy_2_5x7
I0703 00:54:34.145814 12973 net.cpp:434] detection_accuracy_2_5x7 <- LFCN_2_5x7_LFCN_2_5x7_0_split_1
I0703 00:54:34.145820 12973 net.cpp:434] detection_accuracy_2_5x7 <- label_2_5x7_data_4_split_1
I0703 00:54:34.145830 12973 net.cpp:408] detection_accuracy_2_5x7 -> accuracy_2_5x7
I0703 00:54:34.145838 12973 net.cpp:408] detection_accuracy_2_5x7 -> boxiou_2_5x7
I0703 00:54:34.145893 12973 net.cpp:150] Setting up detection_accuracy_2_5x7
I0703 00:54:34.145900 12973 net.cpp:157] Top shape: 1 1 1 2 (2)
I0703 00:54:34.145903 12973 net.cpp:157] Top shape: 1 1 1 1 (1)
I0703 00:54:34.145905 12973 net.cpp:165] Memory required for data: 2227988240
I0703 00:54:34.145908 12973 layer_factory.hpp:77] Creating layer pool5
I0703 00:54:34.145915 12973 net.cpp:100] Creating Layer pool5
I0703 00:54:34.145918 12973 net.cpp:434] pool5 <- conv5_3_relu5_3_0_split_2
I0703 00:54:34.145925 12973 net.cpp:408] pool5 -> pool5
I0703 00:54:34.145972 12973 net.cpp:150] Setting up pool5
I0703 00:54:34.146004 12973 net.cpp:157] Top shape: 2 512 18 24 (442368)
I0703 00:54:34.146009 12973 net.cpp:165] Memory required for data: 2229757712
I0703 00:54:34.146013 12973 layer_factory.hpp:77] Creating layer conv6_1
I0703 00:54:34.146023 12973 net.cpp:100] Creating Layer conv6_1
I0703 00:54:34.146026 12973 net.cpp:434] conv6_1 <- pool5
I0703 00:54:34.146031 12973 net.cpp:408] conv6_1 -> conv6_1
I0703 00:54:34.166815 12973 net.cpp:150] Setting up conv6_1
I0703 00:54:34.166832 12973 net.cpp:157] Top shape: 2 512 18 24 (442368)
I0703 00:54:34.166836 12973 net.cpp:165] Memory required for data: 2231527184
I0703 00:54:34.166841 12973 layer_factory.hpp:77] Creating layer relu6_1
I0703 00:54:34.166846 12973 net.cpp:100] Creating Layer relu6_1
I0703 00:54:34.166851 12973 net.cpp:434] relu6_1 <- conv6_1
I0703 00:54:34.166855 12973 net.cpp:395] relu6_1 -> conv6_1 (in-place)
I0703 00:54:34.167140 12973 net.cpp:150] Setting up relu6_1
I0703 00:54:34.167150 12973 net.cpp:157] Top shape: 2 512 18 24 (442368)
I0703 00:54:34.167153 12973 net.cpp:165] Memory required for data: 2233296656
I0703 00:54:34.167156 12973 layer_factory.hpp:77] Creating layer conv6_1_relu6_1_0_split
I0703 00:54:34.167171 12973 net.cpp:100] Creating Layer conv6_1_relu6_1_0_split
I0703 00:54:34.167174 12973 net.cpp:434] conv6_1_relu6_1_0_split <- conv6_1
I0703 00:54:34.167181 12973 net.cpp:408] conv6_1_relu6_1_0_split -> conv6_1_relu6_1_0_split_0
I0703 00:54:34.167193 12973 net.cpp:408] conv6_1_relu6_1_0_split -> conv6_1_relu6_1_0_split_1
I0703 00:54:34.167202 12973 net.cpp:408] conv6_1_relu6_1_0_split -> conv6_1_relu6_1_0_split_2
I0703 00:54:34.167266 12973 net.cpp:150] Setting up conv6_1_relu6_1_0_split
I0703 00:54:34.167273 12973 net.cpp:157] Top shape: 2 512 18 24 (442368)
I0703 00:54:34.167276 12973 net.cpp:157] Top shape: 2 512 18 24 (442368)
I0703 00:54:34.167280 12973 net.cpp:157] Top shape: 2 512 18 24 (442368)
I0703 00:54:34.167284 12973 net.cpp:165] Memory required for data: 2238605072
I0703 00:54:34.167286 12973 layer_factory.hpp:77] Creating layer LFCN_3_3x5
I0703 00:54:34.167300 12973 net.cpp:100] Creating Layer LFCN_3_3x5
I0703 00:54:34.167320 12973 net.cpp:434] LFCN_3_3x5 <- conv6_1_relu6_1_0_split_0
I0703 00:54:34.167340 12973 net.cpp:408] LFCN_3_3x5 -> LFCN_3_3x5
I0703 00:54:34.170330 12973 net.cpp:150] Setting up LFCN_3_3x5
I0703 00:54:34.170346 12973 net.cpp:157] Top shape: 2 7 18 24 (6048)
I0703 00:54:34.170348 12973 net.cpp:165] Memory required for data: 2238629264
I0703 00:54:34.170356 12973 layer_factory.hpp:77] Creating layer LFCN_3_3x5_LFCN_3_3x5_0_split
I0703 00:54:34.170374 12973 net.cpp:100] Creating Layer LFCN_3_3x5_LFCN_3_3x5_0_split
I0703 00:54:34.170379 12973 net.cpp:434] LFCN_3_3x5_LFCN_3_3x5_0_split <- LFCN_3_3x5
I0703 00:54:34.170387 12973 net.cpp:408] LFCN_3_3x5_LFCN_3_3x5_0_split -> LFCN_3_3x5_LFCN_3_3x5_0_split_0
I0703 00:54:34.170394 12973 net.cpp:408] LFCN_3_3x5_LFCN_3_3x5_0_split -> LFCN_3_3x5_LFCN_3_3x5_0_split_1
I0703 00:54:34.170442 12973 net.cpp:150] Setting up LFCN_3_3x5_LFCN_3_3x5_0_split
I0703 00:54:34.170449 12973 net.cpp:157] Top shape: 2 7 18 24 (6048)
I0703 00:54:34.170454 12973 net.cpp:157] Top shape: 2 7 18 24 (6048)
I0703 00:54:34.170456 12973 net.cpp:165] Memory required for data: 2238677648
I0703 00:54:34.170459 12973 layer_factory.hpp:77] Creating layer detection_loss_3_3x5
I0703 00:54:34.170466 12973 net.cpp:100] Creating Layer detection_loss_3_3x5
I0703 00:54:34.170470 12973 net.cpp:434] detection_loss_3_3x5 <- LFCN_3_3x5_LFCN_3_3x5_0_split_0
I0703 00:54:34.170475 12973 net.cpp:434] detection_loss_3_3x5 <- label_3_3x5_data_5_split_0
I0703 00:54:34.170483 12973 net.cpp:408] detection_loss_3_3x5 -> loss_3_3x5
I0703 00:54:34.170493 12973 layer_factory.hpp:77] Creating layer detection_loss_3_3x5
I0703 00:54:34.171000 12973 net.cpp:150] Setting up detection_loss_3_3x5
I0703 00:54:34.171010 12973 net.cpp:157] Top shape: 1 1 1 2 (2)
I0703 00:54:34.171012 12973 net.cpp:160]     with loss weight 1
I0703 00:54:34.171021 12973 net.cpp:165] Memory required for data: 2238677656
I0703 00:54:34.171025 12973 layer_factory.hpp:77] Creating layer detection_accuracy_3_3x5
I0703 00:54:34.171031 12973 net.cpp:100] Creating Layer detection_accuracy_3_3x5
I0703 00:54:34.171036 12973 net.cpp:434] detection_accuracy_3_3x5 <- LFCN_3_3x5_LFCN_3_3x5_0_split_1
I0703 00:54:34.171041 12973 net.cpp:434] detection_accuracy_3_3x5 <- label_3_3x5_data_5_split_1
I0703 00:54:34.171049 12973 net.cpp:408] detection_accuracy_3_3x5 -> accuracy_3_3x5
I0703 00:54:34.171057 12973 net.cpp:408] detection_accuracy_3_3x5 -> boxiou_3_3x5
I0703 00:54:34.171118 12973 net.cpp:150] Setting up detection_accuracy_3_3x5
I0703 00:54:34.171125 12973 net.cpp:157] Top shape: 1 1 1 2 (2)
I0703 00:54:34.171129 12973 net.cpp:157] Top shape: 1 1 1 1 (1)
I0703 00:54:34.171131 12973 net.cpp:165] Memory required for data: 2238677668
I0703 00:54:34.171134 12973 layer_factory.hpp:77] Creating layer LFCN_3_5x7
I0703 00:54:34.171146 12973 net.cpp:100] Creating Layer LFCN_3_5x7
I0703 00:54:34.171151 12973 net.cpp:434] LFCN_3_5x7 <- conv6_1_relu6_1_0_split_1
I0703 00:54:34.171157 12973 net.cpp:408] LFCN_3_5x7 -> LFCN_3_5x7
I0703 00:54:34.174170 12973 net.cpp:150] Setting up LFCN_3_5x7
I0703 00:54:34.174185 12973 net.cpp:157] Top shape: 2 7 18 24 (6048)
I0703 00:54:34.174187 12973 net.cpp:165] Memory required for data: 2238701860
I0703 00:54:34.174196 12973 layer_factory.hpp:77] Creating layer LFCN_3_5x7_LFCN_3_5x7_0_split
I0703 00:54:34.174202 12973 net.cpp:100] Creating Layer LFCN_3_5x7_LFCN_3_5x7_0_split
I0703 00:54:34.174207 12973 net.cpp:434] LFCN_3_5x7_LFCN_3_5x7_0_split <- LFCN_3_5x7
I0703 00:54:34.174216 12973 net.cpp:408] LFCN_3_5x7_LFCN_3_5x7_0_split -> LFCN_3_5x7_LFCN_3_5x7_0_split_0
I0703 00:54:34.174226 12973 net.cpp:408] LFCN_3_5x7_LFCN_3_5x7_0_split -> LFCN_3_5x7_LFCN_3_5x7_0_split_1
I0703 00:54:34.174274 12973 net.cpp:150] Setting up LFCN_3_5x7_LFCN_3_5x7_0_split
I0703 00:54:34.174280 12973 net.cpp:157] Top shape: 2 7 18 24 (6048)
I0703 00:54:34.174283 12973 net.cpp:157] Top shape: 2 7 18 24 (6048)
I0703 00:54:34.174286 12973 net.cpp:165] Memory required for data: 2238750244
I0703 00:54:34.174289 12973 layer_factory.hpp:77] Creating layer detection_loss_3_5x7
I0703 00:54:34.174296 12973 net.cpp:100] Creating Layer detection_loss_3_5x7
I0703 00:54:34.174301 12973 net.cpp:434] detection_loss_3_5x7 <- LFCN_3_5x7_LFCN_3_5x7_0_split_0
I0703 00:54:34.174306 12973 net.cpp:434] detection_loss_3_5x7 <- label_3_5x7_data_6_split_0
I0703 00:54:34.174314 12973 net.cpp:408] detection_loss_3_5x7 -> loss_3_5x7
I0703 00:54:34.174324 12973 layer_factory.hpp:77] Creating layer detection_loss_3_5x7
I0703 00:54:34.175308 12973 net.cpp:150] Setting up detection_loss_3_5x7
I0703 00:54:34.175318 12973 net.cpp:157] Top shape: 1 1 1 2 (2)
I0703 00:54:34.175321 12973 net.cpp:160]     with loss weight 1
I0703 00:54:34.175329 12973 net.cpp:165] Memory required for data: 2238750252
I0703 00:54:34.175333 12973 layer_factory.hpp:77] Creating layer detection_accuracy_3_5x7
I0703 00:54:34.175344 12973 net.cpp:100] Creating Layer detection_accuracy_3_5x7
I0703 00:54:34.175349 12973 net.cpp:434] detection_accuracy_3_5x7 <- LFCN_3_5x7_LFCN_3_5x7_0_split_1
I0703 00:54:34.175356 12973 net.cpp:434] detection_accuracy_3_5x7 <- label_3_5x7_data_6_split_1
I0703 00:54:34.175364 12973 net.cpp:408] detection_accuracy_3_5x7 -> accuracy_3_5x7
I0703 00:54:34.175374 12973 net.cpp:408] detection_accuracy_3_5x7 -> boxiou_3_5x7
I0703 00:54:34.175432 12973 net.cpp:150] Setting up detection_accuracy_3_5x7
I0703 00:54:34.175458 12973 net.cpp:157] Top shape: 1 1 1 2 (2)
I0703 00:54:34.175463 12973 net.cpp:157] Top shape: 1 1 1 1 (1)
I0703 00:54:34.175465 12973 net.cpp:165] Memory required for data: 2238750264
I0703 00:54:34.175468 12973 layer_factory.hpp:77] Creating layer pool6
I0703 00:54:34.175477 12973 net.cpp:100] Creating Layer pool6
I0703 00:54:34.175482 12973 net.cpp:434] pool6 <- conv6_1_relu6_1_0_split_2
I0703 00:54:34.175487 12973 net.cpp:408] pool6 -> pool6
I0703 00:54:34.175531 12973 net.cpp:150] Setting up pool6
I0703 00:54:34.175536 12973 net.cpp:157] Top shape: 2 512 9 12 (110592)
I0703 00:54:34.175539 12973 net.cpp:165] Memory required for data: 2239192632
I0703 00:54:34.175542 12973 layer_factory.hpp:77] Creating layer LFCN_4_3x5
I0703 00:54:34.175554 12973 net.cpp:100] Creating Layer LFCN_4_3x5
I0703 00:54:34.175556 12973 net.cpp:434] LFCN_4_3x5 <- pool6
I0703 00:54:34.175565 12973 net.cpp:408] LFCN_4_3x5 -> LFCN_4_3x5
I0703 00:54:34.178042 12973 net.cpp:150] Setting up LFCN_4_3x5
I0703 00:54:34.178056 12973 net.cpp:157] Top shape: 2 7 9 12 (1512)
I0703 00:54:34.178059 12973 net.cpp:165] Memory required for data: 2239198680
I0703 00:54:34.178068 12973 layer_factory.hpp:77] Creating layer LFCN_4_3x5_LFCN_4_3x5_0_split
I0703 00:54:34.178077 12973 net.cpp:100] Creating Layer LFCN_4_3x5_LFCN_4_3x5_0_split
I0703 00:54:34.178082 12973 net.cpp:434] LFCN_4_3x5_LFCN_4_3x5_0_split <- LFCN_4_3x5
I0703 00:54:34.178089 12973 net.cpp:408] LFCN_4_3x5_LFCN_4_3x5_0_split -> LFCN_4_3x5_LFCN_4_3x5_0_split_0
I0703 00:54:34.178100 12973 net.cpp:408] LFCN_4_3x5_LFCN_4_3x5_0_split -> LFCN_4_3x5_LFCN_4_3x5_0_split_1
I0703 00:54:34.178155 12973 net.cpp:150] Setting up LFCN_4_3x5_LFCN_4_3x5_0_split
I0703 00:54:34.178160 12973 net.cpp:157] Top shape: 2 7 9 12 (1512)
I0703 00:54:34.178164 12973 net.cpp:157] Top shape: 2 7 9 12 (1512)
I0703 00:54:34.178166 12973 net.cpp:165] Memory required for data: 2239210776
I0703 00:54:34.178169 12973 layer_factory.hpp:77] Creating layer detection_loss_4_3x5
I0703 00:54:34.178176 12973 net.cpp:100] Creating Layer detection_loss_4_3x5
I0703 00:54:34.178180 12973 net.cpp:434] detection_loss_4_3x5 <- LFCN_4_3x5_LFCN_4_3x5_0_split_0
I0703 00:54:34.178185 12973 net.cpp:434] detection_loss_4_3x5 <- label_4_3x5_data_7_split_0
I0703 00:54:34.178192 12973 net.cpp:408] detection_loss_4_3x5 -> loss_4_3x5
I0703 00:54:34.178201 12973 layer_factory.hpp:77] Creating layer detection_loss_4_3x5
I0703 00:54:34.179219 12973 net.cpp:150] Setting up detection_loss_4_3x5
I0703 00:54:34.179229 12973 net.cpp:157] Top shape: 1 1 1 2 (2)
I0703 00:54:34.179231 12973 net.cpp:160]     with loss weight 1
I0703 00:54:34.179240 12973 net.cpp:165] Memory required for data: 2239210784
I0703 00:54:34.179244 12973 layer_factory.hpp:77] Creating layer detection_accuracy_4_3x5
I0703 00:54:34.179252 12973 net.cpp:100] Creating Layer detection_accuracy_4_3x5
I0703 00:54:34.179257 12973 net.cpp:434] detection_accuracy_4_3x5 <- LFCN_4_3x5_LFCN_4_3x5_0_split_1
I0703 00:54:34.179262 12973 net.cpp:434] detection_accuracy_4_3x5 <- label_4_3x5_data_7_split_1
I0703 00:54:34.179270 12973 net.cpp:408] detection_accuracy_4_3x5 -> accuracy_4_3x5
I0703 00:54:34.179280 12973 net.cpp:408] detection_accuracy_4_3x5 -> boxiou_4_3x5
I0703 00:54:34.179333 12973 net.cpp:150] Setting up detection_accuracy_4_3x5
I0703 00:54:34.179360 12973 net.cpp:157] Top shape: 1 1 1 2 (2)
I0703 00:54:34.179364 12973 net.cpp:157] Top shape: 1 1 1 1 (1)
I0703 00:54:34.179368 12973 net.cpp:165] Memory required for data: 2239210796
I0703 00:54:34.179370 12973 net.cpp:228] detection_accuracy_4_3x5 does not need backward computation.
I0703 00:54:34.179375 12973 net.cpp:226] detection_loss_4_3x5 needs backward computation.
I0703 00:54:34.179379 12973 net.cpp:226] LFCN_4_3x5_LFCN_4_3x5_0_split needs backward computation.
I0703 00:54:34.179384 12973 net.cpp:226] LFCN_4_3x5 needs backward computation.
…
