…
    downsample_rate: 32
    downsample_rate: 32
    downsample_rate: 64
    coord_num: 4
    field_h: 60
    field_h: 84
    field_h: 120
    field_h: 168
    field_h: 240
    field_h: 336
    field_h: 480
    field_w: 40
    field_w: 56
    field_w: 80
    field_w: 112
    field_w: 160
    field_w: 224
    field_w: 320
    fg_threshold: 0.5
    resize_width: 1920
    resize_height: 576
    crop_width: 768
    crop_height: 576
    do_multiple_scale: true
    min_scale: 50
    max_scale: 420
    min_gt_height: 35
    shuffle: true
    output_gt_boxes: true
  }
}
layer {
  name: "conv1_1"
  type: "Convolution"
  bottom: "data"
  top: "conv1_1"
  param {
    lr_mult: 0
    decay_mult: 0
  }
  param {
    lr_mult: 0
    decay_mult: 0
  }
  convolution_param {
    num_output: 64
    pad: 1
    kernel_size: 3
  }
}
layer {
  name: "relu1_1"
  type: "ReLU"
  bottom: "conv1_1"
  top: "conv1_1"
}
layer {
  name: "conv1_2"
  type: "Convolution"
  bottom: "conv1_1"
  top: "conv1_2"
  param {
    lr_mult: 0
    decay_mult: 0
  }
  param {
    lr_mult: 0
    decay_mult: 0
  }
  convolution_param {
    num_output: 64
    pad: 1
    kernel_size: 3
  }
}
layer {
  name: "relu1_2"
  type: "ReLU"
  bottom: "conv1_2"
  top: "conv1_2"
}
layer {
  name: "pool1"
  type: "Pooling"
  bottom: "conv1_2"
  top: "pool1"
  pooling_param {
    pool: MAX
    kernel_size: 2
    stride: 2
  }
}
layer {
  name: "conv2_1"
  type: "Convolution"
  bottom: "pool1"
  top: "conv2_1"
  param {
    lr_mult: 0
    decay_mult: 0
  }
  param {
    lr_mult: 0
    decay_mult: 0
  }
  convolution_param {
    num_output: 128
    pad: 1
    kernel_size: 3
  }
}
layer {
  name: "relu2_1"
  type: "ReLU"
  bottom: "conv2_1"
  top: "conv2_1"
}
layer {
  name: "conv2_2"
  type: "Convolution"
  bottom: "conv2_1"
  top: "conv2_2"
  param {
    lr_mult: 0
    decay_mult: 0
  }
  param {
    lr_mult: 0
    decay_mult: 0
  }
  convolution_param {
    num_output: 128
    pad: 1
    kernel_size: 3
  }
}
layer {
  name: "relu2_2"
  type: "ReLU"
  bottom: "conv2_2"
  top: "conv2_2"
}
layer {
  name: "pool2"
  type: "Pooling"
  bottom: "conv2_2"
  top: "pool2"
  pooling_param {
    pool: MAX
    kernel_size: 2
    stride: 2
  }
}
layer {
  name: "conv3_1"
  type: "Convolution"
  bottom: "pool2"
  top: "conv3_1"
  convolution_param {
    num_output: 256
    pad: 1
    kernel_size: 3
  }
}
layer {
  name: "relu3_1"
  type: "ReLU"
  bottom: "conv3_1"
  top: "conv3_1"
}
layer {
  name: "conv3_2"
  type: "Convolution"
  bottom: "conv3_1"
  top: "conv3_2"
  convolution_param {
    num_output: 256
    pad: 1
    kernel_size: 3
  }
}
layer {
  name: "relu3_2"
  type: "ReLU"
  bottom: "conv3_2"
  top: "conv3_2"
}
layer {
  name: "conv3_3"
  type: "Convolution"
  bottom: "conv3_2"
  top: "conv3_3"
  convolution_param {
    num_output: 256
    pad: 1
    kernel_size: 3
  }
}
layer {
  name: "relu3_3"
  type: "ReLU"
  bottom: "conv3_3"
  top: "conv3_3"
}
layer {
  name: "pool3"
  type: "Pooling"
  bottom: "conv3_3"
  top: "pool3"
  pooling_param {
    pool: MAX
    kernel_size: 2
    stride: 2
  }
}
layer {
  name: "conv4_1"
  type: "Convolution"
  bottom: "pool3"
  top: "conv4_1"
  convolution_param {
    num_output: 512
    pad: 1
    kernel_size: 3
  }
}
layer {
  name: "relu4_1"
  type: "ReLU"
  bottom: "conv4_1"
  top: "conv4_1"
}
layer {
  name: "conv4_2"
  type: "Convolution"
  bottom: "conv4_1"
  top: "conv4_2"
  convolution_param {
    num_output: 512
    pad: 1
    kernel_size: 3
  }
}
layer {
  name: "relu4_2"
  type: "ReLU"
  bottom: "conv4_2"
  top: "conv4_2"
}
layer {
  name: "conv4_3"
  type: "Convolution"
  bottom: "conv4_2"
  top: "conv4_3"
  convolution_param {
    num_output: 512
    pad: 1
    kernel_size: 3
  }
}
layer {
  name: "relu4_3"
  type: "ReLU"
  bottom: "conv4_3"
  top: "conv4_3"
}
layer {
  name: "loss1_conv1"
  type: "Convolution"
  bottom: "conv4_3"
  top: "loss1_conv1"
  param {
    lr_mult: 1
    decay_mult: 1
  }
  param {
    lr_mult: 2
    decay_mult: 0
  }
  convolution_param {
    num_output: 512
    pad: 1
    kernel_size: 3
    weight_filler {
      type: "gaussian"
      std: 0.01
    }
    bias_filler {
      type: "constant"
    }
  }
}
layer {
  name: "loss_relu1"
  type: "ReLU"
  bottom: "loss1_conv1"
  top: "loss1_conv1"
}
layer {
  name: "LFCN_1_3x5"
  type: "Convolution"
  bottom: "loss1_conv1"
  top: "LFCN_1_3x5"
  param {
    lr_mult: 1
    decay_mult: 1
  }
  param {
    lr_mult: 2
    decay_mult: 0
  }
  convolution_param {
    num_output: 7
    weight_filler {
      type: "gaussian"
      std: 0.001
    }
    bias_filler {
      type: "constant"
    }
    pad_h: 2
    pad_w: 1
    kernel_h: 5
    kernel_w: 3
  }
}
layer {
  name: "detection_loss_1_3x5"
  type: "DetectionLoss"
  bottom: "LFCN_1_3x5"
  bottom: "label_1_3x5"
  top: "loss_1_3x5"
  loss_weight: 0.5
  detection_loss_param {
    cls_num: 3
    coord_num: 4
    lambda: 1
    field_h: 60
    field_w: 40
    downsample_rate: 8
    bb_smooth: true
    field_whr: 2
    field_xyr: 2
    bg_threshold: 0.2
    bg_multiple: 2
    sample_mode: "bootstrap"
    pos_neg_weighted: true
  }
}
layer {
  name: "detection_accuracy_1_3x5"
  type: "DetectionAccuracy"
  bottom: "LFCN_1_3x5"
  bottom: "label_1_3x5"
  top: "accuracy_1_3x5"
  top: "boxiou_1_3x5"
  detection_accuracy_param {
    cls_num: 3
    coord_num: 4
    field_h: 60
    field_w: 40
    downsample_rate: 8
    field_whr: 2
    field_xyr: 2
  }
}
layer {
  name: "LFCN_1_5x7"
  type: "Convolution"
  bottom: "loss1_conv1"
  top: "LFCN_1_5x7"
  param {
    lr_mult: 1
    decay_mult: 1
  }
  param {
    lr_mult: 2
    decay_mult: 0
  }
  convolution_param {
    num_output: 7
    weight_filler {
      type: "gaussian"
      std: 0.001
    }
    bias_filler {
      type: "constant"
    }
    pad_h: 3
    pad_w: 2
    kernel_h: 7
    kernel_w: 5
  }
}
layer {
  name: "detection_loss_1_5x7"
  type: "DetectionLoss"
  bottom: "LFCN_1_5x7"
  bottom: "label_1_5x7"
  top: "loss_1_5x7"
  loss_weight: 0.9
  detection_loss_param {
    cls_num: 3
    coord_num: 4
    lambda: 1
    field_h: 84
    field_w: 56
    downsample_rate: 8
    bb_smooth: true
    field_whr: 2
    field_xyr: 2
    bg_threshold: 0.2
    bg_multiple: 2
    sample_mode: "bootstrap"
    pos_neg_weighted: true
  }
}
layer {
  name: "detection_accuracy_1_5x7"
  type: "DetectionAccuracy"
  bottom: "LFCN_1_5x7"
  bottom: "label_1_5x7"
  top: "accuracy_1_5x7"
  top: "boxiou_1_5x7"
  detection_accuracy_param {
    cls_num: 3
    coord_num: 4
    field_h: 84
    field_w: 56
    downsample_rate: 8
    field_whr: 2
    field_xyr: 2
  }
}
layer {
  name: "pool4"
  type: "Pooling"
  bottom: "conv4_3"
  top: "pool4"
  pooling_param {
    pool: MAX
    kernel_size: 2
    stride: 2
  }
}
layer {
  name: "conv5_1"
  type: "Convolution"
  bottom: "pool4"
  top: "conv5_1"
  convolution_param {
    num_output: 512
    pad: 1
    kernel_size: 3
  }
}
layer {
  name: "relu5_1"
  type: "ReLU"
  bottom: "conv5_1"
  top: "conv5_1"
}
layer {
  name: "conv5_2"
  type: "Convolution"
  bottom: "conv5_1"
  top: "conv5_2"
  convolution_param {
    num_output: 512
    pad: 1
    kernel_size: 3
  }
}
layer {
  name: "relu5_2"
  type: "ReLU"
  bottom: "conv5_2"
  top: "conv5_2"
}
layer {
  name: "conv5_3"
  type: "Convolution"
  bottom: "conv5_2"
  top: "conv5_3"
  convolution_param {
    num_output: 512
    pad: 1
    kernel_size: 3
  }
}
layer {
  name: "relu5_3"
  type: "ReLU"
  bottom: "conv5_3"
  top: "conv5_3"
}
layer {
  name: "LFCN_2_3x5"
  type: "Convolution"
  bottom: "conv5_3"
  top: "LFCN_2_3x5"
  param {
    lr_mult: 1
    decay_mult: 1
  }
  param {
    lr_mult: 2
    decay_mult: 0
  }
  convolution_param {
    num_output: 7
    weight_filler {
      type: "gaussian"
      std: 0.001
    }
    bias_filler {
      type: "constant"
    }
    pad_h: 2
    pad_w: 1
    kernel_h: 5
    kernel_w: 3
  }
}
layer {
  name: "detection_loss_2_3x5"
  type: "DetectionLoss"
  bottom: "LFCN_2_3x5"
  bottom: "label_2_3x5"
  top: "loss_2_3x5"
  detection_loss_param {
    cls_num: 3
    coord_num: 4
    lambda: 1
    field_h: 120
    field_w: 80
    downsample_rate: 16
    bb_smooth: true
    field_whr: 2
    field_xyr: 2
    bg_threshold: 0.2
    bg_multiple: 2
    sample_mode: "bootstrap"
    pos_neg_weighted: true
  }
}
layer {
  name: "detection_accuracy_2_3x5"
  type: "DetectionAccuracy"
  bottom: "LFCN_2_3x5"
  bottom: "label_2_3x5"
  top: "accuracy_2_3x5"
  top: "boxiou_2_3x5"
  detection_accuracy_param {
    cls_num: 3
    coord_num: 4
    field_h: 120
    field_w: 80
    downsample_rate: 16
    field_whr: 2
    field_xyr: 2
  }
}
layer {
  name: "LFCN_2_5x7"
  type: "Convolution"
  bottom: "conv5_3"
  top: "LFCN_2_5x7"
  param {
    lr_mult: 1
    decay_mult: 1
  }
  param {
    lr_mult: 2
    decay_mult: 0
  }
  convolution_param {
    num_output: 7
    weight_filler {
      type: "gaussian"
      std: 0.001
    }
    bias_filler {
      type: "constant"
    }
    pad_h: 3
    pad_w: 2
    kernel_h: 7
    kernel_w: 5
  }
}
layer {
  name: "detection_loss_2_5x7"
  type: "DetectionLoss"
  bottom: "LFCN_2_5x7"
  bottom: "label_2_5x7"
  top: "loss_2_5x7"
  detection_loss_param {
    cls_num: 3
    coord_num: 4
    lambda: 1
    field_h: 168
    field_w: 112
    downsample_rate: 16
    bb_smooth: true
    field_whr: 2
    field_xyr: 2
    bg_threshold: 0.2
    bg_multiple: 2
    sample_mode: "bootstrap"
    pos_neg_weighted: true
  }
}
layer {
  name: "detection_accuracy_2_5x7"
  type: "DetectionAccuracy"
  bottom: "LFCN_2_5x7"
  bottom: "label_2_5x7"
  top: "accuracy_2_5x7"
  top: "boxiou_2_5x7"
  detection_accuracy_param {
    cls_num: 3
    coord_num: 4
    field_h: 168
    field_w: 112
    downsample_rate: 16
    field_whr: 2
    field_xyr: 2
  }
}
layer {
  name: "pool5"
  type: "Pooling"
  bottom: "conv5_3"
  top: "pool5"
  pooling_param {
    pool: MAX
    kernel_size: 2
    stride: 2
  }
}
layer {
  name: "conv6_1"
  type: "Convolution"
  bottom: "pool5"
  top: "conv6_1"
  param {
    lr_mult: 1
    decay_mult: 1
  }
  param {
    lr_mult: 2
    decay_mult: 0
  }
  convolution_param {
    num_output: 512
    pad: 1
    kernel_size: 3
    weight_filler {
      type: "gaussian"
      std: 0.01
    }
    bias_filler {
      type: "constant"
    }
  }
}
layer {
  name: "relu6_1"
  type: "ReLU"
  bottom: "conv6_1"
  top: "conv6_1"
}
layer {
  name: "LFCN_3_3x5"
  type: "Convolution"
  bottom: "conv6_1"
  top: "LFCN_3_3x5"
  param {
    lr_mult: 1
    decay_mult: 1
  }
  param {
    lr_mult: 2
    decay_mult: 0
  }
  convolution_param {
    num_output: 7
    weight_filler {
      type: "gaussian"
      std: 0.001
    }
    bias_filler {
      type: "constant"
    }
    pad_h: 2
    pad_w: 1
    kernel_h: 5
    kernel_w: 3
  }
}
layer {
  name: "detection_loss_3_3x5"
  type: "DetectionLoss"
  bottom: "LFCN_3_3x5"
  bottom: "label_3_3x5"
  top: "loss_3_3x5"
  detection_loss_param {
    cls_num: 3
    coord_num: 4
    lambda: 1
    field_h: 240
    field_w: 160
    downsample_rate: 32
    bb_smooth: true
    field_whr: 2
    field_xyr: 2
    bg_threshold: 0.2
    bg_multiple: 2
    sample_mode: "bootstrap"
    pos_neg_weighted: true
  }
}
layer {
  name: "detection_accuracy_3_3x5"
  type: "DetectionAccuracy"
  bottom: "LFCN_3_3x5"
  bottom: "label_3_3x5"
  top: "accuracy_3_3x5"
  top: "boxiou_3_3x5"
  detection_accuracy_param {
    cls_num: 3
    coord_num: 4
    field_h: 240
    field_w: 160
    downsample_rate: 32
    field_whr: 2
    field_xyr: 2
  }
}
layer {
  name: "LFCN_3_5x7"
  type: "Convolution"
  bottom: "conv6_1"
  top: "LFCN_3_5x7"
  param {
    lr_mult: 1
    decay_mult: 1
  }
  param {
    lr_mult: 2
    decay_mult: 0
  }
  convolution_param {
    num_output: 7
    weight_filler {
      type: "gaussian"
      std: 0.001
    }
    bias_filler {
      type: "constant"
    }
    pad_h: 3
    pad_w: 2
    kernel_h: 7
    kernel_w: 5
  }
}
layer {
  name: "detection_loss_3_5x7"
  type: "DetectionLoss"
  bottom: "LFCN_3_5x7"
  bottom: "label_3_5x7"
  top: "loss_3_5x7"
  detection_loss_param {
    cls_num: 3
    coord_num: 4
    lambda: 1
    field_h: 336
    field_w: 224
    downsample_rate: 32
    bb_smooth: true
    field_whr: 2
    field_xyr: 2
    bg_threshold: 0.2
    bg_multiple: 2
    sample_mode: "bootstrap"
    pos_neg_weighted: true
  }
}
layer {
  name: "detection_accuracy_3_5x7"
  type: "DetectionAccuracy"
  bottom: "LFCN_3_5x7"
  bottom: "label_3_5x7"
  top: "accuracy_3_5x7"
  top: "boxiou_3_5x7"
  detection_accuracy_param {
    cls_num: 3
    coord_num: 4
    field_h: 336
    field_w: 224
    downsample_rate: 32
    field_whr: 2
    field_xyr: 2
  }
}
layer {
  name: "pool6"
  type: "Pooling"
  bottom: "conv6_1"
  top: "pool6"
  pooling_param {
    pool: MAX
    kernel_size: 2
    stride: 2
  }
}
layer {
  name: "LFCN_4_3x5"
  type: "Convolution"
  bottom: "pool6"
  top: "LFCN_4_3x5"
  param {
    lr_mult: 1
    decay_mult: 1
  }
  param {
    lr_mult: 2
    decay_mult: 0
  }
  convolution_param {
    num_output: 7
    weight_filler {
      type: "gaussian"
      std: 0.001
    }
    bias_filler {
      type: "constant"
    }
    pad_h: 2
    pad_w: 1
    kernel_h: 5
    kernel_w: 3
  }
}
layer {
  name: "detection_loss_4_3x5"
  type: "DetectionLoss"
  bottom: "LFCN_4_3x5"
  bottom: "label_4_3x5"
  top: "loss_4_3x5"
  detection_loss_param {
    cls_num: 3
    coord_num: 4
    lambda: 1
    field_h: 480
    field_w: 320
    downsample_rate: 64
    bb_smooth: true
    field_whr: 2
    field_xyr: 2
    bg_threshold: 0.2
    bg_multiple: 2
    sample_mode: "bootstrap"
    pos_neg_weighted: true
  }
}
layer {
  name: "detection_accuracy_4_3x5"
  type: "DetectionAccuracy"
  bottom: "LFCN_4_3x5"
  bottom: "label_4_3x5"
  top: "accuracy_4_3x5"
  top: "boxiou_4_3x5"
  detection_accuracy_param {
    cls_num: 3
    coord_num: 4
    field_h: 480
    field_w: 320
    downsample_rate: 64
    field_whr: 2
    field_xyr: 2
  }
}
layer {
  name: "proposals"
  type: "BoxOutput"
  bottom: "LFCN_1_3x5"
  bottom: "LFCN_1_5x7"
  bottom: "LFCN_2_3x5"
  bottom: "LFCN_2_5x7"
  bottom: "LFCN_3_3x5"
  bottom: "LFCN_3_5x7"
  bottom: "LFCN_4_3x5"
  top: "proposals"
  propagate_down: false
  propagate_down: false
  propagate_down: false
  propagate_down: false
  propagate_down: false
  propagate_down: false
  propagate_down: false
  box_output_param {
    fg_thr: -15
    iou_thr: 0.65
    nms_type: "IOU"
    field_h: 60
    field_h: 84
    field_h: 120
    field_h: 168
    field_h: 240
    field_h: 336
    field_h: 480
    field_w: 40
    field_w: 56
    field_w: 80
    field_w: 112
    field_w: 160
    field_w: 224
    field_w: 320
    downsample_rate: 8
    downsample_rate: 8
    downsample_rate: 16
    downsample_rate: 16
    downsample_rate: 32
    downsample_rate: 32
    downsample_rate: 64
    field_whr: 2
    field_xyr: 2
    max_nms_num: 3000
  }
}
layer {
  name: "proposal_info"
  type: "ProposalTarget"
  bottom: "proposals"
  bottom: "gt_boxes"
  top: "rois"
  top: "proposal_labels"
  top: "proposal_targets"
  top: "box_inside_weights"
  top: "box_outside_weights"
  top: "match_gt_boxes"
  include {
    phase: TRAIN
  }
  propagate_down: false
  propagate_down: false
  proposal_target_param {
    cls_num: 3
    batch_size: 128
    fg_fraction: 0.25
    num_img_per_batch: 4
    fg_thr: 0.5
    bg_thr_hg: 0.45
    bg_thr_lw: 0.05
    img_width: 768
    img_height: 576
  }
  bbox_reg_param {
    bbox_mean: 0
    bbox_mean: 0
    bbox_mean: 0
    bbox_mean: 0
    bbox_std: 0.1
    bbox_std: 0.1
    bbox_std: 0.2
    bbox_std: 0.2
  }
}
layer {
  name: "conv4_3_2x"
  type: "Deconvolution"
  bottom: "conv4_3"
  top: "conv4_3_2x"
  param {
    lr_mult: 0
    decay_mult: 0
  }
  convolution_param {
    num_output: 512
    bias_term: false
    pad: 1
    kernel_size: 4
    group: 512
    stride: 2
    weight_filler {
      type: "bilinear"
    }
  }
}
layer {
  name: "roi_pool_org"
  type: "ROIPooling"
  bottom: "conv4_3_2x"
  bottom: "rois"
  top: "roi_pool_org"
  roi_pooling_param {
    pooled_h: 7
    pooled_w: 5
    spatial_scale: 0.25
    pad_ratio: 0
  }
}
layer {
  name: "roi_pool_ctx"
  type: "ROIPooling"
  bottom: "conv4_3_2x"
  bottom: "rois"
  top: "roi_pool_ctx"
  roi_pooling_param {
    pooled_h: 7
    pooled_w: 5
    spatial_scale: 0.25
    pad_ratio: 0.25
  }
}
layer {
  name: "roi_pool"
  type: "Concat"
  bottom: "roi_pool_org"
  bottom: "roi_pool_ctx"
  top: "roi_pool"
}
layer {
  name: "roi_c1"
  type: "Convolution"
  bottom: "roi_pool"
  top: "roi_c1"
  param {
    lr_mult: 1
    decay_mult: 1
  }
  param {
    lr_mult: 2
    decay_mult: 0
  }
  convolution_param {
    num_output: 512
    kernel_size: 3
    weight_filler {
      type: "gaussian"
      std: 0.01
    }
    bias_filler {
      type: "constant"
    }
  }
}
layer {
  name: "roi_c1_relu"
  type: "ReLU"
  bottom: "roi_c1"
  top: "roi_c1"
}
layer {
  name: "fc6"
  type: "InnerProduct"
  bottom: "roi_c1"
  top: "fc6"
  param {
    lr_mult: 1
  }
  param {
    lr_mult: 2
  }
  inner_product_param {
    num_output: 2048
    weight_filler {
      type: "gaussian"
      std: 0.001
    }
    bias_filler {
      type: "constant"
      value: 0
    }
  }
}
layer {
  name: "relu6"
  type: "ReLU"
  bottom: "fc6"
  top: "fc6"
}
layer {
  name: "drop6"
  type: "Dropout"
  bottom: "fc6"
  top: "fc6"
  dropout_param {
    dropout_ratio: 0.5
  }
}
layer {
  name: "cls_pred"
  type: "InnerProduct"
  bottom: "fc6"
  top: "cls_pred"
  param {
    lr_mult: 1
  }
  param {
    lr_mult: 2
  }
  inner_product_param {
    num_output: 3
    weight_filler {
      type: "gaussian"
      std: 0.01
    }
    bias_filler {
      type: "constant"
      value: 0
    }
  }
}
layer {
  name: "bbox_pred"
  type: "InnerProduct"
  bottom: "fc6"
  top: "bbox_pred"
  param {
    lr_mult: 1
  }
  param {
    lr_mult: 2
  }
  inner_product_param {
    num_output: 12
    weight_filler {
      type: "gaussian"
      std: 0.001
    }
    bias_filler {
      type: "constant"
      value: 0
    }
  }
}
layer {
  name: "loss_cls"
  type: "SoftmaxWithLoss"
  bottom: "cls_pred"
  bottom: "proposal_labels"
  top: "loss_cls"
  loss_weight: 1
  propagate_down: true
  propagate_down: false
}
layer {
  name: "cls_accuracy"
  type: "Accuracy"
  bottom: "cls_pred"
  bottom: "proposal_labels"
  top: "cls_accuracy"
}
layer {
  name: "loss_bbox"
  type: "SmoothL1Loss"
  bottom: "bbox_pred"
  bottom: "proposal_targets"
  bottom: "box_inside_weights"
  bottom: "box_outside_weights"
  top: "loss_bbox"
  loss_weight: 1
}
layer {
  name: "bbox_iou"
  type: "BboxAccuracy"
  bottom: "bbox_pred"
  bottom: "rois"
  bottom: "match_gt_boxes"
  top: "bbox_iou"
  top: "bbox_iou_pre"
  bbox_reg_param {
    bbox_mean: 0
    bbox_mean: 0
    bbox_mean: 0
    bbox_mean: 0
    bbox_std: 0.1
    bbox_std: 0.1
    bbox_std: 0.2
    bbox_std: 0.2
  }
}
I0630 10:28:07.412102 30190 layer_factory.hpp:77] Creating layer data
I0630 10:28:07.412128 30190 net.cpp:100] Creating Layer data
I0630 10:28:07.412135 30190 net.cpp:408] data -> data
…
I0630 10:28:07.437716 30190 image_gt_data_layer.cpp:241] output label size 3 : 4,6,36,48
I0630 10:28:07.437755 30190 image_gt_data_layer.cpp:241] output label size 4 : 4,6,18,24
I0630 10:28:07.437794 30190 image_gt_data_layer.cpp:241] output label size 5 : 4,6,18,24
I0630 10:28:07.437836 30190 image_gt_data_layer.cpp:241] output label size 6 : 4,6,9,12
I0630 10:28:07.437868 30190 image_gt_data_layer.cpp:256] output gt boxes size: 1,7,1,1
I0630 10:28:07.437870 30190 image_gt_data_layer.cpp:265]  --> has_mean_values_ = 1
I0630 10:28:07.473314 30190 net.cpp:150] Setting up data
I0630 10:28:07.473335 30190 net.cpp:157] Top shape: 4 4 576 768 (7077888)
I0630 10:28:07.473338 30190 net.cpp:157] Top shape: 4 6 72 96 (165888)
I0630 10:28:07.473342 30190 net.cpp:157] Top shape: 4 6 72 96 (165888)
I0630 10:28:07.473346 30190 net.cpp:157] Top shape: 4 6 36 48 (41472)
I0630 10:28:07.473350 30190 net.cpp:157] Top shape: 4 6 36 48 (41472)
I0630 10:28:07.473352 30190 net.cpp:157] Top shape: 4 6 18 24 (10368)
I0630 10:28:07.473356 30190 net.cpp:157] Top shape: 4 6 18 24 (10368)
I0630 10:28:07.473361 30190 net.cpp:157] Top shape: 4 6 9 12 (2592)
I0630 10:28:07.473364 30190 net.cpp:157] Top shape: 1 7 1 1 (7)
I0630 10:28:07.473367 30190 net.cpp:165] Memory required for data: 30063772
I0630 10:28:07.473376 30190 layer_factory.hpp:77] Creating layer label_1_3x5_data_1_split
I0630 10:28:07.473387 30190 net.cpp:100] Creating Layer label_1_3x5_data_1_split
I0630 10:28:07.473392 30190 net.cpp:434] label_1_3x5_data_1_split <- label_1_3x5
I0630 10:28:07.473404 30190 net.cpp:408] label_1_3x5_data_1_split -> label_1_3x5_data_1_split_0
I0630 10:28:07.473413 30190 net.cpp:408] label_1_3x5_data_1_split -> label_1_3x5_data_1_split_1
I0630 10:28:07.473457 30190 net.cpp:150] Setting up label_1_3x5_data_1_split
I0630 10:28:07.473462 30190 net.cpp:157] Top shape: 4 6 72 96 (165888)
I0630 10:28:07.473466 30190 net.cpp:157] Top shape: 4 6 72 96 (165888)
I0630 10:28:07.473469 30190 net.cpp:165] Memory required for data: 31390876
I0630 10:28:07.473472 30190 layer_factory.hpp:77] Creating layer label_1_5x7_data_2_split
I0630 10:28:07.473479 30190 net.cpp:100] Creating Layer label_1_5x7_data_2_split
I0630 10:28:07.473484 30190 net.cpp:434] label_1_5x7_data_2_split <- label_1_5x7
I0630 10:28:07.473489 30190 net.cpp:408] label_1_5x7_data_2_split -> label_1_5x7_data_2_split_0
I0630 10:28:07.473495 30190 net.cpp:408] label_1_5x7_data_2_split -> label_1_5x7_data_2_split_1
I0630 10:28:07.473527 30190 net.cpp:150] Setting up label_1_5x7_data_2_split
I0630 10:28:07.473532 30190 net.cpp:157] Top shape: 4 6 72 96 (165888)
I0630 10:28:07.473536 30190 net.cpp:157] Top shape: 4 6 72 96 (165888)
I0630 10:28:07.473538 30190 net.cpp:165] Memory required for data: 32717980
I0630 10:28:07.473541 30190 layer_factory.hpp:77] Creating layer label_2_3x5_data_3_split
I0630 10:28:07.473546 30190 net.cpp:100] Creating Layer label_2_3x5_data_3_split
I0630 10:28:07.473549 30190 net.cpp:434] label_2_3x5_data_3_split <- label_2_3x5
I0630 10:28:07.473556 30190 net.cpp:408] label_2_3x5_data_3_split -> label_2_3x5_data_3_split_0
I0630 10:28:07.473562 30190 net.cpp:408] label_2_3x5_data_3_split -> label_2_3x5_data_3_split_1
I0630 10:28:07.473592 30190 net.cpp:150] Setting up label_2_3x5_data_3_split
I0630 10:28:07.473598 30190 net.cpp:157] Top shape: 4 6 36 48 (41472)
I0630 10:28:07.473603 30190 net.cpp:157] Top shape: 4 6 36 48 (41472)
I0630 10:28:07.473605 30190 net.cpp:165] Memory required for data: 33049756
I0630 10:28:07.473608 30190 layer_factory.hpp:77] Creating layer label_2_5x7_data_4_split
I0630 10:28:07.473613 30190 net.cpp:100] Creating Layer label_2_5x7_data_4_split
I0630 10:28:07.473618 30190 net.cpp:434] label_2_5x7_data_4_split <- label_2_5x7
I0630 10:28:07.473623 30190 net.cpp:408] label_2_5x7_data_4_split -> label_2_5x7_data_4_split_0
I0630 10:28:07.473629 30190 net.cpp:408] label_2_5x7_data_4_split -> label_2_5x7_data_4_split_1
I0630 10:28:07.473661 30190 net.cpp:150] Setting up label_2_5x7_data_4_split
I0630 10:28:07.473666 30190 net.cpp:157] Top shape: 4 6 36 48 (41472)
I0630 10:28:07.473671 30190 net.cpp:157] Top shape: 4 6 36 48 (41472)
I0630 10:28:07.473673 30190 net.cpp:165] Memory required for data: 33381532
I0630 10:28:07.473676 30190 layer_factory.hpp:77] Creating layer label_3_3x5_data_5_split
I0630 10:28:07.473681 30190 net.cpp:100] Creating Layer label_3_3x5_data_5_split
I0630 10:28:07.473685 30190 net.cpp:434] label_3_3x5_data_5_split <- label_3_3x5
I0630 10:28:07.473690 30190 net.cpp:408] label_3_3x5_data_5_split -> label_3_3x5_data_5_split_0
I0630 10:28:07.473696 30190 net.cpp:408] label_3_3x5_data_5_split -> label_3_3x5_data_5_split_1
I0630 10:28:07.473723 30190 net.cpp:150] Setting up label_3_3x5_data_5_split
I0630 10:28:07.473728 30190 net.cpp:157] Top shape: 4 6 18 24 (10368)
I0630 10:28:07.473732 30190 net.cpp:157] Top shape: 4 6 18 24 (10368)
I0630 10:28:07.473736 30190 net.cpp:165] Memory required for data: 33464476
I0630 10:28:07.473738 30190 layer_factory.hpp:77] Creating layer label_3_5x7_data_6_split
I0630 10:28:07.473742 30190 net.cpp:100] Creating Layer label_3_5x7_data_6_split
I0630 10:28:07.473747 30190 net.cpp:434] label_3_5x7_data_6_split <- label_3_5x7
I0630 10:28:07.473750 30190 net.cpp:408] label_3_5x7_data_6_split -> label_3_5x7_data_6_split_0
I0630 10:28:07.473757 30190 net.cpp:408] label_3_5x7_data_6_split -> label_3_5x7_data_6_split_1
I0630 10:28:07.473788 30190 net.cpp:150] Setting up label_3_5x7_data_6_split
I0630 10:28:07.473793 30190 net.cpp:157] Top shape: 4 6 18 24 (10368)
I0630 10:28:07.473796 30190 net.cpp:157] Top shape: 4 6 18 24 (10368)
I0630 10:28:07.473799 30190 net.cpp:165] Memory required for data: 33547420
I0630 10:28:07.473803 30190 layer_factory.hpp:77] Creating layer label_4_3x5_data_7_split
I0630 10:28:07.473810 30190 net.cpp:100] Creating Layer label_4_3x5_data_7_split
I0630 10:28:07.473814 30190 net.cpp:434] label_4_3x5_data_7_split <- label_4_3x5
I0630 10:28:07.473819 30190 net.cpp:408] label_4_3x5_data_7_split -> label_4_3x5_data_7_split_0
I0630 10:28:07.473824 30190 net.cpp:408] label_4_3x5_data_7_split -> label_4_3x5_data_7_split_1
I0630 10:28:07.473873 30190 net.cpp:150] Setting up label_4_3x5_data_7_split
I0630 10:28:07.473881 30190 net.cpp:157] Top shape: 4 6 9 12 (2592)
I0630 10:28:07.473884 30190 net.cpp:157] Top shape: 4 6 9 12 (2592)
I0630 10:28:07.473887 30190 net.cpp:165] Memory required for data: 33568156
I0630 10:28:07.473891 30190 layer_factory.hpp:77] Creating layer conv1_1
I0630 10:28:07.473906 30190 net.cpp:100] Creating Layer conv1_1
I0630 10:28:07.473909 30190 net.cpp:434] conv1_1 <- data
I0630 10:28:07.473915 30190 net.cpp:408] conv1_1 -> conv1_1
I0630 10:28:08.012895 30190 net.cpp:150] Setting up conv1_1
I0630 10:28:08.012917 30190 net.cpp:157] Top shape: 4 64 576 768 (113246208)
I0630 10:28:08.012920 30190 net.cpp:165] Memory required for data: 486552988
I0630 10:28:08.012943 30190 layer_factory.hpp:77] Creating layer relu1_1
I0630 10:28:08.012953 30190 net.cpp:100] Creating Layer relu1_1
I0630 10:28:08.012959 30190 net.cpp:434] relu1_1 <- conv1_1
I0630 10:28:08.012964 30190 net.cpp:395] relu1_1 -> conv1_1 (in-place)
I0630 10:28:08.013244 30190 net.cpp:150] Setting up relu1_1
I0630 10:28:08.013252 30190 net.cpp:157] Top shape: 4 64 576 768 (113246208)
I0630 10:28:08.013255 30190 net.cpp:165] Memory required for data: 939537820
I0630 10:28:08.013258 30190 layer_factory.hpp:77] Creating layer conv1_2
I0630 10:28:08.013267 30190 net.cpp:100] Creating Layer conv1_2
I0630 10:28:08.013272 30190 net.cpp:434] conv1_2 <- conv1_1
I0630 10:28:08.013278 30190 net.cpp:408] conv1_2 -> conv1_2
I0630 10:28:08.016129 30190 net.cpp:150] Setting up conv1_2
I0630 10:28:08.016150 30190 net.cpp:157] Top shape: 4 64 576 768 (113246208)
I0630 10:28:08.016153 30190 net.cpp:165] Memory required for data: 1392522652
I0630 10:28:08.016167 30190 layer_factory.hpp:77] Creating layer relu1_2
I0630 10:28:08.016176 30190 net.cpp:100] Creating Layer relu1_2
I0630 10:28:08.016181 30190 net.cpp:434] relu1_2 <- conv1_2
I0630 10:28:08.016187 30190 net.cpp:395] relu1_2 -> conv1_2 (in-place)
I0630 10:28:08.016469 30190 net.cpp:150] Setting up relu1_2
I0630 10:28:08.016475 30190 net.cpp:157] Top shape: 4 64 576 768 (113246208)
I0630 10:28:08.016479 30190 net.cpp:165] Memory required for data: 1845507484
I0630 10:28:08.016481 30190 layer_factory.hpp:77] Creating layer pool1
I0630 10:28:08.016489 30190 net.cpp:100] Creating Layer pool1
I0630 10:28:08.016491 30190 net.cpp:434] pool1 <- conv1_2
I0630 10:28:08.016497 30190 net.cpp:408] pool1 -> pool1
I0630 10:28:08.016553 30190 net.cpp:150] Setting up pool1
I0630 10:28:08.016558 30190 net.cpp:157] Top shape: 4 64 288 384 (28311552)
I0630 10:28:08.016561 30190 net.cpp:165] Memory required for data: 1958753692
I0630 10:28:08.016564 30190 layer_factory.hpp:77] Creating layer conv2_1
I0630 10:28:08.016572 30190 net.cpp:100] Creating Layer conv2_1
I0630 10:28:08.016577 30190 net.cpp:434] conv2_1 <- pool1
I0630 10:28:08.016582 30190 net.cpp:408] conv2_1 -> conv2_1
I0630 10:28:08.019697 30190 net.cpp:150] Setting up conv2_1
I0630 10:28:08.019716 30190 net.cpp:157] Top shape: 4 128 288 384 (56623104)
I0630 10:28:08.019719 30190 net.cpp:165] Memory required for data: 2185246108
I0630 10:28:08.019734 30190 layer_factory.hpp:77] Creating layer relu2_1
I0630 10:28:08.019747 30190 net.cpp:100] Creating Layer relu2_1
I0630 10:28:08.019750 30190 net.cpp:434] relu2_1 <- conv2_1
I0630 10:28:08.019758 30190 net.cpp:395] relu2_1 -> conv2_1 (in-place)
I0630 10:28:08.020395 30190 net.cpp:150] Setting up relu2_1
I0630 10:28:08.020406 30190 net.cpp:157] Top shape: 4 128 288 384 (56623104)
I0630 10:28:08.020408 30190 net.cpp:165] Memory required for data: 2411738524
I0630 10:28:08.020412 30190 layer_factory.hpp:77] Creating layer conv2_2
I0630 10:28:08.020422 30190 net.cpp:100] Creating Layer conv2_2
I0630 10:28:08.020427 30190 net.cpp:434] conv2_2 <- conv2_1
I0630 10:28:08.020436 30190 net.cpp:408] conv2_2 -> conv2_2
I0630 10:28:08.022186 30190 net.cpp:150] Setting up conv2_2
I0630 10:28:08.022199 30190 net.cpp:157] Top shape: 4 128 288 384 (56623104)
I0630 10:28:08.022202 30190 net.cpp:165] Memory required for data: 2638230940
I0630 10:28:08.022212 30190 layer_factory.hpp:77] Creating layer relu2_2
I0630 10:28:08.022227 30190 net.cpp:100] Creating Layer relu2_2
I0630 10:28:08.022230 30190 net.cpp:434] relu2_2 <- conv2_2
I0630 10:28:08.022236 30190 net.cpp:395] relu2_2 -> conv2_2 (in-place)
I0630 10:28:08.022832 30190 net.cpp:150] Setting up relu2_2
I0630 10:28:08.022840 30190 net.cpp:157] Top shape: 4 128 288 384 (56623104)
I0630 10:28:08.022843 30190 net.cpp:165] Memory required for data: 2864723356
I0630 10:28:08.022846 30190 layer_factory.hpp:77] Creating layer pool2
I0630 10:28:08.022855 30190 net.cpp:100] Creating Layer pool2
I0630 10:28:08.022859 30190 net.cpp:434] pool2 <- conv2_2
I0630 10:28:08.022864 30190 net.cpp:408] pool2 -> pool2
I0630 10:28:08.022905 30190 net.cpp:150] Setting up pool2
I0630 10:28:08.022910 30190 net.cpp:157] Top shape: 4 128 144 192 (14155776)
I0630 10:28:08.022913 30190 net.cpp:165] Memory required for data: 2921346460
I0630 10:28:08.022917 30190 layer_factory.hpp:77] Creating layer conv3_1
I0630 10:28:08.022924 30190 net.cpp:100] Creating Layer conv3_1
I0630 10:28:08.022928 30190 net.cpp:434] conv3_1 <- pool2
I0630 10:28:08.022934 30190 net.cpp:408] conv3_1 -> conv3_1
I0630 10:28:08.025588 30190 net.cpp:150] Setting up conv3_1
I0630 10:28:08.025606 30190 net.cpp:157] Top shape: 4 256 144 192 (28311552)
I0630 10:28:08.025609 30190 net.cpp:165] Memory required for data: 3034592668
I0630 10:28:08.025629 30190 layer_factory.hpp:77] Creating layer relu3_1
I0630 10:28:08.025638 30190 net.cpp:100] Creating Layer relu3_1
I0630 10:28:08.025645 30190 net.cpp:434] relu3_1 <- conv3_1
I0630 10:28:08.025651 30190 net.cpp:395] relu3_1 -> conv3_1 (in-place)
I0630 10:28:08.025904 30190 net.cpp:150] Setting up relu3_1
I0630 10:28:08.025913 30190 net.cpp:157] Top shape: 4 256 144 192 (28311552)
I0630 10:28:08.025915 30190 net.cpp:165] Memory required for data: 3147838876
I0630 10:28:08.025918 30190 layer_factory.hpp:77] Creating layer conv3_2
I0630 10:28:08.025926 30190 net.cpp:100] Creating Layer conv3_2
I0630 10:28:08.025930 30190 net.cpp:434] conv3_2 <- conv3_1
I0630 10:28:08.025938 30190 net.cpp:408] conv3_2 -> conv3_2
I0630 10:28:08.029157 30190 net.cpp:150] Setting up conv3_2
I0630 10:28:08.029177 30190 net.cpp:157] Top shape: 4 256 144 192 (28311552)
I0630 10:28:08.029181 30190 net.cpp:165] Memory required for data: 3261085084
I0630 10:28:08.029189 30190 layer_factory.hpp:77] Creating layer relu3_2
I0630 10:28:08.029204 30190 net.cpp:100] Creating Layer relu3_2
I0630 10:28:08.029208 30190 net.cpp:434] relu3_2 <- conv3_2
I0630 10:28:08.029215 30190 net.cpp:395] relu3_2 -> conv3_2 (in-place)
I0630 10:28:08.029476 30190 net.cpp:150] Setting up relu3_2
I0630 10:28:08.029484 30190 net.cpp:157] Top shape: 4 256 144 192 (28311552)
I0630 10:28:08.029487 30190 net.cpp:165] Memory required for data: 3374331292
I0630 10:28:08.029490 30190 layer_factory.hpp:77] Creating layer conv3_3
I0630 10:28:08.029500 30190 net.cpp:100] Creating Layer conv3_3
I0630 10:28:08.029505 30190 net.cpp:434] conv3_3 <- conv3_2
I0630 10:28:08.029510 30190 net.cpp:408] conv3_3 -> conv3_3
I0630 10:28:08.032431 30190 net.cpp:150] Setting up conv3_3
I0630 10:28:08.032451 30190 net.cpp:157] Top shape: 4 256 144 192 (28311552)
I0630 10:28:08.032454 30190 net.cpp:165] Memory required for data: 3487577500
I0630 10:28:08.032464 30190 layer_factory.hpp:77] Creating layer relu3_3
I0630 10:28:08.032476 30190 net.cpp:100] Creating Layer relu3_3
I0630 10:28:08.032480 30190 net.cpp:434] relu3_3 <- conv3_3
I0630 10:28:08.032490 30190 net.cpp:395] relu3_3 -> conv3_3 (in-place)
I0630 10:28:08.033078 30190 net.cpp:150] Setting up relu3_3
I0630 10:28:08.033087 30190 net.cpp:157] Top shape: 4 256 144 192 (28311552)
I0630 10:28:08.033090 30190 net.cpp:165] Memory required for data: 3600823708
I0630 10:28:08.033093 30190 layer_factory.hpp:77] Creating layer pool3
I0630 10:28:08.033100 30190 net.cpp:100] Creating Layer pool3
I0630 10:28:08.033107 30190 net.cpp:434] pool3 <- conv3_3
I0630 10:28:08.033112 30190 net.cpp:408] pool3 -> pool3
I0630 10:28:08.033159 30190 net.cpp:150] Setting up pool3
I0630 10:28:08.033164 30190 net.cpp:157] Top shape: 4 256 72 96 (7077888)
I0630 10:28:08.033166 30190 net.cpp:165] Memory required for data: 3629135260
I0630 10:28:08.033169 30190 layer_factory.hpp:77] Creating layer conv4_1
I0630 10:28:08.033179 30190 net.cpp:100] Creating Layer conv4_1
I0630 10:28:08.033182 30190 net.cpp:434] conv4_1 <- pool3
I0630 10:28:08.033187 30190 net.cpp:408] conv4_1 -> conv4_1
I0630 10:28:08.037854 30190 net.cpp:150] Setting up conv4_1
I0630 10:28:08.037873 30190 net.cpp:157] Top shape: 4 512 72 96 (14155776)
I0630 10:28:08.037875 30190 net.cpp:165] Memory required for data: 3685758364
I0630 10:28:08.037887 30190 layer_factory.hpp:77] Creating layer relu4_1
I0630 10:28:08.037897 30190 net.cpp:100] Creating Layer relu4_1
I0630 10:28:08.037904 30190 net.cpp:434] relu4_1 <- conv4_1
I0630 10:28:08.037914 30190 net.cpp:395] relu4_1 -> conv4_1 (in-place)
I0630 10:28:08.038162 30190 net.cpp:150] Setting up relu4_1
I0630 10:28:08.038169 30190 net.cpp:157] Top shape: 4 512 72 96 (14155776)
I0630 10:28:08.038172 30190 net.cpp:165] Memory required for data: 3742381468
I0630 10:28:08.038175 30190 layer_factory.hpp:77] Creating layer conv4_2
I0630 10:28:08.038184 30190 net.cpp:100] Creating Layer conv4_2
I0630 10:28:08.038188 30190 net.cpp:434] conv4_2 <- conv4_1
I0630 10:28:08.038193 30190 net.cpp:408] conv4_2 -> conv4_2
I0630 10:28:08.043889 30190 net.cpp:150] Setting up conv4_2
I0630 10:28:08.043911 30190 net.cpp:157] Top shape: 4 512 72 96 (14155776)
I0630 10:28:08.043915 30190 net.cpp:165] Memory required for data: 3799004572
I0630 10:28:08.043928 30190 layer_factory.hpp:77] Creating layer relu4_2
I0630 10:28:08.043938 30190 net.cpp:100] Creating Layer relu4_2
I0630 10:28:08.043946 30190 net.cpp:434] relu4_2 <- conv4_2
I0630 10:28:08.043956 30190 net.cpp:395] relu4_2 -> conv4_2 (in-place)
I0630 10:28:08.044190 30190 net.cpp:150] Setting up relu4_2
I0630 10:28:08.044198 30190 net.cpp:157] Top shape: 4 512 72 96 (14155776)
I0630 10:28:08.044200 30190 net.cpp:165] Memory required for data: 3855627676
I0630 10:28:08.044203 30190 layer_factory.hpp:77] Creating layer conv4_3
I0630 10:28:08.044214 30190 net.cpp:100] Creating Layer conv4_3
I0630 10:28:08.044216 30190 net.cpp:434] conv4_3 <- conv4_2
I0630 10:28:08.044224 30190 net.cpp:408] conv4_3 -> conv4_3
I0630 10:28:08.049571 30190 net.cpp:150] Setting up conv4_3
I0630 10:28:08.049589 30190 net.cpp:157] Top shape: 4 512 72 96 (14155776)
I0630 10:28:08.049592 30190 net.cpp:165] Memory required for data: 3912250780
I0630 10:28:08.049602 30190 layer_factory.hpp:77] Creating layer relu4_3
I0630 10:28:08.049612 30190 net.cpp:100] Creating Layer relu4_3
I0630 10:28:08.049618 30190 net.cpp:434] relu4_3 <- conv4_3
I0630 10:28:08.049626 30190 net.cpp:395] relu4_3 -> conv4_3 (in-place)
I0630 10:28:08.050271 30190 net.cpp:150] Setting up relu4_3
I0630 10:28:08.050281 30190 net.cpp:157] Top shape: 4 512 72 96 (14155776)
I0630 10:28:08.050283 30190 net.cpp:165] Memory required for data: 3968873884
I0630 10:28:08.050287 30190 layer_factory.hpp:77] Creating layer conv4_3_relu4_3_0_split
I0630 10:28:08.050293 30190 net.cpp:100] Creating Layer conv4_3_relu4_3_0_split
I0630 10:28:08.050297 30190 net.cpp:434] conv4_3_relu4_3_0_split <- conv4_3
I0630 10:28:08.050304 30190 net.cpp:408] conv4_3_relu4_3_0_split -> conv4_3_relu4_3_0_split_0
I0630 10:28:08.050313 30190 net.cpp:408] conv4_3_relu4_3_0_split -> conv4_3_relu4_3_0_split_1
I0630 10:28:08.050321 30190 net.cpp:408] conv4_3_relu4_3_0_split -> conv4_3_relu4_3_0_split_2
I0630 10:28:08.050372 30190 net.cpp:150] Setting up conv4_3_relu4_3_0_split
I0630 10:28:08.050379 30190 net.cpp:157] Top shape: 4 512 72 96 (14155776)
I0630 10:28:08.050382 30190 net.cpp:157] Top shape: 4 512 72 96 (14155776)
I0630 10:28:08.050386 30190 net.cpp:157] Top shape: 4 512 72 96 (14155776)
I0630 10:28:08.050388 30190 net.cpp:165] Memory required for data: 4138743196
I0630 10:28:08.050392 30190 layer_factory.hpp:77] Creating layer loss1_conv1
I0630 10:28:08.050407 30190 net.cpp:100] Creating Layer loss1_conv1
I0630 10:28:08.050411 30190 net.cpp:434] loss1_conv1 <- conv4_3_relu4_3_0_split_0
I0630 10:28:08.050417 30190 net.cpp:408] loss1_conv1 -> loss1_conv1
I0630 10:28:08.084218 30190 net.cpp:150] Setting up loss1_conv1
I0630 10:28:08.084239 30190 net.cpp:157] Top shape: 4 512 72 96 (14155776)
I0630 10:28:08.084241 30190 net.cpp:165] Memory required for data: 4195366300
I0630 10:28:08.084250 30190 layer_factory.hpp:77] Creating layer loss_relu1
I0630 10:28:08.084259 30190 net.cpp:100] Creating Layer loss_relu1
I0630 10:28:08.084266 30190 net.cpp:434] loss_relu1 <- loss1_conv1
I0630 10:28:08.084273 30190 net.cpp:395] loss_relu1 -> loss1_conv1 (in-place)
I0630 10:28:08.084511 30190 net.cpp:150] Setting up loss_relu1
I0630 10:28:08.084518 30190 net.cpp:157] Top shape: 4 512 72 96 (14155776)
I0630 10:28:08.084522 30190 net.cpp:165] Memory required for data: 4251989404
I0630 10:28:08.084524 30190 layer_factory.hpp:77] Creating layer loss1_conv1_loss_relu1_0_split
I0630 10:28:08.084532 30190 net.cpp:100] Creating Layer loss1_conv1_loss_relu1_0_split
I0630 10:28:08.084535 30190 net.cpp:434] loss1_conv1_loss_relu1_0_split <- loss1_conv1
I0630 10:28:08.084542 30190 net.cpp:408] loss1_conv1_loss_relu1_0_split -> loss1_conv1_loss_relu1_0_split_0
I0630 10:28:08.084548 30190 net.cpp:408] loss1_conv1_loss_relu1_0_split -> loss1_conv1_loss_relu1_0_split_1
I0630 10:28:08.084587 30190 net.cpp:150] Setting up loss1_conv1_loss_relu1_0_split
I0630 10:28:08.084594 30190 net.cpp:157] Top shape: 4 512 72 96 (14155776)
I0630 10:28:08.084599 30190 net.cpp:157] Top shape: 4 512 72 96 (14155776)
I0630 10:28:08.084600 30190 net.cpp:165] Memory required for data: 4365235612
I0630 10:28:08.084604 30190 layer_factory.hpp:77] Creating layer LFCN_1_3x5
I0630 10:28:08.084614 30190 net.cpp:100] Creating Layer LFCN_1_3x5
I0630 10:28:08.084617 30190 net.cpp:434] LFCN_1_3x5 <- loss1_conv1_loss_relu1_0_split_0
I0630 10:28:08.084623 30190 net.cpp:408] LFCN_1_3x5 -> LFCN_1_3x5
I0630 10:28:08.086745 30190 net.cpp:150] Setting up LFCN_1_3x5
I0630 10:28:08.086758 30190 net.cpp:157] Top shape: 4 7 72 96 (193536)
I0630 10:28:08.086761 30190 net.cpp:165] Memory required for data: 4366009756
I0630 10:28:08.086769 30190 layer_factory.hpp:77] Creating layer LFCN_1_3x5_LFCN_1_3x5_0_split
I0630 10:28:08.086777 30190 net.cpp:100] Creating Layer LFCN_1_3x5_LFCN_1_3x5_0_split
I0630 10:28:08.086783 30190 net.cpp:434] LFCN_1_3x5_LFCN_1_3x5_0_split <- LFCN_1_3x5
I0630 10:28:08.086791 30190 net.cpp:408] LFCN_1_3x5_LFCN_1_3x5_0_split -> LFCN_1_3x5_LFCN_1_3x5_0_split_0
I0630 10:28:08.086800 30190 net.cpp:408] LFCN_1_3x5_LFCN_1_3x5_0_split -> LFCN_1_3x5_LFCN_1_3x5_0_split_1
I0630 10:28:08.086807 30190 net.cpp:408] LFCN_1_3x5_LFCN_1_3x5_0_split -> LFCN_1_3x5_LFCN_1_3x5_0_split_2
I0630 10:28:08.086853 30190 net.cpp:150] Setting up LFCN_1_3x5_LFCN_1_3x5_0_split
I0630 10:28:08.086858 30190 net.cpp:157] Top shape: 4 7 72 96 (193536)
I0630 10:28:08.086861 30190 net.cpp:157] Top shape: 4 7 72 96 (193536)
I0630 10:28:08.086865 30190 net.cpp:157] Top shape: 4 7 72 96 (193536)
I0630 10:28:08.086869 30190 net.cpp:165] Memory required for data: 4368332188
I0630 10:28:08.086871 30190 layer_factory.hpp:77] Creating layer detection_loss_1_3x5
I0630 10:28:08.086879 30190 net.cpp:100] Creating Layer detection_loss_1_3x5
I0630 10:28:08.086882 30190 net.cpp:434] detection_loss_1_3x5 <- LFCN_1_3x5_LFCN_1_3x5_0_split_0
I0630 10:28:08.086887 30190 net.cpp:434] detection_loss_1_3x5 <- label_1_3x5_data_1_split_0
I0630 10:28:08.086894 30190 net.cpp:408] detection_loss_1_3x5 -> loss_1_3x5
I0630 10:28:08.086907 30190 layer_factory.hpp:77] Creating layer detection_loss_1_3x5
I0630 10:28:08.087323 30190 net.cpp:150] Setting up detection_loss_1_3x5
I0630 10:28:08.087330 30190 net.cpp:157] Top shape: 1 1 1 2 (2)
I0630 10:28:08.087333 30190 net.cpp:160]     with loss weight 0.5
I0630 10:28:08.087349 30190 net.cpp:165] Memory required for data: 4368332196
I0630 10:28:08.087352 30190 layer_factory.hpp:77] Creating layer detection_accuracy_1_3x5
I0630 10:28:08.087360 30190 net.cpp:100] Creating Layer detection_accuracy_1_3x5
I0630 10:28:08.087364 30190 net.cpp:434] detection_accuracy_1_3x5 <- LFCN_1_3x5_LFCN_1_3x5_0_split_1
I0630 10:28:08.087369 30190 net.cpp:434] detection_accuracy_1_3x5 <- label_1_3x5_data_1_split_1
I0630 10:28:08.087375 30190 net.cpp:408] detection_accuracy_1_3x5 -> accuracy_1_3x5
I0630 10:28:08.087384 30190 net.cpp:408] detection_accuracy_1_3x5 -> boxiou_1_3x5
I0630 10:28:08.087422 30190 net.cpp:150] Setting up detection_accuracy_1_3x5
I0630 10:28:08.087427 30190 net.cpp:157] Top shape: 1 1 1 2 (2)
I0630 10:28:08.087430 30190 net.cpp:157] Top shape: 1 1 1 1 (1)
I0630 10:28:08.087433 30190 net.cpp:165] Memory required for data: 4368332208
I0630 10:28:08.087436 30190 layer_factory.hpp:77] Creating layer LFCN_1_5x7
I0630 10:28:08.087445 30190 net.cpp:100] Creating Layer LFCN_1_5x7
I0630 10:28:08.087450 30190 net.cpp:434] LFCN_1_5x7 <- loss1_conv1_loss_relu1_0_split_1
I0630 10:28:08.087458 30190 net.cpp:408] LFCN_1_5x7 -> LFCN_1_5x7
I0630 10:28:08.089715 30190 net.cpp:150] Setting up LFCN_1_5x7
I0630 10:28:08.089727 30190 net.cpp:157] Top shape: 4 7 72 96 (193536)
I0630 10:28:08.089730 30190 net.cpp:165] Memory required for data: 4369106352
I0630 10:28:08.089738 30190 layer_factory.hpp:77] Creating layer LFCN_1_5x7_LFCN_1_5x7_0_split
I0630 10:28:08.089747 30190 net.cpp:100] Creating Layer LFCN_1_5x7_LFCN_1_5x7_0_split
I0630 10:28:08.089751 30190 net.cpp:434] LFCN_1_5x7_LFCN_1_5x7_0_split <- LFCN_1_5x7
I0630 10:28:08.089756 30190 net.cpp:408] LFCN_1_5x7_LFCN_1_5x7_0_split -> LFCN_1_5x7_LFCN_1_5x7_0_split_0
I0630 10:28:08.089766 30190 net.cpp:408] LFCN_1_5x7_LFCN_1_5x7_0_split -> LFCN_1_5x7_LFCN_1_5x7_0_split_1
I0630 10:28:08.089773 30190 net.cpp:408] LFCN_1_5x7_LFCN_1_5x7_0_split -> LFCN_1_5x7_LFCN_1_5x7_0_split_2
I0630 10:28:08.089821 30190 net.cpp:150] Setting up LFCN_1_5x7_LFCN_1_5x7_0_split
I0630 10:28:08.089826 30190 net.cpp:157] Top shape: 4 7 72 96 (193536)
I0630 10:28:08.089830 30190 net.cpp:157] Top shape: 4 7 72 96 (193536)
I0630 10:28:08.089834 30190 net.cpp:157] Top shape: 4 7 72 96 (193536)
I0630 10:28:08.089836 30190 net.cpp:165] Memory required for data: 4371428784
I0630 10:28:08.089839 30190 layer_factory.hpp:77] Creating layer detection_loss_1_5x7
I0630 10:28:08.089848 30190 net.cpp:100] Creating Layer detection_loss_1_5x7
I0630 10:28:08.089853 30190 net.cpp:434] detection_loss_1_5x7 <- LFCN_1_5x7_LFCN_1_5x7_0_split_0
I0630 10:28:08.089856 30190 net.cpp:434] detection_loss_1_5x7 <- label_1_5x7_data_2_split_0
I0630 10:28:08.089865 30190 net.cpp:408] detection_loss_1_5x7 -> loss_1_5x7
I0630 10:28:08.089874 30190 layer_factory.hpp:77] Creating layer detection_loss_1_5x7
I0630 10:28:08.090698 30190 net.cpp:150] Setting up detection_loss_1_5x7
I0630 10:28:08.090708 30190 net.cpp:157] Top shape: 1 1 1 2 (2)
I0630 10:28:08.090711 30190 net.cpp:160]     with loss weight 0.9
I0630 10:28:08.090720 30190 net.cpp:165] Memory required for data: 4371428792
I0630 10:28:08.090724 30190 layer_factory.hpp:77] Creating layer detection_accuracy_1_5x7
I0630 10:28:08.090731 30190 net.cpp:100] Creating Layer detection_accuracy_1_5x7
I0630 10:28:08.090736 30190 net.cpp:434] detection_accuracy_1_5x7 <- LFCN_1_5x7_LFCN_1_5x7_0_split_1
I0630 10:28:08.090741 30190 net.cpp:434] detection_accuracy_1_5x7 <- label_1_5x7_data_2_split_1
I0630 10:28:08.090749 30190 net.cpp:408] detection_accuracy_1_5x7 -> accuracy_1_5x7
I0630 10:28:08.090756 30190 net.cpp:408] detection_accuracy_1_5x7 -> boxiou_1_5x7
I0630 10:28:08.090795 30190 net.cpp:150] Setting up detection_accuracy_1_5x7
I0630 10:28:08.090801 30190 net.cpp:157] Top shape: 1 1 1 2 (2)
I0630 10:28:08.090804 30190 net.cpp:157] Top shape: 1 1 1 1 (1)
I0630 10:28:08.090806 30190 net.cpp:165] Memory required for data: 4371428804
I0630 10:28:08.090809 30190 layer_factory.hpp:77] Creating layer pool4
I0630 10:28:08.090817 30190 net.cpp:100] Creating Layer pool4
I0630 10:28:08.090821 30190 net.cpp:434] pool4 <- conv4_3_relu4_3_0_split_1
I0630 10:28:08.090827 30190 net.cpp:408] pool4 -> pool4
I0630 10:28:08.090862 30190 net.cpp:150] Setting up pool4
I0630 10:28:08.090867 30190 net.cpp:157] Top shape: 4 512 36 48 (3538944)
I0630 10:28:08.090870 30190 net.cpp:165] Memory required for data: 4385584580
I0630 10:28:08.090873 30190 layer_factory.hpp:77] Creating layer conv5_1
I0630 10:28:08.090880 30190 net.cpp:100] Creating Layer conv5_1
I0630 10:28:08.090884 30190 net.cpp:434] conv5_1 <- pool4
I0630 10:28:08.090889 30190 net.cpp:408] conv5_1 -> conv5_1
I0630 10:28:08.096673 30190 net.cpp:150] Setting up conv5_1
I0630 10:28:08.096694 30190 net.cpp:157] Top shape: 4 512 36 48 (3538944)
I0630 10:28:08.096698 30190 net.cpp:165] Memory required for data: 4399740356
I0630 10:28:08.096707 30190 layer_factory.hpp:77] Creating layer relu5_1
I0630 10:28:08.096720 30190 net.cpp:100] Creating Layer relu5_1
I0630 10:28:08.096725 30190 net.cpp:434] relu5_1 <- conv5_1
I0630 10:28:08.096735 30190 net.cpp:395] relu5_1 -> conv5_1 (in-place)
I0630 10:28:08.097378 30190 net.cpp:150] Setting up relu5_1
I0630 10:28:08.097388 30190 net.cpp:157] Top shape: 4 512 36 48 (3538944)
I0630 10:28:08.097390 30190 net.cpp:165] Memory required for data: 4413896132
I0630 10:28:08.097394 30190 layer_factory.hpp:77] Creating layer conv5_2
I0630 10:28:08.097404 30190 net.cpp:100] Creating Layer conv5_2
I0630 10:28:08.097409 30190 net.cpp:434] conv5_2 <- conv5_1
I0630 10:28:08.097415 30190 net.cpp:408] conv5_2 -> conv5_2
I0630 10:28:08.103201 30190 net.cpp:150] Setting up conv5_2
I0630 10:28:08.103222 30190 net.cpp:157] Top shape: 4 512 36 48 (3538944)
I0630 10:28:08.103225 30190 net.cpp:165] Memory required for data: 4428051908
I0630 10:28:08.103236 30190 layer_factory.hpp:77] Creating layer relu5_2
I0630 10:28:08.103250 30190 net.cpp:100] Creating Layer relu5_2
I0630 10:28:08.103255 30190 net.cpp:434] relu5_2 <- conv5_2
I0630 10:28:08.103263 30190 net.cpp:395] relu5_2 -> conv5_2 (in-place)
I0630 10:28:08.103508 30190 net.cpp:150] Setting up relu5_2
I0630 10:28:08.103516 30190 net.cpp:157] Top shape: 4 512 36 48 (3538944)
I0630 10:28:08.103519 30190 net.cpp:165] Memory required for data: 4442207684
I0630 10:28:08.103523 30190 layer_factory.hpp:77] Creating layer conv5_3
I0630 10:28:08.103530 30190 net.cpp:100] Creating Layer conv5_3
I0630 10:28:08.103534 30190 net.cpp:434] conv5_3 <- conv5_2
I0630 10:28:08.103541 30190 net.cpp:408] conv5_3 -> conv5_3
I0630 10:28:08.109329 30190 net.cpp:150] Setting up conv5_3
I0630 10:28:08.109350 30190 net.cpp:157] Top shape: 4 512 36 48 (3538944)
I0630 10:28:08.109354 30190 net.cpp:165] Memory required for data: 4456363460
I0630 10:28:08.109364 30190 layer_factory.hpp:77] Creating layer relu5_3
I0630 10:28:08.109374 30190 net.cpp:100] Creating Layer relu5_3
I0630 10:28:08.109380 30190 net.cpp:434] relu5_3 <- conv5_3
I0630 10:28:08.109387 30190 net.cpp:395] relu5_3 -> conv5_3 (in-place)
I0630 10:28:08.109632 30190 net.cpp:150] Setting up relu5_3
I0630 10:28:08.109639 30190 net.cpp:157] Top shape: 4 512 36 48 (3538944)
I0630 10:28:08.109642 30190 net.cpp:165] Memory required for data: 4470519236
I0630 10:28:08.109645 30190 layer_factory.hpp:77] Creating layer conv5_3_relu5_3_0_split
I0630 10:28:08.109650 30190 net.cpp:100] Creating Layer conv5_3_relu5_3_0_split
I0630 10:28:08.109653 30190 net.cpp:434] conv5_3_relu5_3_0_split <- conv5_3
I0630 10:28:08.109660 30190 net.cpp:408] conv5_3_relu5_3_0_split -> conv5_3_relu5_3_0_split_0
I0630 10:28:08.109668 30190 net.cpp:408] conv5_3_relu5_3_0_split -> conv5_3_relu5_3_0_split_1
I0630 10:28:08.109676 30190 net.cpp:408] conv5_3_relu5_3_0_split -> conv5_3_relu5_3_0_split_2
I0630 10:28:08.109727 30190 net.cpp:150] Setting up conv5_3_relu5_3_0_split
I0630 10:28:08.109732 30190 net.cpp:157] Top shape: 4 512 36 48 (3538944)
I0630 10:28:08.109736 30190 net.cpp:157] Top shape: 4 512 36 48 (3538944)
I0630 10:28:08.109740 30190 net.cpp:157] Top shape: 4 512 36 48 (3538944)
I0630 10:28:08.109743 30190 net.cpp:165] Memory required for data: 4512986564
I0630 10:28:08.109746 30190 layer_factory.hpp:77] Creating layer LFCN_2_3x5
I0630 10:28:08.109756 30190 net.cpp:100] Creating Layer LFCN_2_3x5
I0630 10:28:08.109760 30190 net.cpp:434] LFCN_2_3x5 <- conv5_3_relu5_3_0_split_0
I0630 10:28:08.109767 30190 net.cpp:408] LFCN_2_3x5 -> LFCN_2_3x5
I0630 10:28:08.111497 30190 net.cpp:150] Setting up LFCN_2_3x5
I0630 10:28:08.111508 30190 net.cpp:157] Top shape: 4 7 36 48 (48384)
I0630 10:28:08.111511 30190 net.cpp:165] Memory required for data: 4513180100
I0630 10:28:08.111526 30190 layer_factory.hpp:77] Creating layer LFCN_2_3x5_LFCN_2_3x5_0_split
I0630 10:28:08.111533 30190 net.cpp:100] Creating Layer LFCN_2_3x5_LFCN_2_3x5_0_split
I0630 10:28:08.111537 30190 net.cpp:434] LFCN_2_3x5_LFCN_2_3x5_0_split <- LFCN_2_3x5
I0630 10:28:08.111546 30190 net.cpp:408] LFCN_2_3x5_LFCN_2_3x5_0_split -> LFCN_2_3x5_LFCN_2_3x5_0_split_0
I0630 10:28:08.111562 30190 net.cpp:408] LFCN_2_3x5_LFCN_2_3x5_0_split -> LFCN_2_3x5_LFCN_2_3x5_0_split_1
I0630 10:28:08.111569 30190 net.cpp:408] LFCN_2_3x5_LFCN_2_3x5_0_split -> LFCN_2_3x5_LFCN_2_3x5_0_split_2
I0630 10:28:08.111618 30190 net.cpp:150] Setting up LFCN_2_3x5_LFCN_2_3x5_0_split
I0630 10:28:08.111625 30190 net.cpp:157] Top shape: 4 7 36 48 (48384)
I0630 10:28:08.111630 30190 net.cpp:157] Top shape: 4 7 36 48 (48384)
I0630 10:28:08.111634 30190 net.cpp:157] Top shape: 4 7 36 48 (48384)
I0630 10:28:08.111637 30190 net.cpp:165] Memory required for data: 4513760708
I0630 10:28:08.111640 30190 layer_factory.hpp:77] Creating layer detection_loss_2_3x5
I0630 10:28:08.111646 30190 net.cpp:100] Creating Layer detection_loss_2_3x5
I0630 10:28:08.111650 30190 net.cpp:434] detection_loss_2_3x5 <- LFCN_2_3x5_LFCN_2_3x5_0_split_0
I0630 10:28:08.111655 30190 net.cpp:434] detection_loss_2_3x5 <- label_2_3x5_data_3_split_0
I0630 10:28:08.111662 30190 net.cpp:408] detection_loss_2_3x5 -> loss_2_3x5
I0630 10:28:08.111671 30190 layer_factory.hpp:77] Creating layer detection_loss_2_3x5
I0630 10:28:08.112470 30190 net.cpp:150] Setting up detection_loss_2_3x5
I0630 10:28:08.112478 30190 net.cpp:157] Top shape: 1 1 1 2 (2)
I0630 10:28:08.112481 30190 net.cpp:160]     with loss weight 1
I0630 10:28:08.112493 30190 net.cpp:165] Memory required for data: 4513760716
I0630 10:28:08.112495 30190 layer_factory.hpp:77] Creating layer detection_accuracy_2_3x5
I0630 10:28:08.112502 30190 net.cpp:100] Creating Layer detection_accuracy_2_3x5
I0630 10:28:08.112507 30190 net.cpp:434] detection_accuracy_2_3x5 <- LFCN_2_3x5_LFCN_2_3x5_0_split_1
I0630 10:28:08.112512 30190 net.cpp:434] detection_accuracy_2_3x5 <- label_2_3x5_data_3_split_1
I0630 10:28:08.112522 30190 net.cpp:408] detection_accuracy_2_3x5 -> accuracy_2_3x5
I0630 10:28:08.112529 30190 net.cpp:408] detection_accuracy_2_3x5 -> boxiou_2_3x5
I0630 10:28:08.112568 30190 net.cpp:150] Setting up detection_accuracy_2_3x5
I0630 10:28:08.112573 30190 net.cpp:157] Top shape: 1 1 1 2 (2)
I0630 10:28:08.112576 30190 net.cpp:157] Top shape: 1 1 1 1 (1)
I0630 10:28:08.112579 30190 net.cpp:165] Memory required for data: 4513760728
I0630 10:28:08.112582 30190 layer_factory.hpp:77] Creating layer LFCN_2_5x7
I0630 10:28:08.112592 30190 net.cpp:100] Creating Layer LFCN_2_5x7
I0630 10:28:08.112596 30190 net.cpp:434] LFCN_2_5x7 <- conv5_3_relu5_3_0_split_1
I0630 10:28:08.112601 30190 net.cpp:408] LFCN_2_5x7 -> LFCN_2_5x7
I0630 10:28:08.115790 30190 net.cpp:150] Setting up LFCN_2_5x7
I0630 10:28:08.115808 30190 net.cpp:157] Top shape: 4 7 36 48 (48384)
I0630 10:28:08.115811 30190 net.cpp:165] Memory required for data: 4513954264
I0630 10:28:08.115820 30190 layer_factory.hpp:77] Creating layer LFCN_2_5x7_LFCN_2_5x7_0_split
I0630 10:28:08.115833 30190 net.cpp:100] Creating Layer LFCN_2_5x7_LFCN_2_5x7_0_split
I0630 10:28:08.115839 30190 net.cpp:434] LFCN_2_5x7_LFCN_2_5x7_0_split <- LFCN_2_5x7
I0630 10:28:08.115845 30190 net.cpp:408] LFCN_2_5x7_LFCN_2_5x7_0_split -> LFCN_2_5x7_LFCN_2_5x7_0_split_0
I0630 10:28:08.115856 30190 net.cpp:408] LFCN_2_5x7_LFCN_2_5x7_0_split -> LFCN_2_5x7_LFCN_2_5x7_0_split_1
I0630 10:28:08.115864 30190 net.cpp:408] LFCN_2_5x7_LFCN_2_5x7_0_split -> LFCN_2_5x7_LFCN_2_5x7_0_split_2
I0630 10:28:08.115916 30190 net.cpp:150] Setting up LFCN_2_5x7_LFCN_2_5x7_0_split
I0630 10:28:08.115922 30190 net.cpp:157] Top shape: 4 7 36 48 (48384)
I0630 10:28:08.115926 30190 net.cpp:157] Top shape: 4 7 36 48 (48384)
I0630 10:28:08.115929 30190 net.cpp:157] Top shape: 4 7 36 48 (48384)
I0630 10:28:08.115932 30190 net.cpp:165] Memory required for data: 4514534872
I0630 10:28:08.115936 30190 layer_factory.hpp:77] Creating layer detection_loss_2_5x7
I0630 10:28:08.115943 30190 net.cpp:100] Creating Layer detection_loss_2_5x7
I0630 10:28:08.115947 30190 net.cpp:434] detection_loss_2_5x7 <- LFCN_2_5x7_LFCN_2_5x7_0_split_0
I0630 10:28:08.115953 30190 net.cpp:434] detection_loss_2_5x7 <- label_2_5x7_data_4_split_0
I0630 10:28:08.115962 30190 net.cpp:408] detection_loss_2_5x7 -> loss_2_5x7
I0630 10:28:08.115972 30190 layer_factory.hpp:77] Creating layer detection_loss_2_5x7
I0630 10:28:08.116372 30190 net.cpp:150] Setting up detection_loss_2_5x7
I0630 10:28:08.116379 30190 net.cpp:157] Top shape: 1 1 1 2 (2)
I0630 10:28:08.116382 30190 net.cpp:160]     with loss weight 1
I0630 10:28:08.116391 30190 net.cpp:165] Memory required for data: 4514534880
I0630 10:28:08.116394 30190 layer_factory.hpp:77] Creating layer detection_accuracy_2_5x7
I0630 10:28:08.116400 30190 net.cpp:100] Creating Layer detection_accuracy_2_5x7
I0630 10:28:08.116405 30190 net.cpp:434] detection_accuracy_2_5x7 <- LFCN_2_5x7_LFCN_2_5x7_0_split_1
I0630 10:28:08.116410 30190 net.cpp:434] detection_accuracy_2_5x7 <- label_2_5x7_data_4_split_1
I0630 10:28:08.116417 30190 net.cpp:408] detection_accuracy_2_5x7 -> accuracy_2_5x7
I0630 10:28:08.116425 30190 net.cpp:408] detection_accuracy_2_5x7 -> boxiou_2_5x7
I0630 10:28:08.116463 30190 net.cpp:150] Setting up detection_accuracy_2_5x7
I0630 10:28:08.116468 30190 net.cpp:157] Top shape: 1 1 1 2 (2)
I0630 10:28:08.116472 30190 net.cpp:157] Top shape: 1 1 1 1 (1)
I0630 10:28:08.116474 30190 net.cpp:165] Memory required for data: 4514534892
I0630 10:28:08.116477 30190 layer_factory.hpp:77] Creating layer pool5
I0630 10:28:08.116484 30190 net.cpp:100] Creating Layer pool5
I0630 10:28:08.116489 30190 net.cpp:434] pool5 <- conv5_3_relu5_3_0_split_2
I0630 10:28:08.116495 30190 net.cpp:408] pool5 -> pool5
I0630 10:28:08.116529 30190 net.cpp:150] Setting up pool5
I0630 10:28:08.116534 30190 net.cpp:157] Top shape: 4 512 18 24 (884736)
I0630 10:28:08.116538 30190 net.cpp:165] Memory required for data: 4518073836
I0630 10:28:08.116540 30190 layer_factory.hpp:77] Creating layer conv6_1
I0630 10:28:08.116551 30190 net.cpp:100] Creating Layer conv6_1
I0630 10:28:08.116555 30190 net.cpp:434] conv6_1 <- pool5
I0630 10:28:08.116561 30190 net.cpp:408] conv6_1 -> conv6_1
I0630 10:28:08.137158 30190 net.cpp:150] Setting up conv6_1
I0630 10:28:08.137177 30190 net.cpp:157] Top shape: 4 512 18 24 (884736)
I0630 10:28:08.137182 30190 net.cpp:165] Memory required for data: 4521612780
I0630 10:28:08.137192 30190 layer_factory.hpp:77] Creating layer relu6_1
I0630 10:28:08.137203 30190 net.cpp:100] Creating Layer relu6_1
I0630 10:28:08.137209 30190 net.cpp:434] relu6_1 <- conv6_1
I0630 10:28:08.137215 30190 net.cpp:395] relu6_1 -> conv6_1 (in-place)
I0630 10:28:08.137467 30190 net.cpp:150] Setting up relu6_1
I0630 10:28:08.137475 30190 net.cpp:157] Top shape: 4 512 18 24 (884736)
I0630 10:28:08.137478 30190 net.cpp:165] Memory required for data: 4525151724
I0630 10:28:08.137482 30190 layer_factory.hpp:77] Creating layer conv6_1_relu6_1_0_split
I0630 10:28:08.137487 30190 net.cpp:100] Creating Layer conv6_1_relu6_1_0_split
I0630 10:28:08.137492 30190 net.cpp:434] conv6_1_relu6_1_0_split <- conv6_1
I0630 10:28:08.137498 30190 net.cpp:408] conv6_1_relu6_1_0_split -> conv6_1_relu6_1_0_split_0
I0630 10:28:08.137506 30190 net.cpp:408] conv6_1_relu6_1_0_split -> conv6_1_relu6_1_0_split_1
I0630 10:28:08.137513 30190 net.cpp:408] conv6_1_relu6_1_0_split -> conv6_1_relu6_1_0_split_2
I0630 10:28:08.137565 30190 net.cpp:150] Setting up conv6_1_relu6_1_0_split
I0630 10:28:08.137571 30190 net.cpp:157] Top shape: 4 512 18 24 (884736)
I0630 10:28:08.137575 30190 net.cpp:157] Top shape: 4 512 18 24 (884736)
I0630 10:28:08.137579 30190 net.cpp:157] Top shape: 4 512 18 24 (884736)
I0630 10:28:08.137581 30190 net.cpp:165] Memory required for data: 4535768556
I0630 10:28:08.137585 30190 layer_factory.hpp:77] Creating layer LFCN_3_3x5
I0630 10:28:08.137594 30190 net.cpp:100] Creating Layer LFCN_3_3x5
I0630 10:28:08.137598 30190 net.cpp:434] LFCN_3_3x5 <- conv6_1_relu6_1_0_split_0
I0630 10:28:08.137606 30190 net.cpp:408] LFCN_3_3x5 -> LFCN_3_3x5
I0630 10:28:08.140246 30190 net.cpp:150] Setting up LFCN_3_3x5
I0630 10:28:08.140266 30190 net.cpp:157] Top shape: 4 7 18 24 (12096)
I0630 10:28:08.140269 30190 net.cpp:165] Memory required for data: 4535816940
I0630 10:28:08.140278 30190 layer_factory.hpp:77] Creating layer LFCN_3_3x5_LFCN_3_3x5_0_split
I0630 10:28:08.140300 30190 net.cpp:100] Creating Layer LFCN_3_3x5_LFCN_3_3x5_0_split
I0630 10:28:08.140311 30190 net.cpp:434] LFCN_3_3x5_LFCN_3_3x5_0_split <- LFCN_3_3x5
I0630 10:28:08.140318 30190 net.cpp:408] LFCN_3_3x5_LFCN_3_3x5_0_split -> LFCN_3_3x5_LFCN_3_3x5_0_split_0
I0630 10:28:08.140329 30190 net.cpp:408] LFCN_3_3x5_LFCN_3_3x5_0_split -> LFCN_3_3x5_LFCN_3_3x5_0_split_1
I0630 10:28:08.140336 30190 net.cpp:408] LFCN_3_3x5_LFCN_3_3x5_0_split -> LFCN_3_3x5_LFCN_3_3x5_0_split_2
I0630 10:28:08.140388 30190 net.cpp:150] Setting up LFCN_3_3x5_LFCN_3_3x5_0_split
I0630 10:28:08.140394 30190 net.cpp:157] Top shape: 4 7 18 24 (12096)
I0630 10:28:08.140398 30190 net.cpp:157] Top shape: 4 7 18 24 (12096)
I0630 10:28:08.140401 30190 net.cpp:157] Top shape: 4 7 18 24 (12096)
I0630 10:28:08.140403 30190 net.cpp:165] Memory required for data: 4535962092
I0630 10:28:08.140406 30190 layer_factory.hpp:77] Creating layer detection_loss_3_3x5
I0630 10:28:08.140414 30190 net.cpp:100] Creating Layer detection_loss_3_3x5
I0630 10:28:08.140419 30190 net.cpp:434] detection_loss_3_3x5 <- LFCN_3_3x5_LFCN_3_3x5_0_split_0
I0630 10:28:08.140424 30190 net.cpp:434] detection_loss_3_3x5 <- label_3_3x5_data_5_split_0
I0630 10:28:08.140431 30190 net.cpp:408] detection_loss_3_3x5 -> loss_3_3x5
I0630 10:28:08.140440 30190 layer_factory.hpp:77] Creating layer detection_loss_3_3x5
I0630 10:28:08.141286 30190 net.cpp:150] Setting up detection_loss_3_3x5
I0630 10:28:08.141296 30190 net.cpp:157] Top shape: 1 1 1 2 (2)
I0630 10:28:08.141299 30190 net.cpp:160]     with loss weight 1
I0630 10:28:08.141309 30190 net.cpp:165] Memory required for data: 4535962100
I0630 10:28:08.141312 30190 layer_factory.hpp:77] Creating layer detection_accuracy_3_3x5
I0630 10:28:08.141320 30190 net.cpp:100] Creating Layer detection_accuracy_3_3x5
I0630 10:28:08.141325 30190 net.cpp:434] detection_accuracy_3_3x5 <- LFCN_3_3x5_LFCN_3_3x5_0_split_1
I0630 10:28:08.141330 30190 net.cpp:434] detection_accuracy_3_3x5 <- label_3_3x5_data_5_split_1
I0630 10:28:08.141336 30190 net.cpp:408] detection_accuracy_3_3x5 -> accuracy_3_3x5
I0630 10:28:08.141345 30190 net.cpp:408] detection_accuracy_3_3x5 -> boxiou_3_3x5
I0630 10:28:08.141383 30190 net.cpp:150] Setting up detection_accuracy_3_3x5
I0630 10:28:08.141388 30190 net.cpp:157] Top shape: 1 1 1 2 (2)
I0630 10:28:08.141392 30190 net.cpp:157] Top shape: 1 1 1 1 (1)
I0630 10:28:08.141396 30190 net.cpp:165] Memory required for data: 4535962112
I0630 10:28:08.141397 30190 layer_factory.hpp:77] Creating layer LFCN_3_5x7
I0630 10:28:08.141407 30190 net.cpp:100] Creating Layer LFCN_3_5x7
I0630 10:28:08.141412 30190 net.cpp:434] LFCN_3_5x7 <- conv6_1_relu6_1_0_split_1
I0630 10:28:08.141419 30190 net.cpp:408] LFCN_3_5x7 -> LFCN_3_5x7
I0630 10:28:08.143687 30190 net.cpp:150] Setting up LFCN_3_5x7
I0630 10:28:08.143699 30190 net.cpp:157] Top shape: 4 7 18 24 (12096)
I0630 10:28:08.143702 30190 net.cpp:165] Memory required for data: 4536010496
I0630 10:28:08.143710 30190 layer_factory.hpp:77] Creating layer LFCN_3_5x7_LFCN_3_5x7_0_split
I0630 10:28:08.143718 30190 net.cpp:100] Creating Layer LFCN_3_5x7_LFCN_3_5x7_0_split
I0630 10:28:08.143723 30190 net.cpp:434] LFCN_3_5x7_LFCN_3_5x7_0_split <- LFCN_3_5x7
I0630 10:28:08.143729 30190 net.cpp:408] LFCN_3_5x7_LFCN_3_5x7_0_split -> LFCN_3_5x7_LFCN_3_5x7_0_split_0
I0630 10:28:08.143739 30190 net.cpp:408] LFCN_3_5x7_LFCN_3_5x7_0_split -> LFCN_3_5x7_LFCN_3_5x7_0_split_1
I0630 10:28:08.143745 30190 net.cpp:408] LFCN_3_5x7_LFCN_3_5x7_0_split -> LFCN_3_5x7_LFCN_3_5x7_0_split_2
I0630 10:28:08.143795 30190 net.cpp:150] Setting up LFCN_3_5x7_LFCN_3_5x7_0_split
I0630 10:28:08.143801 30190 net.cpp:157] Top shape: 4 7 18 24 (12096)
I0630 10:28:08.143805 30190 net.cpp:157] Top shape: 4 7 18 24 (12096)
I0630 10:28:08.143810 30190 net.cpp:157] Top shape: 4 7 18 24 (12096)
I0630 10:28:08.143813 30190 net.cpp:165] Memory required for data: 4536155648
I0630 10:28:08.143816 30190 layer_factory.hpp:77] Creating layer detection_loss_3_5x7
I0630 10:28:08.143822 30190 net.cpp:100] Creating Layer detection_loss_3_5x7
I0630 10:28:08.143826 30190 net.cpp:434] detection_loss_3_5x7 <- LFCN_3_5x7_LFCN_3_5x7_0_split_0
I0630 10:28:08.143831 30190 net.cpp:434] detection_loss_3_5x7 <- label_3_5x7_data_6_split_0
I0630 10:28:08.143841 30190 net.cpp:408] detection_loss_3_5x7 -> loss_3_5x7
I0630 10:28:08.143849 30190 layer_factory.hpp:77] Creating layer detection_loss_3_5x7
I0630 10:28:08.144245 30190 net.cpp:150] Setting up detection_loss_3_5x7
I0630 10:28:08.144253 30190 net.cpp:157] Top shape: 1 1 1 2 (2)
I0630 10:28:08.144254 30190 net.cpp:160]     with loss weight 1
I0630 10:28:08.144263 30190 net.cpp:165] Memory required for data: 4536155656
I0630 10:28:08.144266 30190 layer_factory.hpp:77] Creating layer detection_accuracy_3_5x7
I0630 10:28:08.144273 30190 net.cpp:100] Creating Layer detection_accuracy_3_5x7
I0630 10:28:08.144275 30190 net.cpp:434] detection_accuracy_3_5x7 <- LFCN_3_5x7_LFCN_3_5x7_0_split_1
I0630 10:28:08.144281 30190 net.cpp:434] detection_accuracy_3_5x7 <- label_3_5x7_data_6_split_1
I0630 10:28:08.144287 30190 net.cpp:408] detection_accuracy_3_5x7 -> accuracy_3_5x7
I0630 10:28:08.144295 30190 net.cpp:408] detection_accuracy_3_5x7 -> boxiou_3_5x7
I0630 10:28:08.144335 30190 net.cpp:150] Setting up detection_accuracy_3_5x7
I0630 10:28:08.144340 30190 net.cpp:157] Top shape: 1 1 1 2 (2)
I0630 10:28:08.144343 30190 net.cpp:157] Top shape: 1 1 1 1 (1)
I0630 10:28:08.144346 30190 net.cpp:165] Memory required for data: 4536155668
I0630 10:28:08.144349 30190 layer_factory.hpp:77] Creating layer pool6
I0630 10:28:08.144356 30190 net.cpp:100] Creating Layer pool6
I0630 10:28:08.144358 30190 net.cpp:434] pool6 <- conv6_1_relu6_1_0_split_2
I0630 10:28:08.144366 30190 net.cpp:408] pool6 -> pool6
I0630 10:28:08.144399 30190 net.cpp:150] Setting up pool6
I0630 10:28:08.144405 30190 net.cpp:157] Top shape: 4 512 9 12 (221184)
I0630 10:28:08.144408 30190 net.cpp:165] Memory required for data: 4537040404
I0630 10:28:08.144412 30190 layer_factory.hpp:77] Creating layer LFCN_4_3x5
I0630 10:28:08.144419 30190 net.cpp:100] Creating Layer LFCN_4_3x5
I0630 10:28:08.144423 30190 net.cpp:434] LFCN_4_3x5 <- pool6
I0630 10:28:08.144428 30190 net.cpp:408] LFCN_4_3x5 -> LFCN_4_3x5
I0630 10:28:08.146615 30190 net.cpp:150] Setting up LFCN_4_3x5
I0630 10:28:08.146627 30190 net.cpp:157] Top shape: 4 7 9 12 (3024)
I0630 10:28:08.146630 30190 net.cpp:165] Memory required for data: 4537052500
I0630 10:28:08.146638 30190 layer_factory.hpp:77] Creating layer LFCN_4_3x5_LFCN_4_3x5_0_split
I0630 10:28:08.146646 30190 net.cpp:100] Creating Layer LFCN_4_3x5_LFCN_4_3x5_0_split
I0630 10:28:08.146651 30190 net.cpp:434] LFCN_4_3x5_LFCN_4_3x5_0_split <- LFCN_4_3x5
I0630 10:28:08.146656 30190 net.cpp:408] LFCN_4_3x5_LFCN_4_3x5_0_split -> LFCN_4_3x5_LFCN_4_3x5_0_split_0
I0630 10:28:08.146666 30190 net.cpp:408] LFCN_4_3x5_LFCN_4_3x5_0_split -> LFCN_4_3x5_LFCN_4_3x5_0_split_1
I0630 10:28:08.146672 30190 net.cpp:408] LFCN_4_3x5_LFCN_4_3x5_0_split -> LFCN_4_3x5_LFCN_4_3x5_0_split_2
I0630 10:28:08.146726 30190 net.cpp:150] Setting up LFCN_4_3x5_LFCN_4_3x5_0_split
I0630 10:28:08.146731 30190 net.cpp:157] Top shape: 4 7 9 12 (3024)
I0630 10:28:08.146734 30190 net.cpp:157] Top shape: 4 7 9 12 (3024)
I0630 10:28:08.146739 30190 net.cpp:157] Top shape: 4 7 9 12 (3024)
I0630 10:28:08.146740 30190 net.cpp:165] Memory required for data: 4537088788
I0630 10:28:08.146744 30190 layer_factory.hpp:77] Creating layer detection_loss_4_3x5
I0630 10:28:08.146750 30190 net.cpp:100] Creating Layer detection_loss_4_3x5
I0630 10:28:08.146755 30190 net.cpp:434] detection_loss_4_3x5 <- LFCN_4_3x5_LFCN_4_3x5_0_split_0
I0630 10:28:08.146760 30190 net.cpp:434] detection_loss_4_3x5 <- label_4_3x5_data_7_split_0
I0630 10:28:08.146766 30190 net.cpp:408] detection_loss_4_3x5 -> loss_4_3x5
I0630 10:28:08.146775 30190 layer_factory.hpp:77] Creating layer detection_loss_4_3x5
I0630 10:28:08.147174 30190 net.cpp:150] Setting up detection_loss_4_3x5
I0630 10:28:08.147182 30190 net.cpp:157] Top shape: 1 1 1 2 (2)
I0630 10:28:08.147184 30190 net.cpp:160]     with loss weight 1
I0630 10:28:08.147192 30190 net.cpp:165] Memory required for data: 4537088796
I0630 10:28:08.147195 30190 layer_factory.hpp:77] Creating layer detection_accuracy_4_3x5
I0630 10:28:08.147202 30190 net.cpp:100] Creating Layer detection_accuracy_4_3x5
I0630 10:28:08.147205 30190 net.cpp:434] detection_accuracy_4_3x5 <- LFCN_4_3x5_LFCN_4_3x5_0_split_1
I0630 10:28:08.147210 30190 net.cpp:434] detection_accuracy_4_3x5 <- label_4_3x5_data_7_split_1
I0630 10:28:08.147215 30190 net.cpp:408] detection_accuracy_4_3x5 -> accuracy_4_3x5
I0630 10:28:08.147224 30190 net.cpp:408] detection_accuracy_4_3x5 -> boxiou_4_3x5
I0630 10:28:08.147267 30190 net.cpp:150] Setting up detection_accuracy_4_3x5
I0630 10:28:08.147272 30190 net.cpp:157] Top shape: 1 1 1 2 (2)
I0630 10:28:08.147276 30190 net.cpp:157] Top shape: 1 1 1 1 (1)
I0630 10:28:08.147279 30190 net.cpp:165] Memory required for data: 4537088808
I0630 10:28:08.147282 30190 layer_factory.hpp:77] Creating layer proposals
I0630 10:28:08.147290 30190 net.cpp:100] Creating Layer proposals
I0630 10:28:08.147294 30190 net.cpp:434] proposals <- LFCN_1_3x5_LFCN_1_3x5_0_split_2
I0630 10:28:08.147298 30190 net.cpp:434] proposals <- LFCN_1_5x7_LFCN_1_5x7_0_split_2
I0630 10:28:08.147302 30190 net.cpp:434] proposals <- LFCN_2_3x5_LFCN_2_3x5_0_split_2
I0630 10:28:08.147306 30190 net.cpp:434] proposals <- LFCN_2_5x7_LFCN_2_5x7_0_split_2
I0630 10:28:08.147310 30190 net.cpp:434] proposals <- LFCN_3_3x5_LFCN_3_3x5_0_split_2
I0630 10:28:08.147313 30190 net.cpp:434] proposals <- LFCN_3_5x7_LFCN_3_5x7_0_split_2
I0630 10:28:08.147316 30190 net.cpp:434] proposals <- LFCN_4_3x5_LFCN_4_3x5_0_split_2
I0630 10:28:08.147323 30190 net.cpp:408] proposals -> proposals
I0630 10:28:08.147351 30190 net.cpp:150] Setting up proposals
I0630 10:28:08.147356 30190 net.cpp:157] Top shape: 1 5 1 1 (5)
I0630 10:28:08.147358 30190 net.cpp:165] Memory required for data: 4537088828
I0630 10:28:08.147361 30190 layer_factory.hpp:77] Creating layer proposal_info
I0630 10:28:08.147369 30190 net.cpp:100] Creating Layer proposal_info
I0630 10:28:08.147373 30190 net.cpp:434] proposal_info <- proposals
I0630 10:28:08.147377 30190 net.cpp:434] proposal_info <- gt_boxes
I0630 10:28:08.147385 30190 net.cpp:408] proposal_info -> rois
I0630 10:28:08.147397 30190 net.cpp:408] proposal_info -> proposal_labels
I0630 10:28:08.147403 30190 net.cpp:408] proposal_info -> proposal_targets
I0630 10:28:08.147411 30190 net.cpp:408] proposal_info -> box_inside_weights
I0630 10:28:08.147419 30190 net.cpp:408] proposal_info -> box_outside_weights
I0630 10:28:08.147428 30190 net.cpp:408] proposal_info -> match_gt_boxes
I0630 10:28:08.147508 30190 net.cpp:150] Setting up proposal_info
I0630 10:28:08.147513 30190 net.cpp:157] Top shape: 128 5 1 1 (640)
I0630 10:28:08.147517 30190 net.cpp:157] Top shape: 128 1 1 1 (128)
I0630 10:28:08.147521 30190 net.cpp:157] Top shape: 128 12 1 1 (1536)
I0630 10:28:08.147524 30190 net.cpp:157] Top shape: 128 12 1 1 (1536)
I0630 10:28:08.147528 30190 net.cpp:157] Top shape: 128 12 1 1 (1536)
I0630 10:28:08.147532 30190 net.cpp:157] Top shape: 128 6 1 1 (768)
I0630 10:28:08.147534 30190 net.cpp:165] Memory required for data: 4537113404
I0630 10:28:08.147537 30190 layer_factory.hpp:77] Creating layer rois_proposal_info_0_split
I0630 10:28:08.147542 30190 net.cpp:100] Creating Layer rois_proposal_info_0_split
I0630 10:28:08.147545 30190 net.cpp:434] rois_proposal_info_0_split <- rois
I0630 10:28:08.147550 30190 net.cpp:408] rois_proposal_info_0_split -> rois_proposal_info_0_split_0
I0630 10:28:08.147558 30190 net.cpp:408] rois_proposal_info_0_split -> rois_proposal_info_0_split_1
I0630 10:28:08.147567 30190 net.cpp:408] rois_proposal_info_0_split -> rois_proposal_info_0_split_2
I0630 10:28:08.147609 30190 net.cpp:150] Setting up rois_proposal_info_0_split
I0630 10:28:08.147614 30190 net.cpp:157] Top shape: 128 5 1 1 (640)
I0630 10:28:08.147617 30190 net.cpp:157] Top shape: 128 5 1 1 (640)
I0630 10:28:08.147621 30190 net.cpp:157] Top shape: 128 5 1 1 (640)
I0630 10:28:08.147624 30190 net.cpp:165] Memory required for data: 4537121084
I0630 10:28:08.147626 30190 layer_factory.hpp:77] Creating layer proposal_labels_proposal_info_1_split
I0630 10:28:08.147631 30190 net.cpp:100] Creating Layer proposal_labels_proposal_info_1_split
I0630 10:28:08.147634 30190 net.cpp:434] proposal_labels_proposal_info_1_split <- proposal_labels
I0630 10:28:08.147639 30190 net.cpp:408] proposal_labels_proposal_info_1_split -> proposal_labels_proposal_info_1_split_0
I0630 10:28:08.147646 30190 net.cpp:408] proposal_labels_proposal_info_1_split -> proposal_labels_proposal_info_1_split_1
I0630 10:28:08.147680 30190 net.cpp:150] Setting up proposal_labels_proposal_info_1_split
I0630 10:28:08.147683 30190 net.cpp:157] Top shape: 128 1 1 1 (128)
I0630 10:28:08.147687 30190 net.cpp:157] Top shape: 128 1 1 1 (128)
I0630 10:28:08.147689 30190 net.cpp:165] Memory required for data: 4537122108
I0630 10:28:08.147692 30190 layer_factory.hpp:77] Creating layer conv4_3_2x
I0630 10:28:08.147701 30190 net.cpp:100] Creating Layer conv4_3_2x
I0630 10:28:08.147706 30190 net.cpp:434] conv4_3_2x <- conv4_3_relu4_3_0_split_2
I0630 10:28:08.147711 30190 net.cpp:408] conv4_3_2x -> conv4_3_2x
I0630 10:28:08.148089 30190 net.cpp:150] Setting up conv4_3_2x
I0630 10:28:08.148095 30190 net.cpp:157] Top shape: 4 512 144 192 (56623104)
I0630 10:28:08.148098 30190 net.cpp:165] Memory required for data: 4763614524
I0630 10:28:08.148103 30190 layer_factory.hpp:77] Creating layer conv4_3_2x_conv4_3_2x_0_split
I0630 10:28:08.148108 30190 net.cpp:100] Creating Layer conv4_3_2x_conv4_3_2x_0_split
I0630 10:28:08.148111 30190 net.cpp:434] conv4_3_2x_conv4_3_2x_0_split <- conv4_3_2x
I0630 10:28:08.148118 30190 net.cpp:408] conv4_3_2x_conv4_3_2x_0_split -> conv4_3_2x_conv4_3_2x_0_split_0
I0630 10:28:08.148125 30190 net.cpp:408] conv4_3_2x_conv4_3_2x_0_split -> conv4_3_2x_conv4_3_2x_0_split_1
I0630 10:28:08.148160 30190 net.cpp:150] Setting up conv4_3_2x_conv4_3_2x_0_split
I0630 10:28:08.148165 30190 net.cpp:157] Top shape: 4 512 144 192 (56623104)
I0630 10:28:08.148169 30190 net.cpp:157] Top shape: 4 512 144 192 (56623104)
I0630 10:28:08.148171 30190 net.cpp:165] Memory required for data: 5216599356
I0630 10:28:08.148175 30190 layer_factory.hpp:77] Creating layer roi_pool_org
I0630 10:28:08.148180 30190 net.cpp:100] Creating Layer roi_pool_org
I0630 10:28:08.148185 30190 net.cpp:434] roi_pool_org <- conv4_3_2x_conv4_3_2x_0_split_0
I0630 10:28:08.148188 30190 net.cpp:434] roi_pool_org <- rois_proposal_info_0_split_0
I0630 10:28:08.148195 30190 net.cpp:408] roi_pool_org -> roi_pool_org
I0630 10:28:08.148205 30190 roi_pooling_layer.cpp:33] Spatial scale: 0.25
I0630 10:28:08.148241 30190 net.cpp:150] Setting up roi_pool_org
I0630 10:28:08.148247 30190 net.cpp:157] Top shape: 128 512 7 5 (2293760)
I0630 10:28:08.148249 30190 net.cpp:165] Memory required for data: 5225774396
I0630 10:28:08.148252 30190 layer_factory.hpp:77] Creating layer roi_pool_ctx
I0630 10:28:08.148257 30190 net.cpp:100] Creating Layer roi_pool_ctx
I0630 10:28:08.148260 30190 net.cpp:434] roi_pool_ctx <- conv4_3_2x_conv4_3_2x_0_split_1
I0630 10:28:08.148264 30190 net.cpp:434] roi_pool_ctx <- rois_proposal_info_0_split_1
I0630 10:28:08.148268 30190 net.cpp:408] roi_pool_ctx -> roi_pool_ctx
I0630 10:28:08.148277 30190 roi_pooling_layer.cpp:33] Spatial scale: 0.25
I0630 10:28:08.148310 30190 net.cpp:150] Setting up roi_pool_ctx
I0630 10:28:08.148315 30190 net.cpp:157] Top shape: 128 512 7 5 (2293760)
I0630 10:28:08.148319 30190 net.cpp:165] Memory required for data: 5234949436
I0630 10:28:08.148320 30190 layer_factory.hpp:77] Creating layer roi_pool
I0630 10:28:08.148325 30190 net.cpp:100] Creating Layer roi_pool
I0630 10:28:08.148329 30190 net.cpp:434] roi_pool <- roi_pool_org
I0630 10:28:08.148332 30190 net.cpp:434] roi_pool <- roi_pool_ctx
I0630 10:28:08.148339 30190 net.cpp:408] roi_pool -> roi_pool
I0630 10:28:08.148362 30190 net.cpp:150] Setting up roi_pool
I0630 10:28:08.148367 30190 net.cpp:157] Top shape: 128 1024 7 5 (4587520)
I0630 10:28:08.148370 30190 net.cpp:165] Memory required for data: 5253299516
I0630 10:28:08.148372 30190 layer_factory.hpp:77] Creating layer roi_c1
I0630 10:28:08.148380 30190 net.cpp:100] Creating Layer roi_c1
I0630 10:28:08.148385 30190 net.cpp:434] roi_c1 <- roi_pool
I0630 10:28:08.148391 30190 net.cpp:408] roi_c1 -> roi_c1
I0630 10:28:08.186666 30190 net.cpp:150] Setting up roi_c1
I0630 10:28:08.186684 30190 net.cpp:157] Top shape: 128 512 5 3 (983040)
I0630 10:28:08.186689 30190 net.cpp:165] Memory required for data: 5257231676
I0630 10:28:08.186699 30190 layer_factory.hpp:77] Creating layer roi_c1_relu
I0630 10:28:08.186710 30190 net.cpp:100] Creating Layer roi_c1_relu
I0630 10:28:08.186715 30190 net.cpp:434] roi_c1_relu <- roi_c1
I0630 10:28:08.186722 30190 net.cpp:395] roi_c1_relu -> roi_c1 (in-place)
I0630 10:28:08.187391 30190 net.cpp:150] Setting up roi_c1_relu
I0630 10:28:08.187399 30190 net.cpp:157] Top shape: 128 512 5 3 (983040)
I0630 10:28:08.187402 30190 net.cpp:165] Memory required for data: 5261163836
I0630 10:28:08.187407 30190 layer_factory.hpp:77] Creating layer fc6
I0630 10:28:08.187415 30190 net.cpp:100] Creating Layer fc6
I0630 10:28:08.187420 30190 net.cpp:434] fc6 <- roi_c1
I0630 10:28:08.187427 30190 net.cpp:408] fc6 -> fc6
I0630 10:28:08.308778 30190 net.cpp:150] Setting up fc6
I0630 10:28:08.308800 30190 net.cpp:157] Top shape: 128 2048 (262144)
I0630 10:28:08.308804 30190 net.cpp:165] Memory required for data: 5262212412
I0630 10:28:08.308814 30190 layer_factory.hpp:77] Creating layer relu6
I0630 10:28:08.308823 30190 net.cpp:100] Creating Layer relu6
I0630 10:28:08.308830 30190 net.cpp:434] relu6 <- fc6
I0630 10:28:08.308837 30190 net.cpp:395] relu6 -> fc6 (in-place)
I0630 10:28:08.309139 30190 net.cpp:150] Setting up relu6
I0630 10:28:08.309146 30190 net.cpp:157] Top shape: 128 2048 (262144)
I0630 10:28:08.309149 30190 net.cpp:165] Memory required for data: 5263260988
I0630 10:28:08.309152 30190 layer_factory.hpp:77] Creating layer drop6
I0630 10:28:08.309160 30190 net.cpp:100] Creating Layer drop6
I0630 10:28:08.309165 30190 net.cpp:434] drop6 <- fc6
I0630 10:28:08.309170 30190 net.cpp:395] drop6 -> fc6 (in-place)
I0630 10:28:08.309201 30190 net.cpp:150] Setting up drop6
I0630 10:28:08.309206 30190 net.cpp:157] Top shape: 128 2048 (262144)
I0630 10:28:08.309208 30190 net.cpp:165] Memory required for data: 5264309564
I0630 10:28:08.309211 30190 layer_factory.hpp:77] Creating layer fc6_drop6_0_split
I0630 10:28:08.309216 30190 net.cpp:100] Creating Layer fc6_drop6_0_split
I0630 10:28:08.309221 30190 net.cpp:434] fc6_drop6_0_split <- fc6
I0630 10:28:08.309231 30190 net.cpp:408] fc6_drop6_0_split -> fc6_drop6_0_split_0
I0630 10:28:08.309238 30190 net.cpp:408] fc6_drop6_0_split -> fc6_drop6_0_split_1
I0630 10:28:08.309279 30190 net.cpp:150] Setting up fc6_drop6_0_split
I0630 10:28:08.309284 30190 net.cpp:157] Top shape: 128 2048 (262144)
I0630 10:28:08.309288 30190 net.cpp:157] Top shape: 128 2048 (262144)
I0630 10:28:08.309290 30190 net.cpp:165] Memory required for data: 5266406716
I0630 10:28:08.309293 30190 layer_factory.hpp:77] Creating layer cls_pred
I0630 10:28:08.309301 30190 net.cpp:100] Creating Layer cls_pred
I0630 10:28:08.309306 30190 net.cpp:434] cls_pred <- fc6_drop6_0_split_0
I0630 10:28:08.309312 30190 net.cpp:408] cls_pred -> cls_pred
I0630 10:28:08.309460 30190 net.cpp:150] Setting up cls_pred
I0630 10:28:08.309464 30190 net.cpp:157] Top shape: 128 3 (384)
I0630 10:28:08.309468 30190 net.cpp:165] Memory required for data: 5266408252
I0630 10:28:08.309473 30190 layer_factory.hpp:77] Creating layer cls_pred_cls_pred_0_split
I0630 10:28:08.309478 30190 net.cpp:100] Creating Layer cls_pred_cls_pred_0_split
I0630 10:28:08.309482 30190 net.cpp:434] cls_pred_cls_pred_0_split <- cls_pred
I0630 10:28:08.309489 30190 net.cpp:408] cls_pred_cls_pred_0_split -> cls_pred_cls_pred_0_split_0
I0630 10:28:08.309497 30190 net.cpp:408] cls_pred_cls_pred_0_split -> cls_pred_cls_pred_0_split_1
I0630 10:28:08.309540 30190 net.cpp:150] Setting up cls_pred_cls_pred_0_split
I0630 10:28:08.309545 30190 net.cpp:157] Top shape: 128 3 (384)
I0630 10:28:08.309548 30190 net.cpp:157] Top shape: 128 3 (384)
I0630 10:28:08.309551 30190 net.cpp:165] Memory required for data: 5266411324
I0630 10:28:08.309553 30190 layer_factory.hpp:77] Creating layer bbox_pred
I0630 10:28:08.309559 30190 net.cpp:100] Creating Layer bbox_pred
I0630 10:28:08.309563 30190 net.cpp:434] bbox_pred <- fc6_drop6_0_split_1
I0630 10:28:08.309568 30190 net.cpp:408] bbox_pred -> bbox_pred
I0630 10:28:08.309836 30190 net.cpp:150] Setting up bbox_pred
I0630 10:28:08.309841 30190 net.cpp:157] Top shape: 128 12 (1536)
I0630 10:28:08.309844 30190 net.cpp:165] Memory required for data: 5266417468
I0630 10:28:08.309850 30190 layer_factory.hpp:77] Creating layer bbox_pred_bbox_pred_0_split
I0630 10:28:08.309855 30190 net.cpp:100] Creating Layer bbox_pred_bbox_pred_0_split
I0630 10:28:08.309859 30190 net.cpp:434] bbox_pred_bbox_pred_0_split <- bbox_pred
I0630 10:28:08.309864 30190 net.cpp:408] bbox_pred_bbox_pred_0_split -> bbox_pred_bbox_pred_0_split_0
I0630 10:28:08.309870 30190 net.cpp:408] bbox_pred_bbox_pred_0_split -> bbox_pred_bbox_pred_0_split_1
I0630 10:28:08.309901 30190 net.cpp:150] Setting up bbox_pred_bbox_pred_0_split
I0630 10:28:08.309906 30190 net.cpp:157] Top shape: 128 12 (1536)
I0630 10:28:08.309909 30190 net.cpp:157] Top shape: 128 12 (1536)
I0630 10:28:08.309911 30190 net.cpp:165] Memory required for data: 5266429756
I0630 10:28:08.309914 30190 layer_factory.hpp:77] Creating layer loss_cls
I0630 10:28:08.309921 30190 net.cpp:100] Creating Layer loss_cls
I0630 10:28:08.309923 30190 net.cpp:434] loss_cls <- cls_pred_cls_pred_0_split_0
I0630 10:28:08.309928 30190 net.cpp:434] loss_cls <- proposal_labels_proposal_info_1_split_0
…
I0630 10:28:08.323958 30190 image_gt_data_layer.cpp:241] output label size 3 : 2,6,36,48
I0630 10:28:08.324012 30190 image_gt_data_layer.cpp:241] output label size 4 : 2,6,18,24
I0630 10:28:08.324062 30190 image_gt_data_layer.cpp:241] output label size 5 : 2,6,18,24
I0630 10:28:08.324112 30190 image_gt_data_layer.cpp:241] output label size 6 : 2,6,9,12
I0630 10:28:08.324164 30190 image_gt_data_layer.cpp:256] output gt boxes size: 1,7,1,1
I0630 10:28:08.324167 30190 image_gt_data_layer.cpp:265]  --> has_mean_values_ = 1
I0630 10:28:08.342900 30190 net.cpp:150] Setting up data
I0630 10:28:08.342922 30190 net.cpp:157] Top shape: 2 4 576 768 (3538944)
I0630 10:28:08.342927 30190 net.cpp:157] Top shape: 2 6 72 96 (82944)
I0630 10:28:08.342931 30190 net.cpp:157] Top shape: 2 6 72 96 (82944)
I0630 10:28:08.342934 30190 net.cpp:157] Top shape: 2 6 36 48 (20736)
I0630 10:28:08.342938 30190 net.cpp:157] Top shape: 2 6 36 48 (20736)
I0630 10:28:08.342942 30190 net.cpp:157] Top shape: 2 6 18 24 (5184)
I0630 10:28:08.342945 30190 net.cpp:157] Top shape: 2 6 18 24 (5184)
I0630 10:28:08.342949 30190 net.cpp:157] Top shape: 2 6 9 12 (1296)
I0630 10:28:08.342954 30190 net.cpp:157] Top shape: 1 7 1 1 (7)
I0630 10:28:08.342957 30190 net.cpp:165] Memory required for data: 15031900
I0630 10:28:08.342962 30190 layer_factory.hpp:77] Creating layer label_1_3x5_data_1_split
I0630 10:28:08.342974 30190 net.cpp:100] Creating Layer label_1_3x5_data_1_split
I0630 10:28:08.342979 30190 net.cpp:434] label_1_3x5_data_1_split <- label_1_3x5
I0630 10:28:08.342988 30190 net.cpp:408] label_1_3x5_data_1_split -> label_1_3x5_data_1_split_0
I0630 10:28:08.342995 30190 net.cpp:408] label_1_3x5_data_1_split -> label_1_3x5_data_1_split_1
I0630 10:28:08.343086 30190 net.cpp:150] Setting up label_1_3x5_data_1_split
I0630 10:28:08.343093 30190 net.cpp:157] Top shape: 2 6 72 96 (82944)
I0630 10:28:08.343097 30190 net.cpp:157] Top shape: 2 6 72 96 (82944)
I0630 10:28:08.343099 30190 net.cpp:165] Memory required for data: 15695452
I0630 10:28:08.343103 30190 layer_factory.hpp:77] Creating layer label_1_5x7_data_2_split
I0630 10:28:08.343111 30190 net.cpp:100] Creating Layer label_1_5x7_data_2_split
I0630 10:28:08.343114 30190 net.cpp:434] label_1_5x7_data_2_split <- label_1_5x7
I0630 10:28:08.343120 30190 net.cpp:408] label_1_5x7_data_2_split -> label_1_5x7_data_2_split_0
I0630 10:28:08.343127 30190 net.cpp:408] label_1_5x7_data_2_split -> label_1_5x7_data_2_split_1
I0630 10:28:08.343168 30190 net.cpp:150] Setting up label_1_5x7_data_2_split
I0630 10:28:08.343173 30190 net.cpp:157] Top shape: 2 6 72 96 (82944)
I0630 10:28:08.343176 30190 net.cpp:157] Top shape: 2 6 72 96 (82944)
I0630 10:28:08.343179 30190 net.cpp:165] Memory required for data: 16359004
I0630 10:28:08.343183 30190 layer_factory.hpp:77] Creating layer label_2_3x5_data_3_split
I0630 10:28:08.343188 30190 net.cpp:100] Creating Layer label_2_3x5_data_3_split
I0630 10:28:08.343190 30190 net.cpp:434] label_2_3x5_data_3_split <- label_2_3x5
I0630 10:28:08.343196 30190 net.cpp:408] label_2_3x5_data_3_split -> label_2_3x5_data_3_split_0
I0630 10:28:08.343202 30190 net.cpp:408] label_2_3x5_data_3_split -> label_2_3x5_data_3_split_1
I0630 10:28:08.343240 30190 net.cpp:150] Setting up label_2_3x5_data_3_split
I0630 10:28:08.343246 30190 net.cpp:157] Top shape: 2 6 36 48 (20736)
I0630 10:28:08.343250 30190 net.cpp:157] Top shape: 2 6 36 48 (20736)
I0630 10:28:08.343252 30190 net.cpp:165] Memory required for data: 16524892
I0630 10:28:08.343255 30190 layer_factory.hpp:77] Creating layer label_2_5x7_data_4_split
I0630 10:28:08.343262 30190 net.cpp:100] Creating Layer label_2_5x7_data_4_split
I0630 10:28:08.343266 30190 net.cpp:434] label_2_5x7_data_4_split <- label_2_5x7
I0630 10:28:08.343272 30190 net.cpp:408] label_2_5x7_data_4_split -> label_2_5x7_data_4_split_0
I0630 10:28:08.343278 30190 net.cpp:408] label_2_5x7_data_4_split -> label_2_5x7_data_4_split_1
I0630 10:28:08.343318 30190 net.cpp:150] Setting up label_2_5x7_data_4_split
I0630 10:28:08.343323 30190 net.cpp:157] Top shape: 2 6 36 48 (20736)
I0630 10:28:08.343327 30190 net.cpp:157] Top shape: 2 6 36 48 (20736)
I0630 10:28:08.343330 30190 net.cpp:165] Memory required for data: 16690780
I0630 10:28:08.343333 30190 layer_factory.hpp:77] Creating layer label_3_3x5_data_5_split
I0630 10:28:08.343338 30190 net.cpp:100] Creating Layer label_3_3x5_data_5_split
I0630 10:28:08.343341 30190 net.cpp:434] label_3_3x5_data_5_split <- label_3_3x5
I0630 10:28:08.343346 30190 net.cpp:408] label_3_3x5_data_5_split -> label_3_3x5_data_5_split_0
I0630 10:28:08.343353 30190 net.cpp:408] label_3_3x5_data_5_split -> label_3_3x5_data_5_split_1
I0630 10:28:08.343390 30190 net.cpp:150] Setting up label_3_3x5_data_5_split
I0630 10:28:08.343395 30190 net.cpp:157] Top shape: 2 6 18 24 (5184)
I0630 10:28:08.343400 30190 net.cpp:157] Top shape: 2 6 18 24 (5184)
I0630 10:28:08.343401 30190 net.cpp:165] Memory required for data: 16732252
I0630 10:28:08.343405 30190 layer_factory.hpp:77] Creating layer label_3_5x7_data_6_split
I0630 10:28:08.343410 30190 net.cpp:100] Creating Layer label_3_5x7_data_6_split
I0630 10:28:08.343412 30190 net.cpp:434] label_3_5x7_data_6_split <- label_3_5x7
I0630 10:28:08.343417 30190 net.cpp:408] label_3_5x7_data_6_split -> label_3_5x7_data_6_split_0
I0630 10:28:08.343422 30190 net.cpp:408] label_3_5x7_data_6_split -> label_3_5x7_data_6_split_1
I0630 10:28:08.343463 30190 net.cpp:150] Setting up label_3_5x7_data_6_split
I0630 10:28:08.343468 30190 net.cpp:157] Top shape: 2 6 18 24 (5184)
I0630 10:28:08.343472 30190 net.cpp:157] Top shape: 2 6 18 24 (5184)
I0630 10:28:08.343474 30190 net.cpp:165] Memory required for data: 16773724
I0630 10:28:08.343477 30190 layer_factory.hpp:77] Creating layer label_4_3x5_data_7_split
I0630 10:28:08.343484 30190 net.cpp:100] Creating Layer label_4_3x5_data_7_split
I0630 10:28:08.343487 30190 net.cpp:434] label_4_3x5_data_7_split <- label_4_3x5
I0630 10:28:08.343492 30190 net.cpp:408] label_4_3x5_data_7_split -> label_4_3x5_data_7_split_0
I0630 10:28:08.343498 30190 net.cpp:408] label_4_3x5_data_7_split -> label_4_3x5_data_7_split_1
I0630 10:28:08.343539 30190 net.cpp:150] Setting up label_4_3x5_data_7_split
I0630 10:28:08.343544 30190 net.cpp:157] Top shape: 2 6 9 12 (1296)
I0630 10:28:08.343549 30190 net.cpp:157] Top shape: 2 6 9 12 (1296)
I0630 10:28:08.343550 30190 net.cpp:165] Memory required for data: 16784092
I0630 10:28:08.343554 30190 layer_factory.hpp:77] Creating layer conv1_1
I0630 10:28:08.343566 30190 net.cpp:100] Creating Layer conv1_1
I0630 10:28:08.343570 30190 net.cpp:434] conv1_1 <- data
I0630 10:28:08.343576 30190 net.cpp:408] conv1_1 -> conv1_1
I0630 10:28:08.348651 30190 net.cpp:150] Setting up conv1_1
I0630 10:28:08.348675 30190 net.cpp:157] Top shape: 2 64 576 768 (56623104)
I0630 10:28:08.348677 30190 net.cpp:165] Memory required for data: 243276508
I0630 10:28:08.348692 30190 layer_factory.hpp:77] Creating layer relu1_1
I0630 10:28:08.348706 30190 net.cpp:100] Creating Layer relu1_1
I0630 10:28:08.348711 30190 net.cpp:434] relu1_1 <- conv1_1
I0630 10:28:08.348717 30190 net.cpp:395] relu1_1 -> conv1_1 (in-place)
I0630 10:28:08.349066 30190 net.cpp:150] Setting up relu1_1
I0630 10:28:08.349073 30190 net.cpp:157] Top shape: 2 64 576 768 (56623104)
I0630 10:28:08.349076 30190 net.cpp:165] Memory required for data: 469768924
I0630 10:28:08.349079 30190 layer_factory.hpp:77] Creating layer conv1_2
I0630 10:28:08.349090 30190 net.cpp:100] Creating Layer conv1_2
I0630 10:28:08.349093 30190 net.cpp:434] conv1_2 <- conv1_1
I0630 10:28:08.349100 30190 net.cpp:408] conv1_2 -> conv1_2
I0630 10:28:08.352041 30190 net.cpp:150] Setting up conv1_2
I0630 10:28:08.352066 30190 net.cpp:157] Top shape: 2 64 576 768 (56623104)
I0630 10:28:08.352068 30190 net.cpp:165] Memory required for data: 696261340
I0630 10:28:08.352082 30190 layer_factory.hpp:77] Creating layer relu1_2
I0630 10:28:08.352092 30190 net.cpp:100] Creating Layer relu1_2
I0630 10:28:08.352097 30190 net.cpp:434] relu1_2 <- conv1_2
I0630 10:28:08.352107 30190 net.cpp:395] relu1_2 -> conv1_2 (in-place)
I0630 10:28:08.352454 30190 net.cpp:150] Setting up relu1_2
I0630 10:28:08.352463 30190 net.cpp:157] Top shape: 2 64 576 768 (56623104)
I0630 10:28:08.352465 30190 net.cpp:165] Memory required for data: 922753756
I0630 10:28:08.352468 30190 layer_factory.hpp:77] Creating layer pool1
I0630 10:28:08.352476 30190 net.cpp:100] Creating Layer pool1
I0630 10:28:08.352479 30190 net.cpp:434] pool1 <- conv1_2
I0630 10:28:08.352486 30190 net.cpp:408] pool1 -> pool1
I0630 10:28:08.352540 30190 net.cpp:150] Setting up pool1
I0630 10:28:08.352547 30190 net.cpp:157] Top shape: 2 64 288 384 (14155776)
I0630 10:28:08.352550 30190 net.cpp:165] Memory required for data: 979376860
I0630 10:28:08.352553 30190 layer_factory.hpp:77] Creating layer conv2_1
I0630 10:28:08.352561 30190 net.cpp:100] Creating Layer conv2_1
I0630 10:28:08.352564 30190 net.cpp:434] conv2_1 <- pool1
I0630 10:28:08.352571 30190 net.cpp:408] conv2_1 -> conv2_1
I0630 10:28:08.354643 30190 net.cpp:150] Setting up conv2_1
I0630 10:28:08.354660 30190 net.cpp:157] Top shape: 2 128 288 384 (28311552)
I0630 10:28:08.354662 30190 net.cpp:165] Memory required for data: 1092623068
I0630 10:28:08.354674 30190 layer_factory.hpp:77] Creating layer relu2_1
I0630 10:28:08.354686 30190 net.cpp:100] Creating Layer relu2_1
I0630 10:28:08.354689 30190 net.cpp:434] relu2_1 <- conv2_1
I0630 10:28:08.354696 30190 net.cpp:395] relu2_1 -> conv2_1 (in-place)
I0630 10:28:08.355403 30190 net.cpp:150] Setting up relu2_1
I0630 10:28:08.355414 30190 net.cpp:157] Top shape: 2 128 288 384 (28311552)
I0630 10:28:08.355417 30190 net.cpp:165] Memory required for data: 1205869276
I0630 10:28:08.355422 30190 layer_factory.hpp:77] Creating layer conv2_2
I0630 10:28:08.355430 30190 net.cpp:100] Creating Layer conv2_2
I0630 10:28:08.355434 30190 net.cpp:434] conv2_2 <- conv2_1
I0630 10:28:08.355440 30190 net.cpp:408] conv2_2 -> conv2_2
I0630 10:28:08.358762 30190 net.cpp:150] Setting up conv2_2
I0630 10:28:08.358783 30190 net.cpp:157] Top shape: 2 128 288 384 (28311552)
I0630 10:28:08.358786 30190 net.cpp:165] Memory required for data: 1319115484
I0630 10:28:08.358798 30190 layer_factory.hpp:77] Creating layer relu2_2
I0630 10:28:08.358814 30190 net.cpp:100] Creating Layer relu2_2
I0630 10:28:08.358819 30190 net.cpp:434] relu2_2 <- conv2_2
I0630 10:28:08.358825 30190 net.cpp:395] relu2_2 -> conv2_2 (in-place)
I0630 10:28:08.359163 30190 net.cpp:150] Setting up relu2_2
I0630 10:28:08.359171 30190 net.cpp:157] Top shape: 2 128 288 384 (28311552)
I0630 10:28:08.359174 30190 net.cpp:165] Memory required for data: 1432361692
I0630 10:28:08.359177 30190 layer_factory.hpp:77] Creating layer pool2
I0630 10:28:08.359184 30190 net.cpp:100] Creating Layer pool2
I0630 10:28:08.359189 30190 net.cpp:434] pool2 <- conv2_2
I0630 10:28:08.359194 30190 net.cpp:408] pool2 -> pool2
I0630 10:28:08.359251 30190 net.cpp:150] Setting up pool2
I0630 10:28:08.359256 30190 net.cpp:157] Top shape: 2 128 144 192 (7077888)
I0630 10:28:08.359258 30190 net.cpp:165] Memory required for data: 1460673244
I0630 10:28:08.359261 30190 layer_factory.hpp:77] Creating layer conv3_1
I0630 10:28:08.359271 30190 net.cpp:100] Creating Layer conv3_1
I0630 10:28:08.359273 30190 net.cpp:434] conv3_1 <- pool2
I0630 10:28:08.359279 30190 net.cpp:408] conv3_1 -> conv3_1
I0630 10:28:08.363538 30190 net.cpp:150] Setting up conv3_1
I0630 10:28:08.363571 30190 net.cpp:157] Top shape: 2 256 144 192 (14155776)
I0630 10:28:08.363574 30190 net.cpp:165] Memory required for data: 1517296348
I0630 10:28:08.363597 30190 layer_factory.hpp:77] Creating layer relu3_1
I0630 10:28:08.363612 30190 net.cpp:100] Creating Layer relu3_1
I0630 10:28:08.363618 30190 net.cpp:434] relu3_1 <- conv3_1
I0630 10:28:08.363627 30190 net.cpp:395] relu3_1 -> conv3_1 (in-place)
I0630 10:28:08.363998 30190 net.cpp:150] Setting up relu3_1
I0630 10:28:08.364008 30190 net.cpp:157] Top shape: 2 256 144 192 (14155776)
I0630 10:28:08.364012 30190 net.cpp:165] Memory required for data: 1573919452
I0630 10:28:08.364015 30190 layer_factory.hpp:77] Creating layer conv3_2
I0630 10:28:08.364027 30190 net.cpp:100] Creating Layer conv3_2
I0630 10:28:08.364030 30190 net.cpp:434] conv3_2 <- conv3_1
I0630 10:28:08.364037 30190 net.cpp:408] conv3_2 -> conv3_2
I0630 10:28:08.367413 30190 net.cpp:150] Setting up conv3_2
I0630 10:28:08.367432 30190 net.cpp:157] Top shape: 2 256 144 192 (14155776)
I0630 10:28:08.367435 30190 net.cpp:165] Memory required for data: 1630542556
I0630 10:28:08.367444 30190 layer_factory.hpp:77] Creating layer relu3_2
I0630 10:28:08.367455 30190 net.cpp:100] Creating Layer relu3_2
I0630 10:28:08.367460 30190 net.cpp:434] relu3_2 <- conv3_2
I0630 10:28:08.367470 30190 net.cpp:395] relu3_2 -> conv3_2 (in-place)
I0630 10:28:08.368155 30190 net.cpp:150] Setting up relu3_2
I0630 10:28:08.368165 30190 net.cpp:157] Top shape: 2 256 144 192 (14155776)
I0630 10:28:08.368167 30190 net.cpp:165] Memory required for data: 1687165660
I0630 10:28:08.368171 30190 layer_factory.hpp:77] Creating layer conv3_3
I0630 10:28:08.368181 30190 net.cpp:100] Creating Layer conv3_3
I0630 10:28:08.368185 30190 net.cpp:434] conv3_3 <- conv3_2
I0630 10:28:08.368191 30190 net.cpp:408] conv3_3 -> conv3_3
I0630 10:28:08.371532 30190 net.cpp:150] Setting up conv3_3
I0630 10:28:08.371554 30190 net.cpp:157] Top shape: 2 256 144 192 (14155776)
I0630 10:28:08.371557 30190 net.cpp:165] Memory required for data: 1743788764
I0630 10:28:08.371567 30190 layer_factory.hpp:77] Creating layer relu3_3
I0630 10:28:08.371577 30190 net.cpp:100] Creating Layer relu3_3
I0630 10:28:08.371580 30190 net.cpp:434] relu3_3 <- conv3_3
I0630 10:28:08.371589 30190 net.cpp:395] relu3_3 -> conv3_3 (in-place)
I0630 10:28:08.372292 30190 net.cpp:150] Setting up relu3_3
I0630 10:28:08.372304 30190 net.cpp:157] Top shape: 2 256 144 192 (14155776)
I0630 10:28:08.372308 30190 net.cpp:165] Memory required for data: 1800411868
I0630 10:28:08.372310 30190 layer_factory.hpp:77] Creating layer pool3
I0630 10:28:08.372318 30190 net.cpp:100] Creating Layer pool3
I0630 10:28:08.372323 30190 net.cpp:434] pool3 <- conv3_3
I0630 10:28:08.372329 30190 net.cpp:408] pool3 -> pool3
I0630 10:28:08.372390 30190 net.cpp:150] Setting up pool3
I0630 10:28:08.372398 30190 net.cpp:157] Top shape: 2 256 72 96 (3538944)
I0630 10:28:08.372401 30190 net.cpp:165] Memory required for data: 1814567644
I0630 10:28:08.372404 30190 layer_factory.hpp:77] Creating layer conv4_1
I0630 10:28:08.372411 30190 net.cpp:100] Creating Layer conv4_1
I0630 10:28:08.372416 30190 net.cpp:434] conv4_1 <- pool3
I0630 10:28:08.372421 30190 net.cpp:408] conv4_1 -> conv4_1
I0630 10:28:08.376737 30190 net.cpp:150] Setting up conv4_1
I0630 10:28:08.376760 30190 net.cpp:157] Top shape: 2 512 72 96 (7077888)
I0630 10:28:08.376762 30190 net.cpp:165] Memory required for data: 1842879196
I0630 10:28:08.376772 30190 layer_factory.hpp:77] Creating layer relu4_1
I0630 10:28:08.376782 30190 net.cpp:100] Creating Layer relu4_1
I0630 10:28:08.376787 30190 net.cpp:434] relu4_1 <- conv4_1
I0630 10:28:08.376793 30190 net.cpp:395] relu4_1 -> conv4_1 (in-place)
I0630 10:28:08.377079 30190 net.cpp:150] Setting up relu4_1
I0630 10:28:08.377087 30190 net.cpp:157] Top shape: 2 512 72 96 (7077888)
I0630 10:28:08.377090 30190 net.cpp:165] Memory required for data: 1871190748
I0630 10:28:08.377094 30190 layer_factory.hpp:77] Creating layer conv4_2
I0630 10:28:08.377101 30190 net.cpp:100] Creating Layer conv4_2
I0630 10:28:08.377105 30190 net.cpp:434] conv4_2 <- conv4_1
I0630 10:28:08.377112 30190 net.cpp:408] conv4_2 -> conv4_2
I0630 10:28:08.385381 30190 net.cpp:150] Setting up conv4_2
I0630 10:28:08.385416 30190 net.cpp:157] Top shape: 2 512 72 96 (7077888)
I0630 10:28:08.385419 30190 net.cpp:165] Memory required for data: 1899502300
I0630 10:28:08.385450 30190 layer_factory.hpp:77] Creating layer relu4_2
I0630 10:28:08.385473 30190 net.cpp:100] Creating Layer relu4_2
I0630 10:28:08.385478 30190 net.cpp:434] relu4_2 <- conv4_2
I0630 10:28:08.385490 30190 net.cpp:395] relu4_2 -> conv4_2 (in-place)
I0630 10:28:08.385789 30190 net.cpp:150] Setting up relu4_2
I0630 10:28:08.385797 30190 net.cpp:157] Top shape: 2 512 72 96 (7077888)
I0630 10:28:08.385800 30190 net.cpp:165] Memory required for data: 1927813852
I0630 10:28:08.385804 30190 layer_factory.hpp:77] Creating layer conv4_3
I0630 10:28:08.385819 30190 net.cpp:100] Creating Layer conv4_3
I0630 10:28:08.385824 30190 net.cpp:434] conv4_3 <- conv4_2
I0630 10:28:08.385830 30190 net.cpp:408] conv4_3 -> conv4_3
I0630 10:28:08.393740 30190 net.cpp:150] Setting up conv4_3
I0630 10:28:08.393760 30190 net.cpp:157] Top shape: 2 512 72 96 (7077888)
I0630 10:28:08.393764 30190 net.cpp:165] Memory required for data: 1956125404
I0630 10:28:08.393772 30190 layer_factory.hpp:77] Creating layer relu4_3
I0630 10:28:08.393782 30190 net.cpp:100] Creating Layer relu4_3
I0630 10:28:08.393787 30190 net.cpp:434] relu4_3 <- conv4_3
I0630 10:28:08.393795 30190 net.cpp:395] relu4_3 -> conv4_3 (in-place)
I0630 10:28:08.394529 30190 net.cpp:150] Setting up relu4_3
I0630 10:28:08.394539 30190 net.cpp:157] Top shape: 2 512 72 96 (7077888)
I0630 10:28:08.394542 30190 net.cpp:165] Memory required for data: 1984436956
I0630 10:28:08.394546 30190 layer_factory.hpp:77] Creating layer conv4_3_relu4_3_0_split
I0630 10:28:08.394552 30190 net.cpp:100] Creating Layer conv4_3_relu4_3_0_split
I0630 10:28:08.394556 30190 net.cpp:434] conv4_3_relu4_3_0_split <- conv4_3
I0630 10:28:08.394563 30190 net.cpp:408] conv4_3_relu4_3_0_split -> conv4_3_relu4_3_0_split_0
I0630 10:28:08.394572 30190 net.cpp:408] conv4_3_relu4_3_0_split -> conv4_3_relu4_3_0_split_1
I0630 10:28:08.394579 30190 net.cpp:408] conv4_3_relu4_3_0_split -> conv4_3_relu4_3_0_split_2
I0630 10:28:08.394644 30190 net.cpp:150] Setting up conv4_3_relu4_3_0_split
I0630 10:28:08.394650 30190 net.cpp:157] Top shape: 2 512 72 96 (7077888)
I0630 10:28:08.394654 30190 net.cpp:157] Top shape: 2 512 72 96 (7077888)
I0630 10:28:08.394659 30190 net.cpp:157] Top shape: 2 512 72 96 (7077888)
I0630 10:28:08.394661 30190 net.cpp:165] Memory required for data: 2069371612
I0630 10:28:08.394665 30190 layer_factory.hpp:77] Creating layer loss1_conv1
I0630 10:28:08.394680 30190 net.cpp:100] Creating Layer loss1_conv1
I0630 10:28:08.394685 30190 net.cpp:434] loss1_conv1 <- conv4_3_relu4_3_0_split_0
I0630 10:28:08.394690 30190 net.cpp:408] loss1_conv1 -> loss1_conv1
I0630 10:28:08.416307 30190 net.cpp:150] Setting up loss1_conv1
I0630 10:28:08.416328 30190 net.cpp:157] Top shape: 2 512 72 96 (7077888)
I0630 10:28:08.416330 30190 net.cpp:165] Memory required for data: 2097683164
I0630 10:28:08.416339 30190 layer_factory.hpp:77] Creating layer loss_relu1
I0630 10:28:08.416352 30190 net.cpp:100] Creating Layer loss_relu1
I0630 10:28:08.416357 30190 net.cpp:434] loss_relu1 <- loss1_conv1
I0630 10:28:08.416363 30190 net.cpp:395] loss_relu1 -> loss1_conv1 (in-place)
I0630 10:28:08.416627 30190 net.cpp:150] Setting up loss_relu1
I0630 10:28:08.416635 30190 net.cpp:157] Top shape: 2 512 72 96 (7077888)
I0630 10:28:08.416638 30190 net.cpp:165] Memory required for data: 2125994716
I0630 10:28:08.416641 30190 layer_factory.hpp:77] Creating layer loss1_conv1_loss_relu1_0_split
I0630 10:28:08.416648 30190 net.cpp:100] Creating Layer loss1_conv1_loss_relu1_0_split
I0630 10:28:08.416652 30190 net.cpp:434] loss1_conv1_loss_relu1_0_split <- loss1_conv1
I0630 10:28:08.416658 30190 net.cpp:408] loss1_conv1_loss_relu1_0_split -> loss1_conv1_loss_relu1_0_split_0
I0630 10:28:08.416666 30190 net.cpp:408] loss1_conv1_loss_relu1_0_split -> loss1_conv1_loss_relu1_0_split_1
I0630 10:28:08.416713 30190 net.cpp:150] Setting up loss1_conv1_loss_relu1_0_split
I0630 10:28:08.416720 30190 net.cpp:157] Top shape: 2 512 72 96 (7077888)
I0630 10:28:08.416724 30190 net.cpp:157] Top shape: 2 512 72 96 (7077888)
I0630 10:28:08.416728 30190 net.cpp:165] Memory required for data: 2182617820
I0630 10:28:08.416730 30190 layer_factory.hpp:77] Creating layer LFCN_1_3x5
I0630 10:28:08.416740 30190 net.cpp:100] Creating Layer LFCN_1_3x5
I0630 10:28:08.416744 30190 net.cpp:434] LFCN_1_3x5 <- loss1_conv1_loss_relu1_0_split_0
I0630 10:28:08.416750 30190 net.cpp:408] LFCN_1_3x5 -> LFCN_1_3x5
I0630 10:28:08.419169 30190 net.cpp:150] Setting up LFCN_1_3x5
I0630 10:28:08.419183 30190 net.cpp:157] Top shape: 2 7 72 96 (96768)
I0630 10:28:08.419186 30190 net.cpp:165] Memory required for data: 2183004892
I0630 10:28:08.419194 30190 layer_factory.hpp:77] Creating layer LFCN_1_3x5_LFCN_1_3x5_0_split
I0630 10:28:08.419203 30190 net.cpp:100] Creating Layer LFCN_1_3x5_LFCN_1_3x5_0_split
I0630 10:28:08.419208 30190 net.cpp:434] LFCN_1_3x5_LFCN_1_3x5_0_split <- LFCN_1_3x5
I0630 10:28:08.419215 30190 net.cpp:408] LFCN_1_3x5_LFCN_1_3x5_0_split -> LFCN_1_3x5_LFCN_1_3x5_0_split_0
I0630 10:28:08.419224 30190 net.cpp:408] LFCN_1_3x5_LFCN_1_3x5_0_split -> LFCN_1_3x5_LFCN_1_3x5_0_split_1
I0630 10:28:08.419229 30190 net.cpp:408] LFCN_1_3x5_LFCN_1_3x5_0_split -> LFCN_1_3x5_LFCN_1_3x5_0_split_2
I0630 10:28:08.419294 30190 net.cpp:150] Setting up LFCN_1_3x5_LFCN_1_3x5_0_split
I0630 10:28:08.419301 30190 net.cpp:157] Top shape: 2 7 72 96 (96768)
I0630 10:28:08.419304 30190 net.cpp:157] Top shape: 2 7 72 96 (96768)
I0630 10:28:08.419307 30190 net.cpp:157] Top shape: 2 7 72 96 (96768)
I0630 10:28:08.419311 30190 net.cpp:165] Memory required for data: 2184166108
I0630 10:28:08.419313 30190 layer_factory.hpp:77] Creating layer detection_loss_1_3x5
I0630 10:28:08.419322 30190 net.cpp:100] Creating Layer detection_loss_1_3x5
I0630 10:28:08.419325 30190 net.cpp:434] detection_loss_1_3x5 <- LFCN_1_3x5_LFCN_1_3x5_0_split_0
I0630 10:28:08.419330 30190 net.cpp:434] detection_loss_1_3x5 <- label_1_3x5_data_1_split_0
I0630 10:28:08.419335 30190 net.cpp:408] detection_loss_1_3x5 -> loss_1_3x5
I0630 10:28:08.419344 30190 layer_factory.hpp:77] Creating layer detection_loss_1_3x5
I0630 10:28:08.419798 30190 net.cpp:150] Setting up detection_loss_1_3x5
I0630 10:28:08.419806 30190 net.cpp:157] Top shape: 1 1 1 2 (2)
I0630 10:28:08.419808 30190 net.cpp:160]     with loss weight 0.5
I0630 10:28:08.419817 30190 net.cpp:165] Memory required for data: 2184166116
I0630 10:28:08.419821 30190 layer_factory.hpp:77] Creating layer detection_accuracy_1_3x5
I0630 10:28:08.419827 30190 net.cpp:100] Creating Layer detection_accuracy_1_3x5
I0630 10:28:08.419831 30190 net.cpp:434] detection_accuracy_1_3x5 <- LFCN_1_3x5_LFCN_1_3x5_0_split_1
I0630 10:28:08.419836 30190 net.cpp:434] detection_accuracy_1_3x5 <- label_1_3x5_data_1_split_1
I0630 10:28:08.419842 30190 net.cpp:408] detection_accuracy_1_3x5 -> accuracy_1_3x5
I0630 10:28:08.419849 30190 net.cpp:408] detection_accuracy_1_3x5 -> boxiou_1_3x5
I0630 10:28:08.419898 30190 net.cpp:150] Setting up detection_accuracy_1_3x5
I0630 10:28:08.419903 30190 net.cpp:157] Top shape: 1 1 1 2 (2)
I0630 10:28:08.419906 30190 net.cpp:157] Top shape: 1 1 1 1 (1)
I0630 10:28:08.419909 30190 net.cpp:165] Memory required for data: 2184166128
I0630 10:28:08.419911 30190 layer_factory.hpp:77] Creating layer LFCN_1_5x7
I0630 10:28:08.419924 30190 net.cpp:100] Creating Layer LFCN_1_5x7
I0630 10:28:08.419927 30190 net.cpp:434] LFCN_1_5x7 <- loss1_conv1_loss_relu1_0_split_1
I0630 10:28:08.419934 30190 net.cpp:408] LFCN_1_5x7 -> LFCN_1_5x7
I0630 10:28:08.424170 30190 net.cpp:150] Setting up LFCN_1_5x7
I0630 10:28:08.424196 30190 net.cpp:157] Top shape: 2 7 72 96 (96768)
I0630 10:28:08.424201 30190 net.cpp:165] Memory required for data: 2184553200
I0630 10:28:08.424208 30190 layer_factory.hpp:77] Creating layer LFCN_1_5x7_LFCN_1_5x7_0_split
I0630 10:28:08.424216 30190 net.cpp:100] Creating Layer LFCN_1_5x7_LFCN_1_5x7_0_split
I0630 10:28:08.424221 30190 net.cpp:434] LFCN_1_5x7_LFCN_1_5x7_0_split <- LFCN_1_5x7
I0630 10:28:08.424226 30190 net.cpp:408] LFCN_1_5x7_LFCN_1_5x7_0_split -> LFCN_1_5x7_LFCN_1_5x7_0_split_0
I0630 10:28:08.424232 30190 net.cpp:408] LFCN_1_5x7_LFCN_1_5x7_0_split -> LFCN_1_5x7_LFCN_1_5x7_0_split_1
I0630 10:28:08.424237 30190 net.cpp:408] LFCN_1_5x7_LFCN_1_5x7_0_split -> LFCN_1_5x7_LFCN_1_5x7_0_split_2
I0630 10:28:08.424317 30190 net.cpp:150] Setting up LFCN_1_5x7_LFCN_1_5x7_0_split
I0630 10:28:08.424327 30190 net.cpp:157] Top shape: 2 7 72 96 (96768)
I0630 10:28:08.424330 30190 net.cpp:157] Top shape: 2 7 72 96 (96768)
I0630 10:28:08.424335 30190 net.cpp:157] Top shape: 2 7 72 96 (96768)
I0630 10:28:08.424337 30190 net.cpp:165] Memory required for data: 2185714416
I0630 10:28:08.424340 30190 layer_factory.hpp:77] Creating layer detection_loss_1_5x7
I0630 10:28:08.424348 30190 net.cpp:100] Creating Layer detection_loss_1_5x7
I0630 10:28:08.424352 30190 net.cpp:434] detection_loss_1_5x7 <- LFCN_1_5x7_LFCN_1_5x7_0_split_0
I0630 10:28:08.424357 30190 net.cpp:434] detection_loss_1_5x7 <- label_1_5x7_data_2_split_0
I0630 10:28:08.424365 30190 net.cpp:408] detection_loss_1_5x7 -> loss_1_5x7
I0630 10:28:08.424373 30190 layer_factory.hpp:77] Creating layer detection_loss_1_5x7
I0630 10:28:08.425648 30190 net.cpp:150] Setting up detection_loss_1_5x7
I0630 10:28:08.425669 30190 net.cpp:157] Top shape: 1 1 1 2 (2)
I0630 10:28:08.425671 30190 net.cpp:160]     with loss weight 0.9
I0630 10:28:08.425685 30190 net.cpp:165] Memory required for data: 2185714424
I0630 10:28:08.425690 30190 layer_factory.hpp:77] Creating layer detection_accuracy_1_5x7
I0630 10:28:08.425704 30190 net.cpp:100] Creating Layer detection_accuracy_1_5x7
I0630 10:28:08.425709 30190 net.cpp:434] detection_accuracy_1_5x7 <- LFCN_1_5x7_LFCN_1_5x7_0_split_1
I0630 10:28:08.425715 30190 net.cpp:434] detection_accuracy_1_5x7 <- label_1_5x7_data_2_split_1
I0630 10:28:08.425721 30190 net.cpp:408] detection_accuracy_1_5x7 -> accuracy_1_5x7
I0630 10:28:08.425731 30190 net.cpp:408] detection_accuracy_1_5x7 -> boxiou_1_5x7
I0630 10:28:08.425793 30190 net.cpp:150] Setting up detection_accuracy_1_5x7
I0630 10:28:08.425801 30190 net.cpp:157] Top shape: 1 1 1 2 (2)
I0630 10:28:08.425804 30190 net.cpp:157] Top shape: 1 1 1 1 (1)
I0630 10:28:08.425807 30190 net.cpp:165] Memory required for data: 2185714436
I0630 10:28:08.425810 30190 layer_factory.hpp:77] Creating layer pool4
I0630 10:28:08.425818 30190 net.cpp:100] Creating Layer pool4
I0630 10:28:08.425822 30190 net.cpp:434] pool4 <- conv4_3_relu4_3_0_split_1
I0630 10:28:08.425827 30190 net.cpp:408] pool4 -> pool4
I0630 10:28:08.425879 30190 net.cpp:150] Setting up pool4
I0630 10:28:08.425886 30190 net.cpp:157] Top shape: 2 512 36 48 (1769472)
I0630 10:28:08.425889 30190 net.cpp:165] Memory required for data: 2192792324
I0630 10:28:08.425892 30190 layer_factory.hpp:77] Creating layer conv5_1
I0630 10:28:08.425900 30190 net.cpp:100] Creating Layer conv5_1
I0630 10:28:08.425904 30190 net.cpp:434] conv5_1 <- pool4
I0630 10:28:08.425909 30190 net.cpp:408] conv5_1 -> conv5_1
I0630 10:28:08.434659 30190 net.cpp:150] Setting up conv5_1
I0630 10:28:08.434679 30190 net.cpp:157] Top shape: 2 512 36 48 (1769472)
I0630 10:28:08.434681 30190 net.cpp:165] Memory required for data: 2199870212
I0630 10:28:08.434689 30190 layer_factory.hpp:77] Creating layer relu5_1
I0630 10:28:08.434700 30190 net.cpp:100] Creating Layer relu5_1
I0630 10:28:08.434703 30190 net.cpp:434] relu5_1 <- conv5_1
I0630 10:28:08.434711 30190 net.cpp:395] relu5_1 -> conv5_1 (in-place)
I0630 10:28:08.435011 30190 net.cpp:150] Setting up relu5_1
I0630 10:28:08.435019 30190 net.cpp:157] Top shape: 2 512 36 48 (1769472)
I0630 10:28:08.435020 30190 net.cpp:165] Memory required for data: 2206948100
I0630 10:28:08.435024 30190 layer_factory.hpp:77] Creating layer conv5_2
I0630 10:28:08.435035 30190 net.cpp:100] Creating Layer conv5_2
I0630 10:28:08.435039 30190 net.cpp:434] conv5_2 <- conv5_1
I0630 10:28:08.435045 30190 net.cpp:408] conv5_2 -> conv5_2
I0630 10:28:08.441280 30190 net.cpp:150] Setting up conv5_2
I0630 10:28:08.441299 30190 net.cpp:157] Top shape: 2 512 36 48 (1769472)
I0630 10:28:08.441301 30190 net.cpp:165] Memory required for data: 2214025988
I0630 10:28:08.441308 30190 layer_factory.hpp:77] Creating layer relu5_2
I0630 10:28:08.441319 30190 net.cpp:100] Creating Layer relu5_2
I0630 10:28:08.441323 30190 net.cpp:434] relu5_2 <- conv5_2
I0630 10:28:08.441329 30190 net.cpp:395] relu5_2 -> conv5_2 (in-place)
I0630 10:28:08.441637 30190 net.cpp:150] Setting up relu5_2
I0630 10:28:08.441646 30190 net.cpp:157] Top shape: 2 512 36 48 (1769472)
I0630 10:28:08.441648 30190 net.cpp:165] Memory required for data: 2221103876
I0630 10:28:08.441653 30190 layer_factory.hpp:77] Creating layer conv5_3
I0630 10:28:08.441659 30190 net.cpp:100] Creating Layer conv5_3
I0630 10:28:08.441663 30190 net.cpp:434] conv5_3 <- conv5_2
I0630 10:28:08.441670 30190 net.cpp:408] conv5_3 -> conv5_3
I0630 10:28:08.447542 30190 net.cpp:150] Setting up conv5_3
I0630 10:28:08.447568 30190 net.cpp:157] Top shape: 2 512 36 48 (1769472)
I0630 10:28:08.447572 30190 net.cpp:165] Memory required for data: 2228181764
I0630 10:28:08.447582 30190 layer_factory.hpp:77] Creating layer relu5_3
I0630 10:28:08.447590 30190 net.cpp:100] Creating Layer relu5_3
I0630 10:28:08.447594 30190 net.cpp:434] relu5_3 <- conv5_3
I0630 10:28:08.447602 30190 net.cpp:395] relu5_3 -> conv5_3 (in-place)
I0630 10:28:08.448711 30190 net.cpp:150] Setting up relu5_3
I0630 10:28:08.448722 30190 net.cpp:157] Top shape: 2 512 36 48 (1769472)
I0630 10:28:08.448725 30190 net.cpp:165] Memory required for data: 2235259652
I0630 10:28:08.448729 30190 layer_factory.hpp:77] Creating layer conv5_3_relu5_3_0_split
I0630 10:28:08.448735 30190 net.cpp:100] Creating Layer conv5_3_relu5_3_0_split
I0630 10:28:08.448740 30190 net.cpp:434] conv5_3_relu5_3_0_split <- conv5_3
I0630 10:28:08.448747 30190 net.cpp:408] conv5_3_relu5_3_0_split -> conv5_3_relu5_3_0_split_0
I0630 10:28:08.448755 30190 net.cpp:408] conv5_3_relu5_3_0_split -> conv5_3_relu5_3_0_split_1
I0630 10:28:08.448761 30190 net.cpp:408] conv5_3_relu5_3_0_split -> conv5_3_relu5_3_0_split_2
I0630 10:28:08.448845 30190 net.cpp:150] Setting up conv5_3_relu5_3_0_split
I0630 10:28:08.448850 30190 net.cpp:157] Top shape: 2 512 36 48 (1769472)
I0630 10:28:08.448854 30190 net.cpp:157] Top shape: 2 512 36 48 (1769472)
I0630 10:28:08.448858 30190 net.cpp:157] Top shape: 2 512 36 48 (1769472)
I0630 10:28:08.448860 30190 net.cpp:165] Memory required for data: 2256493316
I0630 10:28:08.448863 30190 layer_factory.hpp:77] Creating layer LFCN_2_3x5
I0630 10:28:08.448873 30190 net.cpp:100] Creating Layer LFCN_2_3x5
I0630 10:28:08.448878 30190 net.cpp:434] LFCN_2_3x5 <- conv5_3_relu5_3_0_split_0
I0630 10:28:08.448884 30190 net.cpp:408] LFCN_2_3x5 -> LFCN_2_3x5
I0630 10:28:08.452697 30190 net.cpp:150] Setting up LFCN_2_3x5
I0630 10:28:08.452720 30190 net.cpp:157] Top shape: 2 7 36 48 (24192)
I0630 10:28:08.452723 30190 net.cpp:165] Memory required for data: 2256590084
I0630 10:28:08.452739 30190 layer_factory.hpp:77] Creating layer LFCN_2_3x5_LFCN_2_3x5_0_split
I0630 10:28:08.452749 30190 net.cpp:100] Creating Layer LFCN_2_3x5_LFCN_2_3x5_0_split
I0630 10:28:08.452754 30190 net.cpp:434] LFCN_2_3x5_LFCN_2_3x5_0_split <- LFCN_2_3x5
I0630 10:28:08.452760 30190 net.cpp:408] LFCN_2_3x5_LFCN_2_3x5_0_split -> LFCN_2_3x5_LFCN_2_3x5_0_split_0
I0630 10:28:08.452778 30190 net.cpp:408] LFCN_2_3x5_LFCN_2_3x5_0_split -> LFCN_2_3x5_LFCN_2_3x5_0_split_1
I0630 10:28:08.452786 30190 net.cpp:408] LFCN_2_3x5_LFCN_2_3x5_0_split -> LFCN_2_3x5_LFCN_2_3x5_0_split_2
I0630 10:28:08.452865 30190 net.cpp:150] Setting up LFCN_2_3x5_LFCN_2_3x5_0_split
I0630 10:28:08.452873 30190 net.cpp:157] Top shape: 2 7 36 48 (24192)
I0630 10:28:08.452877 30190 net.cpp:157] Top shape: 2 7 36 48 (24192)
I0630 10:28:08.452881 30190 net.cpp:157] Top shape: 2 7 36 48 (24192)
I0630 10:28:08.452884 30190 net.cpp:165] Memory required for data: 2256880388
I0630 10:28:08.452888 30190 layer_factory.hpp:77] Creating layer detection_loss_2_3x5
I0630 10:28:08.452895 30190 net.cpp:100] Creating Layer detection_loss_2_3x5
I0630 10:28:08.452898 30190 net.cpp:434] detection_loss_2_3x5 <- LFCN_2_3x5_LFCN_2_3x5_0_split_0
I0630 10:28:08.452903 30190 net.cpp:434] detection_loss_2_3x5 <- label_2_3x5_data_3_split_0
I0630 10:28:08.452908 30190 net.cpp:408] detection_loss_2_3x5 -> loss_2_3x5
I0630 10:28:08.452917 30190 layer_factory.hpp:77] Creating layer detection_loss_2_3x5
I0630 10:28:08.453943 30190 net.cpp:150] Setting up detection_loss_2_3x5
I0630 10:28:08.453953 30190 net.cpp:157] Top shape: 1 1 1 2 (2)
I0630 10:28:08.453955 30190 net.cpp:160]     with loss weight 1
I0630 10:28:08.453963 30190 net.cpp:165] Memory required for data: 2256880396
I0630 10:28:08.453966 30190 layer_factory.hpp:77] Creating layer detection_accuracy_2_3x5
I0630 10:28:08.453974 30190 net.cpp:100] Creating Layer detection_accuracy_2_3x5
I0630 10:28:08.453979 30190 net.cpp:434] detection_accuracy_2_3x5 <- LFCN_2_3x5_LFCN_2_3x5_0_split_1
I0630 10:28:08.453984 30190 net.cpp:434] detection_accuracy_2_3x5 <- label_2_3x5_data_3_split_1
I0630 10:28:08.453992 30190 net.cpp:408] detection_accuracy_2_3x5 -> accuracy_2_3x5
I0630 10:28:08.453999 30190 net.cpp:408] detection_accuracy_2_3x5 -> boxiou_2_3x5
I0630 10:28:08.454059 30190 net.cpp:150] Setting up detection_accuracy_2_3x5
I0630 10:28:08.454066 30190 net.cpp:157] Top shape: 1 1 1 2 (2)
I0630 10:28:08.454071 30190 net.cpp:157] Top shape: 1 1 1 1 (1)
I0630 10:28:08.454072 30190 net.cpp:165] Memory required for data: 2256880408
I0630 10:28:08.454075 30190 layer_factory.hpp:77] Creating layer LFCN_2_5x7
I0630 10:28:08.454085 30190 net.cpp:100] Creating Layer LFCN_2_5x7
I0630 10:28:08.454089 30190 net.cpp:434] LFCN_2_5x7 <- conv5_3_relu5_3_0_split_1
I0630 10:28:08.454095 30190 net.cpp:408] LFCN_2_5x7 -> LFCN_2_5x7
I0630 10:28:08.457079 30190 net.cpp:150] Setting up LFCN_2_5x7
I0630 10:28:08.457093 30190 net.cpp:157] Top shape: 2 7 36 48 (24192)
I0630 10:28:08.457096 30190 net.cpp:165] Memory required for data: 2256977176
I0630 10:28:08.457103 30190 layer_factory.hpp:77] Creating layer LFCN_2_5x7_LFCN_2_5x7_0_split
I0630 10:28:08.457113 30190 net.cpp:100] Creating Layer LFCN_2_5x7_LFCN_2_5x7_0_split
I0630 10:28:08.457118 30190 net.cpp:434] LFCN_2_5x7_LFCN_2_5x7_0_split <- LFCN_2_5x7
I0630 10:28:08.457124 30190 net.cpp:408] LFCN_2_5x7_LFCN_2_5x7_0_split -> LFCN_2_5x7_LFCN_2_5x7_0_split_0
I0630 10:28:08.457134 30190 net.cpp:408] LFCN_2_5x7_LFCN_2_5x7_0_split -> LFCN_2_5x7_LFCN_2_5x7_0_split_1
I0630 10:28:08.457139 30190 net.cpp:408] LFCN_2_5x7_LFCN_2_5x7_0_split -> LFCN_2_5x7_LFCN_2_5x7_0_split_2
I0630 10:28:08.457238 30190 net.cpp:150] Setting up LFCN_2_5x7_LFCN_2_5x7_0_split
I0630 10:28:08.457247 30190 net.cpp:157] Top shape: 2 7 36 48 (24192)
I0630 10:28:08.457250 30190 net.cpp:157] Top shape: 2 7 36 48 (24192)
I0630 10:28:08.457254 30190 net.cpp:157] Top shape: 2 7 36 48 (24192)
I0630 10:28:08.457257 30190 net.cpp:165] Memory required for data: 2257267480
I0630 10:28:08.457260 30190 layer_factory.hpp:77] Creating layer detection_loss_2_5x7
I0630 10:28:08.457268 30190 net.cpp:100] Creating Layer detection_loss_2_5x7
I0630 10:28:08.457273 30190 net.cpp:434] detection_loss_2_5x7 <- LFCN_2_5x7_LFCN_2_5x7_0_split_0
I0630 10:28:08.457278 30190 net.cpp:434] detection_loss_2_5x7 <- label_2_5x7_data_4_split_0
I0630 10:28:08.457284 30190 net.cpp:408] detection_loss_2_5x7 -> loss_2_5x7
I0630 10:28:08.457293 30190 layer_factory.hpp:77] Creating layer detection_loss_2_5x7
I0630 10:28:08.457818 30190 net.cpp:150] Setting up detection_loss_2_5x7
I0630 10:28:08.457825 30190 net.cpp:157] Top shape: 1 1 1 2 (2)
I0630 10:28:08.457828 30190 net.cpp:160]     with loss weight 1
I0630 10:28:08.457835 30190 net.cpp:165] Memory required for data: 2257267488
I0630 10:28:08.457839 30190 layer_factory.hpp:77] Creating layer detection_accuracy_2_5x7
I0630 10:28:08.457847 30190 net.cpp:100] Creating Layer detection_accuracy_2_5x7
I0630 10:28:08.457851 30190 net.cpp:434] detection_accuracy_2_5x7 <- LFCN_2_5x7_LFCN_2_5x7_0_split_1
I0630 10:28:08.457856 30190 net.cpp:434] detection_accuracy_2_5x7 <- label_2_5x7_data_4_split_1
I0630 10:28:08.457864 30190 net.cpp:408] detection_accuracy_2_5x7 -> accuracy_2_5x7
I0630 10:28:08.457870 30190 net.cpp:408] detection_accuracy_2_5x7 -> boxiou_2_5x7
I0630 10:28:08.457924 30190 net.cpp:150] Setting up detection_accuracy_2_5x7
I0630 10:28:08.457931 30190 net.cpp:157] Top shape: 1 1 1 2 (2)
I0630 10:28:08.457936 30190 net.cpp:157] Top shape: 1 1 1 1 (1)
I0630 10:28:08.457938 30190 net.cpp:165] Memory required for data: 2257267500
I0630 10:28:08.457942 30190 layer_factory.hpp:77] Creating layer pool5
I0630 10:28:08.457947 30190 net.cpp:100] Creating Layer pool5
I0630 10:28:08.457952 30190 net.cpp:434] pool5 <- conv5_3_relu5_3_0_split_2
I0630 10:28:08.457957 30190 net.cpp:408] pool5 -> pool5
I0630 10:28:08.458009 30190 net.cpp:150] Setting up pool5
I0630 10:28:08.458014 30190 net.cpp:157] Top shape: 2 512 18 24 (442368)
I0630 10:28:08.458017 30190 net.cpp:165] Memory required for data: 2259036972
I0630 10:28:08.458020 30190 layer_factory.hpp:77] Creating layer conv6_1
I0630 10:28:08.458031 30190 net.cpp:100] Creating Layer conv6_1
I0630 10:28:08.458035 30190 net.cpp:434] conv6_1 <- pool5
I0630 10:28:08.458041 30190 net.cpp:408] conv6_1 -> conv6_1
I0630 10:28:08.480005 30190 net.cpp:150] Setting up conv6_1
I0630 10:28:08.480020 30190 net.cpp:157] Top shape: 2 512 18 24 (442368)
I0630 10:28:08.480023 30190 net.cpp:165] Memory required for data: 2260806444
I0630 10:28:08.480029 30190 layer_factory.hpp:77] Creating layer relu6_1
I0630 10:28:08.480036 30190 net.cpp:100] Creating Layer relu6_1
I0630 10:28:08.480041 30190 net.cpp:434] relu6_1 <- conv6_1
I0630 10:28:08.480044 30190 net.cpp:395] relu6_1 -> conv6_1 (in-place)
I0630 10:28:08.480307 30190 net.cpp:150] Setting up relu6_1
I0630 10:28:08.480314 30190 net.cpp:157] Top shape: 2 512 18 24 (442368)
I0630 10:28:08.480316 30190 net.cpp:165] Memory required for data: 2262575916
I0630 10:28:08.480319 30190 layer_factory.hpp:77] Creating layer conv6_1_relu6_1_0_split
I0630 10:28:08.480324 30190 net.cpp:100] Creating Layer conv6_1_relu6_1_0_split
I0630 10:28:08.480325 30190 net.cpp:434] conv6_1_relu6_1_0_split <- conv6_1
I0630 10:28:08.480329 30190 net.cpp:408] conv6_1_relu6_1_0_split -> conv6_1_relu6_1_0_split_0
I0630 10:28:08.480334 30190 net.cpp:408] conv6_1_relu6_1_0_split -> conv6_1_relu6_1_0_split_1
I0630 10:28:08.480338 30190 net.cpp:408] conv6_1_relu6_1_0_split -> conv6_1_relu6_1_0_split_2
I0630 10:28:08.480397 30190 net.cpp:150] Setting up conv6_1_relu6_1_0_split
I0630 10:28:08.480402 30190 net.cpp:157] Top shape: 2 512 18 24 (442368)
I0630 10:28:08.480404 30190 net.cpp:157] Top shape: 2 512 18 24 (442368)
I0630 10:28:08.480407 30190 net.cpp:157] Top shape: 2 512 18 24 (442368)
I0630 10:28:08.480410 30190 net.cpp:165] Memory required for data: 2267884332
I0630 10:28:08.480413 30190 layer_factory.hpp:77] Creating layer LFCN_3_3x5
I0630 10:28:08.480422 30190 net.cpp:100] Creating Layer LFCN_3_3x5
I0630 10:28:08.480427 30190 net.cpp:434] LFCN_3_3x5 <- conv6_1_relu6_1_0_split_0
I0630 10:28:08.480432 30190 net.cpp:408] LFCN_3_3x5 -> LFCN_3_3x5
I0630 10:28:08.482795 30190 net.cpp:150] Setting up LFCN_3_3x5
I0630 10:28:08.482808 30190 net.cpp:157] Top shape: 2 7 18 24 (6048)
I0630 10:28:08.482810 30190 net.cpp:165] Memory required for data: 2267908524
I0630 10:28:08.482816 30190 layer_factory.hpp:77] Creating layer LFCN_3_3x5_LFCN_3_3x5_0_split
I0630 10:28:08.482830 30190 net.cpp:100] Creating Layer LFCN_3_3x5_LFCN_3_3x5_0_split
I0630 10:28:08.482832 30190 net.cpp:434] LFCN_3_3x5_LFCN_3_3x5_0_split <- LFCN_3_3x5
I0630 10:28:08.482837 30190 net.cpp:408] LFCN_3_3x5_LFCN_3_3x5_0_split -> LFCN_3_3x5_LFCN_3_3x5_0_split_0
I0630 10:28:08.482843 30190 net.cpp:408] LFCN_3_3x5_LFCN_3_3x5_0_split -> LFCN_3_3x5_LFCN_3_3x5_0_split_1
I0630 10:28:08.482849 30190 net.cpp:408] LFCN_3_3x5_LFCN_3_3x5_0_split -> LFCN_3_3x5_LFCN_3_3x5_0_split_2
I0630 10:28:08.482915 30190 net.cpp:150] Setting up LFCN_3_3x5_LFCN_3_3x5_0_split
I0630 10:28:08.482921 30190 net.cpp:157] Top shape: 2 7 18 24 (6048)
I0630 10:28:08.482923 30190 net.cpp:157] Top shape: 2 7 18 24 (6048)
I0630 10:28:08.482928 30190 net.cpp:157] Top shape: 2 7 18 24 (6048)
I0630 10:28:08.482930 30190 net.cpp:165] Memory required for data: 2267981100
I0630 10:28:08.482934 30190 layer_factory.hpp:77] Creating layer detection_loss_3_3x5
I0630 10:28:08.482941 30190 net.cpp:100] Creating Layer detection_loss_3_3x5
I0630 10:28:08.482945 30190 net.cpp:434] detection_loss_3_3x5 <- LFCN_3_3x5_LFCN_3_3x5_0_split_0
I0630 10:28:08.482949 30190 net.cpp:434] detection_loss_3_3x5 <- label_3_3x5_data_5_split_0
I0630 10:28:08.482955 30190 net.cpp:408] detection_loss_3_3x5 -> loss_3_3x5
I0630 10:28:08.482965 30190 layer_factory.hpp:77] Creating layer detection_loss_3_3x5
I0630 10:28:08.483881 30190 net.cpp:150] Setting up detection_loss_3_3x5
I0630 10:28:08.483891 30190 net.cpp:157] Top shape: 1 1 1 2 (2)
I0630 10:28:08.483892 30190 net.cpp:160]     with loss weight 1
I0630 10:28:08.483898 30190 net.cpp:165] Memory required for data: 2267981108
I0630 10:28:08.483901 30190 layer_factory.hpp:77] Creating layer detection_accuracy_3_3x5
I0630 10:28:08.483906 30190 net.cpp:100] Creating Layer detection_accuracy_3_3x5
I0630 10:28:08.483909 30190 net.cpp:434] detection_accuracy_3_3x5 <- LFCN_3_3x5_LFCN_3_3x5_0_split_1
I0630 10:28:08.483913 30190 net.cpp:434] detection_accuracy_3_3x5 <- label_3_3x5_data_5_split_1
I0630 10:28:08.483917 30190 net.cpp:408] detection_accuracy_3_3x5 -> accuracy_3_3x5
I0630 10:28:08.483923 30190 net.cpp:408] detection_accuracy_3_3x5 -> boxiou_3_3x5
I0630 10:28:08.483969 30190 net.cpp:150] Setting up detection_accuracy_3_3x5
I0630 10:28:08.483974 30190 net.cpp:157] Top shape: 1 1 1 2 (2)
I0630 10:28:08.483976 30190 net.cpp:157] Top shape: 1 1 1 1 (1)
I0630 10:28:08.483978 30190 net.cpp:165] Memory required for data: 2267981120
I0630 10:28:08.483981 30190 layer_factory.hpp:77] Creating layer LFCN_3_5x7
I0630 10:28:08.483989 30190 net.cpp:100] Creating Layer LFCN_3_5x7
I0630 10:28:08.483994 30190 net.cpp:434] LFCN_3_5x7 <- conv6_1_relu6_1_0_split_1
I0630 10:28:08.483999 30190 net.cpp:408] LFCN_3_5x7 -> LFCN_3_5x7
I0630 10:28:08.486415 30190 net.cpp:150] Setting up LFCN_3_5x7
I0630 10:28:08.486425 30190 net.cpp:157] Top shape: 2 7 18 24 (6048)
I0630 10:28:08.486428 30190 net.cpp:165] Memory required for data: 2268005312
I0630 10:28:08.486434 30190 layer_factory.hpp:77] Creating layer LFCN_3_5x7_LFCN_3_5x7_0_split
I0630 10:28:08.486439 30190 net.cpp:100] Creating Layer LFCN_3_5x7_LFCN_3_5x7_0_split
I0630 10:28:08.486443 30190 net.cpp:434] LFCN_3_5x7_LFCN_3_5x7_0_split <- LFCN_3_5x7
I0630 10:28:08.486449 30190 net.cpp:408] LFCN_3_5x7_LFCN_3_5x7_0_split -> LFCN_3_5x7_LFCN_3_5x7_0_split_0
I0630 10:28:08.486454 30190 net.cpp:408] LFCN_3_5x7_LFCN_3_5x7_0_split -> LFCN_3_5x7_LFCN_3_5x7_0_split_1
I0630 10:28:08.486459 30190 net.cpp:408] LFCN_3_5x7_LFCN_3_5x7_0_split -> LFCN_3_5x7_LFCN_3_5x7_0_split_2
I0630 10:28:08.486517 30190 net.cpp:150] Setting up LFCN_3_5x7_LFCN_3_5x7_0_split
I0630 10:28:08.486522 30190 net.cpp:157] Top shape: 2 7 18 24 (6048)
I0630 10:28:08.486526 30190 net.cpp:157] Top shape: 2 7 18 24 (6048)
I0630 10:28:08.486528 30190 net.cpp:157] Top shape: 2 7 18 24 (6048)
I0630 10:28:08.486531 30190 net.cpp:165] Memory required for data: 2268077888
I0630 10:28:08.486534 30190 layer_factory.hpp:77] Creating layer detection_loss_3_5x7
I0630 10:28:08.486541 30190 net.cpp:100] Creating Layer detection_loss_3_5x7
I0630 10:28:08.486544 30190 net.cpp:434] detection_loss_3_5x7 <- LFCN_3_5x7_LFCN_3_5x7_0_split_0
I0630 10:28:08.486548 30190 net.cpp:434] detection_loss_3_5x7 <- label_3_5x7_data_6_split_0
I0630 10:28:08.486555 30190 net.cpp:408] detection_loss_3_5x7 -> loss_3_5x7
I0630 10:28:08.486563 30190 layer_factory.hpp:77] Creating layer detection_loss_3_5x7
I0630 10:28:08.486997 30190 net.cpp:150] Setting up detection_loss_3_5x7
I0630 10:28:08.487004 30190 net.cpp:157] Top shape: 1 1 1 2 (2)
I0630 10:28:08.487005 30190 net.cpp:160]     with loss weight 1
I0630 10:28:08.487013 30190 net.cpp:165] Memory required for data: 2268077896
I0630 10:28:08.487016 30190 layer_factory.hpp:77] Creating layer detection_accuracy_3_5x7
I0630 10:28:08.487021 30190 net.cpp:100] Creating Layer detection_accuracy_3_5x7
I0630 10:28:08.487026 30190 net.cpp:434] detection_accuracy_3_5x7 <- LFCN_3_5x7_LFCN_3_5x7_0_split_1
I0630 10:28:08.487032 30190 net.cpp:434] detection_accuracy_3_5x7 <- label_3_5x7_data_6_split_1
I0630 10:28:08.487037 30190 net.cpp:408] detection_accuracy_3_5x7 -> accuracy_3_5x7
I0630 10:28:08.487045 30190 net.cpp:408] detection_accuracy_3_5x7 -> boxiou_3_5x7
I0630 10:28:08.487087 30190 net.cpp:150] Setting up detection_accuracy_3_5x7
I0630 10:28:08.487092 30190 net.cpp:157] Top shape: 1 1 1 2 (2)
I0630 10:28:08.487094 30190 net.cpp:157] Top shape: 1 1 1 1 (1)
I0630 10:28:08.487097 30190 net.cpp:165] Memory required for data: 2268077908
I0630 10:28:08.487099 30190 layer_factory.hpp:77] Creating layer pool6
I0630 10:28:08.487105 30190 net.cpp:100] Creating Layer pool6
I0630 10:28:08.487109 30190 net.cpp:434] pool6 <- conv6_1_relu6_1_0_split_2
I0630 10:28:08.487115 30190 net.cpp:408] pool6 -> pool6
I0630 10:28:08.487154 30190 net.cpp:150] Setting up pool6
I0630 10:28:08.487159 30190 net.cpp:157] Top shape: 2 512 9 12 (110592)
I0630 10:28:08.487160 30190 net.cpp:165] Memory required for data: 2268520276
I0630 10:28:08.487164 30190 layer_factory.hpp:77] Creating layer LFCN_4_3x5
I0630 10:28:08.487174 30190 net.cpp:100] Creating Layer LFCN_4_3x5
I0630 10:28:08.487176 30190 net.cpp:434] LFCN_4_3x5 <- pool6
I0630 10:28:08.487180 30190 net.cpp:408] LFCN_4_3x5 -> LFCN_4_3x5
I0630 10:28:08.489969 30190 net.cpp:150] Setting up LFCN_4_3x5
I0630 10:28:08.489981 30190 net.cpp:157] Top shape: 2 7 9 12 (1512)
I0630 10:28:08.489984 30190 net.cpp:165] Memory required for data: 2268526324
I0630 10:28:08.489992 30190 layer_factory.hpp:77] Creating layer LFCN_4_3x5_LFCN_4_3x5_0_split
I0630 10:28:08.490001 30190 net.cpp:100] Creating Layer LFCN_4_3x5_LFCN_4_3x5_0_split
I0630 10:28:08.490006 30190 net.cpp:434] LFCN_4_3x5_LFCN_4_3x5_0_split <- LFCN_4_3x5
I0630 10:28:08.490012 30190 net.cpp:408] LFCN_4_3x5_LFCN_4_3x5_0_split -> LFCN_4_3x5_LFCN_4_3x5_0_split_0
I0630 10:28:08.490022 30190 net.cpp:408] LFCN_4_3x5_LFCN_4_3x5_0_split -> LFCN_4_3x5_LFCN_4_3x5_0_split_1
I0630 10:28:08.490028 30190 net.cpp:408] LFCN_4_3x5_LFCN_4_3x5_0_split -> LFCN_4_3x5_LFCN_4_3x5_0_split_2
I0630 10:28:08.490095 30190 net.cpp:150] Setting up LFCN_4_3x5_LFCN_4_3x5_0_split
I0630 10:28:08.490100 30190 net.cpp:157] Top shape: 2 7 9 12 (1512)
I0630 10:28:08.490103 30190 net.cpp:157] Top shape: 2 7 9 12 (1512)
I0630 10:28:08.490105 30190 net.cpp:157] Top shape: 2 7 9 12 (1512)
I0630 10:28:08.490108 30190 net.cpp:165] Memory required for data: 2268544468
I0630 10:28:08.490110 30190 layer_factory.hpp:77] Creating layer detection_loss_4_3x5
I0630 10:28:08.490116 30190 net.cpp:100] Creating Layer detection_loss_4_3x5
I0630 10:28:08.490119 30190 net.cpp:434] detection_loss_4_3x5 <- LFCN_4_3x5_LFCN_4_3x5_0_split_0
I0630 10:28:08.490123 30190 net.cpp:434] detection_loss_4_3x5 <- label_4_3x5_data_7_split_0
I0630 10:28:08.490129 30190 net.cpp:408] detection_loss_4_3x5 -> loss_4_3x5
I0630 10:28:08.490137 30190 layer_factory.hpp:77] Creating layer detection_loss_4_3x5
I0630 10:28:08.490591 30190 net.cpp:150] Setting up detection_loss_4_3x5
I0630 10:28:08.490597 30190 net.cpp:157] Top shape: 1 1 1 2 (2)
I0630 10:28:08.490598 30190 net.cpp:160]     with loss weight 1
I0630 10:28:08.490607 30190 net.cpp:165] Memory required for data: 2268544476
I0630 10:28:08.490609 30190 layer_factory.hpp:77] Creating layer detection_accuracy_4_3x5
I0630 10:28:08.490615 30190 net.cpp:100] Creating Layer detection_accuracy_4_3x5
I0630 10:28:08.490619 30190 net.cpp:434] detection_accuracy_4_3x5 <- LFCN_4_3x5_LFCN_4_3x5_0_split_1
I0630 10:28:08.490623 30190 net.cpp:434] detection_accuracy_4_3x5 <- label_4_3x5_data_7_split_1
I0630 10:28:08.490630 30190 net.cpp:408] detection_accuracy_4_3x5 -> accuracy_4_3x5
I0630 10:28:08.490638 30190 net.cpp:408] detection_accuracy_4_3x5 -> boxiou_4_3x5
I0630 10:28:08.490679 30190 net.cpp:150] Setting up detection_accuracy_4_3x5
I0630 10:28:08.490684 30190 net.cpp:157] Top shape: 1 1 1 2 (2)
I0630 10:28:08.490686 30190 net.cpp:157] Top shape: 1 1 1 1 (1)
I0630 10:28:08.490689 30190 net.cpp:165] Memory required for data: 2268544488
I0630 10:28:08.490690 30190 layer_factory.hpp:77] Creating layer proposals
I0630 10:28:08.490698 30190 net.cpp:100] Creating Layer proposals
I0630 10:28:08.490701 30190 net.cpp:434] proposals <- LFCN_1_3x5_LFCN_1_3x5_0_split_2
I0630 10:28:08.490705 30190 net.cpp:434] proposals <- LFCN_1_5x7_LFCN_1_5x7_0_split_2
I0630 10:28:08.490708 30190 net.cpp:434] proposals <- LFCN_2_3x5_LFCN_2_3x5_0_split_2
I0630 10:28:08.490712 30190 net.cpp:434] proposals <- LFCN_2_5x7_LFCN_2_5x7_0_split_2
I0630 10:28:08.490715 30190 net.cpp:434] proposals <- LFCN_3_3x5_LFCN_3_3x5_0_split_2
I0630 10:28:08.490718 30190 net.cpp:434] proposals <- LFCN_3_5x7_LFCN_3_5x7_0_split_2
I0630 10:28:08.490722 30190 net.cpp:434] proposals <- LFCN_4_3x5_LFCN_4_3x5_0_split_2
I0630 10:28:08.490728 30190 net.cpp:408] proposals -> proposals
I0630 10:28:08.490753 30190 net.cpp:150] Setting up proposals
I0630 10:28:08.490757 30190 net.cpp:157] Top shape: 1 5 1 1 (5)
I0630 10:28:08.490758 30190 net.cpp:165] Memory required for data: 2268544508
I0630 10:28:08.490761 30190 layer_factory.hpp:77] Creating layer proposal_info
I0630 10:28:08.490769 30190 net.cpp:100] Creating Layer proposal_info
I0630 10:28:08.490773 30190 net.cpp:434] proposal_info <- proposals
I0630 10:28:08.490777 30190 net.cpp:434] proposal_info <- gt_boxes
I0630 10:28:08.490783 30190 net.cpp:408] proposal_info -> rois
I0630 10:28:08.490790 30190 net.cpp:408] proposal_info -> proposal_labels
I0630 10:28:08.490797 30190 net.cpp:408] proposal_info -> proposal_targets
I0630 10:28:08.490803 30190 net.cpp:408] proposal_info -> box_inside_weights
I0630 10:28:08.490809 30190 net.cpp:408] proposal_info -> box_outside_weights
I0630 10:28:08.490818 30190 net.cpp:408] proposal_info -> match_gt_boxes
I0630 10:28:08.490911 30190 net.cpp:150] Setting up proposal_info
I0630 10:28:08.490914 30190 net.cpp:157] Top shape: 64 5 1 1 (320)
I0630 10:28:08.490916 30190 net.cpp:157] Top shape: 64 1 1 1 (64)
I0630 10:28:08.490921 30190 net.cpp:157] Top shape: 64 12 1 1 (768)
I0630 10:28:08.490923 30190 net.cpp:157] Top shape: 64 12 1 1 (768)
I0630 10:28:08.490926 30190 net.cpp:157] Top shape: 64 12 1 1 (768)
I0630 10:28:08.490931 30190 net.cpp:157] Top shape: 64 6 1 1 (384)
I0630 10:28:08.490932 30190 net.cpp:165] Memory required for data: 2268556796
I0630 10:28:08.490936 30190 layer_factory.hpp:77] Creating layer rois_proposal_info_0_split
I0630 10:28:08.490941 30190 net.cpp:100] Creating Layer rois_proposal_info_0_split
I0630 10:28:08.490943 30190 net.cpp:434] rois_proposal_info_0_split <- rois
I0630 10:28:08.490947 30190 net.cpp:408] rois_proposal_info_0_split -> rois_proposal_info_0_split_0
I0630 10:28:08.490952 30190 net.cpp:408] rois_proposal_info_0_split -> rois_proposal_info_0_split_1
I0630 10:28:08.490960 30190 net.cpp:408] rois_proposal_info_0_split -> rois_proposal_info_0_split_2
I0630 10:28:08.491008 30190 net.cpp:150] Setting up rois_proposal_info_0_split
I0630 10:28:08.491012 30190 net.cpp:157] Top shape: 64 5 1 1 (320)
I0630 10:28:08.491014 30190 net.cpp:157] Top shape: 64 5 1 1 (320)
I0630 10:28:08.491017 30190 net.cpp:157] Top shape: 64 5 1 1 (320)
I0630 10:28:08.491019 30190 net.cpp:165] Memory required for data: 2268560636
I0630 10:28:08.491022 30190 layer_factory.hpp:77] Creating layer proposal_labels_proposal_info_1_split
I0630 10:28:08.491026 30190 net.cpp:100] Creating Layer proposal_labels_proposal_info_1_split
I0630 10:28:08.491029 30190 net.cpp:434] proposal_labels_proposal_info_1_split <- proposal_labels
I0630 10:28:08.491034 30190 net.cpp:408] proposal_labels_proposal_info_1_split -> proposal_labels_proposal_info_1_split_0
I0630 10:28:08.491039 30190 net.cpp:408] proposal_labels_proposal_info_1_split -> proposal_labels_proposal_info_1_split_1
I0630 10:28:08.491075 30190 net.cpp:150] Setting up proposal_labels_proposal_info_1_split
I0630 10:28:08.491080 30190 net.cpp:157] Top shape: 64 1 1 1 (64)
I0630 10:28:08.491081 30190 net.cpp:157] Top shape: 64 1 1 1 (64)
I0630 10:28:08.491084 30190 net.cpp:165] Memory required for data: 2268561148
I0630 10:28:08.491086 30190 layer_factory.hpp:77] Creating layer conv4_3_2x
I0630 10:28:08.491094 30190 net.cpp:100] Creating Layer conv4_3_2x
I0630 10:28:08.491098 30190 net.cpp:434] conv4_3_2x <- conv4_3_relu4_3_0_split_2
I0630 10:28:08.491103 30190 net.cpp:408] conv4_3_2x -> conv4_3_2x
I0630 10:28:08.491503 30190 net.cpp:150] Setting up conv4_3_2x
I0630 10:28:08.491508 30190 net.cpp:157] Top shape: 2 512 144 192 (28311552)
I0630 10:28:08.491509 30190 net.cpp:165] Memory required for data: 2381807356
I0630 10:28:08.491514 30190 layer_factory.hpp:77] Creating layer conv4_3_2x_conv4_3_2x_0_split
I0630 10:28:08.491518 30190 net.cpp:100] Creating Layer conv4_3_2x_conv4_3_2x_0_split
I0630 10:28:08.491521 30190 net.cpp:434] conv4_3_2x_conv4_3_2x_0_split <- conv4_3_2x
I0630 10:28:08.491528 30190 net.cpp:408] conv4_3_2x_conv4_3_2x_0_split -> conv4_3_2x_conv4_3_2x_0_split_0
I0630 10:28:08.491533 30190 net.cpp:408] conv4_3_2x_conv4_3_2x_0_split -> conv4_3_2x_conv4_3_2x_0_split_1
I0630 10:28:08.491569 30190 net.cpp:150] Setting up conv4_3_2x_conv4_3_2x_0_split
I0630 10:28:08.491574 30190 net.cpp:157] Top shape: 2 512 144 192 (28311552)
I0630 10:28:08.491576 30190 net.cpp:157] Top shape: 2 512 144 192 (28311552)
I0630 10:28:08.491578 30190 net.cpp:165] Memory required for data: 2608299772
I0630 10:28:08.491581 30190 layer_factory.hpp:77] Creating layer roi_pool_org
I0630 10:28:08.491588 30190 net.cpp:100] Creating Layer roi_pool_org
I0630 10:28:08.491591 30190 net.cpp:434] roi_pool_org <- conv4_3_2x_conv4_3_2x_0_split_0
I0630 10:28:08.491595 30190 net.cpp:434] roi_pool_org <- rois_proposal_info_0_split_0
I0630 10:28:08.491600 30190 net.cpp:408] roi_pool_org -> roi_pool_org
I0630 10:28:08.491606 30190 roi_pooling_layer.cpp:33] Spatial scale: 0.25
I0630 10:28:08.491644 30190 net.cpp:150] Setting up roi_pool_org
I0630 10:28:08.491648 30190 net.cpp:157] Top shape: 64 512 7 5 (1146880)
I0630 10:28:08.491650 30190 net.cpp:165] Memory required for data: 2612887292
I0630 10:28:08.491653 30190 layer_factory.hpp:77] Creating layer roi_pool_ctx
I0630 10:28:08.491658 30190 net.cpp:100] Creating Layer roi_pool_ctx
I0630 10:28:08.491662 30190 net.cpp:434] roi_pool_ctx <- conv4_3_2x_conv4_3_2x_0_split_1
I0630 10:28:08.491665 30190 net.cpp:434] roi_pool_ctx <- rois_proposal_info_0_split_1
I0630 10:28:08.491670 30190 net.cpp:408] roi_pool_ctx -> roi_pool_ctx
I0630 10:28:08.491675 30190 roi_pooling_layer.cpp:33] Spatial scale: 0.25
I0630 10:28:08.491713 30190 net.cpp:150] Setting up roi_pool_ctx
I0630 10:28:08.491716 30190 net.cpp:157] Top shape: 64 512 7 5 (1146880)
I0630 10:28:08.491719 30190 net.cpp:165] Memory required for data: 2617474812
I0630 10:28:08.491721 30190 layer_factory.hpp:77] Creating layer roi_pool
I0630 10:28:08.491725 30190 net.cpp:100] Creating Layer roi_pool
I0630 10:28:08.491729 30190 net.cpp:434] roi_pool <- roi_pool_org
I0630 10:28:08.491732 30190 net.cpp:434] roi_pool <- roi_pool_ctx
I0630 10:28:08.491739 30190 net.cpp:408] roi_pool -> roi_pool
I0630 10:28:08.491763 30190 net.cpp:150] Setting up roi_pool
I0630 10:28:08.491767 30190 net.cpp:157] Top shape: 64 1024 7 5 (2293760)
I0630 10:28:08.491770 30190 net.cpp:165] Memory required for data: 2626649852
I0630 10:28:08.491772 30190 layer_factory.hpp:77] Creating layer roi_c1
I0630 10:28:08.491780 30190 net.cpp:100] Creating Layer roi_c1
I0630 10:28:08.491782 30190 net.cpp:434] roi_c1 <- roi_pool
I0630 10:28:08.491788 30190 net.cpp:408] roi_c1 -> roi_c1
I0630 10:28:08.530354 30190 net.cpp:150] Setting up roi_c1
I0630 10:28:08.530371 30190 net.cpp:157] Top shape: 64 512 5 3 (491520)
I0630 10:28:08.530375 30190 net.cpp:165] Memory required for data: 2628615932
I0630 10:28:08.530381 30190 layer_factory.hpp:77] Creating layer roi_c1_relu
I0630 10:28:08.530390 30190 net.cpp:100] Creating Layer roi_c1_relu
I0630 10:28:08.530392 30190 net.cpp:434] roi_c1_relu <- roi_c1
I0630 10:28:08.530397 30190 net.cpp:395] roi_c1_relu -> roi_c1 (in-place)
I0630 10:28:08.531143 30190 net.cpp:150] Setting up roi_c1_relu
I0630 10:28:08.531152 30190 net.cpp:157] Top shape: 64 512 5 3 (491520)
I0630 10:28:08.531154 30190 net.cpp:165] Memory required for data: 2630582012
I0630 10:28:08.531157 30190 layer_factory.hpp:77] Creating layer fc6
I0630 10:28:08.531164 30190 net.cpp:100] Creating Layer fc6
I0630 10:28:08.531167 30190 net.cpp:434] fc6 <- roi_c1
I0630 10:28:08.531172 30190 net.cpp:408] fc6 -> fc6
I0630 10:28:08.652670 30190 net.cpp:150] Setting up fc6
I0630 10:28:08.652690 30190 net.cpp:157] Top shape: 64 2048 (131072)
I0630 10:28:08.652693 30190 net.cpp:165] Memory required for data: 2631106300
I0630 10:28:08.652700 30190 layer_factory.hpp:77] Creating layer relu6
I0630 10:28:08.652709 30190 net.cpp:100] Creating Layer relu6
I0630 10:28:08.652712 30190 net.cpp:434] relu6 <- fc6
I0630 10:28:08.652716 30190 net.cpp:395] relu6 -> fc6 (in-place)
I0630 10:28:08.653053 30190 net.cpp:150] Setting up relu6
I0630 10:28:08.653059 30190 net.cpp:157] Top shape: 64 2048 (131072)
I0630 10:28:08.653061 30190 net.cpp:165] Memory required for data: 2631630588
I0630 10:28:08.653064 30190 layer_factory.hpp:77] Creating layer drop6
I0630 10:28:08.653069 30190 net.cpp:100] Creating Layer drop6
I0630 10:28:08.653072 30190 net.cpp:434] drop6 <- fc6
I0630 10:28:08.653075 30190 net.cpp:395] drop6 -> fc6 (in-place)
I0630 10:28:08.653102 30190 net.cpp:150] Setting up drop6
I0630 10:28:08.653107 30190 net.cpp:157] Top shape: 64 2048 (131072)
I0630 10:28:08.653110 30190 net.cpp:165] Memory required for data: 2632154876
I0630 10:28:08.653111 30190 layer_factory.hpp:77] Creating layer fc6_drop6_0_split
I0630 10:28:08.653117 30190 net.cpp:100] Creating Layer fc6_drop6_0_split
I0630 10:28:08.653121 30190 net.cpp:434] fc6_drop6_0_split <- fc6
I0630 10:28:08.653126 30190 net.cpp:408] fc6_drop6_0_split -> fc6_drop6_0_split_0
I0630 10:28:08.653132 30190 net.cpp:408] fc6_drop6_0_split -> fc6_drop6_0_split_1
I0630 10:28:08.653177 30190 net.cpp:150] Setting up fc6_drop6_0_split
I0630 10:28:08.653182 30190 net.cpp:157] Top shape: 64 2048 (131072)
I0630 10:28:08.653183 30190 net.cpp:157] Top shape: 64 2048 (131072)
I0630 10:28:08.653187 30190 net.cpp:165] Memory required for data: 2633203452
I0630 10:28:08.653189 30190 layer_factory.hpp:77] Creating layer cls_pred
I0630 10:28:08.653198 30190 net.cpp:100] Creating Layer cls_pred
I0630 10:28:08.653203 30190 net.cpp:434] cls_pred <- fc6_drop6_0_split_0
I0630 10:28:08.653206 30190 net.cpp:408] cls_pred -> cls_pred
I0630 10:28:08.653378 30190 net.cpp:150] Setting up cls_pred
I0630 10:28:08.653383 30190 net.cpp:157] Top shape: 64 3 (192)
I0630 10:28:08.653384 30190 net.cpp:165] Memory required for data: 2633204220
I0630 10:28:08.653388 30190 layer_factory.hpp:77] Creating layer cls_pred_cls_pred_0_split
I0630 10:28:08.653393 30190 net.cpp:100] Creating Layer cls_pred_cls_pred_0_split
I0630 10:28:08.653395 30190 net.cpp:434] cls_pred_cls_pred_0_split <- cls_pred
I0630 10:28:08.653398 30190 net.cpp:408] cls_pred_cls_pred_0_split -> cls_pred_cls_pred_0_split_0
I0630 10:28:08.653403 30190 net.cpp:408] cls_pred_cls_pred_0_split -> cls_pred_cls_pred_0_split_1
I0630 10:28:08.653453 30190 net.cpp:150] Setting up cls_pred_cls_pred_0_split
I0630 10:28:08.653457 30190 net.cpp:157] Top shape: 64 3 (192)
I0630 10:28:08.653460 30190 net.cpp:157] Top shape: 64 3 (192)
I0630 10:28:08.653462 30190 net.cpp:165] Memory required for data: 2633205756
I0630 10:28:08.653465 30190 layer_factory.hpp:77] Creating layer bbox_pred
I0630 10:28:08.653470 30190 net.cpp:100] Creating Layer bbox_pred
I0630 10:28:08.653475 30190 net.cpp:434] bbox_pred <- fc6_drop6_0_split_1
I0630 10:28:08.653481 30190 net.cpp:408] bbox_pred -> bbox_pred
I0630 10:28:08.653767 30190 net.cpp:150] Setting up bbox_pred
I0630 10:28:08.653771 30190 net.cpp:157] Top shape: 64 12 (768)
I0630 10:28:08.653774 30190 net.cpp:165] Memory required for data: 2633208828
I0630 10:28:08.653779 30190 layer_factory.hpp:77] Creating layer bbox_pred_bbox_pred_0_split
I0630 10:28:08.653784 30190 net.cpp:100] Creating Layer bbox_pred_bbox_pred_0_split
I0630 10:28:08.653786 30190 net.cpp:434] bbox_pred_bbox_pred_0_split <- bbox_pred
I0630 10:28:08.653791 30190 net.cpp:408] bbox_pred_bbox_pred_0_split -> bbox_pred_bbox_pred_0_split_0
I0630 10:28:08.653800 30190 net.cpp:408] bbox_pred_bbox_pred_0_split -> bbox_pred_bbox_pred_0_split_1
I0630 10:28:08.653836 30190 net.cpp:150] Setting up bbox_pred_bbox_pred_0_split
I0630 10:28:08.653841 30190 net.cpp:157] Top shape: 64 12 (768)
I0630 10:28:08.653842 30190 net.cpp:157] Top shape: 64 12 (768)
I0630 10:28:08.653844 30190 net.cpp:165] Memory required for data: 2633214972
I0630 10:28:08.653847 30190 layer_factory.hpp:77] Creating layer loss_cls
I0630 10:28:08.653854 30190 net.cpp:100] Creating Layer loss_cls
I0630 10:28:08.653858 30190 net.cpp:434] loss_cls <- cls_pred_cls_pred_0_split_0
I0630 10:28:08.653862 30190 net.cpp:434] loss_cls <- proposal_labels_proposal_info_1_split_0
…
