…
    downsample_rate: 16
    downsample_rate: 32
    downsample_rate: 32
    downsample_rate: 64
    coord_num: 4
    field_h: 60
    field_h: 84
    field_h: 120
    field_h: 168
    field_h: 240
    field_h: 336
    field_h: 480
    field_w: 40
    field_w: 56
    field_w: 80
    field_w: 112
    field_w: 160
    field_w: 224
    field_w: 360
    fg_threshold: 0.5
    resize_width: 1920
    resize_height: 576
    crop_width: 768
    crop_height: 576
    do_multiple_scale: true
    min_scale: 60
    max_scale: 480
    min_gt_height: 30
    shuffle: true
  }
}
layer {
  name: "conv1_1"
  type: "Convolution"
  bottom: "data"
  top: "conv1_1"
  convolution_param {
    num_output: 64
    pad: 1
    kernel_size: 3
  }
}
layer {
  name: "relu1_1"
  type: "ReLU"
  bottom: "conv1_1"
  top: "conv1_1"
}
layer {
  name: "conv1_2"
  type: "Convolution"
  bottom: "conv1_1"
  top: "conv1_2"
  convolution_param {
    num_output: 64
    pad: 1
    kernel_size: 3
  }
}
layer {
  name: "relu1_2"
  type: "ReLU"
  bottom: "conv1_2"
  top: "conv1_2"
}
layer {
  name: "pool1"
  type: "Pooling"
  bottom: "conv1_2"
  top: "pool1"
  pooling_param {
    pool: MAX
    kernel_size: 2
    stride: 2
  }
}
layer {
  name: "conv2_1"
  type: "Convolution"
  bottom: "pool1"
  top: "conv2_1"
  convolution_param {
    num_output: 128
    pad: 1
    kernel_size: 3
  }
}
layer {
  name: "relu2_1"
  type: "ReLU"
  bottom: "conv2_1"
  top: "conv2_1"
}
layer {
  name: "conv2_2"
  type: "Convolution"
  bottom: "conv2_1"
  top: "conv2_2"
  convolution_param {
    num_output: 128
    pad: 1
    kernel_size: 3
  }
}
layer {
  name: "relu2_2"
  type: "ReLU"
  bottom: "conv2_2"
  top: "conv2_2"
}
layer {
  name: "pool2"
  type: "Pooling"
  bottom: "conv2_2"
  top: "pool2"
  pooling_param {
    pool: MAX
    kernel_size: 2
    stride: 2
  }
}
layer {
  name: "conv3_1"
  type: "Convolution"
  bottom: "pool2"
  top: "conv3_1"
  convolution_param {
    num_output: 256
    pad: 1
    kernel_size: 3
  }
}
layer {
  name: "relu3_1"
  type: "ReLU"
  bottom: "conv3_1"
  top: "conv3_1"
}
layer {
  name: "conv3_2"
  type: "Convolution"
  bottom: "conv3_1"
  top: "conv3_2"
  convolution_param {
    num_output: 256
    pad: 1
    kernel_size: 3
  }
}
layer {
  name: "relu3_2"
  type: "ReLU"
  bottom: "conv3_2"
  top: "conv3_2"
}
layer {
  name: "conv3_3"
  type: "Convolution"
  bottom: "conv3_2"
  top: "conv3_3"
  convolution_param {
    num_output: 256
    pad: 1
    kernel_size: 3
  }
}
layer {
  name: "relu3_3"
  type: "ReLU"
  bottom: "conv3_3"
  top: "conv3_3"
}
layer {
  name: "pool3"
  type: "Pooling"
  bottom: "conv3_3"
  top: "pool3"
  pooling_param {
    pool: MAX
    kernel_size: 2
    stride: 2
  }
}
layer {
  name: "conv4_1"
  type: "Convolution"
  bottom: "pool3"
  top: "conv4_1"
  convolution_param {
    num_output: 512
    pad: 1
    kernel_size: 3
  }
}
layer {
  name: "relu4_1"
  type: "ReLU"
  bottom: "conv4_1"
  top: "conv4_1"
}
layer {
  name: "conv4_2"
  type: "Convolution"
  bottom: "conv4_1"
  top: "conv4_2"
  convolution_param {
    num_output: 512
    pad: 1
    kernel_size: 3
  }
}
layer {
  name: "relu4_2"
  type: "ReLU"
  bottom: "conv4_2"
  top: "conv4_2"
}
layer {
  name: "conv4_3"
  type: "Convolution"
  bottom: "conv4_2"
  top: "conv4_3"
  convolution_param {
    num_output: 512
    pad: 1
    kernel_size: 3
  }
}
layer {
  name: "relu4_3"
  type: "ReLU"
  bottom: "conv4_3"
  top: "conv4_3"
}
layer {
  name: "loss1_conv1"
  type: "Convolution"
  bottom: "conv4_3"
  top: "loss1_conv1"
  param {
    lr_mult: 1
    decay_mult: 1
  }
  param {
    lr_mult: 2
    decay_mult: 0
  }
  convolution_param {
    num_output: 512
    pad: 1
    kernel_size: 3
    weight_filler {
      type: "gaussian"
      std: 0.01
    }
    bias_filler {
      type: "constant"
    }
  }
}
layer {
  name: "loss_relu1"
  type: "ReLU"
  bottom: "loss1_conv1"
  top: "loss1_conv1"
}
layer {
  name: "LFCN_1_3x5"
  type: "Convolution"
  bottom: "loss1_conv1"
  top: "LFCN_1_3x5"
  param {
    lr_mult: 1
    decay_mult: 1
  }
  param {
    lr_mult: 2
    decay_mult: 0
  }
  convolution_param {
    num_output: 7
    weight_filler {
      type: "gaussian"
      std: 0.001
    }
    bias_filler {
      type: "constant"
    }
    pad_h: 2
    pad_w: 1
    kernel_h: 5
    kernel_w: 3
  }
}
layer {
  name: "detection_loss_1_3x5"
  type: "DetectionLoss"
  bottom: "LFCN_1_3x5"
  bottom: "label_1_3x5"
  top: "loss_1_3x5"
  loss_weight: 0.9
  detection_loss_param {
    cls_num: 3
    coord_num: 4
    lambda: 0.5
    field_h: 60
    field_w: 40
    downsample_rate: 8
    bb_smooth: true
    field_whr: 2
    field_xyr: 2
    bg_threshold: 0.2
    bg_multiple: 2
    sample_mode: "random"
    pos_neg_weighted: true
  }
}
layer {
  name: "detection_accuracy_1_3x5"
  type: "DetectionAccuracy"
  bottom: "LFCN_1_3x5"
  bottom: "label_1_3x5"
  top: "accuracy_1_3x5"
  top: "boxiou_1_3x5"
  detection_accuracy_param {
    cls_num: 3
    coord_num: 4
    field_h: 60
    field_w: 40
    downsample_rate: 8
    field_whr: 2
    field_xyr: 2
  }
}
layer {
  name: "LFCN_1_5x7"
  type: "Convolution"
  bottom: "loss1_conv1"
  top: "LFCN_1_5x7"
  param {
    lr_mult: 1
    decay_mult: 1
  }
  param {
    lr_mult: 2
    decay_mult: 0
  }
  convolution_param {
    num_output: 7
    weight_filler {
      type: "gaussian"
      std: 0.001
    }
    bias_filler {
      type: "constant"
    }
    pad_h: 3
    pad_w: 2
    kernel_h: 7
    kernel_w: 5
  }
}
layer {
  name: "detection_loss_1_5x7"
  type: "DetectionLoss"
  bottom: "LFCN_1_5x7"
  bottom: "label_1_5x7"
  top: "loss_1_5x7"
  loss_weight: 0.9
  detection_loss_param {
    cls_num: 3
    coord_num: 4
    lambda: 0.5
    field_h: 84
    field_w: 56
    downsample_rate: 8
    bb_smooth: true
    field_whr: 2
    field_xyr: 2
    bg_threshold: 0.2
    bg_multiple: 2
    sample_mode: "random"
    pos_neg_weighted: true
  }
}
layer {
  name: "detection_accuracy_1_5x7"
  type: "DetectionAccuracy"
  bottom: "LFCN_1_5x7"
  bottom: "label_1_5x7"
  top: "accuracy_1_5x7"
  top: "boxiou_1_5x7"
  detection_accuracy_param {
    cls_num: 3
    coord_num: 4
    field_h: 84
    field_w: 56
    downsample_rate: 8
    field_whr: 2
    field_xyr: 2
  }
}
layer {
  name: "pool4"
  type: "Pooling"
  bottom: "conv4_3"
  top: "pool4"
  pooling_param {
    pool: MAX
    kernel_size: 2
    stride: 2
  }
}
layer {
  name: "conv5_1"
  type: "Convolution"
  bottom: "pool4"
  top: "conv5_1"
  convolution_param {
    num_output: 512
    pad: 1
    kernel_size: 3
  }
}
layer {
  name: "relu5_1"
  type: "ReLU"
  bottom: "conv5_1"
  top: "conv5_1"
}
layer {
  name: "conv5_2"
  type: "Convolution"
  bottom: "conv5_1"
  top: "conv5_2"
  convolution_param {
    num_output: 512
    pad: 1
    kernel_size: 3
  }
}
layer {
  name: "relu5_2"
  type: "ReLU"
  bottom: "conv5_2"
  top: "conv5_2"
}
layer {
  name: "conv5_3"
  type: "Convolution"
  bottom: "conv5_2"
  top: "conv5_3"
  convolution_param {
    num_output: 512
    pad: 1
    kernel_size: 3
  }
}
layer {
  name: "relu5_3"
  type: "ReLU"
  bottom: "conv5_3"
  top: "conv5_3"
}
layer {
  name: "LFCN_2_3x5"
  type: "Convolution"
  bottom: "conv5_3"
  top: "LFCN_2_3x5"
  param {
    lr_mult: 1
    decay_mult: 1
  }
  param {
    lr_mult: 2
    decay_mult: 0
  }
  convolution_param {
    num_output: 7
    weight_filler {
      type: "gaussian"
      std: 0.001
    }
    bias_filler {
      type: "constant"
    }
    pad_h: 2
    pad_w: 1
    kernel_h: 5
    kernel_w: 3
  }
}
layer {
  name: "detection_loss_2_3x5"
  type: "DetectionLoss"
  bottom: "LFCN_2_3x5"
  bottom: "label_2_3x5"
  top: "loss_2_3x5"
  detection_loss_param {
    cls_num: 3
    coord_num: 4
    lambda: 0.5
    field_h: 120
    field_w: 80
    downsample_rate: 16
    bb_smooth: true
    field_whr: 2
    field_xyr: 2
    bg_threshold: 0.2
    bg_multiple: 2
    sample_mode: "random"
    pos_neg_weighted: true
  }
}
layer {
  name: "detection_accuracy_2_3x5"
  type: "DetectionAccuracy"
  bottom: "LFCN_2_3x5"
  bottom: "label_2_3x5"
  top: "accuracy_2_3x5"
  top: "boxiou_2_3x5"
  detection_accuracy_param {
    cls_num: 3
    coord_num: 4
    field_h: 120
    field_w: 80
    downsample_rate: 16
    field_whr: 2
    field_xyr: 2
  }
}
layer {
  name: "LFCN_2_5x7"
  type: "Convolution"
  bottom: "conv5_3"
  top: "LFCN_2_5x7"
  param {
    lr_mult: 1
    decay_mult: 1
  }
  param {
    lr_mult: 2
    decay_mult: 0
  }
  convolution_param {
    num_output: 7
    weight_filler {
      type: "gaussian"
      std: 0.001
    }
    bias_filler {
      type: "constant"
    }
    pad_h: 3
    pad_w: 2
    kernel_h: 7
    kernel_w: 5
  }
}
layer {
  name: "detection_loss_2_5x7"
  type: "DetectionLoss"
  bottom: "LFCN_2_5x7"
  bottom: "label_2_5x7"
  top: "loss_2_5x7"
  detection_loss_param {
    cls_num: 3
    coord_num: 4
    lambda: 0.5
    field_h: 168
    field_w: 112
    downsample_rate: 16
    bb_smooth: true
    field_whr: 2
    field_xyr: 2
    bg_threshold: 0.2
    bg_multiple: 2
    sample_mode: "random"
    pos_neg_weighted: true
  }
}
layer {
  name: "detection_accuracy_2_5x7"
  type: "DetectionAccuracy"
  bottom: "LFCN_2_5x7"
  bottom: "label_2_5x7"
  top: "accuracy_2_5x7"
  top: "boxiou_2_5x7"
  detection_accuracy_param {
    cls_num: 3
    coord_num: 4
    field_h: 168
    field_w: 112
    downsample_rate: 16
    field_whr: 2
    field_xyr: 2
  }
}
layer {
  name: "pool5"
  type: "Pooling"
  bottom: "conv5_3"
  top: "pool5"
  pooling_param {
    pool: MAX
    kernel_size: 2
    stride: 2
  }
}
layer {
  name: "conv6_1"
  type: "Convolution"
  bottom: "pool5"
  top: "conv6_1"
  param {
    lr_mult: 1
    decay_mult: 1
  }
  param {
    lr_mult: 2
    decay_mult: 0
  }
  convolution_param {
    num_output: 512
    pad: 1
    kernel_size: 3
    weight_filler {
      type: "gaussian"
      std: 0.01
    }
    bias_filler {
      type: "constant"
    }
  }
}
layer {
  name: "relu6_1"
  type: "ReLU"
  bottom: "conv6_1"
  top: "conv6_1"
}
layer {
  name: "LFCN_3_3x5"
  type: "Convolution"
  bottom: "conv6_1"
  top: "LFCN_3_3x5"
  param {
    lr_mult: 1
    decay_mult: 1
  }
  param {
    lr_mult: 2
    decay_mult: 0
  }
  convolution_param {
    num_output: 7
    weight_filler {
      type: "gaussian"
      std: 0.001
    }
    bias_filler {
      type: "constant"
    }
    pad_h: 2
    pad_w: 1
    kernel_h: 5
    kernel_w: 3
  }
}
layer {
  name: "detection_loss_3_3x5"
  type: "DetectionLoss"
  bottom: "LFCN_3_3x5"
  bottom: "label_3_3x5"
  top: "loss_3_3x5"
  detection_loss_param {
    cls_num: 3
    coord_num: 4
    lambda: 0.5
    field_h: 240
    field_w: 160
    downsample_rate: 32
    bb_smooth: true
    field_whr: 2
    field_xyr: 2
    bg_threshold: 0.2
    bg_multiple: 2
    sample_mode: "random"
    pos_neg_weighted: true
  }
}
layer {
  name: "detection_accuracy_3_3x5"
  type: "DetectionAccuracy"
  bottom: "LFCN_3_3x5"
  bottom: "label_3_3x5"
  top: "accuracy_3_3x5"
  top: "boxiou_3_3x5"
  detection_accuracy_param {
    cls_num: 3
    coord_num: 4
    field_h: 240
    field_w: 160
    downsample_rate: 32
    field_whr: 2
    field_xyr: 2
  }
}
layer {
  name: "LFCN_3_5x7"
  type: "Convolution"
  bottom: "conv6_1"
  top: "LFCN_3_5x7"
  param {
    lr_mult: 1
    decay_mult: 1
  }
  param {
    lr_mult: 2
    decay_mult: 0
  }
  convolution_param {
    num_output: 7
    weight_filler {
      type: "gaussian"
      std: 0.001
    }
    bias_filler {
      type: "constant"
    }
    pad_h: 3
    pad_w: 2
    kernel_h: 7
    kernel_w: 5
  }
}
layer {
  name: "detection_loss_3_5x7"
  type: "DetectionLoss"
  bottom: "LFCN_3_5x7"
  bottom: "label_3_5x7"
  top: "loss_3_5x7"
  detection_loss_param {
    cls_num: 3
    coord_num: 4
    lambda: 0.5
    field_h: 336
    field_w: 224
    downsample_rate: 32
    bb_smooth: true
    field_whr: 2
    field_xyr: 2
    bg_threshold: 0.2
    bg_multiple: 2
    sample_mode: "random"
    pos_neg_weighted: true
  }
}
layer {
  name: "detection_accuracy_3_5x7"
  type: "DetectionAccuracy"
  bottom: "LFCN_3_5x7"
  bottom: "label_3_5x7"
  top: "accuracy_3_5x7"
  top: "boxiou_3_5x7"
  detection_accuracy_param {
    cls_num: 3
    coord_num: 4
    field_h: 336
    field_w: 224
    downsample_rate: 32
    field_whr: 2
    field_xyr: 2
  }
}
layer {
  name: "pool6"
  type: "Pooling"
  bottom: "conv6_1"
  top: "pool6"
  pooling_param {
    pool: MAX
    kernel_size: 2
    stride: 2
  }
}
layer {
  name: "LFCN_4_3x5"
  type: "Convolution"
  bottom: "pool6"
  top: "LFCN_4_3x5"
  param {
    lr_mult: 1
    decay_mult: 1
  }
  param {
    lr_mult: 2
    decay_mult: 0
  }
  convolution_param {
    num_output: 7
    weight_filler {
      type: "gaussian"
      std: 0.001
    }
    bias_filler {
      type: "constant"
    }
    pad_h: 2
    pad_w: 1
    kernel_h: 5
    kernel_w: 3
  }
}
layer {
  name: "detection_loss_4_3x5"
  type: "DetectionLoss"
  bottom: "LFCN_4_3x5"
  bottom: "label_4_3x5"
  top: "loss_4_3x5"
  detection_loss_param {
    cls_num: 3
    coord_num: 4
    lambda: 0.5
    field_h: 480
    field_w: 360
    downsample_rate: 64
    bb_smooth: true
    field_whr: 2
    field_xyr: 2
    bg_threshold: 0.2
    bg_multiple: 2
    sample_mode: "random"
    pos_neg_weighted: true
  }
}
layer {
  name: "detection_accuracy_4_3x5"
  type: "DetectionAccuracy"
  bottom: "LFCN_4_3x5"
  bottom: "label_4_3x5"
  top: "accuracy_4_3x5"
  top: "boxiou_4_3x5"
  detection_accuracy_param {
    cls_num: 3
    coord_num: 4
    field_h: 480
    field_w: 360
    downsample_rate: 64
    field_whr: 2
    field_xyr: 2
  }
}
I0630 08:05:02.736181 29851 layer_factory.hpp:77] Creating layer data
I0630 08:05:02.736212 29851 net.cpp:100] Creating Layer data
I0630 08:05:02.736219 29851 net.cpp:408] data -> data
…
I0630 08:05:02.757576 29851 image_gt_data_layer.cpp:241] output label size 2 : 4,6,36,48
I0630 08:05:02.757621 29851 image_gt_data_layer.cpp:241] output label size 3 : 4,6,36,48
I0630 08:05:02.757652 29851 image_gt_data_layer.cpp:241] output label size 4 : 4,6,18,24
I0630 08:05:02.757691 29851 image_gt_data_layer.cpp:241] output label size 5 : 4,6,18,24
I0630 08:05:02.757725 29851 image_gt_data_layer.cpp:241] output label size 6 : 4,6,9,12
I0630 08:05:02.757728 29851 image_gt_data_layer.cpp:265]  --> has_mean_values_ = 1
I0630 08:05:02.794214 29851 net.cpp:150] Setting up data
I0630 08:05:02.794236 29851 net.cpp:157] Top shape: 4 4 576 768 (7077888)
I0630 08:05:02.794241 29851 net.cpp:157] Top shape: 4 6 72 96 (165888)
I0630 08:05:02.794245 29851 net.cpp:157] Top shape: 4 6 72 96 (165888)
I0630 08:05:02.794250 29851 net.cpp:157] Top shape: 4 6 36 48 (41472)
I0630 08:05:02.794253 29851 net.cpp:157] Top shape: 4 6 36 48 (41472)
I0630 08:05:02.794257 29851 net.cpp:157] Top shape: 4 6 18 24 (10368)
I0630 08:05:02.794260 29851 net.cpp:157] Top shape: 4 6 18 24 (10368)
I0630 08:05:02.794265 29851 net.cpp:157] Top shape: 4 6 9 12 (2592)
I0630 08:05:02.794266 29851 net.cpp:165] Memory required for data: 30063744
I0630 08:05:02.794273 29851 layer_factory.hpp:77] Creating layer label_1_3x5_data_1_split
I0630 08:05:02.794284 29851 net.cpp:100] Creating Layer label_1_3x5_data_1_split
I0630 08:05:02.794291 29851 net.cpp:434] label_1_3x5_data_1_split <- label_1_3x5
I0630 08:05:02.794302 29851 net.cpp:408] label_1_3x5_data_1_split -> label_1_3x5_data_1_split_0
I0630 08:05:02.794313 29851 net.cpp:408] label_1_3x5_data_1_split -> label_1_3x5_data_1_split_1
I0630 08:05:02.794356 29851 net.cpp:150] Setting up label_1_3x5_data_1_split
I0630 08:05:02.794363 29851 net.cpp:157] Top shape: 4 6 72 96 (165888)
I0630 08:05:02.794366 29851 net.cpp:157] Top shape: 4 6 72 96 (165888)
I0630 08:05:02.794369 29851 net.cpp:165] Memory required for data: 31390848
I0630 08:05:02.794373 29851 layer_factory.hpp:77] Creating layer label_1_5x7_data_2_split
I0630 08:05:02.794378 29851 net.cpp:100] Creating Layer label_1_5x7_data_2_split
I0630 08:05:02.794381 29851 net.cpp:434] label_1_5x7_data_2_split <- label_1_5x7
I0630 08:05:02.794389 29851 net.cpp:408] label_1_5x7_data_2_split -> label_1_5x7_data_2_split_0
I0630 08:05:02.794396 29851 net.cpp:408] label_1_5x7_data_2_split -> label_1_5x7_data_2_split_1
I0630 08:05:02.794425 29851 net.cpp:150] Setting up label_1_5x7_data_2_split
I0630 08:05:02.794430 29851 net.cpp:157] Top shape: 4 6 72 96 (165888)
I0630 08:05:02.794435 29851 net.cpp:157] Top shape: 4 6 72 96 (165888)
I0630 08:05:02.794437 29851 net.cpp:165] Memory required for data: 32717952
I0630 08:05:02.794440 29851 layer_factory.hpp:77] Creating layer label_2_3x5_data_3_split
I0630 08:05:02.794445 29851 net.cpp:100] Creating Layer label_2_3x5_data_3_split
I0630 08:05:02.794447 29851 net.cpp:434] label_2_3x5_data_3_split <- label_2_3x5
I0630 08:05:02.794454 29851 net.cpp:408] label_2_3x5_data_3_split -> label_2_3x5_data_3_split_0
I0630 08:05:02.794461 29851 net.cpp:408] label_2_3x5_data_3_split -> label_2_3x5_data_3_split_1
I0630 08:05:02.794489 29851 net.cpp:150] Setting up label_2_3x5_data_3_split
I0630 08:05:02.794494 29851 net.cpp:157] Top shape: 4 6 36 48 (41472)
I0630 08:05:02.794498 29851 net.cpp:157] Top shape: 4 6 36 48 (41472)
I0630 08:05:02.794500 29851 net.cpp:165] Memory required for data: 33049728
I0630 08:05:02.794503 29851 layer_factory.hpp:77] Creating layer label_2_5x7_data_4_split
I0630 08:05:02.794510 29851 net.cpp:100] Creating Layer label_2_5x7_data_4_split
I0630 08:05:02.794513 29851 net.cpp:434] label_2_5x7_data_4_split <- label_2_5x7
I0630 08:05:02.794518 29851 net.cpp:408] label_2_5x7_data_4_split -> label_2_5x7_data_4_split_0
I0630 08:05:02.794524 29851 net.cpp:408] label_2_5x7_data_4_split -> label_2_5x7_data_4_split_1
I0630 08:05:02.794553 29851 net.cpp:150] Setting up label_2_5x7_data_4_split
I0630 08:05:02.794559 29851 net.cpp:157] Top shape: 4 6 36 48 (41472)
I0630 08:05:02.794562 29851 net.cpp:157] Top shape: 4 6 36 48 (41472)
I0630 08:05:02.794564 29851 net.cpp:165] Memory required for data: 33381504
I0630 08:05:02.794567 29851 layer_factory.hpp:77] Creating layer label_3_3x5_data_5_split
I0630 08:05:02.794574 29851 net.cpp:100] Creating Layer label_3_3x5_data_5_split
I0630 08:05:02.794576 29851 net.cpp:434] label_3_3x5_data_5_split <- label_3_3x5
I0630 08:05:02.794581 29851 net.cpp:408] label_3_3x5_data_5_split -> label_3_3x5_data_5_split_0
I0630 08:05:02.794590 29851 net.cpp:408] label_3_3x5_data_5_split -> label_3_3x5_data_5_split_1
I0630 08:05:02.794618 29851 net.cpp:150] Setting up label_3_3x5_data_5_split
I0630 08:05:02.794625 29851 net.cpp:157] Top shape: 4 6 18 24 (10368)
I0630 08:05:02.794628 29851 net.cpp:157] Top shape: 4 6 18 24 (10368)
I0630 08:05:02.794631 29851 net.cpp:165] Memory required for data: 33464448
I0630 08:05:02.794634 29851 layer_factory.hpp:77] Creating layer label_3_5x7_data_6_split
I0630 08:05:02.794638 29851 net.cpp:100] Creating Layer label_3_5x7_data_6_split
I0630 08:05:02.794641 29851 net.cpp:434] label_3_5x7_data_6_split <- label_3_5x7
I0630 08:05:02.794646 29851 net.cpp:408] label_3_5x7_data_6_split -> label_3_5x7_data_6_split_0
I0630 08:05:02.794652 29851 net.cpp:408] label_3_5x7_data_6_split -> label_3_5x7_data_6_split_1
I0630 08:05:02.794680 29851 net.cpp:150] Setting up label_3_5x7_data_6_split
I0630 08:05:02.794685 29851 net.cpp:157] Top shape: 4 6 18 24 (10368)
I0630 08:05:02.794689 29851 net.cpp:157] Top shape: 4 6 18 24 (10368)
I0630 08:05:02.794692 29851 net.cpp:165] Memory required for data: 33547392
I0630 08:05:02.794695 29851 layer_factory.hpp:77] Creating layer label_4_3x5_data_7_split
I0630 08:05:02.794699 29851 net.cpp:100] Creating Layer label_4_3x5_data_7_split
I0630 08:05:02.794703 29851 net.cpp:434] label_4_3x5_data_7_split <- label_4_3x5
I0630 08:05:02.794709 29851 net.cpp:408] label_4_3x5_data_7_split -> label_4_3x5_data_7_split_0
I0630 08:05:02.794715 29851 net.cpp:408] label_4_3x5_data_7_split -> label_4_3x5_data_7_split_1
I0630 08:05:02.794741 29851 net.cpp:150] Setting up label_4_3x5_data_7_split
I0630 08:05:02.794746 29851 net.cpp:157] Top shape: 4 6 9 12 (2592)
I0630 08:05:02.794750 29851 net.cpp:157] Top shape: 4 6 9 12 (2592)
I0630 08:05:02.794752 29851 net.cpp:165] Memory required for data: 33568128
I0630 08:05:02.794755 29851 layer_factory.hpp:77] Creating layer conv1_1
I0630 08:05:02.794775 29851 net.cpp:100] Creating Layer conv1_1
I0630 08:05:02.794780 29851 net.cpp:434] conv1_1 <- data
I0630 08:05:02.794785 29851 net.cpp:408] conv1_1 -> conv1_1
I0630 08:05:03.352349 29851 net.cpp:150] Setting up conv1_1
I0630 08:05:03.352371 29851 net.cpp:157] Top shape: 4 64 576 768 (113246208)
I0630 08:05:03.352375 29851 net.cpp:165] Memory required for data: 486552960
I0630 08:05:03.352391 29851 layer_factory.hpp:77] Creating layer relu1_1
I0630 08:05:03.352399 29851 net.cpp:100] Creating Layer relu1_1
I0630 08:05:03.352402 29851 net.cpp:434] relu1_1 <- conv1_1
I0630 08:05:03.352407 29851 net.cpp:395] relu1_1 -> conv1_1 (in-place)
I0630 08:05:03.352710 29851 net.cpp:150] Setting up relu1_1
I0630 08:05:03.352717 29851 net.cpp:157] Top shape: 4 64 576 768 (113246208)
I0630 08:05:03.352720 29851 net.cpp:165] Memory required for data: 939537792
I0630 08:05:03.352721 29851 layer_factory.hpp:77] Creating layer conv1_2
I0630 08:05:03.352728 29851 net.cpp:100] Creating Layer conv1_2
I0630 08:05:03.352730 29851 net.cpp:434] conv1_2 <- conv1_1
I0630 08:05:03.352735 29851 net.cpp:408] conv1_2 -> conv1_2
I0630 08:05:03.355772 29851 net.cpp:150] Setting up conv1_2
I0630 08:05:03.355792 29851 net.cpp:157] Top shape: 4 64 576 768 (113246208)
I0630 08:05:03.355794 29851 net.cpp:165] Memory required for data: 1392522624
I0630 08:05:03.355803 29851 layer_factory.hpp:77] Creating layer relu1_2
I0630 08:05:03.355809 29851 net.cpp:100] Creating Layer relu1_2
I0630 08:05:03.355813 29851 net.cpp:434] relu1_2 <- conv1_2
I0630 08:05:03.355816 29851 net.cpp:395] relu1_2 -> conv1_2 (in-place)
I0630 08:05:03.356097 29851 net.cpp:150] Setting up relu1_2
I0630 08:05:03.356103 29851 net.cpp:157] Top shape: 4 64 576 768 (113246208)
I0630 08:05:03.356106 29851 net.cpp:165] Memory required for data: 1845507456
I0630 08:05:03.356108 29851 layer_factory.hpp:77] Creating layer pool1
I0630 08:05:03.356112 29851 net.cpp:100] Creating Layer pool1
I0630 08:05:03.356114 29851 net.cpp:434] pool1 <- conv1_2
I0630 08:05:03.356119 29851 net.cpp:408] pool1 -> pool1
I0630 08:05:03.356166 29851 net.cpp:150] Setting up pool1
I0630 08:05:03.356170 29851 net.cpp:157] Top shape: 4 64 288 384 (28311552)
I0630 08:05:03.356173 29851 net.cpp:165] Memory required for data: 1958753664
I0630 08:05:03.356174 29851 layer_factory.hpp:77] Creating layer conv2_1
I0630 08:05:03.356184 29851 net.cpp:100] Creating Layer conv2_1
I0630 08:05:03.356186 29851 net.cpp:434] conv2_1 <- pool1
I0630 08:05:03.356191 29851 net.cpp:408] conv2_1 -> conv2_1
I0630 08:05:03.358670 29851 net.cpp:150] Setting up conv2_1
I0630 08:05:03.358688 29851 net.cpp:157] Top shape: 4 128 288 384 (56623104)
I0630 08:05:03.358690 29851 net.cpp:165] Memory required for data: 2185246080
I0630 08:05:03.358700 29851 layer_factory.hpp:77] Creating layer relu2_1
I0630 08:05:03.358705 29851 net.cpp:100] Creating Layer relu2_1
I0630 08:05:03.358708 29851 net.cpp:434] relu2_1 <- conv2_1
I0630 08:05:03.358713 29851 net.cpp:395] relu2_1 -> conv2_1 (in-place)
I0630 08:05:03.359342 29851 net.cpp:150] Setting up relu2_1
I0630 08:05:03.359351 29851 net.cpp:157] Top shape: 4 128 288 384 (56623104)
I0630 08:05:03.359354 29851 net.cpp:165] Memory required for data: 2411738496
I0630 08:05:03.359356 29851 layer_factory.hpp:77] Creating layer conv2_2
I0630 08:05:03.359366 29851 net.cpp:100] Creating Layer conv2_2
I0630 08:05:03.359369 29851 net.cpp:434] conv2_2 <- conv2_1
I0630 08:05:03.359375 29851 net.cpp:408] conv2_2 -> conv2_2
I0630 08:05:03.361171 29851 net.cpp:150] Setting up conv2_2
I0630 08:05:03.361187 29851 net.cpp:157] Top shape: 4 128 288 384 (56623104)
I0630 08:05:03.361189 29851 net.cpp:165] Memory required for data: 2638230912
I0630 08:05:03.361196 29851 layer_factory.hpp:77] Creating layer relu2_2
I0630 08:05:03.361205 29851 net.cpp:100] Creating Layer relu2_2
I0630 08:05:03.361208 29851 net.cpp:434] relu2_2 <- conv2_2
I0630 08:05:03.361212 29851 net.cpp:395] relu2_2 -> conv2_2 (in-place)
I0630 08:05:03.361865 29851 net.cpp:150] Setting up relu2_2
I0630 08:05:03.361873 29851 net.cpp:157] Top shape: 4 128 288 384 (56623104)
I0630 08:05:03.361876 29851 net.cpp:165] Memory required for data: 2864723328
I0630 08:05:03.361878 29851 layer_factory.hpp:77] Creating layer pool2
I0630 08:05:03.361883 29851 net.cpp:100] Creating Layer pool2
I0630 08:05:03.361886 29851 net.cpp:434] pool2 <- conv2_2
I0630 08:05:03.361891 29851 net.cpp:408] pool2 -> pool2
I0630 08:05:03.361933 29851 net.cpp:150] Setting up pool2
I0630 08:05:03.361943 29851 net.cpp:157] Top shape: 4 128 144 192 (14155776)
I0630 08:05:03.361945 29851 net.cpp:165] Memory required for data: 2921346432
I0630 08:05:03.361948 29851 layer_factory.hpp:77] Creating layer conv3_1
I0630 08:05:03.361956 29851 net.cpp:100] Creating Layer conv3_1
I0630 08:05:03.361960 29851 net.cpp:434] conv3_1 <- pool2
I0630 08:05:03.361965 29851 net.cpp:408] conv3_1 -> conv3_1
I0630 08:05:03.364635 29851 net.cpp:150] Setting up conv3_1
I0630 08:05:03.364655 29851 net.cpp:157] Top shape: 4 256 144 192 (28311552)
I0630 08:05:03.364657 29851 net.cpp:165] Memory required for data: 3034592640
I0630 08:05:03.364666 29851 layer_factory.hpp:77] Creating layer relu3_1
I0630 08:05:03.364673 29851 net.cpp:100] Creating Layer relu3_1
I0630 08:05:03.364676 29851 net.cpp:434] relu3_1 <- conv3_1
I0630 08:05:03.364681 29851 net.cpp:395] relu3_1 -> conv3_1 (in-place)
I0630 08:05:03.364931 29851 net.cpp:150] Setting up relu3_1
I0630 08:05:03.364938 29851 net.cpp:157] Top shape: 4 256 144 192 (28311552)
I0630 08:05:03.364940 29851 net.cpp:165] Memory required for data: 3147838848
I0630 08:05:03.364943 29851 layer_factory.hpp:77] Creating layer conv3_2
I0630 08:05:03.364949 29851 net.cpp:100] Creating Layer conv3_2
I0630 08:05:03.364951 29851 net.cpp:434] conv3_2 <- conv3_1
I0630 08:05:03.364955 29851 net.cpp:408] conv3_2 -> conv3_2
I0630 08:05:03.368196 29851 net.cpp:150] Setting up conv3_2
I0630 08:05:03.368212 29851 net.cpp:157] Top shape: 4 256 144 192 (28311552)
I0630 08:05:03.368216 29851 net.cpp:165] Memory required for data: 3261085056
I0630 08:05:03.368221 29851 layer_factory.hpp:77] Creating layer relu3_2
I0630 08:05:03.368227 29851 net.cpp:100] Creating Layer relu3_2
I0630 08:05:03.368232 29851 net.cpp:434] relu3_2 <- conv3_2
I0630 08:05:03.368237 29851 net.cpp:395] relu3_2 -> conv3_2 (in-place)
I0630 08:05:03.368489 29851 net.cpp:150] Setting up relu3_2
I0630 08:05:03.368495 29851 net.cpp:157] Top shape: 4 256 144 192 (28311552)
I0630 08:05:03.368497 29851 net.cpp:165] Memory required for data: 3374331264
I0630 08:05:03.368499 29851 layer_factory.hpp:77] Creating layer conv3_3
I0630 08:05:03.368506 29851 net.cpp:100] Creating Layer conv3_3
I0630 08:05:03.368508 29851 net.cpp:434] conv3_3 <- conv3_2
I0630 08:05:03.368512 29851 net.cpp:408] conv3_3 -> conv3_3
I0630 08:05:03.371471 29851 net.cpp:150] Setting up conv3_3
I0630 08:05:03.371490 29851 net.cpp:157] Top shape: 4 256 144 192 (28311552)
I0630 08:05:03.371492 29851 net.cpp:165] Memory required for data: 3487577472
I0630 08:05:03.371498 29851 layer_factory.hpp:77] Creating layer relu3_3
I0630 08:05:03.371505 29851 net.cpp:100] Creating Layer relu3_3
I0630 08:05:03.371507 29851 net.cpp:434] relu3_3 <- conv3_3
I0630 08:05:03.371511 29851 net.cpp:395] relu3_3 -> conv3_3 (in-place)
I0630 08:05:03.372109 29851 net.cpp:150] Setting up relu3_3
I0630 08:05:03.372120 29851 net.cpp:157] Top shape: 4 256 144 192 (28311552)
I0630 08:05:03.372123 29851 net.cpp:165] Memory required for data: 3600823680
I0630 08:05:03.372125 29851 layer_factory.hpp:77] Creating layer pool3
I0630 08:05:03.372129 29851 net.cpp:100] Creating Layer pool3
I0630 08:05:03.372133 29851 net.cpp:434] pool3 <- conv3_3
I0630 08:05:03.372138 29851 net.cpp:408] pool3 -> pool3
I0630 08:05:03.372177 29851 net.cpp:150] Setting up pool3
I0630 08:05:03.372182 29851 net.cpp:157] Top shape: 4 256 72 96 (7077888)
I0630 08:05:03.372184 29851 net.cpp:165] Memory required for data: 3629135232
I0630 08:05:03.372186 29851 layer_factory.hpp:77] Creating layer conv4_1
I0630 08:05:03.372195 29851 net.cpp:100] Creating Layer conv4_1
I0630 08:05:03.372198 29851 net.cpp:434] conv4_1 <- pool3
I0630 08:05:03.372205 29851 net.cpp:408] conv4_1 -> conv4_1
I0630 08:05:03.376888 29851 net.cpp:150] Setting up conv4_1
I0630 08:05:03.376909 29851 net.cpp:157] Top shape: 4 512 72 96 (14155776)
I0630 08:05:03.376911 29851 net.cpp:165] Memory required for data: 3685758336
I0630 08:05:03.376919 29851 layer_factory.hpp:77] Creating layer relu4_1
I0630 08:05:03.376925 29851 net.cpp:100] Creating Layer relu4_1
I0630 08:05:03.376929 29851 net.cpp:434] relu4_1 <- conv4_1
I0630 08:05:03.376935 29851 net.cpp:395] relu4_1 -> conv4_1 (in-place)
I0630 08:05:03.377182 29851 net.cpp:150] Setting up relu4_1
I0630 08:05:03.377190 29851 net.cpp:157] Top shape: 4 512 72 96 (14155776)
I0630 08:05:03.377192 29851 net.cpp:165] Memory required for data: 3742381440
I0630 08:05:03.377195 29851 layer_factory.hpp:77] Creating layer conv4_2
I0630 08:05:03.377202 29851 net.cpp:100] Creating Layer conv4_2
I0630 08:05:03.377205 29851 net.cpp:434] conv4_2 <- conv4_1
I0630 08:05:03.377213 29851 net.cpp:408] conv4_2 -> conv4_2
I0630 08:05:03.383571 29851 net.cpp:150] Setting up conv4_2
I0630 08:05:03.383591 29851 net.cpp:157] Top shape: 4 512 72 96 (14155776)
I0630 08:05:03.383594 29851 net.cpp:165] Memory required for data: 3799004544
I0630 08:05:03.383605 29851 layer_factory.hpp:77] Creating layer relu4_2
I0630 08:05:03.383611 29851 net.cpp:100] Creating Layer relu4_2
I0630 08:05:03.383615 29851 net.cpp:434] relu4_2 <- conv4_2
I0630 08:05:03.383620 29851 net.cpp:395] relu4_2 -> conv4_2 (in-place)
I0630 08:05:03.383854 29851 net.cpp:150] Setting up relu4_2
I0630 08:05:03.383860 29851 net.cpp:157] Top shape: 4 512 72 96 (14155776)
I0630 08:05:03.383862 29851 net.cpp:165] Memory required for data: 3855627648
I0630 08:05:03.383865 29851 layer_factory.hpp:77] Creating layer conv4_3
I0630 08:05:03.383872 29851 net.cpp:100] Creating Layer conv4_3
I0630 08:05:03.383875 29851 net.cpp:434] conv4_3 <- conv4_2
I0630 08:05:03.383878 29851 net.cpp:408] conv4_3 -> conv4_3
I0630 08:05:03.389186 29851 net.cpp:150] Setting up conv4_3
I0630 08:05:03.389209 29851 net.cpp:157] Top shape: 4 512 72 96 (14155776)
I0630 08:05:03.389211 29851 net.cpp:165] Memory required for data: 3912250752
I0630 08:05:03.389217 29851 layer_factory.hpp:77] Creating layer relu4_3
I0630 08:05:03.389225 29851 net.cpp:100] Creating Layer relu4_3
I0630 08:05:03.389248 29851 net.cpp:434] relu4_3 <- conv4_3
I0630 08:05:03.389256 29851 net.cpp:395] relu4_3 -> conv4_3 (in-place)
I0630 08:05:03.390166 29851 net.cpp:150] Setting up relu4_3
I0630 08:05:03.390177 29851 net.cpp:157] Top shape: 4 512 72 96 (14155776)
I0630 08:05:03.390178 29851 net.cpp:165] Memory required for data: 3968873856
I0630 08:05:03.390182 29851 layer_factory.hpp:77] Creating layer conv4_3_relu4_3_0_split
I0630 08:05:03.390187 29851 net.cpp:100] Creating Layer conv4_3_relu4_3_0_split
I0630 08:05:03.390188 29851 net.cpp:434] conv4_3_relu4_3_0_split <- conv4_3
I0630 08:05:03.390193 29851 net.cpp:408] conv4_3_relu4_3_0_split -> conv4_3_relu4_3_0_split_0
I0630 08:05:03.390199 29851 net.cpp:408] conv4_3_relu4_3_0_split -> conv4_3_relu4_3_0_split_1
I0630 08:05:03.390241 29851 net.cpp:150] Setting up conv4_3_relu4_3_0_split
I0630 08:05:03.390246 29851 net.cpp:157] Top shape: 4 512 72 96 (14155776)
I0630 08:05:03.390249 29851 net.cpp:157] Top shape: 4 512 72 96 (14155776)
I0630 08:05:03.390251 29851 net.cpp:165] Memory required for data: 4082120064
I0630 08:05:03.390254 29851 layer_factory.hpp:77] Creating layer loss1_conv1
I0630 08:05:03.390269 29851 net.cpp:100] Creating Layer loss1_conv1
I0630 08:05:03.390274 29851 net.cpp:434] loss1_conv1 <- conv4_3_relu4_3_0_split_0
I0630 08:05:03.390277 29851 net.cpp:408] loss1_conv1 -> loss1_conv1
I0630 08:05:03.424176 29851 net.cpp:150] Setting up loss1_conv1
I0630 08:05:03.424192 29851 net.cpp:157] Top shape: 4 512 72 96 (14155776)
I0630 08:05:03.424196 29851 net.cpp:165] Memory required for data: 4138743168
I0630 08:05:03.424201 29851 layer_factory.hpp:77] Creating layer loss_relu1
I0630 08:05:03.424207 29851 net.cpp:100] Creating Layer loss_relu1
I0630 08:05:03.424211 29851 net.cpp:434] loss_relu1 <- loss1_conv1
I0630 08:05:03.424216 29851 net.cpp:395] loss_relu1 -> loss1_conv1 (in-place)
I0630 08:05:03.424449 29851 net.cpp:150] Setting up loss_relu1
I0630 08:05:03.424456 29851 net.cpp:157] Top shape: 4 512 72 96 (14155776)
I0630 08:05:03.424458 29851 net.cpp:165] Memory required for data: 4195366272
I0630 08:05:03.424460 29851 layer_factory.hpp:77] Creating layer loss1_conv1_loss_relu1_0_split
I0630 08:05:03.424464 29851 net.cpp:100] Creating Layer loss1_conv1_loss_relu1_0_split
I0630 08:05:03.424466 29851 net.cpp:434] loss1_conv1_loss_relu1_0_split <- loss1_conv1
I0630 08:05:03.424471 29851 net.cpp:408] loss1_conv1_loss_relu1_0_split -> loss1_conv1_loss_relu1_0_split_0
I0630 08:05:03.424476 29851 net.cpp:408] loss1_conv1_loss_relu1_0_split -> loss1_conv1_loss_relu1_0_split_1
I0630 08:05:03.424515 29851 net.cpp:150] Setting up loss1_conv1_loss_relu1_0_split
I0630 08:05:03.424518 29851 net.cpp:157] Top shape: 4 512 72 96 (14155776)
I0630 08:05:03.424521 29851 net.cpp:157] Top shape: 4 512 72 96 (14155776)
I0630 08:05:03.424523 29851 net.cpp:165] Memory required for data: 4308612480
I0630 08:05:03.424526 29851 layer_factory.hpp:77] Creating layer LFCN_1_3x5
I0630 08:05:03.424536 29851 net.cpp:100] Creating Layer LFCN_1_3x5
I0630 08:05:03.424540 29851 net.cpp:434] LFCN_1_3x5 <- loss1_conv1_loss_relu1_0_split_0
I0630 08:05:03.424546 29851 net.cpp:408] LFCN_1_3x5 -> LFCN_1_3x5
I0630 08:05:03.426656 29851 net.cpp:150] Setting up LFCN_1_3x5
I0630 08:05:03.426668 29851 net.cpp:157] Top shape: 4 7 72 96 (193536)
I0630 08:05:03.426671 29851 net.cpp:165] Memory required for data: 4309386624
I0630 08:05:03.426676 29851 layer_factory.hpp:77] Creating layer LFCN_1_3x5_LFCN_1_3x5_0_split
I0630 08:05:03.426682 29851 net.cpp:100] Creating Layer LFCN_1_3x5_LFCN_1_3x5_0_split
I0630 08:05:03.426686 29851 net.cpp:434] LFCN_1_3x5_LFCN_1_3x5_0_split <- LFCN_1_3x5
I0630 08:05:03.426689 29851 net.cpp:408] LFCN_1_3x5_LFCN_1_3x5_0_split -> LFCN_1_3x5_LFCN_1_3x5_0_split_0
I0630 08:05:03.426694 29851 net.cpp:408] LFCN_1_3x5_LFCN_1_3x5_0_split -> LFCN_1_3x5_LFCN_1_3x5_0_split_1
I0630 08:05:03.426733 29851 net.cpp:150] Setting up LFCN_1_3x5_LFCN_1_3x5_0_split
I0630 08:05:03.426738 29851 net.cpp:157] Top shape: 4 7 72 96 (193536)
I0630 08:05:03.426740 29851 net.cpp:157] Top shape: 4 7 72 96 (193536)
I0630 08:05:03.426743 29851 net.cpp:165] Memory required for data: 4310934912
I0630 08:05:03.426745 29851 layer_factory.hpp:77] Creating layer detection_loss_1_3x5
I0630 08:05:03.426753 29851 net.cpp:100] Creating Layer detection_loss_1_3x5
I0630 08:05:03.426756 29851 net.cpp:434] detection_loss_1_3x5 <- LFCN_1_3x5_LFCN_1_3x5_0_split_0
I0630 08:05:03.426759 29851 net.cpp:434] detection_loss_1_3x5 <- label_1_3x5_data_1_split_0
I0630 08:05:03.426765 29851 net.cpp:408] detection_loss_1_3x5 -> loss_1_3x5
I0630 08:05:03.426779 29851 layer_factory.hpp:77] Creating layer detection_loss_1_3x5
I0630 08:05:03.427193 29851 net.cpp:150] Setting up detection_loss_1_3x5
I0630 08:05:03.427199 29851 net.cpp:157] Top shape: 1 1 1 2 (2)
I0630 08:05:03.427201 29851 net.cpp:160]     with loss weight 0.9
I0630 08:05:03.427217 29851 net.cpp:165] Memory required for data: 4310934920
I0630 08:05:03.427219 29851 layer_factory.hpp:77] Creating layer detection_accuracy_1_3x5
I0630 08:05:03.427225 29851 net.cpp:100] Creating Layer detection_accuracy_1_3x5
I0630 08:05:03.427228 29851 net.cpp:434] detection_accuracy_1_3x5 <- LFCN_1_3x5_LFCN_1_3x5_0_split_1
I0630 08:05:03.427232 29851 net.cpp:434] detection_accuracy_1_3x5 <- label_1_3x5_data_1_split_1
I0630 08:05:03.427237 29851 net.cpp:408] detection_accuracy_1_3x5 -> accuracy_1_3x5
I0630 08:05:03.427244 29851 net.cpp:408] detection_accuracy_1_3x5 -> boxiou_1_3x5
I0630 08:05:03.427281 29851 net.cpp:150] Setting up detection_accuracy_1_3x5
I0630 08:05:03.427285 29851 net.cpp:157] Top shape: 1 1 1 2 (2)
I0630 08:05:03.427289 29851 net.cpp:157] Top shape: 1 1 1 1 (1)
I0630 08:05:03.427290 29851 net.cpp:165] Memory required for data: 4310934932
I0630 08:05:03.427294 29851 layer_factory.hpp:77] Creating layer LFCN_1_5x7
I0630 08:05:03.427301 29851 net.cpp:100] Creating Layer LFCN_1_5x7
I0630 08:05:03.427305 29851 net.cpp:434] LFCN_1_5x7 <- loss1_conv1_loss_relu1_0_split_1
I0630 08:05:03.427310 29851 net.cpp:408] LFCN_1_5x7 -> LFCN_1_5x7
I0630 08:05:03.429574 29851 net.cpp:150] Setting up LFCN_1_5x7
I0630 08:05:03.429586 29851 net.cpp:157] Top shape: 4 7 72 96 (193536)
I0630 08:05:03.429589 29851 net.cpp:165] Memory required for data: 4311709076
I0630 08:05:03.429594 29851 layer_factory.hpp:77] Creating layer LFCN_1_5x7_LFCN_1_5x7_0_split
I0630 08:05:03.429600 29851 net.cpp:100] Creating Layer LFCN_1_5x7_LFCN_1_5x7_0_split
I0630 08:05:03.429602 29851 net.cpp:434] LFCN_1_5x7_LFCN_1_5x7_0_split <- LFCN_1_5x7
I0630 08:05:03.429605 29851 net.cpp:408] LFCN_1_5x7_LFCN_1_5x7_0_split -> LFCN_1_5x7_LFCN_1_5x7_0_split_0
I0630 08:05:03.429610 29851 net.cpp:408] LFCN_1_5x7_LFCN_1_5x7_0_split -> LFCN_1_5x7_LFCN_1_5x7_0_split_1
I0630 08:05:03.429647 29851 net.cpp:150] Setting up LFCN_1_5x7_LFCN_1_5x7_0_split
I0630 08:05:03.429652 29851 net.cpp:157] Top shape: 4 7 72 96 (193536)
I0630 08:05:03.429656 29851 net.cpp:157] Top shape: 4 7 72 96 (193536)
I0630 08:05:03.429657 29851 net.cpp:165] Memory required for data: 4313257364
I0630 08:05:03.429661 29851 layer_factory.hpp:77] Creating layer detection_loss_1_5x7
I0630 08:05:03.429667 29851 net.cpp:100] Creating Layer detection_loss_1_5x7
I0630 08:05:03.429671 29851 net.cpp:434] detection_loss_1_5x7 <- LFCN_1_5x7_LFCN_1_5x7_0_split_0
I0630 08:05:03.429674 29851 net.cpp:434] detection_loss_1_5x7 <- label_1_5x7_data_2_split_0
I0630 08:05:03.429682 29851 net.cpp:408] detection_loss_1_5x7 -> loss_1_5x7
I0630 08:05:03.429689 29851 layer_factory.hpp:77] Creating layer detection_loss_1_5x7
I0630 08:05:03.430517 29851 net.cpp:150] Setting up detection_loss_1_5x7
I0630 08:05:03.430526 29851 net.cpp:157] Top shape: 1 1 1 2 (2)
I0630 08:05:03.430527 29851 net.cpp:160]     with loss weight 0.9
I0630 08:05:03.430536 29851 net.cpp:165] Memory required for data: 4313257372
I0630 08:05:03.430539 29851 layer_factory.hpp:77] Creating layer detection_accuracy_1_5x7
I0630 08:05:03.430549 29851 net.cpp:100] Creating Layer detection_accuracy_1_5x7
I0630 08:05:03.430553 29851 net.cpp:434] detection_accuracy_1_5x7 <- LFCN_1_5x7_LFCN_1_5x7_0_split_1
I0630 08:05:03.430557 29851 net.cpp:434] detection_accuracy_1_5x7 <- label_1_5x7_data_2_split_1
I0630 08:05:03.430562 29851 net.cpp:408] detection_accuracy_1_5x7 -> accuracy_1_5x7
I0630 08:05:03.430568 29851 net.cpp:408] detection_accuracy_1_5x7 -> boxiou_1_5x7
I0630 08:05:03.430605 29851 net.cpp:150] Setting up detection_accuracy_1_5x7
I0630 08:05:03.430610 29851 net.cpp:157] Top shape: 1 1 1 2 (2)
I0630 08:05:03.430613 29851 net.cpp:157] Top shape: 1 1 1 1 (1)
I0630 08:05:03.430614 29851 net.cpp:165] Memory required for data: 4313257384
I0630 08:05:03.430618 29851 layer_factory.hpp:77] Creating layer pool4
I0630 08:05:03.430624 29851 net.cpp:100] Creating Layer pool4
I0630 08:05:03.430627 29851 net.cpp:434] pool4 <- conv4_3_relu4_3_0_split_1
I0630 08:05:03.430634 29851 net.cpp:408] pool4 -> pool4
I0630 08:05:03.430667 29851 net.cpp:150] Setting up pool4
I0630 08:05:03.430671 29851 net.cpp:157] Top shape: 4 512 36 48 (3538944)
I0630 08:05:03.430673 29851 net.cpp:165] Memory required for data: 4327413160
I0630 08:05:03.430676 29851 layer_factory.hpp:77] Creating layer conv5_1
I0630 08:05:03.430683 29851 net.cpp:100] Creating Layer conv5_1
I0630 08:05:03.430687 29851 net.cpp:434] conv5_1 <- pool4
I0630 08:05:03.430691 29851 net.cpp:408] conv5_1 -> conv5_1
I0630 08:05:03.436422 29851 net.cpp:150] Setting up conv5_1
I0630 08:05:03.436444 29851 net.cpp:157] Top shape: 4 512 36 48 (3538944)
I0630 08:05:03.436446 29851 net.cpp:165] Memory required for data: 4341568936
I0630 08:05:03.436455 29851 layer_factory.hpp:77] Creating layer relu5_1
I0630 08:05:03.436465 29851 net.cpp:100] Creating Layer relu5_1
I0630 08:05:03.436471 29851 net.cpp:434] relu5_1 <- conv5_1
I0630 08:05:03.436478 29851 net.cpp:395] relu5_1 -> conv5_1 (in-place)
I0630 08:05:03.437111 29851 net.cpp:150] Setting up relu5_1
I0630 08:05:03.437119 29851 net.cpp:157] Top shape: 4 512 36 48 (3538944)
I0630 08:05:03.437122 29851 net.cpp:165] Memory required for data: 4355724712
I0630 08:05:03.437125 29851 layer_factory.hpp:77] Creating layer conv5_2
I0630 08:05:03.437136 29851 net.cpp:100] Creating Layer conv5_2
I0630 08:05:03.437140 29851 net.cpp:434] conv5_2 <- conv5_1
I0630 08:05:03.437146 29851 net.cpp:408] conv5_2 -> conv5_2
I0630 08:05:03.443275 29851 net.cpp:150] Setting up conv5_2
I0630 08:05:03.443295 29851 net.cpp:157] Top shape: 4 512 36 48 (3538944)
I0630 08:05:03.443297 29851 net.cpp:165] Memory required for data: 4369880488
I0630 08:05:03.443303 29851 layer_factory.hpp:77] Creating layer relu5_2
I0630 08:05:03.443311 29851 net.cpp:100] Creating Layer relu5_2
I0630 08:05:03.443315 29851 net.cpp:434] relu5_2 <- conv5_2
I0630 08:05:03.443320 29851 net.cpp:395] relu5_2 -> conv5_2 (in-place)
I0630 08:05:03.443565 29851 net.cpp:150] Setting up relu5_2
I0630 08:05:03.443573 29851 net.cpp:157] Top shape: 4 512 36 48 (3538944)
I0630 08:05:03.443575 29851 net.cpp:165] Memory required for data: 4384036264
I0630 08:05:03.443578 29851 layer_factory.hpp:77] Creating layer conv5_3
I0630 08:05:03.443583 29851 net.cpp:100] Creating Layer conv5_3
I0630 08:05:03.443586 29851 net.cpp:434] conv5_3 <- conv5_2
I0630 08:05:03.443590 29851 net.cpp:408] conv5_3 -> conv5_3
I0630 08:05:03.449364 29851 net.cpp:150] Setting up conv5_3
I0630 08:05:03.449383 29851 net.cpp:157] Top shape: 4 512 36 48 (3538944)
I0630 08:05:03.449384 29851 net.cpp:165] Memory required for data: 4398192040
I0630 08:05:03.449390 29851 layer_factory.hpp:77] Creating layer relu5_3
I0630 08:05:03.449396 29851 net.cpp:100] Creating Layer relu5_3
I0630 08:05:03.449400 29851 net.cpp:434] relu5_3 <- conv5_3
I0630 08:05:03.449404 29851 net.cpp:395] relu5_3 -> conv5_3 (in-place)
I0630 08:05:03.449647 29851 net.cpp:150] Setting up relu5_3
I0630 08:05:03.449654 29851 net.cpp:157] Top shape: 4 512 36 48 (3538944)
I0630 08:05:03.449656 29851 net.cpp:165] Memory required for data: 4412347816
I0630 08:05:03.449658 29851 layer_factory.hpp:77] Creating layer conv5_3_relu5_3_0_split
I0630 08:05:03.449662 29851 net.cpp:100] Creating Layer conv5_3_relu5_3_0_split
I0630 08:05:03.449664 29851 net.cpp:434] conv5_3_relu5_3_0_split <- conv5_3
I0630 08:05:03.449669 29851 net.cpp:408] conv5_3_relu5_3_0_split -> conv5_3_relu5_3_0_split_0
I0630 08:05:03.449674 29851 net.cpp:408] conv5_3_relu5_3_0_split -> conv5_3_relu5_3_0_split_1
I0630 08:05:03.449679 29851 net.cpp:408] conv5_3_relu5_3_0_split -> conv5_3_relu5_3_0_split_2
I0630 08:05:03.449731 29851 net.cpp:150] Setting up conv5_3_relu5_3_0_split
I0630 08:05:03.449736 29851 net.cpp:157] Top shape: 4 512 36 48 (3538944)
I0630 08:05:03.449738 29851 net.cpp:157] Top shape: 4 512 36 48 (3538944)
I0630 08:05:03.449741 29851 net.cpp:157] Top shape: 4 512 36 48 (3538944)
I0630 08:05:03.449744 29851 net.cpp:165] Memory required for data: 4454815144
I0630 08:05:03.449748 29851 layer_factory.hpp:77] Creating layer LFCN_2_3x5
I0630 08:05:03.449757 29851 net.cpp:100] Creating Layer LFCN_2_3x5
I0630 08:05:03.449760 29851 net.cpp:434] LFCN_2_3x5 <- conv5_3_relu5_3_0_split_0
I0630 08:05:03.449766 29851 net.cpp:408] LFCN_2_3x5 -> LFCN_2_3x5
I0630 08:05:03.451493 29851 net.cpp:150] Setting up LFCN_2_3x5
I0630 08:05:03.451503 29851 net.cpp:157] Top shape: 4 7 36 48 (48384)
I0630 08:05:03.451506 29851 net.cpp:165] Memory required for data: 4455008680
I0630 08:05:03.451516 29851 layer_factory.hpp:77] Creating layer LFCN_2_3x5_LFCN_2_3x5_0_split
I0630 08:05:03.451521 29851 net.cpp:100] Creating Layer LFCN_2_3x5_LFCN_2_3x5_0_split
I0630 08:05:03.451524 29851 net.cpp:434] LFCN_2_3x5_LFCN_2_3x5_0_split <- LFCN_2_3x5
I0630 08:05:03.451529 29851 net.cpp:408] LFCN_2_3x5_LFCN_2_3x5_0_split -> LFCN_2_3x5_LFCN_2_3x5_0_split_0
I0630 08:05:03.451534 29851 net.cpp:408] LFCN_2_3x5_LFCN_2_3x5_0_split -> LFCN_2_3x5_LFCN_2_3x5_0_split_1
I0630 08:05:03.451573 29851 net.cpp:150] Setting up LFCN_2_3x5_LFCN_2_3x5_0_split
I0630 08:05:03.451578 29851 net.cpp:157] Top shape: 4 7 36 48 (48384)
I0630 08:05:03.451581 29851 net.cpp:157] Top shape: 4 7 36 48 (48384)
I0630 08:05:03.451583 29851 net.cpp:165] Memory required for data: 4455395752
I0630 08:05:03.451586 29851 layer_factory.hpp:77] Creating layer detection_loss_2_3x5
I0630 08:05:03.451594 29851 net.cpp:100] Creating Layer detection_loss_2_3x5
I0630 08:05:03.451597 29851 net.cpp:434] detection_loss_2_3x5 <- LFCN_2_3x5_LFCN_2_3x5_0_split_0
I0630 08:05:03.451601 29851 net.cpp:434] detection_loss_2_3x5 <- label_2_3x5_data_3_split_0
I0630 08:05:03.451606 29851 net.cpp:408] detection_loss_2_3x5 -> loss_2_3x5
I0630 08:05:03.451616 29851 layer_factory.hpp:77] Creating layer detection_loss_2_3x5
I0630 08:05:03.452427 29851 net.cpp:150] Setting up detection_loss_2_3x5
I0630 08:05:03.452435 29851 net.cpp:157] Top shape: 1 1 1 2 (2)
I0630 08:05:03.452438 29851 net.cpp:160]     with loss weight 1
I0630 08:05:03.452447 29851 net.cpp:165] Memory required for data: 4455395760
I0630 08:05:03.452450 29851 layer_factory.hpp:77] Creating layer detection_accuracy_2_3x5
I0630 08:05:03.452458 29851 net.cpp:100] Creating Layer detection_accuracy_2_3x5
I0630 08:05:03.452464 29851 net.cpp:434] detection_accuracy_2_3x5 <- LFCN_2_3x5_LFCN_2_3x5_0_split_1
I0630 08:05:03.452469 29851 net.cpp:434] detection_accuracy_2_3x5 <- label_2_3x5_data_3_split_1
I0630 08:05:03.452474 29851 net.cpp:408] detection_accuracy_2_3x5 -> accuracy_2_3x5
I0630 08:05:03.452482 29851 net.cpp:408] detection_accuracy_2_3x5 -> boxiou_2_3x5
I0630 08:05:03.452527 29851 net.cpp:150] Setting up detection_accuracy_2_3x5
I0630 08:05:03.452533 29851 net.cpp:157] Top shape: 1 1 1 2 (2)
I0630 08:05:03.452535 29851 net.cpp:157] Top shape: 1 1 1 1 (1)
I0630 08:05:03.452538 29851 net.cpp:165] Memory required for data: 4455395772
I0630 08:05:03.452541 29851 layer_factory.hpp:77] Creating layer LFCN_2_5x7
I0630 08:05:03.452550 29851 net.cpp:100] Creating Layer LFCN_2_5x7
I0630 08:05:03.452553 29851 net.cpp:434] LFCN_2_5x7 <- conv5_3_relu5_3_0_split_1
I0630 08:05:03.452558 29851 net.cpp:408] LFCN_2_5x7 -> LFCN_2_5x7
I0630 08:05:03.455715 29851 net.cpp:150] Setting up LFCN_2_5x7
I0630 08:05:03.455734 29851 net.cpp:157] Top shape: 4 7 36 48 (48384)
I0630 08:05:03.455736 29851 net.cpp:165] Memory required for data: 4455589308
I0630 08:05:03.455745 29851 layer_factory.hpp:77] Creating layer LFCN_2_5x7_LFCN_2_5x7_0_split
I0630 08:05:03.455754 29851 net.cpp:100] Creating Layer LFCN_2_5x7_LFCN_2_5x7_0_split
I0630 08:05:03.455760 29851 net.cpp:434] LFCN_2_5x7_LFCN_2_5x7_0_split <- LFCN_2_5x7
I0630 08:05:03.455767 29851 net.cpp:408] LFCN_2_5x7_LFCN_2_5x7_0_split -> LFCN_2_5x7_LFCN_2_5x7_0_split_0
I0630 08:05:03.455775 29851 net.cpp:408] LFCN_2_5x7_LFCN_2_5x7_0_split -> LFCN_2_5x7_LFCN_2_5x7_0_split_1
I0630 08:05:03.455816 29851 net.cpp:150] Setting up LFCN_2_5x7_LFCN_2_5x7_0_split
I0630 08:05:03.455821 29851 net.cpp:157] Top shape: 4 7 36 48 (48384)
I0630 08:05:03.455823 29851 net.cpp:157] Top shape: 4 7 36 48 (48384)
I0630 08:05:03.455826 29851 net.cpp:165] Memory required for data: 4455976380
I0630 08:05:03.455829 29851 layer_factory.hpp:77] Creating layer detection_loss_2_5x7
I0630 08:05:03.455837 29851 net.cpp:100] Creating Layer detection_loss_2_5x7
I0630 08:05:03.455840 29851 net.cpp:434] detection_loss_2_5x7 <- LFCN_2_5x7_LFCN_2_5x7_0_split_0
I0630 08:05:03.455844 29851 net.cpp:434] detection_loss_2_5x7 <- label_2_5x7_data_4_split_0
I0630 08:05:03.455849 29851 net.cpp:408] detection_loss_2_5x7 -> loss_2_5x7
I0630 08:05:03.455858 29851 layer_factory.hpp:77] Creating layer detection_loss_2_5x7
I0630 08:05:03.456249 29851 net.cpp:150] Setting up detection_loss_2_5x7
I0630 08:05:03.456256 29851 net.cpp:157] Top shape: 1 1 1 2 (2)
I0630 08:05:03.456259 29851 net.cpp:160]     with loss weight 1
I0630 08:05:03.456267 29851 net.cpp:165] Memory required for data: 4455976388
I0630 08:05:03.456270 29851 layer_factory.hpp:77] Creating layer detection_accuracy_2_5x7
I0630 08:05:03.456277 29851 net.cpp:100] Creating Layer detection_accuracy_2_5x7
I0630 08:05:03.456281 29851 net.cpp:434] detection_accuracy_2_5x7 <- LFCN_2_5x7_LFCN_2_5x7_0_split_1
I0630 08:05:03.456285 29851 net.cpp:434] detection_accuracy_2_5x7 <- label_2_5x7_data_4_split_1
I0630 08:05:03.456290 29851 net.cpp:408] detection_accuracy_2_5x7 -> accuracy_2_5x7
I0630 08:05:03.456296 29851 net.cpp:408] detection_accuracy_2_5x7 -> boxiou_2_5x7
I0630 08:05:03.456332 29851 net.cpp:150] Setting up detection_accuracy_2_5x7
I0630 08:05:03.456336 29851 net.cpp:157] Top shape: 1 1 1 2 (2)
I0630 08:05:03.456339 29851 net.cpp:157] Top shape: 1 1 1 1 (1)
I0630 08:05:03.456341 29851 net.cpp:165] Memory required for data: 4455976400
I0630 08:05:03.456344 29851 layer_factory.hpp:77] Creating layer pool5
I0630 08:05:03.456351 29851 net.cpp:100] Creating Layer pool5
I0630 08:05:03.456354 29851 net.cpp:434] pool5 <- conv5_3_relu5_3_0_split_2
I0630 08:05:03.456359 29851 net.cpp:408] pool5 -> pool5
I0630 08:05:03.456393 29851 net.cpp:150] Setting up pool5
I0630 08:05:03.456396 29851 net.cpp:157] Top shape: 4 512 18 24 (884736)
I0630 08:05:03.456398 29851 net.cpp:165] Memory required for data: 4459515344
I0630 08:05:03.456401 29851 layer_factory.hpp:77] Creating layer conv6_1
I0630 08:05:03.456411 29851 net.cpp:100] Creating Layer conv6_1
I0630 08:05:03.456414 29851 net.cpp:434] conv6_1 <- pool5
I0630 08:05:03.456420 29851 net.cpp:408] conv6_1 -> conv6_1
I0630 08:05:03.477152 29851 net.cpp:150] Setting up conv6_1
I0630 08:05:03.477170 29851 net.cpp:157] Top shape: 4 512 18 24 (884736)
I0630 08:05:03.477174 29851 net.cpp:165] Memory required for data: 4463054288
I0630 08:05:03.477183 29851 layer_factory.hpp:77] Creating layer relu6_1
I0630 08:05:03.477192 29851 net.cpp:100] Creating Layer relu6_1
I0630 08:05:03.477198 29851 net.cpp:434] relu6_1 <- conv6_1
I0630 08:05:03.477205 29851 net.cpp:395] relu6_1 -> conv6_1 (in-place)
I0630 08:05:03.477454 29851 net.cpp:150] Setting up relu6_1
I0630 08:05:03.477461 29851 net.cpp:157] Top shape: 4 512 18 24 (884736)
I0630 08:05:03.477464 29851 net.cpp:165] Memory required for data: 4466593232
I0630 08:05:03.477466 29851 layer_factory.hpp:77] Creating layer conv6_1_relu6_1_0_split
I0630 08:05:03.477473 29851 net.cpp:100] Creating Layer conv6_1_relu6_1_0_split
I0630 08:05:03.477478 29851 net.cpp:434] conv6_1_relu6_1_0_split <- conv6_1
I0630 08:05:03.477483 29851 net.cpp:408] conv6_1_relu6_1_0_split -> conv6_1_relu6_1_0_split_0
I0630 08:05:03.477490 29851 net.cpp:408] conv6_1_relu6_1_0_split -> conv6_1_relu6_1_0_split_1
I0630 08:05:03.477497 29851 net.cpp:408] conv6_1_relu6_1_0_split -> conv6_1_relu6_1_0_split_2
I0630 08:05:03.477547 29851 net.cpp:150] Setting up conv6_1_relu6_1_0_split
I0630 08:05:03.477551 29851 net.cpp:157] Top shape: 4 512 18 24 (884736)
I0630 08:05:03.477555 29851 net.cpp:157] Top shape: 4 512 18 24 (884736)
I0630 08:05:03.477556 29851 net.cpp:157] Top shape: 4 512 18 24 (884736)
I0630 08:05:03.477560 29851 net.cpp:165] Memory required for data: 4477210064
I0630 08:05:03.477562 29851 layer_factory.hpp:77] Creating layer LFCN_3_3x5
I0630 08:05:03.477571 29851 net.cpp:100] Creating Layer LFCN_3_3x5
I0630 08:05:03.477574 29851 net.cpp:434] LFCN_3_3x5 <- conv6_1_relu6_1_0_split_0
I0630 08:05:03.477581 29851 net.cpp:408] LFCN_3_3x5 -> LFCN_3_3x5
I0630 08:05:03.480581 29851 net.cpp:150] Setting up LFCN_3_3x5
I0630 08:05:03.480595 29851 net.cpp:157] Top shape: 4 7 18 24 (12096)
I0630 08:05:03.480598 29851 net.cpp:165] Memory required for data: 4477258448
I0630 08:05:03.480605 29851 layer_factory.hpp:77] Creating layer LFCN_3_3x5_LFCN_3_3x5_0_split
I0630 08:05:03.480620 29851 net.cpp:100] Creating Layer LFCN_3_3x5_LFCN_3_3x5_0_split
I0630 08:05:03.480624 29851 net.cpp:434] LFCN_3_3x5_LFCN_3_3x5_0_split <- LFCN_3_3x5
I0630 08:05:03.480629 29851 net.cpp:408] LFCN_3_3x5_LFCN_3_3x5_0_split -> LFCN_3_3x5_LFCN_3_3x5_0_split_0
I0630 08:05:03.480638 29851 net.cpp:408] LFCN_3_3x5_LFCN_3_3x5_0_split -> LFCN_3_3x5_LFCN_3_3x5_0_split_1
I0630 08:05:03.480677 29851 net.cpp:150] Setting up LFCN_3_3x5_LFCN_3_3x5_0_split
I0630 08:05:03.480684 29851 net.cpp:157] Top shape: 4 7 18 24 (12096)
I0630 08:05:03.480685 29851 net.cpp:157] Top shape: 4 7 18 24 (12096)
I0630 08:05:03.480687 29851 net.cpp:165] Memory required for data: 4477355216
I0630 08:05:03.480691 29851 layer_factory.hpp:77] Creating layer detection_loss_3_3x5
I0630 08:05:03.480697 29851 net.cpp:100] Creating Layer detection_loss_3_3x5
I0630 08:05:03.480701 29851 net.cpp:434] detection_loss_3_3x5 <- LFCN_3_3x5_LFCN_3_3x5_0_split_0
I0630 08:05:03.480705 29851 net.cpp:434] detection_loss_3_3x5 <- label_3_3x5_data_5_split_0
I0630 08:05:03.480712 29851 net.cpp:408] detection_loss_3_3x5 -> loss_3_3x5
I0630 08:05:03.480720 29851 layer_factory.hpp:77] Creating layer detection_loss_3_3x5
I0630 08:05:03.481578 29851 net.cpp:150] Setting up detection_loss_3_3x5
I0630 08:05:03.481588 29851 net.cpp:157] Top shape: 1 1 1 2 (2)
I0630 08:05:03.481590 29851 net.cpp:160]     with loss weight 1
I0630 08:05:03.481598 29851 net.cpp:165] Memory required for data: 4477355224
I0630 08:05:03.481603 29851 layer_factory.hpp:77] Creating layer detection_accuracy_3_3x5
I0630 08:05:03.481616 29851 net.cpp:100] Creating Layer detection_accuracy_3_3x5
I0630 08:05:03.481621 29851 net.cpp:434] detection_accuracy_3_3x5 <- LFCN_3_3x5_LFCN_3_3x5_0_split_1
I0630 08:05:03.481624 29851 net.cpp:434] detection_accuracy_3_3x5 <- label_3_3x5_data_5_split_1
I0630 08:05:03.481631 29851 net.cpp:408] detection_accuracy_3_3x5 -> accuracy_3_3x5
I0630 08:05:03.481637 29851 net.cpp:408] detection_accuracy_3_3x5 -> boxiou_3_3x5
I0630 08:05:03.481673 29851 net.cpp:150] Setting up detection_accuracy_3_3x5
I0630 08:05:03.481678 29851 net.cpp:157] Top shape: 1 1 1 2 (2)
I0630 08:05:03.481681 29851 net.cpp:157] Top shape: 1 1 1 1 (1)
I0630 08:05:03.481684 29851 net.cpp:165] Memory required for data: 4477355236
I0630 08:05:03.481688 29851 layer_factory.hpp:77] Creating layer LFCN_3_5x7
I0630 08:05:03.481695 29851 net.cpp:100] Creating Layer LFCN_3_5x7
I0630 08:05:03.481699 29851 net.cpp:434] LFCN_3_5x7 <- conv6_1_relu6_1_0_split_1
I0630 08:05:03.481705 29851 net.cpp:408] LFCN_3_5x7 -> LFCN_3_5x7
I0630 08:05:03.483989 29851 net.cpp:150] Setting up LFCN_3_5x7
I0630 08:05:03.484000 29851 net.cpp:157] Top shape: 4 7 18 24 (12096)
I0630 08:05:03.484002 29851 net.cpp:165] Memory required for data: 4477403620
I0630 08:05:03.484010 29851 layer_factory.hpp:77] Creating layer LFCN_3_5x7_LFCN_3_5x7_0_split
I0630 08:05:03.484019 29851 net.cpp:100] Creating Layer LFCN_3_5x7_LFCN_3_5x7_0_split
I0630 08:05:03.484024 29851 net.cpp:434] LFCN_3_5x7_LFCN_3_5x7_0_split <- LFCN_3_5x7
I0630 08:05:03.484030 29851 net.cpp:408] LFCN_3_5x7_LFCN_3_5x7_0_split -> LFCN_3_5x7_LFCN_3_5x7_0_split_0
I0630 08:05:03.484036 29851 net.cpp:408] LFCN_3_5x7_LFCN_3_5x7_0_split -> LFCN_3_5x7_LFCN_3_5x7_0_split_1
I0630 08:05:03.484071 29851 net.cpp:150] Setting up LFCN_3_5x7_LFCN_3_5x7_0_split
I0630 08:05:03.484076 29851 net.cpp:157] Top shape: 4 7 18 24 (12096)
I0630 08:05:03.484079 29851 net.cpp:157] Top shape: 4 7 18 24 (12096)
I0630 08:05:03.484082 29851 net.cpp:165] Memory required for data: 4477500388
I0630 08:05:03.484086 29851 layer_factory.hpp:77] Creating layer detection_loss_3_5x7
I0630 08:05:03.484092 29851 net.cpp:100] Creating Layer detection_loss_3_5x7
I0630 08:05:03.484097 29851 net.cpp:434] detection_loss_3_5x7 <- LFCN_3_5x7_LFCN_3_5x7_0_split_0
I0630 08:05:03.484099 29851 net.cpp:434] detection_loss_3_5x7 <- label_3_5x7_data_6_split_0
I0630 08:05:03.484105 29851 net.cpp:408] detection_loss_3_5x7 -> loss_3_5x7
I0630 08:05:03.484113 29851 layer_factory.hpp:77] Creating layer detection_loss_3_5x7
I0630 08:05:03.484501 29851 net.cpp:150] Setting up detection_loss_3_5x7
I0630 08:05:03.484508 29851 net.cpp:157] Top shape: 1 1 1 2 (2)
I0630 08:05:03.484510 29851 net.cpp:160]     with loss weight 1
I0630 08:05:03.484517 29851 net.cpp:165] Memory required for data: 4477500396
I0630 08:05:03.484519 29851 layer_factory.hpp:77] Creating layer detection_accuracy_3_5x7
I0630 08:05:03.484526 29851 net.cpp:100] Creating Layer detection_accuracy_3_5x7
I0630 08:05:03.484531 29851 net.cpp:434] detection_accuracy_3_5x7 <- LFCN_3_5x7_LFCN_3_5x7_0_split_1
I0630 08:05:03.484535 29851 net.cpp:434] detection_accuracy_3_5x7 <- label_3_5x7_data_6_split_1
I0630 08:05:03.484540 29851 net.cpp:408] detection_accuracy_3_5x7 -> accuracy_3_5x7
I0630 08:05:03.484546 29851 net.cpp:408] detection_accuracy_3_5x7 -> boxiou_3_5x7
I0630 08:05:03.484582 29851 net.cpp:150] Setting up detection_accuracy_3_5x7
I0630 08:05:03.484586 29851 net.cpp:157] Top shape: 1 1 1 2 (2)
I0630 08:05:03.484589 29851 net.cpp:157] Top shape: 1 1 1 1 (1)
I0630 08:05:03.484591 29851 net.cpp:165] Memory required for data: 4477500408
I0630 08:05:03.484594 29851 layer_factory.hpp:77] Creating layer pool6
I0630 08:05:03.484599 29851 net.cpp:100] Creating Layer pool6
I0630 08:05:03.484603 29851 net.cpp:434] pool6 <- conv6_1_relu6_1_0_split_2
I0630 08:05:03.484609 29851 net.cpp:408] pool6 -> pool6
I0630 08:05:03.484643 29851 net.cpp:150] Setting up pool6
I0630 08:05:03.484647 29851 net.cpp:157] Top shape: 4 512 9 12 (221184)
I0630 08:05:03.484649 29851 net.cpp:165] Memory required for data: 4478385144
I0630 08:05:03.484652 29851 layer_factory.hpp:77] Creating layer LFCN_4_3x5
I0630 08:05:03.484663 29851 net.cpp:100] Creating Layer LFCN_4_3x5
I0630 08:05:03.484665 29851 net.cpp:434] LFCN_4_3x5 <- pool6
I0630 08:05:03.484669 29851 net.cpp:408] LFCN_4_3x5 -> LFCN_4_3x5
I0630 08:05:03.486852 29851 net.cpp:150] Setting up LFCN_4_3x5
I0630 08:05:03.486863 29851 net.cpp:157] Top shape: 4 7 9 12 (3024)
I0630 08:05:03.486865 29851 net.cpp:165] Memory required for data: 4478397240
I0630 08:05:03.486872 29851 layer_factory.hpp:77] Creating layer LFCN_4_3x5_LFCN_4_3x5_0_split
I0630 08:05:03.486881 29851 net.cpp:100] Creating Layer LFCN_4_3x5_LFCN_4_3x5_0_split
I0630 08:05:03.486886 29851 net.cpp:434] LFCN_4_3x5_LFCN_4_3x5_0_split <- LFCN_4_3x5
I0630 08:05:03.486891 29851 net.cpp:408] LFCN_4_3x5_LFCN_4_3x5_0_split -> LFCN_4_3x5_LFCN_4_3x5_0_split_0
I0630 08:05:03.486901 29851 net.cpp:408] LFCN_4_3x5_LFCN_4_3x5_0_split -> LFCN_4_3x5_LFCN_4_3x5_0_split_1
I0630 08:05:03.486941 29851 net.cpp:150] Setting up LFCN_4_3x5_LFCN_4_3x5_0_split
I0630 08:05:03.486945 29851 net.cpp:157] Top shape: 4 7 9 12 (3024)
I0630 08:05:03.486948 29851 net.cpp:157] Top shape: 4 7 9 12 (3024)
I0630 08:05:03.486949 29851 net.cpp:165] Memory required for data: 4478421432
I0630 08:05:03.486953 29851 layer_factory.hpp:77] Creating layer detection_loss_4_3x5
I0630 08:05:03.486960 29851 net.cpp:100] Creating Layer detection_loss_4_3x5
I0630 08:05:03.486964 29851 net.cpp:434] detection_loss_4_3x5 <- LFCN_4_3x5_LFCN_4_3x5_0_split_0
I0630 08:05:03.486968 29851 net.cpp:434] detection_loss_4_3x5 <- label_4_3x5_data_7_split_0
I0630 08:05:03.486974 29851 net.cpp:408] detection_loss_4_3x5 -> loss_4_3x5
I0630 08:05:03.486981 29851 layer_factory.hpp:77] Creating layer detection_loss_4_3x5
I0630 08:05:03.487370 29851 net.cpp:150] Setting up detection_loss_4_3x5
I0630 08:05:03.487377 29851 net.cpp:157] Top shape: 1 1 1 2 (2)
I0630 08:05:03.487380 29851 net.cpp:160]     with loss weight 1
I0630 08:05:03.487388 29851 net.cpp:165] Memory required for data: 4478421440
I0630 08:05:03.487390 29851 layer_factory.hpp:77] Creating layer detection_accuracy_4_3x5
I0630 08:05:03.487396 29851 net.cpp:100] Creating Layer detection_accuracy_4_3x5
I0630 08:05:03.487401 29851 net.cpp:434] detection_accuracy_4_3x5 <- LFCN_4_3x5_LFCN_4_3x5_0_split_1
I0630 08:05:03.487404 29851 net.cpp:434] detection_accuracy_4_3x5 <- label_4_3x5_data_7_split_1
I0630 08:05:03.487409 29851 net.cpp:408] detection_accuracy_4_3x5 -> accuracy_4_3x5
I0630 08:05:03.487417 29851 net.cpp:408] detection_accuracy_4_3x5 -> boxiou_4_3x5
I0630 08:05:03.487453 29851 net.cpp:150] Setting up detection_accuracy_4_3x5
I0630 08:05:03.487457 29851 net.cpp:157] Top shape: 1 1 1 2 (2)
I0630 08:05:03.487459 29851 net.cpp:157] Top shape: 1 1 1 1 (1)
I0630 08:05:03.487462 29851 net.cpp:165] Memory required for data: 4478421452
I0630 08:05:03.487465 29851 net.cpp:228] detection_accuracy_4_3x5 does not need backward computation.
I0630 08:05:03.487468 29851 net.cpp:226] detection_loss_4_3x5 needs backward computation.
I0630 08:05:03.487473 29851 net.cpp:226] LFCN_4_3x5_LFCN_4_3x5_0_split needs backward computation.
I0630 08:05:03.487476 29851 net.cpp:226] LFCN_4_3x5 needs backward computation.
…
I0630 08:05:03.498237 29851 image_gt_data_layer.cpp:241] output label size 2 : 2,6,36,48
I0630 08:05:03.498284 29851 image_gt_data_layer.cpp:241] output label size 3 : 2,6,36,48
I0630 08:05:03.498333 29851 image_gt_data_layer.cpp:241] output label size 4 : 2,6,18,24
I0630 08:05:03.498380 29851 image_gt_data_layer.cpp:241] output label size 5 : 2,6,18,24
I0630 08:05:03.498427 29851 image_gt_data_layer.cpp:241] output label size 6 : 2,6,9,12
I0630 08:05:03.498430 29851 image_gt_data_layer.cpp:265]  --> has_mean_values_ = 1
I0630 08:05:03.517076 29851 net.cpp:150] Setting up data
I0630 08:05:03.517093 29851 net.cpp:157] Top shape: 2 4 576 768 (3538944)
I0630 08:05:03.517096 29851 net.cpp:157] Top shape: 2 6 72 96 (82944)
I0630 08:05:03.517099 29851 net.cpp:157] Top shape: 2 6 72 96 (82944)
I0630 08:05:03.517103 29851 net.cpp:157] Top shape: 2 6 36 48 (20736)
I0630 08:05:03.517107 29851 net.cpp:157] Top shape: 2 6 36 48 (20736)
I0630 08:05:03.517112 29851 net.cpp:157] Top shape: 2 6 18 24 (5184)
I0630 08:05:03.517114 29851 net.cpp:157] Top shape: 2 6 18 24 (5184)
I0630 08:05:03.517117 29851 net.cpp:157] Top shape: 2 6 9 12 (1296)
I0630 08:05:03.517119 29851 net.cpp:165] Memory required for data: 15031872
I0630 08:05:03.517125 29851 layer_factory.hpp:77] Creating layer label_1_3x5_data_1_split
I0630 08:05:03.517138 29851 net.cpp:100] Creating Layer label_1_3x5_data_1_split
I0630 08:05:03.517143 29851 net.cpp:434] label_1_3x5_data_1_split <- label_1_3x5
I0630 08:05:03.517149 29851 net.cpp:408] label_1_3x5_data_1_split -> label_1_3x5_data_1_split_0
I0630 08:05:03.517159 29851 net.cpp:408] label_1_3x5_data_1_split -> label_1_3x5_data_1_split_1
I0630 08:05:03.517254 29851 net.cpp:150] Setting up label_1_3x5_data_1_split
I0630 08:05:03.517262 29851 net.cpp:157] Top shape: 2 6 72 96 (82944)
I0630 08:05:03.517266 29851 net.cpp:157] Top shape: 2 6 72 96 (82944)
I0630 08:05:03.517269 29851 net.cpp:165] Memory required for data: 15695424
I0630 08:05:03.517272 29851 layer_factory.hpp:77] Creating layer label_1_5x7_data_2_split
I0630 08:05:03.517279 29851 net.cpp:100] Creating Layer label_1_5x7_data_2_split
I0630 08:05:03.517283 29851 net.cpp:434] label_1_5x7_data_2_split <- label_1_5x7
I0630 08:05:03.517290 29851 net.cpp:408] label_1_5x7_data_2_split -> label_1_5x7_data_2_split_0
I0630 08:05:03.517297 29851 net.cpp:408] label_1_5x7_data_2_split -> label_1_5x7_data_2_split_1
I0630 08:05:03.517339 29851 net.cpp:150] Setting up label_1_5x7_data_2_split
I0630 08:05:03.517347 29851 net.cpp:157] Top shape: 2 6 72 96 (82944)
I0630 08:05:03.517351 29851 net.cpp:157] Top shape: 2 6 72 96 (82944)
I0630 08:05:03.517354 29851 net.cpp:165] Memory required for data: 16358976
I0630 08:05:03.517357 29851 layer_factory.hpp:77] Creating layer label_2_3x5_data_3_split
I0630 08:05:03.517361 29851 net.cpp:100] Creating Layer label_2_3x5_data_3_split
I0630 08:05:03.517364 29851 net.cpp:434] label_2_3x5_data_3_split <- label_2_3x5
I0630 08:05:03.517371 29851 net.cpp:408] label_2_3x5_data_3_split -> label_2_3x5_data_3_split_0
I0630 08:05:03.517376 29851 net.cpp:408] label_2_3x5_data_3_split -> label_2_3x5_data_3_split_1
I0630 08:05:03.517417 29851 net.cpp:150] Setting up label_2_3x5_data_3_split
I0630 08:05:03.517423 29851 net.cpp:157] Top shape: 2 6 36 48 (20736)
I0630 08:05:03.517427 29851 net.cpp:157] Top shape: 2 6 36 48 (20736)
I0630 08:05:03.517429 29851 net.cpp:165] Memory required for data: 16524864
I0630 08:05:03.517432 29851 layer_factory.hpp:77] Creating layer label_2_5x7_data_4_split
I0630 08:05:03.517439 29851 net.cpp:100] Creating Layer label_2_5x7_data_4_split
I0630 08:05:03.517442 29851 net.cpp:434] label_2_5x7_data_4_split <- label_2_5x7
I0630 08:05:03.517448 29851 net.cpp:408] label_2_5x7_data_4_split -> label_2_5x7_data_4_split_0
I0630 08:05:03.517454 29851 net.cpp:408] label_2_5x7_data_4_split -> label_2_5x7_data_4_split_1
I0630 08:05:03.517496 29851 net.cpp:150] Setting up label_2_5x7_data_4_split
I0630 08:05:03.517503 29851 net.cpp:157] Top shape: 2 6 36 48 (20736)
I0630 08:05:03.517506 29851 net.cpp:157] Top shape: 2 6 36 48 (20736)
I0630 08:05:03.517508 29851 net.cpp:165] Memory required for data: 16690752
I0630 08:05:03.517513 29851 layer_factory.hpp:77] Creating layer label_3_3x5_data_5_split
I0630 08:05:03.517516 29851 net.cpp:100] Creating Layer label_3_3x5_data_5_split
I0630 08:05:03.517519 29851 net.cpp:434] label_3_3x5_data_5_split <- label_3_3x5
I0630 08:05:03.517525 29851 net.cpp:408] label_3_3x5_data_5_split -> label_3_3x5_data_5_split_0
I0630 08:05:03.517534 29851 net.cpp:408] label_3_3x5_data_5_split -> label_3_3x5_data_5_split_1
I0630 08:05:03.517573 29851 net.cpp:150] Setting up label_3_3x5_data_5_split
I0630 08:05:03.517580 29851 net.cpp:157] Top shape: 2 6 18 24 (5184)
I0630 08:05:03.517583 29851 net.cpp:157] Top shape: 2 6 18 24 (5184)
I0630 08:05:03.517586 29851 net.cpp:165] Memory required for data: 16732224
I0630 08:05:03.517590 29851 layer_factory.hpp:77] Creating layer label_3_5x7_data_6_split
I0630 08:05:03.517593 29851 net.cpp:100] Creating Layer label_3_5x7_data_6_split
I0630 08:05:03.517596 29851 net.cpp:434] label_3_5x7_data_6_split <- label_3_5x7
I0630 08:05:03.517601 29851 net.cpp:408] label_3_5x7_data_6_split -> label_3_5x7_data_6_split_0
I0630 08:05:03.517606 29851 net.cpp:408] label_3_5x7_data_6_split -> label_3_5x7_data_6_split_1
I0630 08:05:03.517683 29851 net.cpp:150] Setting up label_3_5x7_data_6_split
I0630 08:05:03.517689 29851 net.cpp:157] Top shape: 2 6 18 24 (5184)
I0630 08:05:03.517693 29851 net.cpp:157] Top shape: 2 6 18 24 (5184)
I0630 08:05:03.517696 29851 net.cpp:165] Memory required for data: 16773696
I0630 08:05:03.517699 29851 layer_factory.hpp:77] Creating layer label_4_3x5_data_7_split
I0630 08:05:03.517707 29851 net.cpp:100] Creating Layer label_4_3x5_data_7_split
I0630 08:05:03.517710 29851 net.cpp:434] label_4_3x5_data_7_split <- label_4_3x5
I0630 08:05:03.517715 29851 net.cpp:408] label_4_3x5_data_7_split -> label_4_3x5_data_7_split_0
I0630 08:05:03.517721 29851 net.cpp:408] label_4_3x5_data_7_split -> label_4_3x5_data_7_split_1
I0630 08:05:03.518913 29851 net.cpp:150] Setting up label_4_3x5_data_7_split
I0630 08:05:03.518939 29851 net.cpp:157] Top shape: 2 6 9 12 (1296)
I0630 08:05:03.518941 29851 net.cpp:157] Top shape: 2 6 9 12 (1296)
I0630 08:05:03.518944 29851 net.cpp:165] Memory required for data: 16784064
I0630 08:05:03.518949 29851 layer_factory.hpp:77] Creating layer conv1_1
I0630 08:05:03.518973 29851 net.cpp:100] Creating Layer conv1_1
I0630 08:05:03.518978 29851 net.cpp:434] conv1_1 <- data
I0630 08:05:03.518991 29851 net.cpp:408] conv1_1 -> conv1_1
I0630 08:05:03.522963 29851 net.cpp:150] Setting up conv1_1
I0630 08:05:03.522985 29851 net.cpp:157] Top shape: 2 64 576 768 (56623104)
I0630 08:05:03.522987 29851 net.cpp:165] Memory required for data: 243276480
I0630 08:05:03.523000 29851 layer_factory.hpp:77] Creating layer relu1_1
I0630 08:05:03.523012 29851 net.cpp:100] Creating Layer relu1_1
I0630 08:05:03.523016 29851 net.cpp:434] relu1_1 <- conv1_1
I0630 08:05:03.523023 29851 net.cpp:395] relu1_1 -> conv1_1 (in-place)
I0630 08:05:03.523780 29851 net.cpp:150] Setting up relu1_1
I0630 08:05:03.523790 29851 net.cpp:157] Top shape: 2 64 576 768 (56623104)
I0630 08:05:03.523792 29851 net.cpp:165] Memory required for data: 469768896
I0630 08:05:03.523795 29851 layer_factory.hpp:77] Creating layer conv1_2
I0630 08:05:03.523805 29851 net.cpp:100] Creating Layer conv1_2
I0630 08:05:03.523808 29851 net.cpp:434] conv1_2 <- conv1_1
I0630 08:05:03.523815 29851 net.cpp:408] conv1_2 -> conv1_2
I0630 08:05:03.526358 29851 net.cpp:150] Setting up conv1_2
I0630 08:05:03.526381 29851 net.cpp:157] Top shape: 2 64 576 768 (56623104)
I0630 08:05:03.526383 29851 net.cpp:165] Memory required for data: 696261312
I0630 08:05:03.526396 29851 layer_factory.hpp:77] Creating layer relu1_2
I0630 08:05:03.526407 29851 net.cpp:100] Creating Layer relu1_2
I0630 08:05:03.526412 29851 net.cpp:434] relu1_2 <- conv1_2
I0630 08:05:03.526419 29851 net.cpp:395] relu1_2 -> conv1_2 (in-place)
I0630 08:05:03.527273 29851 net.cpp:150] Setting up relu1_2
I0630 08:05:03.527285 29851 net.cpp:157] Top shape: 2 64 576 768 (56623104)
I0630 08:05:03.527287 29851 net.cpp:165] Memory required for data: 922753728
I0630 08:05:03.527290 29851 layer_factory.hpp:77] Creating layer pool1
I0630 08:05:03.527298 29851 net.cpp:100] Creating Layer pool1
I0630 08:05:03.527302 29851 net.cpp:434] pool1 <- conv1_2
I0630 08:05:03.527307 29851 net.cpp:408] pool1 -> pool1
I0630 08:05:03.527374 29851 net.cpp:150] Setting up pool1
I0630 08:05:03.527381 29851 net.cpp:157] Top shape: 2 64 288 384 (14155776)
I0630 08:05:03.527384 29851 net.cpp:165] Memory required for data: 979376832
I0630 08:05:03.527387 29851 layer_factory.hpp:77] Creating layer conv2_1
I0630 08:05:03.527396 29851 net.cpp:100] Creating Layer conv2_1
I0630 08:05:03.527400 29851 net.cpp:434] conv2_1 <- pool1
I0630 08:05:03.527406 29851 net.cpp:408] conv2_1 -> conv2_1
I0630 08:05:03.529371 29851 net.cpp:150] Setting up conv2_1
I0630 08:05:03.529386 29851 net.cpp:157] Top shape: 2 128 288 384 (28311552)
I0630 08:05:03.529387 29851 net.cpp:165] Memory required for data: 1092623040
I0630 08:05:03.529402 29851 layer_factory.hpp:77] Creating layer relu2_1
I0630 08:05:03.529409 29851 net.cpp:100] Creating Layer relu2_1
I0630 08:05:03.529413 29851 net.cpp:434] relu2_1 <- conv2_1
I0630 08:05:03.529419 29851 net.cpp:395] relu2_1 -> conv2_1 (in-place)
I0630 08:05:03.529738 29851 net.cpp:150] Setting up relu2_1
I0630 08:05:03.529747 29851 net.cpp:157] Top shape: 2 128 288 384 (28311552)
I0630 08:05:03.529750 29851 net.cpp:165] Memory required for data: 1205869248
I0630 08:05:03.529753 29851 layer_factory.hpp:77] Creating layer conv2_2
I0630 08:05:03.529762 29851 net.cpp:100] Creating Layer conv2_2
I0630 08:05:03.529764 29851 net.cpp:434] conv2_2 <- conv2_1
I0630 08:05:03.529770 29851 net.cpp:408] conv2_2 -> conv2_2
I0630 08:05:03.533052 29851 net.cpp:150] Setting up conv2_2
I0630 08:05:03.533071 29851 net.cpp:157] Top shape: 2 128 288 384 (28311552)
I0630 08:05:03.533072 29851 net.cpp:165] Memory required for data: 1319115456
I0630 08:05:03.533082 29851 layer_factory.hpp:77] Creating layer relu2_2
I0630 08:05:03.533098 29851 net.cpp:100] Creating Layer relu2_2
I0630 08:05:03.533103 29851 net.cpp:434] relu2_2 <- conv2_2
I0630 08:05:03.533109 29851 net.cpp:395] relu2_2 -> conv2_2 (in-place)
I0630 08:05:03.533469 29851 net.cpp:150] Setting up relu2_2
I0630 08:05:03.533478 29851 net.cpp:157] Top shape: 2 128 288 384 (28311552)
I0630 08:05:03.533479 29851 net.cpp:165] Memory required for data: 1432361664
I0630 08:05:03.533481 29851 layer_factory.hpp:77] Creating layer pool2
I0630 08:05:03.533488 29851 net.cpp:100] Creating Layer pool2
I0630 08:05:03.533493 29851 net.cpp:434] pool2 <- conv2_2
I0630 08:05:03.533499 29851 net.cpp:408] pool2 -> pool2
I0630 08:05:03.533558 29851 net.cpp:150] Setting up pool2
I0630 08:05:03.533567 29851 net.cpp:157] Top shape: 2 128 144 192 (7077888)
I0630 08:05:03.533571 29851 net.cpp:165] Memory required for data: 1460673216
I0630 08:05:03.533574 29851 layer_factory.hpp:77] Creating layer conv3_1
I0630 08:05:03.533581 29851 net.cpp:100] Creating Layer conv3_1
I0630 08:05:03.533584 29851 net.cpp:434] conv3_1 <- pool2
I0630 08:05:03.533591 29851 net.cpp:408] conv3_1 -> conv3_1
I0630 08:05:03.538650 29851 net.cpp:150] Setting up conv3_1
I0630 08:05:03.538681 29851 net.cpp:157] Top shape: 2 256 144 192 (14155776)
I0630 08:05:03.538682 29851 net.cpp:165] Memory required for data: 1517296320
I0630 08:05:03.538697 29851 layer_factory.hpp:77] Creating layer relu3_1
I0630 08:05:03.538715 29851 net.cpp:100] Creating Layer relu3_1
I0630 08:05:03.538719 29851 net.cpp:434] relu3_1 <- conv3_1
I0630 08:05:03.538728 29851 net.cpp:395] relu3_1 -> conv3_1 (in-place)
I0630 08:05:03.539528 29851 net.cpp:150] Setting up relu3_1
I0630 08:05:03.539538 29851 net.cpp:157] Top shape: 2 256 144 192 (14155776)
I0630 08:05:03.539541 29851 net.cpp:165] Memory required for data: 1573919424
I0630 08:05:03.539543 29851 layer_factory.hpp:77] Creating layer conv3_2
I0630 08:05:03.539553 29851 net.cpp:100] Creating Layer conv3_2
I0630 08:05:03.539557 29851 net.cpp:434] conv3_2 <- conv3_1
I0630 08:05:03.539563 29851 net.cpp:408] conv3_2 -> conv3_2
I0630 08:05:03.542855 29851 net.cpp:150] Setting up conv3_2
I0630 08:05:03.542874 29851 net.cpp:157] Top shape: 2 256 144 192 (14155776)
I0630 08:05:03.542876 29851 net.cpp:165] Memory required for data: 1630542528
I0630 08:05:03.542884 29851 layer_factory.hpp:77] Creating layer relu3_2
I0630 08:05:03.542896 29851 net.cpp:100] Creating Layer relu3_2
I0630 08:05:03.542899 29851 net.cpp:434] relu3_2 <- conv3_2
I0630 08:05:03.542904 29851 net.cpp:395] relu3_2 -> conv3_2 (in-place)
I0630 08:05:03.543216 29851 net.cpp:150] Setting up relu3_2
I0630 08:05:03.543224 29851 net.cpp:157] Top shape: 2 256 144 192 (14155776)
I0630 08:05:03.543226 29851 net.cpp:165] Memory required for data: 1687165632
I0630 08:05:03.543229 29851 layer_factory.hpp:77] Creating layer conv3_3
I0630 08:05:03.543239 29851 net.cpp:100] Creating Layer conv3_3
I0630 08:05:03.543242 29851 net.cpp:434] conv3_3 <- conv3_2
I0630 08:05:03.543248 29851 net.cpp:408] conv3_3 -> conv3_3
I0630 08:05:03.546954 29851 net.cpp:150] Setting up conv3_3
I0630 08:05:03.546974 29851 net.cpp:157] Top shape: 2 256 144 192 (14155776)
I0630 08:05:03.546977 29851 net.cpp:165] Memory required for data: 1743788736
I0630 08:05:03.546984 29851 layer_factory.hpp:77] Creating layer relu3_3
I0630 08:05:03.546993 29851 net.cpp:100] Creating Layer relu3_3
I0630 08:05:03.546998 29851 net.cpp:434] relu3_3 <- conv3_3
I0630 08:05:03.547003 29851 net.cpp:395] relu3_3 -> conv3_3 (in-place)
I0630 08:05:03.547322 29851 net.cpp:150] Setting up relu3_3
I0630 08:05:03.547332 29851 net.cpp:157] Top shape: 2 256 144 192 (14155776)
I0630 08:05:03.547333 29851 net.cpp:165] Memory required for data: 1800411840
I0630 08:05:03.547336 29851 layer_factory.hpp:77] Creating layer pool3
I0630 08:05:03.547343 29851 net.cpp:100] Creating Layer pool3
I0630 08:05:03.547348 29851 net.cpp:434] pool3 <- conv3_3
I0630 08:05:03.547353 29851 net.cpp:408] pool3 -> pool3
I0630 08:05:03.547416 29851 net.cpp:150] Setting up pool3
I0630 08:05:03.547423 29851 net.cpp:157] Top shape: 2 256 72 96 (3538944)
I0630 08:05:03.547426 29851 net.cpp:165] Memory required for data: 1814567616
I0630 08:05:03.547430 29851 layer_factory.hpp:77] Creating layer conv4_1
I0630 08:05:03.547438 29851 net.cpp:100] Creating Layer conv4_1
I0630 08:05:03.547441 29851 net.cpp:434] conv4_1 <- pool3
I0630 08:05:03.547449 29851 net.cpp:408] conv4_1 -> conv4_1
I0630 08:05:03.551792 29851 net.cpp:150] Setting up conv4_1
I0630 08:05:03.551811 29851 net.cpp:157] Top shape: 2 512 72 96 (7077888)
I0630 08:05:03.551813 29851 net.cpp:165] Memory required for data: 1842879168
I0630 08:05:03.551821 29851 layer_factory.hpp:77] Creating layer relu4_1
I0630 08:05:03.551831 29851 net.cpp:100] Creating Layer relu4_1
I0630 08:05:03.551837 29851 net.cpp:434] relu4_1 <- conv4_1
I0630 08:05:03.551842 29851 net.cpp:395] relu4_1 -> conv4_1 (in-place)
I0630 08:05:03.552554 29851 net.cpp:150] Setting up relu4_1
I0630 08:05:03.552563 29851 net.cpp:157] Top shape: 2 512 72 96 (7077888)
I0630 08:05:03.552565 29851 net.cpp:165] Memory required for data: 1871190720
I0630 08:05:03.552567 29851 layer_factory.hpp:77] Creating layer conv4_2
I0630 08:05:03.552577 29851 net.cpp:100] Creating Layer conv4_2
I0630 08:05:03.552582 29851 net.cpp:434] conv4_2 <- conv4_1
I0630 08:05:03.552589 29851 net.cpp:408] conv4_2 -> conv4_2
I0630 08:05:03.560227 29851 net.cpp:150] Setting up conv4_2
I0630 08:05:03.560264 29851 net.cpp:157] Top shape: 2 512 72 96 (7077888)
I0630 08:05:03.560266 29851 net.cpp:165] Memory required for data: 1899502272
I0630 08:05:03.560290 29851 layer_factory.hpp:77] Creating layer relu4_2
I0630 08:05:03.560310 29851 net.cpp:100] Creating Layer relu4_2
I0630 08:05:03.560318 29851 net.cpp:434] relu4_2 <- conv4_2
I0630 08:05:03.560329 29851 net.cpp:395] relu4_2 -> conv4_2 (in-place)
I0630 08:05:03.560655 29851 net.cpp:150] Setting up relu4_2
I0630 08:05:03.560664 29851 net.cpp:157] Top shape: 2 512 72 96 (7077888)
I0630 08:05:03.560667 29851 net.cpp:165] Memory required for data: 1927813824
I0630 08:05:03.560669 29851 layer_factory.hpp:77] Creating layer conv4_3
I0630 08:05:03.560686 29851 net.cpp:100] Creating Layer conv4_3
I0630 08:05:03.560690 29851 net.cpp:434] conv4_3 <- conv4_2
I0630 08:05:03.560695 29851 net.cpp:408] conv4_3 -> conv4_3
I0630 08:05:03.569031 29851 net.cpp:150] Setting up conv4_3
I0630 08:05:03.569047 29851 net.cpp:157] Top shape: 2 512 72 96 (7077888)
I0630 08:05:03.569051 29851 net.cpp:165] Memory required for data: 1956125376
I0630 08:05:03.569057 29851 layer_factory.hpp:77] Creating layer relu4_3
I0630 08:05:03.569068 29851 net.cpp:100] Creating Layer relu4_3
I0630 08:05:03.569072 29851 net.cpp:434] relu4_3 <- conv4_3
I0630 08:05:03.569080 29851 net.cpp:395] relu4_3 -> conv4_3 (in-place)
I0630 08:05:03.569394 29851 net.cpp:150] Setting up relu4_3
I0630 08:05:03.569402 29851 net.cpp:157] Top shape: 2 512 72 96 (7077888)
I0630 08:05:03.569404 29851 net.cpp:165] Memory required for data: 1984436928
I0630 08:05:03.569407 29851 layer_factory.hpp:77] Creating layer conv4_3_relu4_3_0_split
I0630 08:05:03.569413 29851 net.cpp:100] Creating Layer conv4_3_relu4_3_0_split
I0630 08:05:03.569416 29851 net.cpp:434] conv4_3_relu4_3_0_split <- conv4_3
I0630 08:05:03.569423 29851 net.cpp:408] conv4_3_relu4_3_0_split -> conv4_3_relu4_3_0_split_0
I0630 08:05:03.569430 29851 net.cpp:408] conv4_3_relu4_3_0_split -> conv4_3_relu4_3_0_split_1
I0630 08:05:03.569489 29851 net.cpp:150] Setting up conv4_3_relu4_3_0_split
I0630 08:05:03.569495 29851 net.cpp:157] Top shape: 2 512 72 96 (7077888)
I0630 08:05:03.569499 29851 net.cpp:157] Top shape: 2 512 72 96 (7077888)
I0630 08:05:03.569502 29851 net.cpp:165] Memory required for data: 2041060032
I0630 08:05:03.569505 29851 layer_factory.hpp:77] Creating layer loss1_conv1
I0630 08:05:03.569522 29851 net.cpp:100] Creating Layer loss1_conv1
I0630 08:05:03.569526 29851 net.cpp:434] loss1_conv1 <- conv4_3_relu4_3_0_split_0
I0630 08:05:03.569532 29851 net.cpp:408] loss1_conv1 -> loss1_conv1
I0630 08:05:03.591048 29851 net.cpp:150] Setting up loss1_conv1
I0630 08:05:03.591069 29851 net.cpp:157] Top shape: 2 512 72 96 (7077888)
I0630 08:05:03.591073 29851 net.cpp:165] Memory required for data: 2069371584
I0630 08:05:03.591080 29851 layer_factory.hpp:77] Creating layer loss_relu1
I0630 08:05:03.591091 29851 net.cpp:100] Creating Layer loss_relu1
I0630 08:05:03.591096 29851 net.cpp:434] loss_relu1 <- loss1_conv1
I0630 08:05:03.591104 29851 net.cpp:395] loss_relu1 -> loss1_conv1 (in-place)
I0630 08:05:03.591850 29851 net.cpp:150] Setting up loss_relu1
I0630 08:05:03.591859 29851 net.cpp:157] Top shape: 2 512 72 96 (7077888)
I0630 08:05:03.591862 29851 net.cpp:165] Memory required for data: 2097683136
I0630 08:05:03.591866 29851 layer_factory.hpp:77] Creating layer loss1_conv1_loss_relu1_0_split
I0630 08:05:03.591872 29851 net.cpp:100] Creating Layer loss1_conv1_loss_relu1_0_split
I0630 08:05:03.591876 29851 net.cpp:434] loss1_conv1_loss_relu1_0_split <- loss1_conv1
I0630 08:05:03.591883 29851 net.cpp:408] loss1_conv1_loss_relu1_0_split -> loss1_conv1_loss_relu1_0_split_0
I0630 08:05:03.591892 29851 net.cpp:408] loss1_conv1_loss_relu1_0_split -> loss1_conv1_loss_relu1_0_split_1
I0630 08:05:03.591943 29851 net.cpp:150] Setting up loss1_conv1_loss_relu1_0_split
I0630 08:05:03.591949 29851 net.cpp:157] Top shape: 2 512 72 96 (7077888)
I0630 08:05:03.591953 29851 net.cpp:157] Top shape: 2 512 72 96 (7077888)
I0630 08:05:03.591956 29851 net.cpp:165] Memory required for data: 2154306240
I0630 08:05:03.591959 29851 layer_factory.hpp:77] Creating layer LFCN_1_3x5
I0630 08:05:03.591970 29851 net.cpp:100] Creating Layer LFCN_1_3x5
I0630 08:05:03.591974 29851 net.cpp:434] LFCN_1_3x5 <- loss1_conv1_loss_relu1_0_split_0
I0630 08:05:03.591981 29851 net.cpp:408] LFCN_1_3x5 -> LFCN_1_3x5
I0630 08:05:03.593904 29851 net.cpp:150] Setting up LFCN_1_3x5
I0630 08:05:03.593916 29851 net.cpp:157] Top shape: 2 7 72 96 (96768)
I0630 08:05:03.593921 29851 net.cpp:165] Memory required for data: 2154693312
I0630 08:05:03.593930 29851 layer_factory.hpp:77] Creating layer LFCN_1_3x5_LFCN_1_3x5_0_split
I0630 08:05:03.593936 29851 net.cpp:100] Creating Layer LFCN_1_3x5_LFCN_1_3x5_0_split
I0630 08:05:03.593940 29851 net.cpp:434] LFCN_1_3x5_LFCN_1_3x5_0_split <- LFCN_1_3x5
I0630 08:05:03.593946 29851 net.cpp:408] LFCN_1_3x5_LFCN_1_3x5_0_split -> LFCN_1_3x5_LFCN_1_3x5_0_split_0
I0630 08:05:03.593957 29851 net.cpp:408] LFCN_1_3x5_LFCN_1_3x5_0_split -> LFCN_1_3x5_LFCN_1_3x5_0_split_1
I0630 08:05:03.594002 29851 net.cpp:150] Setting up LFCN_1_3x5_LFCN_1_3x5_0_split
I0630 08:05:03.594008 29851 net.cpp:157] Top shape: 2 7 72 96 (96768)
I0630 08:05:03.594012 29851 net.cpp:157] Top shape: 2 7 72 96 (96768)
I0630 08:05:03.594014 29851 net.cpp:165] Memory required for data: 2155467456
I0630 08:05:03.594017 29851 layer_factory.hpp:77] Creating layer detection_loss_1_3x5
I0630 08:05:03.594027 29851 net.cpp:100] Creating Layer detection_loss_1_3x5
I0630 08:05:03.594029 29851 net.cpp:434] detection_loss_1_3x5 <- LFCN_1_3x5_LFCN_1_3x5_0_split_0
I0630 08:05:03.594034 29851 net.cpp:434] detection_loss_1_3x5 <- label_1_3x5_data_1_split_0
I0630 08:05:03.594041 29851 net.cpp:408] detection_loss_1_3x5 -> loss_1_3x5
I0630 08:05:03.594050 29851 layer_factory.hpp:77] Creating layer detection_loss_1_3x5
I0630 08:05:03.594967 29851 net.cpp:150] Setting up detection_loss_1_3x5
I0630 08:05:03.594979 29851 net.cpp:157] Top shape: 1 1 1 2 (2)
I0630 08:05:03.594981 29851 net.cpp:160]     with loss weight 0.9
I0630 08:05:03.594990 29851 net.cpp:165] Memory required for data: 2155467464
I0630 08:05:03.594995 29851 layer_factory.hpp:77] Creating layer detection_accuracy_1_3x5
I0630 08:05:03.595003 29851 net.cpp:100] Creating Layer detection_accuracy_1_3x5
I0630 08:05:03.595007 29851 net.cpp:434] detection_accuracy_1_3x5 <- LFCN_1_3x5_LFCN_1_3x5_0_split_1
I0630 08:05:03.595012 29851 net.cpp:434] detection_accuracy_1_3x5 <- label_1_3x5_data_1_split_1
I0630 08:05:03.595018 29851 net.cpp:408] detection_accuracy_1_3x5 -> accuracy_1_3x5
I0630 08:05:03.595026 29851 net.cpp:408] detection_accuracy_1_3x5 -> boxiou_1_3x5
I0630 08:05:03.595072 29851 net.cpp:150] Setting up detection_accuracy_1_3x5
I0630 08:05:03.595078 29851 net.cpp:157] Top shape: 1 1 1 2 (2)
I0630 08:05:03.595082 29851 net.cpp:157] Top shape: 1 1 1 1 (1)
I0630 08:05:03.595084 29851 net.cpp:165] Memory required for data: 2155467476
I0630 08:05:03.595088 29851 layer_factory.hpp:77] Creating layer LFCN_1_5x7
I0630 08:05:03.595098 29851 net.cpp:100] Creating Layer LFCN_1_5x7
I0630 08:05:03.595101 29851 net.cpp:434] LFCN_1_5x7 <- loss1_conv1_loss_relu1_0_split_1
I0630 08:05:03.595109 29851 net.cpp:408] LFCN_1_5x7 -> LFCN_1_5x7
I0630 08:05:03.598589 29851 net.cpp:150] Setting up LFCN_1_5x7
I0630 08:05:03.598654 29851 net.cpp:157] Top shape: 2 7 72 96 (96768)
I0630 08:05:03.598743 29851 net.cpp:165] Memory required for data: 2155854548
I0630 08:05:03.598770 29851 layer_factory.hpp:77] Creating layer LFCN_1_5x7_LFCN_1_5x7_0_split
I0630 08:05:03.598791 29851 net.cpp:100] Creating Layer LFCN_1_5x7_LFCN_1_5x7_0_split
I0630 08:05:03.598809 29851 net.cpp:434] LFCN_1_5x7_LFCN_1_5x7_0_split <- LFCN_1_5x7
I0630 08:05:03.598829 29851 net.cpp:408] LFCN_1_5x7_LFCN_1_5x7_0_split -> LFCN_1_5x7_LFCN_1_5x7_0_split_0
I0630 08:05:03.598851 29851 net.cpp:408] LFCN_1_5x7_LFCN_1_5x7_0_split -> LFCN_1_5x7_LFCN_1_5x7_0_split_1
I0630 08:05:03.599048 29851 net.cpp:150] Setting up LFCN_1_5x7_LFCN_1_5x7_0_split
I0630 08:05:03.599071 29851 net.cpp:157] Top shape: 2 7 72 96 (96768)
I0630 08:05:03.599087 29851 net.cpp:157] Top shape: 2 7 72 96 (96768)
I0630 08:05:03.599102 29851 net.cpp:165] Memory required for data: 2156628692
I0630 08:05:03.599117 29851 layer_factory.hpp:77] Creating layer detection_loss_1_5x7
I0630 08:05:03.599215 29851 net.cpp:100] Creating Layer detection_loss_1_5x7
I0630 08:05:03.599242 29851 net.cpp:434] detection_loss_1_5x7 <- LFCN_1_5x7_LFCN_1_5x7_0_split_0
I0630 08:05:03.599259 29851 net.cpp:434] detection_loss_1_5x7 <- label_1_5x7_data_2_split_0
I0630 08:05:03.599278 29851 net.cpp:408] detection_loss_1_5x7 -> loss_1_5x7
I0630 08:05:03.599300 29851 layer_factory.hpp:77] Creating layer detection_loss_1_5x7
I0630 08:05:03.599999 29851 net.cpp:150] Setting up detection_loss_1_5x7
I0630 08:05:03.600134 29851 net.cpp:157] Top shape: 1 1 1 2 (2)
I0630 08:05:03.600177 29851 net.cpp:160]     with loss weight 0.9
I0630 08:05:03.600225 29851 net.cpp:165] Memory required for data: 2156628700
I0630 08:05:03.600267 29851 layer_factory.hpp:77] Creating layer detection_accuracy_1_5x7
I0630 08:05:03.600316 29851 net.cpp:100] Creating Layer detection_accuracy_1_5x7
I0630 08:05:03.600358 29851 net.cpp:434] detection_accuracy_1_5x7 <- LFCN_1_5x7_LFCN_1_5x7_0_split_1
I0630 08:05:03.600404 29851 net.cpp:434] detection_accuracy_1_5x7 <- label_1_5x7_data_2_split_1
I0630 08:05:03.600453 29851 net.cpp:408] detection_accuracy_1_5x7 -> accuracy_1_5x7
I0630 08:05:03.600502 29851 net.cpp:408] detection_accuracy_1_5x7 -> boxiou_1_5x7
I0630 08:05:03.600605 29851 net.cpp:150] Setting up detection_accuracy_1_5x7
I0630 08:05:03.600651 29851 net.cpp:157] Top shape: 1 1 1 2 (2)
I0630 08:05:03.600690 29851 net.cpp:157] Top shape: 1 1 1 1 (1)
I0630 08:05:03.600729 29851 net.cpp:165] Memory required for data: 2156628712
I0630 08:05:03.600770 29851 layer_factory.hpp:77] Creating layer pool4
I0630 08:05:03.600813 29851 net.cpp:100] Creating Layer pool4
I0630 08:05:03.600849 29851 net.cpp:434] pool4 <- conv4_3_relu4_3_0_split_1
I0630 08:05:03.600857 29851 net.cpp:408] pool4 -> pool4
I0630 08:05:03.600911 29851 net.cpp:150] Setting up pool4
I0630 08:05:03.600917 29851 net.cpp:157] Top shape: 2 512 36 48 (1769472)
I0630 08:05:03.600920 29851 net.cpp:165] Memory required for data: 2163706600
I0630 08:05:03.600924 29851 layer_factory.hpp:77] Creating layer conv5_1
I0630 08:05:03.600931 29851 net.cpp:100] Creating Layer conv5_1
I0630 08:05:03.600935 29851 net.cpp:434] conv5_1 <- pool4
I0630 08:05:03.600944 29851 net.cpp:408] conv5_1 -> conv5_1
I0630 08:05:03.610630 29851 net.cpp:150] Setting up conv5_1
I0630 08:05:03.610647 29851 net.cpp:157] Top shape: 2 512 36 48 (1769472)
I0630 08:05:03.610651 29851 net.cpp:165] Memory required for data: 2170784488
I0630 08:05:03.610661 29851 layer_factory.hpp:77] Creating layer relu5_1
I0630 08:05:03.610671 29851 net.cpp:100] Creating Layer relu5_1
I0630 08:05:03.610677 29851 net.cpp:434] relu5_1 <- conv5_1
I0630 08:05:03.610685 29851 net.cpp:395] relu5_1 -> conv5_1 (in-place)
I0630 08:05:03.610970 29851 net.cpp:150] Setting up relu5_1
I0630 08:05:03.610977 29851 net.cpp:157] Top shape: 2 512 36 48 (1769472)
I0630 08:05:03.610980 29851 net.cpp:165] Memory required for data: 2177862376
I0630 08:05:03.610983 29851 layer_factory.hpp:77] Creating layer conv5_2
I0630 08:05:03.610992 29851 net.cpp:100] Creating Layer conv5_2
I0630 08:05:03.610996 29851 net.cpp:434] conv5_2 <- conv5_1
I0630 08:05:03.611003 29851 net.cpp:408] conv5_2 -> conv5_2
I0630 08:05:03.616761 29851 net.cpp:150] Setting up conv5_2
I0630 08:05:03.616786 29851 net.cpp:157] Top shape: 2 512 36 48 (1769472)
I0630 08:05:03.616787 29851 net.cpp:165] Memory required for data: 2184940264
I0630 08:05:03.616796 29851 layer_factory.hpp:77] Creating layer relu5_2
I0630 08:05:03.616806 29851 net.cpp:100] Creating Layer relu5_2
I0630 08:05:03.616811 29851 net.cpp:434] relu5_2 <- conv5_2
I0630 08:05:03.616816 29851 net.cpp:395] relu5_2 -> conv5_2 (in-place)
I0630 08:05:03.617584 29851 net.cpp:150] Setting up relu5_2
I0630 08:05:03.617596 29851 net.cpp:157] Top shape: 2 512 36 48 (1769472)
I0630 08:05:03.617599 29851 net.cpp:165] Memory required for data: 2192018152
I0630 08:05:03.617604 29851 layer_factory.hpp:77] Creating layer conv5_3
I0630 08:05:03.617614 29851 net.cpp:100] Creating Layer conv5_3
I0630 08:05:03.617619 29851 net.cpp:434] conv5_3 <- conv5_2
I0630 08:05:03.617626 29851 net.cpp:408] conv5_3 -> conv5_3
I0630 08:05:03.623356 29851 net.cpp:150] Setting up conv5_3
I0630 08:05:03.623378 29851 net.cpp:157] Top shape: 2 512 36 48 (1769472)
I0630 08:05:03.623380 29851 net.cpp:165] Memory required for data: 2199096040
I0630 08:05:03.623389 29851 layer_factory.hpp:77] Creating layer relu5_3
I0630 08:05:03.623401 29851 net.cpp:100] Creating Layer relu5_3
I0630 08:05:03.623406 29851 net.cpp:434] relu5_3 <- conv5_3
I0630 08:05:03.623414 29851 net.cpp:395] relu5_3 -> conv5_3 (in-place)
I0630 08:05:03.623695 29851 net.cpp:150] Setting up relu5_3
I0630 08:05:03.623703 29851 net.cpp:157] Top shape: 2 512 36 48 (1769472)
I0630 08:05:03.623705 29851 net.cpp:165] Memory required for data: 2206173928
I0630 08:05:03.623709 29851 layer_factory.hpp:77] Creating layer conv5_3_relu5_3_0_split
I0630 08:05:03.623716 29851 net.cpp:100] Creating Layer conv5_3_relu5_3_0_split
I0630 08:05:03.623720 29851 net.cpp:434] conv5_3_relu5_3_0_split <- conv5_3
I0630 08:05:03.623725 29851 net.cpp:408] conv5_3_relu5_3_0_split -> conv5_3_relu5_3_0_split_0
I0630 08:05:03.623734 29851 net.cpp:408] conv5_3_relu5_3_0_split -> conv5_3_relu5_3_0_split_1
I0630 08:05:03.623741 29851 net.cpp:408] conv5_3_relu5_3_0_split -> conv5_3_relu5_3_0_split_2
I0630 08:05:03.623802 29851 net.cpp:150] Setting up conv5_3_relu5_3_0_split
I0630 08:05:03.623807 29851 net.cpp:157] Top shape: 2 512 36 48 (1769472)
I0630 08:05:03.623811 29851 net.cpp:157] Top shape: 2 512 36 48 (1769472)
I0630 08:05:03.623816 29851 net.cpp:157] Top shape: 2 512 36 48 (1769472)
I0630 08:05:03.623817 29851 net.cpp:165] Memory required for data: 2227407592
I0630 08:05:03.623821 29851 layer_factory.hpp:77] Creating layer LFCN_2_3x5
I0630 08:05:03.623832 29851 net.cpp:100] Creating Layer LFCN_2_3x5
I0630 08:05:03.623836 29851 net.cpp:434] LFCN_2_3x5 <- conv5_3_relu5_3_0_split_0
I0630 08:05:03.623842 29851 net.cpp:408] LFCN_2_3x5 -> LFCN_2_3x5
I0630 08:05:03.628371 29851 net.cpp:150] Setting up LFCN_2_3x5
I0630 08:05:03.628407 29851 net.cpp:157] Top shape: 2 7 36 48 (24192)
I0630 08:05:03.628410 29851 net.cpp:165] Memory required for data: 2227504360
I0630 08:05:03.628435 29851 layer_factory.hpp:77] Creating layer LFCN_2_3x5_LFCN_2_3x5_0_split
I0630 08:05:03.628451 29851 net.cpp:100] Creating Layer LFCN_2_3x5_LFCN_2_3x5_0_split
I0630 08:05:03.628458 29851 net.cpp:434] LFCN_2_3x5_LFCN_2_3x5_0_split <- LFCN_2_3x5
I0630 08:05:03.628465 29851 net.cpp:408] LFCN_2_3x5_LFCN_2_3x5_0_split -> LFCN_2_3x5_LFCN_2_3x5_0_split_0
I0630 08:05:03.628482 29851 net.cpp:408] LFCN_2_3x5_LFCN_2_3x5_0_split -> LFCN_2_3x5_LFCN_2_3x5_0_split_1
I0630 08:05:03.628541 29851 net.cpp:150] Setting up LFCN_2_3x5_LFCN_2_3x5_0_split
I0630 08:05:03.628547 29851 net.cpp:157] Top shape: 2 7 36 48 (24192)
I0630 08:05:03.628551 29851 net.cpp:157] Top shape: 2 7 36 48 (24192)
I0630 08:05:03.628553 29851 net.cpp:165] Memory required for data: 2227697896
I0630 08:05:03.628556 29851 layer_factory.hpp:77] Creating layer detection_loss_2_3x5
I0630 08:05:03.628566 29851 net.cpp:100] Creating Layer detection_loss_2_3x5
I0630 08:05:03.628568 29851 net.cpp:434] detection_loss_2_3x5 <- LFCN_2_3x5_LFCN_2_3x5_0_split_0
I0630 08:05:03.628573 29851 net.cpp:434] detection_loss_2_3x5 <- label_2_3x5_data_3_split_0
I0630 08:05:03.628581 29851 net.cpp:408] detection_loss_2_3x5 -> loss_2_3x5
I0630 08:05:03.628589 29851 layer_factory.hpp:77] Creating layer detection_loss_2_3x5
I0630 08:05:03.629084 29851 net.cpp:150] Setting up detection_loss_2_3x5
I0630 08:05:03.629093 29851 net.cpp:157] Top shape: 1 1 1 2 (2)
I0630 08:05:03.629096 29851 net.cpp:160]     with loss weight 1
I0630 08:05:03.629106 29851 net.cpp:165] Memory required for data: 2227697904
I0630 08:05:03.629109 29851 layer_factory.hpp:77] Creating layer detection_accuracy_2_3x5
I0630 08:05:03.629117 29851 net.cpp:100] Creating Layer detection_accuracy_2_3x5
I0630 08:05:03.629120 29851 net.cpp:434] detection_accuracy_2_3x5 <- LFCN_2_3x5_LFCN_2_3x5_0_split_1
I0630 08:05:03.629125 29851 net.cpp:434] detection_accuracy_2_3x5 <- label_2_3x5_data_3_split_1
I0630 08:05:03.629132 29851 net.cpp:408] detection_accuracy_2_3x5 -> accuracy_2_3x5
I0630 08:05:03.629139 29851 net.cpp:408] detection_accuracy_2_3x5 -> boxiou_2_3x5
I0630 08:05:03.629195 29851 net.cpp:150] Setting up detection_accuracy_2_3x5
I0630 08:05:03.629201 29851 net.cpp:157] Top shape: 1 1 1 2 (2)
I0630 08:05:03.629205 29851 net.cpp:157] Top shape: 1 1 1 1 (1)
I0630 08:05:03.629209 29851 net.cpp:165] Memory required for data: 2227697916
I0630 08:05:03.629211 29851 layer_factory.hpp:77] Creating layer LFCN_2_5x7
I0630 08:05:03.629221 29851 net.cpp:100] Creating Layer LFCN_2_5x7
I0630 08:05:03.629235 29851 net.cpp:434] LFCN_2_5x7 <- conv5_3_relu5_3_0_split_1
I0630 08:05:03.629242 29851 net.cpp:408] LFCN_2_5x7 -> LFCN_2_5x7
I0630 08:05:03.631726 29851 net.cpp:150] Setting up LFCN_2_5x7
I0630 08:05:03.631739 29851 net.cpp:157] Top shape: 2 7 36 48 (24192)
I0630 08:05:03.631742 29851 net.cpp:165] Memory required for data: 2227794684
I0630 08:05:03.631752 29851 layer_factory.hpp:77] Creating layer LFCN_2_5x7_LFCN_2_5x7_0_split
I0630 08:05:03.631760 29851 net.cpp:100] Creating Layer LFCN_2_5x7_LFCN_2_5x7_0_split
I0630 08:05:03.631765 29851 net.cpp:434] LFCN_2_5x7_LFCN_2_5x7_0_split <- LFCN_2_5x7
I0630 08:05:03.631772 29851 net.cpp:408] LFCN_2_5x7_LFCN_2_5x7_0_split -> LFCN_2_5x7_LFCN_2_5x7_0_split_0
I0630 08:05:03.631780 29851 net.cpp:408] LFCN_2_5x7_LFCN_2_5x7_0_split -> LFCN_2_5x7_LFCN_2_5x7_0_split_1
I0630 08:05:03.631829 29851 net.cpp:150] Setting up LFCN_2_5x7_LFCN_2_5x7_0_split
I0630 08:05:03.631834 29851 net.cpp:157] Top shape: 2 7 36 48 (24192)
I0630 08:05:03.631837 29851 net.cpp:157] Top shape: 2 7 36 48 (24192)
I0630 08:05:03.631840 29851 net.cpp:165] Memory required for data: 2227988220
I0630 08:05:03.631844 29851 layer_factory.hpp:77] Creating layer detection_loss_2_5x7
I0630 08:05:03.631850 29851 net.cpp:100] Creating Layer detection_loss_2_5x7
I0630 08:05:03.631855 29851 net.cpp:434] detection_loss_2_5x7 <- LFCN_2_5x7_LFCN_2_5x7_0_split_0
I0630 08:05:03.631860 29851 net.cpp:434] detection_loss_2_5x7 <- label_2_5x7_data_4_split_0
I0630 08:05:03.631868 29851 net.cpp:408] detection_loss_2_5x7 -> loss_2_5x7
I0630 08:05:03.631876 29851 layer_factory.hpp:77] Creating layer detection_loss_2_5x7
I0630 08:05:03.632884 29851 net.cpp:150] Setting up detection_loss_2_5x7
I0630 08:05:03.632894 29851 net.cpp:157] Top shape: 1 1 1 2 (2)
I0630 08:05:03.632897 29851 net.cpp:160]     with loss weight 1
I0630 08:05:03.632906 29851 net.cpp:165] Memory required for data: 2227988228
I0630 08:05:03.632910 29851 layer_factory.hpp:77] Creating layer detection_accuracy_2_5x7
I0630 08:05:03.632918 29851 net.cpp:100] Creating Layer detection_accuracy_2_5x7
I0630 08:05:03.632923 29851 net.cpp:434] detection_accuracy_2_5x7 <- LFCN_2_5x7_LFCN_2_5x7_0_split_1
I0630 08:05:03.632928 29851 net.cpp:434] detection_accuracy_2_5x7 <- label_2_5x7_data_4_split_1
I0630 08:05:03.632938 29851 net.cpp:408] detection_accuracy_2_5x7 -> accuracy_2_5x7
I0630 08:05:03.632946 29851 net.cpp:408] detection_accuracy_2_5x7 -> boxiou_2_5x7
I0630 08:05:03.632993 29851 net.cpp:150] Setting up detection_accuracy_2_5x7
I0630 08:05:03.632998 29851 net.cpp:157] Top shape: 1 1 1 2 (2)
I0630 08:05:03.633002 29851 net.cpp:157] Top shape: 1 1 1 1 (1)
I0630 08:05:03.633004 29851 net.cpp:165] Memory required for data: 2227988240
I0630 08:05:03.633008 29851 layer_factory.hpp:77] Creating layer pool5
I0630 08:05:03.633013 29851 net.cpp:100] Creating Layer pool5
I0630 08:05:03.633018 29851 net.cpp:434] pool5 <- conv5_3_relu5_3_0_split_2
I0630 08:05:03.633023 29851 net.cpp:408] pool5 -> pool5
I0630 08:05:03.633066 29851 net.cpp:150] Setting up pool5
I0630 08:05:03.633071 29851 net.cpp:157] Top shape: 2 512 18 24 (442368)
I0630 08:05:03.633074 29851 net.cpp:165] Memory required for data: 2229757712
I0630 08:05:03.633077 29851 layer_factory.hpp:77] Creating layer conv6_1
I0630 08:05:03.633087 29851 net.cpp:100] Creating Layer conv6_1
I0630 08:05:03.633090 29851 net.cpp:434] conv6_1 <- pool5
I0630 08:05:03.633096 29851 net.cpp:408] conv6_1 -> conv6_1
I0630 08:05:03.654829 29851 net.cpp:150] Setting up conv6_1
I0630 08:05:03.654846 29851 net.cpp:157] Top shape: 2 512 18 24 (442368)
I0630 08:05:03.654850 29851 net.cpp:165] Memory required for data: 2231527184
I0630 08:05:03.654856 29851 layer_factory.hpp:77] Creating layer relu6_1
I0630 08:05:03.654865 29851 net.cpp:100] Creating Layer relu6_1
I0630 08:05:03.654870 29851 net.cpp:434] relu6_1 <- conv6_1
I0630 08:05:03.654875 29851 net.cpp:395] relu6_1 -> conv6_1 (in-place)
I0630 08:05:03.655140 29851 net.cpp:150] Setting up relu6_1
I0630 08:05:03.655148 29851 net.cpp:157] Top shape: 2 512 18 24 (442368)
I0630 08:05:03.655150 29851 net.cpp:165] Memory required for data: 2233296656
I0630 08:05:03.655153 29851 layer_factory.hpp:77] Creating layer conv6_1_relu6_1_0_split
I0630 08:05:03.655160 29851 net.cpp:100] Creating Layer conv6_1_relu6_1_0_split
I0630 08:05:03.655164 29851 net.cpp:434] conv6_1_relu6_1_0_split <- conv6_1
I0630 08:05:03.655170 29851 net.cpp:408] conv6_1_relu6_1_0_split -> conv6_1_relu6_1_0_split_0
I0630 08:05:03.655179 29851 net.cpp:408] conv6_1_relu6_1_0_split -> conv6_1_relu6_1_0_split_1
I0630 08:05:03.655185 29851 net.cpp:408] conv6_1_relu6_1_0_split -> conv6_1_relu6_1_0_split_2
I0630 08:05:03.655246 29851 net.cpp:150] Setting up conv6_1_relu6_1_0_split
I0630 08:05:03.655251 29851 net.cpp:157] Top shape: 2 512 18 24 (442368)
I0630 08:05:03.655256 29851 net.cpp:157] Top shape: 2 512 18 24 (442368)
I0630 08:05:03.655259 29851 net.cpp:157] Top shape: 2 512 18 24 (442368)
I0630 08:05:03.655261 29851 net.cpp:165] Memory required for data: 2238605072
I0630 08:05:03.655264 29851 layer_factory.hpp:77] Creating layer LFCN_3_3x5
I0630 08:05:03.655274 29851 net.cpp:100] Creating Layer LFCN_3_3x5
I0630 08:05:03.655278 29851 net.cpp:434] LFCN_3_3x5 <- conv6_1_relu6_1_0_split_0
I0630 08:05:03.655284 29851 net.cpp:408] LFCN_3_3x5 -> LFCN_3_3x5
I0630 08:05:03.658087 29851 net.cpp:150] Setting up LFCN_3_3x5
I0630 08:05:03.658100 29851 net.cpp:157] Top shape: 2 7 18 24 (6048)
I0630 08:05:03.658103 29851 net.cpp:165] Memory required for data: 2238629264
I0630 08:05:03.658112 29851 layer_factory.hpp:77] Creating layer LFCN_3_3x5_LFCN_3_3x5_0_split
I0630 08:05:03.658129 29851 net.cpp:100] Creating Layer LFCN_3_3x5_LFCN_3_3x5_0_split
I0630 08:05:03.658134 29851 net.cpp:434] LFCN_3_3x5_LFCN_3_3x5_0_split <- LFCN_3_3x5
I0630 08:05:03.658141 29851 net.cpp:408] LFCN_3_3x5_LFCN_3_3x5_0_split -> LFCN_3_3x5_LFCN_3_3x5_0_split_0
I0630 08:05:03.658150 29851 net.cpp:408] LFCN_3_3x5_LFCN_3_3x5_0_split -> LFCN_3_3x5_LFCN_3_3x5_0_split_1
I0630 08:05:03.658197 29851 net.cpp:150] Setting up LFCN_3_3x5_LFCN_3_3x5_0_split
I0630 08:05:03.658202 29851 net.cpp:157] Top shape: 2 7 18 24 (6048)
I0630 08:05:03.658206 29851 net.cpp:157] Top shape: 2 7 18 24 (6048)
I0630 08:05:03.658208 29851 net.cpp:165] Memory required for data: 2238677648
I0630 08:05:03.658212 29851 layer_factory.hpp:77] Creating layer detection_loss_3_3x5
I0630 08:05:03.658221 29851 net.cpp:100] Creating Layer detection_loss_3_3x5
I0630 08:05:03.658224 29851 net.cpp:434] detection_loss_3_3x5 <- LFCN_3_3x5_LFCN_3_3x5_0_split_0
I0630 08:05:03.658228 29851 net.cpp:434] detection_loss_3_3x5 <- label_3_3x5_data_5_split_0
I0630 08:05:03.658234 29851 net.cpp:408] detection_loss_3_3x5 -> loss_3_3x5
I0630 08:05:03.658243 29851 layer_factory.hpp:77] Creating layer detection_loss_3_3x5
I0630 08:05:03.658686 29851 net.cpp:150] Setting up detection_loss_3_3x5
I0630 08:05:03.658694 29851 net.cpp:157] Top shape: 1 1 1 2 (2)
I0630 08:05:03.658696 29851 net.cpp:160]     with loss weight 1
I0630 08:05:03.658705 29851 net.cpp:165] Memory required for data: 2238677656
I0630 08:05:03.658709 29851 layer_factory.hpp:77] Creating layer detection_accuracy_3_3x5
I0630 08:05:03.658715 29851 net.cpp:100] Creating Layer detection_accuracy_3_3x5
I0630 08:05:03.658720 29851 net.cpp:434] detection_accuracy_3_3x5 <- LFCN_3_3x5_LFCN_3_3x5_0_split_1
I0630 08:05:03.658725 29851 net.cpp:434] detection_accuracy_3_3x5 <- label_3_3x5_data_5_split_1
I0630 08:05:03.658730 29851 net.cpp:408] detection_accuracy_3_3x5 -> accuracy_3_3x5
I0630 08:05:03.658738 29851 net.cpp:408] detection_accuracy_3_3x5 -> boxiou_3_3x5
I0630 08:05:03.658782 29851 net.cpp:150] Setting up detection_accuracy_3_3x5
I0630 08:05:03.658787 29851 net.cpp:157] Top shape: 1 1 1 2 (2)
I0630 08:05:03.658790 29851 net.cpp:157] Top shape: 1 1 1 1 (1)
I0630 08:05:03.658792 29851 net.cpp:165] Memory required for data: 2238677668
I0630 08:05:03.658795 29851 layer_factory.hpp:77] Creating layer LFCN_3_5x7
I0630 08:05:03.658807 29851 net.cpp:100] Creating Layer LFCN_3_5x7
I0630 08:05:03.658810 29851 net.cpp:434] LFCN_3_5x7 <- conv6_1_relu6_1_0_split_1
I0630 08:05:03.658818 29851 net.cpp:408] LFCN_3_5x7 -> LFCN_3_5x7
I0630 08:05:03.661705 29851 net.cpp:150] Setting up LFCN_3_5x7
I0630 08:05:03.661717 29851 net.cpp:157] Top shape: 2 7 18 24 (6048)
I0630 08:05:03.661720 29851 net.cpp:165] Memory required for data: 2238701860
I0630 08:05:03.661729 29851 layer_factory.hpp:77] Creating layer LFCN_3_5x7_LFCN_3_5x7_0_split
I0630 08:05:03.661738 29851 net.cpp:100] Creating Layer LFCN_3_5x7_LFCN_3_5x7_0_split
I0630 08:05:03.661742 29851 net.cpp:434] LFCN_3_5x7_LFCN_3_5x7_0_split <- LFCN_3_5x7
I0630 08:05:03.661749 29851 net.cpp:408] LFCN_3_5x7_LFCN_3_5x7_0_split -> LFCN_3_5x7_LFCN_3_5x7_0_split_0
I0630 08:05:03.661757 29851 net.cpp:408] LFCN_3_5x7_LFCN_3_5x7_0_split -> LFCN_3_5x7_LFCN_3_5x7_0_split_1
I0630 08:05:03.661806 29851 net.cpp:150] Setting up LFCN_3_5x7_LFCN_3_5x7_0_split
I0630 08:05:03.661811 29851 net.cpp:157] Top shape: 2 7 18 24 (6048)
I0630 08:05:03.661815 29851 net.cpp:157] Top shape: 2 7 18 24 (6048)
I0630 08:05:03.661818 29851 net.cpp:165] Memory required for data: 2238750244
I0630 08:05:03.661821 29851 layer_factory.hpp:77] Creating layer detection_loss_3_5x7
I0630 08:05:03.661828 29851 net.cpp:100] Creating Layer detection_loss_3_5x7
I0630 08:05:03.661833 29851 net.cpp:434] detection_loss_3_5x7 <- LFCN_3_5x7_LFCN_3_5x7_0_split_0
I0630 08:05:03.661837 29851 net.cpp:434] detection_loss_3_5x7 <- label_3_5x7_data_6_split_0
I0630 08:05:03.661844 29851 net.cpp:408] detection_loss_3_5x7 -> loss_3_5x7
I0630 08:05:03.661852 29851 layer_factory.hpp:77] Creating layer detection_loss_3_5x7
I0630 08:05:03.662740 29851 net.cpp:150] Setting up detection_loss_3_5x7
I0630 08:05:03.662750 29851 net.cpp:157] Top shape: 1 1 1 2 (2)
I0630 08:05:03.662752 29851 net.cpp:160]     with loss weight 1
I0630 08:05:03.662760 29851 net.cpp:165] Memory required for data: 2238750252
I0630 08:05:03.662763 29851 layer_factory.hpp:77] Creating layer detection_accuracy_3_5x7
I0630 08:05:03.662770 29851 net.cpp:100] Creating Layer detection_accuracy_3_5x7
I0630 08:05:03.662775 29851 net.cpp:434] detection_accuracy_3_5x7 <- LFCN_3_5x7_LFCN_3_5x7_0_split_1
I0630 08:05:03.662781 29851 net.cpp:434] detection_accuracy_3_5x7 <- label_3_5x7_data_6_split_1
I0630 08:05:03.662788 29851 net.cpp:408] detection_accuracy_3_5x7 -> accuracy_3_5x7
I0630 08:05:03.662796 29851 net.cpp:408] detection_accuracy_3_5x7 -> boxiou_3_5x7
I0630 08:05:03.662840 29851 net.cpp:150] Setting up detection_accuracy_3_5x7
I0630 08:05:03.662844 29851 net.cpp:157] Top shape: 1 1 1 2 (2)
I0630 08:05:03.662848 29851 net.cpp:157] Top shape: 1 1 1 1 (1)
I0630 08:05:03.662852 29851 net.cpp:165] Memory required for data: 2238750264
I0630 08:05:03.662853 29851 layer_factory.hpp:77] Creating layer pool6
I0630 08:05:03.662860 29851 net.cpp:100] Creating Layer pool6
I0630 08:05:03.662864 29851 net.cpp:434] pool6 <- conv6_1_relu6_1_0_split_2
I0630 08:05:03.662870 29851 net.cpp:408] pool6 -> pool6
I0630 08:05:03.662909 29851 net.cpp:150] Setting up pool6
I0630 08:05:03.662914 29851 net.cpp:157] Top shape: 2 512 9 12 (110592)
I0630 08:05:03.662917 29851 net.cpp:165] Memory required for data: 2239192632
I0630 08:05:03.662920 29851 layer_factory.hpp:77] Creating layer LFCN_4_3x5
I0630 08:05:03.662930 29851 net.cpp:100] Creating Layer LFCN_4_3x5
I0630 08:05:03.662933 29851 net.cpp:434] LFCN_4_3x5 <- pool6
I0630 08:05:03.662942 29851 net.cpp:408] LFCN_4_3x5 -> LFCN_4_3x5
I0630 08:05:03.665256 29851 net.cpp:150] Setting up LFCN_4_3x5
I0630 08:05:03.665266 29851 net.cpp:157] Top shape: 2 7 9 12 (1512)
I0630 08:05:03.665269 29851 net.cpp:165] Memory required for data: 2239198680
I0630 08:05:03.665277 29851 layer_factory.hpp:77] Creating layer LFCN_4_3x5_LFCN_4_3x5_0_split
I0630 08:05:03.665285 29851 net.cpp:100] Creating Layer LFCN_4_3x5_LFCN_4_3x5_0_split
I0630 08:05:03.665289 29851 net.cpp:434] LFCN_4_3x5_LFCN_4_3x5_0_split <- LFCN_4_3x5
I0630 08:05:03.665297 29851 net.cpp:408] LFCN_4_3x5_LFCN_4_3x5_0_split -> LFCN_4_3x5_LFCN_4_3x5_0_split_0
I0630 08:05:03.665304 29851 net.cpp:408] LFCN_4_3x5_LFCN_4_3x5_0_split -> LFCN_4_3x5_LFCN_4_3x5_0_split_1
I0630 08:05:03.665357 29851 net.cpp:150] Setting up LFCN_4_3x5_LFCN_4_3x5_0_split
I0630 08:05:03.665364 29851 net.cpp:157] Top shape: 2 7 9 12 (1512)
I0630 08:05:03.665366 29851 net.cpp:157] Top shape: 2 7 9 12 (1512)
I0630 08:05:03.665369 29851 net.cpp:165] Memory required for data: 2239210776
I0630 08:05:03.665372 29851 layer_factory.hpp:77] Creating layer detection_loss_4_3x5
I0630 08:05:03.665379 29851 net.cpp:100] Creating Layer detection_loss_4_3x5
I0630 08:05:03.665381 29851 net.cpp:434] detection_loss_4_3x5 <- LFCN_4_3x5_LFCN_4_3x5_0_split_0
I0630 08:05:03.665386 29851 net.cpp:434] detection_loss_4_3x5 <- label_4_3x5_data_7_split_0
I0630 08:05:03.665395 29851 net.cpp:408] detection_loss_4_3x5 -> loss_4_3x5
I0630 08:05:03.665403 29851 layer_factory.hpp:77] Creating layer detection_loss_4_3x5
I0630 08:05:03.666301 29851 net.cpp:150] Setting up detection_loss_4_3x5
I0630 08:05:03.666311 29851 net.cpp:157] Top shape: 1 1 1 2 (2)
I0630 08:05:03.666312 29851 net.cpp:160]     with loss weight 1
I0630 08:05:03.666321 29851 net.cpp:165] Memory required for data: 2239210784
I0630 08:05:03.666324 29851 layer_factory.hpp:77] Creating layer detection_accuracy_4_3x5
I0630 08:05:03.666332 29851 net.cpp:100] Creating Layer detection_accuracy_4_3x5
I0630 08:05:03.666335 29851 net.cpp:434] detection_accuracy_4_3x5 <- LFCN_4_3x5_LFCN_4_3x5_0_split_1
I0630 08:05:03.666340 29851 net.cpp:434] detection_accuracy_4_3x5 <- label_4_3x5_data_7_split_1
I0630 08:05:03.666348 29851 net.cpp:408] detection_accuracy_4_3x5 -> accuracy_4_3x5
I0630 08:05:03.666357 29851 net.cpp:408] detection_accuracy_4_3x5 -> boxiou_4_3x5
I0630 08:05:03.666401 29851 net.cpp:150] Setting up detection_accuracy_4_3x5
I0630 08:05:03.666405 29851 net.cpp:157] Top shape: 1 1 1 2 (2)
I0630 08:05:03.666409 29851 net.cpp:157] Top shape: 1 1 1 1 (1)
I0630 08:05:03.666412 29851 net.cpp:165] Memory required for data: 2239210796
I0630 08:05:03.666415 29851 net.cpp:228] detection_accuracy_4_3x5 does not need backward computation.
I0630 08:05:03.666419 29851 net.cpp:226] detection_loss_4_3x5 needs backward computation.
I0630 08:05:03.666424 29851 net.cpp:226] LFCN_4_3x5_LFCN_4_3x5_0_split needs backward computation.
I0630 08:05:03.666426 29851 net.cpp:226] LFCN_4_3x5 needs backward computation.
…
