…
    downsample_rate: 16
    downsample_rate: 32
    downsample_rate: 32
    downsample_rate: 64
    coord_num: 4
    field_h: 60
    field_h: 84
    field_h: 120
    field_h: 168
    field_h: 240
    field_h: 336
    field_h: 480
    field_w: 40
    field_w: 56
    field_w: 80
    field_w: 112
    field_w: 160
    field_w: 224
    field_w: 360
    fg_threshold: 0.5
    resize_width: 1920
    resize_height: 576
    crop_width: 768
    crop_height: 576
    do_multiple_scale: true
    min_scale: 60
    max_scale: 480
    min_gt_height: 30
    shuffle: true
  }
}
layer {
  name: "conv1_1"
  type: "Convolution"
  bottom: "data"
  top: "conv1_1"
  convolution_param {
    num_output: 64
    pad: 1
    kernel_size: 3
  }
}
layer {
  name: "relu1_1"
  type: "ReLU"
  bottom: "conv1_1"
  top: "conv1_1"
}
layer {
  name: "conv1_2"
  type: "Convolution"
  bottom: "conv1_1"
  top: "conv1_2"
  convolution_param {
    num_output: 64
    pad: 1
    kernel_size: 3
  }
}
layer {
  name: "relu1_2"
  type: "ReLU"
  bottom: "conv1_2"
  top: "conv1_2"
}
layer {
  name: "pool1"
  type: "Pooling"
  bottom: "conv1_2"
  top: "pool1"
  pooling_param {
    pool: MAX
    kernel_size: 2
    stride: 2
  }
}
layer {
  name: "conv2_1"
  type: "Convolution"
  bottom: "pool1"
  top: "conv2_1"
  convolution_param {
    num_output: 128
    pad: 1
    kernel_size: 3
  }
}
layer {
  name: "relu2_1"
  type: "ReLU"
  bottom: "conv2_1"
  top: "conv2_1"
}
layer {
  name: "conv2_2"
  type: "Convolution"
  bottom: "conv2_1"
  top: "conv2_2"
  convolution_param {
    num_output: 128
    pad: 1
    kernel_size: 3
  }
}
layer {
  name: "relu2_2"
  type: "ReLU"
  bottom: "conv2_2"
  top: "conv2_2"
}
layer {
  name: "pool2"
  type: "Pooling"
  bottom: "conv2_2"
  top: "pool2"
  pooling_param {
    pool: MAX
    kernel_size: 2
    stride: 2
  }
}
layer {
  name: "conv3_1"
  type: "Convolution"
  bottom: "pool2"
  top: "conv3_1"
  convolution_param {
    num_output: 256
    pad: 1
    kernel_size: 3
  }
}
layer {
  name: "relu3_1"
  type: "ReLU"
  bottom: "conv3_1"
  top: "conv3_1"
}
layer {
  name: "conv3_2"
  type: "Convolution"
  bottom: "conv3_1"
  top: "conv3_2"
  convolution_param {
    num_output: 256
    pad: 1
    kernel_size: 3
  }
}
layer {
  name: "relu3_2"
  type: "ReLU"
  bottom: "conv3_2"
  top: "conv3_2"
}
layer {
  name: "conv3_3"
  type: "Convolution"
  bottom: "conv3_2"
  top: "conv3_3"
  convolution_param {
    num_output: 256
    pad: 1
    kernel_size: 3
  }
}
layer {
  name: "relu3_3"
  type: "ReLU"
  bottom: "conv3_3"
  top: "conv3_3"
}
layer {
  name: "pool3"
  type: "Pooling"
  bottom: "conv3_3"
  top: "pool3"
  pooling_param {
    pool: MAX
    kernel_size: 2
    stride: 2
  }
}
layer {
  name: "conv4_1"
  type: "Convolution"
  bottom: "pool3"
  top: "conv4_1"
  convolution_param {
    num_output: 512
    pad: 1
    kernel_size: 3
  }
}
layer {
  name: "relu4_1"
  type: "ReLU"
  bottom: "conv4_1"
  top: "conv4_1"
}
layer {
  name: "conv4_2"
  type: "Convolution"
  bottom: "conv4_1"
  top: "conv4_2"
  convolution_param {
    num_output: 512
    pad: 1
    kernel_size: 3
  }
}
layer {
  name: "relu4_2"
  type: "ReLU"
  bottom: "conv4_2"
  top: "conv4_2"
}
layer {
  name: "conv4_3"
  type: "Convolution"
  bottom: "conv4_2"
  top: "conv4_3"
  convolution_param {
    num_output: 512
    pad: 1
    kernel_size: 3
  }
}
layer {
  name: "relu4_3"
  type: "ReLU"
  bottom: "conv4_3"
  top: "conv4_3"
}
layer {
  name: "loss1_conv1"
  type: "Convolution"
  bottom: "conv4_3"
  top: "loss1_conv1"
  param {
    lr_mult: 1
    decay_mult: 1
  }
  param {
    lr_mult: 2
    decay_mult: 0
  }
  convolution_param {
    num_output: 512
    pad: 1
    kernel_size: 3
    weight_filler {
      type: "gaussian"
      std: 0.01
    }
    bias_filler {
      type: "constant"
    }
  }
}
layer {
  name: "loss_relu1"
  type: "ReLU"
  bottom: "loss1_conv1"
  top: "loss1_conv1"
}
layer {
  name: "LFCN_1_3x5"
  type: "Convolution"
  bottom: "loss1_conv1"
  top: "LFCN_1_3x5"
  param {
    lr_mult: 1
    decay_mult: 1
  }
  param {
    lr_mult: 2
    decay_mult: 0
  }
  convolution_param {
    num_output: 7
    weight_filler {
      type: "gaussian"
      std: 0.001
    }
    bias_filler {
      type: "constant"
    }
    pad_h: 2
    pad_w: 1
    kernel_h: 5
    kernel_w: 3
  }
}
layer {
  name: "detection_loss_1_3x5"
  type: "DetectionLoss"
  bottom: "LFCN_1_3x5"
  bottom: "label_1_3x5"
  top: "loss_1_3x5"
  loss_weight: 0.9
  detection_loss_param {
    cls_num: 3
    coord_num: 4
    lambda: 0.5
    field_h: 60
    field_w: 40
    downsample_rate: 8
    bb_smooth: true
    field_whr: 2
    field_xyr: 2
    bg_threshold: 0.2
    bg_multiple: 2
    sample_mode: "random"
    pos_neg_weighted: true
  }
}
layer {
  name: "detection_accuracy_1_3x5"
  type: "DetectionAccuracy"
  bottom: "LFCN_1_3x5"
  bottom: "label_1_3x5"
  top: "accuracy_1_3x5"
  top: "boxiou_1_3x5"
  detection_accuracy_param {
    cls_num: 3
    coord_num: 4
    field_h: 60
    field_w: 40
    downsample_rate: 8
    field_whr: 2
    field_xyr: 2
  }
}
layer {
  name: "LFCN_1_5x7"
  type: "Convolution"
  bottom: "loss1_conv1"
  top: "LFCN_1_5x7"
  param {
    lr_mult: 1
    decay_mult: 1
  }
  param {
    lr_mult: 2
    decay_mult: 0
  }
  convolution_param {
    num_output: 7
    weight_filler {
      type: "gaussian"
      std: 0.001
    }
    bias_filler {
      type: "constant"
    }
    pad_h: 3
    pad_w: 2
    kernel_h: 7
    kernel_w: 5
  }
}
layer {
  name: "detection_loss_1_5x7"
  type: "DetectionLoss"
  bottom: "LFCN_1_5x7"
  bottom: "label_1_5x7"
  top: "loss_1_5x7"
  loss_weight: 0.9
  detection_loss_param {
    cls_num: 3
    coord_num: 4
    lambda: 0.5
    field_h: 84
    field_w: 56
    downsample_rate: 8
    bb_smooth: true
    field_whr: 2
    field_xyr: 2
    bg_threshold: 0.2
    bg_multiple: 2
    sample_mode: "random"
    pos_neg_weighted: true
  }
}
layer {
  name: "detection_accuracy_1_5x7"
  type: "DetectionAccuracy"
  bottom: "LFCN_1_5x7"
  bottom: "label_1_5x7"
  top: "accuracy_1_5x7"
  top: "boxiou_1_5x7"
  detection_accuracy_param {
    cls_num: 3
    coord_num: 4
    field_h: 84
    field_w: 56
    downsample_rate: 8
    field_whr: 2
    field_xyr: 2
  }
}
layer {
  name: "pool4"
  type: "Pooling"
  bottom: "conv4_3"
  top: "pool4"
  pooling_param {
    pool: MAX
    kernel_size: 2
    stride: 2
  }
}
layer {
  name: "conv5_1"
  type: "Convolution"
  bottom: "pool4"
  top: "conv5_1"
  convolution_param {
    num_output: 512
    pad: 1
    kernel_size: 3
  }
}
layer {
  name: "relu5_1"
  type: "ReLU"
  bottom: "conv5_1"
  top: "conv5_1"
}
layer {
  name: "conv5_2"
  type: "Convolution"
  bottom: "conv5_1"
  top: "conv5_2"
  convolution_param {
    num_output: 512
    pad: 1
    kernel_size: 3
  }
}
layer {
  name: "relu5_2"
  type: "ReLU"
  bottom: "conv5_2"
  top: "conv5_2"
}
layer {
  name: "conv5_3"
  type: "Convolution"
  bottom: "conv5_2"
  top: "conv5_3"
  convolution_param {
    num_output: 512
    pad: 1
    kernel_size: 3
  }
}
layer {
  name: "relu5_3"
  type: "ReLU"
  bottom: "conv5_3"
  top: "conv5_3"
}
layer {
  name: "LFCN_2_3x5"
  type: "Convolution"
  bottom: "conv5_3"
  top: "LFCN_2_3x5"
  param {
    lr_mult: 1
    decay_mult: 1
  }
  param {
    lr_mult: 2
    decay_mult: 0
  }
  convolution_param {
    num_output: 7
    weight_filler {
      type: "gaussian"
      std: 0.001
    }
    bias_filler {
      type: "constant"
    }
    pad_h: 2
    pad_w: 1
    kernel_h: 5
    kernel_w: 3
  }
}
layer {
  name: "detection_loss_2_3x5"
  type: "DetectionLoss"
  bottom: "LFCN_2_3x5"
  bottom: "label_2_3x5"
  top: "loss_2_3x5"
  detection_loss_param {
    cls_num: 3
    coord_num: 4
    lambda: 0.5
    field_h: 120
    field_w: 80
    downsample_rate: 16
    bb_smooth: true
    field_whr: 2
    field_xyr: 2
    bg_threshold: 0.2
    bg_multiple: 2
    sample_mode: "random"
    pos_neg_weighted: true
  }
}
layer {
  name: "detection_accuracy_2_3x5"
  type: "DetectionAccuracy"
  bottom: "LFCN_2_3x5"
  bottom: "label_2_3x5"
  top: "accuracy_2_3x5"
  top: "boxiou_2_3x5"
  detection_accuracy_param {
    cls_num: 3
    coord_num: 4
    field_h: 120
    field_w: 80
    downsample_rate: 16
    field_whr: 2
    field_xyr: 2
  }
}
layer {
  name: "LFCN_2_5x7"
  type: "Convolution"
  bottom: "conv5_3"
  top: "LFCN_2_5x7"
  param {
    lr_mult: 1
    decay_mult: 1
  }
  param {
    lr_mult: 2
    decay_mult: 0
  }
  convolution_param {
    num_output: 7
    weight_filler {
      type: "gaussian"
      std: 0.001
    }
    bias_filler {
      type: "constant"
    }
    pad_h: 3
    pad_w: 2
    kernel_h: 7
    kernel_w: 5
  }
}
layer {
  name: "detection_loss_2_5x7"
  type: "DetectionLoss"
  bottom: "LFCN_2_5x7"
  bottom: "label_2_5x7"
  top: "loss_2_5x7"
  detection_loss_param {
    cls_num: 3
    coord_num: 4
    lambda: 0.5
    field_h: 168
    field_w: 112
    downsample_rate: 16
    bb_smooth: true
    field_whr: 2
    field_xyr: 2
    bg_threshold: 0.2
    bg_multiple: 2
    sample_mode: "random"
    pos_neg_weighted: true
  }
}
layer {
  name: "detection_accuracy_2_5x7"
  type: "DetectionAccuracy"
  bottom: "LFCN_2_5x7"
  bottom: "label_2_5x7"
  top: "accuracy_2_5x7"
  top: "boxiou_2_5x7"
  detection_accuracy_param {
    cls_num: 3
    coord_num: 4
    field_h: 168
    field_w: 112
    downsample_rate: 16
    field_whr: 2
    field_xyr: 2
  }
}
layer {
  name: "pool5"
  type: "Pooling"
  bottom: "conv5_3"
  top: "pool5"
  pooling_param {
    pool: MAX
    kernel_size: 2
    stride: 2
  }
}
layer {
  name: "conv6_1"
  type: "Convolution"
  bottom: "pool5"
  top: "conv6_1"
  param {
    lr_mult: 1
    decay_mult: 1
  }
  param {
    lr_mult: 2
    decay_mult: 0
  }
  convolution_param {
    num_output: 512
    pad: 1
    kernel_size: 3
    weight_filler {
      type: "gaussian"
      std: 0.01
    }
    bias_filler {
      type: "constant"
    }
  }
}
layer {
  name: "relu6_1"
  type: "ReLU"
  bottom: "conv6_1"
  top: "conv6_1"
}
layer {
  name: "LFCN_3_3x5"
  type: "Convolution"
  bottom: "conv6_1"
  top: "LFCN_3_3x5"
  param {
    lr_mult: 1
    decay_mult: 1
  }
  param {
    lr_mult: 2
    decay_mult: 0
  }
  convolution_param {
    num_output: 7
    weight_filler {
      type: "gaussian"
      std: 0.001
    }
    bias_filler {
      type: "constant"
    }
    pad_h: 2
    pad_w: 1
    kernel_h: 5
    kernel_w: 3
  }
}
layer {
  name: "detection_loss_3_3x5"
  type: "DetectionLoss"
  bottom: "LFCN_3_3x5"
  bottom: "label_3_3x5"
  top: "loss_3_3x5"
  detection_loss_param {
    cls_num: 3
    coord_num: 4
    lambda: 0.5
    field_h: 240
    field_w: 160
    downsample_rate: 32
    bb_smooth: true
    field_whr: 2
    field_xyr: 2
    bg_threshold: 0.2
    bg_multiple: 2
    sample_mode: "random"
    pos_neg_weighted: true
  }
}
layer {
  name: "detection_accuracy_3_3x5"
  type: "DetectionAccuracy"
  bottom: "LFCN_3_3x5"
  bottom: "label_3_3x5"
  top: "accuracy_3_3x5"
  top: "boxiou_3_3x5"
  detection_accuracy_param {
    cls_num: 3
    coord_num: 4
    field_h: 240
    field_w: 160
    downsample_rate: 32
    field_whr: 2
    field_xyr: 2
  }
}
layer {
  name: "LFCN_3_5x7"
  type: "Convolution"
  bottom: "conv6_1"
  top: "LFCN_3_5x7"
  param {
    lr_mult: 1
    decay_mult: 1
  }
  param {
    lr_mult: 2
    decay_mult: 0
  }
  convolution_param {
    num_output: 7
    weight_filler {
      type: "gaussian"
      std: 0.001
    }
    bias_filler {
      type: "constant"
    }
    pad_h: 3
    pad_w: 2
    kernel_h: 7
    kernel_w: 5
  }
}
layer {
  name: "detection_loss_3_5x7"
  type: "DetectionLoss"
  bottom: "LFCN_3_5x7"
  bottom: "label_3_5x7"
  top: "loss_3_5x7"
  detection_loss_param {
    cls_num: 3
    coord_num: 4
    lambda: 0.5
    field_h: 336
    field_w: 224
    downsample_rate: 32
    bb_smooth: true
    field_whr: 2
    field_xyr: 2
    bg_threshold: 0.2
    bg_multiple: 2
    sample_mode: "random"
    pos_neg_weighted: true
  }
}
layer {
  name: "detection_accuracy_3_5x7"
  type: "DetectionAccuracy"
  bottom: "LFCN_3_5x7"
  bottom: "label_3_5x7"
  top: "accuracy_3_5x7"
  top: "boxiou_3_5x7"
  detection_accuracy_param {
    cls_num: 3
    coord_num: 4
    field_h: 336
    field_w: 224
    downsample_rate: 32
    field_whr: 2
    field_xyr: 2
  }
}
layer {
  name: "pool6"
  type: "Pooling"
  bottom: "conv6_1"
  top: "pool6"
  pooling_param {
    pool: MAX
    kernel_size: 2
    stride: 2
  }
}
layer {
  name: "LFCN_4_3x5"
  type: "Convolution"
  bottom: "pool6"
  top: "LFCN_4_3x5"
  param {
    lr_mult: 1
    decay_mult: 1
  }
  param {
    lr_mult: 2
    decay_mult: 0
  }
  convolution_param {
    num_output: 7
    weight_filler {
      type: "gaussian"
      std: 0.001
    }
    bias_filler {
      type: "constant"
    }
    pad_h: 2
    pad_w: 1
    kernel_h: 5
    kernel_w: 3
  }
}
layer {
  name: "detection_loss_4_3x5"
  type: "DetectionLoss"
  bottom: "LFCN_4_3x5"
  bottom: "label_4_3x5"
  top: "loss_4_3x5"
  detection_loss_param {
    cls_num: 3
    coord_num: 4
    lambda: 0.5
    field_h: 480
    field_w: 360
    downsample_rate: 64
    bb_smooth: true
    field_whr: 2
    field_xyr: 2
    bg_threshold: 0.2
    bg_multiple: 2
    sample_mode: "random"
    pos_neg_weighted: true
  }
}
layer {
  name: "detection_accuracy_4_3x5"
  type: "DetectionAccuracy"
  bottom: "LFCN_4_3x5"
  bottom: "label_4_3x5"
  top: "accuracy_4_3x5"
  top: "boxiou_4_3x5"
  detection_accuracy_param {
    cls_num: 3
    coord_num: 4
    field_h: 480
    field_w: 360
    downsample_rate: 64
    field_whr: 2
    field_xyr: 2
  }
}
I0629 21:19:24.780807 28082 layer_factory.hpp:77] Creating layer data
I0629 21:19:24.780911 28082 net.cpp:100] Creating Layer data
I0629 21:19:24.780944 28082 net.cpp:408] data -> data
…
I0629 21:19:24.834280 28082 image_gt_data_layer.cpp:241] output label size 2 : 4,6,36,48
I0629 21:19:24.834323 28082 image_gt_data_layer.cpp:241] output label size 3 : 4,6,36,48
I0629 21:19:24.834370 28082 image_gt_data_layer.cpp:241] output label size 4 : 4,6,18,24
I0629 21:19:24.834416 28082 image_gt_data_layer.cpp:241] output label size 5 : 4,6,18,24
I0629 21:19:24.834460 28082 image_gt_data_layer.cpp:241] output label size 6 : 4,6,9,12
I0629 21:19:24.834463 28082 image_gt_data_layer.cpp:265]  --> has_mean_values_ = 1
I0629 21:19:24.873903 28082 net.cpp:150] Setting up data
I0629 21:19:24.873924 28082 net.cpp:157] Top shape: 4 4 576 768 (7077888)
I0629 21:19:24.873929 28082 net.cpp:157] Top shape: 4 6 72 96 (165888)
I0629 21:19:24.873932 28082 net.cpp:157] Top shape: 4 6 72 96 (165888)
I0629 21:19:24.873935 28082 net.cpp:157] Top shape: 4 6 36 48 (41472)
I0629 21:19:24.873939 28082 net.cpp:157] Top shape: 4 6 36 48 (41472)
I0629 21:19:24.873942 28082 net.cpp:157] Top shape: 4 6 18 24 (10368)
I0629 21:19:24.873946 28082 net.cpp:157] Top shape: 4 6 18 24 (10368)
I0629 21:19:24.873950 28082 net.cpp:157] Top shape: 4 6 9 12 (2592)
I0629 21:19:24.873952 28082 net.cpp:165] Memory required for data: 30063744
I0629 21:19:24.873960 28082 layer_factory.hpp:77] Creating layer label_1_3x5_data_1_split
I0629 21:19:24.873972 28082 net.cpp:100] Creating Layer label_1_3x5_data_1_split
I0629 21:19:24.873980 28082 net.cpp:434] label_1_3x5_data_1_split <- label_1_3x5
I0629 21:19:24.873991 28082 net.cpp:408] label_1_3x5_data_1_split -> label_1_3x5_data_1_split_0
I0629 21:19:24.874001 28082 net.cpp:408] label_1_3x5_data_1_split -> label_1_3x5_data_1_split_1
I0629 21:19:24.874048 28082 net.cpp:150] Setting up label_1_3x5_data_1_split
I0629 21:19:24.874056 28082 net.cpp:157] Top shape: 4 6 72 96 (165888)
I0629 21:19:24.874060 28082 net.cpp:157] Top shape: 4 6 72 96 (165888)
I0629 21:19:24.874063 28082 net.cpp:165] Memory required for data: 31390848
I0629 21:19:24.874065 28082 layer_factory.hpp:77] Creating layer label_1_5x7_data_2_split
I0629 21:19:24.874074 28082 net.cpp:100] Creating Layer label_1_5x7_data_2_split
I0629 21:19:24.874078 28082 net.cpp:434] label_1_5x7_data_2_split <- label_1_5x7
I0629 21:19:24.874083 28082 net.cpp:408] label_1_5x7_data_2_split -> label_1_5x7_data_2_split_0
I0629 21:19:24.874091 28082 net.cpp:408] label_1_5x7_data_2_split -> label_1_5x7_data_2_split_1
I0629 21:19:24.874143 28082 net.cpp:150] Setting up label_1_5x7_data_2_split
I0629 21:19:24.874151 28082 net.cpp:157] Top shape: 4 6 72 96 (165888)
I0629 21:19:24.874155 28082 net.cpp:157] Top shape: 4 6 72 96 (165888)
I0629 21:19:24.874157 28082 net.cpp:165] Memory required for data: 32717952
I0629 21:19:24.874161 28082 layer_factory.hpp:77] Creating layer label_2_3x5_data_3_split
I0629 21:19:24.874166 28082 net.cpp:100] Creating Layer label_2_3x5_data_3_split
I0629 21:19:24.874168 28082 net.cpp:434] label_2_3x5_data_3_split <- label_2_3x5
I0629 21:19:24.874173 28082 net.cpp:408] label_2_3x5_data_3_split -> label_2_3x5_data_3_split_0
I0629 21:19:24.874178 28082 net.cpp:408] label_2_3x5_data_3_split -> label_2_3x5_data_3_split_1
I0629 21:19:24.874205 28082 net.cpp:150] Setting up label_2_3x5_data_3_split
I0629 21:19:24.874212 28082 net.cpp:157] Top shape: 4 6 36 48 (41472)
I0629 21:19:24.874215 28082 net.cpp:157] Top shape: 4 6 36 48 (41472)
I0629 21:19:24.874217 28082 net.cpp:165] Memory required for data: 33049728
I0629 21:19:24.874220 28082 layer_factory.hpp:77] Creating layer label_2_5x7_data_4_split
I0629 21:19:24.874228 28082 net.cpp:100] Creating Layer label_2_5x7_data_4_split
I0629 21:19:24.874230 28082 net.cpp:434] label_2_5x7_data_4_split <- label_2_5x7
I0629 21:19:24.874235 28082 net.cpp:408] label_2_5x7_data_4_split -> label_2_5x7_data_4_split_0
I0629 21:19:24.874241 28082 net.cpp:408] label_2_5x7_data_4_split -> label_2_5x7_data_4_split_1
I0629 21:19:24.874266 28082 net.cpp:150] Setting up label_2_5x7_data_4_split
I0629 21:19:24.874272 28082 net.cpp:157] Top shape: 4 6 36 48 (41472)
I0629 21:19:24.874276 28082 net.cpp:157] Top shape: 4 6 36 48 (41472)
I0629 21:19:24.874279 28082 net.cpp:165] Memory required for data: 33381504
I0629 21:19:24.874280 28082 layer_factory.hpp:77] Creating layer label_3_3x5_data_5_split
I0629 21:19:24.874284 28082 net.cpp:100] Creating Layer label_3_3x5_data_5_split
I0629 21:19:24.874287 28082 net.cpp:434] label_3_3x5_data_5_split <- label_3_3x5
I0629 21:19:24.874291 28082 net.cpp:408] label_3_3x5_data_5_split -> label_3_3x5_data_5_split_0
I0629 21:19:24.874300 28082 net.cpp:408] label_3_3x5_data_5_split -> label_3_3x5_data_5_split_1
I0629 21:19:24.874326 28082 net.cpp:150] Setting up label_3_3x5_data_5_split
I0629 21:19:24.874331 28082 net.cpp:157] Top shape: 4 6 18 24 (10368)
I0629 21:19:24.874336 28082 net.cpp:157] Top shape: 4 6 18 24 (10368)
I0629 21:19:24.874337 28082 net.cpp:165] Memory required for data: 33464448
I0629 21:19:24.874339 28082 layer_factory.hpp:77] Creating layer label_3_5x7_data_6_split
I0629 21:19:24.874343 28082 net.cpp:100] Creating Layer label_3_5x7_data_6_split
I0629 21:19:24.874346 28082 net.cpp:434] label_3_5x7_data_6_split <- label_3_5x7
I0629 21:19:24.874351 28082 net.cpp:408] label_3_5x7_data_6_split -> label_3_5x7_data_6_split_0
I0629 21:19:24.874356 28082 net.cpp:408] label_3_5x7_data_6_split -> label_3_5x7_data_6_split_1
I0629 21:19:24.874380 28082 net.cpp:150] Setting up label_3_5x7_data_6_split
I0629 21:19:24.874385 28082 net.cpp:157] Top shape: 4 6 18 24 (10368)
I0629 21:19:24.874388 28082 net.cpp:157] Top shape: 4 6 18 24 (10368)
I0629 21:19:24.874390 28082 net.cpp:165] Memory required for data: 33547392
I0629 21:19:24.874392 28082 layer_factory.hpp:77] Creating layer label_4_3x5_data_7_split
I0629 21:19:24.874397 28082 net.cpp:100] Creating Layer label_4_3x5_data_7_split
I0629 21:19:24.874399 28082 net.cpp:434] label_4_3x5_data_7_split <- label_4_3x5
I0629 21:19:24.874408 28082 net.cpp:408] label_4_3x5_data_7_split -> label_4_3x5_data_7_split_0
I0629 21:19:24.874413 28082 net.cpp:408] label_4_3x5_data_7_split -> label_4_3x5_data_7_split_1
I0629 21:19:24.874439 28082 net.cpp:150] Setting up label_4_3x5_data_7_split
I0629 21:19:24.874444 28082 net.cpp:157] Top shape: 4 6 9 12 (2592)
I0629 21:19:24.874449 28082 net.cpp:157] Top shape: 4 6 9 12 (2592)
I0629 21:19:24.874450 28082 net.cpp:165] Memory required for data: 33568128
I0629 21:19:24.874454 28082 layer_factory.hpp:77] Creating layer conv1_1
I0629 21:19:24.874465 28082 net.cpp:100] Creating Layer conv1_1
I0629 21:19:24.874469 28082 net.cpp:434] conv1_1 <- data
I0629 21:19:24.874474 28082 net.cpp:408] conv1_1 -> conv1_1
I0629 21:19:25.431999 28082 net.cpp:150] Setting up conv1_1
I0629 21:19:25.432019 28082 net.cpp:157] Top shape: 4 64 576 768 (113246208)
I0629 21:19:25.432023 28082 net.cpp:165] Memory required for data: 486552960
I0629 21:19:25.432037 28082 layer_factory.hpp:77] Creating layer relu1_1
I0629 21:19:25.432049 28082 net.cpp:100] Creating Layer relu1_1
I0629 21:19:25.432052 28082 net.cpp:434] relu1_1 <- conv1_1
I0629 21:19:25.432056 28082 net.cpp:395] relu1_1 -> conv1_1 (in-place)
I0629 21:19:25.432440 28082 net.cpp:150] Setting up relu1_1
I0629 21:19:25.432452 28082 net.cpp:157] Top shape: 4 64 576 768 (113246208)
I0629 21:19:25.432456 28082 net.cpp:165] Memory required for data: 939537792
I0629 21:19:25.432458 28082 layer_factory.hpp:77] Creating layer conv1_2
I0629 21:19:25.432467 28082 net.cpp:100] Creating Layer conv1_2
I0629 21:19:25.432471 28082 net.cpp:434] conv1_2 <- conv1_1
I0629 21:19:25.432476 28082 net.cpp:408] conv1_2 -> conv1_2
I0629 21:19:25.435524 28082 net.cpp:150] Setting up conv1_2
I0629 21:19:25.435545 28082 net.cpp:157] Top shape: 4 64 576 768 (113246208)
I0629 21:19:25.435547 28082 net.cpp:165] Memory required for data: 1392522624
I0629 21:19:25.435557 28082 layer_factory.hpp:77] Creating layer relu1_2
I0629 21:19:25.435564 28082 net.cpp:100] Creating Layer relu1_2
I0629 21:19:25.435567 28082 net.cpp:434] relu1_2 <- conv1_2
I0629 21:19:25.435573 28082 net.cpp:395] relu1_2 -> conv1_2 (in-place)
I0629 21:19:25.435874 28082 net.cpp:150] Setting up relu1_2
I0629 21:19:25.435881 28082 net.cpp:157] Top shape: 4 64 576 768 (113246208)
I0629 21:19:25.435883 28082 net.cpp:165] Memory required for data: 1845507456
I0629 21:19:25.435885 28082 layer_factory.hpp:77] Creating layer pool1
I0629 21:19:25.435890 28082 net.cpp:100] Creating Layer pool1
I0629 21:19:25.435894 28082 net.cpp:434] pool1 <- conv1_2
I0629 21:19:25.435897 28082 net.cpp:408] pool1 -> pool1
I0629 21:19:25.435945 28082 net.cpp:150] Setting up pool1
I0629 21:19:25.435950 28082 net.cpp:157] Top shape: 4 64 288 384 (28311552)
I0629 21:19:25.435952 28082 net.cpp:165] Memory required for data: 1958753664
I0629 21:19:25.435955 28082 layer_factory.hpp:77] Creating layer conv2_1
I0629 21:19:25.435961 28082 net.cpp:100] Creating Layer conv2_1
I0629 21:19:25.435964 28082 net.cpp:434] conv2_1 <- pool1
I0629 21:19:25.435967 28082 net.cpp:408] conv2_1 -> conv2_1
I0629 21:19:25.438443 28082 net.cpp:150] Setting up conv2_1
I0629 21:19:25.438462 28082 net.cpp:157] Top shape: 4 128 288 384 (56623104)
I0629 21:19:25.438465 28082 net.cpp:165] Memory required for data: 2185246080
I0629 21:19:25.438475 28082 layer_factory.hpp:77] Creating layer relu2_1
I0629 21:19:25.438482 28082 net.cpp:100] Creating Layer relu2_1
I0629 21:19:25.438485 28082 net.cpp:434] relu2_1 <- conv2_1
I0629 21:19:25.438490 28082 net.cpp:395] relu2_1 -> conv2_1 (in-place)
I0629 21:19:25.439136 28082 net.cpp:150] Setting up relu2_1
I0629 21:19:25.439146 28082 net.cpp:157] Top shape: 4 128 288 384 (56623104)
I0629 21:19:25.439148 28082 net.cpp:165] Memory required for data: 2411738496
I0629 21:19:25.439151 28082 layer_factory.hpp:77] Creating layer conv2_2
I0629 21:19:25.439157 28082 net.cpp:100] Creating Layer conv2_2
I0629 21:19:25.439159 28082 net.cpp:434] conv2_2 <- conv2_1
I0629 21:19:25.439163 28082 net.cpp:408] conv2_2 -> conv2_2
I0629 21:19:25.440898 28082 net.cpp:150] Setting up conv2_2
I0629 21:19:25.440912 28082 net.cpp:157] Top shape: 4 128 288 384 (56623104)
I0629 21:19:25.440914 28082 net.cpp:165] Memory required for data: 2638230912
I0629 21:19:25.440920 28082 layer_factory.hpp:77] Creating layer relu2_2
I0629 21:19:25.440929 28082 net.cpp:100] Creating Layer relu2_2
I0629 21:19:25.440932 28082 net.cpp:434] relu2_2 <- conv2_2
I0629 21:19:25.440935 28082 net.cpp:395] relu2_2 -> conv2_2 (in-place)
I0629 21:19:25.441553 28082 net.cpp:150] Setting up relu2_2
I0629 21:19:25.441562 28082 net.cpp:157] Top shape: 4 128 288 384 (56623104)
I0629 21:19:25.441565 28082 net.cpp:165] Memory required for data: 2864723328
I0629 21:19:25.441567 28082 layer_factory.hpp:77] Creating layer pool2
I0629 21:19:25.441572 28082 net.cpp:100] Creating Layer pool2
I0629 21:19:25.441574 28082 net.cpp:434] pool2 <- conv2_2
I0629 21:19:25.441578 28082 net.cpp:408] pool2 -> pool2
I0629 21:19:25.441618 28082 net.cpp:150] Setting up pool2
I0629 21:19:25.441623 28082 net.cpp:157] Top shape: 4 128 144 192 (14155776)
I0629 21:19:25.441624 28082 net.cpp:165] Memory required for data: 2921346432
I0629 21:19:25.441627 28082 layer_factory.hpp:77] Creating layer conv3_1
I0629 21:19:25.441633 28082 net.cpp:100] Creating Layer conv3_1
I0629 21:19:25.441637 28082 net.cpp:434] conv3_1 <- pool2
I0629 21:19:25.441642 28082 net.cpp:408] conv3_1 -> conv3_1
I0629 21:19:25.444288 28082 net.cpp:150] Setting up conv3_1
I0629 21:19:25.444304 28082 net.cpp:157] Top shape: 4 256 144 192 (28311552)
I0629 21:19:25.444308 28082 net.cpp:165] Memory required for data: 3034592640
I0629 21:19:25.444316 28082 layer_factory.hpp:77] Creating layer relu3_1
I0629 21:19:25.444324 28082 net.cpp:100] Creating Layer relu3_1
I0629 21:19:25.444326 28082 net.cpp:434] relu3_1 <- conv3_1
I0629 21:19:25.444330 28082 net.cpp:395] relu3_1 -> conv3_1 (in-place)
I0629 21:19:25.444582 28082 net.cpp:150] Setting up relu3_1
I0629 21:19:25.444591 28082 net.cpp:157] Top shape: 4 256 144 192 (28311552)
I0629 21:19:25.444594 28082 net.cpp:165] Memory required for data: 3147838848
I0629 21:19:25.444597 28082 layer_factory.hpp:77] Creating layer conv3_2
I0629 21:19:25.444605 28082 net.cpp:100] Creating Layer conv3_2
I0629 21:19:25.444609 28082 net.cpp:434] conv3_2 <- conv3_1
I0629 21:19:25.444615 28082 net.cpp:408] conv3_2 -> conv3_2
I0629 21:19:25.447907 28082 net.cpp:150] Setting up conv3_2
I0629 21:19:25.447926 28082 net.cpp:157] Top shape: 4 256 144 192 (28311552)
I0629 21:19:25.447928 28082 net.cpp:165] Memory required for data: 3261085056
I0629 21:19:25.447937 28082 layer_factory.hpp:77] Creating layer relu3_2
I0629 21:19:25.447947 28082 net.cpp:100] Creating Layer relu3_2
I0629 21:19:25.447953 28082 net.cpp:434] relu3_2 <- conv3_2
I0629 21:19:25.447960 28082 net.cpp:395] relu3_2 -> conv3_2 (in-place)
I0629 21:19:25.448206 28082 net.cpp:150] Setting up relu3_2
I0629 21:19:25.448215 28082 net.cpp:157] Top shape: 4 256 144 192 (28311552)
I0629 21:19:25.448218 28082 net.cpp:165] Memory required for data: 3374331264
I0629 21:19:25.448221 28082 layer_factory.hpp:77] Creating layer conv3_3
I0629 21:19:25.448230 28082 net.cpp:100] Creating Layer conv3_3
I0629 21:19:25.448233 28082 net.cpp:434] conv3_3 <- conv3_2
I0629 21:19:25.448240 28082 net.cpp:408] conv3_3 -> conv3_3
I0629 21:19:25.451354 28082 net.cpp:150] Setting up conv3_3
I0629 21:19:25.451371 28082 net.cpp:157] Top shape: 4 256 144 192 (28311552)
I0629 21:19:25.451375 28082 net.cpp:165] Memory required for data: 3487577472
I0629 21:19:25.451380 28082 layer_factory.hpp:77] Creating layer relu3_3
I0629 21:19:25.451387 28082 net.cpp:100] Creating Layer relu3_3
I0629 21:19:25.451390 28082 net.cpp:434] relu3_3 <- conv3_3
I0629 21:19:25.451395 28082 net.cpp:395] relu3_3 -> conv3_3 (in-place)
I0629 21:19:25.452126 28082 net.cpp:150] Setting up relu3_3
I0629 21:19:25.452136 28082 net.cpp:157] Top shape: 4 256 144 192 (28311552)
I0629 21:19:25.452137 28082 net.cpp:165] Memory required for data: 3600823680
I0629 21:19:25.452141 28082 layer_factory.hpp:77] Creating layer pool3
I0629 21:19:25.452145 28082 net.cpp:100] Creating Layer pool3
I0629 21:19:25.452148 28082 net.cpp:434] pool3 <- conv3_3
I0629 21:19:25.452152 28082 net.cpp:408] pool3 -> pool3
I0629 21:19:25.452195 28082 net.cpp:150] Setting up pool3
I0629 21:19:25.452203 28082 net.cpp:157] Top shape: 4 256 72 96 (7077888)
I0629 21:19:25.452205 28082 net.cpp:165] Memory required for data: 3629135232
I0629 21:19:25.452208 28082 layer_factory.hpp:77] Creating layer conv4_1
I0629 21:19:25.452215 28082 net.cpp:100] Creating Layer conv4_1
I0629 21:19:25.452219 28082 net.cpp:434] conv4_1 <- pool3
I0629 21:19:25.452224 28082 net.cpp:408] conv4_1 -> conv4_1
I0629 21:19:25.457022 28082 net.cpp:150] Setting up conv4_1
I0629 21:19:25.457041 28082 net.cpp:157] Top shape: 4 512 72 96 (14155776)
I0629 21:19:25.457044 28082 net.cpp:165] Memory required for data: 3685758336
I0629 21:19:25.457051 28082 layer_factory.hpp:77] Creating layer relu4_1
I0629 21:19:25.457057 28082 net.cpp:100] Creating Layer relu4_1
I0629 21:19:25.457060 28082 net.cpp:434] relu4_1 <- conv4_1
I0629 21:19:25.457065 28082 net.cpp:395] relu4_1 -> conv4_1 (in-place)
I0629 21:19:25.457391 28082 net.cpp:150] Setting up relu4_1
I0629 21:19:25.457399 28082 net.cpp:157] Top shape: 4 512 72 96 (14155776)
I0629 21:19:25.457402 28082 net.cpp:165] Memory required for data: 3742381440
I0629 21:19:25.457406 28082 layer_factory.hpp:77] Creating layer conv4_2
I0629 21:19:25.457413 28082 net.cpp:100] Creating Layer conv4_2
I0629 21:19:25.457417 28082 net.cpp:434] conv4_2 <- conv4_1
I0629 21:19:25.457422 28082 net.cpp:408] conv4_2 -> conv4_2
I0629 21:19:25.463197 28082 net.cpp:150] Setting up conv4_2
I0629 21:19:25.463217 28082 net.cpp:157] Top shape: 4 512 72 96 (14155776)
I0629 21:19:25.463220 28082 net.cpp:165] Memory required for data: 3799004544
I0629 21:19:25.463229 28082 layer_factory.hpp:77] Creating layer relu4_2
I0629 21:19:25.463237 28082 net.cpp:100] Creating Layer relu4_2
I0629 21:19:25.463240 28082 net.cpp:434] relu4_2 <- conv4_2
I0629 21:19:25.463245 28082 net.cpp:395] relu4_2 -> conv4_2 (in-place)
I0629 21:19:25.463541 28082 net.cpp:150] Setting up relu4_2
I0629 21:19:25.463549 28082 net.cpp:157] Top shape: 4 512 72 96 (14155776)
I0629 21:19:25.463552 28082 net.cpp:165] Memory required for data: 3855627648
I0629 21:19:25.463555 28082 layer_factory.hpp:77] Creating layer conv4_3
I0629 21:19:25.463563 28082 net.cpp:100] Creating Layer conv4_3
I0629 21:19:25.463567 28082 net.cpp:434] conv4_3 <- conv4_2
I0629 21:19:25.463572 28082 net.cpp:408] conv4_3 -> conv4_3
I0629 21:19:25.468948 28082 net.cpp:150] Setting up conv4_3
I0629 21:19:25.468969 28082 net.cpp:157] Top shape: 4 512 72 96 (14155776)
I0629 21:19:25.468971 28082 net.cpp:165] Memory required for data: 3912250752
I0629 21:19:25.468978 28082 layer_factory.hpp:77] Creating layer relu4_3
I0629 21:19:25.468984 28082 net.cpp:100] Creating Layer relu4_3
I0629 21:19:25.468988 28082 net.cpp:434] relu4_3 <- conv4_3
I0629 21:19:25.468993 28082 net.cpp:395] relu4_3 -> conv4_3 (in-place)
I0629 21:19:25.470461 28082 net.cpp:150] Setting up relu4_3
I0629 21:19:25.470474 28082 net.cpp:157] Top shape: 4 512 72 96 (14155776)
I0629 21:19:25.470476 28082 net.cpp:165] Memory required for data: 3968873856
I0629 21:19:25.470479 28082 layer_factory.hpp:77] Creating layer conv4_3_relu4_3_0_split
I0629 21:19:25.470484 28082 net.cpp:100] Creating Layer conv4_3_relu4_3_0_split
I0629 21:19:25.470487 28082 net.cpp:434] conv4_3_relu4_3_0_split <- conv4_3
I0629 21:19:25.470491 28082 net.cpp:408] conv4_3_relu4_3_0_split -> conv4_3_relu4_3_0_split_0
I0629 21:19:25.470497 28082 net.cpp:408] conv4_3_relu4_3_0_split -> conv4_3_relu4_3_0_split_1
I0629 21:19:25.470542 28082 net.cpp:150] Setting up conv4_3_relu4_3_0_split
I0629 21:19:25.470548 28082 net.cpp:157] Top shape: 4 512 72 96 (14155776)
I0629 21:19:25.470551 28082 net.cpp:157] Top shape: 4 512 72 96 (14155776)
I0629 21:19:25.470553 28082 net.cpp:165] Memory required for data: 4082120064
I0629 21:19:25.470556 28082 layer_factory.hpp:77] Creating layer loss1_conv1
I0629 21:19:25.470571 28082 net.cpp:100] Creating Layer loss1_conv1
I0629 21:19:25.470573 28082 net.cpp:434] loss1_conv1 <- conv4_3_relu4_3_0_split_0
I0629 21:19:25.470578 28082 net.cpp:408] loss1_conv1 -> loss1_conv1
I0629 21:19:25.504420 28082 net.cpp:150] Setting up loss1_conv1
I0629 21:19:25.504437 28082 net.cpp:157] Top shape: 4 512 72 96 (14155776)
I0629 21:19:25.504441 28082 net.cpp:165] Memory required for data: 4138743168
I0629 21:19:25.504446 28082 layer_factory.hpp:77] Creating layer loss_relu1
I0629 21:19:25.504452 28082 net.cpp:100] Creating Layer loss_relu1
I0629 21:19:25.504456 28082 net.cpp:434] loss_relu1 <- loss1_conv1
I0629 21:19:25.504460 28082 net.cpp:395] loss_relu1 -> loss1_conv1 (in-place)
I0629 21:19:25.504707 28082 net.cpp:150] Setting up loss_relu1
I0629 21:19:25.504715 28082 net.cpp:157] Top shape: 4 512 72 96 (14155776)
I0629 21:19:25.504717 28082 net.cpp:165] Memory required for data: 4195366272
I0629 21:19:25.504719 28082 layer_factory.hpp:77] Creating layer loss1_conv1_loss_relu1_0_split
I0629 21:19:25.504726 28082 net.cpp:100] Creating Layer loss1_conv1_loss_relu1_0_split
I0629 21:19:25.504730 28082 net.cpp:434] loss1_conv1_loss_relu1_0_split <- loss1_conv1
I0629 21:19:25.504736 28082 net.cpp:408] loss1_conv1_loss_relu1_0_split -> loss1_conv1_loss_relu1_0_split_0
I0629 21:19:25.504743 28082 net.cpp:408] loss1_conv1_loss_relu1_0_split -> loss1_conv1_loss_relu1_0_split_1
I0629 21:19:25.504789 28082 net.cpp:150] Setting up loss1_conv1_loss_relu1_0_split
I0629 21:19:25.504796 28082 net.cpp:157] Top shape: 4 512 72 96 (14155776)
I0629 21:19:25.504798 28082 net.cpp:157] Top shape: 4 512 72 96 (14155776)
I0629 21:19:25.504801 28082 net.cpp:165] Memory required for data: 4308612480
I0629 21:19:25.504804 28082 layer_factory.hpp:77] Creating layer LFCN_1_3x5
I0629 21:19:25.504814 28082 net.cpp:100] Creating Layer LFCN_1_3x5
I0629 21:19:25.504818 28082 net.cpp:434] LFCN_1_3x5 <- loss1_conv1_loss_relu1_0_split_0
I0629 21:19:25.504825 28082 net.cpp:408] LFCN_1_3x5 -> LFCN_1_3x5
I0629 21:19:25.507071 28082 net.cpp:150] Setting up LFCN_1_3x5
I0629 21:19:25.507086 28082 net.cpp:157] Top shape: 4 7 72 96 (193536)
I0629 21:19:25.507089 28082 net.cpp:165] Memory required for data: 4309386624
I0629 21:19:25.507097 28082 layer_factory.hpp:77] Creating layer LFCN_1_3x5_LFCN_1_3x5_0_split
I0629 21:19:25.507104 28082 net.cpp:100] Creating Layer LFCN_1_3x5_LFCN_1_3x5_0_split
I0629 21:19:25.507108 28082 net.cpp:434] LFCN_1_3x5_LFCN_1_3x5_0_split <- LFCN_1_3x5
I0629 21:19:25.507117 28082 net.cpp:408] LFCN_1_3x5_LFCN_1_3x5_0_split -> LFCN_1_3x5_LFCN_1_3x5_0_split_0
I0629 21:19:25.507125 28082 net.cpp:408] LFCN_1_3x5_LFCN_1_3x5_0_split -> LFCN_1_3x5_LFCN_1_3x5_0_split_1
I0629 21:19:25.507164 28082 net.cpp:150] Setting up LFCN_1_3x5_LFCN_1_3x5_0_split
I0629 21:19:25.507170 28082 net.cpp:157] Top shape: 4 7 72 96 (193536)
I0629 21:19:25.507174 28082 net.cpp:157] Top shape: 4 7 72 96 (193536)
I0629 21:19:25.507176 28082 net.cpp:165] Memory required for data: 4310934912
I0629 21:19:25.507179 28082 layer_factory.hpp:77] Creating layer detection_loss_1_3x5
I0629 21:19:25.507186 28082 net.cpp:100] Creating Layer detection_loss_1_3x5
I0629 21:19:25.507189 28082 net.cpp:434] detection_loss_1_3x5 <- LFCN_1_3x5_LFCN_1_3x5_0_split_0
I0629 21:19:25.507194 28082 net.cpp:434] detection_loss_1_3x5 <- label_1_3x5_data_1_split_0
I0629 21:19:25.507200 28082 net.cpp:408] detection_loss_1_3x5 -> loss_1_3x5
I0629 21:19:25.507212 28082 layer_factory.hpp:77] Creating layer detection_loss_1_3x5
I0629 21:19:25.507688 28082 net.cpp:150] Setting up detection_loss_1_3x5
I0629 21:19:25.507697 28082 net.cpp:157] Top shape: 1 1 1 2 (2)
I0629 21:19:25.507700 28082 net.cpp:160]     with loss weight 0.9
I0629 21:19:25.507720 28082 net.cpp:165] Memory required for data: 4310934920
I0629 21:19:25.507725 28082 layer_factory.hpp:77] Creating layer detection_accuracy_1_3x5
I0629 21:19:25.507733 28082 net.cpp:100] Creating Layer detection_accuracy_1_3x5
I0629 21:19:25.507737 28082 net.cpp:434] detection_accuracy_1_3x5 <- LFCN_1_3x5_LFCN_1_3x5_0_split_1
I0629 21:19:25.507741 28082 net.cpp:434] detection_accuracy_1_3x5 <- label_1_3x5_data_1_split_1
I0629 21:19:25.507747 28082 net.cpp:408] detection_accuracy_1_3x5 -> accuracy_1_3x5
I0629 21:19:25.507760 28082 net.cpp:408] detection_accuracy_1_3x5 -> boxiou_1_3x5
I0629 21:19:25.507799 28082 net.cpp:150] Setting up detection_accuracy_1_3x5
I0629 21:19:25.507805 28082 net.cpp:157] Top shape: 1 1 1 2 (2)
I0629 21:19:25.507808 28082 net.cpp:157] Top shape: 1 1 1 1 (1)
I0629 21:19:25.507812 28082 net.cpp:165] Memory required for data: 4310934932
I0629 21:19:25.507814 28082 layer_factory.hpp:77] Creating layer LFCN_1_5x7
I0629 21:19:25.507824 28082 net.cpp:100] Creating Layer LFCN_1_5x7
I0629 21:19:25.507829 28082 net.cpp:434] LFCN_1_5x7 <- loss1_conv1_loss_relu1_0_split_1
I0629 21:19:25.507835 28082 net.cpp:408] LFCN_1_5x7 -> LFCN_1_5x7
I0629 21:19:25.510169 28082 net.cpp:150] Setting up LFCN_1_5x7
I0629 21:19:25.510185 28082 net.cpp:157] Top shape: 4 7 72 96 (193536)
I0629 21:19:25.510187 28082 net.cpp:165] Memory required for data: 4311709076
I0629 21:19:25.510196 28082 layer_factory.hpp:77] Creating layer LFCN_1_5x7_LFCN_1_5x7_0_split
I0629 21:19:25.510203 28082 net.cpp:100] Creating Layer LFCN_1_5x7_LFCN_1_5x7_0_split
I0629 21:19:25.510210 28082 net.cpp:434] LFCN_1_5x7_LFCN_1_5x7_0_split <- LFCN_1_5x7
I0629 21:19:25.510219 28082 net.cpp:408] LFCN_1_5x7_LFCN_1_5x7_0_split -> LFCN_1_5x7_LFCN_1_5x7_0_split_0
I0629 21:19:25.510228 28082 net.cpp:408] LFCN_1_5x7_LFCN_1_5x7_0_split -> LFCN_1_5x7_LFCN_1_5x7_0_split_1
I0629 21:19:25.510282 28082 net.cpp:150] Setting up LFCN_1_5x7_LFCN_1_5x7_0_split
I0629 21:19:25.510290 28082 net.cpp:157] Top shape: 4 7 72 96 (193536)
I0629 21:19:25.510294 28082 net.cpp:157] Top shape: 4 7 72 96 (193536)
I0629 21:19:25.510298 28082 net.cpp:165] Memory required for data: 4313257364
I0629 21:19:25.510300 28082 layer_factory.hpp:77] Creating layer detection_loss_1_5x7
I0629 21:19:25.510308 28082 net.cpp:100] Creating Layer detection_loss_1_5x7
I0629 21:19:25.510311 28082 net.cpp:434] detection_loss_1_5x7 <- LFCN_1_5x7_LFCN_1_5x7_0_split_0
I0629 21:19:25.510316 28082 net.cpp:434] detection_loss_1_5x7 <- label_1_5x7_data_2_split_0
I0629 21:19:25.510324 28082 net.cpp:408] detection_loss_1_5x7 -> loss_1_5x7
I0629 21:19:25.510334 28082 layer_factory.hpp:77] Creating layer detection_loss_1_5x7
I0629 21:19:25.511232 28082 net.cpp:150] Setting up detection_loss_1_5x7
I0629 21:19:25.511243 28082 net.cpp:157] Top shape: 1 1 1 2 (2)
I0629 21:19:25.511245 28082 net.cpp:160]     with loss weight 0.9
I0629 21:19:25.511255 28082 net.cpp:165] Memory required for data: 4313257372
I0629 21:19:25.511258 28082 layer_factory.hpp:77] Creating layer detection_accuracy_1_5x7
I0629 21:19:25.511267 28082 net.cpp:100] Creating Layer detection_accuracy_1_5x7
I0629 21:19:25.511272 28082 net.cpp:434] detection_accuracy_1_5x7 <- LFCN_1_5x7_LFCN_1_5x7_0_split_1
I0629 21:19:25.511278 28082 net.cpp:434] detection_accuracy_1_5x7 <- label_1_5x7_data_2_split_1
I0629 21:19:25.511286 28082 net.cpp:408] detection_accuracy_1_5x7 -> accuracy_1_5x7
I0629 21:19:25.511293 28082 net.cpp:408] detection_accuracy_1_5x7 -> boxiou_1_5x7
I0629 21:19:25.511332 28082 net.cpp:150] Setting up detection_accuracy_1_5x7
I0629 21:19:25.511337 28082 net.cpp:157] Top shape: 1 1 1 2 (2)
I0629 21:19:25.511342 28082 net.cpp:157] Top shape: 1 1 1 1 (1)
I0629 21:19:25.511343 28082 net.cpp:165] Memory required for data: 4313257384
I0629 21:19:25.511348 28082 layer_factory.hpp:77] Creating layer pool4
I0629 21:19:25.511353 28082 net.cpp:100] Creating Layer pool4
I0629 21:19:25.511356 28082 net.cpp:434] pool4 <- conv4_3_relu4_3_0_split_1
I0629 21:19:25.511363 28082 net.cpp:408] pool4 -> pool4
I0629 21:19:25.511397 28082 net.cpp:150] Setting up pool4
I0629 21:19:25.511402 28082 net.cpp:157] Top shape: 4 512 36 48 (3538944)
I0629 21:19:25.511405 28082 net.cpp:165] Memory required for data: 4327413160
I0629 21:19:25.511409 28082 layer_factory.hpp:77] Creating layer conv5_1
I0629 21:19:25.511415 28082 net.cpp:100] Creating Layer conv5_1
I0629 21:19:25.511420 28082 net.cpp:434] conv5_1 <- pool4
I0629 21:19:25.511427 28082 net.cpp:408] conv5_1 -> conv5_1
I0629 21:19:25.517271 28082 net.cpp:150] Setting up conv5_1
I0629 21:19:25.517292 28082 net.cpp:157] Top shape: 4 512 36 48 (3538944)
I0629 21:19:25.517295 28082 net.cpp:165] Memory required for data: 4341568936
I0629 21:19:25.517303 28082 layer_factory.hpp:77] Creating layer relu5_1
I0629 21:19:25.517313 28082 net.cpp:100] Creating Layer relu5_1
I0629 21:19:25.517319 28082 net.cpp:434] relu5_1 <- conv5_1
I0629 21:19:25.517328 28082 net.cpp:395] relu5_1 -> conv5_1 (in-place)
I0629 21:19:25.518018 28082 net.cpp:150] Setting up relu5_1
I0629 21:19:25.518028 28082 net.cpp:157] Top shape: 4 512 36 48 (3538944)
I0629 21:19:25.518031 28082 net.cpp:165] Memory required for data: 4355724712
I0629 21:19:25.518034 28082 layer_factory.hpp:77] Creating layer conv5_2
I0629 21:19:25.518045 28082 net.cpp:100] Creating Layer conv5_2
I0629 21:19:25.518050 28082 net.cpp:434] conv5_2 <- conv5_1
I0629 21:19:25.518057 28082 net.cpp:408] conv5_2 -> conv5_2
I0629 21:19:25.523486 28082 net.cpp:150] Setting up conv5_2
I0629 21:19:25.523507 28082 net.cpp:157] Top shape: 4 512 36 48 (3538944)
I0629 21:19:25.523510 28082 net.cpp:165] Memory required for data: 4369880488
I0629 21:19:25.523519 28082 layer_factory.hpp:77] Creating layer relu5_2
I0629 21:19:25.523530 28082 net.cpp:100] Creating Layer relu5_2
I0629 21:19:25.523533 28082 net.cpp:434] relu5_2 <- conv5_2
I0629 21:19:25.523540 28082 net.cpp:395] relu5_2 -> conv5_2 (in-place)
I0629 21:19:25.523800 28082 net.cpp:150] Setting up relu5_2
I0629 21:19:25.523811 28082 net.cpp:157] Top shape: 4 512 36 48 (3538944)
I0629 21:19:25.523814 28082 net.cpp:165] Memory required for data: 4384036264
I0629 21:19:25.523818 28082 layer_factory.hpp:77] Creating layer conv5_3
I0629 21:19:25.523828 28082 net.cpp:100] Creating Layer conv5_3
I0629 21:19:25.523830 28082 net.cpp:434] conv5_3 <- conv5_2
I0629 21:19:25.523833 28082 net.cpp:408] conv5_3 -> conv5_3
I0629 21:19:25.529789 28082 net.cpp:150] Setting up conv5_3
I0629 21:19:25.529808 28082 net.cpp:157] Top shape: 4 512 36 48 (3538944)
I0629 21:19:25.529809 28082 net.cpp:165] Memory required for data: 4398192040
I0629 21:19:25.529816 28082 layer_factory.hpp:77] Creating layer relu5_3
I0629 21:19:25.529822 28082 net.cpp:100] Creating Layer relu5_3
I0629 21:19:25.529825 28082 net.cpp:434] relu5_3 <- conv5_3
I0629 21:19:25.529831 28082 net.cpp:395] relu5_3 -> conv5_3 (in-place)
I0629 21:19:25.530153 28082 net.cpp:150] Setting up relu5_3
I0629 21:19:25.530164 28082 net.cpp:157] Top shape: 4 512 36 48 (3538944)
I0629 21:19:25.530166 28082 net.cpp:165] Memory required for data: 4412347816
I0629 21:19:25.530170 28082 layer_factory.hpp:77] Creating layer conv5_3_relu5_3_0_split
I0629 21:19:25.530176 28082 net.cpp:100] Creating Layer conv5_3_relu5_3_0_split
I0629 21:19:25.530179 28082 net.cpp:434] conv5_3_relu5_3_0_split <- conv5_3
I0629 21:19:25.530182 28082 net.cpp:408] conv5_3_relu5_3_0_split -> conv5_3_relu5_3_0_split_0
I0629 21:19:25.530187 28082 net.cpp:408] conv5_3_relu5_3_0_split -> conv5_3_relu5_3_0_split_1
I0629 21:19:25.530192 28082 net.cpp:408] conv5_3_relu5_3_0_split -> conv5_3_relu5_3_0_split_2
I0629 21:19:25.530266 28082 net.cpp:150] Setting up conv5_3_relu5_3_0_split
I0629 21:19:25.530274 28082 net.cpp:157] Top shape: 4 512 36 48 (3538944)
I0629 21:19:25.530278 28082 net.cpp:157] Top shape: 4 512 36 48 (3538944)
I0629 21:19:25.530282 28082 net.cpp:157] Top shape: 4 512 36 48 (3538944)
I0629 21:19:25.530285 28082 net.cpp:165] Memory required for data: 4454815144
I0629 21:19:25.530288 28082 layer_factory.hpp:77] Creating layer LFCN_2_3x5
I0629 21:19:25.530298 28082 net.cpp:100] Creating Layer LFCN_2_3x5
I0629 21:19:25.530303 28082 net.cpp:434] LFCN_2_3x5 <- conv5_3_relu5_3_0_split_0
I0629 21:19:25.530310 28082 net.cpp:408] LFCN_2_3x5 -> LFCN_2_3x5
I0629 21:19:25.532366 28082 net.cpp:150] Setting up LFCN_2_3x5
I0629 21:19:25.532378 28082 net.cpp:157] Top shape: 4 7 36 48 (48384)
I0629 21:19:25.532380 28082 net.cpp:165] Memory required for data: 4455008680
I0629 21:19:25.532392 28082 layer_factory.hpp:77] Creating layer LFCN_2_3x5_LFCN_2_3x5_0_split
I0629 21:19:25.532397 28082 net.cpp:100] Creating Layer LFCN_2_3x5_LFCN_2_3x5_0_split
I0629 21:19:25.532402 28082 net.cpp:434] LFCN_2_3x5_LFCN_2_3x5_0_split <- LFCN_2_3x5
I0629 21:19:25.532408 28082 net.cpp:408] LFCN_2_3x5_LFCN_2_3x5_0_split -> LFCN_2_3x5_LFCN_2_3x5_0_split_0
I0629 21:19:25.532415 28082 net.cpp:408] LFCN_2_3x5_LFCN_2_3x5_0_split -> LFCN_2_3x5_LFCN_2_3x5_0_split_1
I0629 21:19:25.532464 28082 net.cpp:150] Setting up LFCN_2_3x5_LFCN_2_3x5_0_split
I0629 21:19:25.532470 28082 net.cpp:157] Top shape: 4 7 36 48 (48384)
I0629 21:19:25.532474 28082 net.cpp:157] Top shape: 4 7 36 48 (48384)
I0629 21:19:25.532477 28082 net.cpp:165] Memory required for data: 4455395752
I0629 21:19:25.532480 28082 layer_factory.hpp:77] Creating layer detection_loss_2_3x5
I0629 21:19:25.532490 28082 net.cpp:100] Creating Layer detection_loss_2_3x5
I0629 21:19:25.532493 28082 net.cpp:434] detection_loss_2_3x5 <- LFCN_2_3x5_LFCN_2_3x5_0_split_0
I0629 21:19:25.532497 28082 net.cpp:434] detection_loss_2_3x5 <- label_2_3x5_data_3_split_0
I0629 21:19:25.532505 28082 net.cpp:408] detection_loss_2_3x5 -> loss_2_3x5
I0629 21:19:25.532513 28082 layer_factory.hpp:77] Creating layer detection_loss_2_3x5
I0629 21:19:25.533596 28082 net.cpp:150] Setting up detection_loss_2_3x5
I0629 21:19:25.533607 28082 net.cpp:157] Top shape: 1 1 1 2 (2)
I0629 21:19:25.533609 28082 net.cpp:160]     with loss weight 1
I0629 21:19:25.533618 28082 net.cpp:165] Memory required for data: 4455395760
I0629 21:19:25.533622 28082 layer_factory.hpp:77] Creating layer detection_accuracy_2_3x5
I0629 21:19:25.533632 28082 net.cpp:100] Creating Layer detection_accuracy_2_3x5
I0629 21:19:25.533637 28082 net.cpp:434] detection_accuracy_2_3x5 <- LFCN_2_3x5_LFCN_2_3x5_0_split_1
I0629 21:19:25.533643 28082 net.cpp:434] detection_accuracy_2_3x5 <- label_2_3x5_data_3_split_1
I0629 21:19:25.533648 28082 net.cpp:408] detection_accuracy_2_3x5 -> accuracy_2_3x5
I0629 21:19:25.533655 28082 net.cpp:408] detection_accuracy_2_3x5 -> boxiou_2_3x5
I0629 21:19:25.533715 28082 net.cpp:150] Setting up detection_accuracy_2_3x5
I0629 21:19:25.533720 28082 net.cpp:157] Top shape: 1 1 1 2 (2)
I0629 21:19:25.533725 28082 net.cpp:157] Top shape: 1 1 1 1 (1)
I0629 21:19:25.533727 28082 net.cpp:165] Memory required for data: 4455395772
I0629 21:19:25.533730 28082 layer_factory.hpp:77] Creating layer LFCN_2_5x7
I0629 21:19:25.533740 28082 net.cpp:100] Creating Layer LFCN_2_5x7
I0629 21:19:25.533743 28082 net.cpp:434] LFCN_2_5x7 <- conv5_3_relu5_3_0_split_1
I0629 21:19:25.533749 28082 net.cpp:408] LFCN_2_5x7 -> LFCN_2_5x7
I0629 21:19:25.537150 28082 net.cpp:150] Setting up LFCN_2_5x7
I0629 21:19:25.537168 28082 net.cpp:157] Top shape: 4 7 36 48 (48384)
I0629 21:19:25.537170 28082 net.cpp:165] Memory required for data: 4455589308
I0629 21:19:25.537178 28082 layer_factory.hpp:77] Creating layer LFCN_2_5x7_LFCN_2_5x7_0_split
I0629 21:19:25.537190 28082 net.cpp:100] Creating Layer LFCN_2_5x7_LFCN_2_5x7_0_split
I0629 21:19:25.537195 28082 net.cpp:434] LFCN_2_5x7_LFCN_2_5x7_0_split <- LFCN_2_5x7
I0629 21:19:25.537201 28082 net.cpp:408] LFCN_2_5x7_LFCN_2_5x7_0_split -> LFCN_2_5x7_LFCN_2_5x7_0_split_0
I0629 21:19:25.537210 28082 net.cpp:408] LFCN_2_5x7_LFCN_2_5x7_0_split -> LFCN_2_5x7_LFCN_2_5x7_0_split_1
I0629 21:19:25.537273 28082 net.cpp:150] Setting up LFCN_2_5x7_LFCN_2_5x7_0_split
I0629 21:19:25.537281 28082 net.cpp:157] Top shape: 4 7 36 48 (48384)
I0629 21:19:25.537286 28082 net.cpp:157] Top shape: 4 7 36 48 (48384)
I0629 21:19:25.537288 28082 net.cpp:165] Memory required for data: 4455976380
I0629 21:19:25.537292 28082 layer_factory.hpp:77] Creating layer detection_loss_2_5x7
I0629 21:19:25.537299 28082 net.cpp:100] Creating Layer detection_loss_2_5x7
I0629 21:19:25.537302 28082 net.cpp:434] detection_loss_2_5x7 <- LFCN_2_5x7_LFCN_2_5x7_0_split_0
I0629 21:19:25.537307 28082 net.cpp:434] detection_loss_2_5x7 <- label_2_5x7_data_4_split_0
I0629 21:19:25.537315 28082 net.cpp:408] detection_loss_2_5x7 -> loss_2_5x7
I0629 21:19:25.537323 28082 layer_factory.hpp:77] Creating layer detection_loss_2_5x7
I0629 21:19:25.537894 28082 net.cpp:150] Setting up detection_loss_2_5x7
I0629 21:19:25.537904 28082 net.cpp:157] Top shape: 1 1 1 2 (2)
I0629 21:19:25.537906 28082 net.cpp:160]     with loss weight 1
I0629 21:19:25.537916 28082 net.cpp:165] Memory required for data: 4455976388
I0629 21:19:25.537920 28082 layer_factory.hpp:77] Creating layer detection_accuracy_2_5x7
I0629 21:19:25.537928 28082 net.cpp:100] Creating Layer detection_accuracy_2_5x7
I0629 21:19:25.537932 28082 net.cpp:434] detection_accuracy_2_5x7 <- LFCN_2_5x7_LFCN_2_5x7_0_split_1
I0629 21:19:25.537937 28082 net.cpp:434] detection_accuracy_2_5x7 <- label_2_5x7_data_4_split_1
I0629 21:19:25.537943 28082 net.cpp:408] detection_accuracy_2_5x7 -> accuracy_2_5x7
I0629 21:19:25.537952 28082 net.cpp:408] detection_accuracy_2_5x7 -> boxiou_2_5x7
I0629 21:19:25.538000 28082 net.cpp:150] Setting up detection_accuracy_2_5x7
I0629 21:19:25.538007 28082 net.cpp:157] Top shape: 1 1 1 2 (2)
I0629 21:19:25.538010 28082 net.cpp:157] Top shape: 1 1 1 1 (1)
I0629 21:19:25.538013 28082 net.cpp:165] Memory required for data: 4455976400
I0629 21:19:25.538017 28082 layer_factory.hpp:77] Creating layer pool5
I0629 21:19:25.538023 28082 net.cpp:100] Creating Layer pool5
I0629 21:19:25.538028 28082 net.cpp:434] pool5 <- conv5_3_relu5_3_0_split_2
I0629 21:19:25.538033 28082 net.cpp:408] pool5 -> pool5
I0629 21:19:25.538077 28082 net.cpp:150] Setting up pool5
I0629 21:19:25.538084 28082 net.cpp:157] Top shape: 4 512 18 24 (884736)
I0629 21:19:25.538087 28082 net.cpp:165] Memory required for data: 4459515344
I0629 21:19:25.538090 28082 layer_factory.hpp:77] Creating layer conv6_1
I0629 21:19:25.538100 28082 net.cpp:100] Creating Layer conv6_1
I0629 21:19:25.538105 28082 net.cpp:434] conv6_1 <- pool5
I0629 21:19:25.538111 28082 net.cpp:408] conv6_1 -> conv6_1
I0629 21:19:25.559036 28082 net.cpp:150] Setting up conv6_1
I0629 21:19:25.559053 28082 net.cpp:157] Top shape: 4 512 18 24 (884736)
I0629 21:19:25.559056 28082 net.cpp:165] Memory required for data: 4463054288
I0629 21:19:25.559062 28082 layer_factory.hpp:77] Creating layer relu6_1
I0629 21:19:25.559068 28082 net.cpp:100] Creating Layer relu6_1
I0629 21:19:25.559072 28082 net.cpp:434] relu6_1 <- conv6_1
I0629 21:19:25.559077 28082 net.cpp:395] relu6_1 -> conv6_1 (in-place)
I0629 21:19:25.559327 28082 net.cpp:150] Setting up relu6_1
I0629 21:19:25.559336 28082 net.cpp:157] Top shape: 4 512 18 24 (884736)
I0629 21:19:25.559340 28082 net.cpp:165] Memory required for data: 4466593232
I0629 21:19:25.559343 28082 layer_factory.hpp:77] Creating layer conv6_1_relu6_1_0_split
I0629 21:19:25.559350 28082 net.cpp:100] Creating Layer conv6_1_relu6_1_0_split
I0629 21:19:25.559355 28082 net.cpp:434] conv6_1_relu6_1_0_split <- conv6_1
I0629 21:19:25.559361 28082 net.cpp:408] conv6_1_relu6_1_0_split -> conv6_1_relu6_1_0_split_0
I0629 21:19:25.559370 28082 net.cpp:408] conv6_1_relu6_1_0_split -> conv6_1_relu6_1_0_split_1
I0629 21:19:25.559376 28082 net.cpp:408] conv6_1_relu6_1_0_split -> conv6_1_relu6_1_0_split_2
I0629 21:19:25.559433 28082 net.cpp:150] Setting up conv6_1_relu6_1_0_split
I0629 21:19:25.559439 28082 net.cpp:157] Top shape: 4 512 18 24 (884736)
I0629 21:19:25.559443 28082 net.cpp:157] Top shape: 4 512 18 24 (884736)
I0629 21:19:25.559448 28082 net.cpp:157] Top shape: 4 512 18 24 (884736)
I0629 21:19:25.559449 28082 net.cpp:165] Memory required for data: 4477210064
I0629 21:19:25.559453 28082 layer_factory.hpp:77] Creating layer LFCN_3_3x5
I0629 21:19:25.559464 28082 net.cpp:100] Creating Layer LFCN_3_3x5
I0629 21:19:25.559468 28082 net.cpp:434] LFCN_3_3x5 <- conv6_1_relu6_1_0_split_0
I0629 21:19:25.559473 28082 net.cpp:408] LFCN_3_3x5 -> LFCN_3_3x5
I0629 21:19:25.562211 28082 net.cpp:150] Setting up LFCN_3_3x5
I0629 21:19:25.562229 28082 net.cpp:157] Top shape: 4 7 18 24 (12096)
I0629 21:19:25.562232 28082 net.cpp:165] Memory required for data: 4477258448
I0629 21:19:25.562242 28082 layer_factory.hpp:77] Creating layer LFCN_3_3x5_LFCN_3_3x5_0_split
I0629 21:19:25.562261 28082 net.cpp:100] Creating Layer LFCN_3_3x5_LFCN_3_3x5_0_split
I0629 21:19:25.562266 28082 net.cpp:434] LFCN_3_3x5_LFCN_3_3x5_0_split <- LFCN_3_3x5
I0629 21:19:25.562273 28082 net.cpp:408] LFCN_3_3x5_LFCN_3_3x5_0_split -> LFCN_3_3x5_LFCN_3_3x5_0_split_0
I0629 21:19:25.562283 28082 net.cpp:408] LFCN_3_3x5_LFCN_3_3x5_0_split -> LFCN_3_3x5_LFCN_3_3x5_0_split_1
I0629 21:19:25.562327 28082 net.cpp:150] Setting up LFCN_3_3x5_LFCN_3_3x5_0_split
I0629 21:19:25.562332 28082 net.cpp:157] Top shape: 4 7 18 24 (12096)
I0629 21:19:25.562336 28082 net.cpp:157] Top shape: 4 7 18 24 (12096)
I0629 21:19:25.562340 28082 net.cpp:165] Memory required for data: 4477355216
I0629 21:19:25.562342 28082 layer_factory.hpp:77] Creating layer detection_loss_3_3x5
I0629 21:19:25.562350 28082 net.cpp:100] Creating Layer detection_loss_3_3x5
I0629 21:19:25.562355 28082 net.cpp:434] detection_loss_3_3x5 <- LFCN_3_3x5_LFCN_3_3x5_0_split_0
I0629 21:19:25.562360 28082 net.cpp:434] detection_loss_3_3x5 <- label_3_3x5_data_5_split_0
I0629 21:19:25.562366 28082 net.cpp:408] detection_loss_3_3x5 -> loss_3_3x5
I0629 21:19:25.562373 28082 layer_factory.hpp:77] Creating layer detection_loss_3_3x5
I0629 21:19:25.563288 28082 net.cpp:150] Setting up detection_loss_3_3x5
I0629 21:19:25.563298 28082 net.cpp:157] Top shape: 1 1 1 2 (2)
I0629 21:19:25.563302 28082 net.cpp:160]     with loss weight 1
I0629 21:19:25.563310 28082 net.cpp:165] Memory required for data: 4477355224
I0629 21:19:25.563314 28082 layer_factory.hpp:77] Creating layer detection_accuracy_3_3x5
I0629 21:19:25.563323 28082 net.cpp:100] Creating Layer detection_accuracy_3_3x5
I0629 21:19:25.563328 28082 net.cpp:434] detection_accuracy_3_3x5 <- LFCN_3_3x5_LFCN_3_3x5_0_split_1
I0629 21:19:25.563333 28082 net.cpp:434] detection_accuracy_3_3x5 <- label_3_3x5_data_5_split_1
I0629 21:19:25.563340 28082 net.cpp:408] detection_accuracy_3_3x5 -> accuracy_3_3x5
I0629 21:19:25.563349 28082 net.cpp:408] detection_accuracy_3_3x5 -> boxiou_3_3x5
I0629 21:19:25.563392 28082 net.cpp:150] Setting up detection_accuracy_3_3x5
I0629 21:19:25.563397 28082 net.cpp:157] Top shape: 1 1 1 2 (2)
I0629 21:19:25.563400 28082 net.cpp:157] Top shape: 1 1 1 1 (1)
I0629 21:19:25.563402 28082 net.cpp:165] Memory required for data: 4477355236
I0629 21:19:25.563405 28082 layer_factory.hpp:77] Creating layer LFCN_3_5x7
I0629 21:19:25.563417 28082 net.cpp:100] Creating Layer LFCN_3_5x7
I0629 21:19:25.563421 28082 net.cpp:434] LFCN_3_5x7 <- conv6_1_relu6_1_0_split_1
I0629 21:19:25.563427 28082 net.cpp:408] LFCN_3_5x7 -> LFCN_3_5x7
I0629 21:19:25.565798 28082 net.cpp:150] Setting up LFCN_3_5x7
I0629 21:19:25.565814 28082 net.cpp:157] Top shape: 4 7 18 24 (12096)
I0629 21:19:25.565816 28082 net.cpp:165] Memory required for data: 4477403620
I0629 21:19:25.565824 28082 layer_factory.hpp:77] Creating layer LFCN_3_5x7_LFCN_3_5x7_0_split
I0629 21:19:25.565832 28082 net.cpp:100] Creating Layer LFCN_3_5x7_LFCN_3_5x7_0_split
I0629 21:19:25.565837 28082 net.cpp:434] LFCN_3_5x7_LFCN_3_5x7_0_split <- LFCN_3_5x7
I0629 21:19:25.565845 28082 net.cpp:408] LFCN_3_5x7_LFCN_3_5x7_0_split -> LFCN_3_5x7_LFCN_3_5x7_0_split_0
I0629 21:19:25.565852 28082 net.cpp:408] LFCN_3_5x7_LFCN_3_5x7_0_split -> LFCN_3_5x7_LFCN_3_5x7_0_split_1
I0629 21:19:25.565893 28082 net.cpp:150] Setting up LFCN_3_5x7_LFCN_3_5x7_0_split
I0629 21:19:25.565899 28082 net.cpp:157] Top shape: 4 7 18 24 (12096)
I0629 21:19:25.565902 28082 net.cpp:157] Top shape: 4 7 18 24 (12096)
I0629 21:19:25.565906 28082 net.cpp:165] Memory required for data: 4477500388
I0629 21:19:25.565908 28082 layer_factory.hpp:77] Creating layer detection_loss_3_5x7
I0629 21:19:25.565917 28082 net.cpp:100] Creating Layer detection_loss_3_5x7
I0629 21:19:25.565920 28082 net.cpp:434] detection_loss_3_5x7 <- LFCN_3_5x7_LFCN_3_5x7_0_split_0
I0629 21:19:25.565924 28082 net.cpp:434] detection_loss_3_5x7 <- label_3_5x7_data_6_split_0
I0629 21:19:25.565932 28082 net.cpp:408] detection_loss_3_5x7 -> loss_3_5x7
I0629 21:19:25.565940 28082 layer_factory.hpp:77] Creating layer detection_loss_3_5x7
I0629 21:19:25.566373 28082 net.cpp:150] Setting up detection_loss_3_5x7
I0629 21:19:25.566383 28082 net.cpp:157] Top shape: 1 1 1 2 (2)
I0629 21:19:25.566386 28082 net.cpp:160]     with loss weight 1
I0629 21:19:25.566395 28082 net.cpp:165] Memory required for data: 4477500396
I0629 21:19:25.566399 28082 layer_factory.hpp:77] Creating layer detection_accuracy_3_5x7
I0629 21:19:25.566407 28082 net.cpp:100] Creating Layer detection_accuracy_3_5x7
I0629 21:19:25.566412 28082 net.cpp:434] detection_accuracy_3_5x7 <- LFCN_3_5x7_LFCN_3_5x7_0_split_1
I0629 21:19:25.566417 28082 net.cpp:434] detection_accuracy_3_5x7 <- label_3_5x7_data_6_split_1
I0629 21:19:25.566423 28082 net.cpp:408] detection_accuracy_3_5x7 -> accuracy_3_5x7
I0629 21:19:25.566433 28082 net.cpp:408] detection_accuracy_3_5x7 -> boxiou_3_5x7
I0629 21:19:25.566485 28082 net.cpp:150] Setting up detection_accuracy_3_5x7
I0629 21:19:25.566491 28082 net.cpp:157] Top shape: 1 1 1 2 (2)
I0629 21:19:25.566494 28082 net.cpp:157] Top shape: 1 1 1 1 (1)
I0629 21:19:25.566496 28082 net.cpp:165] Memory required for data: 4477500408
I0629 21:19:25.566499 28082 layer_factory.hpp:77] Creating layer pool6
I0629 21:19:25.566507 28082 net.cpp:100] Creating Layer pool6
I0629 21:19:25.566512 28082 net.cpp:434] pool6 <- conv6_1_relu6_1_0_split_2
I0629 21:19:25.566517 28082 net.cpp:408] pool6 -> pool6
I0629 21:19:25.566552 28082 net.cpp:150] Setting up pool6
I0629 21:19:25.566557 28082 net.cpp:157] Top shape: 4 512 9 12 (221184)
I0629 21:19:25.566560 28082 net.cpp:165] Memory required for data: 4478385144
I0629 21:19:25.566562 28082 layer_factory.hpp:77] Creating layer LFCN_4_3x5
I0629 21:19:25.566571 28082 net.cpp:100] Creating Layer LFCN_4_3x5
I0629 21:19:25.566574 28082 net.cpp:434] LFCN_4_3x5 <- pool6
I0629 21:19:25.566581 28082 net.cpp:408] LFCN_4_3x5 -> LFCN_4_3x5
I0629 21:19:25.568842 28082 net.cpp:150] Setting up LFCN_4_3x5
I0629 21:19:25.568856 28082 net.cpp:157] Top shape: 4 7 9 12 (3024)
I0629 21:19:25.568859 28082 net.cpp:165] Memory required for data: 4478397240
I0629 21:19:25.568866 28082 layer_factory.hpp:77] Creating layer LFCN_4_3x5_LFCN_4_3x5_0_split
I0629 21:19:25.568871 28082 net.cpp:100] Creating Layer LFCN_4_3x5_LFCN_4_3x5_0_split
I0629 21:19:25.568873 28082 net.cpp:434] LFCN_4_3x5_LFCN_4_3x5_0_split <- LFCN_4_3x5
I0629 21:19:25.568877 28082 net.cpp:408] LFCN_4_3x5_LFCN_4_3x5_0_split -> LFCN_4_3x5_LFCN_4_3x5_0_split_0
I0629 21:19:25.568884 28082 net.cpp:408] LFCN_4_3x5_LFCN_4_3x5_0_split -> LFCN_4_3x5_LFCN_4_3x5_0_split_1
I0629 21:19:25.568928 28082 net.cpp:150] Setting up LFCN_4_3x5_LFCN_4_3x5_0_split
I0629 21:19:25.568933 28082 net.cpp:157] Top shape: 4 7 9 12 (3024)
I0629 21:19:25.568934 28082 net.cpp:157] Top shape: 4 7 9 12 (3024)
I0629 21:19:25.568936 28082 net.cpp:165] Memory required for data: 4478421432
I0629 21:19:25.568939 28082 layer_factory.hpp:77] Creating layer detection_loss_4_3x5
I0629 21:19:25.568945 28082 net.cpp:100] Creating Layer detection_loss_4_3x5
I0629 21:19:25.568949 28082 net.cpp:434] detection_loss_4_3x5 <- LFCN_4_3x5_LFCN_4_3x5_0_split_0
I0629 21:19:25.568953 28082 net.cpp:434] detection_loss_4_3x5 <- label_4_3x5_data_7_split_0
I0629 21:19:25.568960 28082 net.cpp:408] detection_loss_4_3x5 -> loss_4_3x5
I0629 21:19:25.568967 28082 layer_factory.hpp:77] Creating layer detection_loss_4_3x5
I0629 21:19:25.569380 28082 net.cpp:150] Setting up detection_loss_4_3x5
I0629 21:19:25.569387 28082 net.cpp:157] Top shape: 1 1 1 2 (2)
I0629 21:19:25.569389 28082 net.cpp:160]     with loss weight 1
I0629 21:19:25.569396 28082 net.cpp:165] Memory required for data: 4478421440
I0629 21:19:25.569399 28082 layer_factory.hpp:77] Creating layer detection_accuracy_4_3x5
I0629 21:19:25.569406 28082 net.cpp:100] Creating Layer detection_accuracy_4_3x5
I0629 21:19:25.569411 28082 net.cpp:434] detection_accuracy_4_3x5 <- LFCN_4_3x5_LFCN_4_3x5_0_split_1
I0629 21:19:25.569414 28082 net.cpp:434] detection_accuracy_4_3x5 <- label_4_3x5_data_7_split_1
I0629 21:19:25.569422 28082 net.cpp:408] detection_accuracy_4_3x5 -> accuracy_4_3x5
I0629 21:19:25.569428 28082 net.cpp:408] detection_accuracy_4_3x5 -> boxiou_4_3x5
I0629 21:19:25.569464 28082 net.cpp:150] Setting up detection_accuracy_4_3x5
I0629 21:19:25.569471 28082 net.cpp:157] Top shape: 1 1 1 2 (2)
I0629 21:19:25.569475 28082 net.cpp:157] Top shape: 1 1 1 1 (1)
I0629 21:19:25.569478 28082 net.cpp:165] Memory required for data: 4478421452
I0629 21:19:25.569481 28082 net.cpp:228] detection_accuracy_4_3x5 does not need backward computation.
I0629 21:19:25.569485 28082 net.cpp:226] detection_loss_4_3x5 needs backward computation.
I0629 21:19:25.569489 28082 net.cpp:226] LFCN_4_3x5_LFCN_4_3x5_0_split needs backward computation.
I0629 21:19:25.569492 28082 net.cpp:226] LFCN_4_3x5 needs backward computation.
…
I0629 21:19:25.611407 28082 image_gt_data_layer.cpp:241] output label size 2 : 2,6,36,48
I0629 21:19:25.611655 28082 image_gt_data_layer.cpp:241] output label size 3 : 2,6,36,48
I0629 21:19:25.611894 28082 image_gt_data_layer.cpp:241] output label size 4 : 2,6,18,24
I0629 21:19:25.612143 28082 image_gt_data_layer.cpp:241] output label size 5 : 2,6,18,24
I0629 21:19:25.612473 28082 image_gt_data_layer.cpp:241] output label size 6 : 2,6,9,12
I0629 21:19:25.612499 28082 image_gt_data_layer.cpp:265]  --> has_mean_values_ = 1
I0629 21:19:25.643744 28082 net.cpp:150] Setting up data
I0629 21:19:25.643766 28082 net.cpp:157] Top shape: 2 4 576 768 (3538944)
I0629 21:19:25.643771 28082 net.cpp:157] Top shape: 2 6 72 96 (82944)
I0629 21:19:25.643775 28082 net.cpp:157] Top shape: 2 6 72 96 (82944)
I0629 21:19:25.643780 28082 net.cpp:157] Top shape: 2 6 36 48 (20736)
I0629 21:19:25.643785 28082 net.cpp:157] Top shape: 2 6 36 48 (20736)
I0629 21:19:25.643790 28082 net.cpp:157] Top shape: 2 6 18 24 (5184)
I0629 21:19:25.643795 28082 net.cpp:157] Top shape: 2 6 18 24 (5184)
I0629 21:19:25.643798 28082 net.cpp:157] Top shape: 2 6 9 12 (1296)
I0629 21:19:25.643801 28082 net.cpp:165] Memory required for data: 15031872
I0629 21:19:25.643807 28082 layer_factory.hpp:77] Creating layer label_1_3x5_data_1_split
I0629 21:19:25.643826 28082 net.cpp:100] Creating Layer label_1_3x5_data_1_split
I0629 21:19:25.643831 28082 net.cpp:434] label_1_3x5_data_1_split <- label_1_3x5
I0629 21:19:25.643841 28082 net.cpp:408] label_1_3x5_data_1_split -> label_1_3x5_data_1_split_0
I0629 21:19:25.643853 28082 net.cpp:408] label_1_3x5_data_1_split -> label_1_3x5_data_1_split_1
I0629 21:19:25.643978 28082 net.cpp:150] Setting up label_1_3x5_data_1_split
I0629 21:19:25.643990 28082 net.cpp:157] Top shape: 2 6 72 96 (82944)
I0629 21:19:25.643996 28082 net.cpp:157] Top shape: 2 6 72 96 (82944)
I0629 21:19:25.643998 28082 net.cpp:165] Memory required for data: 15695424
I0629 21:19:25.644002 28082 layer_factory.hpp:77] Creating layer label_1_5x7_data_2_split
I0629 21:19:25.644011 28082 net.cpp:100] Creating Layer label_1_5x7_data_2_split
I0629 21:19:25.644013 28082 net.cpp:434] label_1_5x7_data_2_split <- label_1_5x7
I0629 21:19:25.644021 28082 net.cpp:408] label_1_5x7_data_2_split -> label_1_5x7_data_2_split_0
I0629 21:19:25.644033 28082 net.cpp:408] label_1_5x7_data_2_split -> label_1_5x7_data_2_split_1
I0629 21:19:25.644076 28082 net.cpp:150] Setting up label_1_5x7_data_2_split
I0629 21:19:25.644083 28082 net.cpp:157] Top shape: 2 6 72 96 (82944)
I0629 21:19:25.644088 28082 net.cpp:157] Top shape: 2 6 72 96 (82944)
I0629 21:19:25.644090 28082 net.cpp:165] Memory required for data: 16358976
I0629 21:19:25.644093 28082 layer_factory.hpp:77] Creating layer label_2_3x5_data_3_split
I0629 21:19:25.644099 28082 net.cpp:100] Creating Layer label_2_3x5_data_3_split
I0629 21:19:25.644104 28082 net.cpp:434] label_2_3x5_data_3_split <- label_2_3x5
I0629 21:19:25.644109 28082 net.cpp:408] label_2_3x5_data_3_split -> label_2_3x5_data_3_split_0
I0629 21:19:25.644115 28082 net.cpp:408] label_2_3x5_data_3_split -> label_2_3x5_data_3_split_1
I0629 21:19:25.644157 28082 net.cpp:150] Setting up label_2_3x5_data_3_split
I0629 21:19:25.644163 28082 net.cpp:157] Top shape: 2 6 36 48 (20736)
I0629 21:19:25.644167 28082 net.cpp:157] Top shape: 2 6 36 48 (20736)
I0629 21:19:25.644171 28082 net.cpp:165] Memory required for data: 16524864
I0629 21:19:25.644174 28082 layer_factory.hpp:77] Creating layer label_2_5x7_data_4_split
I0629 21:19:25.644181 28082 net.cpp:100] Creating Layer label_2_5x7_data_4_split
I0629 21:19:25.644186 28082 net.cpp:434] label_2_5x7_data_4_split <- label_2_5x7
I0629 21:19:25.644192 28082 net.cpp:408] label_2_5x7_data_4_split -> label_2_5x7_data_4_split_0
I0629 21:19:25.644199 28082 net.cpp:408] label_2_5x7_data_4_split -> label_2_5x7_data_4_split_1
I0629 21:19:25.644239 28082 net.cpp:150] Setting up label_2_5x7_data_4_split
I0629 21:19:25.644244 28082 net.cpp:157] Top shape: 2 6 36 48 (20736)
I0629 21:19:25.644249 28082 net.cpp:157] Top shape: 2 6 36 48 (20736)
I0629 21:19:25.644253 28082 net.cpp:165] Memory required for data: 16690752
I0629 21:19:25.644255 28082 layer_factory.hpp:77] Creating layer label_3_3x5_data_5_split
I0629 21:19:25.644260 28082 net.cpp:100] Creating Layer label_3_3x5_data_5_split
I0629 21:19:25.644264 28082 net.cpp:434] label_3_3x5_data_5_split <- label_3_3x5
I0629 21:19:25.644269 28082 net.cpp:408] label_3_3x5_data_5_split -> label_3_3x5_data_5_split_0
I0629 21:19:25.644280 28082 net.cpp:408] label_3_3x5_data_5_split -> label_3_3x5_data_5_split_1
I0629 21:19:25.644381 28082 net.cpp:150] Setting up label_3_3x5_data_5_split
I0629 21:19:25.644394 28082 net.cpp:157] Top shape: 2 6 18 24 (5184)
I0629 21:19:25.644400 28082 net.cpp:157] Top shape: 2 6 18 24 (5184)
I0629 21:19:25.644407 28082 net.cpp:165] Memory required for data: 16732224
I0629 21:19:25.644414 28082 layer_factory.hpp:77] Creating layer label_3_5x7_data_6_split
I0629 21:19:25.644426 28082 net.cpp:100] Creating Layer label_3_5x7_data_6_split
I0629 21:19:25.644431 28082 net.cpp:434] label_3_5x7_data_6_split <- label_3_5x7
I0629 21:19:25.644443 28082 net.cpp:408] label_3_5x7_data_6_split -> label_3_5x7_data_6_split_0
I0629 21:19:25.644453 28082 net.cpp:408] label_3_5x7_data_6_split -> label_3_5x7_data_6_split_1
I0629 21:19:25.645576 28082 net.cpp:150] Setting up label_3_5x7_data_6_split
I0629 21:19:25.645593 28082 net.cpp:157] Top shape: 2 6 18 24 (5184)
I0629 21:19:25.645598 28082 net.cpp:157] Top shape: 2 6 18 24 (5184)
I0629 21:19:25.645601 28082 net.cpp:165] Memory required for data: 16773696
I0629 21:19:25.645607 28082 layer_factory.hpp:77] Creating layer label_4_3x5_data_7_split
I0629 21:19:25.645618 28082 net.cpp:100] Creating Layer label_4_3x5_data_7_split
I0629 21:19:25.645624 28082 net.cpp:434] label_4_3x5_data_7_split <- label_4_3x5
I0629 21:19:25.645640 28082 net.cpp:408] label_4_3x5_data_7_split -> label_4_3x5_data_7_split_0
I0629 21:19:25.645655 28082 net.cpp:408] label_4_3x5_data_7_split -> label_4_3x5_data_7_split_1
I0629 21:19:25.645779 28082 net.cpp:150] Setting up label_4_3x5_data_7_split
I0629 21:19:25.645798 28082 net.cpp:157] Top shape: 2 6 9 12 (1296)
I0629 21:19:25.645803 28082 net.cpp:157] Top shape: 2 6 9 12 (1296)
I0629 21:19:25.645807 28082 net.cpp:165] Memory required for data: 16784064
I0629 21:19:25.645812 28082 layer_factory.hpp:77] Creating layer conv1_1
I0629 21:19:25.645839 28082 net.cpp:100] Creating Layer conv1_1
I0629 21:19:25.645846 28082 net.cpp:434] conv1_1 <- data
I0629 21:19:25.645858 28082 net.cpp:408] conv1_1 -> conv1_1
I0629 21:19:25.650032 28082 net.cpp:150] Setting up conv1_1
I0629 21:19:25.650053 28082 net.cpp:157] Top shape: 2 64 576 768 (56623104)
I0629 21:19:25.650056 28082 net.cpp:165] Memory required for data: 243276480
I0629 21:19:25.650074 28082 layer_factory.hpp:77] Creating layer relu1_1
I0629 21:19:25.650084 28082 net.cpp:100] Creating Layer relu1_1
I0629 21:19:25.650089 28082 net.cpp:434] relu1_1 <- conv1_1
I0629 21:19:25.650095 28082 net.cpp:395] relu1_1 -> conv1_1 (in-place)
I0629 21:19:25.650904 28082 net.cpp:150] Setting up relu1_1
I0629 21:19:25.650918 28082 net.cpp:157] Top shape: 2 64 576 768 (56623104)
I0629 21:19:25.650920 28082 net.cpp:165] Memory required for data: 469768896
I0629 21:19:25.650924 28082 layer_factory.hpp:77] Creating layer conv1_2
I0629 21:19:25.650938 28082 net.cpp:100] Creating Layer conv1_2
I0629 21:19:25.650943 28082 net.cpp:434] conv1_2 <- conv1_1
I0629 21:19:25.650949 28082 net.cpp:408] conv1_2 -> conv1_2
I0629 21:19:25.653590 28082 net.cpp:150] Setting up conv1_2
I0629 21:19:25.653614 28082 net.cpp:157] Top shape: 2 64 576 768 (56623104)
I0629 21:19:25.653616 28082 net.cpp:165] Memory required for data: 696261312
I0629 21:19:25.653635 28082 layer_factory.hpp:77] Creating layer relu1_2
I0629 21:19:25.653645 28082 net.cpp:100] Creating Layer relu1_2
I0629 21:19:25.653650 28082 net.cpp:434] relu1_2 <- conv1_2
I0629 21:19:25.653659 28082 net.cpp:395] relu1_2 -> conv1_2 (in-place)
I0629 21:19:25.654541 28082 net.cpp:150] Setting up relu1_2
I0629 21:19:25.654554 28082 net.cpp:157] Top shape: 2 64 576 768 (56623104)
I0629 21:19:25.654557 28082 net.cpp:165] Memory required for data: 922753728
I0629 21:19:25.654561 28082 layer_factory.hpp:77] Creating layer pool1
I0629 21:19:25.654569 28082 net.cpp:100] Creating Layer pool1
I0629 21:19:25.654575 28082 net.cpp:434] pool1 <- conv1_2
I0629 21:19:25.654582 28082 net.cpp:408] pool1 -> pool1
I0629 21:19:25.654641 28082 net.cpp:150] Setting up pool1
I0629 21:19:25.654646 28082 net.cpp:157] Top shape: 2 64 288 384 (14155776)
I0629 21:19:25.654649 28082 net.cpp:165] Memory required for data: 979376832
I0629 21:19:25.654652 28082 layer_factory.hpp:77] Creating layer conv2_1
I0629 21:19:25.654660 28082 net.cpp:100] Creating Layer conv2_1
I0629 21:19:25.654664 28082 net.cpp:434] conv2_1 <- pool1
I0629 21:19:25.654670 28082 net.cpp:408] conv2_1 -> conv2_1
I0629 21:19:25.656672 28082 net.cpp:150] Setting up conv2_1
I0629 21:19:25.656689 28082 net.cpp:157] Top shape: 2 128 288 384 (28311552)
I0629 21:19:25.656692 28082 net.cpp:165] Memory required for data: 1092623040
I0629 21:19:25.656707 28082 layer_factory.hpp:77] Creating layer relu2_1
I0629 21:19:25.656715 28082 net.cpp:100] Creating Layer relu2_1
I0629 21:19:25.656720 28082 net.cpp:434] relu2_1 <- conv2_1
I0629 21:19:25.656728 28082 net.cpp:395] relu2_1 -> conv2_1 (in-place)
I0629 21:19:25.657058 28082 net.cpp:150] Setting up relu2_1
I0629 21:19:25.657068 28082 net.cpp:157] Top shape: 2 128 288 384 (28311552)
I0629 21:19:25.657070 28082 net.cpp:165] Memory required for data: 1205869248
I0629 21:19:25.657073 28082 layer_factory.hpp:77] Creating layer conv2_2
I0629 21:19:25.657083 28082 net.cpp:100] Creating Layer conv2_2
I0629 21:19:25.657088 28082 net.cpp:434] conv2_2 <- conv2_1
I0629 21:19:25.657093 28082 net.cpp:408] conv2_2 -> conv2_2
I0629 21:19:25.660415 28082 net.cpp:150] Setting up conv2_2
I0629 21:19:25.660437 28082 net.cpp:157] Top shape: 2 128 288 384 (28311552)
I0629 21:19:25.660440 28082 net.cpp:165] Memory required for data: 1319115456
I0629 21:19:25.660452 28082 layer_factory.hpp:77] Creating layer relu2_2
I0629 21:19:25.660470 28082 net.cpp:100] Creating Layer relu2_2
I0629 21:19:25.660475 28082 net.cpp:434] relu2_2 <- conv2_2
I0629 21:19:25.660482 28082 net.cpp:395] relu2_2 -> conv2_2 (in-place)
I0629 21:19:25.660861 28082 net.cpp:150] Setting up relu2_2
I0629 21:19:25.660872 28082 net.cpp:157] Top shape: 2 128 288 384 (28311552)
I0629 21:19:25.660876 28082 net.cpp:165] Memory required for data: 1432361664
I0629 21:19:25.660879 28082 layer_factory.hpp:77] Creating layer pool2
I0629 21:19:25.660887 28082 net.cpp:100] Creating Layer pool2
I0629 21:19:25.660892 28082 net.cpp:434] pool2 <- conv2_2
I0629 21:19:25.660898 28082 net.cpp:408] pool2 -> pool2
I0629 21:19:25.660966 28082 net.cpp:150] Setting up pool2
I0629 21:19:25.660974 28082 net.cpp:157] Top shape: 2 128 144 192 (7077888)
I0629 21:19:25.660977 28082 net.cpp:165] Memory required for data: 1460673216
I0629 21:19:25.660980 28082 layer_factory.hpp:77] Creating layer conv3_1
I0629 21:19:25.660989 28082 net.cpp:100] Creating Layer conv3_1
I0629 21:19:25.660993 28082 net.cpp:434] conv3_1 <- pool2
I0629 21:19:25.660998 28082 net.cpp:408] conv3_1 -> conv3_1
I0629 21:19:25.664546 28082 net.cpp:150] Setting up conv3_1
I0629 21:19:25.664613 28082 net.cpp:157] Top shape: 2 256 144 192 (14155776)
I0629 21:19:25.664633 28082 net.cpp:165] Memory required for data: 1517296320
I0629 21:19:25.664662 28082 layer_factory.hpp:77] Creating layer relu3_1
I0629 21:19:25.664685 28082 net.cpp:100] Creating Layer relu3_1
I0629 21:19:25.664702 28082 net.cpp:434] relu3_1 <- conv3_1
I0629 21:19:25.664721 28082 net.cpp:395] relu3_1 -> conv3_1 (in-place)
I0629 21:19:25.665791 28082 net.cpp:150] Setting up relu3_1
I0629 21:19:25.665813 28082 net.cpp:157] Top shape: 2 256 144 192 (14155776)
I0629 21:19:25.665815 28082 net.cpp:165] Memory required for data: 1573919424
I0629 21:19:25.665822 28082 layer_factory.hpp:77] Creating layer conv3_2
I0629 21:19:25.665843 28082 net.cpp:100] Creating Layer conv3_2
I0629 21:19:25.665848 28082 net.cpp:434] conv3_2 <- conv3_1
I0629 21:19:25.665856 28082 net.cpp:408] conv3_2 -> conv3_2
I0629 21:19:25.669528 28082 net.cpp:150] Setting up conv3_2
I0629 21:19:25.669548 28082 net.cpp:157] Top shape: 2 256 144 192 (14155776)
I0629 21:19:25.669551 28082 net.cpp:165] Memory required for data: 1630542528
I0629 21:19:25.669564 28082 layer_factory.hpp:77] Creating layer relu3_2
I0629 21:19:25.669574 28082 net.cpp:100] Creating Layer relu3_2
I0629 21:19:25.669579 28082 net.cpp:434] relu3_2 <- conv3_2
I0629 21:19:25.669587 28082 net.cpp:395] relu3_2 -> conv3_2 (in-place)
I0629 21:19:25.669926 28082 net.cpp:150] Setting up relu3_2
I0629 21:19:25.669937 28082 net.cpp:157] Top shape: 2 256 144 192 (14155776)
I0629 21:19:25.669941 28082 net.cpp:165] Memory required for data: 1687165632
I0629 21:19:25.669945 28082 layer_factory.hpp:77] Creating layer conv3_3
I0629 21:19:25.669955 28082 net.cpp:100] Creating Layer conv3_3
I0629 21:19:25.669958 28082 net.cpp:434] conv3_3 <- conv3_2
I0629 21:19:25.669965 28082 net.cpp:408] conv3_3 -> conv3_3
I0629 21:19:25.673735 28082 net.cpp:150] Setting up conv3_3
I0629 21:19:25.673753 28082 net.cpp:157] Top shape: 2 256 144 192 (14155776)
I0629 21:19:25.673756 28082 net.cpp:165] Memory required for data: 1743788736
I0629 21:19:25.673765 28082 layer_factory.hpp:77] Creating layer relu3_3
I0629 21:19:25.673776 28082 net.cpp:100] Creating Layer relu3_3
I0629 21:19:25.673780 28082 net.cpp:434] relu3_3 <- conv3_3
I0629 21:19:25.673789 28082 net.cpp:395] relu3_3 -> conv3_3 (in-place)
I0629 21:19:25.674109 28082 net.cpp:150] Setting up relu3_3
I0629 21:19:25.674121 28082 net.cpp:157] Top shape: 2 256 144 192 (14155776)
I0629 21:19:25.674124 28082 net.cpp:165] Memory required for data: 1800411840
I0629 21:19:25.674129 28082 layer_factory.hpp:77] Creating layer pool3
I0629 21:19:25.674135 28082 net.cpp:100] Creating Layer pool3
I0629 21:19:25.674140 28082 net.cpp:434] pool3 <- conv3_3
I0629 21:19:25.674146 28082 net.cpp:408] pool3 -> pool3
I0629 21:19:25.674213 28082 net.cpp:150] Setting up pool3
I0629 21:19:25.674221 28082 net.cpp:157] Top shape: 2 256 72 96 (3538944)
I0629 21:19:25.674224 28082 net.cpp:165] Memory required for data: 1814567616
I0629 21:19:25.674227 28082 layer_factory.hpp:77] Creating layer conv4_1
I0629 21:19:25.674237 28082 net.cpp:100] Creating Layer conv4_1
I0629 21:19:25.674239 28082 net.cpp:434] conv4_1 <- pool3
I0629 21:19:25.674244 28082 net.cpp:408] conv4_1 -> conv4_1
I0629 21:19:25.678714 28082 net.cpp:150] Setting up conv4_1
I0629 21:19:25.678735 28082 net.cpp:157] Top shape: 2 512 72 96 (7077888)
I0629 21:19:25.678738 28082 net.cpp:165] Memory required for data: 1842879168
I0629 21:19:25.678746 28082 layer_factory.hpp:77] Creating layer relu4_1
I0629 21:19:25.678757 28082 net.cpp:100] Creating Layer relu4_1
I0629 21:19:25.678761 28082 net.cpp:434] relu4_1 <- conv4_1
I0629 21:19:25.678768 28082 net.cpp:395] relu4_1 -> conv4_1 (in-place)
I0629 21:19:25.679599 28082 net.cpp:150] Setting up relu4_1
I0629 21:19:25.679610 28082 net.cpp:157] Top shape: 2 512 72 96 (7077888)
I0629 21:19:25.679611 28082 net.cpp:165] Memory required for data: 1871190720
I0629 21:19:25.679615 28082 layer_factory.hpp:77] Creating layer conv4_2
I0629 21:19:25.679623 28082 net.cpp:100] Creating Layer conv4_2
I0629 21:19:25.679627 28082 net.cpp:434] conv4_2 <- conv4_1
I0629 21:19:25.679635 28082 net.cpp:408] conv4_2 -> conv4_2
I0629 21:19:25.686475 28082 net.cpp:150] Setting up conv4_2
I0629 21:19:25.686511 28082 net.cpp:157] Top shape: 2 512 72 96 (7077888)
I0629 21:19:25.686512 28082 net.cpp:165] Memory required for data: 1899502272
I0629 21:19:25.686537 28082 layer_factory.hpp:77] Creating layer relu4_2
I0629 21:19:25.686552 28082 net.cpp:100] Creating Layer relu4_2
I0629 21:19:25.686558 28082 net.cpp:434] relu4_2 <- conv4_2
I0629 21:19:25.686565 28082 net.cpp:395] relu4_2 -> conv4_2 (in-place)
I0629 21:19:25.686888 28082 net.cpp:150] Setting up relu4_2
I0629 21:19:25.686902 28082 net.cpp:157] Top shape: 2 512 72 96 (7077888)
I0629 21:19:25.686905 28082 net.cpp:165] Memory required for data: 1927813824
I0629 21:19:25.686909 28082 layer_factory.hpp:77] Creating layer conv4_3
I0629 21:19:25.686920 28082 net.cpp:100] Creating Layer conv4_3
I0629 21:19:25.686925 28082 net.cpp:434] conv4_3 <- conv4_2
I0629 21:19:25.686933 28082 net.cpp:408] conv4_3 -> conv4_3
I0629 21:19:25.695981 28082 net.cpp:150] Setting up conv4_3
I0629 21:19:25.695999 28082 net.cpp:157] Top shape: 2 512 72 96 (7077888)
I0629 21:19:25.696002 28082 net.cpp:165] Memory required for data: 1956125376
I0629 21:19:25.696013 28082 layer_factory.hpp:77] Creating layer relu4_3
I0629 21:19:25.696024 28082 net.cpp:100] Creating Layer relu4_3
I0629 21:19:25.696029 28082 net.cpp:434] relu4_3 <- conv4_3
I0629 21:19:25.696035 28082 net.cpp:395] relu4_3 -> conv4_3 (in-place)
I0629 21:19:25.696343 28082 net.cpp:150] Setting up relu4_3
I0629 21:19:25.696377 28082 net.cpp:157] Top shape: 2 512 72 96 (7077888)
I0629 21:19:25.696382 28082 net.cpp:165] Memory required for data: 1984436928
I0629 21:19:25.696384 28082 layer_factory.hpp:77] Creating layer conv4_3_relu4_3_0_split
I0629 21:19:25.696393 28082 net.cpp:100] Creating Layer conv4_3_relu4_3_0_split
I0629 21:19:25.696396 28082 net.cpp:434] conv4_3_relu4_3_0_split <- conv4_3
I0629 21:19:25.696403 28082 net.cpp:408] conv4_3_relu4_3_0_split -> conv4_3_relu4_3_0_split_0
I0629 21:19:25.696410 28082 net.cpp:408] conv4_3_relu4_3_0_split -> conv4_3_relu4_3_0_split_1
I0629 21:19:25.696466 28082 net.cpp:150] Setting up conv4_3_relu4_3_0_split
I0629 21:19:25.696471 28082 net.cpp:157] Top shape: 2 512 72 96 (7077888)
I0629 21:19:25.696475 28082 net.cpp:157] Top shape: 2 512 72 96 (7077888)
I0629 21:19:25.696478 28082 net.cpp:165] Memory required for data: 2041060032
I0629 21:19:25.696481 28082 layer_factory.hpp:77] Creating layer loss1_conv1
I0629 21:19:25.696498 28082 net.cpp:100] Creating Layer loss1_conv1
I0629 21:19:25.696502 28082 net.cpp:434] loss1_conv1 <- conv4_3_relu4_3_0_split_0
I0629 21:19:25.696508 28082 net.cpp:408] loss1_conv1 -> loss1_conv1
I0629 21:19:25.718093 28082 net.cpp:150] Setting up loss1_conv1
I0629 21:19:25.718111 28082 net.cpp:157] Top shape: 2 512 72 96 (7077888)
I0629 21:19:25.718114 28082 net.cpp:165] Memory required for data: 2069371584
I0629 21:19:25.718123 28082 layer_factory.hpp:77] Creating layer loss_relu1
I0629 21:19:25.718137 28082 net.cpp:100] Creating Layer loss_relu1
I0629 21:19:25.718142 28082 net.cpp:434] loss_relu1 <- loss1_conv1
I0629 21:19:25.718148 28082 net.cpp:395] loss_relu1 -> loss1_conv1 (in-place)
I0629 21:19:25.718950 28082 net.cpp:150] Setting up loss_relu1
I0629 21:19:25.718962 28082 net.cpp:157] Top shape: 2 512 72 96 (7077888)
I0629 21:19:25.718966 28082 net.cpp:165] Memory required for data: 2097683136
I0629 21:19:25.718969 28082 layer_factory.hpp:77] Creating layer loss1_conv1_loss_relu1_0_split
I0629 21:19:25.718976 28082 net.cpp:100] Creating Layer loss1_conv1_loss_relu1_0_split
I0629 21:19:25.718981 28082 net.cpp:434] loss1_conv1_loss_relu1_0_split <- loss1_conv1
I0629 21:19:25.718986 28082 net.cpp:408] loss1_conv1_loss_relu1_0_split -> loss1_conv1_loss_relu1_0_split_0
I0629 21:19:25.718997 28082 net.cpp:408] loss1_conv1_loss_relu1_0_split -> loss1_conv1_loss_relu1_0_split_1
I0629 21:19:25.719046 28082 net.cpp:150] Setting up loss1_conv1_loss_relu1_0_split
I0629 21:19:25.719053 28082 net.cpp:157] Top shape: 2 512 72 96 (7077888)
I0629 21:19:25.719056 28082 net.cpp:157] Top shape: 2 512 72 96 (7077888)
I0629 21:19:25.719059 28082 net.cpp:165] Memory required for data: 2154306240
I0629 21:19:25.719063 28082 layer_factory.hpp:77] Creating layer LFCN_1_3x5
I0629 21:19:25.719074 28082 net.cpp:100] Creating Layer LFCN_1_3x5
I0629 21:19:25.719079 28082 net.cpp:434] LFCN_1_3x5 <- loss1_conv1_loss_relu1_0_split_0
I0629 21:19:25.719084 28082 net.cpp:408] LFCN_1_3x5 -> LFCN_1_3x5
I0629 21:19:25.721067 28082 net.cpp:150] Setting up LFCN_1_3x5
I0629 21:19:25.721083 28082 net.cpp:157] Top shape: 2 7 72 96 (96768)
I0629 21:19:25.721086 28082 net.cpp:165] Memory required for data: 2154693312
I0629 21:19:25.721096 28082 layer_factory.hpp:77] Creating layer LFCN_1_3x5_LFCN_1_3x5_0_split
I0629 21:19:25.721103 28082 net.cpp:100] Creating Layer LFCN_1_3x5_LFCN_1_3x5_0_split
I0629 21:19:25.721107 28082 net.cpp:434] LFCN_1_3x5_LFCN_1_3x5_0_split <- LFCN_1_3x5
I0629 21:19:25.721114 28082 net.cpp:408] LFCN_1_3x5_LFCN_1_3x5_0_split -> LFCN_1_3x5_LFCN_1_3x5_0_split_0
I0629 21:19:25.721123 28082 net.cpp:408] LFCN_1_3x5_LFCN_1_3x5_0_split -> LFCN_1_3x5_LFCN_1_3x5_0_split_1
I0629 21:19:25.721170 28082 net.cpp:150] Setting up LFCN_1_3x5_LFCN_1_3x5_0_split
I0629 21:19:25.721176 28082 net.cpp:157] Top shape: 2 7 72 96 (96768)
I0629 21:19:25.721180 28082 net.cpp:157] Top shape: 2 7 72 96 (96768)
I0629 21:19:25.721184 28082 net.cpp:165] Memory required for data: 2155467456
I0629 21:19:25.721186 28082 layer_factory.hpp:77] Creating layer detection_loss_1_3x5
I0629 21:19:25.721192 28082 net.cpp:100] Creating Layer detection_loss_1_3x5
I0629 21:19:25.721196 28082 net.cpp:434] detection_loss_1_3x5 <- LFCN_1_3x5_LFCN_1_3x5_0_split_0
I0629 21:19:25.721201 28082 net.cpp:434] detection_loss_1_3x5 <- label_1_3x5_data_1_split_0
I0629 21:19:25.721207 28082 net.cpp:408] detection_loss_1_3x5 -> loss_1_3x5
I0629 21:19:25.721220 28082 layer_factory.hpp:77] Creating layer detection_loss_1_3x5
I0629 21:19:25.722244 28082 net.cpp:150] Setting up detection_loss_1_3x5
I0629 21:19:25.722255 28082 net.cpp:157] Top shape: 1 1 1 2 (2)
I0629 21:19:25.722259 28082 net.cpp:160]     with loss weight 0.9
I0629 21:19:25.722268 28082 net.cpp:165] Memory required for data: 2155467464
I0629 21:19:25.722272 28082 layer_factory.hpp:77] Creating layer detection_accuracy_1_3x5
I0629 21:19:25.722281 28082 net.cpp:100] Creating Layer detection_accuracy_1_3x5
I0629 21:19:25.722286 28082 net.cpp:434] detection_accuracy_1_3x5 <- LFCN_1_3x5_LFCN_1_3x5_0_split_1
I0629 21:19:25.722291 28082 net.cpp:434] detection_accuracy_1_3x5 <- label_1_3x5_data_1_split_1
I0629 21:19:25.722299 28082 net.cpp:408] detection_accuracy_1_3x5 -> accuracy_1_3x5
I0629 21:19:25.722306 28082 net.cpp:408] detection_accuracy_1_3x5 -> boxiou_1_3x5
I0629 21:19:25.722369 28082 net.cpp:150] Setting up detection_accuracy_1_3x5
I0629 21:19:25.722378 28082 net.cpp:157] Top shape: 1 1 1 2 (2)
I0629 21:19:25.722383 28082 net.cpp:157] Top shape: 1 1 1 1 (1)
I0629 21:19:25.722385 28082 net.cpp:165] Memory required for data: 2155467476
I0629 21:19:25.722388 28082 layer_factory.hpp:77] Creating layer LFCN_1_5x7
I0629 21:19:25.722400 28082 net.cpp:100] Creating Layer LFCN_1_5x7
I0629 21:19:25.722404 28082 net.cpp:434] LFCN_1_5x7 <- loss1_conv1_loss_relu1_0_split_1
I0629 21:19:25.722410 28082 net.cpp:408] LFCN_1_5x7 -> LFCN_1_5x7
I0629 21:19:25.725857 28082 net.cpp:150] Setting up LFCN_1_5x7
I0629 21:19:25.725874 28082 net.cpp:157] Top shape: 2 7 72 96 (96768)
I0629 21:19:25.725878 28082 net.cpp:165] Memory required for data: 2155854548
I0629 21:19:25.725886 28082 layer_factory.hpp:77] Creating layer LFCN_1_5x7_LFCN_1_5x7_0_split
I0629 21:19:25.725898 28082 net.cpp:100] Creating Layer LFCN_1_5x7_LFCN_1_5x7_0_split
I0629 21:19:25.725903 28082 net.cpp:434] LFCN_1_5x7_LFCN_1_5x7_0_split <- LFCN_1_5x7
I0629 21:19:25.725911 28082 net.cpp:408] LFCN_1_5x7_LFCN_1_5x7_0_split -> LFCN_1_5x7_LFCN_1_5x7_0_split_0
I0629 21:19:25.725920 28082 net.cpp:408] LFCN_1_5x7_LFCN_1_5x7_0_split -> LFCN_1_5x7_LFCN_1_5x7_0_split_1
I0629 21:19:25.725970 28082 net.cpp:150] Setting up LFCN_1_5x7_LFCN_1_5x7_0_split
I0629 21:19:25.725975 28082 net.cpp:157] Top shape: 2 7 72 96 (96768)
I0629 21:19:25.725980 28082 net.cpp:157] Top shape: 2 7 72 96 (96768)
I0629 21:19:25.725982 28082 net.cpp:165] Memory required for data: 2156628692
I0629 21:19:25.725986 28082 layer_factory.hpp:77] Creating layer detection_loss_1_5x7
I0629 21:19:25.725993 28082 net.cpp:100] Creating Layer detection_loss_1_5x7
I0629 21:19:25.725997 28082 net.cpp:434] detection_loss_1_5x7 <- LFCN_1_5x7_LFCN_1_5x7_0_split_0
I0629 21:19:25.726001 28082 net.cpp:434] detection_loss_1_5x7 <- label_1_5x7_data_2_split_0
I0629 21:19:25.726009 28082 net.cpp:408] detection_loss_1_5x7 -> loss_1_5x7
I0629 21:19:25.726017 28082 layer_factory.hpp:77] Creating layer detection_loss_1_5x7
I0629 21:19:25.726598 28082 net.cpp:150] Setting up detection_loss_1_5x7
I0629 21:19:25.726613 28082 net.cpp:157] Top shape: 1 1 1 2 (2)
I0629 21:19:25.726615 28082 net.cpp:160]     with loss weight 0.9
I0629 21:19:25.726624 28082 net.cpp:165] Memory required for data: 2156628700
I0629 21:19:25.726629 28082 layer_factory.hpp:77] Creating layer detection_accuracy_1_5x7
I0629 21:19:25.726636 28082 net.cpp:100] Creating Layer detection_accuracy_1_5x7
I0629 21:19:25.726640 28082 net.cpp:434] detection_accuracy_1_5x7 <- LFCN_1_5x7_LFCN_1_5x7_0_split_1
I0629 21:19:25.726646 28082 net.cpp:434] detection_accuracy_1_5x7 <- label_1_5x7_data_2_split_1
I0629 21:19:25.726653 28082 net.cpp:408] detection_accuracy_1_5x7 -> accuracy_1_5x7
I0629 21:19:25.726660 28082 net.cpp:408] detection_accuracy_1_5x7 -> boxiou_1_5x7
I0629 21:19:25.726721 28082 net.cpp:150] Setting up detection_accuracy_1_5x7
I0629 21:19:25.726727 28082 net.cpp:157] Top shape: 1 1 1 2 (2)
I0629 21:19:25.726732 28082 net.cpp:157] Top shape: 1 1 1 1 (1)
I0629 21:19:25.726733 28082 net.cpp:165] Memory required for data: 2156628712
I0629 21:19:25.726737 28082 layer_factory.hpp:77] Creating layer pool4
I0629 21:19:25.726743 28082 net.cpp:100] Creating Layer pool4
I0629 21:19:25.726747 28082 net.cpp:434] pool4 <- conv4_3_relu4_3_0_split_1
I0629 21:19:25.726755 28082 net.cpp:408] pool4 -> pool4
I0629 21:19:25.726805 28082 net.cpp:150] Setting up pool4
I0629 21:19:25.726814 28082 net.cpp:157] Top shape: 2 512 36 48 (1769472)
I0629 21:19:25.726816 28082 net.cpp:165] Memory required for data: 2163706600
I0629 21:19:25.726819 28082 layer_factory.hpp:77] Creating layer conv5_1
I0629 21:19:25.726826 28082 net.cpp:100] Creating Layer conv5_1
I0629 21:19:25.726830 28082 net.cpp:434] conv5_1 <- pool4
I0629 21:19:25.726836 28082 net.cpp:408] conv5_1 -> conv5_1
I0629 21:19:25.735710 28082 net.cpp:150] Setting up conv5_1
I0629 21:19:25.735746 28082 net.cpp:157] Top shape: 2 512 36 48 (1769472)
I0629 21:19:25.735752 28082 net.cpp:165] Memory required for data: 2170784488
I0629 21:19:25.735766 28082 layer_factory.hpp:77] Creating layer relu5_1
I0629 21:19:25.735785 28082 net.cpp:100] Creating Layer relu5_1
I0629 21:19:25.735792 28082 net.cpp:434] relu5_1 <- conv5_1
I0629 21:19:25.735801 28082 net.cpp:395] relu5_1 -> conv5_1 (in-place)
I0629 21:19:25.736209 28082 net.cpp:150] Setting up relu5_1
I0629 21:19:25.736224 28082 net.cpp:157] Top shape: 2 512 36 48 (1769472)
I0629 21:19:25.736227 28082 net.cpp:165] Memory required for data: 2177862376
I0629 21:19:25.736232 28082 layer_factory.hpp:77] Creating layer conv5_2
I0629 21:19:25.736248 28082 net.cpp:100] Creating Layer conv5_2
I0629 21:19:25.736253 28082 net.cpp:434] conv5_2 <- conv5_1
I0629 21:19:25.736260 28082 net.cpp:408] conv5_2 -> conv5_2
I0629 21:19:25.744787 28082 net.cpp:150] Setting up conv5_2
I0629 21:19:25.744807 28082 net.cpp:157] Top shape: 2 512 36 48 (1769472)
I0629 21:19:25.744812 28082 net.cpp:165] Memory required for data: 2184940264
I0629 21:19:25.744819 28082 layer_factory.hpp:77] Creating layer relu5_2
I0629 21:19:25.744828 28082 net.cpp:100] Creating Layer relu5_2
I0629 21:19:25.744833 28082 net.cpp:434] relu5_2 <- conv5_2
I0629 21:19:25.744841 28082 net.cpp:395] relu5_2 -> conv5_2 (in-place)
I0629 21:19:25.745918 28082 net.cpp:150] Setting up relu5_2
I0629 21:19:25.745931 28082 net.cpp:157] Top shape: 2 512 36 48 (1769472)
I0629 21:19:25.745935 28082 net.cpp:165] Memory required for data: 2192018152
I0629 21:19:25.745939 28082 layer_factory.hpp:77] Creating layer conv5_3
I0629 21:19:25.745949 28082 net.cpp:100] Creating Layer conv5_3
I0629 21:19:25.745954 28082 net.cpp:434] conv5_3 <- conv5_2
I0629 21:19:25.745960 28082 net.cpp:408] conv5_3 -> conv5_3
I0629 21:19:25.753491 28082 net.cpp:150] Setting up conv5_3
I0629 21:19:25.753511 28082 net.cpp:157] Top shape: 2 512 36 48 (1769472)
I0629 21:19:25.753515 28082 net.cpp:165] Memory required for data: 2199096040
I0629 21:19:25.753523 28082 layer_factory.hpp:77] Creating layer relu5_3
I0629 21:19:25.753535 28082 net.cpp:100] Creating Layer relu5_3
I0629 21:19:25.753540 28082 net.cpp:434] relu5_3 <- conv5_3
I0629 21:19:25.753545 28082 net.cpp:395] relu5_3 -> conv5_3 (in-place)
I0629 21:19:25.753913 28082 net.cpp:150] Setting up relu5_3
I0629 21:19:25.753923 28082 net.cpp:157] Top shape: 2 512 36 48 (1769472)
I0629 21:19:25.753927 28082 net.cpp:165] Memory required for data: 2206173928
I0629 21:19:25.753931 28082 layer_factory.hpp:77] Creating layer conv5_3_relu5_3_0_split
I0629 21:19:25.753937 28082 net.cpp:100] Creating Layer conv5_3_relu5_3_0_split
I0629 21:19:25.753940 28082 net.cpp:434] conv5_3_relu5_3_0_split <- conv5_3
I0629 21:19:25.753947 28082 net.cpp:408] conv5_3_relu5_3_0_split -> conv5_3_relu5_3_0_split_0
I0629 21:19:25.753954 28082 net.cpp:408] conv5_3_relu5_3_0_split -> conv5_3_relu5_3_0_split_1
I0629 21:19:25.753960 28082 net.cpp:408] conv5_3_relu5_3_0_split -> conv5_3_relu5_3_0_split_2
I0629 21:19:25.754035 28082 net.cpp:150] Setting up conv5_3_relu5_3_0_split
I0629 21:19:25.754041 28082 net.cpp:157] Top shape: 2 512 36 48 (1769472)
I0629 21:19:25.754045 28082 net.cpp:157] Top shape: 2 512 36 48 (1769472)
I0629 21:19:25.754050 28082 net.cpp:157] Top shape: 2 512 36 48 (1769472)
I0629 21:19:25.754052 28082 net.cpp:165] Memory required for data: 2227407592
I0629 21:19:25.754055 28082 layer_factory.hpp:77] Creating layer LFCN_2_3x5
I0629 21:19:25.754065 28082 net.cpp:100] Creating Layer LFCN_2_3x5
I0629 21:19:25.754070 28082 net.cpp:434] LFCN_2_3x5 <- conv5_3_relu5_3_0_split_0
I0629 21:19:25.754076 28082 net.cpp:408] LFCN_2_3x5 -> LFCN_2_3x5
I0629 21:19:25.758935 28082 net.cpp:150] Setting up LFCN_2_3x5
I0629 21:19:25.758955 28082 net.cpp:157] Top shape: 2 7 36 48 (24192)
I0629 21:19:25.758960 28082 net.cpp:165] Memory required for data: 2227504360
I0629 21:19:25.758975 28082 layer_factory.hpp:77] Creating layer LFCN_2_3x5_LFCN_2_3x5_0_split
I0629 21:19:25.758985 28082 net.cpp:100] Creating Layer LFCN_2_3x5_LFCN_2_3x5_0_split
I0629 21:19:25.758990 28082 net.cpp:434] LFCN_2_3x5_LFCN_2_3x5_0_split <- LFCN_2_3x5
I0629 21:19:25.758997 28082 net.cpp:408] LFCN_2_3x5_LFCN_2_3x5_0_split -> LFCN_2_3x5_LFCN_2_3x5_0_split_0
I0629 21:19:25.759006 28082 net.cpp:408] LFCN_2_3x5_LFCN_2_3x5_0_split -> LFCN_2_3x5_LFCN_2_3x5_0_split_1
I0629 21:19:25.759063 28082 net.cpp:150] Setting up LFCN_2_3x5_LFCN_2_3x5_0_split
I0629 21:19:25.759069 28082 net.cpp:157] Top shape: 2 7 36 48 (24192)
I0629 21:19:25.759073 28082 net.cpp:157] Top shape: 2 7 36 48 (24192)
I0629 21:19:25.759076 28082 net.cpp:165] Memory required for data: 2227697896
I0629 21:19:25.759078 28082 layer_factory.hpp:77] Creating layer detection_loss_2_3x5
I0629 21:19:25.759086 28082 net.cpp:100] Creating Layer detection_loss_2_3x5
I0629 21:19:25.759093 28082 net.cpp:434] detection_loss_2_3x5 <- LFCN_2_3x5_LFCN_2_3x5_0_split_0
I0629 21:19:25.759096 28082 net.cpp:434] detection_loss_2_3x5 <- label_2_3x5_data_3_split_0
I0629 21:19:25.759102 28082 net.cpp:408] detection_loss_2_3x5 -> loss_2_3x5
I0629 21:19:25.759112 28082 layer_factory.hpp:77] Creating layer detection_loss_2_3x5
I0629 21:19:25.759769 28082 net.cpp:150] Setting up detection_loss_2_3x5
I0629 21:19:25.759785 28082 net.cpp:157] Top shape: 1 1 1 2 (2)
I0629 21:19:25.759788 28082 net.cpp:160]     with loss weight 1
I0629 21:19:25.759799 28082 net.cpp:165] Memory required for data: 2227697904
I0629 21:19:25.759802 28082 layer_factory.hpp:77] Creating layer detection_accuracy_2_3x5
I0629 21:19:25.759811 28082 net.cpp:100] Creating Layer detection_accuracy_2_3x5
I0629 21:19:25.759815 28082 net.cpp:434] detection_accuracy_2_3x5 <- LFCN_2_3x5_LFCN_2_3x5_0_split_1
I0629 21:19:25.759822 28082 net.cpp:434] detection_accuracy_2_3x5 <- label_2_3x5_data_3_split_1
I0629 21:19:25.759829 28082 net.cpp:408] detection_accuracy_2_3x5 -> accuracy_2_3x5
I0629 21:19:25.759837 28082 net.cpp:408] detection_accuracy_2_3x5 -> boxiou_2_3x5
I0629 21:19:25.759905 28082 net.cpp:150] Setting up detection_accuracy_2_3x5
I0629 21:19:25.759910 28082 net.cpp:157] Top shape: 1 1 1 2 (2)
I0629 21:19:25.759915 28082 net.cpp:157] Top shape: 1 1 1 1 (1)
I0629 21:19:25.759917 28082 net.cpp:165] Memory required for data: 2227697916
I0629 21:19:25.759920 28082 layer_factory.hpp:77] Creating layer LFCN_2_5x7
I0629 21:19:25.759928 28082 net.cpp:100] Creating Layer LFCN_2_5x7
I0629 21:19:25.759932 28082 net.cpp:434] LFCN_2_5x7 <- conv5_3_relu5_3_0_split_1
I0629 21:19:25.759941 28082 net.cpp:408] LFCN_2_5x7 -> LFCN_2_5x7
I0629 21:19:25.763823 28082 net.cpp:150] Setting up LFCN_2_5x7
I0629 21:19:25.763864 28082 net.cpp:157] Top shape: 2 7 36 48 (24192)
I0629 21:19:25.763866 28082 net.cpp:165] Memory required for data: 2227794684
I0629 21:19:25.763881 28082 layer_factory.hpp:77] Creating layer LFCN_2_5x7_LFCN_2_5x7_0_split
I0629 21:19:25.763896 28082 net.cpp:100] Creating Layer LFCN_2_5x7_LFCN_2_5x7_0_split
I0629 21:19:25.763901 28082 net.cpp:434] LFCN_2_5x7_LFCN_2_5x7_0_split <- LFCN_2_5x7
I0629 21:19:25.763911 28082 net.cpp:408] LFCN_2_5x7_LFCN_2_5x7_0_split -> LFCN_2_5x7_LFCN_2_5x7_0_split_0
I0629 21:19:25.763923 28082 net.cpp:408] LFCN_2_5x7_LFCN_2_5x7_0_split -> LFCN_2_5x7_LFCN_2_5x7_0_split_1
I0629 21:19:25.763978 28082 net.cpp:150] Setting up LFCN_2_5x7_LFCN_2_5x7_0_split
I0629 21:19:25.763983 28082 net.cpp:157] Top shape: 2 7 36 48 (24192)
I0629 21:19:25.763986 28082 net.cpp:157] Top shape: 2 7 36 48 (24192)
I0629 21:19:25.763988 28082 net.cpp:165] Memory required for data: 2227988220
I0629 21:19:25.763991 28082 layer_factory.hpp:77] Creating layer detection_loss_2_5x7
I0629 21:19:25.764003 28082 net.cpp:100] Creating Layer detection_loss_2_5x7
I0629 21:19:25.764005 28082 net.cpp:434] detection_loss_2_5x7 <- LFCN_2_5x7_LFCN_2_5x7_0_split_0
I0629 21:19:25.764010 28082 net.cpp:434] detection_loss_2_5x7 <- label_2_5x7_data_4_split_0
I0629 21:19:25.764017 28082 net.cpp:408] detection_loss_2_5x7 -> loss_2_5x7
I0629 21:19:25.764026 28082 layer_factory.hpp:77] Creating layer detection_loss_2_5x7
I0629 21:19:25.765192 28082 net.cpp:150] Setting up detection_loss_2_5x7
I0629 21:19:25.765206 28082 net.cpp:157] Top shape: 1 1 1 2 (2)
I0629 21:19:25.765208 28082 net.cpp:160]     with loss weight 1
I0629 21:19:25.765219 28082 net.cpp:165] Memory required for data: 2227988228
I0629 21:19:25.765223 28082 layer_factory.hpp:77] Creating layer detection_accuracy_2_5x7
I0629 21:19:25.765244 28082 net.cpp:100] Creating Layer detection_accuracy_2_5x7
I0629 21:19:25.765249 28082 net.cpp:434] detection_accuracy_2_5x7 <- LFCN_2_5x7_LFCN_2_5x7_0_split_1
I0629 21:19:25.765255 28082 net.cpp:434] detection_accuracy_2_5x7 <- label_2_5x7_data_4_split_1
I0629 21:19:25.765265 28082 net.cpp:408] detection_accuracy_2_5x7 -> accuracy_2_5x7
I0629 21:19:25.765274 28082 net.cpp:408] detection_accuracy_2_5x7 -> boxiou_2_5x7
I0629 21:19:25.765321 28082 net.cpp:150] Setting up detection_accuracy_2_5x7
I0629 21:19:25.765326 28082 net.cpp:157] Top shape: 1 1 1 2 (2)
I0629 21:19:25.765331 28082 net.cpp:157] Top shape: 1 1 1 1 (1)
I0629 21:19:25.765332 28082 net.cpp:165] Memory required for data: 2227988240
I0629 21:19:25.765336 28082 layer_factory.hpp:77] Creating layer pool5
I0629 21:19:25.765342 28082 net.cpp:100] Creating Layer pool5
I0629 21:19:25.765345 28082 net.cpp:434] pool5 <- conv5_3_relu5_3_0_split_2
I0629 21:19:25.765352 28082 net.cpp:408] pool5 -> pool5
I0629 21:19:25.765393 28082 net.cpp:150] Setting up pool5
I0629 21:19:25.765398 28082 net.cpp:157] Top shape: 2 512 18 24 (442368)
I0629 21:19:25.765400 28082 net.cpp:165] Memory required for data: 2229757712
I0629 21:19:25.765403 28082 layer_factory.hpp:77] Creating layer conv6_1
I0629 21:19:25.765413 28082 net.cpp:100] Creating Layer conv6_1
I0629 21:19:25.765417 28082 net.cpp:434] conv6_1 <- pool5
I0629 21:19:25.765422 28082 net.cpp:408] conv6_1 -> conv6_1
I0629 21:19:25.787310 28082 net.cpp:150] Setting up conv6_1
I0629 21:19:25.787329 28082 net.cpp:157] Top shape: 2 512 18 24 (442368)
I0629 21:19:25.787333 28082 net.cpp:165] Memory required for data: 2231527184
I0629 21:19:25.787340 28082 layer_factory.hpp:77] Creating layer relu6_1
I0629 21:19:25.787348 28082 net.cpp:100] Creating Layer relu6_1
I0629 21:19:25.787353 28082 net.cpp:434] relu6_1 <- conv6_1
I0629 21:19:25.787359 28082 net.cpp:395] relu6_1 -> conv6_1 (in-place)
I0629 21:19:25.787647 28082 net.cpp:150] Setting up relu6_1
I0629 21:19:25.787655 28082 net.cpp:157] Top shape: 2 512 18 24 (442368)
I0629 21:19:25.787658 28082 net.cpp:165] Memory required for data: 2233296656
I0629 21:19:25.787662 28082 layer_factory.hpp:77] Creating layer conv6_1_relu6_1_0_split
I0629 21:19:25.787669 28082 net.cpp:100] Creating Layer conv6_1_relu6_1_0_split
I0629 21:19:25.787674 28082 net.cpp:434] conv6_1_relu6_1_0_split <- conv6_1
I0629 21:19:25.787681 28082 net.cpp:408] conv6_1_relu6_1_0_split -> conv6_1_relu6_1_0_split_0
I0629 21:19:25.787689 28082 net.cpp:408] conv6_1_relu6_1_0_split -> conv6_1_relu6_1_0_split_1
I0629 21:19:25.787695 28082 net.cpp:408] conv6_1_relu6_1_0_split -> conv6_1_relu6_1_0_split_2
I0629 21:19:25.787760 28082 net.cpp:150] Setting up conv6_1_relu6_1_0_split
I0629 21:19:25.787766 28082 net.cpp:157] Top shape: 2 512 18 24 (442368)
I0629 21:19:25.787770 28082 net.cpp:157] Top shape: 2 512 18 24 (442368)
I0629 21:19:25.787775 28082 net.cpp:157] Top shape: 2 512 18 24 (442368)
I0629 21:19:25.787776 28082 net.cpp:165] Memory required for data: 2238605072
I0629 21:19:25.787780 28082 layer_factory.hpp:77] Creating layer LFCN_3_3x5
I0629 21:19:25.787789 28082 net.cpp:100] Creating Layer LFCN_3_3x5
I0629 21:19:25.787793 28082 net.cpp:434] LFCN_3_3x5 <- conv6_1_relu6_1_0_split_0
I0629 21:19:25.787801 28082 net.cpp:408] LFCN_3_3x5 -> LFCN_3_3x5
I0629 21:19:25.790668 28082 net.cpp:150] Setting up LFCN_3_3x5
I0629 21:19:25.790684 28082 net.cpp:157] Top shape: 2 7 18 24 (6048)
I0629 21:19:25.790688 28082 net.cpp:165] Memory required for data: 2238629264
I0629 21:19:25.790696 28082 layer_factory.hpp:77] Creating layer LFCN_3_3x5_LFCN_3_3x5_0_split
I0629 21:19:25.790715 28082 net.cpp:100] Creating Layer LFCN_3_3x5_LFCN_3_3x5_0_split
I0629 21:19:25.790720 28082 net.cpp:434] LFCN_3_3x5_LFCN_3_3x5_0_split <- LFCN_3_3x5
I0629 21:19:25.790727 28082 net.cpp:408] LFCN_3_3x5_LFCN_3_3x5_0_split -> LFCN_3_3x5_LFCN_3_3x5_0_split_0
I0629 21:19:25.790736 28082 net.cpp:408] LFCN_3_3x5_LFCN_3_3x5_0_split -> LFCN_3_3x5_LFCN_3_3x5_0_split_1
I0629 21:19:25.790782 28082 net.cpp:150] Setting up LFCN_3_3x5_LFCN_3_3x5_0_split
I0629 21:19:25.790787 28082 net.cpp:157] Top shape: 2 7 18 24 (6048)
I0629 21:19:25.790791 28082 net.cpp:157] Top shape: 2 7 18 24 (6048)
I0629 21:19:25.790794 28082 net.cpp:165] Memory required for data: 2238677648
I0629 21:19:25.790797 28082 layer_factory.hpp:77] Creating layer detection_loss_3_3x5
I0629 21:19:25.790804 28082 net.cpp:100] Creating Layer detection_loss_3_3x5
I0629 21:19:25.790808 28082 net.cpp:434] detection_loss_3_3x5 <- LFCN_3_3x5_LFCN_3_3x5_0_split_0
I0629 21:19:25.790813 28082 net.cpp:434] detection_loss_3_3x5 <- label_3_3x5_data_5_split_0
I0629 21:19:25.790820 28082 net.cpp:408] detection_loss_3_3x5 -> loss_3_3x5
I0629 21:19:25.790829 28082 layer_factory.hpp:77] Creating layer detection_loss_3_3x5
I0629 21:19:25.791282 28082 net.cpp:150] Setting up detection_loss_3_3x5
I0629 21:19:25.791290 28082 net.cpp:157] Top shape: 1 1 1 2 (2)
I0629 21:19:25.791292 28082 net.cpp:160]     with loss weight 1
I0629 21:19:25.791302 28082 net.cpp:165] Memory required for data: 2238677656
I0629 21:19:25.791306 28082 layer_factory.hpp:77] Creating layer detection_accuracy_3_3x5
I0629 21:19:25.791313 28082 net.cpp:100] Creating Layer detection_accuracy_3_3x5
I0629 21:19:25.791317 28082 net.cpp:434] detection_accuracy_3_3x5 <- LFCN_3_3x5_LFCN_3_3x5_0_split_1
I0629 21:19:25.791322 28082 net.cpp:434] detection_accuracy_3_3x5 <- label_3_3x5_data_5_split_1
I0629 21:19:25.791330 28082 net.cpp:408] detection_accuracy_3_3x5 -> accuracy_3_3x5
I0629 21:19:25.791337 28082 net.cpp:408] detection_accuracy_3_3x5 -> boxiou_3_3x5
I0629 21:19:25.791381 28082 net.cpp:150] Setting up detection_accuracy_3_3x5
I0629 21:19:25.791386 28082 net.cpp:157] Top shape: 1 1 1 2 (2)
I0629 21:19:25.791390 28082 net.cpp:157] Top shape: 1 1 1 1 (1)
I0629 21:19:25.791393 28082 net.cpp:165] Memory required for data: 2238677668
I0629 21:19:25.791395 28082 layer_factory.hpp:77] Creating layer LFCN_3_5x7
I0629 21:19:25.791405 28082 net.cpp:100] Creating Layer LFCN_3_5x7
I0629 21:19:25.791409 28082 net.cpp:434] LFCN_3_5x7 <- conv6_1_relu6_1_0_split_1
I0629 21:19:25.791415 28082 net.cpp:408] LFCN_3_5x7 -> LFCN_3_5x7
I0629 21:19:25.794344 28082 net.cpp:150] Setting up LFCN_3_5x7
I0629 21:19:25.794359 28082 net.cpp:157] Top shape: 2 7 18 24 (6048)
I0629 21:19:25.794363 28082 net.cpp:165] Memory required for data: 2238701860
I0629 21:19:25.794369 28082 layer_factory.hpp:77] Creating layer LFCN_3_5x7_LFCN_3_5x7_0_split
I0629 21:19:25.794376 28082 net.cpp:100] Creating Layer LFCN_3_5x7_LFCN_3_5x7_0_split
I0629 21:19:25.794380 28082 net.cpp:434] LFCN_3_5x7_LFCN_3_5x7_0_split <- LFCN_3_5x7
I0629 21:19:25.794390 28082 net.cpp:408] LFCN_3_5x7_LFCN_3_5x7_0_split -> LFCN_3_5x7_LFCN_3_5x7_0_split_0
I0629 21:19:25.794399 28082 net.cpp:408] LFCN_3_5x7_LFCN_3_5x7_0_split -> LFCN_3_5x7_LFCN_3_5x7_0_split_1
I0629 21:19:25.794445 28082 net.cpp:150] Setting up LFCN_3_5x7_LFCN_3_5x7_0_split
I0629 21:19:25.794452 28082 net.cpp:157] Top shape: 2 7 18 24 (6048)
I0629 21:19:25.794456 28082 net.cpp:157] Top shape: 2 7 18 24 (6048)
I0629 21:19:25.794458 28082 net.cpp:165] Memory required for data: 2238750244
I0629 21:19:25.794461 28082 layer_factory.hpp:77] Creating layer detection_loss_3_5x7
I0629 21:19:25.794468 28082 net.cpp:100] Creating Layer detection_loss_3_5x7
I0629 21:19:25.794472 28082 net.cpp:434] detection_loss_3_5x7 <- LFCN_3_5x7_LFCN_3_5x7_0_split_0
I0629 21:19:25.794477 28082 net.cpp:434] detection_loss_3_5x7 <- label_3_5x7_data_6_split_0
I0629 21:19:25.794484 28082 net.cpp:408] detection_loss_3_5x7 -> loss_3_5x7
I0629 21:19:25.794493 28082 layer_factory.hpp:77] Creating layer detection_loss_3_5x7
I0629 21:19:25.795444 28082 net.cpp:150] Setting up detection_loss_3_5x7
I0629 21:19:25.795455 28082 net.cpp:157] Top shape: 1 1 1 2 (2)
I0629 21:19:25.795459 28082 net.cpp:160]     with loss weight 1
I0629 21:19:25.795467 28082 net.cpp:165] Memory required for data: 2238750252
I0629 21:19:25.795471 28082 layer_factory.hpp:77] Creating layer detection_accuracy_3_5x7
I0629 21:19:25.795480 28082 net.cpp:100] Creating Layer detection_accuracy_3_5x7
I0629 21:19:25.795487 28082 net.cpp:434] detection_accuracy_3_5x7 <- LFCN_3_5x7_LFCN_3_5x7_0_split_1
I0629 21:19:25.795492 28082 net.cpp:434] detection_accuracy_3_5x7 <- label_3_5x7_data_6_split_1
I0629 21:19:25.795498 28082 net.cpp:408] detection_accuracy_3_5x7 -> accuracy_3_5x7
I0629 21:19:25.795506 28082 net.cpp:408] detection_accuracy_3_5x7 -> boxiou_3_5x7
I0629 21:19:25.795555 28082 net.cpp:150] Setting up detection_accuracy_3_5x7
I0629 21:19:25.795560 28082 net.cpp:157] Top shape: 1 1 1 2 (2)
I0629 21:19:25.795563 28082 net.cpp:157] Top shape: 1 1 1 1 (1)
I0629 21:19:25.795567 28082 net.cpp:165] Memory required for data: 2238750264
I0629 21:19:25.795569 28082 layer_factory.hpp:77] Creating layer pool6
I0629 21:19:25.795574 28082 net.cpp:100] Creating Layer pool6
I0629 21:19:25.795579 28082 net.cpp:434] pool6 <- conv6_1_relu6_1_0_split_2
I0629 21:19:25.795586 28082 net.cpp:408] pool6 -> pool6
I0629 21:19:25.795626 28082 net.cpp:150] Setting up pool6
I0629 21:19:25.795631 28082 net.cpp:157] Top shape: 2 512 9 12 (110592)
I0629 21:19:25.795634 28082 net.cpp:165] Memory required for data: 2239192632
I0629 21:19:25.795637 28082 layer_factory.hpp:77] Creating layer LFCN_4_3x5
I0629 21:19:25.795647 28082 net.cpp:100] Creating Layer LFCN_4_3x5
I0629 21:19:25.795651 28082 net.cpp:434] LFCN_4_3x5 <- pool6
I0629 21:19:25.795657 28082 net.cpp:408] LFCN_4_3x5 -> LFCN_4_3x5
I0629 21:19:25.798038 28082 net.cpp:150] Setting up LFCN_4_3x5
I0629 21:19:25.798051 28082 net.cpp:157] Top shape: 2 7 9 12 (1512)
I0629 21:19:25.798054 28082 net.cpp:165] Memory required for data: 2239198680
I0629 21:19:25.798063 28082 layer_factory.hpp:77] Creating layer LFCN_4_3x5_LFCN_4_3x5_0_split
I0629 21:19:25.798069 28082 net.cpp:100] Creating Layer LFCN_4_3x5_LFCN_4_3x5_0_split
I0629 21:19:25.798074 28082 net.cpp:434] LFCN_4_3x5_LFCN_4_3x5_0_split <- LFCN_4_3x5
I0629 21:19:25.798081 28082 net.cpp:408] LFCN_4_3x5_LFCN_4_3x5_0_split -> LFCN_4_3x5_LFCN_4_3x5_0_split_0
I0629 21:19:25.798091 28082 net.cpp:408] LFCN_4_3x5_LFCN_4_3x5_0_split -> LFCN_4_3x5_LFCN_4_3x5_0_split_1
I0629 21:19:25.798146 28082 net.cpp:150] Setting up LFCN_4_3x5_LFCN_4_3x5_0_split
I0629 21:19:25.798151 28082 net.cpp:157] Top shape: 2 7 9 12 (1512)
I0629 21:19:25.798156 28082 net.cpp:157] Top shape: 2 7 9 12 (1512)
I0629 21:19:25.798157 28082 net.cpp:165] Memory required for data: 2239210776
I0629 21:19:25.798161 28082 layer_factory.hpp:77] Creating layer detection_loss_4_3x5
I0629 21:19:25.798168 28082 net.cpp:100] Creating Layer detection_loss_4_3x5
I0629 21:19:25.798172 28082 net.cpp:434] detection_loss_4_3x5 <- LFCN_4_3x5_LFCN_4_3x5_0_split_0
I0629 21:19:25.798177 28082 net.cpp:434] detection_loss_4_3x5 <- label_4_3x5_data_7_split_0
I0629 21:19:25.798182 28082 net.cpp:408] detection_loss_4_3x5 -> loss_4_3x5
I0629 21:19:25.798200 28082 layer_factory.hpp:77] Creating layer detection_loss_4_3x5
I0629 21:19:25.799160 28082 net.cpp:150] Setting up detection_loss_4_3x5
I0629 21:19:25.799170 28082 net.cpp:157] Top shape: 1 1 1 2 (2)
I0629 21:19:25.799172 28082 net.cpp:160]     with loss weight 1
I0629 21:19:25.799181 28082 net.cpp:165] Memory required for data: 2239210784
I0629 21:19:25.799185 28082 layer_factory.hpp:77] Creating layer detection_accuracy_4_3x5
I0629 21:19:25.799194 28082 net.cpp:100] Creating Layer detection_accuracy_4_3x5
I0629 21:19:25.799199 28082 net.cpp:434] detection_accuracy_4_3x5 <- LFCN_4_3x5_LFCN_4_3x5_0_split_1
I0629 21:19:25.799206 28082 net.cpp:434] detection_accuracy_4_3x5 <- label_4_3x5_data_7_split_1
I0629 21:19:25.799211 28082 net.cpp:408] detection_accuracy_4_3x5 -> accuracy_4_3x5
I0629 21:19:25.799221 28082 net.cpp:408] detection_accuracy_4_3x5 -> boxiou_4_3x5
I0629 21:19:25.799268 28082 net.cpp:150] Setting up detection_accuracy_4_3x5
I0629 21:19:25.799273 28082 net.cpp:157] Top shape: 1 1 1 2 (2)
I0629 21:19:25.799278 28082 net.cpp:157] Top shape: 1 1 1 1 (1)
I0629 21:19:25.799279 28082 net.cpp:165] Memory required for data: 2239210796
I0629 21:19:25.799283 28082 net.cpp:228] detection_accuracy_4_3x5 does not need backward computation.
I0629 21:19:25.799286 28082 net.cpp:226] detection_loss_4_3x5 needs backward computation.
I0629 21:19:25.799290 28082 net.cpp:226] LFCN_4_3x5_LFCN_4_3x5_0_split needs backward computation.
I0629 21:19:25.799293 28082 net.cpp:226] LFCN_4_3x5 needs backward computation.
…
