…
    downsample_rate: 32
    downsample_rate: 32
    downsample_rate: 64
    coord_num: 4
    field_h: 60
    field_h: 84
    field_h: 120
    field_h: 168
    field_h: 240
    field_h: 336
    field_h: 480
    field_w: 40
    field_w: 56
    field_w: 80
    field_w: 112
    field_w: 160
    field_w: 224
    field_w: 320
    fg_threshold: 0.5
    resize_width: 1920
    resize_height: 576
    crop_width: 768
    crop_height: 576
    do_multiple_scale: true
    min_scale: 50
    max_scale: 420
    min_gt_height: 35
    shuffle: true
    output_gt_boxes: true
  }
}
layer {
  name: "conv1_1"
  type: "Convolution"
  bottom: "data"
  top: "conv1_1"
  param {
    lr_mult: 0
    decay_mult: 0
  }
  param {
    lr_mult: 0
    decay_mult: 0
  }
  convolution_param {
    num_output: 64
    pad: 1
    kernel_size: 3
  }
}
layer {
  name: "relu1_1"
  type: "ReLU"
  bottom: "conv1_1"
  top: "conv1_1"
}
layer {
  name: "conv1_2"
  type: "Convolution"
  bottom: "conv1_1"
  top: "conv1_2"
  param {
    lr_mult: 0
    decay_mult: 0
  }
  param {
    lr_mult: 0
    decay_mult: 0
  }
  convolution_param {
    num_output: 64
    pad: 1
    kernel_size: 3
  }
}
layer {
  name: "relu1_2"
  type: "ReLU"
  bottom: "conv1_2"
  top: "conv1_2"
}
layer {
  name: "pool1"
  type: "Pooling"
  bottom: "conv1_2"
  top: "pool1"
  pooling_param {
    pool: MAX
    kernel_size: 2
    stride: 2
  }
}
layer {
  name: "conv2_1"
  type: "Convolution"
  bottom: "pool1"
  top: "conv2_1"
  param {
    lr_mult: 0
    decay_mult: 0
  }
  param {
    lr_mult: 0
    decay_mult: 0
  }
  convolution_param {
    num_output: 128
    pad: 1
    kernel_size: 3
  }
}
layer {
  name: "relu2_1"
  type: "ReLU"
  bottom: "conv2_1"
  top: "conv2_1"
}
layer {
  name: "conv2_2"
  type: "Convolution"
  bottom: "conv2_1"
  top: "conv2_2"
  param {
    lr_mult: 0
    decay_mult: 0
  }
  param {
    lr_mult: 0
    decay_mult: 0
  }
  convolution_param {
    num_output: 128
    pad: 1
    kernel_size: 3
  }
}
layer {
  name: "relu2_2"
  type: "ReLU"
  bottom: "conv2_2"
  top: "conv2_2"
}
layer {
  name: "pool2"
  type: "Pooling"
  bottom: "conv2_2"
  top: "pool2"
  pooling_param {
    pool: MAX
    kernel_size: 2
    stride: 2
  }
}
layer {
  name: "conv3_1"
  type: "Convolution"
  bottom: "pool2"
  top: "conv3_1"
  convolution_param {
    num_output: 256
    pad: 1
    kernel_size: 3
  }
}
layer {
  name: "relu3_1"
  type: "ReLU"
  bottom: "conv3_1"
  top: "conv3_1"
}
layer {
  name: "conv3_2"
  type: "Convolution"
  bottom: "conv3_1"
  top: "conv3_2"
  convolution_param {
    num_output: 256
    pad: 1
    kernel_size: 3
  }
}
layer {
  name: "relu3_2"
  type: "ReLU"
  bottom: "conv3_2"
  top: "conv3_2"
}
layer {
  name: "conv3_3"
  type: "Convolution"
  bottom: "conv3_2"
  top: "conv3_3"
  convolution_param {
    num_output: 256
    pad: 1
    kernel_size: 3
  }
}
layer {
  name: "relu3_3"
  type: "ReLU"
  bottom: "conv3_3"
  top: "conv3_3"
}
layer {
  name: "pool3"
  type: "Pooling"
  bottom: "conv3_3"
  top: "pool3"
  pooling_param {
    pool: MAX
    kernel_size: 2
    stride: 2
  }
}
layer {
  name: "conv4_1"
  type: "Convolution"
  bottom: "pool3"
  top: "conv4_1"
  convolution_param {
    num_output: 512
    pad: 1
    kernel_size: 3
  }
}
layer {
  name: "relu4_1"
  type: "ReLU"
  bottom: "conv4_1"
  top: "conv4_1"
}
layer {
  name: "conv4_2"
  type: "Convolution"
  bottom: "conv4_1"
  top: "conv4_2"
  convolution_param {
    num_output: 512
    pad: 1
    kernel_size: 3
  }
}
layer {
  name: "relu4_2"
  type: "ReLU"
  bottom: "conv4_2"
  top: "conv4_2"
}
layer {
  name: "conv4_3"
  type: "Convolution"
  bottom: "conv4_2"
  top: "conv4_3"
  convolution_param {
    num_output: 512
    pad: 1
    kernel_size: 3
  }
}
layer {
  name: "relu4_3"
  type: "ReLU"
  bottom: "conv4_3"
  top: "conv4_3"
}
layer {
  name: "loss1_conv1"
  type: "Convolution"
  bottom: "conv4_3"
  top: "loss1_conv1"
  param {
    lr_mult: 1
    decay_mult: 1
  }
  param {
    lr_mult: 2
    decay_mult: 0
  }
  convolution_param {
    num_output: 512
    pad: 1
    kernel_size: 3
    weight_filler {
      type: "gaussian"
      std: 0.01
    }
    bias_filler {
      type: "constant"
    }
  }
}
layer {
  name: "loss_relu1"
  type: "ReLU"
  bottom: "loss1_conv1"
  top: "loss1_conv1"
}
layer {
  name: "LFCN_1_3x5"
  type: "Convolution"
  bottom: "loss1_conv1"
  top: "LFCN_1_3x5"
  param {
    lr_mult: 1
    decay_mult: 1
  }
  param {
    lr_mult: 2
    decay_mult: 0
  }
  convolution_param {
    num_output: 7
    weight_filler {
      type: "gaussian"
      std: 0.001
    }
    bias_filler {
      type: "constant"
    }
    pad_h: 2
    pad_w: 1
    kernel_h: 5
    kernel_w: 3
  }
}
layer {
  name: "detection_loss_1_3x5"
  type: "DetectionLoss"
  bottom: "LFCN_1_3x5"
  bottom: "label_1_3x5"
  top: "loss_1_3x5"
  loss_weight: 0.5
  detection_loss_param {
    cls_num: 3
    coord_num: 4
    lambda: 1
    field_h: 60
    field_w: 40
    downsample_rate: 8
    bb_smooth: true
    field_whr: 2
    field_xyr: 2
    bg_threshold: 0.2
    bg_multiple: 2
    sample_mode: "bootstrap"
    pos_neg_weighted: true
  }
}
layer {
  name: "detection_accuracy_1_3x5"
  type: "DetectionAccuracy"
  bottom: "LFCN_1_3x5"
  bottom: "label_1_3x5"
  top: "accuracy_1_3x5"
  top: "boxiou_1_3x5"
  detection_accuracy_param {
    cls_num: 3
    coord_num: 4
    field_h: 60
    field_w: 40
    downsample_rate: 8
    field_whr: 2
    field_xyr: 2
  }
}
layer {
  name: "LFCN_1_5x7"
  type: "Convolution"
  bottom: "loss1_conv1"
  top: "LFCN_1_5x7"
  param {
    lr_mult: 1
    decay_mult: 1
  }
  param {
    lr_mult: 2
    decay_mult: 0
  }
  convolution_param {
    num_output: 7
    weight_filler {
      type: "gaussian"
      std: 0.001
    }
    bias_filler {
      type: "constant"
    }
    pad_h: 3
    pad_w: 2
    kernel_h: 7
    kernel_w: 5
  }
}
layer {
  name: "detection_loss_1_5x7"
  type: "DetectionLoss"
  bottom: "LFCN_1_5x7"
  bottom: "label_1_5x7"
  top: "loss_1_5x7"
  loss_weight: 0.9
  detection_loss_param {
    cls_num: 3
    coord_num: 4
    lambda: 1
    field_h: 84
    field_w: 56
    downsample_rate: 8
    bb_smooth: true
    field_whr: 2
    field_xyr: 2
    bg_threshold: 0.2
    bg_multiple: 2
    sample_mode: "bootstrap"
    pos_neg_weighted: true
  }
}
layer {
  name: "detection_accuracy_1_5x7"
  type: "DetectionAccuracy"
  bottom: "LFCN_1_5x7"
  bottom: "label_1_5x7"
  top: "accuracy_1_5x7"
  top: "boxiou_1_5x7"
  detection_accuracy_param {
    cls_num: 3
    coord_num: 4
    field_h: 84
    field_w: 56
    downsample_rate: 8
    field_whr: 2
    field_xyr: 2
  }
}
layer {
  name: "pool4"
  type: "Pooling"
  bottom: "conv4_3"
  top: "pool4"
  pooling_param {
    pool: MAX
    kernel_size: 2
    stride: 2
  }
}
layer {
  name: "conv5_1"
  type: "Convolution"
  bottom: "pool4"
  top: "conv5_1"
  convolution_param {
    num_output: 512
    pad: 1
    kernel_size: 3
  }
}
layer {
  name: "relu5_1"
  type: "ReLU"
  bottom: "conv5_1"
  top: "conv5_1"
}
layer {
  name: "conv5_2"
  type: "Convolution"
  bottom: "conv5_1"
  top: "conv5_2"
  convolution_param {
    num_output: 512
    pad: 1
    kernel_size: 3
  }
}
layer {
  name: "relu5_2"
  type: "ReLU"
  bottom: "conv5_2"
  top: "conv5_2"
}
layer {
  name: "conv5_3"
  type: "Convolution"
  bottom: "conv5_2"
  top: "conv5_3"
  convolution_param {
    num_output: 512
    pad: 1
    kernel_size: 3
  }
}
layer {
  name: "relu5_3"
  type: "ReLU"
  bottom: "conv5_3"
  top: "conv5_3"
}
layer {
  name: "LFCN_2_3x5"
  type: "Convolution"
  bottom: "conv5_3"
  top: "LFCN_2_3x5"
  param {
    lr_mult: 1
    decay_mult: 1
  }
  param {
    lr_mult: 2
    decay_mult: 0
  }
  convolution_param {
    num_output: 7
    weight_filler {
      type: "gaussian"
      std: 0.001
    }
    bias_filler {
      type: "constant"
    }
    pad_h: 2
    pad_w: 1
    kernel_h: 5
    kernel_w: 3
  }
}
layer {
  name: "detection_loss_2_3x5"
  type: "DetectionLoss"
  bottom: "LFCN_2_3x5"
  bottom: "label_2_3x5"
  top: "loss_2_3x5"
  detection_loss_param {
    cls_num: 3
    coord_num: 4
    lambda: 1
    field_h: 120
    field_w: 80
    downsample_rate: 16
    bb_smooth: true
    field_whr: 2
    field_xyr: 2
    bg_threshold: 0.2
    bg_multiple: 2
    sample_mode: "bootstrap"
    pos_neg_weighted: true
  }
}
layer {
  name: "detection_accuracy_2_3x5"
  type: "DetectionAccuracy"
  bottom: "LFCN_2_3x5"
  bottom: "label_2_3x5"
  top: "accuracy_2_3x5"
  top: "boxiou_2_3x5"
  detection_accuracy_param {
    cls_num: 3
    coord_num: 4
    field_h: 120
    field_w: 80
    downsample_rate: 16
    field_whr: 2
    field_xyr: 2
  }
}
layer {
  name: "LFCN_2_5x7"
  type: "Convolution"
  bottom: "conv5_3"
  top: "LFCN_2_5x7"
  param {
    lr_mult: 1
    decay_mult: 1
  }
  param {
    lr_mult: 2
    decay_mult: 0
  }
  convolution_param {
    num_output: 7
    weight_filler {
      type: "gaussian"
      std: 0.001
    }
    bias_filler {
      type: "constant"
    }
    pad_h: 3
    pad_w: 2
    kernel_h: 7
    kernel_w: 5
  }
}
layer {
  name: "detection_loss_2_5x7"
  type: "DetectionLoss"
  bottom: "LFCN_2_5x7"
  bottom: "label_2_5x7"
  top: "loss_2_5x7"
  detection_loss_param {
    cls_num: 3
    coord_num: 4
    lambda: 1
    field_h: 168
    field_w: 112
    downsample_rate: 16
    bb_smooth: true
    field_whr: 2
    field_xyr: 2
    bg_threshold: 0.2
    bg_multiple: 2
    sample_mode: "bootstrap"
    pos_neg_weighted: true
  }
}
layer {
  name: "detection_accuracy_2_5x7"
  type: "DetectionAccuracy"
  bottom: "LFCN_2_5x7"
  bottom: "label_2_5x7"
  top: "accuracy_2_5x7"
  top: "boxiou_2_5x7"
  detection_accuracy_param {
    cls_num: 3
    coord_num: 4
    field_h: 168
    field_w: 112
    downsample_rate: 16
    field_whr: 2
    field_xyr: 2
  }
}
layer {
  name: "pool5"
  type: "Pooling"
  bottom: "conv5_3"
  top: "pool5"
  pooling_param {
    pool: MAX
    kernel_size: 2
    stride: 2
  }
}
layer {
  name: "conv6_1"
  type: "Convolution"
  bottom: "pool5"
  top: "conv6_1"
  param {
    lr_mult: 1
    decay_mult: 1
  }
  param {
    lr_mult: 2
    decay_mult: 0
  }
  convolution_param {
    num_output: 512
    pad: 1
    kernel_size: 3
    weight_filler {
      type: "gaussian"
      std: 0.01
    }
    bias_filler {
      type: "constant"
    }
  }
}
layer {
  name: "relu6_1"
  type: "ReLU"
  bottom: "conv6_1"
  top: "conv6_1"
}
layer {
  name: "LFCN_3_3x5"
  type: "Convolution"
  bottom: "conv6_1"
  top: "LFCN_3_3x5"
  param {
    lr_mult: 1
    decay_mult: 1
  }
  param {
    lr_mult: 2
    decay_mult: 0
  }
  convolution_param {
    num_output: 7
    weight_filler {
      type: "gaussian"
      std: 0.001
    }
    bias_filler {
      type: "constant"
    }
    pad_h: 2
    pad_w: 1
    kernel_h: 5
    kernel_w: 3
  }
}
layer {
  name: "detection_loss_3_3x5"
  type: "DetectionLoss"
  bottom: "LFCN_3_3x5"
  bottom: "label_3_3x5"
  top: "loss_3_3x5"
  detection_loss_param {
    cls_num: 3
    coord_num: 4
    lambda: 1
    field_h: 240
    field_w: 160
    downsample_rate: 32
    bb_smooth: true
    field_whr: 2
    field_xyr: 2
    bg_threshold: 0.2
    bg_multiple: 2
    sample_mode: "bootstrap"
    pos_neg_weighted: true
  }
}
layer {
  name: "detection_accuracy_3_3x5"
  type: "DetectionAccuracy"
  bottom: "LFCN_3_3x5"
  bottom: "label_3_3x5"
  top: "accuracy_3_3x5"
  top: "boxiou_3_3x5"
  detection_accuracy_param {
    cls_num: 3
    coord_num: 4
    field_h: 240
    field_w: 160
    downsample_rate: 32
    field_whr: 2
    field_xyr: 2
  }
}
layer {
  name: "LFCN_3_5x7"
  type: "Convolution"
  bottom: "conv6_1"
  top: "LFCN_3_5x7"
  param {
    lr_mult: 1
    decay_mult: 1
  }
  param {
    lr_mult: 2
    decay_mult: 0
  }
  convolution_param {
    num_output: 7
    weight_filler {
      type: "gaussian"
      std: 0.001
    }
    bias_filler {
      type: "constant"
    }
    pad_h: 3
    pad_w: 2
    kernel_h: 7
    kernel_w: 5
  }
}
layer {
  name: "detection_loss_3_5x7"
  type: "DetectionLoss"
  bottom: "LFCN_3_5x7"
  bottom: "label_3_5x7"
  top: "loss_3_5x7"
  detection_loss_param {
    cls_num: 3
    coord_num: 4
    lambda: 1
    field_h: 336
    field_w: 224
    downsample_rate: 32
    bb_smooth: true
    field_whr: 2
    field_xyr: 2
    bg_threshold: 0.2
    bg_multiple: 2
    sample_mode: "bootstrap"
    pos_neg_weighted: true
  }
}
layer {
  name: "detection_accuracy_3_5x7"
  type: "DetectionAccuracy"
  bottom: "LFCN_3_5x7"
  bottom: "label_3_5x7"
  top: "accuracy_3_5x7"
  top: "boxiou_3_5x7"
  detection_accuracy_param {
    cls_num: 3
    coord_num: 4
    field_h: 336
    field_w: 224
    downsample_rate: 32
    field_whr: 2
    field_xyr: 2
  }
}
layer {
  name: "pool6"
  type: "Pooling"
  bottom: "conv6_1"
  top: "pool6"
  pooling_param {
    pool: MAX
    kernel_size: 2
    stride: 2
  }
}
layer {
  name: "LFCN_4_3x5"
  type: "Convolution"
  bottom: "pool6"
  top: "LFCN_4_3x5"
  param {
    lr_mult: 1
    decay_mult: 1
  }
  param {
    lr_mult: 2
    decay_mult: 0
  }
  convolution_param {
    num_output: 7
    weight_filler {
      type: "gaussian"
      std: 0.001
    }
    bias_filler {
      type: "constant"
    }
    pad_h: 2
    pad_w: 1
    kernel_h: 5
    kernel_w: 3
  }
}
layer {
  name: "detection_loss_4_3x5"
  type: "DetectionLoss"
  bottom: "LFCN_4_3x5"
  bottom: "label_4_3x5"
  top: "loss_4_3x5"
  detection_loss_param {
    cls_num: 3
    coord_num: 4
    lambda: 1
    field_h: 480
    field_w: 320
    downsample_rate: 64
    bb_smooth: true
    field_whr: 2
    field_xyr: 2
    bg_threshold: 0.2
    bg_multiple: 2
    sample_mode: "bootstrap"
    pos_neg_weighted: true
  }
}
layer {
  name: "detection_accuracy_4_3x5"
  type: "DetectionAccuracy"
  bottom: "LFCN_4_3x5"
  bottom: "label_4_3x5"
  top: "accuracy_4_3x5"
  top: "boxiou_4_3x5"
  detection_accuracy_param {
    cls_num: 3
    coord_num: 4
    field_h: 480
    field_w: 320
    downsample_rate: 64
    field_whr: 2
    field_xyr: 2
  }
}
layer {
  name: "proposals"
  type: "BoxOutput"
  bottom: "LFCN_1_3x5"
  bottom: "LFCN_1_5x7"
  bottom: "LFCN_2_3x5"
  bottom: "LFCN_2_5x7"
  bottom: "LFCN_3_3x5"
  bottom: "LFCN_3_5x7"
  bottom: "LFCN_4_3x5"
  top: "proposals"
  propagate_down: false
  propagate_down: false
  propagate_down: false
  propagate_down: false
  propagate_down: false
  propagate_down: false
  propagate_down: false
  box_output_param {
    fg_thr: -15
    iou_thr: 0.65
    nms_type: "IOU"
    field_h: 60
    field_h: 84
    field_h: 120
    field_h: 168
    field_h: 240
    field_h: 336
    field_h: 480
    field_w: 40
    field_w: 56
    field_w: 80
    field_w: 112
    field_w: 160
    field_w: 224
    field_w: 320
    downsample_rate: 8
    downsample_rate: 8
    downsample_rate: 16
    downsample_rate: 16
    downsample_rate: 32
    downsample_rate: 32
    downsample_rate: 64
    field_whr: 2
    field_xyr: 2
    max_nms_num: 3000
  }
}
layer {
  name: "proposal_info"
  type: "ProposalTarget"
  bottom: "proposals"
  bottom: "gt_boxes"
  top: "rois"
  top: "proposal_labels"
  top: "proposal_targets"
  top: "box_inside_weights"
  top: "box_outside_weights"
  top: "match_gt_boxes"
  include {
    phase: TRAIN
  }
  propagate_down: false
  propagate_down: false
  proposal_target_param {
    cls_num: 3
    batch_size: 128
    fg_fraction: 0.25
    num_img_per_batch: 4
    fg_thr: 0.5
    bg_thr_hg: 0.45
    bg_thr_lw: 0.05
    img_width: 768
    img_height: 576
  }
  bbox_reg_param {
    bbox_mean: 0
    bbox_mean: 0
    bbox_mean: 0
    bbox_mean: 0
    bbox_std: 0.1
    bbox_std: 0.1
    bbox_std: 0.2
    bbox_std: 0.2
  }
}
layer {
  name: "conv4_3_2x"
  type: "Deconvolution"
  bottom: "conv4_3"
  top: "conv4_3_2x"
  param {
    lr_mult: 0
    decay_mult: 0
  }
  convolution_param {
    num_output: 512
    bias_term: false
    pad: 1
    kernel_size: 4
    group: 512
    stride: 2
    weight_filler {
      type: "bilinear"
    }
  }
}
layer {
  name: "roi_pool_org"
  type: "ROIPooling"
  bottom: "conv4_3_2x"
  bottom: "rois"
  top: "roi_pool_org"
  roi_pooling_param {
    pooled_h: 7
    pooled_w: 5
    spatial_scale: 0.25
    pad_ratio: 0
  }
}
layer {
  name: "roi_pool_ctx"
  type: "ROIPooling"
  bottom: "conv4_3_2x"
  bottom: "rois"
  top: "roi_pool_ctx"
  roi_pooling_param {
    pooled_h: 7
    pooled_w: 5
    spatial_scale: 0.25
    pad_ratio: 0.25
  }
}
layer {
  name: "roi_pool"
  type: "Concat"
  bottom: "roi_pool_org"
  bottom: "roi_pool_ctx"
  top: "roi_pool"
}
layer {
  name: "roi_c1"
  type: "Convolution"
  bottom: "roi_pool"
  top: "roi_c1"
  param {
    lr_mult: 1
    decay_mult: 1
  }
  param {
    lr_mult: 2
    decay_mult: 0
  }
  convolution_param {
    num_output: 512
    kernel_size: 3
    weight_filler {
      type: "gaussian"
      std: 0.01
    }
    bias_filler {
      type: "constant"
    }
  }
}
layer {
  name: "roi_c1_relu"
  type: "ReLU"
  bottom: "roi_c1"
  top: "roi_c1"
}
layer {
  name: "fc6"
  type: "InnerProduct"
  bottom: "roi_c1"
  top: "fc6"
  param {
    lr_mult: 1
  }
  param {
    lr_mult: 2
  }
  inner_product_param {
    num_output: 2048
    weight_filler {
      type: "gaussian"
      std: 0.001
    }
    bias_filler {
      type: "constant"
      value: 0
    }
  }
}
layer {
  name: "relu6"
  type: "ReLU"
  bottom: "fc6"
  top: "fc6"
}
layer {
  name: "drop6"
  type: "Dropout"
  bottom: "fc6"
  top: "fc6"
  dropout_param {
    dropout_ratio: 0.5
  }
}
layer {
  name: "cls_pred"
  type: "InnerProduct"
  bottom: "fc6"
  top: "cls_pred"
  param {
    lr_mult: 1
  }
  param {
    lr_mult: 2
  }
  inner_product_param {
    num_output: 3
    weight_filler {
      type: "gaussian"
      std: 0.01
    }
    bias_filler {
      type: "constant"
      value: 0
    }
  }
}
layer {
  name: "bbox_pred"
  type: "InnerProduct"
  bottom: "fc6"
  top: "bbox_pred"
  param {
    lr_mult: 1
  }
  param {
    lr_mult: 2
  }
  inner_product_param {
    num_output: 12
    weight_filler {
      type: "gaussian"
      std: 0.001
    }
    bias_filler {
      type: "constant"
      value: 0
    }
  }
}
layer {
  name: "loss_cls"
  type: "SoftmaxWithLoss"
  bottom: "cls_pred"
  bottom: "proposal_labels"
  top: "loss_cls"
  loss_weight: 1
  propagate_down: true
  propagate_down: false
}
layer {
  name: "cls_accuracy"
  type: "Accuracy"
  bottom: "cls_pred"
  bottom: "proposal_labels"
  top: "cls_accuracy"
}
layer {
  name: "loss_bbox"
  type: "SmoothL1Loss"
  bottom: "bbox_pred"
  bottom: "proposal_targets"
  bottom: "box_inside_weights"
  bottom: "box_outside_weights"
  top: "loss_bbox"
  loss_weight: 1
}
layer {
  name: "bbox_iou"
  type: "BboxAccuracy"
  bottom: "bbox_pred"
  bottom: "rois"
  bottom: "match_gt_boxes"
  top: "bbox_iou"
  top: "bbox_iou_pre"
  bbox_reg_param {
    bbox_mean: 0
    bbox_mean: 0
    bbox_mean: 0
    bbox_mean: 0
    bbox_std: 0.1
    bbox_std: 0.1
    bbox_std: 0.2
    bbox_std: 0.2
  }
}
I0629 23:42:32.369104 28434 layer_factory.hpp:77] Creating layer data
I0629 23:42:32.369134 28434 net.cpp:100] Creating Layer data
I0629 23:42:32.369140 28434 net.cpp:408] data -> data
…
I0629 23:42:32.390187 28434 image_gt_data_layer.cpp:241] output label size 3 : 4,6,36,48
I0629 23:42:32.390228 28434 image_gt_data_layer.cpp:241] output label size 4 : 4,6,18,24
I0629 23:42:32.390275 28434 image_gt_data_layer.cpp:241] output label size 5 : 4,6,18,24
I0629 23:42:32.390329 28434 image_gt_data_layer.cpp:241] output label size 6 : 4,6,9,12
I0629 23:42:32.390372 28434 image_gt_data_layer.cpp:256] output gt boxes size: 1,7,1,1
I0629 23:42:32.390377 28434 image_gt_data_layer.cpp:265]  --> has_mean_values_ = 1
I0629 23:42:32.431047 28434 net.cpp:150] Setting up data
I0629 23:42:32.431066 28434 net.cpp:157] Top shape: 4 4 576 768 (7077888)
I0629 23:42:32.431068 28434 net.cpp:157] Top shape: 4 6 72 96 (165888)
I0629 23:42:32.431071 28434 net.cpp:157] Top shape: 4 6 72 96 (165888)
I0629 23:42:32.431076 28434 net.cpp:157] Top shape: 4 6 36 48 (41472)
I0629 23:42:32.431078 28434 net.cpp:157] Top shape: 4 6 36 48 (41472)
I0629 23:42:32.431082 28434 net.cpp:157] Top shape: 4 6 18 24 (10368)
I0629 23:42:32.431085 28434 net.cpp:157] Top shape: 4 6 18 24 (10368)
I0629 23:42:32.431089 28434 net.cpp:157] Top shape: 4 6 9 12 (2592)
I0629 23:42:32.431092 28434 net.cpp:157] Top shape: 1 7 1 1 (7)
I0629 23:42:32.431095 28434 net.cpp:165] Memory required for data: 30063772
I0629 23:42:32.431102 28434 layer_factory.hpp:77] Creating layer label_1_3x5_data_1_split
I0629 23:42:32.431116 28434 net.cpp:100] Creating Layer label_1_3x5_data_1_split
I0629 23:42:32.431123 28434 net.cpp:434] label_1_3x5_data_1_split <- label_1_3x5
I0629 23:42:32.431135 28434 net.cpp:408] label_1_3x5_data_1_split -> label_1_3x5_data_1_split_0
I0629 23:42:32.431144 28434 net.cpp:408] label_1_3x5_data_1_split -> label_1_3x5_data_1_split_1
I0629 23:42:32.431193 28434 net.cpp:150] Setting up label_1_3x5_data_1_split
I0629 23:42:32.431217 28434 net.cpp:157] Top shape: 4 6 72 96 (165888)
I0629 23:42:32.431229 28434 net.cpp:157] Top shape: 4 6 72 96 (165888)
I0629 23:42:32.431238 28434 net.cpp:165] Memory required for data: 31390876
I0629 23:42:32.431257 28434 layer_factory.hpp:77] Creating layer label_1_5x7_data_2_split
I0629 23:42:32.431264 28434 net.cpp:100] Creating Layer label_1_5x7_data_2_split
I0629 23:42:32.431267 28434 net.cpp:434] label_1_5x7_data_2_split <- label_1_5x7
I0629 23:42:32.431274 28434 net.cpp:408] label_1_5x7_data_2_split -> label_1_5x7_data_2_split_0
I0629 23:42:32.431289 28434 net.cpp:408] label_1_5x7_data_2_split -> label_1_5x7_data_2_split_1
I0629 23:42:32.431322 28434 net.cpp:150] Setting up label_1_5x7_data_2_split
I0629 23:42:32.431327 28434 net.cpp:157] Top shape: 4 6 72 96 (165888)
I0629 23:42:32.431331 28434 net.cpp:157] Top shape: 4 6 72 96 (165888)
I0629 23:42:32.431334 28434 net.cpp:165] Memory required for data: 32717980
I0629 23:42:32.431337 28434 layer_factory.hpp:77] Creating layer label_2_3x5_data_3_split
I0629 23:42:32.431341 28434 net.cpp:100] Creating Layer label_2_3x5_data_3_split
I0629 23:42:32.431344 28434 net.cpp:434] label_2_3x5_data_3_split <- label_2_3x5
I0629 23:42:32.431351 28434 net.cpp:408] label_2_3x5_data_3_split -> label_2_3x5_data_3_split_0
I0629 23:42:32.431357 28434 net.cpp:408] label_2_3x5_data_3_split -> label_2_3x5_data_3_split_1
I0629 23:42:32.431396 28434 net.cpp:150] Setting up label_2_3x5_data_3_split
I0629 23:42:32.431402 28434 net.cpp:157] Top shape: 4 6 36 48 (41472)
I0629 23:42:32.431406 28434 net.cpp:157] Top shape: 4 6 36 48 (41472)
I0629 23:42:32.431408 28434 net.cpp:165] Memory required for data: 33049756
I0629 23:42:32.431411 28434 layer_factory.hpp:77] Creating layer label_2_5x7_data_4_split
I0629 23:42:32.431418 28434 net.cpp:100] Creating Layer label_2_5x7_data_4_split
I0629 23:42:32.431428 28434 net.cpp:434] label_2_5x7_data_4_split <- label_2_5x7
I0629 23:42:32.431434 28434 net.cpp:408] label_2_5x7_data_4_split -> label_2_5x7_data_4_split_0
I0629 23:42:32.431440 28434 net.cpp:408] label_2_5x7_data_4_split -> label_2_5x7_data_4_split_1
I0629 23:42:32.431469 28434 net.cpp:150] Setting up label_2_5x7_data_4_split
I0629 23:42:32.431474 28434 net.cpp:157] Top shape: 4 6 36 48 (41472)
I0629 23:42:32.431478 28434 net.cpp:157] Top shape: 4 6 36 48 (41472)
I0629 23:42:32.431481 28434 net.cpp:165] Memory required for data: 33381532
I0629 23:42:32.431484 28434 layer_factory.hpp:77] Creating layer label_3_3x5_data_5_split
I0629 23:42:32.431489 28434 net.cpp:100] Creating Layer label_3_3x5_data_5_split
I0629 23:42:32.431500 28434 net.cpp:434] label_3_3x5_data_5_split <- label_3_3x5
I0629 23:42:32.431505 28434 net.cpp:408] label_3_3x5_data_5_split -> label_3_3x5_data_5_split_0
I0629 23:42:32.431511 28434 net.cpp:408] label_3_3x5_data_5_split -> label_3_3x5_data_5_split_1
I0629 23:42:32.431540 28434 net.cpp:150] Setting up label_3_3x5_data_5_split
I0629 23:42:32.431545 28434 net.cpp:157] Top shape: 4 6 18 24 (10368)
I0629 23:42:32.431550 28434 net.cpp:157] Top shape: 4 6 18 24 (10368)
I0629 23:42:32.431552 28434 net.cpp:165] Memory required for data: 33464476
I0629 23:42:32.431555 28434 layer_factory.hpp:77] Creating layer label_3_5x7_data_6_split
I0629 23:42:32.431560 28434 net.cpp:100] Creating Layer label_3_5x7_data_6_split
I0629 23:42:32.431562 28434 net.cpp:434] label_3_5x7_data_6_split <- label_3_5x7
I0629 23:42:32.431566 28434 net.cpp:408] label_3_5x7_data_6_split -> label_3_5x7_data_6_split_0
I0629 23:42:32.431576 28434 net.cpp:408] label_3_5x7_data_6_split -> label_3_5x7_data_6_split_1
I0629 23:42:32.433892 28434 net.cpp:150] Setting up label_3_5x7_data_6_split
I0629 23:42:32.433926 28434 net.cpp:157] Top shape: 4 6 18 24 (10368)
I0629 23:42:32.433931 28434 net.cpp:157] Top shape: 4 6 18 24 (10368)
I0629 23:42:32.433933 28434 net.cpp:165] Memory required for data: 33547420
I0629 23:42:32.433943 28434 layer_factory.hpp:77] Creating layer label_4_3x5_data_7_split
I0629 23:42:32.433972 28434 net.cpp:100] Creating Layer label_4_3x5_data_7_split
I0629 23:42:32.433982 28434 net.cpp:434] label_4_3x5_data_7_split <- label_4_3x5
I0629 23:42:32.433995 28434 net.cpp:408] label_4_3x5_data_7_split -> label_4_3x5_data_7_split_0
I0629 23:42:32.434006 28434 net.cpp:408] label_4_3x5_data_7_split -> label_4_3x5_data_7_split_1
I0629 23:42:32.434068 28434 net.cpp:150] Setting up label_4_3x5_data_7_split
I0629 23:42:32.434078 28434 net.cpp:157] Top shape: 4 6 9 12 (2592)
I0629 23:42:32.434082 28434 net.cpp:157] Top shape: 4 6 9 12 (2592)
I0629 23:42:32.434087 28434 net.cpp:165] Memory required for data: 33568156
I0629 23:42:32.434090 28434 layer_factory.hpp:77] Creating layer conv1_1
I0629 23:42:32.434120 28434 net.cpp:100] Creating Layer conv1_1
I0629 23:42:32.434126 28434 net.cpp:434] conv1_1 <- data
I0629 23:42:32.434134 28434 net.cpp:408] conv1_1 -> conv1_1
I0629 23:42:32.972719 28434 net.cpp:150] Setting up conv1_1
I0629 23:42:32.972743 28434 net.cpp:157] Top shape: 4 64 576 768 (113246208)
I0629 23:42:32.972745 28434 net.cpp:165] Memory required for data: 486552988
I0629 23:42:32.972767 28434 layer_factory.hpp:77] Creating layer relu1_1
I0629 23:42:32.972776 28434 net.cpp:100] Creating Layer relu1_1
I0629 23:42:32.972781 28434 net.cpp:434] relu1_1 <- conv1_1
I0629 23:42:32.972789 28434 net.cpp:395] relu1_1 -> conv1_1 (in-place)
I0629 23:42:32.973105 28434 net.cpp:150] Setting up relu1_1
I0629 23:42:32.973114 28434 net.cpp:157] Top shape: 4 64 576 768 (113246208)
I0629 23:42:32.973117 28434 net.cpp:165] Memory required for data: 939537820
I0629 23:42:32.973121 28434 layer_factory.hpp:77] Creating layer conv1_2
I0629 23:42:32.973130 28434 net.cpp:100] Creating Layer conv1_2
I0629 23:42:32.973134 28434 net.cpp:434] conv1_2 <- conv1_1
I0629 23:42:32.973140 28434 net.cpp:408] conv1_2 -> conv1_2
I0629 23:42:32.976068 28434 net.cpp:150] Setting up conv1_2
I0629 23:42:32.976089 28434 net.cpp:157] Top shape: 4 64 576 768 (113246208)
I0629 23:42:32.976092 28434 net.cpp:165] Memory required for data: 1392522652
I0629 23:42:32.976106 28434 layer_factory.hpp:77] Creating layer relu1_2
I0629 23:42:32.976115 28434 net.cpp:100] Creating Layer relu1_2
I0629 23:42:32.976120 28434 net.cpp:434] relu1_2 <- conv1_2
I0629 23:42:32.976128 28434 net.cpp:395] relu1_2 -> conv1_2 (in-place)
I0629 23:42:32.976439 28434 net.cpp:150] Setting up relu1_2
I0629 23:42:32.976447 28434 net.cpp:157] Top shape: 4 64 576 768 (113246208)
I0629 23:42:32.976450 28434 net.cpp:165] Memory required for data: 1845507484
I0629 23:42:32.976454 28434 layer_factory.hpp:77] Creating layer pool1
I0629 23:42:32.976460 28434 net.cpp:100] Creating Layer pool1
I0629 23:42:32.976464 28434 net.cpp:434] pool1 <- conv1_2
I0629 23:42:32.976470 28434 net.cpp:408] pool1 -> pool1
I0629 23:42:32.976526 28434 net.cpp:150] Setting up pool1
I0629 23:42:32.976531 28434 net.cpp:157] Top shape: 4 64 288 384 (28311552)
I0629 23:42:32.976533 28434 net.cpp:165] Memory required for data: 1958753692
I0629 23:42:32.976536 28434 layer_factory.hpp:77] Creating layer conv2_1
I0629 23:42:32.976544 28434 net.cpp:100] Creating Layer conv2_1
I0629 23:42:32.976548 28434 net.cpp:434] conv2_1 <- pool1
I0629 23:42:32.976553 28434 net.cpp:408] conv2_1 -> conv2_1
I0629 23:42:32.979074 28434 net.cpp:150] Setting up conv2_1
I0629 23:42:32.979095 28434 net.cpp:157] Top shape: 4 128 288 384 (56623104)
I0629 23:42:32.979099 28434 net.cpp:165] Memory required for data: 2185246108
I0629 23:42:32.979115 28434 layer_factory.hpp:77] Creating layer relu2_1
I0629 23:42:32.979125 28434 net.cpp:100] Creating Layer relu2_1
I0629 23:42:32.979130 28434 net.cpp:434] relu2_1 <- conv2_1
I0629 23:42:32.979137 28434 net.cpp:395] relu2_1 -> conv2_1 (in-place)
I0629 23:42:32.979804 28434 net.cpp:150] Setting up relu2_1
I0629 23:42:32.979815 28434 net.cpp:157] Top shape: 4 128 288 384 (56623104)
I0629 23:42:32.979817 28434 net.cpp:165] Memory required for data: 2411738524
I0629 23:42:32.979821 28434 layer_factory.hpp:77] Creating layer conv2_2
I0629 23:42:32.979830 28434 net.cpp:100] Creating Layer conv2_2
I0629 23:42:32.979835 28434 net.cpp:434] conv2_2 <- conv2_1
I0629 23:42:32.979840 28434 net.cpp:408] conv2_2 -> conv2_2
I0629 23:42:32.981629 28434 net.cpp:150] Setting up conv2_2
I0629 23:42:32.981644 28434 net.cpp:157] Top shape: 4 128 288 384 (56623104)
I0629 23:42:32.981647 28434 net.cpp:165] Memory required for data: 2638230940
I0629 23:42:32.981655 28434 layer_factory.hpp:77] Creating layer relu2_2
I0629 23:42:32.981665 28434 net.cpp:100] Creating Layer relu2_2
I0629 23:42:32.981670 28434 net.cpp:434] relu2_2 <- conv2_2
I0629 23:42:32.981676 28434 net.cpp:395] relu2_2 -> conv2_2 (in-place)
I0629 23:42:32.982311 28434 net.cpp:150] Setting up relu2_2
I0629 23:42:32.982319 28434 net.cpp:157] Top shape: 4 128 288 384 (56623104)
I0629 23:42:32.982322 28434 net.cpp:165] Memory required for data: 2864723356
I0629 23:42:32.982326 28434 layer_factory.hpp:77] Creating layer pool2
I0629 23:42:32.982333 28434 net.cpp:100] Creating Layer pool2
I0629 23:42:32.982337 28434 net.cpp:434] pool2 <- conv2_2
I0629 23:42:32.982343 28434 net.cpp:408] pool2 -> pool2
I0629 23:42:32.982385 28434 net.cpp:150] Setting up pool2
I0629 23:42:32.982390 28434 net.cpp:157] Top shape: 4 128 144 192 (14155776)
I0629 23:42:32.982393 28434 net.cpp:165] Memory required for data: 2921346460
I0629 23:42:32.982396 28434 layer_factory.hpp:77] Creating layer conv3_1
I0629 23:42:32.982403 28434 net.cpp:100] Creating Layer conv3_1
I0629 23:42:32.982408 28434 net.cpp:434] conv3_1 <- pool2
I0629 23:42:32.982412 28434 net.cpp:408] conv3_1 -> conv3_1
I0629 23:42:32.985090 28434 net.cpp:150] Setting up conv3_1
I0629 23:42:32.985110 28434 net.cpp:157] Top shape: 4 256 144 192 (28311552)
I0629 23:42:32.985113 28434 net.cpp:165] Memory required for data: 3034592668
I0629 23:42:32.985128 28434 layer_factory.hpp:77] Creating layer relu3_1
I0629 23:42:32.985139 28434 net.cpp:100] Creating Layer relu3_1
I0629 23:42:32.985144 28434 net.cpp:434] relu3_1 <- conv3_1
I0629 23:42:32.985150 28434 net.cpp:395] relu3_1 -> conv3_1 (in-place)
I0629 23:42:32.985451 28434 net.cpp:150] Setting up relu3_1
I0629 23:42:32.985461 28434 net.cpp:157] Top shape: 4 256 144 192 (28311552)
I0629 23:42:32.985463 28434 net.cpp:165] Memory required for data: 3147838876
I0629 23:42:32.985467 28434 layer_factory.hpp:77] Creating layer conv3_2
I0629 23:42:32.985476 28434 net.cpp:100] Creating Layer conv3_2
I0629 23:42:32.985481 28434 net.cpp:434] conv3_2 <- conv3_1
I0629 23:42:32.985486 28434 net.cpp:408] conv3_2 -> conv3_2
I0629 23:42:32.988929 28434 net.cpp:150] Setting up conv3_2
I0629 23:42:32.988946 28434 net.cpp:157] Top shape: 4 256 144 192 (28311552)
I0629 23:42:32.988950 28434 net.cpp:165] Memory required for data: 3261085084
I0629 23:42:32.988960 28434 layer_factory.hpp:77] Creating layer relu3_2
I0629 23:42:32.988967 28434 net.cpp:100] Creating Layer relu3_2
I0629 23:42:32.988977 28434 net.cpp:434] relu3_2 <- conv3_2
I0629 23:42:32.988986 28434 net.cpp:395] relu3_2 -> conv3_2 (in-place)
I0629 23:42:32.989246 28434 net.cpp:150] Setting up relu3_2
I0629 23:42:32.989259 28434 net.cpp:157] Top shape: 4 256 144 192 (28311552)
I0629 23:42:32.989261 28434 net.cpp:165] Memory required for data: 3374331292
I0629 23:42:32.989270 28434 layer_factory.hpp:77] Creating layer conv3_3
I0629 23:42:32.989279 28434 net.cpp:100] Creating Layer conv3_3
I0629 23:42:32.989284 28434 net.cpp:434] conv3_3 <- conv3_2
I0629 23:42:32.989289 28434 net.cpp:408] conv3_3 -> conv3_3
I0629 23:42:32.992295 28434 net.cpp:150] Setting up conv3_3
I0629 23:42:32.992316 28434 net.cpp:157] Top shape: 4 256 144 192 (28311552)
I0629 23:42:32.992318 28434 net.cpp:165] Memory required for data: 3487577500
I0629 23:42:32.992327 28434 layer_factory.hpp:77] Creating layer relu3_3
I0629 23:42:32.992337 28434 net.cpp:100] Creating Layer relu3_3
I0629 23:42:32.992342 28434 net.cpp:434] relu3_3 <- conv3_3
I0629 23:42:32.992348 28434 net.cpp:395] relu3_3 -> conv3_3 (in-place)
I0629 23:42:32.993058 28434 net.cpp:150] Setting up relu3_3
I0629 23:42:32.993067 28434 net.cpp:157] Top shape: 4 256 144 192 (28311552)
I0629 23:42:32.993069 28434 net.cpp:165] Memory required for data: 3600823708
I0629 23:42:32.993072 28434 layer_factory.hpp:77] Creating layer pool3
I0629 23:42:32.993078 28434 net.cpp:100] Creating Layer pool3
I0629 23:42:32.993080 28434 net.cpp:434] pool3 <- conv3_3
I0629 23:42:32.993084 28434 net.cpp:408] pool3 -> pool3
I0629 23:42:32.993134 28434 net.cpp:150] Setting up pool3
I0629 23:42:32.993141 28434 net.cpp:157] Top shape: 4 256 72 96 (7077888)
I0629 23:42:32.993144 28434 net.cpp:165] Memory required for data: 3629135260
I0629 23:42:32.993147 28434 layer_factory.hpp:77] Creating layer conv4_1
I0629 23:42:32.993155 28434 net.cpp:100] Creating Layer conv4_1
I0629 23:42:32.993158 28434 net.cpp:434] conv4_1 <- pool3
I0629 23:42:32.993163 28434 net.cpp:408] conv4_1 -> conv4_1
I0629 23:42:32.997997 28434 net.cpp:150] Setting up conv4_1
I0629 23:42:32.998013 28434 net.cpp:157] Top shape: 4 512 72 96 (14155776)
I0629 23:42:32.998016 28434 net.cpp:165] Memory required for data: 3685758364
I0629 23:42:32.998023 28434 layer_factory.hpp:77] Creating layer relu4_1
I0629 23:42:32.998029 28434 net.cpp:100] Creating Layer relu4_1
I0629 23:42:32.998033 28434 net.cpp:434] relu4_1 <- conv4_1
I0629 23:42:32.998036 28434 net.cpp:395] relu4_1 -> conv4_1 (in-place)
I0629 23:42:32.998351 28434 net.cpp:150] Setting up relu4_1
I0629 23:42:32.998360 28434 net.cpp:157] Top shape: 4 512 72 96 (14155776)
I0629 23:42:32.998363 28434 net.cpp:165] Memory required for data: 3742381468
I0629 23:42:32.998366 28434 layer_factory.hpp:77] Creating layer conv4_2
I0629 23:42:32.998375 28434 net.cpp:100] Creating Layer conv4_2
I0629 23:42:32.998378 28434 net.cpp:434] conv4_2 <- conv4_1
I0629 23:42:32.998383 28434 net.cpp:408] conv4_2 -> conv4_2
I0629 23:42:33.004130 28434 net.cpp:150] Setting up conv4_2
I0629 23:42:33.004150 28434 net.cpp:157] Top shape: 4 512 72 96 (14155776)
I0629 23:42:33.004153 28434 net.cpp:165] Memory required for data: 3799004572
I0629 23:42:33.004163 28434 layer_factory.hpp:77] Creating layer relu4_2
I0629 23:42:33.004170 28434 net.cpp:100] Creating Layer relu4_2
I0629 23:42:33.004173 28434 net.cpp:434] relu4_2 <- conv4_2
I0629 23:42:33.004179 28434 net.cpp:395] relu4_2 -> conv4_2 (in-place)
I0629 23:42:33.004423 28434 net.cpp:150] Setting up relu4_2
I0629 23:42:33.004431 28434 net.cpp:157] Top shape: 4 512 72 96 (14155776)
I0629 23:42:33.004431 28434 net.cpp:165] Memory required for data: 3855627676
I0629 23:42:33.004434 28434 layer_factory.hpp:77] Creating layer conv4_3
I0629 23:42:33.004443 28434 net.cpp:100] Creating Layer conv4_3
I0629 23:42:33.004447 28434 net.cpp:434] conv4_3 <- conv4_2
I0629 23:42:33.004452 28434 net.cpp:408] conv4_3 -> conv4_3
I0629 23:42:33.010017 28434 net.cpp:150] Setting up conv4_3
I0629 23:42:33.010035 28434 net.cpp:157] Top shape: 4 512 72 96 (14155776)
I0629 23:42:33.010037 28434 net.cpp:165] Memory required for data: 3912250780
I0629 23:42:33.010043 28434 layer_factory.hpp:77] Creating layer relu4_3
I0629 23:42:33.010049 28434 net.cpp:100] Creating Layer relu4_3
I0629 23:42:33.010052 28434 net.cpp:434] relu4_3 <- conv4_3
I0629 23:42:33.010058 28434 net.cpp:395] relu4_3 -> conv4_3 (in-place)
I0629 23:42:33.010740 28434 net.cpp:150] Setting up relu4_3
I0629 23:42:33.010751 28434 net.cpp:157] Top shape: 4 512 72 96 (14155776)
I0629 23:42:33.010752 28434 net.cpp:165] Memory required for data: 3968873884
I0629 23:42:33.010756 28434 layer_factory.hpp:77] Creating layer conv4_3_relu4_3_0_split
I0629 23:42:33.010761 28434 net.cpp:100] Creating Layer conv4_3_relu4_3_0_split
I0629 23:42:33.010763 28434 net.cpp:434] conv4_3_relu4_3_0_split <- conv4_3
I0629 23:42:33.010768 28434 net.cpp:408] conv4_3_relu4_3_0_split -> conv4_3_relu4_3_0_split_0
I0629 23:42:33.010774 28434 net.cpp:408] conv4_3_relu4_3_0_split -> conv4_3_relu4_3_0_split_1
I0629 23:42:33.010781 28434 net.cpp:408] conv4_3_relu4_3_0_split -> conv4_3_relu4_3_0_split_2
I0629 23:42:33.010833 28434 net.cpp:150] Setting up conv4_3_relu4_3_0_split
I0629 23:42:33.010838 28434 net.cpp:157] Top shape: 4 512 72 96 (14155776)
I0629 23:42:33.010840 28434 net.cpp:157] Top shape: 4 512 72 96 (14155776)
I0629 23:42:33.010843 28434 net.cpp:157] Top shape: 4 512 72 96 (14155776)
I0629 23:42:33.010845 28434 net.cpp:165] Memory required for data: 4138743196
I0629 23:42:33.010849 28434 layer_factory.hpp:77] Creating layer loss1_conv1
I0629 23:42:33.010864 28434 net.cpp:100] Creating Layer loss1_conv1
I0629 23:42:33.010867 28434 net.cpp:434] loss1_conv1 <- conv4_3_relu4_3_0_split_0
I0629 23:42:33.010871 28434 net.cpp:408] loss1_conv1 -> loss1_conv1
I0629 23:42:33.044698 28434 net.cpp:150] Setting up loss1_conv1
I0629 23:42:33.044714 28434 net.cpp:157] Top shape: 4 512 72 96 (14155776)
I0629 23:42:33.044718 28434 net.cpp:165] Memory required for data: 4195366300
I0629 23:42:33.044723 28434 layer_factory.hpp:77] Creating layer loss_relu1
I0629 23:42:33.044730 28434 net.cpp:100] Creating Layer loss_relu1
I0629 23:42:33.044734 28434 net.cpp:434] loss_relu1 <- loss1_conv1
I0629 23:42:33.044739 28434 net.cpp:395] loss_relu1 -> loss1_conv1 (in-place)
I0629 23:42:33.044988 28434 net.cpp:150] Setting up loss_relu1
I0629 23:42:33.044997 28434 net.cpp:157] Top shape: 4 512 72 96 (14155776)
I0629 23:42:33.045001 28434 net.cpp:165] Memory required for data: 4251989404
I0629 23:42:33.045003 28434 layer_factory.hpp:77] Creating layer loss1_conv1_loss_relu1_0_split
I0629 23:42:33.045011 28434 net.cpp:100] Creating Layer loss1_conv1_loss_relu1_0_split
I0629 23:42:33.045014 28434 net.cpp:434] loss1_conv1_loss_relu1_0_split <- loss1_conv1
I0629 23:42:33.045020 28434 net.cpp:408] loss1_conv1_loss_relu1_0_split -> loss1_conv1_loss_relu1_0_split_0
I0629 23:42:33.045027 28434 net.cpp:408] loss1_conv1_loss_relu1_0_split -> loss1_conv1_loss_relu1_0_split_1
I0629 23:42:33.045079 28434 net.cpp:150] Setting up loss1_conv1_loss_relu1_0_split
I0629 23:42:33.045085 28434 net.cpp:157] Top shape: 4 512 72 96 (14155776)
I0629 23:42:33.045089 28434 net.cpp:157] Top shape: 4 512 72 96 (14155776)
I0629 23:42:33.045091 28434 net.cpp:165] Memory required for data: 4365235612
I0629 23:42:33.045095 28434 layer_factory.hpp:77] Creating layer LFCN_1_3x5
I0629 23:42:33.045104 28434 net.cpp:100] Creating Layer LFCN_1_3x5
I0629 23:42:33.045107 28434 net.cpp:434] LFCN_1_3x5 <- loss1_conv1_loss_relu1_0_split_0
I0629 23:42:33.045114 28434 net.cpp:408] LFCN_1_3x5 -> LFCN_1_3x5
I0629 23:42:33.047333 28434 net.cpp:150] Setting up LFCN_1_3x5
I0629 23:42:33.047348 28434 net.cpp:157] Top shape: 4 7 72 96 (193536)
I0629 23:42:33.047351 28434 net.cpp:165] Memory required for data: 4366009756
I0629 23:42:33.047360 28434 layer_factory.hpp:77] Creating layer LFCN_1_3x5_LFCN_1_3x5_0_split
I0629 23:42:33.047370 28434 net.cpp:100] Creating Layer LFCN_1_3x5_LFCN_1_3x5_0_split
I0629 23:42:33.047374 28434 net.cpp:434] LFCN_1_3x5_LFCN_1_3x5_0_split <- LFCN_1_3x5
I0629 23:42:33.047382 28434 net.cpp:408] LFCN_1_3x5_LFCN_1_3x5_0_split -> LFCN_1_3x5_LFCN_1_3x5_0_split_0
I0629 23:42:33.047392 28434 net.cpp:408] LFCN_1_3x5_LFCN_1_3x5_0_split -> LFCN_1_3x5_LFCN_1_3x5_0_split_1
I0629 23:42:33.047399 28434 net.cpp:408] LFCN_1_3x5_LFCN_1_3x5_0_split -> LFCN_1_3x5_LFCN_1_3x5_0_split_2
I0629 23:42:33.047451 28434 net.cpp:150] Setting up LFCN_1_3x5_LFCN_1_3x5_0_split
I0629 23:42:33.047456 28434 net.cpp:157] Top shape: 4 7 72 96 (193536)
I0629 23:42:33.047461 28434 net.cpp:157] Top shape: 4 7 72 96 (193536)
I0629 23:42:33.047464 28434 net.cpp:157] Top shape: 4 7 72 96 (193536)
I0629 23:42:33.047466 28434 net.cpp:165] Memory required for data: 4368332188
I0629 23:42:33.047469 28434 layer_factory.hpp:77] Creating layer detection_loss_1_3x5
I0629 23:42:33.047478 28434 net.cpp:100] Creating Layer detection_loss_1_3x5
I0629 23:42:33.047482 28434 net.cpp:434] detection_loss_1_3x5 <- LFCN_1_3x5_LFCN_1_3x5_0_split_0
I0629 23:42:33.047487 28434 net.cpp:434] detection_loss_1_3x5 <- label_1_3x5_data_1_split_0
I0629 23:42:33.047492 28434 net.cpp:408] detection_loss_1_3x5 -> loss_1_3x5
I0629 23:42:33.047505 28434 layer_factory.hpp:77] Creating layer detection_loss_1_3x5
I0629 23:42:33.047963 28434 net.cpp:150] Setting up detection_loss_1_3x5
I0629 23:42:33.047973 28434 net.cpp:157] Top shape: 1 1 1 2 (2)
I0629 23:42:33.047976 28434 net.cpp:160]     with loss weight 0.5
I0629 23:42:33.047991 28434 net.cpp:165] Memory required for data: 4368332196
I0629 23:42:33.047996 28434 layer_factory.hpp:77] Creating layer detection_accuracy_1_3x5
I0629 23:42:33.048004 28434 net.cpp:100] Creating Layer detection_accuracy_1_3x5
I0629 23:42:33.048007 28434 net.cpp:434] detection_accuracy_1_3x5 <- LFCN_1_3x5_LFCN_1_3x5_0_split_1
I0629 23:42:33.048013 28434 net.cpp:434] detection_accuracy_1_3x5 <- label_1_3x5_data_1_split_1
I0629 23:42:33.048020 28434 net.cpp:408] detection_accuracy_1_3x5 -> accuracy_1_3x5
I0629 23:42:33.048029 28434 net.cpp:408] detection_accuracy_1_3x5 -> boxiou_1_3x5
I0629 23:42:33.048070 28434 net.cpp:150] Setting up detection_accuracy_1_3x5
I0629 23:42:33.048077 28434 net.cpp:157] Top shape: 1 1 1 2 (2)
I0629 23:42:33.048080 28434 net.cpp:157] Top shape: 1 1 1 1 (1)
I0629 23:42:33.048084 28434 net.cpp:165] Memory required for data: 4368332208
I0629 23:42:33.048086 28434 layer_factory.hpp:77] Creating layer LFCN_1_5x7
I0629 23:42:33.048099 28434 net.cpp:100] Creating Layer LFCN_1_5x7
I0629 23:42:33.048102 28434 net.cpp:434] LFCN_1_5x7 <- loss1_conv1_loss_relu1_0_split_1
I0629 23:42:33.048108 28434 net.cpp:408] LFCN_1_5x7 -> LFCN_1_5x7
I0629 23:42:33.050479 28434 net.cpp:150] Setting up LFCN_1_5x7
I0629 23:42:33.050495 28434 net.cpp:157] Top shape: 4 7 72 96 (193536)
I0629 23:42:33.050498 28434 net.cpp:165] Memory required for data: 4369106352
I0629 23:42:33.050506 28434 layer_factory.hpp:77] Creating layer LFCN_1_5x7_LFCN_1_5x7_0_split
I0629 23:42:33.050513 28434 net.cpp:100] Creating Layer LFCN_1_5x7_LFCN_1_5x7_0_split
I0629 23:42:33.050518 28434 net.cpp:434] LFCN_1_5x7_LFCN_1_5x7_0_split <- LFCN_1_5x7
I0629 23:42:33.050525 28434 net.cpp:408] LFCN_1_5x7_LFCN_1_5x7_0_split -> LFCN_1_5x7_LFCN_1_5x7_0_split_0
I0629 23:42:33.050536 28434 net.cpp:408] LFCN_1_5x7_LFCN_1_5x7_0_split -> LFCN_1_5x7_LFCN_1_5x7_0_split_1
I0629 23:42:33.050542 28434 net.cpp:408] LFCN_1_5x7_LFCN_1_5x7_0_split -> LFCN_1_5x7_LFCN_1_5x7_0_split_2
I0629 23:42:33.050591 28434 net.cpp:150] Setting up LFCN_1_5x7_LFCN_1_5x7_0_split
I0629 23:42:33.050596 28434 net.cpp:157] Top shape: 4 7 72 96 (193536)
I0629 23:42:33.050601 28434 net.cpp:157] Top shape: 4 7 72 96 (193536)
I0629 23:42:33.050604 28434 net.cpp:157] Top shape: 4 7 72 96 (193536)
I0629 23:42:33.050606 28434 net.cpp:165] Memory required for data: 4371428784
I0629 23:42:33.050611 28434 layer_factory.hpp:77] Creating layer detection_loss_1_5x7
I0629 23:42:33.050619 28434 net.cpp:100] Creating Layer detection_loss_1_5x7
I0629 23:42:33.050623 28434 net.cpp:434] detection_loss_1_5x7 <- LFCN_1_5x7_LFCN_1_5x7_0_split_0
I0629 23:42:33.050628 28434 net.cpp:434] detection_loss_1_5x7 <- label_1_5x7_data_2_split_0
I0629 23:42:33.050633 28434 net.cpp:408] detection_loss_1_5x7 -> loss_1_5x7
I0629 23:42:33.050644 28434 layer_factory.hpp:77] Creating layer detection_loss_1_5x7
I0629 23:42:33.051537 28434 net.cpp:150] Setting up detection_loss_1_5x7
I0629 23:42:33.051548 28434 net.cpp:157] Top shape: 1 1 1 2 (2)
I0629 23:42:33.051550 28434 net.cpp:160]     with loss weight 0.9
I0629 23:42:33.051559 28434 net.cpp:165] Memory required for data: 4371428792
I0629 23:42:33.051563 28434 layer_factory.hpp:77] Creating layer detection_accuracy_1_5x7
I0629 23:42:33.051571 28434 net.cpp:100] Creating Layer detection_accuracy_1_5x7
I0629 23:42:33.051576 28434 net.cpp:434] detection_accuracy_1_5x7 <- LFCN_1_5x7_LFCN_1_5x7_0_split_1
I0629 23:42:33.051582 28434 net.cpp:434] detection_accuracy_1_5x7 <- label_1_5x7_data_2_split_1
I0629 23:42:33.051590 28434 net.cpp:408] detection_accuracy_1_5x7 -> accuracy_1_5x7
I0629 23:42:33.051599 28434 net.cpp:408] detection_accuracy_1_5x7 -> boxiou_1_5x7
I0629 23:42:33.051637 28434 net.cpp:150] Setting up detection_accuracy_1_5x7
I0629 23:42:33.051650 28434 net.cpp:157] Top shape: 1 1 1 2 (2)
I0629 23:42:33.051654 28434 net.cpp:157] Top shape: 1 1 1 1 (1)
I0629 23:42:33.051656 28434 net.cpp:165] Memory required for data: 4371428804
I0629 23:42:33.051659 28434 layer_factory.hpp:77] Creating layer pool4
I0629 23:42:33.051666 28434 net.cpp:100] Creating Layer pool4
I0629 23:42:33.051669 28434 net.cpp:434] pool4 <- conv4_3_relu4_3_0_split_1
I0629 23:42:33.051677 28434 net.cpp:408] pool4 -> pool4
I0629 23:42:33.051717 28434 net.cpp:150] Setting up pool4
I0629 23:42:33.051722 28434 net.cpp:157] Top shape: 4 512 36 48 (3538944)
I0629 23:42:33.051723 28434 net.cpp:165] Memory required for data: 4385584580
I0629 23:42:33.051724 28434 layer_factory.hpp:77] Creating layer conv5_1
I0629 23:42:33.051730 28434 net.cpp:100] Creating Layer conv5_1
I0629 23:42:33.051733 28434 net.cpp:434] conv5_1 <- pool4
I0629 23:42:33.051738 28434 net.cpp:408] conv5_1 -> conv5_1
I0629 23:42:33.057569 28434 net.cpp:150] Setting up conv5_1
I0629 23:42:33.057588 28434 net.cpp:157] Top shape: 4 512 36 48 (3538944)
I0629 23:42:33.057590 28434 net.cpp:165] Memory required for data: 4399740356
I0629 23:42:33.057598 28434 layer_factory.hpp:77] Creating layer relu5_1
I0629 23:42:33.057610 28434 net.cpp:100] Creating Layer relu5_1
I0629 23:42:33.057615 28434 net.cpp:434] relu5_1 <- conv5_1
I0629 23:42:33.057621 28434 net.cpp:395] relu5_1 -> conv5_1 (in-place)
I0629 23:42:33.058408 28434 net.cpp:150] Setting up relu5_1
I0629 23:42:33.058418 28434 net.cpp:157] Top shape: 4 512 36 48 (3538944)
I0629 23:42:33.058421 28434 net.cpp:165] Memory required for data: 4413896132
I0629 23:42:33.058424 28434 layer_factory.hpp:77] Creating layer conv5_2
I0629 23:42:33.058430 28434 net.cpp:100] Creating Layer conv5_2
I0629 23:42:33.058434 28434 net.cpp:434] conv5_2 <- conv5_1
I0629 23:42:33.058439 28434 net.cpp:408] conv5_2 -> conv5_2
I0629 23:42:33.063973 28434 net.cpp:150] Setting up conv5_2
I0629 23:42:33.063995 28434 net.cpp:157] Top shape: 4 512 36 48 (3538944)
I0629 23:42:33.063997 28434 net.cpp:165] Memory required for data: 4428051908
I0629 23:42:33.064003 28434 layer_factory.hpp:77] Creating layer relu5_2
I0629 23:42:33.064010 28434 net.cpp:100] Creating Layer relu5_2
I0629 23:42:33.064013 28434 net.cpp:434] relu5_2 <- conv5_2
I0629 23:42:33.064019 28434 net.cpp:395] relu5_2 -> conv5_2 (in-place)
I0629 23:42:33.064342 28434 net.cpp:150] Setting up relu5_2
I0629 23:42:33.064352 28434 net.cpp:157] Top shape: 4 512 36 48 (3538944)
I0629 23:42:33.064353 28434 net.cpp:165] Memory required for data: 4442207684
I0629 23:42:33.064357 28434 layer_factory.hpp:77] Creating layer conv5_3
I0629 23:42:33.064366 28434 net.cpp:100] Creating Layer conv5_3
I0629 23:42:33.064370 28434 net.cpp:434] conv5_3 <- conv5_2
I0629 23:42:33.064374 28434 net.cpp:408] conv5_3 -> conv5_3
I0629 23:42:33.070333 28434 net.cpp:150] Setting up conv5_3
I0629 23:42:33.070349 28434 net.cpp:157] Top shape: 4 512 36 48 (3538944)
I0629 23:42:33.070353 28434 net.cpp:165] Memory required for data: 4456363460
I0629 23:42:33.070359 28434 layer_factory.hpp:77] Creating layer relu5_3
I0629 23:42:33.070366 28434 net.cpp:100] Creating Layer relu5_3
I0629 23:42:33.070369 28434 net.cpp:434] relu5_3 <- conv5_3
I0629 23:42:33.070374 28434 net.cpp:395] relu5_3 -> conv5_3 (in-place)
I0629 23:42:33.070698 28434 net.cpp:150] Setting up relu5_3
I0629 23:42:33.070708 28434 net.cpp:157] Top shape: 4 512 36 48 (3538944)
I0629 23:42:33.070711 28434 net.cpp:165] Memory required for data: 4470519236
I0629 23:42:33.070714 28434 layer_factory.hpp:77] Creating layer conv5_3_relu5_3_0_split
I0629 23:42:33.070719 28434 net.cpp:100] Creating Layer conv5_3_relu5_3_0_split
I0629 23:42:33.070722 28434 net.cpp:434] conv5_3_relu5_3_0_split <- conv5_3
I0629 23:42:33.070727 28434 net.cpp:408] conv5_3_relu5_3_0_split -> conv5_3_relu5_3_0_split_0
I0629 23:42:33.070732 28434 net.cpp:408] conv5_3_relu5_3_0_split -> conv5_3_relu5_3_0_split_1
I0629 23:42:33.070736 28434 net.cpp:408] conv5_3_relu5_3_0_split -> conv5_3_relu5_3_0_split_2
I0629 23:42:33.070814 28434 net.cpp:150] Setting up conv5_3_relu5_3_0_split
I0629 23:42:33.070821 28434 net.cpp:157] Top shape: 4 512 36 48 (3538944)
I0629 23:42:33.070823 28434 net.cpp:157] Top shape: 4 512 36 48 (3538944)
I0629 23:42:33.070827 28434 net.cpp:157] Top shape: 4 512 36 48 (3538944)
I0629 23:42:33.070829 28434 net.cpp:165] Memory required for data: 4512986564
I0629 23:42:33.070833 28434 layer_factory.hpp:77] Creating layer LFCN_2_3x5
I0629 23:42:33.070843 28434 net.cpp:100] Creating Layer LFCN_2_3x5
I0629 23:42:33.070847 28434 net.cpp:434] LFCN_2_3x5 <- conv5_3_relu5_3_0_split_0
I0629 23:42:33.070853 28434 net.cpp:408] LFCN_2_3x5 -> LFCN_2_3x5
I0629 23:42:33.072667 28434 net.cpp:150] Setting up LFCN_2_3x5
I0629 23:42:33.072680 28434 net.cpp:157] Top shape: 4 7 36 48 (48384)
I0629 23:42:33.072682 28434 net.cpp:165] Memory required for data: 4513180100
I0629 23:42:33.072695 28434 layer_factory.hpp:77] Creating layer LFCN_2_3x5_LFCN_2_3x5_0_split
I0629 23:42:33.072700 28434 net.cpp:100] Creating Layer LFCN_2_3x5_LFCN_2_3x5_0_split
I0629 23:42:33.072702 28434 net.cpp:434] LFCN_2_3x5_LFCN_2_3x5_0_split <- LFCN_2_3x5
I0629 23:42:33.072706 28434 net.cpp:408] LFCN_2_3x5_LFCN_2_3x5_0_split -> LFCN_2_3x5_LFCN_2_3x5_0_split_0
I0629 23:42:33.072724 28434 net.cpp:408] LFCN_2_3x5_LFCN_2_3x5_0_split -> LFCN_2_3x5_LFCN_2_3x5_0_split_1
I0629 23:42:33.072731 28434 net.cpp:408] LFCN_2_3x5_LFCN_2_3x5_0_split -> LFCN_2_3x5_LFCN_2_3x5_0_split_2
I0629 23:42:33.072791 28434 net.cpp:150] Setting up LFCN_2_3x5_LFCN_2_3x5_0_split
I0629 23:42:33.072798 28434 net.cpp:157] Top shape: 4 7 36 48 (48384)
I0629 23:42:33.072799 28434 net.cpp:157] Top shape: 4 7 36 48 (48384)
I0629 23:42:33.072803 28434 net.cpp:157] Top shape: 4 7 36 48 (48384)
I0629 23:42:33.072805 28434 net.cpp:165] Memory required for data: 4513760708
I0629 23:42:33.072808 28434 layer_factory.hpp:77] Creating layer detection_loss_2_3x5
I0629 23:42:33.072815 28434 net.cpp:100] Creating Layer detection_loss_2_3x5
I0629 23:42:33.072818 28434 net.cpp:434] detection_loss_2_3x5 <- LFCN_2_3x5_LFCN_2_3x5_0_split_0
I0629 23:42:33.072823 28434 net.cpp:434] detection_loss_2_3x5 <- label_2_3x5_data_3_split_0
I0629 23:42:33.072829 28434 net.cpp:408] detection_loss_2_3x5 -> loss_2_3x5
I0629 23:42:33.072839 28434 layer_factory.hpp:77] Creating layer detection_loss_2_3x5
I0629 23:42:33.073729 28434 net.cpp:150] Setting up detection_loss_2_3x5
I0629 23:42:33.073740 28434 net.cpp:157] Top shape: 1 1 1 2 (2)
I0629 23:42:33.073742 28434 net.cpp:160]     with loss weight 1
I0629 23:42:33.073748 28434 net.cpp:165] Memory required for data: 4513760716
I0629 23:42:33.073751 28434 layer_factory.hpp:77] Creating layer detection_accuracy_2_3x5
I0629 23:42:33.073760 28434 net.cpp:100] Creating Layer detection_accuracy_2_3x5
I0629 23:42:33.073762 28434 net.cpp:434] detection_accuracy_2_3x5 <- LFCN_2_3x5_LFCN_2_3x5_0_split_1
I0629 23:42:33.073766 28434 net.cpp:434] detection_accuracy_2_3x5 <- label_2_3x5_data_3_split_1
I0629 23:42:33.073770 28434 net.cpp:408] detection_accuracy_2_3x5 -> accuracy_2_3x5
I0629 23:42:33.073778 28434 net.cpp:408] detection_accuracy_2_3x5 -> boxiou_2_3x5
I0629 23:42:33.073815 28434 net.cpp:150] Setting up detection_accuracy_2_3x5
I0629 23:42:33.073819 28434 net.cpp:157] Top shape: 1 1 1 2 (2)
I0629 23:42:33.073822 28434 net.cpp:157] Top shape: 1 1 1 1 (1)
I0629 23:42:33.073823 28434 net.cpp:165] Memory required for data: 4513760728
I0629 23:42:33.073827 28434 layer_factory.hpp:77] Creating layer LFCN_2_5x7
I0629 23:42:33.073837 28434 net.cpp:100] Creating Layer LFCN_2_5x7
I0629 23:42:33.073839 28434 net.cpp:434] LFCN_2_5x7 <- conv5_3_relu5_3_0_split_1
I0629 23:42:33.073846 28434 net.cpp:408] LFCN_2_5x7 -> LFCN_2_5x7
I0629 23:42:33.077076 28434 net.cpp:150] Setting up LFCN_2_5x7
I0629 23:42:33.077096 28434 net.cpp:157] Top shape: 4 7 36 48 (48384)
I0629 23:42:33.077100 28434 net.cpp:165] Memory required for data: 4513954264
I0629 23:42:33.077106 28434 layer_factory.hpp:77] Creating layer LFCN_2_5x7_LFCN_2_5x7_0_split
I0629 23:42:33.077112 28434 net.cpp:100] Creating Layer LFCN_2_5x7_LFCN_2_5x7_0_split
I0629 23:42:33.077116 28434 net.cpp:434] LFCN_2_5x7_LFCN_2_5x7_0_split <- LFCN_2_5x7
I0629 23:42:33.077122 28434 net.cpp:408] LFCN_2_5x7_LFCN_2_5x7_0_split -> LFCN_2_5x7_LFCN_2_5x7_0_split_0
I0629 23:42:33.077129 28434 net.cpp:408] LFCN_2_5x7_LFCN_2_5x7_0_split -> LFCN_2_5x7_LFCN_2_5x7_0_split_1
I0629 23:42:33.077132 28434 net.cpp:408] LFCN_2_5x7_LFCN_2_5x7_0_split -> LFCN_2_5x7_LFCN_2_5x7_0_split_2
I0629 23:42:33.077195 28434 net.cpp:150] Setting up LFCN_2_5x7_LFCN_2_5x7_0_split
I0629 23:42:33.077201 28434 net.cpp:157] Top shape: 4 7 36 48 (48384)
I0629 23:42:33.077203 28434 net.cpp:157] Top shape: 4 7 36 48 (48384)
I0629 23:42:33.077206 28434 net.cpp:157] Top shape: 4 7 36 48 (48384)
I0629 23:42:33.077209 28434 net.cpp:165] Memory required for data: 4514534872
I0629 23:42:33.077213 28434 layer_factory.hpp:77] Creating layer detection_loss_2_5x7
I0629 23:42:33.077220 28434 net.cpp:100] Creating Layer detection_loss_2_5x7
I0629 23:42:33.077234 28434 net.cpp:434] detection_loss_2_5x7 <- LFCN_2_5x7_LFCN_2_5x7_0_split_0
I0629 23:42:33.077239 28434 net.cpp:434] detection_loss_2_5x7 <- label_2_5x7_data_4_split_0
I0629 23:42:33.077245 28434 net.cpp:408] detection_loss_2_5x7 -> loss_2_5x7
I0629 23:42:33.077255 28434 layer_factory.hpp:77] Creating layer detection_loss_2_5x7
I0629 23:42:33.077672 28434 net.cpp:150] Setting up detection_loss_2_5x7
I0629 23:42:33.077679 28434 net.cpp:157] Top shape: 1 1 1 2 (2)
I0629 23:42:33.077682 28434 net.cpp:160]     with loss weight 1
I0629 23:42:33.077689 28434 net.cpp:165] Memory required for data: 4514534880
I0629 23:42:33.077692 28434 layer_factory.hpp:77] Creating layer detection_accuracy_2_5x7
I0629 23:42:33.077700 28434 net.cpp:100] Creating Layer detection_accuracy_2_5x7
I0629 23:42:33.077704 28434 net.cpp:434] detection_accuracy_2_5x7 <- LFCN_2_5x7_LFCN_2_5x7_0_split_1
I0629 23:42:33.077708 28434 net.cpp:434] detection_accuracy_2_5x7 <- label_2_5x7_data_4_split_1
I0629 23:42:33.077713 28434 net.cpp:408] detection_accuracy_2_5x7 -> accuracy_2_5x7
I0629 23:42:33.077719 28434 net.cpp:408] detection_accuracy_2_5x7 -> boxiou_2_5x7
I0629 23:42:33.077756 28434 net.cpp:150] Setting up detection_accuracy_2_5x7
I0629 23:42:33.077760 28434 net.cpp:157] Top shape: 1 1 1 2 (2)
I0629 23:42:33.077762 28434 net.cpp:157] Top shape: 1 1 1 1 (1)
I0629 23:42:33.077764 28434 net.cpp:165] Memory required for data: 4514534892
I0629 23:42:33.077767 28434 layer_factory.hpp:77] Creating layer pool5
I0629 23:42:33.077774 28434 net.cpp:100] Creating Layer pool5
I0629 23:42:33.077777 28434 net.cpp:434] pool5 <- conv5_3_relu5_3_0_split_2
I0629 23:42:33.077782 28434 net.cpp:408] pool5 -> pool5
I0629 23:42:33.077817 28434 net.cpp:150] Setting up pool5
I0629 23:42:33.077823 28434 net.cpp:157] Top shape: 4 512 18 24 (884736)
I0629 23:42:33.077826 28434 net.cpp:165] Memory required for data: 4518073836
I0629 23:42:33.077829 28434 layer_factory.hpp:77] Creating layer conv6_1
I0629 23:42:33.077842 28434 net.cpp:100] Creating Layer conv6_1
I0629 23:42:33.077847 28434 net.cpp:434] conv6_1 <- pool5
I0629 23:42:33.077858 28434 net.cpp:408] conv6_1 -> conv6_1
I0629 23:42:33.098492 28434 net.cpp:150] Setting up conv6_1
I0629 23:42:33.098511 28434 net.cpp:157] Top shape: 4 512 18 24 (884736)
I0629 23:42:33.098515 28434 net.cpp:165] Memory required for data: 4521612780
I0629 23:42:33.098523 28434 layer_factory.hpp:77] Creating layer relu6_1
I0629 23:42:33.098532 28434 net.cpp:100] Creating Layer relu6_1
I0629 23:42:33.098536 28434 net.cpp:434] relu6_1 <- conv6_1
I0629 23:42:33.098546 28434 net.cpp:395] relu6_1 -> conv6_1 (in-place)
I0629 23:42:33.098801 28434 net.cpp:150] Setting up relu6_1
I0629 23:42:33.098809 28434 net.cpp:157] Top shape: 4 512 18 24 (884736)
I0629 23:42:33.098812 28434 net.cpp:165] Memory required for data: 4525151724
I0629 23:42:33.098816 28434 layer_factory.hpp:77] Creating layer conv6_1_relu6_1_0_split
I0629 23:42:33.098824 28434 net.cpp:100] Creating Layer conv6_1_relu6_1_0_split
I0629 23:42:33.098834 28434 net.cpp:434] conv6_1_relu6_1_0_split <- conv6_1
I0629 23:42:33.098840 28434 net.cpp:408] conv6_1_relu6_1_0_split -> conv6_1_relu6_1_0_split_0
I0629 23:42:33.098847 28434 net.cpp:408] conv6_1_relu6_1_0_split -> conv6_1_relu6_1_0_split_1
I0629 23:42:33.098855 28434 net.cpp:408] conv6_1_relu6_1_0_split -> conv6_1_relu6_1_0_split_2
I0629 23:42:33.098912 28434 net.cpp:150] Setting up conv6_1_relu6_1_0_split
I0629 23:42:33.098917 28434 net.cpp:157] Top shape: 4 512 18 24 (884736)
I0629 23:42:33.098920 28434 net.cpp:157] Top shape: 4 512 18 24 (884736)
I0629 23:42:33.098923 28434 net.cpp:157] Top shape: 4 512 18 24 (884736)
I0629 23:42:33.098927 28434 net.cpp:165] Memory required for data: 4535768556
I0629 23:42:33.098929 28434 layer_factory.hpp:77] Creating layer LFCN_3_3x5
I0629 23:42:33.098940 28434 net.cpp:100] Creating Layer LFCN_3_3x5
I0629 23:42:33.098944 28434 net.cpp:434] LFCN_3_3x5 <- conv6_1_relu6_1_0_split_0
I0629 23:42:33.098951 28434 net.cpp:408] LFCN_3_3x5 -> LFCN_3_3x5
I0629 23:42:33.101727 28434 net.cpp:150] Setting up LFCN_3_3x5
I0629 23:42:33.101747 28434 net.cpp:157] Top shape: 4 7 18 24 (12096)
I0629 23:42:33.101748 28434 net.cpp:165] Memory required for data: 4535816940
I0629 23:42:33.101758 28434 layer_factory.hpp:77] Creating layer LFCN_3_3x5_LFCN_3_3x5_0_split
I0629 23:42:33.101780 28434 net.cpp:100] Creating Layer LFCN_3_3x5_LFCN_3_3x5_0_split
I0629 23:42:33.101785 28434 net.cpp:434] LFCN_3_3x5_LFCN_3_3x5_0_split <- LFCN_3_3x5
I0629 23:42:33.101794 28434 net.cpp:408] LFCN_3_3x5_LFCN_3_3x5_0_split -> LFCN_3_3x5_LFCN_3_3x5_0_split_0
I0629 23:42:33.101804 28434 net.cpp:408] LFCN_3_3x5_LFCN_3_3x5_0_split -> LFCN_3_3x5_LFCN_3_3x5_0_split_1
I0629 23:42:33.101810 28434 net.cpp:408] LFCN_3_3x5_LFCN_3_3x5_0_split -> LFCN_3_3x5_LFCN_3_3x5_0_split_2
I0629 23:42:33.101862 28434 net.cpp:150] Setting up LFCN_3_3x5_LFCN_3_3x5_0_split
I0629 23:42:33.101868 28434 net.cpp:157] Top shape: 4 7 18 24 (12096)
I0629 23:42:33.101872 28434 net.cpp:157] Top shape: 4 7 18 24 (12096)
I0629 23:42:33.101876 28434 net.cpp:157] Top shape: 4 7 18 24 (12096)
I0629 23:42:33.101877 28434 net.cpp:165] Memory required for data: 4535962092
I0629 23:42:33.101881 28434 layer_factory.hpp:77] Creating layer detection_loss_3_3x5
I0629 23:42:33.101888 28434 net.cpp:100] Creating Layer detection_loss_3_3x5
I0629 23:42:33.101892 28434 net.cpp:434] detection_loss_3_3x5 <- LFCN_3_3x5_LFCN_3_3x5_0_split_0
I0629 23:42:33.101897 28434 net.cpp:434] detection_loss_3_3x5 <- label_3_3x5_data_5_split_0
I0629 23:42:33.101903 28434 net.cpp:408] detection_loss_3_3x5 -> loss_3_3x5
I0629 23:42:33.101912 28434 layer_factory.hpp:77] Creating layer detection_loss_3_3x5
I0629 23:42:33.102841 28434 net.cpp:150] Setting up detection_loss_3_3x5
I0629 23:42:33.102852 28434 net.cpp:157] Top shape: 1 1 1 2 (2)
I0629 23:42:33.102854 28434 net.cpp:160]     with loss weight 1
I0629 23:42:33.102864 28434 net.cpp:165] Memory required for data: 4535962100
I0629 23:42:33.102867 28434 layer_factory.hpp:77] Creating layer detection_accuracy_3_3x5
I0629 23:42:33.102876 28434 net.cpp:100] Creating Layer detection_accuracy_3_3x5
I0629 23:42:33.102881 28434 net.cpp:434] detection_accuracy_3_3x5 <- LFCN_3_3x5_LFCN_3_3x5_0_split_1
I0629 23:42:33.102886 28434 net.cpp:434] detection_accuracy_3_3x5 <- label_3_3x5_data_5_split_1
I0629 23:42:33.102895 28434 net.cpp:408] detection_accuracy_3_3x5 -> accuracy_3_3x5
I0629 23:42:33.102903 28434 net.cpp:408] detection_accuracy_3_3x5 -> boxiou_3_3x5
I0629 23:42:33.102964 28434 net.cpp:150] Setting up detection_accuracy_3_3x5
I0629 23:42:33.102972 28434 net.cpp:157] Top shape: 1 1 1 2 (2)
I0629 23:42:33.102975 28434 net.cpp:157] Top shape: 1 1 1 1 (1)
I0629 23:42:33.102978 28434 net.cpp:165] Memory required for data: 4535962112
I0629 23:42:33.102982 28434 layer_factory.hpp:77] Creating layer LFCN_3_5x7
I0629 23:42:33.102993 28434 net.cpp:100] Creating Layer LFCN_3_5x7
I0629 23:42:33.102998 28434 net.cpp:434] LFCN_3_5x7 <- conv6_1_relu6_1_0_split_1
I0629 23:42:33.103004 28434 net.cpp:408] LFCN_3_5x7 -> LFCN_3_5x7
I0629 23:42:33.105403 28434 net.cpp:150] Setting up LFCN_3_5x7
I0629 23:42:33.105417 28434 net.cpp:157] Top shape: 4 7 18 24 (12096)
I0629 23:42:33.105420 28434 net.cpp:165] Memory required for data: 4536010496
I0629 23:42:33.105429 28434 layer_factory.hpp:77] Creating layer LFCN_3_5x7_LFCN_3_5x7_0_split
I0629 23:42:33.105437 28434 net.cpp:100] Creating Layer LFCN_3_5x7_LFCN_3_5x7_0_split
I0629 23:42:33.105443 28434 net.cpp:434] LFCN_3_5x7_LFCN_3_5x7_0_split <- LFCN_3_5x7
I0629 23:42:33.105453 28434 net.cpp:408] LFCN_3_5x7_LFCN_3_5x7_0_split -> LFCN_3_5x7_LFCN_3_5x7_0_split_0
I0629 23:42:33.105463 28434 net.cpp:408] LFCN_3_5x7_LFCN_3_5x7_0_split -> LFCN_3_5x7_LFCN_3_5x7_0_split_1
I0629 23:42:33.105469 28434 net.cpp:408] LFCN_3_5x7_LFCN_3_5x7_0_split -> LFCN_3_5x7_LFCN_3_5x7_0_split_2
I0629 23:42:33.105520 28434 net.cpp:150] Setting up LFCN_3_5x7_LFCN_3_5x7_0_split
I0629 23:42:33.105525 28434 net.cpp:157] Top shape: 4 7 18 24 (12096)
I0629 23:42:33.105530 28434 net.cpp:157] Top shape: 4 7 18 24 (12096)
I0629 23:42:33.105533 28434 net.cpp:157] Top shape: 4 7 18 24 (12096)
I0629 23:42:33.105535 28434 net.cpp:165] Memory required for data: 4536155648
I0629 23:42:33.105538 28434 layer_factory.hpp:77] Creating layer detection_loss_3_5x7
I0629 23:42:33.105546 28434 net.cpp:100] Creating Layer detection_loss_3_5x7
I0629 23:42:33.105551 28434 net.cpp:434] detection_loss_3_5x7 <- LFCN_3_5x7_LFCN_3_5x7_0_split_0
I0629 23:42:33.105556 28434 net.cpp:434] detection_loss_3_5x7 <- label_3_5x7_data_6_split_0
I0629 23:42:33.105561 28434 net.cpp:408] detection_loss_3_5x7 -> loss_3_5x7
I0629 23:42:33.105571 28434 layer_factory.hpp:77] Creating layer detection_loss_3_5x7
I0629 23:42:33.106047 28434 net.cpp:150] Setting up detection_loss_3_5x7
I0629 23:42:33.106056 28434 net.cpp:157] Top shape: 1 1 1 2 (2)
I0629 23:42:33.106060 28434 net.cpp:160]     with loss weight 1
I0629 23:42:33.106067 28434 net.cpp:165] Memory required for data: 4536155656
I0629 23:42:33.106070 28434 layer_factory.hpp:77] Creating layer detection_accuracy_3_5x7
I0629 23:42:33.106077 28434 net.cpp:100] Creating Layer detection_accuracy_3_5x7
I0629 23:42:33.106081 28434 net.cpp:434] detection_accuracy_3_5x7 <- LFCN_3_5x7_LFCN_3_5x7_0_split_1
I0629 23:42:33.106086 28434 net.cpp:434] detection_accuracy_3_5x7 <- label_3_5x7_data_6_split_1
I0629 23:42:33.106092 28434 net.cpp:408] detection_accuracy_3_5x7 -> accuracy_3_5x7
I0629 23:42:33.106101 28434 net.cpp:408] detection_accuracy_3_5x7 -> boxiou_3_5x7
I0629 23:42:33.106153 28434 net.cpp:150] Setting up detection_accuracy_3_5x7
I0629 23:42:33.106159 28434 net.cpp:157] Top shape: 1 1 1 2 (2)
I0629 23:42:33.106163 28434 net.cpp:157] Top shape: 1 1 1 1 (1)
I0629 23:42:33.106166 28434 net.cpp:165] Memory required for data: 4536155668
I0629 23:42:33.106180 28434 layer_factory.hpp:77] Creating layer pool6
I0629 23:42:33.106187 28434 net.cpp:100] Creating Layer pool6
I0629 23:42:33.106192 28434 net.cpp:434] pool6 <- conv6_1_relu6_1_0_split_2
I0629 23:42:33.106199 28434 net.cpp:408] pool6 -> pool6
I0629 23:42:33.106235 28434 net.cpp:150] Setting up pool6
I0629 23:42:33.106240 28434 net.cpp:157] Top shape: 4 512 9 12 (221184)
I0629 23:42:33.106242 28434 net.cpp:165] Memory required for data: 4537040404
I0629 23:42:33.106245 28434 layer_factory.hpp:77] Creating layer LFCN_4_3x5
I0629 23:42:33.106253 28434 net.cpp:100] Creating Layer LFCN_4_3x5
I0629 23:42:33.106257 28434 net.cpp:434] LFCN_4_3x5 <- pool6
I0629 23:42:33.106262 28434 net.cpp:408] LFCN_4_3x5 -> LFCN_4_3x5
I0629 23:42:33.108914 28434 net.cpp:150] Setting up LFCN_4_3x5
I0629 23:42:33.108929 28434 net.cpp:157] Top shape: 4 7 9 12 (3024)
I0629 23:42:33.108932 28434 net.cpp:165] Memory required for data: 4537052500
I0629 23:42:33.108940 28434 layer_factory.hpp:77] Creating layer LFCN_4_3x5_LFCN_4_3x5_0_split
I0629 23:42:33.108950 28434 net.cpp:100] Creating Layer LFCN_4_3x5_LFCN_4_3x5_0_split
I0629 23:42:33.108956 28434 net.cpp:434] LFCN_4_3x5_LFCN_4_3x5_0_split <- LFCN_4_3x5
I0629 23:42:33.108966 28434 net.cpp:408] LFCN_4_3x5_LFCN_4_3x5_0_split -> LFCN_4_3x5_LFCN_4_3x5_0_split_0
I0629 23:42:33.108975 28434 net.cpp:408] LFCN_4_3x5_LFCN_4_3x5_0_split -> LFCN_4_3x5_LFCN_4_3x5_0_split_1
I0629 23:42:33.108983 28434 net.cpp:408] LFCN_4_3x5_LFCN_4_3x5_0_split -> LFCN_4_3x5_LFCN_4_3x5_0_split_2
I0629 23:42:33.109061 28434 net.cpp:150] Setting up LFCN_4_3x5_LFCN_4_3x5_0_split
I0629 23:42:33.109068 28434 net.cpp:157] Top shape: 4 7 9 12 (3024)
I0629 23:42:33.109071 28434 net.cpp:157] Top shape: 4 7 9 12 (3024)
I0629 23:42:33.109076 28434 net.cpp:157] Top shape: 4 7 9 12 (3024)
I0629 23:42:33.109077 28434 net.cpp:165] Memory required for data: 4537088788
I0629 23:42:33.109081 28434 layer_factory.hpp:77] Creating layer detection_loss_4_3x5
I0629 23:42:33.109089 28434 net.cpp:100] Creating Layer detection_loss_4_3x5
I0629 23:42:33.109093 28434 net.cpp:434] detection_loss_4_3x5 <- LFCN_4_3x5_LFCN_4_3x5_0_split_0
I0629 23:42:33.109098 28434 net.cpp:434] detection_loss_4_3x5 <- label_4_3x5_data_7_split_0
I0629 23:42:33.109105 28434 net.cpp:408] detection_loss_4_3x5 -> loss_4_3x5
I0629 23:42:33.109114 28434 layer_factory.hpp:77] Creating layer detection_loss_4_3x5
I0629 23:42:33.109570 28434 net.cpp:150] Setting up detection_loss_4_3x5
I0629 23:42:33.109580 28434 net.cpp:157] Top shape: 1 1 1 2 (2)
I0629 23:42:33.109582 28434 net.cpp:160]     with loss weight 1
I0629 23:42:33.109592 28434 net.cpp:165] Memory required for data: 4537088796
I0629 23:42:33.109596 28434 layer_factory.hpp:77] Creating layer detection_accuracy_4_3x5
I0629 23:42:33.109604 28434 net.cpp:100] Creating Layer detection_accuracy_4_3x5
I0629 23:42:33.109609 28434 net.cpp:434] detection_accuracy_4_3x5 <- LFCN_4_3x5_LFCN_4_3x5_0_split_1
I0629 23:42:33.109614 28434 net.cpp:434] detection_accuracy_4_3x5 <- label_4_3x5_data_7_split_1
I0629 23:42:33.109621 28434 net.cpp:408] detection_accuracy_4_3x5 -> accuracy_4_3x5
I0629 23:42:33.109629 28434 net.cpp:408] detection_accuracy_4_3x5 -> boxiou_4_3x5
I0629 23:42:33.109673 28434 net.cpp:150] Setting up detection_accuracy_4_3x5
I0629 23:42:33.109678 28434 net.cpp:157] Top shape: 1 1 1 2 (2)
I0629 23:42:33.109681 28434 net.cpp:157] Top shape: 1 1 1 1 (1)
I0629 23:42:33.109683 28434 net.cpp:165] Memory required for data: 4537088808
I0629 23:42:33.109686 28434 layer_factory.hpp:77] Creating layer proposals
I0629 23:42:33.109695 28434 net.cpp:100] Creating Layer proposals
I0629 23:42:33.109699 28434 net.cpp:434] proposals <- LFCN_1_3x5_LFCN_1_3x5_0_split_2
I0629 23:42:33.109704 28434 net.cpp:434] proposals <- LFCN_1_5x7_LFCN_1_5x7_0_split_2
I0629 23:42:33.109707 28434 net.cpp:434] proposals <- LFCN_2_3x5_LFCN_2_3x5_0_split_2
I0629 23:42:33.109711 28434 net.cpp:434] proposals <- LFCN_2_5x7_LFCN_2_5x7_0_split_2
I0629 23:42:33.109715 28434 net.cpp:434] proposals <- LFCN_3_3x5_LFCN_3_3x5_0_split_2
I0629 23:42:33.109719 28434 net.cpp:434] proposals <- LFCN_3_5x7_LFCN_3_5x7_0_split_2
I0629 23:42:33.109721 28434 net.cpp:434] proposals <- LFCN_4_3x5_LFCN_4_3x5_0_split_2
I0629 23:42:33.109727 28434 net.cpp:408] proposals -> proposals
I0629 23:42:33.109755 28434 net.cpp:150] Setting up proposals
I0629 23:42:33.109760 28434 net.cpp:157] Top shape: 1 5 1 1 (5)
I0629 23:42:33.109763 28434 net.cpp:165] Memory required for data: 4537088828
I0629 23:42:33.109766 28434 layer_factory.hpp:77] Creating layer proposal_info
I0629 23:42:33.109773 28434 net.cpp:100] Creating Layer proposal_info
I0629 23:42:33.109777 28434 net.cpp:434] proposal_info <- proposals
I0629 23:42:33.109782 28434 net.cpp:434] proposal_info <- gt_boxes
I0629 23:42:33.109788 28434 net.cpp:408] proposal_info -> rois
I0629 23:42:33.109799 28434 net.cpp:408] proposal_info -> proposal_labels
I0629 23:42:33.109809 28434 net.cpp:408] proposal_info -> proposal_targets
I0629 23:42:33.109817 28434 net.cpp:408] proposal_info -> box_inside_weights
I0629 23:42:33.109824 28434 net.cpp:408] proposal_info -> box_outside_weights
I0629 23:42:33.109833 28434 net.cpp:408] proposal_info -> match_gt_boxes
I0629 23:42:33.109913 28434 net.cpp:150] Setting up proposal_info
I0629 23:42:33.109918 28434 net.cpp:157] Top shape: 128 5 1 1 (640)
I0629 23:42:33.109922 28434 net.cpp:157] Top shape: 128 1 1 1 (128)
I0629 23:42:33.109927 28434 net.cpp:157] Top shape: 128 12 1 1 (1536)
I0629 23:42:33.109931 28434 net.cpp:157] Top shape: 128 12 1 1 (1536)
I0629 23:42:33.109935 28434 net.cpp:157] Top shape: 128 12 1 1 (1536)
I0629 23:42:33.109938 28434 net.cpp:157] Top shape: 128 6 1 1 (768)
I0629 23:42:33.109941 28434 net.cpp:165] Memory required for data: 4537113404
I0629 23:42:33.109943 28434 layer_factory.hpp:77] Creating layer rois_proposal_info_0_split
I0629 23:42:33.109948 28434 net.cpp:100] Creating Layer rois_proposal_info_0_split
I0629 23:42:33.109951 28434 net.cpp:434] rois_proposal_info_0_split <- rois
I0629 23:42:33.109956 28434 net.cpp:408] rois_proposal_info_0_split -> rois_proposal_info_0_split_0
I0629 23:42:33.109963 28434 net.cpp:408] rois_proposal_info_0_split -> rois_proposal_info_0_split_1
I0629 23:42:33.109969 28434 net.cpp:408] rois_proposal_info_0_split -> rois_proposal_info_0_split_2
I0629 23:42:33.110021 28434 net.cpp:150] Setting up rois_proposal_info_0_split
I0629 23:42:33.110026 28434 net.cpp:157] Top shape: 128 5 1 1 (640)
I0629 23:42:33.110029 28434 net.cpp:157] Top shape: 128 5 1 1 (640)
I0629 23:42:33.110033 28434 net.cpp:157] Top shape: 128 5 1 1 (640)
I0629 23:42:33.110035 28434 net.cpp:165] Memory required for data: 4537121084
I0629 23:42:33.110038 28434 layer_factory.hpp:77] Creating layer proposal_labels_proposal_info_1_split
I0629 23:42:33.110044 28434 net.cpp:100] Creating Layer proposal_labels_proposal_info_1_split
I0629 23:42:33.110046 28434 net.cpp:434] proposal_labels_proposal_info_1_split <- proposal_labels
I0629 23:42:33.110051 28434 net.cpp:408] proposal_labels_proposal_info_1_split -> proposal_labels_proposal_info_1_split_0
I0629 23:42:33.110059 28434 net.cpp:408] proposal_labels_proposal_info_1_split -> proposal_labels_proposal_info_1_split_1
I0629 23:42:33.110091 28434 net.cpp:150] Setting up proposal_labels_proposal_info_1_split
I0629 23:42:33.110095 28434 net.cpp:157] Top shape: 128 1 1 1 (128)
I0629 23:42:33.110100 28434 net.cpp:157] Top shape: 128 1 1 1 (128)
I0629 23:42:33.110101 28434 net.cpp:165] Memory required for data: 4537122108
I0629 23:42:33.110105 28434 layer_factory.hpp:77] Creating layer conv4_3_2x
I0629 23:42:33.110113 28434 net.cpp:100] Creating Layer conv4_3_2x
I0629 23:42:33.110117 28434 net.cpp:434] conv4_3_2x <- conv4_3_relu4_3_0_split_2
I0629 23:42:33.110122 28434 net.cpp:408] conv4_3_2x -> conv4_3_2x
I0629 23:42:33.110524 28434 net.cpp:150] Setting up conv4_3_2x
I0629 23:42:33.110530 28434 net.cpp:157] Top shape: 4 512 144 192 (56623104)
I0629 23:42:33.110533 28434 net.cpp:165] Memory required for data: 4763614524
I0629 23:42:33.110538 28434 layer_factory.hpp:77] Creating layer conv4_3_2x_conv4_3_2x_0_split
I0629 23:42:33.110544 28434 net.cpp:100] Creating Layer conv4_3_2x_conv4_3_2x_0_split
I0629 23:42:33.110548 28434 net.cpp:434] conv4_3_2x_conv4_3_2x_0_split <- conv4_3_2x
I0629 23:42:33.110553 28434 net.cpp:408] conv4_3_2x_conv4_3_2x_0_split -> conv4_3_2x_conv4_3_2x_0_split_0
I0629 23:42:33.110561 28434 net.cpp:408] conv4_3_2x_conv4_3_2x_0_split -> conv4_3_2x_conv4_3_2x_0_split_1
I0629 23:42:33.110596 28434 net.cpp:150] Setting up conv4_3_2x_conv4_3_2x_0_split
I0629 23:42:33.110601 28434 net.cpp:157] Top shape: 4 512 144 192 (56623104)
I0629 23:42:33.110605 28434 net.cpp:157] Top shape: 4 512 144 192 (56623104)
I0629 23:42:33.110607 28434 net.cpp:165] Memory required for data: 5216599356
I0629 23:42:33.110610 28434 layer_factory.hpp:77] Creating layer roi_pool_org
I0629 23:42:33.110620 28434 net.cpp:100] Creating Layer roi_pool_org
I0629 23:42:33.110623 28434 net.cpp:434] roi_pool_org <- conv4_3_2x_conv4_3_2x_0_split_0
I0629 23:42:33.110627 28434 net.cpp:434] roi_pool_org <- rois_proposal_info_0_split_0
I0629 23:42:33.110632 28434 net.cpp:408] roi_pool_org -> roi_pool_org
I0629 23:42:33.110642 28434 roi_pooling_layer.cpp:33] Spatial scale: 0.25
I0629 23:42:33.110680 28434 net.cpp:150] Setting up roi_pool_org
I0629 23:42:33.110685 28434 net.cpp:157] Top shape: 128 512 7 5 (2293760)
I0629 23:42:33.110687 28434 net.cpp:165] Memory required for data: 5225774396
I0629 23:42:33.110690 28434 layer_factory.hpp:77] Creating layer roi_pool_ctx
I0629 23:42:33.110697 28434 net.cpp:100] Creating Layer roi_pool_ctx
I0629 23:42:33.110699 28434 net.cpp:434] roi_pool_ctx <- conv4_3_2x_conv4_3_2x_0_split_1
I0629 23:42:33.110703 28434 net.cpp:434] roi_pool_ctx <- rois_proposal_info_0_split_1
I0629 23:42:33.110708 28434 net.cpp:408] roi_pool_ctx -> roi_pool_ctx
I0629 23:42:33.110715 28434 roi_pooling_layer.cpp:33] Spatial scale: 0.25
I0629 23:42:33.110749 28434 net.cpp:150] Setting up roi_pool_ctx
I0629 23:42:33.110754 28434 net.cpp:157] Top shape: 128 512 7 5 (2293760)
I0629 23:42:33.110757 28434 net.cpp:165] Memory required for data: 5234949436
I0629 23:42:33.110764 28434 layer_factory.hpp:77] Creating layer roi_pool
I0629 23:42:33.110770 28434 net.cpp:100] Creating Layer roi_pool
I0629 23:42:33.110774 28434 net.cpp:434] roi_pool <- roi_pool_org
I0629 23:42:33.110777 28434 net.cpp:434] roi_pool <- roi_pool_ctx
I0629 23:42:33.110785 28434 net.cpp:408] roi_pool -> roi_pool
I0629 23:42:33.110806 28434 net.cpp:150] Setting up roi_pool
I0629 23:42:33.110812 28434 net.cpp:157] Top shape: 128 1024 7 5 (4587520)
I0629 23:42:33.110816 28434 net.cpp:165] Memory required for data: 5253299516
I0629 23:42:33.110818 28434 layer_factory.hpp:77] Creating layer roi_c1
I0629 23:42:33.110826 28434 net.cpp:100] Creating Layer roi_c1
I0629 23:42:33.110831 28434 net.cpp:434] roi_c1 <- roi_pool
I0629 23:42:33.110836 28434 net.cpp:408] roi_c1 -> roi_c1
I0629 23:42:33.149524 28434 net.cpp:150] Setting up roi_c1
I0629 23:42:33.149543 28434 net.cpp:157] Top shape: 128 512 5 3 (983040)
I0629 23:42:33.149545 28434 net.cpp:165] Memory required for data: 5257231676
I0629 23:42:33.149554 28434 layer_factory.hpp:77] Creating layer roi_c1_relu
I0629 23:42:33.149564 28434 net.cpp:100] Creating Layer roi_c1_relu
I0629 23:42:33.149569 28434 net.cpp:434] roi_c1_relu <- roi_c1
I0629 23:42:33.149576 28434 net.cpp:395] roi_c1_relu -> roi_c1 (in-place)
I0629 23:42:33.150324 28434 net.cpp:150] Setting up roi_c1_relu
I0629 23:42:33.150336 28434 net.cpp:157] Top shape: 128 512 5 3 (983040)
I0629 23:42:33.150339 28434 net.cpp:165] Memory required for data: 5261163836
I0629 23:42:33.150343 28434 layer_factory.hpp:77] Creating layer fc6
I0629 23:42:33.150352 28434 net.cpp:100] Creating Layer fc6
I0629 23:42:33.150357 28434 net.cpp:434] fc6 <- roi_c1
I0629 23:42:33.150364 28434 net.cpp:408] fc6 -> fc6
I0629 23:42:33.272092 28434 net.cpp:150] Setting up fc6
I0629 23:42:33.272111 28434 net.cpp:157] Top shape: 128 2048 (262144)
I0629 23:42:33.272114 28434 net.cpp:165] Memory required for data: 5262212412
I0629 23:42:33.272127 28434 layer_factory.hpp:77] Creating layer relu6
I0629 23:42:33.272140 28434 net.cpp:100] Creating Layer relu6
I0629 23:42:33.272145 28434 net.cpp:434] relu6 <- fc6
I0629 23:42:33.272151 28434 net.cpp:395] relu6 -> fc6 (in-place)
I0629 23:42:33.272501 28434 net.cpp:150] Setting up relu6
I0629 23:42:33.272511 28434 net.cpp:157] Top shape: 128 2048 (262144)
I0629 23:42:33.272513 28434 net.cpp:165] Memory required for data: 5263260988
I0629 23:42:33.272516 28434 layer_factory.hpp:77] Creating layer drop6
I0629 23:42:33.272524 28434 net.cpp:100] Creating Layer drop6
I0629 23:42:33.272529 28434 net.cpp:434] drop6 <- fc6
I0629 23:42:33.272541 28434 net.cpp:395] drop6 -> fc6 (in-place)
I0629 23:42:33.272584 28434 net.cpp:150] Setting up drop6
I0629 23:42:33.272593 28434 net.cpp:157] Top shape: 128 2048 (262144)
I0629 23:42:33.272595 28434 net.cpp:165] Memory required for data: 5264309564
I0629 23:42:33.272598 28434 layer_factory.hpp:77] Creating layer fc6_drop6_0_split
I0629 23:42:33.272604 28434 net.cpp:100] Creating Layer fc6_drop6_0_split
I0629 23:42:33.272608 28434 net.cpp:434] fc6_drop6_0_split <- fc6
I0629 23:42:33.272614 28434 net.cpp:408] fc6_drop6_0_split -> fc6_drop6_0_split_0
I0629 23:42:33.272622 28434 net.cpp:408] fc6_drop6_0_split -> fc6_drop6_0_split_1
I0629 23:42:33.272665 28434 net.cpp:150] Setting up fc6_drop6_0_split
I0629 23:42:33.272670 28434 net.cpp:157] Top shape: 128 2048 (262144)
I0629 23:42:33.272673 28434 net.cpp:157] Top shape: 128 2048 (262144)
I0629 23:42:33.272676 28434 net.cpp:165] Memory required for data: 5266406716
I0629 23:42:33.272678 28434 layer_factory.hpp:77] Creating layer cls_pred
I0629 23:42:33.272687 28434 net.cpp:100] Creating Layer cls_pred
I0629 23:42:33.272691 28434 net.cpp:434] cls_pred <- fc6_drop6_0_split_0
I0629 23:42:33.272698 28434 net.cpp:408] cls_pred -> cls_pred
I0629 23:42:33.272853 28434 net.cpp:150] Setting up cls_pred
I0629 23:42:33.272858 28434 net.cpp:157] Top shape: 128 3 (384)
I0629 23:42:33.272861 28434 net.cpp:165] Memory required for data: 5266408252
I0629 23:42:33.272867 28434 layer_factory.hpp:77] Creating layer cls_pred_cls_pred_0_split
I0629 23:42:33.272872 28434 net.cpp:100] Creating Layer cls_pred_cls_pred_0_split
I0629 23:42:33.272876 28434 net.cpp:434] cls_pred_cls_pred_0_split <- cls_pred
I0629 23:42:33.272881 28434 net.cpp:408] cls_pred_cls_pred_0_split -> cls_pred_cls_pred_0_split_0
I0629 23:42:33.272889 28434 net.cpp:408] cls_pred_cls_pred_0_split -> cls_pred_cls_pred_0_split_1
I0629 23:42:33.272931 28434 net.cpp:150] Setting up cls_pred_cls_pred_0_split
I0629 23:42:33.272936 28434 net.cpp:157] Top shape: 128 3 (384)
I0629 23:42:33.272940 28434 net.cpp:157] Top shape: 128 3 (384)
I0629 23:42:33.272943 28434 net.cpp:165] Memory required for data: 5266411324
I0629 23:42:33.272945 28434 layer_factory.hpp:77] Creating layer bbox_pred
I0629 23:42:33.272951 28434 net.cpp:100] Creating Layer bbox_pred
I0629 23:42:33.272954 28434 net.cpp:434] bbox_pred <- fc6_drop6_0_split_1
I0629 23:42:33.272960 28434 net.cpp:408] bbox_pred -> bbox_pred
I0629 23:42:33.273268 28434 net.cpp:150] Setting up bbox_pred
I0629 23:42:33.273277 28434 net.cpp:157] Top shape: 128 12 (1536)
I0629 23:42:33.273279 28434 net.cpp:165] Memory required for data: 5266417468
I0629 23:42:33.273285 28434 layer_factory.hpp:77] Creating layer bbox_pred_bbox_pred_0_split
I0629 23:42:33.273290 28434 net.cpp:100] Creating Layer bbox_pred_bbox_pred_0_split
I0629 23:42:33.273293 28434 net.cpp:434] bbox_pred_bbox_pred_0_split <- bbox_pred
I0629 23:42:33.273298 28434 net.cpp:408] bbox_pred_bbox_pred_0_split -> bbox_pred_bbox_pred_0_split_0
I0629 23:42:33.273305 28434 net.cpp:408] bbox_pred_bbox_pred_0_split -> bbox_pred_bbox_pred_0_split_1
I0629 23:42:33.273355 28434 net.cpp:150] Setting up bbox_pred_bbox_pred_0_split
I0629 23:42:33.273365 28434 net.cpp:157] Top shape: 128 12 (1536)
I0629 23:42:33.273370 28434 net.cpp:157] Top shape: 128 12 (1536)
I0629 23:42:33.273372 28434 net.cpp:165] Memory required for data: 5266429756
I0629 23:42:33.273375 28434 layer_factory.hpp:77] Creating layer loss_cls
I0629 23:42:33.273381 28434 net.cpp:100] Creating Layer loss_cls
I0629 23:42:33.273385 28434 net.cpp:434] loss_cls <- cls_pred_cls_pred_0_split_0
I0629 23:42:33.273389 28434 net.cpp:434] loss_cls <- proposal_labels_proposal_info_1_split_0
…
I0629 23:42:33.286077 28434 image_gt_data_layer.cpp:241] output label size 3 : 2,6,36,48
I0629 23:42:33.286123 28434 image_gt_data_layer.cpp:241] output label size 4 : 2,6,18,24
I0629 23:42:33.286170 28434 image_gt_data_layer.cpp:241] output label size 5 : 2,6,18,24
I0629 23:42:33.286216 28434 image_gt_data_layer.cpp:241] output label size 6 : 2,6,9,12
I0629 23:42:33.286260 28434 image_gt_data_layer.cpp:256] output gt boxes size: 1,7,1,1
I0629 23:42:33.286262 28434 image_gt_data_layer.cpp:265]  --> has_mean_values_ = 1
I0629 23:42:33.305898 28434 net.cpp:150] Setting up data
I0629 23:42:33.305915 28434 net.cpp:157] Top shape: 2 4 576 768 (3538944)
I0629 23:42:33.305919 28434 net.cpp:157] Top shape: 2 6 72 96 (82944)
I0629 23:42:33.305922 28434 net.cpp:157] Top shape: 2 6 72 96 (82944)
I0629 23:42:33.305924 28434 net.cpp:157] Top shape: 2 6 36 48 (20736)
I0629 23:42:33.305927 28434 net.cpp:157] Top shape: 2 6 36 48 (20736)
I0629 23:42:33.305929 28434 net.cpp:157] Top shape: 2 6 18 24 (5184)
I0629 23:42:33.305932 28434 net.cpp:157] Top shape: 2 6 18 24 (5184)
I0629 23:42:33.305934 28434 net.cpp:157] Top shape: 2 6 9 12 (1296)
I0629 23:42:33.305953 28434 net.cpp:157] Top shape: 1 7 1 1 (7)
I0629 23:42:33.305958 28434 net.cpp:165] Memory required for data: 15031900
I0629 23:42:33.305963 28434 layer_factory.hpp:77] Creating layer label_1_3x5_data_1_split
I0629 23:42:33.305974 28434 net.cpp:100] Creating Layer label_1_3x5_data_1_split
I0629 23:42:33.305979 28434 net.cpp:434] label_1_3x5_data_1_split <- label_1_3x5
I0629 23:42:33.305985 28434 net.cpp:408] label_1_3x5_data_1_split -> label_1_3x5_data_1_split_0
I0629 23:42:33.305997 28434 net.cpp:408] label_1_3x5_data_1_split -> label_1_3x5_data_1_split_1
I0629 23:42:33.306079 28434 net.cpp:150] Setting up label_1_3x5_data_1_split
I0629 23:42:33.306087 28434 net.cpp:157] Top shape: 2 6 72 96 (82944)
I0629 23:42:33.306090 28434 net.cpp:157] Top shape: 2 6 72 96 (82944)
I0629 23:42:33.306093 28434 net.cpp:165] Memory required for data: 15695452
I0629 23:42:33.306097 28434 layer_factory.hpp:77] Creating layer label_1_5x7_data_2_split
I0629 23:42:33.306103 28434 net.cpp:100] Creating Layer label_1_5x7_data_2_split
I0629 23:42:33.306107 28434 net.cpp:434] label_1_5x7_data_2_split <- label_1_5x7
I0629 23:42:33.306113 28434 net.cpp:408] label_1_5x7_data_2_split -> label_1_5x7_data_2_split_0
I0629 23:42:33.306119 28434 net.cpp:408] label_1_5x7_data_2_split -> label_1_5x7_data_2_split_1
I0629 23:42:33.306166 28434 net.cpp:150] Setting up label_1_5x7_data_2_split
I0629 23:42:33.306172 28434 net.cpp:157] Top shape: 2 6 72 96 (82944)
I0629 23:42:33.306176 28434 net.cpp:157] Top shape: 2 6 72 96 (82944)
I0629 23:42:33.306180 28434 net.cpp:165] Memory required for data: 16359004
I0629 23:42:33.306181 28434 layer_factory.hpp:77] Creating layer label_2_3x5_data_3_split
I0629 23:42:33.306187 28434 net.cpp:100] Creating Layer label_2_3x5_data_3_split
I0629 23:42:33.306190 28434 net.cpp:434] label_2_3x5_data_3_split <- label_2_3x5
I0629 23:42:33.306195 28434 net.cpp:408] label_2_3x5_data_3_split -> label_2_3x5_data_3_split_0
I0629 23:42:33.306205 28434 net.cpp:408] label_2_3x5_data_3_split -> label_2_3x5_data_3_split_1
I0629 23:42:33.306249 28434 net.cpp:150] Setting up label_2_3x5_data_3_split
I0629 23:42:33.306255 28434 net.cpp:157] Top shape: 2 6 36 48 (20736)
I0629 23:42:33.306258 28434 net.cpp:157] Top shape: 2 6 36 48 (20736)
I0629 23:42:33.306262 28434 net.cpp:165] Memory required for data: 16524892
I0629 23:42:33.306264 28434 layer_factory.hpp:77] Creating layer label_2_5x7_data_4_split
I0629 23:42:33.306272 28434 net.cpp:100] Creating Layer label_2_5x7_data_4_split
I0629 23:42:33.306275 28434 net.cpp:434] label_2_5x7_data_4_split <- label_2_5x7
I0629 23:42:33.306282 28434 net.cpp:408] label_2_5x7_data_4_split -> label_2_5x7_data_4_split_0
I0629 23:42:33.306288 28434 net.cpp:408] label_2_5x7_data_4_split -> label_2_5x7_data_4_split_1
I0629 23:42:33.306334 28434 net.cpp:150] Setting up label_2_5x7_data_4_split
I0629 23:42:33.306340 28434 net.cpp:157] Top shape: 2 6 36 48 (20736)
I0629 23:42:33.306344 28434 net.cpp:157] Top shape: 2 6 36 48 (20736)
I0629 23:42:33.306347 28434 net.cpp:165] Memory required for data: 16690780
I0629 23:42:33.306350 28434 layer_factory.hpp:77] Creating layer label_3_3x5_data_5_split
I0629 23:42:33.306354 28434 net.cpp:100] Creating Layer label_3_3x5_data_5_split
I0629 23:42:33.306357 28434 net.cpp:434] label_3_3x5_data_5_split <- label_3_3x5
I0629 23:42:33.306363 28434 net.cpp:408] label_3_3x5_data_5_split -> label_3_3x5_data_5_split_0
I0629 23:42:33.306370 28434 net.cpp:408] label_3_3x5_data_5_split -> label_3_3x5_data_5_split_1
I0629 23:42:33.306412 28434 net.cpp:150] Setting up label_3_3x5_data_5_split
I0629 23:42:33.306417 28434 net.cpp:157] Top shape: 2 6 18 24 (5184)
I0629 23:42:33.306421 28434 net.cpp:157] Top shape: 2 6 18 24 (5184)
I0629 23:42:33.306424 28434 net.cpp:165] Memory required for data: 16732252
I0629 23:42:33.306427 28434 layer_factory.hpp:77] Creating layer label_3_5x7_data_6_split
I0629 23:42:33.306432 28434 net.cpp:100] Creating Layer label_3_5x7_data_6_split
I0629 23:42:33.306434 28434 net.cpp:434] label_3_5x7_data_6_split <- label_3_5x7
I0629 23:42:33.306439 28434 net.cpp:408] label_3_5x7_data_6_split -> label_3_5x7_data_6_split_0
I0629 23:42:33.306444 28434 net.cpp:408] label_3_5x7_data_6_split -> label_3_5x7_data_6_split_1
I0629 23:42:33.306488 28434 net.cpp:150] Setting up label_3_5x7_data_6_split
I0629 23:42:33.306493 28434 net.cpp:157] Top shape: 2 6 18 24 (5184)
I0629 23:42:33.306496 28434 net.cpp:157] Top shape: 2 6 18 24 (5184)
I0629 23:42:33.306499 28434 net.cpp:165] Memory required for data: 16773724
I0629 23:42:33.306502 28434 layer_factory.hpp:77] Creating layer label_4_3x5_data_7_split
I0629 23:42:33.306506 28434 net.cpp:100] Creating Layer label_4_3x5_data_7_split
I0629 23:42:33.306509 28434 net.cpp:434] label_4_3x5_data_7_split <- label_4_3x5
I0629 23:42:33.306515 28434 net.cpp:408] label_4_3x5_data_7_split -> label_4_3x5_data_7_split_0
I0629 23:42:33.306521 28434 net.cpp:408] label_4_3x5_data_7_split -> label_4_3x5_data_7_split_1
I0629 23:42:33.306618 28434 net.cpp:150] Setting up label_4_3x5_data_7_split
I0629 23:42:33.306625 28434 net.cpp:157] Top shape: 2 6 9 12 (1296)
I0629 23:42:33.306632 28434 net.cpp:157] Top shape: 2 6 9 12 (1296)
I0629 23:42:33.306638 28434 net.cpp:165] Memory required for data: 16784092
I0629 23:42:33.306644 28434 layer_factory.hpp:77] Creating layer conv1_1
I0629 23:42:33.306663 28434 net.cpp:100] Creating Layer conv1_1
I0629 23:42:33.306666 28434 net.cpp:434] conv1_1 <- data
I0629 23:42:33.306679 28434 net.cpp:408] conv1_1 -> conv1_1
I0629 23:42:33.312103 28434 net.cpp:150] Setting up conv1_1
I0629 23:42:33.312124 28434 net.cpp:157] Top shape: 2 64 576 768 (56623104)
I0629 23:42:33.312126 28434 net.cpp:165] Memory required for data: 243276508
I0629 23:42:33.312140 28434 layer_factory.hpp:77] Creating layer relu1_1
I0629 23:42:33.312150 28434 net.cpp:100] Creating Layer relu1_1
I0629 23:42:33.312155 28434 net.cpp:434] relu1_1 <- conv1_1
I0629 23:42:33.312161 28434 net.cpp:395] relu1_1 -> conv1_1 (in-place)
I0629 23:42:33.312618 28434 net.cpp:150] Setting up relu1_1
I0629 23:42:33.312628 28434 net.cpp:157] Top shape: 2 64 576 768 (56623104)
I0629 23:42:33.312629 28434 net.cpp:165] Memory required for data: 469768924
I0629 23:42:33.312631 28434 layer_factory.hpp:77] Creating layer conv1_2
I0629 23:42:33.312642 28434 net.cpp:100] Creating Layer conv1_2
I0629 23:42:33.312646 28434 net.cpp:434] conv1_2 <- conv1_1
I0629 23:42:33.312654 28434 net.cpp:408] conv1_2 -> conv1_2
I0629 23:42:33.315768 28434 net.cpp:150] Setting up conv1_2
I0629 23:42:33.315791 28434 net.cpp:157] Top shape: 2 64 576 768 (56623104)
I0629 23:42:33.315793 28434 net.cpp:165] Memory required for data: 696261340
I0629 23:42:33.315809 28434 layer_factory.hpp:77] Creating layer relu1_2
I0629 23:42:33.315822 28434 net.cpp:100] Creating Layer relu1_2
I0629 23:42:33.315826 28434 net.cpp:434] relu1_2 <- conv1_2
I0629 23:42:33.315834 28434 net.cpp:395] relu1_2 -> conv1_2 (in-place)
I0629 23:42:33.316283 28434 net.cpp:150] Setting up relu1_2
I0629 23:42:33.316293 28434 net.cpp:157] Top shape: 2 64 576 768 (56623104)
I0629 23:42:33.316294 28434 net.cpp:165] Memory required for data: 922753756
I0629 23:42:33.316298 28434 layer_factory.hpp:77] Creating layer pool1
I0629 23:42:33.316305 28434 net.cpp:100] Creating Layer pool1
I0629 23:42:33.316308 28434 net.cpp:434] pool1 <- conv1_2
I0629 23:42:33.316314 28434 net.cpp:408] pool1 -> pool1
I0629 23:42:33.316385 28434 net.cpp:150] Setting up pool1
I0629 23:42:33.316391 28434 net.cpp:157] Top shape: 2 64 288 384 (14155776)
I0629 23:42:33.316393 28434 net.cpp:165] Memory required for data: 979376860
I0629 23:42:33.316397 28434 layer_factory.hpp:77] Creating layer conv2_1
I0629 23:42:33.316406 28434 net.cpp:100] Creating Layer conv2_1
I0629 23:42:33.316411 28434 net.cpp:434] conv2_1 <- pool1
I0629 23:42:33.316416 28434 net.cpp:408] conv2_1 -> conv2_1
I0629 23:42:33.318650 28434 net.cpp:150] Setting up conv2_1
I0629 23:42:33.318667 28434 net.cpp:157] Top shape: 2 128 288 384 (28311552)
I0629 23:42:33.318670 28434 net.cpp:165] Memory required for data: 1092623068
I0629 23:42:33.318681 28434 layer_factory.hpp:77] Creating layer relu2_1
I0629 23:42:33.318692 28434 net.cpp:100] Creating Layer relu2_1
I0629 23:42:33.318696 28434 net.cpp:434] relu2_1 <- conv2_1
I0629 23:42:33.318702 28434 net.cpp:395] relu2_1 -> conv2_1 (in-place)
I0629 23:42:33.319551 28434 net.cpp:150] Setting up relu2_1
I0629 23:42:33.319561 28434 net.cpp:157] Top shape: 2 128 288 384 (28311552)
I0629 23:42:33.319564 28434 net.cpp:165] Memory required for data: 1205869276
I0629 23:42:33.319567 28434 layer_factory.hpp:77] Creating layer conv2_2
I0629 23:42:33.319578 28434 net.cpp:100] Creating Layer conv2_2
I0629 23:42:33.319583 28434 net.cpp:434] conv2_2 <- conv2_1
I0629 23:42:33.319591 28434 net.cpp:408] conv2_2 -> conv2_2
I0629 23:42:33.325099 28434 net.cpp:150] Setting up conv2_2
I0629 23:42:33.325127 28434 net.cpp:157] Top shape: 2 128 288 384 (28311552)
I0629 23:42:33.325129 28434 net.cpp:165] Memory required for data: 1319115484
I0629 23:42:33.325145 28434 layer_factory.hpp:77] Creating layer relu2_2
I0629 23:42:33.325161 28434 net.cpp:100] Creating Layer relu2_2
I0629 23:42:33.325166 28434 net.cpp:434] relu2_2 <- conv2_2
I0629 23:42:33.325175 28434 net.cpp:395] relu2_2 -> conv2_2 (in-place)
I0629 23:42:33.325587 28434 net.cpp:150] Setting up relu2_2
I0629 23:42:33.325598 28434 net.cpp:157] Top shape: 2 128 288 384 (28311552)
I0629 23:42:33.325601 28434 net.cpp:165] Memory required for data: 1432361692
I0629 23:42:33.325605 28434 layer_factory.hpp:77] Creating layer pool2
I0629 23:42:33.325616 28434 net.cpp:100] Creating Layer pool2
I0629 23:42:33.325620 28434 net.cpp:434] pool2 <- conv2_2
I0629 23:42:33.325626 28434 net.cpp:408] pool2 -> pool2
I0629 23:42:33.325695 28434 net.cpp:150] Setting up pool2
I0629 23:42:33.325704 28434 net.cpp:157] Top shape: 2 128 144 192 (7077888)
I0629 23:42:33.325707 28434 net.cpp:165] Memory required for data: 1460673244
I0629 23:42:33.325709 28434 layer_factory.hpp:77] Creating layer conv3_1
I0629 23:42:33.325719 28434 net.cpp:100] Creating Layer conv3_1
I0629 23:42:33.325722 28434 net.cpp:434] conv3_1 <- pool2
I0629 23:42:33.325727 28434 net.cpp:408] conv3_1 -> conv3_1
I0629 23:42:33.328706 28434 net.cpp:150] Setting up conv3_1
I0629 23:42:33.328725 28434 net.cpp:157] Top shape: 2 256 144 192 (14155776)
I0629 23:42:33.328728 28434 net.cpp:165] Memory required for data: 1517296348
I0629 23:42:33.328742 28434 layer_factory.hpp:77] Creating layer relu3_1
I0629 23:42:33.328752 28434 net.cpp:100] Creating Layer relu3_1
I0629 23:42:33.328757 28434 net.cpp:434] relu3_1 <- conv3_1
I0629 23:42:33.328768 28434 net.cpp:395] relu3_1 -> conv3_1 (in-place)
I0629 23:42:33.329083 28434 net.cpp:150] Setting up relu3_1
I0629 23:42:33.329094 28434 net.cpp:157] Top shape: 2 256 144 192 (14155776)
I0629 23:42:33.329097 28434 net.cpp:165] Memory required for data: 1573919452
I0629 23:42:33.329100 28434 layer_factory.hpp:77] Creating layer conv3_2
I0629 23:42:33.329110 28434 net.cpp:100] Creating Layer conv3_2
I0629 23:42:33.329114 28434 net.cpp:434] conv3_2 <- conv3_1
I0629 23:42:33.329120 28434 net.cpp:408] conv3_2 -> conv3_2
I0629 23:42:33.332473 28434 net.cpp:150] Setting up conv3_2
I0629 23:42:33.332495 28434 net.cpp:157] Top shape: 2 256 144 192 (14155776)
I0629 23:42:33.332499 28434 net.cpp:165] Memory required for data: 1630542556
I0629 23:42:33.332509 28434 layer_factory.hpp:77] Creating layer relu3_2
I0629 23:42:33.332518 28434 net.cpp:100] Creating Layer relu3_2
I0629 23:42:33.332522 28434 net.cpp:434] relu3_2 <- conv3_2
I0629 23:42:33.332530 28434 net.cpp:395] relu3_2 -> conv3_2 (in-place)
I0629 23:42:33.333292 28434 net.cpp:150] Setting up relu3_2
I0629 23:42:33.333307 28434 net.cpp:157] Top shape: 2 256 144 192 (14155776)
I0629 23:42:33.333309 28434 net.cpp:165] Memory required for data: 1687165660
I0629 23:42:33.333313 28434 layer_factory.hpp:77] Creating layer conv3_3
I0629 23:42:33.333323 28434 net.cpp:100] Creating Layer conv3_3
I0629 23:42:33.333329 28434 net.cpp:434] conv3_3 <- conv3_2
I0629 23:42:33.333336 28434 net.cpp:408] conv3_3 -> conv3_3
I0629 23:42:33.336685 28434 net.cpp:150] Setting up conv3_3
I0629 23:42:33.336705 28434 net.cpp:157] Top shape: 2 256 144 192 (14155776)
I0629 23:42:33.336709 28434 net.cpp:165] Memory required for data: 1743788764
I0629 23:42:33.336717 28434 layer_factory.hpp:77] Creating layer relu3_3
I0629 23:42:33.336729 28434 net.cpp:100] Creating Layer relu3_3
I0629 23:42:33.336733 28434 net.cpp:434] relu3_3 <- conv3_3
I0629 23:42:33.336740 28434 net.cpp:395] relu3_3 -> conv3_3 (in-place)
I0629 23:42:33.337503 28434 net.cpp:150] Setting up relu3_3
I0629 23:42:33.337515 28434 net.cpp:157] Top shape: 2 256 144 192 (14155776)
I0629 23:42:33.337518 28434 net.cpp:165] Memory required for data: 1800411868
I0629 23:42:33.337522 28434 layer_factory.hpp:77] Creating layer pool3
I0629 23:42:33.337532 28434 net.cpp:100] Creating Layer pool3
I0629 23:42:33.337536 28434 net.cpp:434] pool3 <- conv3_3
I0629 23:42:33.337543 28434 net.cpp:408] pool3 -> pool3
I0629 23:42:33.337607 28434 net.cpp:150] Setting up pool3
I0629 23:42:33.337615 28434 net.cpp:157] Top shape: 2 256 72 96 (3538944)
I0629 23:42:33.337616 28434 net.cpp:165] Memory required for data: 1814567644
I0629 23:42:33.337620 28434 layer_factory.hpp:77] Creating layer conv4_1
I0629 23:42:33.337630 28434 net.cpp:100] Creating Layer conv4_1
I0629 23:42:33.337638 28434 net.cpp:434] conv4_1 <- pool3
I0629 23:42:33.337646 28434 net.cpp:408] conv4_1 -> conv4_1
I0629 23:42:33.342329 28434 net.cpp:150] Setting up conv4_1
I0629 23:42:33.342348 28434 net.cpp:157] Top shape: 2 512 72 96 (7077888)
I0629 23:42:33.342352 28434 net.cpp:165] Memory required for data: 1842879196
I0629 23:42:33.342361 28434 layer_factory.hpp:77] Creating layer relu4_1
I0629 23:42:33.342370 28434 net.cpp:100] Creating Layer relu4_1
I0629 23:42:33.342376 28434 net.cpp:434] relu4_1 <- conv4_1
I0629 23:42:33.342383 28434 net.cpp:395] relu4_1 -> conv4_1 (in-place)
I0629 23:42:33.342792 28434 net.cpp:150] Setting up relu4_1
I0629 23:42:33.342798 28434 net.cpp:157] Top shape: 2 512 72 96 (7077888)
I0629 23:42:33.342802 28434 net.cpp:165] Memory required for data: 1871190748
I0629 23:42:33.342805 28434 layer_factory.hpp:77] Creating layer conv4_2
I0629 23:42:33.342813 28434 net.cpp:100] Creating Layer conv4_2
I0629 23:42:33.342818 28434 net.cpp:434] conv4_2 <- conv4_1
I0629 23:42:33.342824 28434 net.cpp:408] conv4_2 -> conv4_2
I0629 23:42:33.353677 28434 net.cpp:150] Setting up conv4_2
I0629 23:42:33.353701 28434 net.cpp:157] Top shape: 2 512 72 96 (7077888)
I0629 23:42:33.353704 28434 net.cpp:165] Memory required for data: 1899502300
I0629 23:42:33.353720 28434 layer_factory.hpp:77] Creating layer relu4_2
I0629 23:42:33.353734 28434 net.cpp:100] Creating Layer relu4_2
I0629 23:42:33.353739 28434 net.cpp:434] relu4_2 <- conv4_2
I0629 23:42:33.353745 28434 net.cpp:395] relu4_2 -> conv4_2 (in-place)
I0629 23:42:33.354192 28434 net.cpp:150] Setting up relu4_2
I0629 23:42:33.354202 28434 net.cpp:157] Top shape: 2 512 72 96 (7077888)
I0629 23:42:33.354204 28434 net.cpp:165] Memory required for data: 1927813852
I0629 23:42:33.354207 28434 layer_factory.hpp:77] Creating layer conv4_3
I0629 23:42:33.354215 28434 net.cpp:100] Creating Layer conv4_3
I0629 23:42:33.354219 28434 net.cpp:434] conv4_3 <- conv4_2
I0629 23:42:33.354224 28434 net.cpp:408] conv4_3 -> conv4_3
I0629 23:42:33.361672 28434 net.cpp:150] Setting up conv4_3
I0629 23:42:33.361696 28434 net.cpp:157] Top shape: 2 512 72 96 (7077888)
I0629 23:42:33.361699 28434 net.cpp:165] Memory required for data: 1956125404
I0629 23:42:33.361707 28434 layer_factory.hpp:77] Creating layer relu4_3
I0629 23:42:33.361716 28434 net.cpp:100] Creating Layer relu4_3
I0629 23:42:33.361721 28434 net.cpp:434] relu4_3 <- conv4_3
I0629 23:42:33.361729 28434 net.cpp:395] relu4_3 -> conv4_3 (in-place)
I0629 23:42:33.362756 28434 net.cpp:150] Setting up relu4_3
I0629 23:42:33.362767 28434 net.cpp:157] Top shape: 2 512 72 96 (7077888)
I0629 23:42:33.362771 28434 net.cpp:165] Memory required for data: 1984436956
I0629 23:42:33.362774 28434 layer_factory.hpp:77] Creating layer conv4_3_relu4_3_0_split
I0629 23:42:33.362782 28434 net.cpp:100] Creating Layer conv4_3_relu4_3_0_split
I0629 23:42:33.362785 28434 net.cpp:434] conv4_3_relu4_3_0_split <- conv4_3
I0629 23:42:33.362793 28434 net.cpp:408] conv4_3_relu4_3_0_split -> conv4_3_relu4_3_0_split_0
I0629 23:42:33.362802 28434 net.cpp:408] conv4_3_relu4_3_0_split -> conv4_3_relu4_3_0_split_1
I0629 23:42:33.362807 28434 net.cpp:408] conv4_3_relu4_3_0_split -> conv4_3_relu4_3_0_split_2
I0629 23:42:33.362885 28434 net.cpp:150] Setting up conv4_3_relu4_3_0_split
I0629 23:42:33.362892 28434 net.cpp:157] Top shape: 2 512 72 96 (7077888)
I0629 23:42:33.362896 28434 net.cpp:157] Top shape: 2 512 72 96 (7077888)
I0629 23:42:33.362900 28434 net.cpp:157] Top shape: 2 512 72 96 (7077888)
I0629 23:42:33.362902 28434 net.cpp:165] Memory required for data: 2069371612
I0629 23:42:33.362905 28434 layer_factory.hpp:77] Creating layer loss1_conv1
I0629 23:42:33.362924 28434 net.cpp:100] Creating Layer loss1_conv1
I0629 23:42:33.362928 28434 net.cpp:434] loss1_conv1 <- conv4_3_relu4_3_0_split_0
I0629 23:42:33.362934 28434 net.cpp:408] loss1_conv1 -> loss1_conv1
I0629 23:42:33.386699 28434 net.cpp:150] Setting up loss1_conv1
I0629 23:42:33.386724 28434 net.cpp:157] Top shape: 2 512 72 96 (7077888)
I0629 23:42:33.386729 28434 net.cpp:165] Memory required for data: 2097683164
I0629 23:42:33.386739 28434 layer_factory.hpp:77] Creating layer loss_relu1
I0629 23:42:33.386749 28434 net.cpp:100] Creating Layer loss_relu1
I0629 23:42:33.386754 28434 net.cpp:434] loss_relu1 <- loss1_conv1
I0629 23:42:33.386760 28434 net.cpp:395] loss_relu1 -> loss1_conv1 (in-place)
I0629 23:42:33.387130 28434 net.cpp:150] Setting up loss_relu1
I0629 23:42:33.387136 28434 net.cpp:157] Top shape: 2 512 72 96 (7077888)
I0629 23:42:33.387140 28434 net.cpp:165] Memory required for data: 2125994716
I0629 23:42:33.387142 28434 layer_factory.hpp:77] Creating layer loss1_conv1_loss_relu1_0_split
I0629 23:42:33.387148 28434 net.cpp:100] Creating Layer loss1_conv1_loss_relu1_0_split
I0629 23:42:33.387151 28434 net.cpp:434] loss1_conv1_loss_relu1_0_split <- loss1_conv1
I0629 23:42:33.387158 28434 net.cpp:408] loss1_conv1_loss_relu1_0_split -> loss1_conv1_loss_relu1_0_split_0
I0629 23:42:33.387166 28434 net.cpp:408] loss1_conv1_loss_relu1_0_split -> loss1_conv1_loss_relu1_0_split_1
I0629 23:42:33.387220 28434 net.cpp:150] Setting up loss1_conv1_loss_relu1_0_split
I0629 23:42:33.387225 28434 net.cpp:157] Top shape: 2 512 72 96 (7077888)
I0629 23:42:33.387229 28434 net.cpp:157] Top shape: 2 512 72 96 (7077888)
I0629 23:42:33.387233 28434 net.cpp:165] Memory required for data: 2182617820
I0629 23:42:33.387235 28434 layer_factory.hpp:77] Creating layer LFCN_1_3x5
I0629 23:42:33.387245 28434 net.cpp:100] Creating Layer LFCN_1_3x5
I0629 23:42:33.387249 28434 net.cpp:434] LFCN_1_3x5 <- loss1_conv1_loss_relu1_0_split_0
I0629 23:42:33.387256 28434 net.cpp:408] LFCN_1_3x5 -> LFCN_1_3x5
I0629 23:42:33.390929 28434 net.cpp:150] Setting up LFCN_1_3x5
I0629 23:42:33.390947 28434 net.cpp:157] Top shape: 2 7 72 96 (96768)
I0629 23:42:33.390949 28434 net.cpp:165] Memory required for data: 2183004892
I0629 23:42:33.390959 28434 layer_factory.hpp:77] Creating layer LFCN_1_3x5_LFCN_1_3x5_0_split
I0629 23:42:33.390970 28434 net.cpp:100] Creating Layer LFCN_1_3x5_LFCN_1_3x5_0_split
I0629 23:42:33.390974 28434 net.cpp:434] LFCN_1_3x5_LFCN_1_3x5_0_split <- LFCN_1_3x5
I0629 23:42:33.390981 28434 net.cpp:408] LFCN_1_3x5_LFCN_1_3x5_0_split -> LFCN_1_3x5_LFCN_1_3x5_0_split_0
I0629 23:42:33.390995 28434 net.cpp:408] LFCN_1_3x5_LFCN_1_3x5_0_split -> LFCN_1_3x5_LFCN_1_3x5_0_split_1
I0629 23:42:33.391001 28434 net.cpp:408] LFCN_1_3x5_LFCN_1_3x5_0_split -> LFCN_1_3x5_LFCN_1_3x5_0_split_2
I0629 23:42:33.391077 28434 net.cpp:150] Setting up LFCN_1_3x5_LFCN_1_3x5_0_split
I0629 23:42:33.391083 28434 net.cpp:157] Top shape: 2 7 72 96 (96768)
I0629 23:42:33.391088 28434 net.cpp:157] Top shape: 2 7 72 96 (96768)
I0629 23:42:33.391091 28434 net.cpp:157] Top shape: 2 7 72 96 (96768)
I0629 23:42:33.391093 28434 net.cpp:165] Memory required for data: 2184166108
I0629 23:42:33.391096 28434 layer_factory.hpp:77] Creating layer detection_loss_1_3x5
I0629 23:42:33.391106 28434 net.cpp:100] Creating Layer detection_loss_1_3x5
I0629 23:42:33.391111 28434 net.cpp:434] detection_loss_1_3x5 <- LFCN_1_3x5_LFCN_1_3x5_0_split_0
I0629 23:42:33.391115 28434 net.cpp:434] detection_loss_1_3x5 <- label_1_3x5_data_1_split_0
I0629 23:42:33.391122 28434 net.cpp:408] detection_loss_1_3x5 -> loss_1_3x5
I0629 23:42:33.391131 28434 layer_factory.hpp:77] Creating layer detection_loss_1_3x5
I0629 23:42:33.391731 28434 net.cpp:150] Setting up detection_loss_1_3x5
I0629 23:42:33.391742 28434 net.cpp:157] Top shape: 1 1 1 2 (2)
I0629 23:42:33.391744 28434 net.cpp:160]     with loss weight 0.5
I0629 23:42:33.391762 28434 net.cpp:165] Memory required for data: 2184166116
I0629 23:42:33.391767 28434 layer_factory.hpp:77] Creating layer detection_accuracy_1_3x5
I0629 23:42:33.391775 28434 net.cpp:100] Creating Layer detection_accuracy_1_3x5
I0629 23:42:33.391779 28434 net.cpp:434] detection_accuracy_1_3x5 <- LFCN_1_3x5_LFCN_1_3x5_0_split_1
I0629 23:42:33.391785 28434 net.cpp:434] detection_accuracy_1_3x5 <- label_1_3x5_data_1_split_1
I0629 23:42:33.391790 28434 net.cpp:408] detection_accuracy_1_3x5 -> accuracy_1_3x5
I0629 23:42:33.391796 28434 net.cpp:408] detection_accuracy_1_3x5 -> boxiou_1_3x5
I0629 23:42:33.391844 28434 net.cpp:150] Setting up detection_accuracy_1_3x5
I0629 23:42:33.391852 28434 net.cpp:157] Top shape: 1 1 1 2 (2)
I0629 23:42:33.391855 28434 net.cpp:157] Top shape: 1 1 1 1 (1)
I0629 23:42:33.391858 28434 net.cpp:165] Memory required for data: 2184166128
I0629 23:42:33.391861 28434 layer_factory.hpp:77] Creating layer LFCN_1_5x7
I0629 23:42:33.391871 28434 net.cpp:100] Creating Layer LFCN_1_5x7
I0629 23:42:33.391875 28434 net.cpp:434] LFCN_1_5x7 <- loss1_conv1_loss_relu1_0_split_1
I0629 23:42:33.391881 28434 net.cpp:408] LFCN_1_5x7 -> LFCN_1_5x7
I0629 23:42:33.397451 28434 net.cpp:150] Setting up LFCN_1_5x7
I0629 23:42:33.397470 28434 net.cpp:157] Top shape: 2 7 72 96 (96768)
I0629 23:42:33.397473 28434 net.cpp:165] Memory required for data: 2184553200
I0629 23:42:33.397482 28434 layer_factory.hpp:77] Creating layer LFCN_1_5x7_LFCN_1_5x7_0_split
I0629 23:42:33.397491 28434 net.cpp:100] Creating Layer LFCN_1_5x7_LFCN_1_5x7_0_split
I0629 23:42:33.397496 28434 net.cpp:434] LFCN_1_5x7_LFCN_1_5x7_0_split <- LFCN_1_5x7
I0629 23:42:33.397505 28434 net.cpp:408] LFCN_1_5x7_LFCN_1_5x7_0_split -> LFCN_1_5x7_LFCN_1_5x7_0_split_0
I0629 23:42:33.397516 28434 net.cpp:408] LFCN_1_5x7_LFCN_1_5x7_0_split -> LFCN_1_5x7_LFCN_1_5x7_0_split_1
I0629 23:42:33.397521 28434 net.cpp:408] LFCN_1_5x7_LFCN_1_5x7_0_split -> LFCN_1_5x7_LFCN_1_5x7_0_split_2
I0629 23:42:33.397596 28434 net.cpp:150] Setting up LFCN_1_5x7_LFCN_1_5x7_0_split
I0629 23:42:33.397603 28434 net.cpp:157] Top shape: 2 7 72 96 (96768)
I0629 23:42:33.397606 28434 net.cpp:157] Top shape: 2 7 72 96 (96768)
I0629 23:42:33.397609 28434 net.cpp:157] Top shape: 2 7 72 96 (96768)
I0629 23:42:33.397613 28434 net.cpp:165] Memory required for data: 2185714416
I0629 23:42:33.397615 28434 layer_factory.hpp:77] Creating layer detection_loss_1_5x7
I0629 23:42:33.397624 28434 net.cpp:100] Creating Layer detection_loss_1_5x7
I0629 23:42:33.397629 28434 net.cpp:434] detection_loss_1_5x7 <- LFCN_1_5x7_LFCN_1_5x7_0_split_0
I0629 23:42:33.397634 28434 net.cpp:434] detection_loss_1_5x7 <- label_1_5x7_data_2_split_0
I0629 23:42:33.397639 28434 net.cpp:408] detection_loss_1_5x7 -> loss_1_5x7
I0629 23:42:33.397650 28434 layer_factory.hpp:77] Creating layer detection_loss_1_5x7
I0629 23:42:33.399006 28434 net.cpp:150] Setting up detection_loss_1_5x7
I0629 23:42:33.399020 28434 net.cpp:157] Top shape: 1 1 1 2 (2)
I0629 23:42:33.399024 28434 net.cpp:160]     with loss weight 0.9
I0629 23:42:33.399032 28434 net.cpp:165] Memory required for data: 2185714424
I0629 23:42:33.399035 28434 layer_factory.hpp:77] Creating layer detection_accuracy_1_5x7
I0629 23:42:33.399044 28434 net.cpp:100] Creating Layer detection_accuracy_1_5x7
I0629 23:42:33.399049 28434 net.cpp:434] detection_accuracy_1_5x7 <- LFCN_1_5x7_LFCN_1_5x7_0_split_1
I0629 23:42:33.399055 28434 net.cpp:434] detection_accuracy_1_5x7 <- label_1_5x7_data_2_split_1
I0629 23:42:33.399061 28434 net.cpp:408] detection_accuracy_1_5x7 -> accuracy_1_5x7
I0629 23:42:33.399068 28434 net.cpp:408] detection_accuracy_1_5x7 -> boxiou_1_5x7
I0629 23:42:33.399123 28434 net.cpp:150] Setting up detection_accuracy_1_5x7
I0629 23:42:33.399129 28434 net.cpp:157] Top shape: 1 1 1 2 (2)
I0629 23:42:33.399132 28434 net.cpp:157] Top shape: 1 1 1 1 (1)
I0629 23:42:33.399135 28434 net.cpp:165] Memory required for data: 2185714436
I0629 23:42:33.399138 28434 layer_factory.hpp:77] Creating layer pool4
I0629 23:42:33.399143 28434 net.cpp:100] Creating Layer pool4
I0629 23:42:33.399147 28434 net.cpp:434] pool4 <- conv4_3_relu4_3_0_split_1
I0629 23:42:33.399153 28434 net.cpp:408] pool4 -> pool4
I0629 23:42:33.399202 28434 net.cpp:150] Setting up pool4
I0629 23:42:33.399209 28434 net.cpp:157] Top shape: 2 512 36 48 (1769472)
I0629 23:42:33.399211 28434 net.cpp:165] Memory required for data: 2192792324
I0629 23:42:33.399214 28434 layer_factory.hpp:77] Creating layer conv5_1
I0629 23:42:33.399221 28434 net.cpp:100] Creating Layer conv5_1
I0629 23:42:33.399224 28434 net.cpp:434] conv5_1 <- pool4
I0629 23:42:33.399230 28434 net.cpp:408] conv5_1 -> conv5_1
I0629 23:42:33.406738 28434 net.cpp:150] Setting up conv5_1
I0629 23:42:33.406759 28434 net.cpp:157] Top shape: 2 512 36 48 (1769472)
I0629 23:42:33.406762 28434 net.cpp:165] Memory required for data: 2199870212
I0629 23:42:33.406770 28434 layer_factory.hpp:77] Creating layer relu5_1
I0629 23:42:33.406782 28434 net.cpp:100] Creating Layer relu5_1
I0629 23:42:33.406787 28434 net.cpp:434] relu5_1 <- conv5_1
I0629 23:42:33.406795 28434 net.cpp:395] relu5_1 -> conv5_1 (in-place)
I0629 23:42:33.407155 28434 net.cpp:150] Setting up relu5_1
I0629 23:42:33.407164 28434 net.cpp:157] Top shape: 2 512 36 48 (1769472)
I0629 23:42:33.407167 28434 net.cpp:165] Memory required for data: 2206948100
I0629 23:42:33.407171 28434 layer_factory.hpp:77] Creating layer conv5_2
I0629 23:42:33.407182 28434 net.cpp:100] Creating Layer conv5_2
I0629 23:42:33.407186 28434 net.cpp:434] conv5_2 <- conv5_1
I0629 23:42:33.407191 28434 net.cpp:408] conv5_2 -> conv5_2
I0629 23:42:33.415521 28434 net.cpp:150] Setting up conv5_2
I0629 23:42:33.415546 28434 net.cpp:157] Top shape: 2 512 36 48 (1769472)
I0629 23:42:33.415549 28434 net.cpp:165] Memory required for data: 2214025988
I0629 23:42:33.415562 28434 layer_factory.hpp:77] Creating layer relu5_2
I0629 23:42:33.415575 28434 net.cpp:100] Creating Layer relu5_2
I0629 23:42:33.415580 28434 net.cpp:434] relu5_2 <- conv5_2
I0629 23:42:33.415591 28434 net.cpp:395] relu5_2 -> conv5_2 (in-place)
I0629 23:42:33.415897 28434 net.cpp:150] Setting up relu5_2
I0629 23:42:33.415910 28434 net.cpp:157] Top shape: 2 512 36 48 (1769472)
I0629 23:42:33.415911 28434 net.cpp:165] Memory required for data: 2221103876
I0629 23:42:33.415915 28434 layer_factory.hpp:77] Creating layer conv5_3
I0629 23:42:33.415925 28434 net.cpp:100] Creating Layer conv5_3
I0629 23:42:33.415928 28434 net.cpp:434] conv5_3 <- conv5_2
I0629 23:42:33.415935 28434 net.cpp:408] conv5_3 -> conv5_3
I0629 23:42:33.422196 28434 net.cpp:150] Setting up conv5_3
I0629 23:42:33.422215 28434 net.cpp:157] Top shape: 2 512 36 48 (1769472)
I0629 23:42:33.422219 28434 net.cpp:165] Memory required for data: 2228181764
I0629 23:42:33.422228 28434 layer_factory.hpp:77] Creating layer relu5_3
I0629 23:42:33.422238 28434 net.cpp:100] Creating Layer relu5_3
I0629 23:42:33.422247 28434 net.cpp:434] relu5_3 <- conv5_3
I0629 23:42:33.422255 28434 net.cpp:395] relu5_3 -> conv5_3 (in-place)
I0629 23:42:33.423091 28434 net.cpp:150] Setting up relu5_3
I0629 23:42:33.423105 28434 net.cpp:157] Top shape: 2 512 36 48 (1769472)
I0629 23:42:33.423107 28434 net.cpp:165] Memory required for data: 2235259652
I0629 23:42:33.423111 28434 layer_factory.hpp:77] Creating layer conv5_3_relu5_3_0_split
I0629 23:42:33.423118 28434 net.cpp:100] Creating Layer conv5_3_relu5_3_0_split
I0629 23:42:33.423122 28434 net.cpp:434] conv5_3_relu5_3_0_split <- conv5_3
I0629 23:42:33.423130 28434 net.cpp:408] conv5_3_relu5_3_0_split -> conv5_3_relu5_3_0_split_0
I0629 23:42:33.423138 28434 net.cpp:408] conv5_3_relu5_3_0_split -> conv5_3_relu5_3_0_split_1
I0629 23:42:33.423144 28434 net.cpp:408] conv5_3_relu5_3_0_split -> conv5_3_relu5_3_0_split_2
I0629 23:42:33.423210 28434 net.cpp:150] Setting up conv5_3_relu5_3_0_split
I0629 23:42:33.423216 28434 net.cpp:157] Top shape: 2 512 36 48 (1769472)
I0629 23:42:33.423220 28434 net.cpp:157] Top shape: 2 512 36 48 (1769472)
I0629 23:42:33.423224 28434 net.cpp:157] Top shape: 2 512 36 48 (1769472)
I0629 23:42:33.423228 28434 net.cpp:165] Memory required for data: 2256493316
I0629 23:42:33.423230 28434 layer_factory.hpp:77] Creating layer LFCN_2_3x5
I0629 23:42:33.423239 28434 net.cpp:100] Creating Layer LFCN_2_3x5
I0629 23:42:33.423243 28434 net.cpp:434] LFCN_2_3x5 <- conv5_3_relu5_3_0_split_0
I0629 23:42:33.423249 28434 net.cpp:408] LFCN_2_3x5 -> LFCN_2_3x5
I0629 23:42:33.426321 28434 net.cpp:150] Setting up LFCN_2_3x5
I0629 23:42:33.426340 28434 net.cpp:157] Top shape: 2 7 36 48 (24192)
I0629 23:42:33.426343 28434 net.cpp:165] Memory required for data: 2256590084
I0629 23:42:33.426360 28434 layer_factory.hpp:77] Creating layer LFCN_2_3x5_LFCN_2_3x5_0_split
I0629 23:42:33.426370 28434 net.cpp:100] Creating Layer LFCN_2_3x5_LFCN_2_3x5_0_split
I0629 23:42:33.426378 28434 net.cpp:434] LFCN_2_3x5_LFCN_2_3x5_0_split <- LFCN_2_3x5
I0629 23:42:33.426388 28434 net.cpp:408] LFCN_2_3x5_LFCN_2_3x5_0_split -> LFCN_2_3x5_LFCN_2_3x5_0_split_0
I0629 23:42:33.426405 28434 net.cpp:408] LFCN_2_3x5_LFCN_2_3x5_0_split -> LFCN_2_3x5_LFCN_2_3x5_0_split_1
I0629 23:42:33.426412 28434 net.cpp:408] LFCN_2_3x5_LFCN_2_3x5_0_split -> LFCN_2_3x5_LFCN_2_3x5_0_split_2
I0629 23:42:33.426473 28434 net.cpp:150] Setting up LFCN_2_3x5_LFCN_2_3x5_0_split
I0629 23:42:33.426479 28434 net.cpp:157] Top shape: 2 7 36 48 (24192)
I0629 23:42:33.426483 28434 net.cpp:157] Top shape: 2 7 36 48 (24192)
I0629 23:42:33.426486 28434 net.cpp:157] Top shape: 2 7 36 48 (24192)
I0629 23:42:33.426489 28434 net.cpp:165] Memory required for data: 2256880388
I0629 23:42:33.426492 28434 layer_factory.hpp:77] Creating layer detection_loss_2_3x5
I0629 23:42:33.426501 28434 net.cpp:100] Creating Layer detection_loss_2_3x5
I0629 23:42:33.426504 28434 net.cpp:434] detection_loss_2_3x5 <- LFCN_2_3x5_LFCN_2_3x5_0_split_0
I0629 23:42:33.426508 28434 net.cpp:434] detection_loss_2_3x5 <- label_2_3x5_data_3_split_0
I0629 23:42:33.426515 28434 net.cpp:408] detection_loss_2_3x5 -> loss_2_3x5
I0629 23:42:33.426525 28434 layer_factory.hpp:77] Creating layer detection_loss_2_3x5
I0629 23:42:33.427549 28434 net.cpp:150] Setting up detection_loss_2_3x5
I0629 23:42:33.427561 28434 net.cpp:157] Top shape: 1 1 1 2 (2)
I0629 23:42:33.427563 28434 net.cpp:160]     with loss weight 1
I0629 23:42:33.427572 28434 net.cpp:165] Memory required for data: 2256880396
I0629 23:42:33.427577 28434 layer_factory.hpp:77] Creating layer detection_accuracy_2_3x5
I0629 23:42:33.427584 28434 net.cpp:100] Creating Layer detection_accuracy_2_3x5
I0629 23:42:33.427589 28434 net.cpp:434] detection_accuracy_2_3x5 <- LFCN_2_3x5_LFCN_2_3x5_0_split_1
I0629 23:42:33.427594 28434 net.cpp:434] detection_accuracy_2_3x5 <- label_2_3x5_data_3_split_1
I0629 23:42:33.427603 28434 net.cpp:408] detection_accuracy_2_3x5 -> accuracy_2_3x5
I0629 23:42:33.427611 28434 net.cpp:408] detection_accuracy_2_3x5 -> boxiou_2_3x5
I0629 23:42:33.427664 28434 net.cpp:150] Setting up detection_accuracy_2_3x5
I0629 23:42:33.427673 28434 net.cpp:157] Top shape: 1 1 1 2 (2)
I0629 23:42:33.427677 28434 net.cpp:157] Top shape: 1 1 1 1 (1)
I0629 23:42:33.427680 28434 net.cpp:165] Memory required for data: 2256880408
I0629 23:42:33.427683 28434 layer_factory.hpp:77] Creating layer LFCN_2_5x7
I0629 23:42:33.427695 28434 net.cpp:100] Creating Layer LFCN_2_5x7
I0629 23:42:33.427700 28434 net.cpp:434] LFCN_2_5x7 <- conv5_3_relu5_3_0_split_1
I0629 23:42:33.427706 28434 net.cpp:408] LFCN_2_5x7 -> LFCN_2_5x7
I0629 23:42:33.430730 28434 net.cpp:150] Setting up LFCN_2_5x7
I0629 23:42:33.430747 28434 net.cpp:157] Top shape: 2 7 36 48 (24192)
I0629 23:42:33.430750 28434 net.cpp:165] Memory required for data: 2256977176
I0629 23:42:33.430759 28434 layer_factory.hpp:77] Creating layer LFCN_2_5x7_LFCN_2_5x7_0_split
I0629 23:42:33.430768 28434 net.cpp:100] Creating Layer LFCN_2_5x7_LFCN_2_5x7_0_split
I0629 23:42:33.430773 28434 net.cpp:434] LFCN_2_5x7_LFCN_2_5x7_0_split <- LFCN_2_5x7
I0629 23:42:33.430780 28434 net.cpp:408] LFCN_2_5x7_LFCN_2_5x7_0_split -> LFCN_2_5x7_LFCN_2_5x7_0_split_0
I0629 23:42:33.430790 28434 net.cpp:408] LFCN_2_5x7_LFCN_2_5x7_0_split -> LFCN_2_5x7_LFCN_2_5x7_0_split_1
I0629 23:42:33.430800 28434 net.cpp:408] LFCN_2_5x7_LFCN_2_5x7_0_split -> LFCN_2_5x7_LFCN_2_5x7_0_split_2
I0629 23:42:33.430868 28434 net.cpp:150] Setting up LFCN_2_5x7_LFCN_2_5x7_0_split
I0629 23:42:33.430874 28434 net.cpp:157] Top shape: 2 7 36 48 (24192)
I0629 23:42:33.430877 28434 net.cpp:157] Top shape: 2 7 36 48 (24192)
I0629 23:42:33.430881 28434 net.cpp:157] Top shape: 2 7 36 48 (24192)
I0629 23:42:33.430884 28434 net.cpp:165] Memory required for data: 2257267480
I0629 23:42:33.430887 28434 layer_factory.hpp:77] Creating layer detection_loss_2_5x7
I0629 23:42:33.430894 28434 net.cpp:100] Creating Layer detection_loss_2_5x7
I0629 23:42:33.430898 28434 net.cpp:434] detection_loss_2_5x7 <- LFCN_2_5x7_LFCN_2_5x7_0_split_0
I0629 23:42:33.430904 28434 net.cpp:434] detection_loss_2_5x7 <- label_2_5x7_data_4_split_0
I0629 23:42:33.430912 28434 net.cpp:408] detection_loss_2_5x7 -> loss_2_5x7
I0629 23:42:33.430922 28434 layer_factory.hpp:77] Creating layer detection_loss_2_5x7
I0629 23:42:33.431432 28434 net.cpp:150] Setting up detection_loss_2_5x7
I0629 23:42:33.431440 28434 net.cpp:157] Top shape: 1 1 1 2 (2)
I0629 23:42:33.431443 28434 net.cpp:160]     with loss weight 1
I0629 23:42:33.431452 28434 net.cpp:165] Memory required for data: 2257267488
I0629 23:42:33.431455 28434 layer_factory.hpp:77] Creating layer detection_accuracy_2_5x7
I0629 23:42:33.431464 28434 net.cpp:100] Creating Layer detection_accuracy_2_5x7
I0629 23:42:33.431468 28434 net.cpp:434] detection_accuracy_2_5x7 <- LFCN_2_5x7_LFCN_2_5x7_0_split_1
I0629 23:42:33.431473 28434 net.cpp:434] detection_accuracy_2_5x7 <- label_2_5x7_data_4_split_1
I0629 23:42:33.431479 28434 net.cpp:408] detection_accuracy_2_5x7 -> accuracy_2_5x7
I0629 23:42:33.431488 28434 net.cpp:408] detection_accuracy_2_5x7 -> boxiou_2_5x7
I0629 23:42:33.431535 28434 net.cpp:150] Setting up detection_accuracy_2_5x7
I0629 23:42:33.431540 28434 net.cpp:157] Top shape: 1 1 1 2 (2)
I0629 23:42:33.431543 28434 net.cpp:157] Top shape: 1 1 1 1 (1)
I0629 23:42:33.431546 28434 net.cpp:165] Memory required for data: 2257267500
I0629 23:42:33.431548 28434 layer_factory.hpp:77] Creating layer pool5
I0629 23:42:33.431555 28434 net.cpp:100] Creating Layer pool5
I0629 23:42:33.431560 28434 net.cpp:434] pool5 <- conv5_3_relu5_3_0_split_2
I0629 23:42:33.431565 28434 net.cpp:408] pool5 -> pool5
I0629 23:42:33.431610 28434 net.cpp:150] Setting up pool5
I0629 23:42:33.431617 28434 net.cpp:157] Top shape: 2 512 18 24 (442368)
I0629 23:42:33.431619 28434 net.cpp:165] Memory required for data: 2259036972
I0629 23:42:33.431622 28434 layer_factory.hpp:77] Creating layer conv6_1
I0629 23:42:33.431632 28434 net.cpp:100] Creating Layer conv6_1
I0629 23:42:33.431635 28434 net.cpp:434] conv6_1 <- pool5
I0629 23:42:33.431646 28434 net.cpp:408] conv6_1 -> conv6_1
I0629 23:42:33.456657 28434 net.cpp:150] Setting up conv6_1
I0629 23:42:33.456676 28434 net.cpp:157] Top shape: 2 512 18 24 (442368)
I0629 23:42:33.456677 28434 net.cpp:165] Memory required for data: 2260806444
I0629 23:42:33.456684 28434 layer_factory.hpp:77] Creating layer relu6_1
I0629 23:42:33.456691 28434 net.cpp:100] Creating Layer relu6_1
I0629 23:42:33.456694 28434 net.cpp:434] relu6_1 <- conv6_1
I0629 23:42:33.456699 28434 net.cpp:395] relu6_1 -> conv6_1 (in-place)
I0629 23:42:33.457062 28434 net.cpp:150] Setting up relu6_1
I0629 23:42:33.457073 28434 net.cpp:157] Top shape: 2 512 18 24 (442368)
I0629 23:42:33.457077 28434 net.cpp:165] Memory required for data: 2262575916
I0629 23:42:33.457079 28434 layer_factory.hpp:77] Creating layer conv6_1_relu6_1_0_split
I0629 23:42:33.457087 28434 net.cpp:100] Creating Layer conv6_1_relu6_1_0_split
I0629 23:42:33.457089 28434 net.cpp:434] conv6_1_relu6_1_0_split <- conv6_1
I0629 23:42:33.457094 28434 net.cpp:408] conv6_1_relu6_1_0_split -> conv6_1_relu6_1_0_split_0
I0629 23:42:33.457103 28434 net.cpp:408] conv6_1_relu6_1_0_split -> conv6_1_relu6_1_0_split_1
I0629 23:42:33.457109 28434 net.cpp:408] conv6_1_relu6_1_0_split -> conv6_1_relu6_1_0_split_2
I0629 23:42:33.457175 28434 net.cpp:150] Setting up conv6_1_relu6_1_0_split
I0629 23:42:33.457180 28434 net.cpp:157] Top shape: 2 512 18 24 (442368)
I0629 23:42:33.457183 28434 net.cpp:157] Top shape: 2 512 18 24 (442368)
I0629 23:42:33.457187 28434 net.cpp:157] Top shape: 2 512 18 24 (442368)
I0629 23:42:33.457188 28434 net.cpp:165] Memory required for data: 2267884332
I0629 23:42:33.457190 28434 layer_factory.hpp:77] Creating layer LFCN_3_3x5
I0629 23:42:33.457201 28434 net.cpp:100] Creating Layer LFCN_3_3x5
I0629 23:42:33.457204 28434 net.cpp:434] LFCN_3_3x5 <- conv6_1_relu6_1_0_split_0
I0629 23:42:33.457211 28434 net.cpp:408] LFCN_3_3x5 -> LFCN_3_3x5
I0629 23:42:33.459637 28434 net.cpp:150] Setting up LFCN_3_3x5
I0629 23:42:33.459651 28434 net.cpp:157] Top shape: 2 7 18 24 (6048)
I0629 23:42:33.459655 28434 net.cpp:165] Memory required for data: 2267908524
I0629 23:42:33.459661 28434 layer_factory.hpp:77] Creating layer LFCN_3_3x5_LFCN_3_3x5_0_split
I0629 23:42:33.459673 28434 net.cpp:100] Creating Layer LFCN_3_3x5_LFCN_3_3x5_0_split
I0629 23:42:33.459677 28434 net.cpp:434] LFCN_3_3x5_LFCN_3_3x5_0_split <- LFCN_3_3x5
I0629 23:42:33.459682 28434 net.cpp:408] LFCN_3_3x5_LFCN_3_3x5_0_split -> LFCN_3_3x5_LFCN_3_3x5_0_split_0
I0629 23:42:33.459689 28434 net.cpp:408] LFCN_3_3x5_LFCN_3_3x5_0_split -> LFCN_3_3x5_LFCN_3_3x5_0_split_1
I0629 23:42:33.459695 28434 net.cpp:408] LFCN_3_3x5_LFCN_3_3x5_0_split -> LFCN_3_3x5_LFCN_3_3x5_0_split_2
I0629 23:42:33.459754 28434 net.cpp:150] Setting up LFCN_3_3x5_LFCN_3_3x5_0_split
I0629 23:42:33.459759 28434 net.cpp:157] Top shape: 2 7 18 24 (6048)
I0629 23:42:33.459761 28434 net.cpp:157] Top shape: 2 7 18 24 (6048)
I0629 23:42:33.459764 28434 net.cpp:157] Top shape: 2 7 18 24 (6048)
I0629 23:42:33.459766 28434 net.cpp:165] Memory required for data: 2267981100
I0629 23:42:33.459770 28434 layer_factory.hpp:77] Creating layer detection_loss_3_3x5
I0629 23:42:33.459776 28434 net.cpp:100] Creating Layer detection_loss_3_3x5
I0629 23:42:33.459781 28434 net.cpp:434] detection_loss_3_3x5 <- LFCN_3_3x5_LFCN_3_3x5_0_split_0
I0629 23:42:33.459786 28434 net.cpp:434] detection_loss_3_3x5 <- label_3_3x5_data_5_split_0
I0629 23:42:33.459794 28434 net.cpp:408] detection_loss_3_3x5 -> loss_3_3x5
I0629 23:42:33.459801 28434 layer_factory.hpp:77] Creating layer detection_loss_3_3x5
I0629 23:42:33.460755 28434 net.cpp:150] Setting up detection_loss_3_3x5
I0629 23:42:33.460764 28434 net.cpp:157] Top shape: 1 1 1 2 (2)
I0629 23:42:33.460767 28434 net.cpp:160]     with loss weight 1
I0629 23:42:33.460773 28434 net.cpp:165] Memory required for data: 2267981108
I0629 23:42:33.460777 28434 layer_factory.hpp:77] Creating layer detection_accuracy_3_3x5
I0629 23:42:33.460781 28434 net.cpp:100] Creating Layer detection_accuracy_3_3x5
I0629 23:42:33.460784 28434 net.cpp:434] detection_accuracy_3_3x5 <- LFCN_3_3x5_LFCN_3_3x5_0_split_1
I0629 23:42:33.460788 28434 net.cpp:434] detection_accuracy_3_3x5 <- label_3_3x5_data_5_split_1
I0629 23:42:33.460795 28434 net.cpp:408] detection_accuracy_3_3x5 -> accuracy_3_3x5
I0629 23:42:33.460803 28434 net.cpp:408] detection_accuracy_3_3x5 -> boxiou_3_3x5
I0629 23:42:33.460849 28434 net.cpp:150] Setting up detection_accuracy_3_3x5
I0629 23:42:33.460852 28434 net.cpp:157] Top shape: 1 1 1 2 (2)
I0629 23:42:33.460855 28434 net.cpp:157] Top shape: 1 1 1 1 (1)
I0629 23:42:33.460857 28434 net.cpp:165] Memory required for data: 2267981120
I0629 23:42:33.460860 28434 layer_factory.hpp:77] Creating layer LFCN_3_5x7
I0629 23:42:33.460870 28434 net.cpp:100] Creating Layer LFCN_3_5x7
I0629 23:42:33.460873 28434 net.cpp:434] LFCN_3_5x7 <- conv6_1_relu6_1_0_split_1
I0629 23:42:33.460880 28434 net.cpp:408] LFCN_3_5x7 -> LFCN_3_5x7
I0629 23:42:33.463347 28434 net.cpp:150] Setting up LFCN_3_5x7
I0629 23:42:33.463361 28434 net.cpp:157] Top shape: 2 7 18 24 (6048)
I0629 23:42:33.463363 28434 net.cpp:165] Memory required for data: 2268005312
I0629 23:42:33.463369 28434 layer_factory.hpp:77] Creating layer LFCN_3_5x7_LFCN_3_5x7_0_split
I0629 23:42:33.463376 28434 net.cpp:100] Creating Layer LFCN_3_5x7_LFCN_3_5x7_0_split
I0629 23:42:33.463378 28434 net.cpp:434] LFCN_3_5x7_LFCN_3_5x7_0_split <- LFCN_3_5x7
I0629 23:42:33.463384 28434 net.cpp:408] LFCN_3_5x7_LFCN_3_5x7_0_split -> LFCN_3_5x7_LFCN_3_5x7_0_split_0
I0629 23:42:33.463390 28434 net.cpp:408] LFCN_3_5x7_LFCN_3_5x7_0_split -> LFCN_3_5x7_LFCN_3_5x7_0_split_1
I0629 23:42:33.463397 28434 net.cpp:408] LFCN_3_5x7_LFCN_3_5x7_0_split -> LFCN_3_5x7_LFCN_3_5x7_0_split_2
I0629 23:42:33.463456 28434 net.cpp:150] Setting up LFCN_3_5x7_LFCN_3_5x7_0_split
I0629 23:42:33.463461 28434 net.cpp:157] Top shape: 2 7 18 24 (6048)
I0629 23:42:33.463464 28434 net.cpp:157] Top shape: 2 7 18 24 (6048)
I0629 23:42:33.463467 28434 net.cpp:157] Top shape: 2 7 18 24 (6048)
I0629 23:42:33.463469 28434 net.cpp:165] Memory required for data: 2268077888
I0629 23:42:33.463472 28434 layer_factory.hpp:77] Creating layer detection_loss_3_5x7
I0629 23:42:33.463479 28434 net.cpp:100] Creating Layer detection_loss_3_5x7
I0629 23:42:33.463484 28434 net.cpp:434] detection_loss_3_5x7 <- LFCN_3_5x7_LFCN_3_5x7_0_split_0
I0629 23:42:33.463487 28434 net.cpp:434] detection_loss_3_5x7 <- label_3_5x7_data_6_split_0
I0629 23:42:33.463495 28434 net.cpp:408] detection_loss_3_5x7 -> loss_3_5x7
I0629 23:42:33.463503 28434 layer_factory.hpp:77] Creating layer detection_loss_3_5x7
I0629 23:42:33.463956 28434 net.cpp:150] Setting up detection_loss_3_5x7
I0629 23:42:33.463963 28434 net.cpp:157] Top shape: 1 1 1 2 (2)
I0629 23:42:33.463964 28434 net.cpp:160]     with loss weight 1
I0629 23:42:33.463971 28434 net.cpp:165] Memory required for data: 2268077896
I0629 23:42:33.463974 28434 layer_factory.hpp:77] Creating layer detection_accuracy_3_5x7
I0629 23:42:33.463981 28434 net.cpp:100] Creating Layer detection_accuracy_3_5x7
I0629 23:42:33.463984 28434 net.cpp:434] detection_accuracy_3_5x7 <- LFCN_3_5x7_LFCN_3_5x7_0_split_1
I0629 23:42:33.463989 28434 net.cpp:434] detection_accuracy_3_5x7 <- label_3_5x7_data_6_split_1
I0629 23:42:33.463996 28434 net.cpp:408] detection_accuracy_3_5x7 -> accuracy_3_5x7
I0629 23:42:33.464004 28434 net.cpp:408] detection_accuracy_3_5x7 -> boxiou_3_5x7
I0629 23:42:33.464046 28434 net.cpp:150] Setting up detection_accuracy_3_5x7
I0629 23:42:33.464051 28434 net.cpp:157] Top shape: 1 1 1 2 (2)
I0629 23:42:33.464054 28434 net.cpp:157] Top shape: 1 1 1 1 (1)
I0629 23:42:33.464056 28434 net.cpp:165] Memory required for data: 2268077908
I0629 23:42:33.464059 28434 layer_factory.hpp:77] Creating layer pool6
I0629 23:42:33.464064 28434 net.cpp:100] Creating Layer pool6
I0629 23:42:33.464069 28434 net.cpp:434] pool6 <- conv6_1_relu6_1_0_split_2
I0629 23:42:33.464074 28434 net.cpp:408] pool6 -> pool6
I0629 23:42:33.464115 28434 net.cpp:150] Setting up pool6
I0629 23:42:33.464120 28434 net.cpp:157] Top shape: 2 512 9 12 (110592)
I0629 23:42:33.464123 28434 net.cpp:165] Memory required for data: 2268520276
I0629 23:42:33.464125 28434 layer_factory.hpp:77] Creating layer LFCN_4_3x5
I0629 23:42:33.464134 28434 net.cpp:100] Creating Layer LFCN_4_3x5
I0629 23:42:33.464138 28434 net.cpp:434] LFCN_4_3x5 <- pool6
I0629 23:42:33.464143 28434 net.cpp:408] LFCN_4_3x5 -> LFCN_4_3x5
I0629 23:42:33.466982 28434 net.cpp:150] Setting up LFCN_4_3x5
I0629 23:42:33.466995 28434 net.cpp:157] Top shape: 2 7 9 12 (1512)
I0629 23:42:33.466996 28434 net.cpp:165] Memory required for data: 2268526324
I0629 23:42:33.467003 28434 layer_factory.hpp:77] Creating layer LFCN_4_3x5_LFCN_4_3x5_0_split
I0629 23:42:33.467010 28434 net.cpp:100] Creating Layer LFCN_4_3x5_LFCN_4_3x5_0_split
I0629 23:42:33.467012 28434 net.cpp:434] LFCN_4_3x5_LFCN_4_3x5_0_split <- LFCN_4_3x5
I0629 23:42:33.467018 28434 net.cpp:408] LFCN_4_3x5_LFCN_4_3x5_0_split -> LFCN_4_3x5_LFCN_4_3x5_0_split_0
I0629 23:42:33.467025 28434 net.cpp:408] LFCN_4_3x5_LFCN_4_3x5_0_split -> LFCN_4_3x5_LFCN_4_3x5_0_split_1
I0629 23:42:33.467031 28434 net.cpp:408] LFCN_4_3x5_LFCN_4_3x5_0_split -> LFCN_4_3x5_LFCN_4_3x5_0_split_2
I0629 23:42:33.467098 28434 net.cpp:150] Setting up LFCN_4_3x5_LFCN_4_3x5_0_split
I0629 23:42:33.467103 28434 net.cpp:157] Top shape: 2 7 9 12 (1512)
I0629 23:42:33.467105 28434 net.cpp:157] Top shape: 2 7 9 12 (1512)
I0629 23:42:33.467108 28434 net.cpp:157] Top shape: 2 7 9 12 (1512)
I0629 23:42:33.467111 28434 net.cpp:165] Memory required for data: 2268544468
I0629 23:42:33.467114 28434 layer_factory.hpp:77] Creating layer detection_loss_4_3x5
I0629 23:42:33.467120 28434 net.cpp:100] Creating Layer detection_loss_4_3x5
I0629 23:42:33.467123 28434 net.cpp:434] detection_loss_4_3x5 <- LFCN_4_3x5_LFCN_4_3x5_0_split_0
I0629 23:42:33.467128 28434 net.cpp:434] detection_loss_4_3x5 <- label_4_3x5_data_7_split_0
I0629 23:42:33.467133 28434 net.cpp:408] detection_loss_4_3x5 -> loss_4_3x5
I0629 23:42:33.467144 28434 layer_factory.hpp:77] Creating layer detection_loss_4_3x5
I0629 23:42:33.467612 28434 net.cpp:150] Setting up detection_loss_4_3x5
I0629 23:42:33.467620 28434 net.cpp:157] Top shape: 1 1 1 2 (2)
I0629 23:42:33.467622 28434 net.cpp:160]     with loss weight 1
I0629 23:42:33.467630 28434 net.cpp:165] Memory required for data: 2268544476
I0629 23:42:33.467633 28434 layer_factory.hpp:77] Creating layer detection_accuracy_4_3x5
I0629 23:42:33.467639 28434 net.cpp:100] Creating Layer detection_accuracy_4_3x5
I0629 23:42:33.467644 28434 net.cpp:434] detection_accuracy_4_3x5 <- LFCN_4_3x5_LFCN_4_3x5_0_split_1
I0629 23:42:33.467649 28434 net.cpp:434] detection_accuracy_4_3x5 <- label_4_3x5_data_7_split_1
I0629 23:42:33.467654 28434 net.cpp:408] detection_accuracy_4_3x5 -> accuracy_4_3x5
I0629 23:42:33.467663 28434 net.cpp:408] detection_accuracy_4_3x5 -> boxiou_4_3x5
I0629 23:42:33.467706 28434 net.cpp:150] Setting up detection_accuracy_4_3x5
I0629 23:42:33.467710 28434 net.cpp:157] Top shape: 1 1 1 2 (2)
I0629 23:42:33.467712 28434 net.cpp:157] Top shape: 1 1 1 1 (1)
I0629 23:42:33.467715 28434 net.cpp:165] Memory required for data: 2268544488
I0629 23:42:33.467718 28434 layer_factory.hpp:77] Creating layer proposals
I0629 23:42:33.467726 28434 net.cpp:100] Creating Layer proposals
I0629 23:42:33.467730 28434 net.cpp:434] proposals <- LFCN_1_3x5_LFCN_1_3x5_0_split_2
I0629 23:42:33.467733 28434 net.cpp:434] proposals <- LFCN_1_5x7_LFCN_1_5x7_0_split_2
I0629 23:42:33.467737 28434 net.cpp:434] proposals <- LFCN_2_3x5_LFCN_2_3x5_0_split_2
I0629 23:42:33.467741 28434 net.cpp:434] proposals <- LFCN_2_5x7_LFCN_2_5x7_0_split_2
I0629 23:42:33.467744 28434 net.cpp:434] proposals <- LFCN_3_3x5_LFCN_3_3x5_0_split_2
I0629 23:42:33.467748 28434 net.cpp:434] proposals <- LFCN_3_5x7_LFCN_3_5x7_0_split_2
I0629 23:42:33.467751 28434 net.cpp:434] proposals <- LFCN_4_3x5_LFCN_4_3x5_0_split_2
I0629 23:42:33.467758 28434 net.cpp:408] proposals -> proposals
I0629 23:42:33.467783 28434 net.cpp:150] Setting up proposals
I0629 23:42:33.467787 28434 net.cpp:157] Top shape: 1 5 1 1 (5)
I0629 23:42:33.467789 28434 net.cpp:165] Memory required for data: 2268544508
I0629 23:42:33.467792 28434 layer_factory.hpp:77] Creating layer proposal_info
I0629 23:42:33.467800 28434 net.cpp:100] Creating Layer proposal_info
I0629 23:42:33.467803 28434 net.cpp:434] proposal_info <- proposals
I0629 23:42:33.467808 28434 net.cpp:434] proposal_info <- gt_boxes
I0629 23:42:33.467813 28434 net.cpp:408] proposal_info -> rois
I0629 23:42:33.467821 28434 net.cpp:408] proposal_info -> proposal_labels
I0629 23:42:33.467828 28434 net.cpp:408] proposal_info -> proposal_targets
I0629 23:42:33.467834 28434 net.cpp:408] proposal_info -> box_inside_weights
I0629 23:42:33.467840 28434 net.cpp:408] proposal_info -> box_outside_weights
I0629 23:42:33.467847 28434 net.cpp:408] proposal_info -> match_gt_boxes
I0629 23:42:33.467943 28434 net.cpp:150] Setting up proposal_info
I0629 23:42:33.467949 28434 net.cpp:157] Top shape: 64 5 1 1 (320)
I0629 23:42:33.467952 28434 net.cpp:157] Top shape: 64 1 1 1 (64)
I0629 23:42:33.467957 28434 net.cpp:157] Top shape: 64 12 1 1 (768)
I0629 23:42:33.467959 28434 net.cpp:157] Top shape: 64 12 1 1 (768)
I0629 23:42:33.467963 28434 net.cpp:157] Top shape: 64 12 1 1 (768)
I0629 23:42:33.467967 28434 net.cpp:157] Top shape: 64 6 1 1 (384)
I0629 23:42:33.467969 28434 net.cpp:165] Memory required for data: 2268556796
I0629 23:42:33.467972 28434 layer_factory.hpp:77] Creating layer rois_proposal_info_0_split
I0629 23:42:33.467980 28434 net.cpp:100] Creating Layer rois_proposal_info_0_split
I0629 23:42:33.467983 28434 net.cpp:434] rois_proposal_info_0_split <- rois
I0629 23:42:33.467988 28434 net.cpp:408] rois_proposal_info_0_split -> rois_proposal_info_0_split_0
I0629 23:42:33.467994 28434 net.cpp:408] rois_proposal_info_0_split -> rois_proposal_info_0_split_1
I0629 23:42:33.468001 28434 net.cpp:408] rois_proposal_info_0_split -> rois_proposal_info_0_split_2
I0629 23:42:33.468055 28434 net.cpp:150] Setting up rois_proposal_info_0_split
I0629 23:42:33.468058 28434 net.cpp:157] Top shape: 64 5 1 1 (320)
I0629 23:42:33.468062 28434 net.cpp:157] Top shape: 64 5 1 1 (320)
I0629 23:42:33.468065 28434 net.cpp:157] Top shape: 64 5 1 1 (320)
I0629 23:42:33.468068 28434 net.cpp:165] Memory required for data: 2268560636
I0629 23:42:33.468071 28434 layer_factory.hpp:77] Creating layer proposal_labels_proposal_info_1_split
I0629 23:42:33.468075 28434 net.cpp:100] Creating Layer proposal_labels_proposal_info_1_split
I0629 23:42:33.468078 28434 net.cpp:434] proposal_labels_proposal_info_1_split <- proposal_labels
I0629 23:42:33.468083 28434 net.cpp:408] proposal_labels_proposal_info_1_split -> proposal_labels_proposal_info_1_split_0
I0629 23:42:33.468091 28434 net.cpp:408] proposal_labels_proposal_info_1_split -> proposal_labels_proposal_info_1_split_1
I0629 23:42:33.468129 28434 net.cpp:150] Setting up proposal_labels_proposal_info_1_split
I0629 23:42:33.468134 28434 net.cpp:157] Top shape: 64 1 1 1 (64)
I0629 23:42:33.468137 28434 net.cpp:157] Top shape: 64 1 1 1 (64)
I0629 23:42:33.468140 28434 net.cpp:165] Memory required for data: 2268561148
I0629 23:42:33.468142 28434 layer_factory.hpp:77] Creating layer conv4_3_2x
I0629 23:42:33.468152 28434 net.cpp:100] Creating Layer conv4_3_2x
I0629 23:42:33.468155 28434 net.cpp:434] conv4_3_2x <- conv4_3_relu4_3_0_split_2
I0629 23:42:33.468163 28434 net.cpp:408] conv4_3_2x -> conv4_3_2x
I0629 23:42:33.468582 28434 net.cpp:150] Setting up conv4_3_2x
I0629 23:42:33.468588 28434 net.cpp:157] Top shape: 2 512 144 192 (28311552)
I0629 23:42:33.468591 28434 net.cpp:165] Memory required for data: 2381807356
I0629 23:42:33.468596 28434 layer_factory.hpp:77] Creating layer conv4_3_2x_conv4_3_2x_0_split
I0629 23:42:33.468601 28434 net.cpp:100] Creating Layer conv4_3_2x_conv4_3_2x_0_split
I0629 23:42:33.468605 28434 net.cpp:434] conv4_3_2x_conv4_3_2x_0_split <- conv4_3_2x
I0629 23:42:33.468611 28434 net.cpp:408] conv4_3_2x_conv4_3_2x_0_split -> conv4_3_2x_conv4_3_2x_0_split_0
I0629 23:42:33.468619 28434 net.cpp:408] conv4_3_2x_conv4_3_2x_0_split -> conv4_3_2x_conv4_3_2x_0_split_1
I0629 23:42:33.468658 28434 net.cpp:150] Setting up conv4_3_2x_conv4_3_2x_0_split
I0629 23:42:33.468663 28434 net.cpp:157] Top shape: 2 512 144 192 (28311552)
I0629 23:42:33.468667 28434 net.cpp:157] Top shape: 2 512 144 192 (28311552)
I0629 23:42:33.468670 28434 net.cpp:165] Memory required for data: 2608299772
I0629 23:42:33.468672 28434 layer_factory.hpp:77] Creating layer roi_pool_org
I0629 23:42:33.468679 28434 net.cpp:100] Creating Layer roi_pool_org
I0629 23:42:33.468683 28434 net.cpp:434] roi_pool_org <- conv4_3_2x_conv4_3_2x_0_split_0
I0629 23:42:33.468688 28434 net.cpp:434] roi_pool_org <- rois_proposal_info_0_split_0
I0629 23:42:33.468693 28434 net.cpp:408] roi_pool_org -> roi_pool_org
I0629 23:42:33.468700 28434 roi_pooling_layer.cpp:33] Spatial scale: 0.25
I0629 23:42:33.468745 28434 net.cpp:150] Setting up roi_pool_org
I0629 23:42:33.468750 28434 net.cpp:157] Top shape: 64 512 7 5 (1146880)
I0629 23:42:33.468753 28434 net.cpp:165] Memory required for data: 2612887292
I0629 23:42:33.468755 28434 layer_factory.hpp:77] Creating layer roi_pool_ctx
I0629 23:42:33.468760 28434 net.cpp:100] Creating Layer roi_pool_ctx
I0629 23:42:33.468765 28434 net.cpp:434] roi_pool_ctx <- conv4_3_2x_conv4_3_2x_0_split_1
I0629 23:42:33.468770 28434 net.cpp:434] roi_pool_ctx <- rois_proposal_info_0_split_1
I0629 23:42:33.468773 28434 net.cpp:408] roi_pool_ctx -> roi_pool_ctx
I0629 23:42:33.468780 28434 roi_pooling_layer.cpp:33] Spatial scale: 0.25
I0629 23:42:33.468830 28434 net.cpp:150] Setting up roi_pool_ctx
I0629 23:42:33.468837 28434 net.cpp:157] Top shape: 64 512 7 5 (1146880)
I0629 23:42:33.468840 28434 net.cpp:165] Memory required for data: 2617474812
I0629 23:42:33.468843 28434 layer_factory.hpp:77] Creating layer roi_pool
I0629 23:42:33.468848 28434 net.cpp:100] Creating Layer roi_pool
I0629 23:42:33.468852 28434 net.cpp:434] roi_pool <- roi_pool_org
I0629 23:42:33.468855 28434 net.cpp:434] roi_pool <- roi_pool_ctx
I0629 23:42:33.468859 28434 net.cpp:408] roi_pool -> roi_pool
I0629 23:42:33.468885 28434 net.cpp:150] Setting up roi_pool
I0629 23:42:33.468892 28434 net.cpp:157] Top shape: 64 1024 7 5 (2293760)
I0629 23:42:33.468895 28434 net.cpp:165] Memory required for data: 2626649852
I0629 23:42:33.468897 28434 layer_factory.hpp:77] Creating layer roi_c1
I0629 23:42:33.468905 28434 net.cpp:100] Creating Layer roi_c1
I0629 23:42:33.468909 28434 net.cpp:434] roi_c1 <- roi_pool
I0629 23:42:33.468914 28434 net.cpp:408] roi_c1 -> roi_c1
I0629 23:42:33.507515 28434 net.cpp:150] Setting up roi_c1
I0629 23:42:33.507535 28434 net.cpp:157] Top shape: 64 512 5 3 (491520)
I0629 23:42:33.507539 28434 net.cpp:165] Memory required for data: 2628615932
I0629 23:42:33.507546 28434 layer_factory.hpp:77] Creating layer roi_c1_relu
I0629 23:42:33.507556 28434 net.cpp:100] Creating Layer roi_c1_relu
I0629 23:42:33.507560 28434 net.cpp:434] roi_c1_relu <- roi_c1
I0629 23:42:33.507567 28434 net.cpp:395] roi_c1_relu -> roi_c1 (in-place)
I0629 23:42:33.508374 28434 net.cpp:150] Setting up roi_c1_relu
I0629 23:42:33.508386 28434 net.cpp:157] Top shape: 64 512 5 3 (491520)
I0629 23:42:33.508389 28434 net.cpp:165] Memory required for data: 2630582012
I0629 23:42:33.508394 28434 layer_factory.hpp:77] Creating layer fc6
I0629 23:42:33.508402 28434 net.cpp:100] Creating Layer fc6
I0629 23:42:33.508407 28434 net.cpp:434] fc6 <- roi_c1
I0629 23:42:33.508415 28434 net.cpp:408] fc6 -> fc6
I0629 23:42:33.629308 28434 net.cpp:150] Setting up fc6
I0629 23:42:33.629328 28434 net.cpp:157] Top shape: 64 2048 (131072)
I0629 23:42:33.629330 28434 net.cpp:165] Memory required for data: 2631106300
I0629 23:42:33.629340 28434 layer_factory.hpp:77] Creating layer relu6
I0629 23:42:33.629349 28434 net.cpp:100] Creating Layer relu6
I0629 23:42:33.629355 28434 net.cpp:434] relu6 <- fc6
I0629 23:42:33.629364 28434 net.cpp:395] relu6 -> fc6 (in-place)
I0629 23:42:33.629715 28434 net.cpp:150] Setting up relu6
I0629 23:42:33.629724 28434 net.cpp:157] Top shape: 64 2048 (131072)
I0629 23:42:33.629727 28434 net.cpp:165] Memory required for data: 2631630588
I0629 23:42:33.629730 28434 layer_factory.hpp:77] Creating layer drop6
I0629 23:42:33.629739 28434 net.cpp:100] Creating Layer drop6
I0629 23:42:33.629743 28434 net.cpp:434] drop6 <- fc6
I0629 23:42:33.629748 28434 net.cpp:395] drop6 -> fc6 (in-place)
I0629 23:42:33.629779 28434 net.cpp:150] Setting up drop6
I0629 23:42:33.629784 28434 net.cpp:157] Top shape: 64 2048 (131072)
I0629 23:42:33.629786 28434 net.cpp:165] Memory required for data: 2632154876
I0629 23:42:33.629789 28434 layer_factory.hpp:77] Creating layer fc6_drop6_0_split
I0629 23:42:33.629794 28434 net.cpp:100] Creating Layer fc6_drop6_0_split
I0629 23:42:33.629797 28434 net.cpp:434] fc6_drop6_0_split <- fc6
I0629 23:42:33.629804 28434 net.cpp:408] fc6_drop6_0_split -> fc6_drop6_0_split_0
I0629 23:42:33.629812 28434 net.cpp:408] fc6_drop6_0_split -> fc6_drop6_0_split_1
I0629 23:42:33.629859 28434 net.cpp:150] Setting up fc6_drop6_0_split
I0629 23:42:33.629864 28434 net.cpp:157] Top shape: 64 2048 (131072)
I0629 23:42:33.629868 28434 net.cpp:157] Top shape: 64 2048 (131072)
I0629 23:42:33.629870 28434 net.cpp:165] Memory required for data: 2633203452
I0629 23:42:33.629873 28434 layer_factory.hpp:77] Creating layer cls_pred
I0629 23:42:33.629882 28434 net.cpp:100] Creating Layer cls_pred
I0629 23:42:33.629885 28434 net.cpp:434] cls_pred <- fc6_drop6_0_split_0
I0629 23:42:33.629891 28434 net.cpp:408] cls_pred -> cls_pred
I0629 23:42:33.630084 28434 net.cpp:150] Setting up cls_pred
I0629 23:42:33.630092 28434 net.cpp:157] Top shape: 64 3 (192)
I0629 23:42:33.630095 28434 net.cpp:165] Memory required for data: 2633204220
I0629 23:42:33.630100 28434 layer_factory.hpp:77] Creating layer cls_pred_cls_pred_0_split
I0629 23:42:33.630105 28434 net.cpp:100] Creating Layer cls_pred_cls_pred_0_split
I0629 23:42:33.630110 28434 net.cpp:434] cls_pred_cls_pred_0_split <- cls_pred
I0629 23:42:33.630115 28434 net.cpp:408] cls_pred_cls_pred_0_split -> cls_pred_cls_pred_0_split_0
I0629 23:42:33.630123 28434 net.cpp:408] cls_pred_cls_pred_0_split -> cls_pred_cls_pred_0_split_1
I0629 23:42:33.630175 28434 net.cpp:150] Setting up cls_pred_cls_pred_0_split
I0629 23:42:33.630180 28434 net.cpp:157] Top shape: 64 3 (192)
I0629 23:42:33.630184 28434 net.cpp:157] Top shape: 64 3 (192)
I0629 23:42:33.630187 28434 net.cpp:165] Memory required for data: 2633205756
I0629 23:42:33.630189 28434 layer_factory.hpp:77] Creating layer bbox_pred
I0629 23:42:33.630195 28434 net.cpp:100] Creating Layer bbox_pred
I0629 23:42:33.630199 28434 net.cpp:434] bbox_pred <- fc6_drop6_0_split_1
I0629 23:42:33.630204 28434 net.cpp:408] bbox_pred -> bbox_pred
I0629 23:42:33.630515 28434 net.cpp:150] Setting up bbox_pred
I0629 23:42:33.630523 28434 net.cpp:157] Top shape: 64 12 (768)
I0629 23:42:33.630527 28434 net.cpp:165] Memory required for data: 2633208828
I0629 23:42:33.630532 28434 layer_factory.hpp:77] Creating layer bbox_pred_bbox_pred_0_split
I0629 23:42:33.630538 28434 net.cpp:100] Creating Layer bbox_pred_bbox_pred_0_split
I0629 23:42:33.630542 28434 net.cpp:434] bbox_pred_bbox_pred_0_split <- bbox_pred
I0629 23:42:33.630548 28434 net.cpp:408] bbox_pred_bbox_pred_0_split -> bbox_pred_bbox_pred_0_split_0
I0629 23:42:33.630554 28434 net.cpp:408] bbox_pred_bbox_pred_0_split -> bbox_pred_bbox_pred_0_split_1
I0629 23:42:33.630595 28434 net.cpp:150] Setting up bbox_pred_bbox_pred_0_split
I0629 23:42:33.630600 28434 net.cpp:157] Top shape: 64 12 (768)
I0629 23:42:33.630604 28434 net.cpp:157] Top shape: 64 12 (768)
I0629 23:42:33.630605 28434 net.cpp:165] Memory required for data: 2633214972
I0629 23:42:33.630609 28434 layer_factory.hpp:77] Creating layer loss_cls
I0629 23:42:33.630615 28434 net.cpp:100] Creating Layer loss_cls
I0629 23:42:33.630620 28434 net.cpp:434] loss_cls <- cls_pred_cls_pred_0_split_0
I0629 23:42:33.630625 28434 net.cpp:434] loss_cls <- proposal_labels_proposal_info_1_split_0
…
