…
    downsample_rate: 16
    downsample_rate: 32
    downsample_rate: 32
    downsample_rate: 64
    coord_num: 4
    field_h: 60
    field_h: 84
    field_h: 120
    field_h: 168
    field_h: 240
    field_h: 336
    field_h: 480
    field_w: 40
    field_w: 56
    field_w: 80
    field_w: 112
    field_w: 160
    field_w: 224
    field_w: 360
    fg_threshold: 0.5
    resize_width: 1920
    resize_height: 576
    crop_width: 768
    crop_height: 576
    do_multiple_scale: true
    min_scale: 60
    max_scale: 480
    min_gt_height: 30
    shuffle: true
  }
}
layer {
  name: "conv1_1"
  type: "Convolution"
  bottom: "data"
  top: "conv1_1"
  convolution_param {
    num_output: 64
    pad: 1
    kernel_size: 3
  }
}
layer {
  name: "relu1_1"
  type: "ReLU"
  bottom: "conv1_1"
  top: "conv1_1"
}
layer {
  name: "conv1_2"
  type: "Convolution"
  bottom: "conv1_1"
  top: "conv1_2"
  convolution_param {
    num_output: 64
    pad: 1
    kernel_size: 3
  }
}
layer {
  name: "relu1_2"
  type: "ReLU"
  bottom: "conv1_2"
  top: "conv1_2"
}
layer {
  name: "pool1"
  type: "Pooling"
  bottom: "conv1_2"
  top: "pool1"
  pooling_param {
    pool: MAX
    kernel_size: 2
    stride: 2
  }
}
layer {
  name: "conv2_1"
  type: "Convolution"
  bottom: "pool1"
  top: "conv2_1"
  convolution_param {
    num_output: 128
    pad: 1
    kernel_size: 3
  }
}
layer {
  name: "relu2_1"
  type: "ReLU"
  bottom: "conv2_1"
  top: "conv2_1"
}
layer {
  name: "conv2_2"
  type: "Convolution"
  bottom: "conv2_1"
  top: "conv2_2"
  convolution_param {
    num_output: 128
    pad: 1
    kernel_size: 3
  }
}
layer {
  name: "relu2_2"
  type: "ReLU"
  bottom: "conv2_2"
  top: "conv2_2"
}
layer {
  name: "pool2"
  type: "Pooling"
  bottom: "conv2_2"
  top: "pool2"
  pooling_param {
    pool: MAX
    kernel_size: 2
    stride: 2
  }
}
layer {
  name: "conv3_1"
  type: "Convolution"
  bottom: "pool2"
  top: "conv3_1"
  convolution_param {
    num_output: 256
    pad: 1
    kernel_size: 3
  }
}
layer {
  name: "relu3_1"
  type: "ReLU"
  bottom: "conv3_1"
  top: "conv3_1"
}
layer {
  name: "conv3_2"
  type: "Convolution"
  bottom: "conv3_1"
  top: "conv3_2"
  convolution_param {
    num_output: 256
    pad: 1
    kernel_size: 3
  }
}
layer {
  name: "relu3_2"
  type: "ReLU"
  bottom: "conv3_2"
  top: "conv3_2"
}
layer {
  name: "conv3_3"
  type: "Convolution"
  bottom: "conv3_2"
  top: "conv3_3"
  convolution_param {
    num_output: 256
    pad: 1
    kernel_size: 3
  }
}
layer {
  name: "relu3_3"
  type: "ReLU"
  bottom: "conv3_3"
  top: "conv3_3"
}
layer {
  name: "pool3"
  type: "Pooling"
  bottom: "conv3_3"
  top: "pool3"
  pooling_param {
    pool: MAX
    kernel_size: 2
    stride: 2
  }
}
layer {
  name: "conv4_1"
  type: "Convolution"
  bottom: "pool3"
  top: "conv4_1"
  convolution_param {
    num_output: 512
    pad: 1
    kernel_size: 3
  }
}
layer {
  name: "relu4_1"
  type: "ReLU"
  bottom: "conv4_1"
  top: "conv4_1"
}
layer {
  name: "conv4_2"
  type: "Convolution"
  bottom: "conv4_1"
  top: "conv4_2"
  convolution_param {
    num_output: 512
    pad: 1
    kernel_size: 3
  }
}
layer {
  name: "relu4_2"
  type: "ReLU"
  bottom: "conv4_2"
  top: "conv4_2"
}
layer {
  name: "conv4_3"
  type: "Convolution"
  bottom: "conv4_2"
  top: "conv4_3"
  convolution_param {
    num_output: 512
    pad: 1
    kernel_size: 3
  }
}
layer {
  name: "relu4_3"
  type: "ReLU"
  bottom: "conv4_3"
  top: "conv4_3"
}
layer {
  name: "loss1_conv1"
  type: "Convolution"
  bottom: "conv4_3"
  top: "loss1_conv1"
  param {
    lr_mult: 1
    decay_mult: 1
  }
  param {
    lr_mult: 2
    decay_mult: 0
  }
  convolution_param {
    num_output: 512
    pad: 1
    kernel_size: 3
    weight_filler {
      type: "gaussian"
      std: 0.01
    }
    bias_filler {
      type: "constant"
    }
  }
}
layer {
  name: "loss_relu1"
  type: "ReLU"
  bottom: "loss1_conv1"
  top: "loss1_conv1"
}
layer {
  name: "LFCN_1_3x5"
  type: "Convolution"
  bottom: "loss1_conv1"
  top: "LFCN_1_3x5"
  param {
    lr_mult: 1
    decay_mult: 1
  }
  param {
    lr_mult: 2
    decay_mult: 0
  }
  convolution_param {
    num_output: 7
    weight_filler {
      type: "gaussian"
      std: 0.001
    }
    bias_filler {
      type: "constant"
    }
    pad_h: 2
    pad_w: 1
    kernel_h: 5
    kernel_w: 3
  }
}
layer {
  name: "detection_loss_1_3x5"
  type: "DetectionLoss"
  bottom: "LFCN_1_3x5"
  bottom: "label_1_3x5"
  top: "loss_1_3x5"
  loss_weight: 0.9
  detection_loss_param {
    cls_num: 3
    coord_num: 4
    lambda: 0.5
    field_h: 60
    field_w: 40
    downsample_rate: 8
    bb_smooth: true
    field_whr: 2
    field_xyr: 2
    bg_threshold: 0.2
    bg_multiple: 2
    sample_mode: "random"
    pos_neg_weighted: true
  }
}
layer {
  name: "detection_accuracy_1_3x5"
  type: "DetectionAccuracy"
  bottom: "LFCN_1_3x5"
  bottom: "label_1_3x5"
  top: "accuracy_1_3x5"
  top: "boxiou_1_3x5"
  detection_accuracy_param {
    cls_num: 3
    coord_num: 4
    field_h: 60
    field_w: 40
    downsample_rate: 8
    field_whr: 2
    field_xyr: 2
  }
}
layer {
  name: "LFCN_1_5x7"
  type: "Convolution"
  bottom: "loss1_conv1"
  top: "LFCN_1_5x7"
  param {
    lr_mult: 1
    decay_mult: 1
  }
  param {
    lr_mult: 2
    decay_mult: 0
  }
  convolution_param {
    num_output: 7
    weight_filler {
      type: "gaussian"
      std: 0.001
    }
    bias_filler {
      type: "constant"
    }
    pad_h: 3
    pad_w: 2
    kernel_h: 7
    kernel_w: 5
  }
}
layer {
  name: "detection_loss_1_5x7"
  type: "DetectionLoss"
  bottom: "LFCN_1_5x7"
  bottom: "label_1_5x7"
  top: "loss_1_5x7"
  loss_weight: 0.9
  detection_loss_param {
    cls_num: 3
    coord_num: 4
    lambda: 0.5
    field_h: 84
    field_w: 56
    downsample_rate: 8
    bb_smooth: true
    field_whr: 2
    field_xyr: 2
    bg_threshold: 0.2
    bg_multiple: 2
    sample_mode: "random"
    pos_neg_weighted: true
  }
}
layer {
  name: "detection_accuracy_1_5x7"
  type: "DetectionAccuracy"
  bottom: "LFCN_1_5x7"
  bottom: "label_1_5x7"
  top: "accuracy_1_5x7"
  top: "boxiou_1_5x7"
  detection_accuracy_param {
    cls_num: 3
    coord_num: 4
    field_h: 84
    field_w: 56
    downsample_rate: 8
    field_whr: 2
    field_xyr: 2
  }
}
layer {
  name: "pool4"
  type: "Pooling"
  bottom: "conv4_3"
  top: "pool4"
  pooling_param {
    pool: MAX
    kernel_size: 2
    stride: 2
  }
}
layer {
  name: "conv5_1"
  type: "Convolution"
  bottom: "pool4"
  top: "conv5_1"
  convolution_param {
    num_output: 512
    pad: 1
    kernel_size: 3
  }
}
layer {
  name: "relu5_1"
  type: "ReLU"
  bottom: "conv5_1"
  top: "conv5_1"
}
layer {
  name: "conv5_2"
  type: "Convolution"
  bottom: "conv5_1"
  top: "conv5_2"
  convolution_param {
    num_output: 512
    pad: 1
    kernel_size: 3
  }
}
layer {
  name: "relu5_2"
  type: "ReLU"
  bottom: "conv5_2"
  top: "conv5_2"
}
layer {
  name: "conv5_3"
  type: "Convolution"
  bottom: "conv5_2"
  top: "conv5_3"
  convolution_param {
    num_output: 512
    pad: 1
    kernel_size: 3
  }
}
layer {
  name: "relu5_3"
  type: "ReLU"
  bottom: "conv5_3"
  top: "conv5_3"
}
layer {
  name: "LFCN_2_3x5"
  type: "Convolution"
  bottom: "conv5_3"
  top: "LFCN_2_3x5"
  param {
    lr_mult: 1
    decay_mult: 1
  }
  param {
    lr_mult: 2
    decay_mult: 0
  }
  convolution_param {
    num_output: 7
    weight_filler {
      type: "gaussian"
      std: 0.001
    }
    bias_filler {
      type: "constant"
    }
    pad_h: 2
    pad_w: 1
    kernel_h: 5
    kernel_w: 3
  }
}
layer {
  name: "detection_loss_2_3x5"
  type: "DetectionLoss"
  bottom: "LFCN_2_3x5"
  bottom: "label_2_3x5"
  top: "loss_2_3x5"
  detection_loss_param {
    cls_num: 3
    coord_num: 4
    lambda: 0.5
    field_h: 120
    field_w: 80
    downsample_rate: 16
    bb_smooth: true
    field_whr: 2
    field_xyr: 2
    bg_threshold: 0.2
    bg_multiple: 2
    sample_mode: "random"
    pos_neg_weighted: true
  }
}
layer {
  name: "detection_accuracy_2_3x5"
  type: "DetectionAccuracy"
  bottom: "LFCN_2_3x5"
  bottom: "label_2_3x5"
  top: "accuracy_2_3x5"
  top: "boxiou_2_3x5"
  detection_accuracy_param {
    cls_num: 3
    coord_num: 4
    field_h: 120
    field_w: 80
    downsample_rate: 16
    field_whr: 2
    field_xyr: 2
  }
}
layer {
  name: "LFCN_2_5x7"
  type: "Convolution"
  bottom: "conv5_3"
  top: "LFCN_2_5x7"
  param {
    lr_mult: 1
    decay_mult: 1
  }
  param {
    lr_mult: 2
    decay_mult: 0
  }
  convolution_param {
    num_output: 7
    weight_filler {
      type: "gaussian"
      std: 0.001
    }
    bias_filler {
      type: "constant"
    }
    pad_h: 3
    pad_w: 2
    kernel_h: 7
    kernel_w: 5
  }
}
layer {
  name: "detection_loss_2_5x7"
  type: "DetectionLoss"
  bottom: "LFCN_2_5x7"
  bottom: "label_2_5x7"
  top: "loss_2_5x7"
  detection_loss_param {
    cls_num: 3
    coord_num: 4
    lambda: 0.5
    field_h: 168
    field_w: 112
    downsample_rate: 16
    bb_smooth: true
    field_whr: 2
    field_xyr: 2
    bg_threshold: 0.2
    bg_multiple: 2
    sample_mode: "random"
    pos_neg_weighted: true
  }
}
layer {
  name: "detection_accuracy_2_5x7"
  type: "DetectionAccuracy"
  bottom: "LFCN_2_5x7"
  bottom: "label_2_5x7"
  top: "accuracy_2_5x7"
  top: "boxiou_2_5x7"
  detection_accuracy_param {
    cls_num: 3
    coord_num: 4
    field_h: 168
    field_w: 112
    downsample_rate: 16
    field_whr: 2
    field_xyr: 2
  }
}
layer {
  name: "pool5"
  type: "Pooling"
  bottom: "conv5_3"
  top: "pool5"
  pooling_param {
    pool: MAX
    kernel_size: 2
    stride: 2
  }
}
layer {
  name: "conv6_1"
  type: "Convolution"
  bottom: "pool5"
  top: "conv6_1"
  param {
    lr_mult: 1
    decay_mult: 1
  }
  param {
    lr_mult: 2
    decay_mult: 0
  }
  convolution_param {
    num_output: 512
    pad: 1
    kernel_size: 3
    weight_filler {
      type: "gaussian"
      std: 0.01
    }
    bias_filler {
      type: "constant"
    }
  }
}
layer {
  name: "relu6_1"
  type: "ReLU"
  bottom: "conv6_1"
  top: "conv6_1"
}
layer {
  name: "LFCN_3_3x5"
  type: "Convolution"
  bottom: "conv6_1"
  top: "LFCN_3_3x5"
  param {
    lr_mult: 1
    decay_mult: 1
  }
  param {
    lr_mult: 2
    decay_mult: 0
  }
  convolution_param {
    num_output: 7
    weight_filler {
      type: "gaussian"
      std: 0.001
    }
    bias_filler {
      type: "constant"
    }
    pad_h: 2
    pad_w: 1
    kernel_h: 5
    kernel_w: 3
  }
}
layer {
  name: "detection_loss_3_3x5"
  type: "DetectionLoss"
  bottom: "LFCN_3_3x5"
  bottom: "label_3_3x5"
  top: "loss_3_3x5"
  detection_loss_param {
    cls_num: 3
    coord_num: 4
    lambda: 0.5
    field_h: 240
    field_w: 160
    downsample_rate: 32
    bb_smooth: true
    field_whr: 2
    field_xyr: 2
    bg_threshold: 0.2
    bg_multiple: 2
    sample_mode: "random"
    pos_neg_weighted: true
  }
}
layer {
  name: "detection_accuracy_3_3x5"
  type: "DetectionAccuracy"
  bottom: "LFCN_3_3x5"
  bottom: "label_3_3x5"
  top: "accuracy_3_3x5"
  top: "boxiou_3_3x5"
  detection_accuracy_param {
    cls_num: 3
    coord_num: 4
    field_h: 240
    field_w: 160
    downsample_rate: 32
    field_whr: 2
    field_xyr: 2
  }
}
layer {
  name: "LFCN_3_5x7"
  type: "Convolution"
  bottom: "conv6_1"
  top: "LFCN_3_5x7"
  param {
    lr_mult: 1
    decay_mult: 1
  }
  param {
    lr_mult: 2
    decay_mult: 0
  }
  convolution_param {
    num_output: 7
    weight_filler {
      type: "gaussian"
      std: 0.001
    }
    bias_filler {
      type: "constant"
    }
    pad_h: 3
    pad_w: 2
    kernel_h: 7
    kernel_w: 5
  }
}
layer {
  name: "detection_loss_3_5x7"
  type: "DetectionLoss"
  bottom: "LFCN_3_5x7"
  bottom: "label_3_5x7"
  top: "loss_3_5x7"
  detection_loss_param {
    cls_num: 3
    coord_num: 4
    lambda: 0.5
    field_h: 336
    field_w: 224
    downsample_rate: 32
    bb_smooth: true
    field_whr: 2
    field_xyr: 2
    bg_threshold: 0.2
    bg_multiple: 2
    sample_mode: "random"
    pos_neg_weighted: true
  }
}
layer {
  name: "detection_accuracy_3_5x7"
  type: "DetectionAccuracy"
  bottom: "LFCN_3_5x7"
  bottom: "label_3_5x7"
  top: "accuracy_3_5x7"
  top: "boxiou_3_5x7"
  detection_accuracy_param {
    cls_num: 3
    coord_num: 4
    field_h: 336
    field_w: 224
    downsample_rate: 32
    field_whr: 2
    field_xyr: 2
  }
}
layer {
  name: "pool6"
  type: "Pooling"
  bottom: "conv6_1"
  top: "pool6"
  pooling_param {
    pool: MAX
    kernel_size: 2
    stride: 2
  }
}
layer {
  name: "LFCN_4_3x5"
  type: "Convolution"
  bottom: "pool6"
  top: "LFCN_4_3x5"
  param {
    lr_mult: 1
    decay_mult: 1
  }
  param {
    lr_mult: 2
    decay_mult: 0
  }
  convolution_param {
    num_output: 7
    weight_filler {
      type: "gaussian"
      std: 0.001
    }
    bias_filler {
      type: "constant"
    }
    pad_h: 2
    pad_w: 1
    kernel_h: 5
    kernel_w: 3
  }
}
layer {
  name: "detection_loss_4_3x5"
  type: "DetectionLoss"
  bottom: "LFCN_4_3x5"
  bottom: "label_4_3x5"
  top: "loss_4_3x5"
  detection_loss_param {
    cls_num: 3
    coord_num: 4
    lambda: 0.5
    field_h: 480
    field_w: 360
    downsample_rate: 64
    bb_smooth: true
    field_whr: 2
    field_xyr: 2
    bg_threshold: 0.2
    bg_multiple: 2
    sample_mode: "random"
    pos_neg_weighted: true
  }
}
layer {
  name: "detection_accuracy_4_3x5"
  type: "DetectionAccuracy"
  bottom: "LFCN_4_3x5"
  bottom: "label_4_3x5"
  top: "accuracy_4_3x5"
  top: "boxiou_4_3x5"
  detection_accuracy_param {
    cls_num: 3
    coord_num: 4
    field_h: 480
    field_w: 360
    downsample_rate: 64
    field_whr: 2
    field_xyr: 2
  }
}
I0628 13:31:12.878041  6035 layer_factory.hpp:77] Creating layer data
I0628 13:31:12.878078  6035 net.cpp:100] Creating Layer data
I0628 13:31:12.878090  6035 net.cpp:408] data -> data
…
I0628 13:31:12.958134  6035 image_gt_data_layer.cpp:241] output label size 2 : 4,6,36,48
I0628 13:31:12.958184  6035 image_gt_data_layer.cpp:241] output label size 3 : 4,6,36,48
I0628 13:31:12.958235  6035 image_gt_data_layer.cpp:241] output label size 4 : 4,6,18,24
I0628 13:31:12.958289  6035 image_gt_data_layer.cpp:241] output label size 5 : 4,6,18,24
I0628 13:31:12.958338  6035 image_gt_data_layer.cpp:241] output label size 6 : 4,6,9,12
I0628 13:31:12.958343  6035 image_gt_data_layer.cpp:265]  --> has_mean_values_ = 1
I0628 13:31:12.998248  6035 net.cpp:150] Setting up data
I0628 13:31:12.998268  6035 net.cpp:157] Top shape: 4 4 576 768 (7077888)
I0628 13:31:12.998275  6035 net.cpp:157] Top shape: 4 6 72 96 (165888)
I0628 13:31:12.998278  6035 net.cpp:157] Top shape: 4 6 72 96 (165888)
I0628 13:31:12.998282  6035 net.cpp:157] Top shape: 4 6 36 48 (41472)
I0628 13:31:12.998286  6035 net.cpp:157] Top shape: 4 6 36 48 (41472)
I0628 13:31:12.998291  6035 net.cpp:157] Top shape: 4 6 18 24 (10368)
I0628 13:31:12.998294  6035 net.cpp:157] Top shape: 4 6 18 24 (10368)
I0628 13:31:12.998298  6035 net.cpp:157] Top shape: 4 6 9 12 (2592)
I0628 13:31:12.998301  6035 net.cpp:165] Memory required for data: 30063744
I0628 13:31:12.998309  6035 layer_factory.hpp:77] Creating layer label_1_3x5_data_1_split
I0628 13:31:12.998319  6035 net.cpp:100] Creating Layer label_1_3x5_data_1_split
I0628 13:31:12.998325  6035 net.cpp:434] label_1_3x5_data_1_split <- label_1_3x5
I0628 13:31:12.998337  6035 net.cpp:408] label_1_3x5_data_1_split -> label_1_3x5_data_1_split_0
I0628 13:31:12.998348  6035 net.cpp:408] label_1_3x5_data_1_split -> label_1_3x5_data_1_split_1
I0628 13:31:12.998396  6035 net.cpp:150] Setting up label_1_3x5_data_1_split
I0628 13:31:12.998402  6035 net.cpp:157] Top shape: 4 6 72 96 (165888)
I0628 13:31:12.998407  6035 net.cpp:157] Top shape: 4 6 72 96 (165888)
I0628 13:31:12.998409  6035 net.cpp:165] Memory required for data: 31390848
I0628 13:31:12.998414  6035 layer_factory.hpp:77] Creating layer label_1_5x7_data_2_split
I0628 13:31:12.998419  6035 net.cpp:100] Creating Layer label_1_5x7_data_2_split
I0628 13:31:12.998422  6035 net.cpp:434] label_1_5x7_data_2_split <- label_1_5x7
I0628 13:31:12.998430  6035 net.cpp:408] label_1_5x7_data_2_split -> label_1_5x7_data_2_split_0
I0628 13:31:12.998435  6035 net.cpp:408] label_1_5x7_data_2_split -> label_1_5x7_data_2_split_1
I0628 13:31:12.998467  6035 net.cpp:150] Setting up label_1_5x7_data_2_split
I0628 13:31:12.998471  6035 net.cpp:157] Top shape: 4 6 72 96 (165888)
I0628 13:31:12.998476  6035 net.cpp:157] Top shape: 4 6 72 96 (165888)
I0628 13:31:12.998478  6035 net.cpp:165] Memory required for data: 32717952
I0628 13:31:12.998481  6035 layer_factory.hpp:77] Creating layer label_2_3x5_data_3_split
I0628 13:31:12.998486  6035 net.cpp:100] Creating Layer label_2_3x5_data_3_split
I0628 13:31:12.998489  6035 net.cpp:434] label_2_3x5_data_3_split <- label_2_3x5
I0628 13:31:12.998495  6035 net.cpp:408] label_2_3x5_data_3_split -> label_2_3x5_data_3_split_0
I0628 13:31:12.998502  6035 net.cpp:408] label_2_3x5_data_3_split -> label_2_3x5_data_3_split_1
I0628 13:31:12.998530  6035 net.cpp:150] Setting up label_2_3x5_data_3_split
I0628 13:31:12.998536  6035 net.cpp:157] Top shape: 4 6 36 48 (41472)
I0628 13:31:12.998540  6035 net.cpp:157] Top shape: 4 6 36 48 (41472)
I0628 13:31:12.998543  6035 net.cpp:165] Memory required for data: 33049728
I0628 13:31:12.998545  6035 layer_factory.hpp:77] Creating layer label_2_5x7_data_4_split
I0628 13:31:12.998551  6035 net.cpp:100] Creating Layer label_2_5x7_data_4_split
I0628 13:31:12.998555  6035 net.cpp:434] label_2_5x7_data_4_split <- label_2_5x7
I0628 13:31:12.998560  6035 net.cpp:408] label_2_5x7_data_4_split -> label_2_5x7_data_4_split_0
I0628 13:31:12.998565  6035 net.cpp:408] label_2_5x7_data_4_split -> label_2_5x7_data_4_split_1
I0628 13:31:12.998595  6035 net.cpp:150] Setting up label_2_5x7_data_4_split
I0628 13:31:12.998600  6035 net.cpp:157] Top shape: 4 6 36 48 (41472)
I0628 13:31:12.998603  6035 net.cpp:157] Top shape: 4 6 36 48 (41472)
I0628 13:31:12.998606  6035 net.cpp:165] Memory required for data: 33381504
I0628 13:31:12.998610  6035 layer_factory.hpp:77] Creating layer label_3_3x5_data_5_split
I0628 13:31:12.998615  6035 net.cpp:100] Creating Layer label_3_3x5_data_5_split
I0628 13:31:12.998617  6035 net.cpp:434] label_3_3x5_data_5_split <- label_3_3x5
I0628 13:31:12.998622  6035 net.cpp:408] label_3_3x5_data_5_split -> label_3_3x5_data_5_split_0
I0628 13:31:12.998631  6035 net.cpp:408] label_3_3x5_data_5_split -> label_3_3x5_data_5_split_1
I0628 13:31:12.998658  6035 net.cpp:150] Setting up label_3_3x5_data_5_split
I0628 13:31:12.998663  6035 net.cpp:157] Top shape: 4 6 18 24 (10368)
I0628 13:31:12.998667  6035 net.cpp:157] Top shape: 4 6 18 24 (10368)
I0628 13:31:12.998670  6035 net.cpp:165] Memory required for data: 33464448
I0628 13:31:12.998673  6035 layer_factory.hpp:77] Creating layer label_3_5x7_data_6_split
I0628 13:31:12.998678  6035 net.cpp:100] Creating Layer label_3_5x7_data_6_split
I0628 13:31:12.998682  6035 net.cpp:434] label_3_5x7_data_6_split <- label_3_5x7
I0628 13:31:12.998687  6035 net.cpp:408] label_3_5x7_data_6_split -> label_3_5x7_data_6_split_0
I0628 13:31:12.998692  6035 net.cpp:408] label_3_5x7_data_6_split -> label_3_5x7_data_6_split_1
I0628 13:31:12.998721  6035 net.cpp:150] Setting up label_3_5x7_data_6_split
I0628 13:31:12.998728  6035 net.cpp:157] Top shape: 4 6 18 24 (10368)
I0628 13:31:12.998731  6035 net.cpp:157] Top shape: 4 6 18 24 (10368)
I0628 13:31:12.998734  6035 net.cpp:165] Memory required for data: 33547392
I0628 13:31:12.998736  6035 layer_factory.hpp:77] Creating layer label_4_3x5_data_7_split
I0628 13:31:12.998740  6035 net.cpp:100] Creating Layer label_4_3x5_data_7_split
I0628 13:31:12.998744  6035 net.cpp:434] label_4_3x5_data_7_split <- label_4_3x5
I0628 13:31:12.998749  6035 net.cpp:408] label_4_3x5_data_7_split -> label_4_3x5_data_7_split_0
I0628 13:31:12.998755  6035 net.cpp:408] label_4_3x5_data_7_split -> label_4_3x5_data_7_split_1
I0628 13:31:12.998781  6035 net.cpp:150] Setting up label_4_3x5_data_7_split
I0628 13:31:12.998786  6035 net.cpp:157] Top shape: 4 6 9 12 (2592)
I0628 13:31:12.998790  6035 net.cpp:157] Top shape: 4 6 9 12 (2592)
I0628 13:31:12.998793  6035 net.cpp:165] Memory required for data: 33568128
I0628 13:31:12.998795  6035 layer_factory.hpp:77] Creating layer conv1_1
I0628 13:31:12.998809  6035 net.cpp:100] Creating Layer conv1_1
I0628 13:31:12.998813  6035 net.cpp:434] conv1_1 <- data
I0628 13:31:12.998818  6035 net.cpp:408] conv1_1 -> conv1_1
I0628 13:31:14.009577  6035 net.cpp:150] Setting up conv1_1
I0628 13:31:14.009614  6035 net.cpp:157] Top shape: 4 64 576 768 (113246208)
I0628 13:31:14.009622  6035 net.cpp:165] Memory required for data: 486552960
I0628 13:31:14.009660  6035 layer_factory.hpp:77] Creating layer relu1_1
I0628 13:31:14.009683  6035 net.cpp:100] Creating Layer relu1_1
I0628 13:31:14.009696  6035 net.cpp:434] relu1_1 <- conv1_1
I0628 13:31:14.009712  6035 net.cpp:395] relu1_1 -> conv1_1 (in-place)
I0628 13:31:14.010476  6035 net.cpp:150] Setting up relu1_1
I0628 13:31:14.010495  6035 net.cpp:157] Top shape: 4 64 576 768 (113246208)
I0628 13:31:14.010502  6035 net.cpp:165] Memory required for data: 939537792
I0628 13:31:14.010509  6035 layer_factory.hpp:77] Creating layer conv1_2
I0628 13:31:14.010529  6035 net.cpp:100] Creating Layer conv1_2
I0628 13:31:14.010540  6035 net.cpp:434] conv1_2 <- conv1_1
I0628 13:31:14.010555  6035 net.cpp:408] conv1_2 -> conv1_2
I0628 13:31:14.017473  6035 net.cpp:150] Setting up conv1_2
I0628 13:31:14.017504  6035 net.cpp:157] Top shape: 4 64 576 768 (113246208)
I0628 13:31:14.017510  6035 net.cpp:165] Memory required for data: 1392522624
I0628 13:31:14.017527  6035 layer_factory.hpp:77] Creating layer relu1_2
I0628 13:31:14.017541  6035 net.cpp:100] Creating Layer relu1_2
I0628 13:31:14.017547  6035 net.cpp:434] relu1_2 <- conv1_2
I0628 13:31:14.017561  6035 net.cpp:395] relu1_2 -> conv1_2 (in-place)
I0628 13:31:14.018121  6035 net.cpp:150] Setting up relu1_2
I0628 13:31:14.018136  6035 net.cpp:157] Top shape: 4 64 576 768 (113246208)
I0628 13:31:14.018141  6035 net.cpp:165] Memory required for data: 1845507456
I0628 13:31:14.018146  6035 layer_factory.hpp:77] Creating layer pool1
I0628 13:31:14.018157  6035 net.cpp:100] Creating Layer pool1
I0628 13:31:14.018162  6035 net.cpp:434] pool1 <- conv1_2
I0628 13:31:14.018169  6035 net.cpp:408] pool1 -> pool1
I0628 13:31:14.018260  6035 net.cpp:150] Setting up pool1
I0628 13:31:14.018270  6035 net.cpp:157] Top shape: 4 64 288 384 (28311552)
I0628 13:31:14.018275  6035 net.cpp:165] Memory required for data: 1958753664
I0628 13:31:14.018280  6035 layer_factory.hpp:77] Creating layer conv2_1
I0628 13:31:14.018295  6035 net.cpp:100] Creating Layer conv2_1
I0628 13:31:14.018301  6035 net.cpp:434] conv2_1 <- pool1
I0628 13:31:14.018311  6035 net.cpp:408] conv2_1 -> conv2_1
I0628 13:31:14.022933  6035 net.cpp:150] Setting up conv2_1
I0628 13:31:14.022956  6035 net.cpp:157] Top shape: 4 128 288 384 (56623104)
I0628 13:31:14.022960  6035 net.cpp:165] Memory required for data: 2185246080
I0628 13:31:14.022975  6035 layer_factory.hpp:77] Creating layer relu2_1
I0628 13:31:14.022986  6035 net.cpp:100] Creating Layer relu2_1
I0628 13:31:14.022991  6035 net.cpp:434] relu2_1 <- conv2_1
I0628 13:31:14.023000  6035 net.cpp:395] relu2_1 -> conv2_1 (in-place)
I0628 13:31:14.023962  6035 net.cpp:150] Setting up relu2_1
I0628 13:31:14.023977  6035 net.cpp:157] Top shape: 4 128 288 384 (56623104)
I0628 13:31:14.023979  6035 net.cpp:165] Memory required for data: 2411738496
I0628 13:31:14.023983  6035 layer_factory.hpp:77] Creating layer conv2_2
I0628 13:31:14.023993  6035 net.cpp:100] Creating Layer conv2_2
I0628 13:31:14.023996  6035 net.cpp:434] conv2_2 <- conv2_1
I0628 13:31:14.024001  6035 net.cpp:408] conv2_2 -> conv2_2
I0628 13:31:14.026527  6035 net.cpp:150] Setting up conv2_2
I0628 13:31:14.026546  6035 net.cpp:157] Top shape: 4 128 288 384 (56623104)
I0628 13:31:14.026548  6035 net.cpp:165] Memory required for data: 2638230912
I0628 13:31:14.026557  6035 layer_factory.hpp:77] Creating layer relu2_2
I0628 13:31:14.026568  6035 net.cpp:100] Creating Layer relu2_2
I0628 13:31:14.026572  6035 net.cpp:434] relu2_2 <- conv2_2
I0628 13:31:14.026579  6035 net.cpp:395] relu2_2 -> conv2_2 (in-place)
I0628 13:31:14.027451  6035 net.cpp:150] Setting up relu2_2
I0628 13:31:14.027464  6035 net.cpp:157] Top shape: 4 128 288 384 (56623104)
I0628 13:31:14.027467  6035 net.cpp:165] Memory required for data: 2864723328
I0628 13:31:14.027472  6035 layer_factory.hpp:77] Creating layer pool2
I0628 13:31:14.027478  6035 net.cpp:100] Creating Layer pool2
I0628 13:31:14.027482  6035 net.cpp:434] pool2 <- conv2_2
I0628 13:31:14.027487  6035 net.cpp:408] pool2 -> pool2
I0628 13:31:14.027542  6035 net.cpp:150] Setting up pool2
I0628 13:31:14.027549  6035 net.cpp:157] Top shape: 4 128 144 192 (14155776)
I0628 13:31:14.027552  6035 net.cpp:165] Memory required for data: 2921346432
I0628 13:31:14.027555  6035 layer_factory.hpp:77] Creating layer conv3_1
I0628 13:31:14.027565  6035 net.cpp:100] Creating Layer conv3_1
I0628 13:31:14.027571  6035 net.cpp:434] conv3_1 <- pool2
I0628 13:31:14.027578  6035 net.cpp:408] conv3_1 -> conv3_1
I0628 13:31:14.031003  6035 net.cpp:150] Setting up conv3_1
I0628 13:31:14.031024  6035 net.cpp:157] Top shape: 4 256 144 192 (28311552)
I0628 13:31:14.031028  6035 net.cpp:165] Memory required for data: 3034592640
I0628 13:31:14.031038  6035 layer_factory.hpp:77] Creating layer relu3_1
I0628 13:31:14.031046  6035 net.cpp:100] Creating Layer relu3_1
I0628 13:31:14.031051  6035 net.cpp:434] relu3_1 <- conv3_1
I0628 13:31:14.031057  6035 net.cpp:395] relu3_1 -> conv3_1 (in-place)
I0628 13:31:14.031373  6035 net.cpp:150] Setting up relu3_1
I0628 13:31:14.031381  6035 net.cpp:157] Top shape: 4 256 144 192 (28311552)
I0628 13:31:14.031383  6035 net.cpp:165] Memory required for data: 3147838848
I0628 13:31:14.031386  6035 layer_factory.hpp:77] Creating layer conv3_2
I0628 13:31:14.031394  6035 net.cpp:100] Creating Layer conv3_2
I0628 13:31:14.031396  6035 net.cpp:434] conv3_2 <- conv3_1
I0628 13:31:14.031401  6035 net.cpp:408] conv3_2 -> conv3_2
I0628 13:31:14.035281  6035 net.cpp:150] Setting up conv3_2
I0628 13:31:14.035301  6035 net.cpp:157] Top shape: 4 256 144 192 (28311552)
I0628 13:31:14.035305  6035 net.cpp:165] Memory required for data: 3261085056
I0628 13:31:14.035312  6035 layer_factory.hpp:77] Creating layer relu3_2
I0628 13:31:14.035320  6035 net.cpp:100] Creating Layer relu3_2
I0628 13:31:14.035322  6035 net.cpp:434] relu3_2 <- conv3_2
I0628 13:31:14.035327  6035 net.cpp:395] relu3_2 -> conv3_2 (in-place)
I0628 13:31:14.035635  6035 net.cpp:150] Setting up relu3_2
I0628 13:31:14.035645  6035 net.cpp:157] Top shape: 4 256 144 192 (28311552)
I0628 13:31:14.035646  6035 net.cpp:165] Memory required for data: 3374331264
I0628 13:31:14.035650  6035 layer_factory.hpp:77] Creating layer conv3_3
I0628 13:31:14.035656  6035 net.cpp:100] Creating Layer conv3_3
I0628 13:31:14.035658  6035 net.cpp:434] conv3_3 <- conv3_2
I0628 13:31:14.035663  6035 net.cpp:408] conv3_3 -> conv3_3
I0628 13:31:14.038878  6035 net.cpp:150] Setting up conv3_3
I0628 13:31:14.038897  6035 net.cpp:157] Top shape: 4 256 144 192 (28311552)
I0628 13:31:14.038898  6035 net.cpp:165] Memory required for data: 3487577472
I0628 13:31:14.038905  6035 layer_factory.hpp:77] Creating layer relu3_3
I0628 13:31:14.038911  6035 net.cpp:100] Creating Layer relu3_3
I0628 13:31:14.038914  6035 net.cpp:434] relu3_3 <- conv3_3
I0628 13:31:14.038919  6035 net.cpp:395] relu3_3 -> conv3_3 (in-place)
I0628 13:31:14.039530  6035 net.cpp:150] Setting up relu3_3
I0628 13:31:14.039538  6035 net.cpp:157] Top shape: 4 256 144 192 (28311552)
I0628 13:31:14.039541  6035 net.cpp:165] Memory required for data: 3600823680
I0628 13:31:14.039543  6035 layer_factory.hpp:77] Creating layer pool3
I0628 13:31:14.039548  6035 net.cpp:100] Creating Layer pool3
I0628 13:31:14.039551  6035 net.cpp:434] pool3 <- conv3_3
I0628 13:31:14.039556  6035 net.cpp:408] pool3 -> pool3
I0628 13:31:14.039595  6035 net.cpp:150] Setting up pool3
I0628 13:31:14.039600  6035 net.cpp:157] Top shape: 4 256 72 96 (7077888)
I0628 13:31:14.039602  6035 net.cpp:165] Memory required for data: 3629135232
I0628 13:31:14.039604  6035 layer_factory.hpp:77] Creating layer conv4_1
I0628 13:31:14.039611  6035 net.cpp:100] Creating Layer conv4_1
I0628 13:31:14.039615  6035 net.cpp:434] conv4_1 <- pool3
I0628 13:31:14.039619  6035 net.cpp:408] conv4_1 -> conv4_1
I0628 13:31:14.044364  6035 net.cpp:150] Setting up conv4_1
I0628 13:31:14.044384  6035 net.cpp:157] Top shape: 4 512 72 96 (14155776)
I0628 13:31:14.044387  6035 net.cpp:165] Memory required for data: 3685758336
I0628 13:31:14.044394  6035 layer_factory.hpp:77] Creating layer relu4_1
I0628 13:31:14.044400  6035 net.cpp:100] Creating Layer relu4_1
I0628 13:31:14.044404  6035 net.cpp:434] relu4_1 <- conv4_1
I0628 13:31:14.044409  6035 net.cpp:395] relu4_1 -> conv4_1 (in-place)
I0628 13:31:14.044646  6035 net.cpp:150] Setting up relu4_1
I0628 13:31:14.044656  6035 net.cpp:157] Top shape: 4 512 72 96 (14155776)
I0628 13:31:14.044659  6035 net.cpp:165] Memory required for data: 3742381440
I0628 13:31:14.044662  6035 layer_factory.hpp:77] Creating layer conv4_2
I0628 13:31:14.044672  6035 net.cpp:100] Creating Layer conv4_2
I0628 13:31:14.044674  6035 net.cpp:434] conv4_2 <- conv4_1
I0628 13:31:14.044680  6035 net.cpp:408] conv4_2 -> conv4_2
I0628 13:31:14.050298  6035 net.cpp:150] Setting up conv4_2
I0628 13:31:14.050318  6035 net.cpp:157] Top shape: 4 512 72 96 (14155776)
I0628 13:31:14.050321  6035 net.cpp:165] Memory required for data: 3799004544
I0628 13:31:14.050334  6035 layer_factory.hpp:77] Creating layer relu4_2
I0628 13:31:14.050343  6035 net.cpp:100] Creating Layer relu4_2
I0628 13:31:14.050348  6035 net.cpp:434] relu4_2 <- conv4_2
I0628 13:31:14.050354  6035 net.cpp:395] relu4_2 -> conv4_2 (in-place)
I0628 13:31:14.050597  6035 net.cpp:150] Setting up relu4_2
I0628 13:31:14.050608  6035 net.cpp:157] Top shape: 4 512 72 96 (14155776)
I0628 13:31:14.050611  6035 net.cpp:165] Memory required for data: 3855627648
I0628 13:31:14.050614  6035 layer_factory.hpp:77] Creating layer conv4_3
I0628 13:31:14.050622  6035 net.cpp:100] Creating Layer conv4_3
I0628 13:31:14.050624  6035 net.cpp:434] conv4_3 <- conv4_2
I0628 13:31:14.050628  6035 net.cpp:408] conv4_3 -> conv4_3
I0628 13:31:14.056290  6035 net.cpp:150] Setting up conv4_3
I0628 13:31:14.056314  6035 net.cpp:157] Top shape: 4 512 72 96 (14155776)
I0628 13:31:14.056316  6035 net.cpp:165] Memory required for data: 3912250752
I0628 13:31:14.056324  6035 layer_factory.hpp:77] Creating layer relu4_3
I0628 13:31:14.056335  6035 net.cpp:100] Creating Layer relu4_3
I0628 13:31:14.056340  6035 net.cpp:434] relu4_3 <- conv4_3
I0628 13:31:14.056346  6035 net.cpp:395] relu4_3 -> conv4_3 (in-place)
I0628 13:31:14.057143  6035 net.cpp:150] Setting up relu4_3
I0628 13:31:14.057155  6035 net.cpp:157] Top shape: 4 512 72 96 (14155776)
I0628 13:31:14.057157  6035 net.cpp:165] Memory required for data: 3968873856
I0628 13:31:14.057160  6035 layer_factory.hpp:77] Creating layer conv4_3_relu4_3_0_split
I0628 13:31:14.057164  6035 net.cpp:100] Creating Layer conv4_3_relu4_3_0_split
I0628 13:31:14.057168  6035 net.cpp:434] conv4_3_relu4_3_0_split <- conv4_3
I0628 13:31:14.057173  6035 net.cpp:408] conv4_3_relu4_3_0_split -> conv4_3_relu4_3_0_split_0
I0628 13:31:14.057178  6035 net.cpp:408] conv4_3_relu4_3_0_split -> conv4_3_relu4_3_0_split_1
I0628 13:31:14.057217  6035 net.cpp:150] Setting up conv4_3_relu4_3_0_split
I0628 13:31:14.057222  6035 net.cpp:157] Top shape: 4 512 72 96 (14155776)
I0628 13:31:14.057232  6035 net.cpp:157] Top shape: 4 512 72 96 (14155776)
I0628 13:31:14.057235  6035 net.cpp:165] Memory required for data: 4082120064
I0628 13:31:14.057237  6035 layer_factory.hpp:77] Creating layer loss1_conv1
I0628 13:31:14.057251  6035 net.cpp:100] Creating Layer loss1_conv1
I0628 13:31:14.057255  6035 net.cpp:434] loss1_conv1 <- conv4_3_relu4_3_0_split_0
I0628 13:31:14.057260  6035 net.cpp:408] loss1_conv1 -> loss1_conv1
I0628 13:31:14.091116  6035 net.cpp:150] Setting up loss1_conv1
I0628 13:31:14.091133  6035 net.cpp:157] Top shape: 4 512 72 96 (14155776)
I0628 13:31:14.091135  6035 net.cpp:165] Memory required for data: 4138743168
I0628 13:31:14.091142  6035 layer_factory.hpp:77] Creating layer loss_relu1
I0628 13:31:14.091150  6035 net.cpp:100] Creating Layer loss_relu1
I0628 13:31:14.091153  6035 net.cpp:434] loss_relu1 <- loss1_conv1
I0628 13:31:14.091157  6035 net.cpp:395] loss_relu1 -> loss1_conv1 (in-place)
I0628 13:31:14.091394  6035 net.cpp:150] Setting up loss_relu1
I0628 13:31:14.091403  6035 net.cpp:157] Top shape: 4 512 72 96 (14155776)
I0628 13:31:14.091406  6035 net.cpp:165] Memory required for data: 4195366272
I0628 13:31:14.091410  6035 layer_factory.hpp:77] Creating layer loss1_conv1_loss_relu1_0_split
I0628 13:31:14.091418  6035 net.cpp:100] Creating Layer loss1_conv1_loss_relu1_0_split
I0628 13:31:14.091420  6035 net.cpp:434] loss1_conv1_loss_relu1_0_split <- loss1_conv1
I0628 13:31:14.091426  6035 net.cpp:408] loss1_conv1_loss_relu1_0_split -> loss1_conv1_loss_relu1_0_split_0
I0628 13:31:14.091436  6035 net.cpp:408] loss1_conv1_loss_relu1_0_split -> loss1_conv1_loss_relu1_0_split_1
I0628 13:31:14.091476  6035 net.cpp:150] Setting up loss1_conv1_loss_relu1_0_split
I0628 13:31:14.091482  6035 net.cpp:157] Top shape: 4 512 72 96 (14155776)
I0628 13:31:14.091486  6035 net.cpp:157] Top shape: 4 512 72 96 (14155776)
I0628 13:31:14.091490  6035 net.cpp:165] Memory required for data: 4308612480
I0628 13:31:14.091492  6035 layer_factory.hpp:77] Creating layer LFCN_1_3x5
I0628 13:31:14.091500  6035 net.cpp:100] Creating Layer LFCN_1_3x5
I0628 13:31:14.091504  6035 net.cpp:434] LFCN_1_3x5 <- loss1_conv1_loss_relu1_0_split_0
I0628 13:31:14.091512  6035 net.cpp:408] LFCN_1_3x5 -> LFCN_1_3x5
I0628 13:31:14.093690  6035 net.cpp:150] Setting up LFCN_1_3x5
I0628 13:31:14.093705  6035 net.cpp:157] Top shape: 4 7 72 96 (193536)
I0628 13:31:14.093708  6035 net.cpp:165] Memory required for data: 4309386624
I0628 13:31:14.093716  6035 layer_factory.hpp:77] Creating layer LFCN_1_3x5_LFCN_1_3x5_0_split
I0628 13:31:14.093724  6035 net.cpp:100] Creating Layer LFCN_1_3x5_LFCN_1_3x5_0_split
I0628 13:31:14.093729  6035 net.cpp:434] LFCN_1_3x5_LFCN_1_3x5_0_split <- LFCN_1_3x5
I0628 13:31:14.093736  6035 net.cpp:408] LFCN_1_3x5_LFCN_1_3x5_0_split -> LFCN_1_3x5_LFCN_1_3x5_0_split_0
I0628 13:31:14.093745  6035 net.cpp:408] LFCN_1_3x5_LFCN_1_3x5_0_split -> LFCN_1_3x5_LFCN_1_3x5_0_split_1
I0628 13:31:14.093785  6035 net.cpp:150] Setting up LFCN_1_3x5_LFCN_1_3x5_0_split
I0628 13:31:14.093789  6035 net.cpp:157] Top shape: 4 7 72 96 (193536)
I0628 13:31:14.093793  6035 net.cpp:157] Top shape: 4 7 72 96 (193536)
I0628 13:31:14.093796  6035 net.cpp:165] Memory required for data: 4310934912
I0628 13:31:14.093799  6035 layer_factory.hpp:77] Creating layer detection_loss_1_3x5
I0628 13:31:14.093811  6035 net.cpp:100] Creating Layer detection_loss_1_3x5
I0628 13:31:14.093816  6035 net.cpp:434] detection_loss_1_3x5 <- LFCN_1_3x5_LFCN_1_3x5_0_split_0
I0628 13:31:14.093821  6035 net.cpp:434] detection_loss_1_3x5 <- label_1_3x5_data_1_split_0
I0628 13:31:14.093827  6035 net.cpp:408] detection_loss_1_3x5 -> loss_1_3x5
I0628 13:31:14.093842  6035 layer_factory.hpp:77] Creating layer detection_loss_1_3x5
I0628 13:31:14.094285  6035 net.cpp:150] Setting up detection_loss_1_3x5
I0628 13:31:14.094293  6035 net.cpp:157] Top shape: 1 1 1 2 (2)
I0628 13:31:14.094296  6035 net.cpp:160]     with loss weight 0.9
I0628 13:31:14.094313  6035 net.cpp:165] Memory required for data: 4310934920
I0628 13:31:14.094316  6035 layer_factory.hpp:77] Creating layer detection_accuracy_1_3x5
I0628 13:31:14.094323  6035 net.cpp:100] Creating Layer detection_accuracy_1_3x5
I0628 13:31:14.094328  6035 net.cpp:434] detection_accuracy_1_3x5 <- LFCN_1_3x5_LFCN_1_3x5_0_split_1
I0628 13:31:14.094333  6035 net.cpp:434] detection_accuracy_1_3x5 <- label_1_3x5_data_1_split_1
I0628 13:31:14.094341  6035 net.cpp:408] detection_accuracy_1_3x5 -> accuracy_1_3x5
I0628 13:31:14.094350  6035 net.cpp:408] detection_accuracy_1_3x5 -> boxiou_1_3x5
I0628 13:31:14.094388  6035 net.cpp:150] Setting up detection_accuracy_1_3x5
I0628 13:31:14.094393  6035 net.cpp:157] Top shape: 1 1 1 2 (2)
I0628 13:31:14.094398  6035 net.cpp:157] Top shape: 1 1 1 1 (1)
I0628 13:31:14.094399  6035 net.cpp:165] Memory required for data: 4310934932
I0628 13:31:14.094403  6035 layer_factory.hpp:77] Creating layer LFCN_1_5x7
I0628 13:31:14.094413  6035 net.cpp:100] Creating Layer LFCN_1_5x7
I0628 13:31:14.094418  6035 net.cpp:434] LFCN_1_5x7 <- loss1_conv1_loss_relu1_0_split_1
I0628 13:31:14.094422  6035 net.cpp:408] LFCN_1_5x7 -> LFCN_1_5x7
I0628 13:31:14.096745  6035 net.cpp:150] Setting up LFCN_1_5x7
I0628 13:31:14.096760  6035 net.cpp:157] Top shape: 4 7 72 96 (193536)
I0628 13:31:14.096765  6035 net.cpp:165] Memory required for data: 4311709076
I0628 13:31:14.096772  6035 layer_factory.hpp:77] Creating layer LFCN_1_5x7_LFCN_1_5x7_0_split
I0628 13:31:14.096779  6035 net.cpp:100] Creating Layer LFCN_1_5x7_LFCN_1_5x7_0_split
I0628 13:31:14.096784  6035 net.cpp:434] LFCN_1_5x7_LFCN_1_5x7_0_split <- LFCN_1_5x7
I0628 13:31:14.096793  6035 net.cpp:408] LFCN_1_5x7_LFCN_1_5x7_0_split -> LFCN_1_5x7_LFCN_1_5x7_0_split_0
I0628 13:31:14.096801  6035 net.cpp:408] LFCN_1_5x7_LFCN_1_5x7_0_split -> LFCN_1_5x7_LFCN_1_5x7_0_split_1
I0628 13:31:14.096840  6035 net.cpp:150] Setting up LFCN_1_5x7_LFCN_1_5x7_0_split
I0628 13:31:14.096846  6035 net.cpp:157] Top shape: 4 7 72 96 (193536)
I0628 13:31:14.096850  6035 net.cpp:157] Top shape: 4 7 72 96 (193536)
I0628 13:31:14.096853  6035 net.cpp:165] Memory required for data: 4313257364
I0628 13:31:14.096855  6035 layer_factory.hpp:77] Creating layer detection_loss_1_5x7
I0628 13:31:14.096863  6035 net.cpp:100] Creating Layer detection_loss_1_5x7
I0628 13:31:14.096866  6035 net.cpp:434] detection_loss_1_5x7 <- LFCN_1_5x7_LFCN_1_5x7_0_split_0
I0628 13:31:14.096873  6035 net.cpp:434] detection_loss_1_5x7 <- label_1_5x7_data_2_split_0
I0628 13:31:14.096879  6035 net.cpp:408] detection_loss_1_5x7 -> loss_1_5x7
I0628 13:31:14.096889  6035 layer_factory.hpp:77] Creating layer detection_loss_1_5x7
I0628 13:31:14.097761  6035 net.cpp:150] Setting up detection_loss_1_5x7
I0628 13:31:14.097774  6035 net.cpp:157] Top shape: 1 1 1 2 (2)
I0628 13:31:14.097776  6035 net.cpp:160]     with loss weight 0.9
I0628 13:31:14.097786  6035 net.cpp:165] Memory required for data: 4313257372
I0628 13:31:14.097790  6035 layer_factory.hpp:77] Creating layer detection_accuracy_1_5x7
I0628 13:31:14.097798  6035 net.cpp:100] Creating Layer detection_accuracy_1_5x7
I0628 13:31:14.097803  6035 net.cpp:434] detection_accuracy_1_5x7 <- LFCN_1_5x7_LFCN_1_5x7_0_split_1
I0628 13:31:14.097810  6035 net.cpp:434] detection_accuracy_1_5x7 <- label_1_5x7_data_2_split_1
I0628 13:31:14.097816  6035 net.cpp:408] detection_accuracy_1_5x7 -> accuracy_1_5x7
I0628 13:31:14.097823  6035 net.cpp:408] detection_accuracy_1_5x7 -> boxiou_1_5x7
I0628 13:31:14.097878  6035 net.cpp:150] Setting up detection_accuracy_1_5x7
I0628 13:31:14.097887  6035 net.cpp:157] Top shape: 1 1 1 2 (2)
I0628 13:31:14.097892  6035 net.cpp:157] Top shape: 1 1 1 1 (1)
I0628 13:31:14.097893  6035 net.cpp:165] Memory required for data: 4313257384
I0628 13:31:14.097896  6035 layer_factory.hpp:77] Creating layer pool4
I0628 13:31:14.097903  6035 net.cpp:100] Creating Layer pool4
I0628 13:31:14.097908  6035 net.cpp:434] pool4 <- conv4_3_relu4_3_0_split_1
I0628 13:31:14.097913  6035 net.cpp:408] pool4 -> pool4
I0628 13:31:14.097949  6035 net.cpp:150] Setting up pool4
I0628 13:31:14.097954  6035 net.cpp:157] Top shape: 4 512 36 48 (3538944)
I0628 13:31:14.097957  6035 net.cpp:165] Memory required for data: 4327413160
I0628 13:31:14.097960  6035 layer_factory.hpp:77] Creating layer conv5_1
I0628 13:31:14.097967  6035 net.cpp:100] Creating Layer conv5_1
I0628 13:31:14.097971  6035 net.cpp:434] conv5_1 <- pool4
I0628 13:31:14.097980  6035 net.cpp:408] conv5_1 -> conv5_1
I0628 13:31:14.103730  6035 net.cpp:150] Setting up conv5_1
I0628 13:31:14.103751  6035 net.cpp:157] Top shape: 4 512 36 48 (3538944)
I0628 13:31:14.103754  6035 net.cpp:165] Memory required for data: 4341568936
I0628 13:31:14.103763  6035 layer_factory.hpp:77] Creating layer relu5_1
I0628 13:31:14.103775  6035 net.cpp:100] Creating Layer relu5_1
I0628 13:31:14.103780  6035 net.cpp:434] relu5_1 <- conv5_1
I0628 13:31:14.103787  6035 net.cpp:395] relu5_1 -> conv5_1 (in-place)
I0628 13:31:14.104471  6035 net.cpp:150] Setting up relu5_1
I0628 13:31:14.104483  6035 net.cpp:157] Top shape: 4 512 36 48 (3538944)
I0628 13:31:14.104487  6035 net.cpp:165] Memory required for data: 4355724712
I0628 13:31:14.104490  6035 layer_factory.hpp:77] Creating layer conv5_2
I0628 13:31:14.104499  6035 net.cpp:100] Creating Layer conv5_2
I0628 13:31:14.104504  6035 net.cpp:434] conv5_2 <- conv5_1
I0628 13:31:14.104512  6035 net.cpp:408] conv5_2 -> conv5_2
I0628 13:31:14.110333  6035 net.cpp:150] Setting up conv5_2
I0628 13:31:14.110355  6035 net.cpp:157] Top shape: 4 512 36 48 (3538944)
I0628 13:31:14.110358  6035 net.cpp:165] Memory required for data: 4369880488
I0628 13:31:14.110369  6035 layer_factory.hpp:77] Creating layer relu5_2
I0628 13:31:14.110378  6035 net.cpp:100] Creating Layer relu5_2
I0628 13:31:14.110383  6035 net.cpp:434] relu5_2 <- conv5_2
I0628 13:31:14.110391  6035 net.cpp:395] relu5_2 -> conv5_2 (in-place)
I0628 13:31:14.110652  6035 net.cpp:150] Setting up relu5_2
I0628 13:31:14.110661  6035 net.cpp:157] Top shape: 4 512 36 48 (3538944)
I0628 13:31:14.110663  6035 net.cpp:165] Memory required for data: 4384036264
I0628 13:31:14.110666  6035 layer_factory.hpp:77] Creating layer conv5_3
I0628 13:31:14.110675  6035 net.cpp:100] Creating Layer conv5_3
I0628 13:31:14.110679  6035 net.cpp:434] conv5_3 <- conv5_2
I0628 13:31:14.110685  6035 net.cpp:408] conv5_3 -> conv5_3
I0628 13:31:14.116518  6035 net.cpp:150] Setting up conv5_3
I0628 13:31:14.116541  6035 net.cpp:157] Top shape: 4 512 36 48 (3538944)
I0628 13:31:14.116544  6035 net.cpp:165] Memory required for data: 4398192040
I0628 13:31:14.116552  6035 layer_factory.hpp:77] Creating layer relu5_3
I0628 13:31:14.116562  6035 net.cpp:100] Creating Layer relu5_3
I0628 13:31:14.116567  6035 net.cpp:434] relu5_3 <- conv5_3
I0628 13:31:14.116575  6035 net.cpp:395] relu5_3 -> conv5_3 (in-place)
I0628 13:31:14.116847  6035 net.cpp:150] Setting up relu5_3
I0628 13:31:14.116856  6035 net.cpp:157] Top shape: 4 512 36 48 (3538944)
I0628 13:31:14.116859  6035 net.cpp:165] Memory required for data: 4412347816
I0628 13:31:14.116863  6035 layer_factory.hpp:77] Creating layer conv5_3_relu5_3_0_split
I0628 13:31:14.116870  6035 net.cpp:100] Creating Layer conv5_3_relu5_3_0_split
I0628 13:31:14.116875  6035 net.cpp:434] conv5_3_relu5_3_0_split <- conv5_3
I0628 13:31:14.116881  6035 net.cpp:408] conv5_3_relu5_3_0_split -> conv5_3_relu5_3_0_split_0
I0628 13:31:14.116890  6035 net.cpp:408] conv5_3_relu5_3_0_split -> conv5_3_relu5_3_0_split_1
I0628 13:31:14.116896  6035 net.cpp:408] conv5_3_relu5_3_0_split -> conv5_3_relu5_3_0_split_2
I0628 13:31:14.116950  6035 net.cpp:150] Setting up conv5_3_relu5_3_0_split
I0628 13:31:14.116955  6035 net.cpp:157] Top shape: 4 512 36 48 (3538944)
I0628 13:31:14.116960  6035 net.cpp:157] Top shape: 4 512 36 48 (3538944)
I0628 13:31:14.116963  6035 net.cpp:157] Top shape: 4 512 36 48 (3538944)
I0628 13:31:14.116966  6035 net.cpp:165] Memory required for data: 4454815144
I0628 13:31:14.116969  6035 layer_factory.hpp:77] Creating layer LFCN_2_3x5
I0628 13:31:14.116979  6035 net.cpp:100] Creating Layer LFCN_2_3x5
I0628 13:31:14.116983  6035 net.cpp:434] LFCN_2_3x5 <- conv5_3_relu5_3_0_split_0
I0628 13:31:14.116989  6035 net.cpp:408] LFCN_2_3x5 -> LFCN_2_3x5
I0628 13:31:14.118829  6035 net.cpp:150] Setting up LFCN_2_3x5
I0628 13:31:14.118842  6035 net.cpp:157] Top shape: 4 7 36 48 (48384)
I0628 13:31:14.118845  6035 net.cpp:165] Memory required for data: 4455008680
I0628 13:31:14.118860  6035 layer_factory.hpp:77] Creating layer LFCN_2_3x5_LFCN_2_3x5_0_split
I0628 13:31:14.118870  6035 net.cpp:100] Creating Layer LFCN_2_3x5_LFCN_2_3x5_0_split
I0628 13:31:14.118875  6035 net.cpp:434] LFCN_2_3x5_LFCN_2_3x5_0_split <- LFCN_2_3x5
I0628 13:31:14.118881  6035 net.cpp:408] LFCN_2_3x5_LFCN_2_3x5_0_split -> LFCN_2_3x5_LFCN_2_3x5_0_split_0
I0628 13:31:14.118891  6035 net.cpp:408] LFCN_2_3x5_LFCN_2_3x5_0_split -> LFCN_2_3x5_LFCN_2_3x5_0_split_1
I0628 13:31:14.118932  6035 net.cpp:150] Setting up LFCN_2_3x5_LFCN_2_3x5_0_split
I0628 13:31:14.118937  6035 net.cpp:157] Top shape: 4 7 36 48 (48384)
I0628 13:31:14.118942  6035 net.cpp:157] Top shape: 4 7 36 48 (48384)
I0628 13:31:14.118944  6035 net.cpp:165] Memory required for data: 4455395752
I0628 13:31:14.118947  6035 layer_factory.hpp:77] Creating layer detection_loss_2_3x5
I0628 13:31:14.118954  6035 net.cpp:100] Creating Layer detection_loss_2_3x5
I0628 13:31:14.118958  6035 net.cpp:434] detection_loss_2_3x5 <- LFCN_2_3x5_LFCN_2_3x5_0_split_0
I0628 13:31:14.118963  6035 net.cpp:434] detection_loss_2_3x5 <- label_2_3x5_data_3_split_0
I0628 13:31:14.118970  6035 net.cpp:408] detection_loss_2_3x5 -> loss_2_3x5
I0628 13:31:14.118980  6035 layer_factory.hpp:77] Creating layer detection_loss_2_3x5
I0628 13:31:14.119855  6035 net.cpp:150] Setting up detection_loss_2_3x5
I0628 13:31:14.119868  6035 net.cpp:157] Top shape: 1 1 1 2 (2)
I0628 13:31:14.119870  6035 net.cpp:160]     with loss weight 1
I0628 13:31:14.119879  6035 net.cpp:165] Memory required for data: 4455395760
I0628 13:31:14.119884  6035 layer_factory.hpp:77] Creating layer detection_accuracy_2_3x5
I0628 13:31:14.119891  6035 net.cpp:100] Creating Layer detection_accuracy_2_3x5
I0628 13:31:14.119896  6035 net.cpp:434] detection_accuracy_2_3x5 <- LFCN_2_3x5_LFCN_2_3x5_0_split_1
I0628 13:31:14.119901  6035 net.cpp:434] detection_accuracy_2_3x5 <- label_2_3x5_data_3_split_1
I0628 13:31:14.119907  6035 net.cpp:408] detection_accuracy_2_3x5 -> accuracy_2_3x5
I0628 13:31:14.119915  6035 net.cpp:408] detection_accuracy_2_3x5 -> boxiou_2_3x5
I0628 13:31:14.119982  6035 net.cpp:150] Setting up detection_accuracy_2_3x5
I0628 13:31:14.119988  6035 net.cpp:157] Top shape: 1 1 1 2 (2)
I0628 13:31:14.119993  6035 net.cpp:157] Top shape: 1 1 1 1 (1)
I0628 13:31:14.119995  6035 net.cpp:165] Memory required for data: 4455395772
I0628 13:31:14.119998  6035 layer_factory.hpp:77] Creating layer LFCN_2_5x7
I0628 13:31:14.120010  6035 net.cpp:100] Creating Layer LFCN_2_5x7
I0628 13:31:14.120014  6035 net.cpp:434] LFCN_2_5x7 <- conv5_3_relu5_3_0_split_1
I0628 13:31:14.120023  6035 net.cpp:408] LFCN_2_5x7 -> LFCN_2_5x7
I0628 13:31:14.123275  6035 net.cpp:150] Setting up LFCN_2_5x7
I0628 13:31:14.123293  6035 net.cpp:157] Top shape: 4 7 36 48 (48384)
I0628 13:31:14.123296  6035 net.cpp:165] Memory required for data: 4455589308
I0628 13:31:14.123306  6035 layer_factory.hpp:77] Creating layer LFCN_2_5x7_LFCN_2_5x7_0_split
I0628 13:31:14.123314  6035 net.cpp:100] Creating Layer LFCN_2_5x7_LFCN_2_5x7_0_split
I0628 13:31:14.123319  6035 net.cpp:434] LFCN_2_5x7_LFCN_2_5x7_0_split <- LFCN_2_5x7
I0628 13:31:14.123327  6035 net.cpp:408] LFCN_2_5x7_LFCN_2_5x7_0_split -> LFCN_2_5x7_LFCN_2_5x7_0_split_0
I0628 13:31:14.123337  6035 net.cpp:408] LFCN_2_5x7_LFCN_2_5x7_0_split -> LFCN_2_5x7_LFCN_2_5x7_0_split_1
I0628 13:31:14.123378  6035 net.cpp:150] Setting up LFCN_2_5x7_LFCN_2_5x7_0_split
I0628 13:31:14.123383  6035 net.cpp:157] Top shape: 4 7 36 48 (48384)
I0628 13:31:14.123387  6035 net.cpp:157] Top shape: 4 7 36 48 (48384)
I0628 13:31:14.123390  6035 net.cpp:165] Memory required for data: 4455976380
I0628 13:31:14.123394  6035 layer_factory.hpp:77] Creating layer detection_loss_2_5x7
I0628 13:31:14.123401  6035 net.cpp:100] Creating Layer detection_loss_2_5x7
I0628 13:31:14.123405  6035 net.cpp:434] detection_loss_2_5x7 <- LFCN_2_5x7_LFCN_2_5x7_0_split_0
I0628 13:31:14.123410  6035 net.cpp:434] detection_loss_2_5x7 <- label_2_5x7_data_4_split_0
I0628 13:31:14.123417  6035 net.cpp:408] detection_loss_2_5x7 -> loss_2_5x7
I0628 13:31:14.123426  6035 layer_factory.hpp:77] Creating layer detection_loss_2_5x7
I0628 13:31:14.123872  6035 net.cpp:150] Setting up detection_loss_2_5x7
I0628 13:31:14.123881  6035 net.cpp:157] Top shape: 1 1 1 2 (2)
I0628 13:31:14.123883  6035 net.cpp:160]     with loss weight 1
I0628 13:31:14.123893  6035 net.cpp:165] Memory required for data: 4455976388
I0628 13:31:14.123898  6035 layer_factory.hpp:77] Creating layer detection_accuracy_2_5x7
I0628 13:31:14.123905  6035 net.cpp:100] Creating Layer detection_accuracy_2_5x7
I0628 13:31:14.123910  6035 net.cpp:434] detection_accuracy_2_5x7 <- LFCN_2_5x7_LFCN_2_5x7_0_split_1
I0628 13:31:14.123915  6035 net.cpp:434] detection_accuracy_2_5x7 <- label_2_5x7_data_4_split_1
I0628 13:31:14.123924  6035 net.cpp:408] detection_accuracy_2_5x7 -> accuracy_2_5x7
I0628 13:31:14.123931  6035 net.cpp:408] detection_accuracy_2_5x7 -> boxiou_2_5x7
I0628 13:31:14.123971  6035 net.cpp:150] Setting up detection_accuracy_2_5x7
I0628 13:31:14.123978  6035 net.cpp:157] Top shape: 1 1 1 2 (2)
I0628 13:31:14.123981  6035 net.cpp:157] Top shape: 1 1 1 1 (1)
I0628 13:31:14.123984  6035 net.cpp:165] Memory required for data: 4455976400
I0628 13:31:14.123987  6035 layer_factory.hpp:77] Creating layer pool5
I0628 13:31:14.123992  6035 net.cpp:100] Creating Layer pool5
I0628 13:31:14.123996  6035 net.cpp:434] pool5 <- conv5_3_relu5_3_0_split_2
I0628 13:31:14.124003  6035 net.cpp:408] pool5 -> pool5
I0628 13:31:14.124037  6035 net.cpp:150] Setting up pool5
I0628 13:31:14.124043  6035 net.cpp:157] Top shape: 4 512 18 24 (884736)
I0628 13:31:14.124045  6035 net.cpp:165] Memory required for data: 4459515344
I0628 13:31:14.124048  6035 layer_factory.hpp:77] Creating layer conv6_1
I0628 13:31:14.124058  6035 net.cpp:100] Creating Layer conv6_1
I0628 13:31:14.124063  6035 net.cpp:434] conv6_1 <- pool5
I0628 13:31:14.124069  6035 net.cpp:408] conv6_1 -> conv6_1
I0628 13:31:14.144749  6035 net.cpp:150] Setting up conv6_1
I0628 13:31:14.144768  6035 net.cpp:157] Top shape: 4 512 18 24 (884736)
I0628 13:31:14.144771  6035 net.cpp:165] Memory required for data: 4463054288
I0628 13:31:14.144780  6035 layer_factory.hpp:77] Creating layer relu6_1
I0628 13:31:14.144790  6035 net.cpp:100] Creating Layer relu6_1
I0628 13:31:14.144798  6035 net.cpp:434] relu6_1 <- conv6_1
I0628 13:31:14.144804  6035 net.cpp:395] relu6_1 -> conv6_1 (in-place)
I0628 13:31:14.145073  6035 net.cpp:150] Setting up relu6_1
I0628 13:31:14.145082  6035 net.cpp:157] Top shape: 4 512 18 24 (884736)
I0628 13:31:14.145085  6035 net.cpp:165] Memory required for data: 4466593232
I0628 13:31:14.145089  6035 layer_factory.hpp:77] Creating layer conv6_1_relu6_1_0_split
I0628 13:31:14.145097  6035 net.cpp:100] Creating Layer conv6_1_relu6_1_0_split
I0628 13:31:14.145102  6035 net.cpp:434] conv6_1_relu6_1_0_split <- conv6_1
I0628 13:31:14.145109  6035 net.cpp:408] conv6_1_relu6_1_0_split -> conv6_1_relu6_1_0_split_0
I0628 13:31:14.145118  6035 net.cpp:408] conv6_1_relu6_1_0_split -> conv6_1_relu6_1_0_split_1
I0628 13:31:14.145125  6035 net.cpp:408] conv6_1_relu6_1_0_split -> conv6_1_relu6_1_0_split_2
I0628 13:31:14.145180  6035 net.cpp:150] Setting up conv6_1_relu6_1_0_split
I0628 13:31:14.145186  6035 net.cpp:157] Top shape: 4 512 18 24 (884736)
I0628 13:31:14.145190  6035 net.cpp:157] Top shape: 4 512 18 24 (884736)
I0628 13:31:14.145193  6035 net.cpp:157] Top shape: 4 512 18 24 (884736)
I0628 13:31:14.145196  6035 net.cpp:165] Memory required for data: 4477210064
I0628 13:31:14.145200  6035 layer_factory.hpp:77] Creating layer LFCN_3_3x5
I0628 13:31:14.145210  6035 net.cpp:100] Creating Layer LFCN_3_3x5
I0628 13:31:14.145215  6035 net.cpp:434] LFCN_3_3x5 <- conv6_1_relu6_1_0_split_0
I0628 13:31:14.145220  6035 net.cpp:408] LFCN_3_3x5 -> LFCN_3_3x5
I0628 13:31:14.147953  6035 net.cpp:150] Setting up LFCN_3_3x5
I0628 13:31:14.147974  6035 net.cpp:157] Top shape: 4 7 18 24 (12096)
I0628 13:31:14.147976  6035 net.cpp:165] Memory required for data: 4477258448
I0628 13:31:14.147984  6035 layer_factory.hpp:77] Creating layer LFCN_3_3x5_LFCN_3_3x5_0_split
I0628 13:31:14.148010  6035 net.cpp:100] Creating Layer LFCN_3_3x5_LFCN_3_3x5_0_split
I0628 13:31:14.148015  6035 net.cpp:434] LFCN_3_3x5_LFCN_3_3x5_0_split <- LFCN_3_3x5
I0628 13:31:14.148023  6035 net.cpp:408] LFCN_3_3x5_LFCN_3_3x5_0_split -> LFCN_3_3x5_LFCN_3_3x5_0_split_0
I0628 13:31:14.148033  6035 net.cpp:408] LFCN_3_3x5_LFCN_3_3x5_0_split -> LFCN_3_3x5_LFCN_3_3x5_0_split_1
I0628 13:31:14.148074  6035 net.cpp:150] Setting up LFCN_3_3x5_LFCN_3_3x5_0_split
I0628 13:31:14.148080  6035 net.cpp:157] Top shape: 4 7 18 24 (12096)
I0628 13:31:14.148084  6035 net.cpp:157] Top shape: 4 7 18 24 (12096)
I0628 13:31:14.148087  6035 net.cpp:165] Memory required for data: 4477355216
I0628 13:31:14.148090  6035 layer_factory.hpp:77] Creating layer detection_loss_3_3x5
I0628 13:31:14.148097  6035 net.cpp:100] Creating Layer detection_loss_3_3x5
I0628 13:31:14.148102  6035 net.cpp:434] detection_loss_3_3x5 <- LFCN_3_3x5_LFCN_3_3x5_0_split_0
I0628 13:31:14.148106  6035 net.cpp:434] detection_loss_3_3x5 <- label_3_3x5_data_5_split_0
I0628 13:31:14.148113  6035 net.cpp:408] detection_loss_3_3x5 -> loss_3_3x5
I0628 13:31:14.148121  6035 layer_factory.hpp:77] Creating layer detection_loss_3_3x5
I0628 13:31:14.149029  6035 net.cpp:150] Setting up detection_loss_3_3x5
I0628 13:31:14.149040  6035 net.cpp:157] Top shape: 1 1 1 2 (2)
I0628 13:31:14.149044  6035 net.cpp:160]     with loss weight 1
I0628 13:31:14.149052  6035 net.cpp:165] Memory required for data: 4477355224
I0628 13:31:14.149056  6035 layer_factory.hpp:77] Creating layer detection_accuracy_3_3x5
I0628 13:31:14.149065  6035 net.cpp:100] Creating Layer detection_accuracy_3_3x5
I0628 13:31:14.149070  6035 net.cpp:434] detection_accuracy_3_3x5 <- LFCN_3_3x5_LFCN_3_3x5_0_split_1
I0628 13:31:14.149075  6035 net.cpp:434] detection_accuracy_3_3x5 <- label_3_3x5_data_5_split_1
I0628 13:31:14.149083  6035 net.cpp:408] detection_accuracy_3_3x5 -> accuracy_3_3x5
I0628 13:31:14.149091  6035 net.cpp:408] detection_accuracy_3_3x5 -> boxiou_3_3x5
I0628 13:31:14.149147  6035 net.cpp:150] Setting up detection_accuracy_3_3x5
I0628 13:31:14.149154  6035 net.cpp:157] Top shape: 1 1 1 2 (2)
I0628 13:31:14.149158  6035 net.cpp:157] Top shape: 1 1 1 1 (1)
I0628 13:31:14.149160  6035 net.cpp:165] Memory required for data: 4477355236
I0628 13:31:14.149163  6035 layer_factory.hpp:77] Creating layer LFCN_3_5x7
I0628 13:31:14.149174  6035 net.cpp:100] Creating Layer LFCN_3_5x7
I0628 13:31:14.149178  6035 net.cpp:434] LFCN_3_5x7 <- conv6_1_relu6_1_0_split_1
I0628 13:31:14.149186  6035 net.cpp:408] LFCN_3_5x7 -> LFCN_3_5x7
I0628 13:31:14.151545  6035 net.cpp:150] Setting up LFCN_3_5x7
I0628 13:31:14.151559  6035 net.cpp:157] Top shape: 4 7 18 24 (12096)
I0628 13:31:14.151562  6035 net.cpp:165] Memory required for data: 4477403620
I0628 13:31:14.151571  6035 layer_factory.hpp:77] Creating layer LFCN_3_5x7_LFCN_3_5x7_0_split
I0628 13:31:14.151579  6035 net.cpp:100] Creating Layer LFCN_3_5x7_LFCN_3_5x7_0_split
I0628 13:31:14.151584  6035 net.cpp:434] LFCN_3_5x7_LFCN_3_5x7_0_split <- LFCN_3_5x7
I0628 13:31:14.151592  6035 net.cpp:408] LFCN_3_5x7_LFCN_3_5x7_0_split -> LFCN_3_5x7_LFCN_3_5x7_0_split_0
I0628 13:31:14.151599  6035 net.cpp:408] LFCN_3_5x7_LFCN_3_5x7_0_split -> LFCN_3_5x7_LFCN_3_5x7_0_split_1
I0628 13:31:14.151639  6035 net.cpp:150] Setting up LFCN_3_5x7_LFCN_3_5x7_0_split
I0628 13:31:14.151644  6035 net.cpp:157] Top shape: 4 7 18 24 (12096)
I0628 13:31:14.151648  6035 net.cpp:157] Top shape: 4 7 18 24 (12096)
I0628 13:31:14.151651  6035 net.cpp:165] Memory required for data: 4477500388
I0628 13:31:14.151654  6035 layer_factory.hpp:77] Creating layer detection_loss_3_5x7
I0628 13:31:14.151661  6035 net.cpp:100] Creating Layer detection_loss_3_5x7
I0628 13:31:14.151665  6035 net.cpp:434] detection_loss_3_5x7 <- LFCN_3_5x7_LFCN_3_5x7_0_split_0
I0628 13:31:14.151670  6035 net.cpp:434] detection_loss_3_5x7 <- label_3_5x7_data_6_split_0
I0628 13:31:14.151679  6035 net.cpp:408] detection_loss_3_5x7 -> loss_3_5x7
I0628 13:31:14.151687  6035 layer_factory.hpp:77] Creating layer detection_loss_3_5x7
I0628 13:31:14.152127  6035 net.cpp:150] Setting up detection_loss_3_5x7
I0628 13:31:14.152135  6035 net.cpp:157] Top shape: 1 1 1 2 (2)
I0628 13:31:14.152137  6035 net.cpp:160]     with loss weight 1
I0628 13:31:14.152148  6035 net.cpp:165] Memory required for data: 4477500396
I0628 13:31:14.152150  6035 layer_factory.hpp:77] Creating layer detection_accuracy_3_5x7
I0628 13:31:14.152158  6035 net.cpp:100] Creating Layer detection_accuracy_3_5x7
I0628 13:31:14.152163  6035 net.cpp:434] detection_accuracy_3_5x7 <- LFCN_3_5x7_LFCN_3_5x7_0_split_1
I0628 13:31:14.152168  6035 net.cpp:434] detection_accuracy_3_5x7 <- label_3_5x7_data_6_split_1
I0628 13:31:14.152175  6035 net.cpp:408] detection_accuracy_3_5x7 -> accuracy_3_5x7
I0628 13:31:14.152184  6035 net.cpp:408] detection_accuracy_3_5x7 -> boxiou_3_5x7
I0628 13:31:14.152237  6035 net.cpp:150] Setting up detection_accuracy_3_5x7
I0628 13:31:14.152248  6035 net.cpp:157] Top shape: 1 1 1 2 (2)
I0628 13:31:14.152252  6035 net.cpp:157] Top shape: 1 1 1 1 (1)
I0628 13:31:14.152256  6035 net.cpp:165] Memory required for data: 4477500408
I0628 13:31:14.152258  6035 layer_factory.hpp:77] Creating layer pool6
I0628 13:31:14.152264  6035 net.cpp:100] Creating Layer pool6
I0628 13:31:14.152269  6035 net.cpp:434] pool6 <- conv6_1_relu6_1_0_split_2
I0628 13:31:14.152274  6035 net.cpp:408] pool6 -> pool6
I0628 13:31:14.152310  6035 net.cpp:150] Setting up pool6
I0628 13:31:14.152317  6035 net.cpp:157] Top shape: 4 512 9 12 (221184)
I0628 13:31:14.152319  6035 net.cpp:165] Memory required for data: 4478385144
I0628 13:31:14.152321  6035 layer_factory.hpp:77] Creating layer LFCN_4_3x5
I0628 13:31:14.152330  6035 net.cpp:100] Creating Layer LFCN_4_3x5
I0628 13:31:14.152334  6035 net.cpp:434] LFCN_4_3x5 <- pool6
I0628 13:31:14.152341  6035 net.cpp:408] LFCN_4_3x5 -> LFCN_4_3x5
I0628 13:31:14.154640  6035 net.cpp:150] Setting up LFCN_4_3x5
I0628 13:31:14.154656  6035 net.cpp:157] Top shape: 4 7 9 12 (3024)
I0628 13:31:14.154659  6035 net.cpp:165] Memory required for data: 4478397240
I0628 13:31:14.154667  6035 layer_factory.hpp:77] Creating layer LFCN_4_3x5_LFCN_4_3x5_0_split
I0628 13:31:14.154675  6035 net.cpp:100] Creating Layer LFCN_4_3x5_LFCN_4_3x5_0_split
I0628 13:31:14.154680  6035 net.cpp:434] LFCN_4_3x5_LFCN_4_3x5_0_split <- LFCN_4_3x5
I0628 13:31:14.154687  6035 net.cpp:408] LFCN_4_3x5_LFCN_4_3x5_0_split -> LFCN_4_3x5_LFCN_4_3x5_0_split_0
I0628 13:31:14.154697  6035 net.cpp:408] LFCN_4_3x5_LFCN_4_3x5_0_split -> LFCN_4_3x5_LFCN_4_3x5_0_split_1
I0628 13:31:14.154741  6035 net.cpp:150] Setting up LFCN_4_3x5_LFCN_4_3x5_0_split
I0628 13:31:14.154745  6035 net.cpp:157] Top shape: 4 7 9 12 (3024)
I0628 13:31:14.154749  6035 net.cpp:157] Top shape: 4 7 9 12 (3024)
I0628 13:31:14.154752  6035 net.cpp:165] Memory required for data: 4478421432
I0628 13:31:14.154754  6035 layer_factory.hpp:77] Creating layer detection_loss_4_3x5
I0628 13:31:14.154763  6035 net.cpp:100] Creating Layer detection_loss_4_3x5
I0628 13:31:14.154768  6035 net.cpp:434] detection_loss_4_3x5 <- LFCN_4_3x5_LFCN_4_3x5_0_split_0
I0628 13:31:14.154772  6035 net.cpp:434] detection_loss_4_3x5 <- label_4_3x5_data_7_split_0
I0628 13:31:14.154778  6035 net.cpp:408] detection_loss_4_3x5 -> loss_4_3x5
I0628 13:31:14.154786  6035 layer_factory.hpp:77] Creating layer detection_loss_4_3x5
I0628 13:31:14.155192  6035 net.cpp:150] Setting up detection_loss_4_3x5
I0628 13:31:14.155200  6035 net.cpp:157] Top shape: 1 1 1 2 (2)
I0628 13:31:14.155202  6035 net.cpp:160]     with loss weight 1
I0628 13:31:14.155210  6035 net.cpp:165] Memory required for data: 4478421440
I0628 13:31:14.155213  6035 layer_factory.hpp:77] Creating layer detection_accuracy_4_3x5
I0628 13:31:14.155220  6035 net.cpp:100] Creating Layer detection_accuracy_4_3x5
I0628 13:31:14.155225  6035 net.cpp:434] detection_accuracy_4_3x5 <- LFCN_4_3x5_LFCN_4_3x5_0_split_1
I0628 13:31:14.155230  6035 net.cpp:434] detection_accuracy_4_3x5 <- label_4_3x5_data_7_split_1
I0628 13:31:14.155236  6035 net.cpp:408] detection_accuracy_4_3x5 -> accuracy_4_3x5
I0628 13:31:14.155244  6035 net.cpp:408] detection_accuracy_4_3x5 -> boxiou_4_3x5
I0628 13:31:14.155282  6035 net.cpp:150] Setting up detection_accuracy_4_3x5
I0628 13:31:14.155287  6035 net.cpp:157] Top shape: 1 1 1 2 (2)
I0628 13:31:14.155290  6035 net.cpp:157] Top shape: 1 1 1 1 (1)
I0628 13:31:14.155293  6035 net.cpp:165] Memory required for data: 4478421452
I0628 13:31:14.155297  6035 net.cpp:228] detection_accuracy_4_3x5 does not need backward computation.
I0628 13:31:14.155300  6035 net.cpp:226] detection_loss_4_3x5 needs backward computation.
I0628 13:31:14.155303  6035 net.cpp:226] LFCN_4_3x5_LFCN_4_3x5_0_split needs backward computation.
I0628 13:31:14.155308  6035 net.cpp:226] LFCN_4_3x5 needs backward computation.
…
I0628 13:31:14.200498  6035 image_gt_data_layer.cpp:241] output label size 2 : 2,6,36,48
I0628 13:31:14.200569  6035 image_gt_data_layer.cpp:241] output label size 3 : 2,6,36,48
I0628 13:31:14.200623  6035 image_gt_data_layer.cpp:241] output label size 4 : 2,6,18,24
I0628 13:31:14.200690  6035 image_gt_data_layer.cpp:241] output label size 5 : 2,6,18,24
I0628 13:31:14.200743  6035 image_gt_data_layer.cpp:241] output label size 6 : 2,6,9,12
I0628 13:31:14.200747  6035 image_gt_data_layer.cpp:265]  --> has_mean_values_ = 1
I0628 13:31:14.220269  6035 net.cpp:150] Setting up data
I0628 13:31:14.220291  6035 net.cpp:157] Top shape: 2 4 576 768 (3538944)
I0628 13:31:14.220296  6035 net.cpp:157] Top shape: 2 6 72 96 (82944)
I0628 13:31:14.220299  6035 net.cpp:157] Top shape: 2 6 72 96 (82944)
I0628 13:31:14.220304  6035 net.cpp:157] Top shape: 2 6 36 48 (20736)
I0628 13:31:14.220306  6035 net.cpp:157] Top shape: 2 6 36 48 (20736)
I0628 13:31:14.220311  6035 net.cpp:157] Top shape: 2 6 18 24 (5184)
I0628 13:31:14.220315  6035 net.cpp:157] Top shape: 2 6 18 24 (5184)
I0628 13:31:14.220319  6035 net.cpp:157] Top shape: 2 6 9 12 (1296)
I0628 13:31:14.220321  6035 net.cpp:165] Memory required for data: 15031872
I0628 13:31:14.220329  6035 layer_factory.hpp:77] Creating layer label_1_3x5_data_1_split
I0628 13:31:14.220340  6035 net.cpp:100] Creating Layer label_1_3x5_data_1_split
I0628 13:31:14.220345  6035 net.cpp:434] label_1_3x5_data_1_split <- label_1_3x5
I0628 13:31:14.220355  6035 net.cpp:408] label_1_3x5_data_1_split -> label_1_3x5_data_1_split_0
I0628 13:31:14.220365  6035 net.cpp:408] label_1_3x5_data_1_split -> label_1_3x5_data_1_split_1
I0628 13:31:14.220434  6035 net.cpp:150] Setting up label_1_3x5_data_1_split
I0628 13:31:14.220440  6035 net.cpp:157] Top shape: 2 6 72 96 (82944)
I0628 13:31:14.220444  6035 net.cpp:157] Top shape: 2 6 72 96 (82944)
I0628 13:31:14.220448  6035 net.cpp:165] Memory required for data: 15695424
I0628 13:31:14.220450  6035 layer_factory.hpp:77] Creating layer label_1_5x7_data_2_split
I0628 13:31:14.220458  6035 net.cpp:100] Creating Layer label_1_5x7_data_2_split
I0628 13:31:14.220461  6035 net.cpp:434] label_1_5x7_data_2_split <- label_1_5x7
I0628 13:31:14.220466  6035 net.cpp:408] label_1_5x7_data_2_split -> label_1_5x7_data_2_split_0
I0628 13:31:14.220474  6035 net.cpp:408] label_1_5x7_data_2_split -> label_1_5x7_data_2_split_1
I0628 13:31:14.220521  6035 net.cpp:150] Setting up label_1_5x7_data_2_split
I0628 13:31:14.220527  6035 net.cpp:157] Top shape: 2 6 72 96 (82944)
I0628 13:31:14.220532  6035 net.cpp:157] Top shape: 2 6 72 96 (82944)
I0628 13:31:14.220535  6035 net.cpp:165] Memory required for data: 16358976
I0628 13:31:14.220537  6035 layer_factory.hpp:77] Creating layer label_2_3x5_data_3_split
I0628 13:31:14.220543  6035 net.cpp:100] Creating Layer label_2_3x5_data_3_split
I0628 13:31:14.220547  6035 net.cpp:434] label_2_3x5_data_3_split <- label_2_3x5
I0628 13:31:14.220552  6035 net.cpp:408] label_2_3x5_data_3_split -> label_2_3x5_data_3_split_0
I0628 13:31:14.220558  6035 net.cpp:408] label_2_3x5_data_3_split -> label_2_3x5_data_3_split_1
I0628 13:31:14.220597  6035 net.cpp:150] Setting up label_2_3x5_data_3_split
I0628 13:31:14.220602  6035 net.cpp:157] Top shape: 2 6 36 48 (20736)
I0628 13:31:14.220605  6035 net.cpp:157] Top shape: 2 6 36 48 (20736)
I0628 13:31:14.220608  6035 net.cpp:165] Memory required for data: 16524864
I0628 13:31:14.220612  6035 layer_factory.hpp:77] Creating layer label_2_5x7_data_4_split
I0628 13:31:14.220618  6035 net.cpp:100] Creating Layer label_2_5x7_data_4_split
I0628 13:31:14.220621  6035 net.cpp:434] label_2_5x7_data_4_split <- label_2_5x7
I0628 13:31:14.220626  6035 net.cpp:408] label_2_5x7_data_4_split -> label_2_5x7_data_4_split_0
I0628 13:31:14.220633  6035 net.cpp:408] label_2_5x7_data_4_split -> label_2_5x7_data_4_split_1
I0628 13:31:14.220671  6035 net.cpp:150] Setting up label_2_5x7_data_4_split
I0628 13:31:14.220677  6035 net.cpp:157] Top shape: 2 6 36 48 (20736)
I0628 13:31:14.220681  6035 net.cpp:157] Top shape: 2 6 36 48 (20736)
I0628 13:31:14.220685  6035 net.cpp:165] Memory required for data: 16690752
I0628 13:31:14.220687  6035 layer_factory.hpp:77] Creating layer label_3_3x5_data_5_split
I0628 13:31:14.220691  6035 net.cpp:100] Creating Layer label_3_3x5_data_5_split
I0628 13:31:14.220695  6035 net.cpp:434] label_3_3x5_data_5_split <- label_3_3x5
I0628 13:31:14.220700  6035 net.cpp:408] label_3_3x5_data_5_split -> label_3_3x5_data_5_split_0
I0628 13:31:14.220708  6035 net.cpp:408] label_3_3x5_data_5_split -> label_3_3x5_data_5_split_1
I0628 13:31:14.220744  6035 net.cpp:150] Setting up label_3_3x5_data_5_split
I0628 13:31:14.220752  6035 net.cpp:157] Top shape: 2 6 18 24 (5184)
I0628 13:31:14.220755  6035 net.cpp:157] Top shape: 2 6 18 24 (5184)
I0628 13:31:14.220758  6035 net.cpp:165] Memory required for data: 16732224
I0628 13:31:14.220762  6035 layer_factory.hpp:77] Creating layer label_3_5x7_data_6_split
I0628 13:31:14.220765  6035 net.cpp:100] Creating Layer label_3_5x7_data_6_split
I0628 13:31:14.220768  6035 net.cpp:434] label_3_5x7_data_6_split <- label_3_5x7
I0628 13:31:14.220773  6035 net.cpp:408] label_3_5x7_data_6_split -> label_3_5x7_data_6_split_0
I0628 13:31:14.220779  6035 net.cpp:408] label_3_5x7_data_6_split -> label_3_5x7_data_6_split_1
I0628 13:31:14.220818  6035 net.cpp:150] Setting up label_3_5x7_data_6_split
I0628 13:31:14.220829  6035 net.cpp:157] Top shape: 2 6 18 24 (5184)
I0628 13:31:14.220835  6035 net.cpp:157] Top shape: 2 6 18 24 (5184)
I0628 13:31:14.220839  6035 net.cpp:165] Memory required for data: 16773696
I0628 13:31:14.220841  6035 layer_factory.hpp:77] Creating layer label_4_3x5_data_7_split
I0628 13:31:14.220846  6035 net.cpp:100] Creating Layer label_4_3x5_data_7_split
I0628 13:31:14.220849  6035 net.cpp:434] label_4_3x5_data_7_split <- label_4_3x5
I0628 13:31:14.220858  6035 net.cpp:408] label_4_3x5_data_7_split -> label_4_3x5_data_7_split_0
I0628 13:31:14.220865  6035 net.cpp:408] label_4_3x5_data_7_split -> label_4_3x5_data_7_split_1
I0628 13:31:14.220908  6035 net.cpp:150] Setting up label_4_3x5_data_7_split
I0628 13:31:14.220916  6035 net.cpp:157] Top shape: 2 6 9 12 (1296)
I0628 13:31:14.220919  6035 net.cpp:157] Top shape: 2 6 9 12 (1296)
I0628 13:31:14.220922  6035 net.cpp:165] Memory required for data: 16784064
I0628 13:31:14.220926  6035 layer_factory.hpp:77] Creating layer conv1_1
I0628 13:31:14.220934  6035 net.cpp:100] Creating Layer conv1_1
I0628 13:31:14.220938  6035 net.cpp:434] conv1_1 <- data
I0628 13:31:14.220943  6035 net.cpp:408] conv1_1 -> conv1_1
I0628 13:31:14.226572  6035 net.cpp:150] Setting up conv1_1
I0628 13:31:14.226594  6035 net.cpp:157] Top shape: 2 64 576 768 (56623104)
I0628 13:31:14.226598  6035 net.cpp:165] Memory required for data: 243276480
I0628 13:31:14.226614  6035 layer_factory.hpp:77] Creating layer relu1_1
I0628 13:31:14.226624  6035 net.cpp:100] Creating Layer relu1_1
I0628 13:31:14.226629  6035 net.cpp:434] relu1_1 <- conv1_1
I0628 13:31:14.226637  6035 net.cpp:395] relu1_1 -> conv1_1 (in-place)
I0628 13:31:14.227536  6035 net.cpp:150] Setting up relu1_1
I0628 13:31:14.227548  6035 net.cpp:157] Top shape: 2 64 576 768 (56623104)
I0628 13:31:14.227551  6035 net.cpp:165] Memory required for data: 469768896
I0628 13:31:14.227555  6035 layer_factory.hpp:77] Creating layer conv1_2
I0628 13:31:14.227566  6035 net.cpp:100] Creating Layer conv1_2
I0628 13:31:14.227571  6035 net.cpp:434] conv1_2 <- conv1_1
I0628 13:31:14.227576  6035 net.cpp:408] conv1_2 -> conv1_2
I0628 13:31:14.231321  6035 net.cpp:150] Setting up conv1_2
I0628 13:31:14.231345  6035 net.cpp:157] Top shape: 2 64 576 768 (56623104)
I0628 13:31:14.231348  6035 net.cpp:165] Memory required for data: 696261312
I0628 13:31:14.231359  6035 layer_factory.hpp:77] Creating layer relu1_2
I0628 13:31:14.231364  6035 net.cpp:100] Creating Layer relu1_2
I0628 13:31:14.231369  6035 net.cpp:434] relu1_2 <- conv1_2
I0628 13:31:14.231374  6035 net.cpp:395] relu1_2 -> conv1_2 (in-place)
I0628 13:31:14.232288  6035 net.cpp:150] Setting up relu1_2
I0628 13:31:14.232300  6035 net.cpp:157] Top shape: 2 64 576 768 (56623104)
I0628 13:31:14.232303  6035 net.cpp:165] Memory required for data: 922753728
I0628 13:31:14.232306  6035 layer_factory.hpp:77] Creating layer pool1
I0628 13:31:14.232312  6035 net.cpp:100] Creating Layer pool1
I0628 13:31:14.232314  6035 net.cpp:434] pool1 <- conv1_2
I0628 13:31:14.232319  6035 net.cpp:408] pool1 -> pool1
I0628 13:31:14.232374  6035 net.cpp:150] Setting up pool1
I0628 13:31:14.232379  6035 net.cpp:157] Top shape: 2 64 288 384 (14155776)
I0628 13:31:14.232381  6035 net.cpp:165] Memory required for data: 979376832
I0628 13:31:14.232383  6035 layer_factory.hpp:77] Creating layer conv2_1
I0628 13:31:14.232393  6035 net.cpp:100] Creating Layer conv2_1
I0628 13:31:14.232395  6035 net.cpp:434] conv2_1 <- pool1
I0628 13:31:14.232399  6035 net.cpp:408] conv2_1 -> conv2_1
I0628 13:31:14.234369  6035 net.cpp:150] Setting up conv2_1
I0628 13:31:14.234385  6035 net.cpp:157] Top shape: 2 128 288 384 (28311552)
I0628 13:31:14.234387  6035 net.cpp:165] Memory required for data: 1092623040
I0628 13:31:14.234396  6035 layer_factory.hpp:77] Creating layer relu2_1
I0628 13:31:14.234402  6035 net.cpp:100] Creating Layer relu2_1
I0628 13:31:14.234405  6035 net.cpp:434] relu2_1 <- conv2_1
I0628 13:31:14.234411  6035 net.cpp:395] relu2_1 -> conv2_1 (in-place)
I0628 13:31:14.234719  6035 net.cpp:150] Setting up relu2_1
I0628 13:31:14.234726  6035 net.cpp:157] Top shape: 2 128 288 384 (28311552)
I0628 13:31:14.234728  6035 net.cpp:165] Memory required for data: 1205869248
I0628 13:31:14.234730  6035 layer_factory.hpp:77] Creating layer conv2_2
I0628 13:31:14.234737  6035 net.cpp:100] Creating Layer conv2_2
I0628 13:31:14.234740  6035 net.cpp:434] conv2_2 <- conv2_1
I0628 13:31:14.234743  6035 net.cpp:408] conv2_2 -> conv2_2
I0628 13:31:14.238788  6035 net.cpp:150] Setting up conv2_2
I0628 13:31:14.238811  6035 net.cpp:157] Top shape: 2 128 288 384 (28311552)
I0628 13:31:14.238816  6035 net.cpp:165] Memory required for data: 1319115456
I0628 13:31:14.238826  6035 layer_factory.hpp:77] Creating layer relu2_2
I0628 13:31:14.238842  6035 net.cpp:100] Creating Layer relu2_2
I0628 13:31:14.238847  6035 net.cpp:434] relu2_2 <- conv2_2
I0628 13:31:14.238854  6035 net.cpp:395] relu2_2 -> conv2_2 (in-place)
I0628 13:31:14.239298  6035 net.cpp:150] Setting up relu2_2
I0628 13:31:14.239308  6035 net.cpp:157] Top shape: 2 128 288 384 (28311552)
I0628 13:31:14.239311  6035 net.cpp:165] Memory required for data: 1432361664
I0628 13:31:14.239315  6035 layer_factory.hpp:77] Creating layer pool2
I0628 13:31:14.239321  6035 net.cpp:100] Creating Layer pool2
I0628 13:31:14.239326  6035 net.cpp:434] pool2 <- conv2_2
I0628 13:31:14.239331  6035 net.cpp:408] pool2 -> pool2
I0628 13:31:14.239395  6035 net.cpp:150] Setting up pool2
I0628 13:31:14.239401  6035 net.cpp:157] Top shape: 2 128 144 192 (7077888)
I0628 13:31:14.239404  6035 net.cpp:165] Memory required for data: 1460673216
I0628 13:31:14.239408  6035 layer_factory.hpp:77] Creating layer conv3_1
I0628 13:31:14.239415  6035 net.cpp:100] Creating Layer conv3_1
I0628 13:31:14.239418  6035 net.cpp:434] conv3_1 <- pool2
I0628 13:31:14.239424  6035 net.cpp:408] conv3_1 -> conv3_1
I0628 13:31:14.242944  6035 net.cpp:150] Setting up conv3_1
I0628 13:31:14.242964  6035 net.cpp:157] Top shape: 2 256 144 192 (14155776)
I0628 13:31:14.242966  6035 net.cpp:165] Memory required for data: 1517296320
I0628 13:31:14.242981  6035 layer_factory.hpp:77] Creating layer relu3_1
I0628 13:31:14.242990  6035 net.cpp:100] Creating Layer relu3_1
I0628 13:31:14.242993  6035 net.cpp:434] relu3_1 <- conv3_1
I0628 13:31:14.243000  6035 net.cpp:395] relu3_1 -> conv3_1 (in-place)
I0628 13:31:14.243965  6035 net.cpp:150] Setting up relu3_1
I0628 13:31:14.243978  6035 net.cpp:157] Top shape: 2 256 144 192 (14155776)
I0628 13:31:14.243981  6035 net.cpp:165] Memory required for data: 1573919424
I0628 13:31:14.243985  6035 layer_factory.hpp:77] Creating layer conv3_2
I0628 13:31:14.243995  6035 net.cpp:100] Creating Layer conv3_2
I0628 13:31:14.243999  6035 net.cpp:434] conv3_2 <- conv3_1
I0628 13:31:14.244006  6035 net.cpp:408] conv3_2 -> conv3_2
I0628 13:31:14.247714  6035 net.cpp:150] Setting up conv3_2
I0628 13:31:14.247735  6035 net.cpp:157] Top shape: 2 256 144 192 (14155776)
I0628 13:31:14.247738  6035 net.cpp:165] Memory required for data: 1630542528
I0628 13:31:14.247748  6035 layer_factory.hpp:77] Creating layer relu3_2
I0628 13:31:14.247757  6035 net.cpp:100] Creating Layer relu3_2
I0628 13:31:14.247762  6035 net.cpp:434] relu3_2 <- conv3_2
I0628 13:31:14.247771  6035 net.cpp:395] relu3_2 -> conv3_2 (in-place)
I0628 13:31:14.248100  6035 net.cpp:150] Setting up relu3_2
I0628 13:31:14.248112  6035 net.cpp:157] Top shape: 2 256 144 192 (14155776)
I0628 13:31:14.248116  6035 net.cpp:165] Memory required for data: 1687165632
I0628 13:31:14.248119  6035 layer_factory.hpp:77] Creating layer conv3_3
I0628 13:31:14.248129  6035 net.cpp:100] Creating Layer conv3_3
I0628 13:31:14.248133  6035 net.cpp:434] conv3_3 <- conv3_2
I0628 13:31:14.248140  6035 net.cpp:408] conv3_3 -> conv3_3
I0628 13:31:14.255421  6035 net.cpp:150] Setting up conv3_3
I0628 13:31:14.255446  6035 net.cpp:157] Top shape: 2 256 144 192 (14155776)
I0628 13:31:14.255450  6035 net.cpp:165] Memory required for data: 1743788736
I0628 13:31:14.255463  6035 layer_factory.hpp:77] Creating layer relu3_3
I0628 13:31:14.255475  6035 net.cpp:100] Creating Layer relu3_3
I0628 13:31:14.255479  6035 net.cpp:434] relu3_3 <- conv3_3
I0628 13:31:14.255488  6035 net.cpp:395] relu3_3 -> conv3_3 (in-place)
I0628 13:31:14.255954  6035 net.cpp:150] Setting up relu3_3
I0628 13:31:14.255967  6035 net.cpp:157] Top shape: 2 256 144 192 (14155776)
I0628 13:31:14.255970  6035 net.cpp:165] Memory required for data: 1800411840
I0628 13:31:14.255973  6035 layer_factory.hpp:77] Creating layer pool3
I0628 13:31:14.255981  6035 net.cpp:100] Creating Layer pool3
I0628 13:31:14.255985  6035 net.cpp:434] pool3 <- conv3_3
I0628 13:31:14.255991  6035 net.cpp:408] pool3 -> pool3
I0628 13:31:14.256073  6035 net.cpp:150] Setting up pool3
I0628 13:31:14.256079  6035 net.cpp:157] Top shape: 2 256 72 96 (3538944)
I0628 13:31:14.256083  6035 net.cpp:165] Memory required for data: 1814567616
I0628 13:31:14.256085  6035 layer_factory.hpp:77] Creating layer conv4_1
I0628 13:31:14.256094  6035 net.cpp:100] Creating Layer conv4_1
I0628 13:31:14.256098  6035 net.cpp:434] conv4_1 <- pool3
I0628 13:31:14.256103  6035 net.cpp:408] conv4_1 -> conv4_1
I0628 13:31:14.262331  6035 net.cpp:150] Setting up conv4_1
I0628 13:31:14.262354  6035 net.cpp:157] Top shape: 2 512 72 96 (7077888)
I0628 13:31:14.262358  6035 net.cpp:165] Memory required for data: 1842879168
I0628 13:31:14.262367  6035 layer_factory.hpp:77] Creating layer relu4_1
I0628 13:31:14.262375  6035 net.cpp:100] Creating Layer relu4_1
I0628 13:31:14.262380  6035 net.cpp:434] relu4_1 <- conv4_1
I0628 13:31:14.262388  6035 net.cpp:395] relu4_1 -> conv4_1 (in-place)
I0628 13:31:14.263191  6035 net.cpp:150] Setting up relu4_1
I0628 13:31:14.263202  6035 net.cpp:157] Top shape: 2 512 72 96 (7077888)
I0628 13:31:14.263206  6035 net.cpp:165] Memory required for data: 1871190720
I0628 13:31:14.263207  6035 layer_factory.hpp:77] Creating layer conv4_2
I0628 13:31:14.263214  6035 net.cpp:100] Creating Layer conv4_2
I0628 13:31:14.263217  6035 net.cpp:434] conv4_2 <- conv4_1
I0628 13:31:14.263221  6035 net.cpp:408] conv4_2 -> conv4_2
I0628 13:31:14.268883  6035 net.cpp:150] Setting up conv4_2
I0628 13:31:14.268905  6035 net.cpp:157] Top shape: 2 512 72 96 (7077888)
I0628 13:31:14.268908  6035 net.cpp:165] Memory required for data: 1899502272
I0628 13:31:14.268918  6035 layer_factory.hpp:77] Creating layer relu4_2
I0628 13:31:14.268927  6035 net.cpp:100] Creating Layer relu4_2
I0628 13:31:14.268931  6035 net.cpp:434] relu4_2 <- conv4_2
I0628 13:31:14.268935  6035 net.cpp:395] relu4_2 -> conv4_2 (in-place)
I0628 13:31:14.269285  6035 net.cpp:150] Setting up relu4_2
I0628 13:31:14.269295  6035 net.cpp:157] Top shape: 2 512 72 96 (7077888)
I0628 13:31:14.269297  6035 net.cpp:165] Memory required for data: 1927813824
I0628 13:31:14.269300  6035 layer_factory.hpp:77] Creating layer conv4_3
I0628 13:31:14.269309  6035 net.cpp:100] Creating Layer conv4_3
I0628 13:31:14.269313  6035 net.cpp:434] conv4_3 <- conv4_2
I0628 13:31:14.269320  6035 net.cpp:408] conv4_3 -> conv4_3
I0628 13:31:14.277555  6035 net.cpp:150] Setting up conv4_3
I0628 13:31:14.277576  6035 net.cpp:157] Top shape: 2 512 72 96 (7077888)
I0628 13:31:14.277581  6035 net.cpp:165] Memory required for data: 1956125376
I0628 13:31:14.277591  6035 layer_factory.hpp:77] Creating layer relu4_3
I0628 13:31:14.277599  6035 net.cpp:100] Creating Layer relu4_3
I0628 13:31:14.277604  6035 net.cpp:434] relu4_3 <- conv4_3
I0628 13:31:14.277611  6035 net.cpp:395] relu4_3 -> conv4_3 (in-place)
I0628 13:31:14.277961  6035 net.cpp:150] Setting up relu4_3
I0628 13:31:14.277971  6035 net.cpp:157] Top shape: 2 512 72 96 (7077888)
I0628 13:31:14.277974  6035 net.cpp:165] Memory required for data: 1984436928
I0628 13:31:14.277977  6035 layer_factory.hpp:77] Creating layer conv4_3_relu4_3_0_split
I0628 13:31:14.277983  6035 net.cpp:100] Creating Layer conv4_3_relu4_3_0_split
I0628 13:31:14.277987  6035 net.cpp:434] conv4_3_relu4_3_0_split <- conv4_3
I0628 13:31:14.277992  6035 net.cpp:408] conv4_3_relu4_3_0_split -> conv4_3_relu4_3_0_split_0
I0628 13:31:14.278000  6035 net.cpp:408] conv4_3_relu4_3_0_split -> conv4_3_relu4_3_0_split_1
I0628 13:31:14.278055  6035 net.cpp:150] Setting up conv4_3_relu4_3_0_split
I0628 13:31:14.278062  6035 net.cpp:157] Top shape: 2 512 72 96 (7077888)
I0628 13:31:14.278066  6035 net.cpp:157] Top shape: 2 512 72 96 (7077888)
I0628 13:31:14.278069  6035 net.cpp:165] Memory required for data: 2041060032
I0628 13:31:14.278071  6035 layer_factory.hpp:77] Creating layer loss1_conv1
I0628 13:31:14.278087  6035 net.cpp:100] Creating Layer loss1_conv1
I0628 13:31:14.278091  6035 net.cpp:434] loss1_conv1 <- conv4_3_relu4_3_0_split_0
I0628 13:31:14.278096  6035 net.cpp:408] loss1_conv1 -> loss1_conv1
I0628 13:31:14.302846  6035 net.cpp:150] Setting up loss1_conv1
I0628 13:31:14.302865  6035 net.cpp:157] Top shape: 2 512 72 96 (7077888)
I0628 13:31:14.302868  6035 net.cpp:165] Memory required for data: 2069371584
I0628 13:31:14.302875  6035 layer_factory.hpp:77] Creating layer loss_relu1
I0628 13:31:14.302881  6035 net.cpp:100] Creating Layer loss_relu1
I0628 13:31:14.302884  6035 net.cpp:434] loss_relu1 <- loss1_conv1
I0628 13:31:14.302888  6035 net.cpp:395] loss_relu1 -> loss1_conv1 (in-place)
I0628 13:31:14.303627  6035 net.cpp:150] Setting up loss_relu1
I0628 13:31:14.303638  6035 net.cpp:157] Top shape: 2 512 72 96 (7077888)
I0628 13:31:14.303640  6035 net.cpp:165] Memory required for data: 2097683136
I0628 13:31:14.303643  6035 layer_factory.hpp:77] Creating layer loss1_conv1_loss_relu1_0_split
I0628 13:31:14.303648  6035 net.cpp:100] Creating Layer loss1_conv1_loss_relu1_0_split
I0628 13:31:14.303650  6035 net.cpp:434] loss1_conv1_loss_relu1_0_split <- loss1_conv1
I0628 13:31:14.303656  6035 net.cpp:408] loss1_conv1_loss_relu1_0_split -> loss1_conv1_loss_relu1_0_split_0
I0628 13:31:14.303661  6035 net.cpp:408] loss1_conv1_loss_relu1_0_split -> loss1_conv1_loss_relu1_0_split_1
I0628 13:31:14.303709  6035 net.cpp:150] Setting up loss1_conv1_loss_relu1_0_split
I0628 13:31:14.303714  6035 net.cpp:157] Top shape: 2 512 72 96 (7077888)
I0628 13:31:14.303716  6035 net.cpp:157] Top shape: 2 512 72 96 (7077888)
I0628 13:31:14.303719  6035 net.cpp:165] Memory required for data: 2154306240
I0628 13:31:14.303721  6035 layer_factory.hpp:77] Creating layer LFCN_1_3x5
I0628 13:31:14.303732  6035 net.cpp:100] Creating Layer LFCN_1_3x5
I0628 13:31:14.303735  6035 net.cpp:434] LFCN_1_3x5 <- loss1_conv1_loss_relu1_0_split_0
I0628 13:31:14.303740  6035 net.cpp:408] LFCN_1_3x5 -> LFCN_1_3x5
I0628 13:31:14.305661  6035 net.cpp:150] Setting up LFCN_1_3x5
I0628 13:31:14.305675  6035 net.cpp:157] Top shape: 2 7 72 96 (96768)
I0628 13:31:14.305676  6035 net.cpp:165] Memory required for data: 2154693312
I0628 13:31:14.305682  6035 layer_factory.hpp:77] Creating layer LFCN_1_3x5_LFCN_1_3x5_0_split
I0628 13:31:14.305687  6035 net.cpp:100] Creating Layer LFCN_1_3x5_LFCN_1_3x5_0_split
I0628 13:31:14.305689  6035 net.cpp:434] LFCN_1_3x5_LFCN_1_3x5_0_split <- LFCN_1_3x5
I0628 13:31:14.305696  6035 net.cpp:408] LFCN_1_3x5_LFCN_1_3x5_0_split -> LFCN_1_3x5_LFCN_1_3x5_0_split_0
I0628 13:31:14.305701  6035 net.cpp:408] LFCN_1_3x5_LFCN_1_3x5_0_split -> LFCN_1_3x5_LFCN_1_3x5_0_split_1
I0628 13:31:14.305744  6035 net.cpp:150] Setting up LFCN_1_3x5_LFCN_1_3x5_0_split
I0628 13:31:14.305749  6035 net.cpp:157] Top shape: 2 7 72 96 (96768)
I0628 13:31:14.305752  6035 net.cpp:157] Top shape: 2 7 72 96 (96768)
I0628 13:31:14.305754  6035 net.cpp:165] Memory required for data: 2155467456
I0628 13:31:14.305757  6035 layer_factory.hpp:77] Creating layer detection_loss_1_3x5
I0628 13:31:14.305765  6035 net.cpp:100] Creating Layer detection_loss_1_3x5
I0628 13:31:14.305769  6035 net.cpp:434] detection_loss_1_3x5 <- LFCN_1_3x5_LFCN_1_3x5_0_split_0
I0628 13:31:14.305773  6035 net.cpp:434] detection_loss_1_3x5 <- label_1_3x5_data_1_split_0
I0628 13:31:14.305778  6035 net.cpp:408] detection_loss_1_3x5 -> loss_1_3x5
I0628 13:31:14.305785  6035 layer_factory.hpp:77] Creating layer detection_loss_1_3x5
I0628 13:31:14.306759  6035 net.cpp:150] Setting up detection_loss_1_3x5
I0628 13:31:14.306772  6035 net.cpp:157] Top shape: 1 1 1 2 (2)
I0628 13:31:14.306776  6035 net.cpp:160]     with loss weight 0.9
I0628 13:31:14.306784  6035 net.cpp:165] Memory required for data: 2155467464
I0628 13:31:14.306788  6035 layer_factory.hpp:77] Creating layer detection_accuracy_1_3x5
I0628 13:31:14.306797  6035 net.cpp:100] Creating Layer detection_accuracy_1_3x5
I0628 13:31:14.306799  6035 net.cpp:434] detection_accuracy_1_3x5 <- LFCN_1_3x5_LFCN_1_3x5_0_split_1
I0628 13:31:14.306805  6035 net.cpp:434] detection_accuracy_1_3x5 <- label_1_3x5_data_1_split_1
I0628 13:31:14.306812  6035 net.cpp:408] detection_accuracy_1_3x5 -> accuracy_1_3x5
I0628 13:31:14.306819  6035 net.cpp:408] detection_accuracy_1_3x5 -> boxiou_1_3x5
I0628 13:31:14.306870  6035 net.cpp:150] Setting up detection_accuracy_1_3x5
I0628 13:31:14.306877  6035 net.cpp:157] Top shape: 1 1 1 2 (2)
I0628 13:31:14.306881  6035 net.cpp:157] Top shape: 1 1 1 1 (1)
I0628 13:31:14.306883  6035 net.cpp:165] Memory required for data: 2155467476
I0628 13:31:14.306886  6035 layer_factory.hpp:77] Creating layer LFCN_1_5x7
I0628 13:31:14.306895  6035 net.cpp:100] Creating Layer LFCN_1_5x7
I0628 13:31:14.306900  6035 net.cpp:434] LFCN_1_5x7 <- loss1_conv1_loss_relu1_0_split_1
I0628 13:31:14.306907  6035 net.cpp:408] LFCN_1_5x7 -> LFCN_1_5x7
I0628 13:31:14.311931  6035 net.cpp:150] Setting up LFCN_1_5x7
I0628 13:31:14.311951  6035 net.cpp:157] Top shape: 2 7 72 96 (96768)
I0628 13:31:14.311955  6035 net.cpp:165] Memory required for data: 2155854548
I0628 13:31:14.311964  6035 layer_factory.hpp:77] Creating layer LFCN_1_5x7_LFCN_1_5x7_0_split
I0628 13:31:14.311974  6035 net.cpp:100] Creating Layer LFCN_1_5x7_LFCN_1_5x7_0_split
I0628 13:31:14.311978  6035 net.cpp:434] LFCN_1_5x7_LFCN_1_5x7_0_split <- LFCN_1_5x7
I0628 13:31:14.311985  6035 net.cpp:408] LFCN_1_5x7_LFCN_1_5x7_0_split -> LFCN_1_5x7_LFCN_1_5x7_0_split_0
I0628 13:31:14.311995  6035 net.cpp:408] LFCN_1_5x7_LFCN_1_5x7_0_split -> LFCN_1_5x7_LFCN_1_5x7_0_split_1
I0628 13:31:14.312050  6035 net.cpp:150] Setting up LFCN_1_5x7_LFCN_1_5x7_0_split
I0628 13:31:14.312057  6035 net.cpp:157] Top shape: 2 7 72 96 (96768)
I0628 13:31:14.312062  6035 net.cpp:157] Top shape: 2 7 72 96 (96768)
I0628 13:31:14.312063  6035 net.cpp:165] Memory required for data: 2156628692
I0628 13:31:14.312067  6035 layer_factory.hpp:77] Creating layer detection_loss_1_5x7
I0628 13:31:14.312074  6035 net.cpp:100] Creating Layer detection_loss_1_5x7
I0628 13:31:14.312078  6035 net.cpp:434] detection_loss_1_5x7 <- LFCN_1_5x7_LFCN_1_5x7_0_split_0
I0628 13:31:14.312083  6035 net.cpp:434] detection_loss_1_5x7 <- label_1_5x7_data_2_split_0
I0628 13:31:14.312089  6035 net.cpp:408] detection_loss_1_5x7 -> loss_1_5x7
I0628 13:31:14.312098  6035 layer_factory.hpp:77] Creating layer detection_loss_1_5x7
I0628 13:31:14.312711  6035 net.cpp:150] Setting up detection_loss_1_5x7
I0628 13:31:14.312719  6035 net.cpp:157] Top shape: 1 1 1 2 (2)
I0628 13:31:14.312721  6035 net.cpp:160]     with loss weight 0.9
I0628 13:31:14.312731  6035 net.cpp:165] Memory required for data: 2156628700
I0628 13:31:14.312733  6035 layer_factory.hpp:77] Creating layer detection_accuracy_1_5x7
I0628 13:31:14.312741  6035 net.cpp:100] Creating Layer detection_accuracy_1_5x7
I0628 13:31:14.312743  6035 net.cpp:434] detection_accuracy_1_5x7 <- LFCN_1_5x7_LFCN_1_5x7_0_split_1
I0628 13:31:14.312752  6035 net.cpp:434] detection_accuracy_1_5x7 <- label_1_5x7_data_2_split_1
I0628 13:31:14.312757  6035 net.cpp:408] detection_accuracy_1_5x7 -> accuracy_1_5x7
I0628 13:31:14.312763  6035 net.cpp:408] detection_accuracy_1_5x7 -> boxiou_1_5x7
I0628 13:31:14.312813  6035 net.cpp:150] Setting up detection_accuracy_1_5x7
I0628 13:31:14.312819  6035 net.cpp:157] Top shape: 1 1 1 2 (2)
I0628 13:31:14.312822  6035 net.cpp:157] Top shape: 1 1 1 1 (1)
I0628 13:31:14.312825  6035 net.cpp:165] Memory required for data: 2156628712
I0628 13:31:14.312829  6035 layer_factory.hpp:77] Creating layer pool4
I0628 13:31:14.312834  6035 net.cpp:100] Creating Layer pool4
I0628 13:31:14.312837  6035 net.cpp:434] pool4 <- conv4_3_relu4_3_0_split_1
I0628 13:31:14.312844  6035 net.cpp:408] pool4 -> pool4
I0628 13:31:14.312892  6035 net.cpp:150] Setting up pool4
I0628 13:31:14.312898  6035 net.cpp:157] Top shape: 2 512 36 48 (1769472)
I0628 13:31:14.312901  6035 net.cpp:165] Memory required for data: 2163706600
I0628 13:31:14.312904  6035 layer_factory.hpp:77] Creating layer conv5_1
I0628 13:31:14.312911  6035 net.cpp:100] Creating Layer conv5_1
I0628 13:31:14.312913  6035 net.cpp:434] conv5_1 <- pool4
I0628 13:31:14.312919  6035 net.cpp:408] conv5_1 -> conv5_1
I0628 13:31:14.321378  6035 net.cpp:150] Setting up conv5_1
I0628 13:31:14.321400  6035 net.cpp:157] Top shape: 2 512 36 48 (1769472)
I0628 13:31:14.321404  6035 net.cpp:165] Memory required for data: 2170784488
I0628 13:31:14.321413  6035 layer_factory.hpp:77] Creating layer relu5_1
I0628 13:31:14.321421  6035 net.cpp:100] Creating Layer relu5_1
I0628 13:31:14.321425  6035 net.cpp:434] relu5_1 <- conv5_1
I0628 13:31:14.321432  6035 net.cpp:395] relu5_1 -> conv5_1 (in-place)
I0628 13:31:14.321818  6035 net.cpp:150] Setting up relu5_1
I0628 13:31:14.321828  6035 net.cpp:157] Top shape: 2 512 36 48 (1769472)
I0628 13:31:14.321831  6035 net.cpp:165] Memory required for data: 2177862376
I0628 13:31:14.321835  6035 layer_factory.hpp:77] Creating layer conv5_2
I0628 13:31:14.321843  6035 net.cpp:100] Creating Layer conv5_2
I0628 13:31:14.321846  6035 net.cpp:434] conv5_2 <- conv5_1
I0628 13:31:14.321852  6035 net.cpp:408] conv5_2 -> conv5_2
I0628 13:31:14.329823  6035 net.cpp:150] Setting up conv5_2
I0628 13:31:14.329841  6035 net.cpp:157] Top shape: 2 512 36 48 (1769472)
I0628 13:31:14.329844  6035 net.cpp:165] Memory required for data: 2184940264
I0628 13:31:14.329851  6035 layer_factory.hpp:77] Creating layer relu5_2
I0628 13:31:14.329857  6035 net.cpp:100] Creating Layer relu5_2
I0628 13:31:14.329860  6035 net.cpp:434] relu5_2 <- conv5_2
I0628 13:31:14.329865  6035 net.cpp:395] relu5_2 -> conv5_2 (in-place)
I0628 13:31:14.330641  6035 net.cpp:150] Setting up relu5_2
I0628 13:31:14.330652  6035 net.cpp:157] Top shape: 2 512 36 48 (1769472)
I0628 13:31:14.330654  6035 net.cpp:165] Memory required for data: 2192018152
I0628 13:31:14.330657  6035 layer_factory.hpp:77] Creating layer conv5_3
I0628 13:31:14.330664  6035 net.cpp:100] Creating Layer conv5_3
I0628 13:31:14.330667  6035 net.cpp:434] conv5_3 <- conv5_2
I0628 13:31:14.330672  6035 net.cpp:408] conv5_3 -> conv5_3
I0628 13:31:14.336292  6035 net.cpp:150] Setting up conv5_3
I0628 13:31:14.336313  6035 net.cpp:157] Top shape: 2 512 36 48 (1769472)
I0628 13:31:14.336314  6035 net.cpp:165] Memory required for data: 2199096040
I0628 13:31:14.336321  6035 layer_factory.hpp:77] Creating layer relu5_3
I0628 13:31:14.336328  6035 net.cpp:100] Creating Layer relu5_3
I0628 13:31:14.336331  6035 net.cpp:434] relu5_3 <- conv5_3
I0628 13:31:14.336336  6035 net.cpp:395] relu5_3 -> conv5_3 (in-place)
I0628 13:31:14.336616  6035 net.cpp:150] Setting up relu5_3
I0628 13:31:14.336623  6035 net.cpp:157] Top shape: 2 512 36 48 (1769472)
I0628 13:31:14.336625  6035 net.cpp:165] Memory required for data: 2206173928
I0628 13:31:14.336627  6035 layer_factory.hpp:77] Creating layer conv5_3_relu5_3_0_split
I0628 13:31:14.336633  6035 net.cpp:100] Creating Layer conv5_3_relu5_3_0_split
I0628 13:31:14.336637  6035 net.cpp:434] conv5_3_relu5_3_0_split <- conv5_3
I0628 13:31:14.336643  6035 net.cpp:408] conv5_3_relu5_3_0_split -> conv5_3_relu5_3_0_split_0
I0628 13:31:14.336649  6035 net.cpp:408] conv5_3_relu5_3_0_split -> conv5_3_relu5_3_0_split_1
I0628 13:31:14.336655  6035 net.cpp:408] conv5_3_relu5_3_0_split -> conv5_3_relu5_3_0_split_2
I0628 13:31:14.336716  6035 net.cpp:150] Setting up conv5_3_relu5_3_0_split
I0628 13:31:14.336720  6035 net.cpp:157] Top shape: 2 512 36 48 (1769472)
I0628 13:31:14.336724  6035 net.cpp:157] Top shape: 2 512 36 48 (1769472)
I0628 13:31:14.336726  6035 net.cpp:157] Top shape: 2 512 36 48 (1769472)
I0628 13:31:14.336729  6035 net.cpp:165] Memory required for data: 2227407592
I0628 13:31:14.336731  6035 layer_factory.hpp:77] Creating layer LFCN_2_3x5
I0628 13:31:14.336740  6035 net.cpp:100] Creating Layer LFCN_2_3x5
I0628 13:31:14.336746  6035 net.cpp:434] LFCN_2_3x5 <- conv5_3_relu5_3_0_split_0
I0628 13:31:14.336753  6035 net.cpp:408] LFCN_2_3x5 -> LFCN_2_3x5
I0628 13:31:14.341068  6035 net.cpp:150] Setting up LFCN_2_3x5
I0628 13:31:14.341089  6035 net.cpp:157] Top shape: 2 7 36 48 (24192)
I0628 13:31:14.341091  6035 net.cpp:165] Memory required for data: 2227504360
I0628 13:31:14.341107  6035 layer_factory.hpp:77] Creating layer LFCN_2_3x5_LFCN_2_3x5_0_split
I0628 13:31:14.341116  6035 net.cpp:100] Creating Layer LFCN_2_3x5_LFCN_2_3x5_0_split
I0628 13:31:14.341121  6035 net.cpp:434] LFCN_2_3x5_LFCN_2_3x5_0_split <- LFCN_2_3x5
I0628 13:31:14.341130  6035 net.cpp:408] LFCN_2_3x5_LFCN_2_3x5_0_split -> LFCN_2_3x5_LFCN_2_3x5_0_split_0
I0628 13:31:14.341138  6035 net.cpp:408] LFCN_2_3x5_LFCN_2_3x5_0_split -> LFCN_2_3x5_LFCN_2_3x5_0_split_1
I0628 13:31:14.341195  6035 net.cpp:150] Setting up LFCN_2_3x5_LFCN_2_3x5_0_split
I0628 13:31:14.341202  6035 net.cpp:157] Top shape: 2 7 36 48 (24192)
I0628 13:31:14.341207  6035 net.cpp:157] Top shape: 2 7 36 48 (24192)
I0628 13:31:14.341208  6035 net.cpp:165] Memory required for data: 2227697896
I0628 13:31:14.341212  6035 layer_factory.hpp:77] Creating layer detection_loss_2_3x5
I0628 13:31:14.341219  6035 net.cpp:100] Creating Layer detection_loss_2_3x5
I0628 13:31:14.341224  6035 net.cpp:434] detection_loss_2_3x5 <- LFCN_2_3x5_LFCN_2_3x5_0_split_0
I0628 13:31:14.341236  6035 net.cpp:434] detection_loss_2_3x5 <- label_2_3x5_data_3_split_0
I0628 13:31:14.341241  6035 net.cpp:408] detection_loss_2_3x5 -> loss_2_3x5
I0628 13:31:14.341250  6035 layer_factory.hpp:77] Creating layer detection_loss_2_3x5
I0628 13:31:14.341868  6035 net.cpp:150] Setting up detection_loss_2_3x5
I0628 13:31:14.341877  6035 net.cpp:157] Top shape: 1 1 1 2 (2)
I0628 13:31:14.341881  6035 net.cpp:160]     with loss weight 1
I0628 13:31:14.341889  6035 net.cpp:165] Memory required for data: 2227697904
I0628 13:31:14.341892  6035 layer_factory.hpp:77] Creating layer detection_accuracy_2_3x5
I0628 13:31:14.341899  6035 net.cpp:100] Creating Layer detection_accuracy_2_3x5
I0628 13:31:14.341902  6035 net.cpp:434] detection_accuracy_2_3x5 <- LFCN_2_3x5_LFCN_2_3x5_0_split_1
I0628 13:31:14.341907  6035 net.cpp:434] detection_accuracy_2_3x5 <- label_2_3x5_data_3_split_1
I0628 13:31:14.341914  6035 net.cpp:408] detection_accuracy_2_3x5 -> accuracy_2_3x5
I0628 13:31:14.341922  6035 net.cpp:408] detection_accuracy_2_3x5 -> boxiou_2_3x5
I0628 13:31:14.341995  6035 net.cpp:150] Setting up detection_accuracy_2_3x5
I0628 13:31:14.342002  6035 net.cpp:157] Top shape: 1 1 1 2 (2)
I0628 13:31:14.342006  6035 net.cpp:157] Top shape: 1 1 1 1 (1)
I0628 13:31:14.342010  6035 net.cpp:165] Memory required for data: 2227697916
I0628 13:31:14.342012  6035 layer_factory.hpp:77] Creating layer LFCN_2_5x7
I0628 13:31:14.342020  6035 net.cpp:100] Creating Layer LFCN_2_5x7
I0628 13:31:14.342025  6035 net.cpp:434] LFCN_2_5x7 <- conv5_3_relu5_3_0_split_1
I0628 13:31:14.342030  6035 net.cpp:408] LFCN_2_5x7 -> LFCN_2_5x7
I0628 13:31:14.345765  6035 net.cpp:150] Setting up LFCN_2_5x7
I0628 13:31:14.345784  6035 net.cpp:157] Top shape: 2 7 36 48 (24192)
I0628 13:31:14.345788  6035 net.cpp:165] Memory required for data: 2227794684
I0628 13:31:14.345796  6035 layer_factory.hpp:77] Creating layer LFCN_2_5x7_LFCN_2_5x7_0_split
I0628 13:31:14.345803  6035 net.cpp:100] Creating Layer LFCN_2_5x7_LFCN_2_5x7_0_split
I0628 13:31:14.345808  6035 net.cpp:434] LFCN_2_5x7_LFCN_2_5x7_0_split <- LFCN_2_5x7
I0628 13:31:14.345815  6035 net.cpp:408] LFCN_2_5x7_LFCN_2_5x7_0_split -> LFCN_2_5x7_LFCN_2_5x7_0_split_0
I0628 13:31:14.345824  6035 net.cpp:408] LFCN_2_5x7_LFCN_2_5x7_0_split -> LFCN_2_5x7_LFCN_2_5x7_0_split_1
I0628 13:31:14.345877  6035 net.cpp:150] Setting up LFCN_2_5x7_LFCN_2_5x7_0_split
I0628 13:31:14.345885  6035 net.cpp:157] Top shape: 2 7 36 48 (24192)
I0628 13:31:14.345888  6035 net.cpp:157] Top shape: 2 7 36 48 (24192)
I0628 13:31:14.345891  6035 net.cpp:165] Memory required for data: 2227988220
I0628 13:31:14.345894  6035 layer_factory.hpp:77] Creating layer detection_loss_2_5x7
I0628 13:31:14.345903  6035 net.cpp:100] Creating Layer detection_loss_2_5x7
I0628 13:31:14.345906  6035 net.cpp:434] detection_loss_2_5x7 <- LFCN_2_5x7_LFCN_2_5x7_0_split_0
I0628 13:31:14.345911  6035 net.cpp:434] detection_loss_2_5x7 <- label_2_5x7_data_4_split_0
I0628 13:31:14.345916  6035 net.cpp:408] detection_loss_2_5x7 -> loss_2_5x7
I0628 13:31:14.345926  6035 layer_factory.hpp:77] Creating layer detection_loss_2_5x7
I0628 13:31:14.347326  6035 net.cpp:150] Setting up detection_loss_2_5x7
I0628 13:31:14.347340  6035 net.cpp:157] Top shape: 1 1 1 2 (2)
I0628 13:31:14.347343  6035 net.cpp:160]     with loss weight 1
I0628 13:31:14.347352  6035 net.cpp:165] Memory required for data: 2227988228
I0628 13:31:14.347357  6035 layer_factory.hpp:77] Creating layer detection_accuracy_2_5x7
I0628 13:31:14.347363  6035 net.cpp:100] Creating Layer detection_accuracy_2_5x7
I0628 13:31:14.347368  6035 net.cpp:434] detection_accuracy_2_5x7 <- LFCN_2_5x7_LFCN_2_5x7_0_split_1
I0628 13:31:14.347374  6035 net.cpp:434] detection_accuracy_2_5x7 <- label_2_5x7_data_4_split_1
I0628 13:31:14.347383  6035 net.cpp:408] detection_accuracy_2_5x7 -> accuracy_2_5x7
I0628 13:31:14.347391  6035 net.cpp:408] detection_accuracy_2_5x7 -> boxiou_2_5x7
I0628 13:31:14.347445  6035 net.cpp:150] Setting up detection_accuracy_2_5x7
I0628 13:31:14.347451  6035 net.cpp:157] Top shape: 1 1 1 2 (2)
I0628 13:31:14.347455  6035 net.cpp:157] Top shape: 1 1 1 1 (1)
I0628 13:31:14.347457  6035 net.cpp:165] Memory required for data: 2227988240
I0628 13:31:14.347460  6035 layer_factory.hpp:77] Creating layer pool5
I0628 13:31:14.347466  6035 net.cpp:100] Creating Layer pool5
I0628 13:31:14.347470  6035 net.cpp:434] pool5 <- conv5_3_relu5_3_0_split_2
I0628 13:31:14.347476  6035 net.cpp:408] pool5 -> pool5
I0628 13:31:14.347520  6035 net.cpp:150] Setting up pool5
I0628 13:31:14.347527  6035 net.cpp:157] Top shape: 2 512 18 24 (442368)
I0628 13:31:14.347528  6035 net.cpp:165] Memory required for data: 2229757712
I0628 13:31:14.347532  6035 layer_factory.hpp:77] Creating layer conv6_1
I0628 13:31:14.347540  6035 net.cpp:100] Creating Layer conv6_1
I0628 13:31:14.347543  6035 net.cpp:434] conv6_1 <- pool5
I0628 13:31:14.347549  6035 net.cpp:408] conv6_1 -> conv6_1
I0628 13:31:14.371790  6035 net.cpp:150] Setting up conv6_1
I0628 13:31:14.371811  6035 net.cpp:157] Top shape: 2 512 18 24 (442368)
I0628 13:31:14.371814  6035 net.cpp:165] Memory required for data: 2231527184
I0628 13:31:14.371822  6035 layer_factory.hpp:77] Creating layer relu6_1
I0628 13:31:14.371830  6035 net.cpp:100] Creating Layer relu6_1
I0628 13:31:14.371836  6035 net.cpp:434] relu6_1 <- conv6_1
I0628 13:31:14.371843  6035 net.cpp:395] relu6_1 -> conv6_1 (in-place)
I0628 13:31:14.372210  6035 net.cpp:150] Setting up relu6_1
I0628 13:31:14.372220  6035 net.cpp:157] Top shape: 2 512 18 24 (442368)
I0628 13:31:14.372223  6035 net.cpp:165] Memory required for data: 2233296656
I0628 13:31:14.372226  6035 layer_factory.hpp:77] Creating layer conv6_1_relu6_1_0_split
I0628 13:31:14.372232  6035 net.cpp:100] Creating Layer conv6_1_relu6_1_0_split
I0628 13:31:14.372236  6035 net.cpp:434] conv6_1_relu6_1_0_split <- conv6_1
I0628 13:31:14.372243  6035 net.cpp:408] conv6_1_relu6_1_0_split -> conv6_1_relu6_1_0_split_0
I0628 13:31:14.372251  6035 net.cpp:408] conv6_1_relu6_1_0_split -> conv6_1_relu6_1_0_split_1
I0628 13:31:14.372256  6035 net.cpp:408] conv6_1_relu6_1_0_split -> conv6_1_relu6_1_0_split_2
I0628 13:31:14.372334  6035 net.cpp:150] Setting up conv6_1_relu6_1_0_split
I0628 13:31:14.372339  6035 net.cpp:157] Top shape: 2 512 18 24 (442368)
I0628 13:31:14.372344  6035 net.cpp:157] Top shape: 2 512 18 24 (442368)
I0628 13:31:14.372347  6035 net.cpp:157] Top shape: 2 512 18 24 (442368)
I0628 13:31:14.372349  6035 net.cpp:165] Memory required for data: 2238605072
I0628 13:31:14.372352  6035 layer_factory.hpp:77] Creating layer LFCN_3_3x5
I0628 13:31:14.372362  6035 net.cpp:100] Creating Layer LFCN_3_3x5
I0628 13:31:14.372365  6035 net.cpp:434] LFCN_3_3x5 <- conv6_1_relu6_1_0_split_0
I0628 13:31:14.372372  6035 net.cpp:408] LFCN_3_3x5 -> LFCN_3_3x5
I0628 13:31:14.376560  6035 net.cpp:150] Setting up LFCN_3_3x5
I0628 13:31:14.376579  6035 net.cpp:157] Top shape: 2 7 18 24 (6048)
I0628 13:31:14.376583  6035 net.cpp:165] Memory required for data: 2238629264
I0628 13:31:14.376591  6035 layer_factory.hpp:77] Creating layer LFCN_3_3x5_LFCN_3_3x5_0_split
I0628 13:31:14.376610  6035 net.cpp:100] Creating Layer LFCN_3_3x5_LFCN_3_3x5_0_split
I0628 13:31:14.376616  6035 net.cpp:434] LFCN_3_3x5_LFCN_3_3x5_0_split <- LFCN_3_3x5
I0628 13:31:14.376623  6035 net.cpp:408] LFCN_3_3x5_LFCN_3_3x5_0_split -> LFCN_3_3x5_LFCN_3_3x5_0_split_0
I0628 13:31:14.376631  6035 net.cpp:408] LFCN_3_3x5_LFCN_3_3x5_0_split -> LFCN_3_3x5_LFCN_3_3x5_0_split_1
I0628 13:31:14.376688  6035 net.cpp:150] Setting up LFCN_3_3x5_LFCN_3_3x5_0_split
I0628 13:31:14.376694  6035 net.cpp:157] Top shape: 2 7 18 24 (6048)
I0628 13:31:14.376698  6035 net.cpp:157] Top shape: 2 7 18 24 (6048)
I0628 13:31:14.376700  6035 net.cpp:165] Memory required for data: 2238677648
I0628 13:31:14.376704  6035 layer_factory.hpp:77] Creating layer detection_loss_3_3x5
I0628 13:31:14.376711  6035 net.cpp:100] Creating Layer detection_loss_3_3x5
I0628 13:31:14.376714  6035 net.cpp:434] detection_loss_3_3x5 <- LFCN_3_3x5_LFCN_3_3x5_0_split_0
I0628 13:31:14.376719  6035 net.cpp:434] detection_loss_3_3x5 <- label_3_3x5_data_5_split_0
I0628 13:31:14.376726  6035 net.cpp:408] detection_loss_3_3x5 -> loss_3_3x5
I0628 13:31:14.376734  6035 layer_factory.hpp:77] Creating layer detection_loss_3_3x5
I0628 13:31:14.377362  6035 net.cpp:150] Setting up detection_loss_3_3x5
I0628 13:31:14.377372  6035 net.cpp:157] Top shape: 1 1 1 2 (2)
I0628 13:31:14.377374  6035 net.cpp:160]     with loss weight 1
I0628 13:31:14.377383  6035 net.cpp:165] Memory required for data: 2238677656
I0628 13:31:14.377387  6035 layer_factory.hpp:77] Creating layer detection_accuracy_3_3x5
I0628 13:31:14.377394  6035 net.cpp:100] Creating Layer detection_accuracy_3_3x5
I0628 13:31:14.377398  6035 net.cpp:434] detection_accuracy_3_3x5 <- LFCN_3_3x5_LFCN_3_3x5_0_split_1
I0628 13:31:14.377403  6035 net.cpp:434] detection_accuracy_3_3x5 <- label_3_3x5_data_5_split_1
I0628 13:31:14.377410  6035 net.cpp:408] detection_accuracy_3_3x5 -> accuracy_3_3x5
I0628 13:31:14.377418  6035 net.cpp:408] detection_accuracy_3_3x5 -> boxiou_3_3x5
I0628 13:31:14.377471  6035 net.cpp:150] Setting up detection_accuracy_3_3x5
I0628 13:31:14.377477  6035 net.cpp:157] Top shape: 1 1 1 2 (2)
I0628 13:31:14.377481  6035 net.cpp:157] Top shape: 1 1 1 1 (1)
I0628 13:31:14.377483  6035 net.cpp:165] Memory required for data: 2238677668
I0628 13:31:14.377486  6035 layer_factory.hpp:77] Creating layer LFCN_3_5x7
I0628 13:31:14.377496  6035 net.cpp:100] Creating Layer LFCN_3_5x7
I0628 13:31:14.377499  6035 net.cpp:434] LFCN_3_5x7 <- conv6_1_relu6_1_0_split_1
I0628 13:31:14.377506  6035 net.cpp:408] LFCN_3_5x7 -> LFCN_3_5x7
I0628 13:31:14.381917  6035 net.cpp:150] Setting up LFCN_3_5x7
I0628 13:31:14.381937  6035 net.cpp:157] Top shape: 2 7 18 24 (6048)
I0628 13:31:14.381942  6035 net.cpp:165] Memory required for data: 2238701860
I0628 13:31:14.381949  6035 layer_factory.hpp:77] Creating layer LFCN_3_5x7_LFCN_3_5x7_0_split
I0628 13:31:14.381956  6035 net.cpp:100] Creating Layer LFCN_3_5x7_LFCN_3_5x7_0_split
I0628 13:31:14.381961  6035 net.cpp:434] LFCN_3_5x7_LFCN_3_5x7_0_split <- LFCN_3_5x7
I0628 13:31:14.381970  6035 net.cpp:408] LFCN_3_5x7_LFCN_3_5x7_0_split -> LFCN_3_5x7_LFCN_3_5x7_0_split_0
I0628 13:31:14.381978  6035 net.cpp:408] LFCN_3_5x7_LFCN_3_5x7_0_split -> LFCN_3_5x7_LFCN_3_5x7_0_split_1
I0628 13:31:14.382035  6035 net.cpp:150] Setting up LFCN_3_5x7_LFCN_3_5x7_0_split
I0628 13:31:14.382041  6035 net.cpp:157] Top shape: 2 7 18 24 (6048)
I0628 13:31:14.382045  6035 net.cpp:157] Top shape: 2 7 18 24 (6048)
I0628 13:31:14.382048  6035 net.cpp:165] Memory required for data: 2238750244
I0628 13:31:14.382050  6035 layer_factory.hpp:77] Creating layer detection_loss_3_5x7
I0628 13:31:14.382057  6035 net.cpp:100] Creating Layer detection_loss_3_5x7
I0628 13:31:14.382061  6035 net.cpp:434] detection_loss_3_5x7 <- LFCN_3_5x7_LFCN_3_5x7_0_split_0
I0628 13:31:14.382064  6035 net.cpp:434] detection_loss_3_5x7 <- label_3_5x7_data_6_split_0
I0628 13:31:14.382071  6035 net.cpp:408] detection_loss_3_5x7 -> loss_3_5x7
I0628 13:31:14.382079  6035 layer_factory.hpp:77] Creating layer detection_loss_3_5x7
I0628 13:31:14.383370  6035 net.cpp:150] Setting up detection_loss_3_5x7
I0628 13:31:14.383383  6035 net.cpp:157] Top shape: 1 1 1 2 (2)
I0628 13:31:14.383385  6035 net.cpp:160]     with loss weight 1
I0628 13:31:14.383394  6035 net.cpp:165] Memory required for data: 2238750252
I0628 13:31:14.383397  6035 layer_factory.hpp:77] Creating layer detection_accuracy_3_5x7
I0628 13:31:14.383406  6035 net.cpp:100] Creating Layer detection_accuracy_3_5x7
I0628 13:31:14.383410  6035 net.cpp:434] detection_accuracy_3_5x7 <- LFCN_3_5x7_LFCN_3_5x7_0_split_1
I0628 13:31:14.383416  6035 net.cpp:434] detection_accuracy_3_5x7 <- label_3_5x7_data_6_split_1
I0628 13:31:14.383422  6035 net.cpp:408] detection_accuracy_3_5x7 -> accuracy_3_5x7
I0628 13:31:14.383430  6035 net.cpp:408] detection_accuracy_3_5x7 -> boxiou_3_5x7
I0628 13:31:14.383484  6035 net.cpp:150] Setting up detection_accuracy_3_5x7
I0628 13:31:14.383491  6035 net.cpp:157] Top shape: 1 1 1 2 (2)
I0628 13:31:14.383494  6035 net.cpp:157] Top shape: 1 1 1 1 (1)
I0628 13:31:14.383496  6035 net.cpp:165] Memory required for data: 2238750264
I0628 13:31:14.383499  6035 layer_factory.hpp:77] Creating layer pool6
I0628 13:31:14.383505  6035 net.cpp:100] Creating Layer pool6
I0628 13:31:14.383509  6035 net.cpp:434] pool6 <- conv6_1_relu6_1_0_split_2
I0628 13:31:14.383515  6035 net.cpp:408] pool6 -> pool6
I0628 13:31:14.383564  6035 net.cpp:150] Setting up pool6
I0628 13:31:14.383570  6035 net.cpp:157] Top shape: 2 512 9 12 (110592)
I0628 13:31:14.383572  6035 net.cpp:165] Memory required for data: 2239192632
I0628 13:31:14.383575  6035 layer_factory.hpp:77] Creating layer LFCN_4_3x5
I0628 13:31:14.383586  6035 net.cpp:100] Creating Layer LFCN_4_3x5
I0628 13:31:14.383589  6035 net.cpp:434] LFCN_4_3x5 <- pool6
I0628 13:31:14.383594  6035 net.cpp:408] LFCN_4_3x5 -> LFCN_4_3x5
I0628 13:31:14.387065  6035 net.cpp:150] Setting up LFCN_4_3x5
I0628 13:31:14.387084  6035 net.cpp:157] Top shape: 2 7 9 12 (1512)
I0628 13:31:14.387086  6035 net.cpp:165] Memory required for data: 2239198680
I0628 13:31:14.387094  6035 layer_factory.hpp:77] Creating layer LFCN_4_3x5_LFCN_4_3x5_0_split
I0628 13:31:14.387102  6035 net.cpp:100] Creating Layer LFCN_4_3x5_LFCN_4_3x5_0_split
I0628 13:31:14.387106  6035 net.cpp:434] LFCN_4_3x5_LFCN_4_3x5_0_split <- LFCN_4_3x5
I0628 13:31:14.387115  6035 net.cpp:408] LFCN_4_3x5_LFCN_4_3x5_0_split -> LFCN_4_3x5_LFCN_4_3x5_0_split_0
I0628 13:31:14.387123  6035 net.cpp:408] LFCN_4_3x5_LFCN_4_3x5_0_split -> LFCN_4_3x5_LFCN_4_3x5_0_split_1
I0628 13:31:14.387190  6035 net.cpp:150] Setting up LFCN_4_3x5_LFCN_4_3x5_0_split
I0628 13:31:14.387197  6035 net.cpp:157] Top shape: 2 7 9 12 (1512)
I0628 13:31:14.387200  6035 net.cpp:157] Top shape: 2 7 9 12 (1512)
I0628 13:31:14.387202  6035 net.cpp:165] Memory required for data: 2239210776
I0628 13:31:14.387205  6035 layer_factory.hpp:77] Creating layer detection_loss_4_3x5
I0628 13:31:14.387213  6035 net.cpp:100] Creating Layer detection_loss_4_3x5
I0628 13:31:14.387217  6035 net.cpp:434] detection_loss_4_3x5 <- LFCN_4_3x5_LFCN_4_3x5_0_split_0
I0628 13:31:14.387223  6035 net.cpp:434] detection_loss_4_3x5 <- label_4_3x5_data_7_split_0
I0628 13:31:14.387228  6035 net.cpp:408] detection_loss_4_3x5 -> loss_4_3x5
I0628 13:31:14.387236  6035 layer_factory.hpp:77] Creating layer detection_loss_4_3x5
I0628 13:31:14.388576  6035 net.cpp:150] Setting up detection_loss_4_3x5
I0628 13:31:14.388588  6035 net.cpp:157] Top shape: 1 1 1 2 (2)
I0628 13:31:14.388592  6035 net.cpp:160]     with loss weight 1
I0628 13:31:14.388600  6035 net.cpp:165] Memory required for data: 2239210784
I0628 13:31:14.388604  6035 layer_factory.hpp:77] Creating layer detection_accuracy_4_3x5
I0628 13:31:14.388614  6035 net.cpp:100] Creating Layer detection_accuracy_4_3x5
I0628 13:31:14.388618  6035 net.cpp:434] detection_accuracy_4_3x5 <- LFCN_4_3x5_LFCN_4_3x5_0_split_1
I0628 13:31:14.388624  6035 net.cpp:434] detection_accuracy_4_3x5 <- label_4_3x5_data_7_split_1
I0628 13:31:14.388631  6035 net.cpp:408] detection_accuracy_4_3x5 -> accuracy_4_3x5
I0628 13:31:14.388640  6035 net.cpp:408] detection_accuracy_4_3x5 -> boxiou_4_3x5
I0628 13:31:14.388696  6035 net.cpp:150] Setting up detection_accuracy_4_3x5
I0628 13:31:14.388702  6035 net.cpp:157] Top shape: 1 1 1 2 (2)
I0628 13:31:14.388706  6035 net.cpp:157] Top shape: 1 1 1 1 (1)
I0628 13:31:14.388708  6035 net.cpp:165] Memory required for data: 2239210796
I0628 13:31:14.388711  6035 net.cpp:228] detection_accuracy_4_3x5 does not need backward computation.
I0628 13:31:14.388716  6035 net.cpp:226] detection_loss_4_3x5 needs backward computation.
I0628 13:31:14.388720  6035 net.cpp:226] LFCN_4_3x5_LFCN_4_3x5_0_split needs backward computation.
I0628 13:31:14.388723  6035 net.cpp:226] LFCN_4_3x5 needs backward computation.
…
