…
    downsample_rate: 32
    downsample_rate: 32
    downsample_rate: 64
    coord_num: 4
    field_h: 60
    field_h: 84
    field_h: 120
    field_h: 168
    field_h: 240
    field_h: 336
    field_h: 480
    field_w: 40
    field_w: 56
    field_w: 80
    field_w: 112
    field_w: 160
    field_w: 224
    field_w: 320
    fg_threshold: 0.5
    resize_width: 1920
    resize_height: 576
    crop_width: 768
    crop_height: 576
    do_multiple_scale: true
    min_scale: 50
    max_scale: 420
    min_gt_height: 35
    shuffle: true
    output_gt_boxes: true
  }
}
layer {
  name: "conv1_1"
  type: "Convolution"
  bottom: "data"
  top: "conv1_1"
  param {
    lr_mult: 0
    decay_mult: 0
  }
  param {
    lr_mult: 0
    decay_mult: 0
  }
  convolution_param {
    num_output: 64
    pad: 1
    kernel_size: 3
  }
}
layer {
  name: "relu1_1"
  type: "ReLU"
  bottom: "conv1_1"
  top: "conv1_1"
}
layer {
  name: "conv1_2"
  type: "Convolution"
  bottom: "conv1_1"
  top: "conv1_2"
  param {
    lr_mult: 0
    decay_mult: 0
  }
  param {
    lr_mult: 0
    decay_mult: 0
  }
  convolution_param {
    num_output: 64
    pad: 1
    kernel_size: 3
  }
}
layer {
  name: "relu1_2"
  type: "ReLU"
  bottom: "conv1_2"
  top: "conv1_2"
}
layer {
  name: "pool1"
  type: "Pooling"
  bottom: "conv1_2"
  top: "pool1"
  pooling_param {
    pool: MAX
    kernel_size: 2
    stride: 2
  }
}
layer {
  name: "conv2_1"
  type: "Convolution"
  bottom: "pool1"
  top: "conv2_1"
  param {
    lr_mult: 0
    decay_mult: 0
  }
  param {
    lr_mult: 0
    decay_mult: 0
  }
  convolution_param {
    num_output: 128
    pad: 1
    kernel_size: 3
  }
}
layer {
  name: "relu2_1"
  type: "ReLU"
  bottom: "conv2_1"
  top: "conv2_1"
}
layer {
  name: "conv2_2"
  type: "Convolution"
  bottom: "conv2_1"
  top: "conv2_2"
  param {
    lr_mult: 0
    decay_mult: 0
  }
  param {
    lr_mult: 0
    decay_mult: 0
  }
  convolution_param {
    num_output: 128
    pad: 1
    kernel_size: 3
  }
}
layer {
  name: "relu2_2"
  type: "ReLU"
  bottom: "conv2_2"
  top: "conv2_2"
}
layer {
  name: "pool2"
  type: "Pooling"
  bottom: "conv2_2"
  top: "pool2"
  pooling_param {
    pool: MAX
    kernel_size: 2
    stride: 2
  }
}
layer {
  name: "conv3_1"
  type: "Convolution"
  bottom: "pool2"
  top: "conv3_1"
  convolution_param {
    num_output: 256
    pad: 1
    kernel_size: 3
  }
}
layer {
  name: "relu3_1"
  type: "ReLU"
  bottom: "conv3_1"
  top: "conv3_1"
}
layer {
  name: "conv3_2"
  type: "Convolution"
  bottom: "conv3_1"
  top: "conv3_2"
  convolution_param {
    num_output: 256
    pad: 1
    kernel_size: 3
  }
}
layer {
  name: "relu3_2"
  type: "ReLU"
  bottom: "conv3_2"
  top: "conv3_2"
}
layer {
  name: "conv3_3"
  type: "Convolution"
  bottom: "conv3_2"
  top: "conv3_3"
  convolution_param {
    num_output: 256
    pad: 1
    kernel_size: 3
  }
}
layer {
  name: "relu3_3"
  type: "ReLU"
  bottom: "conv3_3"
  top: "conv3_3"
}
layer {
  name: "pool3"
  type: "Pooling"
  bottom: "conv3_3"
  top: "pool3"
  pooling_param {
    pool: MAX
    kernel_size: 2
    stride: 2
  }
}
layer {
  name: "conv4_1"
  type: "Convolution"
  bottom: "pool3"
  top: "conv4_1"
  convolution_param {
    num_output: 512
    pad: 1
    kernel_size: 3
  }
}
layer {
  name: "relu4_1"
  type: "ReLU"
  bottom: "conv4_1"
  top: "conv4_1"
}
layer {
  name: "conv4_2"
  type: "Convolution"
  bottom: "conv4_1"
  top: "conv4_2"
  convolution_param {
    num_output: 512
    pad: 1
    kernel_size: 3
  }
}
layer {
  name: "relu4_2"
  type: "ReLU"
  bottom: "conv4_2"
  top: "conv4_2"
}
layer {
  name: "conv4_3"
  type: "Convolution"
  bottom: "conv4_2"
  top: "conv4_3"
  convolution_param {
    num_output: 512
    pad: 1
    kernel_size: 3
  }
}
layer {
  name: "relu4_3"
  type: "ReLU"
  bottom: "conv4_3"
  top: "conv4_3"
}
layer {
  name: "loss1_conv1"
  type: "Convolution"
  bottom: "conv4_3"
  top: "loss1_conv1"
  param {
    lr_mult: 1
    decay_mult: 1
  }
  param {
    lr_mult: 2
    decay_mult: 0
  }
  convolution_param {
    num_output: 512
    pad: 1
    kernel_size: 3
    weight_filler {
      type: "gaussian"
      std: 0.01
    }
    bias_filler {
      type: "constant"
    }
  }
}
layer {
  name: "loss_relu1"
  type: "ReLU"
  bottom: "loss1_conv1"
  top: "loss1_conv1"
}
layer {
  name: "LFCN_1_3x5"
  type: "Convolution"
  bottom: "loss1_conv1"
  top: "LFCN_1_3x5"
  param {
    lr_mult: 1
    decay_mult: 1
  }
  param {
    lr_mult: 2
    decay_mult: 0
  }
  convolution_param {
    num_output: 7
    weight_filler {
      type: "gaussian"
      std: 0.001
    }
    bias_filler {
      type: "constant"
    }
    pad_h: 2
    pad_w: 1
    kernel_h: 5
    kernel_w: 3
  }
}
layer {
  name: "detection_loss_1_3x5"
  type: "DetectionLoss"
  bottom: "LFCN_1_3x5"
  bottom: "label_1_3x5"
  top: "loss_1_3x5"
  loss_weight: 0.5
  detection_loss_param {
    cls_num: 3
    coord_num: 4
    lambda: 1
    field_h: 60
    field_w: 40
    downsample_rate: 8
    bb_smooth: true
    field_whr: 2
    field_xyr: 2
    bg_threshold: 0.2
    bg_multiple: 2
    sample_mode: "bootstrap"
    pos_neg_weighted: true
  }
}
layer {
  name: "detection_accuracy_1_3x5"
  type: "DetectionAccuracy"
  bottom: "LFCN_1_3x5"
  bottom: "label_1_3x5"
  top: "accuracy_1_3x5"
  top: "boxiou_1_3x5"
  detection_accuracy_param {
    cls_num: 3
    coord_num: 4
    field_h: 60
    field_w: 40
    downsample_rate: 8
    field_whr: 2
    field_xyr: 2
  }
}
layer {
  name: "LFCN_1_5x7"
  type: "Convolution"
  bottom: "loss1_conv1"
  top: "LFCN_1_5x7"
  param {
    lr_mult: 1
    decay_mult: 1
  }
  param {
    lr_mult: 2
    decay_mult: 0
  }
  convolution_param {
    num_output: 7
    weight_filler {
      type: "gaussian"
      std: 0.001
    }
    bias_filler {
      type: "constant"
    }
    pad_h: 3
    pad_w: 2
    kernel_h: 7
    kernel_w: 5
  }
}
layer {
  name: "detection_loss_1_5x7"
  type: "DetectionLoss"
  bottom: "LFCN_1_5x7"
  bottom: "label_1_5x7"
  top: "loss_1_5x7"
  loss_weight: 0.9
  detection_loss_param {
    cls_num: 3
    coord_num: 4
    lambda: 1
    field_h: 84
    field_w: 56
    downsample_rate: 8
    bb_smooth: true
    field_whr: 2
    field_xyr: 2
    bg_threshold: 0.2
    bg_multiple: 2
    sample_mode: "bootstrap"
    pos_neg_weighted: true
  }
}
layer {
  name: "detection_accuracy_1_5x7"
  type: "DetectionAccuracy"
  bottom: "LFCN_1_5x7"
  bottom: "label_1_5x7"
  top: "accuracy_1_5x7"
  top: "boxiou_1_5x7"
  detection_accuracy_param {
    cls_num: 3
    coord_num: 4
    field_h: 84
    field_w: 56
    downsample_rate: 8
    field_whr: 2
    field_xyr: 2
  }
}
layer {
  name: "pool4"
  type: "Pooling"
  bottom: "conv4_3"
  top: "pool4"
  pooling_param {
    pool: MAX
    kernel_size: 2
    stride: 2
  }
}
layer {
  name: "conv5_1"
  type: "Convolution"
  bottom: "pool4"
  top: "conv5_1"
  convolution_param {
    num_output: 512
    pad: 1
    kernel_size: 3
  }
}
layer {
  name: "relu5_1"
  type: "ReLU"
  bottom: "conv5_1"
  top: "conv5_1"
}
layer {
  name: "conv5_2"
  type: "Convolution"
  bottom: "conv5_1"
  top: "conv5_2"
  convolution_param {
    num_output: 512
    pad: 1
    kernel_size: 3
  }
}
layer {
  name: "relu5_2"
  type: "ReLU"
  bottom: "conv5_2"
  top: "conv5_2"
}
layer {
  name: "conv5_3"
  type: "Convolution"
  bottom: "conv5_2"
  top: "conv5_3"
  convolution_param {
    num_output: 512
    pad: 1
    kernel_size: 3
  }
}
layer {
  name: "relu5_3"
  type: "ReLU"
  bottom: "conv5_3"
  top: "conv5_3"
}
layer {
  name: "LFCN_2_3x5"
  type: "Convolution"
  bottom: "conv5_3"
  top: "LFCN_2_3x5"
  param {
    lr_mult: 1
    decay_mult: 1
  }
  param {
    lr_mult: 2
    decay_mult: 0
  }
  convolution_param {
    num_output: 7
    weight_filler {
      type: "gaussian"
      std: 0.001
    }
    bias_filler {
      type: "constant"
    }
    pad_h: 2
    pad_w: 1
    kernel_h: 5
    kernel_w: 3
  }
}
layer {
  name: "detection_loss_2_3x5"
  type: "DetectionLoss"
  bottom: "LFCN_2_3x5"
  bottom: "label_2_3x5"
  top: "loss_2_3x5"
  detection_loss_param {
    cls_num: 3
    coord_num: 4
    lambda: 1
    field_h: 120
    field_w: 80
    downsample_rate: 16
    bb_smooth: true
    field_whr: 2
    field_xyr: 2
    bg_threshold: 0.2
    bg_multiple: 2
    sample_mode: "bootstrap"
    pos_neg_weighted: true
  }
}
layer {
  name: "detection_accuracy_2_3x5"
  type: "DetectionAccuracy"
  bottom: "LFCN_2_3x5"
  bottom: "label_2_3x5"
  top: "accuracy_2_3x5"
  top: "boxiou_2_3x5"
  detection_accuracy_param {
    cls_num: 3
    coord_num: 4
    field_h: 120
    field_w: 80
    downsample_rate: 16
    field_whr: 2
    field_xyr: 2
  }
}
layer {
  name: "LFCN_2_5x7"
  type: "Convolution"
  bottom: "conv5_3"
  top: "LFCN_2_5x7"
  param {
    lr_mult: 1
    decay_mult: 1
  }
  param {
    lr_mult: 2
    decay_mult: 0
  }
  convolution_param {
    num_output: 7
    weight_filler {
      type: "gaussian"
      std: 0.001
    }
    bias_filler {
      type: "constant"
    }
    pad_h: 3
    pad_w: 2
    kernel_h: 7
    kernel_w: 5
  }
}
layer {
  name: "detection_loss_2_5x7"
  type: "DetectionLoss"
  bottom: "LFCN_2_5x7"
  bottom: "label_2_5x7"
  top: "loss_2_5x7"
  detection_loss_param {
    cls_num: 3
    coord_num: 4
    lambda: 1
    field_h: 168
    field_w: 112
    downsample_rate: 16
    bb_smooth: true
    field_whr: 2
    field_xyr: 2
    bg_threshold: 0.2
    bg_multiple: 2
    sample_mode: "bootstrap"
    pos_neg_weighted: true
  }
}
layer {
  name: "detection_accuracy_2_5x7"
  type: "DetectionAccuracy"
  bottom: "LFCN_2_5x7"
  bottom: "label_2_5x7"
  top: "accuracy_2_5x7"
  top: "boxiou_2_5x7"
  detection_accuracy_param {
    cls_num: 3
    coord_num: 4
    field_h: 168
    field_w: 112
    downsample_rate: 16
    field_whr: 2
    field_xyr: 2
  }
}
layer {
  name: "pool5"
  type: "Pooling"
  bottom: "conv5_3"
  top: "pool5"
  pooling_param {
    pool: MAX
    kernel_size: 2
    stride: 2
  }
}
layer {
  name: "conv6_1"
  type: "Convolution"
  bottom: "pool5"
  top: "conv6_1"
  param {
    lr_mult: 1
    decay_mult: 1
  }
  param {
    lr_mult: 2
    decay_mult: 0
  }
  convolution_param {
    num_output: 512
    pad: 1
    kernel_size: 3
    weight_filler {
      type: "gaussian"
      std: 0.01
    }
    bias_filler {
      type: "constant"
    }
  }
}
layer {
  name: "relu6_1"
  type: "ReLU"
  bottom: "conv6_1"
  top: "conv6_1"
}
layer {
  name: "LFCN_3_3x5"
  type: "Convolution"
  bottom: "conv6_1"
  top: "LFCN_3_3x5"
  param {
    lr_mult: 1
    decay_mult: 1
  }
  param {
    lr_mult: 2
    decay_mult: 0
  }
  convolution_param {
    num_output: 7
    weight_filler {
      type: "gaussian"
      std: 0.001
    }
    bias_filler {
      type: "constant"
    }
    pad_h: 2
    pad_w: 1
    kernel_h: 5
    kernel_w: 3
  }
}
layer {
  name: "detection_loss_3_3x5"
  type: "DetectionLoss"
  bottom: "LFCN_3_3x5"
  bottom: "label_3_3x5"
  top: "loss_3_3x5"
  detection_loss_param {
    cls_num: 3
    coord_num: 4
    lambda: 1
    field_h: 240
    field_w: 160
    downsample_rate: 32
    bb_smooth: true
    field_whr: 2
    field_xyr: 2
    bg_threshold: 0.2
    bg_multiple: 2
    sample_mode: "bootstrap"
    pos_neg_weighted: true
  }
}
layer {
  name: "detection_accuracy_3_3x5"
  type: "DetectionAccuracy"
  bottom: "LFCN_3_3x5"
  bottom: "label_3_3x5"
  top: "accuracy_3_3x5"
  top: "boxiou_3_3x5"
  detection_accuracy_param {
    cls_num: 3
    coord_num: 4
    field_h: 240
    field_w: 160
    downsample_rate: 32
    field_whr: 2
    field_xyr: 2
  }
}
layer {
  name: "LFCN_3_5x7"
  type: "Convolution"
  bottom: "conv6_1"
  top: "LFCN_3_5x7"
  param {
    lr_mult: 1
    decay_mult: 1
  }
  param {
    lr_mult: 2
    decay_mult: 0
  }
  convolution_param {
    num_output: 7
    weight_filler {
      type: "gaussian"
      std: 0.001
    }
    bias_filler {
      type: "constant"
    }
    pad_h: 3
    pad_w: 2
    kernel_h: 7
    kernel_w: 5
  }
}
layer {
  name: "detection_loss_3_5x7"
  type: "DetectionLoss"
  bottom: "LFCN_3_5x7"
  bottom: "label_3_5x7"
  top: "loss_3_5x7"
  detection_loss_param {
    cls_num: 3
    coord_num: 4
    lambda: 1
    field_h: 336
    field_w: 224
    downsample_rate: 32
    bb_smooth: true
    field_whr: 2
    field_xyr: 2
    bg_threshold: 0.2
    bg_multiple: 2
    sample_mode: "bootstrap"
    pos_neg_weighted: true
  }
}
layer {
  name: "detection_accuracy_3_5x7"
  type: "DetectionAccuracy"
  bottom: "LFCN_3_5x7"
  bottom: "label_3_5x7"
  top: "accuracy_3_5x7"
  top: "boxiou_3_5x7"
  detection_accuracy_param {
    cls_num: 3
    coord_num: 4
    field_h: 336
    field_w: 224
    downsample_rate: 32
    field_whr: 2
    field_xyr: 2
  }
}
layer {
  name: "pool6"
  type: "Pooling"
  bottom: "conv6_1"
  top: "pool6"
  pooling_param {
    pool: MAX
    kernel_size: 2
    stride: 2
  }
}
layer {
  name: "LFCN_4_3x5"
  type: "Convolution"
  bottom: "pool6"
  top: "LFCN_4_3x5"
  param {
    lr_mult: 1
    decay_mult: 1
  }
  param {
    lr_mult: 2
    decay_mult: 0
  }
  convolution_param {
    num_output: 7
    weight_filler {
      type: "gaussian"
      std: 0.001
    }
    bias_filler {
      type: "constant"
    }
    pad_h: 2
    pad_w: 1
    kernel_h: 5
    kernel_w: 3
  }
}
layer {
  name: "detection_loss_4_3x5"
  type: "DetectionLoss"
  bottom: "LFCN_4_3x5"
  bottom: "label_4_3x5"
  top: "loss_4_3x5"
  detection_loss_param {
    cls_num: 3
    coord_num: 4
    lambda: 1
    field_h: 480
    field_w: 320
    downsample_rate: 64
    bb_smooth: true
    field_whr: 2
    field_xyr: 2
    bg_threshold: 0.2
    bg_multiple: 2
    sample_mode: "bootstrap"
    pos_neg_weighted: true
  }
}
layer {
  name: "detection_accuracy_4_3x5"
  type: "DetectionAccuracy"
  bottom: "LFCN_4_3x5"
  bottom: "label_4_3x5"
  top: "accuracy_4_3x5"
  top: "boxiou_4_3x5"
  detection_accuracy_param {
    cls_num: 3
    coord_num: 4
    field_h: 480
    field_w: 320
    downsample_rate: 64
    field_whr: 2
    field_xyr: 2
  }
}
layer {
  name: "proposals"
  type: "BoxOutput"
  bottom: "LFCN_1_3x5"
  bottom: "LFCN_1_5x7"
  bottom: "LFCN_2_3x5"
  bottom: "LFCN_2_5x7"
  bottom: "LFCN_3_3x5"
  bottom: "LFCN_3_5x7"
  bottom: "LFCN_4_3x5"
  top: "proposals"
  propagate_down: false
  propagate_down: false
  propagate_down: false
  propagate_down: false
  propagate_down: false
  propagate_down: false
  propagate_down: false
  box_output_param {
    fg_thr: -15
    iou_thr: 0.65
    nms_type: "IOU"
    field_h: 60
    field_h: 84
    field_h: 120
    field_h: 168
    field_h: 240
    field_h: 336
    field_h: 480
    field_w: 40
    field_w: 56
    field_w: 80
    field_w: 112
    field_w: 160
    field_w: 224
    field_w: 320
    downsample_rate: 8
    downsample_rate: 8
    downsample_rate: 16
    downsample_rate: 16
    downsample_rate: 32
    downsample_rate: 32
    downsample_rate: 64
    field_whr: 2
    field_xyr: 2
    max_nms_num: 3000
  }
}
layer {
  name: "proposal_info"
  type: "ProposalTarget"
  bottom: "proposals"
  bottom: "gt_boxes"
  top: "rois"
  top: "proposal_labels"
  top: "proposal_targets"
  top: "box_inside_weights"
  top: "box_outside_weights"
  top: "match_gt_boxes"
  include {
    phase: TRAIN
  }
  propagate_down: false
  propagate_down: false
  proposal_target_param {
    cls_num: 3
    batch_size: 128
    fg_fraction: 0.25
    num_img_per_batch: 4
    fg_thr: 0.5
    bg_thr_hg: 0.45
    bg_thr_lw: 0.05
    img_width: 768
    img_height: 576
  }
  bbox_reg_param {
    bbox_mean: 0
    bbox_mean: 0
    bbox_mean: 0
    bbox_mean: 0
    bbox_std: 0.1
    bbox_std: 0.1
    bbox_std: 0.2
    bbox_std: 0.2
  }
}
layer {
  name: "conv4_3_2x"
  type: "Deconvolution"
  bottom: "conv4_3"
  top: "conv4_3_2x"
  param {
    lr_mult: 0
    decay_mult: 0
  }
  convolution_param {
    num_output: 512
    bias_term: false
    pad: 1
    kernel_size: 4
    group: 512
    stride: 2
    weight_filler {
      type: "bilinear"
    }
  }
}
layer {
  name: "roi_pool_org"
  type: "ROIPooling"
  bottom: "conv4_3_2x"
  bottom: "rois"
  top: "roi_pool_org"
  roi_pooling_param {
    pooled_h: 7
    pooled_w: 5
    spatial_scale: 0.25
    pad_ratio: 0
  }
}
layer {
  name: "roi_pool_ctx"
  type: "ROIPooling"
  bottom: "conv4_3_2x"
  bottom: "rois"
  top: "roi_pool_ctx"
  roi_pooling_param {
    pooled_h: 7
    pooled_w: 5
    spatial_scale: 0.25
    pad_ratio: 0.25
  }
}
layer {
  name: "roi_pool"
  type: "Concat"
  bottom: "roi_pool_org"
  bottom: "roi_pool_ctx"
  top: "roi_pool"
}
layer {
  name: "roi_c1"
  type: "Convolution"
  bottom: "roi_pool"
  top: "roi_c1"
  param {
    lr_mult: 1
    decay_mult: 1
  }
  param {
    lr_mult: 2
    decay_mult: 0
  }
  convolution_param {
    num_output: 512
    kernel_size: 3
    weight_filler {
      type: "gaussian"
      std: 0.01
    }
    bias_filler {
      type: "constant"
    }
  }
}
layer {
  name: "roi_c1_relu"
  type: "ReLU"
  bottom: "roi_c1"
  top: "roi_c1"
}
layer {
  name: "fc6"
  type: "InnerProduct"
  bottom: "roi_c1"
  top: "fc6"
  param {
    lr_mult: 1
  }
  param {
    lr_mult: 2
  }
  inner_product_param {
    num_output: 2048
    weight_filler {
      type: "gaussian"
      std: 0.001
    }
    bias_filler {
      type: "constant"
      value: 0
    }
  }
}
layer {
  name: "relu6"
  type: "ReLU"
  bottom: "fc6"
  top: "fc6"
}
layer {
  name: "drop6"
  type: "Dropout"
  bottom: "fc6"
  top: "fc6"
  dropout_param {
    dropout_ratio: 0.5
  }
}
layer {
  name: "cls_pred"
  type: "InnerProduct"
  bottom: "fc6"
  top: "cls_pred"
  param {
    lr_mult: 1
  }
  param {
    lr_mult: 2
  }
  inner_product_param {
    num_output: 3
    weight_filler {
      type: "gaussian"
      std: 0.01
    }
    bias_filler {
      type: "constant"
      value: 0
    }
  }
}
layer {
  name: "bbox_pred"
  type: "InnerProduct"
  bottom: "fc6"
  top: "bbox_pred"
  param {
    lr_mult: 1
  }
  param {
    lr_mult: 2
  }
  inner_product_param {
    num_output: 12
    weight_filler {
      type: "gaussian"
      std: 0.001
    }
    bias_filler {
      type: "constant"
      value: 0
    }
  }
}
layer {
  name: "loss_cls"
  type: "SoftmaxWithLoss"
  bottom: "cls_pred"
  bottom: "proposal_labels"
  top: "loss_cls"
  loss_weight: 1
  propagate_down: true
  propagate_down: false
}
layer {
  name: "cls_accuracy"
  type: "Accuracy"
  bottom: "cls_pred"
  bottom: "proposal_labels"
  top: "cls_accuracy"
}
layer {
  name: "loss_bbox"
  type: "SmoothL1Loss"
  bottom: "bbox_pred"
  bottom: "proposal_targets"
  bottom: "box_inside_weights"
  bottom: "box_outside_weights"
  top: "loss_bbox"
  loss_weight: 1
}
layer {
  name: "bbox_iou"
  type: "BboxAccuracy"
  bottom: "bbox_pred"
  bottom: "rois"
  bottom: "match_gt_boxes"
  top: "bbox_iou"
  top: "bbox_iou_pre"
  bbox_reg_param {
    bbox_mean: 0
    bbox_mean: 0
    bbox_mean: 0
    bbox_mean: 0
    bbox_std: 0.1
    bbox_std: 0.1
    bbox_std: 0.2
    bbox_std: 0.2
  }
}
I0628 15:54:29.599038 10004 layer_factory.hpp:77] Creating layer data
I0628 15:54:29.599066 10004 net.cpp:100] Creating Layer data
I0628 15:54:29.599073 10004 net.cpp:408] data -> data
…
I0628 15:54:29.628244 10004 image_gt_data_layer.cpp:241] output label size 3 : 4,6,36,48
I0628 15:54:29.628290 10004 image_gt_data_layer.cpp:241] output label size 4 : 4,6,18,24
I0628 15:54:29.628334 10004 image_gt_data_layer.cpp:241] output label size 5 : 4,6,18,24
I0628 15:54:29.628378 10004 image_gt_data_layer.cpp:241] output label size 6 : 4,6,9,12
I0628 15:54:29.628422 10004 image_gt_data_layer.cpp:256] output gt boxes size: 1,7,1,1
I0628 15:54:29.628427 10004 image_gt_data_layer.cpp:265]  --> has_mean_values_ = 1
I0628 15:54:29.664257 10004 net.cpp:150] Setting up data
I0628 15:54:29.664273 10004 net.cpp:157] Top shape: 4 4 576 768 (7077888)
I0628 15:54:29.664276 10004 net.cpp:157] Top shape: 4 6 72 96 (165888)
I0628 15:54:29.664279 10004 net.cpp:157] Top shape: 4 6 72 96 (165888)
I0628 15:54:29.664281 10004 net.cpp:157] Top shape: 4 6 36 48 (41472)
I0628 15:54:29.664284 10004 net.cpp:157] Top shape: 4 6 36 48 (41472)
I0628 15:54:29.664286 10004 net.cpp:157] Top shape: 4 6 18 24 (10368)
I0628 15:54:29.664289 10004 net.cpp:157] Top shape: 4 6 18 24 (10368)
I0628 15:54:29.664294 10004 net.cpp:157] Top shape: 4 6 9 12 (2592)
I0628 15:54:29.664297 10004 net.cpp:157] Top shape: 1 7 1 1 (7)
I0628 15:54:29.664299 10004 net.cpp:165] Memory required for data: 30063772
I0628 15:54:29.664307 10004 layer_factory.hpp:77] Creating layer label_1_3x5_data_1_split
I0628 15:54:29.664317 10004 net.cpp:100] Creating Layer label_1_3x5_data_1_split
I0628 15:54:29.664326 10004 net.cpp:434] label_1_3x5_data_1_split <- label_1_3x5
I0628 15:54:29.664338 10004 net.cpp:408] label_1_3x5_data_1_split -> label_1_3x5_data_1_split_0
I0628 15:54:29.664347 10004 net.cpp:408] label_1_3x5_data_1_split -> label_1_3x5_data_1_split_1
I0628 15:54:29.664396 10004 net.cpp:150] Setting up label_1_3x5_data_1_split
I0628 15:54:29.664402 10004 net.cpp:157] Top shape: 4 6 72 96 (165888)
I0628 15:54:29.664407 10004 net.cpp:157] Top shape: 4 6 72 96 (165888)
I0628 15:54:29.664409 10004 net.cpp:165] Memory required for data: 31390876
I0628 15:54:29.664412 10004 layer_factory.hpp:77] Creating layer label_1_5x7_data_2_split
I0628 15:54:29.664418 10004 net.cpp:100] Creating Layer label_1_5x7_data_2_split
I0628 15:54:29.664422 10004 net.cpp:434] label_1_5x7_data_2_split <- label_1_5x7
I0628 15:54:29.664427 10004 net.cpp:408] label_1_5x7_data_2_split -> label_1_5x7_data_2_split_0
I0628 15:54:29.664434 10004 net.cpp:408] label_1_5x7_data_2_split -> label_1_5x7_data_2_split_1
I0628 15:54:29.664466 10004 net.cpp:150] Setting up label_1_5x7_data_2_split
I0628 15:54:29.664472 10004 net.cpp:157] Top shape: 4 6 72 96 (165888)
I0628 15:54:29.664476 10004 net.cpp:157] Top shape: 4 6 72 96 (165888)
I0628 15:54:29.664479 10004 net.cpp:165] Memory required for data: 32717980
I0628 15:54:29.664482 10004 layer_factory.hpp:77] Creating layer label_2_3x5_data_3_split
I0628 15:54:29.664489 10004 net.cpp:100] Creating Layer label_2_3x5_data_3_split
I0628 15:54:29.664491 10004 net.cpp:434] label_2_3x5_data_3_split <- label_2_3x5
I0628 15:54:29.664496 10004 net.cpp:408] label_2_3x5_data_3_split -> label_2_3x5_data_3_split_0
I0628 15:54:29.664501 10004 net.cpp:408] label_2_3x5_data_3_split -> label_2_3x5_data_3_split_1
I0628 15:54:29.664533 10004 net.cpp:150] Setting up label_2_3x5_data_3_split
I0628 15:54:29.664539 10004 net.cpp:157] Top shape: 4 6 36 48 (41472)
I0628 15:54:29.664542 10004 net.cpp:157] Top shape: 4 6 36 48 (41472)
I0628 15:54:29.664546 10004 net.cpp:165] Memory required for data: 33049756
I0628 15:54:29.664548 10004 layer_factory.hpp:77] Creating layer label_2_5x7_data_4_split
I0628 15:54:29.664554 10004 net.cpp:100] Creating Layer label_2_5x7_data_4_split
I0628 15:54:29.664558 10004 net.cpp:434] label_2_5x7_data_4_split <- label_2_5x7
I0628 15:54:29.664563 10004 net.cpp:408] label_2_5x7_data_4_split -> label_2_5x7_data_4_split_0
I0628 15:54:29.664571 10004 net.cpp:408] label_2_5x7_data_4_split -> label_2_5x7_data_4_split_1
I0628 15:54:29.664603 10004 net.cpp:150] Setting up label_2_5x7_data_4_split
I0628 15:54:29.664609 10004 net.cpp:157] Top shape: 4 6 36 48 (41472)
I0628 15:54:29.664613 10004 net.cpp:157] Top shape: 4 6 36 48 (41472)
I0628 15:54:29.664616 10004 net.cpp:165] Memory required for data: 33381532
I0628 15:54:29.664619 10004 layer_factory.hpp:77] Creating layer label_3_3x5_data_5_split
I0628 15:54:29.664623 10004 net.cpp:100] Creating Layer label_3_3x5_data_5_split
I0628 15:54:29.664626 10004 net.cpp:434] label_3_3x5_data_5_split <- label_3_3x5
I0628 15:54:29.664633 10004 net.cpp:408] label_3_3x5_data_5_split -> label_3_3x5_data_5_split_0
I0628 15:54:29.664638 10004 net.cpp:408] label_3_3x5_data_5_split -> label_3_3x5_data_5_split_1
I0628 15:54:29.664667 10004 net.cpp:150] Setting up label_3_3x5_data_5_split
I0628 15:54:29.664672 10004 net.cpp:157] Top shape: 4 6 18 24 (10368)
I0628 15:54:29.664675 10004 net.cpp:157] Top shape: 4 6 18 24 (10368)
I0628 15:54:29.664678 10004 net.cpp:165] Memory required for data: 33464476
I0628 15:54:29.664681 10004 layer_factory.hpp:77] Creating layer label_3_5x7_data_6_split
I0628 15:54:29.664685 10004 net.cpp:100] Creating Layer label_3_5x7_data_6_split
I0628 15:54:29.664687 10004 net.cpp:434] label_3_5x7_data_6_split <- label_3_5x7
I0628 15:54:29.664692 10004 net.cpp:408] label_3_5x7_data_6_split -> label_3_5x7_data_6_split_0
I0628 15:54:29.664697 10004 net.cpp:408] label_3_5x7_data_6_split -> label_3_5x7_data_6_split_1
I0628 15:54:29.664727 10004 net.cpp:150] Setting up label_3_5x7_data_6_split
I0628 15:54:29.664732 10004 net.cpp:157] Top shape: 4 6 18 24 (10368)
I0628 15:54:29.664736 10004 net.cpp:157] Top shape: 4 6 18 24 (10368)
I0628 15:54:29.664739 10004 net.cpp:165] Memory required for data: 33547420
I0628 15:54:29.664742 10004 layer_factory.hpp:77] Creating layer label_4_3x5_data_7_split
I0628 15:54:29.664746 10004 net.cpp:100] Creating Layer label_4_3x5_data_7_split
I0628 15:54:29.664749 10004 net.cpp:434] label_4_3x5_data_7_split <- label_4_3x5
I0628 15:54:29.664755 10004 net.cpp:408] label_4_3x5_data_7_split -> label_4_3x5_data_7_split_0
I0628 15:54:29.664762 10004 net.cpp:408] label_4_3x5_data_7_split -> label_4_3x5_data_7_split_1
I0628 15:54:29.664793 10004 net.cpp:150] Setting up label_4_3x5_data_7_split
I0628 15:54:29.664799 10004 net.cpp:157] Top shape: 4 6 9 12 (2592)
I0628 15:54:29.664803 10004 net.cpp:157] Top shape: 4 6 9 12 (2592)
I0628 15:54:29.664805 10004 net.cpp:165] Memory required for data: 33568156
I0628 15:54:29.664808 10004 layer_factory.hpp:77] Creating layer conv1_1
I0628 15:54:29.664820 10004 net.cpp:100] Creating Layer conv1_1
I0628 15:54:29.664824 10004 net.cpp:434] conv1_1 <- data
I0628 15:54:29.664831 10004 net.cpp:408] conv1_1 -> conv1_1
I0628 15:54:30.199144 10004 net.cpp:150] Setting up conv1_1
I0628 15:54:30.199164 10004 net.cpp:157] Top shape: 4 64 576 768 (113246208)
I0628 15:54:30.199167 10004 net.cpp:165] Memory required for data: 486552988
I0628 15:54:30.199184 10004 layer_factory.hpp:77] Creating layer relu1_1
I0628 15:54:30.199194 10004 net.cpp:100] Creating Layer relu1_1
I0628 15:54:30.199198 10004 net.cpp:434] relu1_1 <- conv1_1
I0628 15:54:30.199201 10004 net.cpp:395] relu1_1 -> conv1_1 (in-place)
I0628 15:54:30.199527 10004 net.cpp:150] Setting up relu1_1
I0628 15:54:30.199534 10004 net.cpp:157] Top shape: 4 64 576 768 (113246208)
I0628 15:54:30.199537 10004 net.cpp:165] Memory required for data: 939537820
I0628 15:54:30.199539 10004 layer_factory.hpp:77] Creating layer conv1_2
I0628 15:54:30.199546 10004 net.cpp:100] Creating Layer conv1_2
I0628 15:54:30.199549 10004 net.cpp:434] conv1_2 <- conv1_1
I0628 15:54:30.199553 10004 net.cpp:408] conv1_2 -> conv1_2
I0628 15:54:30.202459 10004 net.cpp:150] Setting up conv1_2
I0628 15:54:30.202478 10004 net.cpp:157] Top shape: 4 64 576 768 (113246208)
I0628 15:54:30.202481 10004 net.cpp:165] Memory required for data: 1392522652
I0628 15:54:30.202491 10004 layer_factory.hpp:77] Creating layer relu1_2
I0628 15:54:30.202497 10004 net.cpp:100] Creating Layer relu1_2
I0628 15:54:30.202500 10004 net.cpp:434] relu1_2 <- conv1_2
I0628 15:54:30.202507 10004 net.cpp:395] relu1_2 -> conv1_2 (in-place)
I0628 15:54:30.202811 10004 net.cpp:150] Setting up relu1_2
I0628 15:54:30.202818 10004 net.cpp:157] Top shape: 4 64 576 768 (113246208)
I0628 15:54:30.202821 10004 net.cpp:165] Memory required for data: 1845507484
I0628 15:54:30.202822 10004 layer_factory.hpp:77] Creating layer pool1
I0628 15:54:30.202827 10004 net.cpp:100] Creating Layer pool1
I0628 15:54:30.202831 10004 net.cpp:434] pool1 <- conv1_2
I0628 15:54:30.202833 10004 net.cpp:408] pool1 -> pool1
I0628 15:54:30.202886 10004 net.cpp:150] Setting up pool1
I0628 15:54:30.202891 10004 net.cpp:157] Top shape: 4 64 288 384 (28311552)
I0628 15:54:30.202893 10004 net.cpp:165] Memory required for data: 1958753692
I0628 15:54:30.202895 10004 layer_factory.hpp:77] Creating layer conv2_1
I0628 15:54:30.202903 10004 net.cpp:100] Creating Layer conv2_1
I0628 15:54:30.202906 10004 net.cpp:434] conv2_1 <- pool1
I0628 15:54:30.202910 10004 net.cpp:408] conv2_1 -> conv2_1
I0628 15:54:30.205374 10004 net.cpp:150] Setting up conv2_1
I0628 15:54:30.205394 10004 net.cpp:157] Top shape: 4 128 288 384 (56623104)
I0628 15:54:30.205395 10004 net.cpp:165] Memory required for data: 2185246108
I0628 15:54:30.205413 10004 layer_factory.hpp:77] Creating layer relu2_1
I0628 15:54:30.205423 10004 net.cpp:100] Creating Layer relu2_1
I0628 15:54:30.205427 10004 net.cpp:434] relu2_1 <- conv2_1
I0628 15:54:30.205435 10004 net.cpp:395] relu2_1 -> conv2_1 (in-place)
I0628 15:54:30.206073 10004 net.cpp:150] Setting up relu2_1
I0628 15:54:30.206080 10004 net.cpp:157] Top shape: 4 128 288 384 (56623104)
I0628 15:54:30.206082 10004 net.cpp:165] Memory required for data: 2411738524
I0628 15:54:30.206085 10004 layer_factory.hpp:77] Creating layer conv2_2
I0628 15:54:30.206092 10004 net.cpp:100] Creating Layer conv2_2
I0628 15:54:30.206094 10004 net.cpp:434] conv2_2 <- conv2_1
I0628 15:54:30.206099 10004 net.cpp:408] conv2_2 -> conv2_2
I0628 15:54:30.207805 10004 net.cpp:150] Setting up conv2_2
I0628 15:54:30.207819 10004 net.cpp:157] Top shape: 4 128 288 384 (56623104)
I0628 15:54:30.207821 10004 net.cpp:165] Memory required for data: 2638230940
I0628 15:54:30.207828 10004 layer_factory.hpp:77] Creating layer relu2_2
I0628 15:54:30.207835 10004 net.cpp:100] Creating Layer relu2_2
I0628 15:54:30.207839 10004 net.cpp:434] relu2_2 <- conv2_2
I0628 15:54:30.207844 10004 net.cpp:395] relu2_2 -> conv2_2 (in-place)
I0628 15:54:30.208444 10004 net.cpp:150] Setting up relu2_2
I0628 15:54:30.208454 10004 net.cpp:157] Top shape: 4 128 288 384 (56623104)
I0628 15:54:30.208456 10004 net.cpp:165] Memory required for data: 2864723356
I0628 15:54:30.208458 10004 layer_factory.hpp:77] Creating layer pool2
I0628 15:54:30.208464 10004 net.cpp:100] Creating Layer pool2
I0628 15:54:30.208467 10004 net.cpp:434] pool2 <- conv2_2
I0628 15:54:30.208470 10004 net.cpp:408] pool2 -> pool2
I0628 15:54:30.208509 10004 net.cpp:150] Setting up pool2
I0628 15:54:30.208513 10004 net.cpp:157] Top shape: 4 128 144 192 (14155776)
I0628 15:54:30.208515 10004 net.cpp:165] Memory required for data: 2921346460
I0628 15:54:30.208518 10004 layer_factory.hpp:77] Creating layer conv3_1
I0628 15:54:30.208524 10004 net.cpp:100] Creating Layer conv3_1
I0628 15:54:30.208528 10004 net.cpp:434] conv3_1 <- pool2
I0628 15:54:30.208534 10004 net.cpp:408] conv3_1 -> conv3_1
I0628 15:54:30.211145 10004 net.cpp:150] Setting up conv3_1
I0628 15:54:30.211164 10004 net.cpp:157] Top shape: 4 256 144 192 (28311552)
I0628 15:54:30.211166 10004 net.cpp:165] Memory required for data: 3034592668
I0628 15:54:30.211176 10004 layer_factory.hpp:77] Creating layer relu3_1
I0628 15:54:30.211182 10004 net.cpp:100] Creating Layer relu3_1
I0628 15:54:30.211185 10004 net.cpp:434] relu3_1 <- conv3_1
I0628 15:54:30.211191 10004 net.cpp:395] relu3_1 -> conv3_1 (in-place)
I0628 15:54:30.211436 10004 net.cpp:150] Setting up relu3_1
I0628 15:54:30.211446 10004 net.cpp:157] Top shape: 4 256 144 192 (28311552)
I0628 15:54:30.211447 10004 net.cpp:165] Memory required for data: 3147838876
I0628 15:54:30.211452 10004 layer_factory.hpp:77] Creating layer conv3_2
I0628 15:54:30.211459 10004 net.cpp:100] Creating Layer conv3_2
I0628 15:54:30.211462 10004 net.cpp:434] conv3_2 <- conv3_1
I0628 15:54:30.211468 10004 net.cpp:408] conv3_2 -> conv3_2
I0628 15:54:30.215215 10004 net.cpp:150] Setting up conv3_2
I0628 15:54:30.215235 10004 net.cpp:157] Top shape: 4 256 144 192 (28311552)
I0628 15:54:30.215239 10004 net.cpp:165] Memory required for data: 3261085084
I0628 15:54:30.215248 10004 layer_factory.hpp:77] Creating layer relu3_2
I0628 15:54:30.215257 10004 net.cpp:100] Creating Layer relu3_2
I0628 15:54:30.215261 10004 net.cpp:434] relu3_2 <- conv3_2
I0628 15:54:30.215270 10004 net.cpp:395] relu3_2 -> conv3_2 (in-place)
I0628 15:54:30.215520 10004 net.cpp:150] Setting up relu3_2
I0628 15:54:30.215530 10004 net.cpp:157] Top shape: 4 256 144 192 (28311552)
I0628 15:54:30.215533 10004 net.cpp:165] Memory required for data: 3374331292
I0628 15:54:30.215536 10004 layer_factory.hpp:77] Creating layer conv3_3
I0628 15:54:30.215545 10004 net.cpp:100] Creating Layer conv3_3
I0628 15:54:30.215550 10004 net.cpp:434] conv3_3 <- conv3_2
I0628 15:54:30.215555 10004 net.cpp:408] conv3_3 -> conv3_3
I0628 15:54:30.218488 10004 net.cpp:150] Setting up conv3_3
I0628 15:54:30.218508 10004 net.cpp:157] Top shape: 4 256 144 192 (28311552)
I0628 15:54:30.218510 10004 net.cpp:165] Memory required for data: 3487577500
I0628 15:54:30.218520 10004 layer_factory.hpp:77] Creating layer relu3_3
I0628 15:54:30.218529 10004 net.cpp:100] Creating Layer relu3_3
I0628 15:54:30.218533 10004 net.cpp:434] relu3_3 <- conv3_3
I0628 15:54:30.218539 10004 net.cpp:395] relu3_3 -> conv3_3 (in-place)
I0628 15:54:30.219158 10004 net.cpp:150] Setting up relu3_3
I0628 15:54:30.219167 10004 net.cpp:157] Top shape: 4 256 144 192 (28311552)
I0628 15:54:30.219171 10004 net.cpp:165] Memory required for data: 3600823708
I0628 15:54:30.219174 10004 layer_factory.hpp:77] Creating layer pool3
I0628 15:54:30.219182 10004 net.cpp:100] Creating Layer pool3
I0628 15:54:30.219187 10004 net.cpp:434] pool3 <- conv3_3
I0628 15:54:30.219192 10004 net.cpp:408] pool3 -> pool3
I0628 15:54:30.219239 10004 net.cpp:150] Setting up pool3
I0628 15:54:30.219245 10004 net.cpp:157] Top shape: 4 256 72 96 (7077888)
I0628 15:54:30.219249 10004 net.cpp:165] Memory required for data: 3629135260
I0628 15:54:30.219251 10004 layer_factory.hpp:77] Creating layer conv4_1
I0628 15:54:30.219259 10004 net.cpp:100] Creating Layer conv4_1
I0628 15:54:30.219264 10004 net.cpp:434] conv4_1 <- pool3
I0628 15:54:30.219269 10004 net.cpp:408] conv4_1 -> conv4_1
I0628 15:54:30.223911 10004 net.cpp:150] Setting up conv4_1
I0628 15:54:30.223932 10004 net.cpp:157] Top shape: 4 512 72 96 (14155776)
I0628 15:54:30.223934 10004 net.cpp:165] Memory required for data: 3685758364
I0628 15:54:30.223943 10004 layer_factory.hpp:77] Creating layer relu4_1
I0628 15:54:30.223953 10004 net.cpp:100] Creating Layer relu4_1
I0628 15:54:30.223958 10004 net.cpp:434] relu4_1 <- conv4_1
I0628 15:54:30.223963 10004 net.cpp:395] relu4_1 -> conv4_1 (in-place)
I0628 15:54:30.224210 10004 net.cpp:150] Setting up relu4_1
I0628 15:54:30.224221 10004 net.cpp:157] Top shape: 4 512 72 96 (14155776)
I0628 15:54:30.224225 10004 net.cpp:165] Memory required for data: 3742381468
I0628 15:54:30.224226 10004 layer_factory.hpp:77] Creating layer conv4_2
I0628 15:54:30.224233 10004 net.cpp:100] Creating Layer conv4_2
I0628 15:54:30.224236 10004 net.cpp:434] conv4_2 <- conv4_1
I0628 15:54:30.224239 10004 net.cpp:408] conv4_2 -> conv4_2
I0628 15:54:30.229946 10004 net.cpp:150] Setting up conv4_2
I0628 15:54:30.229964 10004 net.cpp:157] Top shape: 4 512 72 96 (14155776)
I0628 15:54:30.229966 10004 net.cpp:165] Memory required for data: 3799004572
I0628 15:54:30.229977 10004 layer_factory.hpp:77] Creating layer relu4_2
I0628 15:54:30.229984 10004 net.cpp:100] Creating Layer relu4_2
I0628 15:54:30.229986 10004 net.cpp:434] relu4_2 <- conv4_2
I0628 15:54:30.229991 10004 net.cpp:395] relu4_2 -> conv4_2 (in-place)
I0628 15:54:30.230281 10004 net.cpp:150] Setting up relu4_2
I0628 15:54:30.230289 10004 net.cpp:157] Top shape: 4 512 72 96 (14155776)
I0628 15:54:30.230293 10004 net.cpp:165] Memory required for data: 3855627676
I0628 15:54:30.230296 10004 layer_factory.hpp:77] Creating layer conv4_3
I0628 15:54:30.230304 10004 net.cpp:100] Creating Layer conv4_3
I0628 15:54:30.230309 10004 net.cpp:434] conv4_3 <- conv4_2
I0628 15:54:30.230314 10004 net.cpp:408] conv4_3 -> conv4_3
I0628 15:54:30.235735 10004 net.cpp:150] Setting up conv4_3
I0628 15:54:30.235755 10004 net.cpp:157] Top shape: 4 512 72 96 (14155776)
I0628 15:54:30.235757 10004 net.cpp:165] Memory required for data: 3912250780
I0628 15:54:30.235764 10004 layer_factory.hpp:77] Creating layer relu4_3
I0628 15:54:30.235770 10004 net.cpp:100] Creating Layer relu4_3
I0628 15:54:30.235774 10004 net.cpp:434] relu4_3 <- conv4_3
I0628 15:54:30.235779 10004 net.cpp:395] relu4_3 -> conv4_3 (in-place)
I0628 15:54:30.236516 10004 net.cpp:150] Setting up relu4_3
I0628 15:54:30.236526 10004 net.cpp:157] Top shape: 4 512 72 96 (14155776)
I0628 15:54:30.236528 10004 net.cpp:165] Memory required for data: 3968873884
I0628 15:54:30.236531 10004 layer_factory.hpp:77] Creating layer conv4_3_relu4_3_0_split
I0628 15:54:30.236536 10004 net.cpp:100] Creating Layer conv4_3_relu4_3_0_split
I0628 15:54:30.236538 10004 net.cpp:434] conv4_3_relu4_3_0_split <- conv4_3
I0628 15:54:30.236542 10004 net.cpp:408] conv4_3_relu4_3_0_split -> conv4_3_relu4_3_0_split_0
I0628 15:54:30.236547 10004 net.cpp:408] conv4_3_relu4_3_0_split -> conv4_3_relu4_3_0_split_1
I0628 15:54:30.236552 10004 net.cpp:408] conv4_3_relu4_3_0_split -> conv4_3_relu4_3_0_split_2
I0628 15:54:30.236600 10004 net.cpp:150] Setting up conv4_3_relu4_3_0_split
I0628 15:54:30.236605 10004 net.cpp:157] Top shape: 4 512 72 96 (14155776)
I0628 15:54:30.236608 10004 net.cpp:157] Top shape: 4 512 72 96 (14155776)
I0628 15:54:30.236611 10004 net.cpp:157] Top shape: 4 512 72 96 (14155776)
I0628 15:54:30.236614 10004 net.cpp:165] Memory required for data: 4138743196
I0628 15:54:30.236618 10004 layer_factory.hpp:77] Creating layer loss1_conv1
I0628 15:54:30.236631 10004 net.cpp:100] Creating Layer loss1_conv1
I0628 15:54:30.236634 10004 net.cpp:434] loss1_conv1 <- conv4_3_relu4_3_0_split_0
I0628 15:54:30.236639 10004 net.cpp:408] loss1_conv1 -> loss1_conv1
I0628 15:54:30.270468 10004 net.cpp:150] Setting up loss1_conv1
I0628 15:54:30.270485 10004 net.cpp:157] Top shape: 4 512 72 96 (14155776)
I0628 15:54:30.270488 10004 net.cpp:165] Memory required for data: 4195366300
I0628 15:54:30.270494 10004 layer_factory.hpp:77] Creating layer loss_relu1
I0628 15:54:30.270504 10004 net.cpp:100] Creating Layer loss_relu1
I0628 15:54:30.270509 10004 net.cpp:434] loss_relu1 <- loss1_conv1
I0628 15:54:30.270515 10004 net.cpp:395] loss_relu1 -> loss1_conv1 (in-place)
I0628 15:54:30.270820 10004 net.cpp:150] Setting up loss_relu1
I0628 15:54:30.270830 10004 net.cpp:157] Top shape: 4 512 72 96 (14155776)
I0628 15:54:30.270833 10004 net.cpp:165] Memory required for data: 4251989404
I0628 15:54:30.270836 10004 layer_factory.hpp:77] Creating layer loss1_conv1_loss_relu1_0_split
I0628 15:54:30.270843 10004 net.cpp:100] Creating Layer loss1_conv1_loss_relu1_0_split
I0628 15:54:30.270845 10004 net.cpp:434] loss1_conv1_loss_relu1_0_split <- loss1_conv1
I0628 15:54:30.270851 10004 net.cpp:408] loss1_conv1_loss_relu1_0_split -> loss1_conv1_loss_relu1_0_split_0
I0628 15:54:30.270859 10004 net.cpp:408] loss1_conv1_loss_relu1_0_split -> loss1_conv1_loss_relu1_0_split_1
I0628 15:54:30.270906 10004 net.cpp:150] Setting up loss1_conv1_loss_relu1_0_split
I0628 15:54:30.270913 10004 net.cpp:157] Top shape: 4 512 72 96 (14155776)
I0628 15:54:30.270917 10004 net.cpp:157] Top shape: 4 512 72 96 (14155776)
I0628 15:54:30.270920 10004 net.cpp:165] Memory required for data: 4365235612
I0628 15:54:30.270923 10004 layer_factory.hpp:77] Creating layer LFCN_1_3x5
I0628 15:54:30.270932 10004 net.cpp:100] Creating Layer LFCN_1_3x5
I0628 15:54:30.270936 10004 net.cpp:434] LFCN_1_3x5 <- loss1_conv1_loss_relu1_0_split_0
I0628 15:54:30.270941 10004 net.cpp:408] LFCN_1_3x5 -> LFCN_1_3x5
I0628 15:54:30.273175 10004 net.cpp:150] Setting up LFCN_1_3x5
I0628 15:54:30.273191 10004 net.cpp:157] Top shape: 4 7 72 96 (193536)
I0628 15:54:30.273193 10004 net.cpp:165] Memory required for data: 4366009756
I0628 15:54:30.273202 10004 layer_factory.hpp:77] Creating layer LFCN_1_3x5_LFCN_1_3x5_0_split
I0628 15:54:30.273211 10004 net.cpp:100] Creating Layer LFCN_1_3x5_LFCN_1_3x5_0_split
I0628 15:54:30.273214 10004 net.cpp:434] LFCN_1_3x5_LFCN_1_3x5_0_split <- LFCN_1_3x5
I0628 15:54:30.273221 10004 net.cpp:408] LFCN_1_3x5_LFCN_1_3x5_0_split -> LFCN_1_3x5_LFCN_1_3x5_0_split_0
I0628 15:54:30.273244 10004 net.cpp:408] LFCN_1_3x5_LFCN_1_3x5_0_split -> LFCN_1_3x5_LFCN_1_3x5_0_split_1
I0628 15:54:30.273252 10004 net.cpp:408] LFCN_1_3x5_LFCN_1_3x5_0_split -> LFCN_1_3x5_LFCN_1_3x5_0_split_2
I0628 15:54:30.273301 10004 net.cpp:150] Setting up LFCN_1_3x5_LFCN_1_3x5_0_split
I0628 15:54:30.273306 10004 net.cpp:157] Top shape: 4 7 72 96 (193536)
I0628 15:54:30.273310 10004 net.cpp:157] Top shape: 4 7 72 96 (193536)
I0628 15:54:30.273314 10004 net.cpp:157] Top shape: 4 7 72 96 (193536)
I0628 15:54:30.273317 10004 net.cpp:165] Memory required for data: 4368332188
I0628 15:54:30.273320 10004 layer_factory.hpp:77] Creating layer detection_loss_1_3x5
I0628 15:54:30.273327 10004 net.cpp:100] Creating Layer detection_loss_1_3x5
I0628 15:54:30.273331 10004 net.cpp:434] detection_loss_1_3x5 <- LFCN_1_3x5_LFCN_1_3x5_0_split_0
I0628 15:54:30.273336 10004 net.cpp:434] detection_loss_1_3x5 <- label_1_3x5_data_1_split_0
I0628 15:54:30.273341 10004 net.cpp:408] detection_loss_1_3x5 -> loss_1_3x5
I0628 15:54:30.273355 10004 layer_factory.hpp:77] Creating layer detection_loss_1_3x5
I0628 15:54:30.273753 10004 net.cpp:150] Setting up detection_loss_1_3x5
I0628 15:54:30.273761 10004 net.cpp:157] Top shape: 1 1 1 2 (2)
I0628 15:54:30.273762 10004 net.cpp:160]     with loss weight 0.5
I0628 15:54:30.273778 10004 net.cpp:165] Memory required for data: 4368332196
I0628 15:54:30.273782 10004 layer_factory.hpp:77] Creating layer detection_accuracy_1_3x5
I0628 15:54:30.273788 10004 net.cpp:100] Creating Layer detection_accuracy_1_3x5
I0628 15:54:30.273793 10004 net.cpp:434] detection_accuracy_1_3x5 <- LFCN_1_3x5_LFCN_1_3x5_0_split_1
I0628 15:54:30.273797 10004 net.cpp:434] detection_accuracy_1_3x5 <- label_1_3x5_data_1_split_1
I0628 15:54:30.273803 10004 net.cpp:408] detection_accuracy_1_3x5 -> accuracy_1_3x5
I0628 15:54:30.273813 10004 net.cpp:408] detection_accuracy_1_3x5 -> boxiou_1_3x5
I0628 15:54:30.273851 10004 net.cpp:150] Setting up detection_accuracy_1_3x5
I0628 15:54:30.273856 10004 net.cpp:157] Top shape: 1 1 1 2 (2)
I0628 15:54:30.273859 10004 net.cpp:157] Top shape: 1 1 1 1 (1)
I0628 15:54:30.273862 10004 net.cpp:165] Memory required for data: 4368332208
I0628 15:54:30.273865 10004 layer_factory.hpp:77] Creating layer LFCN_1_5x7
I0628 15:54:30.273874 10004 net.cpp:100] Creating Layer LFCN_1_5x7
I0628 15:54:30.273877 10004 net.cpp:434] LFCN_1_5x7 <- loss1_conv1_loss_relu1_0_split_1
I0628 15:54:30.273883 10004 net.cpp:408] LFCN_1_5x7 -> LFCN_1_5x7
I0628 15:54:30.276120 10004 net.cpp:150] Setting up LFCN_1_5x7
I0628 15:54:30.276134 10004 net.cpp:157] Top shape: 4 7 72 96 (193536)
I0628 15:54:30.276137 10004 net.cpp:165] Memory required for data: 4369106352
I0628 15:54:30.276145 10004 layer_factory.hpp:77] Creating layer LFCN_1_5x7_LFCN_1_5x7_0_split
I0628 15:54:30.276154 10004 net.cpp:100] Creating Layer LFCN_1_5x7_LFCN_1_5x7_0_split
I0628 15:54:30.276156 10004 net.cpp:434] LFCN_1_5x7_LFCN_1_5x7_0_split <- LFCN_1_5x7
I0628 15:54:30.276163 10004 net.cpp:408] LFCN_1_5x7_LFCN_1_5x7_0_split -> LFCN_1_5x7_LFCN_1_5x7_0_split_0
I0628 15:54:30.276173 10004 net.cpp:408] LFCN_1_5x7_LFCN_1_5x7_0_split -> LFCN_1_5x7_LFCN_1_5x7_0_split_1
I0628 15:54:30.276181 10004 net.cpp:408] LFCN_1_5x7_LFCN_1_5x7_0_split -> LFCN_1_5x7_LFCN_1_5x7_0_split_2
I0628 15:54:30.276226 10004 net.cpp:150] Setting up LFCN_1_5x7_LFCN_1_5x7_0_split
I0628 15:54:30.276232 10004 net.cpp:157] Top shape: 4 7 72 96 (193536)
I0628 15:54:30.276235 10004 net.cpp:157] Top shape: 4 7 72 96 (193536)
I0628 15:54:30.276239 10004 net.cpp:157] Top shape: 4 7 72 96 (193536)
I0628 15:54:30.276242 10004 net.cpp:165] Memory required for data: 4371428784
I0628 15:54:30.276245 10004 layer_factory.hpp:77] Creating layer detection_loss_1_5x7
I0628 15:54:30.276252 10004 net.cpp:100] Creating Layer detection_loss_1_5x7
I0628 15:54:30.276257 10004 net.cpp:434] detection_loss_1_5x7 <- LFCN_1_5x7_LFCN_1_5x7_0_split_0
I0628 15:54:30.276262 10004 net.cpp:434] detection_loss_1_5x7 <- label_1_5x7_data_2_split_0
I0628 15:54:30.276266 10004 net.cpp:408] detection_loss_1_5x7 -> loss_1_5x7
I0628 15:54:30.276275 10004 layer_factory.hpp:77] Creating layer detection_loss_1_5x7
I0628 15:54:30.277124 10004 net.cpp:150] Setting up detection_loss_1_5x7
I0628 15:54:30.277134 10004 net.cpp:157] Top shape: 1 1 1 2 (2)
I0628 15:54:30.277137 10004 net.cpp:160]     with loss weight 0.9
I0628 15:54:30.277146 10004 net.cpp:165] Memory required for data: 4371428792
I0628 15:54:30.277149 10004 layer_factory.hpp:77] Creating layer detection_accuracy_1_5x7
I0628 15:54:30.277158 10004 net.cpp:100] Creating Layer detection_accuracy_1_5x7
I0628 15:54:30.277163 10004 net.cpp:434] detection_accuracy_1_5x7 <- LFCN_1_5x7_LFCN_1_5x7_0_split_1
I0628 15:54:30.277168 10004 net.cpp:434] detection_accuracy_1_5x7 <- label_1_5x7_data_2_split_1
I0628 15:54:30.277174 10004 net.cpp:408] detection_accuracy_1_5x7 -> accuracy_1_5x7
I0628 15:54:30.277184 10004 net.cpp:408] detection_accuracy_1_5x7 -> boxiou_1_5x7
I0628 15:54:30.277241 10004 net.cpp:150] Setting up detection_accuracy_1_5x7
I0628 15:54:30.277249 10004 net.cpp:157] Top shape: 1 1 1 2 (2)
I0628 15:54:30.277253 10004 net.cpp:157] Top shape: 1 1 1 1 (1)
I0628 15:54:30.277256 10004 net.cpp:165] Memory required for data: 4371428804
I0628 15:54:30.277259 10004 layer_factory.hpp:77] Creating layer pool4
I0628 15:54:30.277266 10004 net.cpp:100] Creating Layer pool4
I0628 15:54:30.277271 10004 net.cpp:434] pool4 <- conv4_3_relu4_3_0_split_1
I0628 15:54:30.277276 10004 net.cpp:408] pool4 -> pool4
I0628 15:54:30.277310 10004 net.cpp:150] Setting up pool4
I0628 15:54:30.277315 10004 net.cpp:157] Top shape: 4 512 36 48 (3538944)
I0628 15:54:30.277318 10004 net.cpp:165] Memory required for data: 4385584580
I0628 15:54:30.277321 10004 layer_factory.hpp:77] Creating layer conv5_1
I0628 15:54:30.277328 10004 net.cpp:100] Creating Layer conv5_1
I0628 15:54:30.277333 10004 net.cpp:434] conv5_1 <- pool4
I0628 15:54:30.277338 10004 net.cpp:408] conv5_1 -> conv5_1
I0628 15:54:30.283044 10004 net.cpp:150] Setting up conv5_1
I0628 15:54:30.283064 10004 net.cpp:157] Top shape: 4 512 36 48 (3538944)
I0628 15:54:30.283067 10004 net.cpp:165] Memory required for data: 4399740356
I0628 15:54:30.283078 10004 layer_factory.hpp:77] Creating layer relu5_1
I0628 15:54:30.283090 10004 net.cpp:100] Creating Layer relu5_1
I0628 15:54:30.283094 10004 net.cpp:434] relu5_1 <- conv5_1
I0628 15:54:30.283102 10004 net.cpp:395] relu5_1 -> conv5_1 (in-place)
I0628 15:54:30.283753 10004 net.cpp:150] Setting up relu5_1
I0628 15:54:30.283763 10004 net.cpp:157] Top shape: 4 512 36 48 (3538944)
I0628 15:54:30.283766 10004 net.cpp:165] Memory required for data: 4413896132
I0628 15:54:30.283771 10004 layer_factory.hpp:77] Creating layer conv5_2
I0628 15:54:30.283779 10004 net.cpp:100] Creating Layer conv5_2
I0628 15:54:30.283783 10004 net.cpp:434] conv5_2 <- conv5_1
I0628 15:54:30.283789 10004 net.cpp:408] conv5_2 -> conv5_2
I0628 15:54:30.289111 10004 net.cpp:150] Setting up conv5_2
I0628 15:54:30.289134 10004 net.cpp:157] Top shape: 4 512 36 48 (3538944)
I0628 15:54:30.289136 10004 net.cpp:165] Memory required for data: 4428051908
I0628 15:54:30.289145 10004 layer_factory.hpp:77] Creating layer relu5_2
I0628 15:54:30.289158 10004 net.cpp:100] Creating Layer relu5_2
I0628 15:54:30.289163 10004 net.cpp:434] relu5_2 <- conv5_2
I0628 15:54:30.289170 10004 net.cpp:395] relu5_2 -> conv5_2 (in-place)
I0628 15:54:30.289450 10004 net.cpp:150] Setting up relu5_2
I0628 15:54:30.289460 10004 net.cpp:157] Top shape: 4 512 36 48 (3538944)
I0628 15:54:30.289463 10004 net.cpp:165] Memory required for data: 4442207684
I0628 15:54:30.289467 10004 layer_factory.hpp:77] Creating layer conv5_3
I0628 15:54:30.289476 10004 net.cpp:100] Creating Layer conv5_3
I0628 15:54:30.289481 10004 net.cpp:434] conv5_3 <- conv5_2
I0628 15:54:30.289486 10004 net.cpp:408] conv5_3 -> conv5_3
I0628 15:54:30.295286 10004 net.cpp:150] Setting up conv5_3
I0628 15:54:30.295306 10004 net.cpp:157] Top shape: 4 512 36 48 (3538944)
I0628 15:54:30.295310 10004 net.cpp:165] Memory required for data: 4456363460
I0628 15:54:30.295318 10004 layer_factory.hpp:77] Creating layer relu5_3
I0628 15:54:30.295327 10004 net.cpp:100] Creating Layer relu5_3
I0628 15:54:30.295331 10004 net.cpp:434] relu5_3 <- conv5_3
I0628 15:54:30.295341 10004 net.cpp:395] relu5_3 -> conv5_3 (in-place)
I0628 15:54:30.295589 10004 net.cpp:150] Setting up relu5_3
I0628 15:54:30.295598 10004 net.cpp:157] Top shape: 4 512 36 48 (3538944)
I0628 15:54:30.295601 10004 net.cpp:165] Memory required for data: 4470519236
I0628 15:54:30.295605 10004 layer_factory.hpp:77] Creating layer conv5_3_relu5_3_0_split
I0628 15:54:30.295610 10004 net.cpp:100] Creating Layer conv5_3_relu5_3_0_split
I0628 15:54:30.295614 10004 net.cpp:434] conv5_3_relu5_3_0_split <- conv5_3
I0628 15:54:30.295619 10004 net.cpp:408] conv5_3_relu5_3_0_split -> conv5_3_relu5_3_0_split_0
I0628 15:54:30.295624 10004 net.cpp:408] conv5_3_relu5_3_0_split -> conv5_3_relu5_3_0_split_1
I0628 15:54:30.295629 10004 net.cpp:408] conv5_3_relu5_3_0_split -> conv5_3_relu5_3_0_split_2
I0628 15:54:30.295680 10004 net.cpp:150] Setting up conv5_3_relu5_3_0_split
I0628 15:54:30.295684 10004 net.cpp:157] Top shape: 4 512 36 48 (3538944)
I0628 15:54:30.295686 10004 net.cpp:157] Top shape: 4 512 36 48 (3538944)
I0628 15:54:30.295691 10004 net.cpp:157] Top shape: 4 512 36 48 (3538944)
I0628 15:54:30.295692 10004 net.cpp:165] Memory required for data: 4512986564
I0628 15:54:30.295696 10004 layer_factory.hpp:77] Creating layer LFCN_2_3x5
I0628 15:54:30.295706 10004 net.cpp:100] Creating Layer LFCN_2_3x5
I0628 15:54:30.295708 10004 net.cpp:434] LFCN_2_3x5 <- conv5_3_relu5_3_0_split_0
I0628 15:54:30.295713 10004 net.cpp:408] LFCN_2_3x5 -> LFCN_2_3x5
I0628 15:54:30.297456 10004 net.cpp:150] Setting up LFCN_2_3x5
I0628 15:54:30.297468 10004 net.cpp:157] Top shape: 4 7 36 48 (48384)
I0628 15:54:30.297471 10004 net.cpp:165] Memory required for data: 4513180100
I0628 15:54:30.297480 10004 layer_factory.hpp:77] Creating layer LFCN_2_3x5_LFCN_2_3x5_0_split
I0628 15:54:30.297487 10004 net.cpp:100] Creating Layer LFCN_2_3x5_LFCN_2_3x5_0_split
I0628 15:54:30.297490 10004 net.cpp:434] LFCN_2_3x5_LFCN_2_3x5_0_split <- LFCN_2_3x5
I0628 15:54:30.297494 10004 net.cpp:408] LFCN_2_3x5_LFCN_2_3x5_0_split -> LFCN_2_3x5_LFCN_2_3x5_0_split_0
I0628 15:54:30.297513 10004 net.cpp:408] LFCN_2_3x5_LFCN_2_3x5_0_split -> LFCN_2_3x5_LFCN_2_3x5_0_split_1
I0628 15:54:30.297520 10004 net.cpp:408] LFCN_2_3x5_LFCN_2_3x5_0_split -> LFCN_2_3x5_LFCN_2_3x5_0_split_2
I0628 15:54:30.297570 10004 net.cpp:150] Setting up LFCN_2_3x5_LFCN_2_3x5_0_split
I0628 15:54:30.297575 10004 net.cpp:157] Top shape: 4 7 36 48 (48384)
I0628 15:54:30.297577 10004 net.cpp:157] Top shape: 4 7 36 48 (48384)
I0628 15:54:30.297580 10004 net.cpp:157] Top shape: 4 7 36 48 (48384)
I0628 15:54:30.297583 10004 net.cpp:165] Memory required for data: 4513760708
I0628 15:54:30.297586 10004 layer_factory.hpp:77] Creating layer detection_loss_2_3x5
I0628 15:54:30.297595 10004 net.cpp:100] Creating Layer detection_loss_2_3x5
I0628 15:54:30.297597 10004 net.cpp:434] detection_loss_2_3x5 <- LFCN_2_3x5_LFCN_2_3x5_0_split_0
I0628 15:54:30.297601 10004 net.cpp:434] detection_loss_2_3x5 <- label_2_3x5_data_3_split_0
I0628 15:54:30.297606 10004 net.cpp:408] detection_loss_2_3x5 -> loss_2_3x5
I0628 15:54:30.297616 10004 layer_factory.hpp:77] Creating layer detection_loss_2_3x5
I0628 15:54:30.298472 10004 net.cpp:150] Setting up detection_loss_2_3x5
I0628 15:54:30.298481 10004 net.cpp:157] Top shape: 1 1 1 2 (2)
I0628 15:54:30.298483 10004 net.cpp:160]     with loss weight 1
I0628 15:54:30.298491 10004 net.cpp:165] Memory required for data: 4513760716
I0628 15:54:30.298492 10004 layer_factory.hpp:77] Creating layer detection_accuracy_2_3x5
I0628 15:54:30.298499 10004 net.cpp:100] Creating Layer detection_accuracy_2_3x5
I0628 15:54:30.298502 10004 net.cpp:434] detection_accuracy_2_3x5 <- LFCN_2_3x5_LFCN_2_3x5_0_split_1
I0628 15:54:30.298506 10004 net.cpp:434] detection_accuracy_2_3x5 <- label_2_3x5_data_3_split_1
I0628 15:54:30.298511 10004 net.cpp:408] detection_accuracy_2_3x5 -> accuracy_2_3x5
I0628 15:54:30.298516 10004 net.cpp:408] detection_accuracy_2_3x5 -> boxiou_2_3x5
I0628 15:54:30.298554 10004 net.cpp:150] Setting up detection_accuracy_2_3x5
I0628 15:54:30.298559 10004 net.cpp:157] Top shape: 1 1 1 2 (2)
I0628 15:54:30.298562 10004 net.cpp:157] Top shape: 1 1 1 1 (1)
I0628 15:54:30.298563 10004 net.cpp:165] Memory required for data: 4513760728
I0628 15:54:30.298566 10004 layer_factory.hpp:77] Creating layer LFCN_2_5x7
I0628 15:54:30.298576 10004 net.cpp:100] Creating Layer LFCN_2_5x7
I0628 15:54:30.298580 10004 net.cpp:434] LFCN_2_5x7 <- conv5_3_relu5_3_0_split_1
I0628 15:54:30.298586 10004 net.cpp:408] LFCN_2_5x7 -> LFCN_2_5x7
I0628 15:54:30.301774 10004 net.cpp:150] Setting up LFCN_2_5x7
I0628 15:54:30.301792 10004 net.cpp:157] Top shape: 4 7 36 48 (48384)
I0628 15:54:30.301795 10004 net.cpp:165] Memory required for data: 4513954264
I0628 15:54:30.301801 10004 layer_factory.hpp:77] Creating layer LFCN_2_5x7_LFCN_2_5x7_0_split
I0628 15:54:30.301807 10004 net.cpp:100] Creating Layer LFCN_2_5x7_LFCN_2_5x7_0_split
I0628 15:54:30.301810 10004 net.cpp:434] LFCN_2_5x7_LFCN_2_5x7_0_split <- LFCN_2_5x7
I0628 15:54:30.301816 10004 net.cpp:408] LFCN_2_5x7_LFCN_2_5x7_0_split -> LFCN_2_5x7_LFCN_2_5x7_0_split_0
I0628 15:54:30.301822 10004 net.cpp:408] LFCN_2_5x7_LFCN_2_5x7_0_split -> LFCN_2_5x7_LFCN_2_5x7_0_split_1
I0628 15:54:30.301827 10004 net.cpp:408] LFCN_2_5x7_LFCN_2_5x7_0_split -> LFCN_2_5x7_LFCN_2_5x7_0_split_2
I0628 15:54:30.301878 10004 net.cpp:150] Setting up LFCN_2_5x7_LFCN_2_5x7_0_split
I0628 15:54:30.301883 10004 net.cpp:157] Top shape: 4 7 36 48 (48384)
I0628 15:54:30.301887 10004 net.cpp:157] Top shape: 4 7 36 48 (48384)
I0628 15:54:30.301889 10004 net.cpp:157] Top shape: 4 7 36 48 (48384)
I0628 15:54:30.301892 10004 net.cpp:165] Memory required for data: 4514534872
I0628 15:54:30.301897 10004 layer_factory.hpp:77] Creating layer detection_loss_2_5x7
I0628 15:54:30.301903 10004 net.cpp:100] Creating Layer detection_loss_2_5x7
I0628 15:54:30.301906 10004 net.cpp:434] detection_loss_2_5x7 <- LFCN_2_5x7_LFCN_2_5x7_0_split_0
I0628 15:54:30.301910 10004 net.cpp:434] detection_loss_2_5x7 <- label_2_5x7_data_4_split_0
I0628 15:54:30.301918 10004 net.cpp:408] detection_loss_2_5x7 -> loss_2_5x7
I0628 15:54:30.301925 10004 layer_factory.hpp:77] Creating layer detection_loss_2_5x7
I0628 15:54:30.302325 10004 net.cpp:150] Setting up detection_loss_2_5x7
I0628 15:54:30.302330 10004 net.cpp:157] Top shape: 1 1 1 2 (2)
I0628 15:54:30.302332 10004 net.cpp:160]     with loss weight 1
I0628 15:54:30.302340 10004 net.cpp:165] Memory required for data: 4514534880
I0628 15:54:30.302341 10004 layer_factory.hpp:77] Creating layer detection_accuracy_2_5x7
I0628 15:54:30.302346 10004 net.cpp:100] Creating Layer detection_accuracy_2_5x7
I0628 15:54:30.302348 10004 net.cpp:434] detection_accuracy_2_5x7 <- LFCN_2_5x7_LFCN_2_5x7_0_split_1
I0628 15:54:30.302351 10004 net.cpp:434] detection_accuracy_2_5x7 <- label_2_5x7_data_4_split_1
I0628 15:54:30.302356 10004 net.cpp:408] detection_accuracy_2_5x7 -> accuracy_2_5x7
I0628 15:54:30.302361 10004 net.cpp:408] detection_accuracy_2_5x7 -> boxiou_2_5x7
I0628 15:54:30.302408 10004 net.cpp:150] Setting up detection_accuracy_2_5x7
I0628 15:54:30.302413 10004 net.cpp:157] Top shape: 1 1 1 2 (2)
I0628 15:54:30.302415 10004 net.cpp:157] Top shape: 1 1 1 1 (1)
I0628 15:54:30.302417 10004 net.cpp:165] Memory required for data: 4514534892
I0628 15:54:30.302420 10004 layer_factory.hpp:77] Creating layer pool5
I0628 15:54:30.302426 10004 net.cpp:100] Creating Layer pool5
I0628 15:54:30.302430 10004 net.cpp:434] pool5 <- conv5_3_relu5_3_0_split_2
I0628 15:54:30.302436 10004 net.cpp:408] pool5 -> pool5
I0628 15:54:30.302469 10004 net.cpp:150] Setting up pool5
I0628 15:54:30.302474 10004 net.cpp:157] Top shape: 4 512 18 24 (884736)
I0628 15:54:30.302476 10004 net.cpp:165] Memory required for data: 4518073836
I0628 15:54:30.302479 10004 layer_factory.hpp:77] Creating layer conv6_1
I0628 15:54:30.302489 10004 net.cpp:100] Creating Layer conv6_1
I0628 15:54:30.302491 10004 net.cpp:434] conv6_1 <- pool5
I0628 15:54:30.302495 10004 net.cpp:408] conv6_1 -> conv6_1
I0628 15:54:30.322814 10004 net.cpp:150] Setting up conv6_1
I0628 15:54:30.322832 10004 net.cpp:157] Top shape: 4 512 18 24 (884736)
I0628 15:54:30.322834 10004 net.cpp:165] Memory required for data: 4521612780
I0628 15:54:30.322840 10004 layer_factory.hpp:77] Creating layer relu6_1
I0628 15:54:30.322847 10004 net.cpp:100] Creating Layer relu6_1
I0628 15:54:30.322850 10004 net.cpp:434] relu6_1 <- conv6_1
I0628 15:54:30.322855 10004 net.cpp:395] relu6_1 -> conv6_1 (in-place)
I0628 15:54:30.323103 10004 net.cpp:150] Setting up relu6_1
I0628 15:54:30.323112 10004 net.cpp:157] Top shape: 4 512 18 24 (884736)
I0628 15:54:30.323113 10004 net.cpp:165] Memory required for data: 4525151724
I0628 15:54:30.323117 10004 layer_factory.hpp:77] Creating layer conv6_1_relu6_1_0_split
I0628 15:54:30.323122 10004 net.cpp:100] Creating Layer conv6_1_relu6_1_0_split
I0628 15:54:30.323127 10004 net.cpp:434] conv6_1_relu6_1_0_split <- conv6_1
I0628 15:54:30.323133 10004 net.cpp:408] conv6_1_relu6_1_0_split -> conv6_1_relu6_1_0_split_0
I0628 15:54:30.323146 10004 net.cpp:408] conv6_1_relu6_1_0_split -> conv6_1_relu6_1_0_split_1
I0628 15:54:30.323153 10004 net.cpp:408] conv6_1_relu6_1_0_split -> conv6_1_relu6_1_0_split_2
I0628 15:54:30.323225 10004 net.cpp:150] Setting up conv6_1_relu6_1_0_split
I0628 15:54:30.323230 10004 net.cpp:157] Top shape: 4 512 18 24 (884736)
I0628 15:54:30.323235 10004 net.cpp:157] Top shape: 4 512 18 24 (884736)
I0628 15:54:30.323238 10004 net.cpp:157] Top shape: 4 512 18 24 (884736)
I0628 15:54:30.323241 10004 net.cpp:165] Memory required for data: 4535768556
I0628 15:54:30.323245 10004 layer_factory.hpp:77] Creating layer LFCN_3_3x5
I0628 15:54:30.323254 10004 net.cpp:100] Creating Layer LFCN_3_3x5
I0628 15:54:30.323257 10004 net.cpp:434] LFCN_3_3x5 <- conv6_1_relu6_1_0_split_0
I0628 15:54:30.323266 10004 net.cpp:408] LFCN_3_3x5 -> LFCN_3_3x5
I0628 15:54:30.326189 10004 net.cpp:150] Setting up LFCN_3_3x5
I0628 15:54:30.326207 10004 net.cpp:157] Top shape: 4 7 18 24 (12096)
I0628 15:54:30.326210 10004 net.cpp:165] Memory required for data: 4535816940
I0628 15:54:30.326215 10004 layer_factory.hpp:77] Creating layer LFCN_3_3x5_LFCN_3_3x5_0_split
I0628 15:54:30.326231 10004 net.cpp:100] Creating Layer LFCN_3_3x5_LFCN_3_3x5_0_split
I0628 15:54:30.326236 10004 net.cpp:434] LFCN_3_3x5_LFCN_3_3x5_0_split <- LFCN_3_3x5
I0628 15:54:30.326241 10004 net.cpp:408] LFCN_3_3x5_LFCN_3_3x5_0_split -> LFCN_3_3x5_LFCN_3_3x5_0_split_0
I0628 15:54:30.326247 10004 net.cpp:408] LFCN_3_3x5_LFCN_3_3x5_0_split -> LFCN_3_3x5_LFCN_3_3x5_0_split_1
I0628 15:54:30.326251 10004 net.cpp:408] LFCN_3_3x5_LFCN_3_3x5_0_split -> LFCN_3_3x5_LFCN_3_3x5_0_split_2
I0628 15:54:30.326313 10004 net.cpp:150] Setting up LFCN_3_3x5_LFCN_3_3x5_0_split
I0628 15:54:30.326321 10004 net.cpp:157] Top shape: 4 7 18 24 (12096)
I0628 15:54:30.326325 10004 net.cpp:157] Top shape: 4 7 18 24 (12096)
I0628 15:54:30.326328 10004 net.cpp:157] Top shape: 4 7 18 24 (12096)
I0628 15:54:30.326331 10004 net.cpp:165] Memory required for data: 4535962092
I0628 15:54:30.326335 10004 layer_factory.hpp:77] Creating layer detection_loss_3_3x5
I0628 15:54:30.326341 10004 net.cpp:100] Creating Layer detection_loss_3_3x5
I0628 15:54:30.326345 10004 net.cpp:434] detection_loss_3_3x5 <- LFCN_3_3x5_LFCN_3_3x5_0_split_0
I0628 15:54:30.326350 10004 net.cpp:434] detection_loss_3_3x5 <- label_3_3x5_data_5_split_0
I0628 15:54:30.326357 10004 net.cpp:408] detection_loss_3_3x5 -> loss_3_3x5
I0628 15:54:30.326366 10004 layer_factory.hpp:77] Creating layer detection_loss_3_3x5
I0628 15:54:30.327477 10004 net.cpp:150] Setting up detection_loss_3_3x5
I0628 15:54:30.327487 10004 net.cpp:157] Top shape: 1 1 1 2 (2)
I0628 15:54:30.327489 10004 net.cpp:160]     with loss weight 1
I0628 15:54:30.327497 10004 net.cpp:165] Memory required for data: 4535962100
I0628 15:54:30.327498 10004 layer_factory.hpp:77] Creating layer detection_accuracy_3_3x5
I0628 15:54:30.327505 10004 net.cpp:100] Creating Layer detection_accuracy_3_3x5
I0628 15:54:30.327508 10004 net.cpp:434] detection_accuracy_3_3x5 <- LFCN_3_3x5_LFCN_3_3x5_0_split_1
I0628 15:54:30.327512 10004 net.cpp:434] detection_accuracy_3_3x5 <- label_3_3x5_data_5_split_1
I0628 15:54:30.327517 10004 net.cpp:408] detection_accuracy_3_3x5 -> accuracy_3_3x5
I0628 15:54:30.327523 10004 net.cpp:408] detection_accuracy_3_3x5 -> boxiou_3_3x5
I0628 15:54:30.327571 10004 net.cpp:150] Setting up detection_accuracy_3_3x5
I0628 15:54:30.327577 10004 net.cpp:157] Top shape: 1 1 1 2 (2)
I0628 15:54:30.327581 10004 net.cpp:157] Top shape: 1 1 1 1 (1)
I0628 15:54:30.327584 10004 net.cpp:165] Memory required for data: 4535962112
I0628 15:54:30.327587 10004 layer_factory.hpp:77] Creating layer LFCN_3_5x7
I0628 15:54:30.327597 10004 net.cpp:100] Creating Layer LFCN_3_5x7
I0628 15:54:30.327600 10004 net.cpp:434] LFCN_3_5x7 <- conv6_1_relu6_1_0_split_1
I0628 15:54:30.327608 10004 net.cpp:408] LFCN_3_5x7 -> LFCN_3_5x7
I0628 15:54:30.330139 10004 net.cpp:150] Setting up LFCN_3_5x7
I0628 15:54:30.330153 10004 net.cpp:157] Top shape: 4 7 18 24 (12096)
I0628 15:54:30.330155 10004 net.cpp:165] Memory required for data: 4536010496
I0628 15:54:30.330163 10004 layer_factory.hpp:77] Creating layer LFCN_3_5x7_LFCN_3_5x7_0_split
I0628 15:54:30.330168 10004 net.cpp:100] Creating Layer LFCN_3_5x7_LFCN_3_5x7_0_split
I0628 15:54:30.330170 10004 net.cpp:434] LFCN_3_5x7_LFCN_3_5x7_0_split <- LFCN_3_5x7
I0628 15:54:30.330176 10004 net.cpp:408] LFCN_3_5x7_LFCN_3_5x7_0_split -> LFCN_3_5x7_LFCN_3_5x7_0_split_0
I0628 15:54:30.330183 10004 net.cpp:408] LFCN_3_5x7_LFCN_3_5x7_0_split -> LFCN_3_5x7_LFCN_3_5x7_0_split_1
I0628 15:54:30.330186 10004 net.cpp:408] LFCN_3_5x7_LFCN_3_5x7_0_split -> LFCN_3_5x7_LFCN_3_5x7_0_split_2
I0628 15:54:30.330247 10004 net.cpp:150] Setting up LFCN_3_5x7_LFCN_3_5x7_0_split
I0628 15:54:30.330255 10004 net.cpp:157] Top shape: 4 7 18 24 (12096)
I0628 15:54:30.330258 10004 net.cpp:157] Top shape: 4 7 18 24 (12096)
I0628 15:54:30.330262 10004 net.cpp:157] Top shape: 4 7 18 24 (12096)
I0628 15:54:30.330265 10004 net.cpp:165] Memory required for data: 4536155648
I0628 15:54:30.330268 10004 layer_factory.hpp:77] Creating layer detection_loss_3_5x7
I0628 15:54:30.330276 10004 net.cpp:100] Creating Layer detection_loss_3_5x7
I0628 15:54:30.330279 10004 net.cpp:434] detection_loss_3_5x7 <- LFCN_3_5x7_LFCN_3_5x7_0_split_0
I0628 15:54:30.330284 10004 net.cpp:434] detection_loss_3_5x7 <- label_3_5x7_data_6_split_0
I0628 15:54:30.330291 10004 net.cpp:408] detection_loss_3_5x7 -> loss_3_5x7
I0628 15:54:30.330298 10004 layer_factory.hpp:77] Creating layer detection_loss_3_5x7
I0628 15:54:30.330775 10004 net.cpp:150] Setting up detection_loss_3_5x7
I0628 15:54:30.330782 10004 net.cpp:157] Top shape: 1 1 1 2 (2)
I0628 15:54:30.330785 10004 net.cpp:160]     with loss weight 1
I0628 15:54:30.330790 10004 net.cpp:165] Memory required for data: 4536155656
I0628 15:54:30.330793 10004 layer_factory.hpp:77] Creating layer detection_accuracy_3_5x7
I0628 15:54:30.330799 10004 net.cpp:100] Creating Layer detection_accuracy_3_5x7
I0628 15:54:30.330801 10004 net.cpp:434] detection_accuracy_3_5x7 <- LFCN_3_5x7_LFCN_3_5x7_0_split_1
I0628 15:54:30.330806 10004 net.cpp:434] detection_accuracy_3_5x7 <- label_3_5x7_data_6_split_1
I0628 15:54:30.330809 10004 net.cpp:408] detection_accuracy_3_5x7 -> accuracy_3_5x7
I0628 15:54:30.330814 10004 net.cpp:408] detection_accuracy_3_5x7 -> boxiou_3_5x7
I0628 15:54:30.330852 10004 net.cpp:150] Setting up detection_accuracy_3_5x7
I0628 15:54:30.330855 10004 net.cpp:157] Top shape: 1 1 1 2 (2)
I0628 15:54:30.330857 10004 net.cpp:157] Top shape: 1 1 1 1 (1)
I0628 15:54:30.330859 10004 net.cpp:165] Memory required for data: 4536155668
I0628 15:54:30.330862 10004 layer_factory.hpp:77] Creating layer pool6
I0628 15:54:30.330866 10004 net.cpp:100] Creating Layer pool6
I0628 15:54:30.330869 10004 net.cpp:434] pool6 <- conv6_1_relu6_1_0_split_2
I0628 15:54:30.330873 10004 net.cpp:408] pool6 -> pool6
I0628 15:54:30.330906 10004 net.cpp:150] Setting up pool6
I0628 15:54:30.330910 10004 net.cpp:157] Top shape: 4 512 9 12 (221184)
I0628 15:54:30.330912 10004 net.cpp:165] Memory required for data: 4537040404
I0628 15:54:30.330915 10004 layer_factory.hpp:77] Creating layer LFCN_4_3x5
I0628 15:54:30.330924 10004 net.cpp:100] Creating Layer LFCN_4_3x5
I0628 15:54:30.330927 10004 net.cpp:434] LFCN_4_3x5 <- pool6
I0628 15:54:30.330934 10004 net.cpp:408] LFCN_4_3x5 -> LFCN_4_3x5
I0628 15:54:30.333508 10004 net.cpp:150] Setting up LFCN_4_3x5
I0628 15:54:30.333523 10004 net.cpp:157] Top shape: 4 7 9 12 (3024)
I0628 15:54:30.333526 10004 net.cpp:165] Memory required for data: 4537052500
I0628 15:54:30.333536 10004 layer_factory.hpp:77] Creating layer LFCN_4_3x5_LFCN_4_3x5_0_split
I0628 15:54:30.333546 10004 net.cpp:100] Creating Layer LFCN_4_3x5_LFCN_4_3x5_0_split
I0628 15:54:30.333552 10004 net.cpp:434] LFCN_4_3x5_LFCN_4_3x5_0_split <- LFCN_4_3x5
I0628 15:54:30.333562 10004 net.cpp:408] LFCN_4_3x5_LFCN_4_3x5_0_split -> LFCN_4_3x5_LFCN_4_3x5_0_split_0
I0628 15:54:30.333572 10004 net.cpp:408] LFCN_4_3x5_LFCN_4_3x5_0_split -> LFCN_4_3x5_LFCN_4_3x5_0_split_1
I0628 15:54:30.333578 10004 net.cpp:408] LFCN_4_3x5_LFCN_4_3x5_0_split -> LFCN_4_3x5_LFCN_4_3x5_0_split_2
I0628 15:54:30.333632 10004 net.cpp:150] Setting up LFCN_4_3x5_LFCN_4_3x5_0_split
I0628 15:54:30.333637 10004 net.cpp:157] Top shape: 4 7 9 12 (3024)
I0628 15:54:30.333642 10004 net.cpp:157] Top shape: 4 7 9 12 (3024)
I0628 15:54:30.333644 10004 net.cpp:157] Top shape: 4 7 9 12 (3024)
I0628 15:54:30.333647 10004 net.cpp:165] Memory required for data: 4537088788
I0628 15:54:30.333650 10004 layer_factory.hpp:77] Creating layer detection_loss_4_3x5
I0628 15:54:30.333657 10004 net.cpp:100] Creating Layer detection_loss_4_3x5
I0628 15:54:30.333660 10004 net.cpp:434] detection_loss_4_3x5 <- LFCN_4_3x5_LFCN_4_3x5_0_split_0
I0628 15:54:30.333665 10004 net.cpp:434] detection_loss_4_3x5 <- label_4_3x5_data_7_split_0
I0628 15:54:30.333673 10004 net.cpp:408] detection_loss_4_3x5 -> loss_4_3x5
I0628 15:54:30.333683 10004 layer_factory.hpp:77] Creating layer detection_loss_4_3x5
I0628 15:54:30.334079 10004 net.cpp:150] Setting up detection_loss_4_3x5
I0628 15:54:30.334085 10004 net.cpp:157] Top shape: 1 1 1 2 (2)
I0628 15:54:30.334089 10004 net.cpp:160]     with loss weight 1
I0628 15:54:30.334097 10004 net.cpp:165] Memory required for data: 4537088796
I0628 15:54:30.334101 10004 layer_factory.hpp:77] Creating layer detection_accuracy_4_3x5
I0628 15:54:30.334107 10004 net.cpp:100] Creating Layer detection_accuracy_4_3x5
I0628 15:54:30.334112 10004 net.cpp:434] detection_accuracy_4_3x5 <- LFCN_4_3x5_LFCN_4_3x5_0_split_1
I0628 15:54:30.334116 10004 net.cpp:434] detection_accuracy_4_3x5 <- label_4_3x5_data_7_split_1
I0628 15:54:30.334125 10004 net.cpp:408] detection_accuracy_4_3x5 -> accuracy_4_3x5
I0628 15:54:30.334132 10004 net.cpp:408] detection_accuracy_4_3x5 -> boxiou_4_3x5
I0628 15:54:30.334174 10004 net.cpp:150] Setting up detection_accuracy_4_3x5
I0628 15:54:30.334179 10004 net.cpp:157] Top shape: 1 1 1 2 (2)
I0628 15:54:30.334183 10004 net.cpp:157] Top shape: 1 1 1 1 (1)
I0628 15:54:30.334185 10004 net.cpp:165] Memory required for data: 4537088808
I0628 15:54:30.334188 10004 layer_factory.hpp:77] Creating layer proposals
I0628 15:54:30.334197 10004 net.cpp:100] Creating Layer proposals
I0628 15:54:30.334204 10004 net.cpp:434] proposals <- LFCN_1_3x5_LFCN_1_3x5_0_split_2
I0628 15:54:30.334213 10004 net.cpp:434] proposals <- LFCN_1_5x7_LFCN_1_5x7_0_split_2
I0628 15:54:30.334218 10004 net.cpp:434] proposals <- LFCN_2_3x5_LFCN_2_3x5_0_split_2
I0628 15:54:30.334221 10004 net.cpp:434] proposals <- LFCN_2_5x7_LFCN_2_5x7_0_split_2
I0628 15:54:30.334224 10004 net.cpp:434] proposals <- LFCN_3_3x5_LFCN_3_3x5_0_split_2
I0628 15:54:30.334228 10004 net.cpp:434] proposals <- LFCN_3_5x7_LFCN_3_5x7_0_split_2
I0628 15:54:30.334231 10004 net.cpp:434] proposals <- LFCN_4_3x5_LFCN_4_3x5_0_split_2
I0628 15:54:30.334239 10004 net.cpp:408] proposals -> proposals
I0628 15:54:30.334277 10004 net.cpp:150] Setting up proposals
I0628 15:54:30.334283 10004 net.cpp:157] Top shape: 1 5 1 1 (5)
I0628 15:54:30.334285 10004 net.cpp:165] Memory required for data: 4537088828
I0628 15:54:30.334288 10004 layer_factory.hpp:77] Creating layer proposal_info
I0628 15:54:30.334296 10004 net.cpp:100] Creating Layer proposal_info
I0628 15:54:30.334300 10004 net.cpp:434] proposal_info <- proposals
I0628 15:54:30.334305 10004 net.cpp:434] proposal_info <- gt_boxes
I0628 15:54:30.334313 10004 net.cpp:408] proposal_info -> rois
I0628 15:54:30.334323 10004 net.cpp:408] proposal_info -> proposal_labels
I0628 15:54:30.334331 10004 net.cpp:408] proposal_info -> proposal_targets
I0628 15:54:30.334339 10004 net.cpp:408] proposal_info -> box_inside_weights
I0628 15:54:30.334347 10004 net.cpp:408] proposal_info -> box_outside_weights
I0628 15:54:30.334354 10004 net.cpp:408] proposal_info -> match_gt_boxes
I0628 15:54:30.334440 10004 net.cpp:150] Setting up proposal_info
I0628 15:54:30.334446 10004 net.cpp:157] Top shape: 128 5 1 1 (640)
I0628 15:54:30.334450 10004 net.cpp:157] Top shape: 128 1 1 1 (128)
I0628 15:54:30.334453 10004 net.cpp:157] Top shape: 128 12 1 1 (1536)
I0628 15:54:30.334457 10004 net.cpp:157] Top shape: 128 12 1 1 (1536)
I0628 15:54:30.334461 10004 net.cpp:157] Top shape: 128 12 1 1 (1536)
I0628 15:54:30.334465 10004 net.cpp:157] Top shape: 128 6 1 1 (768)
I0628 15:54:30.334467 10004 net.cpp:165] Memory required for data: 4537113404
I0628 15:54:30.334470 10004 layer_factory.hpp:77] Creating layer rois_proposal_info_0_split
I0628 15:54:30.334476 10004 net.cpp:100] Creating Layer rois_proposal_info_0_split
I0628 15:54:30.334480 10004 net.cpp:434] rois_proposal_info_0_split <- rois
I0628 15:54:30.334484 10004 net.cpp:408] rois_proposal_info_0_split -> rois_proposal_info_0_split_0
I0628 15:54:30.334491 10004 net.cpp:408] rois_proposal_info_0_split -> rois_proposal_info_0_split_1
I0628 15:54:30.334499 10004 net.cpp:408] rois_proposal_info_0_split -> rois_proposal_info_0_split_2
I0628 15:54:30.334543 10004 net.cpp:150] Setting up rois_proposal_info_0_split
I0628 15:54:30.334548 10004 net.cpp:157] Top shape: 128 5 1 1 (640)
I0628 15:54:30.334552 10004 net.cpp:157] Top shape: 128 5 1 1 (640)
I0628 15:54:30.334555 10004 net.cpp:157] Top shape: 128 5 1 1 (640)
I0628 15:54:30.334558 10004 net.cpp:165] Memory required for data: 4537121084
I0628 15:54:30.334560 10004 layer_factory.hpp:77] Creating layer proposal_labels_proposal_info_1_split
I0628 15:54:30.334565 10004 net.cpp:100] Creating Layer proposal_labels_proposal_info_1_split
I0628 15:54:30.334568 10004 net.cpp:434] proposal_labels_proposal_info_1_split <- proposal_labels
I0628 15:54:30.334575 10004 net.cpp:408] proposal_labels_proposal_info_1_split -> proposal_labels_proposal_info_1_split_0
I0628 15:54:30.334581 10004 net.cpp:408] proposal_labels_proposal_info_1_split -> proposal_labels_proposal_info_1_split_1
I0628 15:54:30.334612 10004 net.cpp:150] Setting up proposal_labels_proposal_info_1_split
I0628 15:54:30.334617 10004 net.cpp:157] Top shape: 128 1 1 1 (128)
I0628 15:54:30.334620 10004 net.cpp:157] Top shape: 128 1 1 1 (128)
I0628 15:54:30.334623 10004 net.cpp:165] Memory required for data: 4537122108
I0628 15:54:30.334626 10004 layer_factory.hpp:77] Creating layer conv4_3_2x
I0628 15:54:30.334635 10004 net.cpp:100] Creating Layer conv4_3_2x
I0628 15:54:30.334638 10004 net.cpp:434] conv4_3_2x <- conv4_3_relu4_3_0_split_2
I0628 15:54:30.334645 10004 net.cpp:408] conv4_3_2x -> conv4_3_2x
I0628 15:54:30.335049 10004 net.cpp:150] Setting up conv4_3_2x
I0628 15:54:30.335057 10004 net.cpp:157] Top shape: 4 512 144 192 (56623104)
I0628 15:54:30.335060 10004 net.cpp:165] Memory required for data: 4763614524
I0628 15:54:30.335065 10004 layer_factory.hpp:77] Creating layer conv4_3_2x_conv4_3_2x_0_split
I0628 15:54:30.335073 10004 net.cpp:100] Creating Layer conv4_3_2x_conv4_3_2x_0_split
I0628 15:54:30.335078 10004 net.cpp:434] conv4_3_2x_conv4_3_2x_0_split <- conv4_3_2x
I0628 15:54:30.335083 10004 net.cpp:408] conv4_3_2x_conv4_3_2x_0_split -> conv4_3_2x_conv4_3_2x_0_split_0
I0628 15:54:30.335090 10004 net.cpp:408] conv4_3_2x_conv4_3_2x_0_split -> conv4_3_2x_conv4_3_2x_0_split_1
I0628 15:54:30.335125 10004 net.cpp:150] Setting up conv4_3_2x_conv4_3_2x_0_split
I0628 15:54:30.335130 10004 net.cpp:157] Top shape: 4 512 144 192 (56623104)
I0628 15:54:30.335134 10004 net.cpp:157] Top shape: 4 512 144 192 (56623104)
I0628 15:54:30.335137 10004 net.cpp:165] Memory required for data: 5216599356
I0628 15:54:30.335140 10004 layer_factory.hpp:77] Creating layer roi_pool_org
I0628 15:54:30.335152 10004 net.cpp:100] Creating Layer roi_pool_org
I0628 15:54:30.335156 10004 net.cpp:434] roi_pool_org <- conv4_3_2x_conv4_3_2x_0_split_0
I0628 15:54:30.335160 10004 net.cpp:434] roi_pool_org <- rois_proposal_info_0_split_0
I0628 15:54:30.335165 10004 net.cpp:408] roi_pool_org -> roi_pool_org
I0628 15:54:30.335175 10004 roi_pooling_layer.cpp:33] Spatial scale: 0.25
I0628 15:54:30.335211 10004 net.cpp:150] Setting up roi_pool_org
I0628 15:54:30.335216 10004 net.cpp:157] Top shape: 128 512 7 5 (2293760)
I0628 15:54:30.335218 10004 net.cpp:165] Memory required for data: 5225774396
I0628 15:54:30.335222 10004 layer_factory.hpp:77] Creating layer roi_pool_ctx
I0628 15:54:30.335225 10004 net.cpp:100] Creating Layer roi_pool_ctx
I0628 15:54:30.335228 10004 net.cpp:434] roi_pool_ctx <- conv4_3_2x_conv4_3_2x_0_split_1
I0628 15:54:30.335233 10004 net.cpp:434] roi_pool_ctx <- rois_proposal_info_0_split_1
I0628 15:54:30.335238 10004 net.cpp:408] roi_pool_ctx -> roi_pool_ctx
I0628 15:54:30.335245 10004 roi_pooling_layer.cpp:33] Spatial scale: 0.25
I0628 15:54:30.335278 10004 net.cpp:150] Setting up roi_pool_ctx
I0628 15:54:30.335283 10004 net.cpp:157] Top shape: 128 512 7 5 (2293760)
I0628 15:54:30.335286 10004 net.cpp:165] Memory required for data: 5234949436
I0628 15:54:30.335289 10004 layer_factory.hpp:77] Creating layer roi_pool
I0628 15:54:30.335294 10004 net.cpp:100] Creating Layer roi_pool
I0628 15:54:30.335299 10004 net.cpp:434] roi_pool <- roi_pool_org
I0628 15:54:30.335302 10004 net.cpp:434] roi_pool <- roi_pool_ctx
I0628 15:54:30.335306 10004 net.cpp:408] roi_pool -> roi_pool
I0628 15:54:30.335330 10004 net.cpp:150] Setting up roi_pool
I0628 15:54:30.335335 10004 net.cpp:157] Top shape: 128 1024 7 5 (4587520)
I0628 15:54:30.335336 10004 net.cpp:165] Memory required for data: 5253299516
I0628 15:54:30.335340 10004 layer_factory.hpp:77] Creating layer roi_c1
I0628 15:54:30.335348 10004 net.cpp:100] Creating Layer roi_c1
I0628 15:54:30.335352 10004 net.cpp:434] roi_c1 <- roi_pool
I0628 15:54:30.335358 10004 net.cpp:408] roi_c1 -> roi_c1
I0628 15:54:30.374112 10004 net.cpp:150] Setting up roi_c1
I0628 15:54:30.374130 10004 net.cpp:157] Top shape: 128 512 5 3 (983040)
I0628 15:54:30.374133 10004 net.cpp:165] Memory required for data: 5257231676
I0628 15:54:30.374142 10004 layer_factory.hpp:77] Creating layer roi_c1_relu
I0628 15:54:30.374150 10004 net.cpp:100] Creating Layer roi_c1_relu
I0628 15:54:30.374156 10004 net.cpp:434] roi_c1_relu <- roi_c1
I0628 15:54:30.374164 10004 net.cpp:395] roi_c1_relu -> roi_c1 (in-place)
I0628 15:54:30.374884 10004 net.cpp:150] Setting up roi_c1_relu
I0628 15:54:30.374897 10004 net.cpp:157] Top shape: 128 512 5 3 (983040)
I0628 15:54:30.374899 10004 net.cpp:165] Memory required for data: 5261163836
I0628 15:54:30.374903 10004 layer_factory.hpp:77] Creating layer fc6
I0628 15:54:30.374912 10004 net.cpp:100] Creating Layer fc6
I0628 15:54:30.374917 10004 net.cpp:434] fc6 <- roi_c1
I0628 15:54:30.374924 10004 net.cpp:408] fc6 -> fc6
I0628 15:54:30.496196 10004 net.cpp:150] Setting up fc6
I0628 15:54:30.496213 10004 net.cpp:157] Top shape: 128 2048 (262144)
I0628 15:54:30.496217 10004 net.cpp:165] Memory required for data: 5262212412
I0628 15:54:30.496227 10004 layer_factory.hpp:77] Creating layer relu6
I0628 15:54:30.496235 10004 net.cpp:100] Creating Layer relu6
I0628 15:54:30.496240 10004 net.cpp:434] relu6 <- fc6
I0628 15:54:30.496248 10004 net.cpp:395] relu6 -> fc6 (in-place)
I0628 15:54:30.496587 10004 net.cpp:150] Setting up relu6
I0628 15:54:30.496598 10004 net.cpp:157] Top shape: 128 2048 (262144)
I0628 15:54:30.496600 10004 net.cpp:165] Memory required for data: 5263260988
I0628 15:54:30.496603 10004 layer_factory.hpp:77] Creating layer drop6
I0628 15:54:30.496616 10004 net.cpp:100] Creating Layer drop6
I0628 15:54:30.496620 10004 net.cpp:434] drop6 <- fc6
I0628 15:54:30.496626 10004 net.cpp:395] drop6 -> fc6 (in-place)
I0628 15:54:30.496657 10004 net.cpp:150] Setting up drop6
I0628 15:54:30.496662 10004 net.cpp:157] Top shape: 128 2048 (262144)
I0628 15:54:30.496665 10004 net.cpp:165] Memory required for data: 5264309564
I0628 15:54:30.496668 10004 layer_factory.hpp:77] Creating layer fc6_drop6_0_split
I0628 15:54:30.496675 10004 net.cpp:100] Creating Layer fc6_drop6_0_split
I0628 15:54:30.496678 10004 net.cpp:434] fc6_drop6_0_split <- fc6
I0628 15:54:30.496685 10004 net.cpp:408] fc6_drop6_0_split -> fc6_drop6_0_split_0
I0628 15:54:30.496692 10004 net.cpp:408] fc6_drop6_0_split -> fc6_drop6_0_split_1
I0628 15:54:30.496732 10004 net.cpp:150] Setting up fc6_drop6_0_split
I0628 15:54:30.496737 10004 net.cpp:157] Top shape: 128 2048 (262144)
I0628 15:54:30.496742 10004 net.cpp:157] Top shape: 128 2048 (262144)
I0628 15:54:30.496743 10004 net.cpp:165] Memory required for data: 5266406716
I0628 15:54:30.496747 10004 layer_factory.hpp:77] Creating layer cls_pred
I0628 15:54:30.496754 10004 net.cpp:100] Creating Layer cls_pred
I0628 15:54:30.496758 10004 net.cpp:434] cls_pred <- fc6_drop6_0_split_0
I0628 15:54:30.496765 10004 net.cpp:408] cls_pred -> cls_pred
I0628 15:54:30.496935 10004 net.cpp:150] Setting up cls_pred
I0628 15:54:30.496943 10004 net.cpp:157] Top shape: 128 3 (384)
I0628 15:54:30.496946 10004 net.cpp:165] Memory required for data: 5266408252
I0628 15:54:30.496953 10004 layer_factory.hpp:77] Creating layer cls_pred_cls_pred_0_split
I0628 15:54:30.496959 10004 net.cpp:100] Creating Layer cls_pred_cls_pred_0_split
I0628 15:54:30.496963 10004 net.cpp:434] cls_pred_cls_pred_0_split <- cls_pred
I0628 15:54:30.496969 10004 net.cpp:408] cls_pred_cls_pred_0_split -> cls_pred_cls_pred_0_split_0
I0628 15:54:30.496976 10004 net.cpp:408] cls_pred_cls_pred_0_split -> cls_pred_cls_pred_0_split_1
I0628 15:54:30.497020 10004 net.cpp:150] Setting up cls_pred_cls_pred_0_split
I0628 15:54:30.497025 10004 net.cpp:157] Top shape: 128 3 (384)
I0628 15:54:30.497028 10004 net.cpp:157] Top shape: 128 3 (384)
I0628 15:54:30.497030 10004 net.cpp:165] Memory required for data: 5266411324
I0628 15:54:30.497033 10004 layer_factory.hpp:77] Creating layer bbox_pred
I0628 15:54:30.497040 10004 net.cpp:100] Creating Layer bbox_pred
I0628 15:54:30.497043 10004 net.cpp:434] bbox_pred <- fc6_drop6_0_split_1
I0628 15:54:30.497050 10004 net.cpp:408] bbox_pred -> bbox_pred
I0628 15:54:30.497344 10004 net.cpp:150] Setting up bbox_pred
I0628 15:54:30.497351 10004 net.cpp:157] Top shape: 128 12 (1536)
I0628 15:54:30.497354 10004 net.cpp:165] Memory required for data: 5266417468
I0628 15:54:30.497360 10004 layer_factory.hpp:77] Creating layer bbox_pred_bbox_pred_0_split
I0628 15:54:30.497367 10004 net.cpp:100] Creating Layer bbox_pred_bbox_pred_0_split
I0628 15:54:30.497371 10004 net.cpp:434] bbox_pred_bbox_pred_0_split <- bbox_pred
I0628 15:54:30.497376 10004 net.cpp:408] bbox_pred_bbox_pred_0_split -> bbox_pred_bbox_pred_0_split_0
I0628 15:54:30.497385 10004 net.cpp:408] bbox_pred_bbox_pred_0_split -> bbox_pred_bbox_pred_0_split_1
I0628 15:54:30.497417 10004 net.cpp:150] Setting up bbox_pred_bbox_pred_0_split
I0628 15:54:30.497421 10004 net.cpp:157] Top shape: 128 12 (1536)
I0628 15:54:30.497424 10004 net.cpp:157] Top shape: 128 12 (1536)
I0628 15:54:30.497427 10004 net.cpp:165] Memory required for data: 5266429756
I0628 15:54:30.497431 10004 layer_factory.hpp:77] Creating layer loss_cls
I0628 15:54:30.497437 10004 net.cpp:100] Creating Layer loss_cls
I0628 15:54:30.497442 10004 net.cpp:434] loss_cls <- cls_pred_cls_pred_0_split_0
I0628 15:54:30.497447 10004 net.cpp:434] loss_cls <- proposal_labels_proposal_info_1_split_0
…
I0628 15:54:30.509733 10004 image_gt_data_layer.cpp:241] output label size 3 : 2,6,36,48
I0628 15:54:30.509778 10004 image_gt_data_layer.cpp:241] output label size 4 : 2,6,18,24
I0628 15:54:30.509824 10004 image_gt_data_layer.cpp:241] output label size 5 : 2,6,18,24
I0628 15:54:30.509867 10004 image_gt_data_layer.cpp:241] output label size 6 : 2,6,9,12
I0628 15:54:30.509912 10004 image_gt_data_layer.cpp:256] output gt boxes size: 1,7,1,1
I0628 15:54:30.509914 10004 image_gt_data_layer.cpp:265]  --> has_mean_values_ = 1
I0628 15:54:30.529469 10004 net.cpp:150] Setting up data
I0628 15:54:30.529486 10004 net.cpp:157] Top shape: 2 4 576 768 (3538944)
I0628 15:54:30.529491 10004 net.cpp:157] Top shape: 2 6 72 96 (82944)
I0628 15:54:30.529495 10004 net.cpp:157] Top shape: 2 6 72 96 (82944)
I0628 15:54:30.529500 10004 net.cpp:157] Top shape: 2 6 36 48 (20736)
I0628 15:54:30.529502 10004 net.cpp:157] Top shape: 2 6 36 48 (20736)
I0628 15:54:30.529507 10004 net.cpp:157] Top shape: 2 6 18 24 (5184)
I0628 15:54:30.529510 10004 net.cpp:157] Top shape: 2 6 18 24 (5184)
I0628 15:54:30.529515 10004 net.cpp:157] Top shape: 2 6 9 12 (1296)
I0628 15:54:30.529518 10004 net.cpp:157] Top shape: 1 7 1 1 (7)
I0628 15:54:30.529521 10004 net.cpp:165] Memory required for data: 15031900
I0628 15:54:30.529527 10004 layer_factory.hpp:77] Creating layer label_1_3x5_data_1_split
I0628 15:54:30.529541 10004 net.cpp:100] Creating Layer label_1_3x5_data_1_split
I0628 15:54:30.529546 10004 net.cpp:434] label_1_3x5_data_1_split <- label_1_3x5
I0628 15:54:30.529558 10004 net.cpp:408] label_1_3x5_data_1_split -> label_1_3x5_data_1_split_0
I0628 15:54:30.529568 10004 net.cpp:408] label_1_3x5_data_1_split -> label_1_3x5_data_1_split_1
I0628 15:54:30.531396 10004 net.cpp:150] Setting up label_1_3x5_data_1_split
I0628 15:54:30.531486 10004 net.cpp:157] Top shape: 2 6 72 96 (82944)
I0628 15:54:30.531496 10004 net.cpp:157] Top shape: 2 6 72 96 (82944)
I0628 15:54:30.531499 10004 net.cpp:165] Memory required for data: 15695452
I0628 15:54:30.531513 10004 layer_factory.hpp:77] Creating layer label_1_5x7_data_2_split
I0628 15:54:30.531558 10004 net.cpp:100] Creating Layer label_1_5x7_data_2_split
I0628 15:54:30.531567 10004 net.cpp:434] label_1_5x7_data_2_split <- label_1_5x7
I0628 15:54:30.531587 10004 net.cpp:408] label_1_5x7_data_2_split -> label_1_5x7_data_2_split_0
I0628 15:54:30.531611 10004 net.cpp:408] label_1_5x7_data_2_split -> label_1_5x7_data_2_split_1
I0628 15:54:30.532073 10004 net.cpp:150] Setting up label_1_5x7_data_2_split
I0628 15:54:30.532136 10004 net.cpp:157] Top shape: 2 6 72 96 (82944)
I0628 15:54:30.532145 10004 net.cpp:157] Top shape: 2 6 72 96 (82944)
I0628 15:54:30.532153 10004 net.cpp:165] Memory required for data: 16359004
I0628 15:54:30.532163 10004 layer_factory.hpp:77] Creating layer label_2_3x5_data_3_split
I0628 15:54:30.532184 10004 net.cpp:100] Creating Layer label_2_3x5_data_3_split
I0628 15:54:30.532194 10004 net.cpp:434] label_2_3x5_data_3_split <- label_2_3x5
I0628 15:54:30.532217 10004 net.cpp:408] label_2_3x5_data_3_split -> label_2_3x5_data_3_split_0
I0628 15:54:30.532243 10004 net.cpp:408] label_2_3x5_data_3_split -> label_2_3x5_data_3_split_1
I0628 15:54:30.532476 10004 net.cpp:150] Setting up label_2_3x5_data_3_split
I0628 15:54:30.532493 10004 net.cpp:157] Top shape: 2 6 36 48 (20736)
I0628 15:54:30.532497 10004 net.cpp:157] Top shape: 2 6 36 48 (20736)
I0628 15:54:30.532500 10004 net.cpp:165] Memory required for data: 16524892
I0628 15:54:30.532505 10004 layer_factory.hpp:77] Creating layer label_2_5x7_data_4_split
I0628 15:54:30.532516 10004 net.cpp:100] Creating Layer label_2_5x7_data_4_split
I0628 15:54:30.532519 10004 net.cpp:434] label_2_5x7_data_4_split <- label_2_5x7
I0628 15:54:30.532526 10004 net.cpp:408] label_2_5x7_data_4_split -> label_2_5x7_data_4_split_0
I0628 15:54:30.532532 10004 net.cpp:408] label_2_5x7_data_4_split -> label_2_5x7_data_4_split_1
I0628 15:54:30.532629 10004 net.cpp:150] Setting up label_2_5x7_data_4_split
I0628 15:54:30.532637 10004 net.cpp:157] Top shape: 2 6 36 48 (20736)
I0628 15:54:30.532641 10004 net.cpp:157] Top shape: 2 6 36 48 (20736)
I0628 15:54:30.532644 10004 net.cpp:165] Memory required for data: 16690780
I0628 15:54:30.532647 10004 layer_factory.hpp:77] Creating layer label_3_3x5_data_5_split
I0628 15:54:30.532656 10004 net.cpp:100] Creating Layer label_3_3x5_data_5_split
I0628 15:54:30.532660 10004 net.cpp:434] label_3_3x5_data_5_split <- label_3_3x5
I0628 15:54:30.532665 10004 net.cpp:408] label_3_3x5_data_5_split -> label_3_3x5_data_5_split_0
I0628 15:54:30.532671 10004 net.cpp:408] label_3_3x5_data_5_split -> label_3_3x5_data_5_split_1
I0628 15:54:30.532711 10004 net.cpp:150] Setting up label_3_3x5_data_5_split
I0628 15:54:30.532717 10004 net.cpp:157] Top shape: 2 6 18 24 (5184)
I0628 15:54:30.532721 10004 net.cpp:157] Top shape: 2 6 18 24 (5184)
I0628 15:54:30.532724 10004 net.cpp:165] Memory required for data: 16732252
I0628 15:54:30.532727 10004 layer_factory.hpp:77] Creating layer label_3_5x7_data_6_split
I0628 15:54:30.532732 10004 net.cpp:100] Creating Layer label_3_5x7_data_6_split
I0628 15:54:30.532734 10004 net.cpp:434] label_3_5x7_data_6_split <- label_3_5x7
I0628 15:54:30.532740 10004 net.cpp:408] label_3_5x7_data_6_split -> label_3_5x7_data_6_split_0
I0628 15:54:30.532747 10004 net.cpp:408] label_3_5x7_data_6_split -> label_3_5x7_data_6_split_1
I0628 15:54:30.532786 10004 net.cpp:150] Setting up label_3_5x7_data_6_split
I0628 15:54:30.532793 10004 net.cpp:157] Top shape: 2 6 18 24 (5184)
I0628 15:54:30.532796 10004 net.cpp:157] Top shape: 2 6 18 24 (5184)
I0628 15:54:30.532799 10004 net.cpp:165] Memory required for data: 16773724
I0628 15:54:30.532801 10004 layer_factory.hpp:77] Creating layer label_4_3x5_data_7_split
I0628 15:54:30.532806 10004 net.cpp:100] Creating Layer label_4_3x5_data_7_split
I0628 15:54:30.532809 10004 net.cpp:434] label_4_3x5_data_7_split <- label_4_3x5
I0628 15:54:30.532815 10004 net.cpp:408] label_4_3x5_data_7_split -> label_4_3x5_data_7_split_0
I0628 15:54:30.532820 10004 net.cpp:408] label_4_3x5_data_7_split -> label_4_3x5_data_7_split_1
I0628 15:54:30.532862 10004 net.cpp:150] Setting up label_4_3x5_data_7_split
I0628 15:54:30.532867 10004 net.cpp:157] Top shape: 2 6 9 12 (1296)
I0628 15:54:30.532871 10004 net.cpp:157] Top shape: 2 6 9 12 (1296)
I0628 15:54:30.532873 10004 net.cpp:165] Memory required for data: 16784092
I0628 15:54:30.532876 10004 layer_factory.hpp:77] Creating layer conv1_1
I0628 15:54:30.532887 10004 net.cpp:100] Creating Layer conv1_1
I0628 15:54:30.532891 10004 net.cpp:434] conv1_1 <- data
I0628 15:54:30.532896 10004 net.cpp:408] conv1_1 -> conv1_1
I0628 15:54:30.537291 10004 net.cpp:150] Setting up conv1_1
I0628 15:54:30.537312 10004 net.cpp:157] Top shape: 2 64 576 768 (56623104)
I0628 15:54:30.537314 10004 net.cpp:165] Memory required for data: 243276508
I0628 15:54:30.537329 10004 layer_factory.hpp:77] Creating layer relu1_1
I0628 15:54:30.537340 10004 net.cpp:100] Creating Layer relu1_1
I0628 15:54:30.537345 10004 net.cpp:434] relu1_1 <- conv1_1
I0628 15:54:30.537353 10004 net.cpp:395] relu1_1 -> conv1_1 (in-place)
I0628 15:54:30.537817 10004 net.cpp:150] Setting up relu1_1
I0628 15:54:30.537828 10004 net.cpp:157] Top shape: 2 64 576 768 (56623104)
I0628 15:54:30.537832 10004 net.cpp:165] Memory required for data: 469768924
I0628 15:54:30.537835 10004 layer_factory.hpp:77] Creating layer conv1_2
I0628 15:54:30.537847 10004 net.cpp:100] Creating Layer conv1_2
I0628 15:54:30.537850 10004 net.cpp:434] conv1_2 <- conv1_1
I0628 15:54:30.537856 10004 net.cpp:408] conv1_2 -> conv1_2
I0628 15:54:30.542042 10004 net.cpp:150] Setting up conv1_2
I0628 15:54:30.542063 10004 net.cpp:157] Top shape: 2 64 576 768 (56623104)
I0628 15:54:30.542068 10004 net.cpp:165] Memory required for data: 696261340
I0628 15:54:30.542080 10004 layer_factory.hpp:77] Creating layer relu1_2
I0628 15:54:30.542093 10004 net.cpp:100] Creating Layer relu1_2
I0628 15:54:30.542098 10004 net.cpp:434] relu1_2 <- conv1_2
I0628 15:54:30.542104 10004 net.cpp:395] relu1_2 -> conv1_2 (in-place)
I0628 15:54:30.542593 10004 net.cpp:150] Setting up relu1_2
I0628 15:54:30.542603 10004 net.cpp:157] Top shape: 2 64 576 768 (56623104)
I0628 15:54:30.542606 10004 net.cpp:165] Memory required for data: 922753756
I0628 15:54:30.542610 10004 layer_factory.hpp:77] Creating layer pool1
I0628 15:54:30.542618 10004 net.cpp:100] Creating Layer pool1
I0628 15:54:30.542621 10004 net.cpp:434] pool1 <- conv1_2
I0628 15:54:30.542628 10004 net.cpp:408] pool1 -> pool1
I0628 15:54:30.542698 10004 net.cpp:150] Setting up pool1
I0628 15:54:30.542704 10004 net.cpp:157] Top shape: 2 64 288 384 (14155776)
I0628 15:54:30.542707 10004 net.cpp:165] Memory required for data: 979376860
I0628 15:54:30.542711 10004 layer_factory.hpp:77] Creating layer conv2_1
I0628 15:54:30.542718 10004 net.cpp:100] Creating Layer conv2_1
I0628 15:54:30.542723 10004 net.cpp:434] conv2_1 <- pool1
I0628 15:54:30.542728 10004 net.cpp:408] conv2_1 -> conv2_1
I0628 15:54:30.545639 10004 net.cpp:150] Setting up conv2_1
I0628 15:54:30.545658 10004 net.cpp:157] Top shape: 2 128 288 384 (28311552)
I0628 15:54:30.545662 10004 net.cpp:165] Memory required for data: 1092623068
I0628 15:54:30.545675 10004 layer_factory.hpp:77] Creating layer relu2_1
I0628 15:54:30.545682 10004 net.cpp:100] Creating Layer relu2_1
I0628 15:54:30.545686 10004 net.cpp:434] relu2_1 <- conv2_1
I0628 15:54:30.545694 10004 net.cpp:395] relu2_1 -> conv2_1 (in-place)
I0628 15:54:30.546705 10004 net.cpp:150] Setting up relu2_1
I0628 15:54:30.546717 10004 net.cpp:157] Top shape: 2 128 288 384 (28311552)
I0628 15:54:30.546720 10004 net.cpp:165] Memory required for data: 1205869276
I0628 15:54:30.546725 10004 layer_factory.hpp:77] Creating layer conv2_2
I0628 15:54:30.546751 10004 net.cpp:100] Creating Layer conv2_2
I0628 15:54:30.546756 10004 net.cpp:434] conv2_2 <- conv2_1
I0628 15:54:30.546763 10004 net.cpp:408] conv2_2 -> conv2_2
I0628 15:54:30.553331 10004 net.cpp:150] Setting up conv2_2
I0628 15:54:30.553359 10004 net.cpp:157] Top shape: 2 128 288 384 (28311552)
I0628 15:54:30.553362 10004 net.cpp:165] Memory required for data: 1319115484
I0628 15:54:30.553373 10004 layer_factory.hpp:77] Creating layer relu2_2
I0628 15:54:30.553395 10004 net.cpp:100] Creating Layer relu2_2
I0628 15:54:30.553400 10004 net.cpp:434] relu2_2 <- conv2_2
I0628 15:54:30.553411 10004 net.cpp:395] relu2_2 -> conv2_2 (in-place)
I0628 15:54:30.553951 10004 net.cpp:150] Setting up relu2_2
I0628 15:54:30.553961 10004 net.cpp:157] Top shape: 2 128 288 384 (28311552)
I0628 15:54:30.553964 10004 net.cpp:165] Memory required for data: 1432361692
I0628 15:54:30.553968 10004 layer_factory.hpp:77] Creating layer pool2
I0628 15:54:30.553975 10004 net.cpp:100] Creating Layer pool2
I0628 15:54:30.553978 10004 net.cpp:434] pool2 <- conv2_2
I0628 15:54:30.553985 10004 net.cpp:408] pool2 -> pool2
I0628 15:54:30.554056 10004 net.cpp:150] Setting up pool2
I0628 15:54:30.554062 10004 net.cpp:157] Top shape: 2 128 144 192 (7077888)
I0628 15:54:30.554065 10004 net.cpp:165] Memory required for data: 1460673244
I0628 15:54:30.554069 10004 layer_factory.hpp:77] Creating layer conv3_1
I0628 15:54:30.554078 10004 net.cpp:100] Creating Layer conv3_1
I0628 15:54:30.554082 10004 net.cpp:434] conv3_1 <- pool2
I0628 15:54:30.554088 10004 net.cpp:408] conv3_1 -> conv3_1
I0628 15:54:30.557788 10004 net.cpp:150] Setting up conv3_1
I0628 15:54:30.557806 10004 net.cpp:157] Top shape: 2 256 144 192 (14155776)
I0628 15:54:30.557808 10004 net.cpp:165] Memory required for data: 1517296348
I0628 15:54:30.557822 10004 layer_factory.hpp:77] Creating layer relu3_1
I0628 15:54:30.557832 10004 net.cpp:100] Creating Layer relu3_1
I0628 15:54:30.557837 10004 net.cpp:434] relu3_1 <- conv3_1
I0628 15:54:30.557842 10004 net.cpp:395] relu3_1 -> conv3_1 (in-place)
I0628 15:54:30.558228 10004 net.cpp:150] Setting up relu3_1
I0628 15:54:30.558236 10004 net.cpp:157] Top shape: 2 256 144 192 (14155776)
I0628 15:54:30.558239 10004 net.cpp:165] Memory required for data: 1573919452
I0628 15:54:30.558243 10004 layer_factory.hpp:77] Creating layer conv3_2
I0628 15:54:30.558253 10004 net.cpp:100] Creating Layer conv3_2
I0628 15:54:30.558255 10004 net.cpp:434] conv3_2 <- conv3_1
I0628 15:54:30.558261 10004 net.cpp:408] conv3_2 -> conv3_2
I0628 15:54:30.562892 10004 net.cpp:150] Setting up conv3_2
I0628 15:54:30.562913 10004 net.cpp:157] Top shape: 2 256 144 192 (14155776)
I0628 15:54:30.562916 10004 net.cpp:165] Memory required for data: 1630542556
I0628 15:54:30.562925 10004 layer_factory.hpp:77] Creating layer relu3_2
I0628 15:54:30.562934 10004 net.cpp:100] Creating Layer relu3_2
I0628 15:54:30.562939 10004 net.cpp:434] relu3_2 <- conv3_2
I0628 15:54:30.562947 10004 net.cpp:395] relu3_2 -> conv3_2 (in-place)
I0628 15:54:30.563930 10004 net.cpp:150] Setting up relu3_2
I0628 15:54:30.563942 10004 net.cpp:157] Top shape: 2 256 144 192 (14155776)
I0628 15:54:30.563946 10004 net.cpp:165] Memory required for data: 1687165660
I0628 15:54:30.563948 10004 layer_factory.hpp:77] Creating layer conv3_3
I0628 15:54:30.563957 10004 net.cpp:100] Creating Layer conv3_3
I0628 15:54:30.563961 10004 net.cpp:434] conv3_3 <- conv3_2
I0628 15:54:30.563968 10004 net.cpp:408] conv3_3 -> conv3_3
I0628 15:54:30.568583 10004 net.cpp:150] Setting up conv3_3
I0628 15:54:30.568603 10004 net.cpp:157] Top shape: 2 256 144 192 (14155776)
I0628 15:54:30.568606 10004 net.cpp:165] Memory required for data: 1743788764
I0628 15:54:30.568615 10004 layer_factory.hpp:77] Creating layer relu3_3
I0628 15:54:30.568624 10004 net.cpp:100] Creating Layer relu3_3
I0628 15:54:30.568629 10004 net.cpp:434] relu3_3 <- conv3_3
I0628 15:54:30.568636 10004 net.cpp:395] relu3_3 -> conv3_3 (in-place)
I0628 15:54:30.569649 10004 net.cpp:150] Setting up relu3_3
I0628 15:54:30.569663 10004 net.cpp:157] Top shape: 2 256 144 192 (14155776)
I0628 15:54:30.569665 10004 net.cpp:165] Memory required for data: 1800411868
I0628 15:54:30.569669 10004 layer_factory.hpp:77] Creating layer pool3
I0628 15:54:30.569676 10004 net.cpp:100] Creating Layer pool3
I0628 15:54:30.569679 10004 net.cpp:434] pool3 <- conv3_3
I0628 15:54:30.569686 10004 net.cpp:408] pool3 -> pool3
I0628 15:54:30.569759 10004 net.cpp:150] Setting up pool3
I0628 15:54:30.569766 10004 net.cpp:157] Top shape: 2 256 72 96 (3538944)
I0628 15:54:30.569769 10004 net.cpp:165] Memory required for data: 1814567644
I0628 15:54:30.569772 10004 layer_factory.hpp:77] Creating layer conv4_1
I0628 15:54:30.569780 10004 net.cpp:100] Creating Layer conv4_1
I0628 15:54:30.569784 10004 net.cpp:434] conv4_1 <- pool3
I0628 15:54:30.569789 10004 net.cpp:408] conv4_1 -> conv4_1
I0628 15:54:30.575692 10004 net.cpp:150] Setting up conv4_1
I0628 15:54:30.575719 10004 net.cpp:157] Top shape: 2 512 72 96 (7077888)
I0628 15:54:30.575722 10004 net.cpp:165] Memory required for data: 1842879196
I0628 15:54:30.575733 10004 layer_factory.hpp:77] Creating layer relu4_1
I0628 15:54:30.575749 10004 net.cpp:100] Creating Layer relu4_1
I0628 15:54:30.575755 10004 net.cpp:434] relu4_1 <- conv4_1
I0628 15:54:30.575765 10004 net.cpp:395] relu4_1 -> conv4_1 (in-place)
I0628 15:54:30.576247 10004 net.cpp:150] Setting up relu4_1
I0628 15:54:30.576259 10004 net.cpp:157] Top shape: 2 512 72 96 (7077888)
I0628 15:54:30.576261 10004 net.cpp:165] Memory required for data: 1871190748
I0628 15:54:30.576264 10004 layer_factory.hpp:77] Creating layer conv4_2
I0628 15:54:30.576277 10004 net.cpp:100] Creating Layer conv4_2
I0628 15:54:30.576280 10004 net.cpp:434] conv4_2 <- conv4_1
I0628 15:54:30.576287 10004 net.cpp:408] conv4_2 -> conv4_2
I0628 15:54:30.585798 10004 net.cpp:150] Setting up conv4_2
I0628 15:54:30.585816 10004 net.cpp:157] Top shape: 2 512 72 96 (7077888)
I0628 15:54:30.585819 10004 net.cpp:165] Memory required for data: 1899502300
I0628 15:54:30.585832 10004 layer_factory.hpp:77] Creating layer relu4_2
I0628 15:54:30.585842 10004 net.cpp:100] Creating Layer relu4_2
I0628 15:54:30.585846 10004 net.cpp:434] relu4_2 <- conv4_2
I0628 15:54:30.585853 10004 net.cpp:395] relu4_2 -> conv4_2 (in-place)
I0628 15:54:30.586215 10004 net.cpp:150] Setting up relu4_2
I0628 15:54:30.586231 10004 net.cpp:157] Top shape: 2 512 72 96 (7077888)
I0628 15:54:30.586233 10004 net.cpp:165] Memory required for data: 1927813852
I0628 15:54:30.586236 10004 layer_factory.hpp:77] Creating layer conv4_3
I0628 15:54:30.586246 10004 net.cpp:100] Creating Layer conv4_3
I0628 15:54:30.586251 10004 net.cpp:434] conv4_3 <- conv4_2
I0628 15:54:30.586258 10004 net.cpp:408] conv4_3 -> conv4_3
I0628 15:54:30.592031 10004 net.cpp:150] Setting up conv4_3
I0628 15:54:30.592052 10004 net.cpp:157] Top shape: 2 512 72 96 (7077888)
I0628 15:54:30.592054 10004 net.cpp:165] Memory required for data: 1956125404
I0628 15:54:30.592062 10004 layer_factory.hpp:77] Creating layer relu4_3
I0628 15:54:30.592073 10004 net.cpp:100] Creating Layer relu4_3
I0628 15:54:30.592078 10004 net.cpp:434] relu4_3 <- conv4_3
I0628 15:54:30.592084 10004 net.cpp:395] relu4_3 -> conv4_3 (in-place)
I0628 15:54:30.592934 10004 net.cpp:150] Setting up relu4_3
I0628 15:54:30.592945 10004 net.cpp:157] Top shape: 2 512 72 96 (7077888)
I0628 15:54:30.592947 10004 net.cpp:165] Memory required for data: 1984436956
I0628 15:54:30.592950 10004 layer_factory.hpp:77] Creating layer conv4_3_relu4_3_0_split
I0628 15:54:30.592958 10004 net.cpp:100] Creating Layer conv4_3_relu4_3_0_split
I0628 15:54:30.592963 10004 net.cpp:434] conv4_3_relu4_3_0_split <- conv4_3
I0628 15:54:30.592972 10004 net.cpp:408] conv4_3_relu4_3_0_split -> conv4_3_relu4_3_0_split_0
I0628 15:54:30.592983 10004 net.cpp:408] conv4_3_relu4_3_0_split -> conv4_3_relu4_3_0_split_1
I0628 15:54:30.592990 10004 net.cpp:408] conv4_3_relu4_3_0_split -> conv4_3_relu4_3_0_split_2
I0628 15:54:30.593075 10004 net.cpp:150] Setting up conv4_3_relu4_3_0_split
I0628 15:54:30.593081 10004 net.cpp:157] Top shape: 2 512 72 96 (7077888)
I0628 15:54:30.593086 10004 net.cpp:157] Top shape: 2 512 72 96 (7077888)
I0628 15:54:30.593089 10004 net.cpp:157] Top shape: 2 512 72 96 (7077888)
I0628 15:54:30.593092 10004 net.cpp:165] Memory required for data: 2069371612
I0628 15:54:30.593096 10004 layer_factory.hpp:77] Creating layer loss1_conv1
I0628 15:54:30.593111 10004 net.cpp:100] Creating Layer loss1_conv1
I0628 15:54:30.593116 10004 net.cpp:434] loss1_conv1 <- conv4_3_relu4_3_0_split_0
I0628 15:54:30.593122 10004 net.cpp:408] loss1_conv1 -> loss1_conv1
I0628 15:54:30.615454 10004 net.cpp:150] Setting up loss1_conv1
I0628 15:54:30.615484 10004 net.cpp:157] Top shape: 2 512 72 96 (7077888)
I0628 15:54:30.615487 10004 net.cpp:165] Memory required for data: 2097683164
I0628 15:54:30.615499 10004 layer_factory.hpp:77] Creating layer loss_relu1
I0628 15:54:30.615510 10004 net.cpp:100] Creating Layer loss_relu1
I0628 15:54:30.615515 10004 net.cpp:434] loss_relu1 <- loss1_conv1
I0628 15:54:30.615521 10004 net.cpp:395] loss_relu1 -> loss1_conv1 (in-place)
I0628 15:54:30.615888 10004 net.cpp:150] Setting up loss_relu1
I0628 15:54:30.615898 10004 net.cpp:157] Top shape: 2 512 72 96 (7077888)
I0628 15:54:30.615901 10004 net.cpp:165] Memory required for data: 2125994716
I0628 15:54:30.615906 10004 layer_factory.hpp:77] Creating layer loss1_conv1_loss_relu1_0_split
I0628 15:54:30.615912 10004 net.cpp:100] Creating Layer loss1_conv1_loss_relu1_0_split
I0628 15:54:30.615916 10004 net.cpp:434] loss1_conv1_loss_relu1_0_split <- loss1_conv1
I0628 15:54:30.615923 10004 net.cpp:408] loss1_conv1_loss_relu1_0_split -> loss1_conv1_loss_relu1_0_split_0
I0628 15:54:30.615931 10004 net.cpp:408] loss1_conv1_loss_relu1_0_split -> loss1_conv1_loss_relu1_0_split_1
I0628 15:54:30.615986 10004 net.cpp:150] Setting up loss1_conv1_loss_relu1_0_split
I0628 15:54:30.615993 10004 net.cpp:157] Top shape: 2 512 72 96 (7077888)
I0628 15:54:30.615998 10004 net.cpp:157] Top shape: 2 512 72 96 (7077888)
I0628 15:54:30.616000 10004 net.cpp:165] Memory required for data: 2182617820
I0628 15:54:30.616003 10004 layer_factory.hpp:77] Creating layer LFCN_1_3x5
I0628 15:54:30.616014 10004 net.cpp:100] Creating Layer LFCN_1_3x5
I0628 15:54:30.616017 10004 net.cpp:434] LFCN_1_3x5 <- loss1_conv1_loss_relu1_0_split_0
I0628 15:54:30.616024 10004 net.cpp:408] LFCN_1_3x5 -> LFCN_1_3x5
I0628 15:54:30.619114 10004 net.cpp:150] Setting up LFCN_1_3x5
I0628 15:54:30.619155 10004 net.cpp:157] Top shape: 2 7 72 96 (96768)
I0628 15:54:30.619158 10004 net.cpp:165] Memory required for data: 2183004892
I0628 15:54:30.619174 10004 layer_factory.hpp:77] Creating layer LFCN_1_3x5_LFCN_1_3x5_0_split
I0628 15:54:30.619189 10004 net.cpp:100] Creating Layer LFCN_1_3x5_LFCN_1_3x5_0_split
I0628 15:54:30.619197 10004 net.cpp:434] LFCN_1_3x5_LFCN_1_3x5_0_split <- LFCN_1_3x5
I0628 15:54:30.619207 10004 net.cpp:408] LFCN_1_3x5_LFCN_1_3x5_0_split -> LFCN_1_3x5_LFCN_1_3x5_0_split_0
I0628 15:54:30.619218 10004 net.cpp:408] LFCN_1_3x5_LFCN_1_3x5_0_split -> LFCN_1_3x5_LFCN_1_3x5_0_split_1
I0628 15:54:30.619230 10004 net.cpp:408] LFCN_1_3x5_LFCN_1_3x5_0_split -> LFCN_1_3x5_LFCN_1_3x5_0_split_2
I0628 15:54:30.619305 10004 net.cpp:150] Setting up LFCN_1_3x5_LFCN_1_3x5_0_split
I0628 15:54:30.619312 10004 net.cpp:157] Top shape: 2 7 72 96 (96768)
I0628 15:54:30.619314 10004 net.cpp:157] Top shape: 2 7 72 96 (96768)
I0628 15:54:30.619318 10004 net.cpp:157] Top shape: 2 7 72 96 (96768)
I0628 15:54:30.619321 10004 net.cpp:165] Memory required for data: 2184166108
I0628 15:54:30.619324 10004 layer_factory.hpp:77] Creating layer detection_loss_1_3x5
I0628 15:54:30.619333 10004 net.cpp:100] Creating Layer detection_loss_1_3x5
I0628 15:54:30.619338 10004 net.cpp:434] detection_loss_1_3x5 <- LFCN_1_3x5_LFCN_1_3x5_0_split_0
I0628 15:54:30.619343 10004 net.cpp:434] detection_loss_1_3x5 <- label_1_3x5_data_1_split_0
I0628 15:54:30.619349 10004 net.cpp:408] detection_loss_1_3x5 -> loss_1_3x5
I0628 15:54:30.619359 10004 layer_factory.hpp:77] Creating layer detection_loss_1_3x5
I0628 15:54:30.619841 10004 net.cpp:150] Setting up detection_loss_1_3x5
I0628 15:54:30.619849 10004 net.cpp:157] Top shape: 1 1 1 2 (2)
I0628 15:54:30.619853 10004 net.cpp:160]     with loss weight 0.5
I0628 15:54:30.619861 10004 net.cpp:165] Memory required for data: 2184166116
I0628 15:54:30.619865 10004 layer_factory.hpp:77] Creating layer detection_accuracy_1_3x5
I0628 15:54:30.619874 10004 net.cpp:100] Creating Layer detection_accuracy_1_3x5
I0628 15:54:30.619877 10004 net.cpp:434] detection_accuracy_1_3x5 <- LFCN_1_3x5_LFCN_1_3x5_0_split_1
I0628 15:54:30.619882 10004 net.cpp:434] detection_accuracy_1_3x5 <- label_1_3x5_data_1_split_1
I0628 15:54:30.619887 10004 net.cpp:408] detection_accuracy_1_3x5 -> accuracy_1_3x5
I0628 15:54:30.619894 10004 net.cpp:408] detection_accuracy_1_3x5 -> boxiou_1_3x5
I0628 15:54:30.619942 10004 net.cpp:150] Setting up detection_accuracy_1_3x5
I0628 15:54:30.619947 10004 net.cpp:157] Top shape: 1 1 1 2 (2)
I0628 15:54:30.619951 10004 net.cpp:157] Top shape: 1 1 1 1 (1)
I0628 15:54:30.619953 10004 net.cpp:165] Memory required for data: 2184166128
I0628 15:54:30.619956 10004 layer_factory.hpp:77] Creating layer LFCN_1_5x7
I0628 15:54:30.619966 10004 net.cpp:100] Creating Layer LFCN_1_5x7
I0628 15:54:30.619971 10004 net.cpp:434] LFCN_1_5x7 <- loss1_conv1_loss_relu1_0_split_1
I0628 15:54:30.619978 10004 net.cpp:408] LFCN_1_5x7 -> LFCN_1_5x7
I0628 15:54:30.626173 10004 net.cpp:150] Setting up LFCN_1_5x7
I0628 15:54:30.626195 10004 net.cpp:157] Top shape: 2 7 72 96 (96768)
I0628 15:54:30.626199 10004 net.cpp:165] Memory required for data: 2184553200
I0628 15:54:30.626212 10004 layer_factory.hpp:77] Creating layer LFCN_1_5x7_LFCN_1_5x7_0_split
I0628 15:54:30.626221 10004 net.cpp:100] Creating Layer LFCN_1_5x7_LFCN_1_5x7_0_split
I0628 15:54:30.626231 10004 net.cpp:434] LFCN_1_5x7_LFCN_1_5x7_0_split <- LFCN_1_5x7
I0628 15:54:30.626240 10004 net.cpp:408] LFCN_1_5x7_LFCN_1_5x7_0_split -> LFCN_1_5x7_LFCN_1_5x7_0_split_0
I0628 15:54:30.626250 10004 net.cpp:408] LFCN_1_5x7_LFCN_1_5x7_0_split -> LFCN_1_5x7_LFCN_1_5x7_0_split_1
I0628 15:54:30.626257 10004 net.cpp:408] LFCN_1_5x7_LFCN_1_5x7_0_split -> LFCN_1_5x7_LFCN_1_5x7_0_split_2
I0628 15:54:30.626330 10004 net.cpp:150] Setting up LFCN_1_5x7_LFCN_1_5x7_0_split
I0628 15:54:30.626336 10004 net.cpp:157] Top shape: 2 7 72 96 (96768)
I0628 15:54:30.626340 10004 net.cpp:157] Top shape: 2 7 72 96 (96768)
I0628 15:54:30.626344 10004 net.cpp:157] Top shape: 2 7 72 96 (96768)
I0628 15:54:30.626346 10004 net.cpp:165] Memory required for data: 2185714416
I0628 15:54:30.626350 10004 layer_factory.hpp:77] Creating layer detection_loss_1_5x7
I0628 15:54:30.626358 10004 net.cpp:100] Creating Layer detection_loss_1_5x7
I0628 15:54:30.626363 10004 net.cpp:434] detection_loss_1_5x7 <- LFCN_1_5x7_LFCN_1_5x7_0_split_0
I0628 15:54:30.626368 10004 net.cpp:434] detection_loss_1_5x7 <- label_1_5x7_data_2_split_0
I0628 15:54:30.626374 10004 net.cpp:408] detection_loss_1_5x7 -> loss_1_5x7
I0628 15:54:30.626382 10004 layer_factory.hpp:77] Creating layer detection_loss_1_5x7
I0628 15:54:30.627776 10004 net.cpp:150] Setting up detection_loss_1_5x7
I0628 15:54:30.627789 10004 net.cpp:157] Top shape: 1 1 1 2 (2)
I0628 15:54:30.627791 10004 net.cpp:160]     with loss weight 0.9
I0628 15:54:30.627801 10004 net.cpp:165] Memory required for data: 2185714424
I0628 15:54:30.627805 10004 layer_factory.hpp:77] Creating layer detection_accuracy_1_5x7
I0628 15:54:30.627816 10004 net.cpp:100] Creating Layer detection_accuracy_1_5x7
I0628 15:54:30.627821 10004 net.cpp:434] detection_accuracy_1_5x7 <- LFCN_1_5x7_LFCN_1_5x7_0_split_1
I0628 15:54:30.627827 10004 net.cpp:434] detection_accuracy_1_5x7 <- label_1_5x7_data_2_split_1
I0628 15:54:30.627835 10004 net.cpp:408] detection_accuracy_1_5x7 -> accuracy_1_5x7
I0628 15:54:30.627842 10004 net.cpp:408] detection_accuracy_1_5x7 -> boxiou_1_5x7
I0628 15:54:30.627897 10004 net.cpp:150] Setting up detection_accuracy_1_5x7
I0628 15:54:30.627903 10004 net.cpp:157] Top shape: 1 1 1 2 (2)
I0628 15:54:30.627907 10004 net.cpp:157] Top shape: 1 1 1 1 (1)
I0628 15:54:30.627909 10004 net.cpp:165] Memory required for data: 2185714436
I0628 15:54:30.627912 10004 layer_factory.hpp:77] Creating layer pool4
I0628 15:54:30.627918 10004 net.cpp:100] Creating Layer pool4
I0628 15:54:30.627921 10004 net.cpp:434] pool4 <- conv4_3_relu4_3_0_split_1
I0628 15:54:30.627926 10004 net.cpp:408] pool4 -> pool4
I0628 15:54:30.627982 10004 net.cpp:150] Setting up pool4
I0628 15:54:30.627988 10004 net.cpp:157] Top shape: 2 512 36 48 (1769472)
I0628 15:54:30.627991 10004 net.cpp:165] Memory required for data: 2192792324
I0628 15:54:30.627995 10004 layer_factory.hpp:77] Creating layer conv5_1
I0628 15:54:30.628002 10004 net.cpp:100] Creating Layer conv5_1
I0628 15:54:30.628005 10004 net.cpp:434] conv5_1 <- pool4
I0628 15:54:30.628011 10004 net.cpp:408] conv5_1 -> conv5_1
I0628 15:54:30.635505 10004 net.cpp:150] Setting up conv5_1
I0628 15:54:30.635526 10004 net.cpp:157] Top shape: 2 512 36 48 (1769472)
I0628 15:54:30.635529 10004 net.cpp:165] Memory required for data: 2199870212
I0628 15:54:30.635538 10004 layer_factory.hpp:77] Creating layer relu5_1
I0628 15:54:30.635546 10004 net.cpp:100] Creating Layer relu5_1
I0628 15:54:30.635550 10004 net.cpp:434] relu5_1 <- conv5_1
I0628 15:54:30.635558 10004 net.cpp:395] relu5_1 -> conv5_1 (in-place)
I0628 15:54:30.635913 10004 net.cpp:150] Setting up relu5_1
I0628 15:54:30.635921 10004 net.cpp:157] Top shape: 2 512 36 48 (1769472)
I0628 15:54:30.635924 10004 net.cpp:165] Memory required for data: 2206948100
I0628 15:54:30.635927 10004 layer_factory.hpp:77] Creating layer conv5_2
I0628 15:54:30.635936 10004 net.cpp:100] Creating Layer conv5_2
I0628 15:54:30.635941 10004 net.cpp:434] conv5_2 <- conv5_1
I0628 15:54:30.635946 10004 net.cpp:408] conv5_2 -> conv5_2
I0628 15:54:30.644246 10004 net.cpp:150] Setting up conv5_2
I0628 15:54:30.644270 10004 net.cpp:157] Top shape: 2 512 36 48 (1769472)
I0628 15:54:30.644274 10004 net.cpp:165] Memory required for data: 2214025988
I0628 15:54:30.644285 10004 layer_factory.hpp:77] Creating layer relu5_2
I0628 15:54:30.644296 10004 net.cpp:100] Creating Layer relu5_2
I0628 15:54:30.644301 10004 net.cpp:434] relu5_2 <- conv5_2
I0628 15:54:30.644307 10004 net.cpp:395] relu5_2 -> conv5_2 (in-place)
I0628 15:54:30.644630 10004 net.cpp:150] Setting up relu5_2
I0628 15:54:30.644641 10004 net.cpp:157] Top shape: 2 512 36 48 (1769472)
I0628 15:54:30.644644 10004 net.cpp:165] Memory required for data: 2221103876
I0628 15:54:30.644647 10004 layer_factory.hpp:77] Creating layer conv5_3
I0628 15:54:30.644656 10004 net.cpp:100] Creating Layer conv5_3
I0628 15:54:30.644662 10004 net.cpp:434] conv5_3 <- conv5_2
I0628 15:54:30.644670 10004 net.cpp:408] conv5_3 -> conv5_3
I0628 15:54:30.652372 10004 net.cpp:150] Setting up conv5_3
I0628 15:54:30.652392 10004 net.cpp:157] Top shape: 2 512 36 48 (1769472)
I0628 15:54:30.652396 10004 net.cpp:165] Memory required for data: 2228181764
I0628 15:54:30.652405 10004 layer_factory.hpp:77] Creating layer relu5_3
I0628 15:54:30.652413 10004 net.cpp:100] Creating Layer relu5_3
I0628 15:54:30.652420 10004 net.cpp:434] relu5_3 <- conv5_3
I0628 15:54:30.652426 10004 net.cpp:395] relu5_3 -> conv5_3 (in-place)
I0628 15:54:30.653498 10004 net.cpp:150] Setting up relu5_3
I0628 15:54:30.653511 10004 net.cpp:157] Top shape: 2 512 36 48 (1769472)
I0628 15:54:30.653513 10004 net.cpp:165] Memory required for data: 2235259652
I0628 15:54:30.653517 10004 layer_factory.hpp:77] Creating layer conv5_3_relu5_3_0_split
I0628 15:54:30.653523 10004 net.cpp:100] Creating Layer conv5_3_relu5_3_0_split
I0628 15:54:30.653527 10004 net.cpp:434] conv5_3_relu5_3_0_split <- conv5_3
I0628 15:54:30.653534 10004 net.cpp:408] conv5_3_relu5_3_0_split -> conv5_3_relu5_3_0_split_0
I0628 15:54:30.653542 10004 net.cpp:408] conv5_3_relu5_3_0_split -> conv5_3_relu5_3_0_split_1
I0628 15:54:30.653548 10004 net.cpp:408] conv5_3_relu5_3_0_split -> conv5_3_relu5_3_0_split_2
I0628 15:54:30.653630 10004 net.cpp:150] Setting up conv5_3_relu5_3_0_split
I0628 15:54:30.653636 10004 net.cpp:157] Top shape: 2 512 36 48 (1769472)
I0628 15:54:30.653640 10004 net.cpp:157] Top shape: 2 512 36 48 (1769472)
I0628 15:54:30.653643 10004 net.cpp:157] Top shape: 2 512 36 48 (1769472)
I0628 15:54:30.653646 10004 net.cpp:165] Memory required for data: 2256493316
I0628 15:54:30.653650 10004 layer_factory.hpp:77] Creating layer LFCN_2_3x5
I0628 15:54:30.653661 10004 net.cpp:100] Creating Layer LFCN_2_3x5
I0628 15:54:30.653663 10004 net.cpp:434] LFCN_2_3x5 <- conv5_3_relu5_3_0_split_0
I0628 15:54:30.653671 10004 net.cpp:408] LFCN_2_3x5 -> LFCN_2_3x5
I0628 15:54:30.657904 10004 net.cpp:150] Setting up LFCN_2_3x5
I0628 15:54:30.657924 10004 net.cpp:157] Top shape: 2 7 36 48 (24192)
I0628 15:54:30.657927 10004 net.cpp:165] Memory required for data: 2256590084
I0628 15:54:30.657943 10004 layer_factory.hpp:77] Creating layer LFCN_2_3x5_LFCN_2_3x5_0_split
I0628 15:54:30.657953 10004 net.cpp:100] Creating Layer LFCN_2_3x5_LFCN_2_3x5_0_split
I0628 15:54:30.657958 10004 net.cpp:434] LFCN_2_3x5_LFCN_2_3x5_0_split <- LFCN_2_3x5
I0628 15:54:30.657964 10004 net.cpp:408] LFCN_2_3x5_LFCN_2_3x5_0_split -> LFCN_2_3x5_LFCN_2_3x5_0_split_0
I0628 15:54:30.657985 10004 net.cpp:408] LFCN_2_3x5_LFCN_2_3x5_0_split -> LFCN_2_3x5_LFCN_2_3x5_0_split_1
I0628 15:54:30.657992 10004 net.cpp:408] LFCN_2_3x5_LFCN_2_3x5_0_split -> LFCN_2_3x5_LFCN_2_3x5_0_split_2
I0628 15:54:30.658068 10004 net.cpp:150] Setting up LFCN_2_3x5_LFCN_2_3x5_0_split
I0628 15:54:30.658076 10004 net.cpp:157] Top shape: 2 7 36 48 (24192)
I0628 15:54:30.658079 10004 net.cpp:157] Top shape: 2 7 36 48 (24192)
I0628 15:54:30.658083 10004 net.cpp:157] Top shape: 2 7 36 48 (24192)
I0628 15:54:30.658087 10004 net.cpp:165] Memory required for data: 2256880388
I0628 15:54:30.658089 10004 layer_factory.hpp:77] Creating layer detection_loss_2_3x5
I0628 15:54:30.658097 10004 net.cpp:100] Creating Layer detection_loss_2_3x5
I0628 15:54:30.658102 10004 net.cpp:434] detection_loss_2_3x5 <- LFCN_2_3x5_LFCN_2_3x5_0_split_0
I0628 15:54:30.658107 10004 net.cpp:434] detection_loss_2_3x5 <- label_2_3x5_data_3_split_0
I0628 15:54:30.658112 10004 net.cpp:408] detection_loss_2_3x5 -> loss_2_3x5
I0628 15:54:30.658123 10004 layer_factory.hpp:77] Creating layer detection_loss_2_3x5
I0628 15:54:30.659446 10004 net.cpp:150] Setting up detection_loss_2_3x5
I0628 15:54:30.659458 10004 net.cpp:157] Top shape: 1 1 1 2 (2)
I0628 15:54:30.659461 10004 net.cpp:160]     with loss weight 1
I0628 15:54:30.659469 10004 net.cpp:165] Memory required for data: 2256880396
I0628 15:54:30.659473 10004 layer_factory.hpp:77] Creating layer detection_accuracy_2_3x5
I0628 15:54:30.659483 10004 net.cpp:100] Creating Layer detection_accuracy_2_3x5
I0628 15:54:30.659487 10004 net.cpp:434] detection_accuracy_2_3x5 <- LFCN_2_3x5_LFCN_2_3x5_0_split_1
I0628 15:54:30.659493 10004 net.cpp:434] detection_accuracy_2_3x5 <- label_2_3x5_data_3_split_1
I0628 15:54:30.659499 10004 net.cpp:408] detection_accuracy_2_3x5 -> accuracy_2_3x5
I0628 15:54:30.659507 10004 net.cpp:408] detection_accuracy_2_3x5 -> boxiou_2_3x5
I0628 15:54:30.659560 10004 net.cpp:150] Setting up detection_accuracy_2_3x5
I0628 15:54:30.659566 10004 net.cpp:157] Top shape: 1 1 1 2 (2)
I0628 15:54:30.659570 10004 net.cpp:157] Top shape: 1 1 1 1 (1)
I0628 15:54:30.659572 10004 net.cpp:165] Memory required for data: 2256880408
I0628 15:54:30.659575 10004 layer_factory.hpp:77] Creating layer LFCN_2_5x7
I0628 15:54:30.659584 10004 net.cpp:100] Creating Layer LFCN_2_5x7
I0628 15:54:30.659588 10004 net.cpp:434] LFCN_2_5x7 <- conv5_3_relu5_3_0_split_1
I0628 15:54:30.659595 10004 net.cpp:408] LFCN_2_5x7 -> LFCN_2_5x7
I0628 15:54:30.663949 10004 net.cpp:150] Setting up LFCN_2_5x7
I0628 15:54:30.663969 10004 net.cpp:157] Top shape: 2 7 36 48 (24192)
I0628 15:54:30.663971 10004 net.cpp:165] Memory required for data: 2256977176
I0628 15:54:30.663980 10004 layer_factory.hpp:77] Creating layer LFCN_2_5x7_LFCN_2_5x7_0_split
I0628 15:54:30.663986 10004 net.cpp:100] Creating Layer LFCN_2_5x7_LFCN_2_5x7_0_split
I0628 15:54:30.663991 10004 net.cpp:434] LFCN_2_5x7_LFCN_2_5x7_0_split <- LFCN_2_5x7
I0628 15:54:30.664000 10004 net.cpp:408] LFCN_2_5x7_LFCN_2_5x7_0_split -> LFCN_2_5x7_LFCN_2_5x7_0_split_0
I0628 15:54:30.664011 10004 net.cpp:408] LFCN_2_5x7_LFCN_2_5x7_0_split -> LFCN_2_5x7_LFCN_2_5x7_0_split_1
I0628 15:54:30.664016 10004 net.cpp:408] LFCN_2_5x7_LFCN_2_5x7_0_split -> LFCN_2_5x7_LFCN_2_5x7_0_split_2
I0628 15:54:30.664100 10004 net.cpp:150] Setting up LFCN_2_5x7_LFCN_2_5x7_0_split
I0628 15:54:30.664108 10004 net.cpp:157] Top shape: 2 7 36 48 (24192)
I0628 15:54:30.664111 10004 net.cpp:157] Top shape: 2 7 36 48 (24192)
I0628 15:54:30.664115 10004 net.cpp:157] Top shape: 2 7 36 48 (24192)
I0628 15:54:30.664117 10004 net.cpp:165] Memory required for data: 2257267480
I0628 15:54:30.664120 10004 layer_factory.hpp:77] Creating layer detection_loss_2_5x7
I0628 15:54:30.664129 10004 net.cpp:100] Creating Layer detection_loss_2_5x7
I0628 15:54:30.664134 10004 net.cpp:434] detection_loss_2_5x7 <- LFCN_2_5x7_LFCN_2_5x7_0_split_0
I0628 15:54:30.664139 10004 net.cpp:434] detection_loss_2_5x7 <- label_2_5x7_data_4_split_0
I0628 15:54:30.664144 10004 net.cpp:408] detection_loss_2_5x7 -> loss_2_5x7
I0628 15:54:30.664153 10004 layer_factory.hpp:77] Creating layer detection_loss_2_5x7
I0628 15:54:30.664786 10004 net.cpp:150] Setting up detection_loss_2_5x7
I0628 15:54:30.664794 10004 net.cpp:157] Top shape: 1 1 1 2 (2)
I0628 15:54:30.664798 10004 net.cpp:160]     with loss weight 1
I0628 15:54:30.664804 10004 net.cpp:165] Memory required for data: 2257267488
I0628 15:54:30.664808 10004 layer_factory.hpp:77] Creating layer detection_accuracy_2_5x7
I0628 15:54:30.664814 10004 net.cpp:100] Creating Layer detection_accuracy_2_5x7
I0628 15:54:30.664818 10004 net.cpp:434] detection_accuracy_2_5x7 <- LFCN_2_5x7_LFCN_2_5x7_0_split_1
I0628 15:54:30.664822 10004 net.cpp:434] detection_accuracy_2_5x7 <- label_2_5x7_data_4_split_1
I0628 15:54:30.664829 10004 net.cpp:408] detection_accuracy_2_5x7 -> accuracy_2_5x7
I0628 15:54:30.664836 10004 net.cpp:408] detection_accuracy_2_5x7 -> boxiou_2_5x7
I0628 15:54:30.664891 10004 net.cpp:150] Setting up detection_accuracy_2_5x7
I0628 15:54:30.664896 10004 net.cpp:157] Top shape: 1 1 1 2 (2)
I0628 15:54:30.664901 10004 net.cpp:157] Top shape: 1 1 1 1 (1)
I0628 15:54:30.664902 10004 net.cpp:165] Memory required for data: 2257267500
I0628 15:54:30.664906 10004 layer_factory.hpp:77] Creating layer pool5
I0628 15:54:30.664911 10004 net.cpp:100] Creating Layer pool5
I0628 15:54:30.664914 10004 net.cpp:434] pool5 <- conv5_3_relu5_3_0_split_2
I0628 15:54:30.664921 10004 net.cpp:408] pool5 -> pool5
I0628 15:54:30.664969 10004 net.cpp:150] Setting up pool5
I0628 15:54:30.664975 10004 net.cpp:157] Top shape: 2 512 18 24 (442368)
I0628 15:54:30.664978 10004 net.cpp:165] Memory required for data: 2259036972
I0628 15:54:30.664980 10004 layer_factory.hpp:77] Creating layer conv6_1
I0628 15:54:30.664993 10004 net.cpp:100] Creating Layer conv6_1
I0628 15:54:30.664996 10004 net.cpp:434] conv6_1 <- pool5
I0628 15:54:30.665001 10004 net.cpp:408] conv6_1 -> conv6_1
I0628 15:54:30.689383 10004 net.cpp:150] Setting up conv6_1
I0628 15:54:30.689400 10004 net.cpp:157] Top shape: 2 512 18 24 (442368)
I0628 15:54:30.689402 10004 net.cpp:165] Memory required for data: 2260806444
I0628 15:54:30.689409 10004 layer_factory.hpp:77] Creating layer relu6_1
I0628 15:54:30.689414 10004 net.cpp:100] Creating Layer relu6_1
I0628 15:54:30.689417 10004 net.cpp:434] relu6_1 <- conv6_1
I0628 15:54:30.689422 10004 net.cpp:395] relu6_1 -> conv6_1 (in-place)
I0628 15:54:30.689772 10004 net.cpp:150] Setting up relu6_1
I0628 15:54:30.689780 10004 net.cpp:157] Top shape: 2 512 18 24 (442368)
I0628 15:54:30.689782 10004 net.cpp:165] Memory required for data: 2262575916
I0628 15:54:30.689785 10004 layer_factory.hpp:77] Creating layer conv6_1_relu6_1_0_split
I0628 15:54:30.689791 10004 net.cpp:100] Creating Layer conv6_1_relu6_1_0_split
I0628 15:54:30.689795 10004 net.cpp:434] conv6_1_relu6_1_0_split <- conv6_1
I0628 15:54:30.689801 10004 net.cpp:408] conv6_1_relu6_1_0_split -> conv6_1_relu6_1_0_split_0
I0628 15:54:30.689811 10004 net.cpp:408] conv6_1_relu6_1_0_split -> conv6_1_relu6_1_0_split_1
I0628 15:54:30.689818 10004 net.cpp:408] conv6_1_relu6_1_0_split -> conv6_1_relu6_1_0_split_2
I0628 15:54:30.689898 10004 net.cpp:150] Setting up conv6_1_relu6_1_0_split
I0628 15:54:30.689903 10004 net.cpp:157] Top shape: 2 512 18 24 (442368)
I0628 15:54:30.689908 10004 net.cpp:157] Top shape: 2 512 18 24 (442368)
I0628 15:54:30.689911 10004 net.cpp:157] Top shape: 2 512 18 24 (442368)
I0628 15:54:30.689914 10004 net.cpp:165] Memory required for data: 2267884332
I0628 15:54:30.689918 10004 layer_factory.hpp:77] Creating layer LFCN_3_3x5
I0628 15:54:30.689927 10004 net.cpp:100] Creating Layer LFCN_3_3x5
I0628 15:54:30.689931 10004 net.cpp:434] LFCN_3_3x5 <- conv6_1_relu6_1_0_split_0
I0628 15:54:30.689939 10004 net.cpp:408] LFCN_3_3x5 -> LFCN_3_3x5
I0628 15:54:30.692615 10004 net.cpp:150] Setting up LFCN_3_3x5
I0628 15:54:30.692629 10004 net.cpp:157] Top shape: 2 7 18 24 (6048)
I0628 15:54:30.692632 10004 net.cpp:165] Memory required for data: 2267908524
I0628 15:54:30.692638 10004 layer_factory.hpp:77] Creating layer LFCN_3_3x5_LFCN_3_3x5_0_split
I0628 15:54:30.692651 10004 net.cpp:100] Creating Layer LFCN_3_3x5_LFCN_3_3x5_0_split
I0628 15:54:30.692654 10004 net.cpp:434] LFCN_3_3x5_LFCN_3_3x5_0_split <- LFCN_3_3x5
I0628 15:54:30.692659 10004 net.cpp:408] LFCN_3_3x5_LFCN_3_3x5_0_split -> LFCN_3_3x5_LFCN_3_3x5_0_split_0
I0628 15:54:30.692665 10004 net.cpp:408] LFCN_3_3x5_LFCN_3_3x5_0_split -> LFCN_3_3x5_LFCN_3_3x5_0_split_1
I0628 15:54:30.692670 10004 net.cpp:408] LFCN_3_3x5_LFCN_3_3x5_0_split -> LFCN_3_3x5_LFCN_3_3x5_0_split_2
I0628 15:54:30.692747 10004 net.cpp:150] Setting up LFCN_3_3x5_LFCN_3_3x5_0_split
I0628 15:54:30.692754 10004 net.cpp:157] Top shape: 2 7 18 24 (6048)
I0628 15:54:30.692759 10004 net.cpp:157] Top shape: 2 7 18 24 (6048)
I0628 15:54:30.692762 10004 net.cpp:157] Top shape: 2 7 18 24 (6048)
I0628 15:54:30.692765 10004 net.cpp:165] Memory required for data: 2267981100
I0628 15:54:30.692770 10004 layer_factory.hpp:77] Creating layer detection_loss_3_3x5
I0628 15:54:30.692776 10004 net.cpp:100] Creating Layer detection_loss_3_3x5
I0628 15:54:30.692780 10004 net.cpp:434] detection_loss_3_3x5 <- LFCN_3_3x5_LFCN_3_3x5_0_split_0
I0628 15:54:30.692785 10004 net.cpp:434] detection_loss_3_3x5 <- label_3_3x5_data_5_split_0
I0628 15:54:30.692792 10004 net.cpp:408] detection_loss_3_3x5 -> loss_3_3x5
I0628 15:54:30.692801 10004 layer_factory.hpp:77] Creating layer detection_loss_3_3x5
I0628 15:54:30.693998 10004 net.cpp:150] Setting up detection_loss_3_3x5
I0628 15:54:30.694010 10004 net.cpp:157] Top shape: 1 1 1 2 (2)
I0628 15:54:30.694011 10004 net.cpp:160]     with loss weight 1
I0628 15:54:30.694017 10004 net.cpp:165] Memory required for data: 2267981108
I0628 15:54:30.694020 10004 layer_factory.hpp:77] Creating layer detection_accuracy_3_3x5
I0628 15:54:30.694026 10004 net.cpp:100] Creating Layer detection_accuracy_3_3x5
I0628 15:54:30.694028 10004 net.cpp:434] detection_accuracy_3_3x5 <- LFCN_3_3x5_LFCN_3_3x5_0_split_1
I0628 15:54:30.694033 10004 net.cpp:434] detection_accuracy_3_3x5 <- label_3_3x5_data_5_split_1
I0628 15:54:30.694037 10004 net.cpp:408] detection_accuracy_3_3x5 -> accuracy_3_3x5
I0628 15:54:30.694043 10004 net.cpp:408] detection_accuracy_3_3x5 -> boxiou_3_3x5
I0628 15:54:30.694103 10004 net.cpp:150] Setting up detection_accuracy_3_3x5
I0628 15:54:30.694109 10004 net.cpp:157] Top shape: 1 1 1 2 (2)
I0628 15:54:30.694113 10004 net.cpp:157] Top shape: 1 1 1 1 (1)
I0628 15:54:30.694116 10004 net.cpp:165] Memory required for data: 2267981120
I0628 15:54:30.694119 10004 layer_factory.hpp:77] Creating layer LFCN_3_5x7
I0628 15:54:30.694129 10004 net.cpp:100] Creating Layer LFCN_3_5x7
I0628 15:54:30.694134 10004 net.cpp:434] LFCN_3_5x7 <- conv6_1_relu6_1_0_split_1
I0628 15:54:30.694140 10004 net.cpp:408] LFCN_3_5x7 -> LFCN_3_5x7
I0628 15:54:30.696766 10004 net.cpp:150] Setting up LFCN_3_5x7
I0628 15:54:30.696780 10004 net.cpp:157] Top shape: 2 7 18 24 (6048)
I0628 15:54:30.696784 10004 net.cpp:165] Memory required for data: 2268005312
I0628 15:54:30.696789 10004 layer_factory.hpp:77] Creating layer LFCN_3_5x7_LFCN_3_5x7_0_split
I0628 15:54:30.696794 10004 net.cpp:100] Creating Layer LFCN_3_5x7_LFCN_3_5x7_0_split
I0628 15:54:30.696797 10004 net.cpp:434] LFCN_3_5x7_LFCN_3_5x7_0_split <- LFCN_3_5x7
I0628 15:54:30.696802 10004 net.cpp:408] LFCN_3_5x7_LFCN_3_5x7_0_split -> LFCN_3_5x7_LFCN_3_5x7_0_split_0
I0628 15:54:30.696810 10004 net.cpp:408] LFCN_3_5x7_LFCN_3_5x7_0_split -> LFCN_3_5x7_LFCN_3_5x7_0_split_1
I0628 15:54:30.696815 10004 net.cpp:408] LFCN_3_5x7_LFCN_3_5x7_0_split -> LFCN_3_5x7_LFCN_3_5x7_0_split_2
I0628 15:54:30.696892 10004 net.cpp:150] Setting up LFCN_3_5x7_LFCN_3_5x7_0_split
I0628 15:54:30.696898 10004 net.cpp:157] Top shape: 2 7 18 24 (6048)
I0628 15:54:30.696902 10004 net.cpp:157] Top shape: 2 7 18 24 (6048)
I0628 15:54:30.696905 10004 net.cpp:157] Top shape: 2 7 18 24 (6048)
I0628 15:54:30.696908 10004 net.cpp:165] Memory required for data: 2268077888
I0628 15:54:30.696911 10004 layer_factory.hpp:77] Creating layer detection_loss_3_5x7
I0628 15:54:30.696919 10004 net.cpp:100] Creating Layer detection_loss_3_5x7
I0628 15:54:30.696923 10004 net.cpp:434] detection_loss_3_5x7 <- LFCN_3_5x7_LFCN_3_5x7_0_split_0
I0628 15:54:30.696929 10004 net.cpp:434] detection_loss_3_5x7 <- label_3_5x7_data_6_split_0
I0628 15:54:30.696934 10004 net.cpp:408] detection_loss_3_5x7 -> loss_3_5x7
I0628 15:54:30.696943 10004 layer_factory.hpp:77] Creating layer detection_loss_3_5x7
I0628 15:54:30.697561 10004 net.cpp:150] Setting up detection_loss_3_5x7
I0628 15:54:30.697571 10004 net.cpp:157] Top shape: 1 1 1 2 (2)
I0628 15:54:30.697573 10004 net.cpp:160]     with loss weight 1
I0628 15:54:30.697584 10004 net.cpp:165] Memory required for data: 2268077896
I0628 15:54:30.697588 10004 layer_factory.hpp:77] Creating layer detection_accuracy_3_5x7
I0628 15:54:30.697595 10004 net.cpp:100] Creating Layer detection_accuracy_3_5x7
I0628 15:54:30.697599 10004 net.cpp:434] detection_accuracy_3_5x7 <- LFCN_3_5x7_LFCN_3_5x7_0_split_1
I0628 15:54:30.697604 10004 net.cpp:434] detection_accuracy_3_5x7 <- label_3_5x7_data_6_split_1
I0628 15:54:30.697609 10004 net.cpp:408] detection_accuracy_3_5x7 -> accuracy_3_5x7
I0628 15:54:30.697618 10004 net.cpp:408] detection_accuracy_3_5x7 -> boxiou_3_5x7
I0628 15:54:30.697674 10004 net.cpp:150] Setting up detection_accuracy_3_5x7
I0628 15:54:30.697680 10004 net.cpp:157] Top shape: 1 1 1 2 (2)
I0628 15:54:30.697685 10004 net.cpp:157] Top shape: 1 1 1 1 (1)
I0628 15:54:30.697686 10004 net.cpp:165] Memory required for data: 2268077908
I0628 15:54:30.697690 10004 layer_factory.hpp:77] Creating layer pool6
I0628 15:54:30.697697 10004 net.cpp:100] Creating Layer pool6
I0628 15:54:30.697701 10004 net.cpp:434] pool6 <- conv6_1_relu6_1_0_split_2
I0628 15:54:30.697707 10004 net.cpp:408] pool6 -> pool6
I0628 15:54:30.697760 10004 net.cpp:150] Setting up pool6
I0628 15:54:30.697767 10004 net.cpp:157] Top shape: 2 512 9 12 (110592)
I0628 15:54:30.697770 10004 net.cpp:165] Memory required for data: 2268520276
I0628 15:54:30.697773 10004 layer_factory.hpp:77] Creating layer LFCN_4_3x5
I0628 15:54:30.697783 10004 net.cpp:100] Creating Layer LFCN_4_3x5
I0628 15:54:30.697788 10004 net.cpp:434] LFCN_4_3x5 <- pool6
I0628 15:54:30.697794 10004 net.cpp:408] LFCN_4_3x5 -> LFCN_4_3x5
I0628 15:54:30.700950 10004 net.cpp:150] Setting up LFCN_4_3x5
I0628 15:54:30.700964 10004 net.cpp:157] Top shape: 2 7 9 12 (1512)
I0628 15:54:30.700966 10004 net.cpp:165] Memory required for data: 2268526324
I0628 15:54:30.700973 10004 layer_factory.hpp:77] Creating layer LFCN_4_3x5_LFCN_4_3x5_0_split
I0628 15:54:30.700984 10004 net.cpp:100] Creating Layer LFCN_4_3x5_LFCN_4_3x5_0_split
I0628 15:54:30.700987 10004 net.cpp:434] LFCN_4_3x5_LFCN_4_3x5_0_split <- LFCN_4_3x5
I0628 15:54:30.700994 10004 net.cpp:408] LFCN_4_3x5_LFCN_4_3x5_0_split -> LFCN_4_3x5_LFCN_4_3x5_0_split_0
I0628 15:54:30.701004 10004 net.cpp:408] LFCN_4_3x5_LFCN_4_3x5_0_split -> LFCN_4_3x5_LFCN_4_3x5_0_split_1
I0628 15:54:30.701010 10004 net.cpp:408] LFCN_4_3x5_LFCN_4_3x5_0_split -> LFCN_4_3x5_LFCN_4_3x5_0_split_2
I0628 15:54:30.701114 10004 net.cpp:150] Setting up LFCN_4_3x5_LFCN_4_3x5_0_split
I0628 15:54:30.701122 10004 net.cpp:157] Top shape: 2 7 9 12 (1512)
I0628 15:54:30.701126 10004 net.cpp:157] Top shape: 2 7 9 12 (1512)
I0628 15:54:30.701130 10004 net.cpp:157] Top shape: 2 7 9 12 (1512)
I0628 15:54:30.701133 10004 net.cpp:165] Memory required for data: 2268544468
I0628 15:54:30.701136 10004 layer_factory.hpp:77] Creating layer detection_loss_4_3x5
I0628 15:54:30.701143 10004 net.cpp:100] Creating Layer detection_loss_4_3x5
I0628 15:54:30.701148 10004 net.cpp:434] detection_loss_4_3x5 <- LFCN_4_3x5_LFCN_4_3x5_0_split_0
I0628 15:54:30.701153 10004 net.cpp:434] detection_loss_4_3x5 <- label_4_3x5_data_7_split_0
I0628 15:54:30.701160 10004 net.cpp:408] detection_loss_4_3x5 -> loss_4_3x5
I0628 15:54:30.701169 10004 layer_factory.hpp:77] Creating layer detection_loss_4_3x5
I0628 15:54:30.701831 10004 net.cpp:150] Setting up detection_loss_4_3x5
I0628 15:54:30.701843 10004 net.cpp:157] Top shape: 1 1 1 2 (2)
I0628 15:54:30.701845 10004 net.cpp:160]     with loss weight 1
I0628 15:54:30.701856 10004 net.cpp:165] Memory required for data: 2268544476
I0628 15:54:30.701859 10004 layer_factory.hpp:77] Creating layer detection_accuracy_4_3x5
I0628 15:54:30.701866 10004 net.cpp:100] Creating Layer detection_accuracy_4_3x5
I0628 15:54:30.701870 10004 net.cpp:434] detection_accuracy_4_3x5 <- LFCN_4_3x5_LFCN_4_3x5_0_split_1
I0628 15:54:30.701875 10004 net.cpp:434] detection_accuracy_4_3x5 <- label_4_3x5_data_7_split_1
I0628 15:54:30.701884 10004 net.cpp:408] detection_accuracy_4_3x5 -> accuracy_4_3x5
I0628 15:54:30.701892 10004 net.cpp:408] detection_accuracy_4_3x5 -> boxiou_4_3x5
I0628 15:54:30.701951 10004 net.cpp:150] Setting up detection_accuracy_4_3x5
I0628 15:54:30.701956 10004 net.cpp:157] Top shape: 1 1 1 2 (2)
I0628 15:54:30.701961 10004 net.cpp:157] Top shape: 1 1 1 1 (1)
I0628 15:54:30.701964 10004 net.cpp:165] Memory required for data: 2268544488
I0628 15:54:30.701967 10004 layer_factory.hpp:77] Creating layer proposals
I0628 15:54:30.701977 10004 net.cpp:100] Creating Layer proposals
I0628 15:54:30.701980 10004 net.cpp:434] proposals <- LFCN_1_3x5_LFCN_1_3x5_0_split_2
I0628 15:54:30.701985 10004 net.cpp:434] proposals <- LFCN_1_5x7_LFCN_1_5x7_0_split_2
I0628 15:54:30.701990 10004 net.cpp:434] proposals <- LFCN_2_3x5_LFCN_2_3x5_0_split_2
I0628 15:54:30.701995 10004 net.cpp:434] proposals <- LFCN_2_5x7_LFCN_2_5x7_0_split_2
I0628 15:54:30.701999 10004 net.cpp:434] proposals <- LFCN_3_3x5_LFCN_3_3x5_0_split_2
I0628 15:54:30.702004 10004 net.cpp:434] proposals <- LFCN_3_5x7_LFCN_3_5x7_0_split_2
I0628 15:54:30.702008 10004 net.cpp:434] proposals <- LFCN_4_3x5_LFCN_4_3x5_0_split_2
I0628 15:54:30.702013 10004 net.cpp:408] proposals -> proposals
I0628 15:54:30.702046 10004 net.cpp:150] Setting up proposals
I0628 15:54:30.702051 10004 net.cpp:157] Top shape: 1 5 1 1 (5)
I0628 15:54:30.702055 10004 net.cpp:165] Memory required for data: 2268544508
I0628 15:54:30.702059 10004 layer_factory.hpp:77] Creating layer proposal_info
I0628 15:54:30.702066 10004 net.cpp:100] Creating Layer proposal_info
I0628 15:54:30.702070 10004 net.cpp:434] proposal_info <- proposals
I0628 15:54:30.702075 10004 net.cpp:434] proposal_info <- gt_boxes
I0628 15:54:30.702082 10004 net.cpp:408] proposal_info -> rois
I0628 15:54:30.702090 10004 net.cpp:408] proposal_info -> proposal_labels
I0628 15:54:30.702098 10004 net.cpp:408] proposal_info -> proposal_targets
I0628 15:54:30.702107 10004 net.cpp:408] proposal_info -> box_inside_weights
I0628 15:54:30.702116 10004 net.cpp:408] proposal_info -> box_outside_weights
I0628 15:54:30.702122 10004 net.cpp:408] proposal_info -> match_gt_boxes
I0628 15:54:30.702253 10004 net.cpp:150] Setting up proposal_info
I0628 15:54:30.702260 10004 net.cpp:157] Top shape: 64 5 1 1 (320)
I0628 15:54:30.702263 10004 net.cpp:157] Top shape: 64 1 1 1 (64)
I0628 15:54:30.702266 10004 net.cpp:157] Top shape: 64 12 1 1 (768)
I0628 15:54:30.702270 10004 net.cpp:157] Top shape: 64 12 1 1 (768)
I0628 15:54:30.702273 10004 net.cpp:157] Top shape: 64 12 1 1 (768)
I0628 15:54:30.702277 10004 net.cpp:157] Top shape: 64 6 1 1 (384)
I0628 15:54:30.702284 10004 net.cpp:165] Memory required for data: 2268556796
I0628 15:54:30.702287 10004 layer_factory.hpp:77] Creating layer rois_proposal_info_0_split
I0628 15:54:30.702292 10004 net.cpp:100] Creating Layer rois_proposal_info_0_split
I0628 15:54:30.702296 10004 net.cpp:434] rois_proposal_info_0_split <- rois
I0628 15:54:30.702301 10004 net.cpp:408] rois_proposal_info_0_split -> rois_proposal_info_0_split_0
I0628 15:54:30.702311 10004 net.cpp:408] rois_proposal_info_0_split -> rois_proposal_info_0_split_1
I0628 15:54:30.702316 10004 net.cpp:408] rois_proposal_info_0_split -> rois_proposal_info_0_split_2
I0628 15:54:30.702384 10004 net.cpp:150] Setting up rois_proposal_info_0_split
I0628 15:54:30.702389 10004 net.cpp:157] Top shape: 64 5 1 1 (320)
I0628 15:54:30.702394 10004 net.cpp:157] Top shape: 64 5 1 1 (320)
I0628 15:54:30.702399 10004 net.cpp:157] Top shape: 64 5 1 1 (320)
I0628 15:54:30.702401 10004 net.cpp:165] Memory required for data: 2268560636
I0628 15:54:30.702404 10004 layer_factory.hpp:77] Creating layer proposal_labels_proposal_info_1_split
I0628 15:54:30.702409 10004 net.cpp:100] Creating Layer proposal_labels_proposal_info_1_split
I0628 15:54:30.702412 10004 net.cpp:434] proposal_labels_proposal_info_1_split <- proposal_labels
I0628 15:54:30.702419 10004 net.cpp:408] proposal_labels_proposal_info_1_split -> proposal_labels_proposal_info_1_split_0
I0628 15:54:30.702426 10004 net.cpp:408] proposal_labels_proposal_info_1_split -> proposal_labels_proposal_info_1_split_1
I0628 15:54:30.702471 10004 net.cpp:150] Setting up proposal_labels_proposal_info_1_split
I0628 15:54:30.702477 10004 net.cpp:157] Top shape: 64 1 1 1 (64)
I0628 15:54:30.702481 10004 net.cpp:157] Top shape: 64 1 1 1 (64)
I0628 15:54:30.702484 10004 net.cpp:165] Memory required for data: 2268561148
I0628 15:54:30.702487 10004 layer_factory.hpp:77] Creating layer conv4_3_2x
I0628 15:54:30.702495 10004 net.cpp:100] Creating Layer conv4_3_2x
I0628 15:54:30.702499 10004 net.cpp:434] conv4_3_2x <- conv4_3_relu4_3_0_split_2
I0628 15:54:30.702505 10004 net.cpp:408] conv4_3_2x -> conv4_3_2x
I0628 15:54:30.703187 10004 net.cpp:150] Setting up conv4_3_2x
I0628 15:54:30.703196 10004 net.cpp:157] Top shape: 2 512 144 192 (28311552)
I0628 15:54:30.703198 10004 net.cpp:165] Memory required for data: 2381807356
I0628 15:54:30.703203 10004 layer_factory.hpp:77] Creating layer conv4_3_2x_conv4_3_2x_0_split
I0628 15:54:30.703208 10004 net.cpp:100] Creating Layer conv4_3_2x_conv4_3_2x_0_split
I0628 15:54:30.703212 10004 net.cpp:434] conv4_3_2x_conv4_3_2x_0_split <- conv4_3_2x
I0628 15:54:30.703219 10004 net.cpp:408] conv4_3_2x_conv4_3_2x_0_split -> conv4_3_2x_conv4_3_2x_0_split_0
I0628 15:54:30.703227 10004 net.cpp:408] conv4_3_2x_conv4_3_2x_0_split -> conv4_3_2x_conv4_3_2x_0_split_1
I0628 15:54:30.703282 10004 net.cpp:150] Setting up conv4_3_2x_conv4_3_2x_0_split
I0628 15:54:30.703289 10004 net.cpp:157] Top shape: 2 512 144 192 (28311552)
I0628 15:54:30.703294 10004 net.cpp:157] Top shape: 2 512 144 192 (28311552)
I0628 15:54:30.703297 10004 net.cpp:165] Memory required for data: 2608299772
I0628 15:54:30.703300 10004 layer_factory.hpp:77] Creating layer roi_pool_org
I0628 15:54:30.703305 10004 net.cpp:100] Creating Layer roi_pool_org
I0628 15:54:30.703310 10004 net.cpp:434] roi_pool_org <- conv4_3_2x_conv4_3_2x_0_split_0
I0628 15:54:30.703315 10004 net.cpp:434] roi_pool_org <- rois_proposal_info_0_split_0
I0628 15:54:30.703322 10004 net.cpp:408] roi_pool_org -> roi_pool_org
I0628 15:54:30.703330 10004 roi_pooling_layer.cpp:33] Spatial scale: 0.25
I0628 15:54:30.703382 10004 net.cpp:150] Setting up roi_pool_org
I0628 15:54:30.703388 10004 net.cpp:157] Top shape: 64 512 7 5 (1146880)
I0628 15:54:30.703392 10004 net.cpp:165] Memory required for data: 2612887292
I0628 15:54:30.703394 10004 layer_factory.hpp:77] Creating layer roi_pool_ctx
I0628 15:54:30.703399 10004 net.cpp:100] Creating Layer roi_pool_ctx
I0628 15:54:30.703402 10004 net.cpp:434] roi_pool_ctx <- conv4_3_2x_conv4_3_2x_0_split_1
I0628 15:54:30.703407 10004 net.cpp:434] roi_pool_ctx <- rois_proposal_info_0_split_1
I0628 15:54:30.703413 10004 net.cpp:408] roi_pool_ctx -> roi_pool_ctx
I0628 15:54:30.703419 10004 roi_pooling_layer.cpp:33] Spatial scale: 0.25
I0628 15:54:30.703469 10004 net.cpp:150] Setting up roi_pool_ctx
I0628 15:54:30.703474 10004 net.cpp:157] Top shape: 64 512 7 5 (1146880)
I0628 15:54:30.703476 10004 net.cpp:165] Memory required for data: 2617474812
I0628 15:54:30.703480 10004 layer_factory.hpp:77] Creating layer roi_pool
I0628 15:54:30.703485 10004 net.cpp:100] Creating Layer roi_pool
I0628 15:54:30.703488 10004 net.cpp:434] roi_pool <- roi_pool_org
I0628 15:54:30.703495 10004 net.cpp:434] roi_pool <- roi_pool_ctx
I0628 15:54:30.703500 10004 net.cpp:408] roi_pool -> roi_pool
I0628 15:54:30.703531 10004 net.cpp:150] Setting up roi_pool
I0628 15:54:30.703536 10004 net.cpp:157] Top shape: 64 1024 7 5 (2293760)
I0628 15:54:30.703539 10004 net.cpp:165] Memory required for data: 2626649852
I0628 15:54:30.703542 10004 layer_factory.hpp:77] Creating layer roi_c1
I0628 15:54:30.703550 10004 net.cpp:100] Creating Layer roi_c1
I0628 15:54:30.703554 10004 net.cpp:434] roi_c1 <- roi_pool
I0628 15:54:30.703562 10004 net.cpp:408] roi_c1 -> roi_c1
I0628 15:54:30.742790 10004 net.cpp:150] Setting up roi_c1
I0628 15:54:30.742808 10004 net.cpp:157] Top shape: 64 512 5 3 (491520)
I0628 15:54:30.742811 10004 net.cpp:165] Memory required for data: 2628615932
I0628 15:54:30.742817 10004 layer_factory.hpp:77] Creating layer roi_c1_relu
I0628 15:54:30.742823 10004 net.cpp:100] Creating Layer roi_c1_relu
I0628 15:54:30.742826 10004 net.cpp:434] roi_c1_relu <- roi_c1
I0628 15:54:30.742831 10004 net.cpp:395] roi_c1_relu -> roi_c1 (in-place)
I0628 15:54:30.743702 10004 net.cpp:150] Setting up roi_c1_relu
I0628 15:54:30.743715 10004 net.cpp:157] Top shape: 64 512 5 3 (491520)
I0628 15:54:30.743716 10004 net.cpp:165] Memory required for data: 2630582012
I0628 15:54:30.743719 10004 layer_factory.hpp:77] Creating layer fc6
I0628 15:54:30.743727 10004 net.cpp:100] Creating Layer fc6
I0628 15:54:30.743731 10004 net.cpp:434] fc6 <- roi_c1
I0628 15:54:30.743737 10004 net.cpp:408] fc6 -> fc6
I0628 15:54:30.865543 10004 net.cpp:150] Setting up fc6
I0628 15:54:30.865561 10004 net.cpp:157] Top shape: 64 2048 (131072)
I0628 15:54:30.865562 10004 net.cpp:165] Memory required for data: 2631106300
I0628 15:54:30.865571 10004 layer_factory.hpp:77] Creating layer relu6
I0628 15:54:30.865577 10004 net.cpp:100] Creating Layer relu6
I0628 15:54:30.865581 10004 net.cpp:434] relu6 <- fc6
I0628 15:54:30.865586 10004 net.cpp:395] relu6 -> fc6 (in-place)
I0628 15:54:30.865926 10004 net.cpp:150] Setting up relu6
I0628 15:54:30.865932 10004 net.cpp:157] Top shape: 64 2048 (131072)
I0628 15:54:30.865934 10004 net.cpp:165] Memory required for data: 2631630588
I0628 15:54:30.865936 10004 layer_factory.hpp:77] Creating layer drop6
I0628 15:54:30.865942 10004 net.cpp:100] Creating Layer drop6
I0628 15:54:30.865943 10004 net.cpp:434] drop6 <- fc6
I0628 15:54:30.865947 10004 net.cpp:395] drop6 -> fc6 (in-place)
I0628 15:54:30.865974 10004 net.cpp:150] Setting up drop6
I0628 15:54:30.865978 10004 net.cpp:157] Top shape: 64 2048 (131072)
I0628 15:54:30.865980 10004 net.cpp:165] Memory required for data: 2632154876
I0628 15:54:30.865983 10004 layer_factory.hpp:77] Creating layer fc6_drop6_0_split
I0628 15:54:30.865989 10004 net.cpp:100] Creating Layer fc6_drop6_0_split
I0628 15:54:30.865993 10004 net.cpp:434] fc6_drop6_0_split <- fc6
I0628 15:54:30.865999 10004 net.cpp:408] fc6_drop6_0_split -> fc6_drop6_0_split_0
I0628 15:54:30.866004 10004 net.cpp:408] fc6_drop6_0_split -> fc6_drop6_0_split_1
I0628 15:54:30.866046 10004 net.cpp:150] Setting up fc6_drop6_0_split
I0628 15:54:30.866051 10004 net.cpp:157] Top shape: 64 2048 (131072)
I0628 15:54:30.866055 10004 net.cpp:157] Top shape: 64 2048 (131072)
I0628 15:54:30.866057 10004 net.cpp:165] Memory required for data: 2633203452
I0628 15:54:30.866060 10004 layer_factory.hpp:77] Creating layer cls_pred
I0628 15:54:30.866066 10004 net.cpp:100] Creating Layer cls_pred
I0628 15:54:30.866070 10004 net.cpp:434] cls_pred <- fc6_drop6_0_split_0
I0628 15:54:30.866075 10004 net.cpp:408] cls_pred -> cls_pred
I0628 15:54:30.866248 10004 net.cpp:150] Setting up cls_pred
I0628 15:54:30.866252 10004 net.cpp:157] Top shape: 64 3 (192)
I0628 15:54:30.866255 10004 net.cpp:165] Memory required for data: 2633204220
I0628 15:54:30.866259 10004 layer_factory.hpp:77] Creating layer cls_pred_cls_pred_0_split
I0628 15:54:30.866264 10004 net.cpp:100] Creating Layer cls_pred_cls_pred_0_split
I0628 15:54:30.866266 10004 net.cpp:434] cls_pred_cls_pred_0_split <- cls_pred
I0628 15:54:30.866271 10004 net.cpp:408] cls_pred_cls_pred_0_split -> cls_pred_cls_pred_0_split_0
I0628 15:54:30.866276 10004 net.cpp:408] cls_pred_cls_pred_0_split -> cls_pred_cls_pred_0_split_1
I0628 15:54:30.866324 10004 net.cpp:150] Setting up cls_pred_cls_pred_0_split
I0628 15:54:30.866328 10004 net.cpp:157] Top shape: 64 3 (192)
I0628 15:54:30.866333 10004 net.cpp:157] Top shape: 64 3 (192)
I0628 15:54:30.866334 10004 net.cpp:165] Memory required for data: 2633205756
I0628 15:54:30.866338 10004 layer_factory.hpp:77] Creating layer bbox_pred
I0628 15:54:30.866343 10004 net.cpp:100] Creating Layer bbox_pred
I0628 15:54:30.866346 10004 net.cpp:434] bbox_pred <- fc6_drop6_0_split_1
I0628 15:54:30.866351 10004 net.cpp:408] bbox_pred -> bbox_pred
I0628 15:54:30.866643 10004 net.cpp:150] Setting up bbox_pred
I0628 15:54:30.866648 10004 net.cpp:157] Top shape: 64 12 (768)
I0628 15:54:30.866649 10004 net.cpp:165] Memory required for data: 2633208828
I0628 15:54:30.866654 10004 layer_factory.hpp:77] Creating layer bbox_pred_bbox_pred_0_split
I0628 15:54:30.866658 10004 net.cpp:100] Creating Layer bbox_pred_bbox_pred_0_split
I0628 15:54:30.866662 10004 net.cpp:434] bbox_pred_bbox_pred_0_split <- bbox_pred
I0628 15:54:30.866667 10004 net.cpp:408] bbox_pred_bbox_pred_0_split -> bbox_pred_bbox_pred_0_split_0
I0628 15:54:30.866672 10004 net.cpp:408] bbox_pred_bbox_pred_0_split -> bbox_pred_bbox_pred_0_split_1
I0628 15:54:30.866711 10004 net.cpp:150] Setting up bbox_pred_bbox_pred_0_split
I0628 15:54:30.866715 10004 net.cpp:157] Top shape: 64 12 (768)
I0628 15:54:30.866717 10004 net.cpp:157] Top shape: 64 12 (768)
I0628 15:54:30.866720 10004 net.cpp:165] Memory required for data: 2633214972
I0628 15:54:30.866722 10004 layer_factory.hpp:77] Creating layer loss_cls
I0628 15:54:30.866727 10004 net.cpp:100] Creating Layer loss_cls
I0628 15:54:30.866731 10004 net.cpp:434] loss_cls <- cls_pred_cls_pred_0_split_0
I0628 15:54:30.866735 10004 net.cpp:434] loss_cls <- proposal_labels_proposal_info_1_split_0
…
