…
    downsample_rate: 16
    downsample_rate: 32
    downsample_rate: 32
    downsample_rate: 64
    coord_num: 4
    field_h: 60
    field_h: 84
    field_h: 120
    field_h: 168
    field_h: 240
    field_h: 336
    field_h: 480
    field_w: 40
    field_w: 56
    field_w: 80
    field_w: 112
    field_w: 160
    field_w: 224
    field_w: 360
    fg_threshold: 0.5
    resize_width: 1920
    resize_height: 576
    crop_width: 768
    crop_height: 576
    do_multiple_scale: true
    min_scale: 60
    max_scale: 480
    min_gt_height: 30
    shuffle: true
  }
}
layer {
  name: "conv1_1"
  type: "Convolution"
  bottom: "data"
  top: "conv1_1"
  convolution_param {
    num_output: 64
    pad: 1
    kernel_size: 3
  }
}
layer {
  name: "relu1_1"
  type: "ReLU"
  bottom: "conv1_1"
  top: "conv1_1"
}
layer {
  name: "conv1_2"
  type: "Convolution"
  bottom: "conv1_1"
  top: "conv1_2"
  convolution_param {
    num_output: 64
    pad: 1
    kernel_size: 3
  }
}
layer {
  name: "relu1_2"
  type: "ReLU"
  bottom: "conv1_2"
  top: "conv1_2"
}
layer {
  name: "pool1"
  type: "Pooling"
  bottom: "conv1_2"
  top: "pool1"
  pooling_param {
    pool: MAX
    kernel_size: 2
    stride: 2
  }
}
layer {
  name: "conv2_1"
  type: "Convolution"
  bottom: "pool1"
  top: "conv2_1"
  convolution_param {
    num_output: 128
    pad: 1
    kernel_size: 3
  }
}
layer {
  name: "relu2_1"
  type: "ReLU"
  bottom: "conv2_1"
  top: "conv2_1"
}
layer {
  name: "conv2_2"
  type: "Convolution"
  bottom: "conv2_1"
  top: "conv2_2"
  convolution_param {
    num_output: 128
    pad: 1
    kernel_size: 3
  }
}
layer {
  name: "relu2_2"
  type: "ReLU"
  bottom: "conv2_2"
  top: "conv2_2"
}
layer {
  name: "pool2"
  type: "Pooling"
  bottom: "conv2_2"
  top: "pool2"
  pooling_param {
    pool: MAX
    kernel_size: 2
    stride: 2
  }
}
layer {
  name: "conv3_1"
  type: "Convolution"
  bottom: "pool2"
  top: "conv3_1"
  convolution_param {
    num_output: 256
    pad: 1
    kernel_size: 3
  }
}
layer {
  name: "relu3_1"
  type: "ReLU"
  bottom: "conv3_1"
  top: "conv3_1"
}
layer {
  name: "conv3_2"
  type: "Convolution"
  bottom: "conv3_1"
  top: "conv3_2"
  convolution_param {
    num_output: 256
    pad: 1
    kernel_size: 3
  }
}
layer {
  name: "relu3_2"
  type: "ReLU"
  bottom: "conv3_2"
  top: "conv3_2"
}
layer {
  name: "conv3_3"
  type: "Convolution"
  bottom: "conv3_2"
  top: "conv3_3"
  convolution_param {
    num_output: 256
    pad: 1
    kernel_size: 3
  }
}
layer {
  name: "relu3_3"
  type: "ReLU"
  bottom: "conv3_3"
  top: "conv3_3"
}
layer {
  name: "pool3"
  type: "Pooling"
  bottom: "conv3_3"
  top: "pool3"
  pooling_param {
    pool: MAX
    kernel_size: 2
    stride: 2
  }
}
layer {
  name: "conv4_1"
  type: "Convolution"
  bottom: "pool3"
  top: "conv4_1"
  convolution_param {
    num_output: 512
    pad: 1
    kernel_size: 3
  }
}
layer {
  name: "relu4_1"
  type: "ReLU"
  bottom: "conv4_1"
  top: "conv4_1"
}
layer {
  name: "conv4_2"
  type: "Convolution"
  bottom: "conv4_1"
  top: "conv4_2"
  convolution_param {
    num_output: 512
    pad: 1
    kernel_size: 3
  }
}
layer {
  name: "relu4_2"
  type: "ReLU"
  bottom: "conv4_2"
  top: "conv4_2"
}
layer {
  name: "conv4_3"
  type: "Convolution"
  bottom: "conv4_2"
  top: "conv4_3"
  convolution_param {
    num_output: 512
    pad: 1
    kernel_size: 3
  }
}
layer {
  name: "relu4_3"
  type: "ReLU"
  bottom: "conv4_3"
  top: "conv4_3"
}
layer {
  name: "loss1_conv1"
  type: "Convolution"
  bottom: "conv4_3"
  top: "loss1_conv1"
  param {
    lr_mult: 1
    decay_mult: 1
  }
  param {
    lr_mult: 2
    decay_mult: 0
  }
  convolution_param {
    num_output: 512
    pad: 1
    kernel_size: 3
    weight_filler {
      type: "gaussian"
      std: 0.01
    }
    bias_filler {
      type: "constant"
    }
  }
}
layer {
  name: "loss_relu1"
  type: "ReLU"
  bottom: "loss1_conv1"
  top: "loss1_conv1"
}
layer {
  name: "LFCN_1_3x5"
  type: "Convolution"
  bottom: "loss1_conv1"
  top: "LFCN_1_3x5"
  param {
    lr_mult: 1
    decay_mult: 1
  }
  param {
    lr_mult: 2
    decay_mult: 0
  }
  convolution_param {
    num_output: 7
    weight_filler {
      type: "gaussian"
      std: 0.001
    }
    bias_filler {
      type: "constant"
    }
    pad_h: 2
    pad_w: 1
    kernel_h: 5
    kernel_w: 3
  }
}
layer {
  name: "detection_loss_1_3x5"
  type: "DetectionLoss"
  bottom: "LFCN_1_3x5"
  bottom: "label_1_3x5"
  top: "loss_1_3x5"
  loss_weight: 0.9
  detection_loss_param {
    cls_num: 3
    coord_num: 4
    lambda: 0.5
    field_h: 60
    field_w: 40
    downsample_rate: 8
    bb_smooth: true
    field_whr: 2
    field_xyr: 2
    bg_threshold: 0.2
    bg_multiple: 2
    sample_mode: "random"
    pos_neg_weighted: true
  }
}
layer {
  name: "detection_accuracy_1_3x5"
  type: "DetectionAccuracy"
  bottom: "LFCN_1_3x5"
  bottom: "label_1_3x5"
  top: "accuracy_1_3x5"
  top: "boxiou_1_3x5"
  detection_accuracy_param {
    cls_num: 3
    coord_num: 4
    field_h: 60
    field_w: 40
    downsample_rate: 8
    field_whr: 2
    field_xyr: 2
  }
}
layer {
  name: "LFCN_1_5x7"
  type: "Convolution"
  bottom: "loss1_conv1"
  top: "LFCN_1_5x7"
  param {
    lr_mult: 1
    decay_mult: 1
  }
  param {
    lr_mult: 2
    decay_mult: 0
  }
  convolution_param {
    num_output: 7
    weight_filler {
      type: "gaussian"
      std: 0.001
    }
    bias_filler {
      type: "constant"
    }
    pad_h: 3
    pad_w: 2
    kernel_h: 7
    kernel_w: 5
  }
}
layer {
  name: "detection_loss_1_5x7"
  type: "DetectionLoss"
  bottom: "LFCN_1_5x7"
  bottom: "label_1_5x7"
  top: "loss_1_5x7"
  loss_weight: 0.9
  detection_loss_param {
    cls_num: 3
    coord_num: 4
    lambda: 0.5
    field_h: 84
    field_w: 56
    downsample_rate: 8
    bb_smooth: true
    field_whr: 2
    field_xyr: 2
    bg_threshold: 0.2
    bg_multiple: 2
    sample_mode: "random"
    pos_neg_weighted: true
  }
}
layer {
  name: "detection_accuracy_1_5x7"
  type: "DetectionAccuracy"
  bottom: "LFCN_1_5x7"
  bottom: "label_1_5x7"
  top: "accuracy_1_5x7"
  top: "boxiou_1_5x7"
  detection_accuracy_param {
    cls_num: 3
    coord_num: 4
    field_h: 84
    field_w: 56
    downsample_rate: 8
    field_whr: 2
    field_xyr: 2
  }
}
layer {
  name: "pool4"
  type: "Pooling"
  bottom: "conv4_3"
  top: "pool4"
  pooling_param {
    pool: MAX
    kernel_size: 2
    stride: 2
  }
}
layer {
  name: "conv5_1"
  type: "Convolution"
  bottom: "pool4"
  top: "conv5_1"
  convolution_param {
    num_output: 512
    pad: 1
    kernel_size: 3
  }
}
layer {
  name: "relu5_1"
  type: "ReLU"
  bottom: "conv5_1"
  top: "conv5_1"
}
layer {
  name: "conv5_2"
  type: "Convolution"
  bottom: "conv5_1"
  top: "conv5_2"
  convolution_param {
    num_output: 512
    pad: 1
    kernel_size: 3
  }
}
layer {
  name: "relu5_2"
  type: "ReLU"
  bottom: "conv5_2"
  top: "conv5_2"
}
layer {
  name: "conv5_3"
  type: "Convolution"
  bottom: "conv5_2"
  top: "conv5_3"
  convolution_param {
    num_output: 512
    pad: 1
    kernel_size: 3
  }
}
layer {
  name: "relu5_3"
  type: "ReLU"
  bottom: "conv5_3"
  top: "conv5_3"
}
layer {
  name: "LFCN_2_3x5"
  type: "Convolution"
  bottom: "conv5_3"
  top: "LFCN_2_3x5"
  param {
    lr_mult: 1
    decay_mult: 1
  }
  param {
    lr_mult: 2
    decay_mult: 0
  }
  convolution_param {
    num_output: 7
    weight_filler {
      type: "gaussian"
      std: 0.001
    }
    bias_filler {
      type: "constant"
    }
    pad_h: 2
    pad_w: 1
    kernel_h: 5
    kernel_w: 3
  }
}
layer {
  name: "detection_loss_2_3x5"
  type: "DetectionLoss"
  bottom: "LFCN_2_3x5"
  bottom: "label_2_3x5"
  top: "loss_2_3x5"
  detection_loss_param {
    cls_num: 3
    coord_num: 4
    lambda: 0.5
    field_h: 120
    field_w: 80
    downsample_rate: 16
    bb_smooth: true
    field_whr: 2
    field_xyr: 2
    bg_threshold: 0.2
    bg_multiple: 2
    sample_mode: "random"
    pos_neg_weighted: true
  }
}
layer {
  name: "detection_accuracy_2_3x5"
  type: "DetectionAccuracy"
  bottom: "LFCN_2_3x5"
  bottom: "label_2_3x5"
  top: "accuracy_2_3x5"
  top: "boxiou_2_3x5"
  detection_accuracy_param {
    cls_num: 3
    coord_num: 4
    field_h: 120
    field_w: 80
    downsample_rate: 16
    field_whr: 2
    field_xyr: 2
  }
}
layer {
  name: "LFCN_2_5x7"
  type: "Convolution"
  bottom: "conv5_3"
  top: "LFCN_2_5x7"
  param {
    lr_mult: 1
    decay_mult: 1
  }
  param {
    lr_mult: 2
    decay_mult: 0
  }
  convolution_param {
    num_output: 7
    weight_filler {
      type: "gaussian"
      std: 0.001
    }
    bias_filler {
      type: "constant"
    }
    pad_h: 3
    pad_w: 2
    kernel_h: 7
    kernel_w: 5
  }
}
layer {
  name: "detection_loss_2_5x7"
  type: "DetectionLoss"
  bottom: "LFCN_2_5x7"
  bottom: "label_2_5x7"
  top: "loss_2_5x7"
  detection_loss_param {
    cls_num: 3
    coord_num: 4
    lambda: 0.5
    field_h: 168
    field_w: 112
    downsample_rate: 16
    bb_smooth: true
    field_whr: 2
    field_xyr: 2
    bg_threshold: 0.2
    bg_multiple: 2
    sample_mode: "random"
    pos_neg_weighted: true
  }
}
layer {
  name: "detection_accuracy_2_5x7"
  type: "DetectionAccuracy"
  bottom: "LFCN_2_5x7"
  bottom: "label_2_5x7"
  top: "accuracy_2_5x7"
  top: "boxiou_2_5x7"
  detection_accuracy_param {
    cls_num: 3
    coord_num: 4
    field_h: 168
    field_w: 112
    downsample_rate: 16
    field_whr: 2
    field_xyr: 2
  }
}
layer {
  name: "pool5"
  type: "Pooling"
  bottom: "conv5_3"
  top: "pool5"
  pooling_param {
    pool: MAX
    kernel_size: 2
    stride: 2
  }
}
layer {
  name: "conv6_1"
  type: "Convolution"
  bottom: "pool5"
  top: "conv6_1"
  param {
    lr_mult: 1
    decay_mult: 1
  }
  param {
    lr_mult: 2
    decay_mult: 0
  }
  convolution_param {
    num_output: 512
    pad: 1
    kernel_size: 3
    weight_filler {
      type: "gaussian"
      std: 0.01
    }
    bias_filler {
      type: "constant"
    }
  }
}
layer {
  name: "relu6_1"
  type: "ReLU"
  bottom: "conv6_1"
  top: "conv6_1"
}
layer {
  name: "LFCN_3_3x5"
  type: "Convolution"
  bottom: "conv6_1"
  top: "LFCN_3_3x5"
  param {
    lr_mult: 1
    decay_mult: 1
  }
  param {
    lr_mult: 2
    decay_mult: 0
  }
  convolution_param {
    num_output: 7
    weight_filler {
      type: "gaussian"
      std: 0.001
    }
    bias_filler {
      type: "constant"
    }
    pad_h: 2
    pad_w: 1
    kernel_h: 5
    kernel_w: 3
  }
}
layer {
  name: "detection_loss_3_3x5"
  type: "DetectionLoss"
  bottom: "LFCN_3_3x5"
  bottom: "label_3_3x5"
  top: "loss_3_3x5"
  detection_loss_param {
    cls_num: 3
    coord_num: 4
    lambda: 0.5
    field_h: 240
    field_w: 160
    downsample_rate: 32
    bb_smooth: true
    field_whr: 2
    field_xyr: 2
    bg_threshold: 0.2
    bg_multiple: 2
    sample_mode: "random"
    pos_neg_weighted: true
  }
}
layer {
  name: "detection_accuracy_3_3x5"
  type: "DetectionAccuracy"
  bottom: "LFCN_3_3x5"
  bottom: "label_3_3x5"
  top: "accuracy_3_3x5"
  top: "boxiou_3_3x5"
  detection_accuracy_param {
    cls_num: 3
    coord_num: 4
    field_h: 240
    field_w: 160
    downsample_rate: 32
    field_whr: 2
    field_xyr: 2
  }
}
layer {
  name: "LFCN_3_5x7"
  type: "Convolution"
  bottom: "conv6_1"
  top: "LFCN_3_5x7"
  param {
    lr_mult: 1
    decay_mult: 1
  }
  param {
    lr_mult: 2
    decay_mult: 0
  }
  convolution_param {
    num_output: 7
    weight_filler {
      type: "gaussian"
      std: 0.001
    }
    bias_filler {
      type: "constant"
    }
    pad_h: 3
    pad_w: 2
    kernel_h: 7
    kernel_w: 5
  }
}
layer {
  name: "detection_loss_3_5x7"
  type: "DetectionLoss"
  bottom: "LFCN_3_5x7"
  bottom: "label_3_5x7"
  top: "loss_3_5x7"
  detection_loss_param {
    cls_num: 3
    coord_num: 4
    lambda: 0.5
    field_h: 336
    field_w: 224
    downsample_rate: 32
    bb_smooth: true
    field_whr: 2
    field_xyr: 2
    bg_threshold: 0.2
    bg_multiple: 2
    sample_mode: "random"
    pos_neg_weighted: true
  }
}
layer {
  name: "detection_accuracy_3_5x7"
  type: "DetectionAccuracy"
  bottom: "LFCN_3_5x7"
  bottom: "label_3_5x7"
  top: "accuracy_3_5x7"
  top: "boxiou_3_5x7"
  detection_accuracy_param {
    cls_num: 3
    coord_num: 4
    field_h: 336
    field_w: 224
    downsample_rate: 32
    field_whr: 2
    field_xyr: 2
  }
}
layer {
  name: "pool6"
  type: "Pooling"
  bottom: "conv6_1"
  top: "pool6"
  pooling_param {
    pool: MAX
    kernel_size: 2
    stride: 2
  }
}
layer {
  name: "LFCN_4_3x5"
  type: "Convolution"
  bottom: "pool6"
  top: "LFCN_4_3x5"
  param {
    lr_mult: 1
    decay_mult: 1
  }
  param {
    lr_mult: 2
    decay_mult: 0
  }
  convolution_param {
    num_output: 7
    weight_filler {
      type: "gaussian"
      std: 0.001
    }
    bias_filler {
      type: "constant"
    }
    pad_h: 2
    pad_w: 1
    kernel_h: 5
    kernel_w: 3
  }
}
layer {
  name: "detection_loss_4_3x5"
  type: "DetectionLoss"
  bottom: "LFCN_4_3x5"
  bottom: "label_4_3x5"
  top: "loss_4_3x5"
  detection_loss_param {
    cls_num: 3
    coord_num: 4
    lambda: 0.5
    field_h: 480
    field_w: 360
    downsample_rate: 64
    bb_smooth: true
    field_whr: 2
    field_xyr: 2
    bg_threshold: 0.2
    bg_multiple: 2
    sample_mode: "random"
    pos_neg_weighted: true
  }
}
layer {
  name: "detection_accuracy_4_3x5"
  type: "DetectionAccuracy"
  bottom: "LFCN_4_3x5"
  bottom: "label_4_3x5"
  top: "accuracy_4_3x5"
  top: "boxiou_4_3x5"
  detection_accuracy_param {
    cls_num: 3
    coord_num: 4
    field_h: 480
    field_w: 360
    downsample_rate: 64
    field_whr: 2
    field_xyr: 2
  }
}
I0629 10:35:56.430508 26435 layer_factory.hpp:77] Creating layer data
I0629 10:35:56.430542 26435 net.cpp:100] Creating Layer data
I0629 10:35:56.430548 26435 net.cpp:408] data -> data
…
I0629 10:35:56.452185 26435 image_gt_data_layer.cpp:241] output label size 2 : 4,6,36,48
I0629 10:35:56.452216 26435 image_gt_data_layer.cpp:241] output label size 3 : 4,6,36,48
I0629 10:35:56.452248 26435 image_gt_data_layer.cpp:241] output label size 4 : 4,6,18,24
I0629 10:35:56.452278 26435 image_gt_data_layer.cpp:241] output label size 5 : 4,6,18,24
I0629 10:35:56.452311 26435 image_gt_data_layer.cpp:241] output label size 6 : 4,6,9,12
I0629 10:35:56.452313 26435 image_gt_data_layer.cpp:265]  --> has_mean_values_ = 1
I0629 10:35:56.487068 26435 net.cpp:150] Setting up data
I0629 10:35:56.487087 26435 net.cpp:157] Top shape: 4 4 576 768 (7077888)
I0629 10:35:56.487090 26435 net.cpp:157] Top shape: 4 6 72 96 (165888)
I0629 10:35:56.487093 26435 net.cpp:157] Top shape: 4 6 72 96 (165888)
I0629 10:35:56.487095 26435 net.cpp:157] Top shape: 4 6 36 48 (41472)
I0629 10:35:56.487098 26435 net.cpp:157] Top shape: 4 6 36 48 (41472)
I0629 10:35:56.487102 26435 net.cpp:157] Top shape: 4 6 18 24 (10368)
I0629 10:35:56.487105 26435 net.cpp:157] Top shape: 4 6 18 24 (10368)
I0629 10:35:56.487109 26435 net.cpp:157] Top shape: 4 6 9 12 (2592)
I0629 10:35:56.487112 26435 net.cpp:165] Memory required for data: 30063744
I0629 10:35:56.487120 26435 layer_factory.hpp:77] Creating layer label_1_3x5_data_1_split
I0629 10:35:56.487131 26435 net.cpp:100] Creating Layer label_1_3x5_data_1_split
I0629 10:35:56.487140 26435 net.cpp:434] label_1_3x5_data_1_split <- label_1_3x5
I0629 10:35:56.487152 26435 net.cpp:408] label_1_3x5_data_1_split -> label_1_3x5_data_1_split_0
I0629 10:35:56.487165 26435 net.cpp:408] label_1_3x5_data_1_split -> label_1_3x5_data_1_split_1
I0629 10:35:56.487226 26435 net.cpp:150] Setting up label_1_3x5_data_1_split
I0629 10:35:56.487234 26435 net.cpp:157] Top shape: 4 6 72 96 (165888)
I0629 10:35:56.487238 26435 net.cpp:157] Top shape: 4 6 72 96 (165888)
I0629 10:35:56.487241 26435 net.cpp:165] Memory required for data: 31390848
I0629 10:35:56.487244 26435 layer_factory.hpp:77] Creating layer label_1_5x7_data_2_split
I0629 10:35:56.487251 26435 net.cpp:100] Creating Layer label_1_5x7_data_2_split
I0629 10:35:56.487257 26435 net.cpp:434] label_1_5x7_data_2_split <- label_1_5x7
I0629 10:35:56.487265 26435 net.cpp:408] label_1_5x7_data_2_split -> label_1_5x7_data_2_split_0
I0629 10:35:56.487272 26435 net.cpp:408] label_1_5x7_data_2_split -> label_1_5x7_data_2_split_1
I0629 10:35:56.487303 26435 net.cpp:150] Setting up label_1_5x7_data_2_split
I0629 10:35:56.487308 26435 net.cpp:157] Top shape: 4 6 72 96 (165888)
I0629 10:35:56.487313 26435 net.cpp:157] Top shape: 4 6 72 96 (165888)
I0629 10:35:56.487315 26435 net.cpp:165] Memory required for data: 32717952
I0629 10:35:56.487318 26435 layer_factory.hpp:77] Creating layer label_2_3x5_data_3_split
I0629 10:35:56.487323 26435 net.cpp:100] Creating Layer label_2_3x5_data_3_split
I0629 10:35:56.487327 26435 net.cpp:434] label_2_3x5_data_3_split <- label_2_3x5
I0629 10:35:56.487334 26435 net.cpp:408] label_2_3x5_data_3_split -> label_2_3x5_data_3_split_0
I0629 10:35:56.487339 26435 net.cpp:408] label_2_3x5_data_3_split -> label_2_3x5_data_3_split_1
I0629 10:35:56.487373 26435 net.cpp:150] Setting up label_2_3x5_data_3_split
I0629 10:35:56.487380 26435 net.cpp:157] Top shape: 4 6 36 48 (41472)
I0629 10:35:56.487385 26435 net.cpp:157] Top shape: 4 6 36 48 (41472)
I0629 10:35:56.487388 26435 net.cpp:165] Memory required for data: 33049728
I0629 10:35:56.487391 26435 layer_factory.hpp:77] Creating layer label_2_5x7_data_4_split
I0629 10:35:56.487396 26435 net.cpp:100] Creating Layer label_2_5x7_data_4_split
I0629 10:35:56.487401 26435 net.cpp:434] label_2_5x7_data_4_split <- label_2_5x7
I0629 10:35:56.487407 26435 net.cpp:408] label_2_5x7_data_4_split -> label_2_5x7_data_4_split_0
I0629 10:35:56.487414 26435 net.cpp:408] label_2_5x7_data_4_split -> label_2_5x7_data_4_split_1
I0629 10:35:56.487444 26435 net.cpp:150] Setting up label_2_5x7_data_4_split
I0629 10:35:56.487449 26435 net.cpp:157] Top shape: 4 6 36 48 (41472)
I0629 10:35:56.487453 26435 net.cpp:157] Top shape: 4 6 36 48 (41472)
I0629 10:35:56.487457 26435 net.cpp:165] Memory required for data: 33381504
I0629 10:35:56.487460 26435 layer_factory.hpp:77] Creating layer label_3_3x5_data_5_split
I0629 10:35:56.487466 26435 net.cpp:100] Creating Layer label_3_3x5_data_5_split
I0629 10:35:56.487470 26435 net.cpp:434] label_3_3x5_data_5_split <- label_3_3x5
I0629 10:35:56.487475 26435 net.cpp:408] label_3_3x5_data_5_split -> label_3_3x5_data_5_split_0
I0629 10:35:56.487485 26435 net.cpp:408] label_3_3x5_data_5_split -> label_3_3x5_data_5_split_1
I0629 10:35:56.487519 26435 net.cpp:150] Setting up label_3_3x5_data_5_split
I0629 10:35:56.487524 26435 net.cpp:157] Top shape: 4 6 18 24 (10368)
I0629 10:35:56.487529 26435 net.cpp:157] Top shape: 4 6 18 24 (10368)
I0629 10:35:56.487531 26435 net.cpp:165] Memory required for data: 33464448
I0629 10:35:56.487534 26435 layer_factory.hpp:77] Creating layer label_3_5x7_data_6_split
I0629 10:35:56.487538 26435 net.cpp:100] Creating Layer label_3_5x7_data_6_split
I0629 10:35:56.487541 26435 net.cpp:434] label_3_5x7_data_6_split <- label_3_5x7
I0629 10:35:56.487547 26435 net.cpp:408] label_3_5x7_data_6_split -> label_3_5x7_data_6_split_0
I0629 10:35:56.487555 26435 net.cpp:408] label_3_5x7_data_6_split -> label_3_5x7_data_6_split_1
I0629 10:35:56.487586 26435 net.cpp:150] Setting up label_3_5x7_data_6_split
I0629 10:35:56.487591 26435 net.cpp:157] Top shape: 4 6 18 24 (10368)
I0629 10:35:56.487596 26435 net.cpp:157] Top shape: 4 6 18 24 (10368)
I0629 10:35:56.487598 26435 net.cpp:165] Memory required for data: 33547392
I0629 10:35:56.487601 26435 layer_factory.hpp:77] Creating layer label_4_3x5_data_7_split
I0629 10:35:56.487606 26435 net.cpp:100] Creating Layer label_4_3x5_data_7_split
I0629 10:35:56.487609 26435 net.cpp:434] label_4_3x5_data_7_split <- label_4_3x5
I0629 10:35:56.487614 26435 net.cpp:408] label_4_3x5_data_7_split -> label_4_3x5_data_7_split_0
I0629 10:35:56.487619 26435 net.cpp:408] label_4_3x5_data_7_split -> label_4_3x5_data_7_split_1
I0629 10:35:56.489907 26435 net.cpp:150] Setting up label_4_3x5_data_7_split
I0629 10:35:56.489931 26435 net.cpp:157] Top shape: 4 6 9 12 (2592)
I0629 10:35:56.489934 26435 net.cpp:157] Top shape: 4 6 9 12 (2592)
I0629 10:35:56.489935 26435 net.cpp:165] Memory required for data: 33568128
I0629 10:35:56.489941 26435 layer_factory.hpp:77] Creating layer conv1_1
I0629 10:35:56.489998 26435 net.cpp:100] Creating Layer conv1_1
I0629 10:35:56.490005 26435 net.cpp:434] conv1_1 <- data
I0629 10:35:56.490015 26435 net.cpp:408] conv1_1 -> conv1_1
I0629 10:35:57.027813 26435 net.cpp:150] Setting up conv1_1
I0629 10:35:57.027837 26435 net.cpp:157] Top shape: 4 64 576 768 (113246208)
I0629 10:35:57.027840 26435 net.cpp:165] Memory required for data: 486552960
I0629 10:35:57.027861 26435 layer_factory.hpp:77] Creating layer relu1_1
I0629 10:35:57.027871 26435 net.cpp:100] Creating Layer relu1_1
I0629 10:35:57.027876 26435 net.cpp:434] relu1_1 <- conv1_1
I0629 10:35:57.027882 26435 net.cpp:395] relu1_1 -> conv1_1 (in-place)
I0629 10:35:57.028170 26435 net.cpp:150] Setting up relu1_1
I0629 10:35:57.028178 26435 net.cpp:157] Top shape: 4 64 576 768 (113246208)
I0629 10:35:57.028182 26435 net.cpp:165] Memory required for data: 939537792
I0629 10:35:57.028184 26435 layer_factory.hpp:77] Creating layer conv1_2
I0629 10:35:57.028192 26435 net.cpp:100] Creating Layer conv1_2
I0629 10:35:57.028196 26435 net.cpp:434] conv1_2 <- conv1_1
I0629 10:35:57.028203 26435 net.cpp:408] conv1_2 -> conv1_2
I0629 10:35:57.031057 26435 net.cpp:150] Setting up conv1_2
I0629 10:35:57.031080 26435 net.cpp:157] Top shape: 4 64 576 768 (113246208)
I0629 10:35:57.031082 26435 net.cpp:165] Memory required for data: 1392522624
I0629 10:35:57.031096 26435 layer_factory.hpp:77] Creating layer relu1_2
I0629 10:35:57.031105 26435 net.cpp:100] Creating Layer relu1_2
I0629 10:35:57.031111 26435 net.cpp:434] relu1_2 <- conv1_2
I0629 10:35:57.031118 26435 net.cpp:395] relu1_2 -> conv1_2 (in-place)
I0629 10:35:57.031400 26435 net.cpp:150] Setting up relu1_2
I0629 10:35:57.031409 26435 net.cpp:157] Top shape: 4 64 576 768 (113246208)
I0629 10:35:57.031410 26435 net.cpp:165] Memory required for data: 1845507456
I0629 10:35:57.031414 26435 layer_factory.hpp:77] Creating layer pool1
I0629 10:35:57.031420 26435 net.cpp:100] Creating Layer pool1
I0629 10:35:57.031424 26435 net.cpp:434] pool1 <- conv1_2
I0629 10:35:57.031430 26435 net.cpp:408] pool1 -> pool1
I0629 10:35:57.031479 26435 net.cpp:150] Setting up pool1
I0629 10:35:57.031484 26435 net.cpp:157] Top shape: 4 64 288 384 (28311552)
I0629 10:35:57.031487 26435 net.cpp:165] Memory required for data: 1958753664
I0629 10:35:57.031491 26435 layer_factory.hpp:77] Creating layer conv2_1
I0629 10:35:57.031497 26435 net.cpp:100] Creating Layer conv2_1
I0629 10:35:57.031500 26435 net.cpp:434] conv2_1 <- pool1
I0629 10:35:57.031505 26435 net.cpp:408] conv2_1 -> conv2_1
I0629 10:35:57.033951 26435 net.cpp:150] Setting up conv2_1
I0629 10:35:57.033967 26435 net.cpp:157] Top shape: 4 128 288 384 (56623104)
I0629 10:35:57.033970 26435 net.cpp:165] Memory required for data: 2185246080
I0629 10:35:57.033984 26435 layer_factory.hpp:77] Creating layer relu2_1
I0629 10:35:57.033993 26435 net.cpp:100] Creating Layer relu2_1
I0629 10:35:57.033998 26435 net.cpp:434] relu2_1 <- conv2_1
I0629 10:35:57.034004 26435 net.cpp:395] relu2_1 -> conv2_1 (in-place)
I0629 10:35:57.034631 26435 net.cpp:150] Setting up relu2_1
I0629 10:35:57.034639 26435 net.cpp:157] Top shape: 4 128 288 384 (56623104)
I0629 10:35:57.034642 26435 net.cpp:165] Memory required for data: 2411738496
I0629 10:35:57.034646 26435 layer_factory.hpp:77] Creating layer conv2_2
I0629 10:35:57.034653 26435 net.cpp:100] Creating Layer conv2_2
I0629 10:35:57.034657 26435 net.cpp:434] conv2_2 <- conv2_1
I0629 10:35:57.034663 26435 net.cpp:408] conv2_2 -> conv2_2
I0629 10:35:57.036327 26435 net.cpp:150] Setting up conv2_2
I0629 10:35:57.036340 26435 net.cpp:157] Top shape: 4 128 288 384 (56623104)
I0629 10:35:57.036343 26435 net.cpp:165] Memory required for data: 2638230912
I0629 10:35:57.036352 26435 layer_factory.hpp:77] Creating layer relu2_2
I0629 10:35:57.036362 26435 net.cpp:100] Creating Layer relu2_2
I0629 10:35:57.036367 26435 net.cpp:434] relu2_2 <- conv2_2
I0629 10:35:57.036372 26435 net.cpp:395] relu2_2 -> conv2_2 (in-place)
I0629 10:35:57.036953 26435 net.cpp:150] Setting up relu2_2
I0629 10:35:57.036962 26435 net.cpp:157] Top shape: 4 128 288 384 (56623104)
I0629 10:35:57.036964 26435 net.cpp:165] Memory required for data: 2864723328
I0629 10:35:57.036968 26435 layer_factory.hpp:77] Creating layer pool2
I0629 10:35:57.036974 26435 net.cpp:100] Creating Layer pool2
I0629 10:35:57.036979 26435 net.cpp:434] pool2 <- conv2_2
I0629 10:35:57.036985 26435 net.cpp:408] pool2 -> pool2
I0629 10:35:57.037034 26435 net.cpp:150] Setting up pool2
I0629 10:35:57.037041 26435 net.cpp:157] Top shape: 4 128 144 192 (14155776)
I0629 10:35:57.037045 26435 net.cpp:165] Memory required for data: 2921346432
I0629 10:35:57.037047 26435 layer_factory.hpp:77] Creating layer conv3_1
I0629 10:35:57.037055 26435 net.cpp:100] Creating Layer conv3_1
I0629 10:35:57.037057 26435 net.cpp:434] conv3_1 <- pool2
I0629 10:35:57.037062 26435 net.cpp:408] conv3_1 -> conv3_1
I0629 10:35:57.039685 26435 net.cpp:150] Setting up conv3_1
I0629 10:35:57.039703 26435 net.cpp:157] Top shape: 4 256 144 192 (28311552)
I0629 10:35:57.039706 26435 net.cpp:165] Memory required for data: 3034592640
I0629 10:35:57.039716 26435 layer_factory.hpp:77] Creating layer relu3_1
I0629 10:35:57.039722 26435 net.cpp:100] Creating Layer relu3_1
I0629 10:35:57.039726 26435 net.cpp:434] relu3_1 <- conv3_1
I0629 10:35:57.039731 26435 net.cpp:395] relu3_1 -> conv3_1 (in-place)
I0629 10:35:57.039971 26435 net.cpp:150] Setting up relu3_1
I0629 10:35:57.039978 26435 net.cpp:157] Top shape: 4 256 144 192 (28311552)
I0629 10:35:57.039980 26435 net.cpp:165] Memory required for data: 3147838848
I0629 10:35:57.039983 26435 layer_factory.hpp:77] Creating layer conv3_2
I0629 10:35:57.039988 26435 net.cpp:100] Creating Layer conv3_2
I0629 10:35:57.039990 26435 net.cpp:434] conv3_2 <- conv3_1
I0629 10:35:57.039994 26435 net.cpp:408] conv3_2 -> conv3_2
I0629 10:35:57.043864 26435 net.cpp:150] Setting up conv3_2
I0629 10:35:57.043880 26435 net.cpp:157] Top shape: 4 256 144 192 (28311552)
I0629 10:35:57.043884 26435 net.cpp:165] Memory required for data: 3261085056
I0629 10:35:57.043890 26435 layer_factory.hpp:77] Creating layer relu3_2
I0629 10:35:57.043897 26435 net.cpp:100] Creating Layer relu3_2
I0629 10:35:57.043900 26435 net.cpp:434] relu3_2 <- conv3_2
I0629 10:35:57.043905 26435 net.cpp:395] relu3_2 -> conv3_2 (in-place)
I0629 10:35:57.044137 26435 net.cpp:150] Setting up relu3_2
I0629 10:35:57.044144 26435 net.cpp:157] Top shape: 4 256 144 192 (28311552)
I0629 10:35:57.044147 26435 net.cpp:165] Memory required for data: 3374331264
I0629 10:35:57.044148 26435 layer_factory.hpp:77] Creating layer conv3_3
I0629 10:35:57.044154 26435 net.cpp:100] Creating Layer conv3_3
I0629 10:35:57.044157 26435 net.cpp:434] conv3_3 <- conv3_2
I0629 10:35:57.044160 26435 net.cpp:408] conv3_3 -> conv3_3
I0629 10:35:57.047052 26435 net.cpp:150] Setting up conv3_3
I0629 10:35:57.047071 26435 net.cpp:157] Top shape: 4 256 144 192 (28311552)
I0629 10:35:57.047075 26435 net.cpp:165] Memory required for data: 3487577472
I0629 10:35:57.047081 26435 layer_factory.hpp:77] Creating layer relu3_3
I0629 10:35:57.047087 26435 net.cpp:100] Creating Layer relu3_3
I0629 10:35:57.047091 26435 net.cpp:434] relu3_3 <- conv3_3
I0629 10:35:57.047094 26435 net.cpp:395] relu3_3 -> conv3_3 (in-place)
I0629 10:35:57.047679 26435 net.cpp:150] Setting up relu3_3
I0629 10:35:57.047688 26435 net.cpp:157] Top shape: 4 256 144 192 (28311552)
I0629 10:35:57.047690 26435 net.cpp:165] Memory required for data: 3600823680
I0629 10:35:57.047693 26435 layer_factory.hpp:77] Creating layer pool3
I0629 10:35:57.047698 26435 net.cpp:100] Creating Layer pool3
I0629 10:35:57.047699 26435 net.cpp:434] pool3 <- conv3_3
I0629 10:35:57.047703 26435 net.cpp:408] pool3 -> pool3
I0629 10:35:57.047740 26435 net.cpp:150] Setting up pool3
I0629 10:35:57.047745 26435 net.cpp:157] Top shape: 4 256 72 96 (7077888)
I0629 10:35:57.047747 26435 net.cpp:165] Memory required for data: 3629135232
I0629 10:35:57.047749 26435 layer_factory.hpp:77] Creating layer conv4_1
I0629 10:35:57.047756 26435 net.cpp:100] Creating Layer conv4_1
I0629 10:35:57.047760 26435 net.cpp:434] conv4_1 <- pool3
I0629 10:35:57.047765 26435 net.cpp:408] conv4_1 -> conv4_1
I0629 10:35:57.052397 26435 net.cpp:150] Setting up conv4_1
I0629 10:35:57.052417 26435 net.cpp:157] Top shape: 4 512 72 96 (14155776)
I0629 10:35:57.052419 26435 net.cpp:165] Memory required for data: 3685758336
I0629 10:35:57.052426 26435 layer_factory.hpp:77] Creating layer relu4_1
I0629 10:35:57.052433 26435 net.cpp:100] Creating Layer relu4_1
I0629 10:35:57.052436 26435 net.cpp:434] relu4_1 <- conv4_1
I0629 10:35:57.052440 26435 net.cpp:395] relu4_1 -> conv4_1 (in-place)
I0629 10:35:57.052675 26435 net.cpp:150] Setting up relu4_1
I0629 10:35:57.052681 26435 net.cpp:157] Top shape: 4 512 72 96 (14155776)
I0629 10:35:57.052683 26435 net.cpp:165] Memory required for data: 3742381440
I0629 10:35:57.052685 26435 layer_factory.hpp:77] Creating layer conv4_2
I0629 10:35:57.052691 26435 net.cpp:100] Creating Layer conv4_2
I0629 10:35:57.052693 26435 net.cpp:434] conv4_2 <- conv4_1
I0629 10:35:57.052697 26435 net.cpp:408] conv4_2 -> conv4_2
I0629 10:35:57.058334 26435 net.cpp:150] Setting up conv4_2
I0629 10:35:57.058352 26435 net.cpp:157] Top shape: 4 512 72 96 (14155776)
I0629 10:35:57.058356 26435 net.cpp:165] Memory required for data: 3799004544
I0629 10:35:57.058365 26435 layer_factory.hpp:77] Creating layer relu4_2
I0629 10:35:57.058372 26435 net.cpp:100] Creating Layer relu4_2
I0629 10:35:57.058375 26435 net.cpp:434] relu4_2 <- conv4_2
I0629 10:35:57.058380 26435 net.cpp:395] relu4_2 -> conv4_2 (in-place)
I0629 10:35:57.058603 26435 net.cpp:150] Setting up relu4_2
I0629 10:35:57.058609 26435 net.cpp:157] Top shape: 4 512 72 96 (14155776)
I0629 10:35:57.058611 26435 net.cpp:165] Memory required for data: 3855627648
I0629 10:35:57.058614 26435 layer_factory.hpp:77] Creating layer conv4_3
I0629 10:35:57.058619 26435 net.cpp:100] Creating Layer conv4_3
I0629 10:35:57.058621 26435 net.cpp:434] conv4_3 <- conv4_2
I0629 10:35:57.058625 26435 net.cpp:408] conv4_3 -> conv4_3
I0629 10:35:57.064240 26435 net.cpp:150] Setting up conv4_3
I0629 10:35:57.064260 26435 net.cpp:157] Top shape: 4 512 72 96 (14155776)
I0629 10:35:57.064261 26435 net.cpp:165] Memory required for data: 3912250752
I0629 10:35:57.064268 26435 layer_factory.hpp:77] Creating layer relu4_3
I0629 10:35:57.064275 26435 net.cpp:100] Creating Layer relu4_3
I0629 10:35:57.064278 26435 net.cpp:434] relu4_3 <- conv4_3
I0629 10:35:57.064282 26435 net.cpp:395] relu4_3 -> conv4_3 (in-place)
I0629 10:35:57.064913 26435 net.cpp:150] Setting up relu4_3
I0629 10:35:57.064921 26435 net.cpp:157] Top shape: 4 512 72 96 (14155776)
I0629 10:35:57.064924 26435 net.cpp:165] Memory required for data: 3968873856
I0629 10:35:57.064926 26435 layer_factory.hpp:77] Creating layer conv4_3_relu4_3_0_split
I0629 10:35:57.064930 26435 net.cpp:100] Creating Layer conv4_3_relu4_3_0_split
I0629 10:35:57.064932 26435 net.cpp:434] conv4_3_relu4_3_0_split <- conv4_3
I0629 10:35:57.064936 26435 net.cpp:408] conv4_3_relu4_3_0_split -> conv4_3_relu4_3_0_split_0
I0629 10:35:57.064941 26435 net.cpp:408] conv4_3_relu4_3_0_split -> conv4_3_relu4_3_0_split_1
I0629 10:35:57.064977 26435 net.cpp:150] Setting up conv4_3_relu4_3_0_split
I0629 10:35:57.064982 26435 net.cpp:157] Top shape: 4 512 72 96 (14155776)
I0629 10:35:57.064985 26435 net.cpp:157] Top shape: 4 512 72 96 (14155776)
I0629 10:35:57.064987 26435 net.cpp:165] Memory required for data: 4082120064
I0629 10:35:57.064990 26435 layer_factory.hpp:77] Creating layer loss1_conv1
I0629 10:35:57.065003 26435 net.cpp:100] Creating Layer loss1_conv1
I0629 10:35:57.065006 26435 net.cpp:434] loss1_conv1 <- conv4_3_relu4_3_0_split_0
I0629 10:35:57.065011 26435 net.cpp:408] loss1_conv1 -> loss1_conv1
I0629 10:35:57.098884 26435 net.cpp:150] Setting up loss1_conv1
I0629 10:35:57.098902 26435 net.cpp:157] Top shape: 4 512 72 96 (14155776)
I0629 10:35:57.098906 26435 net.cpp:165] Memory required for data: 4138743168
I0629 10:35:57.098912 26435 layer_factory.hpp:77] Creating layer loss_relu1
I0629 10:35:57.098917 26435 net.cpp:100] Creating Layer loss_relu1
I0629 10:35:57.098920 26435 net.cpp:434] loss_relu1 <- loss1_conv1
I0629 10:35:57.098924 26435 net.cpp:395] loss_relu1 -> loss1_conv1 (in-place)
I0629 10:35:57.099167 26435 net.cpp:150] Setting up loss_relu1
I0629 10:35:57.099174 26435 net.cpp:157] Top shape: 4 512 72 96 (14155776)
I0629 10:35:57.099176 26435 net.cpp:165] Memory required for data: 4195366272
I0629 10:35:57.099179 26435 layer_factory.hpp:77] Creating layer loss1_conv1_loss_relu1_0_split
I0629 10:35:57.099182 26435 net.cpp:100] Creating Layer loss1_conv1_loss_relu1_0_split
I0629 10:35:57.099184 26435 net.cpp:434] loss1_conv1_loss_relu1_0_split <- loss1_conv1
I0629 10:35:57.099189 26435 net.cpp:408] loss1_conv1_loss_relu1_0_split -> loss1_conv1_loss_relu1_0_split_0
I0629 10:35:57.099195 26435 net.cpp:408] loss1_conv1_loss_relu1_0_split -> loss1_conv1_loss_relu1_0_split_1
I0629 10:35:57.099231 26435 net.cpp:150] Setting up loss1_conv1_loss_relu1_0_split
I0629 10:35:57.099236 26435 net.cpp:157] Top shape: 4 512 72 96 (14155776)
I0629 10:35:57.099237 26435 net.cpp:157] Top shape: 4 512 72 96 (14155776)
I0629 10:35:57.099239 26435 net.cpp:165] Memory required for data: 4308612480
I0629 10:35:57.099241 26435 layer_factory.hpp:77] Creating layer LFCN_1_3x5
I0629 10:35:57.099253 26435 net.cpp:100] Creating Layer LFCN_1_3x5
I0629 10:35:57.099261 26435 net.cpp:434] LFCN_1_3x5 <- loss1_conv1_loss_relu1_0_split_0
I0629 10:35:57.099265 26435 net.cpp:408] LFCN_1_3x5 -> LFCN_1_3x5
I0629 10:35:57.101375 26435 net.cpp:150] Setting up LFCN_1_3x5
I0629 10:35:57.101387 26435 net.cpp:157] Top shape: 4 7 72 96 (193536)
I0629 10:35:57.101389 26435 net.cpp:165] Memory required for data: 4309386624
I0629 10:35:57.101394 26435 layer_factory.hpp:77] Creating layer LFCN_1_3x5_LFCN_1_3x5_0_split
I0629 10:35:57.101399 26435 net.cpp:100] Creating Layer LFCN_1_3x5_LFCN_1_3x5_0_split
I0629 10:35:57.101402 26435 net.cpp:434] LFCN_1_3x5_LFCN_1_3x5_0_split <- LFCN_1_3x5
I0629 10:35:57.101408 26435 net.cpp:408] LFCN_1_3x5_LFCN_1_3x5_0_split -> LFCN_1_3x5_LFCN_1_3x5_0_split_0
I0629 10:35:57.101413 26435 net.cpp:408] LFCN_1_3x5_LFCN_1_3x5_0_split -> LFCN_1_3x5_LFCN_1_3x5_0_split_1
I0629 10:35:57.101449 26435 net.cpp:150] Setting up LFCN_1_3x5_LFCN_1_3x5_0_split
I0629 10:35:57.101454 26435 net.cpp:157] Top shape: 4 7 72 96 (193536)
I0629 10:35:57.101457 26435 net.cpp:157] Top shape: 4 7 72 96 (193536)
I0629 10:35:57.101459 26435 net.cpp:165] Memory required for data: 4310934912
I0629 10:35:57.101462 26435 layer_factory.hpp:77] Creating layer detection_loss_1_3x5
I0629 10:35:57.101469 26435 net.cpp:100] Creating Layer detection_loss_1_3x5
I0629 10:35:57.101472 26435 net.cpp:434] detection_loss_1_3x5 <- LFCN_1_3x5_LFCN_1_3x5_0_split_0
I0629 10:35:57.101476 26435 net.cpp:434] detection_loss_1_3x5 <- label_1_3x5_data_1_split_0
I0629 10:35:57.101481 26435 net.cpp:408] detection_loss_1_3x5 -> loss_1_3x5
I0629 10:35:57.101500 26435 layer_factory.hpp:77] Creating layer detection_loss_1_3x5
I0629 10:35:57.102082 26435 net.cpp:150] Setting up detection_loss_1_3x5
I0629 10:35:57.102090 26435 net.cpp:157] Top shape: 1 1 1 2 (2)
I0629 10:35:57.102093 26435 net.cpp:160]     with loss weight 0.9
I0629 10:35:57.102113 26435 net.cpp:165] Memory required for data: 4310934920
I0629 10:35:57.102116 26435 layer_factory.hpp:77] Creating layer detection_accuracy_1_3x5
I0629 10:35:57.102123 26435 net.cpp:100] Creating Layer detection_accuracy_1_3x5
I0629 10:35:57.102126 26435 net.cpp:434] detection_accuracy_1_3x5 <- LFCN_1_3x5_LFCN_1_3x5_0_split_1
I0629 10:35:57.102131 26435 net.cpp:434] detection_accuracy_1_3x5 <- label_1_3x5_data_1_split_1
I0629 10:35:57.102143 26435 net.cpp:408] detection_accuracy_1_3x5 -> accuracy_1_3x5
I0629 10:35:57.102150 26435 net.cpp:408] detection_accuracy_1_3x5 -> boxiou_1_3x5
I0629 10:35:57.102195 26435 net.cpp:150] Setting up detection_accuracy_1_3x5
I0629 10:35:57.102200 26435 net.cpp:157] Top shape: 1 1 1 2 (2)
I0629 10:35:57.102205 26435 net.cpp:157] Top shape: 1 1 1 1 (1)
I0629 10:35:57.102206 26435 net.cpp:165] Memory required for data: 4310934932
I0629 10:35:57.102210 26435 layer_factory.hpp:77] Creating layer LFCN_1_5x7
I0629 10:35:57.102218 26435 net.cpp:100] Creating Layer LFCN_1_5x7
I0629 10:35:57.102222 26435 net.cpp:434] LFCN_1_5x7 <- loss1_conv1_loss_relu1_0_split_1
I0629 10:35:57.102229 26435 net.cpp:408] LFCN_1_5x7 -> LFCN_1_5x7
I0629 10:35:57.104703 26435 net.cpp:150] Setting up LFCN_1_5x7
I0629 10:35:57.104717 26435 net.cpp:157] Top shape: 4 7 72 96 (193536)
I0629 10:35:57.104718 26435 net.cpp:165] Memory required for data: 4311709076
I0629 10:35:57.104724 26435 layer_factory.hpp:77] Creating layer LFCN_1_5x7_LFCN_1_5x7_0_split
I0629 10:35:57.104729 26435 net.cpp:100] Creating Layer LFCN_1_5x7_LFCN_1_5x7_0_split
I0629 10:35:57.104732 26435 net.cpp:434] LFCN_1_5x7_LFCN_1_5x7_0_split <- LFCN_1_5x7
I0629 10:35:57.104737 26435 net.cpp:408] LFCN_1_5x7_LFCN_1_5x7_0_split -> LFCN_1_5x7_LFCN_1_5x7_0_split_0
I0629 10:35:57.104743 26435 net.cpp:408] LFCN_1_5x7_LFCN_1_5x7_0_split -> LFCN_1_5x7_LFCN_1_5x7_0_split_1
I0629 10:35:57.104779 26435 net.cpp:150] Setting up LFCN_1_5x7_LFCN_1_5x7_0_split
I0629 10:35:57.104786 26435 net.cpp:157] Top shape: 4 7 72 96 (193536)
I0629 10:35:57.104790 26435 net.cpp:157] Top shape: 4 7 72 96 (193536)
I0629 10:35:57.104792 26435 net.cpp:165] Memory required for data: 4313257364
I0629 10:35:57.104795 26435 layer_factory.hpp:77] Creating layer detection_loss_1_5x7
I0629 10:35:57.104802 26435 net.cpp:100] Creating Layer detection_loss_1_5x7
I0629 10:35:57.104806 26435 net.cpp:434] detection_loss_1_5x7 <- LFCN_1_5x7_LFCN_1_5x7_0_split_0
I0629 10:35:57.104810 26435 net.cpp:434] detection_loss_1_5x7 <- label_1_5x7_data_2_split_0
I0629 10:35:57.104816 26435 net.cpp:408] detection_loss_1_5x7 -> loss_1_5x7
I0629 10:35:57.104825 26435 layer_factory.hpp:77] Creating layer detection_loss_1_5x7
I0629 10:35:57.105741 26435 net.cpp:150] Setting up detection_loss_1_5x7
I0629 10:35:57.105751 26435 net.cpp:157] Top shape: 1 1 1 2 (2)
I0629 10:35:57.105752 26435 net.cpp:160]     with loss weight 0.9
I0629 10:35:57.105758 26435 net.cpp:165] Memory required for data: 4313257372
I0629 10:35:57.105760 26435 layer_factory.hpp:77] Creating layer detection_accuracy_1_5x7
I0629 10:35:57.105767 26435 net.cpp:100] Creating Layer detection_accuracy_1_5x7
I0629 10:35:57.105768 26435 net.cpp:434] detection_accuracy_1_5x7 <- LFCN_1_5x7_LFCN_1_5x7_0_split_1
I0629 10:35:57.105772 26435 net.cpp:434] detection_accuracy_1_5x7 <- label_1_5x7_data_2_split_1
I0629 10:35:57.105777 26435 net.cpp:408] detection_accuracy_1_5x7 -> accuracy_1_5x7
I0629 10:35:57.105782 26435 net.cpp:408] detection_accuracy_1_5x7 -> boxiou_1_5x7
I0629 10:35:57.105820 26435 net.cpp:150] Setting up detection_accuracy_1_5x7
I0629 10:35:57.105826 26435 net.cpp:157] Top shape: 1 1 1 2 (2)
I0629 10:35:57.105829 26435 net.cpp:157] Top shape: 1 1 1 1 (1)
I0629 10:35:57.105831 26435 net.cpp:165] Memory required for data: 4313257384
I0629 10:35:57.105834 26435 layer_factory.hpp:77] Creating layer pool4
I0629 10:35:57.105840 26435 net.cpp:100] Creating Layer pool4
I0629 10:35:57.105844 26435 net.cpp:434] pool4 <- conv4_3_relu4_3_0_split_1
I0629 10:35:57.105850 26435 net.cpp:408] pool4 -> pool4
I0629 10:35:57.105885 26435 net.cpp:150] Setting up pool4
I0629 10:35:57.105890 26435 net.cpp:157] Top shape: 4 512 36 48 (3538944)
I0629 10:35:57.105891 26435 net.cpp:165] Memory required for data: 4327413160
I0629 10:35:57.105895 26435 layer_factory.hpp:77] Creating layer conv5_1
I0629 10:35:57.105901 26435 net.cpp:100] Creating Layer conv5_1
I0629 10:35:57.105904 26435 net.cpp:434] conv5_1 <- pool4
I0629 10:35:57.105911 26435 net.cpp:408] conv5_1 -> conv5_1
I0629 10:35:57.111670 26435 net.cpp:150] Setting up conv5_1
I0629 10:35:57.111690 26435 net.cpp:157] Top shape: 4 512 36 48 (3538944)
I0629 10:35:57.111692 26435 net.cpp:165] Memory required for data: 4341568936
I0629 10:35:57.111699 26435 layer_factory.hpp:77] Creating layer relu5_1
I0629 10:35:57.111706 26435 net.cpp:100] Creating Layer relu5_1
I0629 10:35:57.111708 26435 net.cpp:434] relu5_1 <- conv5_1
I0629 10:35:57.111712 26435 net.cpp:395] relu5_1 -> conv5_1 (in-place)
I0629 10:35:57.112354 26435 net.cpp:150] Setting up relu5_1
I0629 10:35:57.112362 26435 net.cpp:157] Top shape: 4 512 36 48 (3538944)
I0629 10:35:57.112365 26435 net.cpp:165] Memory required for data: 4355724712
I0629 10:35:57.112367 26435 layer_factory.hpp:77] Creating layer conv5_2
I0629 10:35:57.112375 26435 net.cpp:100] Creating Layer conv5_2
I0629 10:35:57.112377 26435 net.cpp:434] conv5_2 <- conv5_1
I0629 10:35:57.112380 26435 net.cpp:408] conv5_2 -> conv5_2
I0629 10:35:57.117768 26435 net.cpp:150] Setting up conv5_2
I0629 10:35:57.117785 26435 net.cpp:157] Top shape: 4 512 36 48 (3538944)
I0629 10:35:57.117787 26435 net.cpp:165] Memory required for data: 4369880488
I0629 10:35:57.117794 26435 layer_factory.hpp:77] Creating layer relu5_2
I0629 10:35:57.117801 26435 net.cpp:100] Creating Layer relu5_2
I0629 10:35:57.117805 26435 net.cpp:434] relu5_2 <- conv5_2
I0629 10:35:57.117810 26435 net.cpp:395] relu5_2 -> conv5_2 (in-place)
I0629 10:35:57.118057 26435 net.cpp:150] Setting up relu5_2
I0629 10:35:57.118062 26435 net.cpp:157] Top shape: 4 512 36 48 (3538944)
I0629 10:35:57.118064 26435 net.cpp:165] Memory required for data: 4384036264
I0629 10:35:57.118067 26435 layer_factory.hpp:77] Creating layer conv5_3
I0629 10:35:57.118074 26435 net.cpp:100] Creating Layer conv5_3
I0629 10:35:57.118077 26435 net.cpp:434] conv5_3 <- conv5_2
I0629 10:35:57.118082 26435 net.cpp:408] conv5_3 -> conv5_3
I0629 10:35:57.124289 26435 net.cpp:150] Setting up conv5_3
I0629 10:35:57.124306 26435 net.cpp:157] Top shape: 4 512 36 48 (3538944)
I0629 10:35:57.124308 26435 net.cpp:165] Memory required for data: 4398192040
I0629 10:35:57.124315 26435 layer_factory.hpp:77] Creating layer relu5_3
I0629 10:35:57.124323 26435 net.cpp:100] Creating Layer relu5_3
I0629 10:35:57.124327 26435 net.cpp:434] relu5_3 <- conv5_3
I0629 10:35:57.124331 26435 net.cpp:395] relu5_3 -> conv5_3 (in-place)
I0629 10:35:57.124578 26435 net.cpp:150] Setting up relu5_3
I0629 10:35:57.124585 26435 net.cpp:157] Top shape: 4 512 36 48 (3538944)
I0629 10:35:57.124588 26435 net.cpp:165] Memory required for data: 4412347816
I0629 10:35:57.124589 26435 layer_factory.hpp:77] Creating layer conv5_3_relu5_3_0_split
I0629 10:35:57.124594 26435 net.cpp:100] Creating Layer conv5_3_relu5_3_0_split
I0629 10:35:57.124596 26435 net.cpp:434] conv5_3_relu5_3_0_split <- conv5_3
I0629 10:35:57.124601 26435 net.cpp:408] conv5_3_relu5_3_0_split -> conv5_3_relu5_3_0_split_0
I0629 10:35:57.124606 26435 net.cpp:408] conv5_3_relu5_3_0_split -> conv5_3_relu5_3_0_split_1
I0629 10:35:57.124610 26435 net.cpp:408] conv5_3_relu5_3_0_split -> conv5_3_relu5_3_0_split_2
I0629 10:35:57.124660 26435 net.cpp:150] Setting up conv5_3_relu5_3_0_split
I0629 10:35:57.124665 26435 net.cpp:157] Top shape: 4 512 36 48 (3538944)
I0629 10:35:57.124666 26435 net.cpp:157] Top shape: 4 512 36 48 (3538944)
I0629 10:35:57.124670 26435 net.cpp:157] Top shape: 4 512 36 48 (3538944)
I0629 10:35:57.124672 26435 net.cpp:165] Memory required for data: 4454815144
I0629 10:35:57.124675 26435 layer_factory.hpp:77] Creating layer LFCN_2_3x5
I0629 10:35:57.124686 26435 net.cpp:100] Creating Layer LFCN_2_3x5
I0629 10:35:57.124688 26435 net.cpp:434] LFCN_2_3x5 <- conv5_3_relu5_3_0_split_0
I0629 10:35:57.124696 26435 net.cpp:408] LFCN_2_3x5 -> LFCN_2_3x5
I0629 10:35:57.126443 26435 net.cpp:150] Setting up LFCN_2_3x5
I0629 10:35:57.126454 26435 net.cpp:157] Top shape: 4 7 36 48 (48384)
I0629 10:35:57.126456 26435 net.cpp:165] Memory required for data: 4455008680
I0629 10:35:57.126467 26435 layer_factory.hpp:77] Creating layer LFCN_2_3x5_LFCN_2_3x5_0_split
I0629 10:35:57.126473 26435 net.cpp:100] Creating Layer LFCN_2_3x5_LFCN_2_3x5_0_split
I0629 10:35:57.126476 26435 net.cpp:434] LFCN_2_3x5_LFCN_2_3x5_0_split <- LFCN_2_3x5
I0629 10:35:57.126480 26435 net.cpp:408] LFCN_2_3x5_LFCN_2_3x5_0_split -> LFCN_2_3x5_LFCN_2_3x5_0_split_0
I0629 10:35:57.126487 26435 net.cpp:408] LFCN_2_3x5_LFCN_2_3x5_0_split -> LFCN_2_3x5_LFCN_2_3x5_0_split_1
I0629 10:35:57.126523 26435 net.cpp:150] Setting up LFCN_2_3x5_LFCN_2_3x5_0_split
I0629 10:35:57.126528 26435 net.cpp:157] Top shape: 4 7 36 48 (48384)
I0629 10:35:57.126531 26435 net.cpp:157] Top shape: 4 7 36 48 (48384)
I0629 10:35:57.126533 26435 net.cpp:165] Memory required for data: 4455395752
I0629 10:35:57.126536 26435 layer_factory.hpp:77] Creating layer detection_loss_2_3x5
I0629 10:35:57.126543 26435 net.cpp:100] Creating Layer detection_loss_2_3x5
I0629 10:35:57.126547 26435 net.cpp:434] detection_loss_2_3x5 <- LFCN_2_3x5_LFCN_2_3x5_0_split_0
I0629 10:35:57.126551 26435 net.cpp:434] detection_loss_2_3x5 <- label_2_3x5_data_3_split_0
I0629 10:35:57.126559 26435 net.cpp:408] detection_loss_2_3x5 -> loss_2_3x5
I0629 10:35:57.126567 26435 layer_factory.hpp:77] Creating layer detection_loss_2_3x5
I0629 10:35:57.127370 26435 net.cpp:150] Setting up detection_loss_2_3x5
I0629 10:35:57.127377 26435 net.cpp:157] Top shape: 1 1 1 2 (2)
I0629 10:35:57.127379 26435 net.cpp:160]     with loss weight 1
I0629 10:35:57.127385 26435 net.cpp:165] Memory required for data: 4455395760
I0629 10:35:57.127388 26435 layer_factory.hpp:77] Creating layer detection_accuracy_2_3x5
I0629 10:35:57.127394 26435 net.cpp:100] Creating Layer detection_accuracy_2_3x5
I0629 10:35:57.127396 26435 net.cpp:434] detection_accuracy_2_3x5 <- LFCN_2_3x5_LFCN_2_3x5_0_split_1
I0629 10:35:57.127400 26435 net.cpp:434] detection_accuracy_2_3x5 <- label_2_3x5_data_3_split_1
I0629 10:35:57.127405 26435 net.cpp:408] detection_accuracy_2_3x5 -> accuracy_2_3x5
I0629 10:35:57.127410 26435 net.cpp:408] detection_accuracy_2_3x5 -> boxiou_2_3x5
I0629 10:35:57.127454 26435 net.cpp:150] Setting up detection_accuracy_2_3x5
I0629 10:35:57.127460 26435 net.cpp:157] Top shape: 1 1 1 2 (2)
I0629 10:35:57.127463 26435 net.cpp:157] Top shape: 1 1 1 1 (1)
I0629 10:35:57.127465 26435 net.cpp:165] Memory required for data: 4455395772
I0629 10:35:57.127468 26435 layer_factory.hpp:77] Creating layer LFCN_2_5x7
I0629 10:35:57.127476 26435 net.cpp:100] Creating Layer LFCN_2_5x7
I0629 10:35:57.127480 26435 net.cpp:434] LFCN_2_5x7 <- conv5_3_relu5_3_0_split_1
I0629 10:35:57.127486 26435 net.cpp:408] LFCN_2_5x7 -> LFCN_2_5x7
I0629 10:35:57.130659 26435 net.cpp:150] Setting up LFCN_2_5x7
I0629 10:35:57.130678 26435 net.cpp:157] Top shape: 4 7 36 48 (48384)
I0629 10:35:57.130681 26435 net.cpp:165] Memory required for data: 4455589308
I0629 10:35:57.130687 26435 layer_factory.hpp:77] Creating layer LFCN_2_5x7_LFCN_2_5x7_0_split
I0629 10:35:57.130693 26435 net.cpp:100] Creating Layer LFCN_2_5x7_LFCN_2_5x7_0_split
I0629 10:35:57.130697 26435 net.cpp:434] LFCN_2_5x7_LFCN_2_5x7_0_split <- LFCN_2_5x7
I0629 10:35:57.130702 26435 net.cpp:408] LFCN_2_5x7_LFCN_2_5x7_0_split -> LFCN_2_5x7_LFCN_2_5x7_0_split_0
I0629 10:35:57.130708 26435 net.cpp:408] LFCN_2_5x7_LFCN_2_5x7_0_split -> LFCN_2_5x7_LFCN_2_5x7_0_split_1
I0629 10:35:57.130749 26435 net.cpp:150] Setting up LFCN_2_5x7_LFCN_2_5x7_0_split
I0629 10:35:57.130754 26435 net.cpp:157] Top shape: 4 7 36 48 (48384)
I0629 10:35:57.130758 26435 net.cpp:157] Top shape: 4 7 36 48 (48384)
I0629 10:35:57.130759 26435 net.cpp:165] Memory required for data: 4455976380
I0629 10:35:57.130762 26435 layer_factory.hpp:77] Creating layer detection_loss_2_5x7
I0629 10:35:57.130769 26435 net.cpp:100] Creating Layer detection_loss_2_5x7
I0629 10:35:57.130774 26435 net.cpp:434] detection_loss_2_5x7 <- LFCN_2_5x7_LFCN_2_5x7_0_split_0
I0629 10:35:57.130779 26435 net.cpp:434] detection_loss_2_5x7 <- label_2_5x7_data_4_split_0
I0629 10:35:57.130785 26435 net.cpp:408] detection_loss_2_5x7 -> loss_2_5x7
I0629 10:35:57.130794 26435 layer_factory.hpp:77] Creating layer detection_loss_2_5x7
I0629 10:35:57.131191 26435 net.cpp:150] Setting up detection_loss_2_5x7
I0629 10:35:57.131197 26435 net.cpp:157] Top shape: 1 1 1 2 (2)
I0629 10:35:57.131199 26435 net.cpp:160]     with loss weight 1
I0629 10:35:57.131206 26435 net.cpp:165] Memory required for data: 4455976388
I0629 10:35:57.131208 26435 layer_factory.hpp:77] Creating layer detection_accuracy_2_5x7
I0629 10:35:57.131212 26435 net.cpp:100] Creating Layer detection_accuracy_2_5x7
I0629 10:35:57.131216 26435 net.cpp:434] detection_accuracy_2_5x7 <- LFCN_2_5x7_LFCN_2_5x7_0_split_1
I0629 10:35:57.131218 26435 net.cpp:434] detection_accuracy_2_5x7 <- label_2_5x7_data_4_split_1
I0629 10:35:57.131223 26435 net.cpp:408] detection_accuracy_2_5x7 -> accuracy_2_5x7
I0629 10:35:57.131227 26435 net.cpp:408] detection_accuracy_2_5x7 -> boxiou_2_5x7
I0629 10:35:57.131266 26435 net.cpp:150] Setting up detection_accuracy_2_5x7
I0629 10:35:57.131270 26435 net.cpp:157] Top shape: 1 1 1 2 (2)
I0629 10:35:57.131273 26435 net.cpp:157] Top shape: 1 1 1 1 (1)
I0629 10:35:57.131274 26435 net.cpp:165] Memory required for data: 4455976400
I0629 10:35:57.131278 26435 layer_factory.hpp:77] Creating layer pool5
I0629 10:35:57.131283 26435 net.cpp:100] Creating Layer pool5
I0629 10:35:57.131287 26435 net.cpp:434] pool5 <- conv5_3_relu5_3_0_split_2
I0629 10:35:57.131294 26435 net.cpp:408] pool5 -> pool5
I0629 10:35:57.131325 26435 net.cpp:150] Setting up pool5
I0629 10:35:57.131330 26435 net.cpp:157] Top shape: 4 512 18 24 (884736)
I0629 10:35:57.131332 26435 net.cpp:165] Memory required for data: 4459515344
I0629 10:35:57.131335 26435 layer_factory.hpp:77] Creating layer conv6_1
I0629 10:35:57.131345 26435 net.cpp:100] Creating Layer conv6_1
I0629 10:35:57.131347 26435 net.cpp:434] conv6_1 <- pool5
I0629 10:35:57.131352 26435 net.cpp:408] conv6_1 -> conv6_1
I0629 10:35:57.152428 26435 net.cpp:150] Setting up conv6_1
I0629 10:35:57.152447 26435 net.cpp:157] Top shape: 4 512 18 24 (884736)
I0629 10:35:57.152451 26435 net.cpp:165] Memory required for data: 4463054288
I0629 10:35:57.152460 26435 layer_factory.hpp:77] Creating layer relu6_1
I0629 10:35:57.152469 26435 net.cpp:100] Creating Layer relu6_1
I0629 10:35:57.152475 26435 net.cpp:434] relu6_1 <- conv6_1
I0629 10:35:57.152479 26435 net.cpp:395] relu6_1 -> conv6_1 (in-place)
I0629 10:35:57.152719 26435 net.cpp:150] Setting up relu6_1
I0629 10:35:57.152724 26435 net.cpp:157] Top shape: 4 512 18 24 (884736)
I0629 10:35:57.152726 26435 net.cpp:165] Memory required for data: 4466593232
I0629 10:35:57.152729 26435 layer_factory.hpp:77] Creating layer conv6_1_relu6_1_0_split
I0629 10:35:57.152735 26435 net.cpp:100] Creating Layer conv6_1_relu6_1_0_split
I0629 10:35:57.152740 26435 net.cpp:434] conv6_1_relu6_1_0_split <- conv6_1
I0629 10:35:57.152745 26435 net.cpp:408] conv6_1_relu6_1_0_split -> conv6_1_relu6_1_0_split_0
I0629 10:35:57.152751 26435 net.cpp:408] conv6_1_relu6_1_0_split -> conv6_1_relu6_1_0_split_1
I0629 10:35:57.152757 26435 net.cpp:408] conv6_1_relu6_1_0_split -> conv6_1_relu6_1_0_split_2
I0629 10:35:57.152808 26435 net.cpp:150] Setting up conv6_1_relu6_1_0_split
I0629 10:35:57.152812 26435 net.cpp:157] Top shape: 4 512 18 24 (884736)
I0629 10:35:57.152815 26435 net.cpp:157] Top shape: 4 512 18 24 (884736)
I0629 10:35:57.152818 26435 net.cpp:157] Top shape: 4 512 18 24 (884736)
I0629 10:35:57.152822 26435 net.cpp:165] Memory required for data: 4477210064
I0629 10:35:57.152824 26435 layer_factory.hpp:77] Creating layer LFCN_3_3x5
I0629 10:35:57.152834 26435 net.cpp:100] Creating Layer LFCN_3_3x5
I0629 10:35:57.152837 26435 net.cpp:434] LFCN_3_3x5 <- conv6_1_relu6_1_0_split_0
I0629 10:35:57.152843 26435 net.cpp:408] LFCN_3_3x5 -> LFCN_3_3x5
I0629 10:35:57.155499 26435 net.cpp:150] Setting up LFCN_3_3x5
I0629 10:35:57.155519 26435 net.cpp:157] Top shape: 4 7 18 24 (12096)
I0629 10:35:57.155520 26435 net.cpp:165] Memory required for data: 4477258448
I0629 10:35:57.155529 26435 layer_factory.hpp:77] Creating layer LFCN_3_3x5_LFCN_3_3x5_0_split
I0629 10:35:57.155550 26435 net.cpp:100] Creating Layer LFCN_3_3x5_LFCN_3_3x5_0_split
I0629 10:35:57.155555 26435 net.cpp:434] LFCN_3_3x5_LFCN_3_3x5_0_split <- LFCN_3_3x5
I0629 10:35:57.155560 26435 net.cpp:408] LFCN_3_3x5_LFCN_3_3x5_0_split -> LFCN_3_3x5_LFCN_3_3x5_0_split_0
I0629 10:35:57.155568 26435 net.cpp:408] LFCN_3_3x5_LFCN_3_3x5_0_split -> LFCN_3_3x5_LFCN_3_3x5_0_split_1
I0629 10:35:57.155607 26435 net.cpp:150] Setting up LFCN_3_3x5_LFCN_3_3x5_0_split
I0629 10:35:57.155612 26435 net.cpp:157] Top shape: 4 7 18 24 (12096)
I0629 10:35:57.155614 26435 net.cpp:157] Top shape: 4 7 18 24 (12096)
I0629 10:35:57.155616 26435 net.cpp:165] Memory required for data: 4477355216
I0629 10:35:57.155620 26435 layer_factory.hpp:77] Creating layer detection_loss_3_3x5
I0629 10:35:57.155628 26435 net.cpp:100] Creating Layer detection_loss_3_3x5
I0629 10:35:57.155632 26435 net.cpp:434] detection_loss_3_3x5 <- LFCN_3_3x5_LFCN_3_3x5_0_split_0
I0629 10:35:57.155637 26435 net.cpp:434] detection_loss_3_3x5 <- label_3_3x5_data_5_split_0
I0629 10:35:57.155643 26435 net.cpp:408] detection_loss_3_3x5 -> loss_3_3x5
I0629 10:35:57.155652 26435 layer_factory.hpp:77] Creating layer detection_loss_3_3x5
I0629 10:35:57.156488 26435 net.cpp:150] Setting up detection_loss_3_3x5
I0629 10:35:57.156497 26435 net.cpp:157] Top shape: 1 1 1 2 (2)
I0629 10:35:57.156499 26435 net.cpp:160]     with loss weight 1
I0629 10:35:57.156507 26435 net.cpp:165] Memory required for data: 4477355224
I0629 10:35:57.156512 26435 layer_factory.hpp:77] Creating layer detection_accuracy_3_3x5
I0629 10:35:57.156520 26435 net.cpp:100] Creating Layer detection_accuracy_3_3x5
I0629 10:35:57.156524 26435 net.cpp:434] detection_accuracy_3_3x5 <- LFCN_3_3x5_LFCN_3_3x5_0_split_1
I0629 10:35:57.156528 26435 net.cpp:434] detection_accuracy_3_3x5 <- label_3_3x5_data_5_split_1
I0629 10:35:57.156534 26435 net.cpp:408] detection_accuracy_3_3x5 -> accuracy_3_3x5
I0629 10:35:57.156541 26435 net.cpp:408] detection_accuracy_3_3x5 -> boxiou_3_3x5
I0629 10:35:57.156579 26435 net.cpp:150] Setting up detection_accuracy_3_3x5
I0629 10:35:57.156584 26435 net.cpp:157] Top shape: 1 1 1 2 (2)
I0629 10:35:57.156586 26435 net.cpp:157] Top shape: 1 1 1 1 (1)
I0629 10:35:57.156589 26435 net.cpp:165] Memory required for data: 4477355236
I0629 10:35:57.156591 26435 layer_factory.hpp:77] Creating layer LFCN_3_5x7
I0629 10:35:57.156600 26435 net.cpp:100] Creating Layer LFCN_3_5x7
I0629 10:35:57.156603 26435 net.cpp:434] LFCN_3_5x7 <- conv6_1_relu6_1_0_split_1
I0629 10:35:57.156610 26435 net.cpp:408] LFCN_3_5x7 -> LFCN_3_5x7
I0629 10:35:57.158888 26435 net.cpp:150] Setting up LFCN_3_5x7
I0629 10:35:57.158900 26435 net.cpp:157] Top shape: 4 7 18 24 (12096)
I0629 10:35:57.158902 26435 net.cpp:165] Memory required for data: 4477403620
I0629 10:35:57.158911 26435 layer_factory.hpp:77] Creating layer LFCN_3_5x7_LFCN_3_5x7_0_split
I0629 10:35:57.158921 26435 net.cpp:100] Creating Layer LFCN_3_5x7_LFCN_3_5x7_0_split
I0629 10:35:57.158926 26435 net.cpp:434] LFCN_3_5x7_LFCN_3_5x7_0_split <- LFCN_3_5x7
I0629 10:35:57.158931 26435 net.cpp:408] LFCN_3_5x7_LFCN_3_5x7_0_split -> LFCN_3_5x7_LFCN_3_5x7_0_split_0
I0629 10:35:57.158939 26435 net.cpp:408] LFCN_3_5x7_LFCN_3_5x7_0_split -> LFCN_3_5x7_LFCN_3_5x7_0_split_1
I0629 10:35:57.158975 26435 net.cpp:150] Setting up LFCN_3_5x7_LFCN_3_5x7_0_split
I0629 10:35:57.158982 26435 net.cpp:157] Top shape: 4 7 18 24 (12096)
I0629 10:35:57.158984 26435 net.cpp:157] Top shape: 4 7 18 24 (12096)
I0629 10:35:57.158987 26435 net.cpp:165] Memory required for data: 4477500388
I0629 10:35:57.158990 26435 layer_factory.hpp:77] Creating layer detection_loss_3_5x7
I0629 10:35:57.158996 26435 net.cpp:100] Creating Layer detection_loss_3_5x7
I0629 10:35:57.159000 26435 net.cpp:434] detection_loss_3_5x7 <- LFCN_3_5x7_LFCN_3_5x7_0_split_0
I0629 10:35:57.159004 26435 net.cpp:434] detection_loss_3_5x7 <- label_3_5x7_data_6_split_0
I0629 10:35:57.159011 26435 net.cpp:408] detection_loss_3_5x7 -> loss_3_5x7
I0629 10:35:57.159019 26435 layer_factory.hpp:77] Creating layer detection_loss_3_5x7
I0629 10:35:57.159411 26435 net.cpp:150] Setting up detection_loss_3_5x7
I0629 10:35:57.159417 26435 net.cpp:157] Top shape: 1 1 1 2 (2)
I0629 10:35:57.159420 26435 net.cpp:160]     with loss weight 1
I0629 10:35:57.159427 26435 net.cpp:165] Memory required for data: 4477500396
I0629 10:35:57.159430 26435 layer_factory.hpp:77] Creating layer detection_accuracy_3_5x7
I0629 10:35:57.159436 26435 net.cpp:100] Creating Layer detection_accuracy_3_5x7
I0629 10:35:57.159440 26435 net.cpp:434] detection_accuracy_3_5x7 <- LFCN_3_5x7_LFCN_3_5x7_0_split_1
I0629 10:35:57.159446 26435 net.cpp:434] detection_accuracy_3_5x7 <- label_3_5x7_data_6_split_1
I0629 10:35:57.159451 26435 net.cpp:408] detection_accuracy_3_5x7 -> accuracy_3_5x7
I0629 10:35:57.159459 26435 net.cpp:408] detection_accuracy_3_5x7 -> boxiou_3_5x7
I0629 10:35:57.159495 26435 net.cpp:150] Setting up detection_accuracy_3_5x7
I0629 10:35:57.159499 26435 net.cpp:157] Top shape: 1 1 1 2 (2)
I0629 10:35:57.159502 26435 net.cpp:157] Top shape: 1 1 1 1 (1)
I0629 10:35:57.159504 26435 net.cpp:165] Memory required for data: 4477500408
I0629 10:35:57.159507 26435 layer_factory.hpp:77] Creating layer pool6
I0629 10:35:57.159512 26435 net.cpp:100] Creating Layer pool6
I0629 10:35:57.159517 26435 net.cpp:434] pool6 <- conv6_1_relu6_1_0_split_2
I0629 10:35:57.159524 26435 net.cpp:408] pool6 -> pool6
I0629 10:35:57.159556 26435 net.cpp:150] Setting up pool6
I0629 10:35:57.159561 26435 net.cpp:157] Top shape: 4 512 9 12 (221184)
I0629 10:35:57.159564 26435 net.cpp:165] Memory required for data: 4478385144
I0629 10:35:57.159567 26435 layer_factory.hpp:77] Creating layer LFCN_4_3x5
I0629 10:35:57.159576 26435 net.cpp:100] Creating Layer LFCN_4_3x5
I0629 10:35:57.159579 26435 net.cpp:434] LFCN_4_3x5 <- pool6
I0629 10:35:57.159584 26435 net.cpp:408] LFCN_4_3x5 -> LFCN_4_3x5
I0629 10:35:57.161774 26435 net.cpp:150] Setting up LFCN_4_3x5
I0629 10:35:57.161785 26435 net.cpp:157] Top shape: 4 7 9 12 (3024)
I0629 10:35:57.161787 26435 net.cpp:165] Memory required for data: 4478397240
I0629 10:35:57.161795 26435 layer_factory.hpp:77] Creating layer LFCN_4_3x5_LFCN_4_3x5_0_split
I0629 10:35:57.161803 26435 net.cpp:100] Creating Layer LFCN_4_3x5_LFCN_4_3x5_0_split
I0629 10:35:57.161808 26435 net.cpp:434] LFCN_4_3x5_LFCN_4_3x5_0_split <- LFCN_4_3x5
I0629 10:35:57.161814 26435 net.cpp:408] LFCN_4_3x5_LFCN_4_3x5_0_split -> LFCN_4_3x5_LFCN_4_3x5_0_split_0
I0629 10:35:57.161821 26435 net.cpp:408] LFCN_4_3x5_LFCN_4_3x5_0_split -> LFCN_4_3x5_LFCN_4_3x5_0_split_1
I0629 10:35:57.161860 26435 net.cpp:150] Setting up LFCN_4_3x5_LFCN_4_3x5_0_split
I0629 10:35:57.161864 26435 net.cpp:157] Top shape: 4 7 9 12 (3024)
I0629 10:35:57.161867 26435 net.cpp:157] Top shape: 4 7 9 12 (3024)
I0629 10:35:57.161870 26435 net.cpp:165] Memory required for data: 4478421432
I0629 10:35:57.161872 26435 layer_factory.hpp:77] Creating layer detection_loss_4_3x5
I0629 10:35:57.161880 26435 net.cpp:100] Creating Layer detection_loss_4_3x5
I0629 10:35:57.161883 26435 net.cpp:434] detection_loss_4_3x5 <- LFCN_4_3x5_LFCN_4_3x5_0_split_0
I0629 10:35:57.161887 26435 net.cpp:434] detection_loss_4_3x5 <- label_4_3x5_data_7_split_0
I0629 10:35:57.161893 26435 net.cpp:408] detection_loss_4_3x5 -> loss_4_3x5
I0629 10:35:57.161900 26435 layer_factory.hpp:77] Creating layer detection_loss_4_3x5
I0629 10:35:57.162287 26435 net.cpp:150] Setting up detection_loss_4_3x5
I0629 10:35:57.162293 26435 net.cpp:157] Top shape: 1 1 1 2 (2)
I0629 10:35:57.162295 26435 net.cpp:160]     with loss weight 1
I0629 10:35:57.162302 26435 net.cpp:165] Memory required for data: 4478421440
I0629 10:35:57.162305 26435 layer_factory.hpp:77] Creating layer detection_accuracy_4_3x5
I0629 10:35:57.162313 26435 net.cpp:100] Creating Layer detection_accuracy_4_3x5
I0629 10:35:57.162317 26435 net.cpp:434] detection_accuracy_4_3x5 <- LFCN_4_3x5_LFCN_4_3x5_0_split_1
I0629 10:35:57.162322 26435 net.cpp:434] detection_accuracy_4_3x5 <- label_4_3x5_data_7_split_1
I0629 10:35:57.162326 26435 net.cpp:408] detection_accuracy_4_3x5 -> accuracy_4_3x5
I0629 10:35:57.162333 26435 net.cpp:408] detection_accuracy_4_3x5 -> boxiou_4_3x5
I0629 10:35:57.162369 26435 net.cpp:150] Setting up detection_accuracy_4_3x5
I0629 10:35:57.162374 26435 net.cpp:157] Top shape: 1 1 1 2 (2)
I0629 10:35:57.162375 26435 net.cpp:157] Top shape: 1 1 1 1 (1)
I0629 10:35:57.162377 26435 net.cpp:165] Memory required for data: 4478421452
I0629 10:35:57.162380 26435 net.cpp:228] detection_accuracy_4_3x5 does not need backward computation.
I0629 10:35:57.162384 26435 net.cpp:226] detection_loss_4_3x5 needs backward computation.
I0629 10:35:57.162389 26435 net.cpp:226] LFCN_4_3x5_LFCN_4_3x5_0_split needs backward computation.
I0629 10:35:57.162391 26435 net.cpp:226] LFCN_4_3x5 needs backward computation.
…
I0629 10:35:57.173157 26435 image_gt_data_layer.cpp:241] output label size 2 : 2,6,36,48
I0629 10:35:57.173207 26435 image_gt_data_layer.cpp:241] output label size 3 : 2,6,36,48
I0629 10:35:57.173266 26435 image_gt_data_layer.cpp:241] output label size 4 : 2,6,18,24
I0629 10:35:57.173315 26435 image_gt_data_layer.cpp:241] output label size 5 : 2,6,18,24
I0629 10:35:57.173360 26435 image_gt_data_layer.cpp:241] output label size 6 : 2,6,9,12
I0629 10:35:57.173363 26435 image_gt_data_layer.cpp:265]  --> has_mean_values_ = 1
I0629 10:35:57.191911 26435 net.cpp:150] Setting up data
I0629 10:35:57.191931 26435 net.cpp:157] Top shape: 2 4 576 768 (3538944)
I0629 10:35:57.191934 26435 net.cpp:157] Top shape: 2 6 72 96 (82944)
I0629 10:35:57.191938 26435 net.cpp:157] Top shape: 2 6 72 96 (82944)
I0629 10:35:57.191942 26435 net.cpp:157] Top shape: 2 6 36 48 (20736)
I0629 10:35:57.191946 26435 net.cpp:157] Top shape: 2 6 36 48 (20736)
I0629 10:35:57.191949 26435 net.cpp:157] Top shape: 2 6 18 24 (5184)
I0629 10:35:57.191952 26435 net.cpp:157] Top shape: 2 6 18 24 (5184)
I0629 10:35:57.191956 26435 net.cpp:157] Top shape: 2 6 9 12 (1296)
I0629 10:35:57.191958 26435 net.cpp:165] Memory required for data: 15031872
I0629 10:35:57.191964 26435 layer_factory.hpp:77] Creating layer label_1_3x5_data_1_split
I0629 10:35:57.191977 26435 net.cpp:100] Creating Layer label_1_3x5_data_1_split
I0629 10:35:57.191982 26435 net.cpp:434] label_1_3x5_data_1_split <- label_1_3x5
I0629 10:35:57.191988 26435 net.cpp:408] label_1_3x5_data_1_split -> label_1_3x5_data_1_split_0
I0629 10:35:57.191999 26435 net.cpp:408] label_1_3x5_data_1_split -> label_1_3x5_data_1_split_1
I0629 10:35:57.192097 26435 net.cpp:150] Setting up label_1_3x5_data_1_split
I0629 10:35:57.192109 26435 net.cpp:157] Top shape: 2 6 72 96 (82944)
I0629 10:35:57.192114 26435 net.cpp:157] Top shape: 2 6 72 96 (82944)
I0629 10:35:57.192116 26435 net.cpp:165] Memory required for data: 15695424
I0629 10:35:57.192119 26435 layer_factory.hpp:77] Creating layer label_1_5x7_data_2_split
I0629 10:35:57.192126 26435 net.cpp:100] Creating Layer label_1_5x7_data_2_split
I0629 10:35:57.192128 26435 net.cpp:434] label_1_5x7_data_2_split <- label_1_5x7
I0629 10:35:57.192137 26435 net.cpp:408] label_1_5x7_data_2_split -> label_1_5x7_data_2_split_0
I0629 10:35:57.192143 26435 net.cpp:408] label_1_5x7_data_2_split -> label_1_5x7_data_2_split_1
I0629 10:35:57.192184 26435 net.cpp:150] Setting up label_1_5x7_data_2_split
I0629 10:35:57.192190 26435 net.cpp:157] Top shape: 2 6 72 96 (82944)
I0629 10:35:57.192194 26435 net.cpp:157] Top shape: 2 6 72 96 (82944)
I0629 10:35:57.192196 26435 net.cpp:165] Memory required for data: 16358976
I0629 10:35:57.192198 26435 layer_factory.hpp:77] Creating layer label_2_3x5_data_3_split
I0629 10:35:57.192204 26435 net.cpp:100] Creating Layer label_2_3x5_data_3_split
I0629 10:35:57.192206 26435 net.cpp:434] label_2_3x5_data_3_split <- label_2_3x5
I0629 10:35:57.192212 26435 net.cpp:408] label_2_3x5_data_3_split -> label_2_3x5_data_3_split_0
I0629 10:35:57.192219 26435 net.cpp:408] label_2_3x5_data_3_split -> label_2_3x5_data_3_split_1
I0629 10:35:57.192256 26435 net.cpp:150] Setting up label_2_3x5_data_3_split
I0629 10:35:57.192261 26435 net.cpp:157] Top shape: 2 6 36 48 (20736)
I0629 10:35:57.192265 26435 net.cpp:157] Top shape: 2 6 36 48 (20736)
I0629 10:35:57.192267 26435 net.cpp:165] Memory required for data: 16524864
I0629 10:35:57.192270 26435 layer_factory.hpp:77] Creating layer label_2_5x7_data_4_split
I0629 10:35:57.192275 26435 net.cpp:100] Creating Layer label_2_5x7_data_4_split
I0629 10:35:57.192277 26435 net.cpp:434] label_2_5x7_data_4_split <- label_2_5x7
I0629 10:35:57.192283 26435 net.cpp:408] label_2_5x7_data_4_split -> label_2_5x7_data_4_split_0
I0629 10:35:57.192288 26435 net.cpp:408] label_2_5x7_data_4_split -> label_2_5x7_data_4_split_1
I0629 10:35:57.192325 26435 net.cpp:150] Setting up label_2_5x7_data_4_split
I0629 10:35:57.192332 26435 net.cpp:157] Top shape: 2 6 36 48 (20736)
I0629 10:35:57.192334 26435 net.cpp:157] Top shape: 2 6 36 48 (20736)
I0629 10:35:57.192337 26435 net.cpp:165] Memory required for data: 16690752
I0629 10:35:57.192338 26435 layer_factory.hpp:77] Creating layer label_3_3x5_data_5_split
I0629 10:35:57.192342 26435 net.cpp:100] Creating Layer label_3_3x5_data_5_split
I0629 10:35:57.192345 26435 net.cpp:434] label_3_3x5_data_5_split <- label_3_3x5
I0629 10:35:57.192349 26435 net.cpp:408] label_3_3x5_data_5_split -> label_3_3x5_data_5_split_0
I0629 10:35:57.192358 26435 net.cpp:408] label_3_3x5_data_5_split -> label_3_3x5_data_5_split_1
I0629 10:35:57.192392 26435 net.cpp:150] Setting up label_3_3x5_data_5_split
I0629 10:35:57.192399 26435 net.cpp:157] Top shape: 2 6 18 24 (5184)
I0629 10:35:57.192401 26435 net.cpp:157] Top shape: 2 6 18 24 (5184)
I0629 10:35:57.192404 26435 net.cpp:165] Memory required for data: 16732224
I0629 10:35:57.192406 26435 layer_factory.hpp:77] Creating layer label_3_5x7_data_6_split
I0629 10:35:57.192412 26435 net.cpp:100] Creating Layer label_3_5x7_data_6_split
I0629 10:35:57.192414 26435 net.cpp:434] label_3_5x7_data_6_split <- label_3_5x7
I0629 10:35:57.192420 26435 net.cpp:408] label_3_5x7_data_6_split -> label_3_5x7_data_6_split_0
I0629 10:35:57.192425 26435 net.cpp:408] label_3_5x7_data_6_split -> label_3_5x7_data_6_split_1
I0629 10:35:57.192492 26435 net.cpp:150] Setting up label_3_5x7_data_6_split
I0629 10:35:57.192498 26435 net.cpp:157] Top shape: 2 6 18 24 (5184)
I0629 10:35:57.192502 26435 net.cpp:157] Top shape: 2 6 18 24 (5184)
I0629 10:35:57.192504 26435 net.cpp:165] Memory required for data: 16773696
I0629 10:35:57.192507 26435 layer_factory.hpp:77] Creating layer label_4_3x5_data_7_split
I0629 10:35:57.192512 26435 net.cpp:100] Creating Layer label_4_3x5_data_7_split
I0629 10:35:57.192514 26435 net.cpp:434] label_4_3x5_data_7_split <- label_4_3x5
I0629 10:35:57.192519 26435 net.cpp:408] label_4_3x5_data_7_split -> label_4_3x5_data_7_split_0
I0629 10:35:57.192524 26435 net.cpp:408] label_4_3x5_data_7_split -> label_4_3x5_data_7_split_1
I0629 10:35:57.193682 26435 net.cpp:150] Setting up label_4_3x5_data_7_split
I0629 10:35:57.193701 26435 net.cpp:157] Top shape: 2 6 9 12 (1296)
I0629 10:35:57.193706 26435 net.cpp:157] Top shape: 2 6 9 12 (1296)
I0629 10:35:57.193708 26435 net.cpp:165] Memory required for data: 16784064
I0629 10:35:57.193714 26435 layer_factory.hpp:77] Creating layer conv1_1
I0629 10:35:57.193742 26435 net.cpp:100] Creating Layer conv1_1
I0629 10:35:57.193749 26435 net.cpp:434] conv1_1 <- data
I0629 10:35:57.193761 26435 net.cpp:408] conv1_1 -> conv1_1
I0629 10:35:57.198997 26435 net.cpp:150] Setting up conv1_1
I0629 10:35:57.199018 26435 net.cpp:157] Top shape: 2 64 576 768 (56623104)
I0629 10:35:57.199021 26435 net.cpp:165] Memory required for data: 243276480
I0629 10:35:57.199036 26435 layer_factory.hpp:77] Creating layer relu1_1
I0629 10:35:57.199048 26435 net.cpp:100] Creating Layer relu1_1
I0629 10:35:57.199053 26435 net.cpp:434] relu1_1 <- conv1_1
I0629 10:35:57.199059 26435 net.cpp:395] relu1_1 -> conv1_1 (in-place)
I0629 10:35:57.200067 26435 net.cpp:150] Setting up relu1_1
I0629 10:35:57.200079 26435 net.cpp:157] Top shape: 2 64 576 768 (56623104)
I0629 10:35:57.200083 26435 net.cpp:165] Memory required for data: 469768896
I0629 10:35:57.200085 26435 layer_factory.hpp:77] Creating layer conv1_2
I0629 10:35:57.200096 26435 net.cpp:100] Creating Layer conv1_2
I0629 10:35:57.200099 26435 net.cpp:434] conv1_2 <- conv1_1
I0629 10:35:57.200106 26435 net.cpp:408] conv1_2 -> conv1_2
I0629 10:35:57.203605 26435 net.cpp:150] Setting up conv1_2
I0629 10:35:57.203629 26435 net.cpp:157] Top shape: 2 64 576 768 (56623104)
I0629 10:35:57.203634 26435 net.cpp:165] Memory required for data: 696261312
I0629 10:35:57.203647 26435 layer_factory.hpp:77] Creating layer relu1_2
I0629 10:35:57.203656 26435 net.cpp:100] Creating Layer relu1_2
I0629 10:35:57.203661 26435 net.cpp:434] relu1_2 <- conv1_2
I0629 10:35:57.203668 26435 net.cpp:395] relu1_2 -> conv1_2 (in-place)
I0629 10:35:57.204790 26435 net.cpp:150] Setting up relu1_2
I0629 10:35:57.204803 26435 net.cpp:157] Top shape: 2 64 576 768 (56623104)
I0629 10:35:57.204807 26435 net.cpp:165] Memory required for data: 922753728
I0629 10:35:57.204810 26435 layer_factory.hpp:77] Creating layer pool1
I0629 10:35:57.204818 26435 net.cpp:100] Creating Layer pool1
I0629 10:35:57.204820 26435 net.cpp:434] pool1 <- conv1_2
I0629 10:35:57.204828 26435 net.cpp:408] pool1 -> pool1
I0629 10:35:57.204890 26435 net.cpp:150] Setting up pool1
I0629 10:35:57.204896 26435 net.cpp:157] Top shape: 2 64 288 384 (14155776)
I0629 10:35:57.204898 26435 net.cpp:165] Memory required for data: 979376832
I0629 10:35:57.204901 26435 layer_factory.hpp:77] Creating layer conv2_1
I0629 10:35:57.204910 26435 net.cpp:100] Creating Layer conv2_1
I0629 10:35:57.204913 26435 net.cpp:434] conv2_1 <- pool1
I0629 10:35:57.204919 26435 net.cpp:408] conv2_1 -> conv2_1
I0629 10:35:57.207659 26435 net.cpp:150] Setting up conv2_1
I0629 10:35:57.207676 26435 net.cpp:157] Top shape: 2 128 288 384 (28311552)
I0629 10:35:57.207679 26435 net.cpp:165] Memory required for data: 1092623040
I0629 10:35:57.207691 26435 layer_factory.hpp:77] Creating layer relu2_1
I0629 10:35:57.207700 26435 net.cpp:100] Creating Layer relu2_1
I0629 10:35:57.207705 26435 net.cpp:434] relu2_1 <- conv2_1
I0629 10:35:57.207710 26435 net.cpp:395] relu2_1 -> conv2_1 (in-place)
I0629 10:35:57.208073 26435 net.cpp:150] Setting up relu2_1
I0629 10:35:57.208081 26435 net.cpp:157] Top shape: 2 128 288 384 (28311552)
I0629 10:35:57.208084 26435 net.cpp:165] Memory required for data: 1205869248
I0629 10:35:57.208087 26435 layer_factory.hpp:77] Creating layer conv2_2
I0629 10:35:57.208096 26435 net.cpp:100] Creating Layer conv2_2
I0629 10:35:57.208099 26435 net.cpp:434] conv2_2 <- conv2_1
I0629 10:35:57.208106 26435 net.cpp:408] conv2_2 -> conv2_2
I0629 10:35:57.214313 26435 net.cpp:150] Setting up conv2_2
I0629 10:35:57.214341 26435 net.cpp:157] Top shape: 2 128 288 384 (28311552)
I0629 10:35:57.214345 26435 net.cpp:165] Memory required for data: 1319115456
I0629 10:35:57.214356 26435 layer_factory.hpp:77] Creating layer relu2_2
I0629 10:35:57.214371 26435 net.cpp:100] Creating Layer relu2_2
I0629 10:35:57.214376 26435 net.cpp:434] relu2_2 <- conv2_2
I0629 10:35:57.214385 26435 net.cpp:395] relu2_2 -> conv2_2 (in-place)
I0629 10:35:57.214843 26435 net.cpp:150] Setting up relu2_2
I0629 10:35:57.214855 26435 net.cpp:157] Top shape: 2 128 288 384 (28311552)
I0629 10:35:57.214857 26435 net.cpp:165] Memory required for data: 1432361664
I0629 10:35:57.214860 26435 layer_factory.hpp:77] Creating layer pool2
I0629 10:35:57.214869 26435 net.cpp:100] Creating Layer pool2
I0629 10:35:57.214872 26435 net.cpp:434] pool2 <- conv2_2
I0629 10:35:57.214880 26435 net.cpp:408] pool2 -> pool2
I0629 10:35:57.214956 26435 net.cpp:150] Setting up pool2
I0629 10:35:57.214963 26435 net.cpp:157] Top shape: 2 128 144 192 (7077888)
I0629 10:35:57.214967 26435 net.cpp:165] Memory required for data: 1460673216
I0629 10:35:57.214969 26435 layer_factory.hpp:77] Creating layer conv3_1
I0629 10:35:57.214979 26435 net.cpp:100] Creating Layer conv3_1
I0629 10:35:57.214983 26435 net.cpp:434] conv3_1 <- pool2
I0629 10:35:57.214988 26435 net.cpp:408] conv3_1 -> conv3_1
I0629 10:35:57.217871 26435 net.cpp:150] Setting up conv3_1
I0629 10:35:57.217890 26435 net.cpp:157] Top shape: 2 256 144 192 (14155776)
I0629 10:35:57.217892 26435 net.cpp:165] Memory required for data: 1517296320
I0629 10:35:57.217907 26435 layer_factory.hpp:77] Creating layer relu3_1
I0629 10:35:57.217916 26435 net.cpp:100] Creating Layer relu3_1
I0629 10:35:57.217921 26435 net.cpp:434] relu3_1 <- conv3_1
I0629 10:35:57.217927 26435 net.cpp:395] relu3_1 -> conv3_1 (in-place)
I0629 10:35:57.218647 26435 net.cpp:150] Setting up relu3_1
I0629 10:35:57.218658 26435 net.cpp:157] Top shape: 2 256 144 192 (14155776)
I0629 10:35:57.218660 26435 net.cpp:165] Memory required for data: 1573919424
I0629 10:35:57.218663 26435 layer_factory.hpp:77] Creating layer conv3_2
I0629 10:35:57.218674 26435 net.cpp:100] Creating Layer conv3_2
I0629 10:35:57.218678 26435 net.cpp:434] conv3_2 <- conv3_1
I0629 10:35:57.218684 26435 net.cpp:408] conv3_2 -> conv3_2
I0629 10:35:57.221976 26435 net.cpp:150] Setting up conv3_2
I0629 10:35:57.221995 26435 net.cpp:157] Top shape: 2 256 144 192 (14155776)
I0629 10:35:57.221998 26435 net.cpp:165] Memory required for data: 1630542528
I0629 10:35:57.222008 26435 layer_factory.hpp:77] Creating layer relu3_2
I0629 10:35:57.222017 26435 net.cpp:100] Creating Layer relu3_2
I0629 10:35:57.222020 26435 net.cpp:434] relu3_2 <- conv3_2
I0629 10:35:57.222026 26435 net.cpp:395] relu3_2 -> conv3_2 (in-place)
I0629 10:35:57.222337 26435 net.cpp:150] Setting up relu3_2
I0629 10:35:57.222342 26435 net.cpp:157] Top shape: 2 256 144 192 (14155776)
I0629 10:35:57.222344 26435 net.cpp:165] Memory required for data: 1687165632
I0629 10:35:57.222348 26435 layer_factory.hpp:77] Creating layer conv3_3
I0629 10:35:57.222357 26435 net.cpp:100] Creating Layer conv3_3
I0629 10:35:57.222360 26435 net.cpp:434] conv3_3 <- conv3_2
I0629 10:35:57.222365 26435 net.cpp:408] conv3_3 -> conv3_3
I0629 10:35:57.226078 26435 net.cpp:150] Setting up conv3_3
I0629 10:35:57.226099 26435 net.cpp:157] Top shape: 2 256 144 192 (14155776)
I0629 10:35:57.226100 26435 net.cpp:165] Memory required for data: 1743788736
I0629 10:35:57.226109 26435 layer_factory.hpp:77] Creating layer relu3_3
I0629 10:35:57.226120 26435 net.cpp:100] Creating Layer relu3_3
I0629 10:35:57.226125 26435 net.cpp:434] relu3_3 <- conv3_3
I0629 10:35:57.226130 26435 net.cpp:395] relu3_3 -> conv3_3 (in-place)
I0629 10:35:57.226442 26435 net.cpp:150] Setting up relu3_3
I0629 10:35:57.226449 26435 net.cpp:157] Top shape: 2 256 144 192 (14155776)
I0629 10:35:57.226451 26435 net.cpp:165] Memory required for data: 1800411840
I0629 10:35:57.226454 26435 layer_factory.hpp:77] Creating layer pool3
I0629 10:35:57.226461 26435 net.cpp:100] Creating Layer pool3
I0629 10:35:57.226465 26435 net.cpp:434] pool3 <- conv3_3
I0629 10:35:57.226472 26435 net.cpp:408] pool3 -> pool3
I0629 10:35:57.226531 26435 net.cpp:150] Setting up pool3
I0629 10:35:57.226536 26435 net.cpp:157] Top shape: 2 256 72 96 (3538944)
I0629 10:35:57.226539 26435 net.cpp:165] Memory required for data: 1814567616
I0629 10:35:57.226542 26435 layer_factory.hpp:77] Creating layer conv4_1
I0629 10:35:57.226552 26435 net.cpp:100] Creating Layer conv4_1
I0629 10:35:57.226555 26435 net.cpp:434] conv4_1 <- pool3
I0629 10:35:57.226562 26435 net.cpp:408] conv4_1 -> conv4_1
I0629 10:35:57.230883 26435 net.cpp:150] Setting up conv4_1
I0629 10:35:57.230903 26435 net.cpp:157] Top shape: 2 512 72 96 (7077888)
I0629 10:35:57.230906 26435 net.cpp:165] Memory required for data: 1842879168
I0629 10:35:57.230914 26435 layer_factory.hpp:77] Creating layer relu4_1
I0629 10:35:57.230924 26435 net.cpp:100] Creating Layer relu4_1
I0629 10:35:57.230929 26435 net.cpp:434] relu4_1 <- conv4_1
I0629 10:35:57.230934 26435 net.cpp:395] relu4_1 -> conv4_1 (in-place)
I0629 10:35:57.231781 26435 net.cpp:150] Setting up relu4_1
I0629 10:35:57.231827 26435 net.cpp:157] Top shape: 2 512 72 96 (7077888)
I0629 10:35:57.231894 26435 net.cpp:165] Memory required for data: 1871190720
I0629 10:35:57.231915 26435 layer_factory.hpp:77] Creating layer conv4_2
I0629 10:35:57.231940 26435 net.cpp:100] Creating Layer conv4_2
I0629 10:35:57.231956 26435 net.cpp:434] conv4_2 <- conv4_1
I0629 10:35:57.231977 26435 net.cpp:408] conv4_2 -> conv4_2
I0629 10:35:57.241943 26435 net.cpp:150] Setting up conv4_2
I0629 10:35:57.241961 26435 net.cpp:157] Top shape: 2 512 72 96 (7077888)
I0629 10:35:57.241964 26435 net.cpp:165] Memory required for data: 1899502272
I0629 10:35:57.241982 26435 layer_factory.hpp:77] Creating layer relu4_2
I0629 10:35:57.241993 26435 net.cpp:100] Creating Layer relu4_2
I0629 10:35:57.241999 26435 net.cpp:434] relu4_2 <- conv4_2
I0629 10:35:57.242008 26435 net.cpp:395] relu4_2 -> conv4_2 (in-place)
I0629 10:35:57.242269 26435 net.cpp:150] Setting up relu4_2
I0629 10:35:57.242276 26435 net.cpp:157] Top shape: 2 512 72 96 (7077888)
I0629 10:35:57.242280 26435 net.cpp:165] Memory required for data: 1927813824
I0629 10:35:57.242282 26435 layer_factory.hpp:77] Creating layer conv4_3
I0629 10:35:57.242291 26435 net.cpp:100] Creating Layer conv4_3
I0629 10:35:57.242295 26435 net.cpp:434] conv4_3 <- conv4_2
I0629 10:35:57.242300 26435 net.cpp:408] conv4_3 -> conv4_3
I0629 10:35:57.248433 26435 net.cpp:150] Setting up conv4_3
I0629 10:35:57.248455 26435 net.cpp:157] Top shape: 2 512 72 96 (7077888)
I0629 10:35:57.248457 26435 net.cpp:165] Memory required for data: 1956125376
I0629 10:35:57.248467 26435 layer_factory.hpp:77] Creating layer relu4_3
I0629 10:35:57.248478 26435 net.cpp:100] Creating Layer relu4_3
I0629 10:35:57.248483 26435 net.cpp:434] relu4_3 <- conv4_3
I0629 10:35:57.248492 26435 net.cpp:395] relu4_3 -> conv4_3 (in-place)
I0629 10:35:57.248750 26435 net.cpp:150] Setting up relu4_3
I0629 10:35:57.248757 26435 net.cpp:157] Top shape: 2 512 72 96 (7077888)
I0629 10:35:57.248759 26435 net.cpp:165] Memory required for data: 1984436928
I0629 10:35:57.248762 26435 layer_factory.hpp:77] Creating layer conv4_3_relu4_3_0_split
I0629 10:35:57.248769 26435 net.cpp:100] Creating Layer conv4_3_relu4_3_0_split
I0629 10:35:57.248772 26435 net.cpp:434] conv4_3_relu4_3_0_split <- conv4_3
I0629 10:35:57.248778 26435 net.cpp:408] conv4_3_relu4_3_0_split -> conv4_3_relu4_3_0_split_0
I0629 10:35:57.248786 26435 net.cpp:408] conv4_3_relu4_3_0_split -> conv4_3_relu4_3_0_split_1
I0629 10:35:57.248834 26435 net.cpp:150] Setting up conv4_3_relu4_3_0_split
I0629 10:35:57.248839 26435 net.cpp:157] Top shape: 2 512 72 96 (7077888)
I0629 10:35:57.248843 26435 net.cpp:157] Top shape: 2 512 72 96 (7077888)
I0629 10:35:57.248847 26435 net.cpp:165] Memory required for data: 2041060032
I0629 10:35:57.248849 26435 layer_factory.hpp:77] Creating layer loss1_conv1
I0629 10:35:57.248865 26435 net.cpp:100] Creating Layer loss1_conv1
I0629 10:35:57.248869 26435 net.cpp:434] loss1_conv1 <- conv4_3_relu4_3_0_split_0
I0629 10:35:57.248877 26435 net.cpp:408] loss1_conv1 -> loss1_conv1
I0629 10:35:57.269508 26435 net.cpp:150] Setting up loss1_conv1
I0629 10:35:57.269526 26435 net.cpp:157] Top shape: 2 512 72 96 (7077888)
I0629 10:35:57.269529 26435 net.cpp:165] Memory required for data: 2069371584
I0629 10:35:57.269539 26435 layer_factory.hpp:77] Creating layer loss_relu1
I0629 10:35:57.269548 26435 net.cpp:100] Creating Layer loss_relu1
I0629 10:35:57.269553 26435 net.cpp:434] loss_relu1 <- loss1_conv1
I0629 10:35:57.269560 26435 net.cpp:395] loss_relu1 -> loss1_conv1 (in-place)
I0629 10:35:57.270303 26435 net.cpp:150] Setting up loss_relu1
I0629 10:35:57.270313 26435 net.cpp:157] Top shape: 2 512 72 96 (7077888)
I0629 10:35:57.270316 26435 net.cpp:165] Memory required for data: 2097683136
I0629 10:35:57.270320 26435 layer_factory.hpp:77] Creating layer loss1_conv1_loss_relu1_0_split
I0629 10:35:57.270326 26435 net.cpp:100] Creating Layer loss1_conv1_loss_relu1_0_split
I0629 10:35:57.270332 26435 net.cpp:434] loss1_conv1_loss_relu1_0_split <- loss1_conv1
I0629 10:35:57.270337 26435 net.cpp:408] loss1_conv1_loss_relu1_0_split -> loss1_conv1_loss_relu1_0_split_0
I0629 10:35:57.270345 26435 net.cpp:408] loss1_conv1_loss_relu1_0_split -> loss1_conv1_loss_relu1_0_split_1
I0629 10:35:57.270400 26435 net.cpp:150] Setting up loss1_conv1_loss_relu1_0_split
I0629 10:35:57.270406 26435 net.cpp:157] Top shape: 2 512 72 96 (7077888)
I0629 10:35:57.270408 26435 net.cpp:157] Top shape: 2 512 72 96 (7077888)
I0629 10:35:57.270411 26435 net.cpp:165] Memory required for data: 2154306240
I0629 10:35:57.270414 26435 layer_factory.hpp:77] Creating layer LFCN_1_3x5
I0629 10:35:57.270426 26435 net.cpp:100] Creating Layer LFCN_1_3x5
I0629 10:35:57.270428 26435 net.cpp:434] LFCN_1_3x5 <- loss1_conv1_loss_relu1_0_split_0
I0629 10:35:57.270437 26435 net.cpp:408] LFCN_1_3x5 -> LFCN_1_3x5
I0629 10:35:57.272332 26435 net.cpp:150] Setting up LFCN_1_3x5
I0629 10:35:57.272346 26435 net.cpp:157] Top shape: 2 7 72 96 (96768)
I0629 10:35:57.272349 26435 net.cpp:165] Memory required for data: 2154693312
I0629 10:35:57.272357 26435 layer_factory.hpp:77] Creating layer LFCN_1_3x5_LFCN_1_3x5_0_split
I0629 10:35:57.272367 26435 net.cpp:100] Creating Layer LFCN_1_3x5_LFCN_1_3x5_0_split
I0629 10:35:57.272372 26435 net.cpp:434] LFCN_1_3x5_LFCN_1_3x5_0_split <- LFCN_1_3x5
I0629 10:35:57.272377 26435 net.cpp:408] LFCN_1_3x5_LFCN_1_3x5_0_split -> LFCN_1_3x5_LFCN_1_3x5_0_split_0
I0629 10:35:57.272387 26435 net.cpp:408] LFCN_1_3x5_LFCN_1_3x5_0_split -> LFCN_1_3x5_LFCN_1_3x5_0_split_1
I0629 10:35:57.272431 26435 net.cpp:150] Setting up LFCN_1_3x5_LFCN_1_3x5_0_split
I0629 10:35:57.272438 26435 net.cpp:157] Top shape: 2 7 72 96 (96768)
I0629 10:35:57.272441 26435 net.cpp:157] Top shape: 2 7 72 96 (96768)
I0629 10:35:57.272444 26435 net.cpp:165] Memory required for data: 2155467456
I0629 10:35:57.272446 26435 layer_factory.hpp:77] Creating layer detection_loss_1_3x5
I0629 10:35:57.272455 26435 net.cpp:100] Creating Layer detection_loss_1_3x5
I0629 10:35:57.272459 26435 net.cpp:434] detection_loss_1_3x5 <- LFCN_1_3x5_LFCN_1_3x5_0_split_0
I0629 10:35:57.272464 26435 net.cpp:434] detection_loss_1_3x5 <- label_1_3x5_data_1_split_0
I0629 10:35:57.272470 26435 net.cpp:408] detection_loss_1_3x5 -> loss_1_3x5
I0629 10:35:57.272478 26435 layer_factory.hpp:77] Creating layer detection_loss_1_3x5
I0629 10:35:57.273409 26435 net.cpp:150] Setting up detection_loss_1_3x5
I0629 10:35:57.273421 26435 net.cpp:157] Top shape: 1 1 1 2 (2)
I0629 10:35:57.273423 26435 net.cpp:160]     with loss weight 0.9
I0629 10:35:57.273433 26435 net.cpp:165] Memory required for data: 2155467464
I0629 10:35:57.273437 26435 layer_factory.hpp:77] Creating layer detection_accuracy_1_3x5
I0629 10:35:57.273447 26435 net.cpp:100] Creating Layer detection_accuracy_1_3x5
I0629 10:35:57.273452 26435 net.cpp:434] detection_accuracy_1_3x5 <- LFCN_1_3x5_LFCN_1_3x5_0_split_1
I0629 10:35:57.273458 26435 net.cpp:434] detection_accuracy_1_3x5 <- label_1_3x5_data_1_split_1
I0629 10:35:57.273463 26435 net.cpp:408] detection_accuracy_1_3x5 -> accuracy_1_3x5
I0629 10:35:57.273471 26435 net.cpp:408] detection_accuracy_1_3x5 -> boxiou_1_3x5
I0629 10:35:57.273517 26435 net.cpp:150] Setting up detection_accuracy_1_3x5
I0629 10:35:57.273522 26435 net.cpp:157] Top shape: 1 1 1 2 (2)
I0629 10:35:57.273526 26435 net.cpp:157] Top shape: 1 1 1 1 (1)
I0629 10:35:57.273528 26435 net.cpp:165] Memory required for data: 2155467476
I0629 10:35:57.273531 26435 layer_factory.hpp:77] Creating layer LFCN_1_5x7
I0629 10:35:57.273541 26435 net.cpp:100] Creating Layer LFCN_1_5x7
I0629 10:35:57.273545 26435 net.cpp:434] LFCN_1_5x7 <- loss1_conv1_loss_relu1_0_split_1
I0629 10:35:57.273552 26435 net.cpp:408] LFCN_1_5x7 -> LFCN_1_5x7
I0629 10:35:57.276998 26435 net.cpp:150] Setting up LFCN_1_5x7
I0629 10:35:57.277022 26435 net.cpp:157] Top shape: 2 7 72 96 (96768)
I0629 10:35:57.277024 26435 net.cpp:165] Memory required for data: 2155854548
I0629 10:35:57.277034 26435 layer_factory.hpp:77] Creating layer LFCN_1_5x7_LFCN_1_5x7_0_split
I0629 10:35:57.277045 26435 net.cpp:100] Creating Layer LFCN_1_5x7_LFCN_1_5x7_0_split
I0629 10:35:57.277050 26435 net.cpp:434] LFCN_1_5x7_LFCN_1_5x7_0_split <- LFCN_1_5x7
I0629 10:35:57.277058 26435 net.cpp:408] LFCN_1_5x7_LFCN_1_5x7_0_split -> LFCN_1_5x7_LFCN_1_5x7_0_split_0
I0629 10:35:57.277067 26435 net.cpp:408] LFCN_1_5x7_LFCN_1_5x7_0_split -> LFCN_1_5x7_LFCN_1_5x7_0_split_1
I0629 10:35:57.277118 26435 net.cpp:150] Setting up LFCN_1_5x7_LFCN_1_5x7_0_split
I0629 10:35:57.277124 26435 net.cpp:157] Top shape: 2 7 72 96 (96768)
I0629 10:35:57.277128 26435 net.cpp:157] Top shape: 2 7 72 96 (96768)
I0629 10:35:57.277130 26435 net.cpp:165] Memory required for data: 2156628692
I0629 10:35:57.277133 26435 layer_factory.hpp:77] Creating layer detection_loss_1_5x7
I0629 10:35:57.277140 26435 net.cpp:100] Creating Layer detection_loss_1_5x7
I0629 10:35:57.277143 26435 net.cpp:434] detection_loss_1_5x7 <- LFCN_1_5x7_LFCN_1_5x7_0_split_0
I0629 10:35:57.277149 26435 net.cpp:434] detection_loss_1_5x7 <- label_1_5x7_data_2_split_0
I0629 10:35:57.277156 26435 net.cpp:408] detection_loss_1_5x7 -> loss_1_5x7
I0629 10:35:57.277164 26435 layer_factory.hpp:77] Creating layer detection_loss_1_5x7
I0629 10:35:57.277771 26435 net.cpp:150] Setting up detection_loss_1_5x7
I0629 10:35:57.277809 26435 net.cpp:157] Top shape: 1 1 1 2 (2)
I0629 10:35:57.277825 26435 net.cpp:160]     with loss weight 0.9
I0629 10:35:57.277848 26435 net.cpp:165] Memory required for data: 2156628700
I0629 10:35:57.277860 26435 layer_factory.hpp:77] Creating layer detection_accuracy_1_5x7
I0629 10:35:57.277871 26435 net.cpp:100] Creating Layer detection_accuracy_1_5x7
I0629 10:35:57.277875 26435 net.cpp:434] detection_accuracy_1_5x7 <- LFCN_1_5x7_LFCN_1_5x7_0_split_1
I0629 10:35:57.277882 26435 net.cpp:434] detection_accuracy_1_5x7 <- label_1_5x7_data_2_split_1
I0629 10:35:57.277889 26435 net.cpp:408] detection_accuracy_1_5x7 -> accuracy_1_5x7
I0629 10:35:57.277897 26435 net.cpp:408] detection_accuracy_1_5x7 -> boxiou_1_5x7
I0629 10:35:57.277966 26435 net.cpp:150] Setting up detection_accuracy_1_5x7
I0629 10:35:57.277973 26435 net.cpp:157] Top shape: 1 1 1 2 (2)
I0629 10:35:57.277977 26435 net.cpp:157] Top shape: 1 1 1 1 (1)
I0629 10:35:57.277979 26435 net.cpp:165] Memory required for data: 2156628712
I0629 10:35:57.277982 26435 layer_factory.hpp:77] Creating layer pool4
I0629 10:35:57.277990 26435 net.cpp:100] Creating Layer pool4
I0629 10:35:57.277994 26435 net.cpp:434] pool4 <- conv4_3_relu4_3_0_split_1
I0629 10:35:57.277999 26435 net.cpp:408] pool4 -> pool4
I0629 10:35:57.278050 26435 net.cpp:150] Setting up pool4
I0629 10:35:57.278056 26435 net.cpp:157] Top shape: 2 512 36 48 (1769472)
I0629 10:35:57.278059 26435 net.cpp:165] Memory required for data: 2163706600
I0629 10:35:57.278064 26435 layer_factory.hpp:77] Creating layer conv5_1
I0629 10:35:57.278074 26435 net.cpp:100] Creating Layer conv5_1
I0629 10:35:57.278076 26435 net.cpp:434] conv5_1 <- pool4
I0629 10:35:57.278084 26435 net.cpp:408] conv5_1 -> conv5_1
I0629 10:35:57.287550 26435 net.cpp:150] Setting up conv5_1
I0629 10:35:57.287569 26435 net.cpp:157] Top shape: 2 512 36 48 (1769472)
I0629 10:35:57.287571 26435 net.cpp:165] Memory required for data: 2170784488
I0629 10:35:57.287580 26435 layer_factory.hpp:77] Creating layer relu5_1
I0629 10:35:57.287591 26435 net.cpp:100] Creating Layer relu5_1
I0629 10:35:57.287595 26435 net.cpp:434] relu5_1 <- conv5_1
I0629 10:35:57.287601 26435 net.cpp:395] relu5_1 -> conv5_1 (in-place)
I0629 10:35:57.287909 26435 net.cpp:150] Setting up relu5_1
I0629 10:35:57.287916 26435 net.cpp:157] Top shape: 2 512 36 48 (1769472)
I0629 10:35:57.287919 26435 net.cpp:165] Memory required for data: 2177862376
I0629 10:35:57.287921 26435 layer_factory.hpp:77] Creating layer conv5_2
I0629 10:35:57.287932 26435 net.cpp:100] Creating Layer conv5_2
I0629 10:35:57.287936 26435 net.cpp:434] conv5_2 <- conv5_1
I0629 10:35:57.287943 26435 net.cpp:408] conv5_2 -> conv5_2
I0629 10:35:57.293718 26435 net.cpp:150] Setting up conv5_2
I0629 10:35:57.293737 26435 net.cpp:157] Top shape: 2 512 36 48 (1769472)
I0629 10:35:57.293740 26435 net.cpp:165] Memory required for data: 2184940264
I0629 10:35:57.293747 26435 layer_factory.hpp:77] Creating layer relu5_2
I0629 10:35:57.293758 26435 net.cpp:100] Creating Layer relu5_2
I0629 10:35:57.293763 26435 net.cpp:434] relu5_2 <- conv5_2
I0629 10:35:57.293768 26435 net.cpp:395] relu5_2 -> conv5_2 (in-place)
I0629 10:35:57.294561 26435 net.cpp:150] Setting up relu5_2
I0629 10:35:57.294572 26435 net.cpp:157] Top shape: 2 512 36 48 (1769472)
I0629 10:35:57.294574 26435 net.cpp:165] Memory required for data: 2192018152
I0629 10:35:57.294577 26435 layer_factory.hpp:77] Creating layer conv5_3
I0629 10:35:57.294587 26435 net.cpp:100] Creating Layer conv5_3
I0629 10:35:57.294591 26435 net.cpp:434] conv5_3 <- conv5_2
I0629 10:35:57.294597 26435 net.cpp:408] conv5_3 -> conv5_3
I0629 10:35:57.300611 26435 net.cpp:150] Setting up conv5_3
I0629 10:35:57.300743 26435 net.cpp:157] Top shape: 2 512 36 48 (1769472)
I0629 10:35:57.300792 26435 net.cpp:165] Memory required for data: 2199096040
I0629 10:35:57.300844 26435 layer_factory.hpp:77] Creating layer relu5_3
I0629 10:35:57.300890 26435 net.cpp:100] Creating Layer relu5_3
I0629 10:35:57.300931 26435 net.cpp:434] relu5_3 <- conv5_3
I0629 10:35:57.300977 26435 net.cpp:395] relu5_3 -> conv5_3 (in-place)
I0629 10:35:57.301446 26435 net.cpp:150] Setting up relu5_3
I0629 10:35:57.301499 26435 net.cpp:157] Top shape: 2 512 36 48 (1769472)
I0629 10:35:57.301544 26435 net.cpp:165] Memory required for data: 2206173928
I0629 10:35:57.301586 26435 layer_factory.hpp:77] Creating layer conv5_3_relu5_3_0_split
I0629 10:35:57.301637 26435 net.cpp:100] Creating Layer conv5_3_relu5_3_0_split
I0629 10:35:57.301681 26435 net.cpp:434] conv5_3_relu5_3_0_split <- conv5_3
I0629 10:35:57.301726 26435 net.cpp:408] conv5_3_relu5_3_0_split -> conv5_3_relu5_3_0_split_0
I0629 10:35:57.301776 26435 net.cpp:408] conv5_3_relu5_3_0_split -> conv5_3_relu5_3_0_split_1
I0629 10:35:57.301829 26435 net.cpp:408] conv5_3_relu5_3_0_split -> conv5_3_relu5_3_0_split_2
I0629 10:35:57.301964 26435 net.cpp:150] Setting up conv5_3_relu5_3_0_split
I0629 10:35:57.302008 26435 net.cpp:157] Top shape: 2 512 36 48 (1769472)
I0629 10:35:57.302050 26435 net.cpp:157] Top shape: 2 512 36 48 (1769472)
I0629 10:35:57.302091 26435 net.cpp:157] Top shape: 2 512 36 48 (1769472)
I0629 10:35:57.302131 26435 net.cpp:165] Memory required for data: 2227407592
I0629 10:35:57.302172 26435 layer_factory.hpp:77] Creating layer LFCN_2_3x5
I0629 10:35:57.302222 26435 net.cpp:100] Creating Layer LFCN_2_3x5
I0629 10:35:57.302263 26435 net.cpp:434] LFCN_2_3x5 <- conv5_3_relu5_3_0_split_0
I0629 10:35:57.302309 26435 net.cpp:408] LFCN_2_3x5 -> LFCN_2_3x5
I0629 10:35:57.306206 26435 net.cpp:150] Setting up LFCN_2_3x5
I0629 10:35:57.306223 26435 net.cpp:157] Top shape: 2 7 36 48 (24192)
I0629 10:35:57.306226 26435 net.cpp:165] Memory required for data: 2227504360
I0629 10:35:57.306241 26435 layer_factory.hpp:77] Creating layer LFCN_2_3x5_LFCN_2_3x5_0_split
I0629 10:35:57.306252 26435 net.cpp:100] Creating Layer LFCN_2_3x5_LFCN_2_3x5_0_split
I0629 10:35:57.306255 26435 net.cpp:434] LFCN_2_3x5_LFCN_2_3x5_0_split <- LFCN_2_3x5
I0629 10:35:57.306262 26435 net.cpp:408] LFCN_2_3x5_LFCN_2_3x5_0_split -> LFCN_2_3x5_LFCN_2_3x5_0_split_0
I0629 10:35:57.306270 26435 net.cpp:408] LFCN_2_3x5_LFCN_2_3x5_0_split -> LFCN_2_3x5_LFCN_2_3x5_0_split_1
I0629 10:35:57.306329 26435 net.cpp:150] Setting up LFCN_2_3x5_LFCN_2_3x5_0_split
I0629 10:35:57.306336 26435 net.cpp:157] Top shape: 2 7 36 48 (24192)
I0629 10:35:57.306340 26435 net.cpp:157] Top shape: 2 7 36 48 (24192)
I0629 10:35:57.306342 26435 net.cpp:165] Memory required for data: 2227697896
I0629 10:35:57.306345 26435 layer_factory.hpp:77] Creating layer detection_loss_2_3x5
I0629 10:35:57.306354 26435 net.cpp:100] Creating Layer detection_loss_2_3x5
I0629 10:35:57.306357 26435 net.cpp:434] detection_loss_2_3x5 <- LFCN_2_3x5_LFCN_2_3x5_0_split_0
I0629 10:35:57.306361 26435 net.cpp:434] detection_loss_2_3x5 <- label_2_3x5_data_3_split_0
I0629 10:35:57.306368 26435 net.cpp:408] detection_loss_2_3x5 -> loss_2_3x5
I0629 10:35:57.306377 26435 layer_factory.hpp:77] Creating layer detection_loss_2_3x5
I0629 10:35:57.306874 26435 net.cpp:150] Setting up detection_loss_2_3x5
I0629 10:35:57.306880 26435 net.cpp:157] Top shape: 1 1 1 2 (2)
I0629 10:35:57.306881 26435 net.cpp:160]     with loss weight 1
I0629 10:35:57.306890 26435 net.cpp:165] Memory required for data: 2227697904
I0629 10:35:57.306893 26435 layer_factory.hpp:77] Creating layer detection_accuracy_2_3x5
I0629 10:35:57.306901 26435 net.cpp:100] Creating Layer detection_accuracy_2_3x5
I0629 10:35:57.306905 26435 net.cpp:434] detection_accuracy_2_3x5 <- LFCN_2_3x5_LFCN_2_3x5_0_split_1
I0629 10:35:57.306910 26435 net.cpp:434] detection_accuracy_2_3x5 <- label_2_3x5_data_3_split_1
I0629 10:35:57.306916 26435 net.cpp:408] detection_accuracy_2_3x5 -> accuracy_2_3x5
I0629 10:35:57.306924 26435 net.cpp:408] detection_accuracy_2_3x5 -> boxiou_2_3x5
I0629 10:35:57.306988 26435 net.cpp:150] Setting up detection_accuracy_2_3x5
I0629 10:35:57.306993 26435 net.cpp:157] Top shape: 1 1 1 2 (2)
I0629 10:35:57.306998 26435 net.cpp:157] Top shape: 1 1 1 1 (1)
I0629 10:35:57.307000 26435 net.cpp:165] Memory required for data: 2227697916
I0629 10:35:57.307003 26435 layer_factory.hpp:77] Creating layer LFCN_2_5x7
I0629 10:35:57.307013 26435 net.cpp:100] Creating Layer LFCN_2_5x7
I0629 10:35:57.307016 26435 net.cpp:434] LFCN_2_5x7 <- conv5_3_relu5_3_0_split_1
I0629 10:35:57.307024 26435 net.cpp:408] LFCN_2_5x7 -> LFCN_2_5x7
I0629 10:35:57.309556 26435 net.cpp:150] Setting up LFCN_2_5x7
I0629 10:35:57.309571 26435 net.cpp:157] Top shape: 2 7 36 48 (24192)
I0629 10:35:57.309573 26435 net.cpp:165] Memory required for data: 2227794684
I0629 10:35:57.309581 26435 layer_factory.hpp:77] Creating layer LFCN_2_5x7_LFCN_2_5x7_0_split
I0629 10:35:57.309592 26435 net.cpp:100] Creating Layer LFCN_2_5x7_LFCN_2_5x7_0_split
I0629 10:35:57.309595 26435 net.cpp:434] LFCN_2_5x7_LFCN_2_5x7_0_split <- LFCN_2_5x7
I0629 10:35:57.309600 26435 net.cpp:408] LFCN_2_5x7_LFCN_2_5x7_0_split -> LFCN_2_5x7_LFCN_2_5x7_0_split_0
I0629 10:35:57.309608 26435 net.cpp:408] LFCN_2_5x7_LFCN_2_5x7_0_split -> LFCN_2_5x7_LFCN_2_5x7_0_split_1
I0629 10:35:57.309664 26435 net.cpp:150] Setting up LFCN_2_5x7_LFCN_2_5x7_0_split
I0629 10:35:57.309671 26435 net.cpp:157] Top shape: 2 7 36 48 (24192)
I0629 10:35:57.309675 26435 net.cpp:157] Top shape: 2 7 36 48 (24192)
I0629 10:35:57.309679 26435 net.cpp:165] Memory required for data: 2227988220
I0629 10:35:57.309681 26435 layer_factory.hpp:77] Creating layer detection_loss_2_5x7
I0629 10:35:57.309689 26435 net.cpp:100] Creating Layer detection_loss_2_5x7
I0629 10:35:57.309692 26435 net.cpp:434] detection_loss_2_5x7 <- LFCN_2_5x7_LFCN_2_5x7_0_split_0
I0629 10:35:57.309697 26435 net.cpp:434] detection_loss_2_5x7 <- label_2_5x7_data_4_split_0
I0629 10:35:57.309705 26435 net.cpp:408] detection_loss_2_5x7 -> loss_2_5x7
I0629 10:35:57.309713 26435 layer_factory.hpp:77] Creating layer detection_loss_2_5x7
I0629 10:35:57.310748 26435 net.cpp:150] Setting up detection_loss_2_5x7
I0629 10:35:57.310758 26435 net.cpp:157] Top shape: 1 1 1 2 (2)
I0629 10:35:57.310760 26435 net.cpp:160]     with loss weight 1
I0629 10:35:57.310770 26435 net.cpp:165] Memory required for data: 2227988228
I0629 10:35:57.310772 26435 layer_factory.hpp:77] Creating layer detection_accuracy_2_5x7
I0629 10:35:57.310780 26435 net.cpp:100] Creating Layer detection_accuracy_2_5x7
I0629 10:35:57.310783 26435 net.cpp:434] detection_accuracy_2_5x7 <- LFCN_2_5x7_LFCN_2_5x7_0_split_1
I0629 10:35:57.310789 26435 net.cpp:434] detection_accuracy_2_5x7 <- label_2_5x7_data_4_split_1
I0629 10:35:57.310796 26435 net.cpp:408] detection_accuracy_2_5x7 -> accuracy_2_5x7
I0629 10:35:57.310806 26435 net.cpp:408] detection_accuracy_2_5x7 -> boxiou_2_5x7
I0629 10:35:57.310858 26435 net.cpp:150] Setting up detection_accuracy_2_5x7
I0629 10:35:57.310865 26435 net.cpp:157] Top shape: 1 1 1 2 (2)
I0629 10:35:57.310869 26435 net.cpp:157] Top shape: 1 1 1 1 (1)
I0629 10:35:57.310871 26435 net.cpp:165] Memory required for data: 2227988240
I0629 10:35:57.310875 26435 layer_factory.hpp:77] Creating layer pool5
I0629 10:35:57.310881 26435 net.cpp:100] Creating Layer pool5
I0629 10:35:57.310885 26435 net.cpp:434] pool5 <- conv5_3_relu5_3_0_split_2
I0629 10:35:57.310890 26435 net.cpp:408] pool5 -> pool5
I0629 10:35:57.310938 26435 net.cpp:150] Setting up pool5
I0629 10:35:57.310945 26435 net.cpp:157] Top shape: 2 512 18 24 (442368)
I0629 10:35:57.310947 26435 net.cpp:165] Memory required for data: 2229757712
I0629 10:35:57.310950 26435 layer_factory.hpp:77] Creating layer conv6_1
I0629 10:35:57.310959 26435 net.cpp:100] Creating Layer conv6_1
I0629 10:35:57.310963 26435 net.cpp:434] conv6_1 <- pool5
I0629 10:35:57.310968 26435 net.cpp:408] conv6_1 -> conv6_1
I0629 10:35:57.332626 26435 net.cpp:150] Setting up conv6_1
I0629 10:35:57.332643 26435 net.cpp:157] Top shape: 2 512 18 24 (442368)
I0629 10:35:57.332645 26435 net.cpp:165] Memory required for data: 2231527184
I0629 10:35:57.332650 26435 layer_factory.hpp:77] Creating layer relu6_1
I0629 10:35:57.332656 26435 net.cpp:100] Creating Layer relu6_1
I0629 10:35:57.332659 26435 net.cpp:434] relu6_1 <- conv6_1
I0629 10:35:57.332665 26435 net.cpp:395] relu6_1 -> conv6_1 (in-place)
I0629 10:35:57.332928 26435 net.cpp:150] Setting up relu6_1
I0629 10:35:57.332936 26435 net.cpp:157] Top shape: 2 512 18 24 (442368)
I0629 10:35:57.332937 26435 net.cpp:165] Memory required for data: 2233296656
I0629 10:35:57.332938 26435 layer_factory.hpp:77] Creating layer conv6_1_relu6_1_0_split
I0629 10:35:57.332943 26435 net.cpp:100] Creating Layer conv6_1_relu6_1_0_split
I0629 10:35:57.332947 26435 net.cpp:434] conv6_1_relu6_1_0_split <- conv6_1
I0629 10:35:57.332949 26435 net.cpp:408] conv6_1_relu6_1_0_split -> conv6_1_relu6_1_0_split_0
I0629 10:35:57.332955 26435 net.cpp:408] conv6_1_relu6_1_0_split -> conv6_1_relu6_1_0_split_1
I0629 10:35:57.332959 26435 net.cpp:408] conv6_1_relu6_1_0_split -> conv6_1_relu6_1_0_split_2
I0629 10:35:57.333017 26435 net.cpp:150] Setting up conv6_1_relu6_1_0_split
I0629 10:35:57.333021 26435 net.cpp:157] Top shape: 2 512 18 24 (442368)
I0629 10:35:57.333024 26435 net.cpp:157] Top shape: 2 512 18 24 (442368)
I0629 10:35:57.333027 26435 net.cpp:157] Top shape: 2 512 18 24 (442368)
I0629 10:35:57.333029 26435 net.cpp:165] Memory required for data: 2238605072
I0629 10:35:57.333034 26435 layer_factory.hpp:77] Creating layer LFCN_3_3x5
I0629 10:35:57.333042 26435 net.cpp:100] Creating Layer LFCN_3_3x5
I0629 10:35:57.333045 26435 net.cpp:434] LFCN_3_3x5 <- conv6_1_relu6_1_0_split_0
I0629 10:35:57.333050 26435 net.cpp:408] LFCN_3_3x5 -> LFCN_3_3x5
I0629 10:35:57.335866 26435 net.cpp:150] Setting up LFCN_3_3x5
I0629 10:35:57.335880 26435 net.cpp:157] Top shape: 2 7 18 24 (6048)
I0629 10:35:57.335882 26435 net.cpp:165] Memory required for data: 2238629264
I0629 10:35:57.335888 26435 layer_factory.hpp:77] Creating layer LFCN_3_3x5_LFCN_3_3x5_0_split
I0629 10:35:57.335901 26435 net.cpp:100] Creating Layer LFCN_3_3x5_LFCN_3_3x5_0_split
I0629 10:35:57.335904 26435 net.cpp:434] LFCN_3_3x5_LFCN_3_3x5_0_split <- LFCN_3_3x5
I0629 10:35:57.335909 26435 net.cpp:408] LFCN_3_3x5_LFCN_3_3x5_0_split -> LFCN_3_3x5_LFCN_3_3x5_0_split_0
I0629 10:35:57.335916 26435 net.cpp:408] LFCN_3_3x5_LFCN_3_3x5_0_split -> LFCN_3_3x5_LFCN_3_3x5_0_split_1
I0629 10:35:57.335963 26435 net.cpp:150] Setting up LFCN_3_3x5_LFCN_3_3x5_0_split
I0629 10:35:57.335968 26435 net.cpp:157] Top shape: 2 7 18 24 (6048)
I0629 10:35:57.335969 26435 net.cpp:157] Top shape: 2 7 18 24 (6048)
I0629 10:35:57.335973 26435 net.cpp:165] Memory required for data: 2238677648
I0629 10:35:57.335975 26435 layer_factory.hpp:77] Creating layer detection_loss_3_3x5
I0629 10:35:57.335981 26435 net.cpp:100] Creating Layer detection_loss_3_3x5
I0629 10:35:57.335985 26435 net.cpp:434] detection_loss_3_3x5 <- LFCN_3_3x5_LFCN_3_3x5_0_split_0
I0629 10:35:57.335990 26435 net.cpp:434] detection_loss_3_3x5 <- label_3_3x5_data_5_split_0
I0629 10:35:57.335997 26435 net.cpp:408] detection_loss_3_3x5 -> loss_3_3x5
I0629 10:35:57.336006 26435 layer_factory.hpp:77] Creating layer detection_loss_3_3x5
I0629 10:35:57.336448 26435 net.cpp:150] Setting up detection_loss_3_3x5
I0629 10:35:57.336454 26435 net.cpp:157] Top shape: 1 1 1 2 (2)
I0629 10:35:57.336457 26435 net.cpp:160]     with loss weight 1
I0629 10:35:57.336462 26435 net.cpp:165] Memory required for data: 2238677656
I0629 10:35:57.336464 26435 layer_factory.hpp:77] Creating layer detection_accuracy_3_3x5
I0629 10:35:57.336468 26435 net.cpp:100] Creating Layer detection_accuracy_3_3x5
I0629 10:35:57.336472 26435 net.cpp:434] detection_accuracy_3_3x5 <- LFCN_3_3x5_LFCN_3_3x5_0_split_1
I0629 10:35:57.336474 26435 net.cpp:434] detection_accuracy_3_3x5 <- label_3_3x5_data_5_split_1
I0629 10:35:57.336479 26435 net.cpp:408] detection_accuracy_3_3x5 -> accuracy_3_3x5
I0629 10:35:57.336484 26435 net.cpp:408] detection_accuracy_3_3x5 -> boxiou_3_3x5
I0629 10:35:57.336529 26435 net.cpp:150] Setting up detection_accuracy_3_3x5
I0629 10:35:57.336532 26435 net.cpp:157] Top shape: 1 1 1 2 (2)
I0629 10:35:57.336534 26435 net.cpp:157] Top shape: 1 1 1 1 (1)
I0629 10:35:57.336536 26435 net.cpp:165] Memory required for data: 2238677668
I0629 10:35:57.336539 26435 layer_factory.hpp:77] Creating layer LFCN_3_5x7
I0629 10:35:57.336547 26435 net.cpp:100] Creating Layer LFCN_3_5x7
I0629 10:35:57.336551 26435 net.cpp:434] LFCN_3_5x7 <- conv6_1_relu6_1_0_split_1
I0629 10:35:57.336556 26435 net.cpp:408] LFCN_3_5x7 -> LFCN_3_5x7
I0629 10:35:57.339438 26435 net.cpp:150] Setting up LFCN_3_5x7
I0629 10:35:57.339452 26435 net.cpp:157] Top shape: 2 7 18 24 (6048)
I0629 10:35:57.339454 26435 net.cpp:165] Memory required for data: 2238701860
I0629 10:35:57.339460 26435 layer_factory.hpp:77] Creating layer LFCN_3_5x7_LFCN_3_5x7_0_split
I0629 10:35:57.339465 26435 net.cpp:100] Creating Layer LFCN_3_5x7_LFCN_3_5x7_0_split
I0629 10:35:57.339468 26435 net.cpp:434] LFCN_3_5x7_LFCN_3_5x7_0_split <- LFCN_3_5x7
I0629 10:35:57.339473 26435 net.cpp:408] LFCN_3_5x7_LFCN_3_5x7_0_split -> LFCN_3_5x7_LFCN_3_5x7_0_split_0
I0629 10:35:57.339479 26435 net.cpp:408] LFCN_3_5x7_LFCN_3_5x7_0_split -> LFCN_3_5x7_LFCN_3_5x7_0_split_1
I0629 10:35:57.339527 26435 net.cpp:150] Setting up LFCN_3_5x7_LFCN_3_5x7_0_split
I0629 10:35:57.339532 26435 net.cpp:157] Top shape: 2 7 18 24 (6048)
I0629 10:35:57.339535 26435 net.cpp:157] Top shape: 2 7 18 24 (6048)
I0629 10:35:57.339537 26435 net.cpp:165] Memory required for data: 2238750244
I0629 10:35:57.339540 26435 layer_factory.hpp:77] Creating layer detection_loss_3_5x7
I0629 10:35:57.339547 26435 net.cpp:100] Creating Layer detection_loss_3_5x7
I0629 10:35:57.339550 26435 net.cpp:434] detection_loss_3_5x7 <- LFCN_3_5x7_LFCN_3_5x7_0_split_0
I0629 10:35:57.339555 26435 net.cpp:434] detection_loss_3_5x7 <- label_3_5x7_data_6_split_0
I0629 10:35:57.339560 26435 net.cpp:408] detection_loss_3_5x7 -> loss_3_5x7
I0629 10:35:57.339570 26435 layer_factory.hpp:77] Creating layer detection_loss_3_5x7
I0629 10:35:57.340463 26435 net.cpp:150] Setting up detection_loss_3_5x7
I0629 10:35:57.340471 26435 net.cpp:157] Top shape: 1 1 1 2 (2)
I0629 10:35:57.340473 26435 net.cpp:160]     with loss weight 1
I0629 10:35:57.340479 26435 net.cpp:165] Memory required for data: 2238750252
I0629 10:35:57.340481 26435 layer_factory.hpp:77] Creating layer detection_accuracy_3_5x7
I0629 10:35:57.340487 26435 net.cpp:100] Creating Layer detection_accuracy_3_5x7
I0629 10:35:57.340490 26435 net.cpp:434] detection_accuracy_3_5x7 <- LFCN_3_5x7_LFCN_3_5x7_0_split_1
I0629 10:35:57.340494 26435 net.cpp:434] detection_accuracy_3_5x7 <- label_3_5x7_data_6_split_1
I0629 10:35:57.340499 26435 net.cpp:408] detection_accuracy_3_5x7 -> accuracy_3_5x7
I0629 10:35:57.340504 26435 net.cpp:408] detection_accuracy_3_5x7 -> boxiou_3_5x7
I0629 10:35:57.340548 26435 net.cpp:150] Setting up detection_accuracy_3_5x7
I0629 10:35:57.340551 26435 net.cpp:157] Top shape: 1 1 1 2 (2)
I0629 10:35:57.340553 26435 net.cpp:157] Top shape: 1 1 1 1 (1)
I0629 10:35:57.340555 26435 net.cpp:165] Memory required for data: 2238750264
I0629 10:35:57.340559 26435 layer_factory.hpp:77] Creating layer pool6
I0629 10:35:57.340566 26435 net.cpp:100] Creating Layer pool6
I0629 10:35:57.340569 26435 net.cpp:434] pool6 <- conv6_1_relu6_1_0_split_2
I0629 10:35:57.340574 26435 net.cpp:408] pool6 -> pool6
I0629 10:35:57.340613 26435 net.cpp:150] Setting up pool6
I0629 10:35:57.340617 26435 net.cpp:157] Top shape: 2 512 9 12 (110592)
I0629 10:35:57.340620 26435 net.cpp:165] Memory required for data: 2239192632
I0629 10:35:57.340621 26435 layer_factory.hpp:77] Creating layer LFCN_4_3x5
I0629 10:35:57.340631 26435 net.cpp:100] Creating Layer LFCN_4_3x5
I0629 10:35:57.340634 26435 net.cpp:434] LFCN_4_3x5 <- pool6
I0629 10:35:57.340641 26435 net.cpp:408] LFCN_4_3x5 -> LFCN_4_3x5
I0629 10:35:57.342974 26435 net.cpp:150] Setting up LFCN_4_3x5
I0629 10:35:57.342989 26435 net.cpp:157] Top shape: 2 7 9 12 (1512)
I0629 10:35:57.342993 26435 net.cpp:165] Memory required for data: 2239198680
I0629 10:35:57.343001 26435 layer_factory.hpp:77] Creating layer LFCN_4_3x5_LFCN_4_3x5_0_split
I0629 10:35:57.343008 26435 net.cpp:100] Creating Layer LFCN_4_3x5_LFCN_4_3x5_0_split
I0629 10:35:57.343010 26435 net.cpp:434] LFCN_4_3x5_LFCN_4_3x5_0_split <- LFCN_4_3x5
I0629 10:35:57.343019 26435 net.cpp:408] LFCN_4_3x5_LFCN_4_3x5_0_split -> LFCN_4_3x5_LFCN_4_3x5_0_split_0
I0629 10:35:57.343026 26435 net.cpp:408] LFCN_4_3x5_LFCN_4_3x5_0_split -> LFCN_4_3x5_LFCN_4_3x5_0_split_1
I0629 10:35:57.343077 26435 net.cpp:150] Setting up LFCN_4_3x5_LFCN_4_3x5_0_split
I0629 10:35:57.343081 26435 net.cpp:157] Top shape: 2 7 9 12 (1512)
I0629 10:35:57.343083 26435 net.cpp:157] Top shape: 2 7 9 12 (1512)
I0629 10:35:57.343086 26435 net.cpp:165] Memory required for data: 2239210776
I0629 10:35:57.343088 26435 layer_factory.hpp:77] Creating layer detection_loss_4_3x5
I0629 10:35:57.343096 26435 net.cpp:100] Creating Layer detection_loss_4_3x5
I0629 10:35:57.343101 26435 net.cpp:434] detection_loss_4_3x5 <- LFCN_4_3x5_LFCN_4_3x5_0_split_0
I0629 10:35:57.343104 26435 net.cpp:434] detection_loss_4_3x5 <- label_4_3x5_data_7_split_0
I0629 10:35:57.343111 26435 net.cpp:408] detection_loss_4_3x5 -> loss_4_3x5
I0629 10:35:57.343118 26435 layer_factory.hpp:77] Creating layer detection_loss_4_3x5
I0629 10:35:57.344012 26435 net.cpp:150] Setting up detection_loss_4_3x5
I0629 10:35:57.344020 26435 net.cpp:157] Top shape: 1 1 1 2 (2)
I0629 10:35:57.344022 26435 net.cpp:160]     with loss weight 1
I0629 10:35:57.344030 26435 net.cpp:165] Memory required for data: 2239210784
I0629 10:35:57.344034 26435 layer_factory.hpp:77] Creating layer detection_accuracy_4_3x5
I0629 10:35:57.344041 26435 net.cpp:100] Creating Layer detection_accuracy_4_3x5
I0629 10:35:57.344045 26435 net.cpp:434] detection_accuracy_4_3x5 <- LFCN_4_3x5_LFCN_4_3x5_0_split_1
I0629 10:35:57.344050 26435 net.cpp:434] detection_accuracy_4_3x5 <- label_4_3x5_data_7_split_1
I0629 10:35:57.344056 26435 net.cpp:408] detection_accuracy_4_3x5 -> accuracy_4_3x5
I0629 10:35:57.344064 26435 net.cpp:408] detection_accuracy_4_3x5 -> boxiou_4_3x5
I0629 10:35:57.344107 26435 net.cpp:150] Setting up detection_accuracy_4_3x5
I0629 10:35:57.344111 26435 net.cpp:157] Top shape: 1 1 1 2 (2)
I0629 10:35:57.344113 26435 net.cpp:157] Top shape: 1 1 1 1 (1)
I0629 10:35:57.344116 26435 net.cpp:165] Memory required for data: 2239210796
I0629 10:35:57.344120 26435 net.cpp:228] detection_accuracy_4_3x5 does not need backward computation.
I0629 10:35:57.344122 26435 net.cpp:226] detection_loss_4_3x5 needs backward computation.
I0629 10:35:57.344128 26435 net.cpp:226] LFCN_4_3x5_LFCN_4_3x5_0_split needs backward computation.
I0629 10:35:57.344131 26435 net.cpp:226] LFCN_4_3x5 needs backward computation.
…
