…
    downsample_rate: 32
    downsample_rate: 32
    downsample_rate: 64
    coord_num: 4
    field_h: 60
    field_h: 84
    field_h: 120
    field_h: 168
    field_h: 240
    field_h: 336
    field_h: 480
    field_w: 40
    field_w: 56
    field_w: 80
    field_w: 112
    field_w: 160
    field_w: 224
    field_w: 320
    fg_threshold: 0.5
    resize_width: 1920
    resize_height: 576
    crop_width: 768
    crop_height: 576
    do_multiple_scale: true
    min_scale: 50
    max_scale: 420
    min_gt_height: 35
    shuffle: true
    output_gt_boxes: true
  }
}
layer {
  name: "conv1_1"
  type: "Convolution"
  bottom: "data"
  top: "conv1_1"
  param {
    lr_mult: 0
    decay_mult: 0
  }
  param {
    lr_mult: 0
    decay_mult: 0
  }
  convolution_param {
    num_output: 64
    pad: 1
    kernel_size: 3
  }
}
layer {
  name: "relu1_1"
  type: "ReLU"
  bottom: "conv1_1"
  top: "conv1_1"
}
layer {
  name: "conv1_2"
  type: "Convolution"
  bottom: "conv1_1"
  top: "conv1_2"
  param {
    lr_mult: 0
    decay_mult: 0
  }
  param {
    lr_mult: 0
    decay_mult: 0
  }
  convolution_param {
    num_output: 64
    pad: 1
    kernel_size: 3
  }
}
layer {
  name: "relu1_2"
  type: "ReLU"
  bottom: "conv1_2"
  top: "conv1_2"
}
layer {
  name: "pool1"
  type: "Pooling"
  bottom: "conv1_2"
  top: "pool1"
  pooling_param {
    pool: MAX
    kernel_size: 2
    stride: 2
  }
}
layer {
  name: "conv2_1"
  type: "Convolution"
  bottom: "pool1"
  top: "conv2_1"
  param {
    lr_mult: 0
    decay_mult: 0
  }
  param {
    lr_mult: 0
    decay_mult: 0
  }
  convolution_param {
    num_output: 128
    pad: 1
    kernel_size: 3
  }
}
layer {
  name: "relu2_1"
  type: "ReLU"
  bottom: "conv2_1"
  top: "conv2_1"
}
layer {
  name: "conv2_2"
  type: "Convolution"
  bottom: "conv2_1"
  top: "conv2_2"
  param {
    lr_mult: 0
    decay_mult: 0
  }
  param {
    lr_mult: 0
    decay_mult: 0
  }
  convolution_param {
    num_output: 128
    pad: 1
    kernel_size: 3
  }
}
layer {
  name: "relu2_2"
  type: "ReLU"
  bottom: "conv2_2"
  top: "conv2_2"
}
layer {
  name: "pool2"
  type: "Pooling"
  bottom: "conv2_2"
  top: "pool2"
  pooling_param {
    pool: MAX
    kernel_size: 2
    stride: 2
  }
}
layer {
  name: "conv3_1"
  type: "Convolution"
  bottom: "pool2"
  top: "conv3_1"
  convolution_param {
    num_output: 256
    pad: 1
    kernel_size: 3
  }
}
layer {
  name: "relu3_1"
  type: "ReLU"
  bottom: "conv3_1"
  top: "conv3_1"
}
layer {
  name: "conv3_2"
  type: "Convolution"
  bottom: "conv3_1"
  top: "conv3_2"
  convolution_param {
    num_output: 256
    pad: 1
    kernel_size: 3
  }
}
layer {
  name: "relu3_2"
  type: "ReLU"
  bottom: "conv3_2"
  top: "conv3_2"
}
layer {
  name: "conv3_3"
  type: "Convolution"
  bottom: "conv3_2"
  top: "conv3_3"
  convolution_param {
    num_output: 256
    pad: 1
    kernel_size: 3
  }
}
layer {
  name: "relu3_3"
  type: "ReLU"
  bottom: "conv3_3"
  top: "conv3_3"
}
layer {
  name: "pool3"
  type: "Pooling"
  bottom: "conv3_3"
  top: "pool3"
  pooling_param {
    pool: MAX
    kernel_size: 2
    stride: 2
  }
}
layer {
  name: "conv4_1"
  type: "Convolution"
  bottom: "pool3"
  top: "conv4_1"
  convolution_param {
    num_output: 512
    pad: 1
    kernel_size: 3
  }
}
layer {
  name: "relu4_1"
  type: "ReLU"
  bottom: "conv4_1"
  top: "conv4_1"
}
layer {
  name: "conv4_2"
  type: "Convolution"
  bottom: "conv4_1"
  top: "conv4_2"
  convolution_param {
    num_output: 512
    pad: 1
    kernel_size: 3
  }
}
layer {
  name: "relu4_2"
  type: "ReLU"
  bottom: "conv4_2"
  top: "conv4_2"
}
layer {
  name: "conv4_3"
  type: "Convolution"
  bottom: "conv4_2"
  top: "conv4_3"
  convolution_param {
    num_output: 512
    pad: 1
    kernel_size: 3
  }
}
layer {
  name: "relu4_3"
  type: "ReLU"
  bottom: "conv4_3"
  top: "conv4_3"
}
layer {
  name: "loss1_conv1"
  type: "Convolution"
  bottom: "conv4_3"
  top: "loss1_conv1"
  param {
    lr_mult: 1
    decay_mult: 1
  }
  param {
    lr_mult: 2
    decay_mult: 0
  }
  convolution_param {
    num_output: 512
    pad: 1
    kernel_size: 3
    weight_filler {
      type: "gaussian"
      std: 0.01
    }
    bias_filler {
      type: "constant"
    }
  }
}
layer {
  name: "loss_relu1"
  type: "ReLU"
  bottom: "loss1_conv1"
  top: "loss1_conv1"
}
layer {
  name: "LFCN_1_3x5"
  type: "Convolution"
  bottom: "loss1_conv1"
  top: "LFCN_1_3x5"
  param {
    lr_mult: 1
    decay_mult: 1
  }
  param {
    lr_mult: 2
    decay_mult: 0
  }
  convolution_param {
    num_output: 7
    weight_filler {
      type: "gaussian"
      std: 0.001
    }
    bias_filler {
      type: "constant"
    }
    pad_h: 2
    pad_w: 1
    kernel_h: 5
    kernel_w: 3
  }
}
layer {
  name: "detection_loss_1_3x5"
  type: "DetectionLoss"
  bottom: "LFCN_1_3x5"
  bottom: "label_1_3x5"
  top: "loss_1_3x5"
  loss_weight: 0.5
  detection_loss_param {
    cls_num: 3
    coord_num: 4
    lambda: 1
    field_h: 60
    field_w: 40
    downsample_rate: 8
    bb_smooth: true
    field_whr: 2
    field_xyr: 2
    bg_threshold: 0.2
    bg_multiple: 2
    sample_mode: "bootstrap"
    pos_neg_weighted: true
  }
}
layer {
  name: "detection_accuracy_1_3x5"
  type: "DetectionAccuracy"
  bottom: "LFCN_1_3x5"
  bottom: "label_1_3x5"
  top: "accuracy_1_3x5"
  top: "boxiou_1_3x5"
  detection_accuracy_param {
    cls_num: 3
    coord_num: 4
    field_h: 60
    field_w: 40
    downsample_rate: 8
    field_whr: 2
    field_xyr: 2
  }
}
layer {
  name: "LFCN_1_5x7"
  type: "Convolution"
  bottom: "loss1_conv1"
  top: "LFCN_1_5x7"
  param {
    lr_mult: 1
    decay_mult: 1
  }
  param {
    lr_mult: 2
    decay_mult: 0
  }
  convolution_param {
    num_output: 7
    weight_filler {
      type: "gaussian"
      std: 0.001
    }
    bias_filler {
      type: "constant"
    }
    pad_h: 3
    pad_w: 2
    kernel_h: 7
    kernel_w: 5
  }
}
layer {
  name: "detection_loss_1_5x7"
  type: "DetectionLoss"
  bottom: "LFCN_1_5x7"
  bottom: "label_1_5x7"
  top: "loss_1_5x7"
  loss_weight: 0.9
  detection_loss_param {
    cls_num: 3
    coord_num: 4
    lambda: 1
    field_h: 84
    field_w: 56
    downsample_rate: 8
    bb_smooth: true
    field_whr: 2
    field_xyr: 2
    bg_threshold: 0.2
    bg_multiple: 2
    sample_mode: "bootstrap"
    pos_neg_weighted: true
  }
}
layer {
  name: "detection_accuracy_1_5x7"
  type: "DetectionAccuracy"
  bottom: "LFCN_1_5x7"
  bottom: "label_1_5x7"
  top: "accuracy_1_5x7"
  top: "boxiou_1_5x7"
  detection_accuracy_param {
    cls_num: 3
    coord_num: 4
    field_h: 84
    field_w: 56
    downsample_rate: 8
    field_whr: 2
    field_xyr: 2
  }
}
layer {
  name: "pool4"
  type: "Pooling"
  bottom: "conv4_3"
  top: "pool4"
  pooling_param {
    pool: MAX
    kernel_size: 2
    stride: 2
  }
}
layer {
  name: "conv5_1"
  type: "Convolution"
  bottom: "pool4"
  top: "conv5_1"
  convolution_param {
    num_output: 512
    pad: 1
    kernel_size: 3
  }
}
layer {
  name: "relu5_1"
  type: "ReLU"
  bottom: "conv5_1"
  top: "conv5_1"
}
layer {
  name: "conv5_2"
  type: "Convolution"
  bottom: "conv5_1"
  top: "conv5_2"
  convolution_param {
    num_output: 512
    pad: 1
    kernel_size: 3
  }
}
layer {
  name: "relu5_2"
  type: "ReLU"
  bottom: "conv5_2"
  top: "conv5_2"
}
layer {
  name: "conv5_3"
  type: "Convolution"
  bottom: "conv5_2"
  top: "conv5_3"
  convolution_param {
    num_output: 512
    pad: 1
    kernel_size: 3
  }
}
layer {
  name: "relu5_3"
  type: "ReLU"
  bottom: "conv5_3"
  top: "conv5_3"
}
layer {
  name: "LFCN_2_3x5"
  type: "Convolution"
  bottom: "conv5_3"
  top: "LFCN_2_3x5"
  param {
    lr_mult: 1
    decay_mult: 1
  }
  param {
    lr_mult: 2
    decay_mult: 0
  }
  convolution_param {
    num_output: 7
    weight_filler {
      type: "gaussian"
      std: 0.001
    }
    bias_filler {
      type: "constant"
    }
    pad_h: 2
    pad_w: 1
    kernel_h: 5
    kernel_w: 3
  }
}
layer {
  name: "detection_loss_2_3x5"
  type: "DetectionLoss"
  bottom: "LFCN_2_3x5"
  bottom: "label_2_3x5"
  top: "loss_2_3x5"
  detection_loss_param {
    cls_num: 3
    coord_num: 4
    lambda: 1
    field_h: 120
    field_w: 80
    downsample_rate: 16
    bb_smooth: true
    field_whr: 2
    field_xyr: 2
    bg_threshold: 0.2
    bg_multiple: 2
    sample_mode: "bootstrap"
    pos_neg_weighted: true
  }
}
layer {
  name: "detection_accuracy_2_3x5"
  type: "DetectionAccuracy"
  bottom: "LFCN_2_3x5"
  bottom: "label_2_3x5"
  top: "accuracy_2_3x5"
  top: "boxiou_2_3x5"
  detection_accuracy_param {
    cls_num: 3
    coord_num: 4
    field_h: 120
    field_w: 80
    downsample_rate: 16
    field_whr: 2
    field_xyr: 2
  }
}
layer {
  name: "LFCN_2_5x7"
  type: "Convolution"
  bottom: "conv5_3"
  top: "LFCN_2_5x7"
  param {
    lr_mult: 1
    decay_mult: 1
  }
  param {
    lr_mult: 2
    decay_mult: 0
  }
  convolution_param {
    num_output: 7
    weight_filler {
      type: "gaussian"
      std: 0.001
    }
    bias_filler {
      type: "constant"
    }
    pad_h: 3
    pad_w: 2
    kernel_h: 7
    kernel_w: 5
  }
}
layer {
  name: "detection_loss_2_5x7"
  type: "DetectionLoss"
  bottom: "LFCN_2_5x7"
  bottom: "label_2_5x7"
  top: "loss_2_5x7"
  detection_loss_param {
    cls_num: 3
    coord_num: 4
    lambda: 1
    field_h: 168
    field_w: 112
    downsample_rate: 16
    bb_smooth: true
    field_whr: 2
    field_xyr: 2
    bg_threshold: 0.2
    bg_multiple: 2
    sample_mode: "bootstrap"
    pos_neg_weighted: true
  }
}
layer {
  name: "detection_accuracy_2_5x7"
  type: "DetectionAccuracy"
  bottom: "LFCN_2_5x7"
  bottom: "label_2_5x7"
  top: "accuracy_2_5x7"
  top: "boxiou_2_5x7"
  detection_accuracy_param {
    cls_num: 3
    coord_num: 4
    field_h: 168
    field_w: 112
    downsample_rate: 16
    field_whr: 2
    field_xyr: 2
  }
}
layer {
  name: "pool5"
  type: "Pooling"
  bottom: "conv5_3"
  top: "pool5"
  pooling_param {
    pool: MAX
    kernel_size: 2
    stride: 2
  }
}
layer {
  name: "conv6_1"
  type: "Convolution"
  bottom: "pool5"
  top: "conv6_1"
  param {
    lr_mult: 1
    decay_mult: 1
  }
  param {
    lr_mult: 2
    decay_mult: 0
  }
  convolution_param {
    num_output: 512
    pad: 1
    kernel_size: 3
    weight_filler {
      type: "gaussian"
      std: 0.01
    }
    bias_filler {
      type: "constant"
    }
  }
}
layer {
  name: "relu6_1"
  type: "ReLU"
  bottom: "conv6_1"
  top: "conv6_1"
}
layer {
  name: "LFCN_3_3x5"
  type: "Convolution"
  bottom: "conv6_1"
  top: "LFCN_3_3x5"
  param {
    lr_mult: 1
    decay_mult: 1
  }
  param {
    lr_mult: 2
    decay_mult: 0
  }
  convolution_param {
    num_output: 7
    weight_filler {
      type: "gaussian"
      std: 0.001
    }
    bias_filler {
      type: "constant"
    }
    pad_h: 2
    pad_w: 1
    kernel_h: 5
    kernel_w: 3
  }
}
layer {
  name: "detection_loss_3_3x5"
  type: "DetectionLoss"
  bottom: "LFCN_3_3x5"
  bottom: "label_3_3x5"
  top: "loss_3_3x5"
  detection_loss_param {
    cls_num: 3
    coord_num: 4
    lambda: 1
    field_h: 240
    field_w: 160
    downsample_rate: 32
    bb_smooth: true
    field_whr: 2
    field_xyr: 2
    bg_threshold: 0.2
    bg_multiple: 2
    sample_mode: "bootstrap"
    pos_neg_weighted: true
  }
}
layer {
  name: "detection_accuracy_3_3x5"
  type: "DetectionAccuracy"
  bottom: "LFCN_3_3x5"
  bottom: "label_3_3x5"
  top: "accuracy_3_3x5"
  top: "boxiou_3_3x5"
  detection_accuracy_param {
    cls_num: 3
    coord_num: 4
    field_h: 240
    field_w: 160
    downsample_rate: 32
    field_whr: 2
    field_xyr: 2
  }
}
layer {
  name: "LFCN_3_5x7"
  type: "Convolution"
  bottom: "conv6_1"
  top: "LFCN_3_5x7"
  param {
    lr_mult: 1
    decay_mult: 1
  }
  param {
    lr_mult: 2
    decay_mult: 0
  }
  convolution_param {
    num_output: 7
    weight_filler {
      type: "gaussian"
      std: 0.001
    }
    bias_filler {
      type: "constant"
    }
    pad_h: 3
    pad_w: 2
    kernel_h: 7
    kernel_w: 5
  }
}
layer {
  name: "detection_loss_3_5x7"
  type: "DetectionLoss"
  bottom: "LFCN_3_5x7"
  bottom: "label_3_5x7"
  top: "loss_3_5x7"
  detection_loss_param {
    cls_num: 3
    coord_num: 4
    lambda: 1
    field_h: 336
    field_w: 224
    downsample_rate: 32
    bb_smooth: true
    field_whr: 2
    field_xyr: 2
    bg_threshold: 0.2
    bg_multiple: 2
    sample_mode: "bootstrap"
    pos_neg_weighted: true
  }
}
layer {
  name: "detection_accuracy_3_5x7"
  type: "DetectionAccuracy"
  bottom: "LFCN_3_5x7"
  bottom: "label_3_5x7"
  top: "accuracy_3_5x7"
  top: "boxiou_3_5x7"
  detection_accuracy_param {
    cls_num: 3
    coord_num: 4
    field_h: 336
    field_w: 224
    downsample_rate: 32
    field_whr: 2
    field_xyr: 2
  }
}
layer {
  name: "pool6"
  type: "Pooling"
  bottom: "conv6_1"
  top: "pool6"
  pooling_param {
    pool: MAX
    kernel_size: 2
    stride: 2
  }
}
layer {
  name: "LFCN_4_3x5"
  type: "Convolution"
  bottom: "pool6"
  top: "LFCN_4_3x5"
  param {
    lr_mult: 1
    decay_mult: 1
  }
  param {
    lr_mult: 2
    decay_mult: 0
  }
  convolution_param {
    num_output: 7
    weight_filler {
      type: "gaussian"
      std: 0.001
    }
    bias_filler {
      type: "constant"
    }
    pad_h: 2
    pad_w: 1
    kernel_h: 5
    kernel_w: 3
  }
}
layer {
  name: "detection_loss_4_3x5"
  type: "DetectionLoss"
  bottom: "LFCN_4_3x5"
  bottom: "label_4_3x5"
  top: "loss_4_3x5"
  detection_loss_param {
    cls_num: 3
    coord_num: 4
    lambda: 1
    field_h: 480
    field_w: 320
    downsample_rate: 64
    bb_smooth: true
    field_whr: 2
    field_xyr: 2
    bg_threshold: 0.2
    bg_multiple: 2
    sample_mode: "bootstrap"
    pos_neg_weighted: true
  }
}
layer {
  name: "detection_accuracy_4_3x5"
  type: "DetectionAccuracy"
  bottom: "LFCN_4_3x5"
  bottom: "label_4_3x5"
  top: "accuracy_4_3x5"
  top: "boxiou_4_3x5"
  detection_accuracy_param {
    cls_num: 3
    coord_num: 4
    field_h: 480
    field_w: 320
    downsample_rate: 64
    field_whr: 2
    field_xyr: 2
  }
}
layer {
  name: "proposals"
  type: "BoxOutput"
  bottom: "LFCN_1_3x5"
  bottom: "LFCN_1_5x7"
  bottom: "LFCN_2_3x5"
  bottom: "LFCN_2_5x7"
  bottom: "LFCN_3_3x5"
  bottom: "LFCN_3_5x7"
  bottom: "LFCN_4_3x5"
  top: "proposals"
  propagate_down: false
  propagate_down: false
  propagate_down: false
  propagate_down: false
  propagate_down: false
  propagate_down: false
  propagate_down: false
  box_output_param {
    fg_thr: -15
    iou_thr: 0.65
    nms_type: "IOU"
    field_h: 60
    field_h: 84
    field_h: 120
    field_h: 168
    field_h: 240
    field_h: 336
    field_h: 480
    field_w: 40
    field_w: 56
    field_w: 80
    field_w: 112
    field_w: 160
    field_w: 224
    field_w: 320
    downsample_rate: 8
    downsample_rate: 8
    downsample_rate: 16
    downsample_rate: 16
    downsample_rate: 32
    downsample_rate: 32
    downsample_rate: 64
    field_whr: 2
    field_xyr: 2
    max_nms_num: 3000
  }
}
layer {
  name: "proposal_info"
  type: "ProposalTarget"
  bottom: "proposals"
  bottom: "gt_boxes"
  top: "rois"
  top: "proposal_labels"
  top: "proposal_targets"
  top: "box_inside_weights"
  top: "box_outside_weights"
  top: "match_gt_boxes"
  include {
    phase: TRAIN
  }
  propagate_down: false
  propagate_down: false
  proposal_target_param {
    cls_num: 3
    batch_size: 128
    fg_fraction: 0.25
    num_img_per_batch: 4
    fg_thr: 0.5
    bg_thr_hg: 0.45
    bg_thr_lw: 0.05
    img_width: 768
    img_height: 576
  }
  bbox_reg_param {
    bbox_mean: 0
    bbox_mean: 0
    bbox_mean: 0
    bbox_mean: 0
    bbox_std: 0.1
    bbox_std: 0.1
    bbox_std: 0.2
    bbox_std: 0.2
  }
}
layer {
  name: "conv4_3_2x"
  type: "Deconvolution"
  bottom: "conv4_3"
  top: "conv4_3_2x"
  param {
    lr_mult: 0
    decay_mult: 0
  }
  convolution_param {
    num_output: 512
    bias_term: false
    pad: 1
    kernel_size: 4
    group: 512
    stride: 2
    weight_filler {
      type: "bilinear"
    }
  }
}
layer {
  name: "roi_pool_org"
  type: "ROIPooling"
  bottom: "conv4_3_2x"
  bottom: "rois"
  top: "roi_pool_org"
  roi_pooling_param {
    pooled_h: 7
    pooled_w: 5
    spatial_scale: 0.25
    pad_ratio: 0
  }
}
layer {
  name: "roi_pool_ctx"
  type: "ROIPooling"
  bottom: "conv4_3_2x"
  bottom: "rois"
  top: "roi_pool_ctx"
  roi_pooling_param {
    pooled_h: 7
    pooled_w: 5
    spatial_scale: 0.25
    pad_ratio: 0.25
  }
}
layer {
  name: "roi_pool"
  type: "Concat"
  bottom: "roi_pool_org"
  bottom: "roi_pool_ctx"
  top: "roi_pool"
}
layer {
  name: "roi_c1"
  type: "Convolution"
  bottom: "roi_pool"
  top: "roi_c1"
  param {
    lr_mult: 1
    decay_mult: 1
  }
  param {
    lr_mult: 2
    decay_mult: 0
  }
  convolution_param {
    num_output: 512
    kernel_size: 3
    weight_filler {
      type: "gaussian"
      std: 0.01
    }
    bias_filler {
      type: "constant"
    }
  }
}
layer {
  name: "roi_c1_relu"
  type: "ReLU"
  bottom: "roi_c1"
  top: "roi_c1"
}
layer {
  name: "fc6"
  type: "InnerProduct"
  bottom: "roi_c1"
  top: "fc6"
  param {
    lr_mult: 1
  }
  param {
    lr_mult: 2
  }
  inner_product_param {
    num_output: 2048
    weight_filler {
      type: "gaussian"
      std: 0.001
    }
    bias_filler {
      type: "constant"
      value: 0
    }
  }
}
layer {
  name: "relu6"
  type: "ReLU"
  bottom: "fc6"
  top: "fc6"
}
layer {
  name: "drop6"
  type: "Dropout"
  bottom: "fc6"
  top: "fc6"
  dropout_param {
    dropout_ratio: 0.5
  }
}
layer {
  name: "cls_pred"
  type: "InnerProduct"
  bottom: "fc6"
  top: "cls_pred"
  param {
    lr_mult: 1
  }
  param {
    lr_mult: 2
  }
  inner_product_param {
    num_output: 3
    weight_filler {
      type: "gaussian"
      std: 0.01
    }
    bias_filler {
      type: "constant"
      value: 0
    }
  }
}
layer {
  name: "bbox_pred"
  type: "InnerProduct"
  bottom: "fc6"
  top: "bbox_pred"
  param {
    lr_mult: 1
  }
  param {
    lr_mult: 2
  }
  inner_product_param {
    num_output: 12
    weight_filler {
      type: "gaussian"
      std: 0.001
    }
    bias_filler {
      type: "constant"
      value: 0
    }
  }
}
layer {
  name: "loss_cls"
  type: "SoftmaxWithLoss"
  bottom: "cls_pred"
  bottom: "proposal_labels"
  top: "loss_cls"
  loss_weight: 1
  propagate_down: true
  propagate_down: false
}
layer {
  name: "cls_accuracy"
  type: "Accuracy"
  bottom: "cls_pred"
  bottom: "proposal_labels"
  top: "cls_accuracy"
}
layer {
  name: "loss_bbox"
  type: "SmoothL1Loss"
  bottom: "bbox_pred"
  bottom: "proposal_targets"
  bottom: "box_inside_weights"
  bottom: "box_outside_weights"
  top: "loss_bbox"
  loss_weight: 1
}
layer {
  name: "bbox_iou"
  type: "BboxAccuracy"
  bottom: "bbox_pred"
  bottom: "rois"
  bottom: "match_gt_boxes"
  top: "bbox_iou"
  top: "bbox_iou_pre"
  bbox_reg_param {
    bbox_mean: 0
    bbox_mean: 0
    bbox_mean: 0
    bbox_mean: 0
    bbox_std: 0.1
    bbox_std: 0.1
    bbox_std: 0.2
    bbox_std: 0.2
  }
}
I0629 12:59:26.119371 26993 layer_factory.hpp:77] Creating layer data
I0629 12:59:26.119422 26993 net.cpp:100] Creating Layer data
I0629 12:59:26.119438 26993 net.cpp:408] data -> data
…
I0629 12:59:26.177623 26993 image_gt_data_layer.cpp:241] output label size 3 : 4,6,36,48
I0629 12:59:26.177683 26993 image_gt_data_layer.cpp:241] output label size 4 : 4,6,18,24
I0629 12:59:26.177747 26993 image_gt_data_layer.cpp:241] output label size 5 : 4,6,18,24
I0629 12:59:26.177806 26993 image_gt_data_layer.cpp:241] output label size 6 : 4,6,9,12
I0629 12:59:26.177860 26993 image_gt_data_layer.cpp:256] output gt boxes size: 1,7,1,1
I0629 12:59:26.177865 26993 image_gt_data_layer.cpp:265]  --> has_mean_values_ = 1
I0629 12:59:26.216320 26993 net.cpp:150] Setting up data
I0629 12:59:26.216338 26993 net.cpp:157] Top shape: 4 4 576 768 (7077888)
I0629 12:59:26.216343 26993 net.cpp:157] Top shape: 4 6 72 96 (165888)
I0629 12:59:26.216347 26993 net.cpp:157] Top shape: 4 6 72 96 (165888)
I0629 12:59:26.216351 26993 net.cpp:157] Top shape: 4 6 36 48 (41472)
I0629 12:59:26.216354 26993 net.cpp:157] Top shape: 4 6 36 48 (41472)
I0629 12:59:26.216357 26993 net.cpp:157] Top shape: 4 6 18 24 (10368)
I0629 12:59:26.216361 26993 net.cpp:157] Top shape: 4 6 18 24 (10368)
I0629 12:59:26.216364 26993 net.cpp:157] Top shape: 4 6 9 12 (2592)
I0629 12:59:26.216368 26993 net.cpp:157] Top shape: 1 7 1 1 (7)
I0629 12:59:26.216372 26993 net.cpp:165] Memory required for data: 30063772
I0629 12:59:26.216378 26993 layer_factory.hpp:77] Creating layer label_1_3x5_data_1_split
I0629 12:59:26.216393 26993 net.cpp:100] Creating Layer label_1_3x5_data_1_split
I0629 12:59:26.216400 26993 net.cpp:434] label_1_3x5_data_1_split <- label_1_3x5
I0629 12:59:26.216413 26993 net.cpp:408] label_1_3x5_data_1_split -> label_1_3x5_data_1_split_0
I0629 12:59:26.216423 26993 net.cpp:408] label_1_3x5_data_1_split -> label_1_3x5_data_1_split_1
I0629 12:59:26.216461 26993 net.cpp:150] Setting up label_1_3x5_data_1_split
I0629 12:59:26.216466 26993 net.cpp:157] Top shape: 4 6 72 96 (165888)
I0629 12:59:26.216470 26993 net.cpp:157] Top shape: 4 6 72 96 (165888)
I0629 12:59:26.216473 26993 net.cpp:165] Memory required for data: 31390876
I0629 12:59:26.216476 26993 layer_factory.hpp:77] Creating layer label_1_5x7_data_2_split
I0629 12:59:26.216482 26993 net.cpp:100] Creating Layer label_1_5x7_data_2_split
I0629 12:59:26.216486 26993 net.cpp:434] label_1_5x7_data_2_split <- label_1_5x7
I0629 12:59:26.216491 26993 net.cpp:408] label_1_5x7_data_2_split -> label_1_5x7_data_2_split_0
I0629 12:59:26.216500 26993 net.cpp:408] label_1_5x7_data_2_split -> label_1_5x7_data_2_split_1
I0629 12:59:26.216527 26993 net.cpp:150] Setting up label_1_5x7_data_2_split
I0629 12:59:26.216532 26993 net.cpp:157] Top shape: 4 6 72 96 (165888)
I0629 12:59:26.216536 26993 net.cpp:157] Top shape: 4 6 72 96 (165888)
I0629 12:59:26.216539 26993 net.cpp:165] Memory required for data: 32717980
I0629 12:59:26.216542 26993 layer_factory.hpp:77] Creating layer label_2_3x5_data_3_split
I0629 12:59:26.216547 26993 net.cpp:100] Creating Layer label_2_3x5_data_3_split
I0629 12:59:26.216549 26993 net.cpp:434] label_2_3x5_data_3_split <- label_2_3x5
I0629 12:59:26.216555 26993 net.cpp:408] label_2_3x5_data_3_split -> label_2_3x5_data_3_split_0
I0629 12:59:26.216562 26993 net.cpp:408] label_2_3x5_data_3_split -> label_2_3x5_data_3_split_1
I0629 12:59:26.216590 26993 net.cpp:150] Setting up label_2_3x5_data_3_split
I0629 12:59:26.216595 26993 net.cpp:157] Top shape: 4 6 36 48 (41472)
I0629 12:59:26.216598 26993 net.cpp:157] Top shape: 4 6 36 48 (41472)
I0629 12:59:26.216601 26993 net.cpp:165] Memory required for data: 33049756
I0629 12:59:26.216604 26993 layer_factory.hpp:77] Creating layer label_2_5x7_data_4_split
I0629 12:59:26.216610 26993 net.cpp:100] Creating Layer label_2_5x7_data_4_split
I0629 12:59:26.216615 26993 net.cpp:434] label_2_5x7_data_4_split <- label_2_5x7
I0629 12:59:26.216620 26993 net.cpp:408] label_2_5x7_data_4_split -> label_2_5x7_data_4_split_0
I0629 12:59:26.216626 26993 net.cpp:408] label_2_5x7_data_4_split -> label_2_5x7_data_4_split_1
I0629 12:59:26.216655 26993 net.cpp:150] Setting up label_2_5x7_data_4_split
I0629 12:59:26.216660 26993 net.cpp:157] Top shape: 4 6 36 48 (41472)
I0629 12:59:26.216663 26993 net.cpp:157] Top shape: 4 6 36 48 (41472)
I0629 12:59:26.216665 26993 net.cpp:165] Memory required for data: 33381532
I0629 12:59:26.216668 26993 layer_factory.hpp:77] Creating layer label_3_3x5_data_5_split
I0629 12:59:26.216675 26993 net.cpp:100] Creating Layer label_3_3x5_data_5_split
I0629 12:59:26.216677 26993 net.cpp:434] label_3_3x5_data_5_split <- label_3_3x5
I0629 12:59:26.216681 26993 net.cpp:408] label_3_3x5_data_5_split -> label_3_3x5_data_5_split_0
I0629 12:59:26.216687 26993 net.cpp:408] label_3_3x5_data_5_split -> label_3_3x5_data_5_split_1
I0629 12:59:26.216712 26993 net.cpp:150] Setting up label_3_3x5_data_5_split
I0629 12:59:26.216717 26993 net.cpp:157] Top shape: 4 6 18 24 (10368)
I0629 12:59:26.216720 26993 net.cpp:157] Top shape: 4 6 18 24 (10368)
I0629 12:59:26.216722 26993 net.cpp:165] Memory required for data: 33464476
I0629 12:59:26.216725 26993 layer_factory.hpp:77] Creating layer label_3_5x7_data_6_split
I0629 12:59:26.216730 26993 net.cpp:100] Creating Layer label_3_5x7_data_6_split
I0629 12:59:26.216733 26993 net.cpp:434] label_3_5x7_data_6_split <- label_3_5x7
I0629 12:59:26.216739 26993 net.cpp:408] label_3_5x7_data_6_split -> label_3_5x7_data_6_split_0
I0629 12:59:26.216745 26993 net.cpp:408] label_3_5x7_data_6_split -> label_3_5x7_data_6_split_1
I0629 12:59:26.216768 26993 net.cpp:150] Setting up label_3_5x7_data_6_split
I0629 12:59:26.216773 26993 net.cpp:157] Top shape: 4 6 18 24 (10368)
I0629 12:59:26.216776 26993 net.cpp:157] Top shape: 4 6 18 24 (10368)
I0629 12:59:26.216778 26993 net.cpp:165] Memory required for data: 33547420
I0629 12:59:26.216781 26993 layer_factory.hpp:77] Creating layer label_4_3x5_data_7_split
I0629 12:59:26.216789 26993 net.cpp:100] Creating Layer label_4_3x5_data_7_split
I0629 12:59:26.216791 26993 net.cpp:434] label_4_3x5_data_7_split <- label_4_3x5
I0629 12:59:26.216796 26993 net.cpp:408] label_4_3x5_data_7_split -> label_4_3x5_data_7_split_0
I0629 12:59:26.216801 26993 net.cpp:408] label_4_3x5_data_7_split -> label_4_3x5_data_7_split_1
I0629 12:59:26.216832 26993 net.cpp:150] Setting up label_4_3x5_data_7_split
I0629 12:59:26.216837 26993 net.cpp:157] Top shape: 4 6 9 12 (2592)
I0629 12:59:26.216840 26993 net.cpp:157] Top shape: 4 6 9 12 (2592)
I0629 12:59:26.216843 26993 net.cpp:165] Memory required for data: 33568156
I0629 12:59:26.216846 26993 layer_factory.hpp:77] Creating layer conv1_1
I0629 12:59:26.216862 26993 net.cpp:100] Creating Layer conv1_1
I0629 12:59:26.216866 26993 net.cpp:434] conv1_1 <- data
I0629 12:59:26.216871 26993 net.cpp:408] conv1_1 -> conv1_1
I0629 12:59:26.754678 26993 net.cpp:150] Setting up conv1_1
I0629 12:59:26.754701 26993 net.cpp:157] Top shape: 4 64 576 768 (113246208)
I0629 12:59:26.754704 26993 net.cpp:165] Memory required for data: 486552988
I0629 12:59:26.754725 26993 layer_factory.hpp:77] Creating layer relu1_1
I0629 12:59:26.754734 26993 net.cpp:100] Creating Layer relu1_1
I0629 12:59:26.754739 26993 net.cpp:434] relu1_1 <- conv1_1
I0629 12:59:26.754745 26993 net.cpp:395] relu1_1 -> conv1_1 (in-place)
I0629 12:59:26.755067 26993 net.cpp:150] Setting up relu1_1
I0629 12:59:26.755077 26993 net.cpp:157] Top shape: 4 64 576 768 (113246208)
I0629 12:59:26.755079 26993 net.cpp:165] Memory required for data: 939537820
I0629 12:59:26.755084 26993 layer_factory.hpp:77] Creating layer conv1_2
I0629 12:59:26.755093 26993 net.cpp:100] Creating Layer conv1_2
I0629 12:59:26.755096 26993 net.cpp:434] conv1_2 <- conv1_1
I0629 12:59:26.755102 26993 net.cpp:408] conv1_2 -> conv1_2
I0629 12:59:26.758056 26993 net.cpp:150] Setting up conv1_2
I0629 12:59:26.758077 26993 net.cpp:157] Top shape: 4 64 576 768 (113246208)
I0629 12:59:26.758080 26993 net.cpp:165] Memory required for data: 1392522652
I0629 12:59:26.758095 26993 layer_factory.hpp:77] Creating layer relu1_2
I0629 12:59:26.758103 26993 net.cpp:100] Creating Layer relu1_2
I0629 12:59:26.758110 26993 net.cpp:434] relu1_2 <- conv1_2
I0629 12:59:26.758116 26993 net.cpp:395] relu1_2 -> conv1_2 (in-place)
I0629 12:59:26.758421 26993 net.cpp:150] Setting up relu1_2
I0629 12:59:26.758428 26993 net.cpp:157] Top shape: 4 64 576 768 (113246208)
I0629 12:59:26.758431 26993 net.cpp:165] Memory required for data: 1845507484
I0629 12:59:26.758435 26993 layer_factory.hpp:77] Creating layer pool1
I0629 12:59:26.758441 26993 net.cpp:100] Creating Layer pool1
I0629 12:59:26.758445 26993 net.cpp:434] pool1 <- conv1_2
I0629 12:59:26.758451 26993 net.cpp:408] pool1 -> pool1
I0629 12:59:26.758502 26993 net.cpp:150] Setting up pool1
I0629 12:59:26.758507 26993 net.cpp:157] Top shape: 4 64 288 384 (28311552)
I0629 12:59:26.758510 26993 net.cpp:165] Memory required for data: 1958753692
I0629 12:59:26.758513 26993 layer_factory.hpp:77] Creating layer conv2_1
I0629 12:59:26.758522 26993 net.cpp:100] Creating Layer conv2_1
I0629 12:59:26.758525 26993 net.cpp:434] conv2_1 <- pool1
I0629 12:59:26.758530 26993 net.cpp:408] conv2_1 -> conv2_1
I0629 12:59:26.761165 26993 net.cpp:150] Setting up conv2_1
I0629 12:59:26.761186 26993 net.cpp:157] Top shape: 4 128 288 384 (56623104)
I0629 12:59:26.761188 26993 net.cpp:165] Memory required for data: 2185246108
I0629 12:59:26.761206 26993 layer_factory.hpp:77] Creating layer relu2_1
I0629 12:59:26.761217 26993 net.cpp:100] Creating Layer relu2_1
I0629 12:59:26.761224 26993 net.cpp:434] relu2_1 <- conv2_1
I0629 12:59:26.761242 26993 net.cpp:395] relu2_1 -> conv2_1 (in-place)
I0629 12:59:26.761924 26993 net.cpp:150] Setting up relu2_1
I0629 12:59:26.761934 26993 net.cpp:157] Top shape: 4 128 288 384 (56623104)
I0629 12:59:26.761936 26993 net.cpp:165] Memory required for data: 2411738524
I0629 12:59:26.761940 26993 layer_factory.hpp:77] Creating layer conv2_2
I0629 12:59:26.761950 26993 net.cpp:100] Creating Layer conv2_2
I0629 12:59:26.761955 26993 net.cpp:434] conv2_2 <- conv2_1
I0629 12:59:26.761961 26993 net.cpp:408] conv2_2 -> conv2_2
I0629 12:59:26.763746 26993 net.cpp:150] Setting up conv2_2
I0629 12:59:26.763759 26993 net.cpp:157] Top shape: 4 128 288 384 (56623104)
I0629 12:59:26.763762 26993 net.cpp:165] Memory required for data: 2638230940
I0629 12:59:26.763772 26993 layer_factory.hpp:77] Creating layer relu2_2
I0629 12:59:26.763783 26993 net.cpp:100] Creating Layer relu2_2
I0629 12:59:26.763788 26993 net.cpp:434] relu2_2 <- conv2_2
I0629 12:59:26.763793 26993 net.cpp:395] relu2_2 -> conv2_2 (in-place)
I0629 12:59:26.764428 26993 net.cpp:150] Setting up relu2_2
I0629 12:59:26.764439 26993 net.cpp:157] Top shape: 4 128 288 384 (56623104)
I0629 12:59:26.764441 26993 net.cpp:165] Memory required for data: 2864723356
I0629 12:59:26.764446 26993 layer_factory.hpp:77] Creating layer pool2
I0629 12:59:26.764452 26993 net.cpp:100] Creating Layer pool2
I0629 12:59:26.764457 26993 net.cpp:434] pool2 <- conv2_2
I0629 12:59:26.764462 26993 net.cpp:408] pool2 -> pool2
I0629 12:59:26.764503 26993 net.cpp:150] Setting up pool2
I0629 12:59:26.764509 26993 net.cpp:157] Top shape: 4 128 144 192 (14155776)
I0629 12:59:26.764511 26993 net.cpp:165] Memory required for data: 2921346460
I0629 12:59:26.764514 26993 layer_factory.hpp:77] Creating layer conv3_1
I0629 12:59:26.764523 26993 net.cpp:100] Creating Layer conv3_1
I0629 12:59:26.764526 26993 net.cpp:434] conv3_1 <- pool2
I0629 12:59:26.764531 26993 net.cpp:408] conv3_1 -> conv3_1
I0629 12:59:26.767206 26993 net.cpp:150] Setting up conv3_1
I0629 12:59:26.767226 26993 net.cpp:157] Top shape: 4 256 144 192 (28311552)
I0629 12:59:26.767230 26993 net.cpp:165] Memory required for data: 3034592668
I0629 12:59:26.767241 26993 layer_factory.hpp:77] Creating layer relu3_1
I0629 12:59:26.767251 26993 net.cpp:100] Creating Layer relu3_1
I0629 12:59:26.767258 26993 net.cpp:434] relu3_1 <- conv3_1
I0629 12:59:26.767264 26993 net.cpp:395] relu3_1 -> conv3_1 (in-place)
I0629 12:59:26.767534 26993 net.cpp:150] Setting up relu3_1
I0629 12:59:26.767542 26993 net.cpp:157] Top shape: 4 256 144 192 (28311552)
I0629 12:59:26.767545 26993 net.cpp:165] Memory required for data: 3147838876
I0629 12:59:26.767549 26993 layer_factory.hpp:77] Creating layer conv3_2
I0629 12:59:26.767557 26993 net.cpp:100] Creating Layer conv3_2
I0629 12:59:26.767561 26993 net.cpp:434] conv3_2 <- conv3_1
I0629 12:59:26.767566 26993 net.cpp:408] conv3_2 -> conv3_2
I0629 12:59:26.770824 26993 net.cpp:150] Setting up conv3_2
I0629 12:59:26.770844 26993 net.cpp:157] Top shape: 4 256 144 192 (28311552)
I0629 12:59:26.770848 26993 net.cpp:165] Memory required for data: 3261085084
I0629 12:59:26.770855 26993 layer_factory.hpp:77] Creating layer relu3_2
I0629 12:59:26.770865 26993 net.cpp:100] Creating Layer relu3_2
I0629 12:59:26.770869 26993 net.cpp:434] relu3_2 <- conv3_2
I0629 12:59:26.770875 26993 net.cpp:395] relu3_2 -> conv3_2 (in-place)
I0629 12:59:26.771117 26993 net.cpp:150] Setting up relu3_2
I0629 12:59:26.771126 26993 net.cpp:157] Top shape: 4 256 144 192 (28311552)
I0629 12:59:26.771127 26993 net.cpp:165] Memory required for data: 3374331292
I0629 12:59:26.771131 26993 layer_factory.hpp:77] Creating layer conv3_3
I0629 12:59:26.771138 26993 net.cpp:100] Creating Layer conv3_3
I0629 12:59:26.771143 26993 net.cpp:434] conv3_3 <- conv3_2
I0629 12:59:26.771149 26993 net.cpp:408] conv3_3 -> conv3_3
I0629 12:59:26.774369 26993 net.cpp:150] Setting up conv3_3
I0629 12:59:26.774389 26993 net.cpp:157] Top shape: 4 256 144 192 (28311552)
I0629 12:59:26.774391 26993 net.cpp:165] Memory required for data: 3487577500
I0629 12:59:26.774400 26993 layer_factory.hpp:77] Creating layer relu3_3
I0629 12:59:26.774408 26993 net.cpp:100] Creating Layer relu3_3
I0629 12:59:26.774412 26993 net.cpp:434] relu3_3 <- conv3_3
I0629 12:59:26.774418 26993 net.cpp:395] relu3_3 -> conv3_3 (in-place)
I0629 12:59:26.775050 26993 net.cpp:150] Setting up relu3_3
I0629 12:59:26.775060 26993 net.cpp:157] Top shape: 4 256 144 192 (28311552)
I0629 12:59:26.775063 26993 net.cpp:165] Memory required for data: 3600823708
I0629 12:59:26.775066 26993 layer_factory.hpp:77] Creating layer pool3
I0629 12:59:26.775074 26993 net.cpp:100] Creating Layer pool3
I0629 12:59:26.775079 26993 net.cpp:434] pool3 <- conv3_3
I0629 12:59:26.775084 26993 net.cpp:408] pool3 -> pool3
I0629 12:59:26.775131 26993 net.cpp:150] Setting up pool3
I0629 12:59:26.775137 26993 net.cpp:157] Top shape: 4 256 72 96 (7077888)
I0629 12:59:26.775141 26993 net.cpp:165] Memory required for data: 3629135260
I0629 12:59:26.775143 26993 layer_factory.hpp:77] Creating layer conv4_1
I0629 12:59:26.775151 26993 net.cpp:100] Creating Layer conv4_1
I0629 12:59:26.775154 26993 net.cpp:434] conv4_1 <- pool3
I0629 12:59:26.775159 26993 net.cpp:408] conv4_1 -> conv4_1
I0629 12:59:26.779832 26993 net.cpp:150] Setting up conv4_1
I0629 12:59:26.779852 26993 net.cpp:157] Top shape: 4 512 72 96 (14155776)
I0629 12:59:26.779855 26993 net.cpp:165] Memory required for data: 3685758364
I0629 12:59:26.779865 26993 layer_factory.hpp:77] Creating layer relu4_1
I0629 12:59:26.779873 26993 net.cpp:100] Creating Layer relu4_1
I0629 12:59:26.779877 26993 net.cpp:434] relu4_1 <- conv4_1
I0629 12:59:26.779883 26993 net.cpp:395] relu4_1 -> conv4_1 (in-place)
I0629 12:59:26.780131 26993 net.cpp:150] Setting up relu4_1
I0629 12:59:26.780138 26993 net.cpp:157] Top shape: 4 512 72 96 (14155776)
I0629 12:59:26.780141 26993 net.cpp:165] Memory required for data: 3742381468
I0629 12:59:26.780144 26993 layer_factory.hpp:77] Creating layer conv4_2
I0629 12:59:26.780153 26993 net.cpp:100] Creating Layer conv4_2
I0629 12:59:26.780158 26993 net.cpp:434] conv4_2 <- conv4_1
I0629 12:59:26.780163 26993 net.cpp:408] conv4_2 -> conv4_2
I0629 12:59:26.785890 26993 net.cpp:150] Setting up conv4_2
I0629 12:59:26.785910 26993 net.cpp:157] Top shape: 4 512 72 96 (14155776)
I0629 12:59:26.785912 26993 net.cpp:165] Memory required for data: 3799004572
I0629 12:59:26.785925 26993 layer_factory.hpp:77] Creating layer relu4_2
I0629 12:59:26.785935 26993 net.cpp:100] Creating Layer relu4_2
I0629 12:59:26.785941 26993 net.cpp:434] relu4_2 <- conv4_2
I0629 12:59:26.785949 26993 net.cpp:395] relu4_2 -> conv4_2 (in-place)
I0629 12:59:26.786213 26993 net.cpp:150] Setting up relu4_2
I0629 12:59:26.786223 26993 net.cpp:157] Top shape: 4 512 72 96 (14155776)
I0629 12:59:26.786226 26993 net.cpp:165] Memory required for data: 3855627676
I0629 12:59:26.786229 26993 layer_factory.hpp:77] Creating layer conv4_3
I0629 12:59:26.786238 26993 net.cpp:100] Creating Layer conv4_3
I0629 12:59:26.786242 26993 net.cpp:434] conv4_3 <- conv4_2
I0629 12:59:26.786247 26993 net.cpp:408] conv4_3 -> conv4_3
I0629 12:59:26.792593 26993 net.cpp:150] Setting up conv4_3
I0629 12:59:26.792611 26993 net.cpp:157] Top shape: 4 512 72 96 (14155776)
I0629 12:59:26.792614 26993 net.cpp:165] Memory required for data: 3912250780
I0629 12:59:26.792620 26993 layer_factory.hpp:77] Creating layer relu4_3
I0629 12:59:26.792626 26993 net.cpp:100] Creating Layer relu4_3
I0629 12:59:26.792630 26993 net.cpp:434] relu4_3 <- conv4_3
I0629 12:59:26.792634 26993 net.cpp:395] relu4_3 -> conv4_3 (in-place)
I0629 12:59:26.793467 26993 net.cpp:150] Setting up relu4_3
I0629 12:59:26.793478 26993 net.cpp:157] Top shape: 4 512 72 96 (14155776)
I0629 12:59:26.793480 26993 net.cpp:165] Memory required for data: 3968873884
I0629 12:59:26.793483 26993 layer_factory.hpp:77] Creating layer conv4_3_relu4_3_0_split
I0629 12:59:26.793489 26993 net.cpp:100] Creating Layer conv4_3_relu4_3_0_split
I0629 12:59:26.793493 26993 net.cpp:434] conv4_3_relu4_3_0_split <- conv4_3
I0629 12:59:26.793498 26993 net.cpp:408] conv4_3_relu4_3_0_split -> conv4_3_relu4_3_0_split_0
I0629 12:59:26.793503 26993 net.cpp:408] conv4_3_relu4_3_0_split -> conv4_3_relu4_3_0_split_1
I0629 12:59:26.793507 26993 net.cpp:408] conv4_3_relu4_3_0_split -> conv4_3_relu4_3_0_split_2
I0629 12:59:26.793562 26993 net.cpp:150] Setting up conv4_3_relu4_3_0_split
I0629 12:59:26.793567 26993 net.cpp:157] Top shape: 4 512 72 96 (14155776)
I0629 12:59:26.793570 26993 net.cpp:157] Top shape: 4 512 72 96 (14155776)
I0629 12:59:26.793573 26993 net.cpp:157] Top shape: 4 512 72 96 (14155776)
I0629 12:59:26.793576 26993 net.cpp:165] Memory required for data: 4138743196
I0629 12:59:26.793578 26993 layer_factory.hpp:77] Creating layer loss1_conv1
I0629 12:59:26.793593 26993 net.cpp:100] Creating Layer loss1_conv1
I0629 12:59:26.793597 26993 net.cpp:434] loss1_conv1 <- conv4_3_relu4_3_0_split_0
I0629 12:59:26.793602 26993 net.cpp:408] loss1_conv1 -> loss1_conv1
I0629 12:59:26.827416 26993 net.cpp:150] Setting up loss1_conv1
I0629 12:59:26.827435 26993 net.cpp:157] Top shape: 4 512 72 96 (14155776)
I0629 12:59:26.827437 26993 net.cpp:165] Memory required for data: 4195366300
I0629 12:59:26.827445 26993 layer_factory.hpp:77] Creating layer loss_relu1
I0629 12:59:26.827450 26993 net.cpp:100] Creating Layer loss_relu1
I0629 12:59:26.827453 26993 net.cpp:434] loss_relu1 <- loss1_conv1
I0629 12:59:26.827458 26993 net.cpp:395] loss_relu1 -> loss1_conv1 (in-place)
I0629 12:59:26.827704 26993 net.cpp:150] Setting up loss_relu1
I0629 12:59:26.827713 26993 net.cpp:157] Top shape: 4 512 72 96 (14155776)
I0629 12:59:26.827714 26993 net.cpp:165] Memory required for data: 4251989404
I0629 12:59:26.827716 26993 layer_factory.hpp:77] Creating layer loss1_conv1_loss_relu1_0_split
I0629 12:59:26.827723 26993 net.cpp:100] Creating Layer loss1_conv1_loss_relu1_0_split
I0629 12:59:26.827726 26993 net.cpp:434] loss1_conv1_loss_relu1_0_split <- loss1_conv1
I0629 12:59:26.827733 26993 net.cpp:408] loss1_conv1_loss_relu1_0_split -> loss1_conv1_loss_relu1_0_split_0
I0629 12:59:26.827740 26993 net.cpp:408] loss1_conv1_loss_relu1_0_split -> loss1_conv1_loss_relu1_0_split_1
I0629 12:59:26.827792 26993 net.cpp:150] Setting up loss1_conv1_loss_relu1_0_split
I0629 12:59:26.827798 26993 net.cpp:157] Top shape: 4 512 72 96 (14155776)
I0629 12:59:26.827803 26993 net.cpp:157] Top shape: 4 512 72 96 (14155776)
I0629 12:59:26.827805 26993 net.cpp:165] Memory required for data: 4365235612
I0629 12:59:26.827808 26993 layer_factory.hpp:77] Creating layer LFCN_1_3x5
I0629 12:59:26.827818 26993 net.cpp:100] Creating Layer LFCN_1_3x5
I0629 12:59:26.827821 26993 net.cpp:434] LFCN_1_3x5 <- loss1_conv1_loss_relu1_0_split_0
I0629 12:59:26.827828 26993 net.cpp:408] LFCN_1_3x5 -> LFCN_1_3x5
I0629 12:59:26.830238 26993 net.cpp:150] Setting up LFCN_1_3x5
I0629 12:59:26.830250 26993 net.cpp:157] Top shape: 4 7 72 96 (193536)
I0629 12:59:26.830252 26993 net.cpp:165] Memory required for data: 4366009756
I0629 12:59:26.830258 26993 layer_factory.hpp:77] Creating layer LFCN_1_3x5_LFCN_1_3x5_0_split
I0629 12:59:26.830265 26993 net.cpp:100] Creating Layer LFCN_1_3x5_LFCN_1_3x5_0_split
I0629 12:59:26.830268 26993 net.cpp:434] LFCN_1_3x5_LFCN_1_3x5_0_split <- LFCN_1_3x5
I0629 12:59:26.830272 26993 net.cpp:408] LFCN_1_3x5_LFCN_1_3x5_0_split -> LFCN_1_3x5_LFCN_1_3x5_0_split_0
I0629 12:59:26.830278 26993 net.cpp:408] LFCN_1_3x5_LFCN_1_3x5_0_split -> LFCN_1_3x5_LFCN_1_3x5_0_split_1
I0629 12:59:26.830283 26993 net.cpp:408] LFCN_1_3x5_LFCN_1_3x5_0_split -> LFCN_1_3x5_LFCN_1_3x5_0_split_2
I0629 12:59:26.830340 26993 net.cpp:150] Setting up LFCN_1_3x5_LFCN_1_3x5_0_split
I0629 12:59:26.830348 26993 net.cpp:157] Top shape: 4 7 72 96 (193536)
I0629 12:59:26.830351 26993 net.cpp:157] Top shape: 4 7 72 96 (193536)
I0629 12:59:26.830355 26993 net.cpp:157] Top shape: 4 7 72 96 (193536)
I0629 12:59:26.830358 26993 net.cpp:165] Memory required for data: 4368332188
I0629 12:59:26.830360 26993 layer_factory.hpp:77] Creating layer detection_loss_1_3x5
I0629 12:59:26.830368 26993 net.cpp:100] Creating Layer detection_loss_1_3x5
I0629 12:59:26.830373 26993 net.cpp:434] detection_loss_1_3x5 <- LFCN_1_3x5_LFCN_1_3x5_0_split_0
I0629 12:59:26.830376 26993 net.cpp:434] detection_loss_1_3x5 <- label_1_3x5_data_1_split_0
I0629 12:59:26.830384 26993 net.cpp:408] detection_loss_1_3x5 -> loss_1_3x5
I0629 12:59:26.830397 26993 layer_factory.hpp:77] Creating layer detection_loss_1_3x5
I0629 12:59:26.831001 26993 net.cpp:150] Setting up detection_loss_1_3x5
I0629 12:59:26.831010 26993 net.cpp:157] Top shape: 1 1 1 2 (2)
I0629 12:59:26.831013 26993 net.cpp:160]     with loss weight 0.5
I0629 12:59:26.831034 26993 net.cpp:165] Memory required for data: 4368332196
I0629 12:59:26.831038 26993 layer_factory.hpp:77] Creating layer detection_accuracy_1_3x5
I0629 12:59:26.831048 26993 net.cpp:100] Creating Layer detection_accuracy_1_3x5
I0629 12:59:26.831051 26993 net.cpp:434] detection_accuracy_1_3x5 <- LFCN_1_3x5_LFCN_1_3x5_0_split_1
I0629 12:59:26.831056 26993 net.cpp:434] detection_accuracy_1_3x5 <- label_1_3x5_data_1_split_1
I0629 12:59:26.831063 26993 net.cpp:408] detection_accuracy_1_3x5 -> accuracy_1_3x5
I0629 12:59:26.831073 26993 net.cpp:408] detection_accuracy_1_3x5 -> boxiou_1_3x5
I0629 12:59:26.831121 26993 net.cpp:150] Setting up detection_accuracy_1_3x5
I0629 12:59:26.831127 26993 net.cpp:157] Top shape: 1 1 1 2 (2)
I0629 12:59:26.831131 26993 net.cpp:157] Top shape: 1 1 1 1 (1)
I0629 12:59:26.831135 26993 net.cpp:165] Memory required for data: 4368332208
I0629 12:59:26.831136 26993 layer_factory.hpp:77] Creating layer LFCN_1_5x7
I0629 12:59:26.831146 26993 net.cpp:100] Creating Layer LFCN_1_5x7
I0629 12:59:26.831151 26993 net.cpp:434] LFCN_1_5x7 <- loss1_conv1_loss_relu1_0_split_1
I0629 12:59:26.831159 26993 net.cpp:408] LFCN_1_5x7 -> LFCN_1_5x7
I0629 12:59:26.833760 26993 net.cpp:150] Setting up LFCN_1_5x7
I0629 12:59:26.833775 26993 net.cpp:157] Top shape: 4 7 72 96 (193536)
I0629 12:59:26.833777 26993 net.cpp:165] Memory required for data: 4369106352
I0629 12:59:26.833784 26993 layer_factory.hpp:77] Creating layer LFCN_1_5x7_LFCN_1_5x7_0_split
I0629 12:59:26.833794 26993 net.cpp:100] Creating Layer LFCN_1_5x7_LFCN_1_5x7_0_split
I0629 12:59:26.833799 26993 net.cpp:434] LFCN_1_5x7_LFCN_1_5x7_0_split <- LFCN_1_5x7
I0629 12:59:26.833806 26993 net.cpp:408] LFCN_1_5x7_LFCN_1_5x7_0_split -> LFCN_1_5x7_LFCN_1_5x7_0_split_0
I0629 12:59:26.833814 26993 net.cpp:408] LFCN_1_5x7_LFCN_1_5x7_0_split -> LFCN_1_5x7_LFCN_1_5x7_0_split_1
I0629 12:59:26.833819 26993 net.cpp:408] LFCN_1_5x7_LFCN_1_5x7_0_split -> LFCN_1_5x7_LFCN_1_5x7_0_split_2
I0629 12:59:26.833866 26993 net.cpp:150] Setting up LFCN_1_5x7_LFCN_1_5x7_0_split
I0629 12:59:26.833871 26993 net.cpp:157] Top shape: 4 7 72 96 (193536)
I0629 12:59:26.833873 26993 net.cpp:157] Top shape: 4 7 72 96 (193536)
I0629 12:59:26.833878 26993 net.cpp:157] Top shape: 4 7 72 96 (193536)
I0629 12:59:26.833880 26993 net.cpp:165] Memory required for data: 4371428784
I0629 12:59:26.833884 26993 layer_factory.hpp:77] Creating layer detection_loss_1_5x7
I0629 12:59:26.833892 26993 net.cpp:100] Creating Layer detection_loss_1_5x7
I0629 12:59:26.833895 26993 net.cpp:434] detection_loss_1_5x7 <- LFCN_1_5x7_LFCN_1_5x7_0_split_0
I0629 12:59:26.833899 26993 net.cpp:434] detection_loss_1_5x7 <- label_1_5x7_data_2_split_0
I0629 12:59:26.833906 26993 net.cpp:408] detection_loss_1_5x7 -> loss_1_5x7
I0629 12:59:26.833915 26993 layer_factory.hpp:77] Creating layer detection_loss_1_5x7
I0629 12:59:26.834812 26993 net.cpp:150] Setting up detection_loss_1_5x7
I0629 12:59:26.834823 26993 net.cpp:157] Top shape: 1 1 1 2 (2)
I0629 12:59:26.834825 26993 net.cpp:160]     with loss weight 0.9
I0629 12:59:26.834836 26993 net.cpp:165] Memory required for data: 4371428792
I0629 12:59:26.834841 26993 layer_factory.hpp:77] Creating layer detection_accuracy_1_5x7
I0629 12:59:26.834848 26993 net.cpp:100] Creating Layer detection_accuracy_1_5x7
I0629 12:59:26.834852 26993 net.cpp:434] detection_accuracy_1_5x7 <- LFCN_1_5x7_LFCN_1_5x7_0_split_1
I0629 12:59:26.834858 26993 net.cpp:434] detection_accuracy_1_5x7 <- label_1_5x7_data_2_split_1
I0629 12:59:26.834864 26993 net.cpp:408] detection_accuracy_1_5x7 -> accuracy_1_5x7
I0629 12:59:26.834872 26993 net.cpp:408] detection_accuracy_1_5x7 -> boxiou_1_5x7
I0629 12:59:26.834908 26993 net.cpp:150] Setting up detection_accuracy_1_5x7
I0629 12:59:26.834914 26993 net.cpp:157] Top shape: 1 1 1 2 (2)
I0629 12:59:26.834918 26993 net.cpp:157] Top shape: 1 1 1 1 (1)
I0629 12:59:26.834918 26993 net.cpp:165] Memory required for data: 4371428804
I0629 12:59:26.834920 26993 layer_factory.hpp:77] Creating layer pool4
I0629 12:59:26.834925 26993 net.cpp:100] Creating Layer pool4
I0629 12:59:26.834928 26993 net.cpp:434] pool4 <- conv4_3_relu4_3_0_split_1
I0629 12:59:26.834931 26993 net.cpp:408] pool4 -> pool4
I0629 12:59:26.834966 26993 net.cpp:150] Setting up pool4
I0629 12:59:26.834971 26993 net.cpp:157] Top shape: 4 512 36 48 (3538944)
I0629 12:59:26.834973 26993 net.cpp:165] Memory required for data: 4385584580
I0629 12:59:26.834976 26993 layer_factory.hpp:77] Creating layer conv5_1
I0629 12:59:26.834985 26993 net.cpp:100] Creating Layer conv5_1
I0629 12:59:26.834987 26993 net.cpp:434] conv5_1 <- pool4
I0629 12:59:26.834991 26993 net.cpp:408] conv5_1 -> conv5_1
I0629 12:59:26.840775 26993 net.cpp:150] Setting up conv5_1
I0629 12:59:26.840796 26993 net.cpp:157] Top shape: 4 512 36 48 (3538944)
I0629 12:59:26.840798 26993 net.cpp:165] Memory required for data: 4399740356
I0629 12:59:26.840806 26993 layer_factory.hpp:77] Creating layer relu5_1
I0629 12:59:26.840818 26993 net.cpp:100] Creating Layer relu5_1
I0629 12:59:26.840823 26993 net.cpp:434] relu5_1 <- conv5_1
I0629 12:59:26.840831 26993 net.cpp:395] relu5_1 -> conv5_1 (in-place)
I0629 12:59:26.841526 26993 net.cpp:150] Setting up relu5_1
I0629 12:59:26.841537 26993 net.cpp:157] Top shape: 4 512 36 48 (3538944)
I0629 12:59:26.841539 26993 net.cpp:165] Memory required for data: 4413896132
I0629 12:59:26.841542 26993 layer_factory.hpp:77] Creating layer conv5_2
I0629 12:59:26.841549 26993 net.cpp:100] Creating Layer conv5_2
I0629 12:59:26.841552 26993 net.cpp:434] conv5_2 <- conv5_1
I0629 12:59:26.841557 26993 net.cpp:408] conv5_2 -> conv5_2
I0629 12:59:26.847069 26993 net.cpp:150] Setting up conv5_2
I0629 12:59:26.847090 26993 net.cpp:157] Top shape: 4 512 36 48 (3538944)
I0629 12:59:26.847092 26993 net.cpp:165] Memory required for data: 4428051908
I0629 12:59:26.847100 26993 layer_factory.hpp:77] Creating layer relu5_2
I0629 12:59:26.847105 26993 net.cpp:100] Creating Layer relu5_2
I0629 12:59:26.847108 26993 net.cpp:434] relu5_2 <- conv5_2
I0629 12:59:26.847113 26993 net.cpp:395] relu5_2 -> conv5_2 (in-place)
I0629 12:59:26.847441 26993 net.cpp:150] Setting up relu5_2
I0629 12:59:26.847451 26993 net.cpp:157] Top shape: 4 512 36 48 (3538944)
I0629 12:59:26.847455 26993 net.cpp:165] Memory required for data: 4442207684
I0629 12:59:26.847457 26993 layer_factory.hpp:77] Creating layer conv5_3
I0629 12:59:26.847466 26993 net.cpp:100] Creating Layer conv5_3
I0629 12:59:26.847470 26993 net.cpp:434] conv5_3 <- conv5_2
I0629 12:59:26.847476 26993 net.cpp:408] conv5_3 -> conv5_3
I0629 12:59:26.853441 26993 net.cpp:150] Setting up conv5_3
I0629 12:59:26.853459 26993 net.cpp:157] Top shape: 4 512 36 48 (3538944)
I0629 12:59:26.853461 26993 net.cpp:165] Memory required for data: 4456363460
I0629 12:59:26.853468 26993 layer_factory.hpp:77] Creating layer relu5_3
I0629 12:59:26.853474 26993 net.cpp:100] Creating Layer relu5_3
I0629 12:59:26.853477 26993 net.cpp:434] relu5_3 <- conv5_3
I0629 12:59:26.853483 26993 net.cpp:395] relu5_3 -> conv5_3 (in-place)
I0629 12:59:26.853742 26993 net.cpp:150] Setting up relu5_3
I0629 12:59:26.853750 26993 net.cpp:157] Top shape: 4 512 36 48 (3538944)
I0629 12:59:26.853752 26993 net.cpp:165] Memory required for data: 4470519236
I0629 12:59:26.853756 26993 layer_factory.hpp:77] Creating layer conv5_3_relu5_3_0_split
I0629 12:59:26.853765 26993 net.cpp:100] Creating Layer conv5_3_relu5_3_0_split
I0629 12:59:26.853770 26993 net.cpp:434] conv5_3_relu5_3_0_split <- conv5_3
I0629 12:59:26.853775 26993 net.cpp:408] conv5_3_relu5_3_0_split -> conv5_3_relu5_3_0_split_0
I0629 12:59:26.853785 26993 net.cpp:408] conv5_3_relu5_3_0_split -> conv5_3_relu5_3_0_split_1
I0629 12:59:26.853791 26993 net.cpp:408] conv5_3_relu5_3_0_split -> conv5_3_relu5_3_0_split_2
I0629 12:59:26.853848 26993 net.cpp:150] Setting up conv5_3_relu5_3_0_split
I0629 12:59:26.853853 26993 net.cpp:157] Top shape: 4 512 36 48 (3538944)
I0629 12:59:26.853857 26993 net.cpp:157] Top shape: 4 512 36 48 (3538944)
I0629 12:59:26.853862 26993 net.cpp:157] Top shape: 4 512 36 48 (3538944)
I0629 12:59:26.853863 26993 net.cpp:165] Memory required for data: 4512986564
I0629 12:59:26.853866 26993 layer_factory.hpp:77] Creating layer LFCN_2_3x5
I0629 12:59:26.853878 26993 net.cpp:100] Creating Layer LFCN_2_3x5
I0629 12:59:26.853881 26993 net.cpp:434] LFCN_2_3x5 <- conv5_3_relu5_3_0_split_0
I0629 12:59:26.853888 26993 net.cpp:408] LFCN_2_3x5 -> LFCN_2_3x5
I0629 12:59:26.855743 26993 net.cpp:150] Setting up LFCN_2_3x5
I0629 12:59:26.855756 26993 net.cpp:157] Top shape: 4 7 36 48 (48384)
I0629 12:59:26.855758 26993 net.cpp:165] Memory required for data: 4513180100
I0629 12:59:26.855774 26993 layer_factory.hpp:77] Creating layer LFCN_2_3x5_LFCN_2_3x5_0_split
I0629 12:59:26.855783 26993 net.cpp:100] Creating Layer LFCN_2_3x5_LFCN_2_3x5_0_split
I0629 12:59:26.855788 26993 net.cpp:434] LFCN_2_3x5_LFCN_2_3x5_0_split <- LFCN_2_3x5
I0629 12:59:26.855795 26993 net.cpp:408] LFCN_2_3x5_LFCN_2_3x5_0_split -> LFCN_2_3x5_LFCN_2_3x5_0_split_0
I0629 12:59:26.855813 26993 net.cpp:408] LFCN_2_3x5_LFCN_2_3x5_0_split -> LFCN_2_3x5_LFCN_2_3x5_0_split_1
I0629 12:59:26.855820 26993 net.cpp:408] LFCN_2_3x5_LFCN_2_3x5_0_split -> LFCN_2_3x5_LFCN_2_3x5_0_split_2
I0629 12:59:26.855872 26993 net.cpp:150] Setting up LFCN_2_3x5_LFCN_2_3x5_0_split
I0629 12:59:26.855885 26993 net.cpp:157] Top shape: 4 7 36 48 (48384)
I0629 12:59:26.855888 26993 net.cpp:157] Top shape: 4 7 36 48 (48384)
I0629 12:59:26.855892 26993 net.cpp:157] Top shape: 4 7 36 48 (48384)
I0629 12:59:26.855895 26993 net.cpp:165] Memory required for data: 4513760708
I0629 12:59:26.855897 26993 layer_factory.hpp:77] Creating layer detection_loss_2_3x5
I0629 12:59:26.855906 26993 net.cpp:100] Creating Layer detection_loss_2_3x5
I0629 12:59:26.855909 26993 net.cpp:434] detection_loss_2_3x5 <- LFCN_2_3x5_LFCN_2_3x5_0_split_0
I0629 12:59:26.855914 26993 net.cpp:434] detection_loss_2_3x5 <- label_2_3x5_data_3_split_0
I0629 12:59:26.855919 26993 net.cpp:408] detection_loss_2_3x5 -> loss_2_3x5
I0629 12:59:26.855927 26993 layer_factory.hpp:77] Creating layer detection_loss_2_3x5
I0629 12:59:26.856812 26993 net.cpp:150] Setting up detection_loss_2_3x5
I0629 12:59:26.856820 26993 net.cpp:157] Top shape: 1 1 1 2 (2)
I0629 12:59:26.856822 26993 net.cpp:160]     with loss weight 1
I0629 12:59:26.856834 26993 net.cpp:165] Memory required for data: 4513760716
I0629 12:59:26.856837 26993 layer_factory.hpp:77] Creating layer detection_accuracy_2_3x5
I0629 12:59:26.856845 26993 net.cpp:100] Creating Layer detection_accuracy_2_3x5
I0629 12:59:26.856850 26993 net.cpp:434] detection_accuracy_2_3x5 <- LFCN_2_3x5_LFCN_2_3x5_0_split_1
I0629 12:59:26.856853 26993 net.cpp:434] detection_accuracy_2_3x5 <- label_2_3x5_data_3_split_1
I0629 12:59:26.856861 26993 net.cpp:408] detection_accuracy_2_3x5 -> accuracy_2_3x5
I0629 12:59:26.856869 26993 net.cpp:408] detection_accuracy_2_3x5 -> boxiou_2_3x5
I0629 12:59:26.856909 26993 net.cpp:150] Setting up detection_accuracy_2_3x5
I0629 12:59:26.856914 26993 net.cpp:157] Top shape: 1 1 1 2 (2)
I0629 12:59:26.856917 26993 net.cpp:157] Top shape: 1 1 1 1 (1)
I0629 12:59:26.856920 26993 net.cpp:165] Memory required for data: 4513760728
I0629 12:59:26.856921 26993 layer_factory.hpp:77] Creating layer LFCN_2_5x7
I0629 12:59:26.856931 26993 net.cpp:100] Creating Layer LFCN_2_5x7
I0629 12:59:26.856935 26993 net.cpp:434] LFCN_2_5x7 <- conv5_3_relu5_3_0_split_1
I0629 12:59:26.856942 26993 net.cpp:408] LFCN_2_5x7 -> LFCN_2_5x7
I0629 12:59:26.860206 26993 net.cpp:150] Setting up LFCN_2_5x7
I0629 12:59:26.860224 26993 net.cpp:157] Top shape: 4 7 36 48 (48384)
I0629 12:59:26.860225 26993 net.cpp:165] Memory required for data: 4513954264
I0629 12:59:26.860232 26993 layer_factory.hpp:77] Creating layer LFCN_2_5x7_LFCN_2_5x7_0_split
I0629 12:59:26.860240 26993 net.cpp:100] Creating Layer LFCN_2_5x7_LFCN_2_5x7_0_split
I0629 12:59:26.860244 26993 net.cpp:434] LFCN_2_5x7_LFCN_2_5x7_0_split <- LFCN_2_5x7
I0629 12:59:26.860249 26993 net.cpp:408] LFCN_2_5x7_LFCN_2_5x7_0_split -> LFCN_2_5x7_LFCN_2_5x7_0_split_0
I0629 12:59:26.860257 26993 net.cpp:408] LFCN_2_5x7_LFCN_2_5x7_0_split -> LFCN_2_5x7_LFCN_2_5x7_0_split_1
I0629 12:59:26.860265 26993 net.cpp:408] LFCN_2_5x7_LFCN_2_5x7_0_split -> LFCN_2_5x7_LFCN_2_5x7_0_split_2
I0629 12:59:26.860316 26993 net.cpp:150] Setting up LFCN_2_5x7_LFCN_2_5x7_0_split
I0629 12:59:26.860321 26993 net.cpp:157] Top shape: 4 7 36 48 (48384)
I0629 12:59:26.860324 26993 net.cpp:157] Top shape: 4 7 36 48 (48384)
I0629 12:59:26.860328 26993 net.cpp:157] Top shape: 4 7 36 48 (48384)
I0629 12:59:26.860330 26993 net.cpp:165] Memory required for data: 4514534872
I0629 12:59:26.860333 26993 layer_factory.hpp:77] Creating layer detection_loss_2_5x7
I0629 12:59:26.860340 26993 net.cpp:100] Creating Layer detection_loss_2_5x7
I0629 12:59:26.860344 26993 net.cpp:434] detection_loss_2_5x7 <- LFCN_2_5x7_LFCN_2_5x7_0_split_0
I0629 12:59:26.860349 26993 net.cpp:434] detection_loss_2_5x7 <- label_2_5x7_data_4_split_0
I0629 12:59:26.860357 26993 net.cpp:408] detection_loss_2_5x7 -> loss_2_5x7
I0629 12:59:26.860364 26993 layer_factory.hpp:77] Creating layer detection_loss_2_5x7
I0629 12:59:26.860779 26993 net.cpp:150] Setting up detection_loss_2_5x7
I0629 12:59:26.860785 26993 net.cpp:157] Top shape: 1 1 1 2 (2)
I0629 12:59:26.860787 26993 net.cpp:160]     with loss weight 1
I0629 12:59:26.860795 26993 net.cpp:165] Memory required for data: 4514534880
I0629 12:59:26.860798 26993 layer_factory.hpp:77] Creating layer detection_accuracy_2_5x7
I0629 12:59:26.860805 26993 net.cpp:100] Creating Layer detection_accuracy_2_5x7
I0629 12:59:26.860810 26993 net.cpp:434] detection_accuracy_2_5x7 <- LFCN_2_5x7_LFCN_2_5x7_0_split_1
I0629 12:59:26.860815 26993 net.cpp:434] detection_accuracy_2_5x7 <- label_2_5x7_data_4_split_1
I0629 12:59:26.860821 26993 net.cpp:408] detection_accuracy_2_5x7 -> accuracy_2_5x7
I0629 12:59:26.860826 26993 net.cpp:408] detection_accuracy_2_5x7 -> boxiou_2_5x7
I0629 12:59:26.860863 26993 net.cpp:150] Setting up detection_accuracy_2_5x7
I0629 12:59:26.860867 26993 net.cpp:157] Top shape: 1 1 1 2 (2)
I0629 12:59:26.860869 26993 net.cpp:157] Top shape: 1 1 1 1 (1)
I0629 12:59:26.860872 26993 net.cpp:165] Memory required for data: 4514534892
I0629 12:59:26.860874 26993 layer_factory.hpp:77] Creating layer pool5
I0629 12:59:26.860882 26993 net.cpp:100] Creating Layer pool5
I0629 12:59:26.860885 26993 net.cpp:434] pool5 <- conv5_3_relu5_3_0_split_2
I0629 12:59:26.860893 26993 net.cpp:408] pool5 -> pool5
I0629 12:59:26.860934 26993 net.cpp:150] Setting up pool5
I0629 12:59:26.860939 26993 net.cpp:157] Top shape: 4 512 18 24 (884736)
I0629 12:59:26.860942 26993 net.cpp:165] Memory required for data: 4518073836
I0629 12:59:26.860945 26993 layer_factory.hpp:77] Creating layer conv6_1
I0629 12:59:26.860956 26993 net.cpp:100] Creating Layer conv6_1
I0629 12:59:26.860960 26993 net.cpp:434] conv6_1 <- pool5
I0629 12:59:26.860965 26993 net.cpp:408] conv6_1 -> conv6_1
I0629 12:59:26.881582 26993 net.cpp:150] Setting up conv6_1
I0629 12:59:26.881599 26993 net.cpp:157] Top shape: 4 512 18 24 (884736)
I0629 12:59:26.881603 26993 net.cpp:165] Memory required for data: 4521612780
I0629 12:59:26.881608 26993 layer_factory.hpp:77] Creating layer relu6_1
I0629 12:59:26.881614 26993 net.cpp:100] Creating Layer relu6_1
I0629 12:59:26.881618 26993 net.cpp:434] relu6_1 <- conv6_1
I0629 12:59:26.881621 26993 net.cpp:395] relu6_1 -> conv6_1 (in-place)
I0629 12:59:26.881880 26993 net.cpp:150] Setting up relu6_1
I0629 12:59:26.881887 26993 net.cpp:157] Top shape: 4 512 18 24 (884736)
I0629 12:59:26.881889 26993 net.cpp:165] Memory required for data: 4525151724
I0629 12:59:26.881892 26993 layer_factory.hpp:77] Creating layer conv6_1_relu6_1_0_split
I0629 12:59:26.881898 26993 net.cpp:100] Creating Layer conv6_1_relu6_1_0_split
I0629 12:59:26.881902 26993 net.cpp:434] conv6_1_relu6_1_0_split <- conv6_1
I0629 12:59:26.881909 26993 net.cpp:408] conv6_1_relu6_1_0_split -> conv6_1_relu6_1_0_split_0
I0629 12:59:26.881920 26993 net.cpp:408] conv6_1_relu6_1_0_split -> conv6_1_relu6_1_0_split_1
I0629 12:59:26.881927 26993 net.cpp:408] conv6_1_relu6_1_0_split -> conv6_1_relu6_1_0_split_2
I0629 12:59:26.882000 26993 net.cpp:150] Setting up conv6_1_relu6_1_0_split
I0629 12:59:26.882006 26993 net.cpp:157] Top shape: 4 512 18 24 (884736)
I0629 12:59:26.882010 26993 net.cpp:157] Top shape: 4 512 18 24 (884736)
I0629 12:59:26.882014 26993 net.cpp:157] Top shape: 4 512 18 24 (884736)
I0629 12:59:26.882017 26993 net.cpp:165] Memory required for data: 4535768556
I0629 12:59:26.882020 26993 layer_factory.hpp:77] Creating layer LFCN_3_3x5
I0629 12:59:26.882030 26993 net.cpp:100] Creating Layer LFCN_3_3x5
I0629 12:59:26.882033 26993 net.cpp:434] LFCN_3_3x5 <- conv6_1_relu6_1_0_split_0
I0629 12:59:26.882041 26993 net.cpp:408] LFCN_3_3x5 -> LFCN_3_3x5
I0629 12:59:26.884997 26993 net.cpp:150] Setting up LFCN_3_3x5
I0629 12:59:26.885016 26993 net.cpp:157] Top shape: 4 7 18 24 (12096)
I0629 12:59:26.885020 26993 net.cpp:165] Memory required for data: 4535816940
I0629 12:59:26.885025 26993 layer_factory.hpp:77] Creating layer LFCN_3_3x5_LFCN_3_3x5_0_split
I0629 12:59:26.885038 26993 net.cpp:100] Creating Layer LFCN_3_3x5_LFCN_3_3x5_0_split
I0629 12:59:26.885042 26993 net.cpp:434] LFCN_3_3x5_LFCN_3_3x5_0_split <- LFCN_3_3x5
I0629 12:59:26.885048 26993 net.cpp:408] LFCN_3_3x5_LFCN_3_3x5_0_split -> LFCN_3_3x5_LFCN_3_3x5_0_split_0
I0629 12:59:26.885054 26993 net.cpp:408] LFCN_3_3x5_LFCN_3_3x5_0_split -> LFCN_3_3x5_LFCN_3_3x5_0_split_1
I0629 12:59:26.885059 26993 net.cpp:408] LFCN_3_3x5_LFCN_3_3x5_0_split -> LFCN_3_3x5_LFCN_3_3x5_0_split_2
I0629 12:59:26.885123 26993 net.cpp:150] Setting up LFCN_3_3x5_LFCN_3_3x5_0_split
I0629 12:59:26.885131 26993 net.cpp:157] Top shape: 4 7 18 24 (12096)
I0629 12:59:26.885135 26993 net.cpp:157] Top shape: 4 7 18 24 (12096)
I0629 12:59:26.885138 26993 net.cpp:157] Top shape: 4 7 18 24 (12096)
I0629 12:59:26.885141 26993 net.cpp:165] Memory required for data: 4535962092
I0629 12:59:26.885144 26993 layer_factory.hpp:77] Creating layer detection_loss_3_3x5
I0629 12:59:26.885151 26993 net.cpp:100] Creating Layer detection_loss_3_3x5
I0629 12:59:26.885155 26993 net.cpp:434] detection_loss_3_3x5 <- LFCN_3_3x5_LFCN_3_3x5_0_split_0
I0629 12:59:26.885160 26993 net.cpp:434] detection_loss_3_3x5 <- label_3_3x5_data_5_split_0
I0629 12:59:26.885166 26993 net.cpp:408] detection_loss_3_3x5 -> loss_3_3x5
I0629 12:59:26.885174 26993 layer_factory.hpp:77] Creating layer detection_loss_3_3x5
I0629 12:59:26.886330 26993 net.cpp:150] Setting up detection_loss_3_3x5
I0629 12:59:26.886342 26993 net.cpp:157] Top shape: 1 1 1 2 (2)
I0629 12:59:26.886343 26993 net.cpp:160]     with loss weight 1
I0629 12:59:26.886350 26993 net.cpp:165] Memory required for data: 4535962100
I0629 12:59:26.886353 26993 layer_factory.hpp:77] Creating layer detection_accuracy_3_3x5
I0629 12:59:26.886359 26993 net.cpp:100] Creating Layer detection_accuracy_3_3x5
I0629 12:59:26.886363 26993 net.cpp:434] detection_accuracy_3_3x5 <- LFCN_3_3x5_LFCN_3_3x5_0_split_1
I0629 12:59:26.886368 26993 net.cpp:434] detection_accuracy_3_3x5 <- label_3_3x5_data_5_split_1
I0629 12:59:26.886371 26993 net.cpp:408] detection_accuracy_3_3x5 -> accuracy_3_3x5
I0629 12:59:26.886379 26993 net.cpp:408] detection_accuracy_3_3x5 -> boxiou_3_3x5
I0629 12:59:26.886428 26993 net.cpp:150] Setting up detection_accuracy_3_3x5
I0629 12:59:26.886435 26993 net.cpp:157] Top shape: 1 1 1 2 (2)
I0629 12:59:26.886438 26993 net.cpp:157] Top shape: 1 1 1 1 (1)
I0629 12:59:26.886440 26993 net.cpp:165] Memory required for data: 4535962112
I0629 12:59:26.886443 26993 layer_factory.hpp:77] Creating layer LFCN_3_5x7
I0629 12:59:26.886453 26993 net.cpp:100] Creating Layer LFCN_3_5x7
I0629 12:59:26.886457 26993 net.cpp:434] LFCN_3_5x7 <- conv6_1_relu6_1_0_split_1
I0629 12:59:26.886464 26993 net.cpp:408] LFCN_3_5x7 -> LFCN_3_5x7
I0629 12:59:26.889041 26993 net.cpp:150] Setting up LFCN_3_5x7
I0629 12:59:26.889055 26993 net.cpp:157] Top shape: 4 7 18 24 (12096)
I0629 12:59:26.889057 26993 net.cpp:165] Memory required for data: 4536010496
I0629 12:59:26.889063 26993 layer_factory.hpp:77] Creating layer LFCN_3_5x7_LFCN_3_5x7_0_split
I0629 12:59:26.889068 26993 net.cpp:100] Creating Layer LFCN_3_5x7_LFCN_3_5x7_0_split
I0629 12:59:26.889071 26993 net.cpp:434] LFCN_3_5x7_LFCN_3_5x7_0_split <- LFCN_3_5x7
I0629 12:59:26.889077 26993 net.cpp:408] LFCN_3_5x7_LFCN_3_5x7_0_split -> LFCN_3_5x7_LFCN_3_5x7_0_split_0
I0629 12:59:26.889083 26993 net.cpp:408] LFCN_3_5x7_LFCN_3_5x7_0_split -> LFCN_3_5x7_LFCN_3_5x7_0_split_1
I0629 12:59:26.889088 26993 net.cpp:408] LFCN_3_5x7_LFCN_3_5x7_0_split -> LFCN_3_5x7_LFCN_3_5x7_0_split_2
I0629 12:59:26.889151 26993 net.cpp:150] Setting up LFCN_3_5x7_LFCN_3_5x7_0_split
I0629 12:59:26.889159 26993 net.cpp:157] Top shape: 4 7 18 24 (12096)
I0629 12:59:26.889164 26993 net.cpp:157] Top shape: 4 7 18 24 (12096)
I0629 12:59:26.889168 26993 net.cpp:157] Top shape: 4 7 18 24 (12096)
I0629 12:59:26.889171 26993 net.cpp:165] Memory required for data: 4536155648
I0629 12:59:26.889174 26993 layer_factory.hpp:77] Creating layer detection_loss_3_5x7
I0629 12:59:26.889181 26993 net.cpp:100] Creating Layer detection_loss_3_5x7
I0629 12:59:26.889185 26993 net.cpp:434] detection_loss_3_5x7 <- LFCN_3_5x7_LFCN_3_5x7_0_split_0
I0629 12:59:26.889190 26993 net.cpp:434] detection_loss_3_5x7 <- label_3_5x7_data_6_split_0
I0629 12:59:26.889199 26993 net.cpp:408] detection_loss_3_5x7 -> loss_3_5x7
I0629 12:59:26.889207 26993 layer_factory.hpp:77] Creating layer detection_loss_3_5x7
I0629 12:59:26.889797 26993 net.cpp:150] Setting up detection_loss_3_5x7
I0629 12:59:26.889807 26993 net.cpp:157] Top shape: 1 1 1 2 (2)
I0629 12:59:26.889811 26993 net.cpp:160]     with loss weight 1
I0629 12:59:26.889819 26993 net.cpp:165] Memory required for data: 4536155656
I0629 12:59:26.889822 26993 layer_factory.hpp:77] Creating layer detection_accuracy_3_5x7
I0629 12:59:26.889832 26993 net.cpp:100] Creating Layer detection_accuracy_3_5x7
I0629 12:59:26.889837 26993 net.cpp:434] detection_accuracy_3_5x7 <- LFCN_3_5x7_LFCN_3_5x7_0_split_1
I0629 12:59:26.889842 26993 net.cpp:434] detection_accuracy_3_5x7 <- label_3_5x7_data_6_split_1
I0629 12:59:26.889847 26993 net.cpp:408] detection_accuracy_3_5x7 -> accuracy_3_5x7
I0629 12:59:26.889856 26993 net.cpp:408] detection_accuracy_3_5x7 -> boxiou_3_5x7
I0629 12:59:26.889907 26993 net.cpp:150] Setting up detection_accuracy_3_5x7
I0629 12:59:26.889912 26993 net.cpp:157] Top shape: 1 1 1 2 (2)
I0629 12:59:26.889916 26993 net.cpp:157] Top shape: 1 1 1 1 (1)
I0629 12:59:26.889919 26993 net.cpp:165] Memory required for data: 4536155668
I0629 12:59:26.889921 26993 layer_factory.hpp:77] Creating layer pool6
I0629 12:59:26.889927 26993 net.cpp:100] Creating Layer pool6
I0629 12:59:26.889932 26993 net.cpp:434] pool6 <- conv6_1_relu6_1_0_split_2
I0629 12:59:26.889938 26993 net.cpp:408] pool6 -> pool6
I0629 12:59:26.889983 26993 net.cpp:150] Setting up pool6
I0629 12:59:26.889989 26993 net.cpp:157] Top shape: 4 512 9 12 (221184)
I0629 12:59:26.889993 26993 net.cpp:165] Memory required for data: 4537040404
I0629 12:59:26.889997 26993 layer_factory.hpp:77] Creating layer LFCN_4_3x5
I0629 12:59:26.890004 26993 net.cpp:100] Creating Layer LFCN_4_3x5
I0629 12:59:26.890010 26993 net.cpp:434] LFCN_4_3x5 <- pool6
I0629 12:59:26.890017 26993 net.cpp:408] LFCN_4_3x5 -> LFCN_4_3x5
I0629 12:59:26.892614 26993 net.cpp:150] Setting up LFCN_4_3x5
I0629 12:59:26.892627 26993 net.cpp:157] Top shape: 4 7 9 12 (3024)
I0629 12:59:26.892628 26993 net.cpp:165] Memory required for data: 4537052500
I0629 12:59:26.892637 26993 layer_factory.hpp:77] Creating layer LFCN_4_3x5_LFCN_4_3x5_0_split
I0629 12:59:26.892644 26993 net.cpp:100] Creating Layer LFCN_4_3x5_LFCN_4_3x5_0_split
I0629 12:59:26.892649 26993 net.cpp:434] LFCN_4_3x5_LFCN_4_3x5_0_split <- LFCN_4_3x5
I0629 12:59:26.892655 26993 net.cpp:408] LFCN_4_3x5_LFCN_4_3x5_0_split -> LFCN_4_3x5_LFCN_4_3x5_0_split_0
I0629 12:59:26.892668 26993 net.cpp:408] LFCN_4_3x5_LFCN_4_3x5_0_split -> LFCN_4_3x5_LFCN_4_3x5_0_split_1
I0629 12:59:26.892673 26993 net.cpp:408] LFCN_4_3x5_LFCN_4_3x5_0_split -> LFCN_4_3x5_LFCN_4_3x5_0_split_2
I0629 12:59:26.892724 26993 net.cpp:150] Setting up LFCN_4_3x5_LFCN_4_3x5_0_split
I0629 12:59:26.892729 26993 net.cpp:157] Top shape: 4 7 9 12 (3024)
I0629 12:59:26.892731 26993 net.cpp:157] Top shape: 4 7 9 12 (3024)
I0629 12:59:26.892735 26993 net.cpp:157] Top shape: 4 7 9 12 (3024)
I0629 12:59:26.892737 26993 net.cpp:165] Memory required for data: 4537088788
I0629 12:59:26.892740 26993 layer_factory.hpp:77] Creating layer detection_loss_4_3x5
I0629 12:59:26.892747 26993 net.cpp:100] Creating Layer detection_loss_4_3x5
I0629 12:59:26.892750 26993 net.cpp:434] detection_loss_4_3x5 <- LFCN_4_3x5_LFCN_4_3x5_0_split_0
I0629 12:59:26.892755 26993 net.cpp:434] detection_loss_4_3x5 <- label_4_3x5_data_7_split_0
I0629 12:59:26.892761 26993 net.cpp:408] detection_loss_4_3x5 -> loss_4_3x5
I0629 12:59:26.892769 26993 layer_factory.hpp:77] Creating layer detection_loss_4_3x5
I0629 12:59:26.893182 26993 net.cpp:150] Setting up detection_loss_4_3x5
I0629 12:59:26.893187 26993 net.cpp:157] Top shape: 1 1 1 2 (2)
I0629 12:59:26.893189 26993 net.cpp:160]     with loss weight 1
I0629 12:59:26.893198 26993 net.cpp:165] Memory required for data: 4537088796
I0629 12:59:26.893200 26993 layer_factory.hpp:77] Creating layer detection_accuracy_4_3x5
I0629 12:59:26.893211 26993 net.cpp:100] Creating Layer detection_accuracy_4_3x5
I0629 12:59:26.893216 26993 net.cpp:434] detection_accuracy_4_3x5 <- LFCN_4_3x5_LFCN_4_3x5_0_split_1
I0629 12:59:26.893221 26993 net.cpp:434] detection_accuracy_4_3x5 <- label_4_3x5_data_7_split_1
I0629 12:59:26.893236 26993 net.cpp:408] detection_accuracy_4_3x5 -> accuracy_4_3x5
I0629 12:59:26.893245 26993 net.cpp:408] detection_accuracy_4_3x5 -> boxiou_4_3x5
I0629 12:59:26.893293 26993 net.cpp:150] Setting up detection_accuracy_4_3x5
I0629 12:59:26.893299 26993 net.cpp:157] Top shape: 1 1 1 2 (2)
I0629 12:59:26.893303 26993 net.cpp:157] Top shape: 1 1 1 1 (1)
I0629 12:59:26.893306 26993 net.cpp:165] Memory required for data: 4537088808
I0629 12:59:26.893309 26993 layer_factory.hpp:77] Creating layer proposals
I0629 12:59:26.893318 26993 net.cpp:100] Creating Layer proposals
I0629 12:59:26.893321 26993 net.cpp:434] proposals <- LFCN_1_3x5_LFCN_1_3x5_0_split_2
I0629 12:59:26.893326 26993 net.cpp:434] proposals <- LFCN_1_5x7_LFCN_1_5x7_0_split_2
I0629 12:59:26.893332 26993 net.cpp:434] proposals <- LFCN_2_3x5_LFCN_2_3x5_0_split_2
I0629 12:59:26.893334 26993 net.cpp:434] proposals <- LFCN_2_5x7_LFCN_2_5x7_0_split_2
I0629 12:59:26.893338 26993 net.cpp:434] proposals <- LFCN_3_3x5_LFCN_3_3x5_0_split_2
I0629 12:59:26.893342 26993 net.cpp:434] proposals <- LFCN_3_5x7_LFCN_3_5x7_0_split_2
I0629 12:59:26.893345 26993 net.cpp:434] proposals <- LFCN_4_3x5_LFCN_4_3x5_0_split_2
I0629 12:59:26.893352 26993 net.cpp:408] proposals -> proposals
I0629 12:59:26.893383 26993 net.cpp:150] Setting up proposals
I0629 12:59:26.893388 26993 net.cpp:157] Top shape: 1 5 1 1 (5)
I0629 12:59:26.893389 26993 net.cpp:165] Memory required for data: 4537088828
I0629 12:59:26.893393 26993 layer_factory.hpp:77] Creating layer proposal_info
I0629 12:59:26.893400 26993 net.cpp:100] Creating Layer proposal_info
I0629 12:59:26.893404 26993 net.cpp:434] proposal_info <- proposals
I0629 12:59:26.893409 26993 net.cpp:434] proposal_info <- gt_boxes
I0629 12:59:26.893419 26993 net.cpp:408] proposal_info -> rois
I0629 12:59:26.893429 26993 net.cpp:408] proposal_info -> proposal_labels
I0629 12:59:26.893436 26993 net.cpp:408] proposal_info -> proposal_targets
I0629 12:59:26.893445 26993 net.cpp:408] proposal_info -> box_inside_weights
I0629 12:59:26.893455 26993 net.cpp:408] proposal_info -> box_outside_weights
I0629 12:59:26.893462 26993 net.cpp:408] proposal_info -> match_gt_boxes
I0629 12:59:26.893548 26993 net.cpp:150] Setting up proposal_info
I0629 12:59:26.893553 26993 net.cpp:157] Top shape: 128 5 1 1 (640)
I0629 12:59:26.893556 26993 net.cpp:157] Top shape: 128 1 1 1 (128)
I0629 12:59:26.893560 26993 net.cpp:157] Top shape: 128 12 1 1 (1536)
I0629 12:59:26.893563 26993 net.cpp:157] Top shape: 128 12 1 1 (1536)
I0629 12:59:26.893568 26993 net.cpp:157] Top shape: 128 12 1 1 (1536)
I0629 12:59:26.893571 26993 net.cpp:157] Top shape: 128 6 1 1 (768)
I0629 12:59:26.893573 26993 net.cpp:165] Memory required for data: 4537113404
I0629 12:59:26.893576 26993 layer_factory.hpp:77] Creating layer rois_proposal_info_0_split
I0629 12:59:26.893581 26993 net.cpp:100] Creating Layer rois_proposal_info_0_split
I0629 12:59:26.893584 26993 net.cpp:434] rois_proposal_info_0_split <- rois
I0629 12:59:26.893589 26993 net.cpp:408] rois_proposal_info_0_split -> rois_proposal_info_0_split_0
I0629 12:59:26.893596 26993 net.cpp:408] rois_proposal_info_0_split -> rois_proposal_info_0_split_1
I0629 12:59:26.893604 26993 net.cpp:408] rois_proposal_info_0_split -> rois_proposal_info_0_split_2
I0629 12:59:26.893649 26993 net.cpp:150] Setting up rois_proposal_info_0_split
I0629 12:59:26.893653 26993 net.cpp:157] Top shape: 128 5 1 1 (640)
I0629 12:59:26.893657 26993 net.cpp:157] Top shape: 128 5 1 1 (640)
I0629 12:59:26.893661 26993 net.cpp:157] Top shape: 128 5 1 1 (640)
I0629 12:59:26.893663 26993 net.cpp:165] Memory required for data: 4537121084
I0629 12:59:26.893666 26993 layer_factory.hpp:77] Creating layer proposal_labels_proposal_info_1_split
I0629 12:59:26.893671 26993 net.cpp:100] Creating Layer proposal_labels_proposal_info_1_split
I0629 12:59:26.893674 26993 net.cpp:434] proposal_labels_proposal_info_1_split <- proposal_labels
I0629 12:59:26.893679 26993 net.cpp:408] proposal_labels_proposal_info_1_split -> proposal_labels_proposal_info_1_split_0
I0629 12:59:26.893687 26993 net.cpp:408] proposal_labels_proposal_info_1_split -> proposal_labels_proposal_info_1_split_1
I0629 12:59:26.893721 26993 net.cpp:150] Setting up proposal_labels_proposal_info_1_split
I0629 12:59:26.893726 26993 net.cpp:157] Top shape: 128 1 1 1 (128)
I0629 12:59:26.893730 26993 net.cpp:157] Top shape: 128 1 1 1 (128)
I0629 12:59:26.893733 26993 net.cpp:165] Memory required for data: 4537122108
I0629 12:59:26.893735 26993 layer_factory.hpp:77] Creating layer conv4_3_2x
I0629 12:59:26.893743 26993 net.cpp:100] Creating Layer conv4_3_2x
I0629 12:59:26.893748 26993 net.cpp:434] conv4_3_2x <- conv4_3_relu4_3_0_split_2
I0629 12:59:26.893754 26993 net.cpp:408] conv4_3_2x -> conv4_3_2x
I0629 12:59:26.894146 26993 net.cpp:150] Setting up conv4_3_2x
I0629 12:59:26.894152 26993 net.cpp:157] Top shape: 4 512 144 192 (56623104)
I0629 12:59:26.894155 26993 net.cpp:165] Memory required for data: 4763614524
I0629 12:59:26.894160 26993 layer_factory.hpp:77] Creating layer conv4_3_2x_conv4_3_2x_0_split
I0629 12:59:26.894165 26993 net.cpp:100] Creating Layer conv4_3_2x_conv4_3_2x_0_split
I0629 12:59:26.894170 26993 net.cpp:434] conv4_3_2x_conv4_3_2x_0_split <- conv4_3_2x
I0629 12:59:26.894176 26993 net.cpp:408] conv4_3_2x_conv4_3_2x_0_split -> conv4_3_2x_conv4_3_2x_0_split_0
I0629 12:59:26.894182 26993 net.cpp:408] conv4_3_2x_conv4_3_2x_0_split -> conv4_3_2x_conv4_3_2x_0_split_1
I0629 12:59:26.894237 26993 net.cpp:150] Setting up conv4_3_2x_conv4_3_2x_0_split
I0629 12:59:26.894245 26993 net.cpp:157] Top shape: 4 512 144 192 (56623104)
I0629 12:59:26.894249 26993 net.cpp:157] Top shape: 4 512 144 192 (56623104)
I0629 12:59:26.894253 26993 net.cpp:165] Memory required for data: 5216599356
I0629 12:59:26.894255 26993 layer_factory.hpp:77] Creating layer roi_pool_org
I0629 12:59:26.894261 26993 net.cpp:100] Creating Layer roi_pool_org
I0629 12:59:26.894266 26993 net.cpp:434] roi_pool_org <- conv4_3_2x_conv4_3_2x_0_split_0
I0629 12:59:26.894271 26993 net.cpp:434] roi_pool_org <- rois_proposal_info_0_split_0
I0629 12:59:26.894276 26993 net.cpp:408] roi_pool_org -> roi_pool_org
I0629 12:59:26.894285 26993 roi_pooling_layer.cpp:33] Spatial scale: 0.25
I0629 12:59:26.894326 26993 net.cpp:150] Setting up roi_pool_org
I0629 12:59:26.894333 26993 net.cpp:157] Top shape: 128 512 7 5 (2293760)
I0629 12:59:26.894336 26993 net.cpp:165] Memory required for data: 5225774396
I0629 12:59:26.894340 26993 layer_factory.hpp:77] Creating layer roi_pool_ctx
I0629 12:59:26.894345 26993 net.cpp:100] Creating Layer roi_pool_ctx
I0629 12:59:26.894347 26993 net.cpp:434] roi_pool_ctx <- conv4_3_2x_conv4_3_2x_0_split_1
I0629 12:59:26.894351 26993 net.cpp:434] roi_pool_ctx <- rois_proposal_info_0_split_1
I0629 12:59:26.894357 26993 net.cpp:408] roi_pool_ctx -> roi_pool_ctx
I0629 12:59:26.894364 26993 roi_pooling_layer.cpp:33] Spatial scale: 0.25
I0629 12:59:26.894402 26993 net.cpp:150] Setting up roi_pool_ctx
I0629 12:59:26.894407 26993 net.cpp:157] Top shape: 128 512 7 5 (2293760)
I0629 12:59:26.894408 26993 net.cpp:165] Memory required for data: 5234949436
I0629 12:59:26.894412 26993 layer_factory.hpp:77] Creating layer roi_pool
I0629 12:59:26.894418 26993 net.cpp:100] Creating Layer roi_pool
I0629 12:59:26.894421 26993 net.cpp:434] roi_pool <- roi_pool_org
I0629 12:59:26.894425 26993 net.cpp:434] roi_pool <- roi_pool_ctx
I0629 12:59:26.894430 26993 net.cpp:408] roi_pool -> roi_pool
I0629 12:59:26.894456 26993 net.cpp:150] Setting up roi_pool
I0629 12:59:26.894461 26993 net.cpp:157] Top shape: 128 1024 7 5 (4587520)
I0629 12:59:26.894464 26993 net.cpp:165] Memory required for data: 5253299516
I0629 12:59:26.894466 26993 layer_factory.hpp:77] Creating layer roi_c1
I0629 12:59:26.894475 26993 net.cpp:100] Creating Layer roi_c1
I0629 12:59:26.894479 26993 net.cpp:434] roi_c1 <- roi_pool
I0629 12:59:26.894491 26993 net.cpp:408] roi_c1 -> roi_c1
I0629 12:59:26.932550 26993 net.cpp:150] Setting up roi_c1
I0629 12:59:26.932570 26993 net.cpp:157] Top shape: 128 512 5 3 (983040)
I0629 12:59:26.932574 26993 net.cpp:165] Memory required for data: 5257231676
I0629 12:59:26.932581 26993 layer_factory.hpp:77] Creating layer roi_c1_relu
I0629 12:59:26.932590 26993 net.cpp:100] Creating Layer roi_c1_relu
I0629 12:59:26.932595 26993 net.cpp:434] roi_c1_relu <- roi_c1
I0629 12:59:26.932601 26993 net.cpp:395] roi_c1_relu -> roi_c1 (in-place)
I0629 12:59:26.933356 26993 net.cpp:150] Setting up roi_c1_relu
I0629 12:59:26.933367 26993 net.cpp:157] Top shape: 128 512 5 3 (983040)
I0629 12:59:26.933370 26993 net.cpp:165] Memory required for data: 5261163836
I0629 12:59:26.933373 26993 layer_factory.hpp:77] Creating layer fc6
I0629 12:59:26.933382 26993 net.cpp:100] Creating Layer fc6
I0629 12:59:26.933387 26993 net.cpp:434] fc6 <- roi_c1
I0629 12:59:26.933396 26993 net.cpp:408] fc6 -> fc6
I0629 12:59:27.055012 26993 net.cpp:150] Setting up fc6
I0629 12:59:27.055034 26993 net.cpp:157] Top shape: 128 2048 (262144)
I0629 12:59:27.055037 26993 net.cpp:165] Memory required for data: 5262212412
I0629 12:59:27.055047 26993 layer_factory.hpp:77] Creating layer relu6
I0629 12:59:27.055055 26993 net.cpp:100] Creating Layer relu6
I0629 12:59:27.055060 26993 net.cpp:434] relu6 <- fc6
I0629 12:59:27.055068 26993 net.cpp:395] relu6 -> fc6 (in-place)
I0629 12:59:27.055420 26993 net.cpp:150] Setting up relu6
I0629 12:59:27.055429 26993 net.cpp:157] Top shape: 128 2048 (262144)
I0629 12:59:27.055431 26993 net.cpp:165] Memory required for data: 5263260988
I0629 12:59:27.055435 26993 layer_factory.hpp:77] Creating layer drop6
I0629 12:59:27.055444 26993 net.cpp:100] Creating Layer drop6
I0629 12:59:27.055447 26993 net.cpp:434] drop6 <- fc6
I0629 12:59:27.055454 26993 net.cpp:395] drop6 -> fc6 (in-place)
I0629 12:59:27.055485 26993 net.cpp:150] Setting up drop6
I0629 12:59:27.055490 26993 net.cpp:157] Top shape: 128 2048 (262144)
I0629 12:59:27.055492 26993 net.cpp:165] Memory required for data: 5264309564
I0629 12:59:27.055495 26993 layer_factory.hpp:77] Creating layer fc6_drop6_0_split
I0629 12:59:27.055501 26993 net.cpp:100] Creating Layer fc6_drop6_0_split
I0629 12:59:27.055505 26993 net.cpp:434] fc6_drop6_0_split <- fc6
I0629 12:59:27.055510 26993 net.cpp:408] fc6_drop6_0_split -> fc6_drop6_0_split_0
I0629 12:59:27.055521 26993 net.cpp:408] fc6_drop6_0_split -> fc6_drop6_0_split_1
I0629 12:59:27.055558 26993 net.cpp:150] Setting up fc6_drop6_0_split
I0629 12:59:27.055563 26993 net.cpp:157] Top shape: 128 2048 (262144)
I0629 12:59:27.055567 26993 net.cpp:157] Top shape: 128 2048 (262144)
I0629 12:59:27.055570 26993 net.cpp:165] Memory required for data: 5266406716
I0629 12:59:27.055572 26993 layer_factory.hpp:77] Creating layer cls_pred
I0629 12:59:27.055580 26993 net.cpp:100] Creating Layer cls_pred
I0629 12:59:27.055584 26993 net.cpp:434] cls_pred <- fc6_drop6_0_split_0
I0629 12:59:27.055591 26993 net.cpp:408] cls_pred -> cls_pred
I0629 12:59:27.055763 26993 net.cpp:150] Setting up cls_pred
I0629 12:59:27.055770 26993 net.cpp:157] Top shape: 128 3 (384)
I0629 12:59:27.055773 26993 net.cpp:165] Memory required for data: 5266408252
I0629 12:59:27.055779 26993 layer_factory.hpp:77] Creating layer cls_pred_cls_pred_0_split
I0629 12:59:27.055788 26993 net.cpp:100] Creating Layer cls_pred_cls_pred_0_split
I0629 12:59:27.055791 26993 net.cpp:434] cls_pred_cls_pred_0_split <- cls_pred
I0629 12:59:27.055797 26993 net.cpp:408] cls_pred_cls_pred_0_split -> cls_pred_cls_pred_0_split_0
I0629 12:59:27.055805 26993 net.cpp:408] cls_pred_cls_pred_0_split -> cls_pred_cls_pred_0_split_1
I0629 12:59:27.055847 26993 net.cpp:150] Setting up cls_pred_cls_pred_0_split
I0629 12:59:27.055852 26993 net.cpp:157] Top shape: 128 3 (384)
I0629 12:59:27.055856 26993 net.cpp:157] Top shape: 128 3 (384)
I0629 12:59:27.055858 26993 net.cpp:165] Memory required for data: 5266411324
I0629 12:59:27.055861 26993 layer_factory.hpp:77] Creating layer bbox_pred
I0629 12:59:27.055867 26993 net.cpp:100] Creating Layer bbox_pred
I0629 12:59:27.055871 26993 net.cpp:434] bbox_pred <- fc6_drop6_0_split_1
I0629 12:59:27.055876 26993 net.cpp:408] bbox_pred -> bbox_pred
I0629 12:59:27.056169 26993 net.cpp:150] Setting up bbox_pred
I0629 12:59:27.056175 26993 net.cpp:157] Top shape: 128 12 (1536)
I0629 12:59:27.056179 26993 net.cpp:165] Memory required for data: 5266417468
I0629 12:59:27.056185 26993 layer_factory.hpp:77] Creating layer bbox_pred_bbox_pred_0_split
I0629 12:59:27.056190 26993 net.cpp:100] Creating Layer bbox_pred_bbox_pred_0_split
I0629 12:59:27.056193 26993 net.cpp:434] bbox_pred_bbox_pred_0_split <- bbox_pred
I0629 12:59:27.056197 26993 net.cpp:408] bbox_pred_bbox_pred_0_split -> bbox_pred_bbox_pred_0_split_0
I0629 12:59:27.056205 26993 net.cpp:408] bbox_pred_bbox_pred_0_split -> bbox_pred_bbox_pred_0_split_1
I0629 12:59:27.056237 26993 net.cpp:150] Setting up bbox_pred_bbox_pred_0_split
I0629 12:59:27.056241 26993 net.cpp:157] Top shape: 128 12 (1536)
I0629 12:59:27.056246 26993 net.cpp:157] Top shape: 128 12 (1536)
I0629 12:59:27.056247 26993 net.cpp:165] Memory required for data: 5266429756
I0629 12:59:27.056251 26993 layer_factory.hpp:77] Creating layer loss_cls
I0629 12:59:27.056255 26993 net.cpp:100] Creating Layer loss_cls
I0629 12:59:27.056259 26993 net.cpp:434] loss_cls <- cls_pred_cls_pred_0_split_0
I0629 12:59:27.056264 26993 net.cpp:434] loss_cls <- proposal_labels_proposal_info_1_split_0
…
I0629 12:59:27.091792 26993 image_gt_data_layer.cpp:241] output label size 3 : 2,6,36,48
I0629 12:59:27.092005 26993 image_gt_data_layer.cpp:241] output label size 4 : 2,6,18,24
I0629 12:59:27.092170 26993 image_gt_data_layer.cpp:241] output label size 5 : 2,6,18,24
I0629 12:59:27.092336 26993 image_gt_data_layer.cpp:241] output label size 6 : 2,6,9,12
I0629 12:59:27.092505 26993 image_gt_data_layer.cpp:256] output gt boxes size: 1,7,1,1
I0629 12:59:27.092520 26993 image_gt_data_layer.cpp:265]  --> has_mean_values_ = 1
I0629 12:59:27.117538 26993 net.cpp:150] Setting up data
I0629 12:59:27.117558 26993 net.cpp:157] Top shape: 2 4 576 768 (3538944)
I0629 12:59:27.117563 26993 net.cpp:157] Top shape: 2 6 72 96 (82944)
I0629 12:59:27.117568 26993 net.cpp:157] Top shape: 2 6 72 96 (82944)
I0629 12:59:27.117570 26993 net.cpp:157] Top shape: 2 6 36 48 (20736)
I0629 12:59:27.117574 26993 net.cpp:157] Top shape: 2 6 36 48 (20736)
I0629 12:59:27.117578 26993 net.cpp:157] Top shape: 2 6 18 24 (5184)
I0629 12:59:27.117581 26993 net.cpp:157] Top shape: 2 6 18 24 (5184)
I0629 12:59:27.117585 26993 net.cpp:157] Top shape: 2 6 9 12 (1296)
I0629 12:59:27.117589 26993 net.cpp:157] Top shape: 1 7 1 1 (7)
I0629 12:59:27.117592 26993 net.cpp:165] Memory required for data: 15031900
I0629 12:59:27.117599 26993 layer_factory.hpp:77] Creating layer label_1_3x5_data_1_split
I0629 12:59:27.117614 26993 net.cpp:100] Creating Layer label_1_3x5_data_1_split
I0629 12:59:27.117619 26993 net.cpp:434] label_1_3x5_data_1_split <- label_1_3x5
I0629 12:59:27.117626 26993 net.cpp:408] label_1_3x5_data_1_split -> label_1_3x5_data_1_split_0
I0629 12:59:27.117640 26993 net.cpp:408] label_1_3x5_data_1_split -> label_1_3x5_data_1_split_1
I0629 12:59:27.117755 26993 net.cpp:150] Setting up label_1_3x5_data_1_split
I0629 12:59:27.117765 26993 net.cpp:157] Top shape: 2 6 72 96 (82944)
I0629 12:59:27.117769 26993 net.cpp:157] Top shape: 2 6 72 96 (82944)
I0629 12:59:27.117772 26993 net.cpp:165] Memory required for data: 15695452
I0629 12:59:27.117776 26993 layer_factory.hpp:77] Creating layer label_1_5x7_data_2_split
I0629 12:59:27.117784 26993 net.cpp:100] Creating Layer label_1_5x7_data_2_split
I0629 12:59:27.117791 26993 net.cpp:434] label_1_5x7_data_2_split <- label_1_5x7
I0629 12:59:27.117797 26993 net.cpp:408] label_1_5x7_data_2_split -> label_1_5x7_data_2_split_0
I0629 12:59:27.117806 26993 net.cpp:408] label_1_5x7_data_2_split -> label_1_5x7_data_2_split_1
I0629 12:59:27.117846 26993 net.cpp:150] Setting up label_1_5x7_data_2_split
I0629 12:59:27.117851 26993 net.cpp:157] Top shape: 2 6 72 96 (82944)
I0629 12:59:27.117856 26993 net.cpp:157] Top shape: 2 6 72 96 (82944)
I0629 12:59:27.117858 26993 net.cpp:165] Memory required for data: 16359004
I0629 12:59:27.117861 26993 layer_factory.hpp:77] Creating layer label_2_3x5_data_3_split
I0629 12:59:27.117867 26993 net.cpp:100] Creating Layer label_2_3x5_data_3_split
I0629 12:59:27.117871 26993 net.cpp:434] label_2_3x5_data_3_split <- label_2_3x5
I0629 12:59:27.117877 26993 net.cpp:408] label_2_3x5_data_3_split -> label_2_3x5_data_3_split_0
I0629 12:59:27.117884 26993 net.cpp:408] label_2_3x5_data_3_split -> label_2_3x5_data_3_split_1
I0629 12:59:27.117920 26993 net.cpp:150] Setting up label_2_3x5_data_3_split
I0629 12:59:27.117925 26993 net.cpp:157] Top shape: 2 6 36 48 (20736)
I0629 12:59:27.117929 26993 net.cpp:157] Top shape: 2 6 36 48 (20736)
I0629 12:59:27.117931 26993 net.cpp:165] Memory required for data: 16524892
I0629 12:59:27.117934 26993 layer_factory.hpp:77] Creating layer label_2_5x7_data_4_split
I0629 12:59:27.117940 26993 net.cpp:100] Creating Layer label_2_5x7_data_4_split
I0629 12:59:27.117944 26993 net.cpp:434] label_2_5x7_data_4_split <- label_2_5x7
I0629 12:59:27.117949 26993 net.cpp:408] label_2_5x7_data_4_split -> label_2_5x7_data_4_split_0
I0629 12:59:27.117957 26993 net.cpp:408] label_2_5x7_data_4_split -> label_2_5x7_data_4_split_1
I0629 12:59:27.118005 26993 net.cpp:150] Setting up label_2_5x7_data_4_split
I0629 12:59:27.118014 26993 net.cpp:157] Top shape: 2 6 36 48 (20736)
I0629 12:59:27.118018 26993 net.cpp:157] Top shape: 2 6 36 48 (20736)
I0629 12:59:27.118021 26993 net.cpp:165] Memory required for data: 16690780
I0629 12:59:27.118023 26993 layer_factory.hpp:77] Creating layer label_3_3x5_data_5_split
I0629 12:59:27.118028 26993 net.cpp:100] Creating Layer label_3_3x5_data_5_split
I0629 12:59:27.118031 26993 net.cpp:434] label_3_3x5_data_5_split <- label_3_3x5
I0629 12:59:27.118036 26993 net.cpp:408] label_3_3x5_data_5_split -> label_3_3x5_data_5_split_0
I0629 12:59:27.118041 26993 net.cpp:408] label_3_3x5_data_5_split -> label_3_3x5_data_5_split_1
I0629 12:59:27.118137 26993 net.cpp:150] Setting up label_3_3x5_data_5_split
I0629 12:59:27.118144 26993 net.cpp:157] Top shape: 2 6 18 24 (5184)
I0629 12:59:27.118149 26993 net.cpp:157] Top shape: 2 6 18 24 (5184)
I0629 12:59:27.118150 26993 net.cpp:165] Memory required for data: 16732252
I0629 12:59:27.118155 26993 layer_factory.hpp:77] Creating layer label_3_5x7_data_6_split
I0629 12:59:27.118160 26993 net.cpp:100] Creating Layer label_3_5x7_data_6_split
I0629 12:59:27.118162 26993 net.cpp:434] label_3_5x7_data_6_split <- label_3_5x7
I0629 12:59:27.118171 26993 net.cpp:408] label_3_5x7_data_6_split -> label_3_5x7_data_6_split_0
I0629 12:59:27.118178 26993 net.cpp:408] label_3_5x7_data_6_split -> label_3_5x7_data_6_split_1
I0629 12:59:27.119328 26993 net.cpp:150] Setting up label_3_5x7_data_6_split
I0629 12:59:27.119339 26993 net.cpp:157] Top shape: 2 6 18 24 (5184)
I0629 12:59:27.119343 26993 net.cpp:157] Top shape: 2 6 18 24 (5184)
I0629 12:59:27.119346 26993 net.cpp:165] Memory required for data: 16773724
I0629 12:59:27.119350 26993 layer_factory.hpp:77] Creating layer label_4_3x5_data_7_split
I0629 12:59:27.119359 26993 net.cpp:100] Creating Layer label_4_3x5_data_7_split
I0629 12:59:27.119370 26993 net.cpp:434] label_4_3x5_data_7_split <- label_4_3x5
I0629 12:59:27.119379 26993 net.cpp:408] label_4_3x5_data_7_split -> label_4_3x5_data_7_split_0
I0629 12:59:27.119388 26993 net.cpp:408] label_4_3x5_data_7_split -> label_4_3x5_data_7_split_1
I0629 12:59:27.119482 26993 net.cpp:150] Setting up label_4_3x5_data_7_split
I0629 12:59:27.119491 26993 net.cpp:157] Top shape: 2 6 9 12 (1296)
I0629 12:59:27.119494 26993 net.cpp:157] Top shape: 2 6 9 12 (1296)
I0629 12:59:27.119498 26993 net.cpp:165] Memory required for data: 16784092
I0629 12:59:27.119501 26993 layer_factory.hpp:77] Creating layer conv1_1
I0629 12:59:27.119525 26993 net.cpp:100] Creating Layer conv1_1
I0629 12:59:27.119531 26993 net.cpp:434] conv1_1 <- data
I0629 12:59:27.119540 26993 net.cpp:408] conv1_1 -> conv1_1
I0629 12:59:27.123746 26993 net.cpp:150] Setting up conv1_1
I0629 12:59:27.123767 26993 net.cpp:157] Top shape: 2 64 576 768 (56623104)
I0629 12:59:27.123769 26993 net.cpp:165] Memory required for data: 243276508
I0629 12:59:27.123786 26993 layer_factory.hpp:77] Creating layer relu1_1
I0629 12:59:27.123795 26993 net.cpp:100] Creating Layer relu1_1
I0629 12:59:27.123801 26993 net.cpp:434] relu1_1 <- conv1_1
I0629 12:59:27.123808 26993 net.cpp:395] relu1_1 -> conv1_1 (in-place)
I0629 12:59:27.124233 26993 net.cpp:150] Setting up relu1_1
I0629 12:59:27.124241 26993 net.cpp:157] Top shape: 2 64 576 768 (56623104)
I0629 12:59:27.124243 26993 net.cpp:165] Memory required for data: 469768924
I0629 12:59:27.124245 26993 layer_factory.hpp:77] Creating layer conv1_2
I0629 12:59:27.124255 26993 net.cpp:100] Creating Layer conv1_2
I0629 12:59:27.124260 26993 net.cpp:434] conv1_2 <- conv1_1
I0629 12:59:27.124269 26993 net.cpp:408] conv1_2 -> conv1_2
I0629 12:59:27.127400 26993 net.cpp:150] Setting up conv1_2
I0629 12:59:27.127423 26993 net.cpp:157] Top shape: 2 64 576 768 (56623104)
I0629 12:59:27.127425 26993 net.cpp:165] Memory required for data: 696261340
I0629 12:59:27.127440 26993 layer_factory.hpp:77] Creating layer relu1_2
I0629 12:59:27.127452 26993 net.cpp:100] Creating Layer relu1_2
I0629 12:59:27.127456 26993 net.cpp:434] relu1_2 <- conv1_2
I0629 12:59:27.127463 26993 net.cpp:395] relu1_2 -> conv1_2 (in-place)
I0629 12:59:27.127921 26993 net.cpp:150] Setting up relu1_2
I0629 12:59:27.127929 26993 net.cpp:157] Top shape: 2 64 576 768 (56623104)
I0629 12:59:27.127931 26993 net.cpp:165] Memory required for data: 922753756
I0629 12:59:27.127934 26993 layer_factory.hpp:77] Creating layer pool1
I0629 12:59:27.127941 26993 net.cpp:100] Creating Layer pool1
I0629 12:59:27.127945 26993 net.cpp:434] pool1 <- conv1_2
I0629 12:59:27.127951 26993 net.cpp:408] pool1 -> pool1
I0629 12:59:27.128018 26993 net.cpp:150] Setting up pool1
I0629 12:59:27.128024 26993 net.cpp:157] Top shape: 2 64 288 384 (14155776)
I0629 12:59:27.128027 26993 net.cpp:165] Memory required for data: 979376860
I0629 12:59:27.128031 26993 layer_factory.hpp:77] Creating layer conv2_1
I0629 12:59:27.128039 26993 net.cpp:100] Creating Layer conv2_1
I0629 12:59:27.128043 26993 net.cpp:434] conv2_1 <- pool1
I0629 12:59:27.128049 26993 net.cpp:408] conv2_1 -> conv2_1
I0629 12:59:27.130334 26993 net.cpp:150] Setting up conv2_1
I0629 12:59:27.130353 26993 net.cpp:157] Top shape: 2 128 288 384 (28311552)
I0629 12:59:27.130355 26993 net.cpp:165] Memory required for data: 1092623068
I0629 12:59:27.130367 26993 layer_factory.hpp:77] Creating layer relu2_1
I0629 12:59:27.130378 26993 net.cpp:100] Creating Layer relu2_1
I0629 12:59:27.130381 26993 net.cpp:434] relu2_1 <- conv2_1
I0629 12:59:27.130388 26993 net.cpp:395] relu2_1 -> conv2_1 (in-place)
I0629 12:59:27.131239 26993 net.cpp:150] Setting up relu2_1
I0629 12:59:27.131250 26993 net.cpp:157] Top shape: 2 128 288 384 (28311552)
I0629 12:59:27.131253 26993 net.cpp:165] Memory required for data: 1205869276
I0629 12:59:27.131255 26993 layer_factory.hpp:77] Creating layer conv2_2
I0629 12:59:27.131265 26993 net.cpp:100] Creating Layer conv2_2
I0629 12:59:27.131269 26993 net.cpp:434] conv2_2 <- conv2_1
I0629 12:59:27.131276 26993 net.cpp:408] conv2_2 -> conv2_2
I0629 12:59:27.136895 26993 net.cpp:150] Setting up conv2_2
I0629 12:59:27.136930 26993 net.cpp:157] Top shape: 2 128 288 384 (28311552)
I0629 12:59:27.136935 26993 net.cpp:165] Memory required for data: 1319115484
I0629 12:59:27.136951 26993 layer_factory.hpp:77] Creating layer relu2_2
I0629 12:59:27.136967 26993 net.cpp:100] Creating Layer relu2_2
I0629 12:59:27.136973 26993 net.cpp:434] relu2_2 <- conv2_2
I0629 12:59:27.136981 26993 net.cpp:395] relu2_2 -> conv2_2 (in-place)
I0629 12:59:27.137513 26993 net.cpp:150] Setting up relu2_2
I0629 12:59:27.137531 26993 net.cpp:157] Top shape: 2 128 288 384 (28311552)
I0629 12:59:27.137533 26993 net.cpp:165] Memory required for data: 1432361692
I0629 12:59:27.137539 26993 layer_factory.hpp:77] Creating layer pool2
I0629 12:59:27.137549 26993 net.cpp:100] Creating Layer pool2
I0629 12:59:27.137553 26993 net.cpp:434] pool2 <- conv2_2
I0629 12:59:27.137562 26993 net.cpp:408] pool2 -> pool2
I0629 12:59:27.137634 26993 net.cpp:150] Setting up pool2
I0629 12:59:27.137643 26993 net.cpp:157] Top shape: 2 128 144 192 (7077888)
I0629 12:59:27.137647 26993 net.cpp:165] Memory required for data: 1460673244
I0629 12:59:27.137650 26993 layer_factory.hpp:77] Creating layer conv3_1
I0629 12:59:27.137661 26993 net.cpp:100] Creating Layer conv3_1
I0629 12:59:27.137665 26993 net.cpp:434] conv3_1 <- pool2
I0629 12:59:27.137671 26993 net.cpp:408] conv3_1 -> conv3_1
I0629 12:59:27.140733 26993 net.cpp:150] Setting up conv3_1
I0629 12:59:27.140751 26993 net.cpp:157] Top shape: 2 256 144 192 (14155776)
I0629 12:59:27.140754 26993 net.cpp:165] Memory required for data: 1517296348
I0629 12:59:27.140770 26993 layer_factory.hpp:77] Creating layer relu3_1
I0629 12:59:27.140780 26993 net.cpp:100] Creating Layer relu3_1
I0629 12:59:27.140790 26993 net.cpp:434] relu3_1 <- conv3_1
I0629 12:59:27.140797 26993 net.cpp:395] relu3_1 -> conv3_1 (in-place)
I0629 12:59:27.141093 26993 net.cpp:150] Setting up relu3_1
I0629 12:59:27.141105 26993 net.cpp:157] Top shape: 2 256 144 192 (14155776)
I0629 12:59:27.141109 26993 net.cpp:165] Memory required for data: 1573919452
I0629 12:59:27.141113 26993 layer_factory.hpp:77] Creating layer conv3_2
I0629 12:59:27.141122 26993 net.cpp:100] Creating Layer conv3_2
I0629 12:59:27.141125 26993 net.cpp:434] conv3_2 <- conv3_1
I0629 12:59:27.141130 26993 net.cpp:408] conv3_2 -> conv3_2
I0629 12:59:27.144523 26993 net.cpp:150] Setting up conv3_2
I0629 12:59:27.144546 26993 net.cpp:157] Top shape: 2 256 144 192 (14155776)
I0629 12:59:27.144549 26993 net.cpp:165] Memory required for data: 1630542556
I0629 12:59:27.144558 26993 layer_factory.hpp:77] Creating layer relu3_2
I0629 12:59:27.144569 26993 net.cpp:100] Creating Layer relu3_2
I0629 12:59:27.144573 26993 net.cpp:434] relu3_2 <- conv3_2
I0629 12:59:27.144582 26993 net.cpp:395] relu3_2 -> conv3_2 (in-place)
I0629 12:59:27.145354 26993 net.cpp:150] Setting up relu3_2
I0629 12:59:27.145365 26993 net.cpp:157] Top shape: 2 256 144 192 (14155776)
I0629 12:59:27.145368 26993 net.cpp:165] Memory required for data: 1687165660
I0629 12:59:27.145372 26993 layer_factory.hpp:77] Creating layer conv3_3
I0629 12:59:27.145381 26993 net.cpp:100] Creating Layer conv3_3
I0629 12:59:27.145386 26993 net.cpp:434] conv3_3 <- conv3_2
I0629 12:59:27.145395 26993 net.cpp:408] conv3_3 -> conv3_3
I0629 12:59:27.148782 26993 net.cpp:150] Setting up conv3_3
I0629 12:59:27.148804 26993 net.cpp:157] Top shape: 2 256 144 192 (14155776)
I0629 12:59:27.148808 26993 net.cpp:165] Memory required for data: 1743788764
I0629 12:59:27.148816 26993 layer_factory.hpp:77] Creating layer relu3_3
I0629 12:59:27.148826 26993 net.cpp:100] Creating Layer relu3_3
I0629 12:59:27.148831 26993 net.cpp:434] relu3_3 <- conv3_3
I0629 12:59:27.148838 26993 net.cpp:395] relu3_3 -> conv3_3 (in-place)
I0629 12:59:27.149631 26993 net.cpp:150] Setting up relu3_3
I0629 12:59:27.149644 26993 net.cpp:157] Top shape: 2 256 144 192 (14155776)
I0629 12:59:27.149647 26993 net.cpp:165] Memory required for data: 1800411868
I0629 12:59:27.149650 26993 layer_factory.hpp:77] Creating layer pool3
I0629 12:59:27.149659 26993 net.cpp:100] Creating Layer pool3
I0629 12:59:27.149663 26993 net.cpp:434] pool3 <- conv3_3
I0629 12:59:27.149669 26993 net.cpp:408] pool3 -> pool3
I0629 12:59:27.149734 26993 net.cpp:150] Setting up pool3
I0629 12:59:27.149739 26993 net.cpp:157] Top shape: 2 256 72 96 (3538944)
I0629 12:59:27.149742 26993 net.cpp:165] Memory required for data: 1814567644
I0629 12:59:27.149745 26993 layer_factory.hpp:77] Creating layer conv4_1
I0629 12:59:27.149754 26993 net.cpp:100] Creating Layer conv4_1
I0629 12:59:27.149757 26993 net.cpp:434] conv4_1 <- pool3
I0629 12:59:27.149762 26993 net.cpp:408] conv4_1 -> conv4_1
I0629 12:59:27.154579 26993 net.cpp:150] Setting up conv4_1
I0629 12:59:27.154603 26993 net.cpp:157] Top shape: 2 512 72 96 (7077888)
I0629 12:59:27.154605 26993 net.cpp:165] Memory required for data: 1842879196
I0629 12:59:27.154615 26993 layer_factory.hpp:77] Creating layer relu4_1
I0629 12:59:27.154624 26993 net.cpp:100] Creating Layer relu4_1
I0629 12:59:27.154628 26993 net.cpp:434] relu4_1 <- conv4_1
I0629 12:59:27.154636 26993 net.cpp:395] relu4_1 -> conv4_1 (in-place)
I0629 12:59:27.155036 26993 net.cpp:150] Setting up relu4_1
I0629 12:59:27.155043 26993 net.cpp:157] Top shape: 2 512 72 96 (7077888)
I0629 12:59:27.155046 26993 net.cpp:165] Memory required for data: 1871190748
I0629 12:59:27.155050 26993 layer_factory.hpp:77] Creating layer conv4_2
I0629 12:59:27.155058 26993 net.cpp:100] Creating Layer conv4_2
I0629 12:59:27.155061 26993 net.cpp:434] conv4_2 <- conv4_1
I0629 12:59:27.155068 26993 net.cpp:408] conv4_2 -> conv4_2
I0629 12:59:27.165762 26993 net.cpp:150] Setting up conv4_2
I0629 12:59:27.165791 26993 net.cpp:157] Top shape: 2 512 72 96 (7077888)
I0629 12:59:27.165793 26993 net.cpp:165] Memory required for data: 1899502300
I0629 12:59:27.165809 26993 layer_factory.hpp:77] Creating layer relu4_2
I0629 12:59:27.165824 26993 net.cpp:100] Creating Layer relu4_2
I0629 12:59:27.165830 26993 net.cpp:434] relu4_2 <- conv4_2
I0629 12:59:27.165838 26993 net.cpp:395] relu4_2 -> conv4_2 (in-place)
I0629 12:59:27.166290 26993 net.cpp:150] Setting up relu4_2
I0629 12:59:27.166298 26993 net.cpp:157] Top shape: 2 512 72 96 (7077888)
I0629 12:59:27.166301 26993 net.cpp:165] Memory required for data: 1927813852
I0629 12:59:27.166306 26993 layer_factory.hpp:77] Creating layer conv4_3
I0629 12:59:27.166316 26993 net.cpp:100] Creating Layer conv4_3
I0629 12:59:27.166319 26993 net.cpp:434] conv4_3 <- conv4_2
I0629 12:59:27.166326 26993 net.cpp:408] conv4_3 -> conv4_3
I0629 12:59:27.172994 26993 net.cpp:150] Setting up conv4_3
I0629 12:59:27.173014 26993 net.cpp:157] Top shape: 2 512 72 96 (7077888)
I0629 12:59:27.173017 26993 net.cpp:165] Memory required for data: 1956125404
I0629 12:59:27.173027 26993 layer_factory.hpp:77] Creating layer relu4_3
I0629 12:59:27.173036 26993 net.cpp:100] Creating Layer relu4_3
I0629 12:59:27.173041 26993 net.cpp:434] relu4_3 <- conv4_3
I0629 12:59:27.173048 26993 net.cpp:395] relu4_3 -> conv4_3 (in-place)
I0629 12:59:27.173859 26993 net.cpp:150] Setting up relu4_3
I0629 12:59:27.173874 26993 net.cpp:157] Top shape: 2 512 72 96 (7077888)
I0629 12:59:27.173877 26993 net.cpp:165] Memory required for data: 1984436956
I0629 12:59:27.173882 26993 layer_factory.hpp:77] Creating layer conv4_3_relu4_3_0_split
I0629 12:59:27.173888 26993 net.cpp:100] Creating Layer conv4_3_relu4_3_0_split
I0629 12:59:27.173892 26993 net.cpp:434] conv4_3_relu4_3_0_split <- conv4_3
I0629 12:59:27.173902 26993 net.cpp:408] conv4_3_relu4_3_0_split -> conv4_3_relu4_3_0_split_0
I0629 12:59:27.173912 26993 net.cpp:408] conv4_3_relu4_3_0_split -> conv4_3_relu4_3_0_split_1
I0629 12:59:27.173919 26993 net.cpp:408] conv4_3_relu4_3_0_split -> conv4_3_relu4_3_0_split_2
I0629 12:59:27.173987 26993 net.cpp:150] Setting up conv4_3_relu4_3_0_split
I0629 12:59:27.173993 26993 net.cpp:157] Top shape: 2 512 72 96 (7077888)
I0629 12:59:27.173997 26993 net.cpp:157] Top shape: 2 512 72 96 (7077888)
I0629 12:59:27.174000 26993 net.cpp:157] Top shape: 2 512 72 96 (7077888)
I0629 12:59:27.174003 26993 net.cpp:165] Memory required for data: 2069371612
I0629 12:59:27.174006 26993 layer_factory.hpp:77] Creating layer loss1_conv1
I0629 12:59:27.174023 26993 net.cpp:100] Creating Layer loss1_conv1
I0629 12:59:27.174027 26993 net.cpp:434] loss1_conv1 <- conv4_3_relu4_3_0_split_0
I0629 12:59:27.174033 26993 net.cpp:408] loss1_conv1 -> loss1_conv1
I0629 12:59:27.195652 26993 net.cpp:150] Setting up loss1_conv1
I0629 12:59:27.195669 26993 net.cpp:157] Top shape: 2 512 72 96 (7077888)
I0629 12:59:27.195672 26993 net.cpp:165] Memory required for data: 2097683164
I0629 12:59:27.195680 26993 layer_factory.hpp:77] Creating layer loss_relu1
I0629 12:59:27.195689 26993 net.cpp:100] Creating Layer loss_relu1
I0629 12:59:27.195694 26993 net.cpp:434] loss_relu1 <- loss1_conv1
I0629 12:59:27.195701 26993 net.cpp:395] loss_relu1 -> loss1_conv1 (in-place)
I0629 12:59:27.195976 26993 net.cpp:150] Setting up loss_relu1
I0629 12:59:27.195986 26993 net.cpp:157] Top shape: 2 512 72 96 (7077888)
I0629 12:59:27.195991 26993 net.cpp:165] Memory required for data: 2125994716
I0629 12:59:27.195992 26993 layer_factory.hpp:77] Creating layer loss1_conv1_loss_relu1_0_split
I0629 12:59:27.195999 26993 net.cpp:100] Creating Layer loss1_conv1_loss_relu1_0_split
I0629 12:59:27.196002 26993 net.cpp:434] loss1_conv1_loss_relu1_0_split <- loss1_conv1
I0629 12:59:27.196005 26993 net.cpp:408] loss1_conv1_loss_relu1_0_split -> loss1_conv1_loss_relu1_0_split_0
I0629 12:59:27.196010 26993 net.cpp:408] loss1_conv1_loss_relu1_0_split -> loss1_conv1_loss_relu1_0_split_1
I0629 12:59:27.196074 26993 net.cpp:150] Setting up loss1_conv1_loss_relu1_0_split
I0629 12:59:27.196081 26993 net.cpp:157] Top shape: 2 512 72 96 (7077888)
I0629 12:59:27.196085 26993 net.cpp:157] Top shape: 2 512 72 96 (7077888)
I0629 12:59:27.196089 26993 net.cpp:165] Memory required for data: 2182617820
I0629 12:59:27.196091 26993 layer_factory.hpp:77] Creating layer LFCN_1_3x5
I0629 12:59:27.196100 26993 net.cpp:100] Creating Layer LFCN_1_3x5
I0629 12:59:27.196105 26993 net.cpp:434] LFCN_1_3x5 <- loss1_conv1_loss_relu1_0_split_0
I0629 12:59:27.196111 26993 net.cpp:408] LFCN_1_3x5 -> LFCN_1_3x5
I0629 12:59:27.198783 26993 net.cpp:150] Setting up LFCN_1_3x5
I0629 12:59:27.198799 26993 net.cpp:157] Top shape: 2 7 72 96 (96768)
I0629 12:59:27.198801 26993 net.cpp:165] Memory required for data: 2183004892
I0629 12:59:27.198808 26993 layer_factory.hpp:77] Creating layer LFCN_1_3x5_LFCN_1_3x5_0_split
I0629 12:59:27.198819 26993 net.cpp:100] Creating Layer LFCN_1_3x5_LFCN_1_3x5_0_split
I0629 12:59:27.198824 26993 net.cpp:434] LFCN_1_3x5_LFCN_1_3x5_0_split <- LFCN_1_3x5
I0629 12:59:27.198830 26993 net.cpp:408] LFCN_1_3x5_LFCN_1_3x5_0_split -> LFCN_1_3x5_LFCN_1_3x5_0_split_0
I0629 12:59:27.198846 26993 net.cpp:408] LFCN_1_3x5_LFCN_1_3x5_0_split -> LFCN_1_3x5_LFCN_1_3x5_0_split_1
I0629 12:59:27.198853 26993 net.cpp:408] LFCN_1_3x5_LFCN_1_3x5_0_split -> LFCN_1_3x5_LFCN_1_3x5_0_split_2
I0629 12:59:27.198928 26993 net.cpp:150] Setting up LFCN_1_3x5_LFCN_1_3x5_0_split
I0629 12:59:27.198936 26993 net.cpp:157] Top shape: 2 7 72 96 (96768)
I0629 12:59:27.198940 26993 net.cpp:157] Top shape: 2 7 72 96 (96768)
I0629 12:59:27.198945 26993 net.cpp:157] Top shape: 2 7 72 96 (96768)
I0629 12:59:27.198946 26993 net.cpp:165] Memory required for data: 2184166108
I0629 12:59:27.198949 26993 layer_factory.hpp:77] Creating layer detection_loss_1_3x5
I0629 12:59:27.198956 26993 net.cpp:100] Creating Layer detection_loss_1_3x5
I0629 12:59:27.198963 26993 net.cpp:434] detection_loss_1_3x5 <- LFCN_1_3x5_LFCN_1_3x5_0_split_0
I0629 12:59:27.198967 26993 net.cpp:434] detection_loss_1_3x5 <- label_1_3x5_data_1_split_0
I0629 12:59:27.198974 26993 net.cpp:408] detection_loss_1_3x5 -> loss_1_3x5
I0629 12:59:27.198983 26993 layer_factory.hpp:77] Creating layer detection_loss_1_3x5
I0629 12:59:27.199635 26993 net.cpp:150] Setting up detection_loss_1_3x5
I0629 12:59:27.199645 26993 net.cpp:157] Top shape: 1 1 1 2 (2)
I0629 12:59:27.199648 26993 net.cpp:160]     with loss weight 0.5
I0629 12:59:27.199657 26993 net.cpp:165] Memory required for data: 2184166116
I0629 12:59:27.199661 26993 layer_factory.hpp:77] Creating layer detection_accuracy_1_3x5
I0629 12:59:27.199668 26993 net.cpp:100] Creating Layer detection_accuracy_1_3x5
I0629 12:59:27.199676 26993 net.cpp:434] detection_accuracy_1_3x5 <- LFCN_1_3x5_LFCN_1_3x5_0_split_1
I0629 12:59:27.199683 26993 net.cpp:434] detection_accuracy_1_3x5 <- label_1_3x5_data_1_split_1
I0629 12:59:27.199692 26993 net.cpp:408] detection_accuracy_1_3x5 -> accuracy_1_3x5
I0629 12:59:27.199702 26993 net.cpp:408] detection_accuracy_1_3x5 -> boxiou_1_3x5
I0629 12:59:27.199764 26993 net.cpp:150] Setting up detection_accuracy_1_3x5
I0629 12:59:27.199770 26993 net.cpp:157] Top shape: 1 1 1 2 (2)
I0629 12:59:27.199774 26993 net.cpp:157] Top shape: 1 1 1 1 (1)
I0629 12:59:27.199776 26993 net.cpp:165] Memory required for data: 2184166128
I0629 12:59:27.199779 26993 layer_factory.hpp:77] Creating layer LFCN_1_5x7
I0629 12:59:27.199791 26993 net.cpp:100] Creating Layer LFCN_1_5x7
I0629 12:59:27.199795 26993 net.cpp:434] LFCN_1_5x7 <- loss1_conv1_loss_relu1_0_split_1
I0629 12:59:27.199801 26993 net.cpp:408] LFCN_1_5x7 -> LFCN_1_5x7
I0629 12:59:27.203613 26993 net.cpp:150] Setting up LFCN_1_5x7
I0629 12:59:27.203631 26993 net.cpp:157] Top shape: 2 7 72 96 (96768)
I0629 12:59:27.203634 26993 net.cpp:165] Memory required for data: 2184553200
I0629 12:59:27.203640 26993 layer_factory.hpp:77] Creating layer LFCN_1_5x7_LFCN_1_5x7_0_split
I0629 12:59:27.203650 26993 net.cpp:100] Creating Layer LFCN_1_5x7_LFCN_1_5x7_0_split
I0629 12:59:27.203655 26993 net.cpp:434] LFCN_1_5x7_LFCN_1_5x7_0_split <- LFCN_1_5x7
I0629 12:59:27.203662 26993 net.cpp:408] LFCN_1_5x7_LFCN_1_5x7_0_split -> LFCN_1_5x7_LFCN_1_5x7_0_split_0
I0629 12:59:27.203676 26993 net.cpp:408] LFCN_1_5x7_LFCN_1_5x7_0_split -> LFCN_1_5x7_LFCN_1_5x7_0_split_1
I0629 12:59:27.203683 26993 net.cpp:408] LFCN_1_5x7_LFCN_1_5x7_0_split -> LFCN_1_5x7_LFCN_1_5x7_0_split_2
I0629 12:59:27.203759 26993 net.cpp:150] Setting up LFCN_1_5x7_LFCN_1_5x7_0_split
I0629 12:59:27.203766 26993 net.cpp:157] Top shape: 2 7 72 96 (96768)
I0629 12:59:27.203769 26993 net.cpp:157] Top shape: 2 7 72 96 (96768)
I0629 12:59:27.203773 26993 net.cpp:157] Top shape: 2 7 72 96 (96768)
I0629 12:59:27.203776 26993 net.cpp:165] Memory required for data: 2185714416
I0629 12:59:27.203779 26993 layer_factory.hpp:77] Creating layer detection_loss_1_5x7
I0629 12:59:27.203788 26993 net.cpp:100] Creating Layer detection_loss_1_5x7
I0629 12:59:27.203791 26993 net.cpp:434] detection_loss_1_5x7 <- LFCN_1_5x7_LFCN_1_5x7_0_split_0
I0629 12:59:27.203796 26993 net.cpp:434] detection_loss_1_5x7 <- label_1_5x7_data_2_split_0
I0629 12:59:27.203804 26993 net.cpp:408] detection_loss_1_5x7 -> loss_1_5x7
I0629 12:59:27.203814 26993 layer_factory.hpp:77] Creating layer detection_loss_1_5x7
I0629 12:59:27.204851 26993 net.cpp:150] Setting up detection_loss_1_5x7
I0629 12:59:27.204862 26993 net.cpp:157] Top shape: 1 1 1 2 (2)
I0629 12:59:27.204864 26993 net.cpp:160]     with loss weight 0.9
I0629 12:59:27.204872 26993 net.cpp:165] Memory required for data: 2185714424
I0629 12:59:27.204876 26993 layer_factory.hpp:77] Creating layer detection_accuracy_1_5x7
I0629 12:59:27.204885 26993 net.cpp:100] Creating Layer detection_accuracy_1_5x7
I0629 12:59:27.204890 26993 net.cpp:434] detection_accuracy_1_5x7 <- LFCN_1_5x7_LFCN_1_5x7_0_split_1
I0629 12:59:27.204893 26993 net.cpp:434] detection_accuracy_1_5x7 <- label_1_5x7_data_2_split_1
I0629 12:59:27.204897 26993 net.cpp:408] detection_accuracy_1_5x7 -> accuracy_1_5x7
I0629 12:59:27.204902 26993 net.cpp:408] detection_accuracy_1_5x7 -> boxiou_1_5x7
I0629 12:59:27.204946 26993 net.cpp:150] Setting up detection_accuracy_1_5x7
I0629 12:59:27.204952 26993 net.cpp:157] Top shape: 1 1 1 2 (2)
I0629 12:59:27.204953 26993 net.cpp:157] Top shape: 1 1 1 1 (1)
I0629 12:59:27.204955 26993 net.cpp:165] Memory required for data: 2185714436
I0629 12:59:27.204958 26993 layer_factory.hpp:77] Creating layer pool4
I0629 12:59:27.204964 26993 net.cpp:100] Creating Layer pool4
I0629 12:59:27.204968 26993 net.cpp:434] pool4 <- conv4_3_relu4_3_0_split_1
I0629 12:59:27.204973 26993 net.cpp:408] pool4 -> pool4
I0629 12:59:27.205011 26993 net.cpp:150] Setting up pool4
I0629 12:59:27.205015 26993 net.cpp:157] Top shape: 2 512 36 48 (1769472)
I0629 12:59:27.205018 26993 net.cpp:165] Memory required for data: 2192792324
I0629 12:59:27.205020 26993 layer_factory.hpp:77] Creating layer conv5_1
I0629 12:59:27.205029 26993 net.cpp:100] Creating Layer conv5_1
I0629 12:59:27.205034 26993 net.cpp:434] conv5_1 <- pool4
I0629 12:59:27.205037 26993 net.cpp:408] conv5_1 -> conv5_1
I0629 12:59:27.212064 26993 net.cpp:150] Setting up conv5_1
I0629 12:59:27.212090 26993 net.cpp:157] Top shape: 2 512 36 48 (1769472)
I0629 12:59:27.212096 26993 net.cpp:165] Memory required for data: 2199870212
I0629 12:59:27.212106 26993 layer_factory.hpp:77] Creating layer relu5_1
I0629 12:59:27.212116 26993 net.cpp:100] Creating Layer relu5_1
I0629 12:59:27.212121 26993 net.cpp:434] relu5_1 <- conv5_1
I0629 12:59:27.212127 26993 net.cpp:395] relu5_1 -> conv5_1 (in-place)
I0629 12:59:27.212471 26993 net.cpp:150] Setting up relu5_1
I0629 12:59:27.212479 26993 net.cpp:157] Top shape: 2 512 36 48 (1769472)
I0629 12:59:27.212482 26993 net.cpp:165] Memory required for data: 2206948100
I0629 12:59:27.212484 26993 layer_factory.hpp:77] Creating layer conv5_2
I0629 12:59:27.212494 26993 net.cpp:100] Creating Layer conv5_2
I0629 12:59:27.212498 26993 net.cpp:434] conv5_2 <- conv5_1
I0629 12:59:27.212504 26993 net.cpp:408] conv5_2 -> conv5_2
I0629 12:59:27.222164 26993 net.cpp:150] Setting up conv5_2
I0629 12:59:27.222184 26993 net.cpp:157] Top shape: 2 512 36 48 (1769472)
I0629 12:59:27.222187 26993 net.cpp:165] Memory required for data: 2214025988
I0629 12:59:27.222196 26993 layer_factory.hpp:77] Creating layer relu5_2
I0629 12:59:27.222205 26993 net.cpp:100] Creating Layer relu5_2
I0629 12:59:27.222210 26993 net.cpp:434] relu5_2 <- conv5_2
I0629 12:59:27.222218 26993 net.cpp:395] relu5_2 -> conv5_2 (in-place)
I0629 12:59:27.222499 26993 net.cpp:150] Setting up relu5_2
I0629 12:59:27.222512 26993 net.cpp:157] Top shape: 2 512 36 48 (1769472)
I0629 12:59:27.222517 26993 net.cpp:165] Memory required for data: 2221103876
I0629 12:59:27.222519 26993 layer_factory.hpp:77] Creating layer conv5_3
I0629 12:59:27.222530 26993 net.cpp:100] Creating Layer conv5_3
I0629 12:59:27.222534 26993 net.cpp:434] conv5_3 <- conv5_2
I0629 12:59:27.222542 26993 net.cpp:408] conv5_3 -> conv5_3
I0629 12:59:27.228348 26993 net.cpp:150] Setting up conv5_3
I0629 12:59:27.228371 26993 net.cpp:157] Top shape: 2 512 36 48 (1769472)
I0629 12:59:27.228374 26993 net.cpp:165] Memory required for data: 2228181764
I0629 12:59:27.228384 26993 layer_factory.hpp:77] Creating layer relu5_3
I0629 12:59:27.228395 26993 net.cpp:100] Creating Layer relu5_3
I0629 12:59:27.228400 26993 net.cpp:434] relu5_3 <- conv5_3
I0629 12:59:27.228406 26993 net.cpp:395] relu5_3 -> conv5_3 (in-place)
I0629 12:59:27.229235 26993 net.cpp:150] Setting up relu5_3
I0629 12:59:27.229248 26993 net.cpp:157] Top shape: 2 512 36 48 (1769472)
I0629 12:59:27.229249 26993 net.cpp:165] Memory required for data: 2235259652
I0629 12:59:27.229254 26993 layer_factory.hpp:77] Creating layer conv5_3_relu5_3_0_split
I0629 12:59:27.229261 26993 net.cpp:100] Creating Layer conv5_3_relu5_3_0_split
I0629 12:59:27.229265 26993 net.cpp:434] conv5_3_relu5_3_0_split <- conv5_3
I0629 12:59:27.229274 26993 net.cpp:408] conv5_3_relu5_3_0_split -> conv5_3_relu5_3_0_split_0
I0629 12:59:27.229284 26993 net.cpp:408] conv5_3_relu5_3_0_split -> conv5_3_relu5_3_0_split_1
I0629 12:59:27.229291 26993 net.cpp:408] conv5_3_relu5_3_0_split -> conv5_3_relu5_3_0_split_2
I0629 12:59:27.229358 26993 net.cpp:150] Setting up conv5_3_relu5_3_0_split
I0629 12:59:27.229363 26993 net.cpp:157] Top shape: 2 512 36 48 (1769472)
I0629 12:59:27.229367 26993 net.cpp:157] Top shape: 2 512 36 48 (1769472)
I0629 12:59:27.229372 26993 net.cpp:157] Top shape: 2 512 36 48 (1769472)
I0629 12:59:27.229373 26993 net.cpp:165] Memory required for data: 2256493316
I0629 12:59:27.229377 26993 layer_factory.hpp:77] Creating layer LFCN_2_3x5
I0629 12:59:27.229388 26993 net.cpp:100] Creating Layer LFCN_2_3x5
I0629 12:59:27.229393 26993 net.cpp:434] LFCN_2_3x5 <- conv5_3_relu5_3_0_split_0
I0629 12:59:27.229398 26993 net.cpp:408] LFCN_2_3x5 -> LFCN_2_3x5
I0629 12:59:27.232489 26993 net.cpp:150] Setting up LFCN_2_3x5
I0629 12:59:27.232507 26993 net.cpp:157] Top shape: 2 7 36 48 (24192)
I0629 12:59:27.232511 26993 net.cpp:165] Memory required for data: 2256590084
I0629 12:59:27.232528 26993 layer_factory.hpp:77] Creating layer LFCN_2_3x5_LFCN_2_3x5_0_split
I0629 12:59:27.232537 26993 net.cpp:100] Creating Layer LFCN_2_3x5_LFCN_2_3x5_0_split
I0629 12:59:27.232547 26993 net.cpp:434] LFCN_2_3x5_LFCN_2_3x5_0_split <- LFCN_2_3x5
I0629 12:59:27.232556 26993 net.cpp:408] LFCN_2_3x5_LFCN_2_3x5_0_split -> LFCN_2_3x5_LFCN_2_3x5_0_split_0
I0629 12:59:27.232575 26993 net.cpp:408] LFCN_2_3x5_LFCN_2_3x5_0_split -> LFCN_2_3x5_LFCN_2_3x5_0_split_1
I0629 12:59:27.232581 26993 net.cpp:408] LFCN_2_3x5_LFCN_2_3x5_0_split -> LFCN_2_3x5_LFCN_2_3x5_0_split_2
I0629 12:59:27.232645 26993 net.cpp:150] Setting up LFCN_2_3x5_LFCN_2_3x5_0_split
I0629 12:59:27.232651 26993 net.cpp:157] Top shape: 2 7 36 48 (24192)
I0629 12:59:27.232656 26993 net.cpp:157] Top shape: 2 7 36 48 (24192)
I0629 12:59:27.232659 26993 net.cpp:157] Top shape: 2 7 36 48 (24192)
I0629 12:59:27.232661 26993 net.cpp:165] Memory required for data: 2256880388
I0629 12:59:27.232666 26993 layer_factory.hpp:77] Creating layer detection_loss_2_3x5
I0629 12:59:27.232671 26993 net.cpp:100] Creating Layer detection_loss_2_3x5
I0629 12:59:27.232676 26993 net.cpp:434] detection_loss_2_3x5 <- LFCN_2_3x5_LFCN_2_3x5_0_split_0
I0629 12:59:27.232681 26993 net.cpp:434] detection_loss_2_3x5 <- label_2_3x5_data_3_split_0
I0629 12:59:27.232687 26993 net.cpp:408] detection_loss_2_3x5 -> loss_2_3x5
I0629 12:59:27.232697 26993 layer_factory.hpp:77] Creating layer detection_loss_2_3x5
I0629 12:59:27.233741 26993 net.cpp:150] Setting up detection_loss_2_3x5
I0629 12:59:27.233752 26993 net.cpp:157] Top shape: 1 1 1 2 (2)
I0629 12:59:27.233755 26993 net.cpp:160]     with loss weight 1
I0629 12:59:27.233767 26993 net.cpp:165] Memory required for data: 2256880396
I0629 12:59:27.233769 26993 layer_factory.hpp:77] Creating layer detection_accuracy_2_3x5
I0629 12:59:27.233780 26993 net.cpp:100] Creating Layer detection_accuracy_2_3x5
I0629 12:59:27.233786 26993 net.cpp:434] detection_accuracy_2_3x5 <- LFCN_2_3x5_LFCN_2_3x5_0_split_1
I0629 12:59:27.233793 26993 net.cpp:434] detection_accuracy_2_3x5 <- label_2_3x5_data_3_split_1
I0629 12:59:27.233799 26993 net.cpp:408] detection_accuracy_2_3x5 -> accuracy_2_3x5
I0629 12:59:27.233808 26993 net.cpp:408] detection_accuracy_2_3x5 -> boxiou_2_3x5
I0629 12:59:27.233852 26993 net.cpp:150] Setting up detection_accuracy_2_3x5
I0629 12:59:27.233858 26993 net.cpp:157] Top shape: 1 1 1 2 (2)
I0629 12:59:27.233862 26993 net.cpp:157] Top shape: 1 1 1 1 (1)
I0629 12:59:27.233865 26993 net.cpp:165] Memory required for data: 2256880408
I0629 12:59:27.233867 26993 layer_factory.hpp:77] Creating layer LFCN_2_5x7
I0629 12:59:27.233876 26993 net.cpp:100] Creating Layer LFCN_2_5x7
I0629 12:59:27.233880 26993 net.cpp:434] LFCN_2_5x7 <- conv5_3_relu5_3_0_split_1
I0629 12:59:27.233887 26993 net.cpp:408] LFCN_2_5x7 -> LFCN_2_5x7
I0629 12:59:27.238059 26993 net.cpp:150] Setting up LFCN_2_5x7
I0629 12:59:27.238088 26993 net.cpp:157] Top shape: 2 7 36 48 (24192)
I0629 12:59:27.238091 26993 net.cpp:165] Memory required for data: 2256977176
I0629 12:59:27.238106 26993 layer_factory.hpp:77] Creating layer LFCN_2_5x7_LFCN_2_5x7_0_split
I0629 12:59:27.238119 26993 net.cpp:100] Creating Layer LFCN_2_5x7_LFCN_2_5x7_0_split
I0629 12:59:27.238133 26993 net.cpp:434] LFCN_2_5x7_LFCN_2_5x7_0_split <- LFCN_2_5x7
I0629 12:59:27.238145 26993 net.cpp:408] LFCN_2_5x7_LFCN_2_5x7_0_split -> LFCN_2_5x7_LFCN_2_5x7_0_split_0
I0629 12:59:27.238157 26993 net.cpp:408] LFCN_2_5x7_LFCN_2_5x7_0_split -> LFCN_2_5x7_LFCN_2_5x7_0_split_1
I0629 12:59:27.238163 26993 net.cpp:408] LFCN_2_5x7_LFCN_2_5x7_0_split -> LFCN_2_5x7_LFCN_2_5x7_0_split_2
I0629 12:59:27.238274 26993 net.cpp:150] Setting up LFCN_2_5x7_LFCN_2_5x7_0_split
I0629 12:59:27.238281 26993 net.cpp:157] Top shape: 2 7 36 48 (24192)
I0629 12:59:27.238284 26993 net.cpp:157] Top shape: 2 7 36 48 (24192)
I0629 12:59:27.238288 26993 net.cpp:157] Top shape: 2 7 36 48 (24192)
I0629 12:59:27.238291 26993 net.cpp:165] Memory required for data: 2257267480
I0629 12:59:27.238294 26993 layer_factory.hpp:77] Creating layer detection_loss_2_5x7
I0629 12:59:27.238302 26993 net.cpp:100] Creating Layer detection_loss_2_5x7
I0629 12:59:27.238306 26993 net.cpp:434] detection_loss_2_5x7 <- LFCN_2_5x7_LFCN_2_5x7_0_split_0
I0629 12:59:27.238312 26993 net.cpp:434] detection_loss_2_5x7 <- label_2_5x7_data_4_split_0
I0629 12:59:27.238319 26993 net.cpp:408] detection_loss_2_5x7 -> loss_2_5x7
I0629 12:59:27.238329 26993 layer_factory.hpp:77] Creating layer detection_loss_2_5x7
I0629 12:59:27.238888 26993 net.cpp:150] Setting up detection_loss_2_5x7
I0629 12:59:27.238900 26993 net.cpp:157] Top shape: 1 1 1 2 (2)
I0629 12:59:27.238903 26993 net.cpp:160]     with loss weight 1
I0629 12:59:27.238915 26993 net.cpp:165] Memory required for data: 2257267488
I0629 12:59:27.238919 26993 layer_factory.hpp:77] Creating layer detection_accuracy_2_5x7
I0629 12:59:27.238927 26993 net.cpp:100] Creating Layer detection_accuracy_2_5x7
I0629 12:59:27.238931 26993 net.cpp:434] detection_accuracy_2_5x7 <- LFCN_2_5x7_LFCN_2_5x7_0_split_1
I0629 12:59:27.238937 26993 net.cpp:434] detection_accuracy_2_5x7 <- label_2_5x7_data_4_split_1
I0629 12:59:27.238943 26993 net.cpp:408] detection_accuracy_2_5x7 -> accuracy_2_5x7
I0629 12:59:27.238951 26993 net.cpp:408] detection_accuracy_2_5x7 -> boxiou_2_5x7
I0629 12:59:27.239001 26993 net.cpp:150] Setting up detection_accuracy_2_5x7
I0629 12:59:27.239006 26993 net.cpp:157] Top shape: 1 1 1 2 (2)
I0629 12:59:27.239009 26993 net.cpp:157] Top shape: 1 1 1 1 (1)
I0629 12:59:27.239012 26993 net.cpp:165] Memory required for data: 2257267500
I0629 12:59:27.239014 26993 layer_factory.hpp:77] Creating layer pool5
I0629 12:59:27.239022 26993 net.cpp:100] Creating Layer pool5
I0629 12:59:27.239027 26993 net.cpp:434] pool5 <- conv5_3_relu5_3_0_split_2
I0629 12:59:27.239032 26993 net.cpp:408] pool5 -> pool5
I0629 12:59:27.239090 26993 net.cpp:150] Setting up pool5
I0629 12:59:27.239099 26993 net.cpp:157] Top shape: 2 512 18 24 (442368)
I0629 12:59:27.239102 26993 net.cpp:165] Memory required for data: 2259036972
I0629 12:59:27.239105 26993 layer_factory.hpp:77] Creating layer conv6_1
I0629 12:59:27.239117 26993 net.cpp:100] Creating Layer conv6_1
I0629 12:59:27.239121 26993 net.cpp:434] conv6_1 <- pool5
I0629 12:59:27.239128 26993 net.cpp:408] conv6_1 -> conv6_1
I0629 12:59:27.260466 26993 net.cpp:150] Setting up conv6_1
I0629 12:59:27.260485 26993 net.cpp:157] Top shape: 2 512 18 24 (442368)
I0629 12:59:27.260488 26993 net.cpp:165] Memory required for data: 2260806444
I0629 12:59:27.260499 26993 layer_factory.hpp:77] Creating layer relu6_1
I0629 12:59:27.260507 26993 net.cpp:100] Creating Layer relu6_1
I0629 12:59:27.260516 26993 net.cpp:434] relu6_1 <- conv6_1
I0629 12:59:27.260524 26993 net.cpp:395] relu6_1 -> conv6_1 (in-place)
I0629 12:59:27.260823 26993 net.cpp:150] Setting up relu6_1
I0629 12:59:27.260833 26993 net.cpp:157] Top shape: 2 512 18 24 (442368)
I0629 12:59:27.260836 26993 net.cpp:165] Memory required for data: 2262575916
I0629 12:59:27.260839 26993 layer_factory.hpp:77] Creating layer conv6_1_relu6_1_0_split
I0629 12:59:27.260848 26993 net.cpp:100] Creating Layer conv6_1_relu6_1_0_split
I0629 12:59:27.260851 26993 net.cpp:434] conv6_1_relu6_1_0_split <- conv6_1
I0629 12:59:27.260857 26993 net.cpp:408] conv6_1_relu6_1_0_split -> conv6_1_relu6_1_0_split_0
I0629 12:59:27.260865 26993 net.cpp:408] conv6_1_relu6_1_0_split -> conv6_1_relu6_1_0_split_1
I0629 12:59:27.260872 26993 net.cpp:408] conv6_1_relu6_1_0_split -> conv6_1_relu6_1_0_split_2
I0629 12:59:27.260959 26993 net.cpp:150] Setting up conv6_1_relu6_1_0_split
I0629 12:59:27.260968 26993 net.cpp:157] Top shape: 2 512 18 24 (442368)
I0629 12:59:27.260972 26993 net.cpp:157] Top shape: 2 512 18 24 (442368)
I0629 12:59:27.260977 26993 net.cpp:157] Top shape: 2 512 18 24 (442368)
I0629 12:59:27.260978 26993 net.cpp:165] Memory required for data: 2267884332
I0629 12:59:27.260982 26993 layer_factory.hpp:77] Creating layer LFCN_3_3x5
I0629 12:59:27.260993 26993 net.cpp:100] Creating Layer LFCN_3_3x5
I0629 12:59:27.260996 26993 net.cpp:434] LFCN_3_3x5 <- conv6_1_relu6_1_0_split_0
I0629 12:59:27.261003 26993 net.cpp:408] LFCN_3_3x5 -> LFCN_3_3x5
I0629 12:59:27.263998 26993 net.cpp:150] Setting up LFCN_3_3x5
I0629 12:59:27.264020 26993 net.cpp:157] Top shape: 2 7 18 24 (6048)
I0629 12:59:27.264024 26993 net.cpp:165] Memory required for data: 2267908524
I0629 12:59:27.264034 26993 layer_factory.hpp:77] Creating layer LFCN_3_3x5_LFCN_3_3x5_0_split
I0629 12:59:27.264058 26993 net.cpp:100] Creating Layer LFCN_3_3x5_LFCN_3_3x5_0_split
I0629 12:59:27.264063 26993 net.cpp:434] LFCN_3_3x5_LFCN_3_3x5_0_split <- LFCN_3_3x5
I0629 12:59:27.264070 26993 net.cpp:408] LFCN_3_3x5_LFCN_3_3x5_0_split -> LFCN_3_3x5_LFCN_3_3x5_0_split_0
I0629 12:59:27.264080 26993 net.cpp:408] LFCN_3_3x5_LFCN_3_3x5_0_split -> LFCN_3_3x5_LFCN_3_3x5_0_split_1
I0629 12:59:27.264086 26993 net.cpp:408] LFCN_3_3x5_LFCN_3_3x5_0_split -> LFCN_3_3x5_LFCN_3_3x5_0_split_2
I0629 12:59:27.264166 26993 net.cpp:150] Setting up LFCN_3_3x5_LFCN_3_3x5_0_split
I0629 12:59:27.264173 26993 net.cpp:157] Top shape: 2 7 18 24 (6048)
I0629 12:59:27.264176 26993 net.cpp:157] Top shape: 2 7 18 24 (6048)
I0629 12:59:27.264180 26993 net.cpp:157] Top shape: 2 7 18 24 (6048)
I0629 12:59:27.264183 26993 net.cpp:165] Memory required for data: 2267981100
I0629 12:59:27.264186 26993 layer_factory.hpp:77] Creating layer detection_loss_3_3x5
I0629 12:59:27.264194 26993 net.cpp:100] Creating Layer detection_loss_3_3x5
I0629 12:59:27.264199 26993 net.cpp:434] detection_loss_3_3x5 <- LFCN_3_3x5_LFCN_3_3x5_0_split_0
I0629 12:59:27.264204 26993 net.cpp:434] detection_loss_3_3x5 <- label_3_3x5_data_5_split_0
I0629 12:59:27.264209 26993 net.cpp:408] detection_loss_3_3x5 -> loss_3_3x5
I0629 12:59:27.264219 26993 layer_factory.hpp:77] Creating layer detection_loss_3_3x5
I0629 12:59:27.265607 26993 net.cpp:150] Setting up detection_loss_3_3x5
I0629 12:59:27.265625 26993 net.cpp:157] Top shape: 1 1 1 2 (2)
I0629 12:59:27.265626 26993 net.cpp:160]     with loss weight 1
I0629 12:59:27.265638 26993 net.cpp:165] Memory required for data: 2267981108
I0629 12:59:27.265642 26993 layer_factory.hpp:77] Creating layer detection_accuracy_3_3x5
I0629 12:59:27.265652 26993 net.cpp:100] Creating Layer detection_accuracy_3_3x5
I0629 12:59:27.265660 26993 net.cpp:434] detection_accuracy_3_3x5 <- LFCN_3_3x5_LFCN_3_3x5_0_split_1
I0629 12:59:27.265667 26993 net.cpp:434] detection_accuracy_3_3x5 <- label_3_3x5_data_5_split_1
I0629 12:59:27.265676 26993 net.cpp:408] detection_accuracy_3_3x5 -> accuracy_3_3x5
I0629 12:59:27.265684 26993 net.cpp:408] detection_accuracy_3_3x5 -> boxiou_3_3x5
I0629 12:59:27.265736 26993 net.cpp:150] Setting up detection_accuracy_3_3x5
I0629 12:59:27.265746 26993 net.cpp:157] Top shape: 1 1 1 2 (2)
I0629 12:59:27.265751 26993 net.cpp:157] Top shape: 1 1 1 1 (1)
I0629 12:59:27.265755 26993 net.cpp:165] Memory required for data: 2267981120
I0629 12:59:27.265759 26993 layer_factory.hpp:77] Creating layer LFCN_3_5x7
I0629 12:59:27.265774 26993 net.cpp:100] Creating Layer LFCN_3_5x7
I0629 12:59:27.265779 26993 net.cpp:434] LFCN_3_5x7 <- conv6_1_relu6_1_0_split_1
I0629 12:59:27.265785 26993 net.cpp:408] LFCN_3_5x7 -> LFCN_3_5x7
I0629 12:59:27.268648 26993 net.cpp:150] Setting up LFCN_3_5x7
I0629 12:59:27.268667 26993 net.cpp:157] Top shape: 2 7 18 24 (6048)
I0629 12:59:27.268671 26993 net.cpp:165] Memory required for data: 2268005312
I0629 12:59:27.268679 26993 layer_factory.hpp:77] Creating layer LFCN_3_5x7_LFCN_3_5x7_0_split
I0629 12:59:27.268690 26993 net.cpp:100] Creating Layer LFCN_3_5x7_LFCN_3_5x7_0_split
I0629 12:59:27.268695 26993 net.cpp:434] LFCN_3_5x7_LFCN_3_5x7_0_split <- LFCN_3_5x7
I0629 12:59:27.268703 26993 net.cpp:408] LFCN_3_5x7_LFCN_3_5x7_0_split -> LFCN_3_5x7_LFCN_3_5x7_0_split_0
I0629 12:59:27.268712 26993 net.cpp:408] LFCN_3_5x7_LFCN_3_5x7_0_split -> LFCN_3_5x7_LFCN_3_5x7_0_split_1
I0629 12:59:27.268720 26993 net.cpp:408] LFCN_3_5x7_LFCN_3_5x7_0_split -> LFCN_3_5x7_LFCN_3_5x7_0_split_2
I0629 12:59:27.268784 26993 net.cpp:150] Setting up LFCN_3_5x7_LFCN_3_5x7_0_split
I0629 12:59:27.268788 26993 net.cpp:157] Top shape: 2 7 18 24 (6048)
I0629 12:59:27.268792 26993 net.cpp:157] Top shape: 2 7 18 24 (6048)
I0629 12:59:27.268796 26993 net.cpp:157] Top shape: 2 7 18 24 (6048)
I0629 12:59:27.268798 26993 net.cpp:165] Memory required for data: 2268077888
I0629 12:59:27.268801 26993 layer_factory.hpp:77] Creating layer detection_loss_3_5x7
I0629 12:59:27.268810 26993 net.cpp:100] Creating Layer detection_loss_3_5x7
I0629 12:59:27.268815 26993 net.cpp:434] detection_loss_3_5x7 <- LFCN_3_5x7_LFCN_3_5x7_0_split_0
I0629 12:59:27.268820 26993 net.cpp:434] detection_loss_3_5x7 <- label_3_5x7_data_6_split_0
I0629 12:59:27.268826 26993 net.cpp:408] detection_loss_3_5x7 -> loss_3_5x7
I0629 12:59:27.268836 26993 layer_factory.hpp:77] Creating layer detection_loss_3_5x7
I0629 12:59:27.269325 26993 net.cpp:150] Setting up detection_loss_3_5x7
I0629 12:59:27.269335 26993 net.cpp:157] Top shape: 1 1 1 2 (2)
I0629 12:59:27.269337 26993 net.cpp:160]     with loss weight 1
I0629 12:59:27.269345 26993 net.cpp:165] Memory required for data: 2268077896
I0629 12:59:27.269348 26993 layer_factory.hpp:77] Creating layer detection_accuracy_3_5x7
I0629 12:59:27.269356 26993 net.cpp:100] Creating Layer detection_accuracy_3_5x7
I0629 12:59:27.269359 26993 net.cpp:434] detection_accuracy_3_5x7 <- LFCN_3_5x7_LFCN_3_5x7_0_split_1
I0629 12:59:27.269366 26993 net.cpp:434] detection_accuracy_3_5x7 <- label_3_5x7_data_6_split_1
I0629 12:59:27.269372 26993 net.cpp:408] detection_accuracy_3_5x7 -> accuracy_3_5x7
I0629 12:59:27.269381 26993 net.cpp:408] detection_accuracy_3_5x7 -> boxiou_3_5x7
I0629 12:59:27.269433 26993 net.cpp:150] Setting up detection_accuracy_3_5x7
I0629 12:59:27.269438 26993 net.cpp:157] Top shape: 1 1 1 2 (2)
I0629 12:59:27.269441 26993 net.cpp:157] Top shape: 1 1 1 1 (1)
I0629 12:59:27.269443 26993 net.cpp:165] Memory required for data: 2268077908
I0629 12:59:27.269446 26993 layer_factory.hpp:77] Creating layer pool6
I0629 12:59:27.269457 26993 net.cpp:100] Creating Layer pool6
I0629 12:59:27.269461 26993 net.cpp:434] pool6 <- conv6_1_relu6_1_0_split_2
I0629 12:59:27.269469 26993 net.cpp:408] pool6 -> pool6
I0629 12:59:27.269512 26993 net.cpp:150] Setting up pool6
I0629 12:59:27.269518 26993 net.cpp:157] Top shape: 2 512 9 12 (110592)
I0629 12:59:27.269520 26993 net.cpp:165] Memory required for data: 2268520276
I0629 12:59:27.269523 26993 layer_factory.hpp:77] Creating layer LFCN_4_3x5
I0629 12:59:27.269536 26993 net.cpp:100] Creating Layer LFCN_4_3x5
I0629 12:59:27.269539 26993 net.cpp:434] LFCN_4_3x5 <- pool6
I0629 12:59:27.269546 26993 net.cpp:408] LFCN_4_3x5 -> LFCN_4_3x5
I0629 12:59:27.272549 26993 net.cpp:150] Setting up LFCN_4_3x5
I0629 12:59:27.272564 26993 net.cpp:157] Top shape: 2 7 9 12 (1512)
I0629 12:59:27.272567 26993 net.cpp:165] Memory required for data: 2268526324
I0629 12:59:27.272575 26993 layer_factory.hpp:77] Creating layer LFCN_4_3x5_LFCN_4_3x5_0_split
I0629 12:59:27.272583 26993 net.cpp:100] Creating Layer LFCN_4_3x5_LFCN_4_3x5_0_split
I0629 12:59:27.272589 26993 net.cpp:434] LFCN_4_3x5_LFCN_4_3x5_0_split <- LFCN_4_3x5
I0629 12:59:27.272598 26993 net.cpp:408] LFCN_4_3x5_LFCN_4_3x5_0_split -> LFCN_4_3x5_LFCN_4_3x5_0_split_0
I0629 12:59:27.272608 26993 net.cpp:408] LFCN_4_3x5_LFCN_4_3x5_0_split -> LFCN_4_3x5_LFCN_4_3x5_0_split_1
I0629 12:59:27.272615 26993 net.cpp:408] LFCN_4_3x5_LFCN_4_3x5_0_split -> LFCN_4_3x5_LFCN_4_3x5_0_split_2
I0629 12:59:27.272684 26993 net.cpp:150] Setting up LFCN_4_3x5_LFCN_4_3x5_0_split
I0629 12:59:27.272689 26993 net.cpp:157] Top shape: 2 7 9 12 (1512)
I0629 12:59:27.272693 26993 net.cpp:157] Top shape: 2 7 9 12 (1512)
I0629 12:59:27.272696 26993 net.cpp:157] Top shape: 2 7 9 12 (1512)
I0629 12:59:27.272698 26993 net.cpp:165] Memory required for data: 2268544468
I0629 12:59:27.272701 26993 layer_factory.hpp:77] Creating layer detection_loss_4_3x5
I0629 12:59:27.272709 26993 net.cpp:100] Creating Layer detection_loss_4_3x5
I0629 12:59:27.272714 26993 net.cpp:434] detection_loss_4_3x5 <- LFCN_4_3x5_LFCN_4_3x5_0_split_0
I0629 12:59:27.272720 26993 net.cpp:434] detection_loss_4_3x5 <- label_4_3x5_data_7_split_0
I0629 12:59:27.272727 26993 net.cpp:408] detection_loss_4_3x5 -> loss_4_3x5
I0629 12:59:27.272737 26993 layer_factory.hpp:77] Creating layer detection_loss_4_3x5
I0629 12:59:27.273253 26993 net.cpp:150] Setting up detection_loss_4_3x5
I0629 12:59:27.273263 26993 net.cpp:157] Top shape: 1 1 1 2 (2)
I0629 12:59:27.273267 26993 net.cpp:160]     with loss weight 1
I0629 12:59:27.273274 26993 net.cpp:165] Memory required for data: 2268544476
I0629 12:59:27.273278 26993 layer_factory.hpp:77] Creating layer detection_accuracy_4_3x5
I0629 12:59:27.273288 26993 net.cpp:100] Creating Layer detection_accuracy_4_3x5
I0629 12:59:27.273293 26993 net.cpp:434] detection_accuracy_4_3x5 <- LFCN_4_3x5_LFCN_4_3x5_0_split_1
I0629 12:59:27.273298 26993 net.cpp:434] detection_accuracy_4_3x5 <- label_4_3x5_data_7_split_1
I0629 12:59:27.273303 26993 net.cpp:408] detection_accuracy_4_3x5 -> accuracy_4_3x5
I0629 12:59:27.273310 26993 net.cpp:408] detection_accuracy_4_3x5 -> boxiou_4_3x5
I0629 12:59:27.273370 26993 net.cpp:150] Setting up detection_accuracy_4_3x5
I0629 12:59:27.273377 26993 net.cpp:157] Top shape: 1 1 1 2 (2)
I0629 12:59:27.273380 26993 net.cpp:157] Top shape: 1 1 1 1 (1)
I0629 12:59:27.273383 26993 net.cpp:165] Memory required for data: 2268544488
I0629 12:59:27.273386 26993 layer_factory.hpp:77] Creating layer proposals
I0629 12:59:27.273396 26993 net.cpp:100] Creating Layer proposals
I0629 12:59:27.273399 26993 net.cpp:434] proposals <- LFCN_1_3x5_LFCN_1_3x5_0_split_2
I0629 12:59:27.273403 26993 net.cpp:434] proposals <- LFCN_1_5x7_LFCN_1_5x7_0_split_2
I0629 12:59:27.273407 26993 net.cpp:434] proposals <- LFCN_2_3x5_LFCN_2_3x5_0_split_2
I0629 12:59:27.273412 26993 net.cpp:434] proposals <- LFCN_2_5x7_LFCN_2_5x7_0_split_2
I0629 12:59:27.273416 26993 net.cpp:434] proposals <- LFCN_3_3x5_LFCN_3_3x5_0_split_2
I0629 12:59:27.273421 26993 net.cpp:434] proposals <- LFCN_3_5x7_LFCN_3_5x7_0_split_2
I0629 12:59:27.273423 26993 net.cpp:434] proposals <- LFCN_4_3x5_LFCN_4_3x5_0_split_2
I0629 12:59:27.273430 26993 net.cpp:408] proposals -> proposals
I0629 12:59:27.273458 26993 net.cpp:150] Setting up proposals
I0629 12:59:27.273463 26993 net.cpp:157] Top shape: 1 5 1 1 (5)
I0629 12:59:27.273465 26993 net.cpp:165] Memory required for data: 2268544508
I0629 12:59:27.273468 26993 layer_factory.hpp:77] Creating layer proposal_info
I0629 12:59:27.273478 26993 net.cpp:100] Creating Layer proposal_info
I0629 12:59:27.273481 26993 net.cpp:434] proposal_info <- proposals
I0629 12:59:27.273485 26993 net.cpp:434] proposal_info <- gt_boxes
I0629 12:59:27.273491 26993 net.cpp:408] proposal_info -> rois
I0629 12:59:27.273500 26993 net.cpp:408] proposal_info -> proposal_labels
I0629 12:59:27.273509 26993 net.cpp:408] proposal_info -> proposal_targets
I0629 12:59:27.273516 26993 net.cpp:408] proposal_info -> box_inside_weights
I0629 12:59:27.273524 26993 net.cpp:408] proposal_info -> box_outside_weights
I0629 12:59:27.273531 26993 net.cpp:408] proposal_info -> match_gt_boxes
I0629 12:59:27.273648 26993 net.cpp:150] Setting up proposal_info
I0629 12:59:27.273654 26993 net.cpp:157] Top shape: 64 5 1 1 (320)
I0629 12:59:27.273658 26993 net.cpp:157] Top shape: 64 1 1 1 (64)
I0629 12:59:27.273661 26993 net.cpp:157] Top shape: 64 12 1 1 (768)
I0629 12:59:27.273664 26993 net.cpp:157] Top shape: 64 12 1 1 (768)
I0629 12:59:27.273669 26993 net.cpp:157] Top shape: 64 12 1 1 (768)
I0629 12:59:27.273671 26993 net.cpp:157] Top shape: 64 6 1 1 (384)
I0629 12:59:27.273674 26993 net.cpp:165] Memory required for data: 2268556796
I0629 12:59:27.273677 26993 layer_factory.hpp:77] Creating layer rois_proposal_info_0_split
I0629 12:59:27.273684 26993 net.cpp:100] Creating Layer rois_proposal_info_0_split
I0629 12:59:27.273686 26993 net.cpp:434] rois_proposal_info_0_split <- rois
I0629 12:59:27.273694 26993 net.cpp:408] rois_proposal_info_0_split -> rois_proposal_info_0_split_0
I0629 12:59:27.273701 26993 net.cpp:408] rois_proposal_info_0_split -> rois_proposal_info_0_split_1
I0629 12:59:27.273707 26993 net.cpp:408] rois_proposal_info_0_split -> rois_proposal_info_0_split_2
I0629 12:59:27.273759 26993 net.cpp:150] Setting up rois_proposal_info_0_split
I0629 12:59:27.273763 26993 net.cpp:157] Top shape: 64 5 1 1 (320)
I0629 12:59:27.273767 26993 net.cpp:157] Top shape: 64 5 1 1 (320)
I0629 12:59:27.273771 26993 net.cpp:157] Top shape: 64 5 1 1 (320)
I0629 12:59:27.273773 26993 net.cpp:165] Memory required for data: 2268560636
I0629 12:59:27.273777 26993 layer_factory.hpp:77] Creating layer proposal_labels_proposal_info_1_split
I0629 12:59:27.273780 26993 net.cpp:100] Creating Layer proposal_labels_proposal_info_1_split
I0629 12:59:27.273785 26993 net.cpp:434] proposal_labels_proposal_info_1_split <- proposal_labels
I0629 12:59:27.273792 26993 net.cpp:408] proposal_labels_proposal_info_1_split -> proposal_labels_proposal_info_1_split_0
I0629 12:59:27.273798 26993 net.cpp:408] proposal_labels_proposal_info_1_split -> proposal_labels_proposal_info_1_split_1
I0629 12:59:27.273835 26993 net.cpp:150] Setting up proposal_labels_proposal_info_1_split
I0629 12:59:27.273839 26993 net.cpp:157] Top shape: 64 1 1 1 (64)
I0629 12:59:27.273844 26993 net.cpp:157] Top shape: 64 1 1 1 (64)
I0629 12:59:27.273845 26993 net.cpp:165] Memory required for data: 2268561148
I0629 12:59:27.273849 26993 layer_factory.hpp:77] Creating layer conv4_3_2x
I0629 12:59:27.273855 26993 net.cpp:100] Creating Layer conv4_3_2x
I0629 12:59:27.273859 26993 net.cpp:434] conv4_3_2x <- conv4_3_relu4_3_0_split_2
I0629 12:59:27.273867 26993 net.cpp:408] conv4_3_2x -> conv4_3_2x
I0629 12:59:27.274305 26993 net.cpp:150] Setting up conv4_3_2x
I0629 12:59:27.274313 26993 net.cpp:157] Top shape: 2 512 144 192 (28311552)
I0629 12:59:27.274317 26993 net.cpp:165] Memory required for data: 2381807356
I0629 12:59:27.274322 26993 layer_factory.hpp:77] Creating layer conv4_3_2x_conv4_3_2x_0_split
I0629 12:59:27.274328 26993 net.cpp:100] Creating Layer conv4_3_2x_conv4_3_2x_0_split
I0629 12:59:27.274333 26993 net.cpp:434] conv4_3_2x_conv4_3_2x_0_split <- conv4_3_2x
I0629 12:59:27.274338 26993 net.cpp:408] conv4_3_2x_conv4_3_2x_0_split -> conv4_3_2x_conv4_3_2x_0_split_0
I0629 12:59:27.274345 26993 net.cpp:408] conv4_3_2x_conv4_3_2x_0_split -> conv4_3_2x_conv4_3_2x_0_split_1
I0629 12:59:27.274384 26993 net.cpp:150] Setting up conv4_3_2x_conv4_3_2x_0_split
I0629 12:59:27.274389 26993 net.cpp:157] Top shape: 2 512 144 192 (28311552)
I0629 12:59:27.274394 26993 net.cpp:157] Top shape: 2 512 144 192 (28311552)
I0629 12:59:27.274396 26993 net.cpp:165] Memory required for data: 2608299772
I0629 12:59:27.274399 26993 layer_factory.hpp:77] Creating layer roi_pool_org
I0629 12:59:27.274405 26993 net.cpp:100] Creating Layer roi_pool_org
I0629 12:59:27.274407 26993 net.cpp:434] roi_pool_org <- conv4_3_2x_conv4_3_2x_0_split_0
I0629 12:59:27.274411 26993 net.cpp:434] roi_pool_org <- rois_proposal_info_0_split_0
I0629 12:59:27.274416 26993 net.cpp:408] roi_pool_org -> roi_pool_org
I0629 12:59:27.274423 26993 roi_pooling_layer.cpp:33] Spatial scale: 0.25
I0629 12:59:27.274466 26993 net.cpp:150] Setting up roi_pool_org
I0629 12:59:27.274471 26993 net.cpp:157] Top shape: 64 512 7 5 (1146880)
I0629 12:59:27.274473 26993 net.cpp:165] Memory required for data: 2612887292
I0629 12:59:27.274475 26993 layer_factory.hpp:77] Creating layer roi_pool_ctx
I0629 12:59:27.274480 26993 net.cpp:100] Creating Layer roi_pool_ctx
I0629 12:59:27.274483 26993 net.cpp:434] roi_pool_ctx <- conv4_3_2x_conv4_3_2x_0_split_1
I0629 12:59:27.274487 26993 net.cpp:434] roi_pool_ctx <- rois_proposal_info_0_split_1
I0629 12:59:27.274493 26993 net.cpp:408] roi_pool_ctx -> roi_pool_ctx
I0629 12:59:27.274499 26993 roi_pooling_layer.cpp:33] Spatial scale: 0.25
I0629 12:59:27.274539 26993 net.cpp:150] Setting up roi_pool_ctx
I0629 12:59:27.274546 26993 net.cpp:157] Top shape: 64 512 7 5 (1146880)
I0629 12:59:27.274549 26993 net.cpp:165] Memory required for data: 2617474812
I0629 12:59:27.274551 26993 layer_factory.hpp:77] Creating layer roi_pool
I0629 12:59:27.274556 26993 net.cpp:100] Creating Layer roi_pool
I0629 12:59:27.274559 26993 net.cpp:434] roi_pool <- roi_pool_org
I0629 12:59:27.274564 26993 net.cpp:434] roi_pool <- roi_pool_ctx
I0629 12:59:27.274570 26993 net.cpp:408] roi_pool -> roi_pool
I0629 12:59:27.274595 26993 net.cpp:150] Setting up roi_pool
I0629 12:59:27.274600 26993 net.cpp:157] Top shape: 64 1024 7 5 (2293760)
I0629 12:59:27.274601 26993 net.cpp:165] Memory required for data: 2626649852
I0629 12:59:27.274605 26993 layer_factory.hpp:77] Creating layer roi_c1
I0629 12:59:27.274615 26993 net.cpp:100] Creating Layer roi_c1
I0629 12:59:27.274618 26993 net.cpp:434] roi_c1 <- roi_pool
I0629 12:59:27.274623 26993 net.cpp:408] roi_c1 -> roi_c1
I0629 12:59:27.313094 26993 net.cpp:150] Setting up roi_c1
I0629 12:59:27.313113 26993 net.cpp:157] Top shape: 64 512 5 3 (491520)
I0629 12:59:27.313117 26993 net.cpp:165] Memory required for data: 2628615932
I0629 12:59:27.313124 26993 layer_factory.hpp:77] Creating layer roi_c1_relu
I0629 12:59:27.313133 26993 net.cpp:100] Creating Layer roi_c1_relu
I0629 12:59:27.313138 26993 net.cpp:434] roi_c1_relu <- roi_c1
I0629 12:59:27.313146 26993 net.cpp:395] roi_c1_relu -> roi_c1 (in-place)
I0629 12:59:27.313936 26993 net.cpp:150] Setting up roi_c1_relu
I0629 12:59:27.313948 26993 net.cpp:157] Top shape: 64 512 5 3 (491520)
I0629 12:59:27.313951 26993 net.cpp:165] Memory required for data: 2630582012
I0629 12:59:27.313954 26993 layer_factory.hpp:77] Creating layer fc6
I0629 12:59:27.313964 26993 net.cpp:100] Creating Layer fc6
I0629 12:59:27.313971 26993 net.cpp:434] fc6 <- roi_c1
I0629 12:59:27.313977 26993 net.cpp:408] fc6 -> fc6
I0629 12:59:27.436609 26993 net.cpp:150] Setting up fc6
I0629 12:59:27.436630 26993 net.cpp:157] Top shape: 64 2048 (131072)
I0629 12:59:27.436632 26993 net.cpp:165] Memory required for data: 2631106300
I0629 12:59:27.436641 26993 layer_factory.hpp:77] Creating layer relu6
I0629 12:59:27.436650 26993 net.cpp:100] Creating Layer relu6
I0629 12:59:27.436656 26993 net.cpp:434] relu6 <- fc6
I0629 12:59:27.436664 26993 net.cpp:395] relu6 -> fc6 (in-place)
I0629 12:59:27.437008 26993 net.cpp:150] Setting up relu6
I0629 12:59:27.437017 26993 net.cpp:157] Top shape: 64 2048 (131072)
I0629 12:59:27.437021 26993 net.cpp:165] Memory required for data: 2631630588
I0629 12:59:27.437023 26993 layer_factory.hpp:77] Creating layer drop6
I0629 12:59:27.437032 26993 net.cpp:100] Creating Layer drop6
I0629 12:59:27.437036 26993 net.cpp:434] drop6 <- fc6
I0629 12:59:27.437041 26993 net.cpp:395] drop6 -> fc6 (in-place)
I0629 12:59:27.437074 26993 net.cpp:150] Setting up drop6
I0629 12:59:27.437079 26993 net.cpp:157] Top shape: 64 2048 (131072)
I0629 12:59:27.437081 26993 net.cpp:165] Memory required for data: 2632154876
I0629 12:59:27.437084 26993 layer_factory.hpp:77] Creating layer fc6_drop6_0_split
I0629 12:59:27.437089 26993 net.cpp:100] Creating Layer fc6_drop6_0_split
I0629 12:59:27.437093 26993 net.cpp:434] fc6_drop6_0_split <- fc6
I0629 12:59:27.437099 26993 net.cpp:408] fc6_drop6_0_split -> fc6_drop6_0_split_0
I0629 12:59:27.437108 26993 net.cpp:408] fc6_drop6_0_split -> fc6_drop6_0_split_1
I0629 12:59:27.437153 26993 net.cpp:150] Setting up fc6_drop6_0_split
I0629 12:59:27.437157 26993 net.cpp:157] Top shape: 64 2048 (131072)
I0629 12:59:27.437161 26993 net.cpp:157] Top shape: 64 2048 (131072)
I0629 12:59:27.437165 26993 net.cpp:165] Memory required for data: 2633203452
I0629 12:59:27.437167 26993 layer_factory.hpp:77] Creating layer cls_pred
I0629 12:59:27.437175 26993 net.cpp:100] Creating Layer cls_pred
I0629 12:59:27.437178 26993 net.cpp:434] cls_pred <- fc6_drop6_0_split_0
I0629 12:59:27.437186 26993 net.cpp:408] cls_pred -> cls_pred
I0629 12:59:27.437384 26993 net.cpp:150] Setting up cls_pred
I0629 12:59:27.437392 26993 net.cpp:157] Top shape: 64 3 (192)
I0629 12:59:27.437396 26993 net.cpp:165] Memory required for data: 2633204220
I0629 12:59:27.437402 26993 layer_factory.hpp:77] Creating layer cls_pred_cls_pred_0_split
I0629 12:59:27.437407 26993 net.cpp:100] Creating Layer cls_pred_cls_pred_0_split
I0629 12:59:27.437410 26993 net.cpp:434] cls_pred_cls_pred_0_split <- cls_pred
I0629 12:59:27.437417 26993 net.cpp:408] cls_pred_cls_pred_0_split -> cls_pred_cls_pred_0_split_0
I0629 12:59:27.437424 26993 net.cpp:408] cls_pred_cls_pred_0_split -> cls_pred_cls_pred_0_split_1
I0629 12:59:27.437477 26993 net.cpp:150] Setting up cls_pred_cls_pred_0_split
I0629 12:59:27.437482 26993 net.cpp:157] Top shape: 64 3 (192)
I0629 12:59:27.437486 26993 net.cpp:157] Top shape: 64 3 (192)
I0629 12:59:27.437489 26993 net.cpp:165] Memory required for data: 2633205756
I0629 12:59:27.437492 26993 layer_factory.hpp:77] Creating layer bbox_pred
I0629 12:59:27.437499 26993 net.cpp:100] Creating Layer bbox_pred
I0629 12:59:27.437502 26993 net.cpp:434] bbox_pred <- fc6_drop6_0_split_1
I0629 12:59:27.437510 26993 net.cpp:408] bbox_pred -> bbox_pred
I0629 12:59:27.437819 26993 net.cpp:150] Setting up bbox_pred
I0629 12:59:27.437826 26993 net.cpp:157] Top shape: 64 12 (768)
I0629 12:59:27.437829 26993 net.cpp:165] Memory required for data: 2633208828
I0629 12:59:27.437834 26993 layer_factory.hpp:77] Creating layer bbox_pred_bbox_pred_0_split
I0629 12:59:27.437841 26993 net.cpp:100] Creating Layer bbox_pred_bbox_pred_0_split
I0629 12:59:27.437845 26993 net.cpp:434] bbox_pred_bbox_pred_0_split <- bbox_pred
I0629 12:59:27.437850 26993 net.cpp:408] bbox_pred_bbox_pred_0_split -> bbox_pred_bbox_pred_0_split_0
I0629 12:59:27.437857 26993 net.cpp:408] bbox_pred_bbox_pred_0_split -> bbox_pred_bbox_pred_0_split_1
I0629 12:59:27.437917 26993 net.cpp:150] Setting up bbox_pred_bbox_pred_0_split
I0629 12:59:27.437923 26993 net.cpp:157] Top shape: 64 12 (768)
I0629 12:59:27.437925 26993 net.cpp:157] Top shape: 64 12 (768)
I0629 12:59:27.437927 26993 net.cpp:165] Memory required for data: 2633214972
I0629 12:59:27.437928 26993 layer_factory.hpp:77] Creating layer loss_cls
I0629 12:59:27.437934 26993 net.cpp:100] Creating Layer loss_cls
I0629 12:59:27.437937 26993 net.cpp:434] loss_cls <- cls_pred_cls_pred_0_split_0
I0629 12:59:27.437940 26993 net.cpp:434] loss_cls <- proposal_labels_proposal_info_1_split_0
…
