…
    downsample_rate: 16
    downsample_rate: 32
    downsample_rate: 32
    downsample_rate: 64
    coord_num: 4
    field_h: 60
    field_h: 84
    field_h: 120
    field_h: 168
    field_h: 240
    field_h: 336
    field_h: 480
    field_w: 40
    field_w: 56
    field_w: 80
    field_w: 112
    field_w: 160
    field_w: 224
    field_w: 360
    fg_threshold: 0.5
    resize_width: 1920
    resize_height: 576
    crop_width: 768
    crop_height: 576
    do_multiple_scale: true
    min_scale: 60
    max_scale: 480
    min_gt_height: 30
    shuffle: true
  }
}
layer {
  name: "conv1_1"
  type: "Convolution"
  bottom: "data"
  top: "conv1_1"
  convolution_param {
    num_output: 64
    pad: 1
    kernel_size: 3
  }
}
layer {
  name: "relu1_1"
  type: "ReLU"
  bottom: "conv1_1"
  top: "conv1_1"
}
layer {
  name: "conv1_2"
  type: "Convolution"
  bottom: "conv1_1"
  top: "conv1_2"
  convolution_param {
    num_output: 64
    pad: 1
    kernel_size: 3
  }
}
layer {
  name: "relu1_2"
  type: "ReLU"
  bottom: "conv1_2"
  top: "conv1_2"
}
layer {
  name: "pool1"
  type: "Pooling"
  bottom: "conv1_2"
  top: "pool1"
  pooling_param {
    pool: MAX
    kernel_size: 2
    stride: 2
  }
}
layer {
  name: "conv2_1"
  type: "Convolution"
  bottom: "pool1"
  top: "conv2_1"
  convolution_param {
    num_output: 128
    pad: 1
    kernel_size: 3
  }
}
layer {
  name: "relu2_1"
  type: "ReLU"
  bottom: "conv2_1"
  top: "conv2_1"
}
layer {
  name: "conv2_2"
  type: "Convolution"
  bottom: "conv2_1"
  top: "conv2_2"
  convolution_param {
    num_output: 128
    pad: 1
    kernel_size: 3
  }
}
layer {
  name: "relu2_2"
  type: "ReLU"
  bottom: "conv2_2"
  top: "conv2_2"
}
layer {
  name: "pool2"
  type: "Pooling"
  bottom: "conv2_2"
  top: "pool2"
  pooling_param {
    pool: MAX
    kernel_size: 2
    stride: 2
  }
}
layer {
  name: "conv3_1"
  type: "Convolution"
  bottom: "pool2"
  top: "conv3_1"
  convolution_param {
    num_output: 256
    pad: 1
    kernel_size: 3
  }
}
layer {
  name: "relu3_1"
  type: "ReLU"
  bottom: "conv3_1"
  top: "conv3_1"
}
layer {
  name: "conv3_2"
  type: "Convolution"
  bottom: "conv3_1"
  top: "conv3_2"
  convolution_param {
    num_output: 256
    pad: 1
    kernel_size: 3
  }
}
layer {
  name: "relu3_2"
  type: "ReLU"
  bottom: "conv3_2"
  top: "conv3_2"
}
layer {
  name: "conv3_3"
  type: "Convolution"
  bottom: "conv3_2"
  top: "conv3_3"
  convolution_param {
    num_output: 256
    pad: 1
    kernel_size: 3
  }
}
layer {
  name: "relu3_3"
  type: "ReLU"
  bottom: "conv3_3"
  top: "conv3_3"
}
layer {
  name: "pool3"
  type: "Pooling"
  bottom: "conv3_3"
  top: "pool3"
  pooling_param {
    pool: MAX
    kernel_size: 2
    stride: 2
  }
}
layer {
  name: "conv4_1"
  type: "Convolution"
  bottom: "pool3"
  top: "conv4_1"
  convolution_param {
    num_output: 512
    pad: 1
    kernel_size: 3
  }
}
layer {
  name: "relu4_1"
  type: "ReLU"
  bottom: "conv4_1"
  top: "conv4_1"
}
layer {
  name: "conv4_2"
  type: "Convolution"
  bottom: "conv4_1"
  top: "conv4_2"
  convolution_param {
    num_output: 512
    pad: 1
    kernel_size: 3
  }
}
layer {
  name: "relu4_2"
  type: "ReLU"
  bottom: "conv4_2"
  top: "conv4_2"
}
layer {
  name: "conv4_3"
  type: "Convolution"
  bottom: "conv4_2"
  top: "conv4_3"
  convolution_param {
    num_output: 512
    pad: 1
    kernel_size: 3
  }
}
layer {
  name: "relu4_3"
  type: "ReLU"
  bottom: "conv4_3"
  top: "conv4_3"
}
layer {
  name: "loss1_conv1"
  type: "Convolution"
  bottom: "conv4_3"
  top: "loss1_conv1"
  param {
    lr_mult: 1
    decay_mult: 1
  }
  param {
    lr_mult: 2
    decay_mult: 0
  }
  convolution_param {
    num_output: 512
    pad: 1
    kernel_size: 3
    weight_filler {
      type: "gaussian"
      std: 0.01
    }
    bias_filler {
      type: "constant"
    }
  }
}
layer {
  name: "loss_relu1"
  type: "ReLU"
  bottom: "loss1_conv1"
  top: "loss1_conv1"
}
layer {
  name: "LFCN_1_3x5"
  type: "Convolution"
  bottom: "loss1_conv1"
  top: "LFCN_1_3x5"
  param {
    lr_mult: 1
    decay_mult: 1
  }
  param {
    lr_mult: 2
    decay_mult: 0
  }
  convolution_param {
    num_output: 7
    weight_filler {
      type: "gaussian"
      std: 0.001
    }
    bias_filler {
      type: "constant"
    }
    pad_h: 2
    pad_w: 1
    kernel_h: 5
    kernel_w: 3
  }
}
layer {
  name: "detection_loss_1_3x5"
  type: "DetectionLoss"
  bottom: "LFCN_1_3x5"
  bottom: "label_1_3x5"
  top: "loss_1_3x5"
  loss_weight: 0.9
  detection_loss_param {
    cls_num: 3
    coord_num: 4
    lambda: 0.5
    field_h: 60
    field_w: 40
    downsample_rate: 8
    bb_smooth: true
    field_whr: 2
    field_xyr: 2
    bg_threshold: 0.2
    bg_multiple: 2
    sample_mode: "random"
    pos_neg_weighted: true
  }
}
layer {
  name: "detection_accuracy_1_3x5"
  type: "DetectionAccuracy"
  bottom: "LFCN_1_3x5"
  bottom: "label_1_3x5"
  top: "accuracy_1_3x5"
  top: "boxiou_1_3x5"
  detection_accuracy_param {
    cls_num: 3
    coord_num: 4
    field_h: 60
    field_w: 40
    downsample_rate: 8
    field_whr: 2
    field_xyr: 2
  }
}
layer {
  name: "LFCN_1_5x7"
  type: "Convolution"
  bottom: "loss1_conv1"
  top: "LFCN_1_5x7"
  param {
    lr_mult: 1
    decay_mult: 1
  }
  param {
    lr_mult: 2
    decay_mult: 0
  }
  convolution_param {
    num_output: 7
    weight_filler {
      type: "gaussian"
      std: 0.001
    }
    bias_filler {
      type: "constant"
    }
    pad_h: 3
    pad_w: 2
    kernel_h: 7
    kernel_w: 5
  }
}
layer {
  name: "detection_loss_1_5x7"
  type: "DetectionLoss"
  bottom: "LFCN_1_5x7"
  bottom: "label_1_5x7"
  top: "loss_1_5x7"
  loss_weight: 0.9
  detection_loss_param {
    cls_num: 3
    coord_num: 4
    lambda: 0.5
    field_h: 84
    field_w: 56
    downsample_rate: 8
    bb_smooth: true
    field_whr: 2
    field_xyr: 2
    bg_threshold: 0.2
    bg_multiple: 2
    sample_mode: "random"
    pos_neg_weighted: true
  }
}
layer {
  name: "detection_accuracy_1_5x7"
  type: "DetectionAccuracy"
  bottom: "LFCN_1_5x7"
  bottom: "label_1_5x7"
  top: "accuracy_1_5x7"
  top: "boxiou_1_5x7"
  detection_accuracy_param {
    cls_num: 3
    coord_num: 4
    field_h: 84
    field_w: 56
    downsample_rate: 8
    field_whr: 2
    field_xyr: 2
  }
}
layer {
  name: "pool4"
  type: "Pooling"
  bottom: "conv4_3"
  top: "pool4"
  pooling_param {
    pool: MAX
    kernel_size: 2
    stride: 2
  }
}
layer {
  name: "conv5_1"
  type: "Convolution"
  bottom: "pool4"
  top: "conv5_1"
  convolution_param {
    num_output: 512
    pad: 1
    kernel_size: 3
  }
}
layer {
  name: "relu5_1"
  type: "ReLU"
  bottom: "conv5_1"
  top: "conv5_1"
}
layer {
  name: "conv5_2"
  type: "Convolution"
  bottom: "conv5_1"
  top: "conv5_2"
  convolution_param {
    num_output: 512
    pad: 1
    kernel_size: 3
  }
}
layer {
  name: "relu5_2"
  type: "ReLU"
  bottom: "conv5_2"
  top: "conv5_2"
}
layer {
  name: "conv5_3"
  type: "Convolution"
  bottom: "conv5_2"
  top: "conv5_3"
  convolution_param {
    num_output: 512
    pad: 1
    kernel_size: 3
  }
}
layer {
  name: "relu5_3"
  type: "ReLU"
  bottom: "conv5_3"
  top: "conv5_3"
}
layer {
  name: "LFCN_2_3x5"
  type: "Convolution"
  bottom: "conv5_3"
  top: "LFCN_2_3x5"
  param {
    lr_mult: 1
    decay_mult: 1
  }
  param {
    lr_mult: 2
    decay_mult: 0
  }
  convolution_param {
    num_output: 7
    weight_filler {
      type: "gaussian"
      std: 0.001
    }
    bias_filler {
      type: "constant"
    }
    pad_h: 2
    pad_w: 1
    kernel_h: 5
    kernel_w: 3
  }
}
layer {
  name: "detection_loss_2_3x5"
  type: "DetectionLoss"
  bottom: "LFCN_2_3x5"
  bottom: "label_2_3x5"
  top: "loss_2_3x5"
  detection_loss_param {
    cls_num: 3
    coord_num: 4
    lambda: 0.5
    field_h: 120
    field_w: 80
    downsample_rate: 16
    bb_smooth: true
    field_whr: 2
    field_xyr: 2
    bg_threshold: 0.2
    bg_multiple: 2
    sample_mode: "random"
    pos_neg_weighted: true
  }
}
layer {
  name: "detection_accuracy_2_3x5"
  type: "DetectionAccuracy"
  bottom: "LFCN_2_3x5"
  bottom: "label_2_3x5"
  top: "accuracy_2_3x5"
  top: "boxiou_2_3x5"
  detection_accuracy_param {
    cls_num: 3
    coord_num: 4
    field_h: 120
    field_w: 80
    downsample_rate: 16
    field_whr: 2
    field_xyr: 2
  }
}
layer {
  name: "LFCN_2_5x7"
  type: "Convolution"
  bottom: "conv5_3"
  top: "LFCN_2_5x7"
  param {
    lr_mult: 1
    decay_mult: 1
  }
  param {
    lr_mult: 2
    decay_mult: 0
  }
  convolution_param {
    num_output: 7
    weight_filler {
      type: "gaussian"
      std: 0.001
    }
    bias_filler {
      type: "constant"
    }
    pad_h: 3
    pad_w: 2
    kernel_h: 7
    kernel_w: 5
  }
}
layer {
  name: "detection_loss_2_5x7"
  type: "DetectionLoss"
  bottom: "LFCN_2_5x7"
  bottom: "label_2_5x7"
  top: "loss_2_5x7"
  detection_loss_param {
    cls_num: 3
    coord_num: 4
    lambda: 0.5
    field_h: 168
    field_w: 112
    downsample_rate: 16
    bb_smooth: true
    field_whr: 2
    field_xyr: 2
    bg_threshold: 0.2
    bg_multiple: 2
    sample_mode: "random"
    pos_neg_weighted: true
  }
}
layer {
  name: "detection_accuracy_2_5x7"
  type: "DetectionAccuracy"
  bottom: "LFCN_2_5x7"
  bottom: "label_2_5x7"
  top: "accuracy_2_5x7"
  top: "boxiou_2_5x7"
  detection_accuracy_param {
    cls_num: 3
    coord_num: 4
    field_h: 168
    field_w: 112
    downsample_rate: 16
    field_whr: 2
    field_xyr: 2
  }
}
layer {
  name: "pool5"
  type: "Pooling"
  bottom: "conv5_3"
  top: "pool5"
  pooling_param {
    pool: MAX
    kernel_size: 2
    stride: 2
  }
}
layer {
  name: "conv6_1"
  type: "Convolution"
  bottom: "pool5"
  top: "conv6_1"
  param {
    lr_mult: 1
    decay_mult: 1
  }
  param {
    lr_mult: 2
    decay_mult: 0
  }
  convolution_param {
    num_output: 512
    pad: 1
    kernel_size: 3
    weight_filler {
      type: "gaussian"
      std: 0.01
    }
    bias_filler {
      type: "constant"
    }
  }
}
layer {
  name: "relu6_1"
  type: "ReLU"
  bottom: "conv6_1"
  top: "conv6_1"
}
layer {
  name: "LFCN_3_3x5"
  type: "Convolution"
  bottom: "conv6_1"
  top: "LFCN_3_3x5"
  param {
    lr_mult: 1
    decay_mult: 1
  }
  param {
    lr_mult: 2
    decay_mult: 0
  }
  convolution_param {
    num_output: 7
    weight_filler {
      type: "gaussian"
      std: 0.001
    }
    bias_filler {
      type: "constant"
    }
    pad_h: 2
    pad_w: 1
    kernel_h: 5
    kernel_w: 3
  }
}
layer {
  name: "detection_loss_3_3x5"
  type: "DetectionLoss"
  bottom: "LFCN_3_3x5"
  bottom: "label_3_3x5"
  top: "loss_3_3x5"
  detection_loss_param {
    cls_num: 3
    coord_num: 4
    lambda: 0.5
    field_h: 240
    field_w: 160
    downsample_rate: 32
    bb_smooth: true
    field_whr: 2
    field_xyr: 2
    bg_threshold: 0.2
    bg_multiple: 2
    sample_mode: "random"
    pos_neg_weighted: true
  }
}
layer {
  name: "detection_accuracy_3_3x5"
  type: "DetectionAccuracy"
  bottom: "LFCN_3_3x5"
  bottom: "label_3_3x5"
  top: "accuracy_3_3x5"
  top: "boxiou_3_3x5"
  detection_accuracy_param {
    cls_num: 3
    coord_num: 4
    field_h: 240
    field_w: 160
    downsample_rate: 32
    field_whr: 2
    field_xyr: 2
  }
}
layer {
  name: "LFCN_3_5x7"
  type: "Convolution"
  bottom: "conv6_1"
  top: "LFCN_3_5x7"
  param {
    lr_mult: 1
    decay_mult: 1
  }
  param {
    lr_mult: 2
    decay_mult: 0
  }
  convolution_param {
    num_output: 7
    weight_filler {
      type: "gaussian"
      std: 0.001
    }
    bias_filler {
      type: "constant"
    }
    pad_h: 3
    pad_w: 2
    kernel_h: 7
    kernel_w: 5
  }
}
layer {
  name: "detection_loss_3_5x7"
  type: "DetectionLoss"
  bottom: "LFCN_3_5x7"
  bottom: "label_3_5x7"
  top: "loss_3_5x7"
  detection_loss_param {
    cls_num: 3
    coord_num: 4
    lambda: 0.5
    field_h: 336
    field_w: 224
    downsample_rate: 32
    bb_smooth: true
    field_whr: 2
    field_xyr: 2
    bg_threshold: 0.2
    bg_multiple: 2
    sample_mode: "random"
    pos_neg_weighted: true
  }
}
layer {
  name: "detection_accuracy_3_5x7"
  type: "DetectionAccuracy"
  bottom: "LFCN_3_5x7"
  bottom: "label_3_5x7"
  top: "accuracy_3_5x7"
  top: "boxiou_3_5x7"
  detection_accuracy_param {
    cls_num: 3
    coord_num: 4
    field_h: 336
    field_w: 224
    downsample_rate: 32
    field_whr: 2
    field_xyr: 2
  }
}
layer {
  name: "pool6"
  type: "Pooling"
  bottom: "conv6_1"
  top: "pool6"
  pooling_param {
    pool: MAX
    kernel_size: 2
    stride: 2
  }
}
layer {
  name: "LFCN_4_3x5"
  type: "Convolution"
  bottom: "pool6"
  top: "LFCN_4_3x5"
  param {
    lr_mult: 1
    decay_mult: 1
  }
  param {
    lr_mult: 2
    decay_mult: 0
  }
  convolution_param {
    num_output: 7
    weight_filler {
      type: "gaussian"
      std: 0.001
    }
    bias_filler {
      type: "constant"
    }
    pad_h: 2
    pad_w: 1
    kernel_h: 5
    kernel_w: 3
  }
}
layer {
  name: "detection_loss_4_3x5"
  type: "DetectionLoss"
  bottom: "LFCN_4_3x5"
  bottom: "label_4_3x5"
  top: "loss_4_3x5"
  detection_loss_param {
    cls_num: 3
    coord_num: 4
    lambda: 0.5
    field_h: 480
    field_w: 360
    downsample_rate: 64
    bb_smooth: true
    field_whr: 2
    field_xyr: 2
    bg_threshold: 0.2
    bg_multiple: 2
    sample_mode: "random"
    pos_neg_weighted: true
  }
}
layer {
  name: "detection_accuracy_4_3x5"
  type: "DetectionAccuracy"
  bottom: "LFCN_4_3x5"
  bottom: "label_4_3x5"
  top: "accuracy_4_3x5"
  top: "boxiou_4_3x5"
  detection_accuracy_param {
    cls_num: 3
    coord_num: 4
    field_h: 480
    field_w: 360
    downsample_rate: 64
    field_whr: 2
    field_xyr: 2
  }
}
I0701 22:54:28.594804  6432 layer_factory.hpp:77] Creating layer data
I0701 22:54:28.594830  6432 net.cpp:100] Creating Layer data
I0701 22:54:28.594837  6432 net.cpp:408] data -> data
…
I0701 22:54:28.619695  6432 image_gt_data_layer.cpp:241] output label size 2 : 4,6,36,48
I0701 22:54:28.619738  6432 image_gt_data_layer.cpp:241] output label size 3 : 4,6,36,48
I0701 22:54:28.619781  6432 image_gt_data_layer.cpp:241] output label size 4 : 4,6,18,24
I0701 22:54:28.619827  6432 image_gt_data_layer.cpp:241] output label size 5 : 4,6,18,24
I0701 22:54:28.619869  6432 image_gt_data_layer.cpp:241] output label size 6 : 4,6,9,12
I0701 22:54:28.619874  6432 image_gt_data_layer.cpp:265]  --> has_mean_values_ = 1
I0701 22:54:28.655292  6432 net.cpp:150] Setting up data
I0701 22:54:28.655311  6432 net.cpp:157] Top shape: 4 4 576 768 (7077888)
I0701 22:54:28.655315  6432 net.cpp:157] Top shape: 4 6 72 96 (165888)
I0701 22:54:28.655318  6432 net.cpp:157] Top shape: 4 6 72 96 (165888)
I0701 22:54:28.655321  6432 net.cpp:157] Top shape: 4 6 36 48 (41472)
I0701 22:54:28.655323  6432 net.cpp:157] Top shape: 4 6 36 48 (41472)
I0701 22:54:28.655326  6432 net.cpp:157] Top shape: 4 6 18 24 (10368)
I0701 22:54:28.655330  6432 net.cpp:157] Top shape: 4 6 18 24 (10368)
I0701 22:54:28.655334  6432 net.cpp:157] Top shape: 4 6 9 12 (2592)
I0701 22:54:28.655336  6432 net.cpp:165] Memory required for data: 30063744
I0701 22:54:28.655344  6432 layer_factory.hpp:77] Creating layer label_1_3x5_data_1_split
I0701 22:54:28.655356  6432 net.cpp:100] Creating Layer label_1_3x5_data_1_split
I0701 22:54:28.655361  6432 net.cpp:434] label_1_3x5_data_1_split <- label_1_3x5
I0701 22:54:28.655390  6432 net.cpp:408] label_1_3x5_data_1_split -> label_1_3x5_data_1_split_0
I0701 22:54:28.655403  6432 net.cpp:408] label_1_3x5_data_1_split -> label_1_3x5_data_1_split_1
I0701 22:54:28.655457  6432 net.cpp:150] Setting up label_1_3x5_data_1_split
I0701 22:54:28.655481  6432 net.cpp:157] Top shape: 4 6 72 96 (165888)
I0701 22:54:28.655498  6432 net.cpp:157] Top shape: 4 6 72 96 (165888)
I0701 22:54:28.655513  6432 net.cpp:165] Memory required for data: 31390848
I0701 22:54:28.655517  6432 layer_factory.hpp:77] Creating layer label_1_5x7_data_2_split
I0701 22:54:28.655526  6432 net.cpp:100] Creating Layer label_1_5x7_data_2_split
I0701 22:54:28.655529  6432 net.cpp:434] label_1_5x7_data_2_split <- label_1_5x7
I0701 22:54:28.655535  6432 net.cpp:408] label_1_5x7_data_2_split -> label_1_5x7_data_2_split_0
I0701 22:54:28.655550  6432 net.cpp:408] label_1_5x7_data_2_split -> label_1_5x7_data_2_split_1
I0701 22:54:28.655588  6432 net.cpp:150] Setting up label_1_5x7_data_2_split
I0701 22:54:28.655594  6432 net.cpp:157] Top shape: 4 6 72 96 (165888)
I0701 22:54:28.655598  6432 net.cpp:157] Top shape: 4 6 72 96 (165888)
I0701 22:54:28.655601  6432 net.cpp:165] Memory required for data: 32717952
I0701 22:54:28.655604  6432 layer_factory.hpp:77] Creating layer label_2_3x5_data_3_split
I0701 22:54:28.655620  6432 net.cpp:100] Creating Layer label_2_3x5_data_3_split
I0701 22:54:28.655624  6432 net.cpp:434] label_2_3x5_data_3_split <- label_2_3x5
I0701 22:54:28.655630  6432 net.cpp:408] label_2_3x5_data_3_split -> label_2_3x5_data_3_split_0
I0701 22:54:28.655635  6432 net.cpp:408] label_2_3x5_data_3_split -> label_2_3x5_data_3_split_1
I0701 22:54:28.655666  6432 net.cpp:150] Setting up label_2_3x5_data_3_split
I0701 22:54:28.655671  6432 net.cpp:157] Top shape: 4 6 36 48 (41472)
I0701 22:54:28.655675  6432 net.cpp:157] Top shape: 4 6 36 48 (41472)
I0701 22:54:28.655678  6432 net.cpp:165] Memory required for data: 33049728
I0701 22:54:28.655683  6432 layer_factory.hpp:77] Creating layer label_2_5x7_data_4_split
I0701 22:54:28.655689  6432 net.cpp:100] Creating Layer label_2_5x7_data_4_split
I0701 22:54:28.655691  6432 net.cpp:434] label_2_5x7_data_4_split <- label_2_5x7
I0701 22:54:28.655697  6432 net.cpp:408] label_2_5x7_data_4_split -> label_2_5x7_data_4_split_0
I0701 22:54:28.655704  6432 net.cpp:408] label_2_5x7_data_4_split -> label_2_5x7_data_4_split_1
I0701 22:54:28.655732  6432 net.cpp:150] Setting up label_2_5x7_data_4_split
I0701 22:54:28.655738  6432 net.cpp:157] Top shape: 4 6 36 48 (41472)
I0701 22:54:28.655742  6432 net.cpp:157] Top shape: 4 6 36 48 (41472)
I0701 22:54:28.655745  6432 net.cpp:165] Memory required for data: 33381504
I0701 22:54:28.655748  6432 layer_factory.hpp:77] Creating layer label_3_3x5_data_5_split
I0701 22:54:28.655753  6432 net.cpp:100] Creating Layer label_3_3x5_data_5_split
I0701 22:54:28.655756  6432 net.cpp:434] label_3_3x5_data_5_split <- label_3_3x5
I0701 22:54:28.655761  6432 net.cpp:408] label_3_3x5_data_5_split -> label_3_3x5_data_5_split_0
I0701 22:54:28.655769  6432 net.cpp:408] label_3_3x5_data_5_split -> label_3_3x5_data_5_split_1
I0701 22:54:28.655802  6432 net.cpp:150] Setting up label_3_3x5_data_5_split
I0701 22:54:28.655810  6432 net.cpp:157] Top shape: 4 6 18 24 (10368)
I0701 22:54:28.655814  6432 net.cpp:157] Top shape: 4 6 18 24 (10368)
I0701 22:54:28.655817  6432 net.cpp:165] Memory required for data: 33464448
I0701 22:54:28.655820  6432 layer_factory.hpp:77] Creating layer label_3_5x7_data_6_split
I0701 22:54:28.655824  6432 net.cpp:100] Creating Layer label_3_5x7_data_6_split
I0701 22:54:28.655827  6432 net.cpp:434] label_3_5x7_data_6_split <- label_3_5x7
I0701 22:54:28.655833  6432 net.cpp:408] label_3_5x7_data_6_split -> label_3_5x7_data_6_split_0
I0701 22:54:28.655838  6432 net.cpp:408] label_3_5x7_data_6_split -> label_3_5x7_data_6_split_1
I0701 22:54:28.658149  6432 net.cpp:150] Setting up label_3_5x7_data_6_split
I0701 22:54:28.658176  6432 net.cpp:157] Top shape: 4 6 18 24 (10368)
I0701 22:54:28.658179  6432 net.cpp:157] Top shape: 4 6 18 24 (10368)
I0701 22:54:28.658181  6432 net.cpp:165] Memory required for data: 33547392
I0701 22:54:28.658186  6432 layer_factory.hpp:77] Creating layer label_4_3x5_data_7_split
I0701 22:54:28.658200  6432 net.cpp:100] Creating Layer label_4_3x5_data_7_split
I0701 22:54:28.658208  6432 net.cpp:434] label_4_3x5_data_7_split <- label_4_3x5
I0701 22:54:28.658226  6432 net.cpp:408] label_4_3x5_data_7_split -> label_4_3x5_data_7_split_0
I0701 22:54:28.658238  6432 net.cpp:408] label_4_3x5_data_7_split -> label_4_3x5_data_7_split_1
I0701 22:54:28.658304  6432 net.cpp:150] Setting up label_4_3x5_data_7_split
I0701 22:54:28.658314  6432 net.cpp:157] Top shape: 4 6 9 12 (2592)
I0701 22:54:28.658318  6432 net.cpp:157] Top shape: 4 6 9 12 (2592)
I0701 22:54:28.658321  6432 net.cpp:165] Memory required for data: 33568128
I0701 22:54:28.658324  6432 layer_factory.hpp:77] Creating layer conv1_1
I0701 22:54:28.658375  6432 net.cpp:100] Creating Layer conv1_1
I0701 22:54:28.658382  6432 net.cpp:434] conv1_1 <- data
I0701 22:54:28.658390  6432 net.cpp:408] conv1_1 -> conv1_1
I0701 22:54:29.222313  6432 net.cpp:150] Setting up conv1_1
I0701 22:54:29.222333  6432 net.cpp:157] Top shape: 4 64 576 768 (113246208)
I0701 22:54:29.222337  6432 net.cpp:165] Memory required for data: 486552960
I0701 22:54:29.222352  6432 layer_factory.hpp:77] Creating layer relu1_1
I0701 22:54:29.222362  6432 net.cpp:100] Creating Layer relu1_1
I0701 22:54:29.222364  6432 net.cpp:434] relu1_1 <- conv1_1
I0701 22:54:29.222369  6432 net.cpp:395] relu1_1 -> conv1_1 (in-place)
I0701 22:54:29.222771  6432 net.cpp:150] Setting up relu1_1
I0701 22:54:29.222782  6432 net.cpp:157] Top shape: 4 64 576 768 (113246208)
I0701 22:54:29.222785  6432 net.cpp:165] Memory required for data: 939537792
I0701 22:54:29.222790  6432 layer_factory.hpp:77] Creating layer conv1_2
I0701 22:54:29.222800  6432 net.cpp:100] Creating Layer conv1_2
I0701 22:54:29.222803  6432 net.cpp:434] conv1_2 <- conv1_1
I0701 22:54:29.222810  6432 net.cpp:408] conv1_2 -> conv1_2
I0701 22:54:29.225843  6432 net.cpp:150] Setting up conv1_2
I0701 22:54:29.225863  6432 net.cpp:157] Top shape: 4 64 576 768 (113246208)
I0701 22:54:29.225865  6432 net.cpp:165] Memory required for data: 1392522624
I0701 22:54:29.225875  6432 layer_factory.hpp:77] Creating layer relu1_2
I0701 22:54:29.225883  6432 net.cpp:100] Creating Layer relu1_2
I0701 22:54:29.225886  6432 net.cpp:434] relu1_2 <- conv1_2
I0701 22:54:29.225893  6432 net.cpp:395] relu1_2 -> conv1_2 (in-place)
I0701 22:54:29.226250  6432 net.cpp:150] Setting up relu1_2
I0701 22:54:29.226261  6432 net.cpp:157] Top shape: 4 64 576 768 (113246208)
I0701 22:54:29.226263  6432 net.cpp:165] Memory required for data: 1845507456
I0701 22:54:29.226266  6432 layer_factory.hpp:77] Creating layer pool1
I0701 22:54:29.226274  6432 net.cpp:100] Creating Layer pool1
I0701 22:54:29.226279  6432 net.cpp:434] pool1 <- conv1_2
I0701 22:54:29.226284  6432 net.cpp:408] pool1 -> pool1
I0701 22:54:29.226343  6432 net.cpp:150] Setting up pool1
I0701 22:54:29.226351  6432 net.cpp:157] Top shape: 4 64 288 384 (28311552)
I0701 22:54:29.226354  6432 net.cpp:165] Memory required for data: 1958753664
I0701 22:54:29.226357  6432 layer_factory.hpp:77] Creating layer conv2_1
I0701 22:54:29.226366  6432 net.cpp:100] Creating Layer conv2_1
I0701 22:54:29.226369  6432 net.cpp:434] conv2_1 <- pool1
I0701 22:54:29.226374  6432 net.cpp:408] conv2_1 -> conv2_1
I0701 22:54:29.228989  6432 net.cpp:150] Setting up conv2_1
I0701 22:54:29.229007  6432 net.cpp:157] Top shape: 4 128 288 384 (56623104)
I0701 22:54:29.229009  6432 net.cpp:165] Memory required for data: 2185246080
I0701 22:54:29.229022  6432 layer_factory.hpp:77] Creating layer relu2_1
I0701 22:54:29.229037  6432 net.cpp:100] Creating Layer relu2_1
I0701 22:54:29.229041  6432 net.cpp:434] relu2_1 <- conv2_1
I0701 22:54:29.229049  6432 net.cpp:395] relu2_1 -> conv2_1 (in-place)
I0701 22:54:29.229825  6432 net.cpp:150] Setting up relu2_1
I0701 22:54:29.229835  6432 net.cpp:157] Top shape: 4 128 288 384 (56623104)
I0701 22:54:29.229837  6432 net.cpp:165] Memory required for data: 2411738496
I0701 22:54:29.229840  6432 layer_factory.hpp:77] Creating layer conv2_2
I0701 22:54:29.229847  6432 net.cpp:100] Creating Layer conv2_2
I0701 22:54:29.229851  6432 net.cpp:434] conv2_2 <- conv2_1
I0701 22:54:29.229856  6432 net.cpp:408] conv2_2 -> conv2_2
I0701 22:54:29.231736  6432 net.cpp:150] Setting up conv2_2
I0701 22:54:29.231751  6432 net.cpp:157] Top shape: 4 128 288 384 (56623104)
I0701 22:54:29.231753  6432 net.cpp:165] Memory required for data: 2638230912
I0701 22:54:29.231760  6432 layer_factory.hpp:77] Creating layer relu2_2
I0701 22:54:29.231773  6432 net.cpp:100] Creating Layer relu2_2
I0701 22:54:29.231778  6432 net.cpp:434] relu2_2 <- conv2_2
I0701 22:54:29.231784  6432 net.cpp:395] relu2_2 -> conv2_2 (in-place)
I0701 22:54:29.232501  6432 net.cpp:150] Setting up relu2_2
I0701 22:54:29.232511  6432 net.cpp:157] Top shape: 4 128 288 384 (56623104)
I0701 22:54:29.232512  6432 net.cpp:165] Memory required for data: 2864723328
I0701 22:54:29.232515  6432 layer_factory.hpp:77] Creating layer pool2
I0701 22:54:29.232522  6432 net.cpp:100] Creating Layer pool2
I0701 22:54:29.232525  6432 net.cpp:434] pool2 <- conv2_2
I0701 22:54:29.232532  6432 net.cpp:408] pool2 -> pool2
I0701 22:54:29.232585  6432 net.cpp:150] Setting up pool2
I0701 22:54:29.232591  6432 net.cpp:157] Top shape: 4 128 144 192 (14155776)
I0701 22:54:29.232594  6432 net.cpp:165] Memory required for data: 2921346432
I0701 22:54:29.232597  6432 layer_factory.hpp:77] Creating layer conv3_1
I0701 22:54:29.232606  6432 net.cpp:100] Creating Layer conv3_1
I0701 22:54:29.232610  6432 net.cpp:434] conv3_1 <- pool2
I0701 22:54:29.232616  6432 net.cpp:408] conv3_1 -> conv3_1
I0701 22:54:29.235589  6432 net.cpp:150] Setting up conv3_1
I0701 22:54:29.235607  6432 net.cpp:157] Top shape: 4 256 144 192 (28311552)
I0701 22:54:29.235610  6432 net.cpp:165] Memory required for data: 3034592640
I0701 22:54:29.235620  6432 layer_factory.hpp:77] Creating layer relu3_1
I0701 22:54:29.235627  6432 net.cpp:100] Creating Layer relu3_1
I0701 22:54:29.235630  6432 net.cpp:434] relu3_1 <- conv3_1
I0701 22:54:29.235635  6432 net.cpp:395] relu3_1 -> conv3_1 (in-place)
I0701 22:54:29.235977  6432 net.cpp:150] Setting up relu3_1
I0701 22:54:29.235986  6432 net.cpp:157] Top shape: 4 256 144 192 (28311552)
I0701 22:54:29.235988  6432 net.cpp:165] Memory required for data: 3147838848
I0701 22:54:29.235991  6432 layer_factory.hpp:77] Creating layer conv3_2
I0701 22:54:29.235998  6432 net.cpp:100] Creating Layer conv3_2
I0701 22:54:29.236003  6432 net.cpp:434] conv3_2 <- conv3_1
I0701 22:54:29.236012  6432 net.cpp:408] conv3_2 -> conv3_2
I0701 22:54:29.239504  6432 net.cpp:150] Setting up conv3_2
I0701 22:54:29.239521  6432 net.cpp:157] Top shape: 4 256 144 192 (28311552)
I0701 22:54:29.239523  6432 net.cpp:165] Memory required for data: 3261085056
I0701 22:54:29.239531  6432 layer_factory.hpp:77] Creating layer relu3_2
I0701 22:54:29.239538  6432 net.cpp:100] Creating Layer relu3_2
I0701 22:54:29.239542  6432 net.cpp:434] relu3_2 <- conv3_2
I0701 22:54:29.239545  6432 net.cpp:395] relu3_2 -> conv3_2 (in-place)
I0701 22:54:29.239879  6432 net.cpp:150] Setting up relu3_2
I0701 22:54:29.239889  6432 net.cpp:157] Top shape: 4 256 144 192 (28311552)
I0701 22:54:29.239892  6432 net.cpp:165] Memory required for data: 3374331264
I0701 22:54:29.239895  6432 layer_factory.hpp:77] Creating layer conv3_3
I0701 22:54:29.239902  6432 net.cpp:100] Creating Layer conv3_3
I0701 22:54:29.239904  6432 net.cpp:434] conv3_3 <- conv3_2
I0701 22:54:29.239909  6432 net.cpp:408] conv3_3 -> conv3_3
I0701 22:54:29.243042  6432 net.cpp:150] Setting up conv3_3
I0701 22:54:29.243062  6432 net.cpp:157] Top shape: 4 256 144 192 (28311552)
I0701 22:54:29.243065  6432 net.cpp:165] Memory required for data: 3487577472
I0701 22:54:29.243073  6432 layer_factory.hpp:77] Creating layer relu3_3
I0701 22:54:29.243082  6432 net.cpp:100] Creating Layer relu3_3
I0701 22:54:29.243086  6432 net.cpp:434] relu3_3 <- conv3_3
I0701 22:54:29.243094  6432 net.cpp:395] relu3_3 -> conv3_3 (in-place)
I0701 22:54:29.243818  6432 net.cpp:150] Setting up relu3_3
I0701 22:54:29.243829  6432 net.cpp:157] Top shape: 4 256 144 192 (28311552)
I0701 22:54:29.243829  6432 net.cpp:165] Memory required for data: 3600823680
I0701 22:54:29.243832  6432 layer_factory.hpp:77] Creating layer pool3
I0701 22:54:29.243839  6432 net.cpp:100] Creating Layer pool3
I0701 22:54:29.243844  6432 net.cpp:434] pool3 <- conv3_3
I0701 22:54:29.243850  6432 net.cpp:408] pool3 -> pool3
I0701 22:54:29.243904  6432 net.cpp:150] Setting up pool3
I0701 22:54:29.243911  6432 net.cpp:157] Top shape: 4 256 72 96 (7077888)
I0701 22:54:29.243914  6432 net.cpp:165] Memory required for data: 3629135232
I0701 22:54:29.243917  6432 layer_factory.hpp:77] Creating layer conv4_1
I0701 22:54:29.243928  6432 net.cpp:100] Creating Layer conv4_1
I0701 22:54:29.243932  6432 net.cpp:434] conv4_1 <- pool3
I0701 22:54:29.243937  6432 net.cpp:408] conv4_1 -> conv4_1
I0701 22:54:29.248862  6432 net.cpp:150] Setting up conv4_1
I0701 22:54:29.248881  6432 net.cpp:157] Top shape: 4 512 72 96 (14155776)
I0701 22:54:29.248884  6432 net.cpp:165] Memory required for data: 3685758336
I0701 22:54:29.248891  6432 layer_factory.hpp:77] Creating layer relu4_1
I0701 22:54:29.248898  6432 net.cpp:100] Creating Layer relu4_1
I0701 22:54:29.248900  6432 net.cpp:434] relu4_1 <- conv4_1
I0701 22:54:29.248905  6432 net.cpp:395] relu4_1 -> conv4_1 (in-place)
I0701 22:54:29.249240  6432 net.cpp:150] Setting up relu4_1
I0701 22:54:29.249250  6432 net.cpp:157] Top shape: 4 512 72 96 (14155776)
I0701 22:54:29.249253  6432 net.cpp:165] Memory required for data: 3742381440
I0701 22:54:29.249256  6432 layer_factory.hpp:77] Creating layer conv4_2
I0701 22:54:29.249269  6432 net.cpp:100] Creating Layer conv4_2
I0701 22:54:29.249275  6432 net.cpp:434] conv4_2 <- conv4_1
I0701 22:54:29.249281  6432 net.cpp:408] conv4_2 -> conv4_2
I0701 22:54:29.255481  6432 net.cpp:150] Setting up conv4_2
I0701 22:54:29.255498  6432 net.cpp:157] Top shape: 4 512 72 96 (14155776)
I0701 22:54:29.255501  6432 net.cpp:165] Memory required for data: 3799004544
I0701 22:54:29.255511  6432 layer_factory.hpp:77] Creating layer relu4_2
I0701 22:54:29.255520  6432 net.cpp:100] Creating Layer relu4_2
I0701 22:54:29.255523  6432 net.cpp:434] relu4_2 <- conv4_2
I0701 22:54:29.255528  6432 net.cpp:395] relu4_2 -> conv4_2 (in-place)
I0701 22:54:29.255844  6432 net.cpp:150] Setting up relu4_2
I0701 22:54:29.255854  6432 net.cpp:157] Top shape: 4 512 72 96 (14155776)
I0701 22:54:29.255857  6432 net.cpp:165] Memory required for data: 3855627648
I0701 22:54:29.255861  6432 layer_factory.hpp:77] Creating layer conv4_3
I0701 22:54:29.255869  6432 net.cpp:100] Creating Layer conv4_3
I0701 22:54:29.255873  6432 net.cpp:434] conv4_3 <- conv4_2
I0701 22:54:29.255879  6432 net.cpp:408] conv4_3 -> conv4_3
I0701 22:54:29.261692  6432 net.cpp:150] Setting up conv4_3
I0701 22:54:29.261708  6432 net.cpp:157] Top shape: 4 512 72 96 (14155776)
I0701 22:54:29.261711  6432 net.cpp:165] Memory required for data: 3912250752
I0701 22:54:29.261718  6432 layer_factory.hpp:77] Creating layer relu4_3
I0701 22:54:29.261724  6432 net.cpp:100] Creating Layer relu4_3
I0701 22:54:29.261728  6432 net.cpp:434] relu4_3 <- conv4_3
I0701 22:54:29.261731  6432 net.cpp:395] relu4_3 -> conv4_3 (in-place)
I0701 22:54:29.262538  6432 net.cpp:150] Setting up relu4_3
I0701 22:54:29.262548  6432 net.cpp:157] Top shape: 4 512 72 96 (14155776)
I0701 22:54:29.262550  6432 net.cpp:165] Memory required for data: 3968873856
I0701 22:54:29.262553  6432 layer_factory.hpp:77] Creating layer conv4_3_relu4_3_0_split
I0701 22:54:29.262559  6432 net.cpp:100] Creating Layer conv4_3_relu4_3_0_split
I0701 22:54:29.262562  6432 net.cpp:434] conv4_3_relu4_3_0_split <- conv4_3
I0701 22:54:29.262567  6432 net.cpp:408] conv4_3_relu4_3_0_split -> conv4_3_relu4_3_0_split_0
I0701 22:54:29.262571  6432 net.cpp:408] conv4_3_relu4_3_0_split -> conv4_3_relu4_3_0_split_1
I0701 22:54:29.262619  6432 net.cpp:150] Setting up conv4_3_relu4_3_0_split
I0701 22:54:29.262625  6432 net.cpp:157] Top shape: 4 512 72 96 (14155776)
I0701 22:54:29.262629  6432 net.cpp:157] Top shape: 4 512 72 96 (14155776)
I0701 22:54:29.262632  6432 net.cpp:165] Memory required for data: 4082120064
I0701 22:54:29.262635  6432 layer_factory.hpp:77] Creating layer loss1_conv1
I0701 22:54:29.262651  6432 net.cpp:100] Creating Layer loss1_conv1
I0701 22:54:29.262655  6432 net.cpp:434] loss1_conv1 <- conv4_3_relu4_3_0_split_0
I0701 22:54:29.262661  6432 net.cpp:408] loss1_conv1 -> loss1_conv1
I0701 22:54:29.296684  6432 net.cpp:150] Setting up loss1_conv1
I0701 22:54:29.296700  6432 net.cpp:157] Top shape: 4 512 72 96 (14155776)
I0701 22:54:29.296702  6432 net.cpp:165] Memory required for data: 4138743168
I0701 22:54:29.296708  6432 layer_factory.hpp:77] Creating layer loss_relu1
I0701 22:54:29.296715  6432 net.cpp:100] Creating Layer loss_relu1
I0701 22:54:29.296720  6432 net.cpp:434] loss_relu1 <- loss1_conv1
I0701 22:54:29.296723  6432 net.cpp:395] loss_relu1 -> loss1_conv1 (in-place)
I0701 22:54:29.297044  6432 net.cpp:150] Setting up loss_relu1
I0701 22:54:29.297052  6432 net.cpp:157] Top shape: 4 512 72 96 (14155776)
I0701 22:54:29.297056  6432 net.cpp:165] Memory required for data: 4195366272
I0701 22:54:29.297060  6432 layer_factory.hpp:77] Creating layer loss1_conv1_loss_relu1_0_split
I0701 22:54:29.297066  6432 net.cpp:100] Creating Layer loss1_conv1_loss_relu1_0_split
I0701 22:54:29.297070  6432 net.cpp:434] loss1_conv1_loss_relu1_0_split <- loss1_conv1
I0701 22:54:29.297075  6432 net.cpp:408] loss1_conv1_loss_relu1_0_split -> loss1_conv1_loss_relu1_0_split_0
I0701 22:54:29.297082  6432 net.cpp:408] loss1_conv1_loss_relu1_0_split -> loss1_conv1_loss_relu1_0_split_1
I0701 22:54:29.297132  6432 net.cpp:150] Setting up loss1_conv1_loss_relu1_0_split
I0701 22:54:29.297138  6432 net.cpp:157] Top shape: 4 512 72 96 (14155776)
I0701 22:54:29.297142  6432 net.cpp:157] Top shape: 4 512 72 96 (14155776)
I0701 22:54:29.297145  6432 net.cpp:165] Memory required for data: 4308612480
I0701 22:54:29.297148  6432 layer_factory.hpp:77] Creating layer LFCN_1_3x5
I0701 22:54:29.297158  6432 net.cpp:100] Creating Layer LFCN_1_3x5
I0701 22:54:29.297161  6432 net.cpp:434] LFCN_1_3x5 <- loss1_conv1_loss_relu1_0_split_0
I0701 22:54:29.297168  6432 net.cpp:408] LFCN_1_3x5 -> LFCN_1_3x5
I0701 22:54:29.299530  6432 net.cpp:150] Setting up LFCN_1_3x5
I0701 22:54:29.299546  6432 net.cpp:157] Top shape: 4 7 72 96 (193536)
I0701 22:54:29.299548  6432 net.cpp:165] Memory required for data: 4309386624
I0701 22:54:29.299556  6432 layer_factory.hpp:77] Creating layer LFCN_1_3x5_LFCN_1_3x5_0_split
I0701 22:54:29.299559  6432 net.cpp:100] Creating Layer LFCN_1_3x5_LFCN_1_3x5_0_split
I0701 22:54:29.299562  6432 net.cpp:434] LFCN_1_3x5_LFCN_1_3x5_0_split <- LFCN_1_3x5
I0701 22:54:29.299567  6432 net.cpp:408] LFCN_1_3x5_LFCN_1_3x5_0_split -> LFCN_1_3x5_LFCN_1_3x5_0_split_0
I0701 22:54:29.299573  6432 net.cpp:408] LFCN_1_3x5_LFCN_1_3x5_0_split -> LFCN_1_3x5_LFCN_1_3x5_0_split_1
I0701 22:54:29.299612  6432 net.cpp:150] Setting up LFCN_1_3x5_LFCN_1_3x5_0_split
I0701 22:54:29.299618  6432 net.cpp:157] Top shape: 4 7 72 96 (193536)
I0701 22:54:29.299620  6432 net.cpp:157] Top shape: 4 7 72 96 (193536)
I0701 22:54:29.299623  6432 net.cpp:165] Memory required for data: 4310934912
I0701 22:54:29.299625  6432 layer_factory.hpp:77] Creating layer detection_loss_1_3x5
I0701 22:54:29.299633  6432 net.cpp:100] Creating Layer detection_loss_1_3x5
I0701 22:54:29.299636  6432 net.cpp:434] detection_loss_1_3x5 <- LFCN_1_3x5_LFCN_1_3x5_0_split_0
I0701 22:54:29.299639  6432 net.cpp:434] detection_loss_1_3x5 <- label_1_3x5_data_1_split_0
I0701 22:54:29.299646  6432 net.cpp:408] detection_loss_1_3x5 -> loss_1_3x5
I0701 22:54:29.299659  6432 layer_factory.hpp:77] Creating layer detection_loss_1_3x5
I0701 22:54:29.300083  6432 net.cpp:150] Setting up detection_loss_1_3x5
I0701 22:54:29.300091  6432 net.cpp:157] Top shape: 1 1 1 2 (2)
I0701 22:54:29.300093  6432 net.cpp:160]     with loss weight 0.9
I0701 22:54:29.300113  6432 net.cpp:165] Memory required for data: 4310934920
I0701 22:54:29.300117  6432 layer_factory.hpp:77] Creating layer detection_accuracy_1_3x5
I0701 22:54:29.300123  6432 net.cpp:100] Creating Layer detection_accuracy_1_3x5
I0701 22:54:29.300127  6432 net.cpp:434] detection_accuracy_1_3x5 <- LFCN_1_3x5_LFCN_1_3x5_0_split_1
I0701 22:54:29.300132  6432 net.cpp:434] detection_accuracy_1_3x5 <- label_1_3x5_data_1_split_1
I0701 22:54:29.300138  6432 net.cpp:408] detection_accuracy_1_3x5 -> accuracy_1_3x5
I0701 22:54:29.300148  6432 net.cpp:408] detection_accuracy_1_3x5 -> boxiou_1_3x5
I0701 22:54:29.300185  6432 net.cpp:150] Setting up detection_accuracy_1_3x5
I0701 22:54:29.300191  6432 net.cpp:157] Top shape: 1 1 1 2 (2)
I0701 22:54:29.300194  6432 net.cpp:157] Top shape: 1 1 1 1 (1)
I0701 22:54:29.300197  6432 net.cpp:165] Memory required for data: 4310934932
I0701 22:54:29.300199  6432 layer_factory.hpp:77] Creating layer LFCN_1_5x7
I0701 22:54:29.300210  6432 net.cpp:100] Creating Layer LFCN_1_5x7
I0701 22:54:29.300215  6432 net.cpp:434] LFCN_1_5x7 <- loss1_conv1_loss_relu1_0_split_1
I0701 22:54:29.300220  6432 net.cpp:408] LFCN_1_5x7 -> LFCN_1_5x7
I0701 22:54:29.302528  6432 net.cpp:150] Setting up LFCN_1_5x7
I0701 22:54:29.302546  6432 net.cpp:157] Top shape: 4 7 72 96 (193536)
I0701 22:54:29.302547  6432 net.cpp:165] Memory required for data: 4311709076
I0701 22:54:29.302556  6432 layer_factory.hpp:77] Creating layer LFCN_1_5x7_LFCN_1_5x7_0_split
I0701 22:54:29.302563  6432 net.cpp:100] Creating Layer LFCN_1_5x7_LFCN_1_5x7_0_split
I0701 22:54:29.302568  6432 net.cpp:434] LFCN_1_5x7_LFCN_1_5x7_0_split <- LFCN_1_5x7
I0701 22:54:29.302577  6432 net.cpp:408] LFCN_1_5x7_LFCN_1_5x7_0_split -> LFCN_1_5x7_LFCN_1_5x7_0_split_0
I0701 22:54:29.302587  6432 net.cpp:408] LFCN_1_5x7_LFCN_1_5x7_0_split -> LFCN_1_5x7_LFCN_1_5x7_0_split_1
I0701 22:54:29.302628  6432 net.cpp:150] Setting up LFCN_1_5x7_LFCN_1_5x7_0_split
I0701 22:54:29.302634  6432 net.cpp:157] Top shape: 4 7 72 96 (193536)
I0701 22:54:29.302637  6432 net.cpp:157] Top shape: 4 7 72 96 (193536)
I0701 22:54:29.302640  6432 net.cpp:165] Memory required for data: 4313257364
I0701 22:54:29.302644  6432 layer_factory.hpp:77] Creating layer detection_loss_1_5x7
I0701 22:54:29.302649  6432 net.cpp:100] Creating Layer detection_loss_1_5x7
I0701 22:54:29.302654  6432 net.cpp:434] detection_loss_1_5x7 <- LFCN_1_5x7_LFCN_1_5x7_0_split_0
I0701 22:54:29.302659  6432 net.cpp:434] detection_loss_1_5x7 <- label_1_5x7_data_2_split_0
I0701 22:54:29.302666  6432 net.cpp:408] detection_loss_1_5x7 -> loss_1_5x7
I0701 22:54:29.302675  6432 layer_factory.hpp:77] Creating layer detection_loss_1_5x7
I0701 22:54:29.303580  6432 net.cpp:150] Setting up detection_loss_1_5x7
I0701 22:54:29.303591  6432 net.cpp:157] Top shape: 1 1 1 2 (2)
I0701 22:54:29.303593  6432 net.cpp:160]     with loss weight 0.9
I0701 22:54:29.303603  6432 net.cpp:165] Memory required for data: 4313257372
I0701 22:54:29.303607  6432 layer_factory.hpp:77] Creating layer detection_accuracy_1_5x7
I0701 22:54:29.303616  6432 net.cpp:100] Creating Layer detection_accuracy_1_5x7
I0701 22:54:29.303620  6432 net.cpp:434] detection_accuracy_1_5x7 <- LFCN_1_5x7_LFCN_1_5x7_0_split_1
I0701 22:54:29.303627  6432 net.cpp:434] detection_accuracy_1_5x7 <- label_1_5x7_data_2_split_1
I0701 22:54:29.303633  6432 net.cpp:408] detection_accuracy_1_5x7 -> accuracy_1_5x7
I0701 22:54:29.303642  6432 net.cpp:408] detection_accuracy_1_5x7 -> boxiou_1_5x7
I0701 22:54:29.303699  6432 net.cpp:150] Setting up detection_accuracy_1_5x7
I0701 22:54:29.303706  6432 net.cpp:157] Top shape: 1 1 1 2 (2)
I0701 22:54:29.303710  6432 net.cpp:157] Top shape: 1 1 1 1 (1)
I0701 22:54:29.303712  6432 net.cpp:165] Memory required for data: 4313257384
I0701 22:54:29.303715  6432 layer_factory.hpp:77] Creating layer pool4
I0701 22:54:29.303721  6432 net.cpp:100] Creating Layer pool4
I0701 22:54:29.303725  6432 net.cpp:434] pool4 <- conv4_3_relu4_3_0_split_1
I0701 22:54:29.303731  6432 net.cpp:408] pool4 -> pool4
I0701 22:54:29.303767  6432 net.cpp:150] Setting up pool4
I0701 22:54:29.303772  6432 net.cpp:157] Top shape: 4 512 36 48 (3538944)
I0701 22:54:29.303776  6432 net.cpp:165] Memory required for data: 4327413160
I0701 22:54:29.303778  6432 layer_factory.hpp:77] Creating layer conv5_1
I0701 22:54:29.303786  6432 net.cpp:100] Creating Layer conv5_1
I0701 22:54:29.303791  6432 net.cpp:434] conv5_1 <- pool4
I0701 22:54:29.303797  6432 net.cpp:408] conv5_1 -> conv5_1
I0701 22:54:29.309610  6432 net.cpp:150] Setting up conv5_1
I0701 22:54:29.309628  6432 net.cpp:157] Top shape: 4 512 36 48 (3538944)
I0701 22:54:29.309631  6432 net.cpp:165] Memory required for data: 4341568936
I0701 22:54:29.309640  6432 layer_factory.hpp:77] Creating layer relu5_1
I0701 22:54:29.309650  6432 net.cpp:100] Creating Layer relu5_1
I0701 22:54:29.309655  6432 net.cpp:434] relu5_1 <- conv5_1
I0701 22:54:29.309664  6432 net.cpp:395] relu5_1 -> conv5_1 (in-place)
I0701 22:54:29.310334  6432 net.cpp:150] Setting up relu5_1
I0701 22:54:29.310345  6432 net.cpp:157] Top shape: 4 512 36 48 (3538944)
I0701 22:54:29.310348  6432 net.cpp:165] Memory required for data: 4355724712
I0701 22:54:29.310353  6432 layer_factory.hpp:77] Creating layer conv5_2
I0701 22:54:29.310360  6432 net.cpp:100] Creating Layer conv5_2
I0701 22:54:29.310365  6432 net.cpp:434] conv5_2 <- conv5_1
I0701 22:54:29.310374  6432 net.cpp:408] conv5_2 -> conv5_2
I0701 22:54:29.315779  6432 net.cpp:150] Setting up conv5_2
I0701 22:54:29.315801  6432 net.cpp:157] Top shape: 4 512 36 48 (3538944)
I0701 22:54:29.315804  6432 net.cpp:165] Memory required for data: 4369880488
I0701 22:54:29.315812  6432 layer_factory.hpp:77] Creating layer relu5_2
I0701 22:54:29.315821  6432 net.cpp:100] Creating Layer relu5_2
I0701 22:54:29.315825  6432 net.cpp:434] relu5_2 <- conv5_2
I0701 22:54:29.315832  6432 net.cpp:395] relu5_2 -> conv5_2 (in-place)
I0701 22:54:29.316097  6432 net.cpp:150] Setting up relu5_2
I0701 22:54:29.316107  6432 net.cpp:157] Top shape: 4 512 36 48 (3538944)
I0701 22:54:29.316109  6432 net.cpp:165] Memory required for data: 4384036264
I0701 22:54:29.316112  6432 layer_factory.hpp:77] Creating layer conv5_3
I0701 22:54:29.316121  6432 net.cpp:100] Creating Layer conv5_3
I0701 22:54:29.316124  6432 net.cpp:434] conv5_3 <- conv5_2
I0701 22:54:29.316130  6432 net.cpp:408] conv5_3 -> conv5_3
I0701 22:54:29.322058  6432 net.cpp:150] Setting up conv5_3
I0701 22:54:29.322077  6432 net.cpp:157] Top shape: 4 512 36 48 (3538944)
I0701 22:54:29.322078  6432 net.cpp:165] Memory required for data: 4398192040
I0701 22:54:29.322085  6432 layer_factory.hpp:77] Creating layer relu5_3
I0701 22:54:29.322091  6432 net.cpp:100] Creating Layer relu5_3
I0701 22:54:29.322094  6432 net.cpp:434] relu5_3 <- conv5_3
I0701 22:54:29.322099  6432 net.cpp:395] relu5_3 -> conv5_3 (in-place)
I0701 22:54:29.322428  6432 net.cpp:150] Setting up relu5_3
I0701 22:54:29.322438  6432 net.cpp:157] Top shape: 4 512 36 48 (3538944)
I0701 22:54:29.322440  6432 net.cpp:165] Memory required for data: 4412347816
I0701 22:54:29.322444  6432 layer_factory.hpp:77] Creating layer conv5_3_relu5_3_0_split
I0701 22:54:29.322451  6432 net.cpp:100] Creating Layer conv5_3_relu5_3_0_split
I0701 22:54:29.322455  6432 net.cpp:434] conv5_3_relu5_3_0_split <- conv5_3
I0701 22:54:29.322459  6432 net.cpp:408] conv5_3_relu5_3_0_split -> conv5_3_relu5_3_0_split_0
I0701 22:54:29.322466  6432 net.cpp:408] conv5_3_relu5_3_0_split -> conv5_3_relu5_3_0_split_1
I0701 22:54:29.322475  6432 net.cpp:408] conv5_3_relu5_3_0_split -> conv5_3_relu5_3_0_split_2
I0701 22:54:29.322546  6432 net.cpp:150] Setting up conv5_3_relu5_3_0_split
I0701 22:54:29.322552  6432 net.cpp:157] Top shape: 4 512 36 48 (3538944)
I0701 22:54:29.322556  6432 net.cpp:157] Top shape: 4 512 36 48 (3538944)
I0701 22:54:29.322559  6432 net.cpp:157] Top shape: 4 512 36 48 (3538944)
I0701 22:54:29.322562  6432 net.cpp:165] Memory required for data: 4454815144
I0701 22:54:29.322566  6432 layer_factory.hpp:77] Creating layer LFCN_2_3x5
I0701 22:54:29.322576  6432 net.cpp:100] Creating Layer LFCN_2_3x5
I0701 22:54:29.322579  6432 net.cpp:434] LFCN_2_3x5 <- conv5_3_relu5_3_0_split_0
I0701 22:54:29.322587  6432 net.cpp:408] LFCN_2_3x5 -> LFCN_2_3x5
I0701 22:54:29.324398  6432 net.cpp:150] Setting up LFCN_2_3x5
I0701 22:54:29.324410  6432 net.cpp:157] Top shape: 4 7 36 48 (48384)
I0701 22:54:29.324412  6432 net.cpp:165] Memory required for data: 4455008680
I0701 22:54:29.324422  6432 layer_factory.hpp:77] Creating layer LFCN_2_3x5_LFCN_2_3x5_0_split
I0701 22:54:29.324429  6432 net.cpp:100] Creating Layer LFCN_2_3x5_LFCN_2_3x5_0_split
I0701 22:54:29.324431  6432 net.cpp:434] LFCN_2_3x5_LFCN_2_3x5_0_split <- LFCN_2_3x5
I0701 22:54:29.324436  6432 net.cpp:408] LFCN_2_3x5_LFCN_2_3x5_0_split -> LFCN_2_3x5_LFCN_2_3x5_0_split_0
I0701 22:54:29.324443  6432 net.cpp:408] LFCN_2_3x5_LFCN_2_3x5_0_split -> LFCN_2_3x5_LFCN_2_3x5_0_split_1
I0701 22:54:29.324481  6432 net.cpp:150] Setting up LFCN_2_3x5_LFCN_2_3x5_0_split
I0701 22:54:29.324487  6432 net.cpp:157] Top shape: 4 7 36 48 (48384)
I0701 22:54:29.324489  6432 net.cpp:157] Top shape: 4 7 36 48 (48384)
I0701 22:54:29.324491  6432 net.cpp:165] Memory required for data: 4455395752
I0701 22:54:29.324494  6432 layer_factory.hpp:77] Creating layer detection_loss_2_3x5
I0701 22:54:29.324501  6432 net.cpp:100] Creating Layer detection_loss_2_3x5
I0701 22:54:29.324506  6432 net.cpp:434] detection_loss_2_3x5 <- LFCN_2_3x5_LFCN_2_3x5_0_split_0
I0701 22:54:29.324509  6432 net.cpp:434] detection_loss_2_3x5 <- label_2_3x5_data_3_split_0
I0701 22:54:29.324514  6432 net.cpp:408] detection_loss_2_3x5 -> loss_2_3x5
I0701 22:54:29.324523  6432 layer_factory.hpp:77] Creating layer detection_loss_2_3x5
I0701 22:54:29.325393  6432 net.cpp:150] Setting up detection_loss_2_3x5
I0701 22:54:29.325404  6432 net.cpp:157] Top shape: 1 1 1 2 (2)
I0701 22:54:29.325407  6432 net.cpp:160]     with loss weight 1
I0701 22:54:29.325413  6432 net.cpp:165] Memory required for data: 4455395760
I0701 22:54:29.325415  6432 layer_factory.hpp:77] Creating layer detection_accuracy_2_3x5
I0701 22:54:29.325420  6432 net.cpp:100] Creating Layer detection_accuracy_2_3x5
I0701 22:54:29.325423  6432 net.cpp:434] detection_accuracy_2_3x5 <- LFCN_2_3x5_LFCN_2_3x5_0_split_1
I0701 22:54:29.325428  6432 net.cpp:434] detection_accuracy_2_3x5 <- label_2_3x5_data_3_split_1
I0701 22:54:29.325431  6432 net.cpp:408] detection_accuracy_2_3x5 -> accuracy_2_3x5
I0701 22:54:29.325438  6432 net.cpp:408] detection_accuracy_2_3x5 -> boxiou_2_3x5
I0701 22:54:29.325486  6432 net.cpp:150] Setting up detection_accuracy_2_3x5
I0701 22:54:29.325490  6432 net.cpp:157] Top shape: 1 1 1 2 (2)
I0701 22:54:29.325493  6432 net.cpp:157] Top shape: 1 1 1 1 (1)
I0701 22:54:29.325495  6432 net.cpp:165] Memory required for data: 4455395772
I0701 22:54:29.325498  6432 layer_factory.hpp:77] Creating layer LFCN_2_5x7
I0701 22:54:29.325508  6432 net.cpp:100] Creating Layer LFCN_2_5x7
I0701 22:54:29.325510  6432 net.cpp:434] LFCN_2_5x7 <- conv5_3_relu5_3_0_split_1
I0701 22:54:29.325518  6432 net.cpp:408] LFCN_2_5x7 -> LFCN_2_5x7
I0701 22:54:29.328730  6432 net.cpp:150] Setting up LFCN_2_5x7
I0701 22:54:29.328747  6432 net.cpp:157] Top shape: 4 7 36 48 (48384)
I0701 22:54:29.328749  6432 net.cpp:165] Memory required for data: 4455589308
I0701 22:54:29.328757  6432 layer_factory.hpp:77] Creating layer LFCN_2_5x7_LFCN_2_5x7_0_split
I0701 22:54:29.328763  6432 net.cpp:100] Creating Layer LFCN_2_5x7_LFCN_2_5x7_0_split
I0701 22:54:29.328768  6432 net.cpp:434] LFCN_2_5x7_LFCN_2_5x7_0_split <- LFCN_2_5x7
I0701 22:54:29.328771  6432 net.cpp:408] LFCN_2_5x7_LFCN_2_5x7_0_split -> LFCN_2_5x7_LFCN_2_5x7_0_split_0
I0701 22:54:29.328779  6432 net.cpp:408] LFCN_2_5x7_LFCN_2_5x7_0_split -> LFCN_2_5x7_LFCN_2_5x7_0_split_1
I0701 22:54:29.328821  6432 net.cpp:150] Setting up LFCN_2_5x7_LFCN_2_5x7_0_split
I0701 22:54:29.328826  6432 net.cpp:157] Top shape: 4 7 36 48 (48384)
I0701 22:54:29.328830  6432 net.cpp:157] Top shape: 4 7 36 48 (48384)
I0701 22:54:29.328831  6432 net.cpp:165] Memory required for data: 4455976380
I0701 22:54:29.328835  6432 layer_factory.hpp:77] Creating layer detection_loss_2_5x7
I0701 22:54:29.328843  6432 net.cpp:100] Creating Layer detection_loss_2_5x7
I0701 22:54:29.328847  6432 net.cpp:434] detection_loss_2_5x7 <- LFCN_2_5x7_LFCN_2_5x7_0_split_0
I0701 22:54:29.328851  6432 net.cpp:434] detection_loss_2_5x7 <- label_2_5x7_data_4_split_0
I0701 22:54:29.328860  6432 net.cpp:408] detection_loss_2_5x7 -> loss_2_5x7
I0701 22:54:29.328867  6432 layer_factory.hpp:77] Creating layer detection_loss_2_5x7
I0701 22:54:29.329290  6432 net.cpp:150] Setting up detection_loss_2_5x7
I0701 22:54:29.329298  6432 net.cpp:157] Top shape: 1 1 1 2 (2)
I0701 22:54:29.329299  6432 net.cpp:160]     with loss weight 1
I0701 22:54:29.329308  6432 net.cpp:165] Memory required for data: 4455976388
I0701 22:54:29.329311  6432 layer_factory.hpp:77] Creating layer detection_accuracy_2_5x7
I0701 22:54:29.329319  6432 net.cpp:100] Creating Layer detection_accuracy_2_5x7
I0701 22:54:29.329322  6432 net.cpp:434] detection_accuracy_2_5x7 <- LFCN_2_5x7_LFCN_2_5x7_0_split_1
I0701 22:54:29.329327  6432 net.cpp:434] detection_accuracy_2_5x7 <- label_2_5x7_data_4_split_1
I0701 22:54:29.329334  6432 net.cpp:408] detection_accuracy_2_5x7 -> accuracy_2_5x7
I0701 22:54:29.329340  6432 net.cpp:408] detection_accuracy_2_5x7 -> boxiou_2_5x7
I0701 22:54:29.329376  6432 net.cpp:150] Setting up detection_accuracy_2_5x7
I0701 22:54:29.329381  6432 net.cpp:157] Top shape: 1 1 1 2 (2)
I0701 22:54:29.329385  6432 net.cpp:157] Top shape: 1 1 1 1 (1)
I0701 22:54:29.329387  6432 net.cpp:165] Memory required for data: 4455976400
I0701 22:54:29.329391  6432 layer_factory.hpp:77] Creating layer pool5
I0701 22:54:29.329396  6432 net.cpp:100] Creating Layer pool5
I0701 22:54:29.329401  6432 net.cpp:434] pool5 <- conv5_3_relu5_3_0_split_2
I0701 22:54:29.329406  6432 net.cpp:408] pool5 -> pool5
I0701 22:54:29.329449  6432 net.cpp:150] Setting up pool5
I0701 22:54:29.329455  6432 net.cpp:157] Top shape: 4 512 18 24 (884736)
I0701 22:54:29.329457  6432 net.cpp:165] Memory required for data: 4459515344
I0701 22:54:29.329459  6432 layer_factory.hpp:77] Creating layer conv6_1
I0701 22:54:29.329469  6432 net.cpp:100] Creating Layer conv6_1
I0701 22:54:29.329473  6432 net.cpp:434] conv6_1 <- pool5
I0701 22:54:29.329479  6432 net.cpp:408] conv6_1 -> conv6_1
I0701 22:54:29.349908  6432 net.cpp:150] Setting up conv6_1
I0701 22:54:29.349926  6432 net.cpp:157] Top shape: 4 512 18 24 (884736)
I0701 22:54:29.349928  6432 net.cpp:165] Memory required for data: 4463054288
I0701 22:54:29.349936  6432 layer_factory.hpp:77] Creating layer relu6_1
I0701 22:54:29.349942  6432 net.cpp:100] Creating Layer relu6_1
I0701 22:54:29.349946  6432 net.cpp:434] relu6_1 <- conv6_1
I0701 22:54:29.349951  6432 net.cpp:395] relu6_1 -> conv6_1 (in-place)
I0701 22:54:29.350201  6432 net.cpp:150] Setting up relu6_1
I0701 22:54:29.350208  6432 net.cpp:157] Top shape: 4 512 18 24 (884736)
I0701 22:54:29.350209  6432 net.cpp:165] Memory required for data: 4466593232
I0701 22:54:29.350212  6432 layer_factory.hpp:77] Creating layer conv6_1_relu6_1_0_split
I0701 22:54:29.350219  6432 net.cpp:100] Creating Layer conv6_1_relu6_1_0_split
I0701 22:54:29.350224  6432 net.cpp:434] conv6_1_relu6_1_0_split <- conv6_1
I0701 22:54:29.350230  6432 net.cpp:408] conv6_1_relu6_1_0_split -> conv6_1_relu6_1_0_split_0
I0701 22:54:29.350239  6432 net.cpp:408] conv6_1_relu6_1_0_split -> conv6_1_relu6_1_0_split_1
I0701 22:54:29.350245  6432 net.cpp:408] conv6_1_relu6_1_0_split -> conv6_1_relu6_1_0_split_2
I0701 22:54:29.350316  6432 net.cpp:150] Setting up conv6_1_relu6_1_0_split
I0701 22:54:29.350322  6432 net.cpp:157] Top shape: 4 512 18 24 (884736)
I0701 22:54:29.350325  6432 net.cpp:157] Top shape: 4 512 18 24 (884736)
I0701 22:54:29.350330  6432 net.cpp:157] Top shape: 4 512 18 24 (884736)
I0701 22:54:29.350332  6432 net.cpp:165] Memory required for data: 4477210064
I0701 22:54:29.350335  6432 layer_factory.hpp:77] Creating layer LFCN_3_3x5
I0701 22:54:29.350347  6432 net.cpp:100] Creating Layer LFCN_3_3x5
I0701 22:54:29.350350  6432 net.cpp:434] LFCN_3_3x5 <- conv6_1_relu6_1_0_split_0
I0701 22:54:29.350358  6432 net.cpp:408] LFCN_3_3x5 -> LFCN_3_3x5
I0701 22:54:29.353310  6432 net.cpp:150] Setting up LFCN_3_3x5
I0701 22:54:29.353325  6432 net.cpp:157] Top shape: 4 7 18 24 (12096)
I0701 22:54:29.353328  6432 net.cpp:165] Memory required for data: 4477258448
I0701 22:54:29.353334  6432 layer_factory.hpp:77] Creating layer LFCN_3_3x5_LFCN_3_3x5_0_split
I0701 22:54:29.353349  6432 net.cpp:100] Creating Layer LFCN_3_3x5_LFCN_3_3x5_0_split
I0701 22:54:29.353353  6432 net.cpp:434] LFCN_3_3x5_LFCN_3_3x5_0_split <- LFCN_3_3x5
I0701 22:54:29.353358  6432 net.cpp:408] LFCN_3_3x5_LFCN_3_3x5_0_split -> LFCN_3_3x5_LFCN_3_3x5_0_split_0
I0701 22:54:29.353365  6432 net.cpp:408] LFCN_3_3x5_LFCN_3_3x5_0_split -> LFCN_3_3x5_LFCN_3_3x5_0_split_1
I0701 22:54:29.353410  6432 net.cpp:150] Setting up LFCN_3_3x5_LFCN_3_3x5_0_split
I0701 22:54:29.353417  6432 net.cpp:157] Top shape: 4 7 18 24 (12096)
I0701 22:54:29.353421  6432 net.cpp:157] Top shape: 4 7 18 24 (12096)
I0701 22:54:29.353425  6432 net.cpp:165] Memory required for data: 4477355216
I0701 22:54:29.353427  6432 layer_factory.hpp:77] Creating layer detection_loss_3_3x5
I0701 22:54:29.353435  6432 net.cpp:100] Creating Layer detection_loss_3_3x5
I0701 22:54:29.353438  6432 net.cpp:434] detection_loss_3_3x5 <- LFCN_3_3x5_LFCN_3_3x5_0_split_0
I0701 22:54:29.353443  6432 net.cpp:434] detection_loss_3_3x5 <- label_3_3x5_data_5_split_0
I0701 22:54:29.353449  6432 net.cpp:408] detection_loss_3_3x5 -> loss_3_3x5
I0701 22:54:29.353457  6432 layer_factory.hpp:77] Creating layer detection_loss_3_3x5
I0701 22:54:29.354583  6432 net.cpp:150] Setting up detection_loss_3_3x5
I0701 22:54:29.354594  6432 net.cpp:157] Top shape: 1 1 1 2 (2)
I0701 22:54:29.354596  6432 net.cpp:160]     with loss weight 1
I0701 22:54:29.354604  6432 net.cpp:165] Memory required for data: 4477355224
I0701 22:54:29.354605  6432 layer_factory.hpp:77] Creating layer detection_accuracy_3_3x5
I0701 22:54:29.354612  6432 net.cpp:100] Creating Layer detection_accuracy_3_3x5
I0701 22:54:29.354615  6432 net.cpp:434] detection_accuracy_3_3x5 <- LFCN_3_3x5_LFCN_3_3x5_0_split_1
I0701 22:54:29.354619  6432 net.cpp:434] detection_accuracy_3_3x5 <- label_3_3x5_data_5_split_1
I0701 22:54:29.354624  6432 net.cpp:408] detection_accuracy_3_3x5 -> accuracy_3_3x5
I0701 22:54:29.354629  6432 net.cpp:408] detection_accuracy_3_3x5 -> boxiou_3_3x5
I0701 22:54:29.354679  6432 net.cpp:150] Setting up detection_accuracy_3_3x5
I0701 22:54:29.354686  6432 net.cpp:157] Top shape: 1 1 1 2 (2)
I0701 22:54:29.354691  6432 net.cpp:157] Top shape: 1 1 1 1 (1)
I0701 22:54:29.354693  6432 net.cpp:165] Memory required for data: 4477355236
I0701 22:54:29.354696  6432 layer_factory.hpp:77] Creating layer LFCN_3_5x7
I0701 22:54:29.354707  6432 net.cpp:100] Creating Layer LFCN_3_5x7
I0701 22:54:29.354710  6432 net.cpp:434] LFCN_3_5x7 <- conv6_1_relu6_1_0_split_1
I0701 22:54:29.354717  6432 net.cpp:408] LFCN_3_5x7 -> LFCN_3_5x7
I0701 22:54:29.357287  6432 net.cpp:150] Setting up LFCN_3_5x7
I0701 22:54:29.357301  6432 net.cpp:157] Top shape: 4 7 18 24 (12096)
I0701 22:54:29.357303  6432 net.cpp:165] Memory required for data: 4477403620
I0701 22:54:29.357309  6432 layer_factory.hpp:77] Creating layer LFCN_3_5x7_LFCN_3_5x7_0_split
I0701 22:54:29.357316  6432 net.cpp:100] Creating Layer LFCN_3_5x7_LFCN_3_5x7_0_split
I0701 22:54:29.357319  6432 net.cpp:434] LFCN_3_5x7_LFCN_3_5x7_0_split <- LFCN_3_5x7
I0701 22:54:29.357324  6432 net.cpp:408] LFCN_3_5x7_LFCN_3_5x7_0_split -> LFCN_3_5x7_LFCN_3_5x7_0_split_0
I0701 22:54:29.357329  6432 net.cpp:408] LFCN_3_5x7_LFCN_3_5x7_0_split -> LFCN_3_5x7_LFCN_3_5x7_0_split_1
I0701 22:54:29.357373  6432 net.cpp:150] Setting up LFCN_3_5x7_LFCN_3_5x7_0_split
I0701 22:54:29.357380  6432 net.cpp:157] Top shape: 4 7 18 24 (12096)
I0701 22:54:29.357384  6432 net.cpp:157] Top shape: 4 7 18 24 (12096)
I0701 22:54:29.357386  6432 net.cpp:165] Memory required for data: 4477500388
I0701 22:54:29.357389  6432 layer_factory.hpp:77] Creating layer detection_loss_3_5x7
I0701 22:54:29.357398  6432 net.cpp:100] Creating Layer detection_loss_3_5x7
I0701 22:54:29.357400  6432 net.cpp:434] detection_loss_3_5x7 <- LFCN_3_5x7_LFCN_3_5x7_0_split_0
I0701 22:54:29.357405  6432 net.cpp:434] detection_loss_3_5x7 <- label_3_5x7_data_6_split_0
I0701 22:54:29.357412  6432 net.cpp:408] detection_loss_3_5x7 -> loss_3_5x7
I0701 22:54:29.357420  6432 layer_factory.hpp:77] Creating layer detection_loss_3_5x7
I0701 22:54:29.357991  6432 net.cpp:150] Setting up detection_loss_3_5x7
I0701 22:54:29.358001  6432 net.cpp:157] Top shape: 1 1 1 2 (2)
I0701 22:54:29.358005  6432 net.cpp:160]     with loss weight 1
I0701 22:54:29.358012  6432 net.cpp:165] Memory required for data: 4477500396
I0701 22:54:29.358016  6432 layer_factory.hpp:77] Creating layer detection_accuracy_3_5x7
I0701 22:54:29.358023  6432 net.cpp:100] Creating Layer detection_accuracy_3_5x7
I0701 22:54:29.358027  6432 net.cpp:434] detection_accuracy_3_5x7 <- LFCN_3_5x7_LFCN_3_5x7_0_split_1
I0701 22:54:29.358033  6432 net.cpp:434] detection_accuracy_3_5x7 <- label_3_5x7_data_6_split_1
I0701 22:54:29.358039  6432 net.cpp:408] detection_accuracy_3_5x7 -> accuracy_3_5x7
I0701 22:54:29.358048  6432 net.cpp:408] detection_accuracy_3_5x7 -> boxiou_3_5x7
I0701 22:54:29.358095  6432 net.cpp:150] Setting up detection_accuracy_3_5x7
I0701 22:54:29.358103  6432 net.cpp:157] Top shape: 1 1 1 2 (2)
I0701 22:54:29.358108  6432 net.cpp:157] Top shape: 1 1 1 1 (1)
I0701 22:54:29.358110  6432 net.cpp:165] Memory required for data: 4477500408
I0701 22:54:29.358114  6432 layer_factory.hpp:77] Creating layer pool6
I0701 22:54:29.358119  6432 net.cpp:100] Creating Layer pool6
I0701 22:54:29.358124  6432 net.cpp:434] pool6 <- conv6_1_relu6_1_0_split_2
I0701 22:54:29.358130  6432 net.cpp:408] pool6 -> pool6
I0701 22:54:29.358175  6432 net.cpp:150] Setting up pool6
I0701 22:54:29.358184  6432 net.cpp:157] Top shape: 4 512 9 12 (221184)
I0701 22:54:29.358186  6432 net.cpp:165] Memory required for data: 4478385144
I0701 22:54:29.358191  6432 layer_factory.hpp:77] Creating layer LFCN_4_3x5
I0701 22:54:29.358199  6432 net.cpp:100] Creating Layer LFCN_4_3x5
I0701 22:54:29.358203  6432 net.cpp:434] LFCN_4_3x5 <- pool6
I0701 22:54:29.358211  6432 net.cpp:408] LFCN_4_3x5 -> LFCN_4_3x5
I0701 22:54:29.360774  6432 net.cpp:150] Setting up LFCN_4_3x5
I0701 22:54:29.360786  6432 net.cpp:157] Top shape: 4 7 9 12 (3024)
I0701 22:54:29.360788  6432 net.cpp:165] Memory required for data: 4478397240
I0701 22:54:29.360795  6432 layer_factory.hpp:77] Creating layer LFCN_4_3x5_LFCN_4_3x5_0_split
I0701 22:54:29.360802  6432 net.cpp:100] Creating Layer LFCN_4_3x5_LFCN_4_3x5_0_split
I0701 22:54:29.360807  6432 net.cpp:434] LFCN_4_3x5_LFCN_4_3x5_0_split <- LFCN_4_3x5
I0701 22:54:29.360815  6432 net.cpp:408] LFCN_4_3x5_LFCN_4_3x5_0_split -> LFCN_4_3x5_LFCN_4_3x5_0_split_0
I0701 22:54:29.360822  6432 net.cpp:408] LFCN_4_3x5_LFCN_4_3x5_0_split -> LFCN_4_3x5_LFCN_4_3x5_0_split_1
I0701 22:54:29.360874  6432 net.cpp:150] Setting up LFCN_4_3x5_LFCN_4_3x5_0_split
I0701 22:54:29.360880  6432 net.cpp:157] Top shape: 4 7 9 12 (3024)
I0701 22:54:29.360884  6432 net.cpp:157] Top shape: 4 7 9 12 (3024)
I0701 22:54:29.360886  6432 net.cpp:165] Memory required for data: 4478421432
I0701 22:54:29.360889  6432 layer_factory.hpp:77] Creating layer detection_loss_4_3x5
I0701 22:54:29.360898  6432 net.cpp:100] Creating Layer detection_loss_4_3x5
I0701 22:54:29.360903  6432 net.cpp:434] detection_loss_4_3x5 <- LFCN_4_3x5_LFCN_4_3x5_0_split_0
I0701 22:54:29.360908  6432 net.cpp:434] detection_loss_4_3x5 <- label_4_3x5_data_7_split_0
I0701 22:54:29.360913  6432 net.cpp:408] detection_loss_4_3x5 -> loss_4_3x5
I0701 22:54:29.360920  6432 layer_factory.hpp:77] Creating layer detection_loss_4_3x5
I0701 22:54:29.361513  6432 net.cpp:150] Setting up detection_loss_4_3x5
I0701 22:54:29.361524  6432 net.cpp:157] Top shape: 1 1 1 2 (2)
I0701 22:54:29.361527  6432 net.cpp:160]     with loss weight 1
I0701 22:54:29.361536  6432 net.cpp:165] Memory required for data: 4478421440
I0701 22:54:29.361538  6432 layer_factory.hpp:77] Creating layer detection_accuracy_4_3x5
I0701 22:54:29.361546  6432 net.cpp:100] Creating Layer detection_accuracy_4_3x5
I0701 22:54:29.361551  6432 net.cpp:434] detection_accuracy_4_3x5 <- LFCN_4_3x5_LFCN_4_3x5_0_split_1
I0701 22:54:29.361557  6432 net.cpp:434] detection_accuracy_4_3x5 <- label_4_3x5_data_7_split_1
I0701 22:54:29.361564  6432 net.cpp:408] detection_accuracy_4_3x5 -> accuracy_4_3x5
I0701 22:54:29.361572  6432 net.cpp:408] detection_accuracy_4_3x5 -> boxiou_4_3x5
I0701 22:54:29.361624  6432 net.cpp:150] Setting up detection_accuracy_4_3x5
I0701 22:54:29.361630  6432 net.cpp:157] Top shape: 1 1 1 2 (2)
I0701 22:54:29.361634  6432 net.cpp:157] Top shape: 1 1 1 1 (1)
I0701 22:54:29.361637  6432 net.cpp:165] Memory required for data: 4478421452
I0701 22:54:29.361640  6432 net.cpp:228] detection_accuracy_4_3x5 does not need backward computation.
I0701 22:54:29.361644  6432 net.cpp:226] detection_loss_4_3x5 needs backward computation.
I0701 22:54:29.361649  6432 net.cpp:226] LFCN_4_3x5_LFCN_4_3x5_0_split needs backward computation.
I0701 22:54:29.361651  6432 net.cpp:226] LFCN_4_3x5 needs backward computation.
…
I0701 22:54:29.377758  6432 image_gt_data_layer.cpp:241] output label size 2 : 2,6,36,48
I0701 22:54:29.377827  6432 image_gt_data_layer.cpp:241] output label size 3 : 2,6,36,48
I0701 22:54:29.377897  6432 image_gt_data_layer.cpp:241] output label size 4 : 2,6,18,24
I0701 22:54:29.377964  6432 image_gt_data_layer.cpp:241] output label size 5 : 2,6,18,24
I0701 22:54:29.378031  6432 image_gt_data_layer.cpp:241] output label size 6 : 2,6,9,12
I0701 22:54:29.378036  6432 image_gt_data_layer.cpp:265]  --> has_mean_values_ = 1
I0701 22:54:29.398017  6432 net.cpp:150] Setting up data
I0701 22:54:29.398035  6432 net.cpp:157] Top shape: 2 4 576 768 (3538944)
I0701 22:54:29.398038  6432 net.cpp:157] Top shape: 2 6 72 96 (82944)
I0701 22:54:29.398041  6432 net.cpp:157] Top shape: 2 6 72 96 (82944)
I0701 22:54:29.398043  6432 net.cpp:157] Top shape: 2 6 36 48 (20736)
I0701 22:54:29.398046  6432 net.cpp:157] Top shape: 2 6 36 48 (20736)
I0701 22:54:29.398048  6432 net.cpp:157] Top shape: 2 6 18 24 (5184)
I0701 22:54:29.398051  6432 net.cpp:157] Top shape: 2 6 18 24 (5184)
I0701 22:54:29.398053  6432 net.cpp:157] Top shape: 2 6 9 12 (1296)
I0701 22:54:29.398056  6432 net.cpp:165] Memory required for data: 15031872
I0701 22:54:29.398061  6432 layer_factory.hpp:77] Creating layer label_1_3x5_data_1_split
I0701 22:54:29.398073  6432 net.cpp:100] Creating Layer label_1_3x5_data_1_split
I0701 22:54:29.398077  6432 net.cpp:434] label_1_3x5_data_1_split <- label_1_3x5
I0701 22:54:29.398085  6432 net.cpp:408] label_1_3x5_data_1_split -> label_1_3x5_data_1_split_0
I0701 22:54:29.398095  6432 net.cpp:408] label_1_3x5_data_1_split -> label_1_3x5_data_1_split_1
I0701 22:54:29.398197  6432 net.cpp:150] Setting up label_1_3x5_data_1_split
I0701 22:54:29.398208  6432 net.cpp:157] Top shape: 2 6 72 96 (82944)
I0701 22:54:29.398213  6432 net.cpp:157] Top shape: 2 6 72 96 (82944)
I0701 22:54:29.398216  6432 net.cpp:165] Memory required for data: 15695424
I0701 22:54:29.398219  6432 layer_factory.hpp:77] Creating layer label_1_5x7_data_2_split
I0701 22:54:29.398228  6432 net.cpp:100] Creating Layer label_1_5x7_data_2_split
I0701 22:54:29.398231  6432 net.cpp:434] label_1_5x7_data_2_split <- label_1_5x7
I0701 22:54:29.398237  6432 net.cpp:408] label_1_5x7_data_2_split -> label_1_5x7_data_2_split_0
I0701 22:54:29.398244  6432 net.cpp:408] label_1_5x7_data_2_split -> label_1_5x7_data_2_split_1
I0701 22:54:29.398288  6432 net.cpp:150] Setting up label_1_5x7_data_2_split
I0701 22:54:29.398294  6432 net.cpp:157] Top shape: 2 6 72 96 (82944)
I0701 22:54:29.398298  6432 net.cpp:157] Top shape: 2 6 72 96 (82944)
I0701 22:54:29.398299  6432 net.cpp:165] Memory required for data: 16358976
I0701 22:54:29.398303  6432 layer_factory.hpp:77] Creating layer label_2_3x5_data_3_split
I0701 22:54:29.398308  6432 net.cpp:100] Creating Layer label_2_3x5_data_3_split
I0701 22:54:29.398310  6432 net.cpp:434] label_2_3x5_data_3_split <- label_2_3x5
I0701 22:54:29.398322  6432 net.cpp:408] label_2_3x5_data_3_split -> label_2_3x5_data_3_split_0
I0701 22:54:29.398327  6432 net.cpp:408] label_2_3x5_data_3_split -> label_2_3x5_data_3_split_1
I0701 22:54:29.398367  6432 net.cpp:150] Setting up label_2_3x5_data_3_split
I0701 22:54:29.398372  6432 net.cpp:157] Top shape: 2 6 36 48 (20736)
I0701 22:54:29.398375  6432 net.cpp:157] Top shape: 2 6 36 48 (20736)
I0701 22:54:29.398378  6432 net.cpp:165] Memory required for data: 16524864
I0701 22:54:29.398380  6432 layer_factory.hpp:77] Creating layer label_2_5x7_data_4_split
I0701 22:54:29.398388  6432 net.cpp:100] Creating Layer label_2_5x7_data_4_split
I0701 22:54:29.398391  6432 net.cpp:434] label_2_5x7_data_4_split <- label_2_5x7
I0701 22:54:29.398396  6432 net.cpp:408] label_2_5x7_data_4_split -> label_2_5x7_data_4_split_0
I0701 22:54:29.398401  6432 net.cpp:408] label_2_5x7_data_4_split -> label_2_5x7_data_4_split_1
I0701 22:54:29.398438  6432 net.cpp:150] Setting up label_2_5x7_data_4_split
I0701 22:54:29.398444  6432 net.cpp:157] Top shape: 2 6 36 48 (20736)
I0701 22:54:29.398448  6432 net.cpp:157] Top shape: 2 6 36 48 (20736)
I0701 22:54:29.398450  6432 net.cpp:165] Memory required for data: 16690752
I0701 22:54:29.398453  6432 layer_factory.hpp:77] Creating layer label_3_3x5_data_5_split
I0701 22:54:29.398458  6432 net.cpp:100] Creating Layer label_3_3x5_data_5_split
I0701 22:54:29.398459  6432 net.cpp:434] label_3_3x5_data_5_split <- label_3_3x5
I0701 22:54:29.398463  6432 net.cpp:408] label_3_3x5_data_5_split -> label_3_3x5_data_5_split_0
I0701 22:54:29.398473  6432 net.cpp:408] label_3_3x5_data_5_split -> label_3_3x5_data_5_split_1
I0701 22:54:29.398507  6432 net.cpp:150] Setting up label_3_3x5_data_5_split
I0701 22:54:29.398515  6432 net.cpp:157] Top shape: 2 6 18 24 (5184)
I0701 22:54:29.398519  6432 net.cpp:157] Top shape: 2 6 18 24 (5184)
I0701 22:54:29.398521  6432 net.cpp:165] Memory required for data: 16732224
I0701 22:54:29.398524  6432 layer_factory.hpp:77] Creating layer label_3_5x7_data_6_split
I0701 22:54:29.398527  6432 net.cpp:100] Creating Layer label_3_5x7_data_6_split
I0701 22:54:29.398530  6432 net.cpp:434] label_3_5x7_data_6_split <- label_3_5x7
I0701 22:54:29.398535  6432 net.cpp:408] label_3_5x7_data_6_split -> label_3_5x7_data_6_split_0
I0701 22:54:29.398540  6432 net.cpp:408] label_3_5x7_data_6_split -> label_3_5x7_data_6_split_1
I0701 22:54:29.398578  6432 net.cpp:150] Setting up label_3_5x7_data_6_split
I0701 22:54:29.398584  6432 net.cpp:157] Top shape: 2 6 18 24 (5184)
I0701 22:54:29.398587  6432 net.cpp:157] Top shape: 2 6 18 24 (5184)
I0701 22:54:29.398591  6432 net.cpp:165] Memory required for data: 16773696
I0701 22:54:29.398592  6432 layer_factory.hpp:77] Creating layer label_4_3x5_data_7_split
I0701 22:54:29.398597  6432 net.cpp:100] Creating Layer label_4_3x5_data_7_split
I0701 22:54:29.398599  6432 net.cpp:434] label_4_3x5_data_7_split <- label_4_3x5
I0701 22:54:29.398605  6432 net.cpp:408] label_4_3x5_data_7_split -> label_4_3x5_data_7_split_0
I0701 22:54:29.398612  6432 net.cpp:408] label_4_3x5_data_7_split -> label_4_3x5_data_7_split_1
I0701 22:54:29.398670  6432 net.cpp:150] Setting up label_4_3x5_data_7_split
I0701 22:54:29.398677  6432 net.cpp:157] Top shape: 2 6 9 12 (1296)
I0701 22:54:29.398680  6432 net.cpp:157] Top shape: 2 6 9 12 (1296)
I0701 22:54:29.398684  6432 net.cpp:165] Memory required for data: 16784064
I0701 22:54:29.398686  6432 layer_factory.hpp:77] Creating layer conv1_1
I0701 22:54:29.398699  6432 net.cpp:100] Creating Layer conv1_1
I0701 22:54:29.398701  6432 net.cpp:434] conv1_1 <- data
I0701 22:54:29.398706  6432 net.cpp:408] conv1_1 -> conv1_1
I0701 22:54:29.405095  6432 net.cpp:150] Setting up conv1_1
I0701 22:54:29.405118  6432 net.cpp:157] Top shape: 2 64 576 768 (56623104)
I0701 22:54:29.405122  6432 net.cpp:165] Memory required for data: 243276480
I0701 22:54:29.405135  6432 layer_factory.hpp:77] Creating layer relu1_1
I0701 22:54:29.405145  6432 net.cpp:100] Creating Layer relu1_1
I0701 22:54:29.405150  6432 net.cpp:434] relu1_1 <- conv1_1
I0701 22:54:29.405158  6432 net.cpp:395] relu1_1 -> conv1_1 (in-place)
I0701 22:54:29.406222  6432 net.cpp:150] Setting up relu1_1
I0701 22:54:29.406236  6432 net.cpp:157] Top shape: 2 64 576 768 (56623104)
I0701 22:54:29.406239  6432 net.cpp:165] Memory required for data: 469768896
I0701 22:54:29.406242  6432 layer_factory.hpp:77] Creating layer conv1_2
I0701 22:54:29.406252  6432 net.cpp:100] Creating Layer conv1_2
I0701 22:54:29.406256  6432 net.cpp:434] conv1_2 <- conv1_1
I0701 22:54:29.406262  6432 net.cpp:408] conv1_2 -> conv1_2
I0701 22:54:29.409862  6432 net.cpp:150] Setting up conv1_2
I0701 22:54:29.409885  6432 net.cpp:157] Top shape: 2 64 576 768 (56623104)
I0701 22:54:29.409888  6432 net.cpp:165] Memory required for data: 696261312
I0701 22:54:29.409901  6432 layer_factory.hpp:77] Creating layer relu1_2
I0701 22:54:29.409910  6432 net.cpp:100] Creating Layer relu1_2
I0701 22:54:29.409916  6432 net.cpp:434] relu1_2 <- conv1_2
I0701 22:54:29.409924  6432 net.cpp:395] relu1_2 -> conv1_2 (in-place)
I0701 22:54:29.411087  6432 net.cpp:150] Setting up relu1_2
I0701 22:54:29.411099  6432 net.cpp:157] Top shape: 2 64 576 768 (56623104)
I0701 22:54:29.411103  6432 net.cpp:165] Memory required for data: 922753728
I0701 22:54:29.411106  6432 layer_factory.hpp:77] Creating layer pool1
I0701 22:54:29.411114  6432 net.cpp:100] Creating Layer pool1
I0701 22:54:29.411118  6432 net.cpp:434] pool1 <- conv1_2
I0701 22:54:29.411123  6432 net.cpp:408] pool1 -> pool1
I0701 22:54:29.411190  6432 net.cpp:150] Setting up pool1
I0701 22:54:29.411197  6432 net.cpp:157] Top shape: 2 64 288 384 (14155776)
I0701 22:54:29.411201  6432 net.cpp:165] Memory required for data: 979376832
I0701 22:54:29.411203  6432 layer_factory.hpp:77] Creating layer conv2_1
I0701 22:54:29.411211  6432 net.cpp:100] Creating Layer conv2_1
I0701 22:54:29.411214  6432 net.cpp:434] conv2_1 <- pool1
I0701 22:54:29.411219  6432 net.cpp:408] conv2_1 -> conv2_1
I0701 22:54:29.414027  6432 net.cpp:150] Setting up conv2_1
I0701 22:54:29.414044  6432 net.cpp:157] Top shape: 2 128 288 384 (28311552)
I0701 22:54:29.414048  6432 net.cpp:165] Memory required for data: 1092623040
I0701 22:54:29.414060  6432 layer_factory.hpp:77] Creating layer relu2_1
I0701 22:54:29.414068  6432 net.cpp:100] Creating Layer relu2_1
I0701 22:54:29.414072  6432 net.cpp:434] relu2_1 <- conv2_1
I0701 22:54:29.414079  6432 net.cpp:395] relu2_1 -> conv2_1 (in-place)
I0701 22:54:29.414474  6432 net.cpp:150] Setting up relu2_1
I0701 22:54:29.414484  6432 net.cpp:157] Top shape: 2 128 288 384 (28311552)
I0701 22:54:29.414486  6432 net.cpp:165] Memory required for data: 1205869248
I0701 22:54:29.414489  6432 layer_factory.hpp:77] Creating layer conv2_2
I0701 22:54:29.414499  6432 net.cpp:100] Creating Layer conv2_2
I0701 22:54:29.414503  6432 net.cpp:434] conv2_2 <- conv2_1
I0701 22:54:29.414508  6432 net.cpp:408] conv2_2 -> conv2_2
I0701 22:54:29.419175  6432 net.cpp:150] Setting up conv2_2
I0701 22:54:29.419237  6432 net.cpp:157] Top shape: 2 128 288 384 (28311552)
I0701 22:54:29.419464  6432 net.cpp:165] Memory required for data: 1319115456
I0701 22:54:29.419498  6432 layer_factory.hpp:77] Creating layer relu2_2
I0701 22:54:29.419526  6432 net.cpp:100] Creating Layer relu2_2
I0701 22:54:29.419543  6432 net.cpp:434] relu2_2 <- conv2_2
I0701 22:54:29.419564  6432 net.cpp:395] relu2_2 -> conv2_2 (in-place)
I0701 22:54:29.420051  6432 net.cpp:150] Setting up relu2_2
I0701 22:54:29.420405  6432 net.cpp:157] Top shape: 2 128 288 384 (28311552)
I0701 22:54:29.420542  6432 net.cpp:165] Memory required for data: 1432361664
I0701 22:54:29.420673  6432 layer_factory.hpp:77] Creating layer pool2
I0701 22:54:29.420789  6432 net.cpp:100] Creating Layer pool2
I0701 22:54:29.420897  6432 net.cpp:434] pool2 <- conv2_2
I0701 22:54:29.420929  6432 net.cpp:408] pool2 -> pool2
I0701 22:54:29.421051  6432 net.cpp:150] Setting up pool2
I0701 22:54:29.421221  6432 net.cpp:157] Top shape: 2 128 144 192 (7077888)
I0701 22:54:29.421355  6432 net.cpp:165] Memory required for data: 1460673216
I0701 22:54:29.421376  6432 layer_factory.hpp:77] Creating layer conv3_1
I0701 22:54:29.421401  6432 net.cpp:100] Creating Layer conv3_1
I0701 22:54:29.421417  6432 net.cpp:434] conv3_1 <- pool2
I0701 22:54:29.421437  6432 net.cpp:408] conv3_1 -> conv3_1
I0701 22:54:29.425245  6432 net.cpp:150] Setting up conv3_1
I0701 22:54:29.425282  6432 net.cpp:157] Top shape: 2 256 144 192 (14155776)
I0701 22:54:29.425287  6432 net.cpp:165] Memory required for data: 1517296320
I0701 22:54:29.425312  6432 layer_factory.hpp:77] Creating layer relu3_1
I0701 22:54:29.425325  6432 net.cpp:100] Creating Layer relu3_1
I0701 22:54:29.425331  6432 net.cpp:434] relu3_1 <- conv3_1
I0701 22:54:29.425338  6432 net.cpp:395] relu3_1 -> conv3_1 (in-place)
I0701 22:54:29.426311  6432 net.cpp:150] Setting up relu3_1
I0701 22:54:29.426321  6432 net.cpp:157] Top shape: 2 256 144 192 (14155776)
I0701 22:54:29.426324  6432 net.cpp:165] Memory required for data: 1573919424
I0701 22:54:29.426328  6432 layer_factory.hpp:77] Creating layer conv3_2
I0701 22:54:29.426338  6432 net.cpp:100] Creating Layer conv3_2
I0701 22:54:29.426342  6432 net.cpp:434] conv3_2 <- conv3_1
I0701 22:54:29.426348  6432 net.cpp:408] conv3_2 -> conv3_2
I0701 22:54:29.430948  6432 net.cpp:150] Setting up conv3_2
I0701 22:54:29.430965  6432 net.cpp:157] Top shape: 2 256 144 192 (14155776)
I0701 22:54:29.430968  6432 net.cpp:165] Memory required for data: 1630542528
I0701 22:54:29.430977  6432 layer_factory.hpp:77] Creating layer relu3_2
I0701 22:54:29.430985  6432 net.cpp:100] Creating Layer relu3_2
I0701 22:54:29.430990  6432 net.cpp:434] relu3_2 <- conv3_2
I0701 22:54:29.430997  6432 net.cpp:395] relu3_2 -> conv3_2 (in-place)
I0701 22:54:29.431385  6432 net.cpp:150] Setting up relu3_2
I0701 22:54:29.431393  6432 net.cpp:157] Top shape: 2 256 144 192 (14155776)
I0701 22:54:29.431396  6432 net.cpp:165] Memory required for data: 1687165632
I0701 22:54:29.431399  6432 layer_factory.hpp:77] Creating layer conv3_3
I0701 22:54:29.431408  6432 net.cpp:100] Creating Layer conv3_3
I0701 22:54:29.431412  6432 net.cpp:434] conv3_3 <- conv3_2
I0701 22:54:29.431419  6432 net.cpp:408] conv3_3 -> conv3_3
I0701 22:54:29.436622  6432 net.cpp:150] Setting up conv3_3
I0701 22:54:29.436643  6432 net.cpp:157] Top shape: 2 256 144 192 (14155776)
I0701 22:54:29.436647  6432 net.cpp:165] Memory required for data: 1743788736
I0701 22:54:29.436655  6432 layer_factory.hpp:77] Creating layer relu3_3
I0701 22:54:29.436664  6432 net.cpp:100] Creating Layer relu3_3
I0701 22:54:29.436669  6432 net.cpp:434] relu3_3 <- conv3_3
I0701 22:54:29.436677  6432 net.cpp:395] relu3_3 -> conv3_3 (in-place)
I0701 22:54:29.437052  6432 net.cpp:150] Setting up relu3_3
I0701 22:54:29.437063  6432 net.cpp:157] Top shape: 2 256 144 192 (14155776)
I0701 22:54:29.437067  6432 net.cpp:165] Memory required for data: 1800411840
I0701 22:54:29.437069  6432 layer_factory.hpp:77] Creating layer pool3
I0701 22:54:29.437077  6432 net.cpp:100] Creating Layer pool3
I0701 22:54:29.437080  6432 net.cpp:434] pool3 <- conv3_3
I0701 22:54:29.437086  6432 net.cpp:408] pool3 -> pool3
I0701 22:54:29.437146  6432 net.cpp:150] Setting up pool3
I0701 22:54:29.437152  6432 net.cpp:157] Top shape: 2 256 72 96 (3538944)
I0701 22:54:29.437155  6432 net.cpp:165] Memory required for data: 1814567616
I0701 22:54:29.437157  6432 layer_factory.hpp:77] Creating layer conv4_1
I0701 22:54:29.437165  6432 net.cpp:100] Creating Layer conv4_1
I0701 22:54:29.437170  6432 net.cpp:434] conv4_1 <- pool3
I0701 22:54:29.437173  6432 net.cpp:408] conv4_1 -> conv4_1
I0701 22:54:29.442996  6432 net.cpp:150] Setting up conv4_1
I0701 22:54:29.443015  6432 net.cpp:157] Top shape: 2 512 72 96 (7077888)
I0701 22:54:29.443019  6432 net.cpp:165] Memory required for data: 1842879168
I0701 22:54:29.443027  6432 layer_factory.hpp:77] Creating layer relu4_1
I0701 22:54:29.443037  6432 net.cpp:100] Creating Layer relu4_1
I0701 22:54:29.443040  6432 net.cpp:434] relu4_1 <- conv4_1
I0701 22:54:29.443048  6432 net.cpp:395] relu4_1 -> conv4_1 (in-place)
I0701 22:54:29.444030  6432 net.cpp:150] Setting up relu4_1
I0701 22:54:29.444042  6432 net.cpp:157] Top shape: 2 512 72 96 (7077888)
I0701 22:54:29.444046  6432 net.cpp:165] Memory required for data: 1871190720
I0701 22:54:29.444049  6432 layer_factory.hpp:77] Creating layer conv4_2
I0701 22:54:29.444058  6432 net.cpp:100] Creating Layer conv4_2
I0701 22:54:29.444063  6432 net.cpp:434] conv4_2 <- conv4_1
I0701 22:54:29.444068  6432 net.cpp:408] conv4_2 -> conv4_2
I0701 22:54:29.453758  6432 net.cpp:150] Setting up conv4_2
I0701 22:54:29.453824  6432 net.cpp:157] Top shape: 2 512 72 96 (7077888)
I0701 22:54:29.453831  6432 net.cpp:165] Memory required for data: 1899502272
I0701 22:54:29.453863  6432 layer_factory.hpp:77] Creating layer relu4_2
I0701 22:54:29.453884  6432 net.cpp:100] Creating Layer relu4_2
I0701 22:54:29.453894  6432 net.cpp:434] relu4_2 <- conv4_2
I0701 22:54:29.453907  6432 net.cpp:395] relu4_2 -> conv4_2 (in-place)
I0701 22:54:29.454790  6432 net.cpp:150] Setting up relu4_2
I0701 22:54:29.454813  6432 net.cpp:157] Top shape: 2 512 72 96 (7077888)
I0701 22:54:29.454818  6432 net.cpp:165] Memory required for data: 1927813824
I0701 22:54:29.454826  6432 layer_factory.hpp:77] Creating layer conv4_3
I0701 22:54:29.454843  6432 net.cpp:100] Creating Layer conv4_3
I0701 22:54:29.454847  6432 net.cpp:434] conv4_3 <- conv4_2
I0701 22:54:29.454856  6432 net.cpp:408] conv4_3 -> conv4_3
I0701 22:54:29.462954  6432 net.cpp:150] Setting up conv4_3
I0701 22:54:29.462976  6432 net.cpp:157] Top shape: 2 512 72 96 (7077888)
I0701 22:54:29.462980  6432 net.cpp:165] Memory required for data: 1956125376
I0701 22:54:29.462990  6432 layer_factory.hpp:77] Creating layer relu4_3
I0701 22:54:29.462997  6432 net.cpp:100] Creating Layer relu4_3
I0701 22:54:29.463002  6432 net.cpp:434] relu4_3 <- conv4_3
I0701 22:54:29.463009  6432 net.cpp:395] relu4_3 -> conv4_3 (in-place)
I0701 22:54:29.463369  6432 net.cpp:150] Setting up relu4_3
I0701 22:54:29.463380  6432 net.cpp:157] Top shape: 2 512 72 96 (7077888)
I0701 22:54:29.463383  6432 net.cpp:165] Memory required for data: 1984436928
I0701 22:54:29.463387  6432 layer_factory.hpp:77] Creating layer conv4_3_relu4_3_0_split
I0701 22:54:29.463392  6432 net.cpp:100] Creating Layer conv4_3_relu4_3_0_split
I0701 22:54:29.463397  6432 net.cpp:434] conv4_3_relu4_3_0_split <- conv4_3
I0701 22:54:29.463403  6432 net.cpp:408] conv4_3_relu4_3_0_split -> conv4_3_relu4_3_0_split_0
I0701 22:54:29.463410  6432 net.cpp:408] conv4_3_relu4_3_0_split -> conv4_3_relu4_3_0_split_1
I0701 22:54:29.463465  6432 net.cpp:150] Setting up conv4_3_relu4_3_0_split
I0701 22:54:29.463471  6432 net.cpp:157] Top shape: 2 512 72 96 (7077888)
I0701 22:54:29.463475  6432 net.cpp:157] Top shape: 2 512 72 96 (7077888)
I0701 22:54:29.463479  6432 net.cpp:165] Memory required for data: 2041060032
I0701 22:54:29.463481  6432 layer_factory.hpp:77] Creating layer loss1_conv1
I0701 22:54:29.463497  6432 net.cpp:100] Creating Layer loss1_conv1
I0701 22:54:29.463501  6432 net.cpp:434] loss1_conv1 <- conv4_3_relu4_3_0_split_0
I0701 22:54:29.463506  6432 net.cpp:408] loss1_conv1 -> loss1_conv1
I0701 22:54:29.487557  6432 net.cpp:150] Setting up loss1_conv1
I0701 22:54:29.487581  6432 net.cpp:157] Top shape: 2 512 72 96 (7077888)
I0701 22:54:29.487583  6432 net.cpp:165] Memory required for data: 2069371584
I0701 22:54:29.487593  6432 layer_factory.hpp:77] Creating layer loss_relu1
I0701 22:54:29.487602  6432 net.cpp:100] Creating Layer loss_relu1
I0701 22:54:29.487607  6432 net.cpp:434] loss_relu1 <- loss1_conv1
I0701 22:54:29.487614  6432 net.cpp:395] loss_relu1 -> loss1_conv1 (in-place)
I0701 22:54:29.488404  6432 net.cpp:150] Setting up loss_relu1
I0701 22:54:29.488416  6432 net.cpp:157] Top shape: 2 512 72 96 (7077888)
I0701 22:54:29.488420  6432 net.cpp:165] Memory required for data: 2097683136
I0701 22:54:29.488423  6432 layer_factory.hpp:77] Creating layer loss1_conv1_loss_relu1_0_split
I0701 22:54:29.488430  6432 net.cpp:100] Creating Layer loss1_conv1_loss_relu1_0_split
I0701 22:54:29.488435  6432 net.cpp:434] loss1_conv1_loss_relu1_0_split <- loss1_conv1
I0701 22:54:29.488442  6432 net.cpp:408] loss1_conv1_loss_relu1_0_split -> loss1_conv1_loss_relu1_0_split_0
I0701 22:54:29.488451  6432 net.cpp:408] loss1_conv1_loss_relu1_0_split -> loss1_conv1_loss_relu1_0_split_1
I0701 22:54:29.488503  6432 net.cpp:150] Setting up loss1_conv1_loss_relu1_0_split
I0701 22:54:29.488509  6432 net.cpp:157] Top shape: 2 512 72 96 (7077888)
I0701 22:54:29.488512  6432 net.cpp:157] Top shape: 2 512 72 96 (7077888)
I0701 22:54:29.488515  6432 net.cpp:165] Memory required for data: 2154306240
I0701 22:54:29.488518  6432 layer_factory.hpp:77] Creating layer LFCN_1_3x5
I0701 22:54:29.488530  6432 net.cpp:100] Creating Layer LFCN_1_3x5
I0701 22:54:29.488538  6432 net.cpp:434] LFCN_1_3x5 <- loss1_conv1_loss_relu1_0_split_0
I0701 22:54:29.488546  6432 net.cpp:408] LFCN_1_3x5 -> LFCN_1_3x5
I0701 22:54:29.491209  6432 net.cpp:150] Setting up LFCN_1_3x5
I0701 22:54:29.491427  6432 net.cpp:157] Top shape: 2 7 72 96 (96768)
I0701 22:54:29.491564  6432 net.cpp:165] Memory required for data: 2154693312
I0701 22:54:29.491670  6432 layer_factory.hpp:77] Creating layer LFCN_1_3x5_LFCN_1_3x5_0_split
I0701 22:54:29.491695  6432 net.cpp:100] Creating Layer LFCN_1_3x5_LFCN_1_3x5_0_split
I0701 22:54:29.491716  6432 net.cpp:434] LFCN_1_3x5_LFCN_1_3x5_0_split <- LFCN_1_3x5
I0701 22:54:29.491739  6432 net.cpp:408] LFCN_1_3x5_LFCN_1_3x5_0_split -> LFCN_1_3x5_LFCN_1_3x5_0_split_0
I0701 22:54:29.491771  6432 net.cpp:408] LFCN_1_3x5_LFCN_1_3x5_0_split -> LFCN_1_3x5_LFCN_1_3x5_0_split_1
I0701 22:54:29.491873  6432 net.cpp:150] Setting up LFCN_1_3x5_LFCN_1_3x5_0_split
I0701 22:54:29.491880  6432 net.cpp:157] Top shape: 2 7 72 96 (96768)
I0701 22:54:29.491884  6432 net.cpp:157] Top shape: 2 7 72 96 (96768)
I0701 22:54:29.491888  6432 net.cpp:165] Memory required for data: 2155467456
I0701 22:54:29.491890  6432 layer_factory.hpp:77] Creating layer detection_loss_1_3x5
I0701 22:54:29.491899  6432 net.cpp:100] Creating Layer detection_loss_1_3x5
I0701 22:54:29.491904  6432 net.cpp:434] detection_loss_1_3x5 <- LFCN_1_3x5_LFCN_1_3x5_0_split_0
I0701 22:54:29.491909  6432 net.cpp:434] detection_loss_1_3x5 <- label_1_3x5_data_1_split_0
I0701 22:54:29.491914  6432 net.cpp:408] detection_loss_1_3x5 -> loss_1_3x5
I0701 22:54:29.491925  6432 layer_factory.hpp:77] Creating layer detection_loss_1_3x5
I0701 22:54:29.493309  6432 net.cpp:150] Setting up detection_loss_1_3x5
I0701 22:54:29.493330  6432 net.cpp:157] Top shape: 1 1 1 2 (2)
I0701 22:54:29.493332  6432 net.cpp:160]     with loss weight 0.9
I0701 22:54:29.493350  6432 net.cpp:165] Memory required for data: 2155467464
I0701 22:54:29.493355  6432 layer_factory.hpp:77] Creating layer detection_accuracy_1_3x5
I0701 22:54:29.493368  6432 net.cpp:100] Creating Layer detection_accuracy_1_3x5
I0701 22:54:29.493373  6432 net.cpp:434] detection_accuracy_1_3x5 <- LFCN_1_3x5_LFCN_1_3x5_0_split_1
I0701 22:54:29.493382  6432 net.cpp:434] detection_accuracy_1_3x5 <- label_1_3x5_data_1_split_1
I0701 22:54:29.493387  6432 net.cpp:408] detection_accuracy_1_3x5 -> accuracy_1_3x5
I0701 22:54:29.493396  6432 net.cpp:408] detection_accuracy_1_3x5 -> boxiou_1_3x5
I0701 22:54:29.493456  6432 net.cpp:150] Setting up detection_accuracy_1_3x5
I0701 22:54:29.493464  6432 net.cpp:157] Top shape: 1 1 1 2 (2)
I0701 22:54:29.493468  6432 net.cpp:157] Top shape: 1 1 1 1 (1)
I0701 22:54:29.493470  6432 net.cpp:165] Memory required for data: 2155467476
I0701 22:54:29.493474  6432 layer_factory.hpp:77] Creating layer LFCN_1_5x7
I0701 22:54:29.493484  6432 net.cpp:100] Creating Layer LFCN_1_5x7
I0701 22:54:29.493489  6432 net.cpp:434] LFCN_1_5x7 <- loss1_conv1_loss_relu1_0_split_1
I0701 22:54:29.493497  6432 net.cpp:408] LFCN_1_5x7 -> LFCN_1_5x7
I0701 22:54:29.499343  6432 net.cpp:150] Setting up LFCN_1_5x7
I0701 22:54:29.499361  6432 net.cpp:157] Top shape: 2 7 72 96 (96768)
I0701 22:54:29.499364  6432 net.cpp:165] Memory required for data: 2155854548
I0701 22:54:29.499373  6432 layer_factory.hpp:77] Creating layer LFCN_1_5x7_LFCN_1_5x7_0_split
I0701 22:54:29.499387  6432 net.cpp:100] Creating Layer LFCN_1_5x7_LFCN_1_5x7_0_split
I0701 22:54:29.499392  6432 net.cpp:434] LFCN_1_5x7_LFCN_1_5x7_0_split <- LFCN_1_5x7
I0701 22:54:29.499400  6432 net.cpp:408] LFCN_1_5x7_LFCN_1_5x7_0_split -> LFCN_1_5x7_LFCN_1_5x7_0_split_0
I0701 22:54:29.499409  6432 net.cpp:408] LFCN_1_5x7_LFCN_1_5x7_0_split -> LFCN_1_5x7_LFCN_1_5x7_0_split_1
I0701 22:54:29.499465  6432 net.cpp:150] Setting up LFCN_1_5x7_LFCN_1_5x7_0_split
I0701 22:54:29.499471  6432 net.cpp:157] Top shape: 2 7 72 96 (96768)
I0701 22:54:29.499475  6432 net.cpp:157] Top shape: 2 7 72 96 (96768)
I0701 22:54:29.499478  6432 net.cpp:165] Memory required for data: 2156628692
I0701 22:54:29.499481  6432 layer_factory.hpp:77] Creating layer detection_loss_1_5x7
I0701 22:54:29.499490  6432 net.cpp:100] Creating Layer detection_loss_1_5x7
I0701 22:54:29.499493  6432 net.cpp:434] detection_loss_1_5x7 <- LFCN_1_5x7_LFCN_1_5x7_0_split_0
I0701 22:54:29.499498  6432 net.cpp:434] detection_loss_1_5x7 <- label_1_5x7_data_2_split_0
I0701 22:54:29.499505  6432 net.cpp:408] detection_loss_1_5x7 -> loss_1_5x7
I0701 22:54:29.499514  6432 layer_factory.hpp:77] Creating layer detection_loss_1_5x7
I0701 22:54:29.500169  6432 net.cpp:150] Setting up detection_loss_1_5x7
I0701 22:54:29.500178  6432 net.cpp:157] Top shape: 1 1 1 2 (2)
I0701 22:54:29.500181  6432 net.cpp:160]     with loss weight 0.9
I0701 22:54:29.500190  6432 net.cpp:165] Memory required for data: 2156628700
I0701 22:54:29.500195  6432 layer_factory.hpp:77] Creating layer detection_accuracy_1_5x7
I0701 22:54:29.500203  6432 net.cpp:100] Creating Layer detection_accuracy_1_5x7
I0701 22:54:29.500206  6432 net.cpp:434] detection_accuracy_1_5x7 <- LFCN_1_5x7_LFCN_1_5x7_0_split_1
I0701 22:54:29.500212  6432 net.cpp:434] detection_accuracy_1_5x7 <- label_1_5x7_data_2_split_1
I0701 22:54:29.500218  6432 net.cpp:408] detection_accuracy_1_5x7 -> accuracy_1_5x7
I0701 22:54:29.500226  6432 net.cpp:408] detection_accuracy_1_5x7 -> boxiou_1_5x7
I0701 22:54:29.500280  6432 net.cpp:150] Setting up detection_accuracy_1_5x7
I0701 22:54:29.500288  6432 net.cpp:157] Top shape: 1 1 1 2 (2)
I0701 22:54:29.500293  6432 net.cpp:157] Top shape: 1 1 1 1 (1)
I0701 22:54:29.500294  6432 net.cpp:165] Memory required for data: 2156628712
I0701 22:54:29.500298  6432 layer_factory.hpp:77] Creating layer pool4
I0701 22:54:29.500305  6432 net.cpp:100] Creating Layer pool4
I0701 22:54:29.500309  6432 net.cpp:434] pool4 <- conv4_3_relu4_3_0_split_1
I0701 22:54:29.500314  6432 net.cpp:408] pool4 -> pool4
I0701 22:54:29.500365  6432 net.cpp:150] Setting up pool4
I0701 22:54:29.500371  6432 net.cpp:157] Top shape: 2 512 36 48 (1769472)
I0701 22:54:29.500375  6432 net.cpp:165] Memory required for data: 2163706600
I0701 22:54:29.500377  6432 layer_factory.hpp:77] Creating layer conv5_1
I0701 22:54:29.500385  6432 net.cpp:100] Creating Layer conv5_1
I0701 22:54:29.500389  6432 net.cpp:434] conv5_1 <- pool4
I0701 22:54:29.500394  6432 net.cpp:408] conv5_1 -> conv5_1
I0701 22:54:29.506848  6432 net.cpp:150] Setting up conv5_1
I0701 22:54:29.506870  6432 net.cpp:157] Top shape: 2 512 36 48 (1769472)
I0701 22:54:29.506871  6432 net.cpp:165] Memory required for data: 2170784488
I0701 22:54:29.506878  6432 layer_factory.hpp:77] Creating layer relu5_1
I0701 22:54:29.506889  6432 net.cpp:100] Creating Layer relu5_1
I0701 22:54:29.506894  6432 net.cpp:434] relu5_1 <- conv5_1
I0701 22:54:29.506899  6432 net.cpp:395] relu5_1 -> conv5_1 (in-place)
I0701 22:54:29.507269  6432 net.cpp:150] Setting up relu5_1
I0701 22:54:29.507278  6432 net.cpp:157] Top shape: 2 512 36 48 (1769472)
I0701 22:54:29.507287  6432 net.cpp:165] Memory required for data: 2177862376
I0701 22:54:29.507288  6432 layer_factory.hpp:77] Creating layer conv5_2
I0701 22:54:29.507298  6432 net.cpp:100] Creating Layer conv5_2
I0701 22:54:29.507302  6432 net.cpp:434] conv5_2 <- conv5_1
I0701 22:54:29.507308  6432 net.cpp:408] conv5_2 -> conv5_2
I0701 22:54:29.513315  6432 net.cpp:150] Setting up conv5_2
I0701 22:54:29.513376  6432 net.cpp:157] Top shape: 2 512 36 48 (1769472)
I0701 22:54:29.513595  6432 net.cpp:165] Memory required for data: 2184940264
I0701 22:54:29.513628  6432 layer_factory.hpp:77] Creating layer relu5_2
I0701 22:54:29.513650  6432 net.cpp:100] Creating Layer relu5_2
I0701 22:54:29.513669  6432 net.cpp:434] relu5_2 <- conv5_2
I0701 22:54:29.513690  6432 net.cpp:395] relu5_2 -> conv5_2 (in-place)
I0701 22:54:29.514879  6432 net.cpp:150] Setting up relu5_2
I0701 22:54:29.515238  6432 net.cpp:157] Top shape: 2 512 36 48 (1769472)
I0701 22:54:29.515313  6432 net.cpp:165] Memory required for data: 2192018152
I0701 22:54:29.515321  6432 layer_factory.hpp:77] Creating layer conv5_3
I0701 22:54:29.515333  6432 net.cpp:100] Creating Layer conv5_3
I0701 22:54:29.515338  6432 net.cpp:434] conv5_3 <- conv5_2
I0701 22:54:29.515347  6432 net.cpp:408] conv5_3 -> conv5_3
I0701 22:54:29.523170  6432 net.cpp:150] Setting up conv5_3
I0701 22:54:29.523195  6432 net.cpp:157] Top shape: 2 512 36 48 (1769472)
I0701 22:54:29.523197  6432 net.cpp:165] Memory required for data: 2199096040
I0701 22:54:29.523207  6432 layer_factory.hpp:77] Creating layer relu5_3
I0701 22:54:29.523216  6432 net.cpp:100] Creating Layer relu5_3
I0701 22:54:29.523221  6432 net.cpp:434] relu5_3 <- conv5_3
I0701 22:54:29.523227  6432 net.cpp:395] relu5_3 -> conv5_3 (in-place)
I0701 22:54:29.523597  6432 net.cpp:150] Setting up relu5_3
I0701 22:54:29.523607  6432 net.cpp:157] Top shape: 2 512 36 48 (1769472)
I0701 22:54:29.523609  6432 net.cpp:165] Memory required for data: 2206173928
I0701 22:54:29.523612  6432 layer_factory.hpp:77] Creating layer conv5_3_relu5_3_0_split
I0701 22:54:29.523618  6432 net.cpp:100] Creating Layer conv5_3_relu5_3_0_split
I0701 22:54:29.523622  6432 net.cpp:434] conv5_3_relu5_3_0_split <- conv5_3
I0701 22:54:29.523628  6432 net.cpp:408] conv5_3_relu5_3_0_split -> conv5_3_relu5_3_0_split_0
I0701 22:54:29.523635  6432 net.cpp:408] conv5_3_relu5_3_0_split -> conv5_3_relu5_3_0_split_1
I0701 22:54:29.523641  6432 net.cpp:408] conv5_3_relu5_3_0_split -> conv5_3_relu5_3_0_split_2
I0701 22:54:29.523720  6432 net.cpp:150] Setting up conv5_3_relu5_3_0_split
I0701 22:54:29.523725  6432 net.cpp:157] Top shape: 2 512 36 48 (1769472)
I0701 22:54:29.523730  6432 net.cpp:157] Top shape: 2 512 36 48 (1769472)
I0701 22:54:29.523732  6432 net.cpp:157] Top shape: 2 512 36 48 (1769472)
I0701 22:54:29.523736  6432 net.cpp:165] Memory required for data: 2227407592
I0701 22:54:29.523738  6432 layer_factory.hpp:77] Creating layer LFCN_2_3x5
I0701 22:54:29.523747  6432 net.cpp:100] Creating Layer LFCN_2_3x5
I0701 22:54:29.523751  6432 net.cpp:434] LFCN_2_3x5 <- conv5_3_relu5_3_0_split_0
I0701 22:54:29.523757  6432 net.cpp:408] LFCN_2_3x5 -> LFCN_2_3x5
I0701 22:54:29.528618  6432 net.cpp:150] Setting up LFCN_2_3x5
I0701 22:54:29.528640  6432 net.cpp:157] Top shape: 2 7 36 48 (24192)
I0701 22:54:29.528645  6432 net.cpp:165] Memory required for data: 2227504360
I0701 22:54:29.528658  6432 layer_factory.hpp:77] Creating layer LFCN_2_3x5_LFCN_2_3x5_0_split
I0701 22:54:29.528667  6432 net.cpp:100] Creating Layer LFCN_2_3x5_LFCN_2_3x5_0_split
I0701 22:54:29.528672  6432 net.cpp:434] LFCN_2_3x5_LFCN_2_3x5_0_split <- LFCN_2_3x5
I0701 22:54:29.528681  6432 net.cpp:408] LFCN_2_3x5_LFCN_2_3x5_0_split -> LFCN_2_3x5_LFCN_2_3x5_0_split_0
I0701 22:54:29.528689  6432 net.cpp:408] LFCN_2_3x5_LFCN_2_3x5_0_split -> LFCN_2_3x5_LFCN_2_3x5_0_split_1
I0701 22:54:29.528746  6432 net.cpp:150] Setting up LFCN_2_3x5_LFCN_2_3x5_0_split
I0701 22:54:29.528753  6432 net.cpp:157] Top shape: 2 7 36 48 (24192)
I0701 22:54:29.528756  6432 net.cpp:157] Top shape: 2 7 36 48 (24192)
I0701 22:54:29.528759  6432 net.cpp:165] Memory required for data: 2227697896
I0701 22:54:29.528762  6432 layer_factory.hpp:77] Creating layer detection_loss_2_3x5
I0701 22:54:29.528769  6432 net.cpp:100] Creating Layer detection_loss_2_3x5
I0701 22:54:29.528774  6432 net.cpp:434] detection_loss_2_3x5 <- LFCN_2_3x5_LFCN_2_3x5_0_split_0
I0701 22:54:29.528777  6432 net.cpp:434] detection_loss_2_3x5 <- label_2_3x5_data_3_split_0
I0701 22:54:29.528784  6432 net.cpp:408] detection_loss_2_3x5 -> loss_2_3x5
I0701 22:54:29.528792  6432 layer_factory.hpp:77] Creating layer detection_loss_2_3x5
I0701 22:54:29.529434  6432 net.cpp:150] Setting up detection_loss_2_3x5
I0701 22:54:29.529444  6432 net.cpp:157] Top shape: 1 1 1 2 (2)
I0701 22:54:29.529448  6432 net.cpp:160]     with loss weight 1
I0701 22:54:29.529455  6432 net.cpp:165] Memory required for data: 2227697904
I0701 22:54:29.529458  6432 layer_factory.hpp:77] Creating layer detection_accuracy_2_3x5
I0701 22:54:29.529465  6432 net.cpp:100] Creating Layer detection_accuracy_2_3x5
I0701 22:54:29.529470  6432 net.cpp:434] detection_accuracy_2_3x5 <- LFCN_2_3x5_LFCN_2_3x5_0_split_1
I0701 22:54:29.529475  6432 net.cpp:434] detection_accuracy_2_3x5 <- label_2_3x5_data_3_split_1
I0701 22:54:29.529480  6432 net.cpp:408] detection_accuracy_2_3x5 -> accuracy_2_3x5
I0701 22:54:29.529487  6432 net.cpp:408] detection_accuracy_2_3x5 -> boxiou_2_3x5
I0701 22:54:29.529551  6432 net.cpp:150] Setting up detection_accuracy_2_3x5
I0701 22:54:29.529557  6432 net.cpp:157] Top shape: 1 1 1 2 (2)
I0701 22:54:29.529561  6432 net.cpp:157] Top shape: 1 1 1 1 (1)
I0701 22:54:29.529563  6432 net.cpp:165] Memory required for data: 2227697916
I0701 22:54:29.529567  6432 layer_factory.hpp:77] Creating layer LFCN_2_5x7
I0701 22:54:29.529575  6432 net.cpp:100] Creating Layer LFCN_2_5x7
I0701 22:54:29.529579  6432 net.cpp:434] LFCN_2_5x7 <- conv5_3_relu5_3_0_split_1
I0701 22:54:29.529584  6432 net.cpp:408] LFCN_2_5x7 -> LFCN_2_5x7
I0701 22:54:29.533349  6432 net.cpp:150] Setting up LFCN_2_5x7
I0701 22:54:29.533367  6432 net.cpp:157] Top shape: 2 7 36 48 (24192)
I0701 22:54:29.533371  6432 net.cpp:165] Memory required for data: 2227794684
I0701 22:54:29.533380  6432 layer_factory.hpp:77] Creating layer LFCN_2_5x7_LFCN_2_5x7_0_split
I0701 22:54:29.533387  6432 net.cpp:100] Creating Layer LFCN_2_5x7_LFCN_2_5x7_0_split
I0701 22:54:29.533391  6432 net.cpp:434] LFCN_2_5x7_LFCN_2_5x7_0_split <- LFCN_2_5x7
I0701 22:54:29.533399  6432 net.cpp:408] LFCN_2_5x7_LFCN_2_5x7_0_split -> LFCN_2_5x7_LFCN_2_5x7_0_split_0
I0701 22:54:29.533407  6432 net.cpp:408] LFCN_2_5x7_LFCN_2_5x7_0_split -> LFCN_2_5x7_LFCN_2_5x7_0_split_1
I0701 22:54:29.533463  6432 net.cpp:150] Setting up LFCN_2_5x7_LFCN_2_5x7_0_split
I0701 22:54:29.533468  6432 net.cpp:157] Top shape: 2 7 36 48 (24192)
I0701 22:54:29.533473  6432 net.cpp:157] Top shape: 2 7 36 48 (24192)
I0701 22:54:29.533475  6432 net.cpp:165] Memory required for data: 2227988220
I0701 22:54:29.533478  6432 layer_factory.hpp:77] Creating layer detection_loss_2_5x7
I0701 22:54:29.533485  6432 net.cpp:100] Creating Layer detection_loss_2_5x7
I0701 22:54:29.533489  6432 net.cpp:434] detection_loss_2_5x7 <- LFCN_2_5x7_LFCN_2_5x7_0_split_0
I0701 22:54:29.533493  6432 net.cpp:434] detection_loss_2_5x7 <- label_2_5x7_data_4_split_0
I0701 22:54:29.533499  6432 net.cpp:408] detection_loss_2_5x7 -> loss_2_5x7
I0701 22:54:29.533507  6432 layer_factory.hpp:77] Creating layer detection_loss_2_5x7
I0701 22:54:29.534911  6432 net.cpp:150] Setting up detection_loss_2_5x7
I0701 22:54:29.534924  6432 net.cpp:157] Top shape: 1 1 1 2 (2)
I0701 22:54:29.534927  6432 net.cpp:160]     with loss weight 1
I0701 22:54:29.534936  6432 net.cpp:165] Memory required for data: 2227988228
I0701 22:54:29.534940  6432 layer_factory.hpp:77] Creating layer detection_accuracy_2_5x7
I0701 22:54:29.534947  6432 net.cpp:100] Creating Layer detection_accuracy_2_5x7
I0701 22:54:29.534951  6432 net.cpp:434] detection_accuracy_2_5x7 <- LFCN_2_5x7_LFCN_2_5x7_0_split_1
I0701 22:54:29.534956  6432 net.cpp:434] detection_accuracy_2_5x7 <- label_2_5x7_data_4_split_1
I0701 22:54:29.534966  6432 net.cpp:408] detection_accuracy_2_5x7 -> accuracy_2_5x7
I0701 22:54:29.534973  6432 net.cpp:408] detection_accuracy_2_5x7 -> boxiou_2_5x7
I0701 22:54:29.535024  6432 net.cpp:150] Setting up detection_accuracy_2_5x7
I0701 22:54:29.535030  6432 net.cpp:157] Top shape: 1 1 1 2 (2)
I0701 22:54:29.535034  6432 net.cpp:157] Top shape: 1 1 1 1 (1)
I0701 22:54:29.535037  6432 net.cpp:165] Memory required for data: 2227988240
I0701 22:54:29.535039  6432 layer_factory.hpp:77] Creating layer pool5
I0701 22:54:29.535045  6432 net.cpp:100] Creating Layer pool5
I0701 22:54:29.535048  6432 net.cpp:434] pool5 <- conv5_3_relu5_3_0_split_2
I0701 22:54:29.535054  6432 net.cpp:408] pool5 -> pool5
I0701 22:54:29.535099  6432 net.cpp:150] Setting up pool5
I0701 22:54:29.535105  6432 net.cpp:157] Top shape: 2 512 18 24 (442368)
I0701 22:54:29.535107  6432 net.cpp:165] Memory required for data: 2229757712
I0701 22:54:29.535110  6432 layer_factory.hpp:77] Creating layer conv6_1
I0701 22:54:29.535120  6432 net.cpp:100] Creating Layer conv6_1
I0701 22:54:29.535146  6432 net.cpp:434] conv6_1 <- pool5
I0701 22:54:29.535166  6432 net.cpp:408] conv6_1 -> conv6_1
I0701 22:54:29.559973  6432 net.cpp:150] Setting up conv6_1
I0701 22:54:29.559989  6432 net.cpp:157] Top shape: 2 512 18 24 (442368)
I0701 22:54:29.559993  6432 net.cpp:165] Memory required for data: 2231527184
I0701 22:54:29.559998  6432 layer_factory.hpp:77] Creating layer relu6_1
I0701 22:54:29.560004  6432 net.cpp:100] Creating Layer relu6_1
I0701 22:54:29.560008  6432 net.cpp:434] relu6_1 <- conv6_1
I0701 22:54:29.560012  6432 net.cpp:395] relu6_1 -> conv6_1 (in-place)
I0701 22:54:29.560292  6432 net.cpp:150] Setting up relu6_1
I0701 22:54:29.560299  6432 net.cpp:157] Top shape: 2 512 18 24 (442368)
I0701 22:54:29.560302  6432 net.cpp:165] Memory required for data: 2233296656
I0701 22:54:29.560303  6432 layer_factory.hpp:77] Creating layer conv6_1_relu6_1_0_split
I0701 22:54:29.560308  6432 net.cpp:100] Creating Layer conv6_1_relu6_1_0_split
I0701 22:54:29.560312  6432 net.cpp:434] conv6_1_relu6_1_0_split <- conv6_1
I0701 22:54:29.560315  6432 net.cpp:408] conv6_1_relu6_1_0_split -> conv6_1_relu6_1_0_split_0
I0701 22:54:29.560320  6432 net.cpp:408] conv6_1_relu6_1_0_split -> conv6_1_relu6_1_0_split_1
I0701 22:54:29.560324  6432 net.cpp:408] conv6_1_relu6_1_0_split -> conv6_1_relu6_1_0_split_2
I0701 22:54:29.560403  6432 net.cpp:150] Setting up conv6_1_relu6_1_0_split
I0701 22:54:29.560410  6432 net.cpp:157] Top shape: 2 512 18 24 (442368)
I0701 22:54:29.560415  6432 net.cpp:157] Top shape: 2 512 18 24 (442368)
I0701 22:54:29.560418  6432 net.cpp:157] Top shape: 2 512 18 24 (442368)
I0701 22:54:29.560421  6432 net.cpp:165] Memory required for data: 2238605072
I0701 22:54:29.560425  6432 layer_factory.hpp:77] Creating layer LFCN_3_3x5
I0701 22:54:29.560434  6432 net.cpp:100] Creating Layer LFCN_3_3x5
I0701 22:54:29.560437  6432 net.cpp:434] LFCN_3_3x5 <- conv6_1_relu6_1_0_split_0
I0701 22:54:29.560446  6432 net.cpp:408] LFCN_3_3x5 -> LFCN_3_3x5
I0701 22:54:29.563609  6432 net.cpp:150] Setting up LFCN_3_3x5
I0701 22:54:29.563624  6432 net.cpp:157] Top shape: 2 7 18 24 (6048)
I0701 22:54:29.563627  6432 net.cpp:165] Memory required for data: 2238629264
I0701 22:54:29.563633  6432 layer_factory.hpp:77] Creating layer LFCN_3_3x5_LFCN_3_3x5_0_split
I0701 22:54:29.563645  6432 net.cpp:100] Creating Layer LFCN_3_3x5_LFCN_3_3x5_0_split
I0701 22:54:29.563649  6432 net.cpp:434] LFCN_3_3x5_LFCN_3_3x5_0_split <- LFCN_3_3x5
I0701 22:54:29.563654  6432 net.cpp:408] LFCN_3_3x5_LFCN_3_3x5_0_split -> LFCN_3_3x5_LFCN_3_3x5_0_split_0
I0701 22:54:29.563661  6432 net.cpp:408] LFCN_3_3x5_LFCN_3_3x5_0_split -> LFCN_3_3x5_LFCN_3_3x5_0_split_1
I0701 22:54:29.563715  6432 net.cpp:150] Setting up LFCN_3_3x5_LFCN_3_3x5_0_split
I0701 22:54:29.563722  6432 net.cpp:157] Top shape: 2 7 18 24 (6048)
I0701 22:54:29.563726  6432 net.cpp:157] Top shape: 2 7 18 24 (6048)
I0701 22:54:29.563730  6432 net.cpp:165] Memory required for data: 2238677648
I0701 22:54:29.563732  6432 layer_factory.hpp:77] Creating layer detection_loss_3_3x5
I0701 22:54:29.563740  6432 net.cpp:100] Creating Layer detection_loss_3_3x5
I0701 22:54:29.563745  6432 net.cpp:434] detection_loss_3_3x5 <- LFCN_3_3x5_LFCN_3_3x5_0_split_0
I0701 22:54:29.563750  6432 net.cpp:434] detection_loss_3_3x5 <- label_3_3x5_data_5_split_0
I0701 22:54:29.563756  6432 net.cpp:408] detection_loss_3_3x5 -> loss_3_3x5
I0701 22:54:29.563766  6432 layer_factory.hpp:77] Creating layer detection_loss_3_3x5
I0701 22:54:29.564419  6432 net.cpp:150] Setting up detection_loss_3_3x5
I0701 22:54:29.564429  6432 net.cpp:157] Top shape: 1 1 1 2 (2)
I0701 22:54:29.564431  6432 net.cpp:160]     with loss weight 1
I0701 22:54:29.564440  6432 net.cpp:165] Memory required for data: 2238677656
I0701 22:54:29.564443  6432 layer_factory.hpp:77] Creating layer detection_accuracy_3_3x5
I0701 22:54:29.564450  6432 net.cpp:100] Creating Layer detection_accuracy_3_3x5
I0701 22:54:29.564453  6432 net.cpp:434] detection_accuracy_3_3x5 <- LFCN_3_3x5_LFCN_3_3x5_0_split_1
I0701 22:54:29.564460  6432 net.cpp:434] detection_accuracy_3_3x5 <- label_3_3x5_data_5_split_1
I0701 22:54:29.564465  6432 net.cpp:408] detection_accuracy_3_3x5 -> accuracy_3_3x5
I0701 22:54:29.564472  6432 net.cpp:408] detection_accuracy_3_3x5 -> boxiou_3_3x5
I0701 22:54:29.564528  6432 net.cpp:150] Setting up detection_accuracy_3_3x5
I0701 22:54:29.564535  6432 net.cpp:157] Top shape: 1 1 1 2 (2)
I0701 22:54:29.564539  6432 net.cpp:157] Top shape: 1 1 1 1 (1)
I0701 22:54:29.564543  6432 net.cpp:165] Memory required for data: 2238677668
I0701 22:54:29.564545  6432 layer_factory.hpp:77] Creating layer LFCN_3_5x7
I0701 22:54:29.564554  6432 net.cpp:100] Creating Layer LFCN_3_5x7
I0701 22:54:29.564558  6432 net.cpp:434] LFCN_3_5x7 <- conv6_1_relu6_1_0_split_1
I0701 22:54:29.564568  6432 net.cpp:408] LFCN_3_5x7 -> LFCN_3_5x7
I0701 22:54:29.567750  6432 net.cpp:150] Setting up LFCN_3_5x7
I0701 22:54:29.567766  6432 net.cpp:157] Top shape: 2 7 18 24 (6048)
I0701 22:54:29.567768  6432 net.cpp:165] Memory required for data: 2238701860
I0701 22:54:29.567775  6432 layer_factory.hpp:77] Creating layer LFCN_3_5x7_LFCN_3_5x7_0_split
I0701 22:54:29.567780  6432 net.cpp:100] Creating Layer LFCN_3_5x7_LFCN_3_5x7_0_split
I0701 22:54:29.567783  6432 net.cpp:434] LFCN_3_5x7_LFCN_3_5x7_0_split <- LFCN_3_5x7
I0701 22:54:29.567790  6432 net.cpp:408] LFCN_3_5x7_LFCN_3_5x7_0_split -> LFCN_3_5x7_LFCN_3_5x7_0_split_0
I0701 22:54:29.567795  6432 net.cpp:408] LFCN_3_5x7_LFCN_3_5x7_0_split -> LFCN_3_5x7_LFCN_3_5x7_0_split_1
I0701 22:54:29.567848  6432 net.cpp:150] Setting up LFCN_3_5x7_LFCN_3_5x7_0_split
I0701 22:54:29.567857  6432 net.cpp:157] Top shape: 2 7 18 24 (6048)
I0701 22:54:29.567860  6432 net.cpp:157] Top shape: 2 7 18 24 (6048)
I0701 22:54:29.567863  6432 net.cpp:165] Memory required for data: 2238750244
I0701 22:54:29.567867  6432 layer_factory.hpp:77] Creating layer detection_loss_3_5x7
I0701 22:54:29.567873  6432 net.cpp:100] Creating Layer detection_loss_3_5x7
I0701 22:54:29.567875  6432 net.cpp:434] detection_loss_3_5x7 <- LFCN_3_5x7_LFCN_3_5x7_0_split_0
I0701 22:54:29.567881  6432 net.cpp:434] detection_loss_3_5x7 <- label_3_5x7_data_6_split_0
I0701 22:54:29.567888  6432 net.cpp:408] detection_loss_3_5x7 -> loss_3_5x7
I0701 22:54:29.567895  6432 layer_factory.hpp:77] Creating layer detection_loss_3_5x7
I0701 22:54:29.569077  6432 net.cpp:150] Setting up detection_loss_3_5x7
I0701 22:54:29.569087  6432 net.cpp:157] Top shape: 1 1 1 2 (2)
I0701 22:54:29.569088  6432 net.cpp:160]     with loss weight 1
I0701 22:54:29.569097  6432 net.cpp:165] Memory required for data: 2238750252
I0701 22:54:29.569100  6432 layer_factory.hpp:77] Creating layer detection_accuracy_3_5x7
I0701 22:54:29.569108  6432 net.cpp:100] Creating Layer detection_accuracy_3_5x7
I0701 22:54:29.569114  6432 net.cpp:434] detection_accuracy_3_5x7 <- LFCN_3_5x7_LFCN_3_5x7_0_split_1
I0701 22:54:29.569120  6432 net.cpp:434] detection_accuracy_3_5x7 <- label_3_5x7_data_6_split_1
I0701 22:54:29.569126  6432 net.cpp:408] detection_accuracy_3_5x7 -> accuracy_3_5x7
I0701 22:54:29.569135  6432 net.cpp:408] detection_accuracy_3_5x7 -> boxiou_3_5x7
I0701 22:54:29.569192  6432 net.cpp:150] Setting up detection_accuracy_3_5x7
I0701 22:54:29.569198  6432 net.cpp:157] Top shape: 1 1 1 2 (2)
I0701 22:54:29.569203  6432 net.cpp:157] Top shape: 1 1 1 1 (1)
I0701 22:54:29.569206  6432 net.cpp:165] Memory required for data: 2238750264
I0701 22:54:29.569209  6432 layer_factory.hpp:77] Creating layer pool6
I0701 22:54:29.569214  6432 net.cpp:100] Creating Layer pool6
I0701 22:54:29.569219  6432 net.cpp:434] pool6 <- conv6_1_relu6_1_0_split_2
I0701 22:54:29.569232  6432 net.cpp:408] pool6 -> pool6
I0701 22:54:29.569319  6432 net.cpp:150] Setting up pool6
I0701 22:54:29.569327  6432 net.cpp:157] Top shape: 2 512 9 12 (110592)
I0701 22:54:29.569330  6432 net.cpp:165] Memory required for data: 2239192632
I0701 22:54:29.569334  6432 layer_factory.hpp:77] Creating layer LFCN_4_3x5
I0701 22:54:29.569344  6432 net.cpp:100] Creating Layer LFCN_4_3x5
I0701 22:54:29.569350  6432 net.cpp:434] LFCN_4_3x5 <- pool6
I0701 22:54:29.569355  6432 net.cpp:408] LFCN_4_3x5 -> LFCN_4_3x5
I0701 22:54:29.572021  6432 net.cpp:150] Setting up LFCN_4_3x5
I0701 22:54:29.572034  6432 net.cpp:157] Top shape: 2 7 9 12 (1512)
I0701 22:54:29.572036  6432 net.cpp:165] Memory required for data: 2239198680
I0701 22:54:29.572042  6432 layer_factory.hpp:77] Creating layer LFCN_4_3x5_LFCN_4_3x5_0_split
I0701 22:54:29.572048  6432 net.cpp:100] Creating Layer LFCN_4_3x5_LFCN_4_3x5_0_split
I0701 22:54:29.572052  6432 net.cpp:434] LFCN_4_3x5_LFCN_4_3x5_0_split <- LFCN_4_3x5
I0701 22:54:29.572057  6432 net.cpp:408] LFCN_4_3x5_LFCN_4_3x5_0_split -> LFCN_4_3x5_LFCN_4_3x5_0_split_0
I0701 22:54:29.572062  6432 net.cpp:408] LFCN_4_3x5_LFCN_4_3x5_0_split -> LFCN_4_3x5_LFCN_4_3x5_0_split_1
I0701 22:54:29.572126  6432 net.cpp:150] Setting up LFCN_4_3x5_LFCN_4_3x5_0_split
I0701 22:54:29.572134  6432 net.cpp:157] Top shape: 2 7 9 12 (1512)
I0701 22:54:29.572139  6432 net.cpp:157] Top shape: 2 7 9 12 (1512)
I0701 22:54:29.572140  6432 net.cpp:165] Memory required for data: 2239210776
I0701 22:54:29.572144  6432 layer_factory.hpp:77] Creating layer detection_loss_4_3x5
I0701 22:54:29.572152  6432 net.cpp:100] Creating Layer detection_loss_4_3x5
I0701 22:54:29.572155  6432 net.cpp:434] detection_loss_4_3x5 <- LFCN_4_3x5_LFCN_4_3x5_0_split_0
I0701 22:54:29.572160  6432 net.cpp:434] detection_loss_4_3x5 <- label_4_3x5_data_7_split_0
I0701 22:54:29.572167  6432 net.cpp:408] detection_loss_4_3x5 -> loss_4_3x5
I0701 22:54:29.572175  6432 layer_factory.hpp:77] Creating layer detection_loss_4_3x5
I0701 22:54:29.573186  6432 net.cpp:150] Setting up detection_loss_4_3x5
I0701 22:54:29.573197  6432 net.cpp:157] Top shape: 1 1 1 2 (2)
I0701 22:54:29.573199  6432 net.cpp:160]     with loss weight 1
I0701 22:54:29.573206  6432 net.cpp:165] Memory required for data: 2239210784
I0701 22:54:29.573209  6432 layer_factory.hpp:77] Creating layer detection_accuracy_4_3x5
I0701 22:54:29.573215  6432 net.cpp:100] Creating Layer detection_accuracy_4_3x5
I0701 22:54:29.573218  6432 net.cpp:434] detection_accuracy_4_3x5 <- LFCN_4_3x5_LFCN_4_3x5_0_split_1
I0701 22:54:29.573222  6432 net.cpp:434] detection_accuracy_4_3x5 <- label_4_3x5_data_7_split_1
I0701 22:54:29.573236  6432 net.cpp:408] detection_accuracy_4_3x5 -> accuracy_4_3x5
I0701 22:54:29.573246  6432 net.cpp:408] detection_accuracy_4_3x5 -> boxiou_4_3x5
I0701 22:54:29.573303  6432 net.cpp:150] Setting up detection_accuracy_4_3x5
I0701 22:54:29.573312  6432 net.cpp:157] Top shape: 1 1 1 2 (2)
I0701 22:54:29.573315  6432 net.cpp:157] Top shape: 1 1 1 1 (1)
I0701 22:54:29.573318  6432 net.cpp:165] Memory required for data: 2239210796
I0701 22:54:29.573320  6432 net.cpp:228] detection_accuracy_4_3x5 does not need backward computation.
I0701 22:54:29.573324  6432 net.cpp:226] detection_loss_4_3x5 needs backward computation.
I0701 22:54:29.573329  6432 net.cpp:226] LFCN_4_3x5_LFCN_4_3x5_0_split needs backward computation.
I0701 22:54:29.573333  6432 net.cpp:226] LFCN_4_3x5 needs backward computation.
…
