…
    downsample_rate: 32
    downsample_rate: 32
    downsample_rate: 64
    coord_num: 4
    field_h: 60
    field_h: 84
    field_h: 120
    field_h: 168
    field_h: 240
    field_h: 336
    field_h: 480
    field_w: 40
    field_w: 56
    field_w: 80
    field_w: 112
    field_w: 160
    field_w: 224
    field_w: 320
    fg_threshold: 0.5
    resize_width: 1920
    resize_height: 576
    crop_width: 768
    crop_height: 576
    do_multiple_scale: true
    min_scale: 50
    max_scale: 420
    min_gt_height: 35
    shuffle: true
    output_gt_boxes: true
  }
}
layer {
  name: "conv1_1"
  type: "Convolution"
  bottom: "data"
  top: "conv1_1"
  param {
    lr_mult: 0
    decay_mult: 0
  }
  param {
    lr_mult: 0
    decay_mult: 0
  }
  convolution_param {
    num_output: 64
    pad: 1
    kernel_size: 3
  }
}
layer {
  name: "relu1_1"
  type: "ReLU"
  bottom: "conv1_1"
  top: "conv1_1"
}
layer {
  name: "conv1_2"
  type: "Convolution"
  bottom: "conv1_1"
  top: "conv1_2"
  param {
    lr_mult: 0
    decay_mult: 0
  }
  param {
    lr_mult: 0
    decay_mult: 0
  }
  convolution_param {
    num_output: 64
    pad: 1
    kernel_size: 3
  }
}
layer {
  name: "relu1_2"
  type: "ReLU"
  bottom: "conv1_2"
  top: "conv1_2"
}
layer {
  name: "pool1"
  type: "Pooling"
  bottom: "conv1_2"
  top: "pool1"
  pooling_param {
    pool: MAX
    kernel_size: 2
    stride: 2
  }
}
layer {
  name: "conv2_1"
  type: "Convolution"
  bottom: "pool1"
  top: "conv2_1"
  param {
    lr_mult: 0
    decay_mult: 0
  }
  param {
    lr_mult: 0
    decay_mult: 0
  }
  convolution_param {
    num_output: 128
    pad: 1
    kernel_size: 3
  }
}
layer {
  name: "relu2_1"
  type: "ReLU"
  bottom: "conv2_1"
  top: "conv2_1"
}
layer {
  name: "conv2_2"
  type: "Convolution"
  bottom: "conv2_1"
  top: "conv2_2"
  param {
    lr_mult: 0
    decay_mult: 0
  }
  param {
    lr_mult: 0
    decay_mult: 0
  }
  convolution_param {
    num_output: 128
    pad: 1
    kernel_size: 3
  }
}
layer {
  name: "relu2_2"
  type: "ReLU"
  bottom: "conv2_2"
  top: "conv2_2"
}
layer {
  name: "pool2"
  type: "Pooling"
  bottom: "conv2_2"
  top: "pool2"
  pooling_param {
    pool: MAX
    kernel_size: 2
    stride: 2
  }
}
layer {
  name: "conv3_1"
  type: "Convolution"
  bottom: "pool2"
  top: "conv3_1"
  convolution_param {
    num_output: 256
    pad: 1
    kernel_size: 3
  }
}
layer {
  name: "relu3_1"
  type: "ReLU"
  bottom: "conv3_1"
  top: "conv3_1"
}
layer {
  name: "conv3_2"
  type: "Convolution"
  bottom: "conv3_1"
  top: "conv3_2"
  convolution_param {
    num_output: 256
    pad: 1
    kernel_size: 3
  }
}
layer {
  name: "relu3_2"
  type: "ReLU"
  bottom: "conv3_2"
  top: "conv3_2"
}
layer {
  name: "conv3_3"
  type: "Convolution"
  bottom: "conv3_2"
  top: "conv3_3"
  convolution_param {
    num_output: 256
    pad: 1
    kernel_size: 3
  }
}
layer {
  name: "relu3_3"
  type: "ReLU"
  bottom: "conv3_3"
  top: "conv3_3"
}
layer {
  name: "pool3"
  type: "Pooling"
  bottom: "conv3_3"
  top: "pool3"
  pooling_param {
    pool: MAX
    kernel_size: 2
    stride: 2
  }
}
layer {
  name: "conv4_1"
  type: "Convolution"
  bottom: "pool3"
  top: "conv4_1"
  convolution_param {
    num_output: 512
    pad: 1
    kernel_size: 3
  }
}
layer {
  name: "relu4_1"
  type: "ReLU"
  bottom: "conv4_1"
  top: "conv4_1"
}
layer {
  name: "conv4_2"
  type: "Convolution"
  bottom: "conv4_1"
  top: "conv4_2"
  convolution_param {
    num_output: 512
    pad: 1
    kernel_size: 3
  }
}
layer {
  name: "relu4_2"
  type: "ReLU"
  bottom: "conv4_2"
  top: "conv4_2"
}
layer {
  name: "conv4_3"
  type: "Convolution"
  bottom: "conv4_2"
  top: "conv4_3"
  convolution_param {
    num_output: 512
    pad: 1
    kernel_size: 3
  }
}
layer {
  name: "relu4_3"
  type: "ReLU"
  bottom: "conv4_3"
  top: "conv4_3"
}
layer {
  name: "loss1_conv1"
  type: "Convolution"
  bottom: "conv4_3"
  top: "loss1_conv1"
  param {
    lr_mult: 1
    decay_mult: 1
  }
  param {
    lr_mult: 2
    decay_mult: 0
  }
  convolution_param {
    num_output: 512
    pad: 1
    kernel_size: 3
    weight_filler {
      type: "gaussian"
      std: 0.01
    }
    bias_filler {
      type: "constant"
    }
  }
}
layer {
  name: "loss_relu1"
  type: "ReLU"
  bottom: "loss1_conv1"
  top: "loss1_conv1"
}
layer {
  name: "LFCN_1_3x5"
  type: "Convolution"
  bottom: "loss1_conv1"
  top: "LFCN_1_3x5"
  param {
    lr_mult: 1
    decay_mult: 1
  }
  param {
    lr_mult: 2
    decay_mult: 0
  }
  convolution_param {
    num_output: 7
    weight_filler {
      type: "gaussian"
      std: 0.001
    }
    bias_filler {
      type: "constant"
    }
    pad_h: 2
    pad_w: 1
    kernel_h: 5
    kernel_w: 3
  }
}
layer {
  name: "detection_loss_1_3x5"
  type: "DetectionLoss"
  bottom: "LFCN_1_3x5"
  bottom: "label_1_3x5"
  top: "loss_1_3x5"
  loss_weight: 0.5
  detection_loss_param {
    cls_num: 3
    coord_num: 4
    lambda: 1
    field_h: 60
    field_w: 40
    downsample_rate: 8
    bb_smooth: true
    field_whr: 2
    field_xyr: 2
    bg_threshold: 0.2
    bg_multiple: 2
    sample_mode: "bootstrap"
    pos_neg_weighted: true
  }
}
layer {
  name: "detection_accuracy_1_3x5"
  type: "DetectionAccuracy"
  bottom: "LFCN_1_3x5"
  bottom: "label_1_3x5"
  top: "accuracy_1_3x5"
  top: "boxiou_1_3x5"
  detection_accuracy_param {
    cls_num: 3
    coord_num: 4
    field_h: 60
    field_w: 40
    downsample_rate: 8
    field_whr: 2
    field_xyr: 2
  }
}
layer {
  name: "LFCN_1_5x7"
  type: "Convolution"
  bottom: "loss1_conv1"
  top: "LFCN_1_5x7"
  param {
    lr_mult: 1
    decay_mult: 1
  }
  param {
    lr_mult: 2
    decay_mult: 0
  }
  convolution_param {
    num_output: 7
    weight_filler {
      type: "gaussian"
      std: 0.001
    }
    bias_filler {
      type: "constant"
    }
    pad_h: 3
    pad_w: 2
    kernel_h: 7
    kernel_w: 5
  }
}
layer {
  name: "detection_loss_1_5x7"
  type: "DetectionLoss"
  bottom: "LFCN_1_5x7"
  bottom: "label_1_5x7"
  top: "loss_1_5x7"
  loss_weight: 0.9
  detection_loss_param {
    cls_num: 3
    coord_num: 4
    lambda: 1
    field_h: 84
    field_w: 56
    downsample_rate: 8
    bb_smooth: true
    field_whr: 2
    field_xyr: 2
    bg_threshold: 0.2
    bg_multiple: 2
    sample_mode: "bootstrap"
    pos_neg_weighted: true
  }
}
layer {
  name: "detection_accuracy_1_5x7"
  type: "DetectionAccuracy"
  bottom: "LFCN_1_5x7"
  bottom: "label_1_5x7"
  top: "accuracy_1_5x7"
  top: "boxiou_1_5x7"
  detection_accuracy_param {
    cls_num: 3
    coord_num: 4
    field_h: 84
    field_w: 56
    downsample_rate: 8
    field_whr: 2
    field_xyr: 2
  }
}
layer {
  name: "pool4"
  type: "Pooling"
  bottom: "conv4_3"
  top: "pool4"
  pooling_param {
    pool: MAX
    kernel_size: 2
    stride: 2
  }
}
layer {
  name: "conv5_1"
  type: "Convolution"
  bottom: "pool4"
  top: "conv5_1"
  convolution_param {
    num_output: 512
    pad: 1
    kernel_size: 3
  }
}
layer {
  name: "relu5_1"
  type: "ReLU"
  bottom: "conv5_1"
  top: "conv5_1"
}
layer {
  name: "conv5_2"
  type: "Convolution"
  bottom: "conv5_1"
  top: "conv5_2"
  convolution_param {
    num_output: 512
    pad: 1
    kernel_size: 3
  }
}
layer {
  name: "relu5_2"
  type: "ReLU"
  bottom: "conv5_2"
  top: "conv5_2"
}
layer {
  name: "conv5_3"
  type: "Convolution"
  bottom: "conv5_2"
  top: "conv5_3"
  convolution_param {
    num_output: 512
    pad: 1
    kernel_size: 3
  }
}
layer {
  name: "relu5_3"
  type: "ReLU"
  bottom: "conv5_3"
  top: "conv5_3"
}
layer {
  name: "LFCN_2_3x5"
  type: "Convolution"
  bottom: "conv5_3"
  top: "LFCN_2_3x5"
  param {
    lr_mult: 1
    decay_mult: 1
  }
  param {
    lr_mult: 2
    decay_mult: 0
  }
  convolution_param {
    num_output: 7
    weight_filler {
      type: "gaussian"
      std: 0.001
    }
    bias_filler {
      type: "constant"
    }
    pad_h: 2
    pad_w: 1
    kernel_h: 5
    kernel_w: 3
  }
}
layer {
  name: "detection_loss_2_3x5"
  type: "DetectionLoss"
  bottom: "LFCN_2_3x5"
  bottom: "label_2_3x5"
  top: "loss_2_3x5"
  detection_loss_param {
    cls_num: 3
    coord_num: 4
    lambda: 1
    field_h: 120
    field_w: 80
    downsample_rate: 16
    bb_smooth: true
    field_whr: 2
    field_xyr: 2
    bg_threshold: 0.2
    bg_multiple: 2
    sample_mode: "bootstrap"
    pos_neg_weighted: true
  }
}
layer {
  name: "detection_accuracy_2_3x5"
  type: "DetectionAccuracy"
  bottom: "LFCN_2_3x5"
  bottom: "label_2_3x5"
  top: "accuracy_2_3x5"
  top: "boxiou_2_3x5"
  detection_accuracy_param {
    cls_num: 3
    coord_num: 4
    field_h: 120
    field_w: 80
    downsample_rate: 16
    field_whr: 2
    field_xyr: 2
  }
}
layer {
  name: "LFCN_2_5x7"
  type: "Convolution"
  bottom: "conv5_3"
  top: "LFCN_2_5x7"
  param {
    lr_mult: 1
    decay_mult: 1
  }
  param {
    lr_mult: 2
    decay_mult: 0
  }
  convolution_param {
    num_output: 7
    weight_filler {
      type: "gaussian"
      std: 0.001
    }
    bias_filler {
      type: "constant"
    }
    pad_h: 3
    pad_w: 2
    kernel_h: 7
    kernel_w: 5
  }
}
layer {
  name: "detection_loss_2_5x7"
  type: "DetectionLoss"
  bottom: "LFCN_2_5x7"
  bottom: "label_2_5x7"
  top: "loss_2_5x7"
  detection_loss_param {
    cls_num: 3
    coord_num: 4
    lambda: 1
    field_h: 168
    field_w: 112
    downsample_rate: 16
    bb_smooth: true
    field_whr: 2
    field_xyr: 2
    bg_threshold: 0.2
    bg_multiple: 2
    sample_mode: "bootstrap"
    pos_neg_weighted: true
  }
}
layer {
  name: "detection_accuracy_2_5x7"
  type: "DetectionAccuracy"
  bottom: "LFCN_2_5x7"
  bottom: "label_2_5x7"
  top: "accuracy_2_5x7"
  top: "boxiou_2_5x7"
  detection_accuracy_param {
    cls_num: 3
    coord_num: 4
    field_h: 168
    field_w: 112
    downsample_rate: 16
    field_whr: 2
    field_xyr: 2
  }
}
layer {
  name: "pool5"
  type: "Pooling"
  bottom: "conv5_3"
  top: "pool5"
  pooling_param {
    pool: MAX
    kernel_size: 2
    stride: 2
  }
}
layer {
  name: "conv6_1"
  type: "Convolution"
  bottom: "pool5"
  top: "conv6_1"
  param {
    lr_mult: 1
    decay_mult: 1
  }
  param {
    lr_mult: 2
    decay_mult: 0
  }
  convolution_param {
    num_output: 512
    pad: 1
    kernel_size: 3
    weight_filler {
      type: "gaussian"
      std: 0.01
    }
    bias_filler {
      type: "constant"
    }
  }
}
layer {
  name: "relu6_1"
  type: "ReLU"
  bottom: "conv6_1"
  top: "conv6_1"
}
layer {
  name: "LFCN_3_3x5"
  type: "Convolution"
  bottom: "conv6_1"
  top: "LFCN_3_3x5"
  param {
    lr_mult: 1
    decay_mult: 1
  }
  param {
    lr_mult: 2
    decay_mult: 0
  }
  convolution_param {
    num_output: 7
    weight_filler {
      type: "gaussian"
      std: 0.001
    }
    bias_filler {
      type: "constant"
    }
    pad_h: 2
    pad_w: 1
    kernel_h: 5
    kernel_w: 3
  }
}
layer {
  name: "detection_loss_3_3x5"
  type: "DetectionLoss"
  bottom: "LFCN_3_3x5"
  bottom: "label_3_3x5"
  top: "loss_3_3x5"
  detection_loss_param {
    cls_num: 3
    coord_num: 4
    lambda: 1
    field_h: 240
    field_w: 160
    downsample_rate: 32
    bb_smooth: true
    field_whr: 2
    field_xyr: 2
    bg_threshold: 0.2
    bg_multiple: 2
    sample_mode: "bootstrap"
    pos_neg_weighted: true
  }
}
layer {
  name: "detection_accuracy_3_3x5"
  type: "DetectionAccuracy"
  bottom: "LFCN_3_3x5"
  bottom: "label_3_3x5"
  top: "accuracy_3_3x5"
  top: "boxiou_3_3x5"
  detection_accuracy_param {
    cls_num: 3
    coord_num: 4
    field_h: 240
    field_w: 160
    downsample_rate: 32
    field_whr: 2
    field_xyr: 2
  }
}
layer {
  name: "LFCN_3_5x7"
  type: "Convolution"
  bottom: "conv6_1"
  top: "LFCN_3_5x7"
  param {
    lr_mult: 1
    decay_mult: 1
  }
  param {
    lr_mult: 2
    decay_mult: 0
  }
  convolution_param {
    num_output: 7
    weight_filler {
      type: "gaussian"
      std: 0.001
    }
    bias_filler {
      type: "constant"
    }
    pad_h: 3
    pad_w: 2
    kernel_h: 7
    kernel_w: 5
  }
}
layer {
  name: "detection_loss_3_5x7"
  type: "DetectionLoss"
  bottom: "LFCN_3_5x7"
  bottom: "label_3_5x7"
  top: "loss_3_5x7"
  detection_loss_param {
    cls_num: 3
    coord_num: 4
    lambda: 1
    field_h: 336
    field_w: 224
    downsample_rate: 32
    bb_smooth: true
    field_whr: 2
    field_xyr: 2
    bg_threshold: 0.2
    bg_multiple: 2
    sample_mode: "bootstrap"
    pos_neg_weighted: true
  }
}
layer {
  name: "detection_accuracy_3_5x7"
  type: "DetectionAccuracy"
  bottom: "LFCN_3_5x7"
  bottom: "label_3_5x7"
  top: "accuracy_3_5x7"
  top: "boxiou_3_5x7"
  detection_accuracy_param {
    cls_num: 3
    coord_num: 4
    field_h: 336
    field_w: 224
    downsample_rate: 32
    field_whr: 2
    field_xyr: 2
  }
}
layer {
  name: "pool6"
  type: "Pooling"
  bottom: "conv6_1"
  top: "pool6"
  pooling_param {
    pool: MAX
    kernel_size: 2
    stride: 2
  }
}
layer {
  name: "LFCN_4_3x5"
  type: "Convolution"
  bottom: "pool6"
  top: "LFCN_4_3x5"
  param {
    lr_mult: 1
    decay_mult: 1
  }
  param {
    lr_mult: 2
    decay_mult: 0
  }
  convolution_param {
    num_output: 7
    weight_filler {
      type: "gaussian"
      std: 0.001
    }
    bias_filler {
      type: "constant"
    }
    pad_h: 2
    pad_w: 1
    kernel_h: 5
    kernel_w: 3
  }
}
layer {
  name: "detection_loss_4_3x5"
  type: "DetectionLoss"
  bottom: "LFCN_4_3x5"
  bottom: "label_4_3x5"
  top: "loss_4_3x5"
  detection_loss_param {
    cls_num: 3
    coord_num: 4
    lambda: 1
    field_h: 480
    field_w: 320
    downsample_rate: 64
    bb_smooth: true
    field_whr: 2
    field_xyr: 2
    bg_threshold: 0.2
    bg_multiple: 2
    sample_mode: "bootstrap"
    pos_neg_weighted: true
  }
}
layer {
  name: "detection_accuracy_4_3x5"
  type: "DetectionAccuracy"
  bottom: "LFCN_4_3x5"
  bottom: "label_4_3x5"
  top: "accuracy_4_3x5"
  top: "boxiou_4_3x5"
  detection_accuracy_param {
    cls_num: 3
    coord_num: 4
    field_h: 480
    field_w: 320
    downsample_rate: 64
    field_whr: 2
    field_xyr: 2
  }
}
layer {
  name: "proposals"
  type: "BoxOutput"
  bottom: "LFCN_1_3x5"
  bottom: "LFCN_1_5x7"
  bottom: "LFCN_2_3x5"
  bottom: "LFCN_2_5x7"
  bottom: "LFCN_3_3x5"
  bottom: "LFCN_3_5x7"
  bottom: "LFCN_4_3x5"
  top: "proposals"
  propagate_down: false
  propagate_down: false
  propagate_down: false
  propagate_down: false
  propagate_down: false
  propagate_down: false
  propagate_down: false
  box_output_param {
    fg_thr: -15
    iou_thr: 0.65
    nms_type: "IOU"
    field_h: 60
    field_h: 84
    field_h: 120
    field_h: 168
    field_h: 240
    field_h: 336
    field_h: 480
    field_w: 40
    field_w: 56
    field_w: 80
    field_w: 112
    field_w: 160
    field_w: 224
    field_w: 320
    downsample_rate: 8
    downsample_rate: 8
    downsample_rate: 16
    downsample_rate: 16
    downsample_rate: 32
    downsample_rate: 32
    downsample_rate: 64
    field_whr: 2
    field_xyr: 2
    max_nms_num: 3000
  }
}
layer {
  name: "proposal_info"
  type: "ProposalTarget"
  bottom: "proposals"
  bottom: "gt_boxes"
  top: "rois"
  top: "proposal_labels"
  top: "proposal_targets"
  top: "box_inside_weights"
  top: "box_outside_weights"
  top: "match_gt_boxes"
  include {
    phase: TRAIN
  }
  propagate_down: false
  propagate_down: false
  proposal_target_param {
    cls_num: 3
    batch_size: 128
    fg_fraction: 0.25
    num_img_per_batch: 4
    fg_thr: 0.5
    bg_thr_hg: 0.45
    bg_thr_lw: 0.05
    img_width: 768
    img_height: 576
  }
  bbox_reg_param {
    bbox_mean: 0
    bbox_mean: 0
    bbox_mean: 0
    bbox_mean: 0
    bbox_std: 0.1
    bbox_std: 0.1
    bbox_std: 0.2
    bbox_std: 0.2
  }
}
layer {
  name: "conv4_3_2x"
  type: "Deconvolution"
  bottom: "conv4_3"
  top: "conv4_3_2x"
  param {
    lr_mult: 0
    decay_mult: 0
  }
  convolution_param {
    num_output: 512
    bias_term: false
    pad: 1
    kernel_size: 4
    group: 512
    stride: 2
    weight_filler {
      type: "bilinear"
    }
  }
}
layer {
  name: "roi_pool_org"
  type: "ROIPooling"
  bottom: "conv4_3_2x"
  bottom: "rois"
  top: "roi_pool_org"
  roi_pooling_param {
    pooled_h: 7
    pooled_w: 5
    spatial_scale: 0.25
    pad_ratio: 0
  }
}
layer {
  name: "roi_pool_ctx"
  type: "ROIPooling"
  bottom: "conv4_3_2x"
  bottom: "rois"
  top: "roi_pool_ctx"
  roi_pooling_param {
    pooled_h: 7
    pooled_w: 5
    spatial_scale: 0.25
    pad_ratio: 0.25
  }
}
layer {
  name: "roi_pool"
  type: "Concat"
  bottom: "roi_pool_org"
  bottom: "roi_pool_ctx"
  top: "roi_pool"
}
layer {
  name: "roi_c1"
  type: "Convolution"
  bottom: "roi_pool"
  top: "roi_c1"
  param {
    lr_mult: 1
    decay_mult: 1
  }
  param {
    lr_mult: 2
    decay_mult: 0
  }
  convolution_param {
    num_output: 512
    kernel_size: 3
    weight_filler {
      type: "gaussian"
      std: 0.01
    }
    bias_filler {
      type: "constant"
    }
  }
}
layer {
  name: "roi_c1_relu"
  type: "ReLU"
  bottom: "roi_c1"
  top: "roi_c1"
}
layer {
  name: "fc6"
  type: "InnerProduct"
  bottom: "roi_c1"
  top: "fc6"
  param {
    lr_mult: 1
  }
  param {
    lr_mult: 2
  }
  inner_product_param {
    num_output: 2048
    weight_filler {
      type: "gaussian"
      std: 0.001
    }
    bias_filler {
      type: "constant"
      value: 0
    }
  }
}
layer {
  name: "relu6"
  type: "ReLU"
  bottom: "fc6"
  top: "fc6"
}
layer {
  name: "drop6"
  type: "Dropout"
  bottom: "fc6"
  top: "fc6"
  dropout_param {
    dropout_ratio: 0.5
  }
}
layer {
  name: "cls_pred"
  type: "InnerProduct"
  bottom: "fc6"
  top: "cls_pred"
  param {
    lr_mult: 1
  }
  param {
    lr_mult: 2
  }
  inner_product_param {
    num_output: 3
    weight_filler {
      type: "gaussian"
      std: 0.01
    }
    bias_filler {
      type: "constant"
      value: 0
    }
  }
}
layer {
  name: "bbox_pred"
  type: "InnerProduct"
  bottom: "fc6"
  top: "bbox_pred"
  param {
    lr_mult: 1
  }
  param {
    lr_mult: 2
  }
  inner_product_param {
    num_output: 12
    weight_filler {
      type: "gaussian"
      std: 0.001
    }
    bias_filler {
      type: "constant"
      value: 0
    }
  }
}
layer {
  name: "loss_cls"
  type: "SoftmaxWithLoss"
  bottom: "cls_pred"
  bottom: "proposal_labels"
  top: "loss_cls"
  loss_weight: 1
  propagate_down: true
  propagate_down: false
}
layer {
  name: "cls_accuracy"
  type: "Accuracy"
  bottom: "cls_pred"
  bottom: "proposal_labels"
  top: "cls_accuracy"
}
layer {
  name: "loss_bbox"
  type: "SmoothL1Loss"
  bottom: "bbox_pred"
  bottom: "proposal_targets"
  bottom: "box_inside_weights"
  bottom: "box_outside_weights"
  top: "loss_bbox"
  loss_weight: 1
}
layer {
  name: "bbox_iou"
  type: "BboxAccuracy"
  bottom: "bbox_pred"
  bottom: "rois"
  bottom: "match_gt_boxes"
  top: "bbox_iou"
  top: "bbox_iou_pre"
  bbox_reg_param {
    bbox_mean: 0
    bbox_mean: 0
    bbox_mean: 0
    bbox_mean: 0
    bbox_std: 0.1
    bbox_std: 0.1
    bbox_std: 0.2
    bbox_std: 0.2
  }
}
I0702 01:17:39.877612  6784 layer_factory.hpp:77] Creating layer data
I0702 01:17:39.877638  6784 net.cpp:100] Creating Layer data
I0702 01:17:39.877645  6784 net.cpp:408] data -> data
…
I0702 01:17:39.897826  6784 image_gt_data_layer.cpp:241] output label size 3 : 4,6,36,48
I0702 01:17:39.897861  6784 image_gt_data_layer.cpp:241] output label size 4 : 4,6,18,24
I0702 01:17:39.897902  6784 image_gt_data_layer.cpp:241] output label size 5 : 4,6,18,24
I0702 01:17:39.897938  6784 image_gt_data_layer.cpp:241] output label size 6 : 4,6,9,12
I0702 01:17:39.897979  6784 image_gt_data_layer.cpp:256] output gt boxes size: 1,7,1,1
I0702 01:17:39.897984  6784 image_gt_data_layer.cpp:265]  --> has_mean_values_ = 1
I0702 01:17:39.935602  6784 net.cpp:150] Setting up data
I0702 01:17:39.935621  6784 net.cpp:157] Top shape: 4 4 576 768 (7077888)
I0702 01:17:39.935624  6784 net.cpp:157] Top shape: 4 6 72 96 (165888)
I0702 01:17:39.935627  6784 net.cpp:157] Top shape: 4 6 72 96 (165888)
I0702 01:17:39.935631  6784 net.cpp:157] Top shape: 4 6 36 48 (41472)
I0702 01:17:39.935633  6784 net.cpp:157] Top shape: 4 6 36 48 (41472)
I0702 01:17:39.935636  6784 net.cpp:157] Top shape: 4 6 18 24 (10368)
I0702 01:17:39.935639  6784 net.cpp:157] Top shape: 4 6 18 24 (10368)
I0702 01:17:39.935643  6784 net.cpp:157] Top shape: 4 6 9 12 (2592)
I0702 01:17:39.935647  6784 net.cpp:157] Top shape: 1 7 1 1 (7)
I0702 01:17:39.935649  6784 net.cpp:165] Memory required for data: 30063772
I0702 01:17:39.935657  6784 layer_factory.hpp:77] Creating layer label_1_3x5_data_1_split
I0702 01:17:39.935668  6784 net.cpp:100] Creating Layer label_1_3x5_data_1_split
I0702 01:17:39.935674  6784 net.cpp:434] label_1_3x5_data_1_split <- label_1_3x5
I0702 01:17:39.935684  6784 net.cpp:408] label_1_3x5_data_1_split -> label_1_3x5_data_1_split_0
I0702 01:17:39.935693  6784 net.cpp:408] label_1_3x5_data_1_split -> label_1_3x5_data_1_split_1
I0702 01:17:39.935741  6784 net.cpp:150] Setting up label_1_3x5_data_1_split
I0702 01:17:39.935748  6784 net.cpp:157] Top shape: 4 6 72 96 (165888)
I0702 01:17:39.935752  6784 net.cpp:157] Top shape: 4 6 72 96 (165888)
I0702 01:17:39.935755  6784 net.cpp:165] Memory required for data: 31390876
I0702 01:17:39.935758  6784 layer_factory.hpp:77] Creating layer label_1_5x7_data_2_split
I0702 01:17:39.935765  6784 net.cpp:100] Creating Layer label_1_5x7_data_2_split
I0702 01:17:39.935768  6784 net.cpp:434] label_1_5x7_data_2_split <- label_1_5x7
I0702 01:17:39.935773  6784 net.cpp:408] label_1_5x7_data_2_split -> label_1_5x7_data_2_split_0
I0702 01:17:39.935780  6784 net.cpp:408] label_1_5x7_data_2_split -> label_1_5x7_data_2_split_1
I0702 01:17:39.935813  6784 net.cpp:150] Setting up label_1_5x7_data_2_split
I0702 01:17:39.935818  6784 net.cpp:157] Top shape: 4 6 72 96 (165888)
I0702 01:17:39.935822  6784 net.cpp:157] Top shape: 4 6 72 96 (165888)
I0702 01:17:39.935825  6784 net.cpp:165] Memory required for data: 32717980
I0702 01:17:39.935828  6784 layer_factory.hpp:77] Creating layer label_2_3x5_data_3_split
I0702 01:17:39.935834  6784 net.cpp:100] Creating Layer label_2_3x5_data_3_split
I0702 01:17:39.935837  6784 net.cpp:434] label_2_3x5_data_3_split <- label_2_3x5
I0702 01:17:39.935842  6784 net.cpp:408] label_2_3x5_data_3_split -> label_2_3x5_data_3_split_0
I0702 01:17:39.935847  6784 net.cpp:408] label_2_3x5_data_3_split -> label_2_3x5_data_3_split_1
I0702 01:17:39.935880  6784 net.cpp:150] Setting up label_2_3x5_data_3_split
I0702 01:17:39.935886  6784 net.cpp:157] Top shape: 4 6 36 48 (41472)
I0702 01:17:39.935890  6784 net.cpp:157] Top shape: 4 6 36 48 (41472)
I0702 01:17:39.935894  6784 net.cpp:165] Memory required for data: 33049756
I0702 01:17:39.935896  6784 layer_factory.hpp:77] Creating layer label_2_5x7_data_4_split
I0702 01:17:39.935902  6784 net.cpp:100] Creating Layer label_2_5x7_data_4_split
I0702 01:17:39.935906  6784 net.cpp:434] label_2_5x7_data_4_split <- label_2_5x7
I0702 01:17:39.935911  6784 net.cpp:408] label_2_5x7_data_4_split -> label_2_5x7_data_4_split_0
I0702 01:17:39.935919  6784 net.cpp:408] label_2_5x7_data_4_split -> label_2_5x7_data_4_split_1
I0702 01:17:39.935950  6784 net.cpp:150] Setting up label_2_5x7_data_4_split
I0702 01:17:39.935956  6784 net.cpp:157] Top shape: 4 6 36 48 (41472)
I0702 01:17:39.935961  6784 net.cpp:157] Top shape: 4 6 36 48 (41472)
I0702 01:17:39.935963  6784 net.cpp:165] Memory required for data: 33381532
I0702 01:17:39.935966  6784 layer_factory.hpp:77] Creating layer label_3_3x5_data_5_split
I0702 01:17:39.935971  6784 net.cpp:100] Creating Layer label_3_3x5_data_5_split
I0702 01:17:39.935973  6784 net.cpp:434] label_3_3x5_data_5_split <- label_3_3x5
I0702 01:17:39.935979  6784 net.cpp:408] label_3_3x5_data_5_split -> label_3_3x5_data_5_split_0
I0702 01:17:39.935986  6784 net.cpp:408] label_3_3x5_data_5_split -> label_3_3x5_data_5_split_1
I0702 01:17:39.936012  6784 net.cpp:150] Setting up label_3_3x5_data_5_split
I0702 01:17:39.936017  6784 net.cpp:157] Top shape: 4 6 18 24 (10368)
I0702 01:17:39.936020  6784 net.cpp:157] Top shape: 4 6 18 24 (10368)
I0702 01:17:39.936022  6784 net.cpp:165] Memory required for data: 33464476
I0702 01:17:39.936025  6784 layer_factory.hpp:77] Creating layer label_3_5x7_data_6_split
I0702 01:17:39.936031  6784 net.cpp:100] Creating Layer label_3_5x7_data_6_split
I0702 01:17:39.936034  6784 net.cpp:434] label_3_5x7_data_6_split <- label_3_5x7
I0702 01:17:39.936039  6784 net.cpp:408] label_3_5x7_data_6_split -> label_3_5x7_data_6_split_0
I0702 01:17:39.936044  6784 net.cpp:408] label_3_5x7_data_6_split -> label_3_5x7_data_6_split_1
I0702 01:17:39.936074  6784 net.cpp:150] Setting up label_3_5x7_data_6_split
I0702 01:17:39.936079  6784 net.cpp:157] Top shape: 4 6 18 24 (10368)
I0702 01:17:39.936084  6784 net.cpp:157] Top shape: 4 6 18 24 (10368)
I0702 01:17:39.936086  6784 net.cpp:165] Memory required for data: 33547420
I0702 01:17:39.936089  6784 layer_factory.hpp:77] Creating layer label_4_3x5_data_7_split
I0702 01:17:39.936094  6784 net.cpp:100] Creating Layer label_4_3x5_data_7_split
I0702 01:17:39.936096  6784 net.cpp:434] label_4_3x5_data_7_split <- label_4_3x5
I0702 01:17:39.936102  6784 net.cpp:408] label_4_3x5_data_7_split -> label_4_3x5_data_7_split_0
I0702 01:17:39.936107  6784 net.cpp:408] label_4_3x5_data_7_split -> label_4_3x5_data_7_split_1
I0702 01:17:39.936133  6784 net.cpp:150] Setting up label_4_3x5_data_7_split
I0702 01:17:39.936138  6784 net.cpp:157] Top shape: 4 6 9 12 (2592)
I0702 01:17:39.936142  6784 net.cpp:157] Top shape: 4 6 9 12 (2592)
I0702 01:17:39.936144  6784 net.cpp:165] Memory required for data: 33568156
I0702 01:17:39.936147  6784 layer_factory.hpp:77] Creating layer conv1_1
I0702 01:17:39.936161  6784 net.cpp:100] Creating Layer conv1_1
I0702 01:17:39.936164  6784 net.cpp:434] conv1_1 <- data
I0702 01:17:39.936172  6784 net.cpp:408] conv1_1 -> conv1_1
I0702 01:17:40.472421  6784 net.cpp:150] Setting up conv1_1
I0702 01:17:40.472442  6784 net.cpp:157] Top shape: 4 64 576 768 (113246208)
I0702 01:17:40.472445  6784 net.cpp:165] Memory required for data: 486552988
I0702 01:17:40.472460  6784 layer_factory.hpp:77] Creating layer relu1_1
I0702 01:17:40.472470  6784 net.cpp:100] Creating Layer relu1_1
I0702 01:17:40.472474  6784 net.cpp:434] relu1_1 <- conv1_1
I0702 01:17:40.472478  6784 net.cpp:395] relu1_1 -> conv1_1 (in-place)
I0702 01:17:40.472770  6784 net.cpp:150] Setting up relu1_1
I0702 01:17:40.472776  6784 net.cpp:157] Top shape: 4 64 576 768 (113246208)
I0702 01:17:40.472779  6784 net.cpp:165] Memory required for data: 939537820
I0702 01:17:40.472781  6784 layer_factory.hpp:77] Creating layer conv1_2
I0702 01:17:40.472789  6784 net.cpp:100] Creating Layer conv1_2
I0702 01:17:40.472790  6784 net.cpp:434] conv1_2 <- conv1_1
I0702 01:17:40.472793  6784 net.cpp:408] conv1_2 -> conv1_2
I0702 01:17:40.475746  6784 net.cpp:150] Setting up conv1_2
I0702 01:17:40.475765  6784 net.cpp:157] Top shape: 4 64 576 768 (113246208)
I0702 01:17:40.475767  6784 net.cpp:165] Memory required for data: 1392522652
I0702 01:17:40.475778  6784 layer_factory.hpp:77] Creating layer relu1_2
I0702 01:17:40.475785  6784 net.cpp:100] Creating Layer relu1_2
I0702 01:17:40.475788  6784 net.cpp:434] relu1_2 <- conv1_2
I0702 01:17:40.475795  6784 net.cpp:395] relu1_2 -> conv1_2 (in-place)
I0702 01:17:40.476086  6784 net.cpp:150] Setting up relu1_2
I0702 01:17:40.476094  6784 net.cpp:157] Top shape: 4 64 576 768 (113246208)
I0702 01:17:40.476095  6784 net.cpp:165] Memory required for data: 1845507484
I0702 01:17:40.476097  6784 layer_factory.hpp:77] Creating layer pool1
I0702 01:17:40.476102  6784 net.cpp:100] Creating Layer pool1
I0702 01:17:40.476104  6784 net.cpp:434] pool1 <- conv1_2
I0702 01:17:40.476110  6784 net.cpp:408] pool1 -> pool1
I0702 01:17:40.476163  6784 net.cpp:150] Setting up pool1
I0702 01:17:40.476168  6784 net.cpp:157] Top shape: 4 64 288 384 (28311552)
I0702 01:17:40.476169  6784 net.cpp:165] Memory required for data: 1958753692
I0702 01:17:40.476172  6784 layer_factory.hpp:77] Creating layer conv2_1
I0702 01:17:40.476191  6784 net.cpp:100] Creating Layer conv2_1
I0702 01:17:40.476194  6784 net.cpp:434] conv2_1 <- pool1
I0702 01:17:40.476198  6784 net.cpp:408] conv2_1 -> conv2_1
I0702 01:17:40.478720  6784 net.cpp:150] Setting up conv2_1
I0702 01:17:40.478739  6784 net.cpp:157] Top shape: 4 128 288 384 (56623104)
I0702 01:17:40.478742  6784 net.cpp:165] Memory required for data: 2185246108
I0702 01:17:40.478752  6784 layer_factory.hpp:77] Creating layer relu2_1
I0702 01:17:40.478760  6784 net.cpp:100] Creating Layer relu2_1
I0702 01:17:40.478762  6784 net.cpp:434] relu2_1 <- conv2_1
I0702 01:17:40.478768  6784 net.cpp:395] relu2_1 -> conv2_1 (in-place)
I0702 01:17:40.479409  6784 net.cpp:150] Setting up relu2_1
I0702 01:17:40.479418  6784 net.cpp:157] Top shape: 4 128 288 384 (56623104)
I0702 01:17:40.479420  6784 net.cpp:165] Memory required for data: 2411738524
I0702 01:17:40.479423  6784 layer_factory.hpp:77] Creating layer conv2_2
I0702 01:17:40.479430  6784 net.cpp:100] Creating Layer conv2_2
I0702 01:17:40.479432  6784 net.cpp:434] conv2_2 <- conv2_1
I0702 01:17:40.479439  6784 net.cpp:408] conv2_2 -> conv2_2
I0702 01:17:40.481176  6784 net.cpp:150] Setting up conv2_2
I0702 01:17:40.481189  6784 net.cpp:157] Top shape: 4 128 288 384 (56623104)
I0702 01:17:40.481191  6784 net.cpp:165] Memory required for data: 2638230940
I0702 01:17:40.481197  6784 layer_factory.hpp:77] Creating layer relu2_2
I0702 01:17:40.481206  6784 net.cpp:100] Creating Layer relu2_2
I0702 01:17:40.481209  6784 net.cpp:434] relu2_2 <- conv2_2
I0702 01:17:40.481212  6784 net.cpp:395] relu2_2 -> conv2_2 (in-place)
I0702 01:17:40.481829  6784 net.cpp:150] Setting up relu2_2
I0702 01:17:40.481838  6784 net.cpp:157] Top shape: 4 128 288 384 (56623104)
I0702 01:17:40.481840  6784 net.cpp:165] Memory required for data: 2864723356
I0702 01:17:40.481842  6784 layer_factory.hpp:77] Creating layer pool2
I0702 01:17:40.481848  6784 net.cpp:100] Creating Layer pool2
I0702 01:17:40.481850  6784 net.cpp:434] pool2 <- conv2_2
I0702 01:17:40.481854  6784 net.cpp:408] pool2 -> pool2
I0702 01:17:40.481894  6784 net.cpp:150] Setting up pool2
I0702 01:17:40.481899  6784 net.cpp:157] Top shape: 4 128 144 192 (14155776)
I0702 01:17:40.481900  6784 net.cpp:165] Memory required for data: 2921346460
I0702 01:17:40.481902  6784 layer_factory.hpp:77] Creating layer conv3_1
I0702 01:17:40.481911  6784 net.cpp:100] Creating Layer conv3_1
I0702 01:17:40.481914  6784 net.cpp:434] conv3_1 <- pool2
I0702 01:17:40.481920  6784 net.cpp:408] conv3_1 -> conv3_1
I0702 01:17:40.484601  6784 net.cpp:150] Setting up conv3_1
I0702 01:17:40.484617  6784 net.cpp:157] Top shape: 4 256 144 192 (28311552)
I0702 01:17:40.484621  6784 net.cpp:165] Memory required for data: 3034592668
I0702 01:17:40.484632  6784 layer_factory.hpp:77] Creating layer relu3_1
I0702 01:17:40.484639  6784 net.cpp:100] Creating Layer relu3_1
I0702 01:17:40.484642  6784 net.cpp:434] relu3_1 <- conv3_1
I0702 01:17:40.484647  6784 net.cpp:395] relu3_1 -> conv3_1 (in-place)
I0702 01:17:40.484905  6784 net.cpp:150] Setting up relu3_1
I0702 01:17:40.484912  6784 net.cpp:157] Top shape: 4 256 144 192 (28311552)
I0702 01:17:40.484915  6784 net.cpp:165] Memory required for data: 3147838876
I0702 01:17:40.484916  6784 layer_factory.hpp:77] Creating layer conv3_2
I0702 01:17:40.484921  6784 net.cpp:100] Creating Layer conv3_2
I0702 01:17:40.484925  6784 net.cpp:434] conv3_2 <- conv3_1
I0702 01:17:40.484928  6784 net.cpp:408] conv3_2 -> conv3_2
I0702 01:17:40.488220  6784 net.cpp:150] Setting up conv3_2
I0702 01:17:40.488240  6784 net.cpp:157] Top shape: 4 256 144 192 (28311552)
I0702 01:17:40.488242  6784 net.cpp:165] Memory required for data: 3261085084
I0702 01:17:40.488250  6784 layer_factory.hpp:77] Creating layer relu3_2
I0702 01:17:40.488257  6784 net.cpp:100] Creating Layer relu3_2
I0702 01:17:40.488260  6784 net.cpp:434] relu3_2 <- conv3_2
I0702 01:17:40.488265  6784 net.cpp:395] relu3_2 -> conv3_2 (in-place)
I0702 01:17:40.488555  6784 net.cpp:150] Setting up relu3_2
I0702 01:17:40.488564  6784 net.cpp:157] Top shape: 4 256 144 192 (28311552)
I0702 01:17:40.488566  6784 net.cpp:165] Memory required for data: 3374331292
I0702 01:17:40.488569  6784 layer_factory.hpp:77] Creating layer conv3_3
I0702 01:17:40.488579  6784 net.cpp:100] Creating Layer conv3_3
I0702 01:17:40.488582  6784 net.cpp:434] conv3_3 <- conv3_2
I0702 01:17:40.488590  6784 net.cpp:408] conv3_3 -> conv3_3
I0702 01:17:40.491586  6784 net.cpp:150] Setting up conv3_3
I0702 01:17:40.491606  6784 net.cpp:157] Top shape: 4 256 144 192 (28311552)
I0702 01:17:40.491608  6784 net.cpp:165] Memory required for data: 3487577500
I0702 01:17:40.491616  6784 layer_factory.hpp:77] Creating layer relu3_3
I0702 01:17:40.491621  6784 net.cpp:100] Creating Layer relu3_3
I0702 01:17:40.491626  6784 net.cpp:434] relu3_3 <- conv3_3
I0702 01:17:40.491631  6784 net.cpp:395] relu3_3 -> conv3_3 (in-place)
I0702 01:17:40.492271  6784 net.cpp:150] Setting up relu3_3
I0702 01:17:40.492280  6784 net.cpp:157] Top shape: 4 256 144 192 (28311552)
I0702 01:17:40.492282  6784 net.cpp:165] Memory required for data: 3600823708
I0702 01:17:40.492285  6784 layer_factory.hpp:77] Creating layer pool3
I0702 01:17:40.492290  6784 net.cpp:100] Creating Layer pool3
I0702 01:17:40.492292  6784 net.cpp:434] pool3 <- conv3_3
I0702 01:17:40.492296  6784 net.cpp:408] pool3 -> pool3
I0702 01:17:40.492347  6784 net.cpp:150] Setting up pool3
I0702 01:17:40.492357  6784 net.cpp:157] Top shape: 4 256 72 96 (7077888)
I0702 01:17:40.492359  6784 net.cpp:165] Memory required for data: 3629135260
I0702 01:17:40.492362  6784 layer_factory.hpp:77] Creating layer conv4_1
I0702 01:17:40.492372  6784 net.cpp:100] Creating Layer conv4_1
I0702 01:17:40.492374  6784 net.cpp:434] conv4_1 <- pool3
I0702 01:17:40.492379  6784 net.cpp:408] conv4_1 -> conv4_1
I0702 01:17:40.497098  6784 net.cpp:150] Setting up conv4_1
I0702 01:17:40.497120  6784 net.cpp:157] Top shape: 4 512 72 96 (14155776)
I0702 01:17:40.497123  6784 net.cpp:165] Memory required for data: 3685758364
I0702 01:17:40.497129  6784 layer_factory.hpp:77] Creating layer relu4_1
I0702 01:17:40.497135  6784 net.cpp:100] Creating Layer relu4_1
I0702 01:17:40.497138  6784 net.cpp:434] relu4_1 <- conv4_1
I0702 01:17:40.497143  6784 net.cpp:395] relu4_1 -> conv4_1 (in-place)
I0702 01:17:40.497447  6784 net.cpp:150] Setting up relu4_1
I0702 01:17:40.497454  6784 net.cpp:157] Top shape: 4 512 72 96 (14155776)
I0702 01:17:40.497457  6784 net.cpp:165] Memory required for data: 3742381468
I0702 01:17:40.497458  6784 layer_factory.hpp:77] Creating layer conv4_2
I0702 01:17:40.497465  6784 net.cpp:100] Creating Layer conv4_2
I0702 01:17:40.497467  6784 net.cpp:434] conv4_2 <- conv4_1
I0702 01:17:40.497472  6784 net.cpp:408] conv4_2 -> conv4_2
I0702 01:17:40.503218  6784 net.cpp:150] Setting up conv4_2
I0702 01:17:40.503238  6784 net.cpp:157] Top shape: 4 512 72 96 (14155776)
I0702 01:17:40.503240  6784 net.cpp:165] Memory required for data: 3799004572
I0702 01:17:40.503250  6784 layer_factory.hpp:77] Creating layer relu4_2
I0702 01:17:40.503257  6784 net.cpp:100] Creating Layer relu4_2
I0702 01:17:40.503260  6784 net.cpp:434] relu4_2 <- conv4_2
I0702 01:17:40.503265  6784 net.cpp:395] relu4_2 -> conv4_2 (in-place)
I0702 01:17:40.503507  6784 net.cpp:150] Setting up relu4_2
I0702 01:17:40.503515  6784 net.cpp:157] Top shape: 4 512 72 96 (14155776)
I0702 01:17:40.503516  6784 net.cpp:165] Memory required for data: 3855627676
I0702 01:17:40.503518  6784 layer_factory.hpp:77] Creating layer conv4_3
I0702 01:17:40.503525  6784 net.cpp:100] Creating Layer conv4_3
I0702 01:17:40.503527  6784 net.cpp:434] conv4_3 <- conv4_2
I0702 01:17:40.503532  6784 net.cpp:408] conv4_3 -> conv4_3
I0702 01:17:40.508971  6784 net.cpp:150] Setting up conv4_3
I0702 01:17:40.508990  6784 net.cpp:157] Top shape: 4 512 72 96 (14155776)
I0702 01:17:40.508992  6784 net.cpp:165] Memory required for data: 3912250780
I0702 01:17:40.508998  6784 layer_factory.hpp:77] Creating layer relu4_3
I0702 01:17:40.509006  6784 net.cpp:100] Creating Layer relu4_3
I0702 01:17:40.509008  6784 net.cpp:434] relu4_3 <- conv4_3
I0702 01:17:40.509012  6784 net.cpp:395] relu4_3 -> conv4_3 (in-place)
I0702 01:17:40.510215  6784 net.cpp:150] Setting up relu4_3
I0702 01:17:40.510226  6784 net.cpp:157] Top shape: 4 512 72 96 (14155776)
I0702 01:17:40.510229  6784 net.cpp:165] Memory required for data: 3968873884
I0702 01:17:40.510232  6784 layer_factory.hpp:77] Creating layer conv4_3_relu4_3_0_split
I0702 01:17:40.510238  6784 net.cpp:100] Creating Layer conv4_3_relu4_3_0_split
I0702 01:17:40.510241  6784 net.cpp:434] conv4_3_relu4_3_0_split <- conv4_3
I0702 01:17:40.510246  6784 net.cpp:408] conv4_3_relu4_3_0_split -> conv4_3_relu4_3_0_split_0
I0702 01:17:40.510251  6784 net.cpp:408] conv4_3_relu4_3_0_split -> conv4_3_relu4_3_0_split_1
I0702 01:17:40.510255  6784 net.cpp:408] conv4_3_relu4_3_0_split -> conv4_3_relu4_3_0_split_2
I0702 01:17:40.510311  6784 net.cpp:150] Setting up conv4_3_relu4_3_0_split
I0702 01:17:40.510316  6784 net.cpp:157] Top shape: 4 512 72 96 (14155776)
I0702 01:17:40.510319  6784 net.cpp:157] Top shape: 4 512 72 96 (14155776)
I0702 01:17:40.510323  6784 net.cpp:157] Top shape: 4 512 72 96 (14155776)
I0702 01:17:40.510325  6784 net.cpp:165] Memory required for data: 4138743196
I0702 01:17:40.510329  6784 layer_factory.hpp:77] Creating layer loss1_conv1
I0702 01:17:40.510344  6784 net.cpp:100] Creating Layer loss1_conv1
I0702 01:17:40.510346  6784 net.cpp:434] loss1_conv1 <- conv4_3_relu4_3_0_split_0
I0702 01:17:40.510351  6784 net.cpp:408] loss1_conv1 -> loss1_conv1
I0702 01:17:40.544198  6784 net.cpp:150] Setting up loss1_conv1
I0702 01:17:40.544217  6784 net.cpp:157] Top shape: 4 512 72 96 (14155776)
I0702 01:17:40.544219  6784 net.cpp:165] Memory required for data: 4195366300
I0702 01:17:40.544226  6784 layer_factory.hpp:77] Creating layer loss_relu1
I0702 01:17:40.544234  6784 net.cpp:100] Creating Layer loss_relu1
I0702 01:17:40.544237  6784 net.cpp:434] loss_relu1 <- loss1_conv1
I0702 01:17:40.544241  6784 net.cpp:395] loss_relu1 -> loss1_conv1 (in-place)
I0702 01:17:40.544482  6784 net.cpp:150] Setting up loss_relu1
I0702 01:17:40.544488  6784 net.cpp:157] Top shape: 4 512 72 96 (14155776)
I0702 01:17:40.544490  6784 net.cpp:165] Memory required for data: 4251989404
I0702 01:17:40.544492  6784 layer_factory.hpp:77] Creating layer loss1_conv1_loss_relu1_0_split
I0702 01:17:40.544497  6784 net.cpp:100] Creating Layer loss1_conv1_loss_relu1_0_split
I0702 01:17:40.544500  6784 net.cpp:434] loss1_conv1_loss_relu1_0_split <- loss1_conv1
I0702 01:17:40.544504  6784 net.cpp:408] loss1_conv1_loss_relu1_0_split -> loss1_conv1_loss_relu1_0_split_0
I0702 01:17:40.544509  6784 net.cpp:408] loss1_conv1_loss_relu1_0_split -> loss1_conv1_loss_relu1_0_split_1
I0702 01:17:40.544546  6784 net.cpp:150] Setting up loss1_conv1_loss_relu1_0_split
I0702 01:17:40.544551  6784 net.cpp:157] Top shape: 4 512 72 96 (14155776)
I0702 01:17:40.544554  6784 net.cpp:157] Top shape: 4 512 72 96 (14155776)
I0702 01:17:40.544556  6784 net.cpp:165] Memory required for data: 4365235612
I0702 01:17:40.544559  6784 layer_factory.hpp:77] Creating layer LFCN_1_3x5
I0702 01:17:40.544569  6784 net.cpp:100] Creating Layer LFCN_1_3x5
I0702 01:17:40.544574  6784 net.cpp:434] LFCN_1_3x5 <- loss1_conv1_loss_relu1_0_split_0
I0702 01:17:40.544579  6784 net.cpp:408] LFCN_1_3x5 -> LFCN_1_3x5
I0702 01:17:40.546705  6784 net.cpp:150] Setting up LFCN_1_3x5
I0702 01:17:40.546716  6784 net.cpp:157] Top shape: 4 7 72 96 (193536)
I0702 01:17:40.546720  6784 net.cpp:165] Memory required for data: 4366009756
I0702 01:17:40.546725  6784 layer_factory.hpp:77] Creating layer LFCN_1_3x5_LFCN_1_3x5_0_split
I0702 01:17:40.546730  6784 net.cpp:100] Creating Layer LFCN_1_3x5_LFCN_1_3x5_0_split
I0702 01:17:40.546731  6784 net.cpp:434] LFCN_1_3x5_LFCN_1_3x5_0_split <- LFCN_1_3x5
I0702 01:17:40.546736  6784 net.cpp:408] LFCN_1_3x5_LFCN_1_3x5_0_split -> LFCN_1_3x5_LFCN_1_3x5_0_split_0
I0702 01:17:40.546741  6784 net.cpp:408] LFCN_1_3x5_LFCN_1_3x5_0_split -> LFCN_1_3x5_LFCN_1_3x5_0_split_1
I0702 01:17:40.546746  6784 net.cpp:408] LFCN_1_3x5_LFCN_1_3x5_0_split -> LFCN_1_3x5_LFCN_1_3x5_0_split_2
I0702 01:17:40.546794  6784 net.cpp:150] Setting up LFCN_1_3x5_LFCN_1_3x5_0_split
I0702 01:17:40.546799  6784 net.cpp:157] Top shape: 4 7 72 96 (193536)
I0702 01:17:40.546802  6784 net.cpp:157] Top shape: 4 7 72 96 (193536)
I0702 01:17:40.546805  6784 net.cpp:157] Top shape: 4 7 72 96 (193536)
I0702 01:17:40.546808  6784 net.cpp:165] Memory required for data: 4368332188
I0702 01:17:40.546811  6784 layer_factory.hpp:77] Creating layer detection_loss_1_3x5
I0702 01:17:40.546818  6784 net.cpp:100] Creating Layer detection_loss_1_3x5
I0702 01:17:40.546823  6784 net.cpp:434] detection_loss_1_3x5 <- LFCN_1_3x5_LFCN_1_3x5_0_split_0
I0702 01:17:40.546825  6784 net.cpp:434] detection_loss_1_3x5 <- label_1_3x5_data_1_split_0
I0702 01:17:40.546830  6784 net.cpp:408] detection_loss_1_3x5 -> loss_1_3x5
I0702 01:17:40.546844  6784 layer_factory.hpp:77] Creating layer detection_loss_1_3x5
I0702 01:17:40.547261  6784 net.cpp:150] Setting up detection_loss_1_3x5
I0702 01:17:40.547267  6784 net.cpp:157] Top shape: 1 1 1 2 (2)
I0702 01:17:40.547269  6784 net.cpp:160]     with loss weight 0.5
I0702 01:17:40.547282  6784 net.cpp:165] Memory required for data: 4368332196
I0702 01:17:40.547284  6784 layer_factory.hpp:77] Creating layer detection_accuracy_1_3x5
I0702 01:17:40.547289  6784 net.cpp:100] Creating Layer detection_accuracy_1_3x5
I0702 01:17:40.547291  6784 net.cpp:434] detection_accuracy_1_3x5 <- LFCN_1_3x5_LFCN_1_3x5_0_split_1
I0702 01:17:40.547294  6784 net.cpp:434] detection_accuracy_1_3x5 <- label_1_3x5_data_1_split_1
I0702 01:17:40.547300  6784 net.cpp:408] detection_accuracy_1_3x5 -> accuracy_1_3x5
I0702 01:17:40.547309  6784 net.cpp:408] detection_accuracy_1_3x5 -> boxiou_1_3x5
I0702 01:17:40.547346  6784 net.cpp:150] Setting up detection_accuracy_1_3x5
I0702 01:17:40.547350  6784 net.cpp:157] Top shape: 1 1 1 2 (2)
I0702 01:17:40.547353  6784 net.cpp:157] Top shape: 1 1 1 1 (1)
I0702 01:17:40.547355  6784 net.cpp:165] Memory required for data: 4368332208
I0702 01:17:40.547358  6784 layer_factory.hpp:77] Creating layer LFCN_1_5x7
I0702 01:17:40.547366  6784 net.cpp:100] Creating Layer LFCN_1_5x7
I0702 01:17:40.547370  6784 net.cpp:434] LFCN_1_5x7 <- loss1_conv1_loss_relu1_0_split_1
I0702 01:17:40.547377  6784 net.cpp:408] LFCN_1_5x7 -> LFCN_1_5x7
I0702 01:17:40.550158  6784 net.cpp:150] Setting up LFCN_1_5x7
I0702 01:17:40.550170  6784 net.cpp:157] Top shape: 4 7 72 96 (193536)
I0702 01:17:40.550173  6784 net.cpp:165] Memory required for data: 4369106352
I0702 01:17:40.550179  6784 layer_factory.hpp:77] Creating layer LFCN_1_5x7_LFCN_1_5x7_0_split
I0702 01:17:40.550185  6784 net.cpp:100] Creating Layer LFCN_1_5x7_LFCN_1_5x7_0_split
I0702 01:17:40.550189  6784 net.cpp:434] LFCN_1_5x7_LFCN_1_5x7_0_split <- LFCN_1_5x7
I0702 01:17:40.550192  6784 net.cpp:408] LFCN_1_5x7_LFCN_1_5x7_0_split -> LFCN_1_5x7_LFCN_1_5x7_0_split_0
I0702 01:17:40.550199  6784 net.cpp:408] LFCN_1_5x7_LFCN_1_5x7_0_split -> LFCN_1_5x7_LFCN_1_5x7_0_split_1
I0702 01:17:40.550202  6784 net.cpp:408] LFCN_1_5x7_LFCN_1_5x7_0_split -> LFCN_1_5x7_LFCN_1_5x7_0_split_2
I0702 01:17:40.550251  6784 net.cpp:150] Setting up LFCN_1_5x7_LFCN_1_5x7_0_split
I0702 01:17:40.550256  6784 net.cpp:157] Top shape: 4 7 72 96 (193536)
I0702 01:17:40.550258  6784 net.cpp:157] Top shape: 4 7 72 96 (193536)
I0702 01:17:40.550261  6784 net.cpp:157] Top shape: 4 7 72 96 (193536)
I0702 01:17:40.550263  6784 net.cpp:165] Memory required for data: 4371428784
I0702 01:17:40.550266  6784 layer_factory.hpp:77] Creating layer detection_loss_1_5x7
I0702 01:17:40.550276  6784 net.cpp:100] Creating Layer detection_loss_1_5x7
I0702 01:17:40.550278  6784 net.cpp:434] detection_loss_1_5x7 <- LFCN_1_5x7_LFCN_1_5x7_0_split_0
I0702 01:17:40.550282  6784 net.cpp:434] detection_loss_1_5x7 <- label_1_5x7_data_2_split_0
I0702 01:17:40.550288  6784 net.cpp:408] detection_loss_1_5x7 -> loss_1_5x7
I0702 01:17:40.550297  6784 layer_factory.hpp:77] Creating layer detection_loss_1_5x7
I0702 01:17:40.551146  6784 net.cpp:150] Setting up detection_loss_1_5x7
I0702 01:17:40.551156  6784 net.cpp:157] Top shape: 1 1 1 2 (2)
I0702 01:17:40.551157  6784 net.cpp:160]     with loss weight 0.9
I0702 01:17:40.551164  6784 net.cpp:165] Memory required for data: 4371428792
I0702 01:17:40.551167  6784 layer_factory.hpp:77] Creating layer detection_accuracy_1_5x7
I0702 01:17:40.551172  6784 net.cpp:100] Creating Layer detection_accuracy_1_5x7
I0702 01:17:40.551175  6784 net.cpp:434] detection_accuracy_1_5x7 <- LFCN_1_5x7_LFCN_1_5x7_0_split_1
I0702 01:17:40.551179  6784 net.cpp:434] detection_accuracy_1_5x7 <- label_1_5x7_data_2_split_1
I0702 01:17:40.551183  6784 net.cpp:408] detection_accuracy_1_5x7 -> accuracy_1_5x7
I0702 01:17:40.551188  6784 net.cpp:408] detection_accuracy_1_5x7 -> boxiou_1_5x7
I0702 01:17:40.551236  6784 net.cpp:150] Setting up detection_accuracy_1_5x7
I0702 01:17:40.551244  6784 net.cpp:157] Top shape: 1 1 1 2 (2)
I0702 01:17:40.551246  6784 net.cpp:157] Top shape: 1 1 1 1 (1)
I0702 01:17:40.551249  6784 net.cpp:165] Memory required for data: 4371428804
I0702 01:17:40.551252  6784 layer_factory.hpp:77] Creating layer pool4
I0702 01:17:40.551259  6784 net.cpp:100] Creating Layer pool4
I0702 01:17:40.551262  6784 net.cpp:434] pool4 <- conv4_3_relu4_3_0_split_1
I0702 01:17:40.551270  6784 net.cpp:408] pool4 -> pool4
I0702 01:17:40.551313  6784 net.cpp:150] Setting up pool4
I0702 01:17:40.551319  6784 net.cpp:157] Top shape: 4 512 36 48 (3538944)
I0702 01:17:40.551321  6784 net.cpp:165] Memory required for data: 4385584580
I0702 01:17:40.551323  6784 layer_factory.hpp:77] Creating layer conv5_1
I0702 01:17:40.551331  6784 net.cpp:100] Creating Layer conv5_1
I0702 01:17:40.551334  6784 net.cpp:434] conv5_1 <- pool4
I0702 01:17:40.551338  6784 net.cpp:408] conv5_1 -> conv5_1
I0702 01:17:40.557214  6784 net.cpp:150] Setting up conv5_1
I0702 01:17:40.557241  6784 net.cpp:157] Top shape: 4 512 36 48 (3538944)
I0702 01:17:40.557243  6784 net.cpp:165] Memory required for data: 4399740356
I0702 01:17:40.557250  6784 layer_factory.hpp:77] Creating layer relu5_1
I0702 01:17:40.557257  6784 net.cpp:100] Creating Layer relu5_1
I0702 01:17:40.557261  6784 net.cpp:434] relu5_1 <- conv5_1
I0702 01:17:40.557267  6784 net.cpp:395] relu5_1 -> conv5_1 (in-place)
I0702 01:17:40.557953  6784 net.cpp:150] Setting up relu5_1
I0702 01:17:40.557963  6784 net.cpp:157] Top shape: 4 512 36 48 (3538944)
I0702 01:17:40.557965  6784 net.cpp:165] Memory required for data: 4413896132
I0702 01:17:40.557968  6784 layer_factory.hpp:77] Creating layer conv5_2
I0702 01:17:40.557976  6784 net.cpp:100] Creating Layer conv5_2
I0702 01:17:40.557978  6784 net.cpp:434] conv5_2 <- conv5_1
I0702 01:17:40.557984  6784 net.cpp:408] conv5_2 -> conv5_2
I0702 01:17:40.563478  6784 net.cpp:150] Setting up conv5_2
I0702 01:17:40.563496  6784 net.cpp:157] Top shape: 4 512 36 48 (3538944)
I0702 01:17:40.563499  6784 net.cpp:165] Memory required for data: 4428051908
I0702 01:17:40.563505  6784 layer_factory.hpp:77] Creating layer relu5_2
I0702 01:17:40.563513  6784 net.cpp:100] Creating Layer relu5_2
I0702 01:17:40.563515  6784 net.cpp:434] relu5_2 <- conv5_2
I0702 01:17:40.563520  6784 net.cpp:395] relu5_2 -> conv5_2 (in-place)
I0702 01:17:40.563771  6784 net.cpp:150] Setting up relu5_2
I0702 01:17:40.563779  6784 net.cpp:157] Top shape: 4 512 36 48 (3538944)
I0702 01:17:40.563781  6784 net.cpp:165] Memory required for data: 4442207684
I0702 01:17:40.563783  6784 layer_factory.hpp:77] Creating layer conv5_3
I0702 01:17:40.563789  6784 net.cpp:100] Creating Layer conv5_3
I0702 01:17:40.563791  6784 net.cpp:434] conv5_3 <- conv5_2
I0702 01:17:40.563796  6784 net.cpp:408] conv5_3 -> conv5_3
I0702 01:17:40.569856  6784 net.cpp:150] Setting up conv5_3
I0702 01:17:40.569876  6784 net.cpp:157] Top shape: 4 512 36 48 (3538944)
I0702 01:17:40.569880  6784 net.cpp:165] Memory required for data: 4456363460
I0702 01:17:40.569885  6784 layer_factory.hpp:77] Creating layer relu5_3
I0702 01:17:40.569892  6784 net.cpp:100] Creating Layer relu5_3
I0702 01:17:40.569895  6784 net.cpp:434] relu5_3 <- conv5_3
I0702 01:17:40.569900  6784 net.cpp:395] relu5_3 -> conv5_3 (in-place)
I0702 01:17:40.570156  6784 net.cpp:150] Setting up relu5_3
I0702 01:17:40.570163  6784 net.cpp:157] Top shape: 4 512 36 48 (3538944)
I0702 01:17:40.570164  6784 net.cpp:165] Memory required for data: 4470519236
I0702 01:17:40.570168  6784 layer_factory.hpp:77] Creating layer conv5_3_relu5_3_0_split
I0702 01:17:40.570171  6784 net.cpp:100] Creating Layer conv5_3_relu5_3_0_split
I0702 01:17:40.570173  6784 net.cpp:434] conv5_3_relu5_3_0_split <- conv5_3
I0702 01:17:40.570178  6784 net.cpp:408] conv5_3_relu5_3_0_split -> conv5_3_relu5_3_0_split_0
I0702 01:17:40.570183  6784 net.cpp:408] conv5_3_relu5_3_0_split -> conv5_3_relu5_3_0_split_1
I0702 01:17:40.570186  6784 net.cpp:408] conv5_3_relu5_3_0_split -> conv5_3_relu5_3_0_split_2
I0702 01:17:40.570240  6784 net.cpp:150] Setting up conv5_3_relu5_3_0_split
I0702 01:17:40.570245  6784 net.cpp:157] Top shape: 4 512 36 48 (3538944)
I0702 01:17:40.570246  6784 net.cpp:157] Top shape: 4 512 36 48 (3538944)
I0702 01:17:40.570250  6784 net.cpp:157] Top shape: 4 512 36 48 (3538944)
I0702 01:17:40.570252  6784 net.cpp:165] Memory required for data: 4512986564
I0702 01:17:40.570255  6784 layer_factory.hpp:77] Creating layer LFCN_2_3x5
I0702 01:17:40.570264  6784 net.cpp:100] Creating Layer LFCN_2_3x5
I0702 01:17:40.570267  6784 net.cpp:434] LFCN_2_3x5 <- conv5_3_relu5_3_0_split_0
I0702 01:17:40.570273  6784 net.cpp:408] LFCN_2_3x5 -> LFCN_2_3x5
I0702 01:17:40.572034  6784 net.cpp:150] Setting up LFCN_2_3x5
I0702 01:17:40.572044  6784 net.cpp:157] Top shape: 4 7 36 48 (48384)
I0702 01:17:40.572046  6784 net.cpp:165] Memory required for data: 4513180100
I0702 01:17:40.572057  6784 layer_factory.hpp:77] Creating layer LFCN_2_3x5_LFCN_2_3x5_0_split
I0702 01:17:40.572062  6784 net.cpp:100] Creating Layer LFCN_2_3x5_LFCN_2_3x5_0_split
I0702 01:17:40.572065  6784 net.cpp:434] LFCN_2_3x5_LFCN_2_3x5_0_split <- LFCN_2_3x5
I0702 01:17:40.572070  6784 net.cpp:408] LFCN_2_3x5_LFCN_2_3x5_0_split -> LFCN_2_3x5_LFCN_2_3x5_0_split_0
I0702 01:17:40.572088  6784 net.cpp:408] LFCN_2_3x5_LFCN_2_3x5_0_split -> LFCN_2_3x5_LFCN_2_3x5_0_split_1
I0702 01:17:40.572093  6784 net.cpp:408] LFCN_2_3x5_LFCN_2_3x5_0_split -> LFCN_2_3x5_LFCN_2_3x5_0_split_2
I0702 01:17:40.572142  6784 net.cpp:150] Setting up LFCN_2_3x5_LFCN_2_3x5_0_split
I0702 01:17:40.572147  6784 net.cpp:157] Top shape: 4 7 36 48 (48384)
I0702 01:17:40.572151  6784 net.cpp:157] Top shape: 4 7 36 48 (48384)
I0702 01:17:40.572154  6784 net.cpp:157] Top shape: 4 7 36 48 (48384)
I0702 01:17:40.572157  6784 net.cpp:165] Memory required for data: 4513760708
I0702 01:17:40.572160  6784 layer_factory.hpp:77] Creating layer detection_loss_2_3x5
I0702 01:17:40.572167  6784 net.cpp:100] Creating Layer detection_loss_2_3x5
I0702 01:17:40.572171  6784 net.cpp:434] detection_loss_2_3x5 <- LFCN_2_3x5_LFCN_2_3x5_0_split_0
I0702 01:17:40.572176  6784 net.cpp:434] detection_loss_2_3x5 <- label_2_3x5_data_3_split_0
I0702 01:17:40.572182  6784 net.cpp:408] detection_loss_2_3x5 -> loss_2_3x5
I0702 01:17:40.572190  6784 layer_factory.hpp:77] Creating layer detection_loss_2_3x5
I0702 01:17:40.573006  6784 net.cpp:150] Setting up detection_loss_2_3x5
I0702 01:17:40.573014  6784 net.cpp:157] Top shape: 1 1 1 2 (2)
I0702 01:17:40.573016  6784 net.cpp:160]     with loss weight 1
I0702 01:17:40.573024  6784 net.cpp:165] Memory required for data: 4513760716
I0702 01:17:40.573025  6784 layer_factory.hpp:77] Creating layer detection_accuracy_2_3x5
I0702 01:17:40.573030  6784 net.cpp:100] Creating Layer detection_accuracy_2_3x5
I0702 01:17:40.573032  6784 net.cpp:434] detection_accuracy_2_3x5 <- LFCN_2_3x5_LFCN_2_3x5_0_split_1
I0702 01:17:40.573036  6784 net.cpp:434] detection_accuracy_2_3x5 <- label_2_3x5_data_3_split_1
I0702 01:17:40.573042  6784 net.cpp:408] detection_accuracy_2_3x5 -> accuracy_2_3x5
I0702 01:17:40.573047  6784 net.cpp:408] detection_accuracy_2_3x5 -> boxiou_2_3x5
I0702 01:17:40.573086  6784 net.cpp:150] Setting up detection_accuracy_2_3x5
I0702 01:17:40.573091  6784 net.cpp:157] Top shape: 1 1 1 2 (2)
I0702 01:17:40.573093  6784 net.cpp:157] Top shape: 1 1 1 1 (1)
I0702 01:17:40.573096  6784 net.cpp:165] Memory required for data: 4513760728
I0702 01:17:40.573098  6784 layer_factory.hpp:77] Creating layer LFCN_2_5x7
I0702 01:17:40.573108  6784 net.cpp:100] Creating Layer LFCN_2_5x7
I0702 01:17:40.573112  6784 net.cpp:434] LFCN_2_5x7 <- conv5_3_relu5_3_0_split_1
I0702 01:17:40.573117  6784 net.cpp:408] LFCN_2_5x7 -> LFCN_2_5x7
I0702 01:17:40.576308  6784 net.cpp:150] Setting up LFCN_2_5x7
I0702 01:17:40.576325  6784 net.cpp:157] Top shape: 4 7 36 48 (48384)
I0702 01:17:40.576328  6784 net.cpp:165] Memory required for data: 4513954264
I0702 01:17:40.576334  6784 layer_factory.hpp:77] Creating layer LFCN_2_5x7_LFCN_2_5x7_0_split
I0702 01:17:40.576342  6784 net.cpp:100] Creating Layer LFCN_2_5x7_LFCN_2_5x7_0_split
I0702 01:17:40.576345  6784 net.cpp:434] LFCN_2_5x7_LFCN_2_5x7_0_split <- LFCN_2_5x7
I0702 01:17:40.576350  6784 net.cpp:408] LFCN_2_5x7_LFCN_2_5x7_0_split -> LFCN_2_5x7_LFCN_2_5x7_0_split_0
I0702 01:17:40.576356  6784 net.cpp:408] LFCN_2_5x7_LFCN_2_5x7_0_split -> LFCN_2_5x7_LFCN_2_5x7_0_split_1
I0702 01:17:40.576362  6784 net.cpp:408] LFCN_2_5x7_LFCN_2_5x7_0_split -> LFCN_2_5x7_LFCN_2_5x7_0_split_2
I0702 01:17:40.576416  6784 net.cpp:150] Setting up LFCN_2_5x7_LFCN_2_5x7_0_split
I0702 01:17:40.576421  6784 net.cpp:157] Top shape: 4 7 36 48 (48384)
I0702 01:17:40.576423  6784 net.cpp:157] Top shape: 4 7 36 48 (48384)
I0702 01:17:40.576427  6784 net.cpp:157] Top shape: 4 7 36 48 (48384)
I0702 01:17:40.576429  6784 net.cpp:165] Memory required for data: 4514534872
I0702 01:17:40.576432  6784 layer_factory.hpp:77] Creating layer detection_loss_2_5x7
I0702 01:17:40.576441  6784 net.cpp:100] Creating Layer detection_loss_2_5x7
I0702 01:17:40.576444  6784 net.cpp:434] detection_loss_2_5x7 <- LFCN_2_5x7_LFCN_2_5x7_0_split_0
I0702 01:17:40.576448  6784 net.cpp:434] detection_loss_2_5x7 <- label_2_5x7_data_4_split_0
I0702 01:17:40.576455  6784 net.cpp:408] detection_loss_2_5x7 -> loss_2_5x7
I0702 01:17:40.576463  6784 layer_factory.hpp:77] Creating layer detection_loss_2_5x7
I0702 01:17:40.576864  6784 net.cpp:150] Setting up detection_loss_2_5x7
I0702 01:17:40.576870  6784 net.cpp:157] Top shape: 1 1 1 2 (2)
I0702 01:17:40.576872  6784 net.cpp:160]     with loss weight 1
I0702 01:17:40.576879  6784 net.cpp:165] Memory required for data: 4514534880
I0702 01:17:40.576881  6784 layer_factory.hpp:77] Creating layer detection_accuracy_2_5x7
I0702 01:17:40.576886  6784 net.cpp:100] Creating Layer detection_accuracy_2_5x7
I0702 01:17:40.576889  6784 net.cpp:434] detection_accuracy_2_5x7 <- LFCN_2_5x7_LFCN_2_5x7_0_split_1
I0702 01:17:40.576892  6784 net.cpp:434] detection_accuracy_2_5x7 <- label_2_5x7_data_4_split_1
I0702 01:17:40.576895  6784 net.cpp:408] detection_accuracy_2_5x7 -> accuracy_2_5x7
I0702 01:17:40.576901  6784 net.cpp:408] detection_accuracy_2_5x7 -> boxiou_2_5x7
I0702 01:17:40.576948  6784 net.cpp:150] Setting up detection_accuracy_2_5x7
I0702 01:17:40.576956  6784 net.cpp:157] Top shape: 1 1 1 2 (2)
I0702 01:17:40.576959  6784 net.cpp:157] Top shape: 1 1 1 1 (1)
I0702 01:17:40.576961  6784 net.cpp:165] Memory required for data: 4514534892
I0702 01:17:40.576964  6784 layer_factory.hpp:77] Creating layer pool5
I0702 01:17:40.576972  6784 net.cpp:100] Creating Layer pool5
I0702 01:17:40.576977  6784 net.cpp:434] pool5 <- conv5_3_relu5_3_0_split_2
I0702 01:17:40.576982  6784 net.cpp:408] pool5 -> pool5
I0702 01:17:40.577025  6784 net.cpp:150] Setting up pool5
I0702 01:17:40.577031  6784 net.cpp:157] Top shape: 4 512 18 24 (884736)
I0702 01:17:40.577034  6784 net.cpp:165] Memory required for data: 4518073836
I0702 01:17:40.577038  6784 layer_factory.hpp:77] Creating layer conv6_1
I0702 01:17:40.577049  6784 net.cpp:100] Creating Layer conv6_1
I0702 01:17:40.577051  6784 net.cpp:434] conv6_1 <- pool5
I0702 01:17:40.577059  6784 net.cpp:408] conv6_1 -> conv6_1
I0702 01:17:40.597723  6784 net.cpp:150] Setting up conv6_1
I0702 01:17:40.597740  6784 net.cpp:157] Top shape: 4 512 18 24 (884736)
I0702 01:17:40.597743  6784 net.cpp:165] Memory required for data: 4521612780
I0702 01:17:40.597750  6784 layer_factory.hpp:77] Creating layer relu6_1
I0702 01:17:40.597759  6784 net.cpp:100] Creating Layer relu6_1
I0702 01:17:40.597761  6784 net.cpp:434] relu6_1 <- conv6_1
I0702 01:17:40.597765  6784 net.cpp:395] relu6_1 -> conv6_1 (in-place)
I0702 01:17:40.598049  6784 net.cpp:150] Setting up relu6_1
I0702 01:17:40.598057  6784 net.cpp:157] Top shape: 4 512 18 24 (884736)
I0702 01:17:40.598059  6784 net.cpp:165] Memory required for data: 4525151724
I0702 01:17:40.598062  6784 layer_factory.hpp:77] Creating layer conv6_1_relu6_1_0_split
I0702 01:17:40.598067  6784 net.cpp:100] Creating Layer conv6_1_relu6_1_0_split
I0702 01:17:40.598069  6784 net.cpp:434] conv6_1_relu6_1_0_split <- conv6_1
I0702 01:17:40.598073  6784 net.cpp:408] conv6_1_relu6_1_0_split -> conv6_1_relu6_1_0_split_0
I0702 01:17:40.598079  6784 net.cpp:408] conv6_1_relu6_1_0_split -> conv6_1_relu6_1_0_split_1
I0702 01:17:40.598083  6784 net.cpp:408] conv6_1_relu6_1_0_split -> conv6_1_relu6_1_0_split_2
I0702 01:17:40.598150  6784 net.cpp:150] Setting up conv6_1_relu6_1_0_split
I0702 01:17:40.598157  6784 net.cpp:157] Top shape: 4 512 18 24 (884736)
I0702 01:17:40.598161  6784 net.cpp:157] Top shape: 4 512 18 24 (884736)
I0702 01:17:40.598165  6784 net.cpp:157] Top shape: 4 512 18 24 (884736)
I0702 01:17:40.598167  6784 net.cpp:165] Memory required for data: 4535768556
I0702 01:17:40.598170  6784 layer_factory.hpp:77] Creating layer LFCN_3_3x5
I0702 01:17:40.598181  6784 net.cpp:100] Creating Layer LFCN_3_3x5
I0702 01:17:40.598184  6784 net.cpp:434] LFCN_3_3x5 <- conv6_1_relu6_1_0_split_0
I0702 01:17:40.598191  6784 net.cpp:408] LFCN_3_3x5 -> LFCN_3_3x5
I0702 01:17:40.600932  6784 net.cpp:150] Setting up LFCN_3_3x5
I0702 01:17:40.600950  6784 net.cpp:157] Top shape: 4 7 18 24 (12096)
I0702 01:17:40.600952  6784 net.cpp:165] Memory required for data: 4535816940
I0702 01:17:40.600960  6784 layer_factory.hpp:77] Creating layer LFCN_3_3x5_LFCN_3_3x5_0_split
I0702 01:17:40.600973  6784 net.cpp:100] Creating Layer LFCN_3_3x5_LFCN_3_3x5_0_split
I0702 01:17:40.600977  6784 net.cpp:434] LFCN_3_3x5_LFCN_3_3x5_0_split <- LFCN_3_3x5
I0702 01:17:40.600982  6784 net.cpp:408] LFCN_3_3x5_LFCN_3_3x5_0_split -> LFCN_3_3x5_LFCN_3_3x5_0_split_0
I0702 01:17:40.600988  6784 net.cpp:408] LFCN_3_3x5_LFCN_3_3x5_0_split -> LFCN_3_3x5_LFCN_3_3x5_0_split_1
I0702 01:17:40.600993  6784 net.cpp:408] LFCN_3_3x5_LFCN_3_3x5_0_split -> LFCN_3_3x5_LFCN_3_3x5_0_split_2
I0702 01:17:40.601056  6784 net.cpp:150] Setting up LFCN_3_3x5_LFCN_3_3x5_0_split
I0702 01:17:40.601063  6784 net.cpp:157] Top shape: 4 7 18 24 (12096)
I0702 01:17:40.601068  6784 net.cpp:157] Top shape: 4 7 18 24 (12096)
I0702 01:17:40.601071  6784 net.cpp:157] Top shape: 4 7 18 24 (12096)
I0702 01:17:40.601074  6784 net.cpp:165] Memory required for data: 4535962092
I0702 01:17:40.601078  6784 layer_factory.hpp:77] Creating layer detection_loss_3_3x5
I0702 01:17:40.601085  6784 net.cpp:100] Creating Layer detection_loss_3_3x5
I0702 01:17:40.601089  6784 net.cpp:434] detection_loss_3_3x5 <- LFCN_3_3x5_LFCN_3_3x5_0_split_0
I0702 01:17:40.601094  6784 net.cpp:434] detection_loss_3_3x5 <- label_3_3x5_data_5_split_0
I0702 01:17:40.601101  6784 net.cpp:408] detection_loss_3_3x5 -> loss_3_3x5
I0702 01:17:40.601111  6784 layer_factory.hpp:77] Creating layer detection_loss_3_3x5
I0702 01:17:40.602062  6784 net.cpp:150] Setting up detection_loss_3_3x5
I0702 01:17:40.602072  6784 net.cpp:157] Top shape: 1 1 1 2 (2)
I0702 01:17:40.602074  6784 net.cpp:160]     with loss weight 1
I0702 01:17:40.602082  6784 net.cpp:165] Memory required for data: 4535962100
I0702 01:17:40.602087  6784 layer_factory.hpp:77] Creating layer detection_accuracy_3_3x5
I0702 01:17:40.602093  6784 net.cpp:100] Creating Layer detection_accuracy_3_3x5
I0702 01:17:40.602099  6784 net.cpp:434] detection_accuracy_3_3x5 <- LFCN_3_3x5_LFCN_3_3x5_0_split_1
I0702 01:17:40.602104  6784 net.cpp:434] detection_accuracy_3_3x5 <- label_3_3x5_data_5_split_1
I0702 01:17:40.602113  6784 net.cpp:408] detection_accuracy_3_3x5 -> accuracy_3_3x5
I0702 01:17:40.602120  6784 net.cpp:408] detection_accuracy_3_3x5 -> boxiou_3_3x5
I0702 01:17:40.602174  6784 net.cpp:150] Setting up detection_accuracy_3_3x5
I0702 01:17:40.602180  6784 net.cpp:157] Top shape: 1 1 1 2 (2)
I0702 01:17:40.602185  6784 net.cpp:157] Top shape: 1 1 1 1 (1)
I0702 01:17:40.602187  6784 net.cpp:165] Memory required for data: 4535962112
I0702 01:17:40.602190  6784 layer_factory.hpp:77] Creating layer LFCN_3_5x7
I0702 01:17:40.602200  6784 net.cpp:100] Creating Layer LFCN_3_5x7
I0702 01:17:40.602205  6784 net.cpp:434] LFCN_3_5x7 <- conv6_1_relu6_1_0_split_1
I0702 01:17:40.602213  6784 net.cpp:408] LFCN_3_5x7 -> LFCN_3_5x7
I0702 01:17:40.604574  6784 net.cpp:150] Setting up LFCN_3_5x7
I0702 01:17:40.604585  6784 net.cpp:157] Top shape: 4 7 18 24 (12096)
I0702 01:17:40.604588  6784 net.cpp:165] Memory required for data: 4536010496
I0702 01:17:40.604595  6784 layer_factory.hpp:77] Creating layer LFCN_3_5x7_LFCN_3_5x7_0_split
I0702 01:17:40.604604  6784 net.cpp:100] Creating Layer LFCN_3_5x7_LFCN_3_5x7_0_split
I0702 01:17:40.604609  6784 net.cpp:434] LFCN_3_5x7_LFCN_3_5x7_0_split <- LFCN_3_5x7
I0702 01:17:40.604614  6784 net.cpp:408] LFCN_3_5x7_LFCN_3_5x7_0_split -> LFCN_3_5x7_LFCN_3_5x7_0_split_0
I0702 01:17:40.604624  6784 net.cpp:408] LFCN_3_5x7_LFCN_3_5x7_0_split -> LFCN_3_5x7_LFCN_3_5x7_0_split_1
I0702 01:17:40.604630  6784 net.cpp:408] LFCN_3_5x7_LFCN_3_5x7_0_split -> LFCN_3_5x7_LFCN_3_5x7_0_split_2
I0702 01:17:40.604696  6784 net.cpp:150] Setting up LFCN_3_5x7_LFCN_3_5x7_0_split
I0702 01:17:40.604703  6784 net.cpp:157] Top shape: 4 7 18 24 (12096)
I0702 01:17:40.604707  6784 net.cpp:157] Top shape: 4 7 18 24 (12096)
I0702 01:17:40.604712  6784 net.cpp:157] Top shape: 4 7 18 24 (12096)
I0702 01:17:40.604715  6784 net.cpp:165] Memory required for data: 4536155648
I0702 01:17:40.604718  6784 layer_factory.hpp:77] Creating layer detection_loss_3_5x7
I0702 01:17:40.604724  6784 net.cpp:100] Creating Layer detection_loss_3_5x7
I0702 01:17:40.604728  6784 net.cpp:434] detection_loss_3_5x7 <- LFCN_3_5x7_LFCN_3_5x7_0_split_0
I0702 01:17:40.604733  6784 net.cpp:434] detection_loss_3_5x7 <- label_3_5x7_data_6_split_0
I0702 01:17:40.604741  6784 net.cpp:408] detection_loss_3_5x7 -> loss_3_5x7
I0702 01:17:40.604751  6784 layer_factory.hpp:77] Creating layer detection_loss_3_5x7
I0702 01:17:40.605211  6784 net.cpp:150] Setting up detection_loss_3_5x7
I0702 01:17:40.605217  6784 net.cpp:157] Top shape: 1 1 1 2 (2)
I0702 01:17:40.605219  6784 net.cpp:160]     with loss weight 1
I0702 01:17:40.605237  6784 net.cpp:165] Memory required for data: 4536155656
I0702 01:17:40.605239  6784 layer_factory.hpp:77] Creating layer detection_accuracy_3_5x7
I0702 01:17:40.605247  6784 net.cpp:100] Creating Layer detection_accuracy_3_5x7
I0702 01:17:40.605250  6784 net.cpp:434] detection_accuracy_3_5x7 <- LFCN_3_5x7_LFCN_3_5x7_0_split_1
I0702 01:17:40.605255  6784 net.cpp:434] detection_accuracy_3_5x7 <- label_3_5x7_data_6_split_1
I0702 01:17:40.605262  6784 net.cpp:408] detection_accuracy_3_5x7 -> accuracy_3_5x7
I0702 01:17:40.605269  6784 net.cpp:408] detection_accuracy_3_5x7 -> boxiou_3_5x7
I0702 01:17:40.605322  6784 net.cpp:150] Setting up detection_accuracy_3_5x7
I0702 01:17:40.605329  6784 net.cpp:157] Top shape: 1 1 1 2 (2)
I0702 01:17:40.605332  6784 net.cpp:157] Top shape: 1 1 1 1 (1)
I0702 01:17:40.605335  6784 net.cpp:165] Memory required for data: 4536155668
I0702 01:17:40.605338  6784 layer_factory.hpp:77] Creating layer pool6
I0702 01:17:40.605345  6784 net.cpp:100] Creating Layer pool6
I0702 01:17:40.605348  6784 net.cpp:434] pool6 <- conv6_1_relu6_1_0_split_2
I0702 01:17:40.605355  6784 net.cpp:408] pool6 -> pool6
I0702 01:17:40.605399  6784 net.cpp:150] Setting up pool6
I0702 01:17:40.605407  6784 net.cpp:157] Top shape: 4 512 9 12 (221184)
I0702 01:17:40.605410  6784 net.cpp:165] Memory required for data: 4537040404
I0702 01:17:40.605413  6784 layer_factory.hpp:77] Creating layer LFCN_4_3x5
I0702 01:17:40.605422  6784 net.cpp:100] Creating Layer LFCN_4_3x5
I0702 01:17:40.605427  6784 net.cpp:434] LFCN_4_3x5 <- pool6
I0702 01:17:40.605432  6784 net.cpp:408] LFCN_4_3x5 -> LFCN_4_3x5
I0702 01:17:40.607697  6784 net.cpp:150] Setting up LFCN_4_3x5
I0702 01:17:40.607708  6784 net.cpp:157] Top shape: 4 7 9 12 (3024)
I0702 01:17:40.607710  6784 net.cpp:165] Memory required for data: 4537052500
I0702 01:17:40.607717  6784 layer_factory.hpp:77] Creating layer LFCN_4_3x5_LFCN_4_3x5_0_split
I0702 01:17:40.607723  6784 net.cpp:100] Creating Layer LFCN_4_3x5_LFCN_4_3x5_0_split
I0702 01:17:40.607730  6784 net.cpp:434] LFCN_4_3x5_LFCN_4_3x5_0_split <- LFCN_4_3x5
I0702 01:17:40.607738  6784 net.cpp:408] LFCN_4_3x5_LFCN_4_3x5_0_split -> LFCN_4_3x5_LFCN_4_3x5_0_split_0
I0702 01:17:40.607745  6784 net.cpp:408] LFCN_4_3x5_LFCN_4_3x5_0_split -> LFCN_4_3x5_LFCN_4_3x5_0_split_1
I0702 01:17:40.607753  6784 net.cpp:408] LFCN_4_3x5_LFCN_4_3x5_0_split -> LFCN_4_3x5_LFCN_4_3x5_0_split_2
I0702 01:17:40.607823  6784 net.cpp:150] Setting up LFCN_4_3x5_LFCN_4_3x5_0_split
I0702 01:17:40.607831  6784 net.cpp:157] Top shape: 4 7 9 12 (3024)
I0702 01:17:40.607833  6784 net.cpp:157] Top shape: 4 7 9 12 (3024)
I0702 01:17:40.607837  6784 net.cpp:157] Top shape: 4 7 9 12 (3024)
I0702 01:17:40.607841  6784 net.cpp:165] Memory required for data: 4537088788
I0702 01:17:40.607844  6784 layer_factory.hpp:77] Creating layer detection_loss_4_3x5
I0702 01:17:40.607851  6784 net.cpp:100] Creating Layer detection_loss_4_3x5
I0702 01:17:40.607856  6784 net.cpp:434] detection_loss_4_3x5 <- LFCN_4_3x5_LFCN_4_3x5_0_split_0
I0702 01:17:40.607861  6784 net.cpp:434] detection_loss_4_3x5 <- label_4_3x5_data_7_split_0
I0702 01:17:40.607868  6784 net.cpp:408] detection_loss_4_3x5 -> loss_4_3x5
I0702 01:17:40.607877  6784 layer_factory.hpp:77] Creating layer detection_loss_4_3x5
I0702 01:17:40.608335  6784 net.cpp:150] Setting up detection_loss_4_3x5
I0702 01:17:40.608343  6784 net.cpp:157] Top shape: 1 1 1 2 (2)
I0702 01:17:40.608345  6784 net.cpp:160]     with loss weight 1
I0702 01:17:40.608353  6784 net.cpp:165] Memory required for data: 4537088796
I0702 01:17:40.608357  6784 layer_factory.hpp:77] Creating layer detection_accuracy_4_3x5
I0702 01:17:40.608363  6784 net.cpp:100] Creating Layer detection_accuracy_4_3x5
I0702 01:17:40.608367  6784 net.cpp:434] detection_accuracy_4_3x5 <- LFCN_4_3x5_LFCN_4_3x5_0_split_1
I0702 01:17:40.608373  6784 net.cpp:434] detection_accuracy_4_3x5 <- label_4_3x5_data_7_split_1
I0702 01:17:40.608379  6784 net.cpp:408] detection_accuracy_4_3x5 -> accuracy_4_3x5
I0702 01:17:40.608389  6784 net.cpp:408] detection_accuracy_4_3x5 -> boxiou_4_3x5
I0702 01:17:40.608440  6784 net.cpp:150] Setting up detection_accuracy_4_3x5
I0702 01:17:40.608446  6784 net.cpp:157] Top shape: 1 1 1 2 (2)
I0702 01:17:40.608449  6784 net.cpp:157] Top shape: 1 1 1 1 (1)
I0702 01:17:40.608453  6784 net.cpp:165] Memory required for data: 4537088808
I0702 01:17:40.608455  6784 layer_factory.hpp:77] Creating layer proposals
I0702 01:17:40.608464  6784 net.cpp:100] Creating Layer proposals
I0702 01:17:40.608469  6784 net.cpp:434] proposals <- LFCN_1_3x5_LFCN_1_3x5_0_split_2
I0702 01:17:40.608474  6784 net.cpp:434] proposals <- LFCN_1_5x7_LFCN_1_5x7_0_split_2
I0702 01:17:40.608479  6784 net.cpp:434] proposals <- LFCN_2_3x5_LFCN_2_3x5_0_split_2
I0702 01:17:40.608484  6784 net.cpp:434] proposals <- LFCN_2_5x7_LFCN_2_5x7_0_split_2
I0702 01:17:40.608486  6784 net.cpp:434] proposals <- LFCN_3_3x5_LFCN_3_3x5_0_split_2
I0702 01:17:40.608490  6784 net.cpp:434] proposals <- LFCN_3_5x7_LFCN_3_5x7_0_split_2
I0702 01:17:40.608494  6784 net.cpp:434] proposals <- LFCN_4_3x5_LFCN_4_3x5_0_split_2
I0702 01:17:40.608502  6784 net.cpp:408] proposals -> proposals
I0702 01:17:40.608536  6784 net.cpp:150] Setting up proposals
I0702 01:17:40.608541  6784 net.cpp:157] Top shape: 1 5 1 1 (5)
I0702 01:17:40.608543  6784 net.cpp:165] Memory required for data: 4537088828
I0702 01:17:40.608546  6784 layer_factory.hpp:77] Creating layer proposal_info
I0702 01:17:40.608556  6784 net.cpp:100] Creating Layer proposal_info
I0702 01:17:40.608561  6784 net.cpp:434] proposal_info <- proposals
I0702 01:17:40.608564  6784 net.cpp:434] proposal_info <- gt_boxes
I0702 01:17:40.608573  6784 net.cpp:408] proposal_info -> rois
I0702 01:17:40.608584  6784 net.cpp:408] proposal_info -> proposal_labels
I0702 01:17:40.608592  6784 net.cpp:408] proposal_info -> proposal_targets
I0702 01:17:40.608600  6784 net.cpp:408] proposal_info -> box_inside_weights
I0702 01:17:40.608608  6784 net.cpp:408] proposal_info -> box_outside_weights
I0702 01:17:40.608616  6784 net.cpp:408] proposal_info -> match_gt_boxes
I0702 01:17:40.608734  6784 net.cpp:150] Setting up proposal_info
I0702 01:17:40.608741  6784 net.cpp:157] Top shape: 128 5 1 1 (640)
I0702 01:17:40.608745  6784 net.cpp:157] Top shape: 128 1 1 1 (128)
I0702 01:17:40.608750  6784 net.cpp:157] Top shape: 128 12 1 1 (1536)
I0702 01:17:40.608755  6784 net.cpp:157] Top shape: 128 12 1 1 (1536)
I0702 01:17:40.608759  6784 net.cpp:157] Top shape: 128 12 1 1 (1536)
I0702 01:17:40.608763  6784 net.cpp:157] Top shape: 128 6 1 1 (768)
I0702 01:17:40.608767  6784 net.cpp:165] Memory required for data: 4537113404
I0702 01:17:40.608770  6784 layer_factory.hpp:77] Creating layer rois_proposal_info_0_split
I0702 01:17:40.608775  6784 net.cpp:100] Creating Layer rois_proposal_info_0_split
I0702 01:17:40.608778  6784 net.cpp:434] rois_proposal_info_0_split <- rois
I0702 01:17:40.608783  6784 net.cpp:408] rois_proposal_info_0_split -> rois_proposal_info_0_split_0
I0702 01:17:40.608790  6784 net.cpp:408] rois_proposal_info_0_split -> rois_proposal_info_0_split_1
I0702 01:17:40.608796  6784 net.cpp:408] rois_proposal_info_0_split -> rois_proposal_info_0_split_2
I0702 01:17:40.608855  6784 net.cpp:150] Setting up rois_proposal_info_0_split
I0702 01:17:40.608860  6784 net.cpp:157] Top shape: 128 5 1 1 (640)
I0702 01:17:40.608863  6784 net.cpp:157] Top shape: 128 5 1 1 (640)
I0702 01:17:40.608868  6784 net.cpp:157] Top shape: 128 5 1 1 (640)
I0702 01:17:40.608870  6784 net.cpp:165] Memory required for data: 4537121084
I0702 01:17:40.608873  6784 layer_factory.hpp:77] Creating layer proposal_labels_proposal_info_1_split
I0702 01:17:40.608878  6784 net.cpp:100] Creating Layer proposal_labels_proposal_info_1_split
I0702 01:17:40.608881  6784 net.cpp:434] proposal_labels_proposal_info_1_split <- proposal_labels
I0702 01:17:40.608887  6784 net.cpp:408] proposal_labels_proposal_info_1_split -> proposal_labels_proposal_info_1_split_0
I0702 01:17:40.608894  6784 net.cpp:408] proposal_labels_proposal_info_1_split -> proposal_labels_proposal_info_1_split_1
I0702 01:17:40.608937  6784 net.cpp:150] Setting up proposal_labels_proposal_info_1_split
I0702 01:17:40.608942  6784 net.cpp:157] Top shape: 128 1 1 1 (128)
I0702 01:17:40.608947  6784 net.cpp:157] Top shape: 128 1 1 1 (128)
I0702 01:17:40.608948  6784 net.cpp:165] Memory required for data: 4537122108
I0702 01:17:40.608952  6784 layer_factory.hpp:77] Creating layer conv4_3_2x
I0702 01:17:40.608960  6784 net.cpp:100] Creating Layer conv4_3_2x
I0702 01:17:40.608964  6784 net.cpp:434] conv4_3_2x <- conv4_3_relu4_3_0_split_2
I0702 01:17:40.608970  6784 net.cpp:408] conv4_3_2x -> conv4_3_2x
I0702 01:17:40.609508  6784 net.cpp:150] Setting up conv4_3_2x
I0702 01:17:40.609514  6784 net.cpp:157] Top shape: 4 512 144 192 (56623104)
I0702 01:17:40.609516  6784 net.cpp:165] Memory required for data: 4763614524
I0702 01:17:40.609521  6784 layer_factory.hpp:77] Creating layer conv4_3_2x_conv4_3_2x_0_split
I0702 01:17:40.609527  6784 net.cpp:100] Creating Layer conv4_3_2x_conv4_3_2x_0_split
I0702 01:17:40.609531  6784 net.cpp:434] conv4_3_2x_conv4_3_2x_0_split <- conv4_3_2x
I0702 01:17:40.609537  6784 net.cpp:408] conv4_3_2x_conv4_3_2x_0_split -> conv4_3_2x_conv4_3_2x_0_split_0
I0702 01:17:40.609545  6784 net.cpp:408] conv4_3_2x_conv4_3_2x_0_split -> conv4_3_2x_conv4_3_2x_0_split_1
I0702 01:17:40.609589  6784 net.cpp:150] Setting up conv4_3_2x_conv4_3_2x_0_split
I0702 01:17:40.609596  6784 net.cpp:157] Top shape: 4 512 144 192 (56623104)
I0702 01:17:40.609601  6784 net.cpp:157] Top shape: 4 512 144 192 (56623104)
I0702 01:17:40.609603  6784 net.cpp:165] Memory required for data: 5216599356
I0702 01:17:40.609606  6784 layer_factory.hpp:77] Creating layer roi_pool_org
I0702 01:17:40.609614  6784 net.cpp:100] Creating Layer roi_pool_org
I0702 01:17:40.609619  6784 net.cpp:434] roi_pool_org <- conv4_3_2x_conv4_3_2x_0_split_0
I0702 01:17:40.609623  6784 net.cpp:434] roi_pool_org <- rois_proposal_info_0_split_0
I0702 01:17:40.609630  6784 net.cpp:408] roi_pool_org -> roi_pool_org
I0702 01:17:40.609639  6784 roi_pooling_layer.cpp:33] Spatial scale: 0.25
I0702 01:17:40.609685  6784 net.cpp:150] Setting up roi_pool_org
I0702 01:17:40.609692  6784 net.cpp:157] Top shape: 128 512 7 5 (2293760)
I0702 01:17:40.609696  6784 net.cpp:165] Memory required for data: 5225774396
I0702 01:17:40.609700  6784 layer_factory.hpp:77] Creating layer roi_pool_ctx
I0702 01:17:40.609704  6784 net.cpp:100] Creating Layer roi_pool_ctx
I0702 01:17:40.609709  6784 net.cpp:434] roi_pool_ctx <- conv4_3_2x_conv4_3_2x_0_split_1
I0702 01:17:40.609714  6784 net.cpp:434] roi_pool_ctx <- rois_proposal_info_0_split_1
I0702 01:17:40.609719  6784 net.cpp:408] roi_pool_ctx -> roi_pool_ctx
I0702 01:17:40.609725  6784 roi_pooling_layer.cpp:33] Spatial scale: 0.25
I0702 01:17:40.609768  6784 net.cpp:150] Setting up roi_pool_ctx
I0702 01:17:40.609774  6784 net.cpp:157] Top shape: 128 512 7 5 (2293760)
I0702 01:17:40.609777  6784 net.cpp:165] Memory required for data: 5234949436
I0702 01:17:40.609781  6784 layer_factory.hpp:77] Creating layer roi_pool
I0702 01:17:40.609786  6784 net.cpp:100] Creating Layer roi_pool
I0702 01:17:40.609788  6784 net.cpp:434] roi_pool <- roi_pool_org
I0702 01:17:40.609793  6784 net.cpp:434] roi_pool <- roi_pool_ctx
I0702 01:17:40.609802  6784 net.cpp:408] roi_pool -> roi_pool
I0702 01:17:40.609828  6784 net.cpp:150] Setting up roi_pool
I0702 01:17:40.609834  6784 net.cpp:157] Top shape: 128 1024 7 5 (4587520)
I0702 01:17:40.609838  6784 net.cpp:165] Memory required for data: 5253299516
I0702 01:17:40.609841  6784 layer_factory.hpp:77] Creating layer roi_c1
I0702 01:17:40.609850  6784 net.cpp:100] Creating Layer roi_c1
I0702 01:17:40.609854  6784 net.cpp:434] roi_c1 <- roi_pool
I0702 01:17:40.609861  6784 net.cpp:408] roi_c1 -> roi_c1
I0702 01:17:40.648332  6784 net.cpp:150] Setting up roi_c1
I0702 01:17:40.648351  6784 net.cpp:157] Top shape: 128 512 5 3 (983040)
I0702 01:17:40.648355  6784 net.cpp:165] Memory required for data: 5257231676
I0702 01:17:40.648363  6784 layer_factory.hpp:77] Creating layer roi_c1_relu
I0702 01:17:40.648375  6784 net.cpp:100] Creating Layer roi_c1_relu
I0702 01:17:40.648380  6784 net.cpp:434] roi_c1_relu <- roi_c1
I0702 01:17:40.648386  6784 net.cpp:395] roi_c1_relu -> roi_c1 (in-place)
I0702 01:17:40.649124  6784 net.cpp:150] Setting up roi_c1_relu
I0702 01:17:40.649135  6784 net.cpp:157] Top shape: 128 512 5 3 (983040)
I0702 01:17:40.649137  6784 net.cpp:165] Memory required for data: 5261163836
I0702 01:17:40.649140  6784 layer_factory.hpp:77] Creating layer fc6
I0702 01:17:40.649152  6784 net.cpp:100] Creating Layer fc6
I0702 01:17:40.649155  6784 net.cpp:434] fc6 <- roi_c1
I0702 01:17:40.649165  6784 net.cpp:408] fc6 -> fc6
I0702 01:17:40.770862  6784 net.cpp:150] Setting up fc6
I0702 01:17:40.770882  6784 net.cpp:157] Top shape: 128 2048 (262144)
I0702 01:17:40.770885  6784 net.cpp:165] Memory required for data: 5262212412
I0702 01:17:40.770895  6784 layer_factory.hpp:77] Creating layer relu6
I0702 01:17:40.770908  6784 net.cpp:100] Creating Layer relu6
I0702 01:17:40.770913  6784 net.cpp:434] relu6 <- fc6
I0702 01:17:40.770921  6784 net.cpp:395] relu6 -> fc6 (in-place)
I0702 01:17:40.771265  6784 net.cpp:150] Setting up relu6
I0702 01:17:40.771271  6784 net.cpp:157] Top shape: 128 2048 (262144)
I0702 01:17:40.771273  6784 net.cpp:165] Memory required for data: 5263260988
I0702 01:17:40.771276  6784 layer_factory.hpp:77] Creating layer drop6
I0702 01:17:40.771283  6784 net.cpp:100] Creating Layer drop6
I0702 01:17:40.771288  6784 net.cpp:434] drop6 <- fc6
I0702 01:17:40.771293  6784 net.cpp:395] drop6 -> fc6 (in-place)
I0702 01:17:40.771332  6784 net.cpp:150] Setting up drop6
I0702 01:17:40.771337  6784 net.cpp:157] Top shape: 128 2048 (262144)
I0702 01:17:40.771339  6784 net.cpp:165] Memory required for data: 5264309564
I0702 01:17:40.771342  6784 layer_factory.hpp:77] Creating layer fc6_drop6_0_split
I0702 01:17:40.771347  6784 net.cpp:100] Creating Layer fc6_drop6_0_split
I0702 01:17:40.771350  6784 net.cpp:434] fc6_drop6_0_split <- fc6
I0702 01:17:40.771358  6784 net.cpp:408] fc6_drop6_0_split -> fc6_drop6_0_split_0
I0702 01:17:40.771365  6784 net.cpp:408] fc6_drop6_0_split -> fc6_drop6_0_split_1
I0702 01:17:40.771416  6784 net.cpp:150] Setting up fc6_drop6_0_split
I0702 01:17:40.771422  6784 net.cpp:157] Top shape: 128 2048 (262144)
I0702 01:17:40.771426  6784 net.cpp:157] Top shape: 128 2048 (262144)
I0702 01:17:40.771430  6784 net.cpp:165] Memory required for data: 5266406716
I0702 01:17:40.771432  6784 layer_factory.hpp:77] Creating layer cls_pred
I0702 01:17:40.771440  6784 net.cpp:100] Creating Layer cls_pred
I0702 01:17:40.771445  6784 net.cpp:434] cls_pred <- fc6_drop6_0_split_0
I0702 01:17:40.771450  6784 net.cpp:408] cls_pred -> cls_pred
I0702 01:17:40.771651  6784 net.cpp:150] Setting up cls_pred
I0702 01:17:40.771656  6784 net.cpp:157] Top shape: 128 3 (384)
I0702 01:17:40.771657  6784 net.cpp:165] Memory required for data: 5266408252
I0702 01:17:40.771663  6784 layer_factory.hpp:77] Creating layer cls_pred_cls_pred_0_split
I0702 01:17:40.771668  6784 net.cpp:100] Creating Layer cls_pred_cls_pred_0_split
I0702 01:17:40.771672  6784 net.cpp:434] cls_pred_cls_pred_0_split <- cls_pred
I0702 01:17:40.771679  6784 net.cpp:408] cls_pred_cls_pred_0_split -> cls_pred_cls_pred_0_split_0
I0702 01:17:40.771687  6784 net.cpp:408] cls_pred_cls_pred_0_split -> cls_pred_cls_pred_0_split_1
I0702 01:17:40.771740  6784 net.cpp:150] Setting up cls_pred_cls_pred_0_split
I0702 01:17:40.771746  6784 net.cpp:157] Top shape: 128 3 (384)
I0702 01:17:40.771751  6784 net.cpp:157] Top shape: 128 3 (384)
I0702 01:17:40.771754  6784 net.cpp:165] Memory required for data: 5266411324
I0702 01:17:40.771757  6784 layer_factory.hpp:77] Creating layer bbox_pred
I0702 01:17:40.771764  6784 net.cpp:100] Creating Layer bbox_pred
I0702 01:17:40.771767  6784 net.cpp:434] bbox_pred <- fc6_drop6_0_split_1
I0702 01:17:40.771773  6784 net.cpp:408] bbox_pred -> bbox_pred
I0702 01:17:40.772083  6784 net.cpp:150] Setting up bbox_pred
I0702 01:17:40.772089  6784 net.cpp:157] Top shape: 128 12 (1536)
I0702 01:17:40.772090  6784 net.cpp:165] Memory required for data: 5266417468
I0702 01:17:40.772095  6784 layer_factory.hpp:77] Creating layer bbox_pred_bbox_pred_0_split
I0702 01:17:40.772101  6784 net.cpp:100] Creating Layer bbox_pred_bbox_pred_0_split
I0702 01:17:40.772105  6784 net.cpp:434] bbox_pred_bbox_pred_0_split <- bbox_pred
I0702 01:17:40.772110  6784 net.cpp:408] bbox_pred_bbox_pred_0_split -> bbox_pred_bbox_pred_0_split_0
I0702 01:17:40.772119  6784 net.cpp:408] bbox_pred_bbox_pred_0_split -> bbox_pred_bbox_pred_0_split_1
I0702 01:17:40.772157  6784 net.cpp:150] Setting up bbox_pred_bbox_pred_0_split
I0702 01:17:40.772163  6784 net.cpp:157] Top shape: 128 12 (1536)
I0702 01:17:40.772167  6784 net.cpp:157] Top shape: 128 12 (1536)
I0702 01:17:40.772169  6784 net.cpp:165] Memory required for data: 5266429756
I0702 01:17:40.772172  6784 layer_factory.hpp:77] Creating layer loss_cls
I0702 01:17:40.772178  6784 net.cpp:100] Creating Layer loss_cls
I0702 01:17:40.772182  6784 net.cpp:434] loss_cls <- cls_pred_cls_pred_0_split_0
I0702 01:17:40.772187  6784 net.cpp:434] loss_cls <- proposal_labels_proposal_info_1_split_0
…
I0702 01:17:40.787602  6784 image_gt_data_layer.cpp:241] output label size 3 : 2,6,36,48
I0702 01:17:40.787662  6784 image_gt_data_layer.cpp:241] output label size 4 : 2,6,18,24
I0702 01:17:40.787719  6784 image_gt_data_layer.cpp:241] output label size 5 : 2,6,18,24
I0702 01:17:40.787776  6784 image_gt_data_layer.cpp:241] output label size 6 : 2,6,9,12
I0702 01:17:40.787835  6784 image_gt_data_layer.cpp:256] output gt boxes size: 1,7,1,1
I0702 01:17:40.787839  6784 image_gt_data_layer.cpp:265]  --> has_mean_values_ = 1
I0702 01:17:40.806704  6784 net.cpp:150] Setting up data
I0702 01:17:40.806722  6784 net.cpp:157] Top shape: 2 4 576 768 (3538944)
I0702 01:17:40.806726  6784 net.cpp:157] Top shape: 2 6 72 96 (82944)
I0702 01:17:40.806728  6784 net.cpp:157] Top shape: 2 6 72 96 (82944)
I0702 01:17:40.806731  6784 net.cpp:157] Top shape: 2 6 36 48 (20736)
I0702 01:17:40.806735  6784 net.cpp:157] Top shape: 2 6 36 48 (20736)
I0702 01:17:40.806736  6784 net.cpp:157] Top shape: 2 6 18 24 (5184)
I0702 01:17:40.806740  6784 net.cpp:157] Top shape: 2 6 18 24 (5184)
I0702 01:17:40.806743  6784 net.cpp:157] Top shape: 2 6 9 12 (1296)
I0702 01:17:40.806747  6784 net.cpp:157] Top shape: 1 7 1 1 (7)
I0702 01:17:40.806749  6784 net.cpp:165] Memory required for data: 15031900
I0702 01:17:40.806756  6784 layer_factory.hpp:77] Creating layer label_1_3x5_data_1_split
I0702 01:17:40.806766  6784 net.cpp:100] Creating Layer label_1_3x5_data_1_split
I0702 01:17:40.806771  6784 net.cpp:434] label_1_3x5_data_1_split <- label_1_3x5
I0702 01:17:40.806778  6784 net.cpp:408] label_1_3x5_data_1_split -> label_1_3x5_data_1_split_0
I0702 01:17:40.806787  6784 net.cpp:408] label_1_3x5_data_1_split -> label_1_3x5_data_1_split_1
I0702 01:17:40.806860  6784 net.cpp:150] Setting up label_1_3x5_data_1_split
I0702 01:17:40.806866  6784 net.cpp:157] Top shape: 2 6 72 96 (82944)
I0702 01:17:40.806871  6784 net.cpp:157] Top shape: 2 6 72 96 (82944)
I0702 01:17:40.806874  6784 net.cpp:165] Memory required for data: 15695452
I0702 01:17:40.806876  6784 layer_factory.hpp:77] Creating layer label_1_5x7_data_2_split
I0702 01:17:40.806891  6784 net.cpp:100] Creating Layer label_1_5x7_data_2_split
I0702 01:17:40.806895  6784 net.cpp:434] label_1_5x7_data_2_split <- label_1_5x7
I0702 01:17:40.806902  6784 net.cpp:408] label_1_5x7_data_2_split -> label_1_5x7_data_2_split_0
I0702 01:17:40.806908  6784 net.cpp:408] label_1_5x7_data_2_split -> label_1_5x7_data_2_split_1
I0702 01:17:40.806984  6784 net.cpp:150] Setting up label_1_5x7_data_2_split
I0702 01:17:40.806993  6784 net.cpp:157] Top shape: 2 6 72 96 (82944)
I0702 01:17:40.806998  6784 net.cpp:157] Top shape: 2 6 72 96 (82944)
I0702 01:17:40.807001  6784 net.cpp:165] Memory required for data: 16359004
I0702 01:17:40.807004  6784 layer_factory.hpp:77] Creating layer label_2_3x5_data_3_split
I0702 01:17:40.807009  6784 net.cpp:100] Creating Layer label_2_3x5_data_3_split
I0702 01:17:40.807013  6784 net.cpp:434] label_2_3x5_data_3_split <- label_2_3x5
I0702 01:17:40.807018  6784 net.cpp:408] label_2_3x5_data_3_split -> label_2_3x5_data_3_split_0
I0702 01:17:40.807024  6784 net.cpp:408] label_2_3x5_data_3_split -> label_2_3x5_data_3_split_1
I0702 01:17:40.807067  6784 net.cpp:150] Setting up label_2_3x5_data_3_split
I0702 01:17:40.807073  6784 net.cpp:157] Top shape: 2 6 36 48 (20736)
I0702 01:17:40.807077  6784 net.cpp:157] Top shape: 2 6 36 48 (20736)
I0702 01:17:40.807080  6784 net.cpp:165] Memory required for data: 16524892
I0702 01:17:40.807083  6784 layer_factory.hpp:77] Creating layer label_2_5x7_data_4_split
I0702 01:17:40.807088  6784 net.cpp:100] Creating Layer label_2_5x7_data_4_split
I0702 01:17:40.807091  6784 net.cpp:434] label_2_5x7_data_4_split <- label_2_5x7
I0702 01:17:40.807098  6784 net.cpp:408] label_2_5x7_data_4_split -> label_2_5x7_data_4_split_0
I0702 01:17:40.807104  6784 net.cpp:408] label_2_5x7_data_4_split -> label_2_5x7_data_4_split_1
I0702 01:17:40.807148  6784 net.cpp:150] Setting up label_2_5x7_data_4_split
I0702 01:17:40.807154  6784 net.cpp:157] Top shape: 2 6 36 48 (20736)
I0702 01:17:40.807159  6784 net.cpp:157] Top shape: 2 6 36 48 (20736)
I0702 01:17:40.807162  6784 net.cpp:165] Memory required for data: 16690780
I0702 01:17:40.807164  6784 layer_factory.hpp:77] Creating layer label_3_3x5_data_5_split
I0702 01:17:40.807169  6784 net.cpp:100] Creating Layer label_3_3x5_data_5_split
I0702 01:17:40.807173  6784 net.cpp:434] label_3_3x5_data_5_split <- label_3_3x5
I0702 01:17:40.807178  6784 net.cpp:408] label_3_3x5_data_5_split -> label_3_3x5_data_5_split_0
I0702 01:17:40.807183  6784 net.cpp:408] label_3_3x5_data_5_split -> label_3_3x5_data_5_split_1
I0702 01:17:40.807221  6784 net.cpp:150] Setting up label_3_3x5_data_5_split
I0702 01:17:40.807227  6784 net.cpp:157] Top shape: 2 6 18 24 (5184)
I0702 01:17:40.807231  6784 net.cpp:157] Top shape: 2 6 18 24 (5184)
I0702 01:17:40.807235  6784 net.cpp:165] Memory required for data: 16732252
I0702 01:17:40.807237  6784 layer_factory.hpp:77] Creating layer label_3_5x7_data_6_split
I0702 01:17:40.807241  6784 net.cpp:100] Creating Layer label_3_5x7_data_6_split
I0702 01:17:40.807245  6784 net.cpp:434] label_3_5x7_data_6_split <- label_3_5x7
I0702 01:17:40.807250  6784 net.cpp:408] label_3_5x7_data_6_split -> label_3_5x7_data_6_split_0
I0702 01:17:40.807256  6784 net.cpp:408] label_3_5x7_data_6_split -> label_3_5x7_data_6_split_1
I0702 01:17:40.807296  6784 net.cpp:150] Setting up label_3_5x7_data_6_split
I0702 01:17:40.807301  6784 net.cpp:157] Top shape: 2 6 18 24 (5184)
I0702 01:17:40.807303  6784 net.cpp:157] Top shape: 2 6 18 24 (5184)
I0702 01:17:40.807305  6784 net.cpp:165] Memory required for data: 16773724
I0702 01:17:40.807308  6784 layer_factory.hpp:77] Creating layer label_4_3x5_data_7_split
I0702 01:17:40.807312  6784 net.cpp:100] Creating Layer label_4_3x5_data_7_split
I0702 01:17:40.807315  6784 net.cpp:434] label_4_3x5_data_7_split <- label_4_3x5
I0702 01:17:40.807322  6784 net.cpp:408] label_4_3x5_data_7_split -> label_4_3x5_data_7_split_0
I0702 01:17:40.807327  6784 net.cpp:408] label_4_3x5_data_7_split -> label_4_3x5_data_7_split_1
I0702 01:17:40.807373  6784 net.cpp:150] Setting up label_4_3x5_data_7_split
I0702 01:17:40.807377  6784 net.cpp:157] Top shape: 2 6 9 12 (1296)
I0702 01:17:40.807381  6784 net.cpp:157] Top shape: 2 6 9 12 (1296)
I0702 01:17:40.807384  6784 net.cpp:165] Memory required for data: 16784092
I0702 01:17:40.807387  6784 layer_factory.hpp:77] Creating layer conv1_1
I0702 01:17:40.807399  6784 net.cpp:100] Creating Layer conv1_1
I0702 01:17:40.807402  6784 net.cpp:434] conv1_1 <- data
I0702 01:17:40.807407  6784 net.cpp:408] conv1_1 -> conv1_1
I0702 01:17:40.812618  6784 net.cpp:150] Setting up conv1_1
I0702 01:17:40.812640  6784 net.cpp:157] Top shape: 2 64 576 768 (56623104)
I0702 01:17:40.812642  6784 net.cpp:165] Memory required for data: 243276508
I0702 01:17:40.812657  6784 layer_factory.hpp:77] Creating layer relu1_1
I0702 01:17:40.812669  6784 net.cpp:100] Creating Layer relu1_1
I0702 01:17:40.812672  6784 net.cpp:434] relu1_1 <- conv1_1
I0702 01:17:40.812681  6784 net.cpp:395] relu1_1 -> conv1_1 (in-place)
I0702 01:17:40.813055  6784 net.cpp:150] Setting up relu1_1
I0702 01:17:40.813064  6784 net.cpp:157] Top shape: 2 64 576 768 (56623104)
I0702 01:17:40.813066  6784 net.cpp:165] Memory required for data: 469768924
I0702 01:17:40.813071  6784 layer_factory.hpp:77] Creating layer conv1_2
I0702 01:17:40.813081  6784 net.cpp:100] Creating Layer conv1_2
I0702 01:17:40.813084  6784 net.cpp:434] conv1_2 <- conv1_1
I0702 01:17:40.813092  6784 net.cpp:408] conv1_2 -> conv1_2
I0702 01:17:40.816088  6784 net.cpp:150] Setting up conv1_2
I0702 01:17:40.816113  6784 net.cpp:157] Top shape: 2 64 576 768 (56623104)
I0702 01:17:40.816115  6784 net.cpp:165] Memory required for data: 696261340
I0702 01:17:40.816128  6784 layer_factory.hpp:77] Creating layer relu1_2
I0702 01:17:40.816138  6784 net.cpp:100] Creating Layer relu1_2
I0702 01:17:40.816143  6784 net.cpp:434] relu1_2 <- conv1_2
I0702 01:17:40.816151  6784 net.cpp:395] relu1_2 -> conv1_2 (in-place)
I0702 01:17:40.816524  6784 net.cpp:150] Setting up relu1_2
I0702 01:17:40.816531  6784 net.cpp:157] Top shape: 2 64 576 768 (56623104)
I0702 01:17:40.816534  6784 net.cpp:165] Memory required for data: 922753756
I0702 01:17:40.816535  6784 layer_factory.hpp:77] Creating layer pool1
I0702 01:17:40.816543  6784 net.cpp:100] Creating Layer pool1
I0702 01:17:40.816547  6784 net.cpp:434] pool1 <- conv1_2
I0702 01:17:40.816555  6784 net.cpp:408] pool1 -> pool1
I0702 01:17:40.816620  6784 net.cpp:150] Setting up pool1
I0702 01:17:40.816628  6784 net.cpp:157] Top shape: 2 64 288 384 (14155776)
I0702 01:17:40.816632  6784 net.cpp:165] Memory required for data: 979376860
I0702 01:17:40.816634  6784 layer_factory.hpp:77] Creating layer conv2_1
I0702 01:17:40.816642  6784 net.cpp:100] Creating Layer conv2_1
I0702 01:17:40.816645  6784 net.cpp:434] conv2_1 <- pool1
I0702 01:17:40.816653  6784 net.cpp:408] conv2_1 -> conv2_1
I0702 01:17:40.818745  6784 net.cpp:150] Setting up conv2_1
I0702 01:17:40.818761  6784 net.cpp:157] Top shape: 2 128 288 384 (28311552)
I0702 01:17:40.818764  6784 net.cpp:165] Memory required for data: 1092623068
I0702 01:17:40.818775  6784 layer_factory.hpp:77] Creating layer relu2_1
I0702 01:17:40.818785  6784 net.cpp:100] Creating Layer relu2_1
I0702 01:17:40.818789  6784 net.cpp:434] relu2_1 <- conv2_1
I0702 01:17:40.818795  6784 net.cpp:395] relu2_1 -> conv2_1 (in-place)
I0702 01:17:40.819527  6784 net.cpp:150] Setting up relu2_1
I0702 01:17:40.819538  6784 net.cpp:157] Top shape: 2 128 288 384 (28311552)
I0702 01:17:40.819541  6784 net.cpp:165] Memory required for data: 1205869276
I0702 01:17:40.819543  6784 layer_factory.hpp:77] Creating layer conv2_2
I0702 01:17:40.819553  6784 net.cpp:100] Creating Layer conv2_2
I0702 01:17:40.819556  6784 net.cpp:434] conv2_2 <- conv2_1
I0702 01:17:40.819564  6784 net.cpp:408] conv2_2 -> conv2_2
I0702 01:17:40.822947  6784 net.cpp:150] Setting up conv2_2
I0702 01:17:40.822968  6784 net.cpp:157] Top shape: 2 128 288 384 (28311552)
I0702 01:17:40.822970  6784 net.cpp:165] Memory required for data: 1319115484
I0702 01:17:40.822981  6784 layer_factory.hpp:77] Creating layer relu2_2
I0702 01:17:40.822995  6784 net.cpp:100] Creating Layer relu2_2
I0702 01:17:40.822999  6784 net.cpp:434] relu2_2 <- conv2_2
I0702 01:17:40.823006  6784 net.cpp:395] relu2_2 -> conv2_2 (in-place)
I0702 01:17:40.823415  6784 net.cpp:150] Setting up relu2_2
I0702 01:17:40.823426  6784 net.cpp:157] Top shape: 2 128 288 384 (28311552)
I0702 01:17:40.823429  6784 net.cpp:165] Memory required for data: 1432361692
I0702 01:17:40.823432  6784 layer_factory.hpp:77] Creating layer pool2
I0702 01:17:40.823441  6784 net.cpp:100] Creating Layer pool2
I0702 01:17:40.823444  6784 net.cpp:434] pool2 <- conv2_2
I0702 01:17:40.823451  6784 net.cpp:408] pool2 -> pool2
I0702 01:17:40.823518  6784 net.cpp:150] Setting up pool2
I0702 01:17:40.823523  6784 net.cpp:157] Top shape: 2 128 144 192 (7077888)
I0702 01:17:40.823525  6784 net.cpp:165] Memory required for data: 1460673244
I0702 01:17:40.823529  6784 layer_factory.hpp:77] Creating layer conv3_1
I0702 01:17:40.823537  6784 net.cpp:100] Creating Layer conv3_1
I0702 01:17:40.823541  6784 net.cpp:434] conv3_1 <- pool2
I0702 01:17:40.823547  6784 net.cpp:408] conv3_1 -> conv3_1
I0702 01:17:40.828145  6784 net.cpp:150] Setting up conv3_1
I0702 01:17:40.828176  6784 net.cpp:157] Top shape: 2 256 144 192 (14155776)
I0702 01:17:40.828179  6784 net.cpp:165] Memory required for data: 1517296348
I0702 01:17:40.828197  6784 layer_factory.hpp:77] Creating layer relu3_1
I0702 01:17:40.828207  6784 net.cpp:100] Creating Layer relu3_1
I0702 01:17:40.828212  6784 net.cpp:434] relu3_1 <- conv3_1
I0702 01:17:40.828220  6784 net.cpp:395] relu3_1 -> conv3_1 (in-place)
I0702 01:17:40.828513  6784 net.cpp:150] Setting up relu3_1
I0702 01:17:40.828521  6784 net.cpp:157] Top shape: 2 256 144 192 (14155776)
I0702 01:17:40.828524  6784 net.cpp:165] Memory required for data: 1573919452
I0702 01:17:40.828527  6784 layer_factory.hpp:77] Creating layer conv3_2
I0702 01:17:40.828536  6784 net.cpp:100] Creating Layer conv3_2
I0702 01:17:40.828541  6784 net.cpp:434] conv3_2 <- conv3_1
I0702 01:17:40.828547  6784 net.cpp:408] conv3_2 -> conv3_2
I0702 01:17:40.831859  6784 net.cpp:150] Setting up conv3_2
I0702 01:17:40.831882  6784 net.cpp:157] Top shape: 2 256 144 192 (14155776)
I0702 01:17:40.831885  6784 net.cpp:165] Memory required for data: 1630542556
I0702 01:17:40.831894  6784 layer_factory.hpp:77] Creating layer relu3_2
I0702 01:17:40.831905  6784 net.cpp:100] Creating Layer relu3_2
I0702 01:17:40.831910  6784 net.cpp:434] relu3_2 <- conv3_2
I0702 01:17:40.831918  6784 net.cpp:395] relu3_2 -> conv3_2 (in-place)
I0702 01:17:40.832618  6784 net.cpp:150] Setting up relu3_2
I0702 01:17:40.832630  6784 net.cpp:157] Top shape: 2 256 144 192 (14155776)
I0702 01:17:40.832633  6784 net.cpp:165] Memory required for data: 1687165660
I0702 01:17:40.832638  6784 layer_factory.hpp:77] Creating layer conv3_3
I0702 01:17:40.832648  6784 net.cpp:100] Creating Layer conv3_3
I0702 01:17:40.832651  6784 net.cpp:434] conv3_3 <- conv3_2
I0702 01:17:40.832657  6784 net.cpp:408] conv3_3 -> conv3_3
I0702 01:17:40.835973  6784 net.cpp:150] Setting up conv3_3
I0702 01:17:40.835996  6784 net.cpp:157] Top shape: 2 256 144 192 (14155776)
I0702 01:17:40.835999  6784 net.cpp:165] Memory required for data: 1743788764
I0702 01:17:40.836009  6784 layer_factory.hpp:77] Creating layer relu3_3
I0702 01:17:40.836019  6784 net.cpp:100] Creating Layer relu3_3
I0702 01:17:40.836024  6784 net.cpp:434] relu3_3 <- conv3_3
I0702 01:17:40.836031  6784 net.cpp:395] relu3_3 -> conv3_3 (in-place)
I0702 01:17:40.836740  6784 net.cpp:150] Setting up relu3_3
I0702 01:17:40.836751  6784 net.cpp:157] Top shape: 2 256 144 192 (14155776)
I0702 01:17:40.836755  6784 net.cpp:165] Memory required for data: 1800411868
I0702 01:17:40.836758  6784 layer_factory.hpp:77] Creating layer pool3
I0702 01:17:40.836764  6784 net.cpp:100] Creating Layer pool3
I0702 01:17:40.836768  6784 net.cpp:434] pool3 <- conv3_3
I0702 01:17:40.836776  6784 net.cpp:408] pool3 -> pool3
I0702 01:17:40.836836  6784 net.cpp:150] Setting up pool3
I0702 01:17:40.836845  6784 net.cpp:157] Top shape: 2 256 72 96 (3538944)
I0702 01:17:40.836848  6784 net.cpp:165] Memory required for data: 1814567644
I0702 01:17:40.836851  6784 layer_factory.hpp:77] Creating layer conv4_1
I0702 01:17:40.836859  6784 net.cpp:100] Creating Layer conv4_1
I0702 01:17:40.836863  6784 net.cpp:434] conv4_1 <- pool3
I0702 01:17:40.836869  6784 net.cpp:408] conv4_1 -> conv4_1
I0702 01:17:40.841218  6784 net.cpp:150] Setting up conv4_1
I0702 01:17:40.841245  6784 net.cpp:157] Top shape: 2 512 72 96 (7077888)
I0702 01:17:40.841249  6784 net.cpp:165] Memory required for data: 1842879196
I0702 01:17:40.841259  6784 layer_factory.hpp:77] Creating layer relu4_1
I0702 01:17:40.841269  6784 net.cpp:100] Creating Layer relu4_1
I0702 01:17:40.841274  6784 net.cpp:434] relu4_1 <- conv4_1
I0702 01:17:40.841280  6784 net.cpp:395] relu4_1 -> conv4_1 (in-place)
I0702 01:17:40.841575  6784 net.cpp:150] Setting up relu4_1
I0702 01:17:40.841584  6784 net.cpp:157] Top shape: 2 512 72 96 (7077888)
I0702 01:17:40.841588  6784 net.cpp:165] Memory required for data: 1871190748
I0702 01:17:40.841590  6784 layer_factory.hpp:77] Creating layer conv4_2
I0702 01:17:40.841598  6784 net.cpp:100] Creating Layer conv4_2
I0702 01:17:40.841603  6784 net.cpp:434] conv4_2 <- conv4_1
I0702 01:17:40.841609  6784 net.cpp:408] conv4_2 -> conv4_2
I0702 01:17:40.851754  6784 net.cpp:150] Setting up conv4_2
I0702 01:17:40.851827  6784 net.cpp:157] Top shape: 2 512 72 96 (7077888)
I0702 01:17:40.851832  6784 net.cpp:165] Memory required for data: 1899502300
I0702 01:17:40.851877  6784 layer_factory.hpp:77] Creating layer relu4_2
I0702 01:17:40.851902  6784 net.cpp:100] Creating Layer relu4_2
I0702 01:17:40.851912  6784 net.cpp:434] relu4_2 <- conv4_2
I0702 01:17:40.851927  6784 net.cpp:395] relu4_2 -> conv4_2 (in-place)
I0702 01:17:40.852591  6784 net.cpp:150] Setting up relu4_2
I0702 01:17:40.852607  6784 net.cpp:157] Top shape: 2 512 72 96 (7077888)
I0702 01:17:40.852610  6784 net.cpp:165] Memory required for data: 1927813852
I0702 01:17:40.852615  6784 layer_factory.hpp:77] Creating layer conv4_3
I0702 01:17:40.852628  6784 net.cpp:100] Creating Layer conv4_3
I0702 01:17:40.852633  6784 net.cpp:434] conv4_3 <- conv4_2
I0702 01:17:40.852640  6784 net.cpp:408] conv4_3 -> conv4_3
I0702 01:17:40.858484  6784 net.cpp:150] Setting up conv4_3
I0702 01:17:40.858503  6784 net.cpp:157] Top shape: 2 512 72 96 (7077888)
I0702 01:17:40.858506  6784 net.cpp:165] Memory required for data: 1956125404
I0702 01:17:40.858515  6784 layer_factory.hpp:77] Creating layer relu4_3
I0702 01:17:40.858554  6784 net.cpp:100] Creating Layer relu4_3
I0702 01:17:40.858561  6784 net.cpp:434] relu4_3 <- conv4_3
I0702 01:17:40.858570  6784 net.cpp:395] relu4_3 -> conv4_3 (in-place)
I0702 01:17:40.859319  6784 net.cpp:150] Setting up relu4_3
I0702 01:17:40.859329  6784 net.cpp:157] Top shape: 2 512 72 96 (7077888)
I0702 01:17:40.859333  6784 net.cpp:165] Memory required for data: 1984436956
I0702 01:17:40.859336  6784 layer_factory.hpp:77] Creating layer conv4_3_relu4_3_0_split
I0702 01:17:40.859341  6784 net.cpp:100] Creating Layer conv4_3_relu4_3_0_split
I0702 01:17:40.859345  6784 net.cpp:434] conv4_3_relu4_3_0_split <- conv4_3
I0702 01:17:40.859354  6784 net.cpp:408] conv4_3_relu4_3_0_split -> conv4_3_relu4_3_0_split_0
I0702 01:17:40.859361  6784 net.cpp:408] conv4_3_relu4_3_0_split -> conv4_3_relu4_3_0_split_1
I0702 01:17:40.859369  6784 net.cpp:408] conv4_3_relu4_3_0_split -> conv4_3_relu4_3_0_split_2
I0702 01:17:40.859436  6784 net.cpp:150] Setting up conv4_3_relu4_3_0_split
I0702 01:17:40.859442  6784 net.cpp:157] Top shape: 2 512 72 96 (7077888)
I0702 01:17:40.859447  6784 net.cpp:157] Top shape: 2 512 72 96 (7077888)
I0702 01:17:40.859450  6784 net.cpp:157] Top shape: 2 512 72 96 (7077888)
I0702 01:17:40.859453  6784 net.cpp:165] Memory required for data: 2069371612
I0702 01:17:40.859457  6784 layer_factory.hpp:77] Creating layer loss1_conv1
I0702 01:17:40.859472  6784 net.cpp:100] Creating Layer loss1_conv1
I0702 01:17:40.859477  6784 net.cpp:434] loss1_conv1 <- conv4_3_relu4_3_0_split_0
I0702 01:17:40.859483  6784 net.cpp:408] loss1_conv1 -> loss1_conv1
I0702 01:17:40.881026  6784 net.cpp:150] Setting up loss1_conv1
I0702 01:17:40.881044  6784 net.cpp:157] Top shape: 2 512 72 96 (7077888)
I0702 01:17:40.881047  6784 net.cpp:165] Memory required for data: 2097683164
I0702 01:17:40.881057  6784 layer_factory.hpp:77] Creating layer loss_relu1
I0702 01:17:40.881076  6784 net.cpp:100] Creating Layer loss_relu1
I0702 01:17:40.881083  6784 net.cpp:434] loss_relu1 <- loss1_conv1
I0702 01:17:40.881088  6784 net.cpp:395] loss_relu1 -> loss1_conv1 (in-place)
I0702 01:17:40.881371  6784 net.cpp:150] Setting up loss_relu1
I0702 01:17:40.881381  6784 net.cpp:157] Top shape: 2 512 72 96 (7077888)
I0702 01:17:40.881383  6784 net.cpp:165] Memory required for data: 2125994716
I0702 01:17:40.881387  6784 layer_factory.hpp:77] Creating layer loss1_conv1_loss_relu1_0_split
I0702 01:17:40.881394  6784 net.cpp:100] Creating Layer loss1_conv1_loss_relu1_0_split
I0702 01:17:40.881398  6784 net.cpp:434] loss1_conv1_loss_relu1_0_split <- loss1_conv1
I0702 01:17:40.881404  6784 net.cpp:408] loss1_conv1_loss_relu1_0_split -> loss1_conv1_loss_relu1_0_split_0
I0702 01:17:40.881412  6784 net.cpp:408] loss1_conv1_loss_relu1_0_split -> loss1_conv1_loss_relu1_0_split_1
I0702 01:17:40.881464  6784 net.cpp:150] Setting up loss1_conv1_loss_relu1_0_split
I0702 01:17:40.881470  6784 net.cpp:157] Top shape: 2 512 72 96 (7077888)
I0702 01:17:40.881474  6784 net.cpp:157] Top shape: 2 512 72 96 (7077888)
I0702 01:17:40.881477  6784 net.cpp:165] Memory required for data: 2182617820
I0702 01:17:40.881480  6784 layer_factory.hpp:77] Creating layer LFCN_1_3x5
I0702 01:17:40.881489  6784 net.cpp:100] Creating Layer LFCN_1_3x5
I0702 01:17:40.881494  6784 net.cpp:434] LFCN_1_3x5 <- loss1_conv1_loss_relu1_0_split_0
I0702 01:17:40.881500  6784 net.cpp:408] LFCN_1_3x5 -> LFCN_1_3x5
I0702 01:17:40.884912  6784 net.cpp:150] Setting up LFCN_1_3x5
I0702 01:17:40.884940  6784 net.cpp:157] Top shape: 2 7 72 96 (96768)
I0702 01:17:40.884944  6784 net.cpp:165] Memory required for data: 2183004892
I0702 01:17:40.884958  6784 layer_factory.hpp:77] Creating layer LFCN_1_3x5_LFCN_1_3x5_0_split
I0702 01:17:40.884970  6784 net.cpp:100] Creating Layer LFCN_1_3x5_LFCN_1_3x5_0_split
I0702 01:17:40.884976  6784 net.cpp:434] LFCN_1_3x5_LFCN_1_3x5_0_split <- LFCN_1_3x5
I0702 01:17:40.884986  6784 net.cpp:408] LFCN_1_3x5_LFCN_1_3x5_0_split -> LFCN_1_3x5_LFCN_1_3x5_0_split_0
I0702 01:17:40.884996  6784 net.cpp:408] LFCN_1_3x5_LFCN_1_3x5_0_split -> LFCN_1_3x5_LFCN_1_3x5_0_split_1
I0702 01:17:40.885004  6784 net.cpp:408] LFCN_1_3x5_LFCN_1_3x5_0_split -> LFCN_1_3x5_LFCN_1_3x5_0_split_2
I0702 01:17:40.885079  6784 net.cpp:150] Setting up LFCN_1_3x5_LFCN_1_3x5_0_split
I0702 01:17:40.885085  6784 net.cpp:157] Top shape: 2 7 72 96 (96768)
I0702 01:17:40.885089  6784 net.cpp:157] Top shape: 2 7 72 96 (96768)
I0702 01:17:40.885093  6784 net.cpp:157] Top shape: 2 7 72 96 (96768)
I0702 01:17:40.885095  6784 net.cpp:165] Memory required for data: 2184166108
I0702 01:17:40.885098  6784 layer_factory.hpp:77] Creating layer detection_loss_1_3x5
I0702 01:17:40.885108  6784 net.cpp:100] Creating Layer detection_loss_1_3x5
I0702 01:17:40.885112  6784 net.cpp:434] detection_loss_1_3x5 <- LFCN_1_3x5_LFCN_1_3x5_0_split_0
I0702 01:17:40.885116  6784 net.cpp:434] detection_loss_1_3x5 <- label_1_3x5_data_1_split_0
I0702 01:17:40.885123  6784 net.cpp:408] detection_loss_1_3x5 -> loss_1_3x5
I0702 01:17:40.885131  6784 layer_factory.hpp:77] Creating layer detection_loss_1_3x5
I0702 01:17:40.885654  6784 net.cpp:150] Setting up detection_loss_1_3x5
I0702 01:17:40.885668  6784 net.cpp:157] Top shape: 1 1 1 2 (2)
I0702 01:17:40.885670  6784 net.cpp:160]     with loss weight 0.5
I0702 01:17:40.885684  6784 net.cpp:165] Memory required for data: 2184166116
I0702 01:17:40.885689  6784 layer_factory.hpp:77] Creating layer detection_accuracy_1_3x5
I0702 01:17:40.885695  6784 net.cpp:100] Creating Layer detection_accuracy_1_3x5
I0702 01:17:40.885699  6784 net.cpp:434] detection_accuracy_1_3x5 <- LFCN_1_3x5_LFCN_1_3x5_0_split_1
I0702 01:17:40.885705  6784 net.cpp:434] detection_accuracy_1_3x5 <- label_1_3x5_data_1_split_1
I0702 01:17:40.885712  6784 net.cpp:408] detection_accuracy_1_3x5 -> accuracy_1_3x5
I0702 01:17:40.885720  6784 net.cpp:408] detection_accuracy_1_3x5 -> boxiou_1_3x5
I0702 01:17:40.885773  6784 net.cpp:150] Setting up detection_accuracy_1_3x5
I0702 01:17:40.885778  6784 net.cpp:157] Top shape: 1 1 1 2 (2)
I0702 01:17:40.885782  6784 net.cpp:157] Top shape: 1 1 1 1 (1)
I0702 01:17:40.885785  6784 net.cpp:165] Memory required for data: 2184166128
I0702 01:17:40.885788  6784 layer_factory.hpp:77] Creating layer LFCN_1_5x7
I0702 01:17:40.885799  6784 net.cpp:100] Creating Layer LFCN_1_5x7
I0702 01:17:40.885803  6784 net.cpp:434] LFCN_1_5x7 <- loss1_conv1_loss_relu1_0_split_1
I0702 01:17:40.885810  6784 net.cpp:408] LFCN_1_5x7 -> LFCN_1_5x7
I0702 01:17:40.891693  6784 net.cpp:150] Setting up LFCN_1_5x7
I0702 01:17:40.891712  6784 net.cpp:157] Top shape: 2 7 72 96 (96768)
I0702 01:17:40.891716  6784 net.cpp:165] Memory required for data: 2184553200
I0702 01:17:40.891726  6784 layer_factory.hpp:77] Creating layer LFCN_1_5x7_LFCN_1_5x7_0_split
I0702 01:17:40.891741  6784 net.cpp:100] Creating Layer LFCN_1_5x7_LFCN_1_5x7_0_split
I0702 01:17:40.891746  6784 net.cpp:434] LFCN_1_5x7_LFCN_1_5x7_0_split <- LFCN_1_5x7
I0702 01:17:40.891753  6784 net.cpp:408] LFCN_1_5x7_LFCN_1_5x7_0_split -> LFCN_1_5x7_LFCN_1_5x7_0_split_0
I0702 01:17:40.891763  6784 net.cpp:408] LFCN_1_5x7_LFCN_1_5x7_0_split -> LFCN_1_5x7_LFCN_1_5x7_0_split_1
I0702 01:17:40.891772  6784 net.cpp:408] LFCN_1_5x7_LFCN_1_5x7_0_split -> LFCN_1_5x7_LFCN_1_5x7_0_split_2
I0702 01:17:40.891837  6784 net.cpp:150] Setting up LFCN_1_5x7_LFCN_1_5x7_0_split
I0702 01:17:40.891844  6784 net.cpp:157] Top shape: 2 7 72 96 (96768)
I0702 01:17:40.891846  6784 net.cpp:157] Top shape: 2 7 72 96 (96768)
I0702 01:17:40.891850  6784 net.cpp:157] Top shape: 2 7 72 96 (96768)
I0702 01:17:40.891854  6784 net.cpp:165] Memory required for data: 2185714416
I0702 01:17:40.891856  6784 layer_factory.hpp:77] Creating layer detection_loss_1_5x7
I0702 01:17:40.891865  6784 net.cpp:100] Creating Layer detection_loss_1_5x7
I0702 01:17:40.891868  6784 net.cpp:434] detection_loss_1_5x7 <- LFCN_1_5x7_LFCN_1_5x7_0_split_0
I0702 01:17:40.891873  6784 net.cpp:434] detection_loss_1_5x7 <- label_1_5x7_data_2_split_0
I0702 01:17:40.891880  6784 net.cpp:408] detection_loss_1_5x7 -> loss_1_5x7
I0702 01:17:40.891890  6784 layer_factory.hpp:77] Creating layer detection_loss_1_5x7
I0702 01:17:40.892889  6784 net.cpp:150] Setting up detection_loss_1_5x7
I0702 01:17:40.892899  6784 net.cpp:157] Top shape: 1 1 1 2 (2)
I0702 01:17:40.892901  6784 net.cpp:160]     with loss weight 0.9
I0702 01:17:40.892911  6784 net.cpp:165] Memory required for data: 2185714424
I0702 01:17:40.892915  6784 layer_factory.hpp:77] Creating layer detection_accuracy_1_5x7
I0702 01:17:40.892925  6784 net.cpp:100] Creating Layer detection_accuracy_1_5x7
I0702 01:17:40.892928  6784 net.cpp:434] detection_accuracy_1_5x7 <- LFCN_1_5x7_LFCN_1_5x7_0_split_1
I0702 01:17:40.892933  6784 net.cpp:434] detection_accuracy_1_5x7 <- label_1_5x7_data_2_split_1
I0702 01:17:40.892940  6784 net.cpp:408] detection_accuracy_1_5x7 -> accuracy_1_5x7
I0702 01:17:40.892948  6784 net.cpp:408] detection_accuracy_1_5x7 -> boxiou_1_5x7
I0702 01:17:40.892997  6784 net.cpp:150] Setting up detection_accuracy_1_5x7
I0702 01:17:40.893002  6784 net.cpp:157] Top shape: 1 1 1 2 (2)
I0702 01:17:40.893005  6784 net.cpp:157] Top shape: 1 1 1 1 (1)
I0702 01:17:40.893008  6784 net.cpp:165] Memory required for data: 2185714436
I0702 01:17:40.893012  6784 layer_factory.hpp:77] Creating layer pool4
I0702 01:17:40.893018  6784 net.cpp:100] Creating Layer pool4
I0702 01:17:40.893023  6784 net.cpp:434] pool4 <- conv4_3_relu4_3_0_split_1
I0702 01:17:40.893028  6784 net.cpp:408] pool4 -> pool4
I0702 01:17:40.893074  6784 net.cpp:150] Setting up pool4
I0702 01:17:40.893080  6784 net.cpp:157] Top shape: 2 512 36 48 (1769472)
I0702 01:17:40.893082  6784 net.cpp:165] Memory required for data: 2192792324
I0702 01:17:40.893086  6784 layer_factory.hpp:77] Creating layer conv5_1
I0702 01:17:40.893095  6784 net.cpp:100] Creating Layer conv5_1
I0702 01:17:40.893098  6784 net.cpp:434] conv5_1 <- pool4
I0702 01:17:40.893103  6784 net.cpp:408] conv5_1 -> conv5_1
I0702 01:17:40.898885  6784 net.cpp:150] Setting up conv5_1
I0702 01:17:40.898908  6784 net.cpp:157] Top shape: 2 512 36 48 (1769472)
I0702 01:17:40.898911  6784 net.cpp:165] Memory required for data: 2199870212
I0702 01:17:40.898922  6784 layer_factory.hpp:77] Creating layer relu5_1
I0702 01:17:40.898931  6784 net.cpp:100] Creating Layer relu5_1
I0702 01:17:40.898937  6784 net.cpp:434] relu5_1 <- conv5_1
I0702 01:17:40.898946  6784 net.cpp:395] relu5_1 -> conv5_1 (in-place)
I0702 01:17:40.899220  6784 net.cpp:150] Setting up relu5_1
I0702 01:17:40.899229  6784 net.cpp:157] Top shape: 2 512 36 48 (1769472)
I0702 01:17:40.899231  6784 net.cpp:165] Memory required for data: 2206948100
I0702 01:17:40.899235  6784 layer_factory.hpp:77] Creating layer conv5_2
I0702 01:17:40.899245  6784 net.cpp:100] Creating Layer conv5_2
I0702 01:17:40.899250  6784 net.cpp:434] conv5_2 <- conv5_1
I0702 01:17:40.899255  6784 net.cpp:408] conv5_2 -> conv5_2
I0702 01:17:40.906019  6784 net.cpp:150] Setting up conv5_2
I0702 01:17:40.906044  6784 net.cpp:157] Top shape: 2 512 36 48 (1769472)
I0702 01:17:40.906047  6784 net.cpp:165] Memory required for data: 2214025988
I0702 01:17:40.906057  6784 layer_factory.hpp:77] Creating layer relu5_2
I0702 01:17:40.906065  6784 net.cpp:100] Creating Layer relu5_2
I0702 01:17:40.906071  6784 net.cpp:434] relu5_2 <- conv5_2
I0702 01:17:40.906078  6784 net.cpp:395] relu5_2 -> conv5_2 (in-place)
I0702 01:17:40.906456  6784 net.cpp:150] Setting up relu5_2
I0702 01:17:40.906463  6784 net.cpp:157] Top shape: 2 512 36 48 (1769472)
I0702 01:17:40.906467  6784 net.cpp:165] Memory required for data: 2221103876
I0702 01:17:40.906471  6784 layer_factory.hpp:77] Creating layer conv5_3
I0702 01:17:40.906479  6784 net.cpp:100] Creating Layer conv5_3
I0702 01:17:40.906483  6784 net.cpp:434] conv5_3 <- conv5_2
I0702 01:17:40.906491  6784 net.cpp:408] conv5_3 -> conv5_3
I0702 01:17:40.913039  6784 net.cpp:150] Setting up conv5_3
I0702 01:17:40.913061  6784 net.cpp:157] Top shape: 2 512 36 48 (1769472)
I0702 01:17:40.913064  6784 net.cpp:165] Memory required for data: 2228181764
I0702 01:17:40.913071  6784 layer_factory.hpp:77] Creating layer relu5_3
I0702 01:17:40.913084  6784 net.cpp:100] Creating Layer relu5_3
I0702 01:17:40.913087  6784 net.cpp:434] relu5_3 <- conv5_3
I0702 01:17:40.913094  6784 net.cpp:395] relu5_3 -> conv5_3 (in-place)
I0702 01:17:40.913924  6784 net.cpp:150] Setting up relu5_3
I0702 01:17:40.913935  6784 net.cpp:157] Top shape: 2 512 36 48 (1769472)
I0702 01:17:40.913938  6784 net.cpp:165] Memory required for data: 2235259652
I0702 01:17:40.913940  6784 layer_factory.hpp:77] Creating layer conv5_3_relu5_3_0_split
I0702 01:17:40.913947  6784 net.cpp:100] Creating Layer conv5_3_relu5_3_0_split
I0702 01:17:40.913951  6784 net.cpp:434] conv5_3_relu5_3_0_split <- conv5_3
I0702 01:17:40.913960  6784 net.cpp:408] conv5_3_relu5_3_0_split -> conv5_3_relu5_3_0_split_0
I0702 01:17:40.913969  6784 net.cpp:408] conv5_3_relu5_3_0_split -> conv5_3_relu5_3_0_split_1
I0702 01:17:40.913975  6784 net.cpp:408] conv5_3_relu5_3_0_split -> conv5_3_relu5_3_0_split_2
I0702 01:17:40.914062  6784 net.cpp:150] Setting up conv5_3_relu5_3_0_split
I0702 01:17:40.914068  6784 net.cpp:157] Top shape: 2 512 36 48 (1769472)
I0702 01:17:40.914072  6784 net.cpp:157] Top shape: 2 512 36 48 (1769472)
I0702 01:17:40.914077  6784 net.cpp:157] Top shape: 2 512 36 48 (1769472)
I0702 01:17:40.914079  6784 net.cpp:165] Memory required for data: 2256493316
I0702 01:17:40.914083  6784 layer_factory.hpp:77] Creating layer LFCN_2_3x5
I0702 01:17:40.914093  6784 net.cpp:100] Creating Layer LFCN_2_3x5
I0702 01:17:40.914096  6784 net.cpp:434] LFCN_2_3x5 <- conv5_3_relu5_3_0_split_0
I0702 01:17:40.914103  6784 net.cpp:408] LFCN_2_3x5 -> LFCN_2_3x5
I0702 01:17:40.917116  6784 net.cpp:150] Setting up LFCN_2_3x5
I0702 01:17:40.917136  6784 net.cpp:157] Top shape: 2 7 36 48 (24192)
I0702 01:17:40.917138  6784 net.cpp:165] Memory required for data: 2256590084
I0702 01:17:40.917153  6784 layer_factory.hpp:77] Creating layer LFCN_2_3x5_LFCN_2_3x5_0_split
I0702 01:17:40.917162  6784 net.cpp:100] Creating Layer LFCN_2_3x5_LFCN_2_3x5_0_split
I0702 01:17:40.917167  6784 net.cpp:434] LFCN_2_3x5_LFCN_2_3x5_0_split <- LFCN_2_3x5
I0702 01:17:40.917176  6784 net.cpp:408] LFCN_2_3x5_LFCN_2_3x5_0_split -> LFCN_2_3x5_LFCN_2_3x5_0_split_0
I0702 01:17:40.917193  6784 net.cpp:408] LFCN_2_3x5_LFCN_2_3x5_0_split -> LFCN_2_3x5_LFCN_2_3x5_0_split_1
I0702 01:17:40.917201  6784 net.cpp:408] LFCN_2_3x5_LFCN_2_3x5_0_split -> LFCN_2_3x5_LFCN_2_3x5_0_split_2
I0702 01:17:40.917296  6784 net.cpp:150] Setting up LFCN_2_3x5_LFCN_2_3x5_0_split
I0702 01:17:40.917306  6784 net.cpp:157] Top shape: 2 7 36 48 (24192)
I0702 01:17:40.917311  6784 net.cpp:157] Top shape: 2 7 36 48 (24192)
I0702 01:17:40.917315  6784 net.cpp:157] Top shape: 2 7 36 48 (24192)
I0702 01:17:40.917318  6784 net.cpp:165] Memory required for data: 2256880388
I0702 01:17:40.917321  6784 layer_factory.hpp:77] Creating layer detection_loss_2_3x5
I0702 01:17:40.917330  6784 net.cpp:100] Creating Layer detection_loss_2_3x5
I0702 01:17:40.917333  6784 net.cpp:434] detection_loss_2_3x5 <- LFCN_2_3x5_LFCN_2_3x5_0_split_0
I0702 01:17:40.917340  6784 net.cpp:434] detection_loss_2_3x5 <- label_2_3x5_data_3_split_0
I0702 01:17:40.917345  6784 net.cpp:408] detection_loss_2_3x5 -> loss_2_3x5
I0702 01:17:40.917353  6784 layer_factory.hpp:77] Creating layer detection_loss_2_3x5
I0702 01:17:40.918372  6784 net.cpp:150] Setting up detection_loss_2_3x5
I0702 01:17:40.918382  6784 net.cpp:157] Top shape: 1 1 1 2 (2)
I0702 01:17:40.918385  6784 net.cpp:160]     with loss weight 1
I0702 01:17:40.918392  6784 net.cpp:165] Memory required for data: 2256880396
I0702 01:17:40.918396  6784 layer_factory.hpp:77] Creating layer detection_accuracy_2_3x5
I0702 01:17:40.918403  6784 net.cpp:100] Creating Layer detection_accuracy_2_3x5
I0702 01:17:40.918407  6784 net.cpp:434] detection_accuracy_2_3x5 <- LFCN_2_3x5_LFCN_2_3x5_0_split_1
I0702 01:17:40.918413  6784 net.cpp:434] detection_accuracy_2_3x5 <- label_2_3x5_data_3_split_1
I0702 01:17:40.918422  6784 net.cpp:408] detection_accuracy_2_3x5 -> accuracy_2_3x5
I0702 01:17:40.918429  6784 net.cpp:408] detection_accuracy_2_3x5 -> boxiou_2_3x5
I0702 01:17:40.918488  6784 net.cpp:150] Setting up detection_accuracy_2_3x5
I0702 01:17:40.918495  6784 net.cpp:157] Top shape: 1 1 1 2 (2)
I0702 01:17:40.918499  6784 net.cpp:157] Top shape: 1 1 1 1 (1)
I0702 01:17:40.918503  6784 net.cpp:165] Memory required for data: 2256880408
I0702 01:17:40.918505  6784 layer_factory.hpp:77] Creating layer LFCN_2_5x7
I0702 01:17:40.918516  6784 net.cpp:100] Creating Layer LFCN_2_5x7
I0702 01:17:40.918520  6784 net.cpp:434] LFCN_2_5x7 <- conv5_3_relu5_3_0_split_1
I0702 01:17:40.918526  6784 net.cpp:408] LFCN_2_5x7 -> LFCN_2_5x7
I0702 01:17:40.921511  6784 net.cpp:150] Setting up LFCN_2_5x7
I0702 01:17:40.921526  6784 net.cpp:157] Top shape: 2 7 36 48 (24192)
I0702 01:17:40.921528  6784 net.cpp:165] Memory required for data: 2256977176
I0702 01:17:40.921537  6784 layer_factory.hpp:77] Creating layer LFCN_2_5x7_LFCN_2_5x7_0_split
I0702 01:17:40.921546  6784 net.cpp:100] Creating Layer LFCN_2_5x7_LFCN_2_5x7_0_split
I0702 01:17:40.921551  6784 net.cpp:434] LFCN_2_5x7_LFCN_2_5x7_0_split <- LFCN_2_5x7
I0702 01:17:40.921557  6784 net.cpp:408] LFCN_2_5x7_LFCN_2_5x7_0_split -> LFCN_2_5x7_LFCN_2_5x7_0_split_0
I0702 01:17:40.921568  6784 net.cpp:408] LFCN_2_5x7_LFCN_2_5x7_0_split -> LFCN_2_5x7_LFCN_2_5x7_0_split_1
I0702 01:17:40.921574  6784 net.cpp:408] LFCN_2_5x7_LFCN_2_5x7_0_split -> LFCN_2_5x7_LFCN_2_5x7_0_split_2
I0702 01:17:40.921666  6784 net.cpp:150] Setting up LFCN_2_5x7_LFCN_2_5x7_0_split
I0702 01:17:40.921674  6784 net.cpp:157] Top shape: 2 7 36 48 (24192)
I0702 01:17:40.921677  6784 net.cpp:157] Top shape: 2 7 36 48 (24192)
I0702 01:17:40.921681  6784 net.cpp:157] Top shape: 2 7 36 48 (24192)
I0702 01:17:40.921684  6784 net.cpp:165] Memory required for data: 2257267480
I0702 01:17:40.921687  6784 layer_factory.hpp:77] Creating layer detection_loss_2_5x7
I0702 01:17:40.921695  6784 net.cpp:100] Creating Layer detection_loss_2_5x7
I0702 01:17:40.921700  6784 net.cpp:434] detection_loss_2_5x7 <- LFCN_2_5x7_LFCN_2_5x7_0_split_0
I0702 01:17:40.921705  6784 net.cpp:434] detection_loss_2_5x7 <- label_2_5x7_data_4_split_0
I0702 01:17:40.921711  6784 net.cpp:408] detection_loss_2_5x7 -> loss_2_5x7
I0702 01:17:40.921720  6784 layer_factory.hpp:77] Creating layer detection_loss_2_5x7
I0702 01:17:40.922247  6784 net.cpp:150] Setting up detection_loss_2_5x7
I0702 01:17:40.922255  6784 net.cpp:157] Top shape: 1 1 1 2 (2)
I0702 01:17:40.922256  6784 net.cpp:160]     with loss weight 1
I0702 01:17:40.922264  6784 net.cpp:165] Memory required for data: 2257267488
I0702 01:17:40.922267  6784 layer_factory.hpp:77] Creating layer detection_accuracy_2_5x7
I0702 01:17:40.922276  6784 net.cpp:100] Creating Layer detection_accuracy_2_5x7
I0702 01:17:40.922281  6784 net.cpp:434] detection_accuracy_2_5x7 <- LFCN_2_5x7_LFCN_2_5x7_0_split_1
I0702 01:17:40.922286  6784 net.cpp:434] detection_accuracy_2_5x7 <- label_2_5x7_data_4_split_1
I0702 01:17:40.922292  6784 net.cpp:408] detection_accuracy_2_5x7 -> accuracy_2_5x7
I0702 01:17:40.922300  6784 net.cpp:408] detection_accuracy_2_5x7 -> boxiou_2_5x7
I0702 01:17:40.922356  6784 net.cpp:150] Setting up detection_accuracy_2_5x7
I0702 01:17:40.922364  6784 net.cpp:157] Top shape: 1 1 1 2 (2)
I0702 01:17:40.922369  6784 net.cpp:157] Top shape: 1 1 1 1 (1)
I0702 01:17:40.922370  6784 net.cpp:165] Memory required for data: 2257267500
I0702 01:17:40.922374  6784 layer_factory.hpp:77] Creating layer pool5
I0702 01:17:40.922379  6784 net.cpp:100] Creating Layer pool5
I0702 01:17:40.922384  6784 net.cpp:434] pool5 <- conv5_3_relu5_3_0_split_2
I0702 01:17:40.922389  6784 net.cpp:408] pool5 -> pool5
I0702 01:17:40.922441  6784 net.cpp:150] Setting up pool5
I0702 01:17:40.922447  6784 net.cpp:157] Top shape: 2 512 18 24 (442368)
I0702 01:17:40.922451  6784 net.cpp:165] Memory required for data: 2259036972
I0702 01:17:40.922453  6784 layer_factory.hpp:77] Creating layer conv6_1
I0702 01:17:40.922464  6784 net.cpp:100] Creating Layer conv6_1
I0702 01:17:40.922468  6784 net.cpp:434] conv6_1 <- pool5
I0702 01:17:40.922475  6784 net.cpp:408] conv6_1 -> conv6_1
I0702 01:17:40.943747  6784 net.cpp:150] Setting up conv6_1
I0702 01:17:40.943764  6784 net.cpp:157] Top shape: 2 512 18 24 (442368)
I0702 01:17:40.943766  6784 net.cpp:165] Memory required for data: 2260806444
I0702 01:17:40.943773  6784 layer_factory.hpp:77] Creating layer relu6_1
I0702 01:17:40.943779  6784 net.cpp:100] Creating Layer relu6_1
I0702 01:17:40.943783  6784 net.cpp:434] relu6_1 <- conv6_1
I0702 01:17:40.943789  6784 net.cpp:395] relu6_1 -> conv6_1 (in-place)
I0702 01:17:40.944057  6784 net.cpp:150] Setting up relu6_1
I0702 01:17:40.944063  6784 net.cpp:157] Top shape: 2 512 18 24 (442368)
I0702 01:17:40.944066  6784 net.cpp:165] Memory required for data: 2262575916
I0702 01:17:40.944067  6784 layer_factory.hpp:77] Creating layer conv6_1_relu6_1_0_split
I0702 01:17:40.944072  6784 net.cpp:100] Creating Layer conv6_1_relu6_1_0_split
I0702 01:17:40.944075  6784 net.cpp:434] conv6_1_relu6_1_0_split <- conv6_1
I0702 01:17:40.944079  6784 net.cpp:408] conv6_1_relu6_1_0_split -> conv6_1_relu6_1_0_split_0
I0702 01:17:40.944084  6784 net.cpp:408] conv6_1_relu6_1_0_split -> conv6_1_relu6_1_0_split_1
I0702 01:17:40.944088  6784 net.cpp:408] conv6_1_relu6_1_0_split -> conv6_1_relu6_1_0_split_2
I0702 01:17:40.944147  6784 net.cpp:150] Setting up conv6_1_relu6_1_0_split
I0702 01:17:40.944151  6784 net.cpp:157] Top shape: 2 512 18 24 (442368)
I0702 01:17:40.944154  6784 net.cpp:157] Top shape: 2 512 18 24 (442368)
I0702 01:17:40.944157  6784 net.cpp:157] Top shape: 2 512 18 24 (442368)
I0702 01:17:40.944159  6784 net.cpp:165] Memory required for data: 2267884332
I0702 01:17:40.944162  6784 layer_factory.hpp:77] Creating layer LFCN_3_3x5
I0702 01:17:40.944173  6784 net.cpp:100] Creating Layer LFCN_3_3x5
I0702 01:17:40.944176  6784 net.cpp:434] LFCN_3_3x5 <- conv6_1_relu6_1_0_split_0
I0702 01:17:40.944181  6784 net.cpp:408] LFCN_3_3x5 -> LFCN_3_3x5
I0702 01:17:40.946563  6784 net.cpp:150] Setting up LFCN_3_3x5
I0702 01:17:40.946575  6784 net.cpp:157] Top shape: 2 7 18 24 (6048)
I0702 01:17:40.946578  6784 net.cpp:165] Memory required for data: 2267908524
I0702 01:17:40.946584  6784 layer_factory.hpp:77] Creating layer LFCN_3_3x5_LFCN_3_3x5_0_split
I0702 01:17:40.946597  6784 net.cpp:100] Creating Layer LFCN_3_3x5_LFCN_3_3x5_0_split
I0702 01:17:40.946601  6784 net.cpp:434] LFCN_3_3x5_LFCN_3_3x5_0_split <- LFCN_3_3x5
I0702 01:17:40.946605  6784 net.cpp:408] LFCN_3_3x5_LFCN_3_3x5_0_split -> LFCN_3_3x5_LFCN_3_3x5_0_split_0
I0702 01:17:40.946611  6784 net.cpp:408] LFCN_3_3x5_LFCN_3_3x5_0_split -> LFCN_3_3x5_LFCN_3_3x5_0_split_1
I0702 01:17:40.946616  6784 net.cpp:408] LFCN_3_3x5_LFCN_3_3x5_0_split -> LFCN_3_3x5_LFCN_3_3x5_0_split_2
I0702 01:17:40.946676  6784 net.cpp:150] Setting up LFCN_3_3x5_LFCN_3_3x5_0_split
I0702 01:17:40.946682  6784 net.cpp:157] Top shape: 2 7 18 24 (6048)
I0702 01:17:40.946684  6784 net.cpp:157] Top shape: 2 7 18 24 (6048)
I0702 01:17:40.946688  6784 net.cpp:157] Top shape: 2 7 18 24 (6048)
I0702 01:17:40.946691  6784 net.cpp:165] Memory required for data: 2267981100
I0702 01:17:40.946694  6784 layer_factory.hpp:77] Creating layer detection_loss_3_3x5
I0702 01:17:40.946702  6784 net.cpp:100] Creating Layer detection_loss_3_3x5
I0702 01:17:40.946705  6784 net.cpp:434] detection_loss_3_3x5 <- LFCN_3_3x5_LFCN_3_3x5_0_split_0
I0702 01:17:40.946709  6784 net.cpp:434] detection_loss_3_3x5 <- label_3_3x5_data_5_split_0
I0702 01:17:40.946715  6784 net.cpp:408] detection_loss_3_3x5 -> loss_3_3x5
I0702 01:17:40.946724  6784 layer_factory.hpp:77] Creating layer detection_loss_3_3x5
I0702 01:17:40.947638  6784 net.cpp:150] Setting up detection_loss_3_3x5
I0702 01:17:40.947646  6784 net.cpp:157] Top shape: 1 1 1 2 (2)
I0702 01:17:40.947649  6784 net.cpp:160]     with loss weight 1
I0702 01:17:40.947654  6784 net.cpp:165] Memory required for data: 2267981108
I0702 01:17:40.947656  6784 layer_factory.hpp:77] Creating layer detection_accuracy_3_3x5
I0702 01:17:40.947664  6784 net.cpp:100] Creating Layer detection_accuracy_3_3x5
I0702 01:17:40.947666  6784 net.cpp:434] detection_accuracy_3_3x5 <- LFCN_3_3x5_LFCN_3_3x5_0_split_1
I0702 01:17:40.947669  6784 net.cpp:434] detection_accuracy_3_3x5 <- label_3_3x5_data_5_split_1
I0702 01:17:40.947674  6784 net.cpp:408] detection_accuracy_3_3x5 -> accuracy_3_3x5
I0702 01:17:40.947680  6784 net.cpp:408] detection_accuracy_3_3x5 -> boxiou_3_3x5
I0702 01:17:40.947727  6784 net.cpp:150] Setting up detection_accuracy_3_3x5
I0702 01:17:40.947731  6784 net.cpp:157] Top shape: 1 1 1 2 (2)
I0702 01:17:40.947734  6784 net.cpp:157] Top shape: 1 1 1 1 (1)
I0702 01:17:40.947736  6784 net.cpp:165] Memory required for data: 2267981120
I0702 01:17:40.947739  6784 layer_factory.hpp:77] Creating layer LFCN_3_5x7
I0702 01:17:40.947747  6784 net.cpp:100] Creating Layer LFCN_3_5x7
I0702 01:17:40.947751  6784 net.cpp:434] LFCN_3_5x7 <- conv6_1_relu6_1_0_split_1
I0702 01:17:40.947757  6784 net.cpp:408] LFCN_3_5x7 -> LFCN_3_5x7
I0702 01:17:40.950170  6784 net.cpp:150] Setting up LFCN_3_5x7
I0702 01:17:40.950183  6784 net.cpp:157] Top shape: 2 7 18 24 (6048)
I0702 01:17:40.950186  6784 net.cpp:165] Memory required for data: 2268005312
I0702 01:17:40.950192  6784 layer_factory.hpp:77] Creating layer LFCN_3_5x7_LFCN_3_5x7_0_split
I0702 01:17:40.950204  6784 net.cpp:100] Creating Layer LFCN_3_5x7_LFCN_3_5x7_0_split
I0702 01:17:40.950208  6784 net.cpp:434] LFCN_3_5x7_LFCN_3_5x7_0_split <- LFCN_3_5x7
I0702 01:17:40.950215  6784 net.cpp:408] LFCN_3_5x7_LFCN_3_5x7_0_split -> LFCN_3_5x7_LFCN_3_5x7_0_split_0
I0702 01:17:40.950223  6784 net.cpp:408] LFCN_3_5x7_LFCN_3_5x7_0_split -> LFCN_3_5x7_LFCN_3_5x7_0_split_1
I0702 01:17:40.950229  6784 net.cpp:408] LFCN_3_5x7_LFCN_3_5x7_0_split -> LFCN_3_5x7_LFCN_3_5x7_0_split_2
I0702 01:17:40.950287  6784 net.cpp:150] Setting up LFCN_3_5x7_LFCN_3_5x7_0_split
I0702 01:17:40.950291  6784 net.cpp:157] Top shape: 2 7 18 24 (6048)
I0702 01:17:40.950294  6784 net.cpp:157] Top shape: 2 7 18 24 (6048)
I0702 01:17:40.950299  6784 net.cpp:157] Top shape: 2 7 18 24 (6048)
I0702 01:17:40.950301  6784 net.cpp:165] Memory required for data: 2268077888
I0702 01:17:40.950304  6784 layer_factory.hpp:77] Creating layer detection_loss_3_5x7
I0702 01:17:40.950309  6784 net.cpp:100] Creating Layer detection_loss_3_5x7
I0702 01:17:40.950311  6784 net.cpp:434] detection_loss_3_5x7 <- LFCN_3_5x7_LFCN_3_5x7_0_split_0
I0702 01:17:40.950316  6784 net.cpp:434] detection_loss_3_5x7 <- label_3_5x7_data_6_split_0
I0702 01:17:40.950323  6784 net.cpp:408] detection_loss_3_5x7 -> loss_3_5x7
I0702 01:17:40.950332  6784 layer_factory.hpp:77] Creating layer detection_loss_3_5x7
I0702 01:17:40.950769  6784 net.cpp:150] Setting up detection_loss_3_5x7
I0702 01:17:40.950775  6784 net.cpp:157] Top shape: 1 1 1 2 (2)
I0702 01:17:40.950778  6784 net.cpp:160]     with loss weight 1
I0702 01:17:40.950784  6784 net.cpp:165] Memory required for data: 2268077896
I0702 01:17:40.950786  6784 layer_factory.hpp:77] Creating layer detection_accuracy_3_5x7
I0702 01:17:40.950791  6784 net.cpp:100] Creating Layer detection_accuracy_3_5x7
I0702 01:17:40.950794  6784 net.cpp:434] detection_accuracy_3_5x7 <- LFCN_3_5x7_LFCN_3_5x7_0_split_1
I0702 01:17:40.950798  6784 net.cpp:434] detection_accuracy_3_5x7 <- label_3_5x7_data_6_split_1
I0702 01:17:40.950803  6784 net.cpp:408] detection_accuracy_3_5x7 -> accuracy_3_5x7
I0702 01:17:40.950809  6784 net.cpp:408] detection_accuracy_3_5x7 -> boxiou_3_5x7
I0702 01:17:40.950852  6784 net.cpp:150] Setting up detection_accuracy_3_5x7
I0702 01:17:40.950856  6784 net.cpp:157] Top shape: 1 1 1 2 (2)
I0702 01:17:40.950858  6784 net.cpp:157] Top shape: 1 1 1 1 (1)
I0702 01:17:40.950860  6784 net.cpp:165] Memory required for data: 2268077908
I0702 01:17:40.950863  6784 layer_factory.hpp:77] Creating layer pool6
I0702 01:17:40.950870  6784 net.cpp:100] Creating Layer pool6
I0702 01:17:40.950875  6784 net.cpp:434] pool6 <- conv6_1_relu6_1_0_split_2
I0702 01:17:40.950881  6784 net.cpp:408] pool6 -> pool6
I0702 01:17:40.950918  6784 net.cpp:150] Setting up pool6
I0702 01:17:40.950923  6784 net.cpp:157] Top shape: 2 512 9 12 (110592)
I0702 01:17:40.950924  6784 net.cpp:165] Memory required for data: 2268520276
I0702 01:17:40.950927  6784 layer_factory.hpp:77] Creating layer LFCN_4_3x5
I0702 01:17:40.950938  6784 net.cpp:100] Creating Layer LFCN_4_3x5
I0702 01:17:40.950942  6784 net.cpp:434] LFCN_4_3x5 <- pool6
I0702 01:17:40.950945  6784 net.cpp:408] LFCN_4_3x5 -> LFCN_4_3x5
I0702 01:17:40.953727  6784 net.cpp:150] Setting up LFCN_4_3x5
I0702 01:17:40.953737  6784 net.cpp:157] Top shape: 2 7 9 12 (1512)
I0702 01:17:40.953740  6784 net.cpp:165] Memory required for data: 2268526324
I0702 01:17:40.953748  6784 layer_factory.hpp:77] Creating layer LFCN_4_3x5_LFCN_4_3x5_0_split
I0702 01:17:40.953758  6784 net.cpp:100] Creating Layer LFCN_4_3x5_LFCN_4_3x5_0_split
I0702 01:17:40.953761  6784 net.cpp:434] LFCN_4_3x5_LFCN_4_3x5_0_split <- LFCN_4_3x5
I0702 01:17:40.953768  6784 net.cpp:408] LFCN_4_3x5_LFCN_4_3x5_0_split -> LFCN_4_3x5_LFCN_4_3x5_0_split_0
I0702 01:17:40.953774  6784 net.cpp:408] LFCN_4_3x5_LFCN_4_3x5_0_split -> LFCN_4_3x5_LFCN_4_3x5_0_split_1
I0702 01:17:40.953783  6784 net.cpp:408] LFCN_4_3x5_LFCN_4_3x5_0_split -> LFCN_4_3x5_LFCN_4_3x5_0_split_2
I0702 01:17:40.953847  6784 net.cpp:150] Setting up LFCN_4_3x5_LFCN_4_3x5_0_split
I0702 01:17:40.953851  6784 net.cpp:157] Top shape: 2 7 9 12 (1512)
I0702 01:17:40.953855  6784 net.cpp:157] Top shape: 2 7 9 12 (1512)
I0702 01:17:40.953857  6784 net.cpp:157] Top shape: 2 7 9 12 (1512)
I0702 01:17:40.953860  6784 net.cpp:165] Memory required for data: 2268544468
I0702 01:17:40.953863  6784 layer_factory.hpp:77] Creating layer detection_loss_4_3x5
I0702 01:17:40.953871  6784 net.cpp:100] Creating Layer detection_loss_4_3x5
I0702 01:17:40.953874  6784 net.cpp:434] detection_loss_4_3x5 <- LFCN_4_3x5_LFCN_4_3x5_0_split_0
I0702 01:17:40.953879  6784 net.cpp:434] detection_loss_4_3x5 <- label_4_3x5_data_7_split_0
I0702 01:17:40.953886  6784 net.cpp:408] detection_loss_4_3x5 -> loss_4_3x5
I0702 01:17:40.953892  6784 layer_factory.hpp:77] Creating layer detection_loss_4_3x5
I0702 01:17:40.954350  6784 net.cpp:150] Setting up detection_loss_4_3x5
I0702 01:17:40.954357  6784 net.cpp:157] Top shape: 1 1 1 2 (2)
I0702 01:17:40.954360  6784 net.cpp:160]     with loss weight 1
I0702 01:17:40.954365  6784 net.cpp:165] Memory required for data: 2268544476
I0702 01:17:40.954367  6784 layer_factory.hpp:77] Creating layer detection_accuracy_4_3x5
I0702 01:17:40.954371  6784 net.cpp:100] Creating Layer detection_accuracy_4_3x5
I0702 01:17:40.954375  6784 net.cpp:434] detection_accuracy_4_3x5 <- LFCN_4_3x5_LFCN_4_3x5_0_split_1
I0702 01:17:40.954377  6784 net.cpp:434] detection_accuracy_4_3x5 <- label_4_3x5_data_7_split_1
I0702 01:17:40.954382  6784 net.cpp:408] detection_accuracy_4_3x5 -> accuracy_4_3x5
I0702 01:17:40.954387  6784 net.cpp:408] detection_accuracy_4_3x5 -> boxiou_4_3x5
I0702 01:17:40.954432  6784 net.cpp:150] Setting up detection_accuracy_4_3x5
I0702 01:17:40.954435  6784 net.cpp:157] Top shape: 1 1 1 2 (2)
I0702 01:17:40.954437  6784 net.cpp:157] Top shape: 1 1 1 1 (1)
I0702 01:17:40.954439  6784 net.cpp:165] Memory required for data: 2268544488
I0702 01:17:40.954442  6784 layer_factory.hpp:77] Creating layer proposals
I0702 01:17:40.954450  6784 net.cpp:100] Creating Layer proposals
I0702 01:17:40.954453  6784 net.cpp:434] proposals <- LFCN_1_3x5_LFCN_1_3x5_0_split_2
I0702 01:17:40.954457  6784 net.cpp:434] proposals <- LFCN_1_5x7_LFCN_1_5x7_0_split_2
I0702 01:17:40.954461  6784 net.cpp:434] proposals <- LFCN_2_3x5_LFCN_2_3x5_0_split_2
I0702 01:17:40.954465  6784 net.cpp:434] proposals <- LFCN_2_5x7_LFCN_2_5x7_0_split_2
I0702 01:17:40.954468  6784 net.cpp:434] proposals <- LFCN_3_3x5_LFCN_3_3x5_0_split_2
I0702 01:17:40.954473  6784 net.cpp:434] proposals <- LFCN_3_5x7_LFCN_3_5x7_0_split_2
I0702 01:17:40.954475  6784 net.cpp:434] proposals <- LFCN_4_3x5_LFCN_4_3x5_0_split_2
I0702 01:17:40.954483  6784 net.cpp:408] proposals -> proposals
I0702 01:17:40.954506  6784 net.cpp:150] Setting up proposals
I0702 01:17:40.954511  6784 net.cpp:157] Top shape: 1 5 1 1 (5)
I0702 01:17:40.954512  6784 net.cpp:165] Memory required for data: 2268544508
I0702 01:17:40.954515  6784 layer_factory.hpp:77] Creating layer proposal_info
I0702 01:17:40.954524  6784 net.cpp:100] Creating Layer proposal_info
I0702 01:17:40.954527  6784 net.cpp:434] proposal_info <- proposals
I0702 01:17:40.954530  6784 net.cpp:434] proposal_info <- gt_boxes
I0702 01:17:40.954537  6784 net.cpp:408] proposal_info -> rois
I0702 01:17:40.954545  6784 net.cpp:408] proposal_info -> proposal_labels
I0702 01:17:40.954551  6784 net.cpp:408] proposal_info -> proposal_targets
I0702 01:17:40.954558  6784 net.cpp:408] proposal_info -> box_inside_weights
I0702 01:17:40.954565  6784 net.cpp:408] proposal_info -> box_outside_weights
I0702 01:17:40.954572  6784 net.cpp:408] proposal_info -> match_gt_boxes
I0702 01:17:40.954664  6784 net.cpp:150] Setting up proposal_info
I0702 01:17:40.954668  6784 net.cpp:157] Top shape: 64 5 1 1 (320)
I0702 01:17:40.954671  6784 net.cpp:157] Top shape: 64 1 1 1 (64)
I0702 01:17:40.954674  6784 net.cpp:157] Top shape: 64 12 1 1 (768)
I0702 01:17:40.954679  6784 net.cpp:157] Top shape: 64 12 1 1 (768)
I0702 01:17:40.954681  6784 net.cpp:157] Top shape: 64 12 1 1 (768)
I0702 01:17:40.954685  6784 net.cpp:157] Top shape: 64 6 1 1 (384)
I0702 01:17:40.954689  6784 net.cpp:165] Memory required for data: 2268556796
I0702 01:17:40.954691  6784 layer_factory.hpp:77] Creating layer rois_proposal_info_0_split
I0702 01:17:40.954696  6784 net.cpp:100] Creating Layer rois_proposal_info_0_split
I0702 01:17:40.954699  6784 net.cpp:434] rois_proposal_info_0_split <- rois
I0702 01:17:40.954704  6784 net.cpp:408] rois_proposal_info_0_split -> rois_proposal_info_0_split_0
I0702 01:17:40.954711  6784 net.cpp:408] rois_proposal_info_0_split -> rois_proposal_info_0_split_1
I0702 01:17:40.954720  6784 net.cpp:408] rois_proposal_info_0_split -> rois_proposal_info_0_split_2
I0702 01:17:40.954767  6784 net.cpp:150] Setting up rois_proposal_info_0_split
I0702 01:17:40.954771  6784 net.cpp:157] Top shape: 64 5 1 1 (320)
I0702 01:17:40.954774  6784 net.cpp:157] Top shape: 64 5 1 1 (320)
I0702 01:17:40.954777  6784 net.cpp:157] Top shape: 64 5 1 1 (320)
I0702 01:17:40.954779  6784 net.cpp:165] Memory required for data: 2268560636
I0702 01:17:40.954782  6784 layer_factory.hpp:77] Creating layer proposal_labels_proposal_info_1_split
I0702 01:17:40.954785  6784 net.cpp:100] Creating Layer proposal_labels_proposal_info_1_split
I0702 01:17:40.954788  6784 net.cpp:434] proposal_labels_proposal_info_1_split <- proposal_labels
I0702 01:17:40.954793  6784 net.cpp:408] proposal_labels_proposal_info_1_split -> proposal_labels_proposal_info_1_split_0
I0702 01:17:40.954799  6784 net.cpp:408] proposal_labels_proposal_info_1_split -> proposal_labels_proposal_info_1_split_1
I0702 01:17:40.954836  6784 net.cpp:150] Setting up proposal_labels_proposal_info_1_split
I0702 01:17:40.954839  6784 net.cpp:157] Top shape: 64 1 1 1 (64)
I0702 01:17:40.954843  6784 net.cpp:157] Top shape: 64 1 1 1 (64)
I0702 01:17:40.954844  6784 net.cpp:165] Memory required for data: 2268561148
I0702 01:17:40.954847  6784 layer_factory.hpp:77] Creating layer conv4_3_2x
I0702 01:17:40.954855  6784 net.cpp:100] Creating Layer conv4_3_2x
I0702 01:17:40.954859  6784 net.cpp:434] conv4_3_2x <- conv4_3_relu4_3_0_split_2
I0702 01:17:40.954864  6784 net.cpp:408] conv4_3_2x -> conv4_3_2x
I0702 01:17:40.955261  6784 net.cpp:150] Setting up conv4_3_2x
I0702 01:17:40.955266  6784 net.cpp:157] Top shape: 2 512 144 192 (28311552)
I0702 01:17:40.955269  6784 net.cpp:165] Memory required for data: 2381807356
I0702 01:17:40.955274  6784 layer_factory.hpp:77] Creating layer conv4_3_2x_conv4_3_2x_0_split
I0702 01:17:40.955278  6784 net.cpp:100] Creating Layer conv4_3_2x_conv4_3_2x_0_split
I0702 01:17:40.955282  6784 net.cpp:434] conv4_3_2x_conv4_3_2x_0_split <- conv4_3_2x
I0702 01:17:40.955291  6784 net.cpp:408] conv4_3_2x_conv4_3_2x_0_split -> conv4_3_2x_conv4_3_2x_0_split_0
I0702 01:17:40.955296  6784 net.cpp:408] conv4_3_2x_conv4_3_2x_0_split -> conv4_3_2x_conv4_3_2x_0_split_1
I0702 01:17:40.955332  6784 net.cpp:150] Setting up conv4_3_2x_conv4_3_2x_0_split
I0702 01:17:40.955337  6784 net.cpp:157] Top shape: 2 512 144 192 (28311552)
I0702 01:17:40.955339  6784 net.cpp:157] Top shape: 2 512 144 192 (28311552)
I0702 01:17:40.955341  6784 net.cpp:165] Memory required for data: 2608299772
I0702 01:17:40.955344  6784 layer_factory.hpp:77] Creating layer roi_pool_org
I0702 01:17:40.955351  6784 net.cpp:100] Creating Layer roi_pool_org
I0702 01:17:40.955355  6784 net.cpp:434] roi_pool_org <- conv4_3_2x_conv4_3_2x_0_split_0
I0702 01:17:40.955358  6784 net.cpp:434] roi_pool_org <- rois_proposal_info_0_split_0
I0702 01:17:40.955364  6784 net.cpp:408] roi_pool_org -> roi_pool_org
I0702 01:17:40.955371  6784 roi_pooling_layer.cpp:33] Spatial scale: 0.25
I0702 01:17:40.955411  6784 net.cpp:150] Setting up roi_pool_org
I0702 01:17:40.955415  6784 net.cpp:157] Top shape: 64 512 7 5 (1146880)
I0702 01:17:40.955417  6784 net.cpp:165] Memory required for data: 2612887292
I0702 01:17:40.955421  6784 layer_factory.hpp:77] Creating layer roi_pool_ctx
I0702 01:17:40.955427  6784 net.cpp:100] Creating Layer roi_pool_ctx
I0702 01:17:40.955430  6784 net.cpp:434] roi_pool_ctx <- conv4_3_2x_conv4_3_2x_0_split_1
I0702 01:17:40.955435  6784 net.cpp:434] roi_pool_ctx <- rois_proposal_info_0_split_1
I0702 01:17:40.955440  6784 net.cpp:408] roi_pool_ctx -> roi_pool_ctx
I0702 01:17:40.955446  6784 roi_pooling_layer.cpp:33] Spatial scale: 0.25
I0702 01:17:40.955483  6784 net.cpp:150] Setting up roi_pool_ctx
I0702 01:17:40.955487  6784 net.cpp:157] Top shape: 64 512 7 5 (1146880)
I0702 01:17:40.955489  6784 net.cpp:165] Memory required for data: 2617474812
I0702 01:17:40.955492  6784 layer_factory.hpp:77] Creating layer roi_pool
I0702 01:17:40.955497  6784 net.cpp:100] Creating Layer roi_pool
I0702 01:17:40.955499  6784 net.cpp:434] roi_pool <- roi_pool_org
I0702 01:17:40.955503  6784 net.cpp:434] roi_pool <- roi_pool_ctx
I0702 01:17:40.955510  6784 net.cpp:408] roi_pool -> roi_pool
I0702 01:17:40.955533  6784 net.cpp:150] Setting up roi_pool
I0702 01:17:40.955538  6784 net.cpp:157] Top shape: 64 1024 7 5 (2293760)
I0702 01:17:40.955540  6784 net.cpp:165] Memory required for data: 2626649852
I0702 01:17:40.955543  6784 layer_factory.hpp:77] Creating layer roi_c1
I0702 01:17:40.955552  6784 net.cpp:100] Creating Layer roi_c1
I0702 01:17:40.955554  6784 net.cpp:434] roi_c1 <- roi_pool
I0702 01:17:40.955559  6784 net.cpp:408] roi_c1 -> roi_c1
I0702 01:17:40.993969  6784 net.cpp:150] Setting up roi_c1
I0702 01:17:40.993988  6784 net.cpp:157] Top shape: 64 512 5 3 (491520)
I0702 01:17:40.993990  6784 net.cpp:165] Memory required for data: 2628615932
I0702 01:17:40.994000  6784 layer_factory.hpp:77] Creating layer roi_c1_relu
I0702 01:17:40.994011  6784 net.cpp:100] Creating Layer roi_c1_relu
I0702 01:17:40.994017  6784 net.cpp:434] roi_c1_relu <- roi_c1
I0702 01:17:40.994022  6784 net.cpp:395] roi_c1_relu -> roi_c1 (in-place)
I0702 01:17:40.994760  6784 net.cpp:150] Setting up roi_c1_relu
I0702 01:17:40.994768  6784 net.cpp:157] Top shape: 64 512 5 3 (491520)
I0702 01:17:40.994771  6784 net.cpp:165] Memory required for data: 2630582012
I0702 01:17:40.994773  6784 layer_factory.hpp:77] Creating layer fc6
I0702 01:17:40.994781  6784 net.cpp:100] Creating Layer fc6
I0702 01:17:40.994782  6784 net.cpp:434] fc6 <- roi_c1
I0702 01:17:40.994787  6784 net.cpp:408] fc6 -> fc6
I0702 01:17:41.116371  6784 net.cpp:150] Setting up fc6
I0702 01:17:41.116392  6784 net.cpp:157] Top shape: 64 2048 (131072)
I0702 01:17:41.116394  6784 net.cpp:165] Memory required for data: 2631106300
I0702 01:17:41.116401  6784 layer_factory.hpp:77] Creating layer relu6
I0702 01:17:41.116410  6784 net.cpp:100] Creating Layer relu6
I0702 01:17:41.116413  6784 net.cpp:434] relu6 <- fc6
I0702 01:17:41.116418  6784 net.cpp:395] relu6 -> fc6 (in-place)
I0702 01:17:41.116785  6784 net.cpp:150] Setting up relu6
I0702 01:17:41.116791  6784 net.cpp:157] Top shape: 64 2048 (131072)
I0702 01:17:41.116793  6784 net.cpp:165] Memory required for data: 2631630588
I0702 01:17:41.116796  6784 layer_factory.hpp:77] Creating layer drop6
I0702 01:17:41.116801  6784 net.cpp:100] Creating Layer drop6
I0702 01:17:41.116803  6784 net.cpp:434] drop6 <- fc6
I0702 01:17:41.116806  6784 net.cpp:395] drop6 -> fc6 (in-place)
I0702 01:17:41.116834  6784 net.cpp:150] Setting up drop6
I0702 01:17:41.116839  6784 net.cpp:157] Top shape: 64 2048 (131072)
I0702 01:17:41.116842  6784 net.cpp:165] Memory required for data: 2632154876
I0702 01:17:41.116843  6784 layer_factory.hpp:77] Creating layer fc6_drop6_0_split
I0702 01:17:41.116848  6784 net.cpp:100] Creating Layer fc6_drop6_0_split
I0702 01:17:41.116852  6784 net.cpp:434] fc6_drop6_0_split <- fc6
I0702 01:17:41.116858  6784 net.cpp:408] fc6_drop6_0_split -> fc6_drop6_0_split_0
I0702 01:17:41.116865  6784 net.cpp:408] fc6_drop6_0_split -> fc6_drop6_0_split_1
I0702 01:17:41.116909  6784 net.cpp:150] Setting up fc6_drop6_0_split
I0702 01:17:41.116914  6784 net.cpp:157] Top shape: 64 2048 (131072)
I0702 01:17:41.116915  6784 net.cpp:157] Top shape: 64 2048 (131072)
I0702 01:17:41.116917  6784 net.cpp:165] Memory required for data: 2633203452
I0702 01:17:41.116920  6784 layer_factory.hpp:77] Creating layer cls_pred
I0702 01:17:41.116928  6784 net.cpp:100] Creating Layer cls_pred
I0702 01:17:41.116931  6784 net.cpp:434] cls_pred <- fc6_drop6_0_split_0
I0702 01:17:41.116936  6784 net.cpp:408] cls_pred -> cls_pred
I0702 01:17:41.117102  6784 net.cpp:150] Setting up cls_pred
I0702 01:17:41.117106  6784 net.cpp:157] Top shape: 64 3 (192)
I0702 01:17:41.117108  6784 net.cpp:165] Memory required for data: 2633204220
I0702 01:17:41.117112  6784 layer_factory.hpp:77] Creating layer cls_pred_cls_pred_0_split
I0702 01:17:41.117116  6784 net.cpp:100] Creating Layer cls_pred_cls_pred_0_split
I0702 01:17:41.117120  6784 net.cpp:434] cls_pred_cls_pred_0_split <- cls_pred
I0702 01:17:41.117122  6784 net.cpp:408] cls_pred_cls_pred_0_split -> cls_pred_cls_pred_0_split_0
I0702 01:17:41.117126  6784 net.cpp:408] cls_pred_cls_pred_0_split -> cls_pred_cls_pred_0_split_1
I0702 01:17:41.117187  6784 net.cpp:150] Setting up cls_pred_cls_pred_0_split
I0702 01:17:41.117194  6784 net.cpp:157] Top shape: 64 3 (192)
I0702 01:17:41.117199  6784 net.cpp:157] Top shape: 64 3 (192)
I0702 01:17:41.117202  6784 net.cpp:165] Memory required for data: 2633205756
I0702 01:17:41.117204  6784 layer_factory.hpp:77] Creating layer bbox_pred
I0702 01:17:41.117210  6784 net.cpp:100] Creating Layer bbox_pred
I0702 01:17:41.117213  6784 net.cpp:434] bbox_pred <- fc6_drop6_0_split_1
I0702 01:17:41.117219  6784 net.cpp:408] bbox_pred -> bbox_pred
I0702 01:17:41.117564  6784 net.cpp:150] Setting up bbox_pred
I0702 01:17:41.117570  6784 net.cpp:157] Top shape: 64 12 (768)
I0702 01:17:41.117573  6784 net.cpp:165] Memory required for data: 2633208828
I0702 01:17:41.117576  6784 layer_factory.hpp:77] Creating layer bbox_pred_bbox_pred_0_split
I0702 01:17:41.117579  6784 net.cpp:100] Creating Layer bbox_pred_bbox_pred_0_split
I0702 01:17:41.117581  6784 net.cpp:434] bbox_pred_bbox_pred_0_split <- bbox_pred
I0702 01:17:41.117585  6784 net.cpp:408] bbox_pred_bbox_pred_0_split -> bbox_pred_bbox_pred_0_split_0
I0702 01:17:41.117590  6784 net.cpp:408] bbox_pred_bbox_pred_0_split -> bbox_pred_bbox_pred_0_split_1
I0702 01:17:41.117631  6784 net.cpp:150] Setting up bbox_pred_bbox_pred_0_split
I0702 01:17:41.117637  6784 net.cpp:157] Top shape: 64 12 (768)
I0702 01:17:41.117641  6784 net.cpp:157] Top shape: 64 12 (768)
I0702 01:17:41.117643  6784 net.cpp:165] Memory required for data: 2633214972
I0702 01:17:41.117646  6784 layer_factory.hpp:77] Creating layer loss_cls
I0702 01:17:41.117655  6784 net.cpp:100] Creating Layer loss_cls
I0702 01:17:41.117657  6784 net.cpp:434] loss_cls <- cls_pred_cls_pred_0_split_0
I0702 01:17:41.117662  6784 net.cpp:434] loss_cls <- proposal_labels_proposal_info_1_split_0
…
