…
    downsample_rate: 16
    downsample_rate: 32
    downsample_rate: 32
    downsample_rate: 64
    coord_num: 4
    field_h: 60
    field_h: 84
    field_h: 120
    field_h: 168
    field_h: 240
    field_h: 336
    field_h: 480
    field_w: 60
    field_w: 84
    field_w: 120
    field_w: 168
    field_w: 240
    field_w: 336
    field_w: 480
    fg_threshold: 0.5
    resize_width: 1920
    resize_height: 576
    crop_width: 768
    crop_height: 576
    do_multiple_scale: true
    min_scale: 60
    max_scale: 480
    min_gt_height: 35
    shuffle: true
  }
}
layer {
  name: "conv1_1"
  type: "Convolution"
  bottom: "data"
  top: "conv1_1"
  convolution_param {
    num_output: 64
    pad: 1
    kernel_size: 3
  }
}
layer {
  name: "relu1_1"
  type: "ReLU"
  bottom: "conv1_1"
  top: "conv1_1"
}
layer {
  name: "conv1_2"
  type: "Convolution"
  bottom: "conv1_1"
  top: "conv1_2"
  convolution_param {
    num_output: 64
    pad: 1
    kernel_size: 3
  }
}
layer {
  name: "relu1_2"
  type: "ReLU"
  bottom: "conv1_2"
  top: "conv1_2"
}
layer {
  name: "pool1"
  type: "Pooling"
  bottom: "conv1_2"
  top: "pool1"
  pooling_param {
    pool: MAX
    kernel_size: 2
    stride: 2
  }
}
layer {
  name: "conv2_1"
  type: "Convolution"
  bottom: "pool1"
  top: "conv2_1"
  convolution_param {
    num_output: 128
    pad: 1
    kernel_size: 3
  }
}
layer {
  name: "relu2_1"
  type: "ReLU"
  bottom: "conv2_1"
  top: "conv2_1"
}
layer {
  name: "conv2_2"
  type: "Convolution"
  bottom: "conv2_1"
  top: "conv2_2"
  convolution_param {
    num_output: 128
    pad: 1
    kernel_size: 3
  }
}
layer {
  name: "relu2_2"
  type: "ReLU"
  bottom: "conv2_2"
  top: "conv2_2"
}
layer {
  name: "pool2"
  type: "Pooling"
  bottom: "conv2_2"
  top: "pool2"
  pooling_param {
    pool: MAX
    kernel_size: 2
    stride: 2
  }
}
layer {
  name: "conv3_1"
  type: "Convolution"
  bottom: "pool2"
  top: "conv3_1"
  convolution_param {
    num_output: 256
    pad: 1
    kernel_size: 3
  }
}
layer {
  name: "relu3_1"
  type: "ReLU"
  bottom: "conv3_1"
  top: "conv3_1"
}
layer {
  name: "conv3_2"
  type: "Convolution"
  bottom: "conv3_1"
  top: "conv3_2"
  convolution_param {
    num_output: 256
    pad: 1
    kernel_size: 3
  }
}
layer {
  name: "relu3_2"
  type: "ReLU"
  bottom: "conv3_2"
  top: "conv3_2"
}
layer {
  name: "conv3_3"
  type: "Convolution"
  bottom: "conv3_2"
  top: "conv3_3"
  convolution_param {
    num_output: 256
    pad: 1
    kernel_size: 3
  }
}
layer {
  name: "relu3_3"
  type: "ReLU"
  bottom: "conv3_3"
  top: "conv3_3"
}
layer {
  name: "pool3"
  type: "Pooling"
  bottom: "conv3_3"
  top: "pool3"
  pooling_param {
    pool: MAX
    kernel_size: 2
    stride: 2
  }
}
layer {
  name: "conv4_1"
  type: "Convolution"
  bottom: "pool3"
  top: "conv4_1"
  convolution_param {
    num_output: 512
    pad: 1
    kernel_size: 3
  }
}
layer {
  name: "relu4_1"
  type: "ReLU"
  bottom: "conv4_1"
  top: "conv4_1"
}
layer {
  name: "conv4_2"
  type: "Convolution"
  bottom: "conv4_1"
  top: "conv4_2"
  convolution_param {
    num_output: 512
    pad: 1
    kernel_size: 3
  }
}
layer {
  name: "relu4_2"
  type: "ReLU"
  bottom: "conv4_2"
  top: "conv4_2"
}
layer {
  name: "conv4_3"
  type: "Convolution"
  bottom: "conv4_2"
  top: "conv4_3"
  convolution_param {
    num_output: 512
    pad: 1
    kernel_size: 3
  }
}
layer {
  name: "relu4_3"
  type: "ReLU"
  bottom: "conv4_3"
  top: "conv4_3"
}
layer {
  name: "loss1_conv1"
  type: "Convolution"
  bottom: "conv4_3"
  top: "loss1_conv1"
  param {
    lr_mult: 1
    decay_mult: 1
  }
  param {
    lr_mult: 2
    decay_mult: 0
  }
  convolution_param {
    num_output: 512
    pad: 1
    kernel_size: 3
    weight_filler {
      type: "gaussian"
      std: 0.01
    }
    bias_filler {
      type: "constant"
    }
  }
}
layer {
  name: "loss_relu1"
  type: "ReLU"
  bottom: "loss1_conv1"
  top: "loss1_conv1"
}
layer {
  name: "LFCN_1_5x5"
  type: "Convolution"
  bottom: "loss1_conv1"
  top: "LFCN_1_5x5"
  param {
    lr_mult: 1
    decay_mult: 1
  }
  param {
    lr_mult: 2
    decay_mult: 0
  }
  convolution_param {
    num_output: 9
    pad: 2
    kernel_size: 5
    weight_filler {
      type: "gaussian"
      std: 0.001
    }
    bias_filler {
      type: "constant"
    }
  }
}
layer {
  name: "detection_loss_1_5x5"
  type: "DetectionLoss"
  bottom: "LFCN_1_5x5"
  bottom: "label_1_5x5"
  top: "loss_1_5x5"
  loss_weight: 0.9
  detection_loss_param {
    cls_num: 5
    coord_num: 4
    lambda: 0.05
    field_h: 60
    field_w: 60
    downsample_rate: 8
    bb_smooth: true
    field_whr: 2
    field_xyr: 2
    bg_threshold: 0.2
    bg_multiple: 2
    sample_mode: "random"
    pos_neg_weighted: true
  }
}
layer {
  name: "detection_accuracy_1_5x5"
  type: "DetectionAccuracy"
  bottom: "LFCN_1_5x5"
  bottom: "label_1_5x5"
  top: "accuracy_1_5x5"
  top: "boxiou_1_5x5"
  detection_accuracy_param {
    cls_num: 5
    coord_num: 4
    field_h: 60
    field_w: 60
    downsample_rate: 8
    field_whr: 2
    field_xyr: 2
  }
}
layer {
  name: "LFCN_1_7x7"
  type: "Convolution"
  bottom: "loss1_conv1"
  top: "LFCN_1_7x7"
  param {
    lr_mult: 1
    decay_mult: 1
  }
  param {
    lr_mult: 2
    decay_mult: 0
  }
  convolution_param {
    num_output: 9
    pad: 3
    kernel_size: 7
    weight_filler {
      type: "gaussian"
      std: 0.001
    }
    bias_filler {
      type: "constant"
    }
  }
}
layer {
  name: "detection_loss_1_7x7"
  type: "DetectionLoss"
  bottom: "LFCN_1_7x7"
  bottom: "label_1_7x7"
  top: "loss_1_7x7"
  loss_weight: 0.9
  detection_loss_param {
    cls_num: 5
    coord_num: 4
    lambda: 0.05
    field_h: 84
    field_w: 84
    downsample_rate: 8
    bb_smooth: true
    field_whr: 2
    field_xyr: 2
    bg_threshold: 0.2
    bg_multiple: 2
    sample_mode: "random"
    pos_neg_weighted: true
  }
}
layer {
  name: "detection_accuracy_1_7x7"
  type: "DetectionAccuracy"
  bottom: "LFCN_1_7x7"
  bottom: "label_1_7x7"
  top: "accuracy_1_7x7"
  top: "boxiou_1_7x7"
  detection_accuracy_param {
    cls_num: 5
    coord_num: 4
    field_h: 84
    field_w: 84
    downsample_rate: 8
    field_whr: 2
    field_xyr: 2
  }
}
layer {
  name: "pool4"
  type: "Pooling"
  bottom: "conv4_3"
  top: "pool4"
  pooling_param {
    pool: MAX
    kernel_size: 2
    stride: 2
  }
}
layer {
  name: "conv5_1"
  type: "Convolution"
  bottom: "pool4"
  top: "conv5_1"
  convolution_param {
    num_output: 512
    pad: 1
    kernel_size: 3
  }
}
layer {
  name: "relu5_1"
  type: "ReLU"
  bottom: "conv5_1"
  top: "conv5_1"
}
layer {
  name: "conv5_2"
  type: "Convolution"
  bottom: "conv5_1"
  top: "conv5_2"
  convolution_param {
    num_output: 512
    pad: 1
    kernel_size: 3
  }
}
layer {
  name: "relu5_2"
  type: "ReLU"
  bottom: "conv5_2"
  top: "conv5_2"
}
layer {
  name: "conv5_3"
  type: "Convolution"
  bottom: "conv5_2"
  top: "conv5_3"
  convolution_param {
    num_output: 512
    pad: 1
    kernel_size: 3
  }
}
layer {
  name: "relu5_3"
  type: "ReLU"
  bottom: "conv5_3"
  top: "conv5_3"
}
layer {
  name: "LFCN_2_5x5"
  type: "Convolution"
  bottom: "conv5_3"
  top: "LFCN_2_5x5"
  param {
    lr_mult: 1
    decay_mult: 1
  }
  param {
    lr_mult: 2
    decay_mult: 0
  }
  convolution_param {
    num_output: 9
    pad: 2
    kernel_size: 5
    weight_filler {
      type: "gaussian"
      std: 0.001
    }
    bias_filler {
      type: "constant"
    }
  }
}
layer {
  name: "detection_loss_2_5x5"
  type: "DetectionLoss"
  bottom: "LFCN_2_5x5"
  bottom: "label_2_5x5"
  top: "loss_2_5x5"
  detection_loss_param {
    cls_num: 5
    coord_num: 4
    lambda: 0.05
    field_h: 120
    field_w: 120
    downsample_rate: 16
    bb_smooth: true
    field_whr: 2
    field_xyr: 2
    bg_threshold: 0.2
    bg_multiple: 2
    sample_mode: "random"
    pos_neg_weighted: true
  }
}
layer {
  name: "detection_accuracy_2_5x5"
  type: "DetectionAccuracy"
  bottom: "LFCN_2_5x5"
  bottom: "label_2_5x5"
  top: "accuracy_2_5x5"
  top: "boxiou_2_5x5"
  detection_accuracy_param {
    cls_num: 5
    coord_num: 4
    field_h: 120
    field_w: 120
    downsample_rate: 16
    field_whr: 2
    field_xyr: 2
  }
}
layer {
  name: "LFCN_2_7x7"
  type: "Convolution"
  bottom: "conv5_3"
  top: "LFCN_2_7x7"
  param {
    lr_mult: 1
    decay_mult: 1
  }
  param {
    lr_mult: 2
    decay_mult: 0
  }
  convolution_param {
    num_output: 9
    pad: 3
    kernel_size: 7
    weight_filler {
      type: "gaussian"
      std: 0.001
    }
    bias_filler {
      type: "constant"
    }
  }
}
layer {
  name: "detection_loss_2_7x7"
  type: "DetectionLoss"
  bottom: "LFCN_2_7x7"
  bottom: "label_2_7x7"
  top: "loss_2_7x7"
  detection_loss_param {
    cls_num: 5
    coord_num: 4
    lambda: 0.05
    field_h: 168
    field_w: 168
    downsample_rate: 16
    bb_smooth: true
    field_whr: 2
    field_xyr: 2
    bg_threshold: 0.2
    bg_multiple: 2
    sample_mode: "random"
    pos_neg_weighted: true
  }
}
layer {
  name: "detection_accuracy_2_7x7"
  type: "DetectionAccuracy"
  bottom: "LFCN_2_7x7"
  bottom: "label_2_7x7"
  top: "accuracy_2_7x7"
  top: "boxiou_2_7x7"
  detection_accuracy_param {
    cls_num: 5
    coord_num: 4
    field_h: 168
    field_w: 168
    downsample_rate: 16
    field_whr: 2
    field_xyr: 2
  }
}
layer {
  name: "pool5"
  type: "Pooling"
  bottom: "conv5_3"
  top: "pool5"
  pooling_param {
    pool: MAX
    kernel_size: 2
    stride: 2
  }
}
layer {
  name: "conv6_1"
  type: "Convolution"
  bottom: "pool5"
  top: "conv6_1"
  param {
    lr_mult: 1
    decay_mult: 1
  }
  param {
    lr_mult: 2
    decay_mult: 0
  }
  convolution_param {
    num_output: 512
    pad: 1
    kernel_size: 3
    weight_filler {
      type: "gaussian"
      std: 0.01
    }
    bias_filler {
      type: "constant"
    }
  }
}
layer {
  name: "relu6_1"
  type: "ReLU"
  bottom: "conv6_1"
  top: "conv6_1"
}
layer {
  name: "LFCN_3_5x5"
  type: "Convolution"
  bottom: "conv6_1"
  top: "LFCN_3_5x5"
  param {
    lr_mult: 1
    decay_mult: 1
  }
  param {
    lr_mult: 2
    decay_mult: 0
  }
  convolution_param {
    num_output: 9
    pad: 2
    kernel_size: 5
    weight_filler {
      type: "gaussian"
      std: 0.001
    }
    bias_filler {
      type: "constant"
    }
  }
}
layer {
  name: "detection_loss_3_5x5"
  type: "DetectionLoss"
  bottom: "LFCN_3_5x5"
  bottom: "label_3_5x5"
  top: "loss_3_5x5"
  detection_loss_param {
    cls_num: 5
    coord_num: 4
    lambda: 0.05
    field_h: 240
    field_w: 240
    downsample_rate: 32
    bb_smooth: true
    field_whr: 2
    field_xyr: 2
    bg_threshold: 0.2
    bg_multiple: 2
    sample_mode: "random"
    pos_neg_weighted: true
  }
}
layer {
  name: "detection_accuracy_3_5x5"
  type: "DetectionAccuracy"
  bottom: "LFCN_3_5x5"
  bottom: "label_3_5x5"
  top: "accuracy_3_5x5"
  top: "boxiou_3_5x5"
  detection_accuracy_param {
    cls_num: 5
    coord_num: 4
    field_h: 240
    field_w: 240
    downsample_rate: 32
    field_whr: 2
    field_xyr: 2
  }
}
layer {
  name: "LFCN_3_7x7"
  type: "Convolution"
  bottom: "conv6_1"
  top: "LFCN_3_7x7"
  param {
    lr_mult: 1
    decay_mult: 1
  }
  param {
    lr_mult: 2
    decay_mult: 0
  }
  convolution_param {
    num_output: 9
    pad: 3
    kernel_size: 7
    weight_filler {
      type: "gaussian"
      std: 0.001
    }
    bias_filler {
      type: "constant"
    }
  }
}
layer {
  name: "detection_loss_3_7x7"
  type: "DetectionLoss"
  bottom: "LFCN_3_7x7"
  bottom: "label_3_7x7"
  top: "loss_3_7x7"
  detection_loss_param {
    cls_num: 5
    coord_num: 4
    lambda: 0.05
    field_h: 336
    field_w: 336
    downsample_rate: 32
    bb_smooth: true
    field_whr: 2
    field_xyr: 2
    bg_threshold: 0.2
    bg_multiple: 2
    sample_mode: "random"
    pos_neg_weighted: true
  }
}
layer {
  name: "detection_accuracy_3_7x7"
  type: "DetectionAccuracy"
  bottom: "LFCN_3_7x7"
  bottom: "label_3_7x7"
  top: "accuracy_3_7x7"
  top: "boxiou_3_7x7"
  detection_accuracy_param {
    cls_num: 5
    coord_num: 4
    field_h: 336
    field_w: 336
    downsample_rate: 32
    field_whr: 2
    field_xyr: 2
  }
}
layer {
  name: "pool6"
  type: "Pooling"
  bottom: "conv6_1"
  top: "pool6"
  pooling_param {
    pool: MAX
    kernel_size: 2
    stride: 2
  }
}
layer {
  name: "LFCN_4_5x5"
  type: "Convolution"
  bottom: "pool6"
  top: "LFCN_4_5x5"
  param {
    lr_mult: 1
    decay_mult: 1
  }
  param {
    lr_mult: 2
    decay_mult: 0
  }
  convolution_param {
    num_output: 9
    pad: 2
    kernel_size: 5
    weight_filler {
      type: "gaussian"
      std: 0.001
    }
    bias_filler {
      type: "constant"
    }
  }
}
layer {
  name: "detection_loss_4_5x5"
  type: "DetectionLoss"
  bottom: "LFCN_4_5x5"
  bottom: "label_4_5x5"
  top: "loss_4_5x5"
  detection_loss_param {
    cls_num: 5
    coord_num: 4
    lambda: 0.05
    field_h: 480
    field_w: 480
    downsample_rate: 64
    bb_smooth: true
    field_whr: 2
    field_xyr: 2
    bg_threshold: 0.2
    bg_multiple: 2
    sample_mode: "random"
    pos_neg_weighted: true
  }
}
layer {
  name: "detection_accuracy_4_5x5"
  type: "DetectionAccuracy"
  bottom: "LFCN_4_5x5"
  bottom: "label_4_5x5"
  top: "accuracy_4_5x5"
  top: "boxiou_4_5x5"
  detection_accuracy_param {
    cls_num: 5
    coord_num: 4
    field_h: 480
    field_w: 480
    downsample_rate: 64
    field_whr: 2
    field_xyr: 2
  }
}
I1211 13:41:46.002876  2431 layer_factory.hpp:77] Creating layer data
I1211 13:41:46.002902  2431 net.cpp:100] Creating Layer data
I1211 13:41:46.002907  2431 net.cpp:408] data -> data
…
I1211 13:41:46.029418  2431 image_gt_data_layer.cpp:235] output label size 1 : 4,6,72,96
I1211 13:41:46.029450  2431 image_gt_data_layer.cpp:235] output label size 2 : 4,6,36,48
I1211 13:41:46.029479  2431 image_gt_data_layer.cpp:235] output label size 3 : 4,6,36,48
I1211 13:41:46.029510  2431 image_gt_data_layer.cpp:235] output label size 4 : 4,6,18,24
I1211 13:41:46.029541  2431 image_gt_data_layer.cpp:235] output label size 5 : 4,6,18,24
I1211 13:41:46.029572  2431 image_gt_data_layer.cpp:235] output label size 6 : 4,6,9,12
I1211 13:41:46.054877  2431 net.cpp:150] Setting up data
I1211 13:41:46.054895  2431 net.cpp:157] Top shape: 4 3 576 768 (5308416)
I1211 13:41:46.054899  2431 net.cpp:157] Top shape: 4 6 72 96 (165888)
I1211 13:41:46.054903  2431 net.cpp:157] Top shape: 4 6 72 96 (165888)
I1211 13:41:46.054905  2431 net.cpp:157] Top shape: 4 6 36 48 (41472)
I1211 13:41:46.054908  2431 net.cpp:157] Top shape: 4 6 36 48 (41472)
I1211 13:41:46.054911  2431 net.cpp:157] Top shape: 4 6 18 24 (10368)
I1211 13:41:46.054914  2431 net.cpp:157] Top shape: 4 6 18 24 (10368)
I1211 13:41:46.054917  2431 net.cpp:157] Top shape: 4 6 9 12 (2592)
I1211 13:41:46.054919  2431 net.cpp:165] Memory required for data: 22985856
I1211 13:41:46.054926  2431 layer_factory.hpp:77] Creating layer label_1_5x5_data_1_split
I1211 13:41:46.054939  2431 net.cpp:100] Creating Layer label_1_5x5_data_1_split
I1211 13:41:46.054953  2431 net.cpp:434] label_1_5x5_data_1_split <- label_1_5x5
I1211 13:41:46.054970  2431 net.cpp:408] label_1_5x5_data_1_split -> label_1_5x5_data_1_split_0
I1211 13:41:46.054980  2431 net.cpp:408] label_1_5x5_data_1_split -> label_1_5x5_data_1_split_1
I1211 13:41:46.055027  2431 net.cpp:150] Setting up label_1_5x5_data_1_split
I1211 13:41:46.055049  2431 net.cpp:157] Top shape: 4 6 72 96 (165888)
I1211 13:41:46.055060  2431 net.cpp:157] Top shape: 4 6 72 96 (165888)
I1211 13:41:46.055073  2431 net.cpp:165] Memory required for data: 24312960
I1211 13:41:46.055078  2431 layer_factory.hpp:77] Creating layer label_1_7x7_data_2_split
I1211 13:41:46.055084  2431 net.cpp:100] Creating Layer label_1_7x7_data_2_split
I1211 13:41:46.055088  2431 net.cpp:434] label_1_7x7_data_2_split <- label_1_7x7
I1211 13:41:46.055093  2431 net.cpp:408] label_1_7x7_data_2_split -> label_1_7x7_data_2_split_0
I1211 13:41:46.055099  2431 net.cpp:408] label_1_7x7_data_2_split -> label_1_7x7_data_2_split_1
I1211 13:41:46.055132  2431 net.cpp:150] Setting up label_1_7x7_data_2_split
I1211 13:41:46.055138  2431 net.cpp:157] Top shape: 4 6 72 96 (165888)
I1211 13:41:46.055142  2431 net.cpp:157] Top shape: 4 6 72 96 (165888)
I1211 13:41:46.055145  2431 net.cpp:165] Memory required for data: 25640064
I1211 13:41:46.055147  2431 layer_factory.hpp:77] Creating layer label_2_5x5_data_3_split
I1211 13:41:46.055151  2431 net.cpp:100] Creating Layer label_2_5x5_data_3_split
I1211 13:41:46.055155  2431 net.cpp:434] label_2_5x5_data_3_split <- label_2_5x5
I1211 13:41:46.055158  2431 net.cpp:408] label_2_5x5_data_3_split -> label_2_5x5_data_3_split_0
I1211 13:41:46.055164  2431 net.cpp:408] label_2_5x5_data_3_split -> label_2_5x5_data_3_split_1
I1211 13:41:46.055204  2431 net.cpp:150] Setting up label_2_5x5_data_3_split
I1211 13:41:46.055210  2431 net.cpp:157] Top shape: 4 6 36 48 (41472)
I1211 13:41:46.055214  2431 net.cpp:157] Top shape: 4 6 36 48 (41472)
I1211 13:41:46.055217  2431 net.cpp:165] Memory required for data: 25971840
I1211 13:41:46.055218  2431 layer_factory.hpp:77] Creating layer label_2_7x7_data_4_split
I1211 13:41:46.055225  2431 net.cpp:100] Creating Layer label_2_7x7_data_4_split
I1211 13:41:46.055228  2431 net.cpp:434] label_2_7x7_data_4_split <- label_2_7x7
I1211 13:41:46.055233  2431 net.cpp:408] label_2_7x7_data_4_split -> label_2_7x7_data_4_split_0
I1211 13:41:46.055239  2431 net.cpp:408] label_2_7x7_data_4_split -> label_2_7x7_data_4_split_1
I1211 13:41:46.055268  2431 net.cpp:150] Setting up label_2_7x7_data_4_split
I1211 13:41:46.055272  2431 net.cpp:157] Top shape: 4 6 36 48 (41472)
I1211 13:41:46.055275  2431 net.cpp:157] Top shape: 4 6 36 48 (41472)
I1211 13:41:46.055277  2431 net.cpp:165] Memory required for data: 26303616
I1211 13:41:46.055280  2431 layer_factory.hpp:77] Creating layer label_3_5x5_data_5_split
I1211 13:41:46.055285  2431 net.cpp:100] Creating Layer label_3_5x5_data_5_split
I1211 13:41:46.055287  2431 net.cpp:434] label_3_5x5_data_5_split <- label_3_5x5
I1211 13:41:46.055291  2431 net.cpp:408] label_3_5x5_data_5_split -> label_3_5x5_data_5_split_0
I1211 13:41:46.055299  2431 net.cpp:408] label_3_5x5_data_5_split -> label_3_5x5_data_5_split_1
I1211 13:41:46.055328  2431 net.cpp:150] Setting up label_3_5x5_data_5_split
I1211 13:41:46.055333  2431 net.cpp:157] Top shape: 4 6 18 24 (10368)
I1211 13:41:46.055337  2431 net.cpp:157] Top shape: 4 6 18 24 (10368)
I1211 13:41:46.055339  2431 net.cpp:165] Memory required for data: 26386560
I1211 13:41:46.055341  2431 layer_factory.hpp:77] Creating layer label_3_7x7_data_6_split
I1211 13:41:46.055346  2431 net.cpp:100] Creating Layer label_3_7x7_data_6_split
I1211 13:41:46.055348  2431 net.cpp:434] label_3_7x7_data_6_split <- label_3_7x7
I1211 13:41:46.055353  2431 net.cpp:408] label_3_7x7_data_6_split -> label_3_7x7_data_6_split_0
I1211 13:41:46.055358  2431 net.cpp:408] label_3_7x7_data_6_split -> label_3_7x7_data_6_split_1
I1211 13:41:46.055407  2431 net.cpp:150] Setting up label_3_7x7_data_6_split
I1211 13:41:46.055411  2431 net.cpp:157] Top shape: 4 6 18 24 (10368)
I1211 13:41:46.055415  2431 net.cpp:157] Top shape: 4 6 18 24 (10368)
I1211 13:41:46.055418  2431 net.cpp:165] Memory required for data: 26469504
I1211 13:41:46.055419  2431 layer_factory.hpp:77] Creating layer label_4_5x5_data_7_split
I1211 13:41:46.055423  2431 net.cpp:100] Creating Layer label_4_5x5_data_7_split
I1211 13:41:46.055425  2431 net.cpp:434] label_4_5x5_data_7_split <- label_4_5x5
I1211 13:41:46.055429  2431 net.cpp:408] label_4_5x5_data_7_split -> label_4_5x5_data_7_split_0
I1211 13:41:46.055434  2431 net.cpp:408] label_4_5x5_data_7_split -> label_4_5x5_data_7_split_1
I1211 13:41:46.055477  2431 net.cpp:150] Setting up label_4_5x5_data_7_split
I1211 13:41:46.055483  2431 net.cpp:157] Top shape: 4 6 9 12 (2592)
I1211 13:41:46.055486  2431 net.cpp:157] Top shape: 4 6 9 12 (2592)
I1211 13:41:46.055488  2431 net.cpp:165] Memory required for data: 26490240
I1211 13:41:46.055490  2431 layer_factory.hpp:77] Creating layer conv1_1
I1211 13:41:46.055506  2431 net.cpp:100] Creating Layer conv1_1
I1211 13:41:46.055510  2431 net.cpp:434] conv1_1 <- data
I1211 13:41:46.055516  2431 net.cpp:408] conv1_1 -> conv1_1
I1211 13:41:46.556948  2431 net.cpp:150] Setting up conv1_1
I1211 13:41:46.556970  2431 net.cpp:157] Top shape: 4 64 576 768 (113246208)
I1211 13:41:46.556973  2431 net.cpp:165] Memory required for data: 479475072
I1211 13:41:46.556994  2431 layer_factory.hpp:77] Creating layer relu1_1
I1211 13:41:46.557003  2431 net.cpp:100] Creating Layer relu1_1
I1211 13:41:46.557008  2431 net.cpp:434] relu1_1 <- conv1_1
I1211 13:41:46.557015  2431 net.cpp:395] relu1_1 -> conv1_1 (in-place)
I1211 13:41:46.557241  2431 net.cpp:150] Setting up relu1_1
I1211 13:41:46.557250  2431 net.cpp:157] Top shape: 4 64 576 768 (113246208)
I1211 13:41:46.557252  2431 net.cpp:165] Memory required for data: 932459904
I1211 13:41:46.557255  2431 layer_factory.hpp:77] Creating layer conv1_2
I1211 13:41:46.557263  2431 net.cpp:100] Creating Layer conv1_2
I1211 13:41:46.557265  2431 net.cpp:434] conv1_2 <- conv1_1
I1211 13:41:46.557270  2431 net.cpp:408] conv1_2 -> conv1_2
I1211 13:41:46.559530  2431 net.cpp:150] Setting up conv1_2
I1211 13:41:46.559548  2431 net.cpp:157] Top shape: 4 64 576 768 (113246208)
I1211 13:41:46.559551  2431 net.cpp:165] Memory required for data: 1385444736
I1211 13:41:46.559561  2431 layer_factory.hpp:77] Creating layer relu1_2
I1211 13:41:46.559567  2431 net.cpp:100] Creating Layer relu1_2
I1211 13:41:46.559569  2431 net.cpp:434] relu1_2 <- conv1_2
I1211 13:41:46.559573  2431 net.cpp:395] relu1_2 -> conv1_2 (in-place)
I1211 13:41:46.559849  2431 net.cpp:150] Setting up relu1_2
I1211 13:41:46.559856  2431 net.cpp:157] Top shape: 4 64 576 768 (113246208)
I1211 13:41:46.559859  2431 net.cpp:165] Memory required for data: 1838429568
I1211 13:41:46.559861  2431 layer_factory.hpp:77] Creating layer pool1
I1211 13:41:46.559867  2431 net.cpp:100] Creating Layer pool1
I1211 13:41:46.559870  2431 net.cpp:434] pool1 <- conv1_2
I1211 13:41:46.559875  2431 net.cpp:408] pool1 -> pool1
I1211 13:41:46.559947  2431 net.cpp:150] Setting up pool1
I1211 13:41:46.559955  2431 net.cpp:157] Top shape: 4 64 288 384 (28311552)
I1211 13:41:46.559957  2431 net.cpp:165] Memory required for data: 1951675776
I1211 13:41:46.559960  2431 layer_factory.hpp:77] Creating layer conv2_1
I1211 13:41:46.559976  2431 net.cpp:100] Creating Layer conv2_1
I1211 13:41:46.559980  2431 net.cpp:434] conv2_1 <- pool1
I1211 13:41:46.559984  2431 net.cpp:408] conv2_1 -> conv2_1
I1211 13:41:46.562129  2431 net.cpp:150] Setting up conv2_1
I1211 13:41:46.562147  2431 net.cpp:157] Top shape: 4 128 288 384 (56623104)
I1211 13:41:46.562149  2431 net.cpp:165] Memory required for data: 2178168192
I1211 13:41:46.562158  2431 layer_factory.hpp:77] Creating layer relu2_1
I1211 13:41:46.562165  2431 net.cpp:100] Creating Layer relu2_1
I1211 13:41:46.562168  2431 net.cpp:434] relu2_1 <- conv2_1
I1211 13:41:46.562173  2431 net.cpp:395] relu2_1 -> conv2_1 (in-place)
I1211 13:41:46.562799  2431 net.cpp:150] Setting up relu2_1
I1211 13:41:46.562808  2431 net.cpp:157] Top shape: 4 128 288 384 (56623104)
I1211 13:41:46.562810  2431 net.cpp:165] Memory required for data: 2404660608
I1211 13:41:46.562813  2431 layer_factory.hpp:77] Creating layer conv2_2
I1211 13:41:46.562819  2431 net.cpp:100] Creating Layer conv2_2
I1211 13:41:46.562821  2431 net.cpp:434] conv2_2 <- conv2_1
I1211 13:41:46.562824  2431 net.cpp:408] conv2_2 -> conv2_2
I1211 13:41:46.564285  2431 net.cpp:150] Setting up conv2_2
I1211 13:41:46.564301  2431 net.cpp:157] Top shape: 4 128 288 384 (56623104)
I1211 13:41:46.564302  2431 net.cpp:165] Memory required for data: 2631153024
I1211 13:41:46.564308  2431 layer_factory.hpp:77] Creating layer relu2_2
I1211 13:41:46.564316  2431 net.cpp:100] Creating Layer relu2_2
I1211 13:41:46.564319  2431 net.cpp:434] relu2_2 <- conv2_2
I1211 13:41:46.564323  2431 net.cpp:395] relu2_2 -> conv2_2 (in-place)
I1211 13:41:46.564546  2431 net.cpp:150] Setting up relu2_2
I1211 13:41:46.564554  2431 net.cpp:157] Top shape: 4 128 288 384 (56623104)
I1211 13:41:46.564556  2431 net.cpp:165] Memory required for data: 2857645440
I1211 13:41:46.564559  2431 layer_factory.hpp:77] Creating layer pool2
I1211 13:41:46.564565  2431 net.cpp:100] Creating Layer pool2
I1211 13:41:46.564568  2431 net.cpp:434] pool2 <- conv2_2
I1211 13:41:46.564573  2431 net.cpp:408] pool2 -> pool2
I1211 13:41:46.564616  2431 net.cpp:150] Setting up pool2
I1211 13:41:46.564621  2431 net.cpp:157] Top shape: 4 128 144 192 (14155776)
I1211 13:41:46.564623  2431 net.cpp:165] Memory required for data: 2914268544
I1211 13:41:46.564626  2431 layer_factory.hpp:77] Creating layer conv3_1
I1211 13:41:46.564633  2431 net.cpp:100] Creating Layer conv3_1
I1211 13:41:46.564636  2431 net.cpp:434] conv3_1 <- pool2
I1211 13:41:46.564640  2431 net.cpp:408] conv3_1 -> conv3_1
I1211 13:41:46.566998  2431 net.cpp:150] Setting up conv3_1
I1211 13:41:46.567018  2431 net.cpp:157] Top shape: 4 256 144 192 (28311552)
I1211 13:41:46.567018  2431 net.cpp:165] Memory required for data: 3027514752
I1211 13:41:46.567028  2431 layer_factory.hpp:77] Creating layer relu3_1
I1211 13:41:46.567034  2431 net.cpp:100] Creating Layer relu3_1
I1211 13:41:46.567037  2431 net.cpp:434] relu3_1 <- conv3_1
I1211 13:41:46.567041  2431 net.cpp:395] relu3_1 -> conv3_1 (in-place)
I1211 13:41:46.567283  2431 net.cpp:150] Setting up relu3_1
I1211 13:41:46.567292  2431 net.cpp:157] Top shape: 4 256 144 192 (28311552)
I1211 13:41:46.567296  2431 net.cpp:165] Memory required for data: 3140760960
I1211 13:41:46.567298  2431 layer_factory.hpp:77] Creating layer conv3_2
I1211 13:41:46.567306  2431 net.cpp:100] Creating Layer conv3_2
I1211 13:41:46.567309  2431 net.cpp:434] conv3_2 <- conv3_1
I1211 13:41:46.567314  2431 net.cpp:408] conv3_2 -> conv3_2
I1211 13:41:46.569857  2431 net.cpp:150] Setting up conv3_2
I1211 13:41:46.569875  2431 net.cpp:157] Top shape: 4 256 144 192 (28311552)
I1211 13:41:46.569876  2431 net.cpp:165] Memory required for data: 3254007168
I1211 13:41:46.569883  2431 layer_factory.hpp:77] Creating layer relu3_2
I1211 13:41:46.569890  2431 net.cpp:100] Creating Layer relu3_2
I1211 13:41:46.569892  2431 net.cpp:434] relu3_2 <- conv3_2
I1211 13:41:46.569895  2431 net.cpp:395] relu3_2 -> conv3_2 (in-place)
I1211 13:41:46.570468  2431 net.cpp:150] Setting up relu3_2
I1211 13:41:46.570477  2431 net.cpp:157] Top shape: 4 256 144 192 (28311552)
I1211 13:41:46.570478  2431 net.cpp:165] Memory required for data: 3367253376
I1211 13:41:46.570480  2431 layer_factory.hpp:77] Creating layer conv3_3
I1211 13:41:46.570487  2431 net.cpp:100] Creating Layer conv3_3
I1211 13:41:46.570489  2431 net.cpp:434] conv3_3 <- conv3_2
I1211 13:41:46.570493  2431 net.cpp:408] conv3_3 -> conv3_3
I1211 13:41:46.572993  2431 net.cpp:150] Setting up conv3_3
I1211 13:41:46.573014  2431 net.cpp:157] Top shape: 4 256 144 192 (28311552)
I1211 13:41:46.573015  2431 net.cpp:165] Memory required for data: 3480499584
I1211 13:41:46.573021  2431 layer_factory.hpp:77] Creating layer relu3_3
I1211 13:41:46.573029  2431 net.cpp:100] Creating Layer relu3_3
I1211 13:41:46.573030  2431 net.cpp:434] relu3_3 <- conv3_3
I1211 13:41:46.573035  2431 net.cpp:395] relu3_3 -> conv3_3 (in-place)
I1211 13:41:46.573243  2431 net.cpp:150] Setting up relu3_3
I1211 13:41:46.573251  2431 net.cpp:157] Top shape: 4 256 144 192 (28311552)
I1211 13:41:46.573253  2431 net.cpp:165] Memory required for data: 3593745792
I1211 13:41:46.573256  2431 layer_factory.hpp:77] Creating layer pool3
I1211 13:41:46.573262  2431 net.cpp:100] Creating Layer pool3
I1211 13:41:46.573266  2431 net.cpp:434] pool3 <- conv3_3
I1211 13:41:46.573269  2431 net.cpp:408] pool3 -> pool3
I1211 13:41:46.573313  2431 net.cpp:150] Setting up pool3
I1211 13:41:46.573319  2431 net.cpp:157] Top shape: 4 256 72 96 (7077888)
I1211 13:41:46.573321  2431 net.cpp:165] Memory required for data: 3622057344
I1211 13:41:46.573323  2431 layer_factory.hpp:77] Creating layer conv4_1
I1211 13:41:46.573329  2431 net.cpp:100] Creating Layer conv4_1
I1211 13:41:46.573333  2431 net.cpp:434] conv4_1 <- pool3
I1211 13:41:46.573336  2431 net.cpp:408] conv4_1 -> conv4_1
I1211 13:41:46.577585  2431 net.cpp:150] Setting up conv4_1
I1211 13:41:46.577605  2431 net.cpp:157] Top shape: 4 512 72 96 (14155776)
I1211 13:41:46.577607  2431 net.cpp:165] Memory required for data: 3678680448
I1211 13:41:46.577615  2431 layer_factory.hpp:77] Creating layer relu4_1
I1211 13:41:46.577620  2431 net.cpp:100] Creating Layer relu4_1
I1211 13:41:46.577622  2431 net.cpp:434] relu4_1 <- conv4_1
I1211 13:41:46.577626  2431 net.cpp:395] relu4_1 -> conv4_1 (in-place)
I1211 13:41:46.577842  2431 net.cpp:150] Setting up relu4_1
I1211 13:41:46.577850  2431 net.cpp:157] Top shape: 4 512 72 96 (14155776)
I1211 13:41:46.577853  2431 net.cpp:165] Memory required for data: 3735303552
I1211 13:41:46.577857  2431 layer_factory.hpp:77] Creating layer conv4_2
I1211 13:41:46.577863  2431 net.cpp:100] Creating Layer conv4_2
I1211 13:41:46.577867  2431 net.cpp:434] conv4_2 <- conv4_1
I1211 13:41:46.577870  2431 net.cpp:408] conv4_2 -> conv4_2
I1211 13:41:46.582757  2431 net.cpp:150] Setting up conv4_2
I1211 13:41:46.582778  2431 net.cpp:157] Top shape: 4 512 72 96 (14155776)
I1211 13:41:46.582780  2431 net.cpp:165] Memory required for data: 3791926656
I1211 13:41:46.582790  2431 layer_factory.hpp:77] Creating layer relu4_2
I1211 13:41:46.582797  2431 net.cpp:100] Creating Layer relu4_2
I1211 13:41:46.582799  2431 net.cpp:434] relu4_2 <- conv4_2
I1211 13:41:46.582803  2431 net.cpp:395] relu4_2 -> conv4_2 (in-place)
I1211 13:41:46.582996  2431 net.cpp:150] Setting up relu4_2
I1211 13:41:46.583004  2431 net.cpp:157] Top shape: 4 512 72 96 (14155776)
I1211 13:41:46.583007  2431 net.cpp:165] Memory required for data: 3848549760
I1211 13:41:46.583010  2431 layer_factory.hpp:77] Creating layer conv4_3
I1211 13:41:46.583019  2431 net.cpp:100] Creating Layer conv4_3
I1211 13:41:46.583022  2431 net.cpp:434] conv4_3 <- conv4_2
I1211 13:41:46.583026  2431 net.cpp:408] conv4_3 -> conv4_3
I1211 13:41:46.587999  2431 net.cpp:150] Setting up conv4_3
I1211 13:41:46.588018  2431 net.cpp:157] Top shape: 4 512 72 96 (14155776)
I1211 13:41:46.588021  2431 net.cpp:165] Memory required for data: 3905172864
I1211 13:41:46.588028  2431 layer_factory.hpp:77] Creating layer relu4_3
I1211 13:41:46.588038  2431 net.cpp:100] Creating Layer relu4_3
I1211 13:41:46.588043  2431 net.cpp:434] relu4_3 <- conv4_3
I1211 13:41:46.588049  2431 net.cpp:395] relu4_3 -> conv4_3 (in-place)
I1211 13:41:46.588659  2431 net.cpp:150] Setting up relu4_3
I1211 13:41:46.588667  2431 net.cpp:157] Top shape: 4 512 72 96 (14155776)
I1211 13:41:46.588670  2431 net.cpp:165] Memory required for data: 3961795968
I1211 13:41:46.588671  2431 layer_factory.hpp:77] Creating layer conv4_3_relu4_3_0_split
I1211 13:41:46.588675  2431 net.cpp:100] Creating Layer conv4_3_relu4_3_0_split
I1211 13:41:46.588677  2431 net.cpp:434] conv4_3_relu4_3_0_split <- conv4_3
I1211 13:41:46.588681  2431 net.cpp:408] conv4_3_relu4_3_0_split -> conv4_3_relu4_3_0_split_0
I1211 13:41:46.588686  2431 net.cpp:408] conv4_3_relu4_3_0_split -> conv4_3_relu4_3_0_split_1
I1211 13:41:46.588723  2431 net.cpp:150] Setting up conv4_3_relu4_3_0_split
I1211 13:41:46.588752  2431 net.cpp:157] Top shape: 4 512 72 96 (14155776)
I1211 13:41:46.588757  2431 net.cpp:157] Top shape: 4 512 72 96 (14155776)
I1211 13:41:46.588758  2431 net.cpp:165] Memory required for data: 4075042176
I1211 13:41:46.588762  2431 layer_factory.hpp:77] Creating layer loss1_conv1
I1211 13:41:46.588775  2431 net.cpp:100] Creating Layer loss1_conv1
I1211 13:41:46.588779  2431 net.cpp:434] loss1_conv1 <- conv4_3_relu4_3_0_split_0
I1211 13:41:46.588784  2431 net.cpp:408] loss1_conv1 -> loss1_conv1
I1211 13:41:46.622246  2431 net.cpp:150] Setting up loss1_conv1
I1211 13:41:46.622263  2431 net.cpp:157] Top shape: 4 512 72 96 (14155776)
I1211 13:41:46.622265  2431 net.cpp:165] Memory required for data: 4131665280
I1211 13:41:46.622272  2431 layer_factory.hpp:77] Creating layer loss_relu1
I1211 13:41:46.622277  2431 net.cpp:100] Creating Layer loss_relu1
I1211 13:41:46.622279  2431 net.cpp:434] loss_relu1 <- loss1_conv1
I1211 13:41:46.622283  2431 net.cpp:395] loss_relu1 -> loss1_conv1 (in-place)
I1211 13:41:46.622506  2431 net.cpp:150] Setting up loss_relu1
I1211 13:41:46.622514  2431 net.cpp:157] Top shape: 4 512 72 96 (14155776)
I1211 13:41:46.622517  2431 net.cpp:165] Memory required for data: 4188288384
I1211 13:41:46.622520  2431 layer_factory.hpp:77] Creating layer loss1_conv1_loss_relu1_0_split
I1211 13:41:46.622526  2431 net.cpp:100] Creating Layer loss1_conv1_loss_relu1_0_split
I1211 13:41:46.622529  2431 net.cpp:434] loss1_conv1_loss_relu1_0_split <- loss1_conv1
I1211 13:41:46.622534  2431 net.cpp:408] loss1_conv1_loss_relu1_0_split -> loss1_conv1_loss_relu1_0_split_0
I1211 13:41:46.622541  2431 net.cpp:408] loss1_conv1_loss_relu1_0_split -> loss1_conv1_loss_relu1_0_split_1
I1211 13:41:46.622584  2431 net.cpp:150] Setting up loss1_conv1_loss_relu1_0_split
I1211 13:41:46.622589  2431 net.cpp:157] Top shape: 4 512 72 96 (14155776)
I1211 13:41:46.622593  2431 net.cpp:157] Top shape: 4 512 72 96 (14155776)
I1211 13:41:46.622596  2431 net.cpp:165] Memory required for data: 4301534592
I1211 13:41:46.622597  2431 layer_factory.hpp:77] Creating layer LFCN_1_5x5
I1211 13:41:46.622607  2431 net.cpp:100] Creating Layer LFCN_1_5x5
I1211 13:41:46.622609  2431 net.cpp:434] LFCN_1_5x5 <- loss1_conv1_loss_relu1_0_split_0
I1211 13:41:46.622615  2431 net.cpp:408] LFCN_1_5x5 -> LFCN_1_5x5
I1211 13:41:46.624771  2431 net.cpp:150] Setting up LFCN_1_5x5
I1211 13:41:46.624786  2431 net.cpp:157] Top shape: 4 9 72 96 (248832)
I1211 13:41:46.624788  2431 net.cpp:165] Memory required for data: 4302529920
I1211 13:41:46.624794  2431 layer_factory.hpp:77] Creating layer LFCN_1_5x5_LFCN_1_5x5_0_split
I1211 13:41:46.624799  2431 net.cpp:100] Creating Layer LFCN_1_5x5_LFCN_1_5x5_0_split
I1211 13:41:46.624801  2431 net.cpp:434] LFCN_1_5x5_LFCN_1_5x5_0_split <- LFCN_1_5x5
I1211 13:41:46.624806  2431 net.cpp:408] LFCN_1_5x5_LFCN_1_5x5_0_split -> LFCN_1_5x5_LFCN_1_5x5_0_split_0
I1211 13:41:46.624811  2431 net.cpp:408] LFCN_1_5x5_LFCN_1_5x5_0_split -> LFCN_1_5x5_LFCN_1_5x5_0_split_1
I1211 13:41:46.624847  2431 net.cpp:150] Setting up LFCN_1_5x5_LFCN_1_5x5_0_split
I1211 13:41:46.624853  2431 net.cpp:157] Top shape: 4 9 72 96 (248832)
I1211 13:41:46.624856  2431 net.cpp:157] Top shape: 4 9 72 96 (248832)
I1211 13:41:46.624858  2431 net.cpp:165] Memory required for data: 4304520576
I1211 13:41:46.624861  2431 layer_factory.hpp:77] Creating layer detection_loss_1_5x5
I1211 13:41:46.624868  2431 net.cpp:100] Creating Layer detection_loss_1_5x5
I1211 13:41:46.624871  2431 net.cpp:434] detection_loss_1_5x5 <- LFCN_1_5x5_LFCN_1_5x5_0_split_0
I1211 13:41:46.624876  2431 net.cpp:434] detection_loss_1_5x5 <- label_1_5x5_data_1_split_0
I1211 13:41:46.624881  2431 net.cpp:408] detection_loss_1_5x5 -> loss_1_5x5
I1211 13:41:46.624893  2431 layer_factory.hpp:77] Creating layer detection_loss_1_5x5
I1211 13:41:46.625403  2431 net.cpp:150] Setting up detection_loss_1_5x5
I1211 13:41:46.625414  2431 net.cpp:157] Top shape: 1 1 1 2 (2)
I1211 13:41:46.625416  2431 net.cpp:160]     with loss weight 0.9
I1211 13:41:46.625430  2431 net.cpp:165] Memory required for data: 4304520584
I1211 13:41:46.625433  2431 layer_factory.hpp:77] Creating layer detection_accuracy_1_5x5
I1211 13:41:46.625440  2431 net.cpp:100] Creating Layer detection_accuracy_1_5x5
I1211 13:41:46.625444  2431 net.cpp:434] detection_accuracy_1_5x5 <- LFCN_1_5x5_LFCN_1_5x5_0_split_1
I1211 13:41:46.625448  2431 net.cpp:434] detection_accuracy_1_5x5 <- label_1_5x5_data_1_split_1
I1211 13:41:46.625453  2431 net.cpp:408] detection_accuracy_1_5x5 -> accuracy_1_5x5
I1211 13:41:46.625463  2431 net.cpp:408] detection_accuracy_1_5x5 -> boxiou_1_5x5
I1211 13:41:46.625507  2431 net.cpp:150] Setting up detection_accuracy_1_5x5
I1211 13:41:46.625511  2431 net.cpp:157] Top shape: 1 1 1 2 (2)
I1211 13:41:46.625515  2431 net.cpp:157] Top shape: 1 1 1 1 (1)
I1211 13:41:46.625519  2431 net.cpp:165] Memory required for data: 4304520596
I1211 13:41:46.625520  2431 layer_factory.hpp:77] Creating layer LFCN_1_7x7
I1211 13:41:46.625531  2431 net.cpp:100] Creating Layer LFCN_1_7x7
I1211 13:41:46.625535  2431 net.cpp:434] LFCN_1_7x7 <- loss1_conv1_loss_relu1_0_split_1
I1211 13:41:46.625540  2431 net.cpp:408] LFCN_1_7x7 -> LFCN_1_7x7
I1211 13:41:46.629271  2431 net.cpp:150] Setting up LFCN_1_7x7
I1211 13:41:46.629289  2431 net.cpp:157] Top shape: 4 9 72 96 (248832)
I1211 13:41:46.629292  2431 net.cpp:165] Memory required for data: 4305515924
I1211 13:41:46.629298  2431 layer_factory.hpp:77] Creating layer LFCN_1_7x7_LFCN_1_7x7_0_split
I1211 13:41:46.629308  2431 net.cpp:100] Creating Layer LFCN_1_7x7_LFCN_1_7x7_0_split
I1211 13:41:46.629312  2431 net.cpp:434] LFCN_1_7x7_LFCN_1_7x7_0_split <- LFCN_1_7x7
I1211 13:41:46.629318  2431 net.cpp:408] LFCN_1_7x7_LFCN_1_7x7_0_split -> LFCN_1_7x7_LFCN_1_7x7_0_split_0
I1211 13:41:46.629326  2431 net.cpp:408] LFCN_1_7x7_LFCN_1_7x7_0_split -> LFCN_1_7x7_LFCN_1_7x7_0_split_1
I1211 13:41:46.629370  2431 net.cpp:150] Setting up LFCN_1_7x7_LFCN_1_7x7_0_split
I1211 13:41:46.629376  2431 net.cpp:157] Top shape: 4 9 72 96 (248832)
I1211 13:41:46.629379  2431 net.cpp:157] Top shape: 4 9 72 96 (248832)
I1211 13:41:46.629381  2431 net.cpp:165] Memory required for data: 4307506580
I1211 13:41:46.629384  2431 layer_factory.hpp:77] Creating layer detection_loss_1_7x7
I1211 13:41:46.629391  2431 net.cpp:100] Creating Layer detection_loss_1_7x7
I1211 13:41:46.629393  2431 net.cpp:434] detection_loss_1_7x7 <- LFCN_1_7x7_LFCN_1_7x7_0_split_0
I1211 13:41:46.629397  2431 net.cpp:434] detection_loss_1_7x7 <- label_1_7x7_data_2_split_0
I1211 13:41:46.629403  2431 net.cpp:408] detection_loss_1_7x7 -> loss_1_7x7
I1211 13:41:46.629411  2431 layer_factory.hpp:77] Creating layer detection_loss_1_7x7
I1211 13:41:46.630367  2431 net.cpp:150] Setting up detection_loss_1_7x7
I1211 13:41:46.630378  2431 net.cpp:157] Top shape: 1 1 1 2 (2)
I1211 13:41:46.630378  2431 net.cpp:160]     with loss weight 0.9
I1211 13:41:46.630388  2431 net.cpp:165] Memory required for data: 4307506588
I1211 13:41:46.630390  2431 layer_factory.hpp:77] Creating layer detection_accuracy_1_7x7
I1211 13:41:46.630398  2431 net.cpp:100] Creating Layer detection_accuracy_1_7x7
I1211 13:41:46.630403  2431 net.cpp:434] detection_accuracy_1_7x7 <- LFCN_1_7x7_LFCN_1_7x7_0_split_1
I1211 13:41:46.630408  2431 net.cpp:434] detection_accuracy_1_7x7 <- label_1_7x7_data_2_split_1
I1211 13:41:46.630416  2431 net.cpp:408] detection_accuracy_1_7x7 -> accuracy_1_7x7
I1211 13:41:46.630424  2431 net.cpp:408] detection_accuracy_1_7x7 -> boxiou_1_7x7
I1211 13:41:46.630471  2431 net.cpp:150] Setting up detection_accuracy_1_7x7
I1211 13:41:46.630503  2431 net.cpp:157] Top shape: 1 1 1 2 (2)
I1211 13:41:46.630515  2431 net.cpp:157] Top shape: 1 1 1 1 (1)
I1211 13:41:46.630524  2431 net.cpp:165] Memory required for data: 4307506600
I1211 13:41:46.630533  2431 layer_factory.hpp:77] Creating layer pool4
I1211 13:41:46.630545  2431 net.cpp:100] Creating Layer pool4
I1211 13:41:46.630555  2431 net.cpp:434] pool4 <- conv4_3_relu4_3_0_split_1
I1211 13:41:46.630564  2431 net.cpp:408] pool4 -> pool4
I1211 13:41:46.630615  2431 net.cpp:150] Setting up pool4
I1211 13:41:46.630621  2431 net.cpp:157] Top shape: 4 512 36 48 (3538944)
I1211 13:41:46.630625  2431 net.cpp:165] Memory required for data: 4321662376
I1211 13:41:46.630627  2431 layer_factory.hpp:77] Creating layer conv5_1
I1211 13:41:46.630635  2431 net.cpp:100] Creating Layer conv5_1
I1211 13:41:46.630637  2431 net.cpp:434] conv5_1 <- pool4
I1211 13:41:46.630642  2431 net.cpp:408] conv5_1 -> conv5_1
I1211 13:41:46.636651  2431 net.cpp:150] Setting up conv5_1
I1211 13:41:46.636703  2431 net.cpp:157] Top shape: 4 512 36 48 (3538944)
I1211 13:41:46.636715  2431 net.cpp:165] Memory required for data: 4335818152
I1211 13:41:46.636730  2431 layer_factory.hpp:77] Creating layer relu5_1
I1211 13:41:46.636749  2431 net.cpp:100] Creating Layer relu5_1
I1211 13:41:46.636759  2431 net.cpp:434] relu5_1 <- conv5_1
I1211 13:41:46.636773  2431 net.cpp:395] relu5_1 -> conv5_1 (in-place)
I1211 13:41:46.637074  2431 net.cpp:150] Setting up relu5_1
I1211 13:41:46.637095  2431 net.cpp:157] Top shape: 4 512 36 48 (3538944)
I1211 13:41:46.637106  2431 net.cpp:165] Memory required for data: 4349973928
I1211 13:41:46.637115  2431 layer_factory.hpp:77] Creating layer conv5_2
I1211 13:41:46.637130  2431 net.cpp:100] Creating Layer conv5_2
I1211 13:41:46.637140  2431 net.cpp:434] conv5_2 <- conv5_1
I1211 13:41:46.637151  2431 net.cpp:408] conv5_2 -> conv5_2
I1211 13:41:46.642511  2431 net.cpp:150] Setting up conv5_2
I1211 13:41:46.642530  2431 net.cpp:157] Top shape: 4 512 36 48 (3538944)
I1211 13:41:46.642532  2431 net.cpp:165] Memory required for data: 4364129704
I1211 13:41:46.642540  2431 layer_factory.hpp:77] Creating layer relu5_2
I1211 13:41:46.642556  2431 net.cpp:100] Creating Layer relu5_2
I1211 13:41:46.642561  2431 net.cpp:434] relu5_2 <- conv5_2
I1211 13:41:46.642568  2431 net.cpp:395] relu5_2 -> conv5_2 (in-place)
I1211 13:41:46.642762  2431 net.cpp:150] Setting up relu5_2
I1211 13:41:46.642771  2431 net.cpp:157] Top shape: 4 512 36 48 (3538944)
I1211 13:41:46.642772  2431 net.cpp:165] Memory required for data: 4378285480
I1211 13:41:46.642776  2431 layer_factory.hpp:77] Creating layer conv5_3
I1211 13:41:46.642784  2431 net.cpp:100] Creating Layer conv5_3
I1211 13:41:46.642786  2431 net.cpp:434] conv5_3 <- conv5_2
I1211 13:41:46.642791  2431 net.cpp:408] conv5_3 -> conv5_3
I1211 13:41:46.647671  2431 net.cpp:150] Setting up conv5_3
I1211 13:41:46.647692  2431 net.cpp:157] Top shape: 4 512 36 48 (3538944)
I1211 13:41:46.647694  2431 net.cpp:165] Memory required for data: 4392441256
I1211 13:41:46.647701  2431 layer_factory.hpp:77] Creating layer relu5_3
I1211 13:41:46.647706  2431 net.cpp:100] Creating Layer relu5_3
I1211 13:41:46.647708  2431 net.cpp:434] relu5_3 <- conv5_3
I1211 13:41:46.647713  2431 net.cpp:395] relu5_3 -> conv5_3 (in-place)
I1211 13:41:46.648257  2431 net.cpp:150] Setting up relu5_3
I1211 13:41:46.648265  2431 net.cpp:157] Top shape: 4 512 36 48 (3538944)
I1211 13:41:46.648267  2431 net.cpp:165] Memory required for data: 4406597032
I1211 13:41:46.648269  2431 layer_factory.hpp:77] Creating layer conv5_3_relu5_3_0_split
I1211 13:41:46.648273  2431 net.cpp:100] Creating Layer conv5_3_relu5_3_0_split
I1211 13:41:46.648275  2431 net.cpp:434] conv5_3_relu5_3_0_split <- conv5_3
I1211 13:41:46.648280  2431 net.cpp:408] conv5_3_relu5_3_0_split -> conv5_3_relu5_3_0_split_0
I1211 13:41:46.648285  2431 net.cpp:408] conv5_3_relu5_3_0_split -> conv5_3_relu5_3_0_split_1
I1211 13:41:46.648288  2431 net.cpp:408] conv5_3_relu5_3_0_split -> conv5_3_relu5_3_0_split_2
I1211 13:41:46.648337  2431 net.cpp:150] Setting up conv5_3_relu5_3_0_split
I1211 13:41:46.648341  2431 net.cpp:157] Top shape: 4 512 36 48 (3538944)
I1211 13:41:46.648344  2431 net.cpp:157] Top shape: 4 512 36 48 (3538944)
I1211 13:41:46.648346  2431 net.cpp:157] Top shape: 4 512 36 48 (3538944)
I1211 13:41:46.648349  2431 net.cpp:165] Memory required for data: 4449064360
I1211 13:41:46.648350  2431 layer_factory.hpp:77] Creating layer LFCN_2_5x5
I1211 13:41:46.648360  2431 net.cpp:100] Creating Layer LFCN_2_5x5
I1211 13:41:46.648363  2431 net.cpp:434] LFCN_2_5x5 <- conv5_3_relu5_3_0_split_0
I1211 13:41:46.648368  2431 net.cpp:408] LFCN_2_5x5 -> LFCN_2_5x5
I1211 13:41:46.650288  2431 net.cpp:150] Setting up LFCN_2_5x5
I1211 13:41:46.650302  2431 net.cpp:157] Top shape: 4 9 36 48 (62208)
I1211 13:41:46.650303  2431 net.cpp:165] Memory required for data: 4449313192
I1211 13:41:46.650312  2431 layer_factory.hpp:77] Creating layer LFCN_2_5x5_LFCN_2_5x5_0_split
I1211 13:41:46.650317  2431 net.cpp:100] Creating Layer LFCN_2_5x5_LFCN_2_5x5_0_split
I1211 13:41:46.650319  2431 net.cpp:434] LFCN_2_5x5_LFCN_2_5x5_0_split <- LFCN_2_5x5
I1211 13:41:46.650324  2431 net.cpp:408] LFCN_2_5x5_LFCN_2_5x5_0_split -> LFCN_2_5x5_LFCN_2_5x5_0_split_0
I1211 13:41:46.650329  2431 net.cpp:408] LFCN_2_5x5_LFCN_2_5x5_0_split -> LFCN_2_5x5_LFCN_2_5x5_0_split_1
I1211 13:41:46.650367  2431 net.cpp:150] Setting up LFCN_2_5x5_LFCN_2_5x5_0_split
I1211 13:41:46.650370  2431 net.cpp:157] Top shape: 4 9 36 48 (62208)
I1211 13:41:46.650372  2431 net.cpp:157] Top shape: 4 9 36 48 (62208)
I1211 13:41:46.650374  2431 net.cpp:165] Memory required for data: 4449810856
I1211 13:41:46.650377  2431 layer_factory.hpp:77] Creating layer detection_loss_2_5x5
I1211 13:41:46.650384  2431 net.cpp:100] Creating Layer detection_loss_2_5x5
I1211 13:41:46.650388  2431 net.cpp:434] detection_loss_2_5x5 <- LFCN_2_5x5_LFCN_2_5x5_0_split_0
I1211 13:41:46.650389  2431 net.cpp:434] detection_loss_2_5x5 <- label_2_5x5_data_3_split_0
I1211 13:41:46.650394  2431 net.cpp:408] detection_loss_2_5x5 -> loss_2_5x5
I1211 13:41:46.650403  2431 layer_factory.hpp:77] Creating layer detection_loss_2_5x5
I1211 13:41:46.650738  2431 net.cpp:150] Setting up detection_loss_2_5x5
I1211 13:41:46.650743  2431 net.cpp:157] Top shape: 1 1 1 2 (2)
I1211 13:41:46.650745  2431 net.cpp:160]     with loss weight 1
I1211 13:41:46.650753  2431 net.cpp:165] Memory required for data: 4449810864
I1211 13:41:46.650755  2431 layer_factory.hpp:77] Creating layer detection_accuracy_2_5x5
I1211 13:41:46.650761  2431 net.cpp:100] Creating Layer detection_accuracy_2_5x5
I1211 13:41:46.650765  2431 net.cpp:434] detection_accuracy_2_5x5 <- LFCN_2_5x5_LFCN_2_5x5_0_split_1
I1211 13:41:46.650768  2431 net.cpp:434] detection_accuracy_2_5x5 <- label_2_5x5_data_3_split_1
I1211 13:41:46.650774  2431 net.cpp:408] detection_accuracy_2_5x5 -> accuracy_2_5x5
I1211 13:41:46.650780  2431 net.cpp:408] detection_accuracy_2_5x5 -> boxiou_2_5x5
I1211 13:41:46.650821  2431 net.cpp:150] Setting up detection_accuracy_2_5x5
I1211 13:41:46.650825  2431 net.cpp:157] Top shape: 1 1 1 2 (2)
I1211 13:41:46.650828  2431 net.cpp:157] Top shape: 1 1 1 1 (1)
I1211 13:41:46.650830  2431 net.cpp:165] Memory required for data: 4449810876
I1211 13:41:46.650833  2431 layer_factory.hpp:77] Creating layer LFCN_2_7x7
I1211 13:41:46.650841  2431 net.cpp:100] Creating Layer LFCN_2_7x7
I1211 13:41:46.650844  2431 net.cpp:434] LFCN_2_7x7 <- conv5_3_relu5_3_0_split_1
I1211 13:41:46.650849  2431 net.cpp:408] LFCN_2_7x7 -> LFCN_2_7x7
I1211 13:41:46.654381  2431 net.cpp:150] Setting up LFCN_2_7x7
I1211 13:41:46.654400  2431 net.cpp:157] Top shape: 4 9 36 48 (62208)
I1211 13:41:46.654402  2431 net.cpp:165] Memory required for data: 4450059708
I1211 13:41:46.654412  2431 layer_factory.hpp:77] Creating layer LFCN_2_7x7_LFCN_2_7x7_0_split
I1211 13:41:46.654422  2431 net.cpp:100] Creating Layer LFCN_2_7x7_LFCN_2_7x7_0_split
I1211 13:41:46.654450  2431 net.cpp:434] LFCN_2_7x7_LFCN_2_7x7_0_split <- LFCN_2_7x7
I1211 13:41:46.654456  2431 net.cpp:408] LFCN_2_7x7_LFCN_2_7x7_0_split -> LFCN_2_7x7_LFCN_2_7x7_0_split_0
I1211 13:41:46.654465  2431 net.cpp:408] LFCN_2_7x7_LFCN_2_7x7_0_split -> LFCN_2_7x7_LFCN_2_7x7_0_split_1
I1211 13:41:46.654502  2431 net.cpp:150] Setting up LFCN_2_7x7_LFCN_2_7x7_0_split
I1211 13:41:46.654506  2431 net.cpp:157] Top shape: 4 9 36 48 (62208)
I1211 13:41:46.654510  2431 net.cpp:157] Top shape: 4 9 36 48 (62208)
I1211 13:41:46.654511  2431 net.cpp:165] Memory required for data: 4450557372
I1211 13:41:46.654515  2431 layer_factory.hpp:77] Creating layer detection_loss_2_7x7
I1211 13:41:46.654521  2431 net.cpp:100] Creating Layer detection_loss_2_7x7
I1211 13:41:46.654525  2431 net.cpp:434] detection_loss_2_7x7 <- LFCN_2_7x7_LFCN_2_7x7_0_split_0
I1211 13:41:46.654527  2431 net.cpp:434] detection_loss_2_7x7 <- label_2_7x7_data_4_split_0
I1211 13:41:46.654533  2431 net.cpp:408] detection_loss_2_7x7 -> loss_2_7x7
I1211 13:41:46.654541  2431 layer_factory.hpp:77] Creating layer detection_loss_2_7x7
I1211 13:41:46.654899  2431 net.cpp:150] Setting up detection_loss_2_7x7
I1211 13:41:46.654907  2431 net.cpp:157] Top shape: 1 1 1 2 (2)
I1211 13:41:46.654909  2431 net.cpp:160]     with loss weight 1
I1211 13:41:46.654918  2431 net.cpp:165] Memory required for data: 4450557380
I1211 13:41:46.654920  2431 layer_factory.hpp:77] Creating layer detection_accuracy_2_7x7
I1211 13:41:46.654925  2431 net.cpp:100] Creating Layer detection_accuracy_2_7x7
I1211 13:41:46.654928  2431 net.cpp:434] detection_accuracy_2_7x7 <- LFCN_2_7x7_LFCN_2_7x7_0_split_1
I1211 13:41:46.654933  2431 net.cpp:434] detection_accuracy_2_7x7 <- label_2_7x7_data_4_split_1
I1211 13:41:46.654938  2431 net.cpp:408] detection_accuracy_2_7x7 -> accuracy_2_7x7
I1211 13:41:46.654945  2431 net.cpp:408] detection_accuracy_2_7x7 -> boxiou_2_7x7
I1211 13:41:46.654981  2431 net.cpp:150] Setting up detection_accuracy_2_7x7
I1211 13:41:46.654985  2431 net.cpp:157] Top shape: 1 1 1 2 (2)
I1211 13:41:46.654989  2431 net.cpp:157] Top shape: 1 1 1 1 (1)
I1211 13:41:46.654990  2431 net.cpp:165] Memory required for data: 4450557392
I1211 13:41:46.654992  2431 layer_factory.hpp:77] Creating layer pool5
I1211 13:41:46.654997  2431 net.cpp:100] Creating Layer pool5
I1211 13:41:46.655001  2431 net.cpp:434] pool5 <- conv5_3_relu5_3_0_split_2
I1211 13:41:46.655006  2431 net.cpp:408] pool5 -> pool5
I1211 13:41:46.655036  2431 net.cpp:150] Setting up pool5
I1211 13:41:46.655041  2431 net.cpp:157] Top shape: 4 512 18 24 (884736)
I1211 13:41:46.655043  2431 net.cpp:165] Memory required for data: 4454096336
I1211 13:41:46.655045  2431 layer_factory.hpp:77] Creating layer conv6_1
I1211 13:41:46.655055  2431 net.cpp:100] Creating Layer conv6_1
I1211 13:41:46.655056  2431 net.cpp:434] conv6_1 <- pool5
I1211 13:41:46.655061  2431 net.cpp:408] conv6_1 -> conv6_1
I1211 13:41:46.674549  2431 net.cpp:150] Setting up conv6_1
I1211 13:41:46.674567  2431 net.cpp:157] Top shape: 4 512 18 24 (884736)
I1211 13:41:46.674569  2431 net.cpp:165] Memory required for data: 4457635280
I1211 13:41:46.674576  2431 layer_factory.hpp:77] Creating layer relu6_1
I1211 13:41:46.674582  2431 net.cpp:100] Creating Layer relu6_1
I1211 13:41:46.674584  2431 net.cpp:434] relu6_1 <- conv6_1
I1211 13:41:46.674588  2431 net.cpp:395] relu6_1 -> conv6_1 (in-place)
I1211 13:41:46.674765  2431 net.cpp:150] Setting up relu6_1
I1211 13:41:46.674772  2431 net.cpp:157] Top shape: 4 512 18 24 (884736)
I1211 13:41:46.674773  2431 net.cpp:165] Memory required for data: 4461174224
I1211 13:41:46.674774  2431 layer_factory.hpp:77] Creating layer conv6_1_relu6_1_0_split
I1211 13:41:46.674779  2431 net.cpp:100] Creating Layer conv6_1_relu6_1_0_split
I1211 13:41:46.674782  2431 net.cpp:434] conv6_1_relu6_1_0_split <- conv6_1
I1211 13:41:46.674788  2431 net.cpp:408] conv6_1_relu6_1_0_split -> conv6_1_relu6_1_0_split_0
I1211 13:41:46.674794  2431 net.cpp:408] conv6_1_relu6_1_0_split -> conv6_1_relu6_1_0_split_1
I1211 13:41:46.674801  2431 net.cpp:408] conv6_1_relu6_1_0_split -> conv6_1_relu6_1_0_split_2
I1211 13:41:46.674852  2431 net.cpp:150] Setting up conv6_1_relu6_1_0_split
I1211 13:41:46.674859  2431 net.cpp:157] Top shape: 4 512 18 24 (884736)
I1211 13:41:46.674861  2431 net.cpp:157] Top shape: 4 512 18 24 (884736)
I1211 13:41:46.674865  2431 net.cpp:157] Top shape: 4 512 18 24 (884736)
I1211 13:41:46.674866  2431 net.cpp:165] Memory required for data: 4471791056
I1211 13:41:46.674868  2431 layer_factory.hpp:77] Creating layer LFCN_3_5x5
I1211 13:41:46.674881  2431 net.cpp:100] Creating Layer LFCN_3_5x5
I1211 13:41:46.674885  2431 net.cpp:434] LFCN_3_5x5 <- conv6_1_relu6_1_0_split_0
I1211 13:41:46.674891  2431 net.cpp:408] LFCN_3_5x5 -> LFCN_3_5x5
I1211 13:41:46.676875  2431 net.cpp:150] Setting up LFCN_3_5x5
I1211 13:41:46.676890  2431 net.cpp:157] Top shape: 4 9 18 24 (15552)
I1211 13:41:46.676893  2431 net.cpp:165] Memory required for data: 4471853264
I1211 13:41:46.676900  2431 layer_factory.hpp:77] Creating layer LFCN_3_5x5_LFCN_3_5x5_0_split
I1211 13:41:46.676915  2431 net.cpp:100] Creating Layer LFCN_3_5x5_LFCN_3_5x5_0_split
I1211 13:41:46.676921  2431 net.cpp:434] LFCN_3_5x5_LFCN_3_5x5_0_split <- LFCN_3_5x5
I1211 13:41:46.676928  2431 net.cpp:408] LFCN_3_5x5_LFCN_3_5x5_0_split -> LFCN_3_5x5_LFCN_3_5x5_0_split_0
I1211 13:41:46.676936  2431 net.cpp:408] LFCN_3_5x5_LFCN_3_5x5_0_split -> LFCN_3_5x5_LFCN_3_5x5_0_split_1
I1211 13:41:46.676983  2431 net.cpp:150] Setting up LFCN_3_5x5_LFCN_3_5x5_0_split
I1211 13:41:46.676990  2431 net.cpp:157] Top shape: 4 9 18 24 (15552)
I1211 13:41:46.676993  2431 net.cpp:157] Top shape: 4 9 18 24 (15552)
I1211 13:41:46.676995  2431 net.cpp:165] Memory required for data: 4471977680
I1211 13:41:46.676998  2431 layer_factory.hpp:77] Creating layer detection_loss_3_5x5
I1211 13:41:46.677006  2431 net.cpp:100] Creating Layer detection_loss_3_5x5
I1211 13:41:46.677009  2431 net.cpp:434] detection_loss_3_5x5 <- LFCN_3_5x5_LFCN_3_5x5_0_split_0
I1211 13:41:46.677014  2431 net.cpp:434] detection_loss_3_5x5 <- label_3_5x5_data_5_split_0
I1211 13:41:46.677021  2431 net.cpp:408] detection_loss_3_5x5 -> loss_3_5x5
I1211 13:41:46.677028  2431 layer_factory.hpp:77] Creating layer detection_loss_3_5x5
I1211 13:41:46.677724  2431 net.cpp:150] Setting up detection_loss_3_5x5
I1211 13:41:46.677733  2431 net.cpp:157] Top shape: 1 1 1 2 (2)
I1211 13:41:46.677736  2431 net.cpp:160]     with loss weight 1
I1211 13:41:46.677745  2431 net.cpp:165] Memory required for data: 4471977688
I1211 13:41:46.677749  2431 layer_factory.hpp:77] Creating layer detection_accuracy_3_5x5
I1211 13:41:46.677757  2431 net.cpp:100] Creating Layer detection_accuracy_3_5x5
I1211 13:41:46.677762  2431 net.cpp:434] detection_accuracy_3_5x5 <- LFCN_3_5x5_LFCN_3_5x5_0_split_1
I1211 13:41:46.677767  2431 net.cpp:434] detection_accuracy_3_5x5 <- label_3_5x5_data_5_split_1
I1211 13:41:46.677772  2431 net.cpp:408] detection_accuracy_3_5x5 -> accuracy_3_5x5
I1211 13:41:46.677779  2431 net.cpp:408] detection_accuracy_3_5x5 -> boxiou_3_5x5
I1211 13:41:46.677819  2431 net.cpp:150] Setting up detection_accuracy_3_5x5
I1211 13:41:46.677837  2431 net.cpp:157] Top shape: 1 1 1 2 (2)
I1211 13:41:46.677847  2431 net.cpp:157] Top shape: 1 1 1 1 (1)
I1211 13:41:46.677850  2431 net.cpp:165] Memory required for data: 4471977700
I1211 13:41:46.677853  2431 layer_factory.hpp:77] Creating layer LFCN_3_7x7
I1211 13:41:46.677862  2431 net.cpp:100] Creating Layer LFCN_3_7x7
I1211 13:41:46.677866  2431 net.cpp:434] LFCN_3_7x7 <- conv6_1_relu6_1_0_split_1
I1211 13:41:46.677875  2431 net.cpp:408] LFCN_3_7x7 -> LFCN_3_7x7
I1211 13:41:46.681426  2431 net.cpp:150] Setting up LFCN_3_7x7
I1211 13:41:46.681444  2431 net.cpp:157] Top shape: 4 9 18 24 (15552)
I1211 13:41:46.681447  2431 net.cpp:165] Memory required for data: 4472039908
I1211 13:41:46.681454  2431 layer_factory.hpp:77] Creating layer LFCN_3_7x7_LFCN_3_7x7_0_split
I1211 13:41:46.681462  2431 net.cpp:100] Creating Layer LFCN_3_7x7_LFCN_3_7x7_0_split
I1211 13:41:46.681465  2431 net.cpp:434] LFCN_3_7x7_LFCN_3_7x7_0_split <- LFCN_3_7x7
I1211 13:41:46.681474  2431 net.cpp:408] LFCN_3_7x7_LFCN_3_7x7_0_split -> LFCN_3_7x7_LFCN_3_7x7_0_split_0
I1211 13:41:46.681483  2431 net.cpp:408] LFCN_3_7x7_LFCN_3_7x7_0_split -> LFCN_3_7x7_LFCN_3_7x7_0_split_1
I1211 13:41:46.681526  2431 net.cpp:150] Setting up LFCN_3_7x7_LFCN_3_7x7_0_split
I1211 13:41:46.681531  2431 net.cpp:157] Top shape: 4 9 18 24 (15552)
I1211 13:41:46.681535  2431 net.cpp:157] Top shape: 4 9 18 24 (15552)
I1211 13:41:46.681536  2431 net.cpp:165] Memory required for data: 4472164324
I1211 13:41:46.681540  2431 layer_factory.hpp:77] Creating layer detection_loss_3_7x7
I1211 13:41:46.681546  2431 net.cpp:100] Creating Layer detection_loss_3_7x7
I1211 13:41:46.681550  2431 net.cpp:434] detection_loss_3_7x7 <- LFCN_3_7x7_LFCN_3_7x7_0_split_0
I1211 13:41:46.681555  2431 net.cpp:434] detection_loss_3_7x7 <- label_3_7x7_data_6_split_0
I1211 13:41:46.681560  2431 net.cpp:408] detection_loss_3_7x7 -> loss_3_7x7
I1211 13:41:46.681571  2431 layer_factory.hpp:77] Creating layer detection_loss_3_7x7
I1211 13:41:46.681916  2431 net.cpp:150] Setting up detection_loss_3_7x7
I1211 13:41:46.681924  2431 net.cpp:157] Top shape: 1 1 1 2 (2)
I1211 13:41:46.681926  2431 net.cpp:160]     with loss weight 1
I1211 13:41:46.681934  2431 net.cpp:165] Memory required for data: 4472164332
I1211 13:41:46.681937  2431 layer_factory.hpp:77] Creating layer detection_accuracy_3_7x7
I1211 13:41:46.681946  2431 net.cpp:100] Creating Layer detection_accuracy_3_7x7
I1211 13:41:46.681948  2431 net.cpp:434] detection_accuracy_3_7x7 <- LFCN_3_7x7_LFCN_3_7x7_0_split_1
I1211 13:41:46.681952  2431 net.cpp:434] detection_accuracy_3_7x7 <- label_3_7x7_data_6_split_1
I1211 13:41:46.681957  2431 net.cpp:408] detection_accuracy_3_7x7 -> accuracy_3_7x7
I1211 13:41:46.681965  2431 net.cpp:408] detection_accuracy_3_7x7 -> boxiou_3_7x7
I1211 13:41:46.682008  2431 net.cpp:150] Setting up detection_accuracy_3_7x7
I1211 13:41:46.682014  2431 net.cpp:157] Top shape: 1 1 1 2 (2)
I1211 13:41:46.682018  2431 net.cpp:157] Top shape: 1 1 1 1 (1)
I1211 13:41:46.682019  2431 net.cpp:165] Memory required for data: 4472164344
I1211 13:41:46.682021  2431 layer_factory.hpp:77] Creating layer pool6
I1211 13:41:46.682026  2431 net.cpp:100] Creating Layer pool6
I1211 13:41:46.682031  2431 net.cpp:434] pool6 <- conv6_1_relu6_1_0_split_2
I1211 13:41:46.682036  2431 net.cpp:408] pool6 -> pool6
I1211 13:41:46.682071  2431 net.cpp:150] Setting up pool6
I1211 13:41:46.682076  2431 net.cpp:157] Top shape: 4 512 9 12 (221184)
I1211 13:41:46.682078  2431 net.cpp:165] Memory required for data: 4473049080
I1211 13:41:46.682081  2431 layer_factory.hpp:77] Creating layer LFCN_4_5x5
I1211 13:41:46.682090  2431 net.cpp:100] Creating Layer LFCN_4_5x5
I1211 13:41:46.682093  2431 net.cpp:434] LFCN_4_5x5 <- pool6
I1211 13:41:46.682099  2431 net.cpp:408] LFCN_4_5x5 -> LFCN_4_5x5
I1211 13:41:46.684094  2431 net.cpp:150] Setting up LFCN_4_5x5
I1211 13:41:46.684109  2431 net.cpp:157] Top shape: 4 9 9 12 (3888)
I1211 13:41:46.684111  2431 net.cpp:165] Memory required for data: 4473064632
I1211 13:41:46.684119  2431 layer_factory.hpp:77] Creating layer LFCN_4_5x5_LFCN_4_5x5_0_split
I1211 13:41:46.684125  2431 net.cpp:100] Creating Layer LFCN_4_5x5_LFCN_4_5x5_0_split
I1211 13:41:46.684130  2431 net.cpp:434] LFCN_4_5x5_LFCN_4_5x5_0_split <- LFCN_4_5x5
I1211 13:41:46.684139  2431 net.cpp:408] LFCN_4_5x5_LFCN_4_5x5_0_split -> LFCN_4_5x5_LFCN_4_5x5_0_split_0
I1211 13:41:46.684145  2431 net.cpp:408] LFCN_4_5x5_LFCN_4_5x5_0_split -> LFCN_4_5x5_LFCN_4_5x5_0_split_1
I1211 13:41:46.684224  2431 net.cpp:150] Setting up LFCN_4_5x5_LFCN_4_5x5_0_split
I1211 13:41:46.684229  2431 net.cpp:157] Top shape: 4 9 9 12 (3888)
I1211 13:41:46.684232  2431 net.cpp:157] Top shape: 4 9 9 12 (3888)
I1211 13:41:46.684234  2431 net.cpp:165] Memory required for data: 4473095736
I1211 13:41:46.684237  2431 layer_factory.hpp:77] Creating layer detection_loss_4_5x5
I1211 13:41:46.684244  2431 net.cpp:100] Creating Layer detection_loss_4_5x5
I1211 13:41:46.684248  2431 net.cpp:434] detection_loss_4_5x5 <- LFCN_4_5x5_LFCN_4_5x5_0_split_0
I1211 13:41:46.684252  2431 net.cpp:434] detection_loss_4_5x5 <- label_4_5x5_data_7_split_0
I1211 13:41:46.684258  2431 net.cpp:408] detection_loss_4_5x5 -> loss_4_5x5
I1211 13:41:46.684267  2431 layer_factory.hpp:77] Creating layer detection_loss_4_5x5
I1211 13:41:46.684595  2431 net.cpp:150] Setting up detection_loss_4_5x5
I1211 13:41:46.684602  2431 net.cpp:157] Top shape: 1 1 1 2 (2)
I1211 13:41:46.684604  2431 net.cpp:160]     with loss weight 1
I1211 13:41:46.684612  2431 net.cpp:165] Memory required for data: 4473095744
I1211 13:41:46.684615  2431 layer_factory.hpp:77] Creating layer detection_accuracy_4_5x5
I1211 13:41:46.684623  2431 net.cpp:100] Creating Layer detection_accuracy_4_5x5
I1211 13:41:46.684638  2431 net.cpp:434] detection_accuracy_4_5x5 <- LFCN_4_5x5_LFCN_4_5x5_0_split_1
I1211 13:41:46.684648  2431 net.cpp:434] detection_accuracy_4_5x5 <- label_4_5x5_data_7_split_1
I1211 13:41:46.684662  2431 net.cpp:408] detection_accuracy_4_5x5 -> accuracy_4_5x5
I1211 13:41:46.684670  2431 net.cpp:408] detection_accuracy_4_5x5 -> boxiou_4_5x5
I1211 13:41:46.684715  2431 net.cpp:150] Setting up detection_accuracy_4_5x5
I1211 13:41:46.684720  2431 net.cpp:157] Top shape: 1 1 1 2 (2)
I1211 13:41:46.684723  2431 net.cpp:157] Top shape: 1 1 1 1 (1)
I1211 13:41:46.684726  2431 net.cpp:165] Memory required for data: 4473095756
I1211 13:41:46.684729  2431 net.cpp:228] detection_accuracy_4_5x5 does not need backward computation.
I1211 13:41:46.684732  2431 net.cpp:226] detection_loss_4_5x5 needs backward computation.
I1211 13:41:46.684736  2431 net.cpp:226] LFCN_4_5x5_LFCN_4_5x5_0_split needs backward computation.
I1211 13:41:46.684738  2431 net.cpp:226] LFCN_4_5x5 needs backward computation.
…
