…
    downsample_rate: 32
    downsample_rate: 32
    downsample_rate: 64
    coord_num: 4
    field_h: 60
    field_h: 84
    field_h: 120
    field_h: 168
    field_h: 240
    field_h: 336
    field_h: 480
    field_w: 60
    field_w: 84
    field_w: 120
    field_w: 168
    field_w: 240
    field_w: 336
    field_w: 480
    fg_threshold: 0.5
    resize_width: 1920
    resize_height: 576
    crop_width: 768
    crop_height: 576
    do_multiple_scale: true
    min_scale: 60
    max_scale: 480
    min_gt_height: 35
    shuffle: true
    output_gt_boxes: true
  }
}
layer {
  name: "conv1_1"
  type: "Convolution"
  bottom: "data"
  top: "conv1_1"
  param {
    lr_mult: 0
    decay_mult: 0
  }
  param {
    lr_mult: 0
    decay_mult: 0
  }
  convolution_param {
    num_output: 64
    pad: 1
    kernel_size: 3
  }
}
layer {
  name: "relu1_1"
  type: "ReLU"
  bottom: "conv1_1"
  top: "conv1_1"
}
layer {
  name: "conv1_2"
  type: "Convolution"
  bottom: "conv1_1"
  top: "conv1_2"
  param {
    lr_mult: 0
    decay_mult: 0
  }
  param {
    lr_mult: 0
    decay_mult: 0
  }
  convolution_param {
    num_output: 64
    pad: 1
    kernel_size: 3
  }
}
layer {
  name: "relu1_2"
  type: "ReLU"
  bottom: "conv1_2"
  top: "conv1_2"
}
layer {
  name: "pool1"
  type: "Pooling"
  bottom: "conv1_2"
  top: "pool1"
  pooling_param {
    pool: MAX
    kernel_size: 2
    stride: 2
  }
}
layer {
  name: "conv2_1"
  type: "Convolution"
  bottom: "pool1"
  top: "conv2_1"
  param {
    lr_mult: 0
    decay_mult: 0
  }
  param {
    lr_mult: 0
    decay_mult: 0
  }
  convolution_param {
    num_output: 128
    pad: 1
    kernel_size: 3
  }
}
layer {
  name: "relu2_1"
  type: "ReLU"
  bottom: "conv2_1"
  top: "conv2_1"
}
layer {
  name: "conv2_2"
  type: "Convolution"
  bottom: "conv2_1"
  top: "conv2_2"
  param {
    lr_mult: 0
    decay_mult: 0
  }
  param {
    lr_mult: 0
    decay_mult: 0
  }
  convolution_param {
    num_output: 128
    pad: 1
    kernel_size: 3
  }
}
layer {
  name: "relu2_2"
  type: "ReLU"
  bottom: "conv2_2"
  top: "conv2_2"
}
layer {
  name: "pool2"
  type: "Pooling"
  bottom: "conv2_2"
  top: "pool2"
  pooling_param {
    pool: MAX
    kernel_size: 2
    stride: 2
  }
}
layer {
  name: "conv3_1"
  type: "Convolution"
  bottom: "pool2"
  top: "conv3_1"
  convolution_param {
    num_output: 256
    pad: 1
    kernel_size: 3
  }
}
layer {
  name: "relu3_1"
  type: "ReLU"
  bottom: "conv3_1"
  top: "conv3_1"
}
layer {
  name: "conv3_2"
  type: "Convolution"
  bottom: "conv3_1"
  top: "conv3_2"
  convolution_param {
    num_output: 256
    pad: 1
    kernel_size: 3
  }
}
layer {
  name: "relu3_2"
  type: "ReLU"
  bottom: "conv3_2"
  top: "conv3_2"
}
layer {
  name: "conv3_3"
  type: "Convolution"
  bottom: "conv3_2"
  top: "conv3_3"
  convolution_param {
    num_output: 256
    pad: 1
    kernel_size: 3
  }
}
layer {
  name: "relu3_3"
  type: "ReLU"
  bottom: "conv3_3"
  top: "conv3_3"
}
layer {
  name: "pool3"
  type: "Pooling"
  bottom: "conv3_3"
  top: "pool3"
  pooling_param {
    pool: MAX
    kernel_size: 2
    stride: 2
  }
}
layer {
  name: "conv4_1"
  type: "Convolution"
  bottom: "pool3"
  top: "conv4_1"
  convolution_param {
    num_output: 512
    pad: 1
    kernel_size: 3
  }
}
layer {
  name: "relu4_1"
  type: "ReLU"
  bottom: "conv4_1"
  top: "conv4_1"
}
layer {
  name: "conv4_2"
  type: "Convolution"
  bottom: "conv4_1"
  top: "conv4_2"
  convolution_param {
    num_output: 512
    pad: 1
    kernel_size: 3
  }
}
layer {
  name: "relu4_2"
  type: "ReLU"
  bottom: "conv4_2"
  top: "conv4_2"
}
layer {
  name: "conv4_3"
  type: "Convolution"
  bottom: "conv4_2"
  top: "conv4_3"
  convolution_param {
    num_output: 512
    pad: 1
    kernel_size: 3
  }
}
layer {
  name: "relu4_3"
  type: "ReLU"
  bottom: "conv4_3"
  top: "conv4_3"
}
layer {
  name: "loss1_conv1"
  type: "Convolution"
  bottom: "conv4_3"
  top: "loss1_conv1"
  param {
    lr_mult: 1
    decay_mult: 1
  }
  param {
    lr_mult: 2
    decay_mult: 0
  }
  convolution_param {
    num_output: 512
    pad: 1
    kernel_size: 3
    weight_filler {
      type: "gaussian"
      std: 0.01
    }
    bias_filler {
      type: "constant"
    }
  }
}
layer {
  name: "loss_relu1"
  type: "ReLU"
  bottom: "loss1_conv1"
  top: "loss1_conv1"
}
layer {
  name: "LFCN_1_5x5"
  type: "Convolution"
  bottom: "loss1_conv1"
  top: "LFCN_1_5x5"
  param {
    lr_mult: 1
    decay_mult: 1
  }
  param {
    lr_mult: 2
    decay_mult: 0
  }
  convolution_param {
    num_output: 9
    pad: 2
    kernel_size: 5
    weight_filler {
      type: "gaussian"
      std: 0.001
    }
    bias_filler {
      type: "constant"
    }
  }
}
layer {
  name: "detection_loss_1_5x5"
  type: "DetectionLoss"
  bottom: "LFCN_1_5x5"
  bottom: "label_1_5x5"
  top: "loss_1_5x5"
  loss_weight: 0.9
  detection_loss_param {
    cls_num: 5
    coord_num: 4
    lambda: 1
    field_h: 60
    field_w: 60
    downsample_rate: 8
    bb_smooth: true
    field_whr: 2
    field_xyr: 2
    bg_threshold: 0.2
    bg_multiple: 2
    sample_mode: "bootstrap"
    pos_neg_weighted: true
  }
}
layer {
  name: "detection_accuracy_1_5x5"
  type: "DetectionAccuracy"
  bottom: "LFCN_1_5x5"
  bottom: "label_1_5x5"
  top: "accuracy_1_5x5"
  top: "boxiou_1_5x5"
  detection_accuracy_param {
    cls_num: 5
    coord_num: 4
    field_h: 60
    field_w: 60
    downsample_rate: 8
    field_whr: 2
    field_xyr: 2
  }
}
layer {
  name: "LFCN_1_7x7"
  type: "Convolution"
  bottom: "loss1_conv1"
  top: "LFCN_1_7x7"
  param {
    lr_mult: 1
    decay_mult: 1
  }
  param {
    lr_mult: 2
    decay_mult: 0
  }
  convolution_param {
    num_output: 9
    pad: 3
    kernel_size: 7
    weight_filler {
      type: "gaussian"
      std: 0.001
    }
    bias_filler {
      type: "constant"
    }
  }
}
layer {
  name: "detection_loss_1_7x7"
  type: "DetectionLoss"
  bottom: "LFCN_1_7x7"
  bottom: "label_1_7x7"
  top: "loss_1_7x7"
  loss_weight: 0.9
  detection_loss_param {
    cls_num: 5
    coord_num: 4
    lambda: 1
    field_h: 84
    field_w: 84
    downsample_rate: 8
    bb_smooth: true
    field_whr: 2
    field_xyr: 2
    bg_threshold: 0.2
    bg_multiple: 2
    sample_mode: "bootstrap"
    pos_neg_weighted: true
  }
}
layer {
  name: "detection_accuracy_1_7x7"
  type: "DetectionAccuracy"
  bottom: "LFCN_1_7x7"
  bottom: "label_1_7x7"
  top: "accuracy_1_7x7"
  top: "boxiou_1_7x7"
  detection_accuracy_param {
    cls_num: 5
    coord_num: 4
    field_h: 84
    field_w: 84
    downsample_rate: 8
    field_whr: 2
    field_xyr: 2
  }
}
layer {
  name: "pool4"
  type: "Pooling"
  bottom: "conv4_3"
  top: "pool4"
  pooling_param {
    pool: MAX
    kernel_size: 2
    stride: 2
  }
}
layer {
  name: "conv5_1"
  type: "Convolution"
  bottom: "pool4"
  top: "conv5_1"
  convolution_param {
    num_output: 512
    pad: 1
    kernel_size: 3
  }
}
layer {
  name: "relu5_1"
  type: "ReLU"
  bottom: "conv5_1"
  top: "conv5_1"
}
layer {
  name: "conv5_2"
  type: "Convolution"
  bottom: "conv5_1"
  top: "conv5_2"
  convolution_param {
    num_output: 512
    pad: 1
    kernel_size: 3
  }
}
layer {
  name: "relu5_2"
  type: "ReLU"
  bottom: "conv5_2"
  top: "conv5_2"
}
layer {
  name: "conv5_3"
  type: "Convolution"
  bottom: "conv5_2"
  top: "conv5_3"
  convolution_param {
    num_output: 512
    pad: 1
    kernel_size: 3
  }
}
layer {
  name: "relu5_3"
  type: "ReLU"
  bottom: "conv5_3"
  top: "conv5_3"
}
layer {
  name: "LFCN_2_5x5"
  type: "Convolution"
  bottom: "conv5_3"
  top: "LFCN_2_5x5"
  param {
    lr_mult: 1
    decay_mult: 1
  }
  param {
    lr_mult: 2
    decay_mult: 0
  }
  convolution_param {
    num_output: 9
    pad: 2
    kernel_size: 5
    weight_filler {
      type: "gaussian"
      std: 0.001
    }
    bias_filler {
      type: "constant"
    }
  }
}
layer {
  name: "detection_loss_2_5x5"
  type: "DetectionLoss"
  bottom: "LFCN_2_5x5"
  bottom: "label_2_5x5"
  top: "loss_2_5x5"
  detection_loss_param {
    cls_num: 5
    coord_num: 4
    lambda: 1
    field_h: 120
    field_w: 120
    downsample_rate: 16
    bb_smooth: true
    field_whr: 2
    field_xyr: 2
    bg_threshold: 0.2
    bg_multiple: 2
    sample_mode: "bootstrap"
    pos_neg_weighted: true
  }
}
layer {
  name: "detection_accuracy_2_5x5"
  type: "DetectionAccuracy"
  bottom: "LFCN_2_5x5"
  bottom: "label_2_5x5"
  top: "accuracy_2_5x5"
  top: "boxiou_2_5x5"
  detection_accuracy_param {
    cls_num: 5
    coord_num: 4
    field_h: 120
    field_w: 120
    downsample_rate: 16
    field_whr: 2
    field_xyr: 2
  }
}
layer {
  name: "LFCN_2_7x7"
  type: "Convolution"
  bottom: "conv5_3"
  top: "LFCN_2_7x7"
  param {
    lr_mult: 1
    decay_mult: 1
  }
  param {
    lr_mult: 2
    decay_mult: 0
  }
  convolution_param {
    num_output: 9
    pad: 3
    kernel_size: 7
    weight_filler {
      type: "gaussian"
      std: 0.001
    }
    bias_filler {
      type: "constant"
    }
  }
}
layer {
  name: "detection_loss_2_7x7"
  type: "DetectionLoss"
  bottom: "LFCN_2_7x7"
  bottom: "label_2_7x7"
  top: "loss_2_7x7"
  detection_loss_param {
    cls_num: 5
    coord_num: 4
    lambda: 1
    field_h: 168
    field_w: 168
    downsample_rate: 16
    bb_smooth: true
    field_whr: 2
    field_xyr: 2
    bg_threshold: 0.2
    bg_multiple: 2
    sample_mode: "bootstrap"
    pos_neg_weighted: true
  }
}
layer {
  name: "detection_accuracy_2_7x7"
  type: "DetectionAccuracy"
  bottom: "LFCN_2_7x7"
  bottom: "label_2_7x7"
  top: "accuracy_2_7x7"
  top: "boxiou_2_7x7"
  detection_accuracy_param {
    cls_num: 5
    coord_num: 4
    field_h: 168
    field_w: 168
    downsample_rate: 16
    field_whr: 2
    field_xyr: 2
  }
}
layer {
  name: "pool5"
  type: "Pooling"
  bottom: "conv5_3"
  top: "pool5"
  pooling_param {
    pool: MAX
    kernel_size: 2
    stride: 2
  }
}
layer {
  name: "conv6_1"
  type: "Convolution"
  bottom: "pool5"
  top: "conv6_1"
  param {
    lr_mult: 1
    decay_mult: 1
  }
  param {
    lr_mult: 2
    decay_mult: 0
  }
  convolution_param {
    num_output: 512
    pad: 1
    kernel_size: 3
    weight_filler {
      type: "gaussian"
      std: 0.01
    }
    bias_filler {
      type: "constant"
    }
  }
}
layer {
  name: "relu6_1"
  type: "ReLU"
  bottom: "conv6_1"
  top: "conv6_1"
}
layer {
  name: "LFCN_3_5x5"
  type: "Convolution"
  bottom: "conv6_1"
  top: "LFCN_3_5x5"
  param {
    lr_mult: 1
    decay_mult: 1
  }
  param {
    lr_mult: 2
    decay_mult: 0
  }
  convolution_param {
    num_output: 9
    pad: 2
    kernel_size: 5
    weight_filler {
      type: "gaussian"
      std: 0.001
    }
    bias_filler {
      type: "constant"
    }
  }
}
layer {
  name: "detection_loss_3_5x5"
  type: "DetectionLoss"
  bottom: "LFCN_3_5x5"
  bottom: "label_3_5x5"
  top: "loss_3_5x5"
  detection_loss_param {
    cls_num: 5
    coord_num: 4
    lambda: 1
    field_h: 240
    field_w: 240
    downsample_rate: 32
    bb_smooth: true
    field_whr: 2
    field_xyr: 2
    bg_threshold: 0.2
    bg_multiple: 2
    sample_mode: "bootstrap"
    pos_neg_weighted: true
  }
}
layer {
  name: "detection_accuracy_3_5x5"
  type: "DetectionAccuracy"
  bottom: "LFCN_3_5x5"
  bottom: "label_3_5x5"
  top: "accuracy_3_5x5"
  top: "boxiou_3_5x5"
  detection_accuracy_param {
    cls_num: 5
    coord_num: 4
    field_h: 240
    field_w: 240
    downsample_rate: 32
    field_whr: 2
    field_xyr: 2
  }
}
layer {
  name: "LFCN_3_7x7"
  type: "Convolution"
  bottom: "conv6_1"
  top: "LFCN_3_7x7"
  param {
    lr_mult: 1
    decay_mult: 1
  }
  param {
    lr_mult: 2
    decay_mult: 0
  }
  convolution_param {
    num_output: 9
    pad: 3
    kernel_size: 7
    weight_filler {
      type: "gaussian"
      std: 0.001
    }
    bias_filler {
      type: "constant"
    }
  }
}
layer {
  name: "detection_loss_3_7x7"
  type: "DetectionLoss"
  bottom: "LFCN_3_7x7"
  bottom: "label_3_7x7"
  top: "loss_3_7x7"
  detection_loss_param {
    cls_num: 5
    coord_num: 4
    lambda: 1
    field_h: 336
    field_w: 336
    downsample_rate: 32
    bb_smooth: true
    field_whr: 2
    field_xyr: 2
    bg_threshold: 0.2
    bg_multiple: 2
    sample_mode: "bootstrap"
    pos_neg_weighted: true
  }
}
layer {
  name: "detection_accuracy_3_7x7"
  type: "DetectionAccuracy"
  bottom: "LFCN_3_7x7"
  bottom: "label_3_7x7"
  top: "accuracy_3_7x7"
  top: "boxiou_3_7x7"
  detection_accuracy_param {
    cls_num: 5
    coord_num: 4
    field_h: 336
    field_w: 336
    downsample_rate: 32
    field_whr: 2
    field_xyr: 2
  }
}
layer {
  name: "pool6"
  type: "Pooling"
  bottom: "conv6_1"
  top: "pool6"
  pooling_param {
    pool: MAX
    kernel_size: 2
    stride: 2
  }
}
layer {
  name: "LFCN_4_5x5"
  type: "Convolution"
  bottom: "pool6"
  top: "LFCN_4_5x5"
  param {
    lr_mult: 1
    decay_mult: 1
  }
  param {
    lr_mult: 2
    decay_mult: 0
  }
  convolution_param {
    num_output: 9
    pad: 2
    kernel_size: 5
    weight_filler {
      type: "gaussian"
      std: 0.001
    }
    bias_filler {
      type: "constant"
    }
  }
}
layer {
  name: "detection_loss_4_5x5"
  type: "DetectionLoss"
  bottom: "LFCN_4_5x5"
  bottom: "label_4_5x5"
  top: "loss_4_5x5"
  detection_loss_param {
    cls_num: 5
    coord_num: 4
    lambda: 1
    field_h: 480
    field_w: 480
    downsample_rate: 64
    bb_smooth: true
    field_whr: 2
    field_xyr: 2
    bg_threshold: 0.2
    bg_multiple: 2
    sample_mode: "bootstrap"
    pos_neg_weighted: true
  }
}
layer {
  name: "detection_accuracy_4_5x5"
  type: "DetectionAccuracy"
  bottom: "LFCN_4_5x5"
  bottom: "label_4_5x5"
  top: "accuracy_4_5x5"
  top: "boxiou_4_5x5"
  detection_accuracy_param {
    cls_num: 5
    coord_num: 4
    field_h: 480
    field_w: 480
    downsample_rate: 64
    field_whr: 2
    field_xyr: 2
  }
}
layer {
  name: "proposals"
  type: "BoxOutput"
  bottom: "LFCN_1_5x5"
  bottom: "LFCN_1_7x7"
  bottom: "LFCN_2_5x5"
  bottom: "LFCN_2_7x7"
  bottom: "LFCN_3_5x5"
  bottom: "LFCN_3_7x7"
  bottom: "LFCN_4_5x5"
  top: "proposals"
  propagate_down: false
  propagate_down: false
  propagate_down: false
  propagate_down: false
  propagate_down: false
  propagate_down: false
  propagate_down: false
  box_output_param {
    fg_thr: -8
    iou_thr: 0.65
    nms_type: "IOU"
    field_h: 60
    field_h: 84
    field_h: 120
    field_h: 168
    field_h: 240
    field_h: 336
    field_h: 480
    field_w: 60
    field_w: 84
    field_w: 120
    field_w: 168
    field_w: 240
    field_w: 336
    field_w: 480
    downsample_rate: 8
    downsample_rate: 8
    downsample_rate: 16
    downsample_rate: 16
    downsample_rate: 32
    downsample_rate: 32
    downsample_rate: 64
    field_whr: 2
    field_xyr: 2
    max_nms_num: 3000
  }
}
layer {
  name: "proposal_info"
  type: "ProposalTarget"
  bottom: "proposals"
  bottom: "gt_boxes"
  top: "rois"
  top: "proposal_labels"
  top: "proposal_targets"
  top: "box_inside_weights"
  top: "box_outside_weights"
  top: "match_gt_boxes"
  include {
    phase: TRAIN
  }
  propagate_down: false
  propagate_down: false
  proposal_target_param {
    cls_num: 5
    batch_size: 256
    fg_fraction: 0.25
    num_img_per_batch: 4
    fg_thr: 0.5
    bg_thr_hg: 0.49
    bg_thr_lw: 0.1
    img_width: 768
    img_height: 576
  }
  bbox_reg_param {
    bbox_mean: 0
    bbox_mean: 0
    bbox_mean: 0
    bbox_mean: 0
    bbox_std: 0.1
    bbox_std: 0.1
    bbox_std: 0.2
    bbox_std: 0.2
  }
}
layer {
  name: "conv4_3_2x"
  type: "Deconvolution"
  bottom: "conv4_3"
  top: "conv4_3_2x"
  param {
    lr_mult: 0
    decay_mult: 0
  }
  convolution_param {
    num_output: 512
    bias_term: false
    pad: 1
    kernel_size: 4
    group: 512
    stride: 2
    weight_filler {
      type: "bilinear"
    }
  }
}
layer {
  name: "roi_pool_org"
  type: "ROIPooling"
  bottom: "conv4_3_2x"
  bottom: "rois"
  top: "roi_pool_org"
  roi_pooling_param {
    pooled_h: 7
    pooled_w: 7
    spatial_scale: 0.25
    pad_ratio: 0
  }
}
layer {
  name: "roi_pool_ctx"
  type: "ROIPooling"
  bottom: "conv4_3_2x"
  bottom: "rois"
  top: "roi_pool_ctx"
  roi_pooling_param {
    pooled_h: 7
    pooled_w: 7
    spatial_scale: 0.25
    pad_ratio: 0.25
  }
}
layer {
  name: "roi_pool"
  type: "Concat"
  bottom: "roi_pool_org"
  bottom: "roi_pool_ctx"
  top: "roi_pool"
}
layer {
  name: "roi_c1"
  type: "Convolution"
  bottom: "roi_pool"
  top: "roi_c1"
  param {
    lr_mult: 1
    decay_mult: 1
  }
  param {
    lr_mult: 2
    decay_mult: 0
  }
  convolution_param {
    num_output: 512
    kernel_size: 3
    weight_filler {
      type: "gaussian"
      std: 0.01
    }
    bias_filler {
      type: "constant"
    }
  }
}
layer {
  name: "roi_c1_relu"
  type: "ReLU"
  bottom: "roi_c1"
  top: "roi_c1"
}
layer {
  name: "fc6"
  type: "InnerProduct"
  bottom: "roi_c1"
  top: "fc6"
  param {
    lr_mult: 1
  }
  param {
    lr_mult: 2
  }
  inner_product_param {
    num_output: 4096
    weight_filler {
      type: "gaussian"
      std: 0.001
    }
    bias_filler {
      type: "constant"
      value: 0
    }
  }
}
layer {
  name: "relu6"
  type: "ReLU"
  bottom: "fc6"
  top: "fc6"
}
layer {
  name: "drop6"
  type: "Dropout"
  bottom: "fc6"
  top: "fc6"
  dropout_param {
    dropout_ratio: 0.5
  }
}
layer {
  name: "cls_pred"
  type: "InnerProduct"
  bottom: "fc6"
  top: "cls_pred"
  param {
    lr_mult: 1
  }
  param {
    lr_mult: 2
  }
  inner_product_param {
    num_output: 5
    weight_filler {
      type: "gaussian"
      std: 0.01
    }
    bias_filler {
      type: "constant"
      value: 0
    }
  }
}
layer {
  name: "bbox_pred"
  type: "InnerProduct"
  bottom: "fc6"
  top: "bbox_pred"
  param {
    lr_mult: 1
  }
  param {
    lr_mult: 2
  }
  inner_product_param {
    num_output: 20
    weight_filler {
      type: "gaussian"
      std: 0.001
    }
    bias_filler {
      type: "constant"
      value: 0
    }
  }
}
layer {
  name: "loss_cls"
  type: "SoftmaxWithLoss"
  bottom: "cls_pred"
  bottom: "proposal_labels"
  top: "loss_cls"
  loss_weight: 1
  propagate_down: true
  propagate_down: false
}
layer {
  name: "cls_accuracy"
  type: "Accuracy"
  bottom: "cls_pred"
  bottom: "proposal_labels"
  top: "cls_accuracy"
}
layer {
  name: "loss_bbox"
  type: "SmoothL1Loss"
  bottom: "bbox_pred"
  bottom: "proposal_targets"
  bottom: "box_inside_weights"
  bottom: "box_outside_weights"
  top: "loss_bbox"
  loss_weight: 1
}
layer {
  name: "bbox_iou"
  type: "BboxAccuracy"
  bottom: "bbox_pred"
  bottom: "rois"
  bottom: "match_gt_boxes"
  top: "bbox_iou"
  top: "bbox_iou_pre"
  bbox_reg_param {
    bbox_mean: 0
    bbox_mean: 0
    bbox_mean: 0
    bbox_mean: 0
    bbox_std: 0.1
    bbox_std: 0.1
    bbox_std: 0.2
    bbox_std: 0.2
  }
}
I1211 16:53:30.974573 15177 layer_factory.hpp:77] Creating layer data
I1211 16:53:30.974601 15177 net.cpp:100] Creating Layer data
I1211 16:53:30.974607 15177 net.cpp:408] data -> data
…
I1211 16:53:31.001199 15177 image_gt_data_layer.cpp:235] output label size 2 : 4,6,36,48
I1211 16:53:31.001230 15177 image_gt_data_layer.cpp:235] output label size 3 : 4,6,36,48
I1211 16:53:31.001266 15177 image_gt_data_layer.cpp:235] output label size 4 : 4,6,18,24
I1211 16:53:31.001303 15177 image_gt_data_layer.cpp:235] output label size 5 : 4,6,18,24
I1211 16:53:31.001333 15177 image_gt_data_layer.cpp:235] output label size 6 : 4,6,9,12
I1211 16:53:31.001364 15177 image_gt_data_layer.cpp:250] output gt boxes size: 1,7,1,1
I1211 16:53:31.026677 15177 net.cpp:150] Setting up data
I1211 16:53:31.026695 15177 net.cpp:157] Top shape: 4 3 576 768 (5308416)
I1211 16:53:31.026698 15177 net.cpp:157] Top shape: 4 6 72 96 (165888)
I1211 16:53:31.026701 15177 net.cpp:157] Top shape: 4 6 72 96 (165888)
I1211 16:53:31.026703 15177 net.cpp:157] Top shape: 4 6 36 48 (41472)
I1211 16:53:31.026705 15177 net.cpp:157] Top shape: 4 6 36 48 (41472)
I1211 16:53:31.026707 15177 net.cpp:157] Top shape: 4 6 18 24 (10368)
I1211 16:53:31.026710 15177 net.cpp:157] Top shape: 4 6 18 24 (10368)
I1211 16:53:31.026711 15177 net.cpp:157] Top shape: 4 6 9 12 (2592)
I1211 16:53:31.026713 15177 net.cpp:157] Top shape: 1 7 1 1 (7)
I1211 16:53:31.026715 15177 net.cpp:165] Memory required for data: 22985884
I1211 16:53:31.026722 15177 layer_factory.hpp:77] Creating layer label_1_5x5_data_1_split
I1211 16:53:31.026734 15177 net.cpp:100] Creating Layer label_1_5x5_data_1_split
I1211 16:53:31.026741 15177 net.cpp:434] label_1_5x5_data_1_split <- label_1_5x5
I1211 16:53:31.026752 15177 net.cpp:408] label_1_5x5_data_1_split -> label_1_5x5_data_1_split_0
I1211 16:53:31.026760 15177 net.cpp:408] label_1_5x5_data_1_split -> label_1_5x5_data_1_split_1
I1211 16:53:31.026834 15177 net.cpp:150] Setting up label_1_5x5_data_1_split
I1211 16:53:31.026844 15177 net.cpp:157] Top shape: 4 6 72 96 (165888)
I1211 16:53:31.026847 15177 net.cpp:157] Top shape: 4 6 72 96 (165888)
I1211 16:53:31.026849 15177 net.cpp:165] Memory required for data: 24312988
I1211 16:53:31.026852 15177 layer_factory.hpp:77] Creating layer label_1_7x7_data_2_split
I1211 16:53:31.026859 15177 net.cpp:100] Creating Layer label_1_7x7_data_2_split
I1211 16:53:31.026862 15177 net.cpp:434] label_1_7x7_data_2_split <- label_1_7x7
I1211 16:53:31.026868 15177 net.cpp:408] label_1_7x7_data_2_split -> label_1_7x7_data_2_split_0
I1211 16:53:31.026875 15177 net.cpp:408] label_1_7x7_data_2_split -> label_1_7x7_data_2_split_1
I1211 16:53:31.026906 15177 net.cpp:150] Setting up label_1_7x7_data_2_split
I1211 16:53:31.026911 15177 net.cpp:157] Top shape: 4 6 72 96 (165888)
I1211 16:53:31.026914 15177 net.cpp:157] Top shape: 4 6 72 96 (165888)
I1211 16:53:31.026916 15177 net.cpp:165] Memory required for data: 25640092
I1211 16:53:31.026921 15177 layer_factory.hpp:77] Creating layer label_2_5x5_data_3_split
I1211 16:53:31.026926 15177 net.cpp:100] Creating Layer label_2_5x5_data_3_split
I1211 16:53:31.026929 15177 net.cpp:434] label_2_5x5_data_3_split <- label_2_5x5
I1211 16:53:31.026934 15177 net.cpp:408] label_2_5x5_data_3_split -> label_2_5x5_data_3_split_0
I1211 16:53:31.026942 15177 net.cpp:408] label_2_5x5_data_3_split -> label_2_5x5_data_3_split_1
I1211 16:53:31.026969 15177 net.cpp:150] Setting up label_2_5x5_data_3_split
I1211 16:53:31.026978 15177 net.cpp:157] Top shape: 4 6 36 48 (41472)
I1211 16:53:31.026981 15177 net.cpp:157] Top shape: 4 6 36 48 (41472)
I1211 16:53:31.026984 15177 net.cpp:165] Memory required for data: 25971868
I1211 16:53:31.026986 15177 layer_factory.hpp:77] Creating layer label_2_7x7_data_4_split
I1211 16:53:31.026991 15177 net.cpp:100] Creating Layer label_2_7x7_data_4_split
I1211 16:53:31.026993 15177 net.cpp:434] label_2_7x7_data_4_split <- label_2_7x7
I1211 16:53:31.026999 15177 net.cpp:408] label_2_7x7_data_4_split -> label_2_7x7_data_4_split_0
I1211 16:53:31.027005 15177 net.cpp:408] label_2_7x7_data_4_split -> label_2_7x7_data_4_split_1
I1211 16:53:31.027036 15177 net.cpp:150] Setting up label_2_7x7_data_4_split
I1211 16:53:31.027041 15177 net.cpp:157] Top shape: 4 6 36 48 (41472)
I1211 16:53:31.027045 15177 net.cpp:157] Top shape: 4 6 36 48 (41472)
I1211 16:53:31.027048 15177 net.cpp:165] Memory required for data: 26303644
I1211 16:53:31.027050 15177 layer_factory.hpp:77] Creating layer label_3_5x5_data_5_split
I1211 16:53:31.027055 15177 net.cpp:100] Creating Layer label_3_5x5_data_5_split
I1211 16:53:31.027058 15177 net.cpp:434] label_3_5x5_data_5_split <- label_3_5x5
I1211 16:53:31.027062 15177 net.cpp:408] label_3_5x5_data_5_split -> label_3_5x5_data_5_split_0
I1211 16:53:31.027068 15177 net.cpp:408] label_3_5x5_data_5_split -> label_3_5x5_data_5_split_1
I1211 16:53:31.027096 15177 net.cpp:150] Setting up label_3_5x5_data_5_split
I1211 16:53:31.027101 15177 net.cpp:157] Top shape: 4 6 18 24 (10368)
I1211 16:53:31.027104 15177 net.cpp:157] Top shape: 4 6 18 24 (10368)
I1211 16:53:31.027107 15177 net.cpp:165] Memory required for data: 26386588
I1211 16:53:31.027108 15177 layer_factory.hpp:77] Creating layer label_3_7x7_data_6_split
I1211 16:53:31.027113 15177 net.cpp:100] Creating Layer label_3_7x7_data_6_split
I1211 16:53:31.027117 15177 net.cpp:434] label_3_7x7_data_6_split <- label_3_7x7
I1211 16:53:31.027122 15177 net.cpp:408] label_3_7x7_data_6_split -> label_3_7x7_data_6_split_0
I1211 16:53:31.027128 15177 net.cpp:408] label_3_7x7_data_6_split -> label_3_7x7_data_6_split_1
I1211 16:53:31.027184 15177 net.cpp:150] Setting up label_3_7x7_data_6_split
I1211 16:53:31.027210 15177 net.cpp:157] Top shape: 4 6 18 24 (10368)
I1211 16:53:31.027214 15177 net.cpp:157] Top shape: 4 6 18 24 (10368)
I1211 16:53:31.027216 15177 net.cpp:165] Memory required for data: 26469532
I1211 16:53:31.027218 15177 layer_factory.hpp:77] Creating layer label_4_5x5_data_7_split
I1211 16:53:31.027223 15177 net.cpp:100] Creating Layer label_4_5x5_data_7_split
I1211 16:53:31.027226 15177 net.cpp:434] label_4_5x5_data_7_split <- label_4_5x5
I1211 16:53:31.027231 15177 net.cpp:408] label_4_5x5_data_7_split -> label_4_5x5_data_7_split_0
I1211 16:53:31.027237 15177 net.cpp:408] label_4_5x5_data_7_split -> label_4_5x5_data_7_split_1
I1211 16:53:31.028981 15177 net.cpp:150] Setting up label_4_5x5_data_7_split
I1211 16:53:31.029016 15177 net.cpp:157] Top shape: 4 6 9 12 (2592)
I1211 16:53:31.029018 15177 net.cpp:157] Top shape: 4 6 9 12 (2592)
I1211 16:53:31.029019 15177 net.cpp:165] Memory required for data: 26490268
I1211 16:53:31.029026 15177 layer_factory.hpp:77] Creating layer conv1_1
I1211 16:53:31.029067 15177 net.cpp:100] Creating Layer conv1_1
I1211 16:53:31.029072 15177 net.cpp:434] conv1_1 <- data
I1211 16:53:31.029085 15177 net.cpp:408] conv1_1 -> conv1_1
I1211 16:53:31.538307 15177 net.cpp:150] Setting up conv1_1
I1211 16:53:31.538329 15177 net.cpp:157] Top shape: 4 64 576 768 (113246208)
I1211 16:53:31.538331 15177 net.cpp:165] Memory required for data: 479475100
I1211 16:53:31.538347 15177 layer_factory.hpp:77] Creating layer relu1_1
I1211 16:53:31.538355 15177 net.cpp:100] Creating Layer relu1_1
I1211 16:53:31.538359 15177 net.cpp:434] relu1_1 <- conv1_1
I1211 16:53:31.538363 15177 net.cpp:395] relu1_1 -> conv1_1 (in-place)
I1211 16:53:31.538602 15177 net.cpp:150] Setting up relu1_1
I1211 16:53:31.538609 15177 net.cpp:157] Top shape: 4 64 576 768 (113246208)
I1211 16:53:31.538611 15177 net.cpp:165] Memory required for data: 932459932
I1211 16:53:31.538612 15177 layer_factory.hpp:77] Creating layer conv1_2
I1211 16:53:31.538622 15177 net.cpp:100] Creating Layer conv1_2
I1211 16:53:31.538663 15177 net.cpp:434] conv1_2 <- conv1_1
I1211 16:53:31.538669 15177 net.cpp:408] conv1_2 -> conv1_2
I1211 16:53:31.540858 15177 net.cpp:150] Setting up conv1_2
I1211 16:53:31.540876 15177 net.cpp:157] Top shape: 4 64 576 768 (113246208)
I1211 16:53:31.540879 15177 net.cpp:165] Memory required for data: 1385444764
I1211 16:53:31.540889 15177 layer_factory.hpp:77] Creating layer relu1_2
I1211 16:53:31.540896 15177 net.cpp:100] Creating Layer relu1_2
I1211 16:53:31.540899 15177 net.cpp:434] relu1_2 <- conv1_2
I1211 16:53:31.540904 15177 net.cpp:395] relu1_2 -> conv1_2 (in-place)
I1211 16:53:31.541141 15177 net.cpp:150] Setting up relu1_2
I1211 16:53:31.541149 15177 net.cpp:157] Top shape: 4 64 576 768 (113246208)
I1211 16:53:31.541152 15177 net.cpp:165] Memory required for data: 1838429596
I1211 16:53:31.541154 15177 layer_factory.hpp:77] Creating layer pool1
I1211 16:53:31.541163 15177 net.cpp:100] Creating Layer pool1
I1211 16:53:31.541203 15177 net.cpp:434] pool1 <- conv1_2
I1211 16:53:31.541208 15177 net.cpp:408] pool1 -> pool1
I1211 16:53:31.541286 15177 net.cpp:150] Setting up pool1
I1211 16:53:31.541292 15177 net.cpp:157] Top shape: 4 64 288 384 (28311552)
I1211 16:53:31.541294 15177 net.cpp:165] Memory required for data: 1951675804
I1211 16:53:31.541297 15177 layer_factory.hpp:77] Creating layer conv2_1
I1211 16:53:31.541304 15177 net.cpp:100] Creating Layer conv2_1
I1211 16:53:31.541307 15177 net.cpp:434] conv2_1 <- pool1
I1211 16:53:31.541312 15177 net.cpp:408] conv2_1 -> conv2_1
I1211 16:53:31.543375 15177 net.cpp:150] Setting up conv2_1
I1211 16:53:31.543393 15177 net.cpp:157] Top shape: 4 128 288 384 (56623104)
I1211 16:53:31.543396 15177 net.cpp:165] Memory required for data: 2178168220
I1211 16:53:31.543411 15177 layer_factory.hpp:77] Creating layer relu2_1
I1211 16:53:31.543419 15177 net.cpp:100] Creating Layer relu2_1
I1211 16:53:31.543423 15177 net.cpp:434] relu2_1 <- conv2_1
I1211 16:53:31.543431 15177 net.cpp:395] relu2_1 -> conv2_1 (in-place)
I1211 16:53:31.543948 15177 net.cpp:150] Setting up relu2_1
I1211 16:53:31.543958 15177 net.cpp:157] Top shape: 4 128 288 384 (56623104)
I1211 16:53:31.543961 15177 net.cpp:165] Memory required for data: 2404660636
I1211 16:53:31.543963 15177 layer_factory.hpp:77] Creating layer conv2_2
I1211 16:53:31.543972 15177 net.cpp:100] Creating Layer conv2_2
I1211 16:53:31.543977 15177 net.cpp:434] conv2_2 <- conv2_1
I1211 16:53:31.543982 15177 net.cpp:408] conv2_2 -> conv2_2
I1211 16:53:31.545349 15177 net.cpp:150] Setting up conv2_2
I1211 16:53:31.545364 15177 net.cpp:157] Top shape: 4 128 288 384 (56623104)
I1211 16:53:31.545367 15177 net.cpp:165] Memory required for data: 2631153052
I1211 16:53:31.545374 15177 layer_factory.hpp:77] Creating layer relu2_2
I1211 16:53:31.545385 15177 net.cpp:100] Creating Layer relu2_2
I1211 16:53:31.545389 15177 net.cpp:434] relu2_2 <- conv2_2
I1211 16:53:31.545394 15177 net.cpp:395] relu2_2 -> conv2_2 (in-place)
I1211 16:53:31.545567 15177 net.cpp:150] Setting up relu2_2
I1211 16:53:31.545572 15177 net.cpp:157] Top shape: 4 128 288 384 (56623104)
I1211 16:53:31.545574 15177 net.cpp:165] Memory required for data: 2857645468
I1211 16:53:31.545578 15177 layer_factory.hpp:77] Creating layer pool2
I1211 16:53:31.545583 15177 net.cpp:100] Creating Layer pool2
I1211 16:53:31.545588 15177 net.cpp:434] pool2 <- conv2_2
I1211 16:53:31.545591 15177 net.cpp:408] pool2 -> pool2
I1211 16:53:31.545634 15177 net.cpp:150] Setting up pool2
I1211 16:53:31.545639 15177 net.cpp:157] Top shape: 4 128 144 192 (14155776)
I1211 16:53:31.545641 15177 net.cpp:165] Memory required for data: 2914268572
I1211 16:53:31.545644 15177 layer_factory.hpp:77] Creating layer conv3_1
I1211 16:53:31.545650 15177 net.cpp:100] Creating Layer conv3_1
I1211 16:53:31.545653 15177 net.cpp:434] conv3_1 <- pool2
I1211 16:53:31.545658 15177 net.cpp:408] conv3_1 -> conv3_1
I1211 16:53:31.547853 15177 net.cpp:150] Setting up conv3_1
I1211 16:53:31.547870 15177 net.cpp:157] Top shape: 4 256 144 192 (28311552)
I1211 16:53:31.547873 15177 net.cpp:165] Memory required for data: 3027514780
I1211 16:53:31.547889 15177 layer_factory.hpp:77] Creating layer relu3_1
I1211 16:53:31.547901 15177 net.cpp:100] Creating Layer relu3_1
I1211 16:53:31.547906 15177 net.cpp:434] relu3_1 <- conv3_1
I1211 16:53:31.547911 15177 net.cpp:395] relu3_1 -> conv3_1 (in-place)
I1211 16:53:31.548100 15177 net.cpp:150] Setting up relu3_1
I1211 16:53:31.548106 15177 net.cpp:157] Top shape: 4 256 144 192 (28311552)
I1211 16:53:31.548108 15177 net.cpp:165] Memory required for data: 3140760988
I1211 16:53:31.548111 15177 layer_factory.hpp:77] Creating layer conv3_2
I1211 16:53:31.548120 15177 net.cpp:100] Creating Layer conv3_2
I1211 16:53:31.548122 15177 net.cpp:434] conv3_2 <- conv3_1
I1211 16:53:31.548127 15177 net.cpp:408] conv3_2 -> conv3_2
I1211 16:53:31.550518 15177 net.cpp:150] Setting up conv3_2
I1211 16:53:31.550539 15177 net.cpp:157] Top shape: 4 256 144 192 (28311552)
I1211 16:53:31.550541 15177 net.cpp:165] Memory required for data: 3254007196
I1211 16:53:31.550550 15177 layer_factory.hpp:77] Creating layer relu3_2
I1211 16:53:31.550559 15177 net.cpp:100] Creating Layer relu3_2
I1211 16:53:31.550562 15177 net.cpp:434] relu3_2 <- conv3_2
I1211 16:53:31.550568 15177 net.cpp:395] relu3_2 -> conv3_2 (in-place)
I1211 16:53:31.551034 15177 net.cpp:150] Setting up relu3_2
I1211 16:53:31.551044 15177 net.cpp:157] Top shape: 4 256 144 192 (28311552)
I1211 16:53:31.551046 15177 net.cpp:165] Memory required for data: 3367253404
I1211 16:53:31.551049 15177 layer_factory.hpp:77] Creating layer conv3_3
I1211 16:53:31.551057 15177 net.cpp:100] Creating Layer conv3_3
I1211 16:53:31.551061 15177 net.cpp:434] conv3_3 <- conv3_2
I1211 16:53:31.551066 15177 net.cpp:408] conv3_3 -> conv3_3
I1211 16:53:31.553463 15177 net.cpp:150] Setting up conv3_3
I1211 16:53:31.553485 15177 net.cpp:157] Top shape: 4 256 144 192 (28311552)
I1211 16:53:31.553488 15177 net.cpp:165] Memory required for data: 3480499612
I1211 16:53:31.553498 15177 layer_factory.hpp:77] Creating layer relu3_3
I1211 16:53:31.553505 15177 net.cpp:100] Creating Layer relu3_3
I1211 16:53:31.553509 15177 net.cpp:434] relu3_3 <- conv3_3
I1211 16:53:31.553519 15177 net.cpp:395] relu3_3 -> conv3_3 (in-place)
I1211 16:53:31.553691 15177 net.cpp:150] Setting up relu3_3
I1211 16:53:31.553697 15177 net.cpp:157] Top shape: 4 256 144 192 (28311552)
I1211 16:53:31.553699 15177 net.cpp:165] Memory required for data: 3593745820
I1211 16:53:31.553702 15177 layer_factory.hpp:77] Creating layer pool3
I1211 16:53:31.553707 15177 net.cpp:100] Creating Layer pool3
I1211 16:53:31.553710 15177 net.cpp:434] pool3 <- conv3_3
I1211 16:53:31.553715 15177 net.cpp:408] pool3 -> pool3
I1211 16:53:31.553764 15177 net.cpp:150] Setting up pool3
I1211 16:53:31.553771 15177 net.cpp:157] Top shape: 4 256 72 96 (7077888)
I1211 16:53:31.553773 15177 net.cpp:165] Memory required for data: 3622057372
I1211 16:53:31.553776 15177 layer_factory.hpp:77] Creating layer conv4_1
I1211 16:53:31.553782 15177 net.cpp:100] Creating Layer conv4_1
I1211 16:53:31.553786 15177 net.cpp:434] conv4_1 <- pool3
I1211 16:53:31.553791 15177 net.cpp:408] conv4_1 -> conv4_1
I1211 16:53:31.557850 15177 net.cpp:150] Setting up conv4_1
I1211 16:53:31.557869 15177 net.cpp:157] Top shape: 4 512 72 96 (14155776)
I1211 16:53:31.557871 15177 net.cpp:165] Memory required for data: 3678680476
I1211 16:53:31.557881 15177 layer_factory.hpp:77] Creating layer relu4_1
I1211 16:53:31.557889 15177 net.cpp:100] Creating Layer relu4_1
I1211 16:53:31.557893 15177 net.cpp:434] relu4_1 <- conv4_1
I1211 16:53:31.557900 15177 net.cpp:395] relu4_1 -> conv4_1 (in-place)
I1211 16:53:31.558074 15177 net.cpp:150] Setting up relu4_1
I1211 16:53:31.558080 15177 net.cpp:157] Top shape: 4 512 72 96 (14155776)
I1211 16:53:31.558082 15177 net.cpp:165] Memory required for data: 3735303580
I1211 16:53:31.558085 15177 layer_factory.hpp:77] Creating layer conv4_2
I1211 16:53:31.558094 15177 net.cpp:100] Creating Layer conv4_2
I1211 16:53:31.558096 15177 net.cpp:434] conv4_2 <- conv4_1
I1211 16:53:31.558101 15177 net.cpp:408] conv4_2 -> conv4_2
I1211 16:53:31.562885 15177 net.cpp:150] Setting up conv4_2
I1211 16:53:31.562902 15177 net.cpp:157] Top shape: 4 512 72 96 (14155776)
I1211 16:53:31.562906 15177 net.cpp:165] Memory required for data: 3791926684
I1211 16:53:31.562919 15177 layer_factory.hpp:77] Creating layer relu4_2
I1211 16:53:31.562927 15177 net.cpp:100] Creating Layer relu4_2
I1211 16:53:31.562932 15177 net.cpp:434] relu4_2 <- conv4_2
I1211 16:53:31.562938 15177 net.cpp:395] relu4_2 -> conv4_2 (in-place)
I1211 16:53:31.563117 15177 net.cpp:150] Setting up relu4_2
I1211 16:53:31.563124 15177 net.cpp:157] Top shape: 4 512 72 96 (14155776)
I1211 16:53:31.563127 15177 net.cpp:165] Memory required for data: 3848549788
I1211 16:53:31.563129 15177 layer_factory.hpp:77] Creating layer conv4_3
I1211 16:53:31.563136 15177 net.cpp:100] Creating Layer conv4_3
I1211 16:53:31.563140 15177 net.cpp:434] conv4_3 <- conv4_2
I1211 16:53:31.563144 15177 net.cpp:408] conv4_3 -> conv4_3
I1211 16:53:31.567947 15177 net.cpp:150] Setting up conv4_3
I1211 16:53:31.567967 15177 net.cpp:157] Top shape: 4 512 72 96 (14155776)
I1211 16:53:31.567970 15177 net.cpp:165] Memory required for data: 3905172892
I1211 16:53:31.567979 15177 layer_factory.hpp:77] Creating layer relu4_3
I1211 16:53:31.567992 15177 net.cpp:100] Creating Layer relu4_3
I1211 16:53:31.567997 15177 net.cpp:434] relu4_3 <- conv4_3
I1211 16:53:31.568004 15177 net.cpp:395] relu4_3 -> conv4_3 (in-place)
I1211 16:53:31.568552 15177 net.cpp:150] Setting up relu4_3
I1211 16:53:31.568563 15177 net.cpp:157] Top shape: 4 512 72 96 (14155776)
I1211 16:53:31.568565 15177 net.cpp:165] Memory required for data: 3961795996
I1211 16:53:31.568568 15177 layer_factory.hpp:77] Creating layer conv4_3_relu4_3_0_split
I1211 16:53:31.568574 15177 net.cpp:100] Creating Layer conv4_3_relu4_3_0_split
I1211 16:53:31.568578 15177 net.cpp:434] conv4_3_relu4_3_0_split <- conv4_3
I1211 16:53:31.568583 15177 net.cpp:408] conv4_3_relu4_3_0_split -> conv4_3_relu4_3_0_split_0
I1211 16:53:31.568591 15177 net.cpp:408] conv4_3_relu4_3_0_split -> conv4_3_relu4_3_0_split_1
I1211 16:53:31.568598 15177 net.cpp:408] conv4_3_relu4_3_0_split -> conv4_3_relu4_3_0_split_2
I1211 16:53:31.568646 15177 net.cpp:150] Setting up conv4_3_relu4_3_0_split
I1211 16:53:31.568651 15177 net.cpp:157] Top shape: 4 512 72 96 (14155776)
I1211 16:53:31.568655 15177 net.cpp:157] Top shape: 4 512 72 96 (14155776)
I1211 16:53:31.568658 15177 net.cpp:157] Top shape: 4 512 72 96 (14155776)
I1211 16:53:31.568661 15177 net.cpp:165] Memory required for data: 4131665308
I1211 16:53:31.568663 15177 layer_factory.hpp:77] Creating layer loss1_conv1
I1211 16:53:31.568676 15177 net.cpp:100] Creating Layer loss1_conv1
I1211 16:53:31.568680 15177 net.cpp:434] loss1_conv1 <- conv4_3_relu4_3_0_split_0
I1211 16:53:31.568686 15177 net.cpp:408] loss1_conv1 -> loss1_conv1
I1211 16:53:31.601958 15177 net.cpp:150] Setting up loss1_conv1
I1211 16:53:31.601975 15177 net.cpp:157] Top shape: 4 512 72 96 (14155776)
I1211 16:53:31.601977 15177 net.cpp:165] Memory required for data: 4188288412
I1211 16:53:31.601986 15177 layer_factory.hpp:77] Creating layer loss_relu1
I1211 16:53:31.601994 15177 net.cpp:100] Creating Layer loss_relu1
I1211 16:53:31.602000 15177 net.cpp:434] loss_relu1 <- loss1_conv1
I1211 16:53:31.602007 15177 net.cpp:395] loss_relu1 -> loss1_conv1 (in-place)
I1211 16:53:31.602174 15177 net.cpp:150] Setting up loss_relu1
I1211 16:53:31.602180 15177 net.cpp:157] Top shape: 4 512 72 96 (14155776)
I1211 16:53:31.602181 15177 net.cpp:165] Memory required for data: 4244911516
I1211 16:53:31.602185 15177 layer_factory.hpp:77] Creating layer loss1_conv1_loss_relu1_0_split
I1211 16:53:31.602190 15177 net.cpp:100] Creating Layer loss1_conv1_loss_relu1_0_split
I1211 16:53:31.602192 15177 net.cpp:434] loss1_conv1_loss_relu1_0_split <- loss1_conv1
I1211 16:53:31.602196 15177 net.cpp:408] loss1_conv1_loss_relu1_0_split -> loss1_conv1_loss_relu1_0_split_0
I1211 16:53:31.602201 15177 net.cpp:408] loss1_conv1_loss_relu1_0_split -> loss1_conv1_loss_relu1_0_split_1
I1211 16:53:31.602244 15177 net.cpp:150] Setting up loss1_conv1_loss_relu1_0_split
I1211 16:53:31.602249 15177 net.cpp:157] Top shape: 4 512 72 96 (14155776)
I1211 16:53:31.602252 15177 net.cpp:157] Top shape: 4 512 72 96 (14155776)
I1211 16:53:31.602254 15177 net.cpp:165] Memory required for data: 4358157724
I1211 16:53:31.602257 15177 layer_factory.hpp:77] Creating layer LFCN_1_5x5
I1211 16:53:31.602265 15177 net.cpp:100] Creating Layer LFCN_1_5x5
I1211 16:53:31.602267 15177 net.cpp:434] LFCN_1_5x5 <- loss1_conv1_loss_relu1_0_split_0
I1211 16:53:31.602272 15177 net.cpp:408] LFCN_1_5x5 -> LFCN_1_5x5
I1211 16:53:31.604187 15177 net.cpp:150] Setting up LFCN_1_5x5
I1211 16:53:31.604202 15177 net.cpp:157] Top shape: 4 9 72 96 (248832)
I1211 16:53:31.604204 15177 net.cpp:165] Memory required for data: 4359153052
I1211 16:53:31.604212 15177 layer_factory.hpp:77] Creating layer LFCN_1_5x5_LFCN_1_5x5_0_split
I1211 16:53:31.604218 15177 net.cpp:100] Creating Layer LFCN_1_5x5_LFCN_1_5x5_0_split
I1211 16:53:31.604223 15177 net.cpp:434] LFCN_1_5x5_LFCN_1_5x5_0_split <- LFCN_1_5x5
I1211 16:53:31.604228 15177 net.cpp:408] LFCN_1_5x5_LFCN_1_5x5_0_split -> LFCN_1_5x5_LFCN_1_5x5_0_split_0
I1211 16:53:31.604236 15177 net.cpp:408] LFCN_1_5x5_LFCN_1_5x5_0_split -> LFCN_1_5x5_LFCN_1_5x5_0_split_1
I1211 16:53:31.604256 15177 net.cpp:408] LFCN_1_5x5_LFCN_1_5x5_0_split -> LFCN_1_5x5_LFCN_1_5x5_0_split_2
I1211 16:53:31.604300 15177 net.cpp:150] Setting up LFCN_1_5x5_LFCN_1_5x5_0_split
I1211 16:53:31.604305 15177 net.cpp:157] Top shape: 4 9 72 96 (248832)
I1211 16:53:31.604308 15177 net.cpp:157] Top shape: 4 9 72 96 (248832)
I1211 16:53:31.604311 15177 net.cpp:157] Top shape: 4 9 72 96 (248832)
I1211 16:53:31.604313 15177 net.cpp:165] Memory required for data: 4362139036
I1211 16:53:31.604316 15177 layer_factory.hpp:77] Creating layer detection_loss_1_5x5
I1211 16:53:31.604323 15177 net.cpp:100] Creating Layer detection_loss_1_5x5
I1211 16:53:31.604327 15177 net.cpp:434] detection_loss_1_5x5 <- LFCN_1_5x5_LFCN_1_5x5_0_split_0
I1211 16:53:31.604331 15177 net.cpp:434] detection_loss_1_5x5 <- label_1_5x5_data_1_split_0
I1211 16:53:31.604336 15177 net.cpp:408] detection_loss_1_5x5 -> loss_1_5x5
I1211 16:53:31.604348 15177 layer_factory.hpp:77] Creating layer detection_loss_1_5x5
I1211 16:53:31.604718 15177 net.cpp:150] Setting up detection_loss_1_5x5
I1211 16:53:31.604727 15177 net.cpp:157] Top shape: 1 1 1 2 (2)
I1211 16:53:31.604729 15177 net.cpp:160]     with loss weight 0.9
I1211 16:53:31.604746 15177 net.cpp:165] Memory required for data: 4362139044
I1211 16:53:31.604749 15177 layer_factory.hpp:77] Creating layer detection_accuracy_1_5x5
I1211 16:53:31.604756 15177 net.cpp:100] Creating Layer detection_accuracy_1_5x5
I1211 16:53:31.604759 15177 net.cpp:434] detection_accuracy_1_5x5 <- LFCN_1_5x5_LFCN_1_5x5_0_split_1
I1211 16:53:31.604765 15177 net.cpp:434] detection_accuracy_1_5x5 <- label_1_5x5_data_1_split_1
I1211 16:53:31.604770 15177 net.cpp:408] detection_accuracy_1_5x5 -> accuracy_1_5x5
I1211 16:53:31.604779 15177 net.cpp:408] detection_accuracy_1_5x5 -> boxiou_1_5x5
I1211 16:53:31.604815 15177 net.cpp:150] Setting up detection_accuracy_1_5x5
I1211 16:53:31.604818 15177 net.cpp:157] Top shape: 1 1 1 2 (2)
I1211 16:53:31.604822 15177 net.cpp:157] Top shape: 1 1 1 1 (1)
I1211 16:53:31.604825 15177 net.cpp:165] Memory required for data: 4362139056
I1211 16:53:31.604826 15177 layer_factory.hpp:77] Creating layer LFCN_1_7x7
I1211 16:53:31.604835 15177 net.cpp:100] Creating Layer LFCN_1_7x7
I1211 16:53:31.604838 15177 net.cpp:434] LFCN_1_7x7 <- loss1_conv1_loss_relu1_0_split_1
I1211 16:53:31.604845 15177 net.cpp:408] LFCN_1_7x7 -> LFCN_1_7x7
I1211 16:53:31.608273 15177 net.cpp:150] Setting up LFCN_1_7x7
I1211 16:53:31.608290 15177 net.cpp:157] Top shape: 4 9 72 96 (248832)
I1211 16:53:31.608292 15177 net.cpp:165] Memory required for data: 4363134384
I1211 16:53:31.608300 15177 layer_factory.hpp:77] Creating layer LFCN_1_7x7_LFCN_1_7x7_0_split
I1211 16:53:31.608309 15177 net.cpp:100] Creating Layer LFCN_1_7x7_LFCN_1_7x7_0_split
I1211 16:53:31.608314 15177 net.cpp:434] LFCN_1_7x7_LFCN_1_7x7_0_split <- LFCN_1_7x7
I1211 16:53:31.608321 15177 net.cpp:408] LFCN_1_7x7_LFCN_1_7x7_0_split -> LFCN_1_7x7_LFCN_1_7x7_0_split_0
I1211 16:53:31.608331 15177 net.cpp:408] LFCN_1_7x7_LFCN_1_7x7_0_split -> LFCN_1_7x7_LFCN_1_7x7_0_split_1
I1211 16:53:31.608337 15177 net.cpp:408] LFCN_1_7x7_LFCN_1_7x7_0_split -> LFCN_1_7x7_LFCN_1_7x7_0_split_2
I1211 16:53:31.608386 15177 net.cpp:150] Setting up LFCN_1_7x7_LFCN_1_7x7_0_split
I1211 16:53:31.608392 15177 net.cpp:157] Top shape: 4 9 72 96 (248832)
I1211 16:53:31.608394 15177 net.cpp:157] Top shape: 4 9 72 96 (248832)
I1211 16:53:31.608397 15177 net.cpp:157] Top shape: 4 9 72 96 (248832)
I1211 16:53:31.608400 15177 net.cpp:165] Memory required for data: 4366120368
I1211 16:53:31.608402 15177 layer_factory.hpp:77] Creating layer detection_loss_1_7x7
I1211 16:53:31.608409 15177 net.cpp:100] Creating Layer detection_loss_1_7x7
I1211 16:53:31.608413 15177 net.cpp:434] detection_loss_1_7x7 <- LFCN_1_7x7_LFCN_1_7x7_0_split_0
I1211 16:53:31.608417 15177 net.cpp:434] detection_loss_1_7x7 <- label_1_7x7_data_2_split_0
I1211 16:53:31.608422 15177 net.cpp:408] detection_loss_1_7x7 -> loss_1_7x7
I1211 16:53:31.608431 15177 layer_factory.hpp:77] Creating layer detection_loss_1_7x7
I1211 16:53:31.609171 15177 net.cpp:150] Setting up detection_loss_1_7x7
I1211 16:53:31.609181 15177 net.cpp:157] Top shape: 1 1 1 2 (2)
I1211 16:53:31.609184 15177 net.cpp:160]     with loss weight 0.9
I1211 16:53:31.609192 15177 net.cpp:165] Memory required for data: 4366120376
I1211 16:53:31.609195 15177 layer_factory.hpp:77] Creating layer detection_accuracy_1_7x7
I1211 16:53:31.609203 15177 net.cpp:100] Creating Layer detection_accuracy_1_7x7
I1211 16:53:31.609208 15177 net.cpp:434] detection_accuracy_1_7x7 <- LFCN_1_7x7_LFCN_1_7x7_0_split_1
I1211 16:53:31.609213 15177 net.cpp:434] detection_accuracy_1_7x7 <- label_1_7x7_data_2_split_1
I1211 16:53:31.609218 15177 net.cpp:408] detection_accuracy_1_7x7 -> accuracy_1_7x7
I1211 16:53:31.609226 15177 net.cpp:408] detection_accuracy_1_7x7 -> boxiou_1_7x7
I1211 16:53:31.609267 15177 net.cpp:150] Setting up detection_accuracy_1_7x7
I1211 16:53:31.609272 15177 net.cpp:157] Top shape: 1 1 1 2 (2)
I1211 16:53:31.609275 15177 net.cpp:157] Top shape: 1 1 1 1 (1)
I1211 16:53:31.609277 15177 net.cpp:165] Memory required for data: 4366120388
I1211 16:53:31.609279 15177 layer_factory.hpp:77] Creating layer pool4
I1211 16:53:31.609285 15177 net.cpp:100] Creating Layer pool4
I1211 16:53:31.609288 15177 net.cpp:434] pool4 <- conv4_3_relu4_3_0_split_1
I1211 16:53:31.609293 15177 net.cpp:408] pool4 -> pool4
I1211 16:53:31.609324 15177 net.cpp:150] Setting up pool4
I1211 16:53:31.609328 15177 net.cpp:157] Top shape: 4 512 36 48 (3538944)
I1211 16:53:31.609331 15177 net.cpp:165] Memory required for data: 4380276164
I1211 16:53:31.609333 15177 layer_factory.hpp:77] Creating layer conv5_1
I1211 16:53:31.609340 15177 net.cpp:100] Creating Layer conv5_1
I1211 16:53:31.609344 15177 net.cpp:434] conv5_1 <- pool4
I1211 16:53:31.609349 15177 net.cpp:408] conv5_1 -> conv5_1
I1211 16:53:31.614419 15177 net.cpp:150] Setting up conv5_1
I1211 16:53:31.614437 15177 net.cpp:157] Top shape: 4 512 36 48 (3538944)
I1211 16:53:31.614439 15177 net.cpp:165] Memory required for data: 4394431940
I1211 16:53:31.614449 15177 layer_factory.hpp:77] Creating layer relu5_1
I1211 16:53:31.614456 15177 net.cpp:100] Creating Layer relu5_1
I1211 16:53:31.614460 15177 net.cpp:434] relu5_1 <- conv5_1
I1211 16:53:31.614466 15177 net.cpp:395] relu5_1 -> conv5_1 (in-place)
I1211 16:53:31.614650 15177 net.cpp:150] Setting up relu5_1
I1211 16:53:31.614655 15177 net.cpp:157] Top shape: 4 512 36 48 (3538944)
I1211 16:53:31.614658 15177 net.cpp:165] Memory required for data: 4408587716
I1211 16:53:31.614660 15177 layer_factory.hpp:77] Creating layer conv5_2
I1211 16:53:31.614668 15177 net.cpp:100] Creating Layer conv5_2
I1211 16:53:31.614672 15177 net.cpp:434] conv5_2 <- conv5_1
I1211 16:53:31.614676 15177 net.cpp:408] conv5_2 -> conv5_2
I1211 16:53:31.619472 15177 net.cpp:150] Setting up conv5_2
I1211 16:53:31.619490 15177 net.cpp:157] Top shape: 4 512 36 48 (3538944)
I1211 16:53:31.619493 15177 net.cpp:165] Memory required for data: 4422743492
I1211 16:53:31.619501 15177 layer_factory.hpp:77] Creating layer relu5_2
I1211 16:53:31.619510 15177 net.cpp:100] Creating Layer relu5_2
I1211 16:53:31.619515 15177 net.cpp:434] relu5_2 <- conv5_2
I1211 16:53:31.619520 15177 net.cpp:395] relu5_2 -> conv5_2 (in-place)
I1211 16:53:31.619693 15177 net.cpp:150] Setting up relu5_2
I1211 16:53:31.619699 15177 net.cpp:157] Top shape: 4 512 36 48 (3538944)
I1211 16:53:31.619701 15177 net.cpp:165] Memory required for data: 4436899268
I1211 16:53:31.619704 15177 layer_factory.hpp:77] Creating layer conv5_3
I1211 16:53:31.619711 15177 net.cpp:100] Creating Layer conv5_3
I1211 16:53:31.619715 15177 net.cpp:434] conv5_3 <- conv5_2
I1211 16:53:31.619720 15177 net.cpp:408] conv5_3 -> conv5_3
I1211 16:53:31.624536 15177 net.cpp:150] Setting up conv5_3
I1211 16:53:31.624554 15177 net.cpp:157] Top shape: 4 512 36 48 (3538944)
I1211 16:53:31.624557 15177 net.cpp:165] Memory required for data: 4451055044
I1211 16:53:31.624565 15177 layer_factory.hpp:77] Creating layer relu5_3
I1211 16:53:31.624573 15177 net.cpp:100] Creating Layer relu5_3
I1211 16:53:31.624578 15177 net.cpp:434] relu5_3 <- conv5_3
I1211 16:53:31.624584 15177 net.cpp:395] relu5_3 -> conv5_3 (in-place)
I1211 16:53:31.625108 15177 net.cpp:150] Setting up relu5_3
I1211 16:53:31.625116 15177 net.cpp:157] Top shape: 4 512 36 48 (3538944)
I1211 16:53:31.625118 15177 net.cpp:165] Memory required for data: 4465210820
I1211 16:53:31.625121 15177 layer_factory.hpp:77] Creating layer conv5_3_relu5_3_0_split
I1211 16:53:31.625128 15177 net.cpp:100] Creating Layer conv5_3_relu5_3_0_split
I1211 16:53:31.625133 15177 net.cpp:434] conv5_3_relu5_3_0_split <- conv5_3
I1211 16:53:31.625138 15177 net.cpp:408] conv5_3_relu5_3_0_split -> conv5_3_relu5_3_0_split_0
I1211 16:53:31.625145 15177 net.cpp:408] conv5_3_relu5_3_0_split -> conv5_3_relu5_3_0_split_1
I1211 16:53:31.625151 15177 net.cpp:408] conv5_3_relu5_3_0_split -> conv5_3_relu5_3_0_split_2
I1211 16:53:31.625203 15177 net.cpp:150] Setting up conv5_3_relu5_3_0_split
I1211 16:53:31.625208 15177 net.cpp:157] Top shape: 4 512 36 48 (3538944)
I1211 16:53:31.625212 15177 net.cpp:157] Top shape: 4 512 36 48 (3538944)
I1211 16:53:31.625216 15177 net.cpp:157] Top shape: 4 512 36 48 (3538944)
I1211 16:53:31.625218 15177 net.cpp:165] Memory required for data: 4507678148
I1211 16:53:31.625221 15177 layer_factory.hpp:77] Creating layer LFCN_2_5x5
I1211 16:53:31.625231 15177 net.cpp:100] Creating Layer LFCN_2_5x5
I1211 16:53:31.625233 15177 net.cpp:434] LFCN_2_5x5 <- conv5_3_relu5_3_0_split_0
I1211 16:53:31.625239 15177 net.cpp:408] LFCN_2_5x5 -> LFCN_2_5x5
I1211 16:53:31.627099 15177 net.cpp:150] Setting up LFCN_2_5x5
I1211 16:53:31.627110 15177 net.cpp:157] Top shape: 4 9 36 48 (62208)
I1211 16:53:31.627112 15177 net.cpp:165] Memory required for data: 4507926980
I1211 16:53:31.627126 15177 layer_factory.hpp:77] Creating layer LFCN_2_5x5_LFCN_2_5x5_0_split
I1211 16:53:31.627133 15177 net.cpp:100] Creating Layer LFCN_2_5x5_LFCN_2_5x5_0_split
I1211 16:53:31.627138 15177 net.cpp:434] LFCN_2_5x5_LFCN_2_5x5_0_split <- LFCN_2_5x5
I1211 16:53:31.627146 15177 net.cpp:408] LFCN_2_5x5_LFCN_2_5x5_0_split -> LFCN_2_5x5_LFCN_2_5x5_0_split_0
I1211 16:53:31.627159 15177 net.cpp:408] LFCN_2_5x5_LFCN_2_5x5_0_split -> LFCN_2_5x5_LFCN_2_5x5_0_split_1
I1211 16:53:31.627164 15177 net.cpp:408] LFCN_2_5x5_LFCN_2_5x5_0_split -> LFCN_2_5x5_LFCN_2_5x5_0_split_2
I1211 16:53:31.627234 15177 net.cpp:150] Setting up LFCN_2_5x5_LFCN_2_5x5_0_split
I1211 16:53:31.627241 15177 net.cpp:157] Top shape: 4 9 36 48 (62208)
I1211 16:53:31.627245 15177 net.cpp:157] Top shape: 4 9 36 48 (62208)
I1211 16:53:31.627249 15177 net.cpp:157] Top shape: 4 9 36 48 (62208)
I1211 16:53:31.627251 15177 net.cpp:165] Memory required for data: 4508673476
I1211 16:53:31.627254 15177 layer_factory.hpp:77] Creating layer detection_loss_2_5x5
I1211 16:53:31.627260 15177 net.cpp:100] Creating Layer detection_loss_2_5x5
I1211 16:53:31.627264 15177 net.cpp:434] detection_loss_2_5x5 <- LFCN_2_5x5_LFCN_2_5x5_0_split_0
I1211 16:53:31.627269 15177 net.cpp:434] detection_loss_2_5x5 <- label_2_5x5_data_3_split_0
I1211 16:53:31.627274 15177 net.cpp:408] detection_loss_2_5x5 -> loss_2_5x5
I1211 16:53:31.627280 15177 layer_factory.hpp:77] Creating layer detection_loss_2_5x5
I1211 16:53:31.627612 15177 net.cpp:150] Setting up detection_loss_2_5x5
I1211 16:53:31.627619 15177 net.cpp:157] Top shape: 1 1 1 2 (2)
I1211 16:53:31.627621 15177 net.cpp:160]     with loss weight 1
I1211 16:53:31.627630 15177 net.cpp:165] Memory required for data: 4508673484
I1211 16:53:31.627634 15177 layer_factory.hpp:77] Creating layer detection_accuracy_2_5x5
I1211 16:53:31.627640 15177 net.cpp:100] Creating Layer detection_accuracy_2_5x5
I1211 16:53:31.627642 15177 net.cpp:434] detection_accuracy_2_5x5 <- LFCN_2_5x5_LFCN_2_5x5_0_split_1
I1211 16:53:31.627647 15177 net.cpp:434] detection_accuracy_2_5x5 <- label_2_5x5_data_3_split_1
I1211 16:53:31.627653 15177 net.cpp:408] detection_accuracy_2_5x5 -> accuracy_2_5x5
I1211 16:53:31.627661 15177 net.cpp:408] detection_accuracy_2_5x5 -> boxiou_2_5x5
I1211 16:53:31.627696 15177 net.cpp:150] Setting up detection_accuracy_2_5x5
I1211 16:53:31.627703 15177 net.cpp:157] Top shape: 1 1 1 2 (2)
I1211 16:53:31.627707 15177 net.cpp:157] Top shape: 1 1 1 1 (1)
I1211 16:53:31.627708 15177 net.cpp:165] Memory required for data: 4508673496
I1211 16:53:31.627712 15177 layer_factory.hpp:77] Creating layer LFCN_2_7x7
I1211 16:53:31.627718 15177 net.cpp:100] Creating Layer LFCN_2_7x7
I1211 16:53:31.627720 15177 net.cpp:434] LFCN_2_7x7 <- conv5_3_relu5_3_0_split_1
I1211 16:53:31.627724 15177 net.cpp:408] LFCN_2_7x7 -> LFCN_2_7x7
I1211 16:53:31.631237 15177 net.cpp:150] Setting up LFCN_2_7x7
I1211 16:53:31.631256 15177 net.cpp:157] Top shape: 4 9 36 48 (62208)
I1211 16:53:31.631259 15177 net.cpp:165] Memory required for data: 4508922328
I1211 16:53:31.631268 15177 layer_factory.hpp:77] Creating layer LFCN_2_7x7_LFCN_2_7x7_0_split
I1211 16:53:31.631275 15177 net.cpp:100] Creating Layer LFCN_2_7x7_LFCN_2_7x7_0_split
I1211 16:53:31.631279 15177 net.cpp:434] LFCN_2_7x7_LFCN_2_7x7_0_split <- LFCN_2_7x7
I1211 16:53:31.631289 15177 net.cpp:408] LFCN_2_7x7_LFCN_2_7x7_0_split -> LFCN_2_7x7_LFCN_2_7x7_0_split_0
I1211 16:53:31.631299 15177 net.cpp:408] LFCN_2_7x7_LFCN_2_7x7_0_split -> LFCN_2_7x7_LFCN_2_7x7_0_split_1
I1211 16:53:31.631304 15177 net.cpp:408] LFCN_2_7x7_LFCN_2_7x7_0_split -> LFCN_2_7x7_LFCN_2_7x7_0_split_2
I1211 16:53:31.631366 15177 net.cpp:150] Setting up LFCN_2_7x7_LFCN_2_7x7_0_split
I1211 16:53:31.631372 15177 net.cpp:157] Top shape: 4 9 36 48 (62208)
I1211 16:53:31.631376 15177 net.cpp:157] Top shape: 4 9 36 48 (62208)
I1211 16:53:31.631379 15177 net.cpp:157] Top shape: 4 9 36 48 (62208)
I1211 16:53:31.631381 15177 net.cpp:165] Memory required for data: 4509668824
I1211 16:53:31.631384 15177 layer_factory.hpp:77] Creating layer detection_loss_2_7x7
I1211 16:53:31.631391 15177 net.cpp:100] Creating Layer detection_loss_2_7x7
I1211 16:53:31.631393 15177 net.cpp:434] detection_loss_2_7x7 <- LFCN_2_7x7_LFCN_2_7x7_0_split_0
I1211 16:53:31.631398 15177 net.cpp:434] detection_loss_2_7x7 <- label_2_7x7_data_4_split_0
I1211 16:53:31.631403 15177 net.cpp:408] detection_loss_2_7x7 -> loss_2_7x7
I1211 16:53:31.631412 15177 layer_factory.hpp:77] Creating layer detection_loss_2_7x7
I1211 16:53:31.631881 15177 net.cpp:150] Setting up detection_loss_2_7x7
I1211 16:53:31.631891 15177 net.cpp:157] Top shape: 1 1 1 2 (2)
I1211 16:53:31.631892 15177 net.cpp:160]     with loss weight 1
I1211 16:53:31.631901 15177 net.cpp:165] Memory required for data: 4509668832
I1211 16:53:31.631903 15177 layer_factory.hpp:77] Creating layer detection_accuracy_2_7x7
I1211 16:53:31.631911 15177 net.cpp:100] Creating Layer detection_accuracy_2_7x7
I1211 16:53:31.631914 15177 net.cpp:434] detection_accuracy_2_7x7 <- LFCN_2_7x7_LFCN_2_7x7_0_split_1
I1211 16:53:31.631919 15177 net.cpp:434] detection_accuracy_2_7x7 <- label_2_7x7_data_4_split_1
I1211 16:53:31.631925 15177 net.cpp:408] detection_accuracy_2_7x7 -> accuracy_2_7x7
I1211 16:53:31.631932 15177 net.cpp:408] detection_accuracy_2_7x7 -> boxiou_2_7x7
I1211 16:53:31.631976 15177 net.cpp:150] Setting up detection_accuracy_2_7x7
I1211 16:53:31.631981 15177 net.cpp:157] Top shape: 1 1 1 2 (2)
I1211 16:53:31.631984 15177 net.cpp:157] Top shape: 1 1 1 1 (1)
I1211 16:53:31.631989 15177 net.cpp:165] Memory required for data: 4509668844
I1211 16:53:31.631990 15177 layer_factory.hpp:77] Creating layer pool5
I1211 16:53:31.631995 15177 net.cpp:100] Creating Layer pool5
I1211 16:53:31.631999 15177 net.cpp:434] pool5 <- conv5_3_relu5_3_0_split_2
I1211 16:53:31.632005 15177 net.cpp:408] pool5 -> pool5
I1211 16:53:31.632045 15177 net.cpp:150] Setting up pool5
I1211 16:53:31.632051 15177 net.cpp:157] Top shape: 4 512 18 24 (884736)
I1211 16:53:31.632055 15177 net.cpp:165] Memory required for data: 4513207788
I1211 16:53:31.632056 15177 layer_factory.hpp:77] Creating layer conv6_1
I1211 16:53:31.632066 15177 net.cpp:100] Creating Layer conv6_1
I1211 16:53:31.632069 15177 net.cpp:434] conv6_1 <- pool5
I1211 16:53:31.632076 15177 net.cpp:408] conv6_1 -> conv6_1
I1211 16:53:31.652230 15177 net.cpp:150] Setting up conv6_1
I1211 16:53:31.652246 15177 net.cpp:157] Top shape: 4 512 18 24 (884736)
I1211 16:53:31.652247 15177 net.cpp:165] Memory required for data: 4516746732
I1211 16:53:31.652254 15177 layer_factory.hpp:77] Creating layer relu6_1
I1211 16:53:31.652259 15177 net.cpp:100] Creating Layer relu6_1
I1211 16:53:31.652263 15177 net.cpp:434] relu6_1 <- conv6_1
I1211 16:53:31.652267 15177 net.cpp:395] relu6_1 -> conv6_1 (in-place)
I1211 16:53:31.652494 15177 net.cpp:150] Setting up relu6_1
I1211 16:53:31.652503 15177 net.cpp:157] Top shape: 4 512 18 24 (884736)
I1211 16:53:31.652504 15177 net.cpp:165] Memory required for data: 4520285676
I1211 16:53:31.652508 15177 layer_factory.hpp:77] Creating layer conv6_1_relu6_1_0_split
I1211 16:53:31.652513 15177 net.cpp:100] Creating Layer conv6_1_relu6_1_0_split
I1211 16:53:31.652516 15177 net.cpp:434] conv6_1_relu6_1_0_split <- conv6_1
I1211 16:53:31.652521 15177 net.cpp:408] conv6_1_relu6_1_0_split -> conv6_1_relu6_1_0_split_0
I1211 16:53:31.652529 15177 net.cpp:408] conv6_1_relu6_1_0_split -> conv6_1_relu6_1_0_split_1
I1211 16:53:31.652534 15177 net.cpp:408] conv6_1_relu6_1_0_split -> conv6_1_relu6_1_0_split_2
I1211 16:53:31.652595 15177 net.cpp:150] Setting up conv6_1_relu6_1_0_split
I1211 16:53:31.652601 15177 net.cpp:157] Top shape: 4 512 18 24 (884736)
I1211 16:53:31.652604 15177 net.cpp:157] Top shape: 4 512 18 24 (884736)
I1211 16:53:31.652607 15177 net.cpp:157] Top shape: 4 512 18 24 (884736)
I1211 16:53:31.652609 15177 net.cpp:165] Memory required for data: 4530902508
I1211 16:53:31.652612 15177 layer_factory.hpp:77] Creating layer LFCN_3_5x5
I1211 16:53:31.652623 15177 net.cpp:100] Creating Layer LFCN_3_5x5
I1211 16:53:31.652626 15177 net.cpp:434] LFCN_3_5x5 <- conv6_1_relu6_1_0_split_0
I1211 16:53:31.652633 15177 net.cpp:408] LFCN_3_5x5 -> LFCN_3_5x5
I1211 16:53:31.654780 15177 net.cpp:150] Setting up LFCN_3_5x5
I1211 16:53:31.654791 15177 net.cpp:157] Top shape: 4 9 18 24 (15552)
I1211 16:53:31.654793 15177 net.cpp:165] Memory required for data: 4530964716
I1211 16:53:31.654798 15177 layer_factory.hpp:77] Creating layer LFCN_3_5x5_LFCN_3_5x5_0_split
I1211 16:53:31.654811 15177 net.cpp:100] Creating Layer LFCN_3_5x5_LFCN_3_5x5_0_split
I1211 16:53:31.654814 15177 net.cpp:434] LFCN_3_5x5_LFCN_3_5x5_0_split <- LFCN_3_5x5
I1211 16:53:31.654817 15177 net.cpp:408] LFCN_3_5x5_LFCN_3_5x5_0_split -> LFCN_3_5x5_LFCN_3_5x5_0_split_0
I1211 16:53:31.654824 15177 net.cpp:408] LFCN_3_5x5_LFCN_3_5x5_0_split -> LFCN_3_5x5_LFCN_3_5x5_0_split_1
I1211 16:53:31.654826 15177 net.cpp:408] LFCN_3_5x5_LFCN_3_5x5_0_split -> LFCN_3_5x5_LFCN_3_5x5_0_split_2
I1211 16:53:31.654886 15177 net.cpp:150] Setting up LFCN_3_5x5_LFCN_3_5x5_0_split
I1211 16:53:31.654892 15177 net.cpp:157] Top shape: 4 9 18 24 (15552)
I1211 16:53:31.654896 15177 net.cpp:157] Top shape: 4 9 18 24 (15552)
I1211 16:53:31.654899 15177 net.cpp:157] Top shape: 4 9 18 24 (15552)
I1211 16:53:31.654901 15177 net.cpp:165] Memory required for data: 4531151340
I1211 16:53:31.654904 15177 layer_factory.hpp:77] Creating layer detection_loss_3_5x5
I1211 16:53:31.654911 15177 net.cpp:100] Creating Layer detection_loss_3_5x5
I1211 16:53:31.654914 15177 net.cpp:434] detection_loss_3_5x5 <- LFCN_3_5x5_LFCN_3_5x5_0_split_0
I1211 16:53:31.654919 15177 net.cpp:434] detection_loss_3_5x5 <- label_3_5x5_data_5_split_0
I1211 16:53:31.654924 15177 net.cpp:408] detection_loss_3_5x5 -> loss_3_5x5
I1211 16:53:31.654932 15177 layer_factory.hpp:77] Creating layer detection_loss_3_5x5
I1211 16:53:31.655895 15177 net.cpp:150] Setting up detection_loss_3_5x5
I1211 16:53:31.655907 15177 net.cpp:157] Top shape: 1 1 1 2 (2)
I1211 16:53:31.655908 15177 net.cpp:160]     with loss weight 1
I1211 16:53:31.655915 15177 net.cpp:165] Memory required for data: 4531151348
I1211 16:53:31.655916 15177 layer_factory.hpp:77] Creating layer detection_accuracy_3_5x5
I1211 16:53:31.655922 15177 net.cpp:100] Creating Layer detection_accuracy_3_5x5
I1211 16:53:31.655925 15177 net.cpp:434] detection_accuracy_3_5x5 <- LFCN_3_5x5_LFCN_3_5x5_0_split_1
I1211 16:53:31.655930 15177 net.cpp:434] detection_accuracy_3_5x5 <- label_3_5x5_data_5_split_1
I1211 16:53:31.655933 15177 net.cpp:408] detection_accuracy_3_5x5 -> accuracy_3_5x5
I1211 16:53:31.655939 15177 net.cpp:408] detection_accuracy_3_5x5 -> boxiou_3_5x5
I1211 16:53:31.655987 15177 net.cpp:150] Setting up detection_accuracy_3_5x5
I1211 16:53:31.655992 15177 net.cpp:157] Top shape: 1 1 1 2 (2)
I1211 16:53:31.655995 15177 net.cpp:157] Top shape: 1 1 1 1 (1)
I1211 16:53:31.655997 15177 net.cpp:165] Memory required for data: 4531151360
I1211 16:53:31.655999 15177 layer_factory.hpp:77] Creating layer LFCN_3_7x7
I1211 16:53:31.656011 15177 net.cpp:100] Creating Layer LFCN_3_7x7
I1211 16:53:31.656014 15177 net.cpp:434] LFCN_3_7x7 <- conv6_1_relu6_1_0_split_1
I1211 16:53:31.656020 15177 net.cpp:408] LFCN_3_7x7 -> LFCN_3_7x7
I1211 16:53:31.659766 15177 net.cpp:150] Setting up LFCN_3_7x7
I1211 16:53:31.659781 15177 net.cpp:157] Top shape: 4 9 18 24 (15552)
I1211 16:53:31.659783 15177 net.cpp:165] Memory required for data: 4531213568
I1211 16:53:31.659790 15177 layer_factory.hpp:77] Creating layer LFCN_3_7x7_LFCN_3_7x7_0_split
I1211 16:53:31.659796 15177 net.cpp:100] Creating Layer LFCN_3_7x7_LFCN_3_7x7_0_split
I1211 16:53:31.659799 15177 net.cpp:434] LFCN_3_7x7_LFCN_3_7x7_0_split <- LFCN_3_7x7
I1211 16:53:31.659804 15177 net.cpp:408] LFCN_3_7x7_LFCN_3_7x7_0_split -> LFCN_3_7x7_LFCN_3_7x7_0_split_0
I1211 16:53:31.659811 15177 net.cpp:408] LFCN_3_7x7_LFCN_3_7x7_0_split -> LFCN_3_7x7_LFCN_3_7x7_0_split_1
I1211 16:53:31.659816 15177 net.cpp:408] LFCN_3_7x7_LFCN_3_7x7_0_split -> LFCN_3_7x7_LFCN_3_7x7_0_split_2
I1211 16:53:31.659870 15177 net.cpp:150] Setting up LFCN_3_7x7_LFCN_3_7x7_0_split
I1211 16:53:31.659876 15177 net.cpp:157] Top shape: 4 9 18 24 (15552)
I1211 16:53:31.659880 15177 net.cpp:157] Top shape: 4 9 18 24 (15552)
I1211 16:53:31.659883 15177 net.cpp:157] Top shape: 4 9 18 24 (15552)
I1211 16:53:31.659885 15177 net.cpp:165] Memory required for data: 4531400192
I1211 16:53:31.659888 15177 layer_factory.hpp:77] Creating layer detection_loss_3_7x7
I1211 16:53:31.659894 15177 net.cpp:100] Creating Layer detection_loss_3_7x7
I1211 16:53:31.659898 15177 net.cpp:434] detection_loss_3_7x7 <- LFCN_3_7x7_LFCN_3_7x7_0_split_0
I1211 16:53:31.659903 15177 net.cpp:434] detection_loss_3_7x7 <- label_3_7x7_data_6_split_0
I1211 16:53:31.659909 15177 net.cpp:408] detection_loss_3_7x7 -> loss_3_7x7
I1211 16:53:31.659917 15177 layer_factory.hpp:77] Creating layer detection_loss_3_7x7
I1211 16:53:31.660352 15177 net.cpp:150] Setting up detection_loss_3_7x7
I1211 16:53:31.660359 15177 net.cpp:157] Top shape: 1 1 1 2 (2)
I1211 16:53:31.660362 15177 net.cpp:160]     with loss weight 1
I1211 16:53:31.660367 15177 net.cpp:165] Memory required for data: 4531400200
I1211 16:53:31.660368 15177 layer_factory.hpp:77] Creating layer detection_accuracy_3_7x7
I1211 16:53:31.660372 15177 net.cpp:100] Creating Layer detection_accuracy_3_7x7
I1211 16:53:31.660374 15177 net.cpp:434] detection_accuracy_3_7x7 <- LFCN_3_7x7_LFCN_3_7x7_0_split_1
I1211 16:53:31.660377 15177 net.cpp:434] detection_accuracy_3_7x7 <- label_3_7x7_data_6_split_1
I1211 16:53:31.660382 15177 net.cpp:408] detection_accuracy_3_7x7 -> accuracy_3_7x7
I1211 16:53:31.660387 15177 net.cpp:408] detection_accuracy_3_7x7 -> boxiou_3_7x7
I1211 16:53:31.660428 15177 net.cpp:150] Setting up detection_accuracy_3_7x7
I1211 16:53:31.660434 15177 net.cpp:157] Top shape: 1 1 1 2 (2)
I1211 16:53:31.660437 15177 net.cpp:157] Top shape: 1 1 1 1 (1)
I1211 16:53:31.660439 15177 net.cpp:165] Memory required for data: 4531400212
I1211 16:53:31.660441 15177 layer_factory.hpp:77] Creating layer pool6
I1211 16:53:31.660447 15177 net.cpp:100] Creating Layer pool6
I1211 16:53:31.660452 15177 net.cpp:434] pool6 <- conv6_1_relu6_1_0_split_2
I1211 16:53:31.660457 15177 net.cpp:408] pool6 -> pool6
I1211 16:53:31.660503 15177 net.cpp:150] Setting up pool6
I1211 16:53:31.660508 15177 net.cpp:157] Top shape: 4 512 9 12 (221184)
I1211 16:53:31.660511 15177 net.cpp:165] Memory required for data: 4532284948
I1211 16:53:31.660514 15177 layer_factory.hpp:77] Creating layer LFCN_4_5x5
I1211 16:53:31.660523 15177 net.cpp:100] Creating Layer LFCN_4_5x5
I1211 16:53:31.660526 15177 net.cpp:434] LFCN_4_5x5 <- pool6
I1211 16:53:31.660532 15177 net.cpp:408] LFCN_4_5x5 -> LFCN_4_5x5
I1211 16:53:31.662959 15177 net.cpp:150] Setting up LFCN_4_5x5
I1211 16:53:31.662969 15177 net.cpp:157] Top shape: 4 9 9 12 (3888)
I1211 16:53:31.662971 15177 net.cpp:165] Memory required for data: 4532300500
I1211 16:53:31.662976 15177 layer_factory.hpp:77] Creating layer LFCN_4_5x5_LFCN_4_5x5_0_split
I1211 16:53:31.662981 15177 net.cpp:100] Creating Layer LFCN_4_5x5_LFCN_4_5x5_0_split
I1211 16:53:31.662983 15177 net.cpp:434] LFCN_4_5x5_LFCN_4_5x5_0_split <- LFCN_4_5x5
I1211 16:53:31.662988 15177 net.cpp:408] LFCN_4_5x5_LFCN_4_5x5_0_split -> LFCN_4_5x5_LFCN_4_5x5_0_split_0
I1211 16:53:31.662993 15177 net.cpp:408] LFCN_4_5x5_LFCN_4_5x5_0_split -> LFCN_4_5x5_LFCN_4_5x5_0_split_1
I1211 16:53:31.662997 15177 net.cpp:408] LFCN_4_5x5_LFCN_4_5x5_0_split -> LFCN_4_5x5_LFCN_4_5x5_0_split_2
I1211 16:53:31.663058 15177 net.cpp:150] Setting up LFCN_4_5x5_LFCN_4_5x5_0_split
I1211 16:53:31.663064 15177 net.cpp:157] Top shape: 4 9 9 12 (3888)
I1211 16:53:31.663067 15177 net.cpp:157] Top shape: 4 9 9 12 (3888)
I1211 16:53:31.663070 15177 net.cpp:157] Top shape: 4 9 9 12 (3888)
I1211 16:53:31.663074 15177 net.cpp:165] Memory required for data: 4532347156
I1211 16:53:31.663076 15177 layer_factory.hpp:77] Creating layer detection_loss_4_5x5
I1211 16:53:31.663082 15177 net.cpp:100] Creating Layer detection_loss_4_5x5
I1211 16:53:31.663086 15177 net.cpp:434] detection_loss_4_5x5 <- LFCN_4_5x5_LFCN_4_5x5_0_split_0
I1211 16:53:31.663091 15177 net.cpp:434] detection_loss_4_5x5 <- label_4_5x5_data_7_split_0
I1211 16:53:31.663096 15177 net.cpp:408] detection_loss_4_5x5 -> loss_4_5x5
I1211 16:53:31.663105 15177 layer_factory.hpp:77] Creating layer detection_loss_4_5x5
I1211 16:53:31.663565 15177 net.cpp:150] Setting up detection_loss_4_5x5
I1211 16:53:31.663573 15177 net.cpp:157] Top shape: 1 1 1 2 (2)
I1211 16:53:31.663576 15177 net.cpp:160]     with loss weight 1
I1211 16:53:31.663584 15177 net.cpp:165] Memory required for data: 4532347164
I1211 16:53:31.663586 15177 layer_factory.hpp:77] Creating layer detection_accuracy_4_5x5
I1211 16:53:31.663594 15177 net.cpp:100] Creating Layer detection_accuracy_4_5x5
I1211 16:53:31.663597 15177 net.cpp:434] detection_accuracy_4_5x5 <- LFCN_4_5x5_LFCN_4_5x5_0_split_1
I1211 16:53:31.663602 15177 net.cpp:434] detection_accuracy_4_5x5 <- label_4_5x5_data_7_split_1
I1211 16:53:31.663607 15177 net.cpp:408] detection_accuracy_4_5x5 -> accuracy_4_5x5
I1211 16:53:31.663614 15177 net.cpp:408] detection_accuracy_4_5x5 -> boxiou_4_5x5
I1211 16:53:31.663661 15177 net.cpp:150] Setting up detection_accuracy_4_5x5
I1211 16:53:31.663666 15177 net.cpp:157] Top shape: 1 1 1 2 (2)
I1211 16:53:31.663669 15177 net.cpp:157] Top shape: 1 1 1 1 (1)
I1211 16:53:31.663672 15177 net.cpp:165] Memory required for data: 4532347176
I1211 16:53:31.663674 15177 layer_factory.hpp:77] Creating layer proposals
I1211 16:53:31.663682 15177 net.cpp:100] Creating Layer proposals
I1211 16:53:31.663686 15177 net.cpp:434] proposals <- LFCN_1_5x5_LFCN_1_5x5_0_split_2
I1211 16:53:31.663691 15177 net.cpp:434] proposals <- LFCN_1_7x7_LFCN_1_7x7_0_split_2
I1211 16:53:31.663693 15177 net.cpp:434] proposals <- LFCN_2_5x5_LFCN_2_5x5_0_split_2
I1211 16:53:31.663697 15177 net.cpp:434] proposals <- LFCN_2_7x7_LFCN_2_7x7_0_split_2
I1211 16:53:31.663702 15177 net.cpp:434] proposals <- LFCN_3_5x5_LFCN_3_5x5_0_split_2
I1211 16:53:31.663704 15177 net.cpp:434] proposals <- LFCN_3_7x7_LFCN_3_7x7_0_split_2
I1211 16:53:31.663708 15177 net.cpp:434] proposals <- LFCN_4_5x5_LFCN_4_5x5_0_split_2
I1211 16:53:31.663713 15177 net.cpp:408] proposals -> proposals
I1211 16:53:31.663744 15177 net.cpp:150] Setting up proposals
I1211 16:53:31.663749 15177 net.cpp:157] Top shape: 1 5 1 1 (5)
I1211 16:53:31.663751 15177 net.cpp:165] Memory required for data: 4532347196
I1211 16:53:31.663754 15177 layer_factory.hpp:77] Creating layer proposal_info
I1211 16:53:31.663760 15177 net.cpp:100] Creating Layer proposal_info
I1211 16:53:31.663764 15177 net.cpp:434] proposal_info <- proposals
I1211 16:53:31.663769 15177 net.cpp:434] proposal_info <- gt_boxes
I1211 16:53:31.663774 15177 net.cpp:408] proposal_info -> rois
I1211 16:53:31.663784 15177 net.cpp:408] proposal_info -> proposal_labels
I1211 16:53:31.663792 15177 net.cpp:408] proposal_info -> proposal_targets
I1211 16:53:31.663800 15177 net.cpp:408] proposal_info -> box_inside_weights
I1211 16:53:31.663806 15177 net.cpp:408] proposal_info -> box_outside_weights
I1211 16:53:31.663813 15177 net.cpp:408] proposal_info -> match_gt_boxes
I1211 16:53:31.663923 15177 net.cpp:150] Setting up proposal_info
I1211 16:53:31.663931 15177 net.cpp:157] Top shape: 256 5 1 1 (1280)
I1211 16:53:31.663935 15177 net.cpp:157] Top shape: 256 1 1 1 (256)
I1211 16:53:31.663940 15177 net.cpp:157] Top shape: 256 20 1 1 (5120)
I1211 16:53:31.663944 15177 net.cpp:157] Top shape: 256 20 1 1 (5120)
I1211 16:53:31.663949 15177 net.cpp:157] Top shape: 256 20 1 1 (5120)
I1211 16:53:31.663952 15177 net.cpp:157] Top shape: 256 6 1 1 (1536)
I1211 16:53:31.663955 15177 net.cpp:165] Memory required for data: 4532420924
I1211 16:53:31.663959 15177 layer_factory.hpp:77] Creating layer rois_proposal_info_0_split
I1211 16:53:31.663962 15177 net.cpp:100] Creating Layer rois_proposal_info_0_split
I1211 16:53:31.663965 15177 net.cpp:434] rois_proposal_info_0_split <- rois
I1211 16:53:31.663970 15177 net.cpp:408] rois_proposal_info_0_split -> rois_proposal_info_0_split_0
I1211 16:53:31.663976 15177 net.cpp:408] rois_proposal_info_0_split -> rois_proposal_info_0_split_1
I1211 16:53:31.663982 15177 net.cpp:408] rois_proposal_info_0_split -> rois_proposal_info_0_split_2
I1211 16:53:31.664036 15177 net.cpp:150] Setting up rois_proposal_info_0_split
I1211 16:53:31.664041 15177 net.cpp:157] Top shape: 256 5 1 1 (1280)
I1211 16:53:31.664047 15177 net.cpp:157] Top shape: 256 5 1 1 (1280)
I1211 16:53:31.664050 15177 net.cpp:157] Top shape: 256 5 1 1 (1280)
I1211 16:53:31.664053 15177 net.cpp:165] Memory required for data: 4532436284
I1211 16:53:31.664055 15177 layer_factory.hpp:77] Creating layer proposal_labels_proposal_info_1_split
I1211 16:53:31.664059 15177 net.cpp:100] Creating Layer proposal_labels_proposal_info_1_split
I1211 16:53:31.664063 15177 net.cpp:434] proposal_labels_proposal_info_1_split <- proposal_labels
I1211 16:53:31.664068 15177 net.cpp:408] proposal_labels_proposal_info_1_split -> proposal_labels_proposal_info_1_split_0
I1211 16:53:31.664074 15177 net.cpp:408] proposal_labels_proposal_info_1_split -> proposal_labels_proposal_info_1_split_1
I1211 16:53:31.664113 15177 net.cpp:150] Setting up proposal_labels_proposal_info_1_split
I1211 16:53:31.664117 15177 net.cpp:157] Top shape: 256 1 1 1 (256)
I1211 16:53:31.664121 15177 net.cpp:157] Top shape: 256 1 1 1 (256)
I1211 16:53:31.664124 15177 net.cpp:165] Memory required for data: 4532438332
I1211 16:53:31.664126 15177 layer_factory.hpp:77] Creating layer conv4_3_2x
I1211 16:53:31.664134 15177 net.cpp:100] Creating Layer conv4_3_2x
I1211 16:53:31.664137 15177 net.cpp:434] conv4_3_2x <- conv4_3_relu4_3_0_split_2
I1211 16:53:31.664142 15177 net.cpp:408] conv4_3_2x -> conv4_3_2x
I1211 16:53:31.664754 15177 net.cpp:150] Setting up conv4_3_2x
I1211 16:53:31.664762 15177 net.cpp:157] Top shape: 4 512 144 192 (56623104)
I1211 16:53:31.664764 15177 net.cpp:165] Memory required for data: 4758930748
I1211 16:53:31.664769 15177 layer_factory.hpp:77] Creating layer conv4_3_2x_conv4_3_2x_0_split
I1211 16:53:31.664774 15177 net.cpp:100] Creating Layer conv4_3_2x_conv4_3_2x_0_split
I1211 16:53:31.664777 15177 net.cpp:434] conv4_3_2x_conv4_3_2x_0_split <- conv4_3_2x
I1211 16:53:31.664783 15177 net.cpp:408] conv4_3_2x_conv4_3_2x_0_split -> conv4_3_2x_conv4_3_2x_0_split_0
I1211 16:53:31.664789 15177 net.cpp:408] conv4_3_2x_conv4_3_2x_0_split -> conv4_3_2x_conv4_3_2x_0_split_1
I1211 16:53:31.664829 15177 net.cpp:150] Setting up conv4_3_2x_conv4_3_2x_0_split
I1211 16:53:31.664834 15177 net.cpp:157] Top shape: 4 512 144 192 (56623104)
I1211 16:53:31.664837 15177 net.cpp:157] Top shape: 4 512 144 192 (56623104)
I1211 16:53:31.664840 15177 net.cpp:165] Memory required for data: 5211915580
I1211 16:53:31.664844 15177 layer_factory.hpp:77] Creating layer roi_pool_org
I1211 16:53:31.664849 15177 net.cpp:100] Creating Layer roi_pool_org
I1211 16:53:31.664852 15177 net.cpp:434] roi_pool_org <- conv4_3_2x_conv4_3_2x_0_split_0
I1211 16:53:31.664856 15177 net.cpp:434] roi_pool_org <- rois_proposal_info_0_split_0
I1211 16:53:31.664861 15177 net.cpp:408] roi_pool_org -> roi_pool_org
I1211 16:53:31.664870 15177 roi_pooling_layer.cpp:33] Spatial scale: 0.25
I1211 16:53:31.664912 15177 net.cpp:150] Setting up roi_pool_org
I1211 16:53:31.664918 15177 net.cpp:157] Top shape: 256 512 7 7 (6422528)
I1211 16:53:31.664921 15177 net.cpp:165] Memory required for data: 5237605692
I1211 16:53:31.664924 15177 layer_factory.hpp:77] Creating layer roi_pool_ctx
I1211 16:53:31.664930 15177 net.cpp:100] Creating Layer roi_pool_ctx
I1211 16:53:31.664934 15177 net.cpp:434] roi_pool_ctx <- conv4_3_2x_conv4_3_2x_0_split_1
I1211 16:53:31.664937 15177 net.cpp:434] roi_pool_ctx <- rois_proposal_info_0_split_1
I1211 16:53:31.664942 15177 net.cpp:408] roi_pool_ctx -> roi_pool_ctx
I1211 16:53:31.664948 15177 roi_pooling_layer.cpp:33] Spatial scale: 0.25
I1211 16:53:31.664988 15177 net.cpp:150] Setting up roi_pool_ctx
I1211 16:53:31.664994 15177 net.cpp:157] Top shape: 256 512 7 7 (6422528)
I1211 16:53:31.664996 15177 net.cpp:165] Memory required for data: 5263295804
I1211 16:53:31.664999 15177 layer_factory.hpp:77] Creating layer roi_pool
I1211 16:53:31.665002 15177 net.cpp:100] Creating Layer roi_pool
I1211 16:53:31.665006 15177 net.cpp:434] roi_pool <- roi_pool_org
I1211 16:53:31.665009 15177 net.cpp:434] roi_pool <- roi_pool_ctx
I1211 16:53:31.665015 15177 net.cpp:408] roi_pool -> roi_pool
I1211 16:53:31.665038 15177 net.cpp:150] Setting up roi_pool
I1211 16:53:31.665045 15177 net.cpp:157] Top shape: 256 1024 7 7 (12845056)
I1211 16:53:31.665048 15177 net.cpp:165] Memory required for data: 5314676028
I1211 16:53:31.665050 15177 layer_factory.hpp:77] Creating layer roi_c1
I1211 16:53:31.665058 15177 net.cpp:100] Creating Layer roi_c1
I1211 16:53:31.665061 15177 net.cpp:434] roi_c1 <- roi_pool
I1211 16:53:31.665066 15177 net.cpp:408] roi_c1 -> roi_c1
I1211 16:53:31.704016 15177 net.cpp:150] Setting up roi_c1
I1211 16:53:31.704033 15177 net.cpp:157] Top shape: 256 512 5 5 (3276800)
I1211 16:53:31.704035 15177 net.cpp:165] Memory required for data: 5327783228
I1211 16:53:31.704041 15177 layer_factory.hpp:77] Creating layer roi_c1_relu
I1211 16:53:31.704048 15177 net.cpp:100] Creating Layer roi_c1_relu
I1211 16:53:31.704051 15177 net.cpp:434] roi_c1_relu <- roi_c1
I1211 16:53:31.704056 15177 net.cpp:395] roi_c1_relu -> roi_c1 (in-place)
I1211 16:53:31.704716 15177 net.cpp:150] Setting up roi_c1_relu
I1211 16:53:31.704725 15177 net.cpp:157] Top shape: 256 512 5 5 (3276800)
I1211 16:53:31.704727 15177 net.cpp:165] Memory required for data: 5340890428
I1211 16:53:31.704730 15177 layer_factory.hpp:77] Creating layer fc6
I1211 16:53:31.704736 15177 net.cpp:100] Creating Layer fc6
I1211 16:53:31.704738 15177 net.cpp:434] fc6 <- roi_c1
I1211 16:53:31.704742 15177 net.cpp:408] fc6 -> fc6
I1211 16:53:32.107153 15177 net.cpp:150] Setting up fc6
I1211 16:53:32.107172 15177 net.cpp:157] Top shape: 256 4096 (1048576)
I1211 16:53:32.107173 15177 net.cpp:165] Memory required for data: 5345084732
I1211 16:53:32.107180 15177 layer_factory.hpp:77] Creating layer relu6
I1211 16:53:32.107189 15177 net.cpp:100] Creating Layer relu6
I1211 16:53:32.107193 15177 net.cpp:434] relu6 <- fc6
I1211 16:53:32.107197 15177 net.cpp:395] relu6 -> fc6 (in-place)
I1211 16:53:32.107446 15177 net.cpp:150] Setting up relu6
I1211 16:53:32.107453 15177 net.cpp:157] Top shape: 256 4096 (1048576)
I1211 16:53:32.107455 15177 net.cpp:165] Memory required for data: 5349279036
I1211 16:53:32.107457 15177 layer_factory.hpp:77] Creating layer drop6
I1211 16:53:32.107463 15177 net.cpp:100] Creating Layer drop6
I1211 16:53:32.107468 15177 net.cpp:434] drop6 <- fc6
I1211 16:53:32.107472 15177 net.cpp:395] drop6 -> fc6 (in-place)
I1211 16:53:32.107504 15177 net.cpp:150] Setting up drop6
I1211 16:53:32.107509 15177 net.cpp:157] Top shape: 256 4096 (1048576)
I1211 16:53:32.107511 15177 net.cpp:165] Memory required for data: 5353473340
I1211 16:53:32.107514 15177 layer_factory.hpp:77] Creating layer fc6_drop6_0_split
I1211 16:53:32.107520 15177 net.cpp:100] Creating Layer fc6_drop6_0_split
I1211 16:53:32.107522 15177 net.cpp:434] fc6_drop6_0_split <- fc6
I1211 16:53:32.107528 15177 net.cpp:408] fc6_drop6_0_split -> fc6_drop6_0_split_0
I1211 16:53:32.107535 15177 net.cpp:408] fc6_drop6_0_split -> fc6_drop6_0_split_1
I1211 16:53:32.107578 15177 net.cpp:150] Setting up fc6_drop6_0_split
I1211 16:53:32.107583 15177 net.cpp:157] Top shape: 256 4096 (1048576)
I1211 16:53:32.107587 15177 net.cpp:157] Top shape: 256 4096 (1048576)
I1211 16:53:32.107589 15177 net.cpp:165] Memory required for data: 5361861948
I1211 16:53:32.107591 15177 layer_factory.hpp:77] Creating layer cls_pred
I1211 16:53:32.107599 15177 net.cpp:100] Creating Layer cls_pred
I1211 16:53:32.107601 15177 net.cpp:434] cls_pred <- fc6_drop6_0_split_0
I1211 16:53:32.107609 15177 net.cpp:408] cls_pred -> cls_pred
I1211 16:53:32.107866 15177 net.cpp:150] Setting up cls_pred
I1211 16:53:32.107872 15177 net.cpp:157] Top shape: 256 5 (1280)
I1211 16:53:32.107873 15177 net.cpp:165] Memory required for data: 5361867068
I1211 16:53:32.107879 15177 layer_factory.hpp:77] Creating layer cls_pred_cls_pred_0_split
I1211 16:53:32.107885 15177 net.cpp:100] Creating Layer cls_pred_cls_pred_0_split
I1211 16:53:32.107889 15177 net.cpp:434] cls_pred_cls_pred_0_split <- cls_pred
I1211 16:53:32.107894 15177 net.cpp:408] cls_pred_cls_pred_0_split -> cls_pred_cls_pred_0_split_0
I1211 16:53:32.107902 15177 net.cpp:408] cls_pred_cls_pred_0_split -> cls_pred_cls_pred_0_split_1
I1211 16:53:32.107941 15177 net.cpp:150] Setting up cls_pred_cls_pred_0_split
I1211 16:53:32.107945 15177 net.cpp:157] Top shape: 256 5 (1280)
I1211 16:53:32.107949 15177 net.cpp:157] Top shape: 256 5 (1280)
I1211 16:53:32.107951 15177 net.cpp:165] Memory required for data: 5361877308
I1211 16:53:32.107954 15177 layer_factory.hpp:77] Creating layer bbox_pred
I1211 16:53:32.107959 15177 net.cpp:100] Creating Layer bbox_pred
I1211 16:53:32.107962 15177 net.cpp:434] bbox_pred <- fc6_drop6_0_split_1
I1211 16:53:32.107969 15177 net.cpp:408] bbox_pred -> bbox_pred
I1211 16:53:32.108662 15177 net.cpp:150] Setting up bbox_pred
I1211 16:53:32.108669 15177 net.cpp:157] Top shape: 256 20 (5120)
I1211 16:53:32.108670 15177 net.cpp:165] Memory required for data: 5361897788
I1211 16:53:32.108676 15177 layer_factory.hpp:77] Creating layer bbox_pred_bbox_pred_0_split
I1211 16:53:32.108680 15177 net.cpp:100] Creating Layer bbox_pred_bbox_pred_0_split
I1211 16:53:32.108685 15177 net.cpp:434] bbox_pred_bbox_pred_0_split <- bbox_pred
I1211 16:53:32.108690 15177 net.cpp:408] bbox_pred_bbox_pred_0_split -> bbox_pred_bbox_pred_0_split_0
I1211 16:53:32.108696 15177 net.cpp:408] bbox_pred_bbox_pred_0_split -> bbox_pred_bbox_pred_0_split_1
I1211 16:53:32.108726 15177 net.cpp:150] Setting up bbox_pred_bbox_pred_0_split
I1211 16:53:32.108729 15177 net.cpp:157] Top shape: 256 20 (5120)
I1211 16:53:32.108732 15177 net.cpp:157] Top shape: 256 20 (5120)
I1211 16:53:32.108734 15177 net.cpp:165] Memory required for data: 5361938748
I1211 16:53:32.108736 15177 layer_factory.hpp:77] Creating layer loss_cls
I1211 16:53:32.108743 15177 net.cpp:100] Creating Layer loss_cls
I1211 16:53:32.108747 15177 net.cpp:434] loss_cls <- cls_pred_cls_pred_0_split_0
I1211 16:53:32.108752 15177 net.cpp:434] loss_cls <- proposal_labels_proposal_info_1_split_0
…
I1211 16:53:32.128471 15177 image_gt_data_layer.cpp:235] output label size 2 : 2,6,36,48
I1211 16:53:32.128517 15177 image_gt_data_layer.cpp:235] output label size 3 : 2,6,36,48
I1211 16:53:32.128564 15177 image_gt_data_layer.cpp:235] output label size 4 : 2,6,18,24
I1211 16:53:32.128612 15177 image_gt_data_layer.cpp:235] output label size 5 : 2,6,18,24
I1211 16:53:32.128662 15177 image_gt_data_layer.cpp:235] output label size 6 : 2,6,9,12
I1211 16:53:32.128711 15177 image_gt_data_layer.cpp:250] output gt boxes size: 1,7,1,1
I1211 16:53:32.143977 15177 net.cpp:150] Setting up data
I1211 16:53:32.143993 15177 net.cpp:157] Top shape: 2 3 576 768 (2654208)
I1211 16:53:32.143997 15177 net.cpp:157] Top shape: 2 6 72 96 (82944)
I1211 16:53:32.144001 15177 net.cpp:157] Top shape: 2 6 72 96 (82944)
I1211 16:53:32.144004 15177 net.cpp:157] Top shape: 2 6 36 48 (20736)
I1211 16:53:32.144007 15177 net.cpp:157] Top shape: 2 6 36 48 (20736)
I1211 16:53:32.144009 15177 net.cpp:157] Top shape: 2 6 18 24 (5184)
I1211 16:53:32.144012 15177 net.cpp:157] Top shape: 2 6 18 24 (5184)
I1211 16:53:32.144016 15177 net.cpp:157] Top shape: 2 6 9 12 (1296)
I1211 16:53:32.144019 15177 net.cpp:157] Top shape: 1 7 1 1 (7)
I1211 16:53:32.144021 15177 net.cpp:165] Memory required for data: 11492956
I1211 16:53:32.144027 15177 layer_factory.hpp:77] Creating layer label_1_5x5_data_1_split
I1211 16:53:32.144058 15177 net.cpp:100] Creating Layer label_1_5x5_data_1_split
I1211 16:53:32.144062 15177 net.cpp:434] label_1_5x5_data_1_split <- label_1_5x5
I1211 16:53:32.144070 15177 net.cpp:408] label_1_5x5_data_1_split -> label_1_5x5_data_1_split_0
I1211 16:53:32.144080 15177 net.cpp:408] label_1_5x5_data_1_split -> label_1_5x5_data_1_split_1
I1211 16:53:32.144168 15177 net.cpp:150] Setting up label_1_5x5_data_1_split
I1211 16:53:32.144176 15177 net.cpp:157] Top shape: 2 6 72 96 (82944)
I1211 16:53:32.144179 15177 net.cpp:157] Top shape: 2 6 72 96 (82944)
I1211 16:53:32.144181 15177 net.cpp:165] Memory required for data: 12156508
I1211 16:53:32.144184 15177 layer_factory.hpp:77] Creating layer label_1_7x7_data_2_split
I1211 16:53:32.144191 15177 net.cpp:100] Creating Layer label_1_7x7_data_2_split
I1211 16:53:32.144193 15177 net.cpp:434] label_1_7x7_data_2_split <- label_1_7x7
I1211 16:53:32.144198 15177 net.cpp:408] label_1_7x7_data_2_split -> label_1_7x7_data_2_split_0
I1211 16:53:32.144204 15177 net.cpp:408] label_1_7x7_data_2_split -> label_1_7x7_data_2_split_1
I1211 16:53:32.144269 15177 net.cpp:150] Setting up label_1_7x7_data_2_split
I1211 16:53:32.144275 15177 net.cpp:157] Top shape: 2 6 72 96 (82944)
I1211 16:53:32.144279 15177 net.cpp:157] Top shape: 2 6 72 96 (82944)
I1211 16:53:32.144280 15177 net.cpp:165] Memory required for data: 12820060
I1211 16:53:32.144284 15177 layer_factory.hpp:77] Creating layer label_2_5x5_data_3_split
I1211 16:53:32.144290 15177 net.cpp:100] Creating Layer label_2_5x5_data_3_split
I1211 16:53:32.144295 15177 net.cpp:434] label_2_5x5_data_3_split <- label_2_5x5
I1211 16:53:32.144304 15177 net.cpp:408] label_2_5x5_data_3_split -> label_2_5x5_data_3_split_0
I1211 16:53:32.144312 15177 net.cpp:408] label_2_5x5_data_3_split -> label_2_5x5_data_3_split_1
I1211 16:53:32.144356 15177 net.cpp:150] Setting up label_2_5x5_data_3_split
I1211 16:53:32.144361 15177 net.cpp:157] Top shape: 2 6 36 48 (20736)
I1211 16:53:32.144367 15177 net.cpp:157] Top shape: 2 6 36 48 (20736)
I1211 16:53:32.144371 15177 net.cpp:165] Memory required for data: 12985948
I1211 16:53:32.144376 15177 layer_factory.hpp:77] Creating layer label_2_7x7_data_4_split
I1211 16:53:32.144385 15177 net.cpp:100] Creating Layer label_2_7x7_data_4_split
I1211 16:53:32.144389 15177 net.cpp:434] label_2_7x7_data_4_split <- label_2_7x7
I1211 16:53:32.144397 15177 net.cpp:408] label_2_7x7_data_4_split -> label_2_7x7_data_4_split_0
I1211 16:53:32.144404 15177 net.cpp:408] label_2_7x7_data_4_split -> label_2_7x7_data_4_split_1
I1211 16:53:32.144450 15177 net.cpp:150] Setting up label_2_7x7_data_4_split
I1211 16:53:32.144455 15177 net.cpp:157] Top shape: 2 6 36 48 (20736)
I1211 16:53:32.144464 15177 net.cpp:157] Top shape: 2 6 36 48 (20736)
I1211 16:53:32.144466 15177 net.cpp:165] Memory required for data: 13151836
I1211 16:53:32.144470 15177 layer_factory.hpp:77] Creating layer label_3_5x5_data_5_split
I1211 16:53:32.144479 15177 net.cpp:100] Creating Layer label_3_5x5_data_5_split
I1211 16:53:32.144482 15177 net.cpp:434] label_3_5x5_data_5_split <- label_3_5x5
I1211 16:53:32.144490 15177 net.cpp:408] label_3_5x5_data_5_split -> label_3_5x5_data_5_split_0
I1211 16:53:32.144497 15177 net.cpp:408] label_3_5x5_data_5_split -> label_3_5x5_data_5_split_1
I1211 16:53:32.144539 15177 net.cpp:150] Setting up label_3_5x5_data_5_split
I1211 16:53:32.144544 15177 net.cpp:157] Top shape: 2 6 18 24 (5184)
I1211 16:53:32.144551 15177 net.cpp:157] Top shape: 2 6 18 24 (5184)
I1211 16:53:32.144556 15177 net.cpp:165] Memory required for data: 13193308
I1211 16:53:32.144559 15177 layer_factory.hpp:77] Creating layer label_3_7x7_data_6_split
I1211 16:53:32.144565 15177 net.cpp:100] Creating Layer label_3_7x7_data_6_split
I1211 16:53:32.144570 15177 net.cpp:434] label_3_7x7_data_6_split <- label_3_7x7
I1211 16:53:32.144579 15177 net.cpp:408] label_3_7x7_data_6_split -> label_3_7x7_data_6_split_0
I1211 16:53:32.144587 15177 net.cpp:408] label_3_7x7_data_6_split -> label_3_7x7_data_6_split_1
I1211 16:53:32.144661 15177 net.cpp:150] Setting up label_3_7x7_data_6_split
I1211 16:53:32.144667 15177 net.cpp:157] Top shape: 2 6 18 24 (5184)
I1211 16:53:32.144675 15177 net.cpp:157] Top shape: 2 6 18 24 (5184)
I1211 16:53:32.144677 15177 net.cpp:165] Memory required for data: 13234780
I1211 16:53:32.144681 15177 layer_factory.hpp:77] Creating layer label_4_5x5_data_7_split
I1211 16:53:32.144692 15177 net.cpp:100] Creating Layer label_4_5x5_data_7_split
I1211 16:53:32.144695 15177 net.cpp:434] label_4_5x5_data_7_split <- label_4_5x5
I1211 16:53:32.144703 15177 net.cpp:408] label_4_5x5_data_7_split -> label_4_5x5_data_7_split_0
I1211 16:53:32.144711 15177 net.cpp:408] label_4_5x5_data_7_split -> label_4_5x5_data_7_split_1
I1211 16:53:32.145593 15177 net.cpp:150] Setting up label_4_5x5_data_7_split
I1211 16:53:32.145617 15177 net.cpp:157] Top shape: 2 6 9 12 (1296)
I1211 16:53:32.145620 15177 net.cpp:157] Top shape: 2 6 9 12 (1296)
I1211 16:53:32.145623 15177 net.cpp:165] Memory required for data: 13245148
I1211 16:53:32.145627 15177 layer_factory.hpp:77] Creating layer conv1_1
I1211 16:53:32.145663 15177 net.cpp:100] Creating Layer conv1_1
I1211 16:53:32.145669 15177 net.cpp:434] conv1_1 <- data
I1211 16:53:32.145687 15177 net.cpp:408] conv1_1 -> conv1_1
I1211 16:53:32.149300 15177 net.cpp:150] Setting up conv1_1
I1211 16:53:32.149322 15177 net.cpp:157] Top shape: 2 64 576 768 (56623104)
I1211 16:53:32.149325 15177 net.cpp:165] Memory required for data: 239737564
I1211 16:53:32.149339 15177 layer_factory.hpp:77] Creating layer relu1_1
I1211 16:53:32.149353 15177 net.cpp:100] Creating Layer relu1_1
I1211 16:53:32.149356 15177 net.cpp:434] relu1_1 <- conv1_1
I1211 16:53:32.149363 15177 net.cpp:395] relu1_1 -> conv1_1 (in-place)
I1211 16:53:32.150105 15177 net.cpp:150] Setting up relu1_1
I1211 16:53:32.150116 15177 net.cpp:157] Top shape: 2 64 576 768 (56623104)
I1211 16:53:32.150117 15177 net.cpp:165] Memory required for data: 466229980
I1211 16:53:32.150120 15177 layer_factory.hpp:77] Creating layer conv1_2
I1211 16:53:32.150130 15177 net.cpp:100] Creating Layer conv1_2
I1211 16:53:32.150133 15177 net.cpp:434] conv1_2 <- conv1_1
I1211 16:53:32.150140 15177 net.cpp:408] conv1_2 -> conv1_2
I1211 16:53:32.152348 15177 net.cpp:150] Setting up conv1_2
I1211 16:53:32.152367 15177 net.cpp:157] Top shape: 2 64 576 768 (56623104)
I1211 16:53:32.152370 15177 net.cpp:165] Memory required for data: 692722396
I1211 16:53:32.152385 15177 layer_factory.hpp:77] Creating layer relu1_2
I1211 16:53:32.152396 15177 net.cpp:100] Creating Layer relu1_2
I1211 16:53:32.152400 15177 net.cpp:434] relu1_2 <- conv1_2
I1211 16:53:32.152446 15177 net.cpp:395] relu1_2 -> conv1_2 (in-place)
I1211 16:53:32.152799 15177 net.cpp:150] Setting up relu1_2
I1211 16:53:32.152806 15177 net.cpp:157] Top shape: 2 64 576 768 (56623104)
I1211 16:53:32.152808 15177 net.cpp:165] Memory required for data: 919214812
I1211 16:53:32.152811 15177 layer_factory.hpp:77] Creating layer pool1
I1211 16:53:32.152817 15177 net.cpp:100] Creating Layer pool1
I1211 16:53:32.152820 15177 net.cpp:434] pool1 <- conv1_2
I1211 16:53:32.152824 15177 net.cpp:408] pool1 -> pool1
I1211 16:53:32.152889 15177 net.cpp:150] Setting up pool1
I1211 16:53:32.152894 15177 net.cpp:157] Top shape: 2 64 288 384 (14155776)
I1211 16:53:32.152896 15177 net.cpp:165] Memory required for data: 975837916
I1211 16:53:32.152899 15177 layer_factory.hpp:77] Creating layer conv2_1
I1211 16:53:32.152907 15177 net.cpp:100] Creating Layer conv2_1
I1211 16:53:32.152910 15177 net.cpp:434] conv2_1 <- pool1
I1211 16:53:32.152916 15177 net.cpp:408] conv2_1 -> conv2_1
I1211 16:53:32.154680 15177 net.cpp:150] Setting up conv2_1
I1211 16:53:32.154695 15177 net.cpp:157] Top shape: 2 128 288 384 (28311552)
I1211 16:53:32.154695 15177 net.cpp:165] Memory required for data: 1089084124
I1211 16:53:32.154706 15177 layer_factory.hpp:77] Creating layer relu2_1
I1211 16:53:32.154712 15177 net.cpp:100] Creating Layer relu2_1
I1211 16:53:32.154716 15177 net.cpp:434] relu2_1 <- conv2_1
I1211 16:53:32.154723 15177 net.cpp:395] relu2_1 -> conv2_1 (in-place)
I1211 16:53:32.155011 15177 net.cpp:150] Setting up relu2_1
I1211 16:53:32.155019 15177 net.cpp:157] Top shape: 2 128 288 384 (28311552)
I1211 16:53:32.155022 15177 net.cpp:165] Memory required for data: 1202330332
I1211 16:53:32.155025 15177 layer_factory.hpp:77] Creating layer conv2_2
I1211 16:53:32.155033 15177 net.cpp:100] Creating Layer conv2_2
I1211 16:53:32.155036 15177 net.cpp:434] conv2_2 <- conv2_1
I1211 16:53:32.155042 15177 net.cpp:408] conv2_2 -> conv2_2
I1211 16:53:32.157879 15177 net.cpp:150] Setting up conv2_2
I1211 16:53:32.157897 15177 net.cpp:157] Top shape: 2 128 288 384 (28311552)
I1211 16:53:32.157901 15177 net.cpp:165] Memory required for data: 1315576540
I1211 16:53:32.157909 15177 layer_factory.hpp:77] Creating layer relu2_2
I1211 16:53:32.157925 15177 net.cpp:100] Creating Layer relu2_2
I1211 16:53:32.157929 15177 net.cpp:434] relu2_2 <- conv2_2
I1211 16:53:32.157935 15177 net.cpp:395] relu2_2 -> conv2_2 (in-place)
I1211 16:53:32.158288 15177 net.cpp:150] Setting up relu2_2
I1211 16:53:32.158295 15177 net.cpp:157] Top shape: 2 128 288 384 (28311552)
I1211 16:53:32.158298 15177 net.cpp:165] Memory required for data: 1428822748
I1211 16:53:32.158299 15177 layer_factory.hpp:77] Creating layer pool2
I1211 16:53:32.158305 15177 net.cpp:100] Creating Layer pool2
I1211 16:53:32.158308 15177 net.cpp:434] pool2 <- conv2_2
I1211 16:53:32.158313 15177 net.cpp:408] pool2 -> pool2
I1211 16:53:32.158375 15177 net.cpp:150] Setting up pool2
I1211 16:53:32.158381 15177 net.cpp:157] Top shape: 2 128 144 192 (7077888)
I1211 16:53:32.158385 15177 net.cpp:165] Memory required for data: 1457134300
I1211 16:53:32.158386 15177 layer_factory.hpp:77] Creating layer conv3_1
I1211 16:53:32.158393 15177 net.cpp:100] Creating Layer conv3_1
I1211 16:53:32.158396 15177 net.cpp:434] conv3_1 <- pool2
I1211 16:53:32.158403 15177 net.cpp:408] conv3_1 -> conv3_1
I1211 16:53:32.160447 15177 net.cpp:150] Setting up conv3_1
I1211 16:53:32.160472 15177 net.cpp:157] Top shape: 2 256 144 192 (14155776)
I1211 16:53:32.160475 15177 net.cpp:165] Memory required for data: 1513757404
I1211 16:53:32.160490 15177 layer_factory.hpp:77] Creating layer relu3_1
I1211 16:53:32.160501 15177 net.cpp:100] Creating Layer relu3_1
I1211 16:53:32.160506 15177 net.cpp:434] relu3_1 <- conv3_1
I1211 16:53:32.160513 15177 net.cpp:395] relu3_1 -> conv3_1 (in-place)
I1211 16:53:32.161228 15177 net.cpp:150] Setting up relu3_1
I1211 16:53:32.161238 15177 net.cpp:157] Top shape: 2 256 144 192 (14155776)
I1211 16:53:32.161240 15177 net.cpp:165] Memory required for data: 1570380508
I1211 16:53:32.161243 15177 layer_factory.hpp:77] Creating layer conv3_2
I1211 16:53:32.161253 15177 net.cpp:100] Creating Layer conv3_2
I1211 16:53:32.161258 15177 net.cpp:434] conv3_2 <- conv3_1
I1211 16:53:32.161265 15177 net.cpp:408] conv3_2 -> conv3_2
I1211 16:53:32.164697 15177 net.cpp:150] Setting up conv3_2
I1211 16:53:32.164716 15177 net.cpp:157] Top shape: 2 256 144 192 (14155776)
I1211 16:53:32.164717 15177 net.cpp:165] Memory required for data: 1627003612
I1211 16:53:32.164726 15177 layer_factory.hpp:77] Creating layer relu3_2
I1211 16:53:32.164733 15177 net.cpp:100] Creating Layer relu3_2
I1211 16:53:32.164737 15177 net.cpp:434] relu3_2 <- conv3_2
I1211 16:53:32.164743 15177 net.cpp:395] relu3_2 -> conv3_2 (in-place)
I1211 16:53:32.165014 15177 net.cpp:150] Setting up relu3_2
I1211 16:53:32.165024 15177 net.cpp:157] Top shape: 2 256 144 192 (14155776)
I1211 16:53:32.165025 15177 net.cpp:165] Memory required for data: 1683626716
I1211 16:53:32.165029 15177 layer_factory.hpp:77] Creating layer conv3_3
I1211 16:53:32.165035 15177 net.cpp:100] Creating Layer conv3_3
I1211 16:53:32.165040 15177 net.cpp:434] conv3_3 <- conv3_2
I1211 16:53:32.165045 15177 net.cpp:408] conv3_3 -> conv3_3
I1211 16:53:32.167886 15177 net.cpp:150] Setting up conv3_3
I1211 16:53:32.167903 15177 net.cpp:157] Top shape: 2 256 144 192 (14155776)
I1211 16:53:32.167906 15177 net.cpp:165] Memory required for data: 1740249820
I1211 16:53:32.167912 15177 layer_factory.hpp:77] Creating layer relu3_3
I1211 16:53:32.167923 15177 net.cpp:100] Creating Layer relu3_3
I1211 16:53:32.167927 15177 net.cpp:434] relu3_3 <- conv3_3
I1211 16:53:32.167932 15177 net.cpp:395] relu3_3 -> conv3_3 (in-place)
I1211 16:53:32.168243 15177 net.cpp:150] Setting up relu3_3
I1211 16:53:32.168252 15177 net.cpp:157] Top shape: 2 256 144 192 (14155776)
I1211 16:53:32.168254 15177 net.cpp:165] Memory required for data: 1796872924
I1211 16:53:32.168257 15177 layer_factory.hpp:77] Creating layer pool3
I1211 16:53:32.168264 15177 net.cpp:100] Creating Layer pool3
I1211 16:53:32.168267 15177 net.cpp:434] pool3 <- conv3_3
I1211 16:53:32.168273 15177 net.cpp:408] pool3 -> pool3
I1211 16:53:32.168340 15177 net.cpp:150] Setting up pool3
I1211 16:53:32.168346 15177 net.cpp:157] Top shape: 2 256 72 96 (3538944)
I1211 16:53:32.168349 15177 net.cpp:165] Memory required for data: 1811028700
I1211 16:53:32.168351 15177 layer_factory.hpp:77] Creating layer conv4_1
I1211 16:53:32.168360 15177 net.cpp:100] Creating Layer conv4_1
I1211 16:53:32.168364 15177 net.cpp:434] conv4_1 <- pool3
I1211 16:53:32.168368 15177 net.cpp:408] conv4_1 -> conv4_1
I1211 16:53:32.172236 15177 net.cpp:150] Setting up conv4_1
I1211 16:53:32.172253 15177 net.cpp:157] Top shape: 2 512 72 96 (7077888)
I1211 16:53:32.172255 15177 net.cpp:165] Memory required for data: 1839340252
I1211 16:53:32.172262 15177 layer_factory.hpp:77] Creating layer relu4_1
I1211 16:53:32.172272 15177 net.cpp:100] Creating Layer relu4_1
I1211 16:53:32.172279 15177 net.cpp:434] relu4_1 <- conv4_1
I1211 16:53:32.172284 15177 net.cpp:395] relu4_1 -> conv4_1 (in-place)
I1211 16:53:32.172966 15177 net.cpp:150] Setting up relu4_1
I1211 16:53:32.172974 15177 net.cpp:157] Top shape: 2 512 72 96 (7077888)
I1211 16:53:32.172976 15177 net.cpp:165] Memory required for data: 1867651804
I1211 16:53:32.172978 15177 layer_factory.hpp:77] Creating layer conv4_2
I1211 16:53:32.172987 15177 net.cpp:100] Creating Layer conv4_2
I1211 16:53:32.172991 15177 net.cpp:434] conv4_2 <- conv4_1
I1211 16:53:32.172996 15177 net.cpp:408] conv4_2 -> conv4_2
I1211 16:53:32.178227 15177 net.cpp:150] Setting up conv4_2
I1211 16:53:32.178247 15177 net.cpp:157] Top shape: 2 512 72 96 (7077888)
I1211 16:53:32.178249 15177 net.cpp:165] Memory required for data: 1895963356
I1211 16:53:32.178261 15177 layer_factory.hpp:77] Creating layer relu4_2
I1211 16:53:32.178273 15177 net.cpp:100] Creating Layer relu4_2
I1211 16:53:32.178277 15177 net.cpp:434] relu4_2 <- conv4_2
I1211 16:53:32.178283 15177 net.cpp:395] relu4_2 -> conv4_2 (in-place)
I1211 16:53:32.178580 15177 net.cpp:150] Setting up relu4_2
I1211 16:53:32.178589 15177 net.cpp:157] Top shape: 2 512 72 96 (7077888)
I1211 16:53:32.178591 15177 net.cpp:165] Memory required for data: 1924274908
I1211 16:53:32.178594 15177 layer_factory.hpp:77] Creating layer conv4_3
I1211 16:53:32.178603 15177 net.cpp:100] Creating Layer conv4_3
I1211 16:53:32.178606 15177 net.cpp:434] conv4_3 <- conv4_2
I1211 16:53:32.178612 15177 net.cpp:408] conv4_3 -> conv4_3
I1211 16:53:32.185307 15177 net.cpp:150] Setting up conv4_3
I1211 16:53:32.185323 15177 net.cpp:157] Top shape: 2 512 72 96 (7077888)
I1211 16:53:32.185325 15177 net.cpp:165] Memory required for data: 1952586460
I1211 16:53:32.185333 15177 layer_factory.hpp:77] Creating layer relu4_3
I1211 16:53:32.185343 15177 net.cpp:100] Creating Layer relu4_3
I1211 16:53:32.185348 15177 net.cpp:434] relu4_3 <- conv4_3
I1211 16:53:32.185354 15177 net.cpp:395] relu4_3 -> conv4_3 (in-place)
I1211 16:53:32.185612 15177 net.cpp:150] Setting up relu4_3
I1211 16:53:32.185621 15177 net.cpp:157] Top shape: 2 512 72 96 (7077888)
I1211 16:53:32.185623 15177 net.cpp:165] Memory required for data: 1980898012
I1211 16:53:32.185626 15177 layer_factory.hpp:77] Creating layer conv4_3_relu4_3_0_split
I1211 16:53:32.185632 15177 net.cpp:100] Creating Layer conv4_3_relu4_3_0_split
I1211 16:53:32.185642 15177 net.cpp:434] conv4_3_relu4_3_0_split <- conv4_3
I1211 16:53:32.185647 15177 net.cpp:408] conv4_3_relu4_3_0_split -> conv4_3_relu4_3_0_split_0
I1211 16:53:32.185657 15177 net.cpp:408] conv4_3_relu4_3_0_split -> conv4_3_relu4_3_0_split_1
I1211 16:53:32.185663 15177 net.cpp:408] conv4_3_relu4_3_0_split -> conv4_3_relu4_3_0_split_2
I1211 16:53:32.185739 15177 net.cpp:150] Setting up conv4_3_relu4_3_0_split
I1211 16:53:32.185745 15177 net.cpp:157] Top shape: 2 512 72 96 (7077888)
I1211 16:53:32.185748 15177 net.cpp:157] Top shape: 2 512 72 96 (7077888)
I1211 16:53:32.185752 15177 net.cpp:157] Top shape: 2 512 72 96 (7077888)
I1211 16:53:32.185755 15177 net.cpp:165] Memory required for data: 2065832668
I1211 16:53:32.185756 15177 layer_factory.hpp:77] Creating layer loss1_conv1
I1211 16:53:32.185771 15177 net.cpp:100] Creating Layer loss1_conv1
I1211 16:53:32.185775 15177 net.cpp:434] loss1_conv1 <- conv4_3_relu4_3_0_split_0
I1211 16:53:32.185781 15177 net.cpp:408] loss1_conv1 -> loss1_conv1
I1211 16:53:32.207340 15177 net.cpp:150] Setting up loss1_conv1
I1211 16:53:32.207365 15177 net.cpp:157] Top shape: 2 512 72 96 (7077888)
I1211 16:53:32.207366 15177 net.cpp:165] Memory required for data: 2094144220
I1211 16:53:32.207376 15177 layer_factory.hpp:77] Creating layer loss_relu1
I1211 16:53:32.207392 15177 net.cpp:100] Creating Layer loss_relu1
I1211 16:53:32.207399 15177 net.cpp:434] loss_relu1 <- loss1_conv1
I1211 16:53:32.207406 15177 net.cpp:395] loss_relu1 -> loss1_conv1 (in-place)
I1211 16:53:32.208185 15177 net.cpp:150] Setting up loss_relu1
I1211 16:53:32.208195 15177 net.cpp:157] Top shape: 2 512 72 96 (7077888)
I1211 16:53:32.208197 15177 net.cpp:165] Memory required for data: 2122455772
I1211 16:53:32.208200 15177 layer_factory.hpp:77] Creating layer loss1_conv1_loss_relu1_0_split
I1211 16:53:32.208207 15177 net.cpp:100] Creating Layer loss1_conv1_loss_relu1_0_split
I1211 16:53:32.208220 15177 net.cpp:434] loss1_conv1_loss_relu1_0_split <- loss1_conv1
I1211 16:53:32.208225 15177 net.cpp:408] loss1_conv1_loss_relu1_0_split -> loss1_conv1_loss_relu1_0_split_0
I1211 16:53:32.208235 15177 net.cpp:408] loss1_conv1_loss_relu1_0_split -> loss1_conv1_loss_relu1_0_split_1
I1211 16:53:32.208297 15177 net.cpp:150] Setting up loss1_conv1_loss_relu1_0_split
I1211 16:53:32.208302 15177 net.cpp:157] Top shape: 2 512 72 96 (7077888)
I1211 16:53:32.208305 15177 net.cpp:157] Top shape: 2 512 72 96 (7077888)
I1211 16:53:32.208308 15177 net.cpp:165] Memory required for data: 2179078876
I1211 16:53:32.208310 15177 layer_factory.hpp:77] Creating layer LFCN_1_5x5
I1211 16:53:32.208322 15177 net.cpp:100] Creating Layer LFCN_1_5x5
I1211 16:53:32.208325 15177 net.cpp:434] LFCN_1_5x5 <- loss1_conv1_loss_relu1_0_split_0
I1211 16:53:32.208330 15177 net.cpp:408] LFCN_1_5x5 -> LFCN_1_5x5
I1211 16:53:32.210562 15177 net.cpp:150] Setting up LFCN_1_5x5
I1211 16:53:32.210574 15177 net.cpp:157] Top shape: 2 9 72 96 (124416)
I1211 16:53:32.210577 15177 net.cpp:165] Memory required for data: 2179576540
I1211 16:53:32.210583 15177 layer_factory.hpp:77] Creating layer LFCN_1_5x5_LFCN_1_5x5_0_split
I1211 16:53:32.210590 15177 net.cpp:100] Creating Layer LFCN_1_5x5_LFCN_1_5x5_0_split
I1211 16:53:32.210594 15177 net.cpp:434] LFCN_1_5x5_LFCN_1_5x5_0_split <- LFCN_1_5x5
I1211 16:53:32.210602 15177 net.cpp:408] LFCN_1_5x5_LFCN_1_5x5_0_split -> LFCN_1_5x5_LFCN_1_5x5_0_split_0
I1211 16:53:32.210609 15177 net.cpp:408] LFCN_1_5x5_LFCN_1_5x5_0_split -> LFCN_1_5x5_LFCN_1_5x5_0_split_1
I1211 16:53:32.210615 15177 net.cpp:408] LFCN_1_5x5_LFCN_1_5x5_0_split -> LFCN_1_5x5_LFCN_1_5x5_0_split_2
I1211 16:53:32.210687 15177 net.cpp:150] Setting up LFCN_1_5x5_LFCN_1_5x5_0_split
I1211 16:53:32.210693 15177 net.cpp:157] Top shape: 2 9 72 96 (124416)
I1211 16:53:32.210697 15177 net.cpp:157] Top shape: 2 9 72 96 (124416)
I1211 16:53:32.210700 15177 net.cpp:157] Top shape: 2 9 72 96 (124416)
I1211 16:53:32.210703 15177 net.cpp:165] Memory required for data: 2181069532
I1211 16:53:32.210705 15177 layer_factory.hpp:77] Creating layer detection_loss_1_5x5
I1211 16:53:32.210713 15177 net.cpp:100] Creating Layer detection_loss_1_5x5
I1211 16:53:32.210716 15177 net.cpp:434] detection_loss_1_5x5 <- LFCN_1_5x5_LFCN_1_5x5_0_split_0
I1211 16:53:32.210721 15177 net.cpp:434] detection_loss_1_5x5 <- label_1_5x5_data_1_split_0
I1211 16:53:32.210726 15177 net.cpp:408] detection_loss_1_5x5 -> loss_1_5x5
I1211 16:53:32.210736 15177 layer_factory.hpp:77] Creating layer detection_loss_1_5x5
I1211 16:53:32.211287 15177 net.cpp:150] Setting up detection_loss_1_5x5
I1211 16:53:32.211295 15177 net.cpp:157] Top shape: 1 1 1 2 (2)
I1211 16:53:32.211297 15177 net.cpp:160]     with loss weight 0.9
I1211 16:53:32.211307 15177 net.cpp:165] Memory required for data: 2181069540
I1211 16:53:32.211308 15177 layer_factory.hpp:77] Creating layer detection_accuracy_1_5x5
I1211 16:53:32.211315 15177 net.cpp:100] Creating Layer detection_accuracy_1_5x5
I1211 16:53:32.211318 15177 net.cpp:434] detection_accuracy_1_5x5 <- LFCN_1_5x5_LFCN_1_5x5_0_split_1
I1211 16:53:32.211323 15177 net.cpp:434] detection_accuracy_1_5x5 <- label_1_5x5_data_1_split_1
I1211 16:53:32.211328 15177 net.cpp:408] detection_accuracy_1_5x5 -> accuracy_1_5x5
I1211 16:53:32.211333 15177 net.cpp:408] detection_accuracy_1_5x5 -> boxiou_1_5x5
I1211 16:53:32.211385 15177 net.cpp:150] Setting up detection_accuracy_1_5x5
I1211 16:53:32.211391 15177 net.cpp:157] Top shape: 1 1 1 2 (2)
I1211 16:53:32.211395 15177 net.cpp:157] Top shape: 1 1 1 1 (1)
I1211 16:53:32.211396 15177 net.cpp:165] Memory required for data: 2181069552
I1211 16:53:32.211398 15177 layer_factory.hpp:77] Creating layer LFCN_1_7x7
I1211 16:53:32.211410 15177 net.cpp:100] Creating Layer LFCN_1_7x7
I1211 16:53:32.211414 15177 net.cpp:434] LFCN_1_7x7 <- loss1_conv1_loss_relu1_0_split_1
I1211 16:53:32.211419 15177 net.cpp:408] LFCN_1_7x7 -> LFCN_1_7x7
I1211 16:53:32.215500 15177 net.cpp:150] Setting up LFCN_1_7x7
I1211 16:53:32.215518 15177 net.cpp:157] Top shape: 2 9 72 96 (124416)
I1211 16:53:32.215521 15177 net.cpp:165] Memory required for data: 2181567216
I1211 16:53:32.215530 15177 layer_factory.hpp:77] Creating layer LFCN_1_7x7_LFCN_1_7x7_0_split
I1211 16:53:32.215540 15177 net.cpp:100] Creating Layer LFCN_1_7x7_LFCN_1_7x7_0_split
I1211 16:53:32.215551 15177 net.cpp:434] LFCN_1_7x7_LFCN_1_7x7_0_split <- LFCN_1_7x7
I1211 16:53:32.215559 15177 net.cpp:408] LFCN_1_7x7_LFCN_1_7x7_0_split -> LFCN_1_7x7_LFCN_1_7x7_0_split_0
I1211 16:53:32.215569 15177 net.cpp:408] LFCN_1_7x7_LFCN_1_7x7_0_split -> LFCN_1_7x7_LFCN_1_7x7_0_split_1
I1211 16:53:32.215574 15177 net.cpp:408] LFCN_1_7x7_LFCN_1_7x7_0_split -> LFCN_1_7x7_LFCN_1_7x7_0_split_2
I1211 16:53:32.215649 15177 net.cpp:150] Setting up LFCN_1_7x7_LFCN_1_7x7_0_split
I1211 16:53:32.215657 15177 net.cpp:157] Top shape: 2 9 72 96 (124416)
I1211 16:53:32.215662 15177 net.cpp:157] Top shape: 2 9 72 96 (124416)
I1211 16:53:32.215665 15177 net.cpp:157] Top shape: 2 9 72 96 (124416)
I1211 16:53:32.215668 15177 net.cpp:165] Memory required for data: 2183060208
I1211 16:53:32.215672 15177 layer_factory.hpp:77] Creating layer detection_loss_1_7x7
I1211 16:53:32.215677 15177 net.cpp:100] Creating Layer detection_loss_1_7x7
I1211 16:53:32.215682 15177 net.cpp:434] detection_loss_1_7x7 <- LFCN_1_7x7_LFCN_1_7x7_0_split_0
I1211 16:53:32.215685 15177 net.cpp:434] detection_loss_1_7x7 <- label_1_7x7_data_2_split_0
I1211 16:53:32.215692 15177 net.cpp:408] detection_loss_1_7x7 -> loss_1_7x7
I1211 16:53:32.215700 15177 layer_factory.hpp:77] Creating layer detection_loss_1_7x7
I1211 16:53:32.216229 15177 net.cpp:150] Setting up detection_loss_1_7x7
I1211 16:53:32.216238 15177 net.cpp:157] Top shape: 1 1 1 2 (2)
I1211 16:53:32.216240 15177 net.cpp:160]     with loss weight 0.9
I1211 16:53:32.216250 15177 net.cpp:165] Memory required for data: 2183060216
I1211 16:53:32.216253 15177 layer_factory.hpp:77] Creating layer detection_accuracy_1_7x7
I1211 16:53:32.216259 15177 net.cpp:100] Creating Layer detection_accuracy_1_7x7
I1211 16:53:32.216264 15177 net.cpp:434] detection_accuracy_1_7x7 <- LFCN_1_7x7_LFCN_1_7x7_0_split_1
I1211 16:53:32.216267 15177 net.cpp:434] detection_accuracy_1_7x7 <- label_1_7x7_data_2_split_1
I1211 16:53:32.216272 15177 net.cpp:408] detection_accuracy_1_7x7 -> accuracy_1_7x7
I1211 16:53:32.216279 15177 net.cpp:408] detection_accuracy_1_7x7 -> boxiou_1_7x7
I1211 16:53:32.216331 15177 net.cpp:150] Setting up detection_accuracy_1_7x7
I1211 16:53:32.216337 15177 net.cpp:157] Top shape: 1 1 1 2 (2)
I1211 16:53:32.216341 15177 net.cpp:157] Top shape: 1 1 1 1 (1)
I1211 16:53:32.216342 15177 net.cpp:165] Memory required for data: 2183060228
I1211 16:53:32.216344 15177 layer_factory.hpp:77] Creating layer pool4
I1211 16:53:32.216351 15177 net.cpp:100] Creating Layer pool4
I1211 16:53:32.216353 15177 net.cpp:434] pool4 <- conv4_3_relu4_3_0_split_1
I1211 16:53:32.216358 15177 net.cpp:408] pool4 -> pool4
I1211 16:53:32.216408 15177 net.cpp:150] Setting up pool4
I1211 16:53:32.216413 15177 net.cpp:157] Top shape: 2 512 36 48 (1769472)
I1211 16:53:32.216415 15177 net.cpp:165] Memory required for data: 2190138116
I1211 16:53:32.216418 15177 layer_factory.hpp:77] Creating layer conv5_1
I1211 16:53:32.216426 15177 net.cpp:100] Creating Layer conv5_1
I1211 16:53:32.216429 15177 net.cpp:434] conv5_1 <- pool4
I1211 16:53:32.216434 15177 net.cpp:408] conv5_1 -> conv5_1
I1211 16:53:32.221932 15177 net.cpp:150] Setting up conv5_1
I1211 16:53:32.221952 15177 net.cpp:157] Top shape: 2 512 36 48 (1769472)
I1211 16:53:32.221954 15177 net.cpp:165] Memory required for data: 2197216004
I1211 16:53:32.221961 15177 layer_factory.hpp:77] Creating layer relu5_1
I1211 16:53:32.221972 15177 net.cpp:100] Creating Layer relu5_1
I1211 16:53:32.221976 15177 net.cpp:434] relu5_1 <- conv5_1
I1211 16:53:32.221982 15177 net.cpp:395] relu5_1 -> conv5_1 (in-place)
I1211 16:53:32.222247 15177 net.cpp:150] Setting up relu5_1
I1211 16:53:32.222256 15177 net.cpp:157] Top shape: 2 512 36 48 (1769472)
I1211 16:53:32.222259 15177 net.cpp:165] Memory required for data: 2204293892
I1211 16:53:32.222261 15177 layer_factory.hpp:77] Creating layer conv5_2
I1211 16:53:32.222270 15177 net.cpp:100] Creating Layer conv5_2
I1211 16:53:32.222280 15177 net.cpp:434] conv5_2 <- conv5_1
I1211 16:53:32.222285 15177 net.cpp:408] conv5_2 -> conv5_2
I1211 16:53:32.231281 15177 net.cpp:150] Setting up conv5_2
I1211 16:53:32.231297 15177 net.cpp:157] Top shape: 2 512 36 48 (1769472)
I1211 16:53:32.231298 15177 net.cpp:165] Memory required for data: 2211371780
I1211 16:53:32.231307 15177 layer_factory.hpp:77] Creating layer relu5_2
I1211 16:53:32.231317 15177 net.cpp:100] Creating Layer relu5_2
I1211 16:53:32.231320 15177 net.cpp:434] relu5_2 <- conv5_2
I1211 16:53:32.231329 15177 net.cpp:395] relu5_2 -> conv5_2 (in-place)
I1211 16:53:32.232112 15177 net.cpp:150] Setting up relu5_2
I1211 16:53:32.232122 15177 net.cpp:157] Top shape: 2 512 36 48 (1769472)
I1211 16:53:32.232123 15177 net.cpp:165] Memory required for data: 2218449668
I1211 16:53:32.232126 15177 layer_factory.hpp:77] Creating layer conv5_3
I1211 16:53:32.232136 15177 net.cpp:100] Creating Layer conv5_3
I1211 16:53:32.232144 15177 net.cpp:434] conv5_3 <- conv5_2
I1211 16:53:32.232151 15177 net.cpp:408] conv5_3 -> conv5_3
I1211 16:53:32.237416 15177 net.cpp:150] Setting up conv5_3
I1211 16:53:32.237435 15177 net.cpp:157] Top shape: 2 512 36 48 (1769472)
I1211 16:53:32.237437 15177 net.cpp:165] Memory required for data: 2225527556
I1211 16:53:32.237443 15177 layer_factory.hpp:77] Creating layer relu5_3
I1211 16:53:32.237453 15177 net.cpp:100] Creating Layer relu5_3
I1211 16:53:32.237457 15177 net.cpp:434] relu5_3 <- conv5_3
I1211 16:53:32.237463 15177 net.cpp:395] relu5_3 -> conv5_3 (in-place)
I1211 16:53:32.237725 15177 net.cpp:150] Setting up relu5_3
I1211 16:53:32.237735 15177 net.cpp:157] Top shape: 2 512 36 48 (1769472)
I1211 16:53:32.237736 15177 net.cpp:165] Memory required for data: 2232605444
I1211 16:53:32.237740 15177 layer_factory.hpp:77] Creating layer conv5_3_relu5_3_0_split
I1211 16:53:32.237745 15177 net.cpp:100] Creating Layer conv5_3_relu5_3_0_split
I1211 16:53:32.237758 15177 net.cpp:434] conv5_3_relu5_3_0_split <- conv5_3
I1211 16:53:32.237766 15177 net.cpp:408] conv5_3_relu5_3_0_split -> conv5_3_relu5_3_0_split_0
I1211 16:53:32.237774 15177 net.cpp:408] conv5_3_relu5_3_0_split -> conv5_3_relu5_3_0_split_1
I1211 16:53:32.237781 15177 net.cpp:408] conv5_3_relu5_3_0_split -> conv5_3_relu5_3_0_split_2
I1211 16:53:32.237859 15177 net.cpp:150] Setting up conv5_3_relu5_3_0_split
I1211 16:53:32.237864 15177 net.cpp:157] Top shape: 2 512 36 48 (1769472)
I1211 16:53:32.237869 15177 net.cpp:157] Top shape: 2 512 36 48 (1769472)
I1211 16:53:32.237871 15177 net.cpp:157] Top shape: 2 512 36 48 (1769472)
I1211 16:53:32.237874 15177 net.cpp:165] Memory required for data: 2253839108
I1211 16:53:32.237876 15177 layer_factory.hpp:77] Creating layer LFCN_2_5x5
I1211 16:53:32.237886 15177 net.cpp:100] Creating Layer LFCN_2_5x5
I1211 16:53:32.237890 15177 net.cpp:434] LFCN_2_5x5 <- conv5_3_relu5_3_0_split_0
I1211 16:53:32.237897 15177 net.cpp:408] LFCN_2_5x5 -> LFCN_2_5x5
I1211 16:53:32.240198 15177 net.cpp:150] Setting up LFCN_2_5x5
I1211 16:53:32.240212 15177 net.cpp:157] Top shape: 2 9 36 48 (31104)
I1211 16:53:32.240214 15177 net.cpp:165] Memory required for data: 2253963524
I1211 16:53:32.240227 15177 layer_factory.hpp:77] Creating layer LFCN_2_5x5_LFCN_2_5x5_0_split
I1211 16:53:32.240236 15177 net.cpp:100] Creating Layer LFCN_2_5x5_LFCN_2_5x5_0_split
I1211 16:53:32.240242 15177 net.cpp:434] LFCN_2_5x5_LFCN_2_5x5_0_split <- LFCN_2_5x5
I1211 16:53:32.240248 15177 net.cpp:408] LFCN_2_5x5_LFCN_2_5x5_0_split -> LFCN_2_5x5_LFCN_2_5x5_0_split_0
I1211 16:53:32.240280 15177 net.cpp:408] LFCN_2_5x5_LFCN_2_5x5_0_split -> LFCN_2_5x5_LFCN_2_5x5_0_split_1
I1211 16:53:32.240288 15177 net.cpp:408] LFCN_2_5x5_LFCN_2_5x5_0_split -> LFCN_2_5x5_LFCN_2_5x5_0_split_2
I1211 16:53:32.240363 15177 net.cpp:150] Setting up LFCN_2_5x5_LFCN_2_5x5_0_split
I1211 16:53:32.240370 15177 net.cpp:157] Top shape: 2 9 36 48 (31104)
I1211 16:53:32.240375 15177 net.cpp:157] Top shape: 2 9 36 48 (31104)
I1211 16:53:32.240378 15177 net.cpp:157] Top shape: 2 9 36 48 (31104)
I1211 16:53:32.240381 15177 net.cpp:165] Memory required for data: 2254336772
I1211 16:53:32.240382 15177 layer_factory.hpp:77] Creating layer detection_loss_2_5x5
I1211 16:53:32.240391 15177 net.cpp:100] Creating Layer detection_loss_2_5x5
I1211 16:53:32.240393 15177 net.cpp:434] detection_loss_2_5x5 <- LFCN_2_5x5_LFCN_2_5x5_0_split_0
I1211 16:53:32.240397 15177 net.cpp:434] detection_loss_2_5x5 <- label_2_5x5_data_3_split_0
I1211 16:53:32.240403 15177 net.cpp:408] detection_loss_2_5x5 -> loss_2_5x5
I1211 16:53:32.240411 15177 layer_factory.hpp:77] Creating layer detection_loss_2_5x5
I1211 16:53:32.240927 15177 net.cpp:150] Setting up detection_loss_2_5x5
I1211 16:53:32.240936 15177 net.cpp:157] Top shape: 1 1 1 2 (2)
I1211 16:53:32.240937 15177 net.cpp:160]     with loss weight 1
I1211 16:53:32.240944 15177 net.cpp:165] Memory required for data: 2254336780
I1211 16:53:32.240947 15177 layer_factory.hpp:77] Creating layer detection_accuracy_2_5x5
I1211 16:53:32.240955 15177 net.cpp:100] Creating Layer detection_accuracy_2_5x5
I1211 16:53:32.240958 15177 net.cpp:434] detection_accuracy_2_5x5 <- LFCN_2_5x5_LFCN_2_5x5_0_split_1
I1211 16:53:32.240963 15177 net.cpp:434] detection_accuracy_2_5x5 <- label_2_5x5_data_3_split_1
I1211 16:53:32.240969 15177 net.cpp:408] detection_accuracy_2_5x5 -> accuracy_2_5x5
I1211 16:53:32.240975 15177 net.cpp:408] detection_accuracy_2_5x5 -> boxiou_2_5x5
I1211 16:53:32.241027 15177 net.cpp:150] Setting up detection_accuracy_2_5x5
I1211 16:53:32.241034 15177 net.cpp:157] Top shape: 1 1 1 2 (2)
I1211 16:53:32.241036 15177 net.cpp:157] Top shape: 1 1 1 1 (1)
I1211 16:53:32.241039 15177 net.cpp:165] Memory required for data: 2254336792
I1211 16:53:32.241040 15177 layer_factory.hpp:77] Creating layer LFCN_2_7x7
I1211 16:53:32.241050 15177 net.cpp:100] Creating Layer LFCN_2_7x7
I1211 16:53:32.241053 15177 net.cpp:434] LFCN_2_7x7 <- conv5_3_relu5_3_0_split_1
I1211 16:53:32.241060 15177 net.cpp:408] LFCN_2_7x7 -> LFCN_2_7x7
I1211 16:53:32.245826 15177 net.cpp:150] Setting up LFCN_2_7x7
I1211 16:53:32.245851 15177 net.cpp:157] Top shape: 2 9 36 48 (31104)
I1211 16:53:32.245853 15177 net.cpp:165] Memory required for data: 2254461208
I1211 16:53:32.245865 15177 layer_factory.hpp:77] Creating layer LFCN_2_7x7_LFCN_2_7x7_0_split
I1211 16:53:32.245877 15177 net.cpp:100] Creating Layer LFCN_2_7x7_LFCN_2_7x7_0_split
I1211 16:53:32.245882 15177 net.cpp:434] LFCN_2_7x7_LFCN_2_7x7_0_split <- LFCN_2_7x7
I1211 16:53:32.245889 15177 net.cpp:408] LFCN_2_7x7_LFCN_2_7x7_0_split -> LFCN_2_7x7_LFCN_2_7x7_0_split_0
I1211 16:53:32.245898 15177 net.cpp:408] LFCN_2_7x7_LFCN_2_7x7_0_split -> LFCN_2_7x7_LFCN_2_7x7_0_split_1
I1211 16:53:32.245903 15177 net.cpp:408] LFCN_2_7x7_LFCN_2_7x7_0_split -> LFCN_2_7x7_LFCN_2_7x7_0_split_2
I1211 16:53:32.245982 15177 net.cpp:150] Setting up LFCN_2_7x7_LFCN_2_7x7_0_split
I1211 16:53:32.245990 15177 net.cpp:157] Top shape: 2 9 36 48 (31104)
I1211 16:53:32.245993 15177 net.cpp:157] Top shape: 2 9 36 48 (31104)
I1211 16:53:32.245995 15177 net.cpp:157] Top shape: 2 9 36 48 (31104)
I1211 16:53:32.245998 15177 net.cpp:165] Memory required for data: 2254834456
I1211 16:53:32.246001 15177 layer_factory.hpp:77] Creating layer detection_loss_2_7x7
I1211 16:53:32.246006 15177 net.cpp:100] Creating Layer detection_loss_2_7x7
I1211 16:53:32.246008 15177 net.cpp:434] detection_loss_2_7x7 <- LFCN_2_7x7_LFCN_2_7x7_0_split_0
I1211 16:53:32.246013 15177 net.cpp:434] detection_loss_2_7x7 <- label_2_7x7_data_4_split_0
I1211 16:53:32.246019 15177 net.cpp:408] detection_loss_2_7x7 -> loss_2_7x7
I1211 16:53:32.246027 15177 layer_factory.hpp:77] Creating layer detection_loss_2_7x7
I1211 16:53:32.246970 15177 net.cpp:150] Setting up detection_loss_2_7x7
I1211 16:53:32.246984 15177 net.cpp:157] Top shape: 1 1 1 2 (2)
I1211 16:53:32.246986 15177 net.cpp:160]     with loss weight 1
I1211 16:53:32.246994 15177 net.cpp:165] Memory required for data: 2254834464
I1211 16:53:32.246995 15177 layer_factory.hpp:77] Creating layer detection_accuracy_2_7x7
I1211 16:53:32.247004 15177 net.cpp:100] Creating Layer detection_accuracy_2_7x7
I1211 16:53:32.247006 15177 net.cpp:434] detection_accuracy_2_7x7 <- LFCN_2_7x7_LFCN_2_7x7_0_split_1
I1211 16:53:32.247010 15177 net.cpp:434] detection_accuracy_2_7x7 <- label_2_7x7_data_4_split_1
I1211 16:53:32.247015 15177 net.cpp:408] detection_accuracy_2_7x7 -> accuracy_2_7x7
I1211 16:53:32.247020 15177 net.cpp:408] detection_accuracy_2_7x7 -> boxiou_2_7x7
I1211 16:53:32.247058 15177 net.cpp:150] Setting up detection_accuracy_2_7x7
I1211 16:53:32.247061 15177 net.cpp:157] Top shape: 1 1 1 2 (2)
I1211 16:53:32.247062 15177 net.cpp:157] Top shape: 1 1 1 1 (1)
I1211 16:53:32.247064 15177 net.cpp:165] Memory required for data: 2254834476
I1211 16:53:32.247066 15177 layer_factory.hpp:77] Creating layer pool5
I1211 16:53:32.247069 15177 net.cpp:100] Creating Layer pool5
I1211 16:53:32.247071 15177 net.cpp:434] pool5 <- conv5_3_relu5_3_0_split_2
I1211 16:53:32.247074 15177 net.cpp:408] pool5 -> pool5
I1211 16:53:32.247108 15177 net.cpp:150] Setting up pool5
I1211 16:53:32.247112 15177 net.cpp:157] Top shape: 2 512 18 24 (442368)
I1211 16:53:32.247112 15177 net.cpp:165] Memory required for data: 2256603948
I1211 16:53:32.247114 15177 layer_factory.hpp:77] Creating layer conv6_1
I1211 16:53:32.247120 15177 net.cpp:100] Creating Layer conv6_1
I1211 16:53:32.247123 15177 net.cpp:434] conv6_1 <- pool5
I1211 16:53:32.247126 15177 net.cpp:408] conv6_1 -> conv6_1
I1211 16:53:32.268334 15177 net.cpp:150] Setting up conv6_1
I1211 16:53:32.268362 15177 net.cpp:157] Top shape: 2 512 18 24 (442368)
I1211 16:53:32.268364 15177 net.cpp:165] Memory required for data: 2258373420
I1211 16:53:32.268376 15177 layer_factory.hpp:77] Creating layer relu6_1
I1211 16:53:32.268389 15177 net.cpp:100] Creating Layer relu6_1
I1211 16:53:32.268396 15177 net.cpp:434] relu6_1 <- conv6_1
I1211 16:53:32.268405 15177 net.cpp:395] relu6_1 -> conv6_1 (in-place)
I1211 16:53:32.268664 15177 net.cpp:150] Setting up relu6_1
I1211 16:53:32.268672 15177 net.cpp:157] Top shape: 2 512 18 24 (442368)
I1211 16:53:32.268673 15177 net.cpp:165] Memory required for data: 2260142892
I1211 16:53:32.268676 15177 layer_factory.hpp:77] Creating layer conv6_1_relu6_1_0_split
I1211 16:53:32.268681 15177 net.cpp:100] Creating Layer conv6_1_relu6_1_0_split
I1211 16:53:32.268682 15177 net.cpp:434] conv6_1_relu6_1_0_split <- conv6_1
I1211 16:53:32.268687 15177 net.cpp:408] conv6_1_relu6_1_0_split -> conv6_1_relu6_1_0_split_0
I1211 16:53:32.268692 15177 net.cpp:408] conv6_1_relu6_1_0_split -> conv6_1_relu6_1_0_split_1
I1211 16:53:32.268694 15177 net.cpp:408] conv6_1_relu6_1_0_split -> conv6_1_relu6_1_0_split_2
I1211 16:53:32.268751 15177 net.cpp:150] Setting up conv6_1_relu6_1_0_split
I1211 16:53:32.268755 15177 net.cpp:157] Top shape: 2 512 18 24 (442368)
I1211 16:53:32.268757 15177 net.cpp:157] Top shape: 2 512 18 24 (442368)
I1211 16:53:32.268759 15177 net.cpp:157] Top shape: 2 512 18 24 (442368)
I1211 16:53:32.268760 15177 net.cpp:165] Memory required for data: 2265451308
I1211 16:53:32.268761 15177 layer_factory.hpp:77] Creating layer LFCN_3_5x5
I1211 16:53:32.268772 15177 net.cpp:100] Creating Layer LFCN_3_5x5
I1211 16:53:32.268774 15177 net.cpp:434] LFCN_3_5x5 <- conv6_1_relu6_1_0_split_0
I1211 16:53:32.268777 15177 net.cpp:408] LFCN_3_5x5 -> LFCN_3_5x5
I1211 16:53:32.270963 15177 net.cpp:150] Setting up LFCN_3_5x5
I1211 16:53:32.270977 15177 net.cpp:157] Top shape: 2 9 18 24 (7776)
I1211 16:53:32.270978 15177 net.cpp:165] Memory required for data: 2265482412
I1211 16:53:32.270987 15177 layer_factory.hpp:77] Creating layer LFCN_3_5x5_LFCN_3_5x5_0_split
I1211 16:53:32.271004 15177 net.cpp:100] Creating Layer LFCN_3_5x5_LFCN_3_5x5_0_split
I1211 16:53:32.271013 15177 net.cpp:434] LFCN_3_5x5_LFCN_3_5x5_0_split <- LFCN_3_5x5
I1211 16:53:32.271019 15177 net.cpp:408] LFCN_3_5x5_LFCN_3_5x5_0_split -> LFCN_3_5x5_LFCN_3_5x5_0_split_0
I1211 16:53:32.271029 15177 net.cpp:408] LFCN_3_5x5_LFCN_3_5x5_0_split -> LFCN_3_5x5_LFCN_3_5x5_0_split_1
I1211 16:53:32.271035 15177 net.cpp:408] LFCN_3_5x5_LFCN_3_5x5_0_split -> LFCN_3_5x5_LFCN_3_5x5_0_split_2
I1211 16:53:32.271113 15177 net.cpp:150] Setting up LFCN_3_5x5_LFCN_3_5x5_0_split
I1211 16:53:32.271119 15177 net.cpp:157] Top shape: 2 9 18 24 (7776)
I1211 16:53:32.271122 15177 net.cpp:157] Top shape: 2 9 18 24 (7776)
I1211 16:53:32.271126 15177 net.cpp:157] Top shape: 2 9 18 24 (7776)
I1211 16:53:32.271128 15177 net.cpp:165] Memory required for data: 2265575724
I1211 16:53:32.271131 15177 layer_factory.hpp:77] Creating layer detection_loss_3_5x5
I1211 16:53:32.271138 15177 net.cpp:100] Creating Layer detection_loss_3_5x5
I1211 16:53:32.271142 15177 net.cpp:434] detection_loss_3_5x5 <- LFCN_3_5x5_LFCN_3_5x5_0_split_0
I1211 16:53:32.271147 15177 net.cpp:434] detection_loss_3_5x5 <- label_3_5x5_data_5_split_0
I1211 16:53:32.271153 15177 net.cpp:408] detection_loss_3_5x5 -> loss_3_5x5
I1211 16:53:32.271162 15177 layer_factory.hpp:77] Creating layer detection_loss_3_5x5
I1211 16:53:32.271705 15177 net.cpp:150] Setting up detection_loss_3_5x5
I1211 16:53:32.271714 15177 net.cpp:157] Top shape: 1 1 1 2 (2)
I1211 16:53:32.271716 15177 net.cpp:160]     with loss weight 1
I1211 16:53:32.271724 15177 net.cpp:165] Memory required for data: 2265575732
I1211 16:53:32.271728 15177 layer_factory.hpp:77] Creating layer detection_accuracy_3_5x5
I1211 16:53:32.271733 15177 net.cpp:100] Creating Layer detection_accuracy_3_5x5
I1211 16:53:32.271737 15177 net.cpp:434] detection_accuracy_3_5x5 <- LFCN_3_5x5_LFCN_3_5x5_0_split_1
I1211 16:53:32.271741 15177 net.cpp:434] detection_accuracy_3_5x5 <- label_3_5x5_data_5_split_1
I1211 16:53:32.271749 15177 net.cpp:408] detection_accuracy_3_5x5 -> accuracy_3_5x5
I1211 16:53:32.271756 15177 net.cpp:408] detection_accuracy_3_5x5 -> boxiou_3_5x5
I1211 16:53:32.271813 15177 net.cpp:150] Setting up detection_accuracy_3_5x5
I1211 16:53:32.271819 15177 net.cpp:157] Top shape: 1 1 1 2 (2)
I1211 16:53:32.271823 15177 net.cpp:157] Top shape: 1 1 1 1 (1)
I1211 16:53:32.271826 15177 net.cpp:165] Memory required for data: 2265575744
I1211 16:53:32.271828 15177 layer_factory.hpp:77] Creating layer LFCN_3_7x7
I1211 16:53:32.271839 15177 net.cpp:100] Creating Layer LFCN_3_7x7
I1211 16:53:32.271843 15177 net.cpp:434] LFCN_3_7x7 <- conv6_1_relu6_1_0_split_1
I1211 16:53:32.271848 15177 net.cpp:408] LFCN_3_7x7 -> LFCN_3_7x7
I1211 16:53:32.275907 15177 net.cpp:150] Setting up LFCN_3_7x7
I1211 16:53:32.275923 15177 net.cpp:157] Top shape: 2 9 18 24 (7776)
I1211 16:53:32.275924 15177 net.cpp:165] Memory required for data: 2265606848
I1211 16:53:32.275930 15177 layer_factory.hpp:77] Creating layer LFCN_3_7x7_LFCN_3_7x7_0_split
I1211 16:53:32.275936 15177 net.cpp:100] Creating Layer LFCN_3_7x7_LFCN_3_7x7_0_split
I1211 16:53:32.275939 15177 net.cpp:434] LFCN_3_7x7_LFCN_3_7x7_0_split <- LFCN_3_7x7
I1211 16:53:32.275945 15177 net.cpp:408] LFCN_3_7x7_LFCN_3_7x7_0_split -> LFCN_3_7x7_LFCN_3_7x7_0_split_0
I1211 16:53:32.275951 15177 net.cpp:408] LFCN_3_7x7_LFCN_3_7x7_0_split -> LFCN_3_7x7_LFCN_3_7x7_0_split_1
I1211 16:53:32.275955 15177 net.cpp:408] LFCN_3_7x7_LFCN_3_7x7_0_split -> LFCN_3_7x7_LFCN_3_7x7_0_split_2
I1211 16:53:32.276024 15177 net.cpp:150] Setting up LFCN_3_7x7_LFCN_3_7x7_0_split
I1211 16:53:32.276031 15177 net.cpp:157] Top shape: 2 9 18 24 (7776)
I1211 16:53:32.276034 15177 net.cpp:157] Top shape: 2 9 18 24 (7776)
I1211 16:53:32.276038 15177 net.cpp:157] Top shape: 2 9 18 24 (7776)
I1211 16:53:32.276041 15177 net.cpp:165] Memory required for data: 2265700160
I1211 16:53:32.276043 15177 layer_factory.hpp:77] Creating layer detection_loss_3_7x7
I1211 16:53:32.276049 15177 net.cpp:100] Creating Layer detection_loss_3_7x7
I1211 16:53:32.276052 15177 net.cpp:434] detection_loss_3_7x7 <- LFCN_3_7x7_LFCN_3_7x7_0_split_0
I1211 16:53:32.276057 15177 net.cpp:434] detection_loss_3_7x7 <- label_3_7x7_data_6_split_0
I1211 16:53:32.276063 15177 net.cpp:408] detection_loss_3_7x7 -> loss_3_7x7
I1211 16:53:32.276072 15177 layer_factory.hpp:77] Creating layer detection_loss_3_7x7
I1211 16:53:32.276968 15177 net.cpp:150] Setting up detection_loss_3_7x7
I1211 16:53:32.276978 15177 net.cpp:157] Top shape: 1 1 1 2 (2)
I1211 16:53:32.276978 15177 net.cpp:160]     with loss weight 1
I1211 16:53:32.276984 15177 net.cpp:165] Memory required for data: 2265700168
I1211 16:53:32.276986 15177 layer_factory.hpp:77] Creating layer detection_accuracy_3_7x7
I1211 16:53:32.276991 15177 net.cpp:100] Creating Layer detection_accuracy_3_7x7
I1211 16:53:32.276994 15177 net.cpp:434] detection_accuracy_3_7x7 <- LFCN_3_7x7_LFCN_3_7x7_0_split_1
I1211 16:53:32.276998 15177 net.cpp:434] detection_accuracy_3_7x7 <- label_3_7x7_data_6_split_1
I1211 16:53:32.277001 15177 net.cpp:408] detection_accuracy_3_7x7 -> accuracy_3_7x7
I1211 16:53:32.277006 15177 net.cpp:408] detection_accuracy_3_7x7 -> boxiou_3_7x7
I1211 16:53:32.277060 15177 net.cpp:150] Setting up detection_accuracy_3_7x7
I1211 16:53:32.277065 15177 net.cpp:157] Top shape: 1 1 1 2 (2)
I1211 16:53:32.277068 15177 net.cpp:157] Top shape: 1 1 1 1 (1)
I1211 16:53:32.277070 15177 net.cpp:165] Memory required for data: 2265700180
I1211 16:53:32.277073 15177 layer_factory.hpp:77] Creating layer pool6
I1211 16:53:32.277081 15177 net.cpp:100] Creating Layer pool6
I1211 16:53:32.277083 15177 net.cpp:434] pool6 <- conv6_1_relu6_1_0_split_2
I1211 16:53:32.277089 15177 net.cpp:408] pool6 -> pool6
I1211 16:53:32.277139 15177 net.cpp:150] Setting up pool6
I1211 16:53:32.277144 15177 net.cpp:157] Top shape: 2 512 9 12 (110592)
I1211 16:53:32.277146 15177 net.cpp:165] Memory required for data: 2266142548
I1211 16:53:32.277149 15177 layer_factory.hpp:77] Creating layer LFCN_4_5x5
I1211 16:53:32.277158 15177 net.cpp:100] Creating Layer LFCN_4_5x5
I1211 16:53:32.277160 15177 net.cpp:434] LFCN_4_5x5 <- pool6
I1211 16:53:32.277166 15177 net.cpp:408] LFCN_4_5x5 -> LFCN_4_5x5
I1211 16:53:32.279691 15177 net.cpp:150] Setting up LFCN_4_5x5
I1211 16:53:32.279703 15177 net.cpp:157] Top shape: 2 9 9 12 (1944)
I1211 16:53:32.279705 15177 net.cpp:165] Memory required for data: 2266150324
I1211 16:53:32.279711 15177 layer_factory.hpp:77] Creating layer LFCN_4_5x5_LFCN_4_5x5_0_split
I1211 16:53:32.279717 15177 net.cpp:100] Creating Layer LFCN_4_5x5_LFCN_4_5x5_0_split
I1211 16:53:32.279721 15177 net.cpp:434] LFCN_4_5x5_LFCN_4_5x5_0_split <- LFCN_4_5x5
I1211 16:53:32.279726 15177 net.cpp:408] LFCN_4_5x5_LFCN_4_5x5_0_split -> LFCN_4_5x5_LFCN_4_5x5_0_split_0
I1211 16:53:32.279731 15177 net.cpp:408] LFCN_4_5x5_LFCN_4_5x5_0_split -> LFCN_4_5x5_LFCN_4_5x5_0_split_1
I1211 16:53:32.279736 15177 net.cpp:408] LFCN_4_5x5_LFCN_4_5x5_0_split -> LFCN_4_5x5_LFCN_4_5x5_0_split_2
I1211 16:53:32.279810 15177 net.cpp:150] Setting up LFCN_4_5x5_LFCN_4_5x5_0_split
I1211 16:53:32.279817 15177 net.cpp:157] Top shape: 2 9 9 12 (1944)
I1211 16:53:32.279820 15177 net.cpp:157] Top shape: 2 9 9 12 (1944)
I1211 16:53:32.279824 15177 net.cpp:157] Top shape: 2 9 9 12 (1944)
I1211 16:53:32.279825 15177 net.cpp:165] Memory required for data: 2266173652
I1211 16:53:32.279829 15177 layer_factory.hpp:77] Creating layer detection_loss_4_5x5
I1211 16:53:32.279835 15177 net.cpp:100] Creating Layer detection_loss_4_5x5
I1211 16:53:32.279839 15177 net.cpp:434] detection_loss_4_5x5 <- LFCN_4_5x5_LFCN_4_5x5_0_split_0
I1211 16:53:32.279842 15177 net.cpp:434] detection_loss_4_5x5 <- label_4_5x5_data_7_split_0
I1211 16:53:32.279848 15177 net.cpp:408] detection_loss_4_5x5 -> loss_4_5x5
I1211 16:53:32.279856 15177 layer_factory.hpp:77] Creating layer detection_loss_4_5x5
I1211 16:53:32.280370 15177 net.cpp:150] Setting up detection_loss_4_5x5
I1211 16:53:32.280378 15177 net.cpp:157] Top shape: 1 1 1 2 (2)
I1211 16:53:32.280381 15177 net.cpp:160]     with loss weight 1
I1211 16:53:32.280388 15177 net.cpp:165] Memory required for data: 2266173660
I1211 16:53:32.280391 15177 layer_factory.hpp:77] Creating layer detection_accuracy_4_5x5
I1211 16:53:32.280397 15177 net.cpp:100] Creating Layer detection_accuracy_4_5x5
I1211 16:53:32.280400 15177 net.cpp:434] detection_accuracy_4_5x5 <- LFCN_4_5x5_LFCN_4_5x5_0_split_1
I1211 16:53:32.280405 15177 net.cpp:434] detection_accuracy_4_5x5 <- label_4_5x5_data_7_split_1
I1211 16:53:32.280409 15177 net.cpp:408] detection_accuracy_4_5x5 -> accuracy_4_5x5
I1211 16:53:32.280416 15177 net.cpp:408] detection_accuracy_4_5x5 -> boxiou_4_5x5
I1211 16:53:32.280468 15177 net.cpp:150] Setting up detection_accuracy_4_5x5
I1211 16:53:32.280473 15177 net.cpp:157] Top shape: 1 1 1 2 (2)
I1211 16:53:32.280478 15177 net.cpp:157] Top shape: 1 1 1 1 (1)
I1211 16:53:32.280479 15177 net.cpp:165] Memory required for data: 2266173672
I1211 16:53:32.280481 15177 layer_factory.hpp:77] Creating layer proposals
I1211 16:53:32.280489 15177 net.cpp:100] Creating Layer proposals
I1211 16:53:32.280493 15177 net.cpp:434] proposals <- LFCN_1_5x5_LFCN_1_5x5_0_split_2
I1211 16:53:32.280498 15177 net.cpp:434] proposals <- LFCN_1_7x7_LFCN_1_7x7_0_split_2
I1211 16:53:32.280501 15177 net.cpp:434] proposals <- LFCN_2_5x5_LFCN_2_5x5_0_split_2
I1211 16:53:32.280504 15177 net.cpp:434] proposals <- LFCN_2_7x7_LFCN_2_7x7_0_split_2
I1211 16:53:32.280508 15177 net.cpp:434] proposals <- LFCN_3_5x5_LFCN_3_5x5_0_split_2
I1211 16:53:32.280510 15177 net.cpp:434] proposals <- LFCN_3_7x7_LFCN_3_7x7_0_split_2
I1211 16:53:32.280514 15177 net.cpp:434] proposals <- LFCN_4_5x5_LFCN_4_5x5_0_split_2
I1211 16:53:32.280519 15177 net.cpp:408] proposals -> proposals
I1211 16:53:32.280550 15177 net.cpp:150] Setting up proposals
I1211 16:53:32.280555 15177 net.cpp:157] Top shape: 1 5 1 1 (5)
I1211 16:53:32.280556 15177 net.cpp:165] Memory required for data: 2266173692
I1211 16:53:32.280560 15177 layer_factory.hpp:77] Creating layer proposal_info
I1211 16:53:32.280568 15177 net.cpp:100] Creating Layer proposal_info
I1211 16:53:32.280571 15177 net.cpp:434] proposal_info <- proposals
I1211 16:53:32.280575 15177 net.cpp:434] proposal_info <- gt_boxes
I1211 16:53:32.280581 15177 net.cpp:408] proposal_info -> rois
I1211 16:53:32.280589 15177 net.cpp:408] proposal_info -> proposal_labels
I1211 16:53:32.280596 15177 net.cpp:408] proposal_info -> proposal_targets
I1211 16:53:32.280602 15177 net.cpp:408] proposal_info -> box_inside_weights
I1211 16:53:32.280609 15177 net.cpp:408] proposal_info -> box_outside_weights
I1211 16:53:32.280616 15177 net.cpp:408] proposal_info -> match_gt_boxes
I1211 16:53:32.280745 15177 net.cpp:150] Setting up proposal_info
I1211 16:53:32.280751 15177 net.cpp:157] Top shape: 128 5 1 1 (640)
I1211 16:53:32.280755 15177 net.cpp:157] Top shape: 128 1 1 1 (128)
I1211 16:53:32.280760 15177 net.cpp:157] Top shape: 128 20 1 1 (2560)
I1211 16:53:32.280763 15177 net.cpp:157] Top shape: 128 20 1 1 (2560)
I1211 16:53:32.280767 15177 net.cpp:157] Top shape: 128 20 1 1 (2560)
I1211 16:53:32.280771 15177 net.cpp:157] Top shape: 128 6 1 1 (768)
I1211 16:53:32.280774 15177 net.cpp:165] Memory required for data: 2266210556
I1211 16:53:32.280777 15177 layer_factory.hpp:77] Creating layer rois_proposal_info_0_split
I1211 16:53:32.280781 15177 net.cpp:100] Creating Layer rois_proposal_info_0_split
I1211 16:53:32.280784 15177 net.cpp:434] rois_proposal_info_0_split <- rois
I1211 16:53:32.280788 15177 net.cpp:408] rois_proposal_info_0_split -> rois_proposal_info_0_split_0
I1211 16:53:32.280794 15177 net.cpp:408] rois_proposal_info_0_split -> rois_proposal_info_0_split_1
I1211 16:53:32.280800 15177 net.cpp:408] rois_proposal_info_0_split -> rois_proposal_info_0_split_2
I1211 16:53:32.280864 15177 net.cpp:150] Setting up rois_proposal_info_0_split
I1211 16:53:32.280867 15177 net.cpp:157] Top shape: 128 5 1 1 (640)
I1211 16:53:32.280872 15177 net.cpp:157] Top shape: 128 5 1 1 (640)
I1211 16:53:32.280875 15177 net.cpp:157] Top shape: 128 5 1 1 (640)
I1211 16:53:32.280879 15177 net.cpp:165] Memory required for data: 2266218236
I1211 16:53:32.280881 15177 layer_factory.hpp:77] Creating layer proposal_labels_proposal_info_1_split
I1211 16:53:32.280885 15177 net.cpp:100] Creating Layer proposal_labels_proposal_info_1_split
I1211 16:53:32.280889 15177 net.cpp:434] proposal_labels_proposal_info_1_split <- proposal_labels
I1211 16:53:32.280892 15177 net.cpp:408] proposal_labels_proposal_info_1_split -> proposal_labels_proposal_info_1_split_0
I1211 16:53:32.280899 15177 net.cpp:408] proposal_labels_proposal_info_1_split -> proposal_labels_proposal_info_1_split_1
I1211 16:53:32.280943 15177 net.cpp:150] Setting up proposal_labels_proposal_info_1_split
I1211 16:53:32.280948 15177 net.cpp:157] Top shape: 128 1 1 1 (128)
I1211 16:53:32.280952 15177 net.cpp:157] Top shape: 128 1 1 1 (128)
I1211 16:53:32.280954 15177 net.cpp:165] Memory required for data: 2266219260
I1211 16:53:32.280957 15177 layer_factory.hpp:77] Creating layer conv4_3_2x
I1211 16:53:32.280964 15177 net.cpp:100] Creating Layer conv4_3_2x
I1211 16:53:32.280968 15177 net.cpp:434] conv4_3_2x <- conv4_3_relu4_3_0_split_2
I1211 16:53:32.280974 15177 net.cpp:408] conv4_3_2x -> conv4_3_2x
I1211 16:53:32.281642 15177 net.cpp:150] Setting up conv4_3_2x
I1211 16:53:32.281651 15177 net.cpp:157] Top shape: 2 512 144 192 (28311552)
I1211 16:53:32.281653 15177 net.cpp:165] Memory required for data: 2379465468
I1211 16:53:32.281657 15177 layer_factory.hpp:77] Creating layer conv4_3_2x_conv4_3_2x_0_split
I1211 16:53:32.281662 15177 net.cpp:100] Creating Layer conv4_3_2x_conv4_3_2x_0_split
I1211 16:53:32.281666 15177 net.cpp:434] conv4_3_2x_conv4_3_2x_0_split <- conv4_3_2x
I1211 16:53:32.281672 15177 net.cpp:408] conv4_3_2x_conv4_3_2x_0_split -> conv4_3_2x_conv4_3_2x_0_split_0
I1211 16:53:32.281678 15177 net.cpp:408] conv4_3_2x_conv4_3_2x_0_split -> conv4_3_2x_conv4_3_2x_0_split_1
I1211 16:53:32.281724 15177 net.cpp:150] Setting up conv4_3_2x_conv4_3_2x_0_split
I1211 16:53:32.281729 15177 net.cpp:157] Top shape: 2 512 144 192 (28311552)
I1211 16:53:32.281733 15177 net.cpp:157] Top shape: 2 512 144 192 (28311552)
I1211 16:53:32.281736 15177 net.cpp:165] Memory required for data: 2605957884
I1211 16:53:32.281739 15177 layer_factory.hpp:77] Creating layer roi_pool_org
I1211 16:53:32.281744 15177 net.cpp:100] Creating Layer roi_pool_org
I1211 16:53:32.281747 15177 net.cpp:434] roi_pool_org <- conv4_3_2x_conv4_3_2x_0_split_0
I1211 16:53:32.281751 15177 net.cpp:434] roi_pool_org <- rois_proposal_info_0_split_0
I1211 16:53:32.281755 15177 net.cpp:408] roi_pool_org -> roi_pool_org
I1211 16:53:32.281762 15177 roi_pooling_layer.cpp:33] Spatial scale: 0.25
I1211 16:53:32.281810 15177 net.cpp:150] Setting up roi_pool_org
I1211 16:53:32.281814 15177 net.cpp:157] Top shape: 128 512 7 7 (3211264)
I1211 16:53:32.281817 15177 net.cpp:165] Memory required for data: 2618802940
I1211 16:53:32.281819 15177 layer_factory.hpp:77] Creating layer roi_pool_ctx
I1211 16:53:32.281823 15177 net.cpp:100] Creating Layer roi_pool_ctx
I1211 16:53:32.281826 15177 net.cpp:434] roi_pool_ctx <- conv4_3_2x_conv4_3_2x_0_split_1
I1211 16:53:32.281831 15177 net.cpp:434] roi_pool_ctx <- rois_proposal_info_0_split_1
I1211 16:53:32.281836 15177 net.cpp:408] roi_pool_ctx -> roi_pool_ctx
I1211 16:53:32.281841 15177 roi_pooling_layer.cpp:33] Spatial scale: 0.25
I1211 16:53:32.281888 15177 net.cpp:150] Setting up roi_pool_ctx
I1211 16:53:32.281893 15177 net.cpp:157] Top shape: 128 512 7 7 (3211264)
I1211 16:53:32.281895 15177 net.cpp:165] Memory required for data: 2631647996
I1211 16:53:32.281898 15177 layer_factory.hpp:77] Creating layer roi_pool
I1211 16:53:32.281903 15177 net.cpp:100] Creating Layer roi_pool
I1211 16:53:32.281905 15177 net.cpp:434] roi_pool <- roi_pool_org
I1211 16:53:32.281908 15177 net.cpp:434] roi_pool <- roi_pool_ctx
I1211 16:53:32.281914 15177 net.cpp:408] roi_pool -> roi_pool
I1211 16:53:32.281942 15177 net.cpp:150] Setting up roi_pool
I1211 16:53:32.281947 15177 net.cpp:157] Top shape: 128 1024 7 7 (6422528)
I1211 16:53:32.281950 15177 net.cpp:165] Memory required for data: 2657338108
I1211 16:53:32.281952 15177 layer_factory.hpp:77] Creating layer roi_c1
I1211 16:53:32.281960 15177 net.cpp:100] Creating Layer roi_c1
I1211 16:53:32.281965 15177 net.cpp:434] roi_c1 <- roi_pool
I1211 16:53:32.281970 15177 net.cpp:408] roi_c1 -> roi_c1
I1211 16:53:32.321184 15177 net.cpp:150] Setting up roi_c1
I1211 16:53:32.321199 15177 net.cpp:157] Top shape: 128 512 5 5 (1638400)
I1211 16:53:32.321202 15177 net.cpp:165] Memory required for data: 2663891708
I1211 16:53:32.321208 15177 layer_factory.hpp:77] Creating layer roi_c1_relu
I1211 16:53:32.321213 15177 net.cpp:100] Creating Layer roi_c1_relu
I1211 16:53:32.321216 15177 net.cpp:434] roi_c1_relu <- roi_c1
I1211 16:53:32.321220 15177 net.cpp:395] roi_c1_relu -> roi_c1 (in-place)
I1211 16:53:32.321473 15177 net.cpp:150] Setting up roi_c1_relu
I1211 16:53:32.321482 15177 net.cpp:157] Top shape: 128 512 5 5 (1638400)
I1211 16:53:32.321485 15177 net.cpp:165] Memory required for data: 2670445308
I1211 16:53:32.321487 15177 layer_factory.hpp:77] Creating layer fc6
I1211 16:53:32.321496 15177 net.cpp:100] Creating Layer fc6
I1211 16:53:32.321499 15177 net.cpp:434] fc6 <- roi_c1
I1211 16:53:32.321506 15177 net.cpp:408] fc6 -> fc6
I1211 16:53:32.724300 15177 net.cpp:150] Setting up fc6
I1211 16:53:32.724316 15177 net.cpp:157] Top shape: 128 4096 (524288)
I1211 16:53:32.724318 15177 net.cpp:165] Memory required for data: 2672542460
I1211 16:53:32.724325 15177 layer_factory.hpp:77] Creating layer relu6
I1211 16:53:32.724331 15177 net.cpp:100] Creating Layer relu6
I1211 16:53:32.724334 15177 net.cpp:434] relu6 <- fc6
I1211 16:53:32.724339 15177 net.cpp:395] relu6 -> fc6 (in-place)
I1211 16:53:32.724673 15177 net.cpp:150] Setting up relu6
I1211 16:53:32.724680 15177 net.cpp:157] Top shape: 128 4096 (524288)
I1211 16:53:32.724681 15177 net.cpp:165] Memory required for data: 2674639612
I1211 16:53:32.724684 15177 layer_factory.hpp:77] Creating layer drop6
I1211 16:53:32.724690 15177 net.cpp:100] Creating Layer drop6
I1211 16:53:32.724694 15177 net.cpp:434] drop6 <- fc6
I1211 16:53:32.724699 15177 net.cpp:395] drop6 -> fc6 (in-place)
I1211 16:53:32.724753 15177 net.cpp:150] Setting up drop6
I1211 16:53:32.724757 15177 net.cpp:157] Top shape: 128 4096 (524288)
I1211 16:53:32.724758 15177 net.cpp:165] Memory required for data: 2676736764
I1211 16:53:32.724761 15177 layer_factory.hpp:77] Creating layer fc6_drop6_0_split
I1211 16:53:32.724764 15177 net.cpp:100] Creating Layer fc6_drop6_0_split
I1211 16:53:32.724767 15177 net.cpp:434] fc6_drop6_0_split <- fc6
I1211 16:53:32.724773 15177 net.cpp:408] fc6_drop6_0_split -> fc6_drop6_0_split_0
I1211 16:53:32.724781 15177 net.cpp:408] fc6_drop6_0_split -> fc6_drop6_0_split_1
I1211 16:53:32.724822 15177 net.cpp:150] Setting up fc6_drop6_0_split
I1211 16:53:32.724824 15177 net.cpp:157] Top shape: 128 4096 (524288)
I1211 16:53:32.724826 15177 net.cpp:157] Top shape: 128 4096 (524288)
I1211 16:53:32.724828 15177 net.cpp:165] Memory required for data: 2680931068
I1211 16:53:32.724831 15177 layer_factory.hpp:77] Creating layer cls_pred
I1211 16:53:32.724838 15177 net.cpp:100] Creating Layer cls_pred
I1211 16:53:32.724840 15177 net.cpp:434] cls_pred <- fc6_drop6_0_split_0
I1211 16:53:32.724845 15177 net.cpp:408] cls_pred -> cls_pred
I1211 16:53:32.725105 15177 net.cpp:150] Setting up cls_pred
I1211 16:53:32.725108 15177 net.cpp:157] Top shape: 128 5 (640)
I1211 16:53:32.725109 15177 net.cpp:165] Memory required for data: 2680933628
I1211 16:53:32.725114 15177 layer_factory.hpp:77] Creating layer cls_pred_cls_pred_0_split
I1211 16:53:32.725119 15177 net.cpp:100] Creating Layer cls_pred_cls_pred_0_split
I1211 16:53:32.725122 15177 net.cpp:434] cls_pred_cls_pred_0_split <- cls_pred
I1211 16:53:32.725127 15177 net.cpp:408] cls_pred_cls_pred_0_split -> cls_pred_cls_pred_0_split_0
I1211 16:53:32.725132 15177 net.cpp:408] cls_pred_cls_pred_0_split -> cls_pred_cls_pred_0_split_1
I1211 16:53:32.725175 15177 net.cpp:150] Setting up cls_pred_cls_pred_0_split
I1211 16:53:32.725178 15177 net.cpp:157] Top shape: 128 5 (640)
I1211 16:53:32.725181 15177 net.cpp:157] Top shape: 128 5 (640)
I1211 16:53:32.725183 15177 net.cpp:165] Memory required for data: 2680938748
I1211 16:53:32.725186 15177 layer_factory.hpp:77] Creating layer bbox_pred
I1211 16:53:32.725191 15177 net.cpp:100] Creating Layer bbox_pred
I1211 16:53:32.725193 15177 net.cpp:434] bbox_pred <- fc6_drop6_0_split_1
I1211 16:53:32.725198 15177 net.cpp:408] bbox_pred -> bbox_pred
I1211 16:53:32.725891 15177 net.cpp:150] Setting up bbox_pred
I1211 16:53:32.725895 15177 net.cpp:157] Top shape: 128 20 (2560)
I1211 16:53:32.725898 15177 net.cpp:165] Memory required for data: 2680948988
I1211 16:53:32.725900 15177 layer_factory.hpp:77] Creating layer bbox_pred_bbox_pred_0_split
I1211 16:53:32.725903 15177 net.cpp:100] Creating Layer bbox_pred_bbox_pred_0_split
I1211 16:53:32.725905 15177 net.cpp:434] bbox_pred_bbox_pred_0_split <- bbox_pred
I1211 16:53:32.725908 15177 net.cpp:408] bbox_pred_bbox_pred_0_split -> bbox_pred_bbox_pred_0_split_0
I1211 16:53:32.725913 15177 net.cpp:408] bbox_pred_bbox_pred_0_split -> bbox_pred_bbox_pred_0_split_1
I1211 16:53:32.725944 15177 net.cpp:150] Setting up bbox_pred_bbox_pred_0_split
I1211 16:53:32.725949 15177 net.cpp:157] Top shape: 128 20 (2560)
I1211 16:53:32.725950 15177 net.cpp:157] Top shape: 128 20 (2560)
I1211 16:53:32.725951 15177 net.cpp:165] Memory required for data: 2680969468
I1211 16:53:32.725955 15177 layer_factory.hpp:77] Creating layer loss_cls
I1211 16:53:32.725960 15177 net.cpp:100] Creating Layer loss_cls
I1211 16:53:32.725961 15177 net.cpp:434] loss_cls <- cls_pred_cls_pred_0_split_0
I1211 16:53:32.725966 15177 net.cpp:434] loss_cls <- proposal_labels_proposal_info_1_split_0
…
