…
    downsample_rate: 32
    downsample_rate: 32
    downsample_rate: 64
    coord_num: 4
    field_h: 60
    field_h: 84
    field_h: 120
    field_h: 168
    field_h: 240
    field_h: 336
    field_h: 480
    field_w: 40
    field_w: 56
    field_w: 80
    field_w: 112
    field_w: 160
    field_w: 224
    field_w: 320
    fg_threshold: 0.5
    resize_width: 1920
    resize_height: 576
    crop_width: 768
    crop_height: 576
    do_multiple_scale: true
    min_scale: 50
    max_scale: 420
    min_gt_height: 35
    shuffle: true
    output_gt_boxes: true
  }
}
layer {
  name: "conv1_1"
  type: "Convolution"
  bottom: "data"
  top: "conv1_1"
  param {
    lr_mult: 0
    decay_mult: 0
  }
  param {
    lr_mult: 0
    decay_mult: 0
  }
  convolution_param {
    num_output: 64
    pad: 1
    kernel_size: 3
  }
}
layer {
  name: "relu1_1"
  type: "ReLU"
  bottom: "conv1_1"
  top: "conv1_1"
}
layer {
  name: "conv1_2"
  type: "Convolution"
  bottom: "conv1_1"
  top: "conv1_2"
  param {
    lr_mult: 0
    decay_mult: 0
  }
  param {
    lr_mult: 0
    decay_mult: 0
  }
  convolution_param {
    num_output: 64
    pad: 1
    kernel_size: 3
  }
}
layer {
  name: "relu1_2"
  type: "ReLU"
  bottom: "conv1_2"
  top: "conv1_2"
}
layer {
  name: "pool1"
  type: "Pooling"
  bottom: "conv1_2"
  top: "pool1"
  pooling_param {
    pool: MAX
    kernel_size: 2
    stride: 2
  }
}
layer {
  name: "conv2_1"
  type: "Convolution"
  bottom: "pool1"
  top: "conv2_1"
  param {
    lr_mult: 0
    decay_mult: 0
  }
  param {
    lr_mult: 0
    decay_mult: 0
  }
  convolution_param {
    num_output: 128
    pad: 1
    kernel_size: 3
  }
}
layer {
  name: "relu2_1"
  type: "ReLU"
  bottom: "conv2_1"
  top: "conv2_1"
}
layer {
  name: "conv2_2"
  type: "Convolution"
  bottom: "conv2_1"
  top: "conv2_2"
  param {
    lr_mult: 0
    decay_mult: 0
  }
  param {
    lr_mult: 0
    decay_mult: 0
  }
  convolution_param {
    num_output: 128
    pad: 1
    kernel_size: 3
  }
}
layer {
  name: "relu2_2"
  type: "ReLU"
  bottom: "conv2_2"
  top: "conv2_2"
}
layer {
  name: "pool2"
  type: "Pooling"
  bottom: "conv2_2"
  top: "pool2"
  pooling_param {
    pool: MAX
    kernel_size: 2
    stride: 2
  }
}
layer {
  name: "conv3_1"
  type: "Convolution"
  bottom: "pool2"
  top: "conv3_1"
  convolution_param {
    num_output: 256
    pad: 1
    kernel_size: 3
  }
}
layer {
  name: "relu3_1"
  type: "ReLU"
  bottom: "conv3_1"
  top: "conv3_1"
}
layer {
  name: "conv3_2"
  type: "Convolution"
  bottom: "conv3_1"
  top: "conv3_2"
  convolution_param {
    num_output: 256
    pad: 1
    kernel_size: 3
  }
}
layer {
  name: "relu3_2"
  type: "ReLU"
  bottom: "conv3_2"
  top: "conv3_2"
}
layer {
  name: "conv3_3"
  type: "Convolution"
  bottom: "conv3_2"
  top: "conv3_3"
  convolution_param {
    num_output: 256
    pad: 1
    kernel_size: 3
  }
}
layer {
  name: "relu3_3"
  type: "ReLU"
  bottom: "conv3_3"
  top: "conv3_3"
}
layer {
  name: "pool3"
  type: "Pooling"
  bottom: "conv3_3"
  top: "pool3"
  pooling_param {
    pool: MAX
    kernel_size: 2
    stride: 2
  }
}
layer {
  name: "conv4_1"
  type: "Convolution"
  bottom: "pool3"
  top: "conv4_1"
  convolution_param {
    num_output: 512
    pad: 1
    kernel_size: 3
  }
}
layer {
  name: "relu4_1"
  type: "ReLU"
  bottom: "conv4_1"
  top: "conv4_1"
}
layer {
  name: "conv4_2"
  type: "Convolution"
  bottom: "conv4_1"
  top: "conv4_2"
  convolution_param {
    num_output: 512
    pad: 1
    kernel_size: 3
  }
}
layer {
  name: "relu4_2"
  type: "ReLU"
  bottom: "conv4_2"
  top: "conv4_2"
}
layer {
  name: "conv4_3"
  type: "Convolution"
  bottom: "conv4_2"
  top: "conv4_3"
  convolution_param {
    num_output: 512
    pad: 1
    kernel_size: 3
  }
}
layer {
  name: "relu4_3"
  type: "ReLU"
  bottom: "conv4_3"
  top: "conv4_3"
}
layer {
  name: "loss1_conv1"
  type: "Convolution"
  bottom: "conv4_3"
  top: "loss1_conv1"
  param {
    lr_mult: 1
    decay_mult: 1
  }
  param {
    lr_mult: 2
    decay_mult: 0
  }
  convolution_param {
    num_output: 512
    pad: 1
    kernel_size: 3
    weight_filler {
      type: "gaussian"
      std: 0.01
    }
    bias_filler {
      type: "constant"
    }
  }
}
layer {
  name: "loss_relu1"
  type: "ReLU"
  bottom: "loss1_conv1"
  top: "loss1_conv1"
}
layer {
  name: "LFCN_1_3x5"
  type: "Convolution"
  bottom: "loss1_conv1"
  top: "LFCN_1_3x5"
  param {
    lr_mult: 1
    decay_mult: 1
  }
  param {
    lr_mult: 2
    decay_mult: 0
  }
  convolution_param {
    num_output: 7
    weight_filler {
      type: "gaussian"
      std: 0.001
    }
    bias_filler {
      type: "constant"
    }
    pad_h: 2
    pad_w: 1
    kernel_h: 5
    kernel_w: 3
  }
}
layer {
  name: "detection_loss_1_3x5"
  type: "DetectionLoss"
  bottom: "LFCN_1_3x5"
  bottom: "label_1_3x5"
  top: "loss_1_3x5"
  loss_weight: 0.5
  detection_loss_param {
    cls_num: 3
    coord_num: 4
    lambda: 1
    field_h: 60
    field_w: 40
    downsample_rate: 8
    bb_smooth: true
    field_whr: 2
    field_xyr: 2
    bg_threshold: 0.2
    bg_multiple: 2
    sample_mode: "bootstrap"
    pos_neg_weighted: true
  }
}
layer {
  name: "detection_accuracy_1_3x5"
  type: "DetectionAccuracy"
  bottom: "LFCN_1_3x5"
  bottom: "label_1_3x5"
  top: "accuracy_1_3x5"
  top: "boxiou_1_3x5"
  detection_accuracy_param {
    cls_num: 3
    coord_num: 4
    field_h: 60
    field_w: 40
    downsample_rate: 8
    field_whr: 2
    field_xyr: 2
  }
}
layer {
  name: "LFCN_1_5x7"
  type: "Convolution"
  bottom: "loss1_conv1"
  top: "LFCN_1_5x7"
  param {
    lr_mult: 1
    decay_mult: 1
  }
  param {
    lr_mult: 2
    decay_mult: 0
  }
  convolution_param {
    num_output: 7
    weight_filler {
      type: "gaussian"
      std: 0.001
    }
    bias_filler {
      type: "constant"
    }
    pad_h: 3
    pad_w: 2
    kernel_h: 7
    kernel_w: 5
  }
}
layer {
  name: "detection_loss_1_5x7"
  type: "DetectionLoss"
  bottom: "LFCN_1_5x7"
  bottom: "label_1_5x7"
  top: "loss_1_5x7"
  loss_weight: 0.9
  detection_loss_param {
    cls_num: 3
    coord_num: 4
    lambda: 1
    field_h: 84
    field_w: 56
    downsample_rate: 8
    bb_smooth: true
    field_whr: 2
    field_xyr: 2
    bg_threshold: 0.2
    bg_multiple: 2
    sample_mode: "bootstrap"
    pos_neg_weighted: true
  }
}
layer {
  name: "detection_accuracy_1_5x7"
  type: "DetectionAccuracy"
  bottom: "LFCN_1_5x7"
  bottom: "label_1_5x7"
  top: "accuracy_1_5x7"
  top: "boxiou_1_5x7"
  detection_accuracy_param {
    cls_num: 3
    coord_num: 4
    field_h: 84
    field_w: 56
    downsample_rate: 8
    field_whr: 2
    field_xyr: 2
  }
}
layer {
  name: "pool4"
  type: "Pooling"
  bottom: "conv4_3"
  top: "pool4"
  pooling_param {
    pool: MAX
    kernel_size: 2
    stride: 2
  }
}
layer {
  name: "conv5_1"
  type: "Convolution"
  bottom: "pool4"
  top: "conv5_1"
  convolution_param {
    num_output: 512
    pad: 1
    kernel_size: 3
  }
}
layer {
  name: "relu5_1"
  type: "ReLU"
  bottom: "conv5_1"
  top: "conv5_1"
}
layer {
  name: "conv5_2"
  type: "Convolution"
  bottom: "conv5_1"
  top: "conv5_2"
  convolution_param {
    num_output: 512
    pad: 1
    kernel_size: 3
  }
}
layer {
  name: "relu5_2"
  type: "ReLU"
  bottom: "conv5_2"
  top: "conv5_2"
}
layer {
  name: "conv5_3"
  type: "Convolution"
  bottom: "conv5_2"
  top: "conv5_3"
  convolution_param {
    num_output: 512
    pad: 1
    kernel_size: 3
  }
}
layer {
  name: "relu5_3"
  type: "ReLU"
  bottom: "conv5_3"
  top: "conv5_3"
}
layer {
  name: "LFCN_2_3x5"
  type: "Convolution"
  bottom: "conv5_3"
  top: "LFCN_2_3x5"
  param {
    lr_mult: 1
    decay_mult: 1
  }
  param {
    lr_mult: 2
    decay_mult: 0
  }
  convolution_param {
    num_output: 7
    weight_filler {
      type: "gaussian"
      std: 0.001
    }
    bias_filler {
      type: "constant"
    }
    pad_h: 2
    pad_w: 1
    kernel_h: 5
    kernel_w: 3
  }
}
layer {
  name: "detection_loss_2_3x5"
  type: "DetectionLoss"
  bottom: "LFCN_2_3x5"
  bottom: "label_2_3x5"
  top: "loss_2_3x5"
  detection_loss_param {
    cls_num: 3
    coord_num: 4
    lambda: 1
    field_h: 120
    field_w: 80
    downsample_rate: 16
    bb_smooth: true
    field_whr: 2
    field_xyr: 2
    bg_threshold: 0.2
    bg_multiple: 2
    sample_mode: "bootstrap"
    pos_neg_weighted: true
  }
}
layer {
  name: "detection_accuracy_2_3x5"
  type: "DetectionAccuracy"
  bottom: "LFCN_2_3x5"
  bottom: "label_2_3x5"
  top: "accuracy_2_3x5"
  top: "boxiou_2_3x5"
  detection_accuracy_param {
    cls_num: 3
    coord_num: 4
    field_h: 120
    field_w: 80
    downsample_rate: 16
    field_whr: 2
    field_xyr: 2
  }
}
layer {
  name: "LFCN_2_5x7"
  type: "Convolution"
  bottom: "conv5_3"
  top: "LFCN_2_5x7"
  param {
    lr_mult: 1
    decay_mult: 1
  }
  param {
    lr_mult: 2
    decay_mult: 0
  }
  convolution_param {
    num_output: 7
    weight_filler {
      type: "gaussian"
      std: 0.001
    }
    bias_filler {
      type: "constant"
    }
    pad_h: 3
    pad_w: 2
    kernel_h: 7
    kernel_w: 5
  }
}
layer {
  name: "detection_loss_2_5x7"
  type: "DetectionLoss"
  bottom: "LFCN_2_5x7"
  bottom: "label_2_5x7"
  top: "loss_2_5x7"
  detection_loss_param {
    cls_num: 3
    coord_num: 4
    lambda: 1
    field_h: 168
    field_w: 112
    downsample_rate: 16
    bb_smooth: true
    field_whr: 2
    field_xyr: 2
    bg_threshold: 0.2
    bg_multiple: 2
    sample_mode: "bootstrap"
    pos_neg_weighted: true
  }
}
layer {
  name: "detection_accuracy_2_5x7"
  type: "DetectionAccuracy"
  bottom: "LFCN_2_5x7"
  bottom: "label_2_5x7"
  top: "accuracy_2_5x7"
  top: "boxiou_2_5x7"
  detection_accuracy_param {
    cls_num: 3
    coord_num: 4
    field_h: 168
    field_w: 112
    downsample_rate: 16
    field_whr: 2
    field_xyr: 2
  }
}
layer {
  name: "pool5"
  type: "Pooling"
  bottom: "conv5_3"
  top: "pool5"
  pooling_param {
    pool: MAX
    kernel_size: 2
    stride: 2
  }
}
layer {
  name: "conv6_1"
  type: "Convolution"
  bottom: "pool5"
  top: "conv6_1"
  param {
    lr_mult: 1
    decay_mult: 1
  }
  param {
    lr_mult: 2
    decay_mult: 0
  }
  convolution_param {
    num_output: 512
    pad: 1
    kernel_size: 3
    weight_filler {
      type: "gaussian"
      std: 0.01
    }
    bias_filler {
      type: "constant"
    }
  }
}
layer {
  name: "relu6_1"
  type: "ReLU"
  bottom: "conv6_1"
  top: "conv6_1"
}
layer {
  name: "LFCN_3_3x5"
  type: "Convolution"
  bottom: "conv6_1"
  top: "LFCN_3_3x5"
  param {
    lr_mult: 1
    decay_mult: 1
  }
  param {
    lr_mult: 2
    decay_mult: 0
  }
  convolution_param {
    num_output: 7
    weight_filler {
      type: "gaussian"
      std: 0.001
    }
    bias_filler {
      type: "constant"
    }
    pad_h: 2
    pad_w: 1
    kernel_h: 5
    kernel_w: 3
  }
}
layer {
  name: "detection_loss_3_3x5"
  type: "DetectionLoss"
  bottom: "LFCN_3_3x5"
  bottom: "label_3_3x5"
  top: "loss_3_3x5"
  detection_loss_param {
    cls_num: 3
    coord_num: 4
    lambda: 1
    field_h: 240
    field_w: 160
    downsample_rate: 32
    bb_smooth: true
    field_whr: 2
    field_xyr: 2
    bg_threshold: 0.2
    bg_multiple: 2
    sample_mode: "bootstrap"
    pos_neg_weighted: true
  }
}
layer {
  name: "detection_accuracy_3_3x5"
  type: "DetectionAccuracy"
  bottom: "LFCN_3_3x5"
  bottom: "label_3_3x5"
  top: "accuracy_3_3x5"
  top: "boxiou_3_3x5"
  detection_accuracy_param {
    cls_num: 3
    coord_num: 4
    field_h: 240
    field_w: 160
    downsample_rate: 32
    field_whr: 2
    field_xyr: 2
  }
}
layer {
  name: "LFCN_3_5x7"
  type: "Convolution"
  bottom: "conv6_1"
  top: "LFCN_3_5x7"
  param {
    lr_mult: 1
    decay_mult: 1
  }
  param {
    lr_mult: 2
    decay_mult: 0
  }
  convolution_param {
    num_output: 7
    weight_filler {
      type: "gaussian"
      std: 0.001
    }
    bias_filler {
      type: "constant"
    }
    pad_h: 3
    pad_w: 2
    kernel_h: 7
    kernel_w: 5
  }
}
layer {
  name: "detection_loss_3_5x7"
  type: "DetectionLoss"
  bottom: "LFCN_3_5x7"
  bottom: "label_3_5x7"
  top: "loss_3_5x7"
  detection_loss_param {
    cls_num: 3
    coord_num: 4
    lambda: 1
    field_h: 336
    field_w: 224
    downsample_rate: 32
    bb_smooth: true
    field_whr: 2
    field_xyr: 2
    bg_threshold: 0.2
    bg_multiple: 2
    sample_mode: "bootstrap"
    pos_neg_weighted: true
  }
}
layer {
  name: "detection_accuracy_3_5x7"
  type: "DetectionAccuracy"
  bottom: "LFCN_3_5x7"
  bottom: "label_3_5x7"
  top: "accuracy_3_5x7"
  top: "boxiou_3_5x7"
  detection_accuracy_param {
    cls_num: 3
    coord_num: 4
    field_h: 336
    field_w: 224
    downsample_rate: 32
    field_whr: 2
    field_xyr: 2
  }
}
layer {
  name: "pool6"
  type: "Pooling"
  bottom: "conv6_1"
  top: "pool6"
  pooling_param {
    pool: MAX
    kernel_size: 2
    stride: 2
  }
}
layer {
  name: "LFCN_4_3x5"
  type: "Convolution"
  bottom: "pool6"
  top: "LFCN_4_3x5"
  param {
    lr_mult: 1
    decay_mult: 1
  }
  param {
    lr_mult: 2
    decay_mult: 0
  }
  convolution_param {
    num_output: 7
    weight_filler {
      type: "gaussian"
      std: 0.001
    }
    bias_filler {
      type: "constant"
    }
    pad_h: 2
    pad_w: 1
    kernel_h: 5
    kernel_w: 3
  }
}
layer {
  name: "detection_loss_4_3x5"
  type: "DetectionLoss"
  bottom: "LFCN_4_3x5"
  bottom: "label_4_3x5"
  top: "loss_4_3x5"
  detection_loss_param {
    cls_num: 3
    coord_num: 4
    lambda: 1
    field_h: 480
    field_w: 320
    downsample_rate: 64
    bb_smooth: true
    field_whr: 2
    field_xyr: 2
    bg_threshold: 0.2
    bg_multiple: 2
    sample_mode: "bootstrap"
    pos_neg_weighted: true
  }
}
layer {
  name: "detection_accuracy_4_3x5"
  type: "DetectionAccuracy"
  bottom: "LFCN_4_3x5"
  bottom: "label_4_3x5"
  top: "accuracy_4_3x5"
  top: "boxiou_4_3x5"
  detection_accuracy_param {
    cls_num: 3
    coord_num: 4
    field_h: 480
    field_w: 320
    downsample_rate: 64
    field_whr: 2
    field_xyr: 2
  }
}
layer {
  name: "proposals"
  type: "BoxOutput"
  bottom: "LFCN_1_3x5"
  bottom: "LFCN_1_5x7"
  bottom: "LFCN_2_3x5"
  bottom: "LFCN_2_5x7"
  bottom: "LFCN_3_3x5"
  bottom: "LFCN_3_5x7"
  bottom: "LFCN_4_3x5"
  top: "proposals"
  propagate_down: false
  propagate_down: false
  propagate_down: false
  propagate_down: false
  propagate_down: false
  propagate_down: false
  propagate_down: false
  box_output_param {
    fg_thr: -15
    iou_thr: 0.65
    nms_type: "IOU"
    field_h: 60
    field_h: 84
    field_h: 120
    field_h: 168
    field_h: 240
    field_h: 336
    field_h: 480
    field_w: 40
    field_w: 56
    field_w: 80
    field_w: 112
    field_w: 160
    field_w: 224
    field_w: 320
    downsample_rate: 8
    downsample_rate: 8
    downsample_rate: 16
    downsample_rate: 16
    downsample_rate: 32
    downsample_rate: 32
    downsample_rate: 64
    field_whr: 2
    field_xyr: 2
    max_nms_num: 3000
  }
}
layer {
  name: "proposal_info"
  type: "ProposalTarget"
  bottom: "proposals"
  bottom: "gt_boxes"
  top: "rois"
  top: "proposal_labels"
  top: "proposal_targets"
  top: "box_inside_weights"
  top: "box_outside_weights"
  top: "match_gt_boxes"
  include {
    phase: TRAIN
  }
  propagate_down: false
  propagate_down: false
  proposal_target_param {
    cls_num: 3
    batch_size: 128
    fg_fraction: 0.25
    num_img_per_batch: 4
    fg_thr: 0.5
    bg_thr_hg: 0.45
    bg_thr_lw: 0.05
    img_width: 768
    img_height: 576
  }
  bbox_reg_param {
    bbox_mean: 0
    bbox_mean: 0
    bbox_mean: 0
    bbox_mean: 0
    bbox_std: 0.1
    bbox_std: 0.1
    bbox_std: 0.2
    bbox_std: 0.2
  }
}
layer {
  name: "conv4_3_2x"
  type: "Deconvolution"
  bottom: "conv4_3"
  top: "conv4_3_2x"
  param {
    lr_mult: 0
    decay_mult: 0
  }
  convolution_param {
    num_output: 512
    bias_term: false
    pad: 1
    kernel_size: 4
    group: 512
    stride: 2
    weight_filler {
      type: "bilinear"
    }
  }
}
layer {
  name: "roi_pool_org"
  type: "ROIPooling"
  bottom: "conv4_3_2x"
  bottom: "rois"
  top: "roi_pool_org"
  roi_pooling_param {
    pooled_h: 7
    pooled_w: 5
    spatial_scale: 0.25
    pad_ratio: 0
  }
}
layer {
  name: "roi_pool_ctx"
  type: "ROIPooling"
  bottom: "conv4_3_2x"
  bottom: "rois"
  top: "roi_pool_ctx"
  roi_pooling_param {
    pooled_h: 7
    pooled_w: 5
    spatial_scale: 0.25
    pad_ratio: 0.25
  }
}
layer {
  name: "roi_pool"
  type: "Concat"
  bottom: "roi_pool_org"
  bottom: "roi_pool_ctx"
  top: "roi_pool"
}
layer {
  name: "roi_c1"
  type: "Convolution"
  bottom: "roi_pool"
  top: "roi_c1"
  param {
    lr_mult: 1
    decay_mult: 1
  }
  param {
    lr_mult: 2
    decay_mult: 0
  }
  convolution_param {
    num_output: 512
    kernel_size: 3
    weight_filler {
      type: "gaussian"
      std: 0.01
    }
    bias_filler {
      type: "constant"
    }
  }
}
layer {
  name: "roi_c1_relu"
  type: "ReLU"
  bottom: "roi_c1"
  top: "roi_c1"
}
layer {
  name: "fc6"
  type: "InnerProduct"
  bottom: "roi_c1"
  top: "fc6"
  param {
    lr_mult: 1
  }
  param {
    lr_mult: 2
  }
  inner_product_param {
    num_output: 2048
    weight_filler {
      type: "gaussian"
      std: 0.001
    }
    bias_filler {
      type: "constant"
      value: 0
    }
  }
}
layer {
  name: "relu6"
  type: "ReLU"
  bottom: "fc6"
  top: "fc6"
}
layer {
  name: "drop6"
  type: "Dropout"
  bottom: "fc6"
  top: "fc6"
  dropout_param {
    dropout_ratio: 0.5
  }
}
layer {
  name: "cls_pred"
  type: "InnerProduct"
  bottom: "fc6"
  top: "cls_pred"
  param {
    lr_mult: 1
  }
  param {
    lr_mult: 2
  }
  inner_product_param {
    num_output: 3
    weight_filler {
      type: "gaussian"
      std: 0.01
    }
    bias_filler {
      type: "constant"
      value: 0
    }
  }
}
layer {
  name: "bbox_pred"
  type: "InnerProduct"
  bottom: "fc6"
  top: "bbox_pred"
  param {
    lr_mult: 1
  }
  param {
    lr_mult: 2
  }
  inner_product_param {
    num_output: 12
    weight_filler {
      type: "gaussian"
      std: 0.001
    }
    bias_filler {
      type: "constant"
      value: 0
    }
  }
}
layer {
  name: "loss_cls"
  type: "SoftmaxWithLoss"
  bottom: "cls_pred"
  bottom: "proposal_labels"
  top: "loss_cls"
  loss_weight: 1
  propagate_down: true
  propagate_down: false
}
layer {
  name: "cls_accuracy"
  type: "Accuracy"
  bottom: "cls_pred"
  bottom: "proposal_labels"
  top: "cls_accuracy"
}
layer {
  name: "loss_bbox"
  type: "SmoothL1Loss"
  bottom: "bbox_pred"
  bottom: "proposal_targets"
  bottom: "box_inside_weights"
  bottom: "box_outside_weights"
  top: "loss_bbox"
  loss_weight: 1
}
layer {
  name: "bbox_iou"
  type: "BboxAccuracy"
  bottom: "bbox_pred"
  bottom: "rois"
  bottom: "match_gt_boxes"
  top: "bbox_iou"
  top: "bbox_iou_pre"
  bbox_reg_param {
    bbox_mean: 0
    bbox_mean: 0
    bbox_mean: 0
    bbox_mean: 0
    bbox_std: 0.1
    bbox_std: 0.1
    bbox_std: 0.2
    bbox_std: 0.2
  }
}
I0630 21:14:12.022312   321 layer_factory.hpp:77] Creating layer data
I0630 21:14:12.022361   321 net.cpp:100] Creating Layer data
I0630 21:14:12.022372   321 net.cpp:408] data -> data
…
I0630 21:14:12.069453   321 image_gt_data_layer.cpp:241] output label size 3 : 4,6,36,48
I0630 21:14:12.069492   321 image_gt_data_layer.cpp:241] output label size 4 : 4,6,18,24
I0630 21:14:12.069536   321 image_gt_data_layer.cpp:241] output label size 5 : 4,6,18,24
I0630 21:14:12.069577   321 image_gt_data_layer.cpp:241] output label size 6 : 4,6,9,12
I0630 21:14:12.069619   321 image_gt_data_layer.cpp:256] output gt boxes size: 1,7,1,1
I0630 21:14:12.069622   321 image_gt_data_layer.cpp:265]  --> has_mean_values_ = 1
I0630 21:14:12.108484   321 net.cpp:150] Setting up data
I0630 21:14:12.108503   321 net.cpp:157] Top shape: 4 4 576 768 (7077888)
I0630 21:14:12.108508   321 net.cpp:157] Top shape: 4 6 72 96 (165888)
I0630 21:14:12.108511   321 net.cpp:157] Top shape: 4 6 72 96 (165888)
I0630 21:14:12.108515   321 net.cpp:157] Top shape: 4 6 36 48 (41472)
I0630 21:14:12.108518   321 net.cpp:157] Top shape: 4 6 36 48 (41472)
I0630 21:14:12.108522   321 net.cpp:157] Top shape: 4 6 18 24 (10368)
I0630 21:14:12.108525   321 net.cpp:157] Top shape: 4 6 18 24 (10368)
I0630 21:14:12.108530   321 net.cpp:157] Top shape: 4 6 9 12 (2592)
I0630 21:14:12.108532   321 net.cpp:157] Top shape: 1 7 1 1 (7)
I0630 21:14:12.108536   321 net.cpp:165] Memory required for data: 30063772
I0630 21:14:12.108541   321 layer_factory.hpp:77] Creating layer label_1_3x5_data_1_split
I0630 21:14:12.108553   321 net.cpp:100] Creating Layer label_1_3x5_data_1_split
I0630 21:14:12.108559   321 net.cpp:434] label_1_3x5_data_1_split <- label_1_3x5
I0630 21:14:12.108572   321 net.cpp:408] label_1_3x5_data_1_split -> label_1_3x5_data_1_split_0
I0630 21:14:12.108580   321 net.cpp:408] label_1_3x5_data_1_split -> label_1_3x5_data_1_split_1
I0630 21:14:12.108624   321 net.cpp:150] Setting up label_1_3x5_data_1_split
I0630 21:14:12.108631   321 net.cpp:157] Top shape: 4 6 72 96 (165888)
I0630 21:14:12.108635   321 net.cpp:157] Top shape: 4 6 72 96 (165888)
I0630 21:14:12.108639   321 net.cpp:165] Memory required for data: 31390876
I0630 21:14:12.108641   321 layer_factory.hpp:77] Creating layer label_1_5x7_data_2_split
I0630 21:14:12.108647   321 net.cpp:100] Creating Layer label_1_5x7_data_2_split
I0630 21:14:12.108651   321 net.cpp:434] label_1_5x7_data_2_split <- label_1_5x7
I0630 21:14:12.108656   321 net.cpp:408] label_1_5x7_data_2_split -> label_1_5x7_data_2_split_0
I0630 21:14:12.108662   321 net.cpp:408] label_1_5x7_data_2_split -> label_1_5x7_data_2_split_1
I0630 21:14:12.108693   321 net.cpp:150] Setting up label_1_5x7_data_2_split
I0630 21:14:12.108698   321 net.cpp:157] Top shape: 4 6 72 96 (165888)
I0630 21:14:12.108702   321 net.cpp:157] Top shape: 4 6 72 96 (165888)
I0630 21:14:12.108705   321 net.cpp:165] Memory required for data: 32717980
I0630 21:14:12.108708   321 layer_factory.hpp:77] Creating layer label_2_3x5_data_3_split
I0630 21:14:12.108712   321 net.cpp:100] Creating Layer label_2_3x5_data_3_split
I0630 21:14:12.108716   321 net.cpp:434] label_2_3x5_data_3_split <- label_2_3x5
I0630 21:14:12.108721   321 net.cpp:408] label_2_3x5_data_3_split -> label_2_3x5_data_3_split_0
I0630 21:14:12.108727   321 net.cpp:408] label_2_3x5_data_3_split -> label_2_3x5_data_3_split_1
I0630 21:14:12.108758   321 net.cpp:150] Setting up label_2_3x5_data_3_split
I0630 21:14:12.108763   321 net.cpp:157] Top shape: 4 6 36 48 (41472)
I0630 21:14:12.108767   321 net.cpp:157] Top shape: 4 6 36 48 (41472)
I0630 21:14:12.108770   321 net.cpp:165] Memory required for data: 33049756
I0630 21:14:12.108773   321 layer_factory.hpp:77] Creating layer label_2_5x7_data_4_split
I0630 21:14:12.108779   321 net.cpp:100] Creating Layer label_2_5x7_data_4_split
I0630 21:14:12.108783   321 net.cpp:434] label_2_5x7_data_4_split <- label_2_5x7
I0630 21:14:12.108788   321 net.cpp:408] label_2_5x7_data_4_split -> label_2_5x7_data_4_split_0
I0630 21:14:12.108793   321 net.cpp:408] label_2_5x7_data_4_split -> label_2_5x7_data_4_split_1
I0630 21:14:12.108825   321 net.cpp:150] Setting up label_2_5x7_data_4_split
I0630 21:14:12.108830   321 net.cpp:157] Top shape: 4 6 36 48 (41472)
I0630 21:14:12.108834   321 net.cpp:157] Top shape: 4 6 36 48 (41472)
I0630 21:14:12.108837   321 net.cpp:165] Memory required for data: 33381532
I0630 21:14:12.108840   321 layer_factory.hpp:77] Creating layer label_3_3x5_data_5_split
I0630 21:14:12.108849   321 net.cpp:100] Creating Layer label_3_3x5_data_5_split
I0630 21:14:12.108852   321 net.cpp:434] label_3_3x5_data_5_split <- label_3_3x5
I0630 21:14:12.108856   321 net.cpp:408] label_3_3x5_data_5_split -> label_3_3x5_data_5_split_0
I0630 21:14:12.108862   321 net.cpp:408] label_3_3x5_data_5_split -> label_3_3x5_data_5_split_1
I0630 21:14:12.108891   321 net.cpp:150] Setting up label_3_3x5_data_5_split
I0630 21:14:12.108897   321 net.cpp:157] Top shape: 4 6 18 24 (10368)
I0630 21:14:12.108901   321 net.cpp:157] Top shape: 4 6 18 24 (10368)
I0630 21:14:12.108903   321 net.cpp:165] Memory required for data: 33464476
I0630 21:14:12.108906   321 layer_factory.hpp:77] Creating layer label_3_5x7_data_6_split
I0630 21:14:12.108911   321 net.cpp:100] Creating Layer label_3_5x7_data_6_split
I0630 21:14:12.108914   321 net.cpp:434] label_3_5x7_data_6_split <- label_3_5x7
I0630 21:14:12.108920   321 net.cpp:408] label_3_5x7_data_6_split -> label_3_5x7_data_6_split_0
I0630 21:14:12.108927   321 net.cpp:408] label_3_5x7_data_6_split -> label_3_5x7_data_6_split_1
I0630 21:14:12.108958   321 net.cpp:150] Setting up label_3_5x7_data_6_split
I0630 21:14:12.108963   321 net.cpp:157] Top shape: 4 6 18 24 (10368)
I0630 21:14:12.108966   321 net.cpp:157] Top shape: 4 6 18 24 (10368)
I0630 21:14:12.108969   321 net.cpp:165] Memory required for data: 33547420
I0630 21:14:12.108973   321 layer_factory.hpp:77] Creating layer label_4_3x5_data_7_split
I0630 21:14:12.108978   321 net.cpp:100] Creating Layer label_4_3x5_data_7_split
I0630 21:14:12.108981   321 net.cpp:434] label_4_3x5_data_7_split <- label_4_3x5
I0630 21:14:12.108986   321 net.cpp:408] label_4_3x5_data_7_split -> label_4_3x5_data_7_split_0
I0630 21:14:12.108991   321 net.cpp:408] label_4_3x5_data_7_split -> label_4_3x5_data_7_split_1
I0630 21:14:12.111301   321 net.cpp:150] Setting up label_4_3x5_data_7_split
I0630 21:14:12.111325   321 net.cpp:157] Top shape: 4 6 9 12 (2592)
I0630 21:14:12.111328   321 net.cpp:157] Top shape: 4 6 9 12 (2592)
I0630 21:14:12.111330   321 net.cpp:165] Memory required for data: 33568156
I0630 21:14:12.111337   321 layer_factory.hpp:77] Creating layer conv1_1
I0630 21:14:12.111392   321 net.cpp:100] Creating Layer conv1_1
I0630 21:14:12.111399   321 net.cpp:434] conv1_1 <- data
I0630 21:14:12.111410   321 net.cpp:408] conv1_1 -> conv1_1
I0630 21:14:12.650931   321 net.cpp:150] Setting up conv1_1
I0630 21:14:12.650952   321 net.cpp:157] Top shape: 4 64 576 768 (113246208)
I0630 21:14:12.650955   321 net.cpp:165] Memory required for data: 486552988
I0630 21:14:12.650970   321 layer_factory.hpp:77] Creating layer relu1_1
I0630 21:14:12.650980   321 net.cpp:100] Creating Layer relu1_1
I0630 21:14:12.650984   321 net.cpp:434] relu1_1 <- conv1_1
I0630 21:14:12.650988   321 net.cpp:395] relu1_1 -> conv1_1 (in-place)
I0630 21:14:12.651305   321 net.cpp:150] Setting up relu1_1
I0630 21:14:12.651314   321 net.cpp:157] Top shape: 4 64 576 768 (113246208)
I0630 21:14:12.651315   321 net.cpp:165] Memory required for data: 939537820
I0630 21:14:12.651317   321 layer_factory.hpp:77] Creating layer conv1_2
I0630 21:14:12.651325   321 net.cpp:100] Creating Layer conv1_2
I0630 21:14:12.651327   321 net.cpp:434] conv1_2 <- conv1_1
I0630 21:14:12.651331   321 net.cpp:408] conv1_2 -> conv1_2
I0630 21:14:12.654237   321 net.cpp:150] Setting up conv1_2
I0630 21:14:12.654255   321 net.cpp:157] Top shape: 4 64 576 768 (113246208)
I0630 21:14:12.654258   321 net.cpp:165] Memory required for data: 1392522652
I0630 21:14:12.654268   321 layer_factory.hpp:77] Creating layer relu1_2
I0630 21:14:12.654274   321 net.cpp:100] Creating Layer relu1_2
I0630 21:14:12.654278   321 net.cpp:434] relu1_2 <- conv1_2
I0630 21:14:12.654284   321 net.cpp:395] relu1_2 -> conv1_2 (in-place)
I0630 21:14:12.654563   321 net.cpp:150] Setting up relu1_2
I0630 21:14:12.654570   321 net.cpp:157] Top shape: 4 64 576 768 (113246208)
I0630 21:14:12.654572   321 net.cpp:165] Memory required for data: 1845507484
I0630 21:14:12.654575   321 layer_factory.hpp:77] Creating layer pool1
I0630 21:14:12.654579   321 net.cpp:100] Creating Layer pool1
I0630 21:14:12.654582   321 net.cpp:434] pool1 <- conv1_2
I0630 21:14:12.654585   321 net.cpp:408] pool1 -> pool1
I0630 21:14:12.654630   321 net.cpp:150] Setting up pool1
I0630 21:14:12.654635   321 net.cpp:157] Top shape: 4 64 288 384 (28311552)
I0630 21:14:12.654637   321 net.cpp:165] Memory required for data: 1958753692
I0630 21:14:12.654639   321 layer_factory.hpp:77] Creating layer conv2_1
I0630 21:14:12.654647   321 net.cpp:100] Creating Layer conv2_1
I0630 21:14:12.654650   321 net.cpp:434] conv2_1 <- pool1
I0630 21:14:12.654655   321 net.cpp:408] conv2_1 -> conv2_1
I0630 21:14:12.657066   321 net.cpp:150] Setting up conv2_1
I0630 21:14:12.657083   321 net.cpp:157] Top shape: 4 128 288 384 (56623104)
I0630 21:14:12.657085   321 net.cpp:165] Memory required for data: 2185246108
I0630 21:14:12.657096   321 layer_factory.hpp:77] Creating layer relu2_1
I0630 21:14:12.657102   321 net.cpp:100] Creating Layer relu2_1
I0630 21:14:12.657105   321 net.cpp:434] relu2_1 <- conv2_1
I0630 21:14:12.657110   321 net.cpp:395] relu2_1 -> conv2_1 (in-place)
I0630 21:14:12.657740   321 net.cpp:150] Setting up relu2_1
I0630 21:14:12.657749   321 net.cpp:157] Top shape: 4 128 288 384 (56623104)
I0630 21:14:12.657752   321 net.cpp:165] Memory required for data: 2411738524
I0630 21:14:12.657754   321 layer_factory.hpp:77] Creating layer conv2_2
I0630 21:14:12.657761   321 net.cpp:100] Creating Layer conv2_2
I0630 21:14:12.657764   321 net.cpp:434] conv2_2 <- conv2_1
I0630 21:14:12.657768   321 net.cpp:408] conv2_2 -> conv2_2
I0630 21:14:12.659436   321 net.cpp:150] Setting up conv2_2
I0630 21:14:12.659449   321 net.cpp:157] Top shape: 4 128 288 384 (56623104)
I0630 21:14:12.659451   321 net.cpp:165] Memory required for data: 2638230940
I0630 21:14:12.659458   321 layer_factory.hpp:77] Creating layer relu2_2
I0630 21:14:12.659466   321 net.cpp:100] Creating Layer relu2_2
I0630 21:14:12.659469   321 net.cpp:434] relu2_2 <- conv2_2
I0630 21:14:12.659473   321 net.cpp:395] relu2_2 -> conv2_2 (in-place)
I0630 21:14:12.660051   321 net.cpp:150] Setting up relu2_2
I0630 21:14:12.660059   321 net.cpp:157] Top shape: 4 128 288 384 (56623104)
I0630 21:14:12.660061   321 net.cpp:165] Memory required for data: 2864723356
I0630 21:14:12.660064   321 layer_factory.hpp:77] Creating layer pool2
I0630 21:14:12.660069   321 net.cpp:100] Creating Layer pool2
I0630 21:14:12.660071   321 net.cpp:434] pool2 <- conv2_2
I0630 21:14:12.660075   321 net.cpp:408] pool2 -> pool2
I0630 21:14:12.660114   321 net.cpp:150] Setting up pool2
I0630 21:14:12.660117   321 net.cpp:157] Top shape: 4 128 144 192 (14155776)
I0630 21:14:12.660120   321 net.cpp:165] Memory required for data: 2921346460
I0630 21:14:12.660121   321 layer_factory.hpp:77] Creating layer conv3_1
I0630 21:14:12.660128   321 net.cpp:100] Creating Layer conv3_1
I0630 21:14:12.660131   321 net.cpp:434] conv3_1 <- pool2
I0630 21:14:12.660135   321 net.cpp:408] conv3_1 -> conv3_1
I0630 21:14:12.662721   321 net.cpp:150] Setting up conv3_1
I0630 21:14:12.662739   321 net.cpp:157] Top shape: 4 256 144 192 (28311552)
I0630 21:14:12.662740   321 net.cpp:165] Memory required for data: 3034592668
I0630 21:14:12.662750   321 layer_factory.hpp:77] Creating layer relu3_1
I0630 21:14:12.662756   321 net.cpp:100] Creating Layer relu3_1
I0630 21:14:12.662760   321 net.cpp:434] relu3_1 <- conv3_1
I0630 21:14:12.662765   321 net.cpp:395] relu3_1 -> conv3_1 (in-place)
I0630 21:14:12.663010   321 net.cpp:150] Setting up relu3_1
I0630 21:14:12.663017   321 net.cpp:157] Top shape: 4 256 144 192 (28311552)
I0630 21:14:12.663018   321 net.cpp:165] Memory required for data: 3147838876
I0630 21:14:12.663020   321 layer_factory.hpp:77] Creating layer conv3_2
I0630 21:14:12.663027   321 net.cpp:100] Creating Layer conv3_2
I0630 21:14:12.663028   321 net.cpp:434] conv3_2 <- conv3_1
I0630 21:14:12.663033   321 net.cpp:408] conv3_2 -> conv3_2
I0630 21:14:12.666957   321 net.cpp:150] Setting up conv3_2
I0630 21:14:12.666976   321 net.cpp:157] Top shape: 4 256 144 192 (28311552)
I0630 21:14:12.666978   321 net.cpp:165] Memory required for data: 3261085084
I0630 21:14:12.666985   321 layer_factory.hpp:77] Creating layer relu3_2
I0630 21:14:12.666992   321 net.cpp:100] Creating Layer relu3_2
I0630 21:14:12.666996   321 net.cpp:434] relu3_2 <- conv3_2
I0630 21:14:12.666999   321 net.cpp:395] relu3_2 -> conv3_2 (in-place)
I0630 21:14:12.667251   321 net.cpp:150] Setting up relu3_2
I0630 21:14:12.667258   321 net.cpp:157] Top shape: 4 256 144 192 (28311552)
I0630 21:14:12.667259   321 net.cpp:165] Memory required for data: 3374331292
I0630 21:14:12.667263   321 layer_factory.hpp:77] Creating layer conv3_3
I0630 21:14:12.667269   321 net.cpp:100] Creating Layer conv3_3
I0630 21:14:12.667273   321 net.cpp:434] conv3_3 <- conv3_2
I0630 21:14:12.667276   321 net.cpp:408] conv3_3 -> conv3_3
I0630 21:14:12.670240   321 net.cpp:150] Setting up conv3_3
I0630 21:14:12.670259   321 net.cpp:157] Top shape: 4 256 144 192 (28311552)
I0630 21:14:12.670261   321 net.cpp:165] Memory required for data: 3487577500
I0630 21:14:12.670269   321 layer_factory.hpp:77] Creating layer relu3_3
I0630 21:14:12.670274   321 net.cpp:100] Creating Layer relu3_3
I0630 21:14:12.670277   321 net.cpp:434] relu3_3 <- conv3_3
I0630 21:14:12.670282   321 net.cpp:395] relu3_3 -> conv3_3 (in-place)
I0630 21:14:12.670874   321 net.cpp:150] Setting up relu3_3
I0630 21:14:12.670883   321 net.cpp:157] Top shape: 4 256 144 192 (28311552)
I0630 21:14:12.670886   321 net.cpp:165] Memory required for data: 3600823708
I0630 21:14:12.670887   321 layer_factory.hpp:77] Creating layer pool3
I0630 21:14:12.670893   321 net.cpp:100] Creating Layer pool3
I0630 21:14:12.670895   321 net.cpp:434] pool3 <- conv3_3
I0630 21:14:12.670899   321 net.cpp:408] pool3 -> pool3
I0630 21:14:12.670944   321 net.cpp:150] Setting up pool3
I0630 21:14:12.670949   321 net.cpp:157] Top shape: 4 256 72 96 (7077888)
I0630 21:14:12.670950   321 net.cpp:165] Memory required for data: 3629135260
I0630 21:14:12.670953   321 layer_factory.hpp:77] Creating layer conv4_1
I0630 21:14:12.670963   321 net.cpp:100] Creating Layer conv4_1
I0630 21:14:12.670966   321 net.cpp:434] conv4_1 <- pool3
I0630 21:14:12.670970   321 net.cpp:408] conv4_1 -> conv4_1
I0630 21:14:12.675671   321 net.cpp:150] Setting up conv4_1
I0630 21:14:12.675689   321 net.cpp:157] Top shape: 4 512 72 96 (14155776)
I0630 21:14:12.675693   321 net.cpp:165] Memory required for data: 3685758364
I0630 21:14:12.675698   321 layer_factory.hpp:77] Creating layer relu4_1
I0630 21:14:12.675704   321 net.cpp:100] Creating Layer relu4_1
I0630 21:14:12.675707   321 net.cpp:434] relu4_1 <- conv4_1
I0630 21:14:12.675712   321 net.cpp:395] relu4_1 -> conv4_1 (in-place)
I0630 21:14:12.675961   321 net.cpp:150] Setting up relu4_1
I0630 21:14:12.675968   321 net.cpp:157] Top shape: 4 512 72 96 (14155776)
I0630 21:14:12.675969   321 net.cpp:165] Memory required for data: 3742381468
I0630 21:14:12.675972   321 layer_factory.hpp:77] Creating layer conv4_2
I0630 21:14:12.675978   321 net.cpp:100] Creating Layer conv4_2
I0630 21:14:12.675981   321 net.cpp:434] conv4_2 <- conv4_1
I0630 21:14:12.675985   321 net.cpp:408] conv4_2 -> conv4_2
I0630 21:14:12.681691   321 net.cpp:150] Setting up conv4_2
I0630 21:14:12.681710   321 net.cpp:157] Top shape: 4 512 72 96 (14155776)
I0630 21:14:12.681713   321 net.cpp:165] Memory required for data: 3799004572
I0630 21:14:12.681722   321 layer_factory.hpp:77] Creating layer relu4_2
I0630 21:14:12.681730   321 net.cpp:100] Creating Layer relu4_2
I0630 21:14:12.681733   321 net.cpp:434] relu4_2 <- conv4_2
I0630 21:14:12.681737   321 net.cpp:395] relu4_2 -> conv4_2 (in-place)
I0630 21:14:12.681977   321 net.cpp:150] Setting up relu4_2
I0630 21:14:12.681984   321 net.cpp:157] Top shape: 4 512 72 96 (14155776)
I0630 21:14:12.681987   321 net.cpp:165] Memory required for data: 3855627676
I0630 21:14:12.681988   321 layer_factory.hpp:77] Creating layer conv4_3
I0630 21:14:12.681994   321 net.cpp:100] Creating Layer conv4_3
I0630 21:14:12.681998   321 net.cpp:434] conv4_3 <- conv4_2
I0630 21:14:12.682001   321 net.cpp:408] conv4_3 -> conv4_3
I0630 21:14:12.687979   321 net.cpp:150] Setting up conv4_3
I0630 21:14:12.688000   321 net.cpp:157] Top shape: 4 512 72 96 (14155776)
I0630 21:14:12.688002   321 net.cpp:165] Memory required for data: 3912250780
I0630 21:14:12.688009   321 layer_factory.hpp:77] Creating layer relu4_3
I0630 21:14:12.688016   321 net.cpp:100] Creating Layer relu4_3
I0630 21:14:12.688019   321 net.cpp:434] relu4_3 <- conv4_3
I0630 21:14:12.688024   321 net.cpp:395] relu4_3 -> conv4_3 (in-place)
I0630 21:14:12.688665   321 net.cpp:150] Setting up relu4_3
I0630 21:14:12.688673   321 net.cpp:157] Top shape: 4 512 72 96 (14155776)
I0630 21:14:12.688675   321 net.cpp:165] Memory required for data: 3968873884
I0630 21:14:12.688678   321 layer_factory.hpp:77] Creating layer conv4_3_relu4_3_0_split
I0630 21:14:12.688683   321 net.cpp:100] Creating Layer conv4_3_relu4_3_0_split
I0630 21:14:12.688686   321 net.cpp:434] conv4_3_relu4_3_0_split <- conv4_3
I0630 21:14:12.688690   321 net.cpp:408] conv4_3_relu4_3_0_split -> conv4_3_relu4_3_0_split_0
I0630 21:14:12.688696   321 net.cpp:408] conv4_3_relu4_3_0_split -> conv4_3_relu4_3_0_split_1
I0630 21:14:12.688700   321 net.cpp:408] conv4_3_relu4_3_0_split -> conv4_3_relu4_3_0_split_2
I0630 21:14:12.688750   321 net.cpp:150] Setting up conv4_3_relu4_3_0_split
I0630 21:14:12.688755   321 net.cpp:157] Top shape: 4 512 72 96 (14155776)
I0630 21:14:12.688757   321 net.cpp:157] Top shape: 4 512 72 96 (14155776)
I0630 21:14:12.688760   321 net.cpp:157] Top shape: 4 512 72 96 (14155776)
I0630 21:14:12.688763   321 net.cpp:165] Memory required for data: 4138743196
I0630 21:14:12.688766   321 layer_factory.hpp:77] Creating layer loss1_conv1
I0630 21:14:12.688781   321 net.cpp:100] Creating Layer loss1_conv1
I0630 21:14:12.688784   321 net.cpp:434] loss1_conv1 <- conv4_3_relu4_3_0_split_0
I0630 21:14:12.688788   321 net.cpp:408] loss1_conv1 -> loss1_conv1
I0630 21:14:12.722713   321 net.cpp:150] Setting up loss1_conv1
I0630 21:14:12.722731   321 net.cpp:157] Top shape: 4 512 72 96 (14155776)
I0630 21:14:12.722733   321 net.cpp:165] Memory required for data: 4195366300
I0630 21:14:12.722740   321 layer_factory.hpp:77] Creating layer loss_relu1
I0630 21:14:12.722746   321 net.cpp:100] Creating Layer loss_relu1
I0630 21:14:12.722749   321 net.cpp:434] loss_relu1 <- loss1_conv1
I0630 21:14:12.722754   321 net.cpp:395] loss_relu1 -> loss1_conv1 (in-place)
I0630 21:14:12.723024   321 net.cpp:150] Setting up loss_relu1
I0630 21:14:12.723032   321 net.cpp:157] Top shape: 4 512 72 96 (14155776)
I0630 21:14:12.723034   321 net.cpp:165] Memory required for data: 4251989404
I0630 21:14:12.723037   321 layer_factory.hpp:77] Creating layer loss1_conv1_loss_relu1_0_split
I0630 21:14:12.723042   321 net.cpp:100] Creating Layer loss1_conv1_loss_relu1_0_split
I0630 21:14:12.723043   321 net.cpp:434] loss1_conv1_loss_relu1_0_split <- loss1_conv1
I0630 21:14:12.723048   321 net.cpp:408] loss1_conv1_loss_relu1_0_split -> loss1_conv1_loss_relu1_0_split_0
I0630 21:14:12.723053   321 net.cpp:408] loss1_conv1_loss_relu1_0_split -> loss1_conv1_loss_relu1_0_split_1
I0630 21:14:12.723098   321 net.cpp:150] Setting up loss1_conv1_loss_relu1_0_split
I0630 21:14:12.723104   321 net.cpp:157] Top shape: 4 512 72 96 (14155776)
I0630 21:14:12.723109   321 net.cpp:157] Top shape: 4 512 72 96 (14155776)
I0630 21:14:12.723111   321 net.cpp:165] Memory required for data: 4365235612
I0630 21:14:12.723114   321 layer_factory.hpp:77] Creating layer LFCN_1_3x5
I0630 21:14:12.723124   321 net.cpp:100] Creating Layer LFCN_1_3x5
I0630 21:14:12.723129   321 net.cpp:434] LFCN_1_3x5 <- loss1_conv1_loss_relu1_0_split_0
I0630 21:14:12.723135   321 net.cpp:408] LFCN_1_3x5 -> LFCN_1_3x5
I0630 21:14:12.725968   321 net.cpp:150] Setting up LFCN_1_3x5
I0630 21:14:12.725980   321 net.cpp:157] Top shape: 4 7 72 96 (193536)
I0630 21:14:12.725982   321 net.cpp:165] Memory required for data: 4366009756
I0630 21:14:12.725989   321 layer_factory.hpp:77] Creating layer LFCN_1_3x5_LFCN_1_3x5_0_split
I0630 21:14:12.725994   321 net.cpp:100] Creating Layer LFCN_1_3x5_LFCN_1_3x5_0_split
I0630 21:14:12.725998   321 net.cpp:434] LFCN_1_3x5_LFCN_1_3x5_0_split <- LFCN_1_3x5
I0630 21:14:12.726003   321 net.cpp:408] LFCN_1_3x5_LFCN_1_3x5_0_split -> LFCN_1_3x5_LFCN_1_3x5_0_split_0
I0630 21:14:12.726008   321 net.cpp:408] LFCN_1_3x5_LFCN_1_3x5_0_split -> LFCN_1_3x5_LFCN_1_3x5_0_split_1
I0630 21:14:12.726012   321 net.cpp:408] LFCN_1_3x5_LFCN_1_3x5_0_split -> LFCN_1_3x5_LFCN_1_3x5_0_split_2
I0630 21:14:12.726068   321 net.cpp:150] Setting up LFCN_1_3x5_LFCN_1_3x5_0_split
I0630 21:14:12.726075   321 net.cpp:157] Top shape: 4 7 72 96 (193536)
I0630 21:14:12.726079   321 net.cpp:157] Top shape: 4 7 72 96 (193536)
I0630 21:14:12.726083   321 net.cpp:157] Top shape: 4 7 72 96 (193536)
I0630 21:14:12.726086   321 net.cpp:165] Memory required for data: 4368332188
I0630 21:14:12.726089   321 layer_factory.hpp:77] Creating layer detection_loss_1_3x5
I0630 21:14:12.726097   321 net.cpp:100] Creating Layer detection_loss_1_3x5
I0630 21:14:12.726101   321 net.cpp:434] detection_loss_1_3x5 <- LFCN_1_3x5_LFCN_1_3x5_0_split_0
I0630 21:14:12.726106   321 net.cpp:434] detection_loss_1_3x5 <- label_1_3x5_data_1_split_0
I0630 21:14:12.726112   321 net.cpp:408] detection_loss_1_3x5 -> loss_1_3x5
I0630 21:14:12.726125   321 layer_factory.hpp:77] Creating layer detection_loss_1_3x5
I0630 21:14:12.726609   321 net.cpp:150] Setting up detection_loss_1_3x5
I0630 21:14:12.726616   321 net.cpp:157] Top shape: 1 1 1 2 (2)
I0630 21:14:12.726617   321 net.cpp:160]     with loss weight 0.5
I0630 21:14:12.726639   321 net.cpp:165] Memory required for data: 4368332196
I0630 21:14:12.726642   321 layer_factory.hpp:77] Creating layer detection_accuracy_1_3x5
I0630 21:14:12.726651   321 net.cpp:100] Creating Layer detection_accuracy_1_3x5
I0630 21:14:12.726656   321 net.cpp:434] detection_accuracy_1_3x5 <- LFCN_1_3x5_LFCN_1_3x5_0_split_1
I0630 21:14:12.726661   321 net.cpp:434] detection_accuracy_1_3x5 <- label_1_3x5_data_1_split_1
I0630 21:14:12.726666   321 net.cpp:408] detection_accuracy_1_3x5 -> accuracy_1_3x5
I0630 21:14:12.726675   321 net.cpp:408] detection_accuracy_1_3x5 -> boxiou_1_3x5
I0630 21:14:12.726727   321 net.cpp:150] Setting up detection_accuracy_1_3x5
I0630 21:14:12.726733   321 net.cpp:157] Top shape: 1 1 1 2 (2)
I0630 21:14:12.726737   321 net.cpp:157] Top shape: 1 1 1 1 (1)
I0630 21:14:12.726740   321 net.cpp:165] Memory required for data: 4368332208
I0630 21:14:12.726743   321 layer_factory.hpp:77] Creating layer LFCN_1_5x7
I0630 21:14:12.726752   321 net.cpp:100] Creating Layer LFCN_1_5x7
I0630 21:14:12.726757   321 net.cpp:434] LFCN_1_5x7 <- loss1_conv1_loss_relu1_0_split_1
I0630 21:14:12.726765   321 net.cpp:408] LFCN_1_5x7 -> LFCN_1_5x7
I0630 21:14:12.729034   321 net.cpp:150] Setting up LFCN_1_5x7
I0630 21:14:12.729046   321 net.cpp:157] Top shape: 4 7 72 96 (193536)
I0630 21:14:12.729048   321 net.cpp:165] Memory required for data: 4369106352
I0630 21:14:12.729054   321 layer_factory.hpp:77] Creating layer LFCN_1_5x7_LFCN_1_5x7_0_split
I0630 21:14:12.729061   321 net.cpp:100] Creating Layer LFCN_1_5x7_LFCN_1_5x7_0_split
I0630 21:14:12.729068   321 net.cpp:434] LFCN_1_5x7_LFCN_1_5x7_0_split <- LFCN_1_5x7
I0630 21:14:12.729073   321 net.cpp:408] LFCN_1_5x7_LFCN_1_5x7_0_split -> LFCN_1_5x7_LFCN_1_5x7_0_split_0
I0630 21:14:12.729082   321 net.cpp:408] LFCN_1_5x7_LFCN_1_5x7_0_split -> LFCN_1_5x7_LFCN_1_5x7_0_split_1
I0630 21:14:12.729089   321 net.cpp:408] LFCN_1_5x7_LFCN_1_5x7_0_split -> LFCN_1_5x7_LFCN_1_5x7_0_split_2
I0630 21:14:12.729151   321 net.cpp:150] Setting up LFCN_1_5x7_LFCN_1_5x7_0_split
I0630 21:14:12.729157   321 net.cpp:157] Top shape: 4 7 72 96 (193536)
I0630 21:14:12.729162   321 net.cpp:157] Top shape: 4 7 72 96 (193536)
I0630 21:14:12.729166   321 net.cpp:157] Top shape: 4 7 72 96 (193536)
I0630 21:14:12.729169   321 net.cpp:165] Memory required for data: 4371428784
I0630 21:14:12.729173   321 layer_factory.hpp:77] Creating layer detection_loss_1_5x7
I0630 21:14:12.729182   321 net.cpp:100] Creating Layer detection_loss_1_5x7
I0630 21:14:12.729185   321 net.cpp:434] detection_loss_1_5x7 <- LFCN_1_5x7_LFCN_1_5x7_0_split_0
I0630 21:14:12.729192   321 net.cpp:434] detection_loss_1_5x7 <- label_1_5x7_data_2_split_0
I0630 21:14:12.729198   321 net.cpp:408] detection_loss_1_5x7 -> loss_1_5x7
I0630 21:14:12.729207   321 layer_factory.hpp:77] Creating layer detection_loss_1_5x7
I0630 21:14:12.730093   321 net.cpp:150] Setting up detection_loss_1_5x7
I0630 21:14:12.730103   321 net.cpp:157] Top shape: 1 1 1 2 (2)
I0630 21:14:12.730104   321 net.cpp:160]     with loss weight 0.9
I0630 21:14:12.730113   321 net.cpp:165] Memory required for data: 4371428792
I0630 21:14:12.730116   321 layer_factory.hpp:77] Creating layer detection_accuracy_1_5x7
I0630 21:14:12.730123   321 net.cpp:100] Creating Layer detection_accuracy_1_5x7
I0630 21:14:12.730129   321 net.cpp:434] detection_accuracy_1_5x7 <- LFCN_1_5x7_LFCN_1_5x7_0_split_1
I0630 21:14:12.730134   321 net.cpp:434] detection_accuracy_1_5x7 <- label_1_5x7_data_2_split_1
I0630 21:14:12.730140   321 net.cpp:408] detection_accuracy_1_5x7 -> accuracy_1_5x7
I0630 21:14:12.730149   321 net.cpp:408] detection_accuracy_1_5x7 -> boxiou_1_5x7
I0630 21:14:12.730197   321 net.cpp:150] Setting up detection_accuracy_1_5x7
I0630 21:14:12.730203   321 net.cpp:157] Top shape: 1 1 1 2 (2)
I0630 21:14:12.730207   321 net.cpp:157] Top shape: 1 1 1 1 (1)
I0630 21:14:12.730211   321 net.cpp:165] Memory required for data: 4371428804
I0630 21:14:12.730214   321 layer_factory.hpp:77] Creating layer pool4
I0630 21:14:12.730221   321 net.cpp:100] Creating Layer pool4
I0630 21:14:12.730226   321 net.cpp:434] pool4 <- conv4_3_relu4_3_0_split_1
I0630 21:14:12.730232   321 net.cpp:408] pool4 -> pool4
I0630 21:14:12.730275   321 net.cpp:150] Setting up pool4
I0630 21:14:12.730281   321 net.cpp:157] Top shape: 4 512 36 48 (3538944)
I0630 21:14:12.730285   321 net.cpp:165] Memory required for data: 4385584580
I0630 21:14:12.730288   321 layer_factory.hpp:77] Creating layer conv5_1
I0630 21:14:12.730296   321 net.cpp:100] Creating Layer conv5_1
I0630 21:14:12.730300   321 net.cpp:434] conv5_1 <- pool4
I0630 21:14:12.730305   321 net.cpp:408] conv5_1 -> conv5_1
I0630 21:14:12.736133   321 net.cpp:150] Setting up conv5_1
I0630 21:14:12.736153   321 net.cpp:157] Top shape: 4 512 36 48 (3538944)
I0630 21:14:12.736155   321 net.cpp:165] Memory required for data: 4399740356
I0630 21:14:12.736166   321 layer_factory.hpp:77] Creating layer relu5_1
I0630 21:14:12.736173   321 net.cpp:100] Creating Layer relu5_1
I0630 21:14:12.736178   321 net.cpp:434] relu5_1 <- conv5_1
I0630 21:14:12.736187   321 net.cpp:395] relu5_1 -> conv5_1 (in-place)
I0630 21:14:12.736850   321 net.cpp:150] Setting up relu5_1
I0630 21:14:12.736860   321 net.cpp:157] Top shape: 4 512 36 48 (3538944)
I0630 21:14:12.736861   321 net.cpp:165] Memory required for data: 4413896132
I0630 21:14:12.736865   321 layer_factory.hpp:77] Creating layer conv5_2
I0630 21:14:12.736874   321 net.cpp:100] Creating Layer conv5_2
I0630 21:14:12.736879   321 net.cpp:434] conv5_2 <- conv5_1
I0630 21:14:12.736886   321 net.cpp:408] conv5_2 -> conv5_2
I0630 21:14:12.742313   321 net.cpp:150] Setting up conv5_2
I0630 21:14:12.742332   321 net.cpp:157] Top shape: 4 512 36 48 (3538944)
I0630 21:14:12.742336   321 net.cpp:165] Memory required for data: 4428051908
I0630 21:14:12.742344   321 layer_factory.hpp:77] Creating layer relu5_2
I0630 21:14:12.742355   321 net.cpp:100] Creating Layer relu5_2
I0630 21:14:12.742360   321 net.cpp:434] relu5_2 <- conv5_2
I0630 21:14:12.742367   321 net.cpp:395] relu5_2 -> conv5_2 (in-place)
I0630 21:14:12.742645   321 net.cpp:150] Setting up relu5_2
I0630 21:14:12.742652   321 net.cpp:157] Top shape: 4 512 36 48 (3538944)
I0630 21:14:12.742655   321 net.cpp:165] Memory required for data: 4442207684
I0630 21:14:12.742657   321 layer_factory.hpp:77] Creating layer conv5_3
I0630 21:14:12.742666   321 net.cpp:100] Creating Layer conv5_3
I0630 21:14:12.742669   321 net.cpp:434] conv5_3 <- conv5_2
I0630 21:14:12.742676   321 net.cpp:408] conv5_3 -> conv5_3
I0630 21:14:12.748482   321 net.cpp:150] Setting up conv5_3
I0630 21:14:12.748503   321 net.cpp:157] Top shape: 4 512 36 48 (3538944)
I0630 21:14:12.748505   321 net.cpp:165] Memory required for data: 4456363460
I0630 21:14:12.748513   321 layer_factory.hpp:77] Creating layer relu5_3
I0630 21:14:12.748524   321 net.cpp:100] Creating Layer relu5_3
I0630 21:14:12.748529   321 net.cpp:434] relu5_3 <- conv5_3
I0630 21:14:12.748536   321 net.cpp:395] relu5_3 -> conv5_3 (in-place)
I0630 21:14:12.748816   321 net.cpp:150] Setting up relu5_3
I0630 21:14:12.748822   321 net.cpp:157] Top shape: 4 512 36 48 (3538944)
I0630 21:14:12.748824   321 net.cpp:165] Memory required for data: 4470519236
I0630 21:14:12.748827   321 layer_factory.hpp:77] Creating layer conv5_3_relu5_3_0_split
I0630 21:14:12.748832   321 net.cpp:100] Creating Layer conv5_3_relu5_3_0_split
I0630 21:14:12.748837   321 net.cpp:434] conv5_3_relu5_3_0_split <- conv5_3
I0630 21:14:12.748844   321 net.cpp:408] conv5_3_relu5_3_0_split -> conv5_3_relu5_3_0_split_0
I0630 21:14:12.748852   321 net.cpp:408] conv5_3_relu5_3_0_split -> conv5_3_relu5_3_0_split_1
I0630 21:14:12.748860   321 net.cpp:408] conv5_3_relu5_3_0_split -> conv5_3_relu5_3_0_split_2
I0630 21:14:12.748927   321 net.cpp:150] Setting up conv5_3_relu5_3_0_split
I0630 21:14:12.748934   321 net.cpp:157] Top shape: 4 512 36 48 (3538944)
I0630 21:14:12.748939   321 net.cpp:157] Top shape: 4 512 36 48 (3538944)
I0630 21:14:12.748942   321 net.cpp:157] Top shape: 4 512 36 48 (3538944)
I0630 21:14:12.748945   321 net.cpp:165] Memory required for data: 4512986564
I0630 21:14:12.748948   321 layer_factory.hpp:77] Creating layer LFCN_2_3x5
I0630 21:14:12.748960   321 net.cpp:100] Creating Layer LFCN_2_3x5
I0630 21:14:12.748963   321 net.cpp:434] LFCN_2_3x5 <- conv5_3_relu5_3_0_split_0
I0630 21:14:12.748970   321 net.cpp:408] LFCN_2_3x5 -> LFCN_2_3x5
I0630 21:14:12.750751   321 net.cpp:150] Setting up LFCN_2_3x5
I0630 21:14:12.750763   321 net.cpp:157] Top shape: 4 7 36 48 (48384)
I0630 21:14:12.750766   321 net.cpp:165] Memory required for data: 4513180100
I0630 21:14:12.750778   321 layer_factory.hpp:77] Creating layer LFCN_2_3x5_LFCN_2_3x5_0_split
I0630 21:14:12.750787   321 net.cpp:100] Creating Layer LFCN_2_3x5_LFCN_2_3x5_0_split
I0630 21:14:12.750790   321 net.cpp:434] LFCN_2_3x5_LFCN_2_3x5_0_split <- LFCN_2_3x5
I0630 21:14:12.750797   321 net.cpp:408] LFCN_2_3x5_LFCN_2_3x5_0_split -> LFCN_2_3x5_LFCN_2_3x5_0_split_0
I0630 21:14:12.750816   321 net.cpp:408] LFCN_2_3x5_LFCN_2_3x5_0_split -> LFCN_2_3x5_LFCN_2_3x5_0_split_1
I0630 21:14:12.750824   321 net.cpp:408] LFCN_2_3x5_LFCN_2_3x5_0_split -> LFCN_2_3x5_LFCN_2_3x5_0_split_2
I0630 21:14:12.750887   321 net.cpp:150] Setting up LFCN_2_3x5_LFCN_2_3x5_0_split
I0630 21:14:12.750896   321 net.cpp:157] Top shape: 4 7 36 48 (48384)
I0630 21:14:12.750901   321 net.cpp:157] Top shape: 4 7 36 48 (48384)
I0630 21:14:12.750905   321 net.cpp:157] Top shape: 4 7 36 48 (48384)
I0630 21:14:12.750908   321 net.cpp:165] Memory required for data: 4513760708
I0630 21:14:12.750911   321 layer_factory.hpp:77] Creating layer detection_loss_2_3x5
I0630 21:14:12.750918   321 net.cpp:100] Creating Layer detection_loss_2_3x5
I0630 21:14:12.750922   321 net.cpp:434] detection_loss_2_3x5 <- LFCN_2_3x5_LFCN_2_3x5_0_split_0
I0630 21:14:12.750927   321 net.cpp:434] detection_loss_2_3x5 <- label_2_3x5_data_3_split_0
I0630 21:14:12.750933   321 net.cpp:408] detection_loss_2_3x5 -> loss_2_3x5
I0630 21:14:12.750942   321 layer_factory.hpp:77] Creating layer detection_loss_2_3x5
I0630 21:14:12.751786   321 net.cpp:150] Setting up detection_loss_2_3x5
I0630 21:14:12.751794   321 net.cpp:157] Top shape: 1 1 1 2 (2)
I0630 21:14:12.751796   321 net.cpp:160]     with loss weight 1
I0630 21:14:12.751804   321 net.cpp:165] Memory required for data: 4513760716
I0630 21:14:12.751808   321 layer_factory.hpp:77] Creating layer detection_accuracy_2_3x5
I0630 21:14:12.751816   321 net.cpp:100] Creating Layer detection_accuracy_2_3x5
I0630 21:14:12.751821   321 net.cpp:434] detection_accuracy_2_3x5 <- LFCN_2_3x5_LFCN_2_3x5_0_split_1
I0630 21:14:12.751826   321 net.cpp:434] detection_accuracy_2_3x5 <- label_2_3x5_data_3_split_1
I0630 21:14:12.751834   321 net.cpp:408] detection_accuracy_2_3x5 -> accuracy_2_3x5
I0630 21:14:12.751842   321 net.cpp:408] detection_accuracy_2_3x5 -> boxiou_2_3x5
I0630 21:14:12.751893   321 net.cpp:150] Setting up detection_accuracy_2_3x5
I0630 21:14:12.751899   321 net.cpp:157] Top shape: 1 1 1 2 (2)
I0630 21:14:12.751901   321 net.cpp:157] Top shape: 1 1 1 1 (1)
I0630 21:14:12.751905   321 net.cpp:165] Memory required for data: 4513760728
I0630 21:14:12.751909   321 layer_factory.hpp:77] Creating layer LFCN_2_5x7
I0630 21:14:12.751917   321 net.cpp:100] Creating Layer LFCN_2_5x7
I0630 21:14:12.751922   321 net.cpp:434] LFCN_2_5x7 <- conv5_3_relu5_3_0_split_1
I0630 21:14:12.751929   321 net.cpp:408] LFCN_2_5x7 -> LFCN_2_5x7
I0630 21:14:12.755141   321 net.cpp:150] Setting up LFCN_2_5x7
I0630 21:14:12.755161   321 net.cpp:157] Top shape: 4 7 36 48 (48384)
I0630 21:14:12.755162   321 net.cpp:165] Memory required for data: 4513954264
I0630 21:14:12.755172   321 layer_factory.hpp:77] Creating layer LFCN_2_5x7_LFCN_2_5x7_0_split
I0630 21:14:12.755182   321 net.cpp:100] Creating Layer LFCN_2_5x7_LFCN_2_5x7_0_split
I0630 21:14:12.755188   321 net.cpp:434] LFCN_2_5x7_LFCN_2_5x7_0_split <- LFCN_2_5x7
I0630 21:14:12.755195   321 net.cpp:408] LFCN_2_5x7_LFCN_2_5x7_0_split -> LFCN_2_5x7_LFCN_2_5x7_0_split_0
I0630 21:14:12.755205   321 net.cpp:408] LFCN_2_5x7_LFCN_2_5x7_0_split -> LFCN_2_5x7_LFCN_2_5x7_0_split_1
I0630 21:14:12.755211   321 net.cpp:408] LFCN_2_5x7_LFCN_2_5x7_0_split -> LFCN_2_5x7_LFCN_2_5x7_0_split_2
I0630 21:14:12.755275   321 net.cpp:150] Setting up LFCN_2_5x7_LFCN_2_5x7_0_split
I0630 21:14:12.755283   321 net.cpp:157] Top shape: 4 7 36 48 (48384)
I0630 21:14:12.755288   321 net.cpp:157] Top shape: 4 7 36 48 (48384)
I0630 21:14:12.755292   321 net.cpp:157] Top shape: 4 7 36 48 (48384)
I0630 21:14:12.755296   321 net.cpp:165] Memory required for data: 4514534872
I0630 21:14:12.755300   321 layer_factory.hpp:77] Creating layer detection_loss_2_5x7
I0630 21:14:12.755306   321 net.cpp:100] Creating Layer detection_loss_2_5x7
I0630 21:14:12.755309   321 net.cpp:434] detection_loss_2_5x7 <- LFCN_2_5x7_LFCN_2_5x7_0_split_0
I0630 21:14:12.755316   321 net.cpp:434] detection_loss_2_5x7 <- label_2_5x7_data_4_split_0
I0630 21:14:12.755323   321 net.cpp:408] detection_loss_2_5x7 -> loss_2_5x7
I0630 21:14:12.755332   321 layer_factory.hpp:77] Creating layer detection_loss_2_5x7
I0630 21:14:12.755787   321 net.cpp:150] Setting up detection_loss_2_5x7
I0630 21:14:12.755795   321 net.cpp:157] Top shape: 1 1 1 2 (2)
I0630 21:14:12.755796   321 net.cpp:160]     with loss weight 1
I0630 21:14:12.755805   321 net.cpp:165] Memory required for data: 4514534880
I0630 21:14:12.755807   321 layer_factory.hpp:77] Creating layer detection_accuracy_2_5x7
I0630 21:14:12.755815   321 net.cpp:100] Creating Layer detection_accuracy_2_5x7
I0630 21:14:12.755818   321 net.cpp:434] detection_accuracy_2_5x7 <- LFCN_2_5x7_LFCN_2_5x7_0_split_1
I0630 21:14:12.755823   321 net.cpp:434] detection_accuracy_2_5x7 <- label_2_5x7_data_4_split_1
I0630 21:14:12.755831   321 net.cpp:408] detection_accuracy_2_5x7 -> accuracy_2_5x7
I0630 21:14:12.755839   321 net.cpp:408] detection_accuracy_2_5x7 -> boxiou_2_5x7
I0630 21:14:12.755888   321 net.cpp:150] Setting up detection_accuracy_2_5x7
I0630 21:14:12.755894   321 net.cpp:157] Top shape: 1 1 1 2 (2)
I0630 21:14:12.755897   321 net.cpp:157] Top shape: 1 1 1 1 (1)
I0630 21:14:12.755901   321 net.cpp:165] Memory required for data: 4514534892
I0630 21:14:12.755904   321 layer_factory.hpp:77] Creating layer pool5
I0630 21:14:12.755911   321 net.cpp:100] Creating Layer pool5
I0630 21:14:12.755916   321 net.cpp:434] pool5 <- conv5_3_relu5_3_0_split_2
I0630 21:14:12.755921   321 net.cpp:408] pool5 -> pool5
I0630 21:14:12.755965   321 net.cpp:150] Setting up pool5
I0630 21:14:12.755971   321 net.cpp:157] Top shape: 4 512 18 24 (884736)
I0630 21:14:12.755975   321 net.cpp:165] Memory required for data: 4518073836
I0630 21:14:12.755978   321 layer_factory.hpp:77] Creating layer conv6_1
I0630 21:14:12.755988   321 net.cpp:100] Creating Layer conv6_1
I0630 21:14:12.755993   321 net.cpp:434] conv6_1 <- pool5
I0630 21:14:12.756000   321 net.cpp:408] conv6_1 -> conv6_1
I0630 21:14:12.776643   321 net.cpp:150] Setting up conv6_1
I0630 21:14:12.776664   321 net.cpp:157] Top shape: 4 512 18 24 (884736)
I0630 21:14:12.776665   321 net.cpp:165] Memory required for data: 4521612780
I0630 21:14:12.776672   321 layer_factory.hpp:77] Creating layer relu6_1
I0630 21:14:12.776682   321 net.cpp:100] Creating Layer relu6_1
I0630 21:14:12.776687   321 net.cpp:434] relu6_1 <- conv6_1
I0630 21:14:12.776692   321 net.cpp:395] relu6_1 -> conv6_1 (in-place)
I0630 21:14:12.776968   321 net.cpp:150] Setting up relu6_1
I0630 21:14:12.776976   321 net.cpp:157] Top shape: 4 512 18 24 (884736)
I0630 21:14:12.776979   321 net.cpp:165] Memory required for data: 4525151724
I0630 21:14:12.776983   321 layer_factory.hpp:77] Creating layer conv6_1_relu6_1_0_split
I0630 21:14:12.776988   321 net.cpp:100] Creating Layer conv6_1_relu6_1_0_split
I0630 21:14:12.776993   321 net.cpp:434] conv6_1_relu6_1_0_split <- conv6_1
I0630 21:14:12.776998   321 net.cpp:408] conv6_1_relu6_1_0_split -> conv6_1_relu6_1_0_split_0
I0630 21:14:12.777006   321 net.cpp:408] conv6_1_relu6_1_0_split -> conv6_1_relu6_1_0_split_1
I0630 21:14:12.777014   321 net.cpp:408] conv6_1_relu6_1_0_split -> conv6_1_relu6_1_0_split_2
I0630 21:14:12.777084   321 net.cpp:150] Setting up conv6_1_relu6_1_0_split
I0630 21:14:12.777091   321 net.cpp:157] Top shape: 4 512 18 24 (884736)
I0630 21:14:12.777096   321 net.cpp:157] Top shape: 4 512 18 24 (884736)
I0630 21:14:12.777101   321 net.cpp:157] Top shape: 4 512 18 24 (884736)
I0630 21:14:12.777103   321 net.cpp:165] Memory required for data: 4535768556
I0630 21:14:12.777107   321 layer_factory.hpp:77] Creating layer LFCN_3_3x5
I0630 21:14:12.777117   321 net.cpp:100] Creating Layer LFCN_3_3x5
I0630 21:14:12.777120   321 net.cpp:434] LFCN_3_3x5 <- conv6_1_relu6_1_0_split_0
I0630 21:14:12.777127   321 net.cpp:408] LFCN_3_3x5 -> LFCN_3_3x5
I0630 21:14:12.779829   321 net.cpp:150] Setting up LFCN_3_3x5
I0630 21:14:12.779848   321 net.cpp:157] Top shape: 4 7 18 24 (12096)
I0630 21:14:12.779850   321 net.cpp:165] Memory required for data: 4535816940
I0630 21:14:12.779857   321 layer_factory.hpp:77] Creating layer LFCN_3_3x5_LFCN_3_3x5_0_split
I0630 21:14:12.779881   321 net.cpp:100] Creating Layer LFCN_3_3x5_LFCN_3_3x5_0_split
I0630 21:14:12.779886   321 net.cpp:434] LFCN_3_3x5_LFCN_3_3x5_0_split <- LFCN_3_3x5
I0630 21:14:12.779893   321 net.cpp:408] LFCN_3_3x5_LFCN_3_3x5_0_split -> LFCN_3_3x5_LFCN_3_3x5_0_split_0
I0630 21:14:12.779902   321 net.cpp:408] LFCN_3_3x5_LFCN_3_3x5_0_split -> LFCN_3_3x5_LFCN_3_3x5_0_split_1
I0630 21:14:12.779909   321 net.cpp:408] LFCN_3_3x5_LFCN_3_3x5_0_split -> LFCN_3_3x5_LFCN_3_3x5_0_split_2
I0630 21:14:12.779976   321 net.cpp:150] Setting up LFCN_3_3x5_LFCN_3_3x5_0_split
I0630 21:14:12.779983   321 net.cpp:157] Top shape: 4 7 18 24 (12096)
I0630 21:14:12.779989   321 net.cpp:157] Top shape: 4 7 18 24 (12096)
I0630 21:14:12.779992   321 net.cpp:157] Top shape: 4 7 18 24 (12096)
I0630 21:14:12.779996   321 net.cpp:165] Memory required for data: 4535962092
I0630 21:14:12.779999   321 layer_factory.hpp:77] Creating layer detection_loss_3_3x5
I0630 21:14:12.780009   321 net.cpp:100] Creating Layer detection_loss_3_3x5
I0630 21:14:12.780011   321 net.cpp:434] detection_loss_3_3x5 <- LFCN_3_3x5_LFCN_3_3x5_0_split_0
I0630 21:14:12.780016   321 net.cpp:434] detection_loss_3_3x5 <- label_3_3x5_data_5_split_0
I0630 21:14:12.780023   321 net.cpp:408] detection_loss_3_3x5 -> loss_3_3x5
I0630 21:14:12.780032   321 layer_factory.hpp:77] Creating layer detection_loss_3_3x5
I0630 21:14:12.780923   321 net.cpp:150] Setting up detection_loss_3_3x5
I0630 21:14:12.780932   321 net.cpp:157] Top shape: 1 1 1 2 (2)
I0630 21:14:12.780935   321 net.cpp:160]     with loss weight 1
I0630 21:14:12.780943   321 net.cpp:165] Memory required for data: 4535962100
I0630 21:14:12.780946   321 layer_factory.hpp:77] Creating layer detection_accuracy_3_3x5
I0630 21:14:12.780956   321 net.cpp:100] Creating Layer detection_accuracy_3_3x5
I0630 21:14:12.780961   321 net.cpp:434] detection_accuracy_3_3x5 <- LFCN_3_3x5_LFCN_3_3x5_0_split_1
I0630 21:14:12.780967   321 net.cpp:434] detection_accuracy_3_3x5 <- label_3_3x5_data_5_split_1
I0630 21:14:12.780973   321 net.cpp:408] detection_accuracy_3_3x5 -> accuracy_3_3x5
I0630 21:14:12.780982   321 net.cpp:408] detection_accuracy_3_3x5 -> boxiou_3_3x5
I0630 21:14:12.781033   321 net.cpp:150] Setting up detection_accuracy_3_3x5
I0630 21:14:12.781038   321 net.cpp:157] Top shape: 1 1 1 2 (2)
I0630 21:14:12.781041   321 net.cpp:157] Top shape: 1 1 1 1 (1)
I0630 21:14:12.781044   321 net.cpp:165] Memory required for data: 4535962112
I0630 21:14:12.781047   321 layer_factory.hpp:77] Creating layer LFCN_3_5x7
I0630 21:14:12.781057   321 net.cpp:100] Creating Layer LFCN_3_5x7
I0630 21:14:12.781061   321 net.cpp:434] LFCN_3_5x7 <- conv6_1_relu6_1_0_split_1
I0630 21:14:12.781069   321 net.cpp:408] LFCN_3_5x7 -> LFCN_3_5x7
I0630 21:14:12.783396   321 net.cpp:150] Setting up LFCN_3_5x7
I0630 21:14:12.783408   321 net.cpp:157] Top shape: 4 7 18 24 (12096)
I0630 21:14:12.783411   321 net.cpp:165] Memory required for data: 4536010496
I0630 21:14:12.783416   321 layer_factory.hpp:77] Creating layer LFCN_3_5x7_LFCN_3_5x7_0_split
I0630 21:14:12.783423   321 net.cpp:100] Creating Layer LFCN_3_5x7_LFCN_3_5x7_0_split
I0630 21:14:12.783428   321 net.cpp:434] LFCN_3_5x7_LFCN_3_5x7_0_split <- LFCN_3_5x7
I0630 21:14:12.783433   321 net.cpp:408] LFCN_3_5x7_LFCN_3_5x7_0_split -> LFCN_3_5x7_LFCN_3_5x7_0_split_0
I0630 21:14:12.783443   321 net.cpp:408] LFCN_3_5x7_LFCN_3_5x7_0_split -> LFCN_3_5x7_LFCN_3_5x7_0_split_1
I0630 21:14:12.783449   321 net.cpp:408] LFCN_3_5x7_LFCN_3_5x7_0_split -> LFCN_3_5x7_LFCN_3_5x7_0_split_2
I0630 21:14:12.783514   321 net.cpp:150] Setting up LFCN_3_5x7_LFCN_3_5x7_0_split
I0630 21:14:12.783522   321 net.cpp:157] Top shape: 4 7 18 24 (12096)
I0630 21:14:12.783527   321 net.cpp:157] Top shape: 4 7 18 24 (12096)
I0630 21:14:12.783532   321 net.cpp:157] Top shape: 4 7 18 24 (12096)
I0630 21:14:12.783535   321 net.cpp:165] Memory required for data: 4536155648
I0630 21:14:12.783537   321 layer_factory.hpp:77] Creating layer detection_loss_3_5x7
I0630 21:14:12.783545   321 net.cpp:100] Creating Layer detection_loss_3_5x7
I0630 21:14:12.783548   321 net.cpp:434] detection_loss_3_5x7 <- LFCN_3_5x7_LFCN_3_5x7_0_split_0
I0630 21:14:12.783553   321 net.cpp:434] detection_loss_3_5x7 <- label_3_5x7_data_6_split_0
I0630 21:14:12.783560   321 net.cpp:408] detection_loss_3_5x7 -> loss_3_5x7
I0630 21:14:12.783569   321 layer_factory.hpp:77] Creating layer detection_loss_3_5x7
I0630 21:14:12.784031   321 net.cpp:150] Setting up detection_loss_3_5x7
I0630 21:14:12.784037   321 net.cpp:157] Top shape: 1 1 1 2 (2)
I0630 21:14:12.784039   321 net.cpp:160]     with loss weight 1
I0630 21:14:12.784046   321 net.cpp:165] Memory required for data: 4536155656
I0630 21:14:12.784049   321 layer_factory.hpp:77] Creating layer detection_accuracy_3_5x7
I0630 21:14:12.784055   321 net.cpp:100] Creating Layer detection_accuracy_3_5x7
I0630 21:14:12.784060   321 net.cpp:434] detection_accuracy_3_5x7 <- LFCN_3_5x7_LFCN_3_5x7_0_split_1
I0630 21:14:12.784065   321 net.cpp:434] detection_accuracy_3_5x7 <- label_3_5x7_data_6_split_1
I0630 21:14:12.784072   321 net.cpp:408] detection_accuracy_3_5x7 -> accuracy_3_5x7
I0630 21:14:12.784080   321 net.cpp:408] detection_accuracy_3_5x7 -> boxiou_3_5x7
I0630 21:14:12.784130   321 net.cpp:150] Setting up detection_accuracy_3_5x7
I0630 21:14:12.784137   321 net.cpp:157] Top shape: 1 1 1 2 (2)
I0630 21:14:12.784140   321 net.cpp:157] Top shape: 1 1 1 1 (1)
I0630 21:14:12.784143   321 net.cpp:165] Memory required for data: 4536155668
I0630 21:14:12.784147   321 layer_factory.hpp:77] Creating layer pool6
I0630 21:14:12.784152   321 net.cpp:100] Creating Layer pool6
I0630 21:14:12.784157   321 net.cpp:434] pool6 <- conv6_1_relu6_1_0_split_2
I0630 21:14:12.784163   321 net.cpp:408] pool6 -> pool6
I0630 21:14:12.784206   321 net.cpp:150] Setting up pool6
I0630 21:14:12.784214   321 net.cpp:157] Top shape: 4 512 9 12 (221184)
I0630 21:14:12.784219   321 net.cpp:165] Memory required for data: 4537040404
I0630 21:14:12.784221   321 layer_factory.hpp:77] Creating layer LFCN_4_3x5
I0630 21:14:12.784229   321 net.cpp:100] Creating Layer LFCN_4_3x5
I0630 21:14:12.784234   321 net.cpp:434] LFCN_4_3x5 <- pool6
I0630 21:14:12.784240   321 net.cpp:408] LFCN_4_3x5 -> LFCN_4_3x5
I0630 21:14:12.786486   321 net.cpp:150] Setting up LFCN_4_3x5
I0630 21:14:12.786499   321 net.cpp:157] Top shape: 4 7 9 12 (3024)
I0630 21:14:12.786500   321 net.cpp:165] Memory required for data: 4537052500
I0630 21:14:12.786506   321 layer_factory.hpp:77] Creating layer LFCN_4_3x5_LFCN_4_3x5_0_split
I0630 21:14:12.786515   321 net.cpp:100] Creating Layer LFCN_4_3x5_LFCN_4_3x5_0_split
I0630 21:14:12.786520   321 net.cpp:434] LFCN_4_3x5_LFCN_4_3x5_0_split <- LFCN_4_3x5
I0630 21:14:12.786526   321 net.cpp:408] LFCN_4_3x5_LFCN_4_3x5_0_split -> LFCN_4_3x5_LFCN_4_3x5_0_split_0
I0630 21:14:12.786535   321 net.cpp:408] LFCN_4_3x5_LFCN_4_3x5_0_split -> LFCN_4_3x5_LFCN_4_3x5_0_split_1
I0630 21:14:12.786543   321 net.cpp:408] LFCN_4_3x5_LFCN_4_3x5_0_split -> LFCN_4_3x5_LFCN_4_3x5_0_split_2
I0630 21:14:12.786612   321 net.cpp:150] Setting up LFCN_4_3x5_LFCN_4_3x5_0_split
I0630 21:14:12.786619   321 net.cpp:157] Top shape: 4 7 9 12 (3024)
I0630 21:14:12.786623   321 net.cpp:157] Top shape: 4 7 9 12 (3024)
I0630 21:14:12.786628   321 net.cpp:157] Top shape: 4 7 9 12 (3024)
I0630 21:14:12.786630   321 net.cpp:165] Memory required for data: 4537088788
I0630 21:14:12.786633   321 layer_factory.hpp:77] Creating layer detection_loss_4_3x5
I0630 21:14:12.786640   321 net.cpp:100] Creating Layer detection_loss_4_3x5
I0630 21:14:12.786645   321 net.cpp:434] detection_loss_4_3x5 <- LFCN_4_3x5_LFCN_4_3x5_0_split_0
I0630 21:14:12.786650   321 net.cpp:434] detection_loss_4_3x5 <- label_4_3x5_data_7_split_0
I0630 21:14:12.786656   321 net.cpp:408] detection_loss_4_3x5 -> loss_4_3x5
I0630 21:14:12.786664   321 layer_factory.hpp:77] Creating layer detection_loss_4_3x5
I0630 21:14:12.787114   321 net.cpp:150] Setting up detection_loss_4_3x5
I0630 21:14:12.787120   321 net.cpp:157] Top shape: 1 1 1 2 (2)
I0630 21:14:12.787122   321 net.cpp:160]     with loss weight 1
I0630 21:14:12.787130   321 net.cpp:165] Memory required for data: 4537088796
I0630 21:14:12.787133   321 layer_factory.hpp:77] Creating layer detection_accuracy_4_3x5
I0630 21:14:12.787140   321 net.cpp:100] Creating Layer detection_accuracy_4_3x5
I0630 21:14:12.787144   321 net.cpp:434] detection_accuracy_4_3x5 <- LFCN_4_3x5_LFCN_4_3x5_0_split_1
I0630 21:14:12.787149   321 net.cpp:434] detection_accuracy_4_3x5 <- label_4_3x5_data_7_split_1
I0630 21:14:12.787156   321 net.cpp:408] detection_accuracy_4_3x5 -> accuracy_4_3x5
I0630 21:14:12.787165   321 net.cpp:408] detection_accuracy_4_3x5 -> boxiou_4_3x5
I0630 21:14:12.787214   321 net.cpp:150] Setting up detection_accuracy_4_3x5
I0630 21:14:12.787219   321 net.cpp:157] Top shape: 1 1 1 2 (2)
I0630 21:14:12.787222   321 net.cpp:157] Top shape: 1 1 1 1 (1)
I0630 21:14:12.787226   321 net.cpp:165] Memory required for data: 4537088808
I0630 21:14:12.787230   321 layer_factory.hpp:77] Creating layer proposals
I0630 21:14:12.787237   321 net.cpp:100] Creating Layer proposals
I0630 21:14:12.787241   321 net.cpp:434] proposals <- LFCN_1_3x5_LFCN_1_3x5_0_split_2
I0630 21:14:12.787245   321 net.cpp:434] proposals <- LFCN_1_5x7_LFCN_1_5x7_0_split_2
I0630 21:14:12.787250   321 net.cpp:434] proposals <- LFCN_2_3x5_LFCN_2_3x5_0_split_2
I0630 21:14:12.787253   321 net.cpp:434] proposals <- LFCN_2_5x7_LFCN_2_5x7_0_split_2
I0630 21:14:12.787258   321 net.cpp:434] proposals <- LFCN_3_3x5_LFCN_3_3x5_0_split_2
I0630 21:14:12.787262   321 net.cpp:434] proposals <- LFCN_3_5x7_LFCN_3_5x7_0_split_2
I0630 21:14:12.787266   321 net.cpp:434] proposals <- LFCN_4_3x5_LFCN_4_3x5_0_split_2
I0630 21:14:12.787273   321 net.cpp:408] proposals -> proposals
I0630 21:14:12.787305   321 net.cpp:150] Setting up proposals
I0630 21:14:12.787310   321 net.cpp:157] Top shape: 1 5 1 1 (5)
I0630 21:14:12.787313   321 net.cpp:165] Memory required for data: 4537088828
I0630 21:14:12.787317   321 layer_factory.hpp:77] Creating layer proposal_info
I0630 21:14:12.787325   321 net.cpp:100] Creating Layer proposal_info
I0630 21:14:12.787329   321 net.cpp:434] proposal_info <- proposals
I0630 21:14:12.787333   321 net.cpp:434] proposal_info <- gt_boxes
I0630 21:14:12.787343   321 net.cpp:408] proposal_info -> rois
I0630 21:14:12.787353   321 net.cpp:408] proposal_info -> proposal_labels
I0630 21:14:12.787361   321 net.cpp:408] proposal_info -> proposal_targets
I0630 21:14:12.787369   321 net.cpp:408] proposal_info -> box_inside_weights
I0630 21:14:12.787377   321 net.cpp:408] proposal_info -> box_outside_weights
I0630 21:14:12.787386   321 net.cpp:408] proposal_info -> match_gt_boxes
I0630 21:14:12.787498   321 net.cpp:150] Setting up proposal_info
I0630 21:14:12.787504   321 net.cpp:157] Top shape: 128 5 1 1 (640)
I0630 21:14:12.787508   321 net.cpp:157] Top shape: 128 1 1 1 (128)
I0630 21:14:12.787513   321 net.cpp:157] Top shape: 128 12 1 1 (1536)
I0630 21:14:12.787518   321 net.cpp:157] Top shape: 128 12 1 1 (1536)
I0630 21:14:12.787523   321 net.cpp:157] Top shape: 128 12 1 1 (1536)
I0630 21:14:12.787526   321 net.cpp:157] Top shape: 128 6 1 1 (768)
I0630 21:14:12.787529   321 net.cpp:165] Memory required for data: 4537113404
I0630 21:14:12.787533   321 layer_factory.hpp:77] Creating layer rois_proposal_info_0_split
I0630 21:14:12.787537   321 net.cpp:100] Creating Layer rois_proposal_info_0_split
I0630 21:14:12.787540   321 net.cpp:434] rois_proposal_info_0_split <- rois
I0630 21:14:12.787545   321 net.cpp:408] rois_proposal_info_0_split -> rois_proposal_info_0_split_0
I0630 21:14:12.787552   321 net.cpp:408] rois_proposal_info_0_split -> rois_proposal_info_0_split_1
I0630 21:14:12.787560   321 net.cpp:408] rois_proposal_info_0_split -> rois_proposal_info_0_split_2
I0630 21:14:12.787617   321 net.cpp:150] Setting up rois_proposal_info_0_split
I0630 21:14:12.787622   321 net.cpp:157] Top shape: 128 5 1 1 (640)
I0630 21:14:12.787626   321 net.cpp:157] Top shape: 128 5 1 1 (640)
I0630 21:14:12.787631   321 net.cpp:157] Top shape: 128 5 1 1 (640)
I0630 21:14:12.787634   321 net.cpp:165] Memory required for data: 4537121084
I0630 21:14:12.787636   321 layer_factory.hpp:77] Creating layer proposal_labels_proposal_info_1_split
I0630 21:14:12.787642   321 net.cpp:100] Creating Layer proposal_labels_proposal_info_1_split
I0630 21:14:12.787644   321 net.cpp:434] proposal_labels_proposal_info_1_split <- proposal_labels
I0630 21:14:12.787649   321 net.cpp:408] proposal_labels_proposal_info_1_split -> proposal_labels_proposal_info_1_split_0
I0630 21:14:12.787657   321 net.cpp:408] proposal_labels_proposal_info_1_split -> proposal_labels_proposal_info_1_split_1
I0630 21:14:12.787696   321 net.cpp:150] Setting up proposal_labels_proposal_info_1_split
I0630 21:14:12.787703   321 net.cpp:157] Top shape: 128 1 1 1 (128)
I0630 21:14:12.787705   321 net.cpp:157] Top shape: 128 1 1 1 (128)
I0630 21:14:12.787708   321 net.cpp:165] Memory required for data: 4537122108
I0630 21:14:12.787711   321 layer_factory.hpp:77] Creating layer conv4_3_2x
I0630 21:14:12.787719   321 net.cpp:100] Creating Layer conv4_3_2x
I0630 21:14:12.787724   321 net.cpp:434] conv4_3_2x <- conv4_3_relu4_3_0_split_2
I0630 21:14:12.787729   321 net.cpp:408] conv4_3_2x -> conv4_3_2x
I0630 21:14:12.788241   321 net.cpp:150] Setting up conv4_3_2x
I0630 21:14:12.788247   321 net.cpp:157] Top shape: 4 512 144 192 (56623104)
I0630 21:14:12.788249   321 net.cpp:165] Memory required for data: 4763614524
I0630 21:14:12.788254   321 layer_factory.hpp:77] Creating layer conv4_3_2x_conv4_3_2x_0_split
I0630 21:14:12.788259   321 net.cpp:100] Creating Layer conv4_3_2x_conv4_3_2x_0_split
I0630 21:14:12.788262   321 net.cpp:434] conv4_3_2x_conv4_3_2x_0_split <- conv4_3_2x
I0630 21:14:12.788269   321 net.cpp:408] conv4_3_2x_conv4_3_2x_0_split -> conv4_3_2x_conv4_3_2x_0_split_0
I0630 21:14:12.788275   321 net.cpp:408] conv4_3_2x_conv4_3_2x_0_split -> conv4_3_2x_conv4_3_2x_0_split_1
I0630 21:14:12.788321   321 net.cpp:150] Setting up conv4_3_2x_conv4_3_2x_0_split
I0630 21:14:12.788326   321 net.cpp:157] Top shape: 4 512 144 192 (56623104)
I0630 21:14:12.788331   321 net.cpp:157] Top shape: 4 512 144 192 (56623104)
I0630 21:14:12.788334   321 net.cpp:165] Memory required for data: 5216599356
I0630 21:14:12.788337   321 layer_factory.hpp:77] Creating layer roi_pool_org
I0630 21:14:12.788342   321 net.cpp:100] Creating Layer roi_pool_org
I0630 21:14:12.788347   321 net.cpp:434] roi_pool_org <- conv4_3_2x_conv4_3_2x_0_split_0
I0630 21:14:12.788352   321 net.cpp:434] roi_pool_org <- rois_proposal_info_0_split_0
I0630 21:14:12.788358   321 net.cpp:408] roi_pool_org -> roi_pool_org
I0630 21:14:12.788367   321 roi_pooling_layer.cpp:33] Spatial scale: 0.25
I0630 21:14:12.788410   321 net.cpp:150] Setting up roi_pool_org
I0630 21:14:12.788419   321 net.cpp:157] Top shape: 128 512 7 5 (2293760)
I0630 21:14:12.788421   321 net.cpp:165] Memory required for data: 5225774396
I0630 21:14:12.788424   321 layer_factory.hpp:77] Creating layer roi_pool_ctx
I0630 21:14:12.788429   321 net.cpp:100] Creating Layer roi_pool_ctx
I0630 21:14:12.788432   321 net.cpp:434] roi_pool_ctx <- conv4_3_2x_conv4_3_2x_0_split_1
I0630 21:14:12.788436   321 net.cpp:434] roi_pool_ctx <- rois_proposal_info_0_split_1
I0630 21:14:12.788442   321 net.cpp:408] roi_pool_ctx -> roi_pool_ctx
I0630 21:14:12.788450   321 roi_pooling_layer.cpp:33] Spatial scale: 0.25
I0630 21:14:12.788491   321 net.cpp:150] Setting up roi_pool_ctx
I0630 21:14:12.788496   321 net.cpp:157] Top shape: 128 512 7 5 (2293760)
I0630 21:14:12.788501   321 net.cpp:165] Memory required for data: 5234949436
I0630 21:14:12.788503   321 layer_factory.hpp:77] Creating layer roi_pool
I0630 21:14:12.788508   321 net.cpp:100] Creating Layer roi_pool
I0630 21:14:12.788511   321 net.cpp:434] roi_pool <- roi_pool_org
I0630 21:14:12.788516   321 net.cpp:434] roi_pool <- roi_pool_ctx
I0630 21:14:12.788522   321 net.cpp:408] roi_pool -> roi_pool
I0630 21:14:12.788549   321 net.cpp:150] Setting up roi_pool
I0630 21:14:12.788555   321 net.cpp:157] Top shape: 128 1024 7 5 (4587520)
I0630 21:14:12.788559   321 net.cpp:165] Memory required for data: 5253299516
I0630 21:14:12.788563   321 layer_factory.hpp:77] Creating layer roi_c1
I0630 21:14:12.788571   321 net.cpp:100] Creating Layer roi_c1
I0630 21:14:12.788575   321 net.cpp:434] roi_c1 <- roi_pool
I0630 21:14:12.788583   321 net.cpp:408] roi_c1 -> roi_c1
I0630 21:14:12.827066   321 net.cpp:150] Setting up roi_c1
I0630 21:14:12.827085   321 net.cpp:157] Top shape: 128 512 5 3 (983040)
I0630 21:14:12.827087   321 net.cpp:165] Memory required for data: 5257231676
I0630 21:14:12.827095   321 layer_factory.hpp:77] Creating layer roi_c1_relu
I0630 21:14:12.827105   321 net.cpp:100] Creating Layer roi_c1_relu
I0630 21:14:12.827111   321 net.cpp:434] roi_c1_relu <- roi_c1
I0630 21:14:12.827117   321 net.cpp:395] roi_c1_relu -> roi_c1 (in-place)
I0630 21:14:12.827826   321 net.cpp:150] Setting up roi_c1_relu
I0630 21:14:12.827836   321 net.cpp:157] Top shape: 128 512 5 3 (983040)
I0630 21:14:12.827838   321 net.cpp:165] Memory required for data: 5261163836
I0630 21:14:12.827841   321 layer_factory.hpp:77] Creating layer fc6
I0630 21:14:12.827847   321 net.cpp:100] Creating Layer fc6
I0630 21:14:12.827849   321 net.cpp:434] fc6 <- roi_c1
I0630 21:14:12.827855   321 net.cpp:408] fc6 -> fc6
I0630 21:14:12.950472   321 net.cpp:150] Setting up fc6
I0630 21:14:12.950493   321 net.cpp:157] Top shape: 128 2048 (262144)
I0630 21:14:12.950495   321 net.cpp:165] Memory required for data: 5262212412
I0630 21:14:12.950505   321 layer_factory.hpp:77] Creating layer relu6
I0630 21:14:12.950517   321 net.cpp:100] Creating Layer relu6
I0630 21:14:12.950522   321 net.cpp:434] relu6 <- fc6
I0630 21:14:12.950529   321 net.cpp:395] relu6 -> fc6 (in-place)
I0630 21:14:12.950861   321 net.cpp:150] Setting up relu6
I0630 21:14:12.950867   321 net.cpp:157] Top shape: 128 2048 (262144)
I0630 21:14:12.950870   321 net.cpp:165] Memory required for data: 5263260988
I0630 21:14:12.950871   321 layer_factory.hpp:77] Creating layer drop6
I0630 21:14:12.950877   321 net.cpp:100] Creating Layer drop6
I0630 21:14:12.950879   321 net.cpp:434] drop6 <- fc6
I0630 21:14:12.950882   321 net.cpp:395] drop6 -> fc6 (in-place)
I0630 21:14:12.950912   321 net.cpp:150] Setting up drop6
I0630 21:14:12.950918   321 net.cpp:157] Top shape: 128 2048 (262144)
I0630 21:14:12.950920   321 net.cpp:165] Memory required for data: 5264309564
I0630 21:14:12.950924   321 layer_factory.hpp:77] Creating layer fc6_drop6_0_split
I0630 21:14:12.950929   321 net.cpp:100] Creating Layer fc6_drop6_0_split
I0630 21:14:12.950932   321 net.cpp:434] fc6_drop6_0_split <- fc6
I0630 21:14:12.950938   321 net.cpp:408] fc6_drop6_0_split -> fc6_drop6_0_split_0
I0630 21:14:12.950945   321 net.cpp:408] fc6_drop6_0_split -> fc6_drop6_0_split_1
I0630 21:14:12.950992   321 net.cpp:150] Setting up fc6_drop6_0_split
I0630 21:14:12.950999   321 net.cpp:157] Top shape: 128 2048 (262144)
I0630 21:14:12.951002   321 net.cpp:157] Top shape: 128 2048 (262144)
I0630 21:14:12.951004   321 net.cpp:165] Memory required for data: 5266406716
I0630 21:14:12.951007   321 layer_factory.hpp:77] Creating layer cls_pred
I0630 21:14:12.951015   321 net.cpp:100] Creating Layer cls_pred
I0630 21:14:12.951020   321 net.cpp:434] cls_pred <- fc6_drop6_0_split_0
I0630 21:14:12.951025   321 net.cpp:408] cls_pred -> cls_pred
I0630 21:14:12.951238   321 net.cpp:150] Setting up cls_pred
I0630 21:14:12.951244   321 net.cpp:157] Top shape: 128 3 (384)
I0630 21:14:12.951246   321 net.cpp:165] Memory required for data: 5266408252
I0630 21:14:12.951251   321 layer_factory.hpp:77] Creating layer cls_pred_cls_pred_0_split
I0630 21:14:12.951258   321 net.cpp:100] Creating Layer cls_pred_cls_pred_0_split
I0630 21:14:12.951262   321 net.cpp:434] cls_pred_cls_pred_0_split <- cls_pred
I0630 21:14:12.951267   321 net.cpp:408] cls_pred_cls_pred_0_split -> cls_pred_cls_pred_0_split_0
I0630 21:14:12.951274   321 net.cpp:408] cls_pred_cls_pred_0_split -> cls_pred_cls_pred_0_split_1
I0630 21:14:12.951329   321 net.cpp:150] Setting up cls_pred_cls_pred_0_split
I0630 21:14:12.951335   321 net.cpp:157] Top shape: 128 3 (384)
I0630 21:14:12.951339   321 net.cpp:157] Top shape: 128 3 (384)
I0630 21:14:12.951344   321 net.cpp:165] Memory required for data: 5266411324
I0630 21:14:12.951346   321 layer_factory.hpp:77] Creating layer bbox_pred
I0630 21:14:12.951352   321 net.cpp:100] Creating Layer bbox_pred
I0630 21:14:12.951356   321 net.cpp:434] bbox_pred <- fc6_drop6_0_split_1
I0630 21:14:12.951361   321 net.cpp:408] bbox_pred -> bbox_pred
I0630 21:14:12.951668   321 net.cpp:150] Setting up bbox_pred
I0630 21:14:12.951673   321 net.cpp:157] Top shape: 128 12 (1536)
I0630 21:14:12.951673   321 net.cpp:165] Memory required for data: 5266417468
I0630 21:14:12.951679   321 layer_factory.hpp:77] Creating layer bbox_pred_bbox_pred_0_split
I0630 21:14:12.951683   321 net.cpp:100] Creating Layer bbox_pred_bbox_pred_0_split
I0630 21:14:12.951687   321 net.cpp:434] bbox_pred_bbox_pred_0_split <- bbox_pred
I0630 21:14:12.951692   321 net.cpp:408] bbox_pred_bbox_pred_0_split -> bbox_pred_bbox_pred_0_split_0
I0630 21:14:12.951699   321 net.cpp:408] bbox_pred_bbox_pred_0_split -> bbox_pred_bbox_pred_0_split_1
I0630 21:14:12.951740   321 net.cpp:150] Setting up bbox_pred_bbox_pred_0_split
I0630 21:14:12.951745   321 net.cpp:157] Top shape: 128 12 (1536)
I0630 21:14:12.951750   321 net.cpp:157] Top shape: 128 12 (1536)
I0630 21:14:12.951752   321 net.cpp:165] Memory required for data: 5266429756
I0630 21:14:12.951756   321 layer_factory.hpp:77] Creating layer loss_cls
I0630 21:14:12.951761   321 net.cpp:100] Creating Layer loss_cls
I0630 21:14:12.951766   321 net.cpp:434] loss_cls <- cls_pred_cls_pred_0_split_0
I0630 21:14:12.951771   321 net.cpp:434] loss_cls <- proposal_labels_proposal_info_1_split_0
…
I0630 21:14:12.974580   321 image_gt_data_layer.cpp:241] output label size 3 : 2,6,36,48
I0630 21:14:12.974637   321 image_gt_data_layer.cpp:241] output label size 4 : 2,6,18,24
I0630 21:14:12.974694   321 image_gt_data_layer.cpp:241] output label size 5 : 2,6,18,24
I0630 21:14:12.974751   321 image_gt_data_layer.cpp:241] output label size 6 : 2,6,9,12
I0630 21:14:12.974807   321 image_gt_data_layer.cpp:256] output gt boxes size: 1,7,1,1
I0630 21:14:12.974812   321 image_gt_data_layer.cpp:265]  --> has_mean_values_ = 1
I0630 21:14:12.993643   321 net.cpp:150] Setting up data
I0630 21:14:12.993664   321 net.cpp:157] Top shape: 2 4 576 768 (3538944)
I0630 21:14:12.993667   321 net.cpp:157] Top shape: 2 6 72 96 (82944)
I0630 21:14:12.993670   321 net.cpp:157] Top shape: 2 6 72 96 (82944)
I0630 21:14:12.993674   321 net.cpp:157] Top shape: 2 6 36 48 (20736)
I0630 21:14:12.993679   321 net.cpp:157] Top shape: 2 6 36 48 (20736)
I0630 21:14:12.993681   321 net.cpp:157] Top shape: 2 6 18 24 (5184)
I0630 21:14:12.993685   321 net.cpp:157] Top shape: 2 6 18 24 (5184)
I0630 21:14:12.993688   321 net.cpp:157] Top shape: 2 6 9 12 (1296)
I0630 21:14:12.993692   321 net.cpp:157] Top shape: 1 7 1 1 (7)
I0630 21:14:12.993695   321 net.cpp:165] Memory required for data: 15031900
I0630 21:14:12.993700   321 layer_factory.hpp:77] Creating layer label_1_3x5_data_1_split
I0630 21:14:12.993711   321 net.cpp:100] Creating Layer label_1_3x5_data_1_split
I0630 21:14:12.993716   321 net.cpp:434] label_1_3x5_data_1_split <- label_1_3x5
I0630 21:14:12.993726   321 net.cpp:408] label_1_3x5_data_1_split -> label_1_3x5_data_1_split_0
I0630 21:14:12.993734   321 net.cpp:408] label_1_3x5_data_1_split -> label_1_3x5_data_1_split_1
I0630 21:14:12.993801   321 net.cpp:150] Setting up label_1_3x5_data_1_split
I0630 21:14:12.993808   321 net.cpp:157] Top shape: 2 6 72 96 (82944)
I0630 21:14:12.993813   321 net.cpp:157] Top shape: 2 6 72 96 (82944)
I0630 21:14:12.993815   321 net.cpp:165] Memory required for data: 15695452
I0630 21:14:12.993818   321 layer_factory.hpp:77] Creating layer label_1_5x7_data_2_split
I0630 21:14:12.993825   321 net.cpp:100] Creating Layer label_1_5x7_data_2_split
I0630 21:14:12.993829   321 net.cpp:434] label_1_5x7_data_2_split <- label_1_5x7
I0630 21:14:12.993835   321 net.cpp:408] label_1_5x7_data_2_split -> label_1_5x7_data_2_split_0
I0630 21:14:12.993841   321 net.cpp:408] label_1_5x7_data_2_split -> label_1_5x7_data_2_split_1
I0630 21:14:12.993885   321 net.cpp:150] Setting up label_1_5x7_data_2_split
I0630 21:14:12.993892   321 net.cpp:157] Top shape: 2 6 72 96 (82944)
I0630 21:14:12.993896   321 net.cpp:157] Top shape: 2 6 72 96 (82944)
I0630 21:14:12.993898   321 net.cpp:165] Memory required for data: 16359004
I0630 21:14:12.993901   321 layer_factory.hpp:77] Creating layer label_2_3x5_data_3_split
I0630 21:14:12.993906   321 net.cpp:100] Creating Layer label_2_3x5_data_3_split
I0630 21:14:12.993909   321 net.cpp:434] label_2_3x5_data_3_split <- label_2_3x5
I0630 21:14:12.993916   321 net.cpp:408] label_2_3x5_data_3_split -> label_2_3x5_data_3_split_0
I0630 21:14:12.993921   321 net.cpp:408] label_2_3x5_data_3_split -> label_2_3x5_data_3_split_1
I0630 21:14:12.993963   321 net.cpp:150] Setting up label_2_3x5_data_3_split
I0630 21:14:12.993968   321 net.cpp:157] Top shape: 2 6 36 48 (20736)
I0630 21:14:12.993971   321 net.cpp:157] Top shape: 2 6 36 48 (20736)
I0630 21:14:12.993974   321 net.cpp:165] Memory required for data: 16524892
I0630 21:14:12.993978   321 layer_factory.hpp:77] Creating layer label_2_5x7_data_4_split
I0630 21:14:12.993983   321 net.cpp:100] Creating Layer label_2_5x7_data_4_split
I0630 21:14:12.993988   321 net.cpp:434] label_2_5x7_data_4_split <- label_2_5x7
I0630 21:14:12.993993   321 net.cpp:408] label_2_5x7_data_4_split -> label_2_5x7_data_4_split_0
I0630 21:14:12.993999   321 net.cpp:408] label_2_5x7_data_4_split -> label_2_5x7_data_4_split_1
I0630 21:14:12.994043   321 net.cpp:150] Setting up label_2_5x7_data_4_split
I0630 21:14:12.994050   321 net.cpp:157] Top shape: 2 6 36 48 (20736)
I0630 21:14:12.994053   321 net.cpp:157] Top shape: 2 6 36 48 (20736)
I0630 21:14:12.994056   321 net.cpp:165] Memory required for data: 16690780
I0630 21:14:12.994060   321 layer_factory.hpp:77] Creating layer label_3_3x5_data_5_split
I0630 21:14:12.994065   321 net.cpp:100] Creating Layer label_3_3x5_data_5_split
I0630 21:14:12.994068   321 net.cpp:434] label_3_3x5_data_5_split <- label_3_3x5
I0630 21:14:12.994073   321 net.cpp:408] label_3_3x5_data_5_split -> label_3_3x5_data_5_split_0
I0630 21:14:12.994078   321 net.cpp:408] label_3_3x5_data_5_split -> label_3_3x5_data_5_split_1
I0630 21:14:12.994118   321 net.cpp:150] Setting up label_3_3x5_data_5_split
I0630 21:14:12.994124   321 net.cpp:157] Top shape: 2 6 18 24 (5184)
I0630 21:14:12.994128   321 net.cpp:157] Top shape: 2 6 18 24 (5184)
I0630 21:14:12.994132   321 net.cpp:165] Memory required for data: 16732252
I0630 21:14:12.994134   321 layer_factory.hpp:77] Creating layer label_3_5x7_data_6_split
I0630 21:14:12.994138   321 net.cpp:100] Creating Layer label_3_5x7_data_6_split
I0630 21:14:12.994141   321 net.cpp:434] label_3_5x7_data_6_split <- label_3_5x7
I0630 21:14:12.994145   321 net.cpp:408] label_3_5x7_data_6_split -> label_3_5x7_data_6_split_0
I0630 21:14:12.994151   321 net.cpp:408] label_3_5x7_data_6_split -> label_3_5x7_data_6_split_1
I0630 21:14:12.994196   321 net.cpp:150] Setting up label_3_5x7_data_6_split
I0630 21:14:12.994202   321 net.cpp:157] Top shape: 2 6 18 24 (5184)
I0630 21:14:12.994206   321 net.cpp:157] Top shape: 2 6 18 24 (5184)
I0630 21:14:12.994208   321 net.cpp:165] Memory required for data: 16773724
I0630 21:14:12.994211   321 layer_factory.hpp:77] Creating layer label_4_3x5_data_7_split
I0630 21:14:12.994217   321 net.cpp:100] Creating Layer label_4_3x5_data_7_split
I0630 21:14:12.994220   321 net.cpp:434] label_4_3x5_data_7_split <- label_4_3x5
I0630 21:14:12.994225   321 net.cpp:408] label_4_3x5_data_7_split -> label_4_3x5_data_7_split_0
I0630 21:14:12.994230   321 net.cpp:408] label_4_3x5_data_7_split -> label_4_3x5_data_7_split_1
I0630 21:14:12.994274   321 net.cpp:150] Setting up label_4_3x5_data_7_split
I0630 21:14:12.994279   321 net.cpp:157] Top shape: 2 6 9 12 (1296)
I0630 21:14:12.994283   321 net.cpp:157] Top shape: 2 6 9 12 (1296)
I0630 21:14:12.994285   321 net.cpp:165] Memory required for data: 16784092
I0630 21:14:12.994288   321 layer_factory.hpp:77] Creating layer conv1_1
I0630 21:14:12.994300   321 net.cpp:100] Creating Layer conv1_1
I0630 21:14:12.994304   321 net.cpp:434] conv1_1 <- data
I0630 21:14:12.994309   321 net.cpp:408] conv1_1 -> conv1_1
I0630 21:14:12.999424   321 net.cpp:150] Setting up conv1_1
I0630 21:14:12.999447   321 net.cpp:157] Top shape: 2 64 576 768 (56623104)
I0630 21:14:12.999449   321 net.cpp:165] Memory required for data: 243276508
I0630 21:14:12.999464   321 layer_factory.hpp:77] Creating layer relu1_1
I0630 21:14:12.999476   321 net.cpp:100] Creating Layer relu1_1
I0630 21:14:12.999480   321 net.cpp:434] relu1_1 <- conv1_1
I0630 21:14:12.999486   321 net.cpp:395] relu1_1 -> conv1_1 (in-place)
I0630 21:14:12.999846   321 net.cpp:150] Setting up relu1_1
I0630 21:14:12.999853   321 net.cpp:157] Top shape: 2 64 576 768 (56623104)
I0630 21:14:12.999856   321 net.cpp:165] Memory required for data: 469768924
I0630 21:14:12.999860   321 layer_factory.hpp:77] Creating layer conv1_2
I0630 21:14:12.999869   321 net.cpp:100] Creating Layer conv1_2
I0630 21:14:12.999872   321 net.cpp:434] conv1_2 <- conv1_1
I0630 21:14:12.999879   321 net.cpp:408] conv1_2 -> conv1_2
I0630 21:14:13.002892   321 net.cpp:150] Setting up conv1_2
I0630 21:14:13.002913   321 net.cpp:157] Top shape: 2 64 576 768 (56623104)
I0630 21:14:13.002915   321 net.cpp:165] Memory required for data: 696261340
I0630 21:14:13.002929   321 layer_factory.hpp:77] Creating layer relu1_2
I0630 21:14:13.002939   321 net.cpp:100] Creating Layer relu1_2
I0630 21:14:13.002943   321 net.cpp:434] relu1_2 <- conv1_2
I0630 21:14:13.002950   321 net.cpp:395] relu1_2 -> conv1_2 (in-place)
I0630 21:14:13.003309   321 net.cpp:150] Setting up relu1_2
I0630 21:14:13.003316   321 net.cpp:157] Top shape: 2 64 576 768 (56623104)
I0630 21:14:13.003319   321 net.cpp:165] Memory required for data: 922753756
I0630 21:14:13.003320   321 layer_factory.hpp:77] Creating layer pool1
I0630 21:14:13.003325   321 net.cpp:100] Creating Layer pool1
I0630 21:14:13.003329   321 net.cpp:434] pool1 <- conv1_2
I0630 21:14:13.003335   321 net.cpp:408] pool1 -> pool1
I0630 21:14:13.003397   321 net.cpp:150] Setting up pool1
I0630 21:14:13.003406   321 net.cpp:157] Top shape: 2 64 288 384 (14155776)
I0630 21:14:13.003408   321 net.cpp:165] Memory required for data: 979376860
I0630 21:14:13.003412   321 layer_factory.hpp:77] Creating layer conv2_1
I0630 21:14:13.003418   321 net.cpp:100] Creating Layer conv2_1
I0630 21:14:13.003422   321 net.cpp:434] conv2_1 <- pool1
I0630 21:14:13.003428   321 net.cpp:408] conv2_1 -> conv2_1
I0630 21:14:13.005525   321 net.cpp:150] Setting up conv2_1
I0630 21:14:13.005540   321 net.cpp:157] Top shape: 2 128 288 384 (28311552)
I0630 21:14:13.005542   321 net.cpp:165] Memory required for data: 1092623068
I0630 21:14:13.005554   321 layer_factory.hpp:77] Creating layer relu2_1
I0630 21:14:13.005564   321 net.cpp:100] Creating Layer relu2_1
I0630 21:14:13.005568   321 net.cpp:434] relu2_1 <- conv2_1
I0630 21:14:13.005574   321 net.cpp:395] relu2_1 -> conv2_1 (in-place)
I0630 21:14:13.006301   321 net.cpp:150] Setting up relu2_1
I0630 21:14:13.006311   321 net.cpp:157] Top shape: 2 128 288 384 (28311552)
I0630 21:14:13.006314   321 net.cpp:165] Memory required for data: 1205869276
I0630 21:14:13.006316   321 layer_factory.hpp:77] Creating layer conv2_2
I0630 21:14:13.006326   321 net.cpp:100] Creating Layer conv2_2
I0630 21:14:13.006330   321 net.cpp:434] conv2_2 <- conv2_1
I0630 21:14:13.006336   321 net.cpp:408] conv2_2 -> conv2_2
I0630 21:14:13.009698   321 net.cpp:150] Setting up conv2_2
I0630 21:14:13.009716   321 net.cpp:157] Top shape: 2 128 288 384 (28311552)
I0630 21:14:13.009717   321 net.cpp:165] Memory required for data: 1319115484
I0630 21:14:13.009727   321 layer_factory.hpp:77] Creating layer relu2_2
I0630 21:14:13.009742   321 net.cpp:100] Creating Layer relu2_2
I0630 21:14:13.009747   321 net.cpp:434] relu2_2 <- conv2_2
I0630 21:14:13.009754   321 net.cpp:395] relu2_2 -> conv2_2 (in-place)
I0630 21:14:13.010123   321 net.cpp:150] Setting up relu2_2
I0630 21:14:13.010130   321 net.cpp:157] Top shape: 2 128 288 384 (28311552)
I0630 21:14:13.010133   321 net.cpp:165] Memory required for data: 1432361692
I0630 21:14:13.010135   321 layer_factory.hpp:77] Creating layer pool2
I0630 21:14:13.010143   321 net.cpp:100] Creating Layer pool2
I0630 21:14:13.010146   321 net.cpp:434] pool2 <- conv2_2
I0630 21:14:13.010152   321 net.cpp:408] pool2 -> pool2
I0630 21:14:13.010222   321 net.cpp:150] Setting up pool2
I0630 21:14:13.010231   321 net.cpp:157] Top shape: 2 128 144 192 (7077888)
I0630 21:14:13.010233   321 net.cpp:165] Memory required for data: 1460673244
I0630 21:14:13.010236   321 layer_factory.hpp:77] Creating layer conv3_1
I0630 21:14:13.010246   321 net.cpp:100] Creating Layer conv3_1
I0630 21:14:13.010248   321 net.cpp:434] conv3_1 <- pool2
I0630 21:14:13.010252   321 net.cpp:408] conv3_1 -> conv3_1
I0630 21:14:13.013692   321 net.cpp:150] Setting up conv3_1
I0630 21:14:13.013720   321 net.cpp:157] Top shape: 2 256 144 192 (14155776)
I0630 21:14:13.013721   321 net.cpp:165] Memory required for data: 1517296348
I0630 21:14:13.013741   321 layer_factory.hpp:77] Creating layer relu3_1
I0630 21:14:13.013756   321 net.cpp:100] Creating Layer relu3_1
I0630 21:14:13.013761   321 net.cpp:434] relu3_1 <- conv3_1
I0630 21:14:13.013770   321 net.cpp:395] relu3_1 -> conv3_1 (in-place)
I0630 21:14:13.014195   321 net.cpp:150] Setting up relu3_1
I0630 21:14:13.014206   321 net.cpp:157] Top shape: 2 256 144 192 (14155776)
I0630 21:14:13.014209   321 net.cpp:165] Memory required for data: 1573919452
I0630 21:14:13.014210   321 layer_factory.hpp:77] Creating layer conv3_2
I0630 21:14:13.014222   321 net.cpp:100] Creating Layer conv3_2
I0630 21:14:13.014226   321 net.cpp:434] conv3_2 <- conv3_1
I0630 21:14:13.014235   321 net.cpp:408] conv3_2 -> conv3_2
I0630 21:14:13.017957   321 net.cpp:150] Setting up conv3_2
I0630 21:14:13.017974   321 net.cpp:157] Top shape: 2 256 144 192 (14155776)
I0630 21:14:13.017976   321 net.cpp:165] Memory required for data: 1630542556
I0630 21:14:13.017984   321 layer_factory.hpp:77] Creating layer relu3_2
I0630 21:14:13.017993   321 net.cpp:100] Creating Layer relu3_2
I0630 21:14:13.017997   321 net.cpp:434] relu3_2 <- conv3_2
I0630 21:14:13.018004   321 net.cpp:395] relu3_2 -> conv3_2 (in-place)
I0630 21:14:13.018736   321 net.cpp:150] Setting up relu3_2
I0630 21:14:13.018745   321 net.cpp:157] Top shape: 2 256 144 192 (14155776)
I0630 21:14:13.018748   321 net.cpp:165] Memory required for data: 1687165660
I0630 21:14:13.018750   321 layer_factory.hpp:77] Creating layer conv3_3
I0630 21:14:13.018761   321 net.cpp:100] Creating Layer conv3_3
I0630 21:14:13.018764   321 net.cpp:434] conv3_3 <- conv3_2
I0630 21:14:13.018770   321 net.cpp:408] conv3_3 -> conv3_3
I0630 21:14:13.022109   321 net.cpp:150] Setting up conv3_3
I0630 21:14:13.022128   321 net.cpp:157] Top shape: 2 256 144 192 (14155776)
I0630 21:14:13.022131   321 net.cpp:165] Memory required for data: 1743788764
I0630 21:14:13.022140   321 layer_factory.hpp:77] Creating layer relu3_3
I0630 21:14:13.022148   321 net.cpp:100] Creating Layer relu3_3
I0630 21:14:13.022153   321 net.cpp:434] relu3_3 <- conv3_3
I0630 21:14:13.022161   321 net.cpp:395] relu3_3 -> conv3_3 (in-place)
I0630 21:14:13.022892   321 net.cpp:150] Setting up relu3_3
I0630 21:14:13.022902   321 net.cpp:157] Top shape: 2 256 144 192 (14155776)
I0630 21:14:13.022904   321 net.cpp:165] Memory required for data: 1800411868
I0630 21:14:13.022907   321 layer_factory.hpp:77] Creating layer pool3
I0630 21:14:13.022913   321 net.cpp:100] Creating Layer pool3
I0630 21:14:13.022917   321 net.cpp:434] pool3 <- conv3_3
I0630 21:14:13.022924   321 net.cpp:408] pool3 -> pool3
I0630 21:14:13.022994   321 net.cpp:150] Setting up pool3
I0630 21:14:13.023003   321 net.cpp:157] Top shape: 2 256 72 96 (3538944)
I0630 21:14:13.023006   321 net.cpp:165] Memory required for data: 1814567644
I0630 21:14:13.023010   321 layer_factory.hpp:77] Creating layer conv4_1
I0630 21:14:13.023017   321 net.cpp:100] Creating Layer conv4_1
I0630 21:14:13.023020   321 net.cpp:434] conv4_1 <- pool3
I0630 21:14:13.023027   321 net.cpp:408] conv4_1 -> conv4_1
I0630 21:14:13.027338   321 net.cpp:150] Setting up conv4_1
I0630 21:14:13.027359   321 net.cpp:157] Top shape: 2 512 72 96 (7077888)
I0630 21:14:13.027360   321 net.cpp:165] Memory required for data: 1842879196
I0630 21:14:13.027369   321 layer_factory.hpp:77] Creating layer relu4_1
I0630 21:14:13.027377   321 net.cpp:100] Creating Layer relu4_1
I0630 21:14:13.027381   321 net.cpp:434] relu4_1 <- conv4_1
I0630 21:14:13.027387   321 net.cpp:395] relu4_1 -> conv4_1 (in-place)
I0630 21:14:13.027699   321 net.cpp:150] Setting up relu4_1
I0630 21:14:13.027707   321 net.cpp:157] Top shape: 2 512 72 96 (7077888)
I0630 21:14:13.027709   321 net.cpp:165] Memory required for data: 1871190748
I0630 21:14:13.027712   321 layer_factory.hpp:77] Creating layer conv4_2
I0630 21:14:13.027720   321 net.cpp:100] Creating Layer conv4_2
I0630 21:14:13.027724   321 net.cpp:434] conv4_2 <- conv4_1
I0630 21:14:13.027731   321 net.cpp:408] conv4_2 -> conv4_2
I0630 21:14:13.035745   321 net.cpp:150] Setting up conv4_2
I0630 21:14:13.035778   321 net.cpp:157] Top shape: 2 512 72 96 (7077888)
I0630 21:14:13.035784   321 net.cpp:165] Memory required for data: 1899502300
I0630 21:14:13.035810   321 layer_factory.hpp:77] Creating layer relu4_2
I0630 21:14:13.035826   321 net.cpp:100] Creating Layer relu4_2
I0630 21:14:13.035832   321 net.cpp:434] relu4_2 <- conv4_2
I0630 21:14:13.035842   321 net.cpp:395] relu4_2 -> conv4_2 (in-place)
I0630 21:14:13.036159   321 net.cpp:150] Setting up relu4_2
I0630 21:14:13.036168   321 net.cpp:157] Top shape: 2 512 72 96 (7077888)
I0630 21:14:13.036170   321 net.cpp:165] Memory required for data: 1927813852
I0630 21:14:13.036175   321 layer_factory.hpp:77] Creating layer conv4_3
I0630 21:14:13.036188   321 net.cpp:100] Creating Layer conv4_3
I0630 21:14:13.036192   321 net.cpp:434] conv4_3 <- conv4_2
I0630 21:14:13.036201   321 net.cpp:408] conv4_3 -> conv4_3
I0630 21:14:13.044200   321 net.cpp:150] Setting up conv4_3
I0630 21:14:13.044219   321 net.cpp:157] Top shape: 2 512 72 96 (7077888)
I0630 21:14:13.044221   321 net.cpp:165] Memory required for data: 1956125404
I0630 21:14:13.044231   321 layer_factory.hpp:77] Creating layer relu4_3
I0630 21:14:13.044241   321 net.cpp:100] Creating Layer relu4_3
I0630 21:14:13.044250   321 net.cpp:434] relu4_3 <- conv4_3
I0630 21:14:13.044255   321 net.cpp:395] relu4_3 -> conv4_3 (in-place)
I0630 21:14:13.045006   321 net.cpp:150] Setting up relu4_3
I0630 21:14:13.045018   321 net.cpp:157] Top shape: 2 512 72 96 (7077888)
I0630 21:14:13.045020   321 net.cpp:165] Memory required for data: 1984436956
I0630 21:14:13.045024   321 layer_factory.hpp:77] Creating layer conv4_3_relu4_3_0_split
I0630 21:14:13.045032   321 net.cpp:100] Creating Layer conv4_3_relu4_3_0_split
I0630 21:14:13.045037   321 net.cpp:434] conv4_3_relu4_3_0_split <- conv4_3
I0630 21:14:13.045042   321 net.cpp:408] conv4_3_relu4_3_0_split -> conv4_3_relu4_3_0_split_0
I0630 21:14:13.045053   321 net.cpp:408] conv4_3_relu4_3_0_split -> conv4_3_relu4_3_0_split_1
I0630 21:14:13.045058   321 net.cpp:408] conv4_3_relu4_3_0_split -> conv4_3_relu4_3_0_split_2
I0630 21:14:13.045123   321 net.cpp:150] Setting up conv4_3_relu4_3_0_split
I0630 21:14:13.045128   321 net.cpp:157] Top shape: 2 512 72 96 (7077888)
I0630 21:14:13.045132   321 net.cpp:157] Top shape: 2 512 72 96 (7077888)
I0630 21:14:13.045136   321 net.cpp:157] Top shape: 2 512 72 96 (7077888)
I0630 21:14:13.045140   321 net.cpp:165] Memory required for data: 2069371612
I0630 21:14:13.045142   321 layer_factory.hpp:77] Creating layer loss1_conv1
I0630 21:14:13.045159   321 net.cpp:100] Creating Layer loss1_conv1
I0630 21:14:13.045163   321 net.cpp:434] loss1_conv1 <- conv4_3_relu4_3_0_split_0
I0630 21:14:13.045169   321 net.cpp:408] loss1_conv1 -> loss1_conv1
I0630 21:14:13.066833   321 net.cpp:150] Setting up loss1_conv1
I0630 21:14:13.066854   321 net.cpp:157] Top shape: 2 512 72 96 (7077888)
I0630 21:14:13.066857   321 net.cpp:165] Memory required for data: 2097683164
I0630 21:14:13.066866   321 layer_factory.hpp:77] Creating layer loss_relu1
I0630 21:14:13.066879   321 net.cpp:100] Creating Layer loss_relu1
I0630 21:14:13.066884   321 net.cpp:434] loss_relu1 <- loss1_conv1
I0630 21:14:13.066890   321 net.cpp:395] loss_relu1 -> loss1_conv1 (in-place)
I0630 21:14:13.067162   321 net.cpp:150] Setting up loss_relu1
I0630 21:14:13.067171   321 net.cpp:157] Top shape: 2 512 72 96 (7077888)
I0630 21:14:13.067173   321 net.cpp:165] Memory required for data: 2125994716
I0630 21:14:13.067178   321 layer_factory.hpp:77] Creating layer loss1_conv1_loss_relu1_0_split
I0630 21:14:13.067183   321 net.cpp:100] Creating Layer loss1_conv1_loss_relu1_0_split
I0630 21:14:13.067188   321 net.cpp:434] loss1_conv1_loss_relu1_0_split <- loss1_conv1
I0630 21:14:13.067194   321 net.cpp:408] loss1_conv1_loss_relu1_0_split -> loss1_conv1_loss_relu1_0_split_0
I0630 21:14:13.067201   321 net.cpp:408] loss1_conv1_loss_relu1_0_split -> loss1_conv1_loss_relu1_0_split_1
I0630 21:14:13.067250   321 net.cpp:150] Setting up loss1_conv1_loss_relu1_0_split
I0630 21:14:13.067256   321 net.cpp:157] Top shape: 2 512 72 96 (7077888)
I0630 21:14:13.067260   321 net.cpp:157] Top shape: 2 512 72 96 (7077888)
I0630 21:14:13.067263   321 net.cpp:165] Memory required for data: 2182617820
I0630 21:14:13.067266   321 layer_factory.hpp:77] Creating layer LFCN_1_3x5
I0630 21:14:13.067276   321 net.cpp:100] Creating Layer LFCN_1_3x5
I0630 21:14:13.067281   321 net.cpp:434] LFCN_1_3x5 <- loss1_conv1_loss_relu1_0_split_0
I0630 21:14:13.067286   321 net.cpp:408] LFCN_1_3x5 -> LFCN_1_3x5
I0630 21:14:13.069702   321 net.cpp:150] Setting up LFCN_1_3x5
I0630 21:14:13.069717   321 net.cpp:157] Top shape: 2 7 72 96 (96768)
I0630 21:14:13.069720   321 net.cpp:165] Memory required for data: 2183004892
I0630 21:14:13.069730   321 layer_factory.hpp:77] Creating layer LFCN_1_3x5_LFCN_1_3x5_0_split
I0630 21:14:13.069737   321 net.cpp:100] Creating Layer LFCN_1_3x5_LFCN_1_3x5_0_split
I0630 21:14:13.069741   321 net.cpp:434] LFCN_1_3x5_LFCN_1_3x5_0_split <- LFCN_1_3x5
I0630 21:14:13.069748   321 net.cpp:408] LFCN_1_3x5_LFCN_1_3x5_0_split -> LFCN_1_3x5_LFCN_1_3x5_0_split_0
I0630 21:14:13.069757   321 net.cpp:408] LFCN_1_3x5_LFCN_1_3x5_0_split -> LFCN_1_3x5_LFCN_1_3x5_0_split_1
I0630 21:14:13.069763   321 net.cpp:408] LFCN_1_3x5_LFCN_1_3x5_0_split -> LFCN_1_3x5_LFCN_1_3x5_0_split_2
I0630 21:14:13.069825   321 net.cpp:150] Setting up LFCN_1_3x5_LFCN_1_3x5_0_split
I0630 21:14:13.069833   321 net.cpp:157] Top shape: 2 7 72 96 (96768)
I0630 21:14:13.069835   321 net.cpp:157] Top shape: 2 7 72 96 (96768)
I0630 21:14:13.069839   321 net.cpp:157] Top shape: 2 7 72 96 (96768)
I0630 21:14:13.069842   321 net.cpp:165] Memory required for data: 2184166108
I0630 21:14:13.069845   321 layer_factory.hpp:77] Creating layer detection_loss_1_3x5
I0630 21:14:13.069854   321 net.cpp:100] Creating Layer detection_loss_1_3x5
I0630 21:14:13.069856   321 net.cpp:434] detection_loss_1_3x5 <- LFCN_1_3x5_LFCN_1_3x5_0_split_0
I0630 21:14:13.069861   321 net.cpp:434] detection_loss_1_3x5 <- label_1_3x5_data_1_split_0
I0630 21:14:13.069866   321 net.cpp:408] detection_loss_1_3x5 -> loss_1_3x5
I0630 21:14:13.069875   321 layer_factory.hpp:77] Creating layer detection_loss_1_3x5
I0630 21:14:13.070329   321 net.cpp:150] Setting up detection_loss_1_3x5
I0630 21:14:13.070336   321 net.cpp:157] Top shape: 1 1 1 2 (2)
I0630 21:14:13.070339   321 net.cpp:160]     with loss weight 0.5
I0630 21:14:13.070348   321 net.cpp:165] Memory required for data: 2184166116
I0630 21:14:13.070353   321 layer_factory.hpp:77] Creating layer detection_accuracy_1_3x5
I0630 21:14:13.070358   321 net.cpp:100] Creating Layer detection_accuracy_1_3x5
I0630 21:14:13.070363   321 net.cpp:434] detection_accuracy_1_3x5 <- LFCN_1_3x5_LFCN_1_3x5_0_split_1
I0630 21:14:13.070367   321 net.cpp:434] detection_accuracy_1_3x5 <- label_1_3x5_data_1_split_1
I0630 21:14:13.070374   321 net.cpp:408] detection_accuracy_1_3x5 -> accuracy_1_3x5
I0630 21:14:13.070380   321 net.cpp:408] detection_accuracy_1_3x5 -> boxiou_1_3x5
I0630 21:14:13.070430   321 net.cpp:150] Setting up detection_accuracy_1_3x5
I0630 21:14:13.070436   321 net.cpp:157] Top shape: 1 1 1 2 (2)
I0630 21:14:13.070439   321 net.cpp:157] Top shape: 1 1 1 1 (1)
I0630 21:14:13.070441   321 net.cpp:165] Memory required for data: 2184166128
I0630 21:14:13.070444   321 layer_factory.hpp:77] Creating layer LFCN_1_5x7
I0630 21:14:13.070454   321 net.cpp:100] Creating Layer LFCN_1_5x7
I0630 21:14:13.070458   321 net.cpp:434] LFCN_1_5x7 <- loss1_conv1_loss_relu1_0_split_1
I0630 21:14:13.070466   321 net.cpp:408] LFCN_1_5x7 -> LFCN_1_5x7
I0630 21:14:13.074434   321 net.cpp:150] Setting up LFCN_1_5x7
I0630 21:14:13.074561   321 net.cpp:157] Top shape: 2 7 72 96 (96768)
I0630 21:14:13.074615   321 net.cpp:165] Memory required for data: 2184553200
I0630 21:14:13.074671   321 layer_factory.hpp:77] Creating layer LFCN_1_5x7_LFCN_1_5x7_0_split
I0630 21:14:13.074731   321 net.cpp:100] Creating Layer LFCN_1_5x7_LFCN_1_5x7_0_split
I0630 21:14:13.074781   321 net.cpp:434] LFCN_1_5x7_LFCN_1_5x7_0_split <- LFCN_1_5x7
I0630 21:14:13.074834   321 net.cpp:408] LFCN_1_5x7_LFCN_1_5x7_0_split -> LFCN_1_5x7_LFCN_1_5x7_0_split_0
I0630 21:14:13.074895   321 net.cpp:408] LFCN_1_5x7_LFCN_1_5x7_0_split -> LFCN_1_5x7_LFCN_1_5x7_0_split_1
I0630 21:14:13.074951   321 net.cpp:408] LFCN_1_5x7_LFCN_1_5x7_0_split -> LFCN_1_5x7_LFCN_1_5x7_0_split_2
I0630 21:14:13.075096   321 net.cpp:150] Setting up LFCN_1_5x7_LFCN_1_5x7_0_split
I0630 21:14:13.075105   321 net.cpp:157] Top shape: 2 7 72 96 (96768)
I0630 21:14:13.075109   321 net.cpp:157] Top shape: 2 7 72 96 (96768)
I0630 21:14:13.075114   321 net.cpp:157] Top shape: 2 7 72 96 (96768)
I0630 21:14:13.075115   321 net.cpp:165] Memory required for data: 2185714416
I0630 21:14:13.075119   321 layer_factory.hpp:77] Creating layer detection_loss_1_5x7
I0630 21:14:13.075126   321 net.cpp:100] Creating Layer detection_loss_1_5x7
I0630 21:14:13.075130   321 net.cpp:434] detection_loss_1_5x7 <- LFCN_1_5x7_LFCN_1_5x7_0_split_0
I0630 21:14:13.075135   321 net.cpp:434] detection_loss_1_5x7 <- label_1_5x7_data_2_split_0
I0630 21:14:13.075142   321 net.cpp:408] detection_loss_1_5x7 -> loss_1_5x7
I0630 21:14:13.075150   321 layer_factory.hpp:77] Creating layer detection_loss_1_5x7
I0630 21:14:13.076365   321 net.cpp:150] Setting up detection_loss_1_5x7
I0630 21:14:13.076390   321 net.cpp:157] Top shape: 1 1 1 2 (2)
I0630 21:14:13.076392   321 net.cpp:160]     with loss weight 0.9
I0630 21:14:13.076408   321 net.cpp:165] Memory required for data: 2185714424
I0630 21:14:13.076414   321 layer_factory.hpp:77] Creating layer detection_accuracy_1_5x7
I0630 21:14:13.076431   321 net.cpp:100] Creating Layer detection_accuracy_1_5x7
I0630 21:14:13.076436   321 net.cpp:434] detection_accuracy_1_5x7 <- LFCN_1_5x7_LFCN_1_5x7_0_split_1
I0630 21:14:13.076444   321 net.cpp:434] detection_accuracy_1_5x7 <- label_1_5x7_data_2_split_1
I0630 21:14:13.076449   321 net.cpp:408] detection_accuracy_1_5x7 -> accuracy_1_5x7
I0630 21:14:13.076459   321 net.cpp:408] detection_accuracy_1_5x7 -> boxiou_1_5x7
I0630 21:14:13.076512   321 net.cpp:150] Setting up detection_accuracy_1_5x7
I0630 21:14:13.076519   321 net.cpp:157] Top shape: 1 1 1 2 (2)
I0630 21:14:13.076522   321 net.cpp:157] Top shape: 1 1 1 1 (1)
I0630 21:14:13.076524   321 net.cpp:165] Memory required for data: 2185714436
I0630 21:14:13.076527   321 layer_factory.hpp:77] Creating layer pool4
I0630 21:14:13.076535   321 net.cpp:100] Creating Layer pool4
I0630 21:14:13.076539   321 net.cpp:434] pool4 <- conv4_3_relu4_3_0_split_1
I0630 21:14:13.076545   321 net.cpp:408] pool4 -> pool4
I0630 21:14:13.076602   321 net.cpp:150] Setting up pool4
I0630 21:14:13.076609   321 net.cpp:157] Top shape: 2 512 36 48 (1769472)
I0630 21:14:13.076612   321 net.cpp:165] Memory required for data: 2192792324
I0630 21:14:13.076616   321 layer_factory.hpp:77] Creating layer conv5_1
I0630 21:14:13.076622   321 net.cpp:100] Creating Layer conv5_1
I0630 21:14:13.076627   321 net.cpp:434] conv5_1 <- pool4
I0630 21:14:13.076632   321 net.cpp:408] conv5_1 -> conv5_1
I0630 21:14:13.085405   321 net.cpp:150] Setting up conv5_1
I0630 21:14:13.085425   321 net.cpp:157] Top shape: 2 512 36 48 (1769472)
I0630 21:14:13.085428   321 net.cpp:165] Memory required for data: 2199870212
I0630 21:14:13.085440   321 layer_factory.hpp:77] Creating layer relu5_1
I0630 21:14:13.085449   321 net.cpp:100] Creating Layer relu5_1
I0630 21:14:13.085454   321 net.cpp:434] relu5_1 <- conv5_1
I0630 21:14:13.085463   321 net.cpp:395] relu5_1 -> conv5_1 (in-place)
I0630 21:14:13.085737   321 net.cpp:150] Setting up relu5_1
I0630 21:14:13.085744   321 net.cpp:157] Top shape: 2 512 36 48 (1769472)
I0630 21:14:13.085747   321 net.cpp:165] Memory required for data: 2206948100
I0630 21:14:13.085750   321 layer_factory.hpp:77] Creating layer conv5_2
I0630 21:14:13.085760   321 net.cpp:100] Creating Layer conv5_2
I0630 21:14:13.085765   321 net.cpp:434] conv5_2 <- conv5_1
I0630 21:14:13.085772   321 net.cpp:408] conv5_2 -> conv5_2
I0630 21:14:13.091995   321 net.cpp:150] Setting up conv5_2
I0630 21:14:13.092015   321 net.cpp:157] Top shape: 2 512 36 48 (1769472)
I0630 21:14:13.092017   321 net.cpp:165] Memory required for data: 2214025988
I0630 21:14:13.092026   321 layer_factory.hpp:77] Creating layer relu5_2
I0630 21:14:13.092037   321 net.cpp:100] Creating Layer relu5_2
I0630 21:14:13.092041   321 net.cpp:434] relu5_2 <- conv5_2
I0630 21:14:13.092048   321 net.cpp:395] relu5_2 -> conv5_2 (in-place)
I0630 21:14:13.092329   321 net.cpp:150] Setting up relu5_2
I0630 21:14:13.092339   321 net.cpp:157] Top shape: 2 512 36 48 (1769472)
I0630 21:14:13.092341   321 net.cpp:165] Memory required for data: 2221103876
I0630 21:14:13.092344   321 layer_factory.hpp:77] Creating layer conv5_3
I0630 21:14:13.092351   321 net.cpp:100] Creating Layer conv5_3
I0630 21:14:13.092355   321 net.cpp:434] conv5_3 <- conv5_2
I0630 21:14:13.092362   321 net.cpp:408] conv5_3 -> conv5_3
I0630 21:14:13.098165   321 net.cpp:150] Setting up conv5_3
I0630 21:14:13.098294   321 net.cpp:157] Top shape: 2 512 36 48 (1769472)
I0630 21:14:13.098347   321 net.cpp:165] Memory required for data: 2228181764
I0630 21:14:13.098403   321 layer_factory.hpp:77] Creating layer relu5_3
I0630 21:14:13.098451   321 net.cpp:100] Creating Layer relu5_3
I0630 21:14:13.098492   321 net.cpp:434] relu5_3 <- conv5_3
I0630 21:14:13.098536   321 net.cpp:395] relu5_3 -> conv5_3 (in-place)
I0630 21:14:13.099730   321 net.cpp:150] Setting up relu5_3
I0630 21:14:13.099795   321 net.cpp:157] Top shape: 2 512 36 48 (1769472)
I0630 21:14:13.099840   321 net.cpp:165] Memory required for data: 2235259652
I0630 21:14:13.099882   321 layer_factory.hpp:77] Creating layer conv5_3_relu5_3_0_split
I0630 21:14:13.099931   321 net.cpp:100] Creating Layer conv5_3_relu5_3_0_split
I0630 21:14:13.099972   321 net.cpp:434] conv5_3_relu5_3_0_split <- conv5_3
I0630 21:14:13.100019   321 net.cpp:408] conv5_3_relu5_3_0_split -> conv5_3_relu5_3_0_split_0
I0630 21:14:13.100069   321 net.cpp:408] conv5_3_relu5_3_0_split -> conv5_3_relu5_3_0_split_1
I0630 21:14:13.100116   321 net.cpp:408] conv5_3_relu5_3_0_split -> conv5_3_relu5_3_0_split_2
I0630 21:14:13.100256   321 net.cpp:150] Setting up conv5_3_relu5_3_0_split
I0630 21:14:13.100301   321 net.cpp:157] Top shape: 2 512 36 48 (1769472)
I0630 21:14:13.100342   321 net.cpp:157] Top shape: 2 512 36 48 (1769472)
I0630 21:14:13.100383   321 net.cpp:157] Top shape: 2 512 36 48 (1769472)
I0630 21:14:13.100423   321 net.cpp:165] Memory required for data: 2256493316
I0630 21:14:13.100463   321 layer_factory.hpp:77] Creating layer LFCN_2_3x5
I0630 21:14:13.100478   321 net.cpp:100] Creating Layer LFCN_2_3x5
I0630 21:14:13.100482   321 net.cpp:434] LFCN_2_3x5 <- conv5_3_relu5_3_0_split_0
I0630 21:14:13.100492   321 net.cpp:408] LFCN_2_3x5 -> LFCN_2_3x5
I0630 21:14:13.103934   321 net.cpp:150] Setting up LFCN_2_3x5
I0630 21:14:13.103953   321 net.cpp:157] Top shape: 2 7 36 48 (24192)
I0630 21:14:13.103956   321 net.cpp:165] Memory required for data: 2256590084
I0630 21:14:13.103971   321 layer_factory.hpp:77] Creating layer LFCN_2_3x5_LFCN_2_3x5_0_split
I0630 21:14:13.103981   321 net.cpp:100] Creating Layer LFCN_2_3x5_LFCN_2_3x5_0_split
I0630 21:14:13.103986   321 net.cpp:434] LFCN_2_3x5_LFCN_2_3x5_0_split <- LFCN_2_3x5
I0630 21:14:13.103992   321 net.cpp:408] LFCN_2_3x5_LFCN_2_3x5_0_split -> LFCN_2_3x5_LFCN_2_3x5_0_split_0
I0630 21:14:13.104010   321 net.cpp:408] LFCN_2_3x5_LFCN_2_3x5_0_split -> LFCN_2_3x5_LFCN_2_3x5_0_split_1
I0630 21:14:13.104017   321 net.cpp:408] LFCN_2_3x5_LFCN_2_3x5_0_split -> LFCN_2_3x5_LFCN_2_3x5_0_split_2
I0630 21:14:13.104080   321 net.cpp:150] Setting up LFCN_2_3x5_LFCN_2_3x5_0_split
I0630 21:14:13.104087   321 net.cpp:157] Top shape: 2 7 36 48 (24192)
I0630 21:14:13.104091   321 net.cpp:157] Top shape: 2 7 36 48 (24192)
I0630 21:14:13.104095   321 net.cpp:157] Top shape: 2 7 36 48 (24192)
I0630 21:14:13.104097   321 net.cpp:165] Memory required for data: 2256880388
I0630 21:14:13.104100   321 layer_factory.hpp:77] Creating layer detection_loss_2_3x5
I0630 21:14:13.104107   321 net.cpp:100] Creating Layer detection_loss_2_3x5
I0630 21:14:13.104111   321 net.cpp:434] detection_loss_2_3x5 <- LFCN_2_3x5_LFCN_2_3x5_0_split_0
I0630 21:14:13.104116   321 net.cpp:434] detection_loss_2_3x5 <- label_2_3x5_data_3_split_0
I0630 21:14:13.104121   321 net.cpp:408] detection_loss_2_3x5 -> loss_2_3x5
I0630 21:14:13.104130   321 layer_factory.hpp:77] Creating layer detection_loss_2_3x5
I0630 21:14:13.105089   321 net.cpp:150] Setting up detection_loss_2_3x5
I0630 21:14:13.105099   321 net.cpp:157] Top shape: 1 1 1 2 (2)
I0630 21:14:13.105103   321 net.cpp:160]     with loss weight 1
I0630 21:14:13.105111   321 net.cpp:165] Memory required for data: 2256880396
I0630 21:14:13.105115   321 layer_factory.hpp:77] Creating layer detection_accuracy_2_3x5
I0630 21:14:13.105123   321 net.cpp:100] Creating Layer detection_accuracy_2_3x5
I0630 21:14:13.105128   321 net.cpp:434] detection_accuracy_2_3x5 <- LFCN_2_3x5_LFCN_2_3x5_0_split_1
I0630 21:14:13.105134   321 net.cpp:434] detection_accuracy_2_3x5 <- label_2_3x5_data_3_split_1
I0630 21:14:13.105142   321 net.cpp:408] detection_accuracy_2_3x5 -> accuracy_2_3x5
I0630 21:14:13.105150   321 net.cpp:408] detection_accuracy_2_3x5 -> boxiou_2_3x5
I0630 21:14:13.105201   321 net.cpp:150] Setting up detection_accuracy_2_3x5
I0630 21:14:13.105206   321 net.cpp:157] Top shape: 1 1 1 2 (2)
I0630 21:14:13.105209   321 net.cpp:157] Top shape: 1 1 1 1 (1)
I0630 21:14:13.105212   321 net.cpp:165] Memory required for data: 2256880408
I0630 21:14:13.105216   321 layer_factory.hpp:77] Creating layer LFCN_2_5x7
I0630 21:14:13.105237   321 net.cpp:100] Creating Layer LFCN_2_5x7
I0630 21:14:13.105242   321 net.cpp:434] LFCN_2_5x7 <- conv5_3_relu5_3_0_split_1
I0630 21:14:13.105248   321 net.cpp:408] LFCN_2_5x7 -> LFCN_2_5x7
I0630 21:14:13.108170   321 net.cpp:150] Setting up LFCN_2_5x7
I0630 21:14:13.108186   321 net.cpp:157] Top shape: 2 7 36 48 (24192)
I0630 21:14:13.108188   321 net.cpp:165] Memory required for data: 2256977176
I0630 21:14:13.108196   321 layer_factory.hpp:77] Creating layer LFCN_2_5x7_LFCN_2_5x7_0_split
I0630 21:14:13.108206   321 net.cpp:100] Creating Layer LFCN_2_5x7_LFCN_2_5x7_0_split
I0630 21:14:13.108211   321 net.cpp:434] LFCN_2_5x7_LFCN_2_5x7_0_split <- LFCN_2_5x7
I0630 21:14:13.108218   321 net.cpp:408] LFCN_2_5x7_LFCN_2_5x7_0_split -> LFCN_2_5x7_LFCN_2_5x7_0_split_0
I0630 21:14:13.108229   321 net.cpp:408] LFCN_2_5x7_LFCN_2_5x7_0_split -> LFCN_2_5x7_LFCN_2_5x7_0_split_1
I0630 21:14:13.108235   321 net.cpp:408] LFCN_2_5x7_LFCN_2_5x7_0_split -> LFCN_2_5x7_LFCN_2_5x7_0_split_2
I0630 21:14:13.108304   321 net.cpp:150] Setting up LFCN_2_5x7_LFCN_2_5x7_0_split
I0630 21:14:13.108310   321 net.cpp:157] Top shape: 2 7 36 48 (24192)
I0630 21:14:13.108314   321 net.cpp:157] Top shape: 2 7 36 48 (24192)
I0630 21:14:13.108319   321 net.cpp:157] Top shape: 2 7 36 48 (24192)
I0630 21:14:13.108320   321 net.cpp:165] Memory required for data: 2257267480
I0630 21:14:13.108323   321 layer_factory.hpp:77] Creating layer detection_loss_2_5x7
I0630 21:14:13.108331   321 net.cpp:100] Creating Layer detection_loss_2_5x7
I0630 21:14:13.108335   321 net.cpp:434] detection_loss_2_5x7 <- LFCN_2_5x7_LFCN_2_5x7_0_split_0
I0630 21:14:13.108340   321 net.cpp:434] detection_loss_2_5x7 <- label_2_5x7_data_4_split_0
I0630 21:14:13.108347   321 net.cpp:408] detection_loss_2_5x7 -> loss_2_5x7
I0630 21:14:13.108355   321 layer_factory.hpp:77] Creating layer detection_loss_2_5x7
I0630 21:14:13.108840   321 net.cpp:150] Setting up detection_loss_2_5x7
I0630 21:14:13.108847   321 net.cpp:157] Top shape: 1 1 1 2 (2)
I0630 21:14:13.108850   321 net.cpp:160]     with loss weight 1
I0630 21:14:13.108860   321 net.cpp:165] Memory required for data: 2257267488
I0630 21:14:13.108862   321 layer_factory.hpp:77] Creating layer detection_accuracy_2_5x7
I0630 21:14:13.108870   321 net.cpp:100] Creating Layer detection_accuracy_2_5x7
I0630 21:14:13.108875   321 net.cpp:434] detection_accuracy_2_5x7 <- LFCN_2_5x7_LFCN_2_5x7_0_split_1
I0630 21:14:13.108880   321 net.cpp:434] detection_accuracy_2_5x7 <- label_2_5x7_data_4_split_1
I0630 21:14:13.108886   321 net.cpp:408] detection_accuracy_2_5x7 -> accuracy_2_5x7
I0630 21:14:13.108894   321 net.cpp:408] detection_accuracy_2_5x7 -> boxiou_2_5x7
I0630 21:14:13.108942   321 net.cpp:150] Setting up detection_accuracy_2_5x7
I0630 21:14:13.108947   321 net.cpp:157] Top shape: 1 1 1 2 (2)
I0630 21:14:13.108952   321 net.cpp:157] Top shape: 1 1 1 1 (1)
I0630 21:14:13.108954   321 net.cpp:165] Memory required for data: 2257267500
I0630 21:14:13.108958   321 layer_factory.hpp:77] Creating layer pool5
I0630 21:14:13.108963   321 net.cpp:100] Creating Layer pool5
I0630 21:14:13.108966   321 net.cpp:434] pool5 <- conv5_3_relu5_3_0_split_2
I0630 21:14:13.108973   321 net.cpp:408] pool5 -> pool5
I0630 21:14:13.109017   321 net.cpp:150] Setting up pool5
I0630 21:14:13.109024   321 net.cpp:157] Top shape: 2 512 18 24 (442368)
I0630 21:14:13.109025   321 net.cpp:165] Memory required for data: 2259036972
I0630 21:14:13.109028   321 layer_factory.hpp:77] Creating layer conv6_1
I0630 21:14:13.109040   321 net.cpp:100] Creating Layer conv6_1
I0630 21:14:13.109045   321 net.cpp:434] conv6_1 <- pool5
I0630 21:14:13.109051   321 net.cpp:408] conv6_1 -> conv6_1
I0630 21:14:13.131230   321 net.cpp:150] Setting up conv6_1
I0630 21:14:13.131247   321 net.cpp:157] Top shape: 2 512 18 24 (442368)
I0630 21:14:13.131249   321 net.cpp:165] Memory required for data: 2260806444
I0630 21:14:13.131258   321 layer_factory.hpp:77] Creating layer relu6_1
I0630 21:14:13.131268   321 net.cpp:100] Creating Layer relu6_1
I0630 21:14:13.131271   321 net.cpp:434] relu6_1 <- conv6_1
I0630 21:14:13.131278   321 net.cpp:395] relu6_1 -> conv6_1 (in-place)
I0630 21:14:13.131546   321 net.cpp:150] Setting up relu6_1
I0630 21:14:13.131554   321 net.cpp:157] Top shape: 2 512 18 24 (442368)
I0630 21:14:13.131557   321 net.cpp:165] Memory required for data: 2262575916
I0630 21:14:13.131561   321 layer_factory.hpp:77] Creating layer conv6_1_relu6_1_0_split
I0630 21:14:13.131567   321 net.cpp:100] Creating Layer conv6_1_relu6_1_0_split
I0630 21:14:13.131572   321 net.cpp:434] conv6_1_relu6_1_0_split <- conv6_1
I0630 21:14:13.131578   321 net.cpp:408] conv6_1_relu6_1_0_split -> conv6_1_relu6_1_0_split_0
I0630 21:14:13.131587   321 net.cpp:408] conv6_1_relu6_1_0_split -> conv6_1_relu6_1_0_split_1
I0630 21:14:13.131592   321 net.cpp:408] conv6_1_relu6_1_0_split -> conv6_1_relu6_1_0_split_2
I0630 21:14:13.131652   321 net.cpp:150] Setting up conv6_1_relu6_1_0_split
I0630 21:14:13.131659   321 net.cpp:157] Top shape: 2 512 18 24 (442368)
I0630 21:14:13.131662   321 net.cpp:157] Top shape: 2 512 18 24 (442368)
I0630 21:14:13.131666   321 net.cpp:157] Top shape: 2 512 18 24 (442368)
I0630 21:14:13.131669   321 net.cpp:165] Memory required for data: 2267884332
I0630 21:14:13.131671   321 layer_factory.hpp:77] Creating layer LFCN_3_3x5
I0630 21:14:13.131682   321 net.cpp:100] Creating Layer LFCN_3_3x5
I0630 21:14:13.131685   321 net.cpp:434] LFCN_3_3x5 <- conv6_1_relu6_1_0_split_0
I0630 21:14:13.131692   321 net.cpp:408] LFCN_3_3x5 -> LFCN_3_3x5
I0630 21:14:13.134053   321 net.cpp:150] Setting up LFCN_3_3x5
I0630 21:14:13.134065   321 net.cpp:157] Top shape: 2 7 18 24 (6048)
I0630 21:14:13.134068   321 net.cpp:165] Memory required for data: 2267908524
I0630 21:14:13.134076   321 layer_factory.hpp:77] Creating layer LFCN_3_3x5_LFCN_3_3x5_0_split
I0630 21:14:13.134095   321 net.cpp:100] Creating Layer LFCN_3_3x5_LFCN_3_3x5_0_split
I0630 21:14:13.134101   321 net.cpp:434] LFCN_3_3x5_LFCN_3_3x5_0_split <- LFCN_3_3x5
I0630 21:14:13.134107   321 net.cpp:408] LFCN_3_3x5_LFCN_3_3x5_0_split -> LFCN_3_3x5_LFCN_3_3x5_0_split_0
I0630 21:14:13.134116   321 net.cpp:408] LFCN_3_3x5_LFCN_3_3x5_0_split -> LFCN_3_3x5_LFCN_3_3x5_0_split_1
I0630 21:14:13.134124   321 net.cpp:408] LFCN_3_3x5_LFCN_3_3x5_0_split -> LFCN_3_3x5_LFCN_3_3x5_0_split_2
I0630 21:14:13.134181   321 net.cpp:150] Setting up LFCN_3_3x5_LFCN_3_3x5_0_split
I0630 21:14:13.134187   321 net.cpp:157] Top shape: 2 7 18 24 (6048)
I0630 21:14:13.134191   321 net.cpp:157] Top shape: 2 7 18 24 (6048)
I0630 21:14:13.134194   321 net.cpp:157] Top shape: 2 7 18 24 (6048)
I0630 21:14:13.134197   321 net.cpp:165] Memory required for data: 2267981100
I0630 21:14:13.134202   321 layer_factory.hpp:77] Creating layer detection_loss_3_3x5
I0630 21:14:13.134207   321 net.cpp:100] Creating Layer detection_loss_3_3x5
I0630 21:14:13.134212   321 net.cpp:434] detection_loss_3_3x5 <- LFCN_3_3x5_LFCN_3_3x5_0_split_0
I0630 21:14:13.134217   321 net.cpp:434] detection_loss_3_3x5 <- label_3_3x5_data_5_split_0
I0630 21:14:13.134224   321 net.cpp:408] detection_loss_3_3x5 -> loss_3_3x5
I0630 21:14:13.134234   321 layer_factory.hpp:77] Creating layer detection_loss_3_3x5
I0630 21:14:13.135144   321 net.cpp:150] Setting up detection_loss_3_3x5
I0630 21:14:13.135154   321 net.cpp:157] Top shape: 1 1 1 2 (2)
I0630 21:14:13.135156   321 net.cpp:160]     with loss weight 1
I0630 21:14:13.135164   321 net.cpp:165] Memory required for data: 2267981108
I0630 21:14:13.135169   321 layer_factory.hpp:77] Creating layer detection_accuracy_3_3x5
I0630 21:14:13.135176   321 net.cpp:100] Creating Layer detection_accuracy_3_3x5
I0630 21:14:13.135181   321 net.cpp:434] detection_accuracy_3_3x5 <- LFCN_3_3x5_LFCN_3_3x5_0_split_1
I0630 21:14:13.135186   321 net.cpp:434] detection_accuracy_3_3x5 <- label_3_3x5_data_5_split_1
I0630 21:14:13.135192   321 net.cpp:408] detection_accuracy_3_3x5 -> accuracy_3_3x5
I0630 21:14:13.135200   321 net.cpp:408] detection_accuracy_3_3x5 -> boxiou_3_3x5
I0630 21:14:13.135247   321 net.cpp:150] Setting up detection_accuracy_3_3x5
I0630 21:14:13.135252   321 net.cpp:157] Top shape: 1 1 1 2 (2)
I0630 21:14:13.135255   321 net.cpp:157] Top shape: 1 1 1 1 (1)
I0630 21:14:13.135258   321 net.cpp:165] Memory required for data: 2267981120
I0630 21:14:13.135262   321 layer_factory.hpp:77] Creating layer LFCN_3_5x7
I0630 21:14:13.135270   321 net.cpp:100] Creating Layer LFCN_3_5x7
I0630 21:14:13.135274   321 net.cpp:434] LFCN_3_5x7 <- conv6_1_relu6_1_0_split_1
I0630 21:14:13.135282   321 net.cpp:408] LFCN_3_5x7 -> LFCN_3_5x7
I0630 21:14:13.137686   321 net.cpp:150] Setting up LFCN_3_5x7
I0630 21:14:13.137698   321 net.cpp:157] Top shape: 2 7 18 24 (6048)
I0630 21:14:13.137701   321 net.cpp:165] Memory required for data: 2268005312
I0630 21:14:13.137709   321 layer_factory.hpp:77] Creating layer LFCN_3_5x7_LFCN_3_5x7_0_split
I0630 21:14:13.137718   321 net.cpp:100] Creating Layer LFCN_3_5x7_LFCN_3_5x7_0_split
I0630 21:14:13.137723   321 net.cpp:434] LFCN_3_5x7_LFCN_3_5x7_0_split <- LFCN_3_5x7
I0630 21:14:13.137730   321 net.cpp:408] LFCN_3_5x7_LFCN_3_5x7_0_split -> LFCN_3_5x7_LFCN_3_5x7_0_split_0
I0630 21:14:13.137740   321 net.cpp:408] LFCN_3_5x7_LFCN_3_5x7_0_split -> LFCN_3_5x7_LFCN_3_5x7_0_split_1
I0630 21:14:13.137747   321 net.cpp:408] LFCN_3_5x7_LFCN_3_5x7_0_split -> LFCN_3_5x7_LFCN_3_5x7_0_split_2
I0630 21:14:13.137807   321 net.cpp:150] Setting up LFCN_3_5x7_LFCN_3_5x7_0_split
I0630 21:14:13.137812   321 net.cpp:157] Top shape: 2 7 18 24 (6048)
I0630 21:14:13.137816   321 net.cpp:157] Top shape: 2 7 18 24 (6048)
I0630 21:14:13.137820   321 net.cpp:157] Top shape: 2 7 18 24 (6048)
I0630 21:14:13.137822   321 net.cpp:165] Memory required for data: 2268077888
I0630 21:14:13.137825   321 layer_factory.hpp:77] Creating layer detection_loss_3_5x7
I0630 21:14:13.137832   321 net.cpp:100] Creating Layer detection_loss_3_5x7
I0630 21:14:13.137836   321 net.cpp:434] detection_loss_3_5x7 <- LFCN_3_5x7_LFCN_3_5x7_0_split_0
I0630 21:14:13.137841   321 net.cpp:434] detection_loss_3_5x7 <- label_3_5x7_data_6_split_0
I0630 21:14:13.137848   321 net.cpp:408] detection_loss_3_5x7 -> loss_3_5x7
I0630 21:14:13.137856   321 layer_factory.hpp:77] Creating layer detection_loss_3_5x7
I0630 21:14:13.138289   321 net.cpp:150] Setting up detection_loss_3_5x7
I0630 21:14:13.138296   321 net.cpp:157] Top shape: 1 1 1 2 (2)
I0630 21:14:13.138299   321 net.cpp:160]     with loss weight 1
I0630 21:14:13.138309   321 net.cpp:165] Memory required for data: 2268077896
I0630 21:14:13.138311   321 layer_factory.hpp:77] Creating layer detection_accuracy_3_5x7
I0630 21:14:13.138319   321 net.cpp:100] Creating Layer detection_accuracy_3_5x7
I0630 21:14:13.138324   321 net.cpp:434] detection_accuracy_3_5x7 <- LFCN_3_5x7_LFCN_3_5x7_0_split_1
I0630 21:14:13.138329   321 net.cpp:434] detection_accuracy_3_5x7 <- label_3_5x7_data_6_split_1
I0630 21:14:13.138334   321 net.cpp:408] detection_accuracy_3_5x7 -> accuracy_3_5x7
I0630 21:14:13.138341   321 net.cpp:408] detection_accuracy_3_5x7 -> boxiou_3_5x7
I0630 21:14:13.138386   321 net.cpp:150] Setting up detection_accuracy_3_5x7
I0630 21:14:13.138391   321 net.cpp:157] Top shape: 1 1 1 2 (2)
I0630 21:14:13.138396   321 net.cpp:157] Top shape: 1 1 1 1 (1)
I0630 21:14:13.138397   321 net.cpp:165] Memory required for data: 2268077908
I0630 21:14:13.138401   321 layer_factory.hpp:77] Creating layer pool6
I0630 21:14:13.138406   321 net.cpp:100] Creating Layer pool6
I0630 21:14:13.138409   321 net.cpp:434] pool6 <- conv6_1_relu6_1_0_split_2
I0630 21:14:13.138417   321 net.cpp:408] pool6 -> pool6
I0630 21:14:13.138458   321 net.cpp:150] Setting up pool6
I0630 21:14:13.138464   321 net.cpp:157] Top shape: 2 512 9 12 (110592)
I0630 21:14:13.138466   321 net.cpp:165] Memory required for data: 2268520276
I0630 21:14:13.138469   321 layer_factory.hpp:77] Creating layer LFCN_4_3x5
I0630 21:14:13.138481   321 net.cpp:100] Creating Layer LFCN_4_3x5
I0630 21:14:13.138484   321 net.cpp:434] LFCN_4_3x5 <- pool6
I0630 21:14:13.138490   321 net.cpp:408] LFCN_4_3x5 -> LFCN_4_3x5
I0630 21:14:13.141263   321 net.cpp:150] Setting up LFCN_4_3x5
I0630 21:14:13.141274   321 net.cpp:157] Top shape: 2 7 9 12 (1512)
I0630 21:14:13.141278   321 net.cpp:165] Memory required for data: 2268526324
I0630 21:14:13.141286   321 layer_factory.hpp:77] Creating layer LFCN_4_3x5_LFCN_4_3x5_0_split
I0630 21:14:13.141295   321 net.cpp:100] Creating Layer LFCN_4_3x5_LFCN_4_3x5_0_split
I0630 21:14:13.141300   321 net.cpp:434] LFCN_4_3x5_LFCN_4_3x5_0_split <- LFCN_4_3x5
I0630 21:14:13.141307   321 net.cpp:408] LFCN_4_3x5_LFCN_4_3x5_0_split -> LFCN_4_3x5_LFCN_4_3x5_0_split_0
I0630 21:14:13.141316   321 net.cpp:408] LFCN_4_3x5_LFCN_4_3x5_0_split -> LFCN_4_3x5_LFCN_4_3x5_0_split_1
I0630 21:14:13.141324   321 net.cpp:408] LFCN_4_3x5_LFCN_4_3x5_0_split -> LFCN_4_3x5_LFCN_4_3x5_0_split_2
I0630 21:14:13.141389   321 net.cpp:150] Setting up LFCN_4_3x5_LFCN_4_3x5_0_split
I0630 21:14:13.141394   321 net.cpp:157] Top shape: 2 7 9 12 (1512)
I0630 21:14:13.141397   321 net.cpp:157] Top shape: 2 7 9 12 (1512)
I0630 21:14:13.141402   321 net.cpp:157] Top shape: 2 7 9 12 (1512)
I0630 21:14:13.141403   321 net.cpp:165] Memory required for data: 2268544468
I0630 21:14:13.141407   321 layer_factory.hpp:77] Creating layer detection_loss_4_3x5
I0630 21:14:13.141414   321 net.cpp:100] Creating Layer detection_loss_4_3x5
I0630 21:14:13.141418   321 net.cpp:434] detection_loss_4_3x5 <- LFCN_4_3x5_LFCN_4_3x5_0_split_0
I0630 21:14:13.141423   321 net.cpp:434] detection_loss_4_3x5 <- label_4_3x5_data_7_split_0
I0630 21:14:13.141429   321 net.cpp:408] detection_loss_4_3x5 -> loss_4_3x5
I0630 21:14:13.141438   321 layer_factory.hpp:77] Creating layer detection_loss_4_3x5
I0630 21:14:13.141888   321 net.cpp:150] Setting up detection_loss_4_3x5
I0630 21:14:13.141896   321 net.cpp:157] Top shape: 1 1 1 2 (2)
I0630 21:14:13.141898   321 net.cpp:160]     with loss weight 1
I0630 21:14:13.141907   321 net.cpp:165] Memory required for data: 2268544476
I0630 21:14:13.141911   321 layer_factory.hpp:77] Creating layer detection_accuracy_4_3x5
I0630 21:14:13.141916   321 net.cpp:100] Creating Layer detection_accuracy_4_3x5
I0630 21:14:13.141921   321 net.cpp:434] detection_accuracy_4_3x5 <- LFCN_4_3x5_LFCN_4_3x5_0_split_1
I0630 21:14:13.141924   321 net.cpp:434] detection_accuracy_4_3x5 <- label_4_3x5_data_7_split_1
I0630 21:14:13.141932   321 net.cpp:408] detection_accuracy_4_3x5 -> accuracy_4_3x5
I0630 21:14:13.141942   321 net.cpp:408] detection_accuracy_4_3x5 -> boxiou_4_3x5
I0630 21:14:13.141988   321 net.cpp:150] Setting up detection_accuracy_4_3x5
I0630 21:14:13.141993   321 net.cpp:157] Top shape: 1 1 1 2 (2)
I0630 21:14:13.141995   321 net.cpp:157] Top shape: 1 1 1 1 (1)
I0630 21:14:13.141999   321 net.cpp:165] Memory required for data: 2268544488
I0630 21:14:13.142000   321 layer_factory.hpp:77] Creating layer proposals
I0630 21:14:13.142009   321 net.cpp:100] Creating Layer proposals
I0630 21:14:13.142014   321 net.cpp:434] proposals <- LFCN_1_3x5_LFCN_1_3x5_0_split_2
I0630 21:14:13.142017   321 net.cpp:434] proposals <- LFCN_1_5x7_LFCN_1_5x7_0_split_2
I0630 21:14:13.142021   321 net.cpp:434] proposals <- LFCN_2_3x5_LFCN_2_3x5_0_split_2
I0630 21:14:13.142025   321 net.cpp:434] proposals <- LFCN_2_5x7_LFCN_2_5x7_0_split_2
I0630 21:14:13.142029   321 net.cpp:434] proposals <- LFCN_3_3x5_LFCN_3_3x5_0_split_2
I0630 21:14:13.142032   321 net.cpp:434] proposals <- LFCN_3_5x7_LFCN_3_5x7_0_split_2
I0630 21:14:13.142035   321 net.cpp:434] proposals <- LFCN_4_3x5_LFCN_4_3x5_0_split_2
I0630 21:14:13.142042   321 net.cpp:408] proposals -> proposals
I0630 21:14:13.142068   321 net.cpp:150] Setting up proposals
I0630 21:14:13.142073   321 net.cpp:157] Top shape: 1 5 1 1 (5)
I0630 21:14:13.142076   321 net.cpp:165] Memory required for data: 2268544508
I0630 21:14:13.142078   321 layer_factory.hpp:77] Creating layer proposal_info
I0630 21:14:13.142087   321 net.cpp:100] Creating Layer proposal_info
I0630 21:14:13.142091   321 net.cpp:434] proposal_info <- proposals
I0630 21:14:13.142096   321 net.cpp:434] proposal_info <- gt_boxes
I0630 21:14:13.142102   321 net.cpp:408] proposal_info -> rois
I0630 21:14:13.142112   321 net.cpp:408] proposal_info -> proposal_labels
I0630 21:14:13.142118   321 net.cpp:408] proposal_info -> proposal_targets
I0630 21:14:13.142127   321 net.cpp:408] proposal_info -> box_inside_weights
I0630 21:14:13.142133   321 net.cpp:408] proposal_info -> box_outside_weights
I0630 21:14:13.142143   321 net.cpp:408] proposal_info -> match_gt_boxes
I0630 21:14:13.142237   321 net.cpp:150] Setting up proposal_info
I0630 21:14:13.142241   321 net.cpp:157] Top shape: 64 5 1 1 (320)
I0630 21:14:13.142246   321 net.cpp:157] Top shape: 64 1 1 1 (64)
I0630 21:14:13.142249   321 net.cpp:157] Top shape: 64 12 1 1 (768)
I0630 21:14:13.142252   321 net.cpp:157] Top shape: 64 12 1 1 (768)
I0630 21:14:13.142256   321 net.cpp:157] Top shape: 64 12 1 1 (768)
I0630 21:14:13.142259   321 net.cpp:157] Top shape: 64 6 1 1 (384)
I0630 21:14:13.142261   321 net.cpp:165] Memory required for data: 2268556796
I0630 21:14:13.142264   321 layer_factory.hpp:77] Creating layer rois_proposal_info_0_split
I0630 21:14:13.142269   321 net.cpp:100] Creating Layer rois_proposal_info_0_split
I0630 21:14:13.142273   321 net.cpp:434] rois_proposal_info_0_split <- rois
I0630 21:14:13.142278   321 net.cpp:408] rois_proposal_info_0_split -> rois_proposal_info_0_split_0
I0630 21:14:13.142284   321 net.cpp:408] rois_proposal_info_0_split -> rois_proposal_info_0_split_1
I0630 21:14:13.142293   321 net.cpp:408] rois_proposal_info_0_split -> rois_proposal_info_0_split_2
I0630 21:14:13.142343   321 net.cpp:150] Setting up rois_proposal_info_0_split
I0630 21:14:13.142349   321 net.cpp:157] Top shape: 64 5 1 1 (320)
I0630 21:14:13.142351   321 net.cpp:157] Top shape: 64 5 1 1 (320)
I0630 21:14:13.142355   321 net.cpp:157] Top shape: 64 5 1 1 (320)
I0630 21:14:13.142357   321 net.cpp:165] Memory required for data: 2268560636
I0630 21:14:13.142360   321 layer_factory.hpp:77] Creating layer proposal_labels_proposal_info_1_split
I0630 21:14:13.142364   321 net.cpp:100] Creating Layer proposal_labels_proposal_info_1_split
I0630 21:14:13.142369   321 net.cpp:434] proposal_labels_proposal_info_1_split <- proposal_labels
I0630 21:14:13.142374   321 net.cpp:408] proposal_labels_proposal_info_1_split -> proposal_labels_proposal_info_1_split_0
I0630 21:14:13.142379   321 net.cpp:408] proposal_labels_proposal_info_1_split -> proposal_labels_proposal_info_1_split_1
I0630 21:14:13.142416   321 net.cpp:150] Setting up proposal_labels_proposal_info_1_split
I0630 21:14:13.142421   321 net.cpp:157] Top shape: 64 1 1 1 (64)
I0630 21:14:13.142424   321 net.cpp:157] Top shape: 64 1 1 1 (64)
I0630 21:14:13.142427   321 net.cpp:165] Memory required for data: 2268561148
I0630 21:14:13.142431   321 layer_factory.hpp:77] Creating layer conv4_3_2x
I0630 21:14:13.142438   321 net.cpp:100] Creating Layer conv4_3_2x
I0630 21:14:13.142441   321 net.cpp:434] conv4_3_2x <- conv4_3_relu4_3_0_split_2
I0630 21:14:13.142447   321 net.cpp:408] conv4_3_2x -> conv4_3_2x
I0630 21:14:13.142869   321 net.cpp:150] Setting up conv4_3_2x
I0630 21:14:13.142875   321 net.cpp:157] Top shape: 2 512 144 192 (28311552)
I0630 21:14:13.142879   321 net.cpp:165] Memory required for data: 2381807356
I0630 21:14:13.142884   321 layer_factory.hpp:77] Creating layer conv4_3_2x_conv4_3_2x_0_split
I0630 21:14:13.142887   321 net.cpp:100] Creating Layer conv4_3_2x_conv4_3_2x_0_split
I0630 21:14:13.142890   321 net.cpp:434] conv4_3_2x_conv4_3_2x_0_split <- conv4_3_2x
I0630 21:14:13.142899   321 net.cpp:408] conv4_3_2x_conv4_3_2x_0_split -> conv4_3_2x_conv4_3_2x_0_split_0
I0630 21:14:13.142905   321 net.cpp:408] conv4_3_2x_conv4_3_2x_0_split -> conv4_3_2x_conv4_3_2x_0_split_1
I0630 21:14:13.142943   321 net.cpp:150] Setting up conv4_3_2x_conv4_3_2x_0_split
I0630 21:14:13.142948   321 net.cpp:157] Top shape: 2 512 144 192 (28311552)
I0630 21:14:13.142952   321 net.cpp:157] Top shape: 2 512 144 192 (28311552)
I0630 21:14:13.142956   321 net.cpp:165] Memory required for data: 2608299772
I0630 21:14:13.142958   321 layer_factory.hpp:77] Creating layer roi_pool_org
I0630 21:14:13.142964   321 net.cpp:100] Creating Layer roi_pool_org
I0630 21:14:13.142968   321 net.cpp:434] roi_pool_org <- conv4_3_2x_conv4_3_2x_0_split_0
I0630 21:14:13.142973   321 net.cpp:434] roi_pool_org <- rois_proposal_info_0_split_0
I0630 21:14:13.142979   321 net.cpp:408] roi_pool_org -> roi_pool_org
I0630 21:14:13.142985   321 roi_pooling_layer.cpp:33] Spatial scale: 0.25
I0630 21:14:13.143026   321 net.cpp:150] Setting up roi_pool_org
I0630 21:14:13.143031   321 net.cpp:157] Top shape: 64 512 7 5 (1146880)
I0630 21:14:13.143034   321 net.cpp:165] Memory required for data: 2612887292
I0630 21:14:13.143038   321 layer_factory.hpp:77] Creating layer roi_pool_ctx
I0630 21:14:13.143043   321 net.cpp:100] Creating Layer roi_pool_ctx
I0630 21:14:13.143046   321 net.cpp:434] roi_pool_ctx <- conv4_3_2x_conv4_3_2x_0_split_1
I0630 21:14:13.143050   321 net.cpp:434] roi_pool_ctx <- rois_proposal_info_0_split_1
I0630 21:14:13.143054   321 net.cpp:408] roi_pool_ctx -> roi_pool_ctx
I0630 21:14:13.143060   321 roi_pooling_layer.cpp:33] Spatial scale: 0.25
I0630 21:14:13.143100   321 net.cpp:150] Setting up roi_pool_ctx
I0630 21:14:13.143105   321 net.cpp:157] Top shape: 64 512 7 5 (1146880)
I0630 21:14:13.143107   321 net.cpp:165] Memory required for data: 2617474812
I0630 21:14:13.143110   321 layer_factory.hpp:77] Creating layer roi_pool
I0630 21:14:13.143115   321 net.cpp:100] Creating Layer roi_pool
I0630 21:14:13.143118   321 net.cpp:434] roi_pool <- roi_pool_org
I0630 21:14:13.143122   321 net.cpp:434] roi_pool <- roi_pool_ctx
I0630 21:14:13.143129   321 net.cpp:408] roi_pool -> roi_pool
I0630 21:14:13.143155   321 net.cpp:150] Setting up roi_pool
I0630 21:14:13.143160   321 net.cpp:157] Top shape: 64 1024 7 5 (2293760)
I0630 21:14:13.143163   321 net.cpp:165] Memory required for data: 2626649852
I0630 21:14:13.143167   321 layer_factory.hpp:77] Creating layer roi_c1
I0630 21:14:13.143174   321 net.cpp:100] Creating Layer roi_c1
I0630 21:14:13.143177   321 net.cpp:434] roi_c1 <- roi_pool
I0630 21:14:13.143184   321 net.cpp:408] roi_c1 -> roi_c1
I0630 21:14:13.181932   321 net.cpp:150] Setting up roi_c1
I0630 21:14:13.181951   321 net.cpp:157] Top shape: 64 512 5 3 (491520)
I0630 21:14:13.181954   321 net.cpp:165] Memory required for data: 2628615932
I0630 21:14:13.181963   321 layer_factory.hpp:77] Creating layer roi_c1_relu
I0630 21:14:13.181975   321 net.cpp:100] Creating Layer roi_c1_relu
I0630 21:14:13.181982   321 net.cpp:434] roi_c1_relu <- roi_c1
I0630 21:14:13.181988   321 net.cpp:395] roi_c1_relu -> roi_c1 (in-place)
I0630 21:14:13.182719   321 net.cpp:150] Setting up roi_c1_relu
I0630 21:14:13.182729   321 net.cpp:157] Top shape: 64 512 5 3 (491520)
I0630 21:14:13.182731   321 net.cpp:165] Memory required for data: 2630582012
I0630 21:14:13.182734   321 layer_factory.hpp:77] Creating layer fc6
I0630 21:14:13.182744   321 net.cpp:100] Creating Layer fc6
I0630 21:14:13.182749   321 net.cpp:434] fc6 <- roi_c1
I0630 21:14:13.182757   321 net.cpp:408] fc6 -> fc6
I0630 21:14:13.304373   321 net.cpp:150] Setting up fc6
I0630 21:14:13.304394   321 net.cpp:157] Top shape: 64 2048 (131072)
I0630 21:14:13.304396   321 net.cpp:165] Memory required for data: 2631106300
I0630 21:14:13.304405   321 layer_factory.hpp:77] Creating layer relu6
I0630 21:14:13.304415   321 net.cpp:100] Creating Layer relu6
I0630 21:14:13.304421   321 net.cpp:434] relu6 <- fc6
I0630 21:14:13.304428   321 net.cpp:395] relu6 -> fc6 (in-place)
I0630 21:14:13.304760   321 net.cpp:150] Setting up relu6
I0630 21:14:13.304769   321 net.cpp:157] Top shape: 64 2048 (131072)
I0630 21:14:13.304771   321 net.cpp:165] Memory required for data: 2631630588
I0630 21:14:13.304774   321 layer_factory.hpp:77] Creating layer drop6
I0630 21:14:13.304782   321 net.cpp:100] Creating Layer drop6
I0630 21:14:13.304786   321 net.cpp:434] drop6 <- fc6
I0630 21:14:13.304791   321 net.cpp:395] drop6 -> fc6 (in-place)
I0630 21:14:13.304822   321 net.cpp:150] Setting up drop6
I0630 21:14:13.304827   321 net.cpp:157] Top shape: 64 2048 (131072)
I0630 21:14:13.304829   321 net.cpp:165] Memory required for data: 2632154876
I0630 21:14:13.304832   321 layer_factory.hpp:77] Creating layer fc6_drop6_0_split
I0630 21:14:13.304838   321 net.cpp:100] Creating Layer fc6_drop6_0_split
I0630 21:14:13.304842   321 net.cpp:434] fc6_drop6_0_split <- fc6
I0630 21:14:13.304847   321 net.cpp:408] fc6_drop6_0_split -> fc6_drop6_0_split_0
I0630 21:14:13.304854   321 net.cpp:408] fc6_drop6_0_split -> fc6_drop6_0_split_1
I0630 21:14:13.304899   321 net.cpp:150] Setting up fc6_drop6_0_split
I0630 21:14:13.304904   321 net.cpp:157] Top shape: 64 2048 (131072)
I0630 21:14:13.304908   321 net.cpp:157] Top shape: 64 2048 (131072)
I0630 21:14:13.304910   321 net.cpp:165] Memory required for data: 2633203452
I0630 21:14:13.304913   321 layer_factory.hpp:77] Creating layer cls_pred
I0630 21:14:13.304921   321 net.cpp:100] Creating Layer cls_pred
I0630 21:14:13.304925   321 net.cpp:434] cls_pred <- fc6_drop6_0_split_0
I0630 21:14:13.304931   321 net.cpp:408] cls_pred -> cls_pred
I0630 21:14:13.305099   321 net.cpp:150] Setting up cls_pred
I0630 21:14:13.305104   321 net.cpp:157] Top shape: 64 3 (192)
I0630 21:14:13.305105   321 net.cpp:165] Memory required for data: 2633204220
I0630 21:14:13.305111   321 layer_factory.hpp:77] Creating layer cls_pred_cls_pred_0_split
I0630 21:14:13.305119   321 net.cpp:100] Creating Layer cls_pred_cls_pred_0_split
I0630 21:14:13.305122   321 net.cpp:434] cls_pred_cls_pred_0_split <- cls_pred
I0630 21:14:13.305127   321 net.cpp:408] cls_pred_cls_pred_0_split -> cls_pred_cls_pred_0_split_0
I0630 21:14:13.305133   321 net.cpp:408] cls_pred_cls_pred_0_split -> cls_pred_cls_pred_0_split_1
I0630 21:14:13.305187   321 net.cpp:150] Setting up cls_pred_cls_pred_0_split
I0630 21:14:13.305192   321 net.cpp:157] Top shape: 64 3 (192)
I0630 21:14:13.305197   321 net.cpp:157] Top shape: 64 3 (192)
I0630 21:14:13.305198   321 net.cpp:165] Memory required for data: 2633205756
I0630 21:14:13.305202   321 layer_factory.hpp:77] Creating layer bbox_pred
I0630 21:14:13.305207   321 net.cpp:100] Creating Layer bbox_pred
I0630 21:14:13.305210   321 net.cpp:434] bbox_pred <- fc6_drop6_0_split_1
I0630 21:14:13.305217   321 net.cpp:408] bbox_pred -> bbox_pred
I0630 21:14:13.305511   321 net.cpp:150] Setting up bbox_pred
I0630 21:14:13.305517   321 net.cpp:157] Top shape: 64 12 (768)
I0630 21:14:13.305519   321 net.cpp:165] Memory required for data: 2633208828
I0630 21:14:13.305526   321 layer_factory.hpp:77] Creating layer bbox_pred_bbox_pred_0_split
I0630 21:14:13.305531   321 net.cpp:100] Creating Layer bbox_pred_bbox_pred_0_split
I0630 21:14:13.305534   321 net.cpp:434] bbox_pred_bbox_pred_0_split <- bbox_pred
I0630 21:14:13.305539   321 net.cpp:408] bbox_pred_bbox_pred_0_split -> bbox_pred_bbox_pred_0_split_0
I0630 21:14:13.305547   321 net.cpp:408] bbox_pred_bbox_pred_0_split -> bbox_pred_bbox_pred_0_split_1
I0630 21:14:13.305586   321 net.cpp:150] Setting up bbox_pred_bbox_pred_0_split
I0630 21:14:13.305591   321 net.cpp:157] Top shape: 64 12 (768)
I0630 21:14:13.305594   321 net.cpp:157] Top shape: 64 12 (768)
I0630 21:14:13.305596   321 net.cpp:165] Memory required for data: 2633214972
I0630 21:14:13.305599   321 layer_factory.hpp:77] Creating layer loss_cls
I0630 21:14:13.305608   321 net.cpp:100] Creating Layer loss_cls
I0630 21:14:13.305611   321 net.cpp:434] loss_cls <- cls_pred_cls_pred_0_split_0
I0630 21:14:13.305615   321 net.cpp:434] loss_cls <- proposal_labels_proposal_info_1_split_0
…
