…
    downsample_rate: 16
    downsample_rate: 32
    downsample_rate: 32
    downsample_rate: 64
    coord_num: 4
    field_h: 60
    field_h: 84
    field_h: 120
    field_h: 168
    field_h: 240
    field_h: 336
    field_h: 480
    field_w: 40
    field_w: 56
    field_w: 80
    field_w: 112
    field_w: 160
    field_w: 224
    field_w: 360
    fg_threshold: 0.5
    resize_width: 1920
    resize_height: 576
    crop_width: 768
    crop_height: 576
    do_multiple_scale: true
    min_scale: 60
    max_scale: 480
    min_gt_height: 30
    shuffle: true
  }
}
layer {
  name: "conv1_1"
  type: "Convolution"
  bottom: "data"
  top: "conv1_1"
  convolution_param {
    num_output: 64
    pad: 1
    kernel_size: 3
  }
}
layer {
  name: "relu1_1"
  type: "ReLU"
  bottom: "conv1_1"
  top: "conv1_1"
}
layer {
  name: "conv1_2"
  type: "Convolution"
  bottom: "conv1_1"
  top: "conv1_2"
  convolution_param {
    num_output: 64
    pad: 1
    kernel_size: 3
  }
}
layer {
  name: "relu1_2"
  type: "ReLU"
  bottom: "conv1_2"
  top: "conv1_2"
}
layer {
  name: "pool1"
  type: "Pooling"
  bottom: "conv1_2"
  top: "pool1"
  pooling_param {
    pool: MAX
    kernel_size: 2
    stride: 2
  }
}
layer {
  name: "conv2_1"
  type: "Convolution"
  bottom: "pool1"
  top: "conv2_1"
  convolution_param {
    num_output: 128
    pad: 1
    kernel_size: 3
  }
}
layer {
  name: "relu2_1"
  type: "ReLU"
  bottom: "conv2_1"
  top: "conv2_1"
}
layer {
  name: "conv2_2"
  type: "Convolution"
  bottom: "conv2_1"
  top: "conv2_2"
  convolution_param {
    num_output: 128
    pad: 1
    kernel_size: 3
  }
}
layer {
  name: "relu2_2"
  type: "ReLU"
  bottom: "conv2_2"
  top: "conv2_2"
}
layer {
  name: "pool2"
  type: "Pooling"
  bottom: "conv2_2"
  top: "pool2"
  pooling_param {
    pool: MAX
    kernel_size: 2
    stride: 2
  }
}
layer {
  name: "conv3_1"
  type: "Convolution"
  bottom: "pool2"
  top: "conv3_1"
  convolution_param {
    num_output: 256
    pad: 1
    kernel_size: 3
  }
}
layer {
  name: "relu3_1"
  type: "ReLU"
  bottom: "conv3_1"
  top: "conv3_1"
}
layer {
  name: "conv3_2"
  type: "Convolution"
  bottom: "conv3_1"
  top: "conv3_2"
  convolution_param {
    num_output: 256
    pad: 1
    kernel_size: 3
  }
}
layer {
  name: "relu3_2"
  type: "ReLU"
  bottom: "conv3_2"
  top: "conv3_2"
}
layer {
  name: "conv3_3"
  type: "Convolution"
  bottom: "conv3_2"
  top: "conv3_3"
  convolution_param {
    num_output: 256
    pad: 1
    kernel_size: 3
  }
}
layer {
  name: "relu3_3"
  type: "ReLU"
  bottom: "conv3_3"
  top: "conv3_3"
}
layer {
  name: "pool3"
  type: "Pooling"
  bottom: "conv3_3"
  top: "pool3"
  pooling_param {
    pool: MAX
    kernel_size: 2
    stride: 2
  }
}
layer {
  name: "conv4_1"
  type: "Convolution"
  bottom: "pool3"
  top: "conv4_1"
  convolution_param {
    num_output: 512
    pad: 1
    kernel_size: 3
  }
}
layer {
  name: "relu4_1"
  type: "ReLU"
  bottom: "conv4_1"
  top: "conv4_1"
}
layer {
  name: "conv4_2"
  type: "Convolution"
  bottom: "conv4_1"
  top: "conv4_2"
  convolution_param {
    num_output: 512
    pad: 1
    kernel_size: 3
  }
}
layer {
  name: "relu4_2"
  type: "ReLU"
  bottom: "conv4_2"
  top: "conv4_2"
}
layer {
  name: "conv4_3"
  type: "Convolution"
  bottom: "conv4_2"
  top: "conv4_3"
  convolution_param {
    num_output: 512
    pad: 1
    kernel_size: 3
  }
}
layer {
  name: "relu4_3"
  type: "ReLU"
  bottom: "conv4_3"
  top: "conv4_3"
}
layer {
  name: "loss1_conv1"
  type: "Convolution"
  bottom: "conv4_3"
  top: "loss1_conv1"
  param {
    lr_mult: 1
    decay_mult: 1
  }
  param {
    lr_mult: 2
    decay_mult: 0
  }
  convolution_param {
    num_output: 512
    pad: 1
    kernel_size: 3
    weight_filler {
      type: "gaussian"
      std: 0.01
    }
    bias_filler {
      type: "constant"
    }
  }
}
layer {
  name: "loss_relu1"
  type: "ReLU"
  bottom: "loss1_conv1"
  top: "loss1_conv1"
}
layer {
  name: "LFCN_1_3x5"
  type: "Convolution"
  bottom: "loss1_conv1"
  top: "LFCN_1_3x5"
  param {
    lr_mult: 1
    decay_mult: 1
  }
  param {
    lr_mult: 2
    decay_mult: 0
  }
  convolution_param {
    num_output: 7
    weight_filler {
      type: "gaussian"
      std: 0.001
    }
    bias_filler {
      type: "constant"
    }
    pad_h: 2
    pad_w: 1
    kernel_h: 5
    kernel_w: 3
  }
}
layer {
  name: "detection_loss_1_3x5"
  type: "DetectionLoss"
  bottom: "LFCN_1_3x5"
  bottom: "label_1_3x5"
  top: "loss_1_3x5"
  loss_weight: 0.9
  detection_loss_param {
    cls_num: 3
    coord_num: 4
    lambda: 0.5
    field_h: 60
    field_w: 40
    downsample_rate: 8
    bb_smooth: true
    field_whr: 2
    field_xyr: 2
    bg_threshold: 0.2
    bg_multiple: 2
    sample_mode: "random"
    pos_neg_weighted: true
  }
}
layer {
  name: "detection_accuracy_1_3x5"
  type: "DetectionAccuracy"
  bottom: "LFCN_1_3x5"
  bottom: "label_1_3x5"
  top: "accuracy_1_3x5"
  top: "boxiou_1_3x5"
  detection_accuracy_param {
    cls_num: 3
    coord_num: 4
    field_h: 60
    field_w: 40
    downsample_rate: 8
    field_whr: 2
    field_xyr: 2
  }
}
layer {
  name: "LFCN_1_5x7"
  type: "Convolution"
  bottom: "loss1_conv1"
  top: "LFCN_1_5x7"
  param {
    lr_mult: 1
    decay_mult: 1
  }
  param {
    lr_mult: 2
    decay_mult: 0
  }
  convolution_param {
    num_output: 7
    weight_filler {
      type: "gaussian"
      std: 0.001
    }
    bias_filler {
      type: "constant"
    }
    pad_h: 3
    pad_w: 2
    kernel_h: 7
    kernel_w: 5
  }
}
layer {
  name: "detection_loss_1_5x7"
  type: "DetectionLoss"
  bottom: "LFCN_1_5x7"
  bottom: "label_1_5x7"
  top: "loss_1_5x7"
  loss_weight: 0.9
  detection_loss_param {
    cls_num: 3
    coord_num: 4
    lambda: 0.5
    field_h: 84
    field_w: 56
    downsample_rate: 8
    bb_smooth: true
    field_whr: 2
    field_xyr: 2
    bg_threshold: 0.2
    bg_multiple: 2
    sample_mode: "random"
    pos_neg_weighted: true
  }
}
layer {
  name: "detection_accuracy_1_5x7"
  type: "DetectionAccuracy"
  bottom: "LFCN_1_5x7"
  bottom: "label_1_5x7"
  top: "accuracy_1_5x7"
  top: "boxiou_1_5x7"
  detection_accuracy_param {
    cls_num: 3
    coord_num: 4
    field_h: 84
    field_w: 56
    downsample_rate: 8
    field_whr: 2
    field_xyr: 2
  }
}
layer {
  name: "pool4"
  type: "Pooling"
  bottom: "conv4_3"
  top: "pool4"
  pooling_param {
    pool: MAX
    kernel_size: 2
    stride: 2
  }
}
layer {
  name: "conv5_1"
  type: "Convolution"
  bottom: "pool4"
  top: "conv5_1"
  convolution_param {
    num_output: 512
    pad: 1
    kernel_size: 3
  }
}
layer {
  name: "relu5_1"
  type: "ReLU"
  bottom: "conv5_1"
  top: "conv5_1"
}
layer {
  name: "conv5_2"
  type: "Convolution"
  bottom: "conv5_1"
  top: "conv5_2"
  convolution_param {
    num_output: 512
    pad: 1
    kernel_size: 3
  }
}
layer {
  name: "relu5_2"
  type: "ReLU"
  bottom: "conv5_2"
  top: "conv5_2"
}
layer {
  name: "conv5_3"
  type: "Convolution"
  bottom: "conv5_2"
  top: "conv5_3"
  convolution_param {
    num_output: 512
    pad: 1
    kernel_size: 3
  }
}
layer {
  name: "relu5_3"
  type: "ReLU"
  bottom: "conv5_3"
  top: "conv5_3"
}
layer {
  name: "LFCN_2_3x5"
  type: "Convolution"
  bottom: "conv5_3"
  top: "LFCN_2_3x5"
  param {
    lr_mult: 1
    decay_mult: 1
  }
  param {
    lr_mult: 2
    decay_mult: 0
  }
  convolution_param {
    num_output: 7
    weight_filler {
      type: "gaussian"
      std: 0.001
    }
    bias_filler {
      type: "constant"
    }
    pad_h: 2
    pad_w: 1
    kernel_h: 5
    kernel_w: 3
  }
}
layer {
  name: "detection_loss_2_3x5"
  type: "DetectionLoss"
  bottom: "LFCN_2_3x5"
  bottom: "label_2_3x5"
  top: "loss_2_3x5"
  detection_loss_param {
    cls_num: 3
    coord_num: 4
    lambda: 0.5
    field_h: 120
    field_w: 80
    downsample_rate: 16
    bb_smooth: true
    field_whr: 2
    field_xyr: 2
    bg_threshold: 0.2
    bg_multiple: 2
    sample_mode: "random"
    pos_neg_weighted: true
  }
}
layer {
  name: "detection_accuracy_2_3x5"
  type: "DetectionAccuracy"
  bottom: "LFCN_2_3x5"
  bottom: "label_2_3x5"
  top: "accuracy_2_3x5"
  top: "boxiou_2_3x5"
  detection_accuracy_param {
    cls_num: 3
    coord_num: 4
    field_h: 120
    field_w: 80
    downsample_rate: 16
    field_whr: 2
    field_xyr: 2
  }
}
layer {
  name: "LFCN_2_5x7"
  type: "Convolution"
  bottom: "conv5_3"
  top: "LFCN_2_5x7"
  param {
    lr_mult: 1
    decay_mult: 1
  }
  param {
    lr_mult: 2
    decay_mult: 0
  }
  convolution_param {
    num_output: 7
    weight_filler {
      type: "gaussian"
      std: 0.001
    }
    bias_filler {
      type: "constant"
    }
    pad_h: 3
    pad_w: 2
    kernel_h: 7
    kernel_w: 5
  }
}
layer {
  name: "detection_loss_2_5x7"
  type: "DetectionLoss"
  bottom: "LFCN_2_5x7"
  bottom: "label_2_5x7"
  top: "loss_2_5x7"
  detection_loss_param {
    cls_num: 3
    coord_num: 4
    lambda: 0.5
    field_h: 168
    field_w: 112
    downsample_rate: 16
    bb_smooth: true
    field_whr: 2
    field_xyr: 2
    bg_threshold: 0.2
    bg_multiple: 2
    sample_mode: "random"
    pos_neg_weighted: true
  }
}
layer {
  name: "detection_accuracy_2_5x7"
  type: "DetectionAccuracy"
  bottom: "LFCN_2_5x7"
  bottom: "label_2_5x7"
  top: "accuracy_2_5x7"
  top: "boxiou_2_5x7"
  detection_accuracy_param {
    cls_num: 3
    coord_num: 4
    field_h: 168
    field_w: 112
    downsample_rate: 16
    field_whr: 2
    field_xyr: 2
  }
}
layer {
  name: "pool5"
  type: "Pooling"
  bottom: "conv5_3"
  top: "pool5"
  pooling_param {
    pool: MAX
    kernel_size: 2
    stride: 2
  }
}
layer {
  name: "conv6_1"
  type: "Convolution"
  bottom: "pool5"
  top: "conv6_1"
  param {
    lr_mult: 1
    decay_mult: 1
  }
  param {
    lr_mult: 2
    decay_mult: 0
  }
  convolution_param {
    num_output: 512
    pad: 1
    kernel_size: 3
    weight_filler {
      type: "gaussian"
      std: 0.01
    }
    bias_filler {
      type: "constant"
    }
  }
}
layer {
  name: "relu6_1"
  type: "ReLU"
  bottom: "conv6_1"
  top: "conv6_1"
}
layer {
  name: "LFCN_3_3x5"
  type: "Convolution"
  bottom: "conv6_1"
  top: "LFCN_3_3x5"
  param {
    lr_mult: 1
    decay_mult: 1
  }
  param {
    lr_mult: 2
    decay_mult: 0
  }
  convolution_param {
    num_output: 7
    weight_filler {
      type: "gaussian"
      std: 0.001
    }
    bias_filler {
      type: "constant"
    }
    pad_h: 2
    pad_w: 1
    kernel_h: 5
    kernel_w: 3
  }
}
layer {
  name: "detection_loss_3_3x5"
  type: "DetectionLoss"
  bottom: "LFCN_3_3x5"
  bottom: "label_3_3x5"
  top: "loss_3_3x5"
  detection_loss_param {
    cls_num: 3
    coord_num: 4
    lambda: 0.5
    field_h: 240
    field_w: 160
    downsample_rate: 32
    bb_smooth: true
    field_whr: 2
    field_xyr: 2
    bg_threshold: 0.2
    bg_multiple: 2
    sample_mode: "random"
    pos_neg_weighted: true
  }
}
layer {
  name: "detection_accuracy_3_3x5"
  type: "DetectionAccuracy"
  bottom: "LFCN_3_3x5"
  bottom: "label_3_3x5"
  top: "accuracy_3_3x5"
  top: "boxiou_3_3x5"
  detection_accuracy_param {
    cls_num: 3
    coord_num: 4
    field_h: 240
    field_w: 160
    downsample_rate: 32
    field_whr: 2
    field_xyr: 2
  }
}
layer {
  name: "LFCN_3_5x7"
  type: "Convolution"
  bottom: "conv6_1"
  top: "LFCN_3_5x7"
  param {
    lr_mult: 1
    decay_mult: 1
  }
  param {
    lr_mult: 2
    decay_mult: 0
  }
  convolution_param {
    num_output: 7
    weight_filler {
      type: "gaussian"
      std: 0.001
    }
    bias_filler {
      type: "constant"
    }
    pad_h: 3
    pad_w: 2
    kernel_h: 7
    kernel_w: 5
  }
}
layer {
  name: "detection_loss_3_5x7"
  type: "DetectionLoss"
  bottom: "LFCN_3_5x7"
  bottom: "label_3_5x7"
  top: "loss_3_5x7"
  detection_loss_param {
    cls_num: 3
    coord_num: 4
    lambda: 0.5
    field_h: 336
    field_w: 224
    downsample_rate: 32
    bb_smooth: true
    field_whr: 2
    field_xyr: 2
    bg_threshold: 0.2
    bg_multiple: 2
    sample_mode: "random"
    pos_neg_weighted: true
  }
}
layer {
  name: "detection_accuracy_3_5x7"
  type: "DetectionAccuracy"
  bottom: "LFCN_3_5x7"
  bottom: "label_3_5x7"
  top: "accuracy_3_5x7"
  top: "boxiou_3_5x7"
  detection_accuracy_param {
    cls_num: 3
    coord_num: 4
    field_h: 336
    field_w: 224
    downsample_rate: 32
    field_whr: 2
    field_xyr: 2
  }
}
layer {
  name: "pool6"
  type: "Pooling"
  bottom: "conv6_1"
  top: "pool6"
  pooling_param {
    pool: MAX
    kernel_size: 2
    stride: 2
  }
}
layer {
  name: "LFCN_4_3x5"
  type: "Convolution"
  bottom: "pool6"
  top: "LFCN_4_3x5"
  param {
    lr_mult: 1
    decay_mult: 1
  }
  param {
    lr_mult: 2
    decay_mult: 0
  }
  convolution_param {
    num_output: 7
    weight_filler {
      type: "gaussian"
      std: 0.001
    }
    bias_filler {
      type: "constant"
    }
    pad_h: 2
    pad_w: 1
    kernel_h: 5
    kernel_w: 3
  }
}
layer {
  name: "detection_loss_4_3x5"
  type: "DetectionLoss"
  bottom: "LFCN_4_3x5"
  bottom: "label_4_3x5"
  top: "loss_4_3x5"
  detection_loss_param {
    cls_num: 3
    coord_num: 4
    lambda: 0.5
    field_h: 480
    field_w: 360
    downsample_rate: 64
    bb_smooth: true
    field_whr: 2
    field_xyr: 2
    bg_threshold: 0.2
    bg_multiple: 2
    sample_mode: "random"
    pos_neg_weighted: true
  }
}
layer {
  name: "detection_accuracy_4_3x5"
  type: "DetectionAccuracy"
  bottom: "LFCN_4_3x5"
  bottom: "label_4_3x5"
  top: "accuracy_4_3x5"
  top: "boxiou_4_3x5"
  detection_accuracy_param {
    cls_num: 3
    coord_num: 4
    field_h: 480
    field_w: 360
    downsample_rate: 64
    field_whr: 2
    field_xyr: 2
  }
}
I0630 18:51:02.722206 32364 layer_factory.hpp:77] Creating layer data
I0630 18:51:02.722231 32364 net.cpp:100] Creating Layer data
I0630 18:51:02.722239 32364 net.cpp:408] data -> data
…
I0630 18:51:02.793901 32364 image_gt_data_layer.cpp:241] output label size 2 : 4,6,36,48
I0630 18:51:02.793933 32364 image_gt_data_layer.cpp:241] output label size 3 : 4,6,36,48
I0630 18:51:02.793967 32364 image_gt_data_layer.cpp:241] output label size 4 : 4,6,18,24
I0630 18:51:02.793998 32364 image_gt_data_layer.cpp:241] output label size 5 : 4,6,18,24
I0630 18:51:02.794030 32364 image_gt_data_layer.cpp:241] output label size 6 : 4,6,9,12
I0630 18:51:02.794034 32364 image_gt_data_layer.cpp:265]  --> has_mean_values_ = 1
I0630 18:51:02.832022 32364 net.cpp:150] Setting up data
I0630 18:51:02.832039 32364 net.cpp:157] Top shape: 4 4 576 768 (7077888)
I0630 18:51:02.832043 32364 net.cpp:157] Top shape: 4 6 72 96 (165888)
I0630 18:51:02.832046 32364 net.cpp:157] Top shape: 4 6 72 96 (165888)
I0630 18:51:02.832049 32364 net.cpp:157] Top shape: 4 6 36 48 (41472)
I0630 18:51:02.832051 32364 net.cpp:157] Top shape: 4 6 36 48 (41472)
I0630 18:51:02.832054 32364 net.cpp:157] Top shape: 4 6 18 24 (10368)
I0630 18:51:02.832058 32364 net.cpp:157] Top shape: 4 6 18 24 (10368)
I0630 18:51:02.832062 32364 net.cpp:157] Top shape: 4 6 9 12 (2592)
I0630 18:51:02.832064 32364 net.cpp:165] Memory required for data: 30063744
I0630 18:51:02.832072 32364 layer_factory.hpp:77] Creating layer label_1_3x5_data_1_split
I0630 18:51:02.832082 32364 net.cpp:100] Creating Layer label_1_3x5_data_1_split
I0630 18:51:02.832087 32364 net.cpp:434] label_1_3x5_data_1_split <- label_1_3x5
I0630 18:51:02.832098 32364 net.cpp:408] label_1_3x5_data_1_split -> label_1_3x5_data_1_split_0
I0630 18:51:02.832110 32364 net.cpp:408] label_1_3x5_data_1_split -> label_1_3x5_data_1_split_1
I0630 18:51:02.832171 32364 net.cpp:150] Setting up label_1_3x5_data_1_split
I0630 18:51:02.832178 32364 net.cpp:157] Top shape: 4 6 72 96 (165888)
I0630 18:51:02.832182 32364 net.cpp:157] Top shape: 4 6 72 96 (165888)
I0630 18:51:02.832185 32364 net.cpp:165] Memory required for data: 31390848
I0630 18:51:02.832188 32364 layer_factory.hpp:77] Creating layer label_1_5x7_data_2_split
I0630 18:51:02.832197 32364 net.cpp:100] Creating Layer label_1_5x7_data_2_split
I0630 18:51:02.832201 32364 net.cpp:434] label_1_5x7_data_2_split <- label_1_5x7
I0630 18:51:02.832206 32364 net.cpp:408] label_1_5x7_data_2_split -> label_1_5x7_data_2_split_0
I0630 18:51:02.832212 32364 net.cpp:408] label_1_5x7_data_2_split -> label_1_5x7_data_2_split_1
I0630 18:51:02.832244 32364 net.cpp:150] Setting up label_1_5x7_data_2_split
I0630 18:51:02.832249 32364 net.cpp:157] Top shape: 4 6 72 96 (165888)
I0630 18:51:02.832253 32364 net.cpp:157] Top shape: 4 6 72 96 (165888)
I0630 18:51:02.832257 32364 net.cpp:165] Memory required for data: 32717952
I0630 18:51:02.832259 32364 layer_factory.hpp:77] Creating layer label_2_3x5_data_3_split
I0630 18:51:02.832264 32364 net.cpp:100] Creating Layer label_2_3x5_data_3_split
I0630 18:51:02.832268 32364 net.cpp:434] label_2_3x5_data_3_split <- label_2_3x5
I0630 18:51:02.832274 32364 net.cpp:408] label_2_3x5_data_3_split -> label_2_3x5_data_3_split_0
I0630 18:51:02.832279 32364 net.cpp:408] label_2_3x5_data_3_split -> label_2_3x5_data_3_split_1
I0630 18:51:02.832307 32364 net.cpp:150] Setting up label_2_3x5_data_3_split
I0630 18:51:02.832314 32364 net.cpp:157] Top shape: 4 6 36 48 (41472)
I0630 18:51:02.832319 32364 net.cpp:157] Top shape: 4 6 36 48 (41472)
I0630 18:51:02.832321 32364 net.cpp:165] Memory required for data: 33049728
I0630 18:51:02.832324 32364 layer_factory.hpp:77] Creating layer label_2_5x7_data_4_split
I0630 18:51:02.832329 32364 net.cpp:100] Creating Layer label_2_5x7_data_4_split
I0630 18:51:02.832332 32364 net.cpp:434] label_2_5x7_data_4_split <- label_2_5x7
I0630 18:51:02.832340 32364 net.cpp:408] label_2_5x7_data_4_split -> label_2_5x7_data_4_split_0
I0630 18:51:02.832345 32364 net.cpp:408] label_2_5x7_data_4_split -> label_2_5x7_data_4_split_1
I0630 18:51:02.832373 32364 net.cpp:150] Setting up label_2_5x7_data_4_split
I0630 18:51:02.832379 32364 net.cpp:157] Top shape: 4 6 36 48 (41472)
I0630 18:51:02.832383 32364 net.cpp:157] Top shape: 4 6 36 48 (41472)
I0630 18:51:02.832386 32364 net.cpp:165] Memory required for data: 33381504
I0630 18:51:02.832388 32364 layer_factory.hpp:77] Creating layer label_3_3x5_data_5_split
I0630 18:51:02.832394 32364 net.cpp:100] Creating Layer label_3_3x5_data_5_split
I0630 18:51:02.832397 32364 net.cpp:434] label_3_3x5_data_5_split <- label_3_3x5
I0630 18:51:02.832401 32364 net.cpp:408] label_3_3x5_data_5_split -> label_3_3x5_data_5_split_0
I0630 18:51:02.832409 32364 net.cpp:408] label_3_3x5_data_5_split -> label_3_3x5_data_5_split_1
I0630 18:51:02.832437 32364 net.cpp:150] Setting up label_3_3x5_data_5_split
I0630 18:51:02.832443 32364 net.cpp:157] Top shape: 4 6 18 24 (10368)
I0630 18:51:02.832448 32364 net.cpp:157] Top shape: 4 6 18 24 (10368)
I0630 18:51:02.832450 32364 net.cpp:165] Memory required for data: 33464448
I0630 18:51:02.832453 32364 layer_factory.hpp:77] Creating layer label_3_5x7_data_6_split
I0630 18:51:02.832458 32364 net.cpp:100] Creating Layer label_3_5x7_data_6_split
I0630 18:51:02.832460 32364 net.cpp:434] label_3_5x7_data_6_split <- label_3_5x7
I0630 18:51:02.832466 32364 net.cpp:408] label_3_5x7_data_6_split -> label_3_5x7_data_6_split_0
I0630 18:51:02.832471 32364 net.cpp:408] label_3_5x7_data_6_split -> label_3_5x7_data_6_split_1
I0630 18:51:02.832500 32364 net.cpp:150] Setting up label_3_5x7_data_6_split
I0630 18:51:02.832506 32364 net.cpp:157] Top shape: 4 6 18 24 (10368)
I0630 18:51:02.832510 32364 net.cpp:157] Top shape: 4 6 18 24 (10368)
I0630 18:51:02.832514 32364 net.cpp:165] Memory required for data: 33547392
I0630 18:51:02.832516 32364 layer_factory.hpp:77] Creating layer label_4_3x5_data_7_split
I0630 18:51:02.832520 32364 net.cpp:100] Creating Layer label_4_3x5_data_7_split
I0630 18:51:02.832523 32364 net.cpp:434] label_4_3x5_data_7_split <- label_4_3x5
I0630 18:51:02.832527 32364 net.cpp:408] label_4_3x5_data_7_split -> label_4_3x5_data_7_split_0
I0630 18:51:02.832533 32364 net.cpp:408] label_4_3x5_data_7_split -> label_4_3x5_data_7_split_1
I0630 18:51:02.832595 32364 net.cpp:150] Setting up label_4_3x5_data_7_split
I0630 18:51:02.832600 32364 net.cpp:157] Top shape: 4 6 9 12 (2592)
I0630 18:51:02.832604 32364 net.cpp:157] Top shape: 4 6 9 12 (2592)
I0630 18:51:02.832607 32364 net.cpp:165] Memory required for data: 33568128
I0630 18:51:02.832610 32364 layer_factory.hpp:77] Creating layer conv1_1
I0630 18:51:02.832624 32364 net.cpp:100] Creating Layer conv1_1
I0630 18:51:02.832628 32364 net.cpp:434] conv1_1 <- data
I0630 18:51:02.832633 32364 net.cpp:408] conv1_1 -> conv1_1
I0630 18:51:03.372287 32364 net.cpp:150] Setting up conv1_1
I0630 18:51:03.372346 32364 net.cpp:157] Top shape: 4 64 576 768 (113246208)
I0630 18:51:03.372349 32364 net.cpp:165] Memory required for data: 486552960
I0630 18:51:03.372391 32364 layer_factory.hpp:77] Creating layer relu1_1
I0630 18:51:03.372407 32364 net.cpp:100] Creating Layer relu1_1
I0630 18:51:03.372413 32364 net.cpp:434] relu1_1 <- conv1_1
I0630 18:51:03.372421 32364 net.cpp:395] relu1_1 -> conv1_1 (in-place)
I0630 18:51:03.373010 32364 net.cpp:150] Setting up relu1_1
I0630 18:51:03.373021 32364 net.cpp:157] Top shape: 4 64 576 768 (113246208)
I0630 18:51:03.373023 32364 net.cpp:165] Memory required for data: 939537792
I0630 18:51:03.373028 32364 layer_factory.hpp:77] Creating layer conv1_2
I0630 18:51:03.373039 32364 net.cpp:100] Creating Layer conv1_2
I0630 18:51:03.373042 32364 net.cpp:434] conv1_2 <- conv1_1
I0630 18:51:03.373049 32364 net.cpp:408] conv1_2 -> conv1_2
I0630 18:51:03.376047 32364 net.cpp:150] Setting up conv1_2
I0630 18:51:03.376068 32364 net.cpp:157] Top shape: 4 64 576 768 (113246208)
I0630 18:51:03.376070 32364 net.cpp:165] Memory required for data: 1392522624
I0630 18:51:03.376085 32364 layer_factory.hpp:77] Creating layer relu1_2
I0630 18:51:03.376098 32364 net.cpp:100] Creating Layer relu1_2
I0630 18:51:03.376103 32364 net.cpp:434] relu1_2 <- conv1_2
I0630 18:51:03.376111 32364 net.cpp:395] relu1_2 -> conv1_2 (in-place)
I0630 18:51:03.376382 32364 net.cpp:150] Setting up relu1_2
I0630 18:51:03.376389 32364 net.cpp:157] Top shape: 4 64 576 768 (113246208)
I0630 18:51:03.376391 32364 net.cpp:165] Memory required for data: 1845507456
I0630 18:51:03.376394 32364 layer_factory.hpp:77] Creating layer pool1
I0630 18:51:03.376400 32364 net.cpp:100] Creating Layer pool1
I0630 18:51:03.376405 32364 net.cpp:434] pool1 <- conv1_2
I0630 18:51:03.376410 32364 net.cpp:408] pool1 -> pool1
I0630 18:51:03.376471 32364 net.cpp:150] Setting up pool1
I0630 18:51:03.376474 32364 net.cpp:157] Top shape: 4 64 288 384 (28311552)
I0630 18:51:03.376477 32364 net.cpp:165] Memory required for data: 1958753664
I0630 18:51:03.376479 32364 layer_factory.hpp:77] Creating layer conv2_1
I0630 18:51:03.376487 32364 net.cpp:100] Creating Layer conv2_1
I0630 18:51:03.376489 32364 net.cpp:434] conv2_1 <- pool1
I0630 18:51:03.376493 32364 net.cpp:408] conv2_1 -> conv2_1
I0630 18:51:03.378924 32364 net.cpp:150] Setting up conv2_1
I0630 18:51:03.378943 32364 net.cpp:157] Top shape: 4 128 288 384 (56623104)
I0630 18:51:03.378945 32364 net.cpp:165] Memory required for data: 2185246080
I0630 18:51:03.378955 32364 layer_factory.hpp:77] Creating layer relu2_1
I0630 18:51:03.378962 32364 net.cpp:100] Creating Layer relu2_1
I0630 18:51:03.378964 32364 net.cpp:434] relu2_1 <- conv2_1
I0630 18:51:03.378969 32364 net.cpp:395] relu2_1 -> conv2_1 (in-place)
I0630 18:51:03.379596 32364 net.cpp:150] Setting up relu2_1
I0630 18:51:03.379604 32364 net.cpp:157] Top shape: 4 128 288 384 (56623104)
I0630 18:51:03.379606 32364 net.cpp:165] Memory required for data: 2411738496
I0630 18:51:03.379609 32364 layer_factory.hpp:77] Creating layer conv2_2
I0630 18:51:03.379616 32364 net.cpp:100] Creating Layer conv2_2
I0630 18:51:03.379618 32364 net.cpp:434] conv2_2 <- conv2_1
I0630 18:51:03.379622 32364 net.cpp:408] conv2_2 -> conv2_2
I0630 18:51:03.381305 32364 net.cpp:150] Setting up conv2_2
I0630 18:51:03.381319 32364 net.cpp:157] Top shape: 4 128 288 384 (56623104)
I0630 18:51:03.381320 32364 net.cpp:165] Memory required for data: 2638230912
I0630 18:51:03.381326 32364 layer_factory.hpp:77] Creating layer relu2_2
I0630 18:51:03.381335 32364 net.cpp:100] Creating Layer relu2_2
I0630 18:51:03.381337 32364 net.cpp:434] relu2_2 <- conv2_2
I0630 18:51:03.381340 32364 net.cpp:395] relu2_2 -> conv2_2 (in-place)
I0630 18:51:03.381929 32364 net.cpp:150] Setting up relu2_2
I0630 18:51:03.381937 32364 net.cpp:157] Top shape: 4 128 288 384 (56623104)
I0630 18:51:03.381939 32364 net.cpp:165] Memory required for data: 2864723328
I0630 18:51:03.381942 32364 layer_factory.hpp:77] Creating layer pool2
I0630 18:51:03.381947 32364 net.cpp:100] Creating Layer pool2
I0630 18:51:03.381949 32364 net.cpp:434] pool2 <- conv2_2
I0630 18:51:03.381953 32364 net.cpp:408] pool2 -> pool2
I0630 18:51:03.381991 32364 net.cpp:150] Setting up pool2
I0630 18:51:03.381995 32364 net.cpp:157] Top shape: 4 128 144 192 (14155776)
I0630 18:51:03.381997 32364 net.cpp:165] Memory required for data: 2921346432
I0630 18:51:03.381999 32364 layer_factory.hpp:77] Creating layer conv3_1
I0630 18:51:03.382006 32364 net.cpp:100] Creating Layer conv3_1
I0630 18:51:03.382010 32364 net.cpp:434] conv3_1 <- pool2
I0630 18:51:03.382014 32364 net.cpp:408] conv3_1 -> conv3_1
I0630 18:51:03.384698 32364 net.cpp:150] Setting up conv3_1
I0630 18:51:03.384714 32364 net.cpp:157] Top shape: 4 256 144 192 (28311552)
I0630 18:51:03.384717 32364 net.cpp:165] Memory required for data: 3034592640
I0630 18:51:03.384729 32364 layer_factory.hpp:77] Creating layer relu3_1
I0630 18:51:03.384738 32364 net.cpp:100] Creating Layer relu3_1
I0630 18:51:03.384743 32364 net.cpp:434] relu3_1 <- conv3_1
I0630 18:51:03.384748 32364 net.cpp:395] relu3_1 -> conv3_1 (in-place)
I0630 18:51:03.385033 32364 net.cpp:150] Setting up relu3_1
I0630 18:51:03.385040 32364 net.cpp:157] Top shape: 4 256 144 192 (28311552)
I0630 18:51:03.385042 32364 net.cpp:165] Memory required for data: 3147838848
I0630 18:51:03.385046 32364 layer_factory.hpp:77] Creating layer conv3_2
I0630 18:51:03.385052 32364 net.cpp:100] Creating Layer conv3_2
I0630 18:51:03.385056 32364 net.cpp:434] conv3_2 <- conv3_1
I0630 18:51:03.385062 32364 net.cpp:408] conv3_2 -> conv3_2
I0630 18:51:03.388422 32364 net.cpp:150] Setting up conv3_2
I0630 18:51:03.388442 32364 net.cpp:157] Top shape: 4 256 144 192 (28311552)
I0630 18:51:03.388443 32364 net.cpp:165] Memory required for data: 3261085056
I0630 18:51:03.388451 32364 layer_factory.hpp:77] Creating layer relu3_2
I0630 18:51:03.388461 32364 net.cpp:100] Creating Layer relu3_2
I0630 18:51:03.388466 32364 net.cpp:434] relu3_2 <- conv3_2
I0630 18:51:03.388473 32364 net.cpp:395] relu3_2 -> conv3_2 (in-place)
I0630 18:51:03.388773 32364 net.cpp:150] Setting up relu3_2
I0630 18:51:03.388780 32364 net.cpp:157] Top shape: 4 256 144 192 (28311552)
I0630 18:51:03.388782 32364 net.cpp:165] Memory required for data: 3374331264
I0630 18:51:03.388785 32364 layer_factory.hpp:77] Creating layer conv3_3
I0630 18:51:03.388797 32364 net.cpp:100] Creating Layer conv3_3
I0630 18:51:03.388800 32364 net.cpp:434] conv3_3 <- conv3_2
I0630 18:51:03.388808 32364 net.cpp:408] conv3_3 -> conv3_3
I0630 18:51:03.392561 32364 net.cpp:150] Setting up conv3_3
I0630 18:51:03.392580 32364 net.cpp:157] Top shape: 4 256 144 192 (28311552)
I0630 18:51:03.392582 32364 net.cpp:165] Memory required for data: 3487577472
I0630 18:51:03.392590 32364 layer_factory.hpp:77] Creating layer relu3_3
I0630 18:51:03.392601 32364 net.cpp:100] Creating Layer relu3_3
I0630 18:51:03.392604 32364 net.cpp:434] relu3_3 <- conv3_3
I0630 18:51:03.392611 32364 net.cpp:395] relu3_3 -> conv3_3 (in-place)
I0630 18:51:03.393271 32364 net.cpp:150] Setting up relu3_3
I0630 18:51:03.393281 32364 net.cpp:157] Top shape: 4 256 144 192 (28311552)
I0630 18:51:03.393283 32364 net.cpp:165] Memory required for data: 3600823680
I0630 18:51:03.393286 32364 layer_factory.hpp:77] Creating layer pool3
I0630 18:51:03.393295 32364 net.cpp:100] Creating Layer pool3
I0630 18:51:03.393297 32364 net.cpp:434] pool3 <- conv3_3
I0630 18:51:03.393306 32364 net.cpp:408] pool3 -> pool3
I0630 18:51:03.393359 32364 net.cpp:150] Setting up pool3
I0630 18:51:03.393368 32364 net.cpp:157] Top shape: 4 256 72 96 (7077888)
I0630 18:51:03.393370 32364 net.cpp:165] Memory required for data: 3629135232
I0630 18:51:03.393373 32364 layer_factory.hpp:77] Creating layer conv4_1
I0630 18:51:03.393380 32364 net.cpp:100] Creating Layer conv4_1
I0630 18:51:03.393384 32364 net.cpp:434] conv4_1 <- pool3
I0630 18:51:03.393393 32364 net.cpp:408] conv4_1 -> conv4_1
I0630 18:51:03.399250 32364 net.cpp:150] Setting up conv4_1
I0630 18:51:03.399384 32364 net.cpp:157] Top shape: 4 512 72 96 (14155776)
I0630 18:51:03.399439 32364 net.cpp:165] Memory required for data: 3685758336
I0630 18:51:03.399497 32364 layer_factory.hpp:77] Creating layer relu4_1
I0630 18:51:03.399550 32364 net.cpp:100] Creating Layer relu4_1
I0630 18:51:03.399628 32364 net.cpp:434] relu4_1 <- conv4_1
I0630 18:51:03.399679 32364 net.cpp:395] relu4_1 -> conv4_1 (in-place)
I0630 18:51:03.400128 32364 net.cpp:150] Setting up relu4_1
I0630 18:51:03.400194 32364 net.cpp:157] Top shape: 4 512 72 96 (14155776)
I0630 18:51:03.400243 32364 net.cpp:165] Memory required for data: 3742381440
I0630 18:51:03.400290 32364 layer_factory.hpp:77] Creating layer conv4_2
I0630 18:51:03.400342 32364 net.cpp:100] Creating Layer conv4_2
I0630 18:51:03.400388 32364 net.cpp:434] conv4_2 <- conv4_1
I0630 18:51:03.400437 32364 net.cpp:408] conv4_2 -> conv4_2
I0630 18:51:03.408591 32364 net.cpp:150] Setting up conv4_2
I0630 18:51:03.408612 32364 net.cpp:157] Top shape: 4 512 72 96 (14155776)
I0630 18:51:03.408614 32364 net.cpp:165] Memory required for data: 3799004544
I0630 18:51:03.408629 32364 layer_factory.hpp:77] Creating layer relu4_2
I0630 18:51:03.408639 32364 net.cpp:100] Creating Layer relu4_2
I0630 18:51:03.408643 32364 net.cpp:434] relu4_2 <- conv4_2
I0630 18:51:03.408651 32364 net.cpp:395] relu4_2 -> conv4_2 (in-place)
I0630 18:51:03.408895 32364 net.cpp:150] Setting up relu4_2
I0630 18:51:03.408902 32364 net.cpp:157] Top shape: 4 512 72 96 (14155776)
I0630 18:51:03.408905 32364 net.cpp:165] Memory required for data: 3855627648
I0630 18:51:03.408907 32364 layer_factory.hpp:77] Creating layer conv4_3
I0630 18:51:03.408917 32364 net.cpp:100] Creating Layer conv4_3
I0630 18:51:03.408921 32364 net.cpp:434] conv4_3 <- conv4_2
I0630 18:51:03.408926 32364 net.cpp:408] conv4_3 -> conv4_3
I0630 18:51:03.414894 32364 net.cpp:150] Setting up conv4_3
I0630 18:51:03.414916 32364 net.cpp:157] Top shape: 4 512 72 96 (14155776)
I0630 18:51:03.414919 32364 net.cpp:165] Memory required for data: 3912250752
I0630 18:51:03.414927 32364 layer_factory.hpp:77] Creating layer relu4_3
I0630 18:51:03.414937 32364 net.cpp:100] Creating Layer relu4_3
I0630 18:51:03.414942 32364 net.cpp:434] relu4_3 <- conv4_3
I0630 18:51:03.414948 32364 net.cpp:395] relu4_3 -> conv4_3 (in-place)
I0630 18:51:03.415594 32364 net.cpp:150] Setting up relu4_3
I0630 18:51:03.415604 32364 net.cpp:157] Top shape: 4 512 72 96 (14155776)
I0630 18:51:03.415606 32364 net.cpp:165] Memory required for data: 3968873856
I0630 18:51:03.415611 32364 layer_factory.hpp:77] Creating layer conv4_3_relu4_3_0_split
I0630 18:51:03.415616 32364 net.cpp:100] Creating Layer conv4_3_relu4_3_0_split
I0630 18:51:03.415619 32364 net.cpp:434] conv4_3_relu4_3_0_split <- conv4_3
I0630 18:51:03.415627 32364 net.cpp:408] conv4_3_relu4_3_0_split -> conv4_3_relu4_3_0_split_0
I0630 18:51:03.415637 32364 net.cpp:408] conv4_3_relu4_3_0_split -> conv4_3_relu4_3_0_split_1
I0630 18:51:03.415678 32364 net.cpp:150] Setting up conv4_3_relu4_3_0_split
I0630 18:51:03.415684 32364 net.cpp:157] Top shape: 4 512 72 96 (14155776)
I0630 18:51:03.415688 32364 net.cpp:157] Top shape: 4 512 72 96 (14155776)
I0630 18:51:03.415690 32364 net.cpp:165] Memory required for data: 4082120064
I0630 18:51:03.415693 32364 layer_factory.hpp:77] Creating layer loss1_conv1
I0630 18:51:03.415709 32364 net.cpp:100] Creating Layer loss1_conv1
I0630 18:51:03.415712 32364 net.cpp:434] loss1_conv1 <- conv4_3_relu4_3_0_split_0
I0630 18:51:03.415719 32364 net.cpp:408] loss1_conv1 -> loss1_conv1
I0630 18:51:03.449950 32364 net.cpp:150] Setting up loss1_conv1
I0630 18:51:03.449970 32364 net.cpp:157] Top shape: 4 512 72 96 (14155776)
I0630 18:51:03.449972 32364 net.cpp:165] Memory required for data: 4138743168
I0630 18:51:03.449981 32364 layer_factory.hpp:77] Creating layer loss_relu1
I0630 18:51:03.449990 32364 net.cpp:100] Creating Layer loss_relu1
I0630 18:51:03.449995 32364 net.cpp:434] loss_relu1 <- loss1_conv1
I0630 18:51:03.450003 32364 net.cpp:395] loss_relu1 -> loss1_conv1 (in-place)
I0630 18:51:03.450247 32364 net.cpp:150] Setting up loss_relu1
I0630 18:51:03.450254 32364 net.cpp:157] Top shape: 4 512 72 96 (14155776)
I0630 18:51:03.450256 32364 net.cpp:165] Memory required for data: 4195366272
I0630 18:51:03.450259 32364 layer_factory.hpp:77] Creating layer loss1_conv1_loss_relu1_0_split
I0630 18:51:03.450266 32364 net.cpp:100] Creating Layer loss1_conv1_loss_relu1_0_split
I0630 18:51:03.450270 32364 net.cpp:434] loss1_conv1_loss_relu1_0_split <- loss1_conv1
I0630 18:51:03.450275 32364 net.cpp:408] loss1_conv1_loss_relu1_0_split -> loss1_conv1_loss_relu1_0_split_0
I0630 18:51:03.450282 32364 net.cpp:408] loss1_conv1_loss_relu1_0_split -> loss1_conv1_loss_relu1_0_split_1
I0630 18:51:03.450327 32364 net.cpp:150] Setting up loss1_conv1_loss_relu1_0_split
I0630 18:51:03.450333 32364 net.cpp:157] Top shape: 4 512 72 96 (14155776)
I0630 18:51:03.450337 32364 net.cpp:157] Top shape: 4 512 72 96 (14155776)
I0630 18:51:03.450340 32364 net.cpp:165] Memory required for data: 4308612480
I0630 18:51:03.450342 32364 layer_factory.hpp:77] Creating layer LFCN_1_3x5
I0630 18:51:03.450353 32364 net.cpp:100] Creating Layer LFCN_1_3x5
I0630 18:51:03.450357 32364 net.cpp:434] LFCN_1_3x5 <- loss1_conv1_loss_relu1_0_split_0
I0630 18:51:03.450364 32364 net.cpp:408] LFCN_1_3x5 -> LFCN_1_3x5
I0630 18:51:03.452999 32364 net.cpp:150] Setting up LFCN_1_3x5
I0630 18:51:03.453013 32364 net.cpp:157] Top shape: 4 7 72 96 (193536)
I0630 18:51:03.453018 32364 net.cpp:165] Memory required for data: 4309386624
I0630 18:51:03.453027 32364 layer_factory.hpp:77] Creating layer LFCN_1_3x5_LFCN_1_3x5_0_split
I0630 18:51:03.453035 32364 net.cpp:100] Creating Layer LFCN_1_3x5_LFCN_1_3x5_0_split
I0630 18:51:03.453039 32364 net.cpp:434] LFCN_1_3x5_LFCN_1_3x5_0_split <- LFCN_1_3x5
I0630 18:51:03.453045 32364 net.cpp:408] LFCN_1_3x5_LFCN_1_3x5_0_split -> LFCN_1_3x5_LFCN_1_3x5_0_split_0
I0630 18:51:03.453055 32364 net.cpp:408] LFCN_1_3x5_LFCN_1_3x5_0_split -> LFCN_1_3x5_LFCN_1_3x5_0_split_1
I0630 18:51:03.453096 32364 net.cpp:150] Setting up LFCN_1_3x5_LFCN_1_3x5_0_split
I0630 18:51:03.453101 32364 net.cpp:157] Top shape: 4 7 72 96 (193536)
I0630 18:51:03.453105 32364 net.cpp:157] Top shape: 4 7 72 96 (193536)
I0630 18:51:03.453109 32364 net.cpp:165] Memory required for data: 4310934912
I0630 18:51:03.453111 32364 layer_factory.hpp:77] Creating layer detection_loss_1_3x5
I0630 18:51:03.453119 32364 net.cpp:100] Creating Layer detection_loss_1_3x5
I0630 18:51:03.453122 32364 net.cpp:434] detection_loss_1_3x5 <- LFCN_1_3x5_LFCN_1_3x5_0_split_0
I0630 18:51:03.453127 32364 net.cpp:434] detection_loss_1_3x5 <- label_1_3x5_data_1_split_0
I0630 18:51:03.453135 32364 net.cpp:408] detection_loss_1_3x5 -> loss_1_3x5
I0630 18:51:03.453148 32364 layer_factory.hpp:77] Creating layer detection_loss_1_3x5
I0630 18:51:03.453595 32364 net.cpp:150] Setting up detection_loss_1_3x5
I0630 18:51:03.453604 32364 net.cpp:157] Top shape: 1 1 1 2 (2)
I0630 18:51:03.453608 32364 net.cpp:160]     with loss weight 0.9
I0630 18:51:03.453624 32364 net.cpp:165] Memory required for data: 4310934920
I0630 18:51:03.453627 32364 layer_factory.hpp:77] Creating layer detection_accuracy_1_3x5
I0630 18:51:03.453636 32364 net.cpp:100] Creating Layer detection_accuracy_1_3x5
I0630 18:51:03.453640 32364 net.cpp:434] detection_accuracy_1_3x5 <- LFCN_1_3x5_LFCN_1_3x5_0_split_1
I0630 18:51:03.453645 32364 net.cpp:434] detection_accuracy_1_3x5 <- label_1_3x5_data_1_split_1
I0630 18:51:03.453650 32364 net.cpp:408] detection_accuracy_1_3x5 -> accuracy_1_3x5
I0630 18:51:03.453660 32364 net.cpp:408] detection_accuracy_1_3x5 -> boxiou_1_3x5
I0630 18:51:03.453701 32364 net.cpp:150] Setting up detection_accuracy_1_3x5
I0630 18:51:03.453706 32364 net.cpp:157] Top shape: 1 1 1 2 (2)
I0630 18:51:03.453708 32364 net.cpp:157] Top shape: 1 1 1 1 (1)
I0630 18:51:03.453711 32364 net.cpp:165] Memory required for data: 4310934932
I0630 18:51:03.453714 32364 layer_factory.hpp:77] Creating layer LFCN_1_5x7
I0630 18:51:03.453724 32364 net.cpp:100] Creating Layer LFCN_1_5x7
I0630 18:51:03.453727 32364 net.cpp:434] LFCN_1_5x7 <- loss1_conv1_loss_relu1_0_split_1
I0630 18:51:03.453735 32364 net.cpp:408] LFCN_1_5x7 -> LFCN_1_5x7
I0630 18:51:03.456840 32364 net.cpp:150] Setting up LFCN_1_5x7
I0630 18:51:03.456861 32364 net.cpp:157] Top shape: 4 7 72 96 (193536)
I0630 18:51:03.456866 32364 net.cpp:165] Memory required for data: 4311709076
I0630 18:51:03.456876 32364 layer_factory.hpp:77] Creating layer LFCN_1_5x7_LFCN_1_5x7_0_split
I0630 18:51:03.456884 32364 net.cpp:100] Creating Layer LFCN_1_5x7_LFCN_1_5x7_0_split
I0630 18:51:03.456889 32364 net.cpp:434] LFCN_1_5x7_LFCN_1_5x7_0_split <- LFCN_1_5x7
I0630 18:51:03.456897 32364 net.cpp:408] LFCN_1_5x7_LFCN_1_5x7_0_split -> LFCN_1_5x7_LFCN_1_5x7_0_split_0
I0630 18:51:03.456907 32364 net.cpp:408] LFCN_1_5x7_LFCN_1_5x7_0_split -> LFCN_1_5x7_LFCN_1_5x7_0_split_1
I0630 18:51:03.456951 32364 net.cpp:150] Setting up LFCN_1_5x7_LFCN_1_5x7_0_split
I0630 18:51:03.456957 32364 net.cpp:157] Top shape: 4 7 72 96 (193536)
I0630 18:51:03.456961 32364 net.cpp:157] Top shape: 4 7 72 96 (193536)
I0630 18:51:03.456964 32364 net.cpp:165] Memory required for data: 4313257364
I0630 18:51:03.456966 32364 layer_factory.hpp:77] Creating layer detection_loss_1_5x7
I0630 18:51:03.456974 32364 net.cpp:100] Creating Layer detection_loss_1_5x7
I0630 18:51:03.456977 32364 net.cpp:434] detection_loss_1_5x7 <- LFCN_1_5x7_LFCN_1_5x7_0_split_0
I0630 18:51:03.456982 32364 net.cpp:434] detection_loss_1_5x7 <- label_1_5x7_data_2_split_0
I0630 18:51:03.456990 32364 net.cpp:408] detection_loss_1_5x7 -> loss_1_5x7
I0630 18:51:03.456998 32364 layer_factory.hpp:77] Creating layer detection_loss_1_5x7
I0630 18:51:03.458123 32364 net.cpp:150] Setting up detection_loss_1_5x7
I0630 18:51:03.458148 32364 net.cpp:157] Top shape: 1 1 1 2 (2)
I0630 18:51:03.458151 32364 net.cpp:160]     with loss weight 0.9
I0630 18:51:03.458168 32364 net.cpp:165] Memory required for data: 4313257372
I0630 18:51:03.458173 32364 layer_factory.hpp:77] Creating layer detection_accuracy_1_5x7
I0630 18:51:03.458185 32364 net.cpp:100] Creating Layer detection_accuracy_1_5x7
I0630 18:51:03.458192 32364 net.cpp:434] detection_accuracy_1_5x7 <- LFCN_1_5x7_LFCN_1_5x7_0_split_1
I0630 18:51:03.458199 32364 net.cpp:434] detection_accuracy_1_5x7 <- label_1_5x7_data_2_split_1
I0630 18:51:03.458204 32364 net.cpp:408] detection_accuracy_1_5x7 -> accuracy_1_5x7
I0630 18:51:03.458215 32364 net.cpp:408] detection_accuracy_1_5x7 -> boxiou_1_5x7
I0630 18:51:03.458261 32364 net.cpp:150] Setting up detection_accuracy_1_5x7
I0630 18:51:03.458266 32364 net.cpp:157] Top shape: 1 1 1 2 (2)
I0630 18:51:03.458269 32364 net.cpp:157] Top shape: 1 1 1 1 (1)
I0630 18:51:03.458272 32364 net.cpp:165] Memory required for data: 4313257384
I0630 18:51:03.458276 32364 layer_factory.hpp:77] Creating layer pool4
I0630 18:51:03.458283 32364 net.cpp:100] Creating Layer pool4
I0630 18:51:03.458287 32364 net.cpp:434] pool4 <- conv4_3_relu4_3_0_split_1
I0630 18:51:03.458293 32364 net.cpp:408] pool4 -> pool4
I0630 18:51:03.458335 32364 net.cpp:150] Setting up pool4
I0630 18:51:03.458340 32364 net.cpp:157] Top shape: 4 512 36 48 (3538944)
I0630 18:51:03.458343 32364 net.cpp:165] Memory required for data: 4327413160
I0630 18:51:03.458346 32364 layer_factory.hpp:77] Creating layer conv5_1
I0630 18:51:03.458355 32364 net.cpp:100] Creating Layer conv5_1
I0630 18:51:03.458359 32364 net.cpp:434] conv5_1 <- pool4
I0630 18:51:03.458364 32364 net.cpp:408] conv5_1 -> conv5_1
I0630 18:51:03.464303 32364 net.cpp:150] Setting up conv5_1
I0630 18:51:03.464324 32364 net.cpp:157] Top shape: 4 512 36 48 (3538944)
I0630 18:51:03.464327 32364 net.cpp:165] Memory required for data: 4341568936
I0630 18:51:03.464335 32364 layer_factory.hpp:77] Creating layer relu5_1
I0630 18:51:03.464344 32364 net.cpp:100] Creating Layer relu5_1
I0630 18:51:03.464349 32364 net.cpp:434] relu5_1 <- conv5_1
I0630 18:51:03.464355 32364 net.cpp:395] relu5_1 -> conv5_1 (in-place)
I0630 18:51:03.464995 32364 net.cpp:150] Setting up relu5_1
I0630 18:51:03.465004 32364 net.cpp:157] Top shape: 4 512 36 48 (3538944)
I0630 18:51:03.465008 32364 net.cpp:165] Memory required for data: 4355724712
I0630 18:51:03.465010 32364 layer_factory.hpp:77] Creating layer conv5_2
I0630 18:51:03.465019 32364 net.cpp:100] Creating Layer conv5_2
I0630 18:51:03.465024 32364 net.cpp:434] conv5_2 <- conv5_1
I0630 18:51:03.465031 32364 net.cpp:408] conv5_2 -> conv5_2
I0630 18:51:03.470512 32364 net.cpp:150] Setting up conv5_2
I0630 18:51:03.470533 32364 net.cpp:157] Top shape: 4 512 36 48 (3538944)
I0630 18:51:03.470536 32364 net.cpp:165] Memory required for data: 4369880488
I0630 18:51:03.470544 32364 layer_factory.hpp:77] Creating layer relu5_2
I0630 18:51:03.470556 32364 net.cpp:100] Creating Layer relu5_2
I0630 18:51:03.470561 32364 net.cpp:434] relu5_2 <- conv5_2
I0630 18:51:03.470566 32364 net.cpp:395] relu5_2 -> conv5_2 (in-place)
I0630 18:51:03.470906 32364 net.cpp:150] Setting up relu5_2
I0630 18:51:03.470914 32364 net.cpp:157] Top shape: 4 512 36 48 (3538944)
I0630 18:51:03.470917 32364 net.cpp:165] Memory required for data: 4384036264
I0630 18:51:03.470921 32364 layer_factory.hpp:77] Creating layer conv5_3
I0630 18:51:03.470928 32364 net.cpp:100] Creating Layer conv5_3
I0630 18:51:03.470932 32364 net.cpp:434] conv5_3 <- conv5_2
I0630 18:51:03.470938 32364 net.cpp:408] conv5_3 -> conv5_3
I0630 18:51:03.477098 32364 net.cpp:150] Setting up conv5_3
I0630 18:51:03.477118 32364 net.cpp:157] Top shape: 4 512 36 48 (3538944)
I0630 18:51:03.477120 32364 net.cpp:165] Memory required for data: 4398192040
I0630 18:51:03.477129 32364 layer_factory.hpp:77] Creating layer relu5_3
I0630 18:51:03.477139 32364 net.cpp:100] Creating Layer relu5_3
I0630 18:51:03.477144 32364 net.cpp:434] relu5_3 <- conv5_3
I0630 18:51:03.477152 32364 net.cpp:395] relu5_3 -> conv5_3 (in-place)
I0630 18:51:03.477442 32364 net.cpp:150] Setting up relu5_3
I0630 18:51:03.477452 32364 net.cpp:157] Top shape: 4 512 36 48 (3538944)
I0630 18:51:03.477453 32364 net.cpp:165] Memory required for data: 4412347816
I0630 18:51:03.477458 32364 layer_factory.hpp:77] Creating layer conv5_3_relu5_3_0_split
I0630 18:51:03.477463 32364 net.cpp:100] Creating Layer conv5_3_relu5_3_0_split
I0630 18:51:03.477466 32364 net.cpp:434] conv5_3_relu5_3_0_split <- conv5_3
I0630 18:51:03.477473 32364 net.cpp:408] conv5_3_relu5_3_0_split -> conv5_3_relu5_3_0_split_0
I0630 18:51:03.477481 32364 net.cpp:408] conv5_3_relu5_3_0_split -> conv5_3_relu5_3_0_split_1
I0630 18:51:03.477489 32364 net.cpp:408] conv5_3_relu5_3_0_split -> conv5_3_relu5_3_0_split_2
I0630 18:51:03.477546 32364 net.cpp:150] Setting up conv5_3_relu5_3_0_split
I0630 18:51:03.477552 32364 net.cpp:157] Top shape: 4 512 36 48 (3538944)
I0630 18:51:03.477556 32364 net.cpp:157] Top shape: 4 512 36 48 (3538944)
I0630 18:51:03.477560 32364 net.cpp:157] Top shape: 4 512 36 48 (3538944)
I0630 18:51:03.477562 32364 net.cpp:165] Memory required for data: 4454815144
I0630 18:51:03.477566 32364 layer_factory.hpp:77] Creating layer LFCN_2_3x5
I0630 18:51:03.477576 32364 net.cpp:100] Creating Layer LFCN_2_3x5
I0630 18:51:03.477581 32364 net.cpp:434] LFCN_2_3x5 <- conv5_3_relu5_3_0_split_0
I0630 18:51:03.477586 32364 net.cpp:408] LFCN_2_3x5 -> LFCN_2_3x5
I0630 18:51:03.479416 32364 net.cpp:150] Setting up LFCN_2_3x5
I0630 18:51:03.479431 32364 net.cpp:157] Top shape: 4 7 36 48 (48384)
I0630 18:51:03.479435 32364 net.cpp:165] Memory required for data: 4455008680
I0630 18:51:03.479450 32364 layer_factory.hpp:77] Creating layer LFCN_2_3x5_LFCN_2_3x5_0_split
I0630 18:51:03.479459 32364 net.cpp:100] Creating Layer LFCN_2_3x5_LFCN_2_3x5_0_split
I0630 18:51:03.479463 32364 net.cpp:434] LFCN_2_3x5_LFCN_2_3x5_0_split <- LFCN_2_3x5
I0630 18:51:03.479470 32364 net.cpp:408] LFCN_2_3x5_LFCN_2_3x5_0_split -> LFCN_2_3x5_LFCN_2_3x5_0_split_0
I0630 18:51:03.479480 32364 net.cpp:408] LFCN_2_3x5_LFCN_2_3x5_0_split -> LFCN_2_3x5_LFCN_2_3x5_0_split_1
I0630 18:51:03.479521 32364 net.cpp:150] Setting up LFCN_2_3x5_LFCN_2_3x5_0_split
I0630 18:51:03.479526 32364 net.cpp:157] Top shape: 4 7 36 48 (48384)
I0630 18:51:03.479531 32364 net.cpp:157] Top shape: 4 7 36 48 (48384)
I0630 18:51:03.479532 32364 net.cpp:165] Memory required for data: 4455395752
I0630 18:51:03.479535 32364 layer_factory.hpp:77] Creating layer detection_loss_2_3x5
I0630 18:51:03.479543 32364 net.cpp:100] Creating Layer detection_loss_2_3x5
I0630 18:51:03.479547 32364 net.cpp:434] detection_loss_2_3x5 <- LFCN_2_3x5_LFCN_2_3x5_0_split_0
I0630 18:51:03.479552 32364 net.cpp:434] detection_loss_2_3x5 <- label_2_3x5_data_3_split_0
I0630 18:51:03.479557 32364 net.cpp:408] detection_loss_2_3x5 -> loss_2_3x5
I0630 18:51:03.479565 32364 layer_factory.hpp:77] Creating layer detection_loss_2_3x5
I0630 18:51:03.480422 32364 net.cpp:150] Setting up detection_loss_2_3x5
I0630 18:51:03.480432 32364 net.cpp:157] Top shape: 1 1 1 2 (2)
I0630 18:51:03.480434 32364 net.cpp:160]     with loss weight 1
I0630 18:51:03.480444 32364 net.cpp:165] Memory required for data: 4455395760
I0630 18:51:03.480448 32364 layer_factory.hpp:77] Creating layer detection_accuracy_2_3x5
I0630 18:51:03.480456 32364 net.cpp:100] Creating Layer detection_accuracy_2_3x5
I0630 18:51:03.480460 32364 net.cpp:434] detection_accuracy_2_3x5 <- LFCN_2_3x5_LFCN_2_3x5_0_split_1
I0630 18:51:03.480465 32364 net.cpp:434] detection_accuracy_2_3x5 <- label_2_3x5_data_3_split_1
I0630 18:51:03.480473 32364 net.cpp:408] detection_accuracy_2_3x5 -> accuracy_2_3x5
I0630 18:51:03.480480 32364 net.cpp:408] detection_accuracy_2_3x5 -> boxiou_2_3x5
I0630 18:51:03.480530 32364 net.cpp:150] Setting up detection_accuracy_2_3x5
I0630 18:51:03.480535 32364 net.cpp:157] Top shape: 1 1 1 2 (2)
I0630 18:51:03.480538 32364 net.cpp:157] Top shape: 1 1 1 1 (1)
I0630 18:51:03.480541 32364 net.cpp:165] Memory required for data: 4455395772
I0630 18:51:03.480545 32364 layer_factory.hpp:77] Creating layer LFCN_2_5x7
I0630 18:51:03.480554 32364 net.cpp:100] Creating Layer LFCN_2_5x7
I0630 18:51:03.480558 32364 net.cpp:434] LFCN_2_5x7 <- conv5_3_relu5_3_0_split_1
I0630 18:51:03.480564 32364 net.cpp:408] LFCN_2_5x7 -> LFCN_2_5x7
I0630 18:51:03.483834 32364 net.cpp:150] Setting up LFCN_2_5x7
I0630 18:51:03.483853 32364 net.cpp:157] Top shape: 4 7 36 48 (48384)
I0630 18:51:03.483855 32364 net.cpp:165] Memory required for data: 4455589308
I0630 18:51:03.483865 32364 layer_factory.hpp:77] Creating layer LFCN_2_5x7_LFCN_2_5x7_0_split
I0630 18:51:03.483873 32364 net.cpp:100] Creating Layer LFCN_2_5x7_LFCN_2_5x7_0_split
I0630 18:51:03.483878 32364 net.cpp:434] LFCN_2_5x7_LFCN_2_5x7_0_split <- LFCN_2_5x7
I0630 18:51:03.483886 32364 net.cpp:408] LFCN_2_5x7_LFCN_2_5x7_0_split -> LFCN_2_5x7_LFCN_2_5x7_0_split_0
I0630 18:51:03.483896 32364 net.cpp:408] LFCN_2_5x7_LFCN_2_5x7_0_split -> LFCN_2_5x7_LFCN_2_5x7_0_split_1
I0630 18:51:03.483942 32364 net.cpp:150] Setting up LFCN_2_5x7_LFCN_2_5x7_0_split
I0630 18:51:03.483948 32364 net.cpp:157] Top shape: 4 7 36 48 (48384)
I0630 18:51:03.483952 32364 net.cpp:157] Top shape: 4 7 36 48 (48384)
I0630 18:51:03.483955 32364 net.cpp:165] Memory required for data: 4455976380
I0630 18:51:03.483958 32364 layer_factory.hpp:77] Creating layer detection_loss_2_5x7
I0630 18:51:03.483965 32364 net.cpp:100] Creating Layer detection_loss_2_5x7
I0630 18:51:03.483969 32364 net.cpp:434] detection_loss_2_5x7 <- LFCN_2_5x7_LFCN_2_5x7_0_split_0
I0630 18:51:03.483974 32364 net.cpp:434] detection_loss_2_5x7 <- label_2_5x7_data_4_split_0
I0630 18:51:03.483980 32364 net.cpp:408] detection_loss_2_5x7 -> loss_2_5x7
I0630 18:51:03.483990 32364 layer_factory.hpp:77] Creating layer detection_loss_2_5x7
I0630 18:51:03.484395 32364 net.cpp:150] Setting up detection_loss_2_5x7
I0630 18:51:03.484402 32364 net.cpp:157] Top shape: 1 1 1 2 (2)
I0630 18:51:03.484405 32364 net.cpp:160]     with loss weight 1
I0630 18:51:03.484413 32364 net.cpp:165] Memory required for data: 4455976388
I0630 18:51:03.484416 32364 layer_factory.hpp:77] Creating layer detection_accuracy_2_5x7
I0630 18:51:03.484423 32364 net.cpp:100] Creating Layer detection_accuracy_2_5x7
I0630 18:51:03.484427 32364 net.cpp:434] detection_accuracy_2_5x7 <- LFCN_2_5x7_LFCN_2_5x7_0_split_1
I0630 18:51:03.484431 32364 net.cpp:434] detection_accuracy_2_5x7 <- label_2_5x7_data_4_split_1
I0630 18:51:03.484437 32364 net.cpp:408] detection_accuracy_2_5x7 -> accuracy_2_5x7
I0630 18:51:03.484444 32364 net.cpp:408] detection_accuracy_2_5x7 -> boxiou_2_5x7
I0630 18:51:03.484486 32364 net.cpp:150] Setting up detection_accuracy_2_5x7
I0630 18:51:03.484491 32364 net.cpp:157] Top shape: 1 1 1 2 (2)
I0630 18:51:03.484495 32364 net.cpp:157] Top shape: 1 1 1 1 (1)
I0630 18:51:03.484498 32364 net.cpp:165] Memory required for data: 4455976400
I0630 18:51:03.484500 32364 layer_factory.hpp:77] Creating layer pool5
I0630 18:51:03.484508 32364 net.cpp:100] Creating Layer pool5
I0630 18:51:03.484511 32364 net.cpp:434] pool5 <- conv5_3_relu5_3_0_split_2
I0630 18:51:03.484516 32364 net.cpp:408] pool5 -> pool5
I0630 18:51:03.484556 32364 net.cpp:150] Setting up pool5
I0630 18:51:03.484561 32364 net.cpp:157] Top shape: 4 512 18 24 (884736)
I0630 18:51:03.484565 32364 net.cpp:165] Memory required for data: 4459515344
I0630 18:51:03.484567 32364 layer_factory.hpp:77] Creating layer conv6_1
I0630 18:51:03.484577 32364 net.cpp:100] Creating Layer conv6_1
I0630 18:51:03.484581 32364 net.cpp:434] conv6_1 <- pool5
I0630 18:51:03.484588 32364 net.cpp:408] conv6_1 -> conv6_1
I0630 18:51:03.507537 32364 net.cpp:150] Setting up conv6_1
I0630 18:51:03.507555 32364 net.cpp:157] Top shape: 4 512 18 24 (884736)
I0630 18:51:03.507557 32364 net.cpp:165] Memory required for data: 4463054288
I0630 18:51:03.507565 32364 layer_factory.hpp:77] Creating layer relu6_1
I0630 18:51:03.507575 32364 net.cpp:100] Creating Layer relu6_1
I0630 18:51:03.507578 32364 net.cpp:434] relu6_1 <- conv6_1
I0630 18:51:03.507586 32364 net.cpp:395] relu6_1 -> conv6_1 (in-place)
I0630 18:51:03.507828 32364 net.cpp:150] Setting up relu6_1
I0630 18:51:03.507835 32364 net.cpp:157] Top shape: 4 512 18 24 (884736)
I0630 18:51:03.507838 32364 net.cpp:165] Memory required for data: 4466593232
I0630 18:51:03.507840 32364 layer_factory.hpp:77] Creating layer conv6_1_relu6_1_0_split
I0630 18:51:03.507846 32364 net.cpp:100] Creating Layer conv6_1_relu6_1_0_split
I0630 18:51:03.507851 32364 net.cpp:434] conv6_1_relu6_1_0_split <- conv6_1
I0630 18:51:03.507858 32364 net.cpp:408] conv6_1_relu6_1_0_split -> conv6_1_relu6_1_0_split_0
I0630 18:51:03.507865 32364 net.cpp:408] conv6_1_relu6_1_0_split -> conv6_1_relu6_1_0_split_1
I0630 18:51:03.507872 32364 net.cpp:408] conv6_1_relu6_1_0_split -> conv6_1_relu6_1_0_split_2
I0630 18:51:03.507925 32364 net.cpp:150] Setting up conv6_1_relu6_1_0_split
I0630 18:51:03.507930 32364 net.cpp:157] Top shape: 4 512 18 24 (884736)
I0630 18:51:03.507933 32364 net.cpp:157] Top shape: 4 512 18 24 (884736)
I0630 18:51:03.507936 32364 net.cpp:157] Top shape: 4 512 18 24 (884736)
I0630 18:51:03.507939 32364 net.cpp:165] Memory required for data: 4477210064
I0630 18:51:03.507941 32364 layer_factory.hpp:77] Creating layer LFCN_3_3x5
I0630 18:51:03.507951 32364 net.cpp:100] Creating Layer LFCN_3_3x5
I0630 18:51:03.507956 32364 net.cpp:434] LFCN_3_3x5 <- conv6_1_relu6_1_0_split_0
I0630 18:51:03.507962 32364 net.cpp:408] LFCN_3_3x5 -> LFCN_3_3x5
I0630 18:51:03.510718 32364 net.cpp:150] Setting up LFCN_3_3x5
I0630 18:51:03.510736 32364 net.cpp:157] Top shape: 4 7 18 24 (12096)
I0630 18:51:03.510740 32364 net.cpp:165] Memory required for data: 4477258448
I0630 18:51:03.510748 32364 layer_factory.hpp:77] Creating layer LFCN_3_3x5_LFCN_3_3x5_0_split
I0630 18:51:03.510771 32364 net.cpp:100] Creating Layer LFCN_3_3x5_LFCN_3_3x5_0_split
I0630 18:51:03.510777 32364 net.cpp:434] LFCN_3_3x5_LFCN_3_3x5_0_split <- LFCN_3_3x5
I0630 18:51:03.510785 32364 net.cpp:408] LFCN_3_3x5_LFCN_3_3x5_0_split -> LFCN_3_3x5_LFCN_3_3x5_0_split_0
I0630 18:51:03.510795 32364 net.cpp:408] LFCN_3_3x5_LFCN_3_3x5_0_split -> LFCN_3_3x5_LFCN_3_3x5_0_split_1
I0630 18:51:03.510838 32364 net.cpp:150] Setting up LFCN_3_3x5_LFCN_3_3x5_0_split
I0630 18:51:03.510843 32364 net.cpp:157] Top shape: 4 7 18 24 (12096)
I0630 18:51:03.510846 32364 net.cpp:157] Top shape: 4 7 18 24 (12096)
I0630 18:51:03.510849 32364 net.cpp:165] Memory required for data: 4477355216
I0630 18:51:03.510852 32364 layer_factory.hpp:77] Creating layer detection_loss_3_3x5
I0630 18:51:03.510859 32364 net.cpp:100] Creating Layer detection_loss_3_3x5
I0630 18:51:03.510862 32364 net.cpp:434] detection_loss_3_3x5 <- LFCN_3_3x5_LFCN_3_3x5_0_split_0
I0630 18:51:03.510869 32364 net.cpp:434] detection_loss_3_3x5 <- label_3_3x5_data_5_split_0
I0630 18:51:03.510875 32364 net.cpp:408] detection_loss_3_3x5 -> loss_3_3x5
I0630 18:51:03.510884 32364 layer_factory.hpp:77] Creating layer detection_loss_3_3x5
I0630 18:51:03.511777 32364 net.cpp:150] Setting up detection_loss_3_3x5
I0630 18:51:03.511787 32364 net.cpp:157] Top shape: 1 1 1 2 (2)
I0630 18:51:03.511790 32364 net.cpp:160]     with loss weight 1
I0630 18:51:03.511801 32364 net.cpp:165] Memory required for data: 4477355224
I0630 18:51:03.511804 32364 layer_factory.hpp:77] Creating layer detection_accuracy_3_3x5
I0630 18:51:03.511812 32364 net.cpp:100] Creating Layer detection_accuracy_3_3x5
I0630 18:51:03.511816 32364 net.cpp:434] detection_accuracy_3_3x5 <- LFCN_3_3x5_LFCN_3_3x5_0_split_1
I0630 18:51:03.511822 32364 net.cpp:434] detection_accuracy_3_3x5 <- label_3_3x5_data_5_split_1
I0630 18:51:03.511831 32364 net.cpp:408] detection_accuracy_3_3x5 -> accuracy_3_3x5
I0630 18:51:03.511838 32364 net.cpp:408] detection_accuracy_3_3x5 -> boxiou_3_3x5
I0630 18:51:03.511879 32364 net.cpp:150] Setting up detection_accuracy_3_3x5
I0630 18:51:03.511885 32364 net.cpp:157] Top shape: 1 1 1 2 (2)
I0630 18:51:03.511889 32364 net.cpp:157] Top shape: 1 1 1 1 (1)
I0630 18:51:03.511893 32364 net.cpp:165] Memory required for data: 4477355236
I0630 18:51:03.511895 32364 layer_factory.hpp:77] Creating layer LFCN_3_5x7
I0630 18:51:03.511905 32364 net.cpp:100] Creating Layer LFCN_3_5x7
I0630 18:51:03.511909 32364 net.cpp:434] LFCN_3_5x7 <- conv6_1_relu6_1_0_split_1
I0630 18:51:03.511915 32364 net.cpp:408] LFCN_3_5x7 -> LFCN_3_5x7
I0630 18:51:03.514289 32364 net.cpp:150] Setting up LFCN_3_5x7
I0630 18:51:03.514305 32364 net.cpp:157] Top shape: 4 7 18 24 (12096)
I0630 18:51:03.514308 32364 net.cpp:165] Memory required for data: 4477403620
I0630 18:51:03.514317 32364 layer_factory.hpp:77] Creating layer LFCN_3_5x7_LFCN_3_5x7_0_split
I0630 18:51:03.514323 32364 net.cpp:100] Creating Layer LFCN_3_5x7_LFCN_3_5x7_0_split
I0630 18:51:03.514328 32364 net.cpp:434] LFCN_3_5x7_LFCN_3_5x7_0_split <- LFCN_3_5x7
I0630 18:51:03.514336 32364 net.cpp:408] LFCN_3_5x7_LFCN_3_5x7_0_split -> LFCN_3_5x7_LFCN_3_5x7_0_split_0
I0630 18:51:03.514344 32364 net.cpp:408] LFCN_3_5x7_LFCN_3_5x7_0_split -> LFCN_3_5x7_LFCN_3_5x7_0_split_1
I0630 18:51:03.514390 32364 net.cpp:150] Setting up LFCN_3_5x7_LFCN_3_5x7_0_split
I0630 18:51:03.514396 32364 net.cpp:157] Top shape: 4 7 18 24 (12096)
I0630 18:51:03.514400 32364 net.cpp:157] Top shape: 4 7 18 24 (12096)
I0630 18:51:03.514403 32364 net.cpp:165] Memory required for data: 4477500388
I0630 18:51:03.514406 32364 layer_factory.hpp:77] Creating layer detection_loss_3_5x7
I0630 18:51:03.514415 32364 net.cpp:100] Creating Layer detection_loss_3_5x7
I0630 18:51:03.514417 32364 net.cpp:434] detection_loss_3_5x7 <- LFCN_3_5x7_LFCN_3_5x7_0_split_0
I0630 18:51:03.514422 32364 net.cpp:434] detection_loss_3_5x7 <- label_3_5x7_data_6_split_0
I0630 18:51:03.514428 32364 net.cpp:408] detection_loss_3_5x7 -> loss_3_5x7
I0630 18:51:03.514436 32364 layer_factory.hpp:77] Creating layer detection_loss_3_5x7
I0630 18:51:03.514838 32364 net.cpp:150] Setting up detection_loss_3_5x7
I0630 18:51:03.514847 32364 net.cpp:157] Top shape: 1 1 1 2 (2)
I0630 18:51:03.514849 32364 net.cpp:160]     with loss weight 1
I0630 18:51:03.514858 32364 net.cpp:165] Memory required for data: 4477500396
I0630 18:51:03.514860 32364 layer_factory.hpp:77] Creating layer detection_accuracy_3_5x7
I0630 18:51:03.514868 32364 net.cpp:100] Creating Layer detection_accuracy_3_5x7
I0630 18:51:03.514871 32364 net.cpp:434] detection_accuracy_3_5x7 <- LFCN_3_5x7_LFCN_3_5x7_0_split_1
I0630 18:51:03.514875 32364 net.cpp:434] detection_accuracy_3_5x7 <- label_3_5x7_data_6_split_1
I0630 18:51:03.514881 32364 net.cpp:408] detection_accuracy_3_5x7 -> accuracy_3_5x7
I0630 18:51:03.514889 32364 net.cpp:408] detection_accuracy_3_5x7 -> boxiou_3_5x7
I0630 18:51:03.514930 32364 net.cpp:150] Setting up detection_accuracy_3_5x7
I0630 18:51:03.514935 32364 net.cpp:157] Top shape: 1 1 1 2 (2)
I0630 18:51:03.514938 32364 net.cpp:157] Top shape: 1 1 1 1 (1)
I0630 18:51:03.514940 32364 net.cpp:165] Memory required for data: 4477500408
I0630 18:51:03.514943 32364 layer_factory.hpp:77] Creating layer pool6
I0630 18:51:03.514950 32364 net.cpp:100] Creating Layer pool6
I0630 18:51:03.514955 32364 net.cpp:434] pool6 <- conv6_1_relu6_1_0_split_2
I0630 18:51:03.514959 32364 net.cpp:408] pool6 -> pool6
I0630 18:51:03.514999 32364 net.cpp:150] Setting up pool6
I0630 18:51:03.515005 32364 net.cpp:157] Top shape: 4 512 9 12 (221184)
I0630 18:51:03.515007 32364 net.cpp:165] Memory required for data: 4478385144
I0630 18:51:03.515010 32364 layer_factory.hpp:77] Creating layer LFCN_4_3x5
I0630 18:51:03.515020 32364 net.cpp:100] Creating Layer LFCN_4_3x5
I0630 18:51:03.515023 32364 net.cpp:434] LFCN_4_3x5 <- pool6
I0630 18:51:03.515030 32364 net.cpp:408] LFCN_4_3x5 -> LFCN_4_3x5
I0630 18:51:03.517318 32364 net.cpp:150] Setting up LFCN_4_3x5
I0630 18:51:03.517331 32364 net.cpp:157] Top shape: 4 7 9 12 (3024)
I0630 18:51:03.517333 32364 net.cpp:165] Memory required for data: 4478397240
I0630 18:51:03.517341 32364 layer_factory.hpp:77] Creating layer LFCN_4_3x5_LFCN_4_3x5_0_split
I0630 18:51:03.517350 32364 net.cpp:100] Creating Layer LFCN_4_3x5_LFCN_4_3x5_0_split
I0630 18:51:03.517355 32364 net.cpp:434] LFCN_4_3x5_LFCN_4_3x5_0_split <- LFCN_4_3x5
I0630 18:51:03.517364 32364 net.cpp:408] LFCN_4_3x5_LFCN_4_3x5_0_split -> LFCN_4_3x5_LFCN_4_3x5_0_split_0
I0630 18:51:03.517372 32364 net.cpp:408] LFCN_4_3x5_LFCN_4_3x5_0_split -> LFCN_4_3x5_LFCN_4_3x5_0_split_1
I0630 18:51:03.517417 32364 net.cpp:150] Setting up LFCN_4_3x5_LFCN_4_3x5_0_split
I0630 18:51:03.517426 32364 net.cpp:157] Top shape: 4 7 9 12 (3024)
I0630 18:51:03.517428 32364 net.cpp:157] Top shape: 4 7 9 12 (3024)
I0630 18:51:03.517431 32364 net.cpp:165] Memory required for data: 4478421432
I0630 18:51:03.517434 32364 layer_factory.hpp:77] Creating layer detection_loss_4_3x5
I0630 18:51:03.517441 32364 net.cpp:100] Creating Layer detection_loss_4_3x5
I0630 18:51:03.517444 32364 net.cpp:434] detection_loss_4_3x5 <- LFCN_4_3x5_LFCN_4_3x5_0_split_0
I0630 18:51:03.517449 32364 net.cpp:434] detection_loss_4_3x5 <- label_4_3x5_data_7_split_0
I0630 18:51:03.517457 32364 net.cpp:408] detection_loss_4_3x5 -> loss_4_3x5
I0630 18:51:03.517465 32364 layer_factory.hpp:77] Creating layer detection_loss_4_3x5
I0630 18:51:03.517876 32364 net.cpp:150] Setting up detection_loss_4_3x5
I0630 18:51:03.517884 32364 net.cpp:157] Top shape: 1 1 1 2 (2)
I0630 18:51:03.517886 32364 net.cpp:160]     with loss weight 1
I0630 18:51:03.517894 32364 net.cpp:165] Memory required for data: 4478421440
I0630 18:51:03.517897 32364 layer_factory.hpp:77] Creating layer detection_accuracy_4_3x5
I0630 18:51:03.517904 32364 net.cpp:100] Creating Layer detection_accuracy_4_3x5
I0630 18:51:03.517908 32364 net.cpp:434] detection_accuracy_4_3x5 <- LFCN_4_3x5_LFCN_4_3x5_0_split_1
I0630 18:51:03.517913 32364 net.cpp:434] detection_accuracy_4_3x5 <- label_4_3x5_data_7_split_1
I0630 18:51:03.517918 32364 net.cpp:408] detection_accuracy_4_3x5 -> accuracy_4_3x5
I0630 18:51:03.517926 32364 net.cpp:408] detection_accuracy_4_3x5 -> boxiou_4_3x5
I0630 18:51:03.517966 32364 net.cpp:150] Setting up detection_accuracy_4_3x5
I0630 18:51:03.517971 32364 net.cpp:157] Top shape: 1 1 1 2 (2)
I0630 18:51:03.517974 32364 net.cpp:157] Top shape: 1 1 1 1 (1)
I0630 18:51:03.517977 32364 net.cpp:165] Memory required for data: 4478421452
I0630 18:51:03.517980 32364 net.cpp:228] detection_accuracy_4_3x5 does not need backward computation.
I0630 18:51:03.517983 32364 net.cpp:226] detection_loss_4_3x5 needs backward computation.
I0630 18:51:03.517987 32364 net.cpp:226] LFCN_4_3x5_LFCN_4_3x5_0_split needs backward computation.
I0630 18:51:03.517992 32364 net.cpp:226] LFCN_4_3x5 needs backward computation.
…
I0630 18:51:03.551106 32364 image_gt_data_layer.cpp:241] output label size 2 : 2,6,36,48
I0630 18:51:03.551156 32364 image_gt_data_layer.cpp:241] output label size 3 : 2,6,36,48
I0630 18:51:03.551208 32364 image_gt_data_layer.cpp:241] output label size 4 : 2,6,18,24
I0630 18:51:03.551256 32364 image_gt_data_layer.cpp:241] output label size 5 : 2,6,18,24
I0630 18:51:03.551303 32364 image_gt_data_layer.cpp:241] output label size 6 : 2,6,9,12
I0630 18:51:03.551306 32364 image_gt_data_layer.cpp:265]  --> has_mean_values_ = 1
I0630 18:51:03.569974 32364 net.cpp:150] Setting up data
I0630 18:51:03.569995 32364 net.cpp:157] Top shape: 2 4 576 768 (3538944)
I0630 18:51:03.569999 32364 net.cpp:157] Top shape: 2 6 72 96 (82944)
I0630 18:51:03.570003 32364 net.cpp:157] Top shape: 2 6 72 96 (82944)
I0630 18:51:03.570008 32364 net.cpp:157] Top shape: 2 6 36 48 (20736)
I0630 18:51:03.570011 32364 net.cpp:157] Top shape: 2 6 36 48 (20736)
I0630 18:51:03.570014 32364 net.cpp:157] Top shape: 2 6 18 24 (5184)
I0630 18:51:03.570017 32364 net.cpp:157] Top shape: 2 6 18 24 (5184)
I0630 18:51:03.570020 32364 net.cpp:157] Top shape: 2 6 9 12 (1296)
I0630 18:51:03.570024 32364 net.cpp:165] Memory required for data: 15031872
I0630 18:51:03.570029 32364 layer_factory.hpp:77] Creating layer label_1_3x5_data_1_split
I0630 18:51:03.570040 32364 net.cpp:100] Creating Layer label_1_3x5_data_1_split
I0630 18:51:03.570044 32364 net.cpp:434] label_1_3x5_data_1_split <- label_1_3x5
I0630 18:51:03.570052 32364 net.cpp:408] label_1_3x5_data_1_split -> label_1_3x5_data_1_split_0
I0630 18:51:03.570062 32364 net.cpp:408] label_1_3x5_data_1_split -> label_1_3x5_data_1_split_1
I0630 18:51:03.570168 32364 net.cpp:150] Setting up label_1_3x5_data_1_split
I0630 18:51:03.570175 32364 net.cpp:157] Top shape: 2 6 72 96 (82944)
I0630 18:51:03.570180 32364 net.cpp:157] Top shape: 2 6 72 96 (82944)
I0630 18:51:03.570183 32364 net.cpp:165] Memory required for data: 15695424
I0630 18:51:03.570186 32364 layer_factory.hpp:77] Creating layer label_1_5x7_data_2_split
I0630 18:51:03.570192 32364 net.cpp:100] Creating Layer label_1_5x7_data_2_split
I0630 18:51:03.570195 32364 net.cpp:434] label_1_5x7_data_2_split <- label_1_5x7
I0630 18:51:03.570202 32364 net.cpp:408] label_1_5x7_data_2_split -> label_1_5x7_data_2_split_0
I0630 18:51:03.570209 32364 net.cpp:408] label_1_5x7_data_2_split -> label_1_5x7_data_2_split_1
I0630 18:51:03.570253 32364 net.cpp:150] Setting up label_1_5x7_data_2_split
I0630 18:51:03.570261 32364 net.cpp:157] Top shape: 2 6 72 96 (82944)
I0630 18:51:03.570264 32364 net.cpp:157] Top shape: 2 6 72 96 (82944)
I0630 18:51:03.570267 32364 net.cpp:165] Memory required for data: 16358976
I0630 18:51:03.570269 32364 layer_factory.hpp:77] Creating layer label_2_3x5_data_3_split
I0630 18:51:03.570274 32364 net.cpp:100] Creating Layer label_2_3x5_data_3_split
I0630 18:51:03.570277 32364 net.cpp:434] label_2_3x5_data_3_split <- label_2_3x5
I0630 18:51:03.570283 32364 net.cpp:408] label_2_3x5_data_3_split -> label_2_3x5_data_3_split_0
I0630 18:51:03.570289 32364 net.cpp:408] label_2_3x5_data_3_split -> label_2_3x5_data_3_split_1
I0630 18:51:03.570331 32364 net.cpp:150] Setting up label_2_3x5_data_3_split
I0630 18:51:03.570338 32364 net.cpp:157] Top shape: 2 6 36 48 (20736)
I0630 18:51:03.570341 32364 net.cpp:157] Top shape: 2 6 36 48 (20736)
I0630 18:51:03.570344 32364 net.cpp:165] Memory required for data: 16524864
I0630 18:51:03.570348 32364 layer_factory.hpp:77] Creating layer label_2_5x7_data_4_split
I0630 18:51:03.570354 32364 net.cpp:100] Creating Layer label_2_5x7_data_4_split
I0630 18:51:03.570358 32364 net.cpp:434] label_2_5x7_data_4_split <- label_2_5x7
I0630 18:51:03.570363 32364 net.cpp:408] label_2_5x7_data_4_split -> label_2_5x7_data_4_split_0
I0630 18:51:03.570369 32364 net.cpp:408] label_2_5x7_data_4_split -> label_2_5x7_data_4_split_1
I0630 18:51:03.570410 32364 net.cpp:150] Setting up label_2_5x7_data_4_split
I0630 18:51:03.570415 32364 net.cpp:157] Top shape: 2 6 36 48 (20736)
I0630 18:51:03.570418 32364 net.cpp:157] Top shape: 2 6 36 48 (20736)
I0630 18:51:03.570421 32364 net.cpp:165] Memory required for data: 16690752
I0630 18:51:03.570425 32364 layer_factory.hpp:77] Creating layer label_3_3x5_data_5_split
I0630 18:51:03.570428 32364 net.cpp:100] Creating Layer label_3_3x5_data_5_split
I0630 18:51:03.570431 32364 net.cpp:434] label_3_3x5_data_5_split <- label_3_3x5
I0630 18:51:03.570437 32364 net.cpp:408] label_3_3x5_data_5_split -> label_3_3x5_data_5_split_0
I0630 18:51:03.570446 32364 net.cpp:408] label_3_3x5_data_5_split -> label_3_3x5_data_5_split_1
I0630 18:51:03.570488 32364 net.cpp:150] Setting up label_3_3x5_data_5_split
I0630 18:51:03.570494 32364 net.cpp:157] Top shape: 2 6 18 24 (5184)
I0630 18:51:03.570498 32364 net.cpp:157] Top shape: 2 6 18 24 (5184)
I0630 18:51:03.570502 32364 net.cpp:165] Memory required for data: 16732224
I0630 18:51:03.570504 32364 layer_factory.hpp:77] Creating layer label_3_5x7_data_6_split
I0630 18:51:03.570508 32364 net.cpp:100] Creating Layer label_3_5x7_data_6_split
I0630 18:51:03.570511 32364 net.cpp:434] label_3_5x7_data_6_split <- label_3_5x7
I0630 18:51:03.570516 32364 net.cpp:408] label_3_5x7_data_6_split -> label_3_5x7_data_6_split_0
I0630 18:51:03.570523 32364 net.cpp:408] label_3_5x7_data_6_split -> label_3_5x7_data_6_split_1
I0630 18:51:03.570597 32364 net.cpp:150] Setting up label_3_5x7_data_6_split
I0630 18:51:03.570608 32364 net.cpp:157] Top shape: 2 6 18 24 (5184)
I0630 18:51:03.570613 32364 net.cpp:157] Top shape: 2 6 18 24 (5184)
I0630 18:51:03.570616 32364 net.cpp:165] Memory required for data: 16773696
I0630 18:51:03.570619 32364 layer_factory.hpp:77] Creating layer label_4_3x5_data_7_split
I0630 18:51:03.570627 32364 net.cpp:100] Creating Layer label_4_3x5_data_7_split
I0630 18:51:03.570631 32364 net.cpp:434] label_4_3x5_data_7_split <- label_4_3x5
I0630 18:51:03.570636 32364 net.cpp:408] label_4_3x5_data_7_split -> label_4_3x5_data_7_split_0
I0630 18:51:03.570642 32364 net.cpp:408] label_4_3x5_data_7_split -> label_4_3x5_data_7_split_1
I0630 18:51:03.571808 32364 net.cpp:150] Setting up label_4_3x5_data_7_split
I0630 18:51:03.571841 32364 net.cpp:157] Top shape: 2 6 9 12 (1296)
I0630 18:51:03.571846 32364 net.cpp:157] Top shape: 2 6 9 12 (1296)
I0630 18:51:03.571849 32364 net.cpp:165] Memory required for data: 16784064
I0630 18:51:03.571858 32364 layer_factory.hpp:77] Creating layer conv1_1
I0630 18:51:03.571893 32364 net.cpp:100] Creating Layer conv1_1
I0630 18:51:03.571907 32364 net.cpp:434] conv1_1 <- data
I0630 18:51:03.571919 32364 net.cpp:408] conv1_1 -> conv1_1
I0630 18:51:03.575939 32364 net.cpp:150] Setting up conv1_1
I0630 18:51:03.575960 32364 net.cpp:157] Top shape: 2 64 576 768 (56623104)
I0630 18:51:03.575963 32364 net.cpp:165] Memory required for data: 243276480
I0630 18:51:03.575973 32364 layer_factory.hpp:77] Creating layer relu1_1
I0630 18:51:03.575981 32364 net.cpp:100] Creating Layer relu1_1
I0630 18:51:03.575984 32364 net.cpp:434] relu1_1 <- conv1_1
I0630 18:51:03.575989 32364 net.cpp:395] relu1_1 -> conv1_1 (in-place)
I0630 18:51:03.576761 32364 net.cpp:150] Setting up relu1_1
I0630 18:51:03.576771 32364 net.cpp:157] Top shape: 2 64 576 768 (56623104)
I0630 18:51:03.576774 32364 net.cpp:165] Memory required for data: 469768896
I0630 18:51:03.576776 32364 layer_factory.hpp:77] Creating layer conv1_2
I0630 18:51:03.576783 32364 net.cpp:100] Creating Layer conv1_2
I0630 18:51:03.576786 32364 net.cpp:434] conv1_2 <- conv1_1
I0630 18:51:03.576791 32364 net.cpp:408] conv1_2 -> conv1_2
I0630 18:51:03.579313 32364 net.cpp:150] Setting up conv1_2
I0630 18:51:03.579334 32364 net.cpp:157] Top shape: 2 64 576 768 (56623104)
I0630 18:51:03.579337 32364 net.cpp:165] Memory required for data: 696261312
I0630 18:51:03.579347 32364 layer_factory.hpp:77] Creating layer relu1_2
I0630 18:51:03.579355 32364 net.cpp:100] Creating Layer relu1_2
I0630 18:51:03.579357 32364 net.cpp:434] relu1_2 <- conv1_2
I0630 18:51:03.579363 32364 net.cpp:395] relu1_2 -> conv1_2 (in-place)
I0630 18:51:03.580210 32364 net.cpp:150] Setting up relu1_2
I0630 18:51:03.580220 32364 net.cpp:157] Top shape: 2 64 576 768 (56623104)
I0630 18:51:03.580222 32364 net.cpp:165] Memory required for data: 922753728
I0630 18:51:03.580225 32364 layer_factory.hpp:77] Creating layer pool1
I0630 18:51:03.580230 32364 net.cpp:100] Creating Layer pool1
I0630 18:51:03.580232 32364 net.cpp:434] pool1 <- conv1_2
I0630 18:51:03.580237 32364 net.cpp:408] pool1 -> pool1
I0630 18:51:03.580297 32364 net.cpp:150] Setting up pool1
I0630 18:51:03.580304 32364 net.cpp:157] Top shape: 2 64 288 384 (14155776)
I0630 18:51:03.580307 32364 net.cpp:165] Memory required for data: 979376832
I0630 18:51:03.580309 32364 layer_factory.hpp:77] Creating layer conv2_1
I0630 18:51:03.580319 32364 net.cpp:100] Creating Layer conv2_1
I0630 18:51:03.580323 32364 net.cpp:434] conv2_1 <- pool1
I0630 18:51:03.580328 32364 net.cpp:408] conv2_1 -> conv2_1
I0630 18:51:03.582321 32364 net.cpp:150] Setting up conv2_1
I0630 18:51:03.582337 32364 net.cpp:157] Top shape: 2 128 288 384 (28311552)
I0630 18:51:03.582340 32364 net.cpp:165] Memory required for data: 1092623040
I0630 18:51:03.582350 32364 layer_factory.hpp:77] Creating layer relu2_1
I0630 18:51:03.582355 32364 net.cpp:100] Creating Layer relu2_1
I0630 18:51:03.582357 32364 net.cpp:434] relu2_1 <- conv2_1
I0630 18:51:03.582361 32364 net.cpp:395] relu2_1 -> conv2_1 (in-place)
I0630 18:51:03.582679 32364 net.cpp:150] Setting up relu2_1
I0630 18:51:03.582685 32364 net.cpp:157] Top shape: 2 128 288 384 (28311552)
I0630 18:51:03.582687 32364 net.cpp:165] Memory required for data: 1205869248
I0630 18:51:03.582690 32364 layer_factory.hpp:77] Creating layer conv2_2
I0630 18:51:03.582695 32364 net.cpp:100] Creating Layer conv2_2
I0630 18:51:03.582697 32364 net.cpp:434] conv2_2 <- conv2_1
I0630 18:51:03.582702 32364 net.cpp:408] conv2_2 -> conv2_2
I0630 18:51:03.586096 32364 net.cpp:150] Setting up conv2_2
I0630 18:51:03.586113 32364 net.cpp:157] Top shape: 2 128 288 384 (28311552)
I0630 18:51:03.586115 32364 net.cpp:165] Memory required for data: 1319115456
I0630 18:51:03.586123 32364 layer_factory.hpp:77] Creating layer relu2_2
I0630 18:51:03.586134 32364 net.cpp:100] Creating Layer relu2_2
I0630 18:51:03.586138 32364 net.cpp:434] relu2_2 <- conv2_2
I0630 18:51:03.586143 32364 net.cpp:395] relu2_2 -> conv2_2 (in-place)
I0630 18:51:03.586506 32364 net.cpp:150] Setting up relu2_2
I0630 18:51:03.586514 32364 net.cpp:157] Top shape: 2 128 288 384 (28311552)
I0630 18:51:03.586516 32364 net.cpp:165] Memory required for data: 1432361664
I0630 18:51:03.586519 32364 layer_factory.hpp:77] Creating layer pool2
I0630 18:51:03.586524 32364 net.cpp:100] Creating Layer pool2
I0630 18:51:03.586526 32364 net.cpp:434] pool2 <- conv2_2
I0630 18:51:03.586529 32364 net.cpp:408] pool2 -> pool2
I0630 18:51:03.586587 32364 net.cpp:150] Setting up pool2
I0630 18:51:03.586594 32364 net.cpp:157] Top shape: 2 128 144 192 (7077888)
I0630 18:51:03.586597 32364 net.cpp:165] Memory required for data: 1460673216
I0630 18:51:03.586601 32364 layer_factory.hpp:77] Creating layer conv3_1
I0630 18:51:03.586609 32364 net.cpp:100] Creating Layer conv3_1
I0630 18:51:03.586613 32364 net.cpp:434] conv3_1 <- pool2
I0630 18:51:03.586618 32364 net.cpp:408] conv3_1 -> conv3_1
I0630 18:51:03.589082 32364 net.cpp:150] Setting up conv3_1
I0630 18:51:03.589097 32364 net.cpp:157] Top shape: 2 256 144 192 (14155776)
I0630 18:51:03.589098 32364 net.cpp:165] Memory required for data: 1517296320
I0630 18:51:03.589107 32364 layer_factory.hpp:77] Creating layer relu3_1
I0630 18:51:03.589112 32364 net.cpp:100] Creating Layer relu3_1
I0630 18:51:03.589115 32364 net.cpp:434] relu3_1 <- conv3_1
I0630 18:51:03.589120 32364 net.cpp:395] relu3_1 -> conv3_1 (in-place)
I0630 18:51:03.589829 32364 net.cpp:150] Setting up relu3_1
I0630 18:51:03.589838 32364 net.cpp:157] Top shape: 2 256 144 192 (14155776)
I0630 18:51:03.589840 32364 net.cpp:165] Memory required for data: 1573919424
I0630 18:51:03.589843 32364 layer_factory.hpp:77] Creating layer conv3_2
I0630 18:51:03.589850 32364 net.cpp:100] Creating Layer conv3_2
I0630 18:51:03.589854 32364 net.cpp:434] conv3_2 <- conv3_1
I0630 18:51:03.589857 32364 net.cpp:408] conv3_2 -> conv3_2
I0630 18:51:03.593096 32364 net.cpp:150] Setting up conv3_2
I0630 18:51:03.593116 32364 net.cpp:157] Top shape: 2 256 144 192 (14155776)
I0630 18:51:03.593118 32364 net.cpp:165] Memory required for data: 1630542528
I0630 18:51:03.593125 32364 layer_factory.hpp:77] Creating layer relu3_2
I0630 18:51:03.593132 32364 net.cpp:100] Creating Layer relu3_2
I0630 18:51:03.593134 32364 net.cpp:434] relu3_2 <- conv3_2
I0630 18:51:03.593140 32364 net.cpp:395] relu3_2 -> conv3_2 (in-place)
I0630 18:51:03.593466 32364 net.cpp:150] Setting up relu3_2
I0630 18:51:03.593474 32364 net.cpp:157] Top shape: 2 256 144 192 (14155776)
I0630 18:51:03.593477 32364 net.cpp:165] Memory required for data: 1687165632
I0630 18:51:03.593479 32364 layer_factory.hpp:77] Creating layer conv3_3
I0630 18:51:03.593487 32364 net.cpp:100] Creating Layer conv3_3
I0630 18:51:03.593488 32364 net.cpp:434] conv3_3 <- conv3_2
I0630 18:51:03.593492 32364 net.cpp:408] conv3_3 -> conv3_3
I0630 18:51:03.597146 32364 net.cpp:150] Setting up conv3_3
I0630 18:51:03.597164 32364 net.cpp:157] Top shape: 2 256 144 192 (14155776)
I0630 18:51:03.597167 32364 net.cpp:165] Memory required for data: 1743788736
I0630 18:51:03.597173 32364 layer_factory.hpp:77] Creating layer relu3_3
I0630 18:51:03.597179 32364 net.cpp:100] Creating Layer relu3_3
I0630 18:51:03.597182 32364 net.cpp:434] relu3_3 <- conv3_3
I0630 18:51:03.597187 32364 net.cpp:395] relu3_3 -> conv3_3 (in-place)
I0630 18:51:03.597506 32364 net.cpp:150] Setting up relu3_3
I0630 18:51:03.597513 32364 net.cpp:157] Top shape: 2 256 144 192 (14155776)
I0630 18:51:03.597515 32364 net.cpp:165] Memory required for data: 1800411840
I0630 18:51:03.597518 32364 layer_factory.hpp:77] Creating layer pool3
I0630 18:51:03.597522 32364 net.cpp:100] Creating Layer pool3
I0630 18:51:03.597525 32364 net.cpp:434] pool3 <- conv3_3
I0630 18:51:03.597529 32364 net.cpp:408] pool3 -> pool3
I0630 18:51:03.597584 32364 net.cpp:150] Setting up pool3
I0630 18:51:03.597590 32364 net.cpp:157] Top shape: 2 256 72 96 (3538944)
I0630 18:51:03.597594 32364 net.cpp:165] Memory required for data: 1814567616
I0630 18:51:03.597596 32364 layer_factory.hpp:77] Creating layer conv4_1
I0630 18:51:03.597607 32364 net.cpp:100] Creating Layer conv4_1
I0630 18:51:03.597610 32364 net.cpp:434] conv4_1 <- pool3
I0630 18:51:03.597615 32364 net.cpp:408] conv4_1 -> conv4_1
I0630 18:51:03.602813 32364 net.cpp:150] Setting up conv4_1
I0630 18:51:03.602835 32364 net.cpp:157] Top shape: 2 512 72 96 (7077888)
I0630 18:51:03.602838 32364 net.cpp:165] Memory required for data: 1842879168
I0630 18:51:03.602849 32364 layer_factory.hpp:77] Creating layer relu4_1
I0630 18:51:03.602856 32364 net.cpp:100] Creating Layer relu4_1
I0630 18:51:03.602861 32364 net.cpp:434] relu4_1 <- conv4_1
I0630 18:51:03.602869 32364 net.cpp:395] relu4_1 -> conv4_1 (in-place)
I0630 18:51:03.603849 32364 net.cpp:150] Setting up relu4_1
I0630 18:51:03.603862 32364 net.cpp:157] Top shape: 2 512 72 96 (7077888)
I0630 18:51:03.603865 32364 net.cpp:165] Memory required for data: 1871190720
I0630 18:51:03.603868 32364 layer_factory.hpp:77] Creating layer conv4_2
I0630 18:51:03.603876 32364 net.cpp:100] Creating Layer conv4_2
I0630 18:51:03.603880 32364 net.cpp:434] conv4_2 <- conv4_1
I0630 18:51:03.603888 32364 net.cpp:408] conv4_2 -> conv4_2
I0630 18:51:03.611341 32364 net.cpp:150] Setting up conv4_2
I0630 18:51:03.611362 32364 net.cpp:157] Top shape: 2 512 72 96 (7077888)
I0630 18:51:03.611366 32364 net.cpp:165] Memory required for data: 1899502272
I0630 18:51:03.611379 32364 layer_factory.hpp:77] Creating layer relu4_2
I0630 18:51:03.611389 32364 net.cpp:100] Creating Layer relu4_2
I0630 18:51:03.611394 32364 net.cpp:434] relu4_2 <- conv4_2
I0630 18:51:03.611402 32364 net.cpp:395] relu4_2 -> conv4_2 (in-place)
I0630 18:51:03.611743 32364 net.cpp:150] Setting up relu4_2
I0630 18:51:03.611752 32364 net.cpp:157] Top shape: 2 512 72 96 (7077888)
I0630 18:51:03.611754 32364 net.cpp:165] Memory required for data: 1927813824
I0630 18:51:03.611758 32364 layer_factory.hpp:77] Creating layer conv4_3
I0630 18:51:03.611766 32364 net.cpp:100] Creating Layer conv4_3
I0630 18:51:03.611770 32364 net.cpp:434] conv4_3 <- conv4_2
I0630 18:51:03.611776 32364 net.cpp:408] conv4_3 -> conv4_3
I0630 18:51:03.621237 32364 net.cpp:150] Setting up conv4_3
I0630 18:51:03.621281 32364 net.cpp:157] Top shape: 2 512 72 96 (7077888)
I0630 18:51:03.621284 32364 net.cpp:165] Memory required for data: 1956125376
I0630 18:51:03.621300 32364 layer_factory.hpp:77] Creating layer relu4_3
I0630 18:51:03.621315 32364 net.cpp:100] Creating Layer relu4_3
I0630 18:51:03.621322 32364 net.cpp:434] relu4_3 <- conv4_3
I0630 18:51:03.621333 32364 net.cpp:395] relu4_3 -> conv4_3 (in-place)
I0630 18:51:03.621652 32364 net.cpp:150] Setting up relu4_3
I0630 18:51:03.621661 32364 net.cpp:157] Top shape: 2 512 72 96 (7077888)
I0630 18:51:03.621665 32364 net.cpp:165] Memory required for data: 1984436928
I0630 18:51:03.621667 32364 layer_factory.hpp:77] Creating layer conv4_3_relu4_3_0_split
I0630 18:51:03.621675 32364 net.cpp:100] Creating Layer conv4_3_relu4_3_0_split
I0630 18:51:03.621678 32364 net.cpp:434] conv4_3_relu4_3_0_split <- conv4_3
I0630 18:51:03.621685 32364 net.cpp:408] conv4_3_relu4_3_0_split -> conv4_3_relu4_3_0_split_0
I0630 18:51:03.621692 32364 net.cpp:408] conv4_3_relu4_3_0_split -> conv4_3_relu4_3_0_split_1
I0630 18:51:03.621744 32364 net.cpp:150] Setting up conv4_3_relu4_3_0_split
I0630 18:51:03.621750 32364 net.cpp:157] Top shape: 2 512 72 96 (7077888)
I0630 18:51:03.621754 32364 net.cpp:157] Top shape: 2 512 72 96 (7077888)
I0630 18:51:03.621757 32364 net.cpp:165] Memory required for data: 2041060032
I0630 18:51:03.621760 32364 layer_factory.hpp:77] Creating layer loss1_conv1
I0630 18:51:03.621781 32364 net.cpp:100] Creating Layer loss1_conv1
I0630 18:51:03.621784 32364 net.cpp:434] loss1_conv1 <- conv4_3_relu4_3_0_split_0
I0630 18:51:03.621791 32364 net.cpp:408] loss1_conv1 -> loss1_conv1
I0630 18:51:03.642479 32364 net.cpp:150] Setting up loss1_conv1
I0630 18:51:03.642496 32364 net.cpp:157] Top shape: 2 512 72 96 (7077888)
I0630 18:51:03.642499 32364 net.cpp:165] Memory required for data: 2069371584
I0630 18:51:03.642508 32364 layer_factory.hpp:77] Creating layer loss_relu1
I0630 18:51:03.642518 32364 net.cpp:100] Creating Layer loss_relu1
I0630 18:51:03.642524 32364 net.cpp:434] loss_relu1 <- loss1_conv1
I0630 18:51:03.642530 32364 net.cpp:395] loss_relu1 -> loss1_conv1 (in-place)
I0630 18:51:03.643257 32364 net.cpp:150] Setting up loss_relu1
I0630 18:51:03.643266 32364 net.cpp:157] Top shape: 2 512 72 96 (7077888)
I0630 18:51:03.643270 32364 net.cpp:165] Memory required for data: 2097683136
I0630 18:51:03.643272 32364 layer_factory.hpp:77] Creating layer loss1_conv1_loss_relu1_0_split
I0630 18:51:03.643280 32364 net.cpp:100] Creating Layer loss1_conv1_loss_relu1_0_split
I0630 18:51:03.643285 32364 net.cpp:434] loss1_conv1_loss_relu1_0_split <- loss1_conv1
I0630 18:51:03.643290 32364 net.cpp:408] loss1_conv1_loss_relu1_0_split -> loss1_conv1_loss_relu1_0_split_0
I0630 18:51:03.643301 32364 net.cpp:408] loss1_conv1_loss_relu1_0_split -> loss1_conv1_loss_relu1_0_split_1
I0630 18:51:03.643362 32364 net.cpp:150] Setting up loss1_conv1_loss_relu1_0_split
I0630 18:51:03.643368 32364 net.cpp:157] Top shape: 2 512 72 96 (7077888)
I0630 18:51:03.643373 32364 net.cpp:157] Top shape: 2 512 72 96 (7077888)
I0630 18:51:03.643374 32364 net.cpp:165] Memory required for data: 2154306240
I0630 18:51:03.643378 32364 layer_factory.hpp:77] Creating layer LFCN_1_3x5
I0630 18:51:03.643388 32364 net.cpp:100] Creating Layer LFCN_1_3x5
I0630 18:51:03.643391 32364 net.cpp:434] LFCN_1_3x5 <- loss1_conv1_loss_relu1_0_split_0
I0630 18:51:03.643399 32364 net.cpp:408] LFCN_1_3x5 -> LFCN_1_3x5
I0630 18:51:03.645319 32364 net.cpp:150] Setting up LFCN_1_3x5
I0630 18:51:03.645332 32364 net.cpp:157] Top shape: 2 7 72 96 (96768)
I0630 18:51:03.645334 32364 net.cpp:165] Memory required for data: 2154693312
I0630 18:51:03.645340 32364 layer_factory.hpp:77] Creating layer LFCN_1_3x5_LFCN_1_3x5_0_split
I0630 18:51:03.645344 32364 net.cpp:100] Creating Layer LFCN_1_3x5_LFCN_1_3x5_0_split
I0630 18:51:03.645347 32364 net.cpp:434] LFCN_1_3x5_LFCN_1_3x5_0_split <- LFCN_1_3x5
I0630 18:51:03.645352 32364 net.cpp:408] LFCN_1_3x5_LFCN_1_3x5_0_split -> LFCN_1_3x5_LFCN_1_3x5_0_split_0
I0630 18:51:03.645357 32364 net.cpp:408] LFCN_1_3x5_LFCN_1_3x5_0_split -> LFCN_1_3x5_LFCN_1_3x5_0_split_1
I0630 18:51:03.645402 32364 net.cpp:150] Setting up LFCN_1_3x5_LFCN_1_3x5_0_split
I0630 18:51:03.645409 32364 net.cpp:157] Top shape: 2 7 72 96 (96768)
I0630 18:51:03.645413 32364 net.cpp:157] Top shape: 2 7 72 96 (96768)
I0630 18:51:03.645416 32364 net.cpp:165] Memory required for data: 2155467456
I0630 18:51:03.645419 32364 layer_factory.hpp:77] Creating layer detection_loss_1_3x5
I0630 18:51:03.645427 32364 net.cpp:100] Creating Layer detection_loss_1_3x5
I0630 18:51:03.645431 32364 net.cpp:434] detection_loss_1_3x5 <- LFCN_1_3x5_LFCN_1_3x5_0_split_0
I0630 18:51:03.645437 32364 net.cpp:434] detection_loss_1_3x5 <- label_1_3x5_data_1_split_0
I0630 18:51:03.645442 32364 net.cpp:408] detection_loss_1_3x5 -> loss_1_3x5
I0630 18:51:03.645452 32364 layer_factory.hpp:77] Creating layer detection_loss_1_3x5
I0630 18:51:03.646404 32364 net.cpp:150] Setting up detection_loss_1_3x5
I0630 18:51:03.646412 32364 net.cpp:157] Top shape: 1 1 1 2 (2)
I0630 18:51:03.646414 32364 net.cpp:160]     with loss weight 0.9
I0630 18:51:03.646425 32364 net.cpp:165] Memory required for data: 2155467464
I0630 18:51:03.646427 32364 layer_factory.hpp:77] Creating layer detection_accuracy_1_3x5
I0630 18:51:03.646435 32364 net.cpp:100] Creating Layer detection_accuracy_1_3x5
I0630 18:51:03.646440 32364 net.cpp:434] detection_accuracy_1_3x5 <- LFCN_1_3x5_LFCN_1_3x5_0_split_1
I0630 18:51:03.646445 32364 net.cpp:434] detection_accuracy_1_3x5 <- label_1_3x5_data_1_split_1
I0630 18:51:03.646452 32364 net.cpp:408] detection_accuracy_1_3x5 -> accuracy_1_3x5
I0630 18:51:03.646461 32364 net.cpp:408] detection_accuracy_1_3x5 -> boxiou_1_3x5
I0630 18:51:03.646515 32364 net.cpp:150] Setting up detection_accuracy_1_3x5
I0630 18:51:03.646522 32364 net.cpp:157] Top shape: 1 1 1 2 (2)
I0630 18:51:03.646525 32364 net.cpp:157] Top shape: 1 1 1 1 (1)
I0630 18:51:03.646528 32364 net.cpp:165] Memory required for data: 2155467476
I0630 18:51:03.646530 32364 layer_factory.hpp:77] Creating layer LFCN_1_5x7
I0630 18:51:03.646540 32364 net.cpp:100] Creating Layer LFCN_1_5x7
I0630 18:51:03.646545 32364 net.cpp:434] LFCN_1_5x7 <- loss1_conv1_loss_relu1_0_split_1
I0630 18:51:03.646550 32364 net.cpp:408] LFCN_1_5x7 -> LFCN_1_5x7
I0630 18:51:03.649972 32364 net.cpp:150] Setting up LFCN_1_5x7
I0630 18:51:03.649989 32364 net.cpp:157] Top shape: 2 7 72 96 (96768)
I0630 18:51:03.649992 32364 net.cpp:165] Memory required for data: 2155854548
I0630 18:51:03.650001 32364 layer_factory.hpp:77] Creating layer LFCN_1_5x7_LFCN_1_5x7_0_split
I0630 18:51:03.650008 32364 net.cpp:100] Creating Layer LFCN_1_5x7_LFCN_1_5x7_0_split
I0630 18:51:03.650014 32364 net.cpp:434] LFCN_1_5x7_LFCN_1_5x7_0_split <- LFCN_1_5x7
I0630 18:51:03.650022 32364 net.cpp:408] LFCN_1_5x7_LFCN_1_5x7_0_split -> LFCN_1_5x7_LFCN_1_5x7_0_split_0
I0630 18:51:03.650029 32364 net.cpp:408] LFCN_1_5x7_LFCN_1_5x7_0_split -> LFCN_1_5x7_LFCN_1_5x7_0_split_1
I0630 18:51:03.650084 32364 net.cpp:150] Setting up LFCN_1_5x7_LFCN_1_5x7_0_split
I0630 18:51:03.650090 32364 net.cpp:157] Top shape: 2 7 72 96 (96768)
I0630 18:51:03.650094 32364 net.cpp:157] Top shape: 2 7 72 96 (96768)
I0630 18:51:03.650096 32364 net.cpp:165] Memory required for data: 2156628692
I0630 18:51:03.650099 32364 layer_factory.hpp:77] Creating layer detection_loss_1_5x7
I0630 18:51:03.650107 32364 net.cpp:100] Creating Layer detection_loss_1_5x7
I0630 18:51:03.650112 32364 net.cpp:434] detection_loss_1_5x7 <- LFCN_1_5x7_LFCN_1_5x7_0_split_0
I0630 18:51:03.650116 32364 net.cpp:434] detection_loss_1_5x7 <- label_1_5x7_data_2_split_0
I0630 18:51:03.650123 32364 net.cpp:408] detection_loss_1_5x7 -> loss_1_5x7
I0630 18:51:03.650132 32364 layer_factory.hpp:77] Creating layer detection_loss_1_5x7
I0630 18:51:03.650622 32364 net.cpp:150] Setting up detection_loss_1_5x7
I0630 18:51:03.650629 32364 net.cpp:157] Top shape: 1 1 1 2 (2)
I0630 18:51:03.650631 32364 net.cpp:160]     with loss weight 0.9
I0630 18:51:03.650640 32364 net.cpp:165] Memory required for data: 2156628700
I0630 18:51:03.650643 32364 layer_factory.hpp:77] Creating layer detection_accuracy_1_5x7
I0630 18:51:03.650650 32364 net.cpp:100] Creating Layer detection_accuracy_1_5x7
I0630 18:51:03.650653 32364 net.cpp:434] detection_accuracy_1_5x7 <- LFCN_1_5x7_LFCN_1_5x7_0_split_1
I0630 18:51:03.650658 32364 net.cpp:434] detection_accuracy_1_5x7 <- label_1_5x7_data_2_split_1
I0630 18:51:03.650666 32364 net.cpp:408] detection_accuracy_1_5x7 -> accuracy_1_5x7
I0630 18:51:03.650674 32364 net.cpp:408] detection_accuracy_1_5x7 -> boxiou_1_5x7
I0630 18:51:03.650727 32364 net.cpp:150] Setting up detection_accuracy_1_5x7
I0630 18:51:03.650733 32364 net.cpp:157] Top shape: 1 1 1 2 (2)
I0630 18:51:03.650738 32364 net.cpp:157] Top shape: 1 1 1 1 (1)
I0630 18:51:03.650740 32364 net.cpp:165] Memory required for data: 2156628712
I0630 18:51:03.650743 32364 layer_factory.hpp:77] Creating layer pool4
I0630 18:51:03.650748 32364 net.cpp:100] Creating Layer pool4
I0630 18:51:03.650753 32364 net.cpp:434] pool4 <- conv4_3_relu4_3_0_split_1
I0630 18:51:03.650759 32364 net.cpp:408] pool4 -> pool4
I0630 18:51:03.650807 32364 net.cpp:150] Setting up pool4
I0630 18:51:03.650813 32364 net.cpp:157] Top shape: 2 512 36 48 (1769472)
I0630 18:51:03.650817 32364 net.cpp:165] Memory required for data: 2163706600
I0630 18:51:03.650820 32364 layer_factory.hpp:77] Creating layer conv5_1
I0630 18:51:03.650830 32364 net.cpp:100] Creating Layer conv5_1
I0630 18:51:03.650833 32364 net.cpp:434] conv5_1 <- pool4
I0630 18:51:03.650840 32364 net.cpp:408] conv5_1 -> conv5_1
I0630 18:51:03.657143 32364 net.cpp:150] Setting up conv5_1
I0630 18:51:03.657163 32364 net.cpp:157] Top shape: 2 512 36 48 (1769472)
I0630 18:51:03.657166 32364 net.cpp:165] Memory required for data: 2170784488
I0630 18:51:03.657173 32364 layer_factory.hpp:77] Creating layer relu5_1
I0630 18:51:03.657184 32364 net.cpp:100] Creating Layer relu5_1
I0630 18:51:03.657189 32364 net.cpp:434] relu5_1 <- conv5_1
I0630 18:51:03.657196 32364 net.cpp:395] relu5_1 -> conv5_1 (in-place)
I0630 18:51:03.657518 32364 net.cpp:150] Setting up relu5_1
I0630 18:51:03.657526 32364 net.cpp:157] Top shape: 2 512 36 48 (1769472)
I0630 18:51:03.657528 32364 net.cpp:165] Memory required for data: 2177862376
I0630 18:51:03.657531 32364 layer_factory.hpp:77] Creating layer conv5_2
I0630 18:51:03.657541 32364 net.cpp:100] Creating Layer conv5_2
I0630 18:51:03.657546 32364 net.cpp:434] conv5_2 <- conv5_1
I0630 18:51:03.657552 32364 net.cpp:408] conv5_2 -> conv5_2
I0630 18:51:03.663455 32364 net.cpp:150] Setting up conv5_2
I0630 18:51:03.663475 32364 net.cpp:157] Top shape: 2 512 36 48 (1769472)
I0630 18:51:03.663477 32364 net.cpp:165] Memory required for data: 2184940264
I0630 18:51:03.663484 32364 layer_factory.hpp:77] Creating layer relu5_2
I0630 18:51:03.663493 32364 net.cpp:100] Creating Layer relu5_2
I0630 18:51:03.663498 32364 net.cpp:434] relu5_2 <- conv5_2
I0630 18:51:03.663504 32364 net.cpp:395] relu5_2 -> conv5_2 (in-place)
I0630 18:51:03.664288 32364 net.cpp:150] Setting up relu5_2
I0630 18:51:03.664297 32364 net.cpp:157] Top shape: 2 512 36 48 (1769472)
I0630 18:51:03.664299 32364 net.cpp:165] Memory required for data: 2192018152
I0630 18:51:03.664302 32364 layer_factory.hpp:77] Creating layer conv5_3
I0630 18:51:03.664312 32364 net.cpp:100] Creating Layer conv5_3
I0630 18:51:03.664316 32364 net.cpp:434] conv5_3 <- conv5_2
I0630 18:51:03.664321 32364 net.cpp:408] conv5_3 -> conv5_3
I0630 18:51:03.674230 32364 net.cpp:150] Setting up conv5_3
I0630 18:51:03.674309 32364 net.cpp:157] Top shape: 2 512 36 48 (1769472)
I0630 18:51:03.674311 32364 net.cpp:165] Memory required for data: 2199096040
I0630 18:51:03.674331 32364 layer_factory.hpp:77] Creating layer relu5_3
I0630 18:51:03.674353 32364 net.cpp:100] Creating Layer relu5_3
I0630 18:51:03.674365 32364 net.cpp:434] relu5_3 <- conv5_3
I0630 18:51:03.674386 32364 net.cpp:395] relu5_3 -> conv5_3 (in-place)
I0630 18:51:03.675109 32364 net.cpp:150] Setting up relu5_3
I0630 18:51:03.675124 32364 net.cpp:157] Top shape: 2 512 36 48 (1769472)
I0630 18:51:03.675127 32364 net.cpp:165] Memory required for data: 2206173928
I0630 18:51:03.675132 32364 layer_factory.hpp:77] Creating layer conv5_3_relu5_3_0_split
I0630 18:51:03.675143 32364 net.cpp:100] Creating Layer conv5_3_relu5_3_0_split
I0630 18:51:03.675149 32364 net.cpp:434] conv5_3_relu5_3_0_split <- conv5_3
I0630 18:51:03.675158 32364 net.cpp:408] conv5_3_relu5_3_0_split -> conv5_3_relu5_3_0_split_0
I0630 18:51:03.675166 32364 net.cpp:408] conv5_3_relu5_3_0_split -> conv5_3_relu5_3_0_split_1
I0630 18:51:03.675173 32364 net.cpp:408] conv5_3_relu5_3_0_split -> conv5_3_relu5_3_0_split_2
I0630 18:51:03.675241 32364 net.cpp:150] Setting up conv5_3_relu5_3_0_split
I0630 18:51:03.675246 32364 net.cpp:157] Top shape: 2 512 36 48 (1769472)
I0630 18:51:03.675248 32364 net.cpp:157] Top shape: 2 512 36 48 (1769472)
I0630 18:51:03.675251 32364 net.cpp:157] Top shape: 2 512 36 48 (1769472)
I0630 18:51:03.675254 32364 net.cpp:165] Memory required for data: 2227407592
I0630 18:51:03.675257 32364 layer_factory.hpp:77] Creating layer LFCN_2_3x5
I0630 18:51:03.675268 32364 net.cpp:100] Creating Layer LFCN_2_3x5
I0630 18:51:03.675271 32364 net.cpp:434] LFCN_2_3x5 <- conv5_3_relu5_3_0_split_0
I0630 18:51:03.675276 32364 net.cpp:408] LFCN_2_3x5 -> LFCN_2_3x5
I0630 18:51:03.678658 32364 net.cpp:150] Setting up LFCN_2_3x5
I0630 18:51:03.678674 32364 net.cpp:157] Top shape: 2 7 36 48 (24192)
I0630 18:51:03.678676 32364 net.cpp:165] Memory required for data: 2227504360
I0630 18:51:03.678694 32364 layer_factory.hpp:77] Creating layer LFCN_2_3x5_LFCN_2_3x5_0_split
I0630 18:51:03.678704 32364 net.cpp:100] Creating Layer LFCN_2_3x5_LFCN_2_3x5_0_split
I0630 18:51:03.678709 32364 net.cpp:434] LFCN_2_3x5_LFCN_2_3x5_0_split <- LFCN_2_3x5
I0630 18:51:03.678716 32364 net.cpp:408] LFCN_2_3x5_LFCN_2_3x5_0_split -> LFCN_2_3x5_LFCN_2_3x5_0_split_0
I0630 18:51:03.678725 32364 net.cpp:408] LFCN_2_3x5_LFCN_2_3x5_0_split -> LFCN_2_3x5_LFCN_2_3x5_0_split_1
I0630 18:51:03.678768 32364 net.cpp:150] Setting up LFCN_2_3x5_LFCN_2_3x5_0_split
I0630 18:51:03.678774 32364 net.cpp:157] Top shape: 2 7 36 48 (24192)
I0630 18:51:03.678777 32364 net.cpp:157] Top shape: 2 7 36 48 (24192)
I0630 18:51:03.678781 32364 net.cpp:165] Memory required for data: 2227697896
I0630 18:51:03.678783 32364 layer_factory.hpp:77] Creating layer detection_loss_2_3x5
I0630 18:51:03.678791 32364 net.cpp:100] Creating Layer detection_loss_2_3x5
I0630 18:51:03.678794 32364 net.cpp:434] detection_loss_2_3x5 <- LFCN_2_3x5_LFCN_2_3x5_0_split_0
I0630 18:51:03.678798 32364 net.cpp:434] detection_loss_2_3x5 <- label_2_3x5_data_3_split_0
I0630 18:51:03.678805 32364 net.cpp:408] detection_loss_2_3x5 -> loss_2_3x5
I0630 18:51:03.678813 32364 layer_factory.hpp:77] Creating layer detection_loss_2_3x5
I0630 18:51:03.679257 32364 net.cpp:150] Setting up detection_loss_2_3x5
I0630 18:51:03.679265 32364 net.cpp:157] Top shape: 1 1 1 2 (2)
I0630 18:51:03.679266 32364 net.cpp:160]     with loss weight 1
I0630 18:51:03.679275 32364 net.cpp:165] Memory required for data: 2227697904
I0630 18:51:03.679278 32364 layer_factory.hpp:77] Creating layer detection_accuracy_2_3x5
I0630 18:51:03.679286 32364 net.cpp:100] Creating Layer detection_accuracy_2_3x5
I0630 18:51:03.679289 32364 net.cpp:434] detection_accuracy_2_3x5 <- LFCN_2_3x5_LFCN_2_3x5_0_split_1
I0630 18:51:03.679292 32364 net.cpp:434] detection_accuracy_2_3x5 <- label_2_3x5_data_3_split_1
I0630 18:51:03.679299 32364 net.cpp:408] detection_accuracy_2_3x5 -> accuracy_2_3x5
I0630 18:51:03.679306 32364 net.cpp:408] detection_accuracy_2_3x5 -> boxiou_2_3x5
I0630 18:51:03.679358 32364 net.cpp:150] Setting up detection_accuracy_2_3x5
I0630 18:51:03.679363 32364 net.cpp:157] Top shape: 1 1 1 2 (2)
I0630 18:51:03.679365 32364 net.cpp:157] Top shape: 1 1 1 1 (1)
I0630 18:51:03.679368 32364 net.cpp:165] Memory required for data: 2227697916
I0630 18:51:03.679371 32364 layer_factory.hpp:77] Creating layer LFCN_2_5x7
I0630 18:51:03.679380 32364 net.cpp:100] Creating Layer LFCN_2_5x7
I0630 18:51:03.679385 32364 net.cpp:434] LFCN_2_5x7 <- conv5_3_relu5_3_0_split_1
I0630 18:51:03.679390 32364 net.cpp:408] LFCN_2_5x7 -> LFCN_2_5x7
I0630 18:51:03.681843 32364 net.cpp:150] Setting up LFCN_2_5x7
I0630 18:51:03.681855 32364 net.cpp:157] Top shape: 2 7 36 48 (24192)
I0630 18:51:03.681857 32364 net.cpp:165] Memory required for data: 2227794684
I0630 18:51:03.681866 32364 layer_factory.hpp:77] Creating layer LFCN_2_5x7_LFCN_2_5x7_0_split
I0630 18:51:03.681874 32364 net.cpp:100] Creating Layer LFCN_2_5x7_LFCN_2_5x7_0_split
I0630 18:51:03.681879 32364 net.cpp:434] LFCN_2_5x7_LFCN_2_5x7_0_split <- LFCN_2_5x7
I0630 18:51:03.681885 32364 net.cpp:408] LFCN_2_5x7_LFCN_2_5x7_0_split -> LFCN_2_5x7_LFCN_2_5x7_0_split_0
I0630 18:51:03.681892 32364 net.cpp:408] LFCN_2_5x7_LFCN_2_5x7_0_split -> LFCN_2_5x7_LFCN_2_5x7_0_split_1
I0630 18:51:03.681936 32364 net.cpp:150] Setting up LFCN_2_5x7_LFCN_2_5x7_0_split
I0630 18:51:03.681941 32364 net.cpp:157] Top shape: 2 7 36 48 (24192)
I0630 18:51:03.681944 32364 net.cpp:157] Top shape: 2 7 36 48 (24192)
I0630 18:51:03.681947 32364 net.cpp:165] Memory required for data: 2227988220
I0630 18:51:03.681951 32364 layer_factory.hpp:77] Creating layer detection_loss_2_5x7
I0630 18:51:03.681957 32364 net.cpp:100] Creating Layer detection_loss_2_5x7
I0630 18:51:03.681960 32364 net.cpp:434] detection_loss_2_5x7 <- LFCN_2_5x7_LFCN_2_5x7_0_split_0
I0630 18:51:03.681964 32364 net.cpp:434] detection_loss_2_5x7 <- label_2_5x7_data_4_split_0
I0630 18:51:03.681972 32364 net.cpp:408] detection_loss_2_5x7 -> loss_2_5x7
I0630 18:51:03.681980 32364 layer_factory.hpp:77] Creating layer detection_loss_2_5x7
I0630 18:51:03.682945 32364 net.cpp:150] Setting up detection_loss_2_5x7
I0630 18:51:03.682953 32364 net.cpp:157] Top shape: 1 1 1 2 (2)
I0630 18:51:03.682955 32364 net.cpp:160]     with loss weight 1
I0630 18:51:03.682965 32364 net.cpp:165] Memory required for data: 2227988228
I0630 18:51:03.682967 32364 layer_factory.hpp:77] Creating layer detection_accuracy_2_5x7
I0630 18:51:03.682976 32364 net.cpp:100] Creating Layer detection_accuracy_2_5x7
I0630 18:51:03.682978 32364 net.cpp:434] detection_accuracy_2_5x7 <- LFCN_2_5x7_LFCN_2_5x7_0_split_1
I0630 18:51:03.682982 32364 net.cpp:434] detection_accuracy_2_5x7 <- label_2_5x7_data_4_split_1
I0630 18:51:03.682991 32364 net.cpp:408] detection_accuracy_2_5x7 -> accuracy_2_5x7
I0630 18:51:03.682998 32364 net.cpp:408] detection_accuracy_2_5x7 -> boxiou_2_5x7
I0630 18:51:03.683039 32364 net.cpp:150] Setting up detection_accuracy_2_5x7
I0630 18:51:03.683043 32364 net.cpp:157] Top shape: 1 1 1 2 (2)
I0630 18:51:03.683046 32364 net.cpp:157] Top shape: 1 1 1 1 (1)
I0630 18:51:03.683049 32364 net.cpp:165] Memory required for data: 2227988240
I0630 18:51:03.683051 32364 layer_factory.hpp:77] Creating layer pool5
I0630 18:51:03.683058 32364 net.cpp:100] Creating Layer pool5
I0630 18:51:03.683063 32364 net.cpp:434] pool5 <- conv5_3_relu5_3_0_split_2
I0630 18:51:03.683068 32364 net.cpp:408] pool5 -> pool5
I0630 18:51:03.683104 32364 net.cpp:150] Setting up pool5
I0630 18:51:03.683109 32364 net.cpp:157] Top shape: 2 512 18 24 (442368)
I0630 18:51:03.683111 32364 net.cpp:165] Memory required for data: 2229757712
I0630 18:51:03.683115 32364 layer_factory.hpp:77] Creating layer conv6_1
I0630 18:51:03.683123 32364 net.cpp:100] Creating Layer conv6_1
I0630 18:51:03.683126 32364 net.cpp:434] conv6_1 <- pool5
I0630 18:51:03.683130 32364 net.cpp:408] conv6_1 -> conv6_1
I0630 18:51:03.703680 32364 net.cpp:150] Setting up conv6_1
I0630 18:51:03.703701 32364 net.cpp:157] Top shape: 2 512 18 24 (442368)
I0630 18:51:03.703703 32364 net.cpp:165] Memory required for data: 2231527184
I0630 18:51:03.703711 32364 layer_factory.hpp:77] Creating layer relu6_1
I0630 18:51:03.703722 32364 net.cpp:100] Creating Layer relu6_1
I0630 18:51:03.703727 32364 net.cpp:434] relu6_1 <- conv6_1
I0630 18:51:03.703732 32364 net.cpp:395] relu6_1 -> conv6_1 (in-place)
I0630 18:51:03.704057 32364 net.cpp:150] Setting up relu6_1
I0630 18:51:03.704066 32364 net.cpp:157] Top shape: 2 512 18 24 (442368)
I0630 18:51:03.704067 32364 net.cpp:165] Memory required for data: 2233296656
I0630 18:51:03.704071 32364 layer_factory.hpp:77] Creating layer conv6_1_relu6_1_0_split
I0630 18:51:03.704075 32364 net.cpp:100] Creating Layer conv6_1_relu6_1_0_split
I0630 18:51:03.704079 32364 net.cpp:434] conv6_1_relu6_1_0_split <- conv6_1
I0630 18:51:03.704087 32364 net.cpp:408] conv6_1_relu6_1_0_split -> conv6_1_relu6_1_0_split_0
I0630 18:51:03.704094 32364 net.cpp:408] conv6_1_relu6_1_0_split -> conv6_1_relu6_1_0_split_1
I0630 18:51:03.704100 32364 net.cpp:408] conv6_1_relu6_1_0_split -> conv6_1_relu6_1_0_split_2
I0630 18:51:03.704180 32364 net.cpp:150] Setting up conv6_1_relu6_1_0_split
I0630 18:51:03.704185 32364 net.cpp:157] Top shape: 2 512 18 24 (442368)
I0630 18:51:03.704190 32364 net.cpp:157] Top shape: 2 512 18 24 (442368)
I0630 18:51:03.704195 32364 net.cpp:157] Top shape: 2 512 18 24 (442368)
I0630 18:51:03.704196 32364 net.cpp:165] Memory required for data: 2238605072
I0630 18:51:03.704200 32364 layer_factory.hpp:77] Creating layer LFCN_3_3x5
I0630 18:51:03.704210 32364 net.cpp:100] Creating Layer LFCN_3_3x5
I0630 18:51:03.704212 32364 net.cpp:434] LFCN_3_3x5 <- conv6_1_relu6_1_0_split_0
I0630 18:51:03.704219 32364 net.cpp:408] LFCN_3_3x5 -> LFCN_3_3x5
I0630 18:51:03.707594 32364 net.cpp:150] Setting up LFCN_3_3x5
I0630 18:51:03.707715 32364 net.cpp:157] Top shape: 2 7 18 24 (6048)
I0630 18:51:03.707765 32364 net.cpp:165] Memory required for data: 2238629264
I0630 18:51:03.707816 32364 layer_factory.hpp:77] Creating layer LFCN_3_3x5_LFCN_3_3x5_0_split
I0630 18:51:03.707883 32364 net.cpp:100] Creating Layer LFCN_3_3x5_LFCN_3_3x5_0_split
I0630 18:51:03.707931 32364 net.cpp:434] LFCN_3_3x5_LFCN_3_3x5_0_split <- LFCN_3_3x5
I0630 18:51:03.707979 32364 net.cpp:408] LFCN_3_3x5_LFCN_3_3x5_0_split -> LFCN_3_3x5_LFCN_3_3x5_0_split_0
I0630 18:51:03.708034 32364 net.cpp:408] LFCN_3_3x5_LFCN_3_3x5_0_split -> LFCN_3_3x5_LFCN_3_3x5_0_split_1
I0630 18:51:03.708153 32364 net.cpp:150] Setting up LFCN_3_3x5_LFCN_3_3x5_0_split
I0630 18:51:03.708199 32364 net.cpp:157] Top shape: 2 7 18 24 (6048)
I0630 18:51:03.708240 32364 net.cpp:157] Top shape: 2 7 18 24 (6048)
I0630 18:51:03.708278 32364 net.cpp:165] Memory required for data: 2238677648
I0630 18:51:03.708322 32364 layer_factory.hpp:77] Creating layer detection_loss_3_3x5
I0630 18:51:03.708370 32364 net.cpp:100] Creating Layer detection_loss_3_3x5
I0630 18:51:03.708412 32364 net.cpp:434] detection_loss_3_3x5 <- LFCN_3_3x5_LFCN_3_3x5_0_split_0
I0630 18:51:03.708458 32364 net.cpp:434] detection_loss_3_3x5 <- label_3_3x5_data_5_split_0
I0630 18:51:03.708506 32364 net.cpp:408] detection_loss_3_3x5 -> loss_3_3x5
I0630 18:51:03.708556 32364 layer_factory.hpp:77] Creating layer detection_loss_3_3x5
I0630 18:51:03.709163 32364 net.cpp:150] Setting up detection_loss_3_3x5
I0630 18:51:03.709177 32364 net.cpp:157] Top shape: 1 1 1 2 (2)
I0630 18:51:03.709180 32364 net.cpp:160]     with loss weight 1
I0630 18:51:03.709195 32364 net.cpp:165] Memory required for data: 2238677656
I0630 18:51:03.709198 32364 layer_factory.hpp:77] Creating layer detection_accuracy_3_3x5
I0630 18:51:03.709206 32364 net.cpp:100] Creating Layer detection_accuracy_3_3x5
I0630 18:51:03.709210 32364 net.cpp:434] detection_accuracy_3_3x5 <- LFCN_3_3x5_LFCN_3_3x5_0_split_1
I0630 18:51:03.709216 32364 net.cpp:434] detection_accuracy_3_3x5 <- label_3_3x5_data_5_split_1
I0630 18:51:03.709223 32364 net.cpp:408] detection_accuracy_3_3x5 -> accuracy_3_3x5
I0630 18:51:03.709241 32364 net.cpp:408] detection_accuracy_3_3x5 -> boxiou_3_3x5
I0630 18:51:03.709296 32364 net.cpp:150] Setting up detection_accuracy_3_3x5
I0630 18:51:03.709301 32364 net.cpp:157] Top shape: 1 1 1 2 (2)
I0630 18:51:03.709306 32364 net.cpp:157] Top shape: 1 1 1 1 (1)
I0630 18:51:03.709307 32364 net.cpp:165] Memory required for data: 2238677668
I0630 18:51:03.709311 32364 layer_factory.hpp:77] Creating layer LFCN_3_5x7
I0630 18:51:03.709321 32364 net.cpp:100] Creating Layer LFCN_3_5x7
I0630 18:51:03.709326 32364 net.cpp:434] LFCN_3_5x7 <- conv6_1_relu6_1_0_split_1
I0630 18:51:03.709332 32364 net.cpp:408] LFCN_3_5x7 -> LFCN_3_5x7
I0630 18:51:03.712460 32364 net.cpp:150] Setting up LFCN_3_5x7
I0630 18:51:03.712476 32364 net.cpp:157] Top shape: 2 7 18 24 (6048)
I0630 18:51:03.712479 32364 net.cpp:165] Memory required for data: 2238701860
I0630 18:51:03.712488 32364 layer_factory.hpp:77] Creating layer LFCN_3_5x7_LFCN_3_5x7_0_split
I0630 18:51:03.712496 32364 net.cpp:100] Creating Layer LFCN_3_5x7_LFCN_3_5x7_0_split
I0630 18:51:03.712502 32364 net.cpp:434] LFCN_3_5x7_LFCN_3_5x7_0_split <- LFCN_3_5x7
I0630 18:51:03.712512 32364 net.cpp:408] LFCN_3_5x7_LFCN_3_5x7_0_split -> LFCN_3_5x7_LFCN_3_5x7_0_split_0
I0630 18:51:03.712522 32364 net.cpp:408] LFCN_3_5x7_LFCN_3_5x7_0_split -> LFCN_3_5x7_LFCN_3_5x7_0_split_1
I0630 18:51:03.712574 32364 net.cpp:150] Setting up LFCN_3_5x7_LFCN_3_5x7_0_split
I0630 18:51:03.712579 32364 net.cpp:157] Top shape: 2 7 18 24 (6048)
I0630 18:51:03.712582 32364 net.cpp:157] Top shape: 2 7 18 24 (6048)
I0630 18:51:03.712585 32364 net.cpp:165] Memory required for data: 2238750244
I0630 18:51:03.712589 32364 layer_factory.hpp:77] Creating layer detection_loss_3_5x7
I0630 18:51:03.712596 32364 net.cpp:100] Creating Layer detection_loss_3_5x7
I0630 18:51:03.712600 32364 net.cpp:434] detection_loss_3_5x7 <- LFCN_3_5x7_LFCN_3_5x7_0_split_0
I0630 18:51:03.712605 32364 net.cpp:434] detection_loss_3_5x7 <- label_3_5x7_data_6_split_0
I0630 18:51:03.712612 32364 net.cpp:408] detection_loss_3_5x7 -> loss_3_5x7
I0630 18:51:03.712621 32364 layer_factory.hpp:77] Creating layer detection_loss_3_5x7
I0630 18:51:03.713541 32364 net.cpp:150] Setting up detection_loss_3_5x7
I0630 18:51:03.713551 32364 net.cpp:157] Top shape: 1 1 1 2 (2)
I0630 18:51:03.713554 32364 net.cpp:160]     with loss weight 1
I0630 18:51:03.713562 32364 net.cpp:165] Memory required for data: 2238750252
I0630 18:51:03.713567 32364 layer_factory.hpp:77] Creating layer detection_accuracy_3_5x7
I0630 18:51:03.713573 32364 net.cpp:100] Creating Layer detection_accuracy_3_5x7
I0630 18:51:03.713577 32364 net.cpp:434] detection_accuracy_3_5x7 <- LFCN_3_5x7_LFCN_3_5x7_0_split_1
I0630 18:51:03.713582 32364 net.cpp:434] detection_accuracy_3_5x7 <- label_3_5x7_data_6_split_1
I0630 18:51:03.713590 32364 net.cpp:408] detection_accuracy_3_5x7 -> accuracy_3_5x7
I0630 18:51:03.713599 32364 net.cpp:408] detection_accuracy_3_5x7 -> boxiou_3_5x7
I0630 18:51:03.713646 32364 net.cpp:150] Setting up detection_accuracy_3_5x7
I0630 18:51:03.713651 32364 net.cpp:157] Top shape: 1 1 1 2 (2)
I0630 18:51:03.713655 32364 net.cpp:157] Top shape: 1 1 1 1 (1)
I0630 18:51:03.713657 32364 net.cpp:165] Memory required for data: 2238750264
I0630 18:51:03.713660 32364 layer_factory.hpp:77] Creating layer pool6
I0630 18:51:03.713666 32364 net.cpp:100] Creating Layer pool6
I0630 18:51:03.713670 32364 net.cpp:434] pool6 <- conv6_1_relu6_1_0_split_2
I0630 18:51:03.713677 32364 net.cpp:408] pool6 -> pool6
I0630 18:51:03.713717 32364 net.cpp:150] Setting up pool6
I0630 18:51:03.713723 32364 net.cpp:157] Top shape: 2 512 9 12 (110592)
I0630 18:51:03.713726 32364 net.cpp:165] Memory required for data: 2239192632
I0630 18:51:03.713729 32364 layer_factory.hpp:77] Creating layer LFCN_4_3x5
I0630 18:51:03.713740 32364 net.cpp:100] Creating Layer LFCN_4_3x5
I0630 18:51:03.713743 32364 net.cpp:434] LFCN_4_3x5 <- pool6
I0630 18:51:03.713749 32364 net.cpp:408] LFCN_4_3x5 -> LFCN_4_3x5
I0630 18:51:03.716068 32364 net.cpp:150] Setting up LFCN_4_3x5
I0630 18:51:03.716078 32364 net.cpp:157] Top shape: 2 7 9 12 (1512)
I0630 18:51:03.716080 32364 net.cpp:165] Memory required for data: 2239198680
I0630 18:51:03.716089 32364 layer_factory.hpp:77] Creating layer LFCN_4_3x5_LFCN_4_3x5_0_split
I0630 18:51:03.716094 32364 net.cpp:100] Creating Layer LFCN_4_3x5_LFCN_4_3x5_0_split
I0630 18:51:03.716100 32364 net.cpp:434] LFCN_4_3x5_LFCN_4_3x5_0_split <- LFCN_4_3x5
I0630 18:51:03.716109 32364 net.cpp:408] LFCN_4_3x5_LFCN_4_3x5_0_split -> LFCN_4_3x5_LFCN_4_3x5_0_split_0
I0630 18:51:03.716117 32364 net.cpp:408] LFCN_4_3x5_LFCN_4_3x5_0_split -> LFCN_4_3x5_LFCN_4_3x5_0_split_1
I0630 18:51:03.716171 32364 net.cpp:150] Setting up LFCN_4_3x5_LFCN_4_3x5_0_split
I0630 18:51:03.716176 32364 net.cpp:157] Top shape: 2 7 9 12 (1512)
I0630 18:51:03.716179 32364 net.cpp:157] Top shape: 2 7 9 12 (1512)
I0630 18:51:03.716181 32364 net.cpp:165] Memory required for data: 2239210776
I0630 18:51:03.716184 32364 layer_factory.hpp:77] Creating layer detection_loss_4_3x5
I0630 18:51:03.716192 32364 net.cpp:100] Creating Layer detection_loss_4_3x5
I0630 18:51:03.716194 32364 net.cpp:434] detection_loss_4_3x5 <- LFCN_4_3x5_LFCN_4_3x5_0_split_0
I0630 18:51:03.716199 32364 net.cpp:434] detection_loss_4_3x5 <- label_4_3x5_data_7_split_0
I0630 18:51:03.716205 32364 net.cpp:408] detection_loss_4_3x5 -> loss_4_3x5
I0630 18:51:03.716217 32364 layer_factory.hpp:77] Creating layer detection_loss_4_3x5
I0630 18:51:03.717123 32364 net.cpp:150] Setting up detection_loss_4_3x5
I0630 18:51:03.717133 32364 net.cpp:157] Top shape: 1 1 1 2 (2)
I0630 18:51:03.717136 32364 net.cpp:160]     with loss weight 1
I0630 18:51:03.717144 32364 net.cpp:165] Memory required for data: 2239210784
I0630 18:51:03.717149 32364 layer_factory.hpp:77] Creating layer detection_accuracy_4_3x5
I0630 18:51:03.717154 32364 net.cpp:100] Creating Layer detection_accuracy_4_3x5
I0630 18:51:03.717159 32364 net.cpp:434] detection_accuracy_4_3x5 <- LFCN_4_3x5_LFCN_4_3x5_0_split_1
I0630 18:51:03.717164 32364 net.cpp:434] detection_accuracy_4_3x5 <- label_4_3x5_data_7_split_1
I0630 18:51:03.717170 32364 net.cpp:408] detection_accuracy_4_3x5 -> accuracy_4_3x5
I0630 18:51:03.717178 32364 net.cpp:408] detection_accuracy_4_3x5 -> boxiou_4_3x5
I0630 18:51:03.717224 32364 net.cpp:150] Setting up detection_accuracy_4_3x5
I0630 18:51:03.717237 32364 net.cpp:157] Top shape: 1 1 1 2 (2)
I0630 18:51:03.717241 32364 net.cpp:157] Top shape: 1 1 1 1 (1)
I0630 18:51:03.717243 32364 net.cpp:165] Memory required for data: 2239210796
I0630 18:51:03.717247 32364 net.cpp:228] detection_accuracy_4_3x5 does not need backward computation.
I0630 18:51:03.717250 32364 net.cpp:226] detection_loss_4_3x5 needs backward computation.
I0630 18:51:03.717254 32364 net.cpp:226] LFCN_4_3x5_LFCN_4_3x5_0_split needs backward computation.
I0630 18:51:03.717257 32364 net.cpp:226] LFCN_4_3x5 needs backward computation.
…
